results/training/llama-3-8b_h100_tp1/model_tp1_H64_biGRU.pt (torch, 116621 bytes, 10 tensors)

gru.weight_ih_l0 f4 [192, 6]
000000 80 18 f1 3d 33 69 94 3a 95 35 72 bd 54 0a 39 3c
       0.11772251 0.0011322856 -0.05913313 0.011293966
000010 27 c0 eb 3d b0 0d 12 bd b0 40 c0 3c 5c db 0b 3c
       0.115112595 -0.035657585 0.023468345 0.008536186
000020 88 75 4e 3d 97 5a e8 3d 80 0b 97 bd 94 65 c1 bd
       0.050405055 0.11345404 -0.0737524 -0.094432026
000030 52 cc 4c bd ac 65 4b 3d 47 ce 68 3d 18 c9 30 3e
       -0.049999543 0.04965751 0.056837346 0.17264211
000040 80 0e 22 3e 23 1a 54 3d fc 35 14 3e 56 e0 33 3e
       0.15825844 0.05178274 0.14473718 0.17566046
000050 c5 be 14 3e fa a2 56 3d 6e 48 1b 3e ad 9a 4b bd
       0.14525898 0.05240152 0.15164348 -0.049708057
000060 fe 3c cf 3d 94 1f d4 3d a6 f8 cd 3d 6b 11 a3 3d
       0.10119055 0.103575855 0.100571916 0.079623066
000070 34 9a b6 3d ad 42 f0 bb 31 74 0f 3e 4c 06 21 3e
       0.08916131 -0.007332167 0.14009167 0.15725058
000080 d4 5f a3 3d 1e b7 ff 3d 25 92 c5 3d 4c 78 ec bd
       0.07977262 0.12486099 0.096470155 -0.11546382
000090 8f 50 30 bc ce 50 53 bd 86 8f 99 bc 1c dd 87 bb
       -0.010761394 -0.051590733 -0.018745195 -0.0041462313
0000a0 6f 1d 8b 3d 82 ac 5d bd 8d c9 10 3e cb 35 93 bd
       0.067927234 -0.054119594 0.14139386 -0.071879946
0000b0 e7 b6 0d 3d 1b 58 cf 3d 8d a5 d1 3d 36 dd 1a 3c
       0.034598257 0.10124227 0.102366544 0.009452155
0000c0 f2 47 0f 3c 86 42 04 bd e6 ef fc bd 3b af 9c bd
       0.00874518 -0.032290004 -0.123504445 -0.0765061
0000d0 9f 2f c9 3c 7a 22 23 bd 7f 8c f6 3d 91 ac 03 3e
       0.02455884 -0.0398278 0.12038516 0.12858798
0000e0 a2 54 c9 3d 59 5a 3d bd f9 32 a8 bb cd 24 2d bd
       0.098305956 -0.04622874 -0.0051330295 -0.042271424
0000f0 7d 24 c8 bd aa df ca bc f1 f8 fa bd 93 f5 b2 bd
       -0.097725846 -0.024764854 -0.12254513 -0.08738246
000100 a8 58 b1 bd 75 68 8e bd dc 0f 3a 3d f8 d7 a4 3d
       -0.08659488 -0.06953517 0.04542528 0.08049005
000110 08 48 f1 3d 39 73 fa 3c 61 c3 f8 3b 7a 8c 85 bd
       0.11781317 0.03057252 0.0075916504 -0.065209344
000120 80 36 ce bd 9c 10 fe 3c 22 59 bb bd c9 12 da 3d
       -0.10068989 0.03101378 -0.0914786 0.10648114
000130 6e 40 8c 3d 1a 51 d6 bd a6 8f 73 3d 23 8e 7e bd
       0.068482265 -0.10464688 0.059463166 -0.06214727
000140 69 1e 44 bd a2 39 ef 3d cd cd 6a bb ec 9a ae 3d
       -0.047880564 0.116809145 -0.0035828233 0.08525643
000150 b0 c0 7b 3c 5c 0d 34 bd c7 47 94 bd 65 b3 fc bb
       0.0153657645 -0.043958053 -0.07240253 -0.007711815
000160 03 3b c6 3d bf 84 ea 3d a1 fe 42 3d 0b ff ca bc
       0.09679224 0.114511006 0.047606114 -0.024779817
000170 4a 06 75 bc cf cd 31 3d b6 7c 6e 3d 40 eb d9 3d
       -0.014955113 0.043409165 0.058224402 0.106405735
000180 36 f1 a4 bd 2c 56 86 bd 6b c6 3b bd 0f e3 0e 3e
       -0.0805382 -0.06559405 -0.045843523 0.13953803
000190 75 e1 37 bd 9c 14 fe 3b 84 da a4 3d e9 ea 95 bd
       -0.044892747 0.0077539217 0.08049491 -0.07320196
0001a0 7a 8f bf 3d c9 19 ce bd 3b d4 59 bc 3e 92 b3 3d
       0.09353538 -0.10063512 -0.013295229 0.08768128
0001b0 1f cc ec bc 71 fd 02 3c 8c 58 a8 3b 89 14 4a bd
       -0.028905926 0.007994995 0.0051375087 -0.04933599
0001c0 fa a1 b5 3d ae 31 df bc 12 20 f8 3d 71 26 0d 3e
       0.08868785 -0.027245369 0.12115492 0.13784195
0001d0 f7 ba ad 3c 80 8c c0 3d e1 55 78 bd cb 9c ad bd
       0.021207316 0.09401798 -0.060628776 -0.084771715
0001e0 4f bb 8d bc 83 8a 44 bc 9f 59 84 bc dc bd 26 3d
       -0.01730123 -0.011995914 -0.016156016 0.040708408
0001f0 80 4a 12 3e cf 6c e3 3d 59 c7 14 3e af b1 b2 bd
       0.14286232 0.11104738 0.1452917 -0.08725297
000200 30 78 f6 bb 37 01 9d 3d 6f c4 cd bd 1c 38 30 bd
       -0.0075216517 0.07666247 -0.10047232 -0.04302226
000210 71 d1 9a bd 32 38 57 3d 37 a7 09 3e 69 b2 7c bd
       -0.07559479 0.052543826 0.13442694 -0.061693583
000220 7e 17 6a 3c ad 30 f9 bd 71 f2 e9 3d 33 b1 52 3d
       0.014287828 -0.12167487 0.11423195 0.05143852
000230 55 6e d9 3d c8 0b 8f bd 75 01 94 bd 8b a0 6b bd
       0.10616747 -0.06984669 -0.072268404 -0.057526153
000240 af 94 79 3d 89 07 89 3d 5c 16 71 3c 25 e4 1d 3e
       0.06093281 0.0669089 0.014714804 0.15419061
000250 7b 49 e3 3b 8c 52 66 bd a0 04 b5 3d d4 4e 96 3d
       0.00693625 -0.056231067 0.08838773 0.07339254
000260 4f b4 d9 bd 46 6d c0 3d b1 9c ab 3d 49 2d 9b bd
       -0.10630094 0.09395842 0.08379496 -0.07576997
000270 12 4e 29 3e b4 08 06 bb 78 69 36 3d 30 a1 0d bd
       0.16533688 -0.0020451965 0.044534177 -0.03457755
000280 ee b7 7d bd af db b0 3c 63 9c 02 be 6d b0 08 be
       -0.061942987 0.021589128 -0.1275497 -0.13348551
000290 e2 98 8c 3b ea 1e 55 bd 75 c9 e5 bc 66 73 40 bb
       0.004290686 -0.052031435 -0.028050164 -0.0029365658
0002a0 ca 46 5d bb d4 c6 e6 bb d6 a3 78 bd 8b 48 ae 3d
       -0.0033764117 -0.007042745 -0.06070312 0.0850993
0002b0 66 dc 38 3d 15 f2 08 3d 50 47 b2 bc 4e 20 24 bd
       0.045132063 0.033433992 -0.02176252 -0.04006987
0002c0 3c 43 60 bd bc f4 e8 3d f1 46 ff 3d e4 eb c8 3c
       -0.05475162 0.113748044 0.12464703 0.024526544
0002d0 c4 49 4b be 89 44 0e be 33 35 5b be 10 ec 41 bd
       -0.19852358 -0.13893332 -0.21407013 -0.047344267
0002e0 4e a5 46 bd 31 93 16 3b a8 ad c9 3d fc 7e d4 3b
       -0.04849749 0.0022975917 0.098475754 0.0064848643
0002f0 c4 6d c3 3d 0f 50 5e 3d ea af c3 bc 31 20 82 bc
       0.095424205 0.05427557 -0.023887593 -0.01588449
000300 75 ea 39 bd 1b 8e 8f bc df 63 db 3c 03 38 fe bb
       -0.04538961 -0.017523816 0.02678102 -0.007758142
000310 7a 26 8c bd 08 75 e7 bc 77 65 a7 3b 81 53 05 3d
       -0.06843276 -0.028254047 0.005108531 0.03255034
000320 58 3f 27 bd 0d cc 1d 3d 9c be 61 3d e8 a7 e2 bc
       -0.040831894 0.038524676 0.05511342 -0.027667955
000330 f1 a9 b9 3c e3 f3 63 bd 70 dc 72 b9 17 d1 1c 3e
       0.022664042 -0.05565251 -0.00023161038 0.15314136
000340 0f 1b 82 bd 7f 81 b5 bd 06 03 c0 3d 24 af cd bd
       -0.06352817 -0.0886259 0.09375577 -0.10043171
000350 10 53 6a bb 3d 7a 19 3d df 14 0b bc a4 d2 b8 bd
       -0.0035755076 0.03747009 -0.008488863 -0.090245515
000360 51 a9 2f 3e d9 f7 ee 3d dd c2 c9 bc f9 8f cd 3d
       0.17154433 0.11668367 -0.02462905 0.10037226
000370 04 f0 fa 3a 05 3d 0e 3d 49 a7 93 bc a0 48 05 3d
       0.0019145017 0.03472616 -0.018024104 0.032539964
000380 be 4d 58 3d e8 ad 85 bd 99 b7 92 3d 2e 09 22 3d
       0.052808516 -0.065273106 0.07163925 0.039559536
000390 54 5d 4c bd da 86 26 3d 42 c6 81 bc 48 d3 be 3d
       -0.049893692 0.04065595 -0.015841607 0.093176425
0003a0 c0 97 4e 3d 9f ec e8 bd 9d 23 c8 bd c2 1e 46 3c
       0.05043769 -0.11373257 -0.09772418 0.012092294
0003b0 a1 7c 9b bd 96 b5 aa 3d 60 68 f1 3d 22 a2 b4 bd
       -0.075921305 0.08335416 0.11787486 -0.08819987
0003c0 35 92 0d 3e 9f 24 73 3d 67 bc 99 3d 29 00 02 bd
       0.13825305 0.059361096 0.07506638 -0.031738434
0003d0 3f c4 ed 3d 6c c4 07 3d b3 43 10 3e c2 80 94 bd
       0.116096966 0.033146307 0.14088325 -0.07251121
0003e0 3d a1 a4 bb c0 e9 e6 3d dc 27 05 3e 24 33 78 bd
       -0.005024104 0.11275053 0.13003486 -0.060595647
0003f0 fc ce 0b be d8 6e 05 be cd a2 f7 bc e0 83 bd bd
       -0.13653177 -0.13030565 -0.030228997 -0.09253669

gru.weight_hh_l0 f4 [192, 64]
000000 6c 84 b1 3d c0 ea 33 bc d0 90 b2 3d 36 fb 90 3d
       0.086678356 -0.010981262 0.08719027 0.07079165
000010 1f f8 8e bc c7 00 ec 3d 4e ca 9b 3d a9 7c 98 3a
       -0.017452298 0.11523586 0.07606946 0.0011633831
000020 28 59 9d 3d ee dc 85 bd bb 97 30 bd bc e6 14 3d
       0.07683021 -0.065362796 -0.04311345 0.036352858
000030 87 a7 a8 bd 96 11 28 3c 18 a2 69 bd bd 92 29 bd
       -0.08235078 0.010258099 -0.05703935 -0.041399706
000040 08 06 dc bd 39 a3 db 3c 3c 24 9b 3a 20 e7 80 bd
       -0.10743338 0.026811229 0.001183636 -0.062940836
000050 3a f8 09 3d d1 ae b2 3d 02 7d 42 bc d4 0d b3 3d
       0.033683993 0.0872475 -0.0118706245 0.08742872
000060 df ae ce 3c 2a a6 3a 3d 85 af eb bc 14 43 6c bd
       0.02522987 0.045568623 -0.028770218 -0.05768116
000070 af 39 cb 3d 89 3e 0e be 3f 48 dc bd 4f fc a2 bd
       0.09923112 -0.13891043 -0.10755967 -0.0795828
000080 c5 b6 ec 3d 23 d5 8c 3d 2a b8 27 3d 2c b7 14 be
       0.11558298 0.0687659 0.040947117 -0.14523
000090 4a 6f bf bc 78 00 c3 bd 30 9c a5 3d 2d 9b c2 3d
       -0.023368496 -0.09521574 0.08086431 0.09502254
0000a0 c3 5e 8f 3d 9f c0 08 bd a9 b0 05 3e 6a 64 77 3d
       0.07000496 -0.033386823 0.13055672 0.060398497
0000b0 3c 0c 21 3e 2f c7 68 bd d1 27 32 3d 18 06 3c 3d
       0.15727323 -0.05683058 0.043495003 0.04590425
0000c0 6c 05 dd 3c 51 0e b5 3c 91 47 60 3c 42 cc 8e 3d
       0.026980124 0.022101553 0.013688938 0.06972553
0000d0 74 9c cc 3c 7c 2f ca bc 0a 7d 8d bd 34 b4 59 bc
       0.024976946 -0.024680845 -0.06908615 -0.013287593
0000e0 12 9c 54 bd 83 e3 85 3d d3 25 9a 3d 05 bd 59 bd
       -0.051906653 0.06537535 0.07526746 -0.05315878
0000f0 4d 06 b5 bc 87 5b 01 38 77 e6 73 3d 78 6f b4 3d
       -0.022097731 3.084124e-05 0.05954596 0.088103235
000100 fe 7f 62 3d f7 d2 af 3d 4a ed 8f 3d 35 6d ea 3c
       0.055297844 0.0858516 0.07027681 0.028616527
000110 07 a2 4c bd bf 8d 5a 3d cc ec de 3d 19 23 1e 3e
       -0.04995921 0.053357836 0.10885009 0.15443076
000120 71 9b 81 3c cf 96 b5 3d c1 02 b2 3c 4d dc d2 bc
       0.01582119 0.08866655 0.021729829 -0.025739813
000130 c6 ea 29 bd 7f 3f b9 3d 55 20 21 bd 9a ea 13 3d
       -0.041483663 0.09045314 -0.039337475 0.036112405
000140 d3 ac 00 be 8b b7 e4 bd e4 64 93 bb 1c be 22 3d
       -0.12565927 -0.111678205 -0.004498111 0.039732084
000150 5b a8 5b 3d a0 43 d9 3a de 9b d5 bd bc 63 33 bd
       0.053627353 0.001657594 -0.1043012 -0.043796286
000160 ee 68 6d bd 61 5a 50 3d d6 50 8c 3d 16 32 dc 3d
       -0.057961397 0.050867442 0.06851356 0.10751741
000170 09 bf 0b be 83 ed 31 3d 2c c9 bb 3d 66 20 08 be
       -0.13647093 0.0434394 0.0916923 -0.13293609
000180 58 e4 d1 bc 88 1f 75 bb 04 24 d2 bc 32 58 20 be
       -0.025621578 -0.0037402827 -0.02565194 -0.15658644
000190 c8 9b a9 bd 2c 61 32 3d 69 5c 18 3e 9c 1c 15 3e
       -0.08281666 0.0435497 0.14879002 0.14561695
0001a0 5b cf 5f bd db bc 76 bc b9 df 23 3d f6 b9 ec 3d
       -0.05464111 -0.015059675 0.04000828 0.11558907
0001b0 3e 6b de 3c 47 e2 08 be be e3 7f 3d 81 9e c8 bc
       0.027150746 -0.13367568 0.06247305 -0.024489643
0001c0 de d0 c0 3d bd 64 c9 3d 4a 03 8b bd d8 69 e0 3d
       0.09414838 0.098336674 -0.06787737 0.10957688
0001d0 bc 2d 5e bd 76 21 d6 3d 71 4d 83 3d 59 f4 f6 bb
       -0.054242834 0.10455601 0.06411255 -0.0075364527
0001e0 47 3a ce bd 83 8b 60 3c 84 16 5b bc b9 81 37 bd
       -0.10069709 0.013705137 -0.013372067 -0.044801448
0001f0 d6 d7 4c 3d 8e a8 ad 3c 6e 19 e5 3b 59 0c 89 3d
       0.050010525 0.021198537 0.006991557 0.06691808
000200 95 54 9b 3d 6f 43 de 3d fb c1 7f 3d 09 ee ce bd
       0.07584492 0.10852706 0.062440854 -0.10103995
000210 45 83 79 bd 16 f3 bb 3d 05 08 18 bd 2a d4 81 bb
       -0.060916204 0.09177224 -0.037117023 -0.0039620595
000220 9e ab 2c bd 11 90 60 bd 0f ab 5a 3d ac 2a ba bc
       -0.042155854 -0.054824892 0.05338579 -0.022725426
000230 da d2 c9 bd 88 cd b8 bd 21 49 62 3d 24 f8 50 bd
       -0.0985467 -0.09023577 0.055245522 -0.051017895
000240 03 07 8c bd f9 b8 57 bd ef 88 de bc 60 08 15 bc
       -0.06837275 -0.052666638 -0.027164904 -0.009096235
000250 9c f3 ac bd d8 8b da 3c 08 45 c8 bb 87 3a 9e bd
       -0.08444902 0.02667801 -0.006111745 -0.07726007
000260 7a 74 69 3d 8a 1c aa bd 7c df 43 3d 60 70 f0 bc
       0.056995846 -0.08306225 0.047820553 -0.02935046
000270 fa 2c 4f 3d 69 3c 5b bd 44 61 61 bc ee 6f 87 3d
       0.050580002 -0.05352441 -0.0137561 0.06613146
000280 9f 4f 1c 3d 6f b9 5f bd 1e cc c3 3d 7b 67 c4 bd
       0.03816187 -0.054620203 0.09560417 -0.0959005
000290 cc 1a da bd 13 f8 02 bd 49 36 ff 3d d2 e8 a4 bc
       -0.10649642 -0.031974863 0.12461526 -0.020130549
0002a0 df 2f ed bd 06 b6 24 bd 2a 11 8e bd 4e 65 9c bd
       -0.11581396 -0.040212654 -0.069368675 -0.0763651
0002b0 1e 83 99 3d fc 9e 67 3d e1 1b c7 3d e5 46 cc bd
       0.07495712 0.056548104 0.09722114 -0.099744596
0002c0 ca 43 0d 3e 34 c3 a6 bd 69 90 9e 3d c1 f7 16 bd
       0.1379539 -0.08142701 0.07742388 -0.03685737
0002d0 ff 36 0f be 30 4a 24 3d 74 24 93 3d 16 70 c2 3d
       -0.13985823 0.040109813 0.07184687 0.09494035
0002e0 12 44 04 3e 5a 4d 83 3d 71 a6 47 bd 50 fe e4 3d
       0.12916592 0.06411238 -0.048742715 0.11181319
0002f0 c2 3c 5a 3d 0d a8 be 3d 62 5b 85 3c 07 d6 77 bc
       0.0532806 0.09309397 0.016278926 -0.015126712
000300 f3 9e 8b bd d1 a6 bf 3b 88 74 be bd 99 85 17 3d
       -0.068174265 0.0058487435 -0.0929957 0.036992643
000310 0c 4e f1 3c 10 b3 88 bd 8e bd 03 bc 78 cd c0 bd
       0.029456161 -0.066747785 -0.008040799 -0.0941419
000320 a9 f5 c3 bd a7 ab 50 3d 26 10 39 bd 84 2e 0f be
       -0.0956834 0.05094495 -0.045181416 -0.13982588
000330 11 7f 5b bc 5c 0c dc 3d da 15 90 bc 16 fb 70 bc
       -0.013396994 0.10744545 -0.017588545 -0.014708301
000340 26 5e d8 bd cc dd 9b 3c 63 8d 9a 3d aa 93 a8 3d
       -0.105648324 0.01902666 0.075464986 0.0823129
000350 51 00 aa 3d e4 d5 ff bc 3e a8 0f be 95 53 ac bd
       0.083008416 -0.03122992 -0.14029023 -0.084143795
000360 30 d4 cc bd 70 b5 de bd 98 58 ef 3d 92 a5 a0 3d
       -0.10001409 -0.1087445 0.1168682 0.0784408
000370 54 5a c8 bc 73 45 84 3d eb 40 01 bd ea f5 8a 3c
       -0.024457134 0.06458559 -0.03155605 0.016962964
000380 fd fa 14 3d 86 23 07 3b f9 d3 9b bd 63 6b d1 3c
       0.036372174 0.002062054 -0.0760879 0.025563901
000390 a9 c0 16 3e 56 b5 0c bc 8a 15 b8 3d 36 0d 18 3e
       0.14721932 -0.008588156 0.08988483 0.1484879
0003a0 cd e2 00 bd 5e ad 33 bd 23 73 67 3b 98 70 8c 3d
       -0.031466294 -0.043866508 0.003531643 0.06857413
0003b0 e1 51 c9 3d bc 2f 14 be 84 b3 2e bb 92 af bd 3d
       0.0983007 -0.14471334 -0.0026657293 0.09262003
0003c0 76 83 9f 3d ed 6b b1 3d fa 18 a0 3d 7d 1d 4f 3d
       0.07788746 0.08663163 0.07817264 0.05056523
0003d0 09 a7 6e bd 29 e0 e2 3d 1c 29 01 3e 3a e7 ac bd
       -0.058264766 0.110779114 0.12613338 -0.084425405
0003e0 fd ec ed bc 1c 88 f8 3d 5d 0d 54 3c 6b 77 83 3d
       -0.029043669 0.12135336 0.012942639 0.064192615
0003f0 a3 21 03 3e dd 71 19 3e 82 97 10 bb 82 1f 1a 3d
       0.128058 0.14984842 -0.0022062962 0.037627704

gru.bias_ih_l0 f4 [192]
000000 a8 4f e4 bd b7 ce ff 3c a9 bc a8 3d 5a 11 99 bc
       -0.11148006 0.031226499 0.08239109 -0.018685032
000010 3e 49 9d bd 24 5d bc 3d be 3d 39 3d cd 6a ce 3c
       -0.076799855 0.09197453 0.045224898 0.025197411
000020 d1 56 02 3e c3 f4 96 3d 0f 51 ce 3d db 8e 46 bd
       0.1272843 0.07370903 0.100740544 -0.04847608
000030 fd 55 43 3d 77 cc 35 bd 59 50 a3 3c 2b 1e 0a 3e
       0.047689427 -0.044384446 0.019935774 0.1348807
000040 6c 80 1b 3d 73 fb e1 3d 63 d2 e6 3c e6 38 b5 bc
       0.03796427 0.11034288 0.028176492 -0.022121858
000050 3e 0d ce bd be 29 93 bc b0 4f 0b 3e 98 73 cf 3d
       -0.100611195 -0.01796424 0.13604617 0.1012947
000060 94 09 22 bc 79 ae 44 3d 75 25 64 3d 21 09 83 bd
       -0.009889979 0.048017953 0.055699784 -0.063982256
000070 ba 71 a7 bd fe 40 64 bc 76 9e 93 3d e3 0f 84 3d
       -0.081759885 -0.013931511 0.072079584 0.06448343
000080 10 00 da bb bf 22 58 3d f7 53 1e 3b 70 2e 0b bd
       -0.0066528395 0.05276751 0.0024158934 -0.033979833
000090 d9 c1 a3 bd 1d d6 80 3d 3e 02 a1 3d 0b 0e d2 3d
       -0.07995958 0.06290839 0.07861756 0.10256585
0000a0 ab a4 db bc 60 29 83 3d a3 01 48 bd 7a 73 e9 3d
       -0.026811918 0.06404376 -0.048829686 0.113989785
0000b0 b9 33 b8 3d 61 7a 7e 3d 49 4f 90 bd 23 fe 81 3c
       0.0899424 0.06212843 -0.070463724 0.015868252
0000c0 d1 38 0e 3d 24 d1 00 be d2 03 51 bc a5 73 7b bd
       0.034722153 -0.12579781 -0.0127572585 -0.061389584
0000d0 48 33 53 bb e2 be 11 bd 9b 74 cc bc 85 84 21 3d
       -0.003222661 -0.03558243 -0.024957946 0.03943302
0000e0 45 92 4d bd f2 fe bf bd ad 4c b7 bd e9 7c ba 3d
       -0.05018832 -0.09374799 -0.089501716 0.09105856
0000f0 ca eb bc bd f2 bd fc 3d 4b 0f ed bd b1 73 e2 3d
       -0.09224661 0.12340917 -0.115751825 0.11057223
000100 37 67 55 3e 7d a1 56 bd 93 50 1d 3d 27 e5 43 bd
       0.20840155 -0.0524001 0.03840692 -0.04782596
000110 d2 c4 a0 3d b5 6d 44 3e 8f a5 49 bc 21 2b 60 3d
       0.078500405 0.19182475 -0.012307539 0.05472863
000120 87 4b de 3c d7 36 b1 bc 27 9e ee 3d 77 6e ca 3c
       0.027135624 -0.021632595 0.11651259 0.024710877
000130 f0 c0 64 bd 16 d5 aa bd ae 3a 09 3e 93 7d f8 3c
       -0.055848062 -0.08341424 0.13401291 0.030333316
000140 2b 40 80 bd e7 b9 7e 3d f4 55 8b 3d a8 29 c5 3c
       -0.06262239 0.06218901 0.06803504 0.024067715
000150 07 94 cb 3d 7c 98 92 bc 0b 64 91 3d 80 f2 2f bd
       0.09940343 -0.017894976 0.0709916 -0.042955875
000160 c1 85 48 3c a8 e5 bb 3d 85 89 1b 3e de 8f 27 3e
       0.012238921 0.09174663 0.15189178 0.16363475
000170 73 53 b1 bd 0f 6f 4a 3c ad 7c af 3d e2 cb 5f 3e
       -0.08658495 0.01235558 0.08568702 0.21855119
000180 23 9c 70 bd ab ad a1 3c 8b 6a 10 bd 57 5f 02 3e
       -0.058742654 0.019736132 -0.035257857 0.12731682
000190 ef 50 d4 3b ae 05 da 3d b8 e7 9e 3c 42 43 56 3e
       0.0064793746 0.106456146 0.019397601 0.20924094
0001a0 1a 67 30 3e 70 ac 89 bd 40 13 55 bc 6e fc e6 3d
       0.1722683 -0.06722343 -0.013005078 0.11278616
0001b0 62 34 1c 3e 89 34 b4 3c 74 94 e8 bd b1 31 ab 3d
       0.15254357 0.021997707 -0.1135644 0.08359087
0001c0 50 b6 91 3d 0c c4 13 3d d4 df c1 bd 70 41 b8 3d
       0.071148515 0.036075637 -0.0946652 0.08996856
0001d0 3d 40 8d bd 28 43 f5 3d 1d 8c f2 3c 28 d4 86 3e
       -0.06897018 0.119757 0.029607827 0.26333737
0001e0 03 35 04 bd 60 9f 63 3d 80 d6 8e 3c b8 04 a5 3d
       -0.03227712 0.055571914 0.017436266 0.08057541
0001f0 10 c0 4b bd 80 84 ba 3d 1e d7 b1 3d 33 c7 7d 3c
       -0.049743712 0.091073036 0.086836085 0.015489387
000200 8b 00 a0 bd a4 9e 3a 3d 9f b5 4a 3d 2d 6e d5 3d
       -0.078126036 0.045561448 0.049489614 0.10421405
000210 c0 46 8a 3d d2 ad 4c 3b ea 59 ff bc 53 09 bd bb
       0.06751776 0.0031231535 -0.031170804 -0.005768934
000220 4e a4 34 3d c9 1c bb 3c f6 04 f3 bb 3d fe 89 3d
       0.044102006 0.022840874 -0.007416363 0.06737945
000230 ca 39 93 bd 98 ef 83 3c bb df 18 3d a4 c3 e3 3d
       -0.07188757 0.016105458 0.03732274 0.111213
000240 3c ee b2 3d 2b b7 de bd 87 40 ec bd 29 20 a1 3d
       0.08736846 -0.1087478 -0.11535745 0.07867462
000250 49 9c 81 bc eb d2 4f bb b0 32 65 bd 4a 34 39 bd
       -0.015821593 -0.003171141 -0.055956542 -0.045215882
000260 51 ad 8a bd fa 4b a1 3b c1 a3 97 bd a3 ec dc bd
       -0.06771339 0.004922387 -0.074042805 -0.10787322
000270 ad e5 93 bd 80 fb dd 3d 70 ae ce 3d 60 3b 90 3d
       -0.072215416 0.108389854 0.10091865 0.07042575
000280 bb 35 f1 3d 1d 4d 9d bc 62 22 b4 3c d0 5a b4 bd
       0.117778264 -0.01920181 0.021989051 -0.088063836
000290 f4 e3 8e bd 1a 5d b0 bd 0c 7e 37 3d 91 7d bf bd
       -0.06977072 -0.08611508 0.044797942 -0.09350122
0002a0 79 f7 47 3d 9c 6e 68 3d 94 f0 ff 3d b1 90 d0 bd
       0.048819993 0.05674611 0.124970585 -0.10183848
0002b0 d4 2d bb bb a9 fe 44 b9 b5 8e 85 3d 13 9e b3 3d
       -0.0057122502 -0.00018786885 0.0652136 0.08770385
0002c0 13 e8 5a bd 49 ab 7b bd 16 52 02 be 00 1c e5 3d
       -0.05344398 -0.061442647 -0.12726626 0.11186981
0002d0 25 4c c2 3d 1b b6 d3 bb 4b 38 ab bc 95 86 7d 3d
       0.0948718 -0.0064609176 -0.020900866 0.061895926
0002e0 fc be e4 3d 28 3e d9 bc 2d d5 0b bd d1 18 a7 3d
       0.1116924 -0.026518896 -0.034138847 0.0815903
0002f0 c5 36 3e 3d 33 98 d3 bd b6 a5 8c bc 85 c3 c1 bd
       0.04643895 -0.10331764 -0.01716886 -0.094611205

gru.bias_hh_l0 f4 [192]
000000 ef cf fc 3d 8d 5f 8e 3d 00 b4 a2 bd a2 16 ae bc
       0.12344348 0.069518186 -0.079444885 -0.021251027
000010 70 05 84 bd f7 69 18 3e 19 16 e2 3c 4c 3b 25 3c
       -0.064463496 0.14884172 0.027598428 0.010084938
000020 9a c2 7e bd f6 13 e2 3c a6 9b bb bd 49 72 ad 38
       -0.062197305 0.027597409 -0.09160547 8.27057e-05
000030 f7 7e a5 bd 54 8c 89 bd 48 ed d5 3d 0b cc 81 bd
       -0.08080857 -0.067162186 0.104456484 -0.06337746
000040 10 e3 6d 3d 99 bf d4 bc 40 e1 20 3d 0d fd 92 3d
       0.05807787 -0.025970267 0.039277315 0.07177172
000050 a9 36 c7 bd 76 e9 86 3d df 82 04 3e d0 1d 0b 3e
       -0.097272225 0.06587498 0.12940548 0.13585591
000060 ee 49 f5 3d 00 11 a5 bd ce a6 4d 3d bb 5c 64 3d
       0.119769916 -0.08059883 0.050207905 0.055752497
000070 15 26 b8 3d 29 ae 69 bd 8b 10 fb 3c d6 49 19 bd
       0.089916386 -0.057050858 0.030647537 -0.03742393
000080 f1 88 4f 3d 66 d3 ed 3d 0e 7f c8 3d 8a 46 e5 3d
       0.050667707 0.11612587 0.09789859 0.11195095
000090 3f fd af 3d 1b 5f 4f 3d 3b 27 c4 3d 16 98 47 3d
       0.08593225 0.05062781 0.09577795 0.048729025
0000a0 94 97 91 bb ba 66 c2 3c e6 eb b2 3d 0a e3 71 3d
       -0.0044431183 0.023730624 0.087364 0.059054412
0000b0 e7 ca 4e bb a5 97 7e bd 8a bc 50 bd be 87 45 bd
       -0.0031554045 -0.06215634 -0.050961055 -0.048225157
0000c0 1a 43 25 bd a1 05 9b 3c f1 7f 60 3c 2a b6 ee bb
       -0.040347196 0.018923583 0.013702379 -0.0072848992
0000d0 5e 46 9a 3d 7e a1 ea 3c cf e7 9d 3b e8 9f 34 3d
       0.07532953 0.028641459 0.0048188935 0.04409781
0000e0 57 31 a2 3d b5 1f 9b bd 3d 97 b6 bc 6b 5b a9 3d
       0.07919567 -0.07574407 -0.022288913 0.0826939
0000f0 b8 ba 47 3d 04 c2 ad bd 96 a5 95 3d 1a ce 22 3c
       0.048762053 -0.08484271 0.07306974 0.009936834
000100 d1 a1 f7 3b 5c a9 46 bd 5b 08 29 3a 95 e1 76 3d
       0.007557132 -0.048501357 0.00064480834 0.060273726
000110 7d 1e 3c 3e 73 c9 82 bb ef 35 f0 bc 54 fb 3e bc
       0.18371005 -0.0039913 -0.029322593 -0.011656601
000120 d4 e0 7e 3d 9b 5b 04 3e 28 28 89 3d 7e 1f f0 bc
       0.06222613 0.1292557 0.06697112 -0.029311892
000130 5c fe de 3c 71 1d a8 3d 7a 63 1b 3e 0d 80 f0 3d
       0.027220897 0.082087405 0.15174666 0.11743174
000140 9d 72 e4 3d 1e 19 f9 3c 1b 02 5c 3e 20 f4 0c 3d
       0.11154673 0.030407485 0.21485178 0.034412503
000150 b7 9b b7 3d ed 85 71 bd a6 aa b9 3d 85 e1 0d bd
       0.08965247 -0.058965612 0.09065752 -0.0346389
000160 d3 a7 13 3e 00 05 56 3d 7d 0e af 3c cf e5 80 3c
       0.14419489 0.052250862 0.021369213 0.015734581
000170 41 b9 75 bd 99 82 d3 3d 01 2c 32 3e a2 b7 16 3e
       -0.059991125 0.10327644 0.17399599 0.14718488
000180 02 55 e3 bd 33 cf 5d 3e 5b a1 03 3e 7f 8c 8b bc
       -0.11100198 0.21661071 0.12854521 -0.017034767
000190 13 a6 cb 3d b1 ad 4c 3e 97 3d 9b 3d b0 d9 8f 3d
       0.099437855 0.19988133 0.07580107 0.070239425
0001a0 27 23 4f 3e 5a ab 97 3d 1a 53 2b 3e c5 17 66 3a
       0.20228253 0.074057296 0.1673092 0.00087773456
0001b0 59 83 13 3e fb 1f 8f 3d b1 30 83 3d 09 00 8e 3d
       0.14405574 0.06988522 0.064057715 0.069336005
0001c0 23 cd 21 3d 51 03 20 ba 18 c2 84 bc 70 a7 1d 3e
       0.039502274 -0.000610401 -0.016205832 0.15395904
0001d0 ac ac b3 3d 47 68 08 3e e6 18 67 3e c8 11 71 3e
       0.08773169 0.13321029 0.22568092 0.2354194
0001e0 8b fa b4 3d 83 7c d7 3d 39 f7 b8 3d 02 57 60 3d
       0.0883685 0.105217956 0.09031529 0.054770477
0001f0 85 5e fd bd 4c 27 8f 3d 97 82 81 bb db db 6a 3e
       -0.12371544 0.06989917 -0.003952335 0.2293543
000200 98 83 a7 3d 85 34 f3 3d 72 76 76 bc 77 1d ab bd
       0.081793964 0.11875252 -0.015042888 -0.08355229
000210 73 96 84 3d bd 6e e9 bd 1e 20 ab bd f7 c2 d9 3d
       0.064740084 -0.11398075 -0.08355735 0.1063289
000220 03 38 46 3d ed 2c da 3d 9e 75 0b 3d 54 ec 11 3e
       0.04839326 0.106531 0.034047715 0.14250308
000230 e0 f1 0e 3d 20 ff 00 bd b8 3d da 3c d6 b6 75 bd
       0.03489864 -0.031493306 0.026640758 -0.05998882
000240 fc 08 e4 3d 12 b2 cf 3d 8e 7a 92 bd d4 0e ab 3c
       0.11134526 0.10141386 -0.07152282 0.020881094
000250 2c 9a 96 bd ca f5 b6 3b bc 55 f3 bd 02 46 26 3d
       -0.07353625 0.0055834996 -0.11881587 0.04059411
000260 0f 19 b6 bd bd b4 eb 3c 08 6a a3 bd 43 35 ea bd
       -0.08891498 0.028772706 -0.07979208 -0.1143594
000270 3e 65 01 3d 5d 65 09 3e 9c bf c3 bc 71 d4 29 3d
       0.031590693 0.13417573 -0.023895077 0.041462366
000280 f6 12 83 bd 84 76 6f 3c 41 6f f6 bc 3e 21 a7 3d
       -0.06400101 0.014615659 -0.030082347 0.08160637
000290 69 f6 c3 bd 83 8a 42 3d 51 c3 13 be 17 0e 3a 3d
       -0.095684834 0.047495376 -0.14429976 0.045423593
0002a0 29 ed 77 bd e5 6c b5 bd 78 3f f6 bc 01 07 cd bd
       -0.060528908 -0.088586606 -0.030059561 -0.100111015
0002b0 1a 41 aa bc fd 55 ac bc d3 0f 3d 3d 00 07 d8 3d
       -0.020782996 -0.021037096 0.04615767 0.1054821
0002c0 c2 49 74 3c 04 9d d8 bd cc fc 54 bd f6 2f ef bd
       0.014910163 -0.10576823 -0.0519989 -0.1167907
0002d0 d7 ee f8 bc aa 20 08 be 69 ed b0 3d e2 3a af 3c
       -0.030387325 -0.1329371 0.086390324 0.021390382
0002e0 3a 7a 99 3d 02 94 59 3d 8b 4f 02 3e 20 42 4b bd
       0.07494016 0.053119667 0.12725656 -0.04962361
0002f0 7b 4d 69 bd a0 cd 84 3d 6e 83 6a bd 4e aa 5b 3d
       -0.056958657 0.06484532 -0.057254247 0.053629212

gru.weight_ih_l0_reverse f4 [192, 6]
000000 ed 01 d9 bd 54 0b f4 bc 49 69 19 bc ac 00 99 3c
       -0.105960704 -0.029790558 -0.009363481 0.018677078
000010 d7 5b 0f be c7 04 99 bc 81 c7 69 bc 32 78 e7 3d
       -0.13999878 -0.018679036 -0.014268757 0.11302222
000020 ce 82 ad 3d b0 af 32 3d ef d5 b3 bd 4e b0 5e bc
       0.08472215 0.04362458 -0.08781039 -0.013591839
000030 60 00 8b 3a 68 f1 5c bd d7 a6 ae 3d 2b 64 27 bd
       0.001060497 -0.05394116 0.08527916 -0.040867012
000040 f6 84 b9 3d 53 01 cc bb 40 14 23 bb 88 95 a7 3c
       0.090585634 -0.006225744 -0.0024883896 0.020457044
000050 ce e4 2e bd f1 88 82 3d 5d a1 a7 bd 70 99 d0 bd
       -0.042698674 0.06373776 -0.081850745 -0.10185516
000060 24 91 93 3b 12 dd 66 3d af 1e 0b bd d1 d2 a5 bd
       0.004503386 0.056363173 -0.03396481 -0.08096851
000070 76 8b 9b 3b f5 cc ed 3d f1 7d 21 bb bb 83 6e bd
       0.0047468496 0.11611358 -0.0024641717 -0.058231097
000080 55 43 8b 3d f6 52 bf 3d ab 9b 0e 3e d7 28 19 3a
       0.06799952 0.093419954 0.1392657 0.00058425724
000090 ca 47 d8 3d e0 fa 7b bd 52 9c f9 bd 20 92 dc 3d
       0.10560568 -0.06151855 -0.12188019 0.10770059
0000a0 75 95 4c bd ae b6 bb bd 98 37 9c bc 81 fb 93 3a
       -0.04994722 -0.09165703 -0.019069478 0.0011290164
0000b0 d1 a9 ea bd 9d 2b e1 3d 6e 6b e1 bd 2b 1e d9 3d
       -0.11458171 0.10994647 -0.11006819 0.10601457
0000c0 55 17 24 bd d3 0e 24 bd 4e bf 5a 3d 57 d7 51 3d
       -0.040061314 -0.0400532 0.0534051 0.051230755
0000d0 48 dc e7 3d 13 02 e6 3d 3f 8b 01 be 9b 6c 12 be
       0.11321312 0.112308644 -0.12650774 -0.14299242
0000e0 40 71 25 3d 9a 33 b8 bd 14 04 e7 bd 49 61 c9 3d
       0.040391207 -0.08994217 -0.11280075 0.09833009
0000f0 86 bf 14 bd 8c 07 40 3d db ea 01 be d6 0f af 3d
       -0.036315463 0.046882197 -0.12687247 0.08547942
000100 cb ae 27 bd d4 ae 22 bd 68 68 87 3d e5 f0 c5 3d
       -0.04093818 -0.03971751 0.06611711 0.096650876
000110 7a 8d a5 bb e8 3a 25 3e be ad d0 3d 4e 0e c4 3d
       -0.0050522657 0.16135752 0.10189389 0.09573041
000120 2d 2b f2 3c fe fc a6 3b 38 b0 f6 3c 1e af 1f 3e
       0.029561603 0.005096077 0.030113325 0.15594146
000130 d6 74 87 3b a0 3a fc bd d2 5c 4d bd 9b 67 52 3d
       0.004133801 -0.12315869 -0.05013735 0.051368337
000140 cc d4 b8 bd 0d 80 0f be 84 6b b7 3b 6e f2 d5 3d
       -0.09024963 -0.14013691 0.0055975337 0.104466304
000150 fb 4b 85 bd f6 51 ae 3d 53 ff 76 3d d0 f1 d8 bc
       -0.06508633 0.085117266 0.06030209 -0.026482493
000160 fb 6f cf 3d 77 b6 3f bc 12 47 43 be 74 85 71 3c
       0.101287805 -0.011701218 -0.1907008 0.01474129
000170 71 3e 15 be db de c9 3d 6b b1 81 bd cf b3 9d bd
       -0.14574601 0.098569594 -0.06332668 -0.077003114
000180 5b 8a 2d bc a3 b3 a5 3d 41 20 47 3d eb c0 62 3e
       -0.010592069 0.080909036 0.048614744 0.22143905
000190 40 86 3d bc 76 a1 18 3d 43 86 c9 bd d0 88 9b bc
       -0.011567652 0.037263356 -0.098400615 -0.018986136
0001a0 9e 63 40 3d 78 c3 e2 bc 8b 0f ac 3d 28 f7 a2 3c
       0.046970002 -0.027681097 0.08401402 0.019893244
0001b0 79 9a 1d bd ac d6 5c bc 40 b1 dd bd 2a e5 2f 3e
       -0.038477395 -0.013478916 -0.108248234 0.17177263
0001c0 31 14 64 bd fb af f9 bc 65 6b 09 b9 2f fc d5 3b
       -0.05568332 -0.030479422 -0.00013105346 0.006530307
0001d0 a3 1f a9 3d af d0 4a 3d a1 89 0e 3d 40 ca 72 3d
       0.08257987 0.049515422 0.034799222 0.059274912
0001e0 55 dd 86 bd 82 1f 93 bb b7 5f 60 3d 72 5f 9d 3d
       -0.065851845 -0.00448984 0.05477878 0.076842204
0001f0 99 33 10 bd 2e 27 4a 3d db 11 00 3d a4 fd 1d 3d
       -0.035205457 0.04935377 0.03126703 0.03857197
000200 d5 61 29 be f6 a6 3d bd f8 30 1b 3d ad e2 c4 bd
       -0.16541226 -0.046301804 0.037888497 -0.096135475
000210 cd ab 08 3c f0 83 0c 3e 80 d3 df bc ba 3f de 3c
       0.008341742 0.13722205 -0.02732253 0.027129997
000220 b5 d5 f0 3d 75 02 80 bd 36 ba ab 3d 0d c5 e5 bd
       0.117595114 -0.06250469 0.08385126 -0.11219225
000230 d9 df 68 bd 0a 12 39 bd 02 06 ba ba 9a 8e c9 bd
       -0.056854103 -0.04518322 -0.0014192464 -0.09841652
000240 59 33 ea bd b6 c4 11 bd a2 44 70 3d 6a b6 61 bd
       -0.11435575 -0.03558799 0.058659203 -0.055105604
000250 c7 55 e2 3b 7f b1 d4 3c 46 a9 97 bd 0f bc 98 bd
       0.006907198 0.025963543 -0.07405333 -0.07457744
000260 ff de f8 3c 7e f0 28 3e e3 95 72 3d 0a 2a c8 bd
       0.03037977 0.1649799 0.059224974 -0.09773643
000270 20 17 30 3d bc ef a1 3d f6 34 16 3e 16 95 ed bc
       0.042990804 0.07907054 0.1466864 -0.029001754
000280 91 f9 b0 3d d1 a7 ea bd d4 ff 2f bd 0c 1c e0 39
       0.08641351 -0.1145779 -0.042968586 0.00042745506
000290 d6 c1 ac bc e7 ad d7 bb f2 85 cd 3d ec 96 07 3d
       -0.021088522 -0.00658201 0.10035314 0.033102915
0002a0 3f 1b 85 3d 68 2d 23 bd 17 df a2 bd a8 9a fd 3d
       0.064993374 -0.039838225 -0.07952707 0.12383014
0002b0 cb 7f ae 3d 04 0f 37 3d 8e 87 14 3d 0e 4c b4 3d
       0.08520468 0.044692054 0.036262088 0.08803569
0002c0 ec 22 20 3e 26 b7 91 3d 77 fe 79 3c f5 6c ae 3d
       0.15638322 0.07115011 0.015258423 0.08516876
0002d0 7a 37 25 3e f7 39 01 bd d1 1f c7 3b 27 27 bc 3d
       0.16134444 -0.03154942 0.006076791 0.09187155
0002e0 92 bc 7e bd 6c 54 ff 3d c8 6f 0c be 4f 77 f0 bd
       -0.062191553 0.12467274 -0.13714516 -0.11741506
0002f0 49 85 14 be 05 32 a0 bd 4d f8 2d 3d 7b cf 2c 3d
       -0.14503969 -0.078220405 0.042473126 0.042190056
000300 0f ab 33 3e a7 4d b3 3d b6 c0 b4 3d fb 66 39 3e
       0.17545722 0.087550454 0.08825819 0.1810569
000310 7a c2 d6 3d 22 73 5d bd c8 5f 0e 3e 78 bf 7f 3d
       0.10486312 -0.054064877 0.13903725 0.06243846
000320 02 9b 91 bd 06 d8 c1 3b 87 25 f8 bd e3 8a b5 bd
       -0.071096435 0.0059156446 -0.12116533 -0.08864381
000330 cb 94 61 bd 52 99 b9 bd 66 ee 67 3c 31 2b f7 bc
       -0.05507354 -0.09062447 0.01415596 -0.030171962
000340 02 44 a8 3d 9e ca 33 3d d5 42 9c bd b0 1a b7 bc
       0.082160965 0.043894403 -0.07629935 -0.022351593
000350 a6 10 aa 3d 75 af 6c 3d 11 b2 98 3d 7e f5 b2 3d
       0.08303957 0.057784516 0.074558385 0.0873823
000360 3d 09 4c 3d db 8a 18 be ca 52 e2 bd ae 3d a0 bd
       0.049813498 -0.14896719 -0.11050947 -0.078242645
000370 6b c6 ba bd b7 52 be ba 06 90 63 bd c1 b5 dc 3d
       -0.091198765 -0.00145205 -0.055557273 0.10776854
000380 88 47 97 3d e4 d6 e8 3d aa 6f 93 bd d8 08 04 3d
       0.073866904 0.11369112 -0.071990326 0.032234997
000390 14 f5 0a 3e 40 7d 24 3d 62 ad 95 bd 36 38 11 3e
       0.13570052 0.04015851 -0.07308461 0.14181599
0003a0 0d 24 24 3d a7 3b ed 3c f4 d2 18 3d fd c5 c5 bd
       0.040073443 0.028959109 0.037310556 -0.09656904
0003b0 e8 34 aa 3d f8 d6 8a 3d c8 f9 14 3d 6b 2b bf bd
       0.08310872 0.06779283 0.036371022 -0.09334453
0003c0 de 51 71 3d 7d 32 76 bd 4f 60 46 bd 6d ff 88 3c
       0.058915965 -0.060106743 -0.04843169 0.016723359
0003d0 be 85 65 3d 5b a8 1d bd 5e 53 cd bd ae bf 71 3d
       0.05603575 -0.038490634 -0.10025667 0.05902069
0003e0 09 8a a8 3c 8b 9f 05 bd 89 61 92 3d 3a a0 d2 bd
       0.020573633 -0.032622855 0.071475096 -0.10284467
0003f0 30 9e bb 3d 64 55 8a bd 8d 63 8c 3d 15 a0 99 3c
       0.09161031 -0.06754568 0.06854925 0.01875309

gru.weight_hh_l0_reverse f4 [192, 64]
000000 06 3d 66 bd a7 e4 00 3e e4 1d 86 3c 9f d0 11 3e
       -0.05621054 0.12587224 0.016371675 0.14239739
000010 0d f3 16 3c 42 af dc bd 5c 7e c5 3d 48 f2 14 3d
       0.009213221 -0.10775615 0.09643242 0.03636387
000020 d7 0b 1f bd 82 a1 71 bd d6 ea d5 bc aa e9 94 bc
       -0.03882965 -0.058991916 -0.026112955 -0.018177826
000030 a5 4a 95 3c 4a e2 b7 bd 6e 0a ce bd 11 8f 95 3d
       0.01822407 -0.08978708 -0.10060583 0.073026784
000040 c7 ed b7 bd 3a e6 c5 3d ff fd ad bc 5a b6 4c bd
       -0.08980899 0.09663053 -0.021239279 -0.04997859
000050 8d 19 d7 bc 84 06 0f 3b ad 31 ef bb 14 4a 87 3d
       -0.0262573 0.0021823952 -0.007299623 0.06605926
000060 cb 02 73 3d 92 83 d5 bd 2f 53 a6 3d cc 85 16 3e
       0.059328835 -0.10425486 0.08121335 0.14699477
000070 42 06 09 bc 63 7a 95 3d 21 46 e7 3c f8 50 25 3c
       -0.008363308 0.07298734 0.028231682 0.010090105
000080 cc e2 05 be ce d2 78 3d dd 08 50 bd b4 b7 27 bd
       -0.13074797 0.060747914 -0.050789703 -0.040946677
000090 5d 12 83 3b 24 45 11 3e 16 db 2a bd 56 bf 38 3e
       0.003999992 0.14186531 -0.041712843 0.18041739
0000a0 44 fc cd bb 10 7b 06 be 6d dc 4b 3e c2 4e 0f bd
       -0.006286176 -0.13132882 0.19908305 -0.03498722
0000b0 78 fb 85 bd e4 d8 e7 3c ad 2d 26 3d 8f a9 95 3d
       -0.065421045 0.028301664 0.040570904 0.07307731
0000c0 ec 76 5e 3c 4d e5 d3 bc 43 ab 79 bd ec d8 fb bc
       0.013578158 -0.025866175 -0.060954344 -0.030743085
0000d0 22 b8 20 be 5c db 1c 3e 1d c8 52 3d 02 77 b9 bc
       -0.15695241 0.15318054 0.051460374 -0.022639755
0000e0 99 44 4b bd 9b 83 db bc 3a 36 87 bd 95 d6 4b be
       -0.049625967 -0.026796153 -0.0660214 -0.19906075
0000f0 11 1c 84 bd 2d d9 86 bd d3 70 a4 39 58 d5 d0 bd
       -0.06450666 -0.06584392 0.00031364578 -0.10196942
000100 db c2 66 3c d5 36 b3 3d 20 75 fc 3c 01 c6 aa bd
       0.014084543 0.08750693 0.030817568 -0.083385475
000110 d0 31 aa 3d b2 ec f3 bd 98 17 43 3d c5 48 0f 3e
       0.08310282 -0.119103804 0.047629923 0.13992603
000120 a0 6c 92 3d 83 58 ba bd 16 48 d0 bd db dd 0f be
       0.07149625 -0.090989135 -0.10169999 -0.14049475
000130 c8 fb f6 3d 07 4f 55 bd e3 d6 7f bd 93 2c 65 3c
       0.12059742 -0.05207732 -0.06246079 0.013987678
000140 57 68 e9 bc 32 50 e2 3d 0f 07 19 bd a7 c1 0b be
       -0.028492136 0.11050452 -0.037360247 -0.13648091
000150 d1 47 bd ba 8b 3a a1 bc 0e 47 33 bd 7a ac b3 3d
       -0.0014440959 -0.019681236 -0.043768935 0.08773132
000160 66 b7 1e 3e 5d 27 a4 bd 28 32 04 3e b7 68 a5 3d
       0.15499648 -0.080153205 0.12909758 0.080766134
000170 2a 75 ed bd 2c af 0e 3d ec a4 e8 bd 6e 1f 2e 3e
       -0.11594613 0.034835026 -0.11359581 0.17004177
000180 3a 82 57 bd 7e b7 e0 3c fa 30 b1 3d 05 c9 f9 3d
       -0.052614428 0.027431246 0.0865192 0.121965446
000190 e0 f6 87 3d ac 22 47 bc d2 07 90 3d 6c 87 7d bc
       0.066388845 -0.0121542625 0.070327416 -0.015474182
0001a0 87 a5 03 be be 64 07 be 2d 4b 83 bb f5 fc 14 3d
       -0.12856112 -0.13222024 -0.0040067644 0.03637405
0001b0 4d 3a 1e bc b7 df 70 3d 0d f7 33 3e 4c b3 eb bc
       -0.009657455 0.0588071 0.17574711 -0.028772019
0001c0 49 16 d9 bd f8 2e 94 bc 43 8d 6d 3b a7 11 20 bc
       -0.10599954 -0.018088803 0.0036247529 -0.009769834
0001d0 fd 6f 4d bd 4c 8e 35 bd 7e 23 ea 3d df 4d 9f 3c
       -0.05015563 -0.044325158 0.11432551 0.019446312
0001e0 b3 e5 1c be b2 dc aa bc 77 4b 73 bd 4f ce 9e 3d
       -0.15321998 -0.020857189 -0.05939814 0.07754194
0001f0 97 22 c2 bc 3b 7f bd bc 45 18 0e 3c 85 e5 03 3d
       -0.023698134 -0.023131957 0.0086727785 0.03220131
000200 45 17 d5 3c 4d e0 05 3e d0 e1 78 3d 4a f0 a5 bb
       0.026012072 0.13073845 0.060762227 -0.005064045
000210 f7 84 fc 3d e7 28 1a be 85 ce 97 3d 05 3a 99 bd
       0.123300485 -0.15054666 0.07412437 -0.074817695
000220 69 88 d5 bd d6 19 e3 bd e4 c0 8f 3d 5e d0 2f be
       -0.10426409 -0.11088912 0.07019213 -0.1716933
000230 13 63 af bb 73 ff 47 bd b4 76 a8 3d 39 7a 26 bc
       -0.0053523867 -0.0488276 0.08225766 -0.010160976
000240 c5 04 d3 bd ce 59 f6 bb c3 73 5f 3d ad 5e 36 bc
       -0.10303644 -0.00751803 0.05455376 -0.011130971
000250 af ca b4 3a 1a ab a9 3d 08 4e 14 3e 1b 03 ff 3d
       0.0013793315 0.08284588 0.14482892 0.12451764
000260 4f f8 bf 3c f2 25 ed bd 7f 71 a4 3d 01 07 52 bc
       0.023433832 -0.11579503 0.0802946 -0.012819053
000270 74 ea ef 3c 74 78 b7 3c 51 71 03 be fc ba 29 3e
       0.0292866 0.022396304 -0.12836196 0.16575235
000280 ab c5 00 3d fd ad fc 3c fc 8c 18 be 89 a6 ca 3d
       0.03143851 0.030844683 -0.14897531 0.09895045
000290 77 c8 11 3e d8 71 06 bd 81 a4 ee bd 09 6d 67 3c
       0.14236628 -0.032823414 -0.116524704 0.014125117
0002a0 d0 f7 33 3d 86 93 12 be 56 52 8b bc 70 43 19 bd
       0.043937504 -0.14314088 -0.017007034 -0.03741783
0002b0 f5 bf 4e 3d 48 1d a1 bd e1 10 a4 3d e2 2d 46 be
       0.050476033 -0.07866913 0.08011032 -0.1935344
0002c0 43 8a 49 bd a7 8e 13 bd a8 52 0a be ea 1a 03 3e
       -0.049204122 -0.036024716 -0.13508093 0.12803236
0002d0 e5 ba 86 bc 4d be a0 bd fd 17 a0 bb 01 87 0a 3e
       -0.01644654 -0.07848797 -0.004885672 0.13528062
0002e0 8a ca e1 3d 22 f9 ad 3d b4 c7 b0 bb 61 74 52 bd
       0.110249594 0.08494784 -0.0053949 -0.05138052
0002f0 49 43 15 be 60 23 f9 bc 39 e1 51 3d c2 88 2d bd
       -0.14576449 -0.030412376 0.05124018 -0.04236675
000300 00 6f 8e bd 0f 3f 0a 3e e8 f0 48 bd 39 a7 c4 3b
       -0.06954765 0.13500617 -0.04905787 0.00600138
000310 5d 07 7b 3d 6a 58 52 3d ea ca a9 bc 96 c2 74 3d
       0.06128632 0.05135385 -0.02072664 0.059755884
000320 7d eb ce 3d 17 3b 11 3e 88 f0 e9 bd 8f e4 25 3b
       0.101035096 0.14182697 -0.11422831 0.0025313233
000330 31 40 8b bd 87 7c b7 bd b8 18 c7 bd 2e 18 cc 3d
       -0.06799353 -0.089592986 -0.097215116 0.099655494
000340 76 ef c7 3d 77 22 f3 3d 1b c2 04 3e f6 d5 72 3d
       0.097624704 0.11871808 0.1296467 0.05928608
000350 4a 2a 1d bd db 92 7a bd 91 19 76 bd bb 05 8b bd
       -0.038370408 -0.06117521 -0.060082976 -0.067882024
000360 dd 8d 4b bd 7e f4 ab bc 85 73 52 3b af ae 86 3d
       -0.04969584 -0.020990606 0.0032112312 0.06576287
000370 c9 d3 50 bd e8 e5 71 bd ff 36 5d 3d de 22 75 bd
       -0.050983224 -0.059057146 0.054007526 -0.059847705
000380 13 a9 a8 3d ca b2 1a bd 08 3a 1a 3d 6f 8d c7 bd
       0.08235373 -0.037768163 0.037653 -0.09743773
000390 dc ad 9f 3c 14 01 10 3e af 77 67 bd 24 06 ed bd
       0.019492082 0.14062911 -0.056510624 -0.11573437
0003a0 c4 d2 95 bd b2 55 de bd 98 49 b5 3d 2c 85 7d 3d
       -0.07315591 -0.10856189 0.088519275 0.06189458
0003b0 6b 4d 7a 3c 2d 3b 73 bd b7 e5 83 3d d1 e8 87 bd
       0.015277247 -0.059382606 0.06440299 -0.06636203
0003c0 1d 7a ae 3d f4 cd 98 bd 66 d8 3d 3d d5 32 b2 bd
       0.08519385 -0.074611574 0.04634895 -0.08701102
0003d0 cd 1d d9 bd dc d9 aa 3d 03 61 c3 bc 42 55 90 3d
       -0.10601387 0.08342335 -0.02384997 0.07047512
0003e0 7b b9 8f 3d c3 44 f7 3d 52 93 07 be 91 a0 10 be
       0.070177995 0.12073662 -0.13239792 -0.14123751
0003f0 37 ea 73 3b 9f 6d df bb a7 c7 85 bd 12 78 71 3d
       0.003721846 -0.006818488 -0.06532221 0.0589524

gru.bias_ih_l0_reverse f4 [192]
000000 03 ab 9a bb 7d ff d1 3c 89 f8 97 3d 1d 74 69 3d
       -0.004720093 0.025634522 0.07420451 0.0569955
000010 49 20 c6 bd 33 2b 43 3d 36 1a 88 3c 56 57 30 3b
       -0.09674127 0.04764862 0.01661406 0.0026907525
000020 da d6 1e 3e 90 b3 d2 3d 0b 30 33 3d 03 9d fe 3d
       0.15511647 0.10288155 0.04374699 0.12432291
000030 29 7d 15 3c 3f 12 7a 3d e1 e7 8d 3c e1 84 fe 3d
       0.009124079 0.061052557 0.017322483 0.124276884
000040 48 92 b8 3d 7d 34 77 bd 6f 21 d1 3d d0 91 11 3e
       0.09012276 -0.06035279 0.10211455 0.1421578
000050 11 2f 86 bd 11 91 32 bd 71 ef 43 3d c2 e0 39 3e
       -0.06551946 -0.043595377 0.04783577 0.18152145
000060 e8 ad dc 3d 0d c9 fd 3d 99 cc 01 3e 0f 2b 85 bd
       0.107753575 0.12391863 0.12675704 -0.065023534
000070 e0 af c2 bc cb 4a 15 3e 93 df 27 bd 4e 22 89 3c
       -0.023765504 0.14579313 -0.0409847 0.01673999
000080 c2 c5 fc 3d b0 2b 89 3d 3b ea 17 3a 8f 49 a4 bb
       0.12342407 0.06697786 0.0005795096 -0.0050136517
000090 2c 46 b8 3d 1f d3 17 3e e8 45 f8 3d 29 2a f6 3c
       0.08997759 0.1482663 0.121227086 0.0300494
0000a0 a8 a3 92 bd b3 e4 a1 3c 2f 89 f5 3d 8e 41 82 3d
       -0.07160121 0.019762373 0.11989056 0.0636016
0000b0 0b 1e 46 3d 90 85 e8 bc 38 e1 db 3d 00 b4 e6 bb
       0.048368495 -0.028384 0.107363164 -0.0070405006
0000c0 1f 67 f1 3d 10 71 8c 3d b0 50 14 bc 9c 16 31 3d
       0.11787247 0.068575025 -0.0090524405 0.043234453
0000d0 e8 9c 10 3e 3d be bc 3d 06 be 89 3d 50 2f c5 3d
       0.14122355 0.092159726 0.06725697 0.09628165
0000e0 f8 eb 15 3e 03 67 80 bd d1 fb 0e 3e 0c 06 0c 3d
       0.14640796 -0.06269648 0.13963248 0.034185454
0000f0 ec f7 be bd 19 07 84 bd ad c5 a2 bd d0 ee b7 3d
       -0.09324631 -0.06446666 -0.0794786 0.08981097
000100 11 96 08 3e fe db 05 bd 58 23 53 3e 01 63 87 3d
       0.13338496 -0.032680504 0.20618951 0.0661068
000110 ad c3 03 bd 5e 84 8f bc 1a c3 12 3e 57 34 d7 3d
       -0.032169033 -0.017519172 0.14332238 0.1050803
000120 db 94 a0 3d 8e 8b 33 bc 35 1f 94 bd 6d 36 3f 3e
       0.07840892 -0.010958565 -0.07232515 0.18673106
000130 a4 d8 90 3c 7c 9c b3 3c c4 b9 ac bb ea 25 84 3d
       0.017681427 0.021925204 -0.0052711684 0.06452544
000140 9c a3 65 3e 50 3d be 3d fb 60 01 bc 82 cf 9d 3d
       0.22425693 0.09289038 -0.007896657 0.077055946
000150 83 46 f7 3d 3a 92 ba bc 8f e0 b0 3c 2e 61 44 3e
       0.12073996 -0.022774804 0.021591453 0.19177696
000160 81 2f 29 3e d2 1b 65 3d 31 6b 16 3e 85 b4 dd bb
       0.16522028 0.055934735 0.14689328 -0.0067659044
000170 02 be 00 3e 73 d9 31 bd 7b aa ae 3d 2e 2a 4c 3e
       0.12572482 -0.043420266 0.0852861 0.19937965
000180 06 d3 02 bd fa 88 40 3c 30 32 b5 3d 8f d7 b0 bd
       -0.03193953 0.011751408 0.08847463 -0.086348645
000190 33 96 3a 3e 84 a9 cd 3d 76 22 33 3e 48 68 4f 3c
       0.18221359 0.10042098 0.17493615 0.01265914
0001a0 a3 54 90 3d da ff d4 bd 20 94 d2 3d 94 fb f4 bc
       0.07047393 -0.10400362 0.10282159 -0.029905118
0001b0 2e ed 25 3e f0 0b f4 3d 22 d2 83 3d 01 de 45 3e
       0.16203758 0.119163394 0.06436564 0.19322969
0001c0 7d e3 24 3d bc 35 2d 3b bc 6e 13 3e 4d ef 29 3d
       0.040256012 0.0026429733 0.1439771 0.04148798
0001d0 bf dc dd 3d 11 4a ed bd 21 95 20 3e 77 34 a4 3d
       0.108331196 -0.11586393 0.15681888 0.080178194
0001e0 78 1d 6c 3c 39 40 8f bd ae 4b ed bc 3c 0a 42 3d
       0.014411323 -0.069946714 -0.028966751 0.04737304
0001f0 74 21 b3 bd 45 07 0b 3e 98 0e 22 3e da d7 c0 bd
       -0.08746615 0.13576992 0.1582588 -0.094161704
000200 5a 6f 95 bd f3 f2 f7 bc 96 f4 1c 3e 86 b1 ae 3d
       -0.07296629 -0.030267214 0.15327677 0.08529954
000210 c2 d0 12 3e 72 68 01 3e 6d d2 a0 3d db ee 48 3d
       0.14337447 0.12637499 0.078526355 0.049055915
000220 b7 f5 68 bd 01 bf d6 3d 09 b9 8a 3d 49 1d 9f bd
       -0.056874957 0.1048565 0.06773574 -0.077692576
000230 b8 f6 38 bd 72 ce 73 bc 73 8c 4c bd 7d 81 30 3d
       -0.045157164 -0.014880763 -0.04993863 0.04309224
000240 77 6b 70 bd e0 b7 1f bd ef 6f 7f 3d 17 bd 6a bd
       -0.058696236 -0.038993716 0.062362608 -0.057309236
000250 97 80 8a 3c 91 70 d1 3d 77 66 60 3d 0f 01 9e bd
       0.01690702 0.102265485 0.054785218 -0.07715046
000260 a0 51 05 3e 2e 21 ab 3b 4b d0 cc 3d 89 9a 8a 3d
       0.13019419 0.005222461 0.10000666 0.067677565
000270 8e 40 f9 bd d3 1b 65 3d a6 31 06 3c e9 89 e7 bd
       -0.12170516 0.05593474 0.008190548 -0.11305601
000280 d1 0f 93 bd b6 6b 59 bd f9 2a fc bd 6f 7d 59 bd
       -0.07180751 -0.053081237 -0.12312884 -0.05309814
000290 e5 30 e4 3d 86 f6 ae 3c ed a1 4e bd b4 42 e7 3d
       0.111421384 0.021357786 -0.050447393 0.112920195
0002a0 f5 9d ed 3d ee 3f d0 bd a8 e7 bb 3d 0f 6b c5 bd
       0.116023935 -0.101684436 0.09175044 -0.096395604
0002b0 c0 df 41 3d d4 b5 70 bd 73 d9 b1 3c 4f 4c bc bc
       0.047332525 -0.058767155 0.021710133 -0.022985606
0002c0 a6 72 94 3d 23 91 f6 3c a1 62 94 3c fc 8e d2 3d
       0.0724843 0.030098503 0.018113436 0.10281178
0002d0 b3 46 d9 bd c6 40 ea 3c 99 55 71 3d c8 b9 df 3d
       -0.10609188 0.02859534 0.058919523 0.10924107
0002e0 e8 a9 b5 3d d4 78 07 3d 51 64 04 be c5 d3 98 3b
       0.08870298 0.033074215 -0.12928893 0.004663917
0002f0 36 54 b0 bd 2d f5 c7 3d 91 22 eb 3d c9 f1 4e bd
       -0.08609812 0.097635604 0.114812024 -0.050523553

gru.bias_hh_l0_reverse f4 [192]
000000 32 45 9f 3d 30 14 1a 3e dc e7 bb 3c f4 1b 3d bd
       0.0777687 0.15046763 0.022937708 -0.046169236
000010 8e 75 fb bc 8f ea fc 3d 50 bd b3 3d 9d 3f f6 3d
       -0.030695703 0.12349426 0.08776343 0.12023852
000020 ab 4b 19 3e 45 3b 70 3d 42 af b3 3d d1 fe ed bc
       0.14970271 0.058650274 0.08773662 -0.02905217
000030 e8 95 f8 3d 85 44 b3 bd 29 d5 4c 3d e7 38 06 3d
       0.12137967 -0.087533034 0.050007973 0.03276911
000040 78 e7 3c 3d fc e9 28 3d 5d ef e4 3d ea 6a 44 3e
       0.046119183 0.04123877 0.111784674 0.1918141
000050 80 19 35 3d 40 28 c6 bd 70 67 f6 bc 98 39 21 3e
       0.04421377 -0.09675646 -0.03007862 0.15744627
000060 b9 f2 03 3e bd e6 54 bd a7 e6 84 3d 89 76 12 3e
       0.1288556 -0.05197786 0.06489306 0.1430303
000070 29 ff 39 3e 2e 27 41 bd 88 9d 30 3c b1 62 24 3e
       0.18163742 -0.047156505 0.010779746 0.16053273
000080 65 91 f2 3d ba 41 fb 3d 1f 89 ad 3d 55 0d 1d bd
       0.11844138 0.12268396 0.084734194 -0.038342793
000090 75 ac 48 3b 26 76 b8 bd 77 63 17 3e fb 20 01 3e
       0.003062037 -0.0900691 0.14784037 0.12610237
0000a0 a3 f1 00 3c 17 86 ee 3d c9 63 2d 3e 72 fe 84 3d
       0.007870111 0.11646669 0.16932596 0.06493844
0000b0 8f 8e 1a 3d aa 37 7d 3d fd 49 fb 3c 37 0d 6d 3e
       0.03773361 0.061820664 0.030674929 0.23149572
0000c0 ee 1d 6f bc 20 6d 0c 3e 84 06 a1 3c 24 c6 94 3d
       -0.014594538 0.13713503 0.019656427 0.07264355
0000d0 9e 0b b8 bd e1 e1 74 3d 84 dc 34 bd a2 4f 5e 3d
       -0.08986591 0.059785727 -0.044155613 0.054275163
0000e0 0e 53 94 3d 17 ff d1 3d 33 12 69 bd aa 09 a2 3c
       0.07242404 0.10253733 -0.05690212 0.019779999
0000f0 97 2a e4 3d b8 d6 b3 bd 95 b9 00 3d 76 14 f0 bc
       0.11140936 -0.08781189 0.031426985 -0.029306632
000100 bd 7a 08 3e ea 05 b9 bd 88 04 d9 3d 9a 57 6b 3d
       0.13328071 -0.09034331 0.105965674 0.05745659
000110 2a 85 cc bd ef 0b d5 3d b0 80 a1 bc 54 af 03 3e
       -0.099863365 0.10402667 -0.019714683 0.12859851
000120 7a 53 b1 3b f5 ea 9e bd fb b1 ad bd 5b e8 2c 3e
       0.0054115625 -0.07759658 -0.08481213 0.16885512
000130 d4 d9 cc 3d 42 25 28 bc 11 13 10 3e f0 28 1b 3d
       0.10002485 -0.010262789 0.14069773 0.037880838
000140 df 0c 39 3e 6f d2 09 bd 3a 98 51 3c 2b a3 6c bd
       0.18071316 -0.03364795 0.012792641 -0.057772797
000150 06 6a c4 bc b4 2b d0 bd 77 d6 8e 3d 8e 04 2e 3e
       -0.023976337 -0.10164586 0.069745 0.16993925
000160 7b c2 65 3e d6 58 c4 bd ad 16 c9 3d 5e 50 2b 3e
       0.2243747 -0.095872566 0.09818778 0.16729876
000170 51 4f 23 3e d2 f4 30 3e ef 78 d4 3d 44 e1 63 bc
       0.15948226 0.17280892 0.10374629 -0.013908688
000180 8c 60 2f bd 35 f3 a1 3d db 33 50 3e c1 67 0b 3e
       -0.042816684 0.07907716 0.20332281 0.13613798
000190 78 d7 c9 3d 94 39 52 bc f6 31 10 3e 35 06 5f 3e
       0.098555505 -0.0128311105 0.14081559 0.21779712
0001a0 51 9c 48 bc 5d 5c ac bd 5d 61 20 3e b7 9e 98 bd
       -0.0122443 -0.084160544 0.15662141 -0.074521475
0001b0 8b e5 f7 3d cd 75 8b 3c 68 75 00 3e 53 09 8a 3e
       0.12104329 0.017023945 0.12544787 0.2696024
0001c0 1b 18 98 bd 07 28 61 3b 9d 66 16 3e 4c fe 04 3e
       -0.07426473 0.0034356134 0.14687581 0.12987632
0001d0 e0 a1 cf 3d 2e 68 2e be 01 cb 15 3e e9 a2 26 3e
       0.10138297 -0.17031929 0.14628221 0.16273083
0001e0 4b 62 43 3d 60 d3 ce 3d f7 c6 2b 3e 5e b1 64 bd
       0.04770116 0.1009891 0.16775118 -0.055833213
0001f0 cb f7 33 be a1 11 a1 3d 7c e6 08 3e dd 13 53 ba
       -0.17574994 0.078646906 0.13369173 -0.0008051971
000200 4c 52 93 3d a8 82 89 3c bc 32 c0 3d 16 89 f1 bb
       0.07193431 0.016785935 0.09384677 -0.0073710782
000210 ad 07 b7 bc 09 f4 69 bd 7e 41 9e 3d a2 94 6a bd
       -0.022342527 -0.057117496 0.077273354 -0.057270654
000220 90 23 a6 bc 08 27 ad 3d 97 ee 18 bd 03 b8 2f bd
       -0.02028063 0.0845471 -0.037336912 -0.042900097
000230 00 68 0a be 53 c8 84 bd d1 80 27 3c 40 8c 4c bd
       -0.13516235 -0.06483521 0.010223583 -0.04993844
000240 77 7e 5a bd da 54 af bd e8 2f 06 3c 4a e2 f6 bd
       -0.053343263 -0.08561106 0.008190133 -0.1205488
000250 b6 b7 b8 3c fa b2 b2 bc 83 7f 79 3d 82 61 10 3e
       0.022548538 -0.021813858 0.06091262 0.14099696
000260 44 30 bf bd 59 e7 9e 3d 3b 01 e5 3d 40 77 19 3c
       -0.09335378 0.0775897 0.11181875 0.00936681
000270 ba 3e 74 3d 3a d1 63 3d d0 17 8c bd 92 d5 f4 3d
       0.059630133 0.055619456 -0.068404794 0.11954798
000280 ab 88 df bd f4 7f f3 3d f5 39 6f 3a 96 00 b8 bd
       -0.10914739 0.118896395 0.0009125763 -0.08984487
000290 78 c1 db 3d e0 9c fb 3d 32 1d 9c bd 8c 52 8f bd
       0.107302606 0.12285781 -0.07622756 -0.069981664
0002a0 f4 04 f1 3c 5d 39 d8 bd 5d 69 0f 3e ac f6 71 bc
       0.029421307 -0.10557816 0.14005037 -0.014768284
0002b0 9c b0 fd bd 8c b9 89 bd 4a f6 25 3d 05 f1 1f be
       -0.12387201 -0.067248434 0.040518083 -0.15619285
0002c0 ec 1b a3 3d 76 5b 24 3d 52 9a 52 bc 50 95 e7 3d
       0.0796431 0.040126286 -0.012854176 0.11307776
0002d0 73 e5 9b bc 8e 8c b2 3d 93 43 93 bd aa ce cd 3d
       -0.019030308 0.08718215 -0.07190623 0.10049184
0002e0 af 3c f8 3c 1d 4d 34 bd 9e f6 45 bc 91 c6 6f bd
       0.030302374 -0.044018853 -0.012082724 -0.058538977
0002f0 6f 4e 88 3c d8 0b 84 bd 71 a3 5a 3d 67 fb 96 3d
       0.016638963 -0.064475715 0.053378526 0.0737217
