results/training/gpt-oss-20b_h100_tp1/model_tp1_H64_biGRU.pt (torch, 118157 bytes, 10 tensors)

gru.weight_ih_l0 f4 [192, 6]
0	0xbb40e6e2	-0.0029434492
1	0x3da7b2c7	0.08188396
2	0x3ca6f37b	0.020379772
3	0x3dad605f	0.08465647
4	0xbceb0a37	-0.028691394
5	0x3d2ba2f4	0.04190345
6	0x3d23e577	0.040013757
7	0x3d600a75	0.054697473
8	0x3e277846	0.16354474
9	0x3e33093e	0.17483994
10	0x3dbb18f8	0.09135622
11	0x3d97805b	0.07397529
12	0xbe03cec9	-0.12871851
13	0xbba89f08	-0.005145911
14	0xbcac68be	-0.021046039
15	0x3c17ebf9	0.009272569
16	0x3ded8bb8	0.11598915
17	0xbddc8e58	-0.107693374
18	0xbcfdd286	-0.030984174
19	0xbe06c3d6	-0.13160643
20	0x3deeca2f	0.11659657
21	0x3d1d8384	0.0384555
22	0xbd9d76c1	-0.07688666
23	0x3dbab005	0.09115604
24	0x3d7d5145	0.061845083
25	0xbd8ffba8	-0.070304215
26	0x3d360ff9	0.044448826
27	0x3cc6a5e2	0.024249021
28	0x3dd11220	0.10208535
29	0x3db90e87	0.09035974
30	0xbe49c0cf	-0.19702457
31	0xbd69e646	-0.05710437
32	0x3d128ee0	0.035780787
33	0x3d21ce0b	0.03950314
34	0xbe39f898	-0.18161237
35	0xbd94dace	-0.07268296
36	0xbe3953d1	-0.1809838
37	0xbcfe3fd5	-0.031036297
38	0x3c633422	0.01386741
39	0xbe2f6a53	-0.17130403
40	0x3c384256	0.0112462845
41	0x3dfee1ee	0.124454364
42	0xbe118a35	-0.14212878
43	0xbdaff0c2	-0.08590843
44	0x3e176693	0.14785223
45	0xbde01ae2	-0.109426275
46	0xbe039ae4	-0.12852055
47	0xbda94f26	-0.082670495
48	0x3cc8cef3	0.024512744
49	0x3dfd8389	0.12378604
50	0x3c90f24c	0.017693661
51	0xbd9a364c	-0.075298876
52	0xbdaa97ed	-0.08329759
53	0x3b8aa575	0.00423115
54	0xbe3330c4	-0.17499071
55	0xbbda663d	-0.00666502
56	0xbd40d51e	-0.047078244
57	0xbda5a461	-0.080879934
58	0xbe06c6ba	-0.13161746
59	0xbd58f174	-0.052964643
60	0xbda9fd04	-0.08300212
61	0xbd130ed5	-0.035902817
62	0x3da32dd1	0.07967723
63	0x3d4ee569	0.05051175
64	0xbd0d5256	-0.03450235
65	0x3d665b93	0.056239676
66	0xbe748175	-0.23877509
67	0xbe2dfdb0	-0.16991305
68	0xbdf6408d	-0.12024031
69	0xbe6202f7	-0.22071443
70	0xbd4ce639	-0.050024245
71	0xbdc58c71	-0.09645928
72	0xbe209825	-0.15683039
73	0xbc104daa	-0.008807579
74	0xbdd76711	-0.10517705
75	0xbd71581c	-0.05892192
76	0xbde96d21	-0.11397768
77	0x3d408ecc	0.04701118
78	0xbd96c7d2	-0.073623314
79	0xbdf3fbdb	-0.11913272
80	0xbe7af4c5	-0.24507435
81	0xbe31d719	-0.1736721
82	0xbbc48edf	-0.005998477
83	0xbca6a3df	-0.020341812
84	0xbdaea587	-0.085276656
85	0xbd65dea4	-0.05612053
86	0x3c006ff8	0.007839195
87	0xbe685a85	-0.2269078
88	0xbd835e05	-0.06414417
89	0xbd424cd0	-0.047436535
90	0x3dcfdb74	0.10149279
91	0xbdd5dd0f	-0.10442554
92	0x3db18d7e	0.086695656
93	0x3e06dbe6	0.13169822
94	0xbc31d09d	-0.01085296
95	0x3d4c1e36	0.0498335
96	0xbd3ecc19	-0.04658136
97	0x3dc53f34	0.09631196
98	0x3d95181a	0.07279988
99	0xbce56cc4	-0.028005965
100	0x3da0dd24	0.07854679
101	0xbded08e4	-0.115739614
102	0x3d223d17	0.03960904
103	0x3c8536cc	0.01626148
104	0xbdce19ea	-0.100635365
105	0x3d572e95	0.05253466
106	0xbbf0c1ed	-0.0073473365
107	0xbdeab068	-0.11459428
108	0x3d988ceb	0.07448753
109	0x3d5a496f	0.053292688
110	0x3d358777	0.044318642
111	0x3c9ff3f6	0.01952551
112	0xbd5a3303	-0.053271305
113	0x3dcd1222	0.10013224
114	0x3e0050c3	0.12530808
115	0x3de732e4	0.112890035
116	0x3e2fa710	0.17153573
117	0xbd014501	-0.031559948
118	0x3e1a7d87	0.15086947
119	0x3d68ee43	0.05686785
120	0x3de14bd9	0.11000795
121	0xbd0ac3dd	-0.033878196
122	0x3e0d4d38	0.13798988
123	0xbdab32d7	-0.08359306
124	0x3dcc70c0	0.09982443
125	0x3d80fd80	0.06298351
126	0xbe84f436	-0.25967568
127	0xbd86295f	-0.0655086
128	0xbe1c3c06	-0.15257272
129	0xbdcabeca	-0.098996714
130	0xbe0430a9	-0.12909187
131	0x3dd8c36b	0.10584148
132	0x3dd5409a	0.104127124
133	0xbd07a464	-0.03311576
134	0x3cb41248	0.021981373
135	0x3dea089f	0.114274256
136	0x3db42263	0.08795621
137	0xbc90c426	-0.017671656
138	0xbc851514	-0.016245402
139	0xbc496c46	-0.012293881
140	0x3e19b2a9	0.1500956
141	0xbdd0dd2a	-0.10198434
142	0xbd731831	-0.059349243
143	0x3d1c7650	0.03819877
144	0x3b716f8b	0.0036840166
145	0x3e2f14f4	0.17097837
146	0x3de544f1	0.1119479
147	0x3e185ae8	0.14878428
148	0x3e3a4b93	0.18192892
149	0xbd224255	-0.03961404
150	0xbd0af8d9	-0.033928726
151	0x3d252642	0.04031969
152	0x3c8dfad6	0.017331522
153	0xbe34db58	-0.17661798
154	0xbda8c8a0	-0.08241391
155	0x3cbd3051	0.023094328
156	0x3d980bc5	0.0742412
157	0xbd96b07b	-0.0735788
158	0xbe18f148	-0.14935791
159	0xbe020206	-0.12696084
160	0xbd855cab	-0.06511816
161	0xbb1858dc	-0.0023246324
162	0x3d591574	0.052998975
163	0xbc501305	-0.012699847
164	0xbd089f85	-0.033355255
165	0x3da1d4c7	0.07901912
166	0x3db2644d	0.08710537
167	0x3d45072c	0.048102543
168	0xbb188337	-0.002327157
169	0x3c68c198	0.014206313
170	0xbc0e6cc1	-0.008692921
171	0x3dcf23d3	0.10114255
172	0x3d9eabb2	0.07747592
173	0xbd2e0bdc	-0.04249178
174	0x3e2a3389	0.16621222
175	0xbb2089c8	-0.0024496187
176	0x3d1f6dc4	0.03892304
177	0x3e366797	0.17812954
178	0x3e678379	0.22608747
179	0x3ca72644	0.020403989
180	0x3c8b54b5	0.017008165
181	0x3e1ca6ac	0.15297955
182	0x3e5622ac	0.20911664
183	0xbbbe3537	-0.0058046835
184	0x3d20b262	0.03923262
185	0x3d9d9560	0.07694507
186	0x3c30d4e5	0.0107929455
187	0x3d531110	0.051529944
188	0x3d26a002	0.04067994
189	0xbc53fe6e	-0.012939079
190	0xbd3dc1ad	-0.04632728
191	0xbd0904f6	-0.033451997
192	0x3e631d41	0.22179128
193	0x3dcb2987	0.0992003
194	0xbcc7866b	-0.024356088
195	0x3e07941f	0.13240097
196	0x3e34ff12	0.17675427
197	0xbdf540c9	-0.119752474
198	0x3d26d3f7	0.04072949
199	0x3c90ab2a	0.017659742
200	0xbd218401	-0.03943253
201	0x3e14bea8	0.14525855
202	0x3d2e9366	0.04262104
203	0x3d31ead6	0.043436848
204	0x3db931b1	0.09042681
205	0xbd5de287	-0.05417111
206	0xbb8753f4	-0.004129881
207	0xbd26ec4c	-0.040752694
208	0x3c09c2f1	0.008408294
209	0x3deab3b4	0.11460057
210	0x3dfbbae4	0.12291506
211	0x3da54bf5	0.08071128
212	0x3db8a162	0.09015156
213	0xbd331b2c	-0.043727085
214	0xbb2e8588	-0.0026629884
215	0x3d1816a4	0.037130967
216	0xbe1bd4ee	-0.15217945
217	0xbd3f7330	-0.04674071
218	0xbe55ea1b	-0.20890085
219	0xbe69e018	-0.22839391
220	0xbe15245d	-0.14564653
221	0xbddbe6d4	-0.10737386
222	0x3d9f0052	0.07763733
223	0x3e51d0ca	0.20489803
224	0x3c1109fa	0.008852476
225	0x3cfc100a	0.030769367
226	0x3d174d34	0.03693886
227	0xbc61519d	-0.013752368
228	0x3bafed5e	0.0053688725
229	0x3da49def	0.08037936
230	0xbda57ed6	-0.08080833
231	0xbd6011e6	-0.05470457
232	0xbd39610c	-0.045258567
233	0x3dd3b007	0.10336309
234	0x3df0bf63	0.11755254
235	0x3e62a340	0.22132587
236	0x3e386561	0.18007423
237	0x3d95fb54	0.07323328
238	0x3e787274	0.2426241
239	0xbbf5c46e	-0.007500223
240	0x3c857816	0.016292613
241	0xbe24ea19	-0.16104926
242	0xbe084f76	-0.13311562
243	0xbd096386	-0.03354218
244	0xbe22d576	-0.15901741
245	0xbd857232	-0.06515922
246	0x3d146752	0.036231346
247	0xbda4d0db	-0.080476485
248	0x3d5c44cf	0.05377656
249	0xbcdcb3dd	-0.026941234
250	0x3d9a6bfb	0.07540127
251	0x3d8bbb43	0.06822827
252	0xbdb81a45	-0.089893855
253	0xbd876d4e	-0.06612645
254	0xbdfb0e90	-0.12258637
255	0xbe1c86db	-0.15285818

gru.weight_hh_l0 f4 [192, 64]
0	0x3d2c37a9	0.04204527
1	0xbde00e88	-0.109402716
2	0xbbff0051	-0.00778202
3	0x3d8fe5bd	0.07026241
4	0x3d9de9a8	0.07710582
5	0xbe01be3e	-0.12670228
6	0xbb22ad41	-0.0024822506
7	0xbba5286f	-0.0050402205
8	0xbc66dad0	-0.014090255
9	0xbe05648d	-0.13026638
10	0xbe03a8c2	-0.12857345
11	0xbc51e72a	-0.012811461
12	0xbe26e139	-0.16296853
13	0x3e0b1012	0.13580349
14	0xbb348c47	-0.0027549432
15	0x3cde53df	0.027139602
16	0xbbf01d59	-0.0073277173
17	0xbad1268b	-0.0015956921
18	0x3c8c2ba6	0.017110657
19	0x3db9acee	0.09066187
20	0x3bc006ea	0.005860199
21	0xbd928f6e	-0.07156263
22	0xbe0d0588	-0.13771641
23	0xbdf59fe1	-0.11993385
24	0xbd067964	-0.03283061
25	0x3dec61d7	0.11542099
26	0xbe012420	-0.12611437
27	0x3da30187	0.07959276
28	0xbd1ab694	-0.037771776
29	0xbdfd70f2	-0.12375058
30	0xbd80793e	-0.06273125
31	0x3de18164	0.110110074
32	0x3d290ccc	0.04127197
33	0xbde3b676	-0.11118786
34	0x3d896c10	0.067100644
35	0xbdc476a5	-0.09592942
36	0xbd105864	-0.035240546
37	0x3d92adec	0.07162079
38	0x3db5b0f8	0.08871645
39	0x3cc4a3b0	0.024003834
40	0xbcb63431	-0.022241684
41	0xbe201a07	-0.15634929
42	0x3d6ad44a	0.05733136
43	0x3d6fac01	0.058513645
44	0x3de6bdd0	0.112666726
45	0x3d9bbca5	0.076043405
46	0xbdf6778a	-0.12034519
47	0xbd691f9b	-0.056914907
48	0xbd3beb99	-0.04587898
49	0xbc92194f	-0.017834334
50	0x3bb82e09	0.005620722
51	0x3daf7acd	0.08568344
52	0xbcd5bb09	-0.026090162
53	0xbdf2bdbd	-0.11852596
54	0x3dbdbfc6	0.092650935
55	0x3de9b4c5	0.11411432
56	0x3de559bc	0.11198756
57	0xbdf0b124	-0.11752537
58	0x3d4dca09	0.050241504
59	0xbdd9a9b5	-0.10628072
60	0xbcea4e4c	-0.028601788
61	0xbdbe9f86	-0.093077704
62	0xbd8de720	-0.06928849
63	0xbb088516	-0.0020831279
64	0x3d91a75a	0.07111998
65	0xbd35931a	-0.04432974
66	0xbdfdd97d	-0.12394998
67	0xbd11a106	-0.035553955
68	0xbd8f9c05	-0.0701218
69	0xbe523b0b	-0.20530336
70	0x3dbf7d5d	0.09350083
71	0x3ddffc25	0.10936765
72	0x3db65ebc	0.08904788
73	0xbd655fa1	-0.055999402
74	0xbbb165ad	-0.005413732
75	0xbe41673f	-0.18887042
76	0xbe25eb5d	-0.16203065
77	0x3d263c46	0.040584825
78	0x3cfd192e	0.030895796
79	0x3dd4915f	0.1037929
80	0xbe1cc0b3	-0.15307884
81	0xbd739d13	-0.05947597
82	0x3c3f4b2e	0.011675639
83	0xbd878c86	-0.066185996
84	0xbc631e35	-0.013862182
85	0x3e09d330	0.13459468
86	0xbdc8542e	-0.09781681
87	0xbd9f59c9	-0.07780797
88	0xbd8ce76f	-0.0688008
89	0xbcc137ef	-0.023586242
90	0xbd9d1267	-0.076695256
91	0xbc9277fd	-0.01787948
92	0x3dfda1c9	0.12384374
93	0xbd984436	-0.07434885
94	0x3d0ad3b6	0.03389331
95	0x3d4c3251	0.049852673
96	0x3d9ae6d3	0.075635575
97	0xbd46653f	-0.0484364
98	0x3de20a32	0.11037101
99	0x3e01b1d8	0.12665498
100	0xbe3b4528	-0.182881
101	0x3e1e0c0f	0.15434287
102	0x3e11c29d	0.14234395
103	0x3cdcd320	0.026956141
104	0x3ad5e4ac	0.001631876
105	0xbcd1d94f	-0.025616316
106	0x3ccf3de9	0.025298076
107	0x3c9b46e9	0.018954711
108	0xbcfda31d	-0.030961568
109	0x3cff70b4	0.03118167
110	0x3d2a82af	0.041628536
111	0xbdc75e60	-0.097347975
112	0xbc3ca9ee	-0.011515124
113	0x3e20e96c	0.15714043
114	0xbdcfc8c1	-0.10145713
115	0x3d3e228f	0.046419676
116	0xbd7502be	-0.05981707
117	0x3e170b11	0.14750315
118	0x3d5e0ba4	0.05421032
119	0x3ddbf279	0.10739607
120	0xbd4649f4	-0.04841037
121	0xbd686dd7	-0.056745376
122	0xbc8ed46c	-0.017435275
123	0xbd01b78d	-0.03166919
124	0x3dcb0ba9	0.099143334
125	0xbdeb8cfe	-0.115015015
126	0xbe190045	-0.14941509
127	0xbd77e74b	-0.060523313
128	0xbd610b39	-0.054942343
129	0x3e22cc67	0.15898286
130	0x3ddcc9e3	0.10780694
131	0x3dea4c34	0.11440316
132	0x3d07a17e	0.033112995
133	0xbdcec30e	-0.100957975
134	0x3e261323	0.16218238
135	0xbc1c9385	-0.009556656
136	0x3da23f21	0.07922197
137	0x3e0d4dd4	0.1379922
138	0xbddcb1cc	-0.107760996
139	0xbd11eaed	-0.035624433
140	0x3d78ff85	0.060790557
141	0x3de8e506	0.11371808
142	0x3ba92593	0.00516195
143	0xbdcefce1	-0.101068266
144	0x3d102009	0.0351868
145	0x3d93c654	0.072155625
146	0xbdb3ba41	-0.087757595
147	0x3db4a663	0.08820798
148	0x3dc3e4e0	0.09565139
149	0x3e17dc19	0.14830054
150	0xbdc208c2	-0.09474327
151	0x3d974187	0.07385545
152	0x3e003bf8	0.12522876
153	0xbdc7de36	-0.0975918
154	0x3b9d1740	0.0047940314
155	0xbc8016cb	-0.015635869
156	0xbe080d75	-0.13286383
157	0xbde42093	-0.111390255
158	0x3c7934ab	0.015210311
159	0x3d2c2761	0.042029742
160	0xbe0bd5c1	-0.1365576
161	0x3d4a4a5a	0.049387313
162	0x3dd852d2	0.10562672
163	0xbdcf5348	-0.101233065
164	0xbcca86d0	-0.024722487
165	0x3d7bb468	0.061451346
166	0x3d4162bb	0.047213297
167	0x3dc85d52	0.097834244
168	0x3abdd0da	0.0014481798
169	0x3dcb5fa1	0.09930349
170	0x3d5ca2d8	0.053866237
171	0x3e0db660	0.13839102
172	0xbd9c52a9	-0.07632954
173	0x3d4cd656	0.050009094
174	0x3dbab308	0.09116179
175	0x3dc1d9a1	0.094653375
176	0xbd287243	-0.041124593
177	0xbd9179e2	-0.071033254
178	0x3bad5578	0.0052897297
179	0x3d882f09	0.06649596
180	0xbcb2b6ee	-0.021815743
181	0x3db88c86	0.09011178
182	0xbd9db0e3	-0.07699754
183	0x3e0de1a8	0.13855612
184	0xbdc84297	-0.09778326
185	0x3e0befad	0.13665648
186	0x3e0bbfb2	0.13647345
187	0xbde07110	-0.10959065
188	0x3da8b8aa	0.08238347
189	0x3d2c69c6	0.04209306
190	0xbd2c04f8	-0.041996926
191	0x3ccb27c3	0.024799233
192	0xbcc0fd1e	-0.023558196
193	0xbda62066	-0.08111648
194	0x3df308a2	0.11866881
195	0xbde36dd3	-0.11104932
196	0xbdb4f219	-0.08835239
197	0xbd9a0718	-0.07520884
198	0xbd7b325d	-0.061327327
199	0x3b742661	0.003725432
200	0x3d2d9443	0.04237772
201	0x3e07c3ce	0.13258287
202	0x3c94e009	0.018173235
203	0xbc654bf7	-0.013995162
204	0xbdaa354b	-0.08310946
205	0x3c7c4d91	0.015399353
206	0xbd6f64ba	-0.05844567
207	0xbda04f53	-0.0782763
208	0x3e060287	0.13086902
209	0x3c1833ae	0.009289665
210	0xbdc5b504	-0.096536666
211	0x3df5147e	0.11966799
212	0x3c3e4b00	0.011614561
213	0x3d448053	0.047973942
214	0xbde4ed11	-0.11178029
215	0xbd932ee2	-0.071866766
216	0x3c47f2f2	0.012203919
217	0xbe045f1e	-0.1292691
218	0x3d631f49	0.055449758
219	0xbd08988e	-0.033348612
220	0xbcb700bd	-0.02233922
221	0x3dbf1708	0.09330565
222	0x3dd24612	0.10267271
223	0x3ba17492	0.0049272263
224	0xbd92f4ae	-0.07175575
225	0x3d8777bd	0.06614635
226	0x3c6b39b5	0.01435702
227	0x3de3381b	0.11094686
228	0x3d72d0ef	0.059281286
229	0x3d4ec270	0.0504784
230	0xbb45bf28	-0.0030173752
231	0x3df397aa	0.11894162
232	0xbdffbe5e	-0.124874815
233	0xbdf27f81	-0.11840726
234	0x3ddd7851	0.10813964
235	0x3d0381b4	0.032106116
236	0xbcef2101	-0.029190542
237	0x3d41371d	0.0471717
238	0x3d074655	0.03302606
239	0x3dd1a625	0.10236768
240	0xbadfff14	-0.0017089569
241	0x3da25b65	0.079275884
242	0x3caed923	0.021343773
243	0xbd924960	-0.071429014
244	0x3dbc0b7a	0.091818765
245	0x3d9952c9	0.07486493
246	0x3cf4b5fb	0.029871931
247	0x3d8b493c	0.06801078
248	0xbdc9f548	-0.09861237
249	0xbd319829	-0.043358
250	0xbdbb544a	-0.09146936
251	0xbd0811a0	-0.033219934
252	0x3c78f312	0.015194671
253	0x3aba2e66	0.0014204502
254	0x3cb0b497	0.021570487
255	0x3c9e0aaa	0.019292194

gru.bias_ih_l0 f4 [192]
0	0x3de95d0a	0.11394699
1	0x3dd24a1b	0.10268041
2	0x3d5cbbc9	0.053890023
3	0xba2749e5	-0.00063815556
4	0x3ba8636b	0.0051388047
5	0xbd8111f2	-0.06302251
6	0xbde04cdf	-0.10952162
7	0x3e0686d5	0.13137372
8	0x3d8cdcc2	0.06878044
9	0xbde0d708	-0.10978514
10	0x3e0ff5ac	0.1405856
11	0xbd87f44b	-0.06638392
12	0x3cd75636	0.026286226
13	0x3d7e8767	0.06214085
14	0xbcda9152	-0.026680622
15	0xbcf821e2	-0.030289594
16	0x3d3e7074	0.046493962
17	0x3de0cd97	0.10976713
18	0x3d301959	0.042992923
19	0x3ce22ce4	0.027609296
20	0xbda48d50	-0.08034766
21	0x3cc6e8ca	0.024280924
22	0x3d9b66a4	0.075879365
23	0x3d60cfa9	0.05488554
24	0x3e15b4b0	0.14619708
25	0xbd3c2a6b	-0.04593889
26	0xbdb0aa65	-0.0862625
27	0x3dbbe8ac	0.09175238
28	0x3c173444	0.00922877
29	0x3d41dc17	0.047329035
30	0x3d88950b	0.06669053
31	0x3e08f321	0.13373996
32	0x3e17f603	0.1483994
33	0x3d65bcd4	0.056088284
34	0xbdbe5991	-0.09294427
35	0xbd68a12f	-0.05679434
36	0x3d376311	0.04477221
37	0xbcd8ba09	-0.026455896
38	0x3d938c6e	0.07204519
39	0x3cc4e71d	0.024035985
40	0x3d80dce1	0.06292129
41	0xbd908380	-0.07056332
42	0xbdd4b019	-0.103851505
43	0x3d6bb97f	0.05754995
44	0x3d93eb96	0.07222669
45	0x3d80d717	0.06291025
46	0x3e2fe42b	0.17176883
47	0x3d697bff	0.057003018
48	0xbdac8b13	-0.08424964
49	0x3df846fd	0.12122915
50	0xbd851620	-0.06498361
51	0xbb79fb16	-0.0038144044
52	0xbdbc24eb	-0.09186729
53	0x3db499b8	0.08818382
54	0x3d0c82ce	0.034304433
55	0x3cd953c2	0.026529197
56	0x3ca16270	0.019700259
57	0x3e16b41b	0.14717142
58	0x3d3384b0	0.043827713
59	0xbd76fd54	-0.060300186
60	0x3c0769e8	0.008264996
61	0x3dbfc37f	0.0936346
62	0xbdb4c55f	-0.08826708
63	0xbbbf0d25	-0.0058304244
64	0x3bc68281	0.0060580377
65	0x3d4e8d16	0.05042752
66	0x3e1ffd1f	0.15623902
67	0x3cd45816	0.025920909
68	0x3e2074f1	0.1566961
69	0x3da78ba6	0.08180933
70	0x3e1bf5be	0.15230462
71	0x3e2afb21	0.1669736
72	0xbc06e971	-0.008234368
73	0x3d8863f9	0.06659693
74	0x3e295ec3	0.16540055
75	0x3dc574ba	0.096414044
76	0x3cc037e9	0.02346416
77	0x3ddad551	0.10685218
78	0x3d69cc38	0.057079524
79	0x3e483e77	0.19555078
80	0xbae0d966	-0.0017154634
81	0x3d96ab9c	0.07356951
82	0x3d1344ca	0.035954274
83	0x3e41ae3c	0.18914121
84	0x3d529593	0.051412176
85	0xbd88ef57	-0.066862755
86	0xbcb64d44	-0.02225364
87	0x3bed3156	0.0072385473
88	0xbd901896	-0.070359394
89	0xbd4bfbaa	-0.049800552
90	0x3da38b4e	0.07985555
91	0x3dc6a886	0.09700112
92	0x3e30b780	0.172575
93	0x3e02409b	0.12719958
94	0x3e57d4f6	0.21077332
95	0x3ce3a8e1	0.027790489
96	0x3df7022d	0.12060962
97	0xbcb59a66	-0.02216835
98	0x3d8308aa	0.06398137
99	0x3dd3980f	0.10331737
100	0x3e2f788d	0.1713583
101	0x3de7f4cb	0.113259874
102	0x3b8d0a06	0.0043041734
103	0x3d90dc93	0.07073321
104	0xbd0456cf	-0.03230935
105	0x3db1668c	0.086621374
106	0x3a01196a	0.00049247465
107	0x3e47559c	0.19466251
108	0x3d260a86	0.04053738
109	0x3e0eee2b	0.13958041
110	0x3e0c35ec	0.13692445
111	0x3e095dd8	0.13414705
112	0xbb8883c6	-0.0041660992
113	0x3e159a8c	0.14609736
114	0x3e1bf616	0.15230593
115	0x3d8d40f7	0.06897157
116	0x3cd0f425	0.025507042
117	0xbcc64fbc	-0.024207942
118	0x3dbeba5d	0.0931289
119	0x3e6d7a06	0.2319108
120	0xbd50d80b	-0.050987285
121	0x3e449729	0.19198288
122	0xbd4f5f04	-0.050627723
123	0x3e0f32bf	0.13984202
124	0xbd2317c8	-0.0398176
125	0xbcba4927	-0.02273996
126	0x3d8f8027	0.07006865
127	0x3dbfb4a6	0.09360628
128	0x3dced454	0.10099092
129	0x3e063609	0.1310655
130	0xbde7fbfa	-0.113273576
131	0x3bd4b941	0.0064918105
132	0xbdaa8552	-0.0832621
133	0xbde72461	-0.112862356
134	0x3d70e950	0.058816254
135	0x3dc44b30	0.095846534
136	0xbd11ddff	-0.035612103
137	0x3dcca4e7	0.0999239
138	0xbd7731b6	-0.060350142
139	0xbdd3068b	-0.10303982
140	0x3cad96c1	0.02119005
141	0x3bee3b76	0.007270272
142	0xbda35c03	-0.07976534
143	0xbdf6e4c8	-0.12055355
144	0xbde5cb44	-0.112204105
145	0xbd5703ef	-0.052493986
146	0xbdbef0e5	-0.09323291
147	0xbbea77ff	-0.007155418
148	0x3dd79867	0.10527115
149	0x3cbca4a4	0.023027726
150	0x3c551817	0.013006232
151	0x3de58ea8	0.1120885
152	0x3c38875d	0.011262742
153	0x3c1de895	0.009637971
154	0x3d921603	0.07133105
155	0xbd99ce56	-0.075100586
156	0x3b300a58	0.0026861634
157	0x3c83b5a0	0.016077816
158	0x3ba038a9	0.004889567
159	0x3da9d2ca	0.08292158
160	0xbb995411	-0.004679211
161	0x3c46d58a	0.012135873
162	0x3ddf6689	0.10908229
163	0xbd8f9ed3	-0.07012715
164	0xbda8e051	-0.0824591
165	0xbd530c2d	-0.051525284
166	0xbdaa8c91	-0.08327592
167	0x3dfce350	0.12348044
168	0xbcf9a94b	-0.030476233
169	0xbd8bd074	-0.06826869
170	0x3bb9aaa6	0.005666095
171	0x3c841f01	0.016128065
172	0x3de76f8a	0.11300571
173	0xbda6208d	-0.08111677
174	0xbd74fd17	-0.059811678
175	0x3c9ccc41	0.019140365
176	0xbdb928cd	-0.09040985
177	0xbd2aa916	-0.04166516
178	0x3e002308	0.12513363
179	0x3dffe21e	0.124943
180	0x3c8193eb	0.015817603
181	0xbc39802f	-0.011322065
182	0xbdba572b	-0.09098657
183	0x3de1a2d2	0.11017384
184	0x3bdbab92	0.0067038024
185	0x3ca39a98	0.019971177
186	0x3dad2610	0.084545255
187	0xbdaa24ca	-0.08307798
188	0xbcdb37d4	-0.02676002
189	0xbd64a8bc	-0.05582498
190	0xbdbb1560	-0.09134936
191	0x3c109070	0.008823499

gru.bias_hh_l0 f4 [192]
0	0x3dd3197a	0.10307594
1	0x3dc243a8	0.09485561
2	0x3d666bbc	0.056255087
3	0x3d1e325e	0.038622253
4	0xbd0df3a2	-0.034656174
5	0xbc8847cb	-0.016635796
6	0x3e0702b0	0.13184619
7	0xba122697	-0.00055752083
8	0x3da84d73	0.08217897
9	0x3d3d8f46	0.046279214
10	0x3e1fb7bb	0.15597431
11	0xbd9b14f3	-0.07572355
12	0xbd3c43c6	-0.04596307
13	0xbdd25031	-0.102692015
14	0xbd445135	-0.047929008
15	0x39cc442a	0.00038960698
16	0x3cbe4b58	0.023229286
17	0x3c8b1678	0.016978487
18	0x3dcb2af1	0.099203
19	0x3d9bfbe0	0.07616401
20	0xbd87b9e1	-0.066272505
21	0x3e181413	0.14851408
22	0x3c47833f	0.012177288
23	0x3ca7103a	0.02039348
24	0x3d56501e	0.0523225
25	0x3cfe0c1a	0.03101163
26	0x3d45028c	0.048098132
27	0x3cb13c98	0.021635339
28	0xbc96d60c	-0.018412612
29	0x3c9269ca	0.01787271
30	0xbdb661e8	-0.08905393
31	0x3db500a2	0.08838011
32	0x3dc3ced1	0.095609315
33	0xbc784494	-0.015153069
34	0xbcd47b2f	-0.025937645
35	0xbd464888	-0.048409015
36	0x3e18a8e6	0.1490818
37	0x3dbeb10b	0.09311112
38	0x3d6f8328	0.05847469
39	0x3e101428	0.14070189
40	0x3df29ddc	0.118465155
41	0x3dd04ae1	0.10170532
42	0x3ddadaf8	0.10686296
43	0x3c6d970d	0.014501345
44	0xbdbf0983	-0.09327986
45	0xbc2b0f89	-0.010440716
46	0x3d84e5cb	0.06489142
47	0x3d91402f	0.0709232
48	0x3d48176a	0.048850454
49	0xbcb8c5d3	-0.022555267
50	0x3e2640be	0.16235635
51	0x3c9f93c4	0.01947964
52	0x3dba77ef	0.09104907
53	0x3e1fc6bf	0.1560316
54	0xbc9192f6	-0.017770272
55	0x3d34dabd	0.044153918
56	0x3c86440b	0.016389867
57	0x3d8e1978	0.069384515
58	0xbda450c4	-0.08023217
59	0xbd9336b7	-0.071881704
60	0xbd1c4fb2	-0.03816194
61	0x3c69fef7	0.01428198
62	0xbc9ad6bf	-0.018901227
63	0x3dad40dc	0.084596366
64	0x3e4aa1e2	0.19788316
65	0xbd99f047	-0.075165324
66	0xbc3d8335	-0.011566927
67	0xbc1c98a6	-0.009557879
68	0x3ddfb41b	0.10923024
69	0x3da87956	0.08226268
70	0x3c9d7fac	0.019225918
71	0x3e3812f5	0.17975982
72	0x3e1cd104	0.15314108
73	0x3d5ec450	0.054386437
74	0x3e5d3a39	0.21604241
75	0x3d9adc37	0.07561534
76	0x3e394e1e	0.18096206
77	0x3d27581d	0.040855516
78	0xbb66fcbf	-0.0035245863
79	0xbd1eb55c	-0.038747177
80	0x3cd33ed7	0.0257868
81	0x3e49c2de	0.19703242
82	0x3d43abaf	0.047771152
83	0x3e0c63f1	0.1371
84	0xbc1b65f9	-0.009484761
85	0xbd0fa6ff	-0.03507137
86	0x3dbbd87d	0.09172151
87	0x3ce3d73a	0.027812589
88	0xbbc48811	-0.0059976657
89	0x3e10395b	0.1408438
90	0xbcd9bbc4	-0.026578791
91	0x3e481787	0.19540225
92	0xbd610b57	-0.054942455
93	0x3ac1e19a	0.0014791966
94	0x3dab2c6d	0.08358083
95	0xbb0715f5	-0.0020612453
96	0x3e2e6233	0.17029648
97	0x3e338186	0.17529878
98	0xbcd9b3f7	-0.026575072
99	0x3d3f9d8b	0.046781104
100	0x3dfdf6f7	0.124006204
101	0x3d87f58b	0.066386305
102	0xbd5ffe40	-0.05468583
103	0xbc516e18	-0.012782596
104	0xbddcd3f4	-0.10782614
105	0x3e4848fa	0.19559088
106	0xbd019e63	-0.03164519
107	0x3d089cf2	0.0333528
108	0x3d32d8f0	0.04366392
109	0xbd18a19d	-0.0372635
110	0x3db02bfe	0.08602141
111	0x3da68b84	0.08132079
112	0x3e4a21b0	0.19739413
113	0x3cff16cd	0.031138802
114	0x3def519a	0.11685486
115	0x3e06e2e4	0.1317249
116	0x3dfef83d	0.124496914
117	0xbb9bc98a	-0.00475425
118	0xbd9ba6ce	-0.07600175
119	0x3d541e30	0.0517866
120	0xbc116cad	-0.008876008
121	0x3ca8493f	0.020542739
122	0xbc9df292	-0.019280706
123	0x3db37d6a	0.08764155
124	0x3e149c10	0.14512658
125	0xbc98509e	-0.018593129
126	0x3b42d0d0	0.0029726513
127	0x3d927bdc	0.071525306
128	0xbdb718db	-0.08940288
129	0x3da5d9a0	0.08098149
130	0x3b301773	0.0026869446
131	0x3ddf4276	0.10901348
132	0x3cc75f8c	0.024337552
133	0x3d8451df	0.06460928
134	0xbc2bb622	-0.010480436
135	0xbdcfafcc	-0.101409525
136	0x3ce7ecdb	0.028311184
137	0xbb15155a	-0.0022748322
138	0x3d429c06	0.047512077
139	0xbda24e27	-0.079250626
140	0x3d822e63	0.06356504
141	0x3d9e1105	0.0771809
142	0xbdf51435	-0.11966745
143	0xbd59bc50	-0.053158104
144	0x3d8a1c7d	0.06743715
145	0x3de6fb82	0.1127844
146	0x3c878bbe	0.016546126
147	0x3dbdbf5e	0.09265016
148	0x3d6402f5	0.055666883
149	0x3d35e807	0.04441073
150	0xbd256cc7	-0.04038694
151	0x3dd4d785	0.103926696
152	0x3d3def03	0.046370517
153	0x3cd6ab99	0.026204871
154	0xbddce48b	-0.107857786
155	0x3d32230c	0.043490455
156	0xbe0c68b5	-0.13711818
157	0xbdcef2c8	-0.101049006
158	0xbda05aeb	-0.07829841
159	0x3d4d95c3	0.050191652
160	0x3d9dfad4	0.07713857
161	0x3dc6fcaf	0.09716164
162	0xbde5b539	-0.11216206
163	0xbdb29fc8	-0.08721882
164	0xbd95312c	-0.072847694
165	0x3dda4c06	0.106590316
166	0xbd5b58a1	-0.05355132
167	0xbcf6126f	-0.030038087
168	0xbdb873bc	-0.090064496
169	0xbd63659e	-0.05551683
170	0xbd30369a	-0.043020822
171	0x3deb2af3	0.11482801
172	0x3d97f968	0.07420617
173	0xbd5fa2aa	-0.054598488
174	0x3d15b094	0.03654535
175	0xbdeb2c47	-0.114830546
176	0xbdba3769	-0.090926
177	0x3e024850	0.12722898
178	0x3e1be815	0.15225251
179	0x3de6d39b	0.11270829
180	0x3df1a8aa	0.11799748
181	0x3d680fad	0.056655575
182	0x3b87fa2d	0.0041496963
183	0x3d71d7d4	0.05904372
184	0xbddd3172	-0.108004466
185	0x3dcd1d62	0.1001537
186	0x3d8d8628	0.06910354
187	0xbde615e3	-0.11234643
188	0xbdeaaaa5	-0.11458329
189	0x3daab1f5	0.08334724
190	0xbd72986c	-0.059227392
191	0x3b5849ba	0.0033002929

gru.weight_ih_l0_reverse f4 [192, 6]
0	0xbd9fee12	-0.0780908
1	0x3dbc76a6	0.09202318
2	0xbd8fe50b	-0.07026108
3	0xbc06d598	-0.008229636
4	0x3d949c93	0.07256427
5	0x3c67bb87	0.014143831
6	0x3d883519	0.066507526
7	0xbd29f852	-0.041496582
8	0xbd880f16	-0.066435024
9	0x3d3a2663	0.045446765
10	0x3d4b02e3	0.0495633
11	0x3d1dd672	0.03853459
12	0xbcf034f2	-0.029322121
13	0xbdde9f01	-0.10870171
14	0xbd280be4	-0.041026965
15	0xbe43431d	-0.1906857
16	0xbe3848da	-0.1799654
17	0xbbeba9b2	-0.00719186
18	0xbe18e937	-0.14932714
19	0xbcf8a461	-0.03035182
20	0xbda549a1	-0.08070684
21	0xbe1f8bcb	-0.1558067
22	0xbd9348c8	-0.07191616
23	0x3caba5d8	0.020953104
24	0xbe0ffeb2	-0.14062002
25	0xbd12b43b	-0.035816412
26	0xbd693e59	-0.056944225
27	0x3d969294	0.07352176
28	0xbd9a6946	-0.075396106
29	0xbdd1dc9a	-0.102471545
30	0x3cc5822a	0.024109919
31	0xbe6ab105	-0.2291909
32	0xbdd59e2f	-0.10430562
33	0x3c807399	0.015680121
34	0xbe18124b	-0.14850728
35	0x3c65c380	0.014023662
36	0xbe06ffb1	-0.13183476
37	0xbdedf81c	-0.11619589
38	0xbe17216c	-0.14758843
39	0xbd89fae9	-0.067373104
40	0x3d8fb48d	0.07016859
41	0xbd6539fb	-0.055963498
42	0xbdd26192	-0.10272516
43	0x3c456e05	0.0120501565
44	0xbd32eece	-0.043684773
45	0xbd9ea39b	-0.07746049
46	0xbdcd94b5	-0.10038129
47	0xbd07ead1	-0.033182923
48	0xbba8c89f	-0.005150869
49	0x3dfde258	0.12396687
50	0xbd9c669b	-0.07636758
51	0x3d5e452d	0.05426519
52	0x3d394423	0.045230996
53	0x3d9be1ab	0.07611402
54	0x3da51514	0.08060661
55	0x3d9f5c6c	0.077813
56	0x3e25b9d1	0.16184165
57	0x3c2b273f	0.010446369
58	0xbcd8eb44	-0.02647937
59	0xbd8b4ceb	-0.0680178
60	0xbc4c6b3c	-0.012476739
61	0xbbff8e3c	-0.007798938
62	0xbe36a557	-0.1783651
63	0x3d2ded41	0.04246259
64	0xbdc552a1	-0.09634901
65	0x3dc92c91	0.098229535
66	0xbe09aeef	-0.13445638
67	0xbd8e670e	-0.0695325
68	0x3b53fab5	0.0032345478
69	0x3cc9a2e8	0.024613813
70	0x3cecfac0	0.02892816
71	0x3da67a96	0.0812885
72	0xbbfe67e4	-0.0077638496
73	0xbd6809aa	-0.05664984
74	0xbe08c1af	-0.13355134
75	0xbd75da0e	-0.060022406
76	0x3d28ca58	0.041208595
77	0x3d9ce543	0.07660916
78	0xbda31a56	-0.079640076
79	0xbd935aa2	-0.07195021
80	0x3cf6c8b4	0.030125
81	0xbe07ae9c	-0.13250202
82	0xbd85fc3f	-0.06542253
83	0xbd89dee5	-0.06731967
84	0x3d0b72cd	0.03404503
85	0x3df49253	0.11941972
86	0x3da56ff9	0.08077998
87	0x3dca6ceb	0.09884056
88	0x3df3d67c	0.11906144
89	0x3d213774	0.039359525
90	0x3d9d2477	0.07672971
91	0x3ca62c8a	0.02028491
92	0x3bf19df8	0.0073735677
93	0xbdc553f9	-0.09635157
94	0x3df74b83	0.120749496
95	0xbb427199	-0.002966976
96	0x3d900019	0.070312686
97	0xbd89bb38	-0.06725162
98	0xbd223c8b	-0.03960852
99	0x3e0add16	0.135609
100	0x3c7e8bcb	0.015536259
101	0xbdad2843	-0.08454945
102	0xbe4e7622	-0.20162252
103	0xbdf938e4	-0.12169054
104	0xbcb375d6	-0.021906774
105	0xbc036524	-0.008019719
106	0x3caf1a29	0.021374779
107	0x3cad674c	0.02116742
108	0x3d94df59	0.07269163
109	0x3ba73961	0.0051032756
110	0xbc01faf6	-0.007933369
111	0xbd853c54	-0.06505647
112	0x3d90e52a	0.070749596
113	0xbd689835	-0.05678578
114	0x3d9ebefe	0.077512726
115	0x3d319426	0.043354176
116	0x3d7c1e98	0.061552614
117	0x3da3b4bb	0.07993456
118	0x3ddcc905	0.10780529
119	0xbdd52ce1	-0.104089506
120	0x3e1329c5	0.14371403
121	0x3d629d83	0.055325996
122	0x3e419476	0.1890429
123	0x3c2f4e78	0.010699861
124	0x3d78b58f	0.060720023
125	0xbd4c96fe	-0.049948685
126	0xbda53f5c	-0.080687255
127	0x3c925b12	0.017865691
128	0xbdd267e8	-0.10273725
129	0xbd7c3ccf	-0.06158143
130	0x3cc3d91b	0.023907235
131	0xbb43162f	-0.002976786
132	0xbe06777c	-0.13131517
133	0x3d85b1af	0.06528031
134	0x3db561f2	0.08856572
135	0x3da18068	0.0788582
136	0x3d6ce4ef	0.057835516
137	0x3da02802	0.07820131
138	0xbd314b38	-0.043284625
139	0x3d1d0574	0.03833528
140	0xbda68fb8	-0.08132881
141	0xbd8bca69	-0.06825716
142	0x3ccfcaf0	0.025365323
143	0x3dda2e3a	0.10653348
144	0x3d4635db	0.048391204
145	0x3dfb031c	0.122564524
146	0xbd19f3f7	-0.03758618
147	0x3e1bd244	0.15216929
148	0x3dc44274	0.095829874
149	0x3db53a31	0.0884899
150	0x3dce0935	0.1006035
151	0x3dd6e645	0.10493139
152	0xbdb5afab	-0.08871397
153	0xbd9b2e96	-0.07577245
154	0x3d2a0da5	0.04151692
155	0x3dedae43	0.116055034
156	0x3cacee8f	0.021109847
157	0x3c706d24	0.014674459
158	0xbe469105	-0.19391258
159	0xbe02e86f	-0.12783979
160	0xbdad80a1	-0.084718
161	0x3df12c81	0.117760666
162	0x3dc742b2	0.09729518
163	0x3d9cbad9	0.07652826
164	0xbe0b24d5	-0.13588269
165	0x3d6c7ecd	0.057738114
166	0xbdecea6b	-0.11568149
167	0x3d9a70cb	0.07541045
168	0x3dbbf684	0.091778785
169	0x3d043c47	0.032284047
170	0xbd27ae05	-0.040937442
171	0xbe2e2232	-0.17005232
172	0xbd60b39e	-0.054858796
173	0xbc97308d	-0.018455768
174	0x3da2388b	0.07920941
175	0xbe680435	-0.22657855
176	0x3ce69769	0.02814837
177	0x3b7e0fd7	0.0038766766
178	0xbdf5a9f5	-0.11995307
179	0xbd640883	-0.05567218
180	0x3d93efe4	0.0722349
181	0x3d8641fd	0.06555555
182	0x3d165936	0.036706172
183	0xbbaeef6f	-0.0053386013
184	0xbde785ba	-0.11304803
185	0xbdf04f72	-0.11733903
186	0xbdd9ff87	-0.10644441
187	0xbc38d195	-0.011280437
188	0xbd7bc959	-0.061471317
189	0xbc859840	-0.01630795
190	0xbc8d561e	-0.017252978
191	0x3dd09d21	0.1018622
192	0x3cb6c21f	0.022309361
193	0xbd7fc733	-0.06244583
194	0xbd7ecec1	-0.062208895
195	0x3cb58e54	0.022162594
196	0xbdc27bd9	-0.09496278
197	0xbdf93897	-0.12168997
198	0xbd09023e	-0.033449404
199	0xbe254626	-0.16140041
200	0x3e03e912	0.12881878
201	0x3dabc552	0.08387245
202	0x3da4eac6	0.08052592
203	0x3d2261fa	0.03964422
204	0xbdce7599	-0.10081024
205	0xbe186179	-0.14880933
206	0x3df37d11	0.11889089
207	0xbbf69256	-0.007524769
208	0xbd723cd8	-0.059140056
209	0x3cdb4556	0.02676646
210	0xbd8e7a52	-0.069569245
211	0xbe2fb6ad	-0.17159529
212	0xbdc93787	-0.09825044
213	0xbe03e692	-0.12880924
214	0xbdaf2db6	-0.085536405
215	0xbd9710f5	-0.07376281
216	0xbdd195e1	-0.10233665
217	0x3dce3f9e	0.10070728
218	0xbd8c0013	-0.06835952
219	0xbdf944c2	-0.12171318
220	0x3b36eb50	0.0027911253
221	0x3d9acdaa	0.075587586
222	0x3e143737	0.14474188
223	0x3e36a60c	0.1783678
224	0x3d077364	0.03306903
225	0x3e370c0a	0.17875686
226	0x3df65378	0.12027639
227	0xbd878956	-0.066179916
228	0x3d96874c	0.073500246
229	0x3cbcb325	0.023034642
230	0x3dced60b	0.10099419
231	0x3dd96502	0.10614969
232	0x3decfc56	0.11571567
233	0x3db0ef3e	0.08639382
234	0xbd53dfd0	-0.051727116
235	0xbd8cc5e6	-0.06873684
236	0x3cbac8e8	0.022800878
237	0x3d96f73d	0.07371376
238	0xbe1b73d8	-0.1518091
239	0x3cc0626c	0.023484431
240	0x3e272c20	0.16325426
241	0x3ba8cbba	0.005151239
242	0xbd399f17	-0.045317736
243	0xbd3d3f2d	-0.046202827
244	0xbe0218d7	-0.12704788
245	0xbd8d4c4f	-0.0689932
246	0x3da47fa1	0.08032156
247	0x3d8e6d8e	0.0695449
248	0x3e1e1f6a	0.15441671
249	0x3daed1e5	0.08536128
250	0x3e2b7d4e	0.16747019
251	0xbc21c4bb	-0.009873564
252	0xbdc862ea	-0.09784491
253	0x3a7cf678	0.0009649764
254	0x3dd28041	0.10278369
255	0x3d446481	0.04794741

gru.weight_hh_l0_reverse f4 [192, 64]
0	0x3cb24fa0	0.021766484
1	0xbe03fb70	-0.12888885
2	0xbd5b07fb	-0.053474408
3	0xbd3e5458	-0.046467155
4	0x3e082395	0.13294823
5	0x3daee852	0.08540405
6	0x3df55d41	0.119806774
7	0x3de40310	0.111333966
8	0x3d9c4f07	0.07632261
9	0x3ddd59e3	0.1080816
10	0xbe0bb01c	-0.13641399
11	0xbd10bbff	-0.035335537
12	0x3dadbef8	0.0848369
13	0x3d39e0e6	0.045380495
14	0x3d205446	0.03914287
15	0xbc16278f	-0.009164705
16	0xbc64d372	-0.013966428
17	0x3d464b98	0.048411936
18	0x3d9f7f0e	0.07787906
19	0x3dcc3136	0.09970324
20	0xbe0166b8	-0.1263684
21	0x3ddaf8dc	0.106919974
22	0x3ca8e667	0.020617677
23	0x3da39f9c	0.079894274
24	0x3cb46ed8	0.02202551
25	0xbcc38e33	-0.023871517
26	0xbcceeaf4	-0.025258519
27	0x3db20f16	0.08694284
28	0x3e2f2772	0.17104891
29	0x3dac4412	0.08411421
30	0x3dfa7600	0.12229538
31	0xbd334e43	-0.043775808
32	0x3b684709	0.003544273
33	0xbd43a9b1	-0.047769252
34	0x3d566de5	0.052350897
35	0xbd74b80b	-0.05974583
36	0x3b1c11b6	0.0023814267
37	0xbd55cfb5	-0.052200038
38	0xbd98dedd	-0.07464383
39	0x3d643fb9	0.055724833
40	0xbdbb3188	-0.09140307
41	0xbc3a5b11	-0.011374251
42	0x3dc31153	0.09524789
43	0x3d8464e6	0.06464557
44	0x3c77bff9	0.015121453
45	0x3db788e0	0.08961654
46	0xbe25e2ec	-0.16199845
47	0xbcaebbaa	-0.02132972
48	0x3e0f5afb	0.1399955
49	0xbe06077c	-0.13088793
50	0x3c86f1db	0.016472748
51	0xbdde73c7	-0.108619265
52	0xbd31086f	-0.043220934
53	0xbdad166a	-0.08451541
54	0xbd90c940	-0.070696354
55	0x3dfd5377	0.12369435
56	0x3dd16a7c	0.102253884
57	0xbde13986	-0.109973
58	0xbcf2fff1	-0.029663058
59	0xbc9c9254	-0.019112743
60	0x3e0263df	0.1273341
61	0x3d227a5e	0.03966748
62	0x3bdc97fa	0.006731984
63	0x3dbf4564	0.09339407
64	0x3db47cd2	0.0881287
65	0x3d1f4650	0.038885415
66	0xbb95988e	-0.004565305
67	0xbe0a9fcd	-0.13537522
68	0x3baf49a6	0.0053493557
69	0x3e0afc91	0.13572909
70	0xbaccc2a3	-0.0015621971
71	0x3d125796	0.03572806
72	0x3dd38d0c	0.10329637
73	0x3e04d600	0.1297226
74	0xbe1487ad	-0.14504881
75	0x3d7128b3	0.058876704
76	0xbd9a49ad	-0.07533584
77	0xbdb1676a	-0.08662303
78	0x3dbe679d	0.092971064
79	0x3daf7a19	0.0856821
80	0x3de3ee15	0.11129395
81	0x3d79e42e	0.061008625
82	0x3dc70f43	0.09719708
83	0xbd9a0d90	-0.07522118
84	0x3d4e9335	0.050433356
85	0xbd7eab3a	-0.062175013
86	0xbdaec342	-0.08533336
87	0x3da7df46	0.08196883
88	0xbd81961a	-0.06327458
89	0xbd8ddb71	-0.06926621
90	0xbce9d7fa	-0.028545368
91	0x3e0c4083	0.13696484
92	0xbda409bb	-0.080096684
93	0x3d8ac826	0.067764565
94	0xbd3ab5e0	-0.045583606
95	0x3c5d037a	0.013489598
96	0x3dc2df07	0.09515195
97	0xbd215051	-0.039383236
98	0xbe1268c2	-0.14297774
99	0x3db60059	0.08886785
100	0xbd2bb029	-0.041916046
101	0x3dde921d	0.10867713
102	0x3dd1d339	0.10245366
103	0x3cd50e6f	0.026007859
104	0x3d25bb2d	0.040461708
105	0xbd9437e7	-0.07237225
106	0x3dcf0e4e	0.1011015
107	0x3e165ae3	0.14683108
108	0x3dc4fcfe	0.09618567
109	0x3da761d9	0.0817296
110	0xbc809dee	-0.015700307
111	0xbdec14a6	-0.11527376
112	0xbd816d0b	-0.063196264
113	0xbd585e34	-0.052824214
114	0x3d8a0266	0.06738739
115	0x3e17f557	0.14839683
116	0xbd8d8629	-0.06910355
117	0xbdbe1ead	-0.09283195
118	0x3cb0e92a	0.021595556
119	0xbc9a7494	-0.018854417
120	0xbd71bcf9	-0.05901811
121	0x3cebc234	0.028779127
122	0xbdba4cdb	-0.0909669
123	0x3ca67f1f	0.020324288
124	0x3d03aa3f	0.03214478
125	0x3db33df9	0.08752055
126	0xbd85e90c	-0.06538591
127	0x3db165ef	0.086620204
128	0xbdc345c8	-0.09534794
129	0x3d3b9776	0.04579874
130	0x3e14ff3b	0.14550488
131	0x3d4b2940	0.049599886
132	0xbb245367	-0.0025074126
133	0xbd8ee312	-0.06976904
134	0xbc99f11d	-0.01879173
135	0x3d9f4c02	0.07778169
136	0x3ce56fa0	0.028007329
137	0x3d1be41b	0.038059335
138	0xbd6290ab	-0.055313747
139	0xbd95fef1	-0.07324017
140	0x3dc9e675	0.09858409
141	0xbd17c21f	-0.037050363
142	0xbe05c90a	-0.13064972
143	0x3d161156	0.036637627
144	0x3da35bc1	0.07976485
145	0x3d9a0e3e	0.07522248
146	0x3dd2db26	0.102957055
147	0x3c0ac74d	0.008470369
148	0xbc8b5420	-0.017007887
149	0x3d3085f8	0.043096513
150	0x3e08e537	0.13368689
151	0x3d14d269	0.036333475
152	0x3d24b978	0.04021594
153	0x3c07c02a	0.008285562
154	0xbe16d86b	-0.14730994
155	0x3e358d00	0.17729568
156	0xbd92d840	-0.07170153
157	0xbcefdf29	-0.029281216
158	0x3cc7e0f8	0.024399266
159	0x3dce259a	0.10065766
160	0x3e02b525	0.12764414
161	0x3d3538f1	0.044243757
162	0xbd781355	-0.06056531
163	0xbda8f916	-0.08250634
164	0xbdc4a99d	-0.09602664
165	0x3da6c7ea	0.08143599
166	0xbc28d828	-0.010305442
167	0x3db2e4d0	0.08735049
168	0x3cd5784c	0.026058339
169	0xbda053b2	-0.078284636
170	0xbd734b6d	-0.059398104
171	0xbdbac566	-0.09119682
172	0xbd4dd9b3	-0.050256442
173	0xbcc52948	-0.024067536
174	0xbd0ebc66	-0.03484764
175	0xbdd0ad9f	-0.101893656
176	0xbd878599	-0.066172786
177	0xbd3152de	-0.04329192
178	0xbda084ec	-0.07837853
179	0xbd83db9a	-0.0643837
180	0xbd845a79	-0.06462569
181	0xbd69b6ff	-0.057059284
182	0x3da02648	0.078198016
183	0xbb0350c1	-0.0020037147
184	0xbdc5e3da	-0.096626
185	0xbe1fa16b	-0.1558892
186	0x3dc59abc	0.09648654
187	0xbda88aff	-0.082296364
188	0x3d90f2d8	0.07077569
189	0xbd5e7159	-0.054307315
190	0xbcc5b5cc	-0.024134539
191	0xbe06455a	-0.13112393
192	0xbd0577c8	-0.032584935
193	0x3db0c201	0.08630753
194	0xbd7a45dc	-0.06110178
195	0xbd24446c	-0.040104315
196	0xbc9b3233	-0.018944835
197	0x3d866280	0.06561756
198	0x3d9e5948	0.07731873
199	0xbd5a8531	-0.053349677
200	0xbbedcac7	-0.007256839
201	0xbd83f40f	-0.06443035
202	0xbdd38a86	-0.103291556
203	0xbd8fed2e	-0.0702766
204	0x3e0f25d4	0.13979274
205	0x3de905cd	0.113780595
206	0xbd62f4d6	-0.055409275
207	0x3cb82e8c	0.022483133
208	0x3d9c9285	0.07645134
209	0x3d285ab3	0.041102123
210	0x3d84e801	0.06489564
211	0xbd3f8be9	-0.046764288
212	0xbdc1e6e1	-0.09467865
213	0xbda6b7bb	-0.081405126
214	0x3d8e7d1a	0.06957455
215	0x3d9d074d	0.07667408
216	0xbd9e7b91	-0.07738412
217	0xbd3cad4b	-0.046063703
218	0xbd8adf80	-0.067809105
219	0x3dc5340f	0.0962907
220	0x3d09d0b8	0.033646315
221	0xbd8ec284	-0.06970695
222	0xbd708e4e	-0.058729462
223	0xbcaebb91	-0.021329673
224	0xbd456315	-0.048190195
225	0xbdfaf9b5	-0.12254659
226	0xbb2d9e17	-0.0026491934
227	0xbc97386e	-0.018459525
228	0xbe018766	-0.12649307
229	0xbd8f0c7f	-0.06984805
230	0x3d9ca962	0.07649495
231	0x394e5ad8	0.00019679533
232	0xbe0ada2a	-0.13559785
233	0x3cd7c33f	0.026338218
234	0xbdb68437	-0.08911937
235	0xbba006ca	-0.004883622
236	0xbdba115e	-0.09085344
237	0xbcac3a63	-0.021023935
238	0x3b4d8055	0.003135701
239	0xbbb0d130	-0.005396031
240	0xbda29450	-0.079384446
241	0xbdbea03b	-0.09307905
242	0x3d6b496b	0.057443064
243	0x3d4df854	0.050285652
244	0xbca33ee6	-0.019927453
245	0x3dc12220	0.09430337
246	0xbd357d4e	-0.044308953
247	0x3d4954f0	0.04915327
248	0xbd5bae87	-0.05363324
249	0x3cee09bf	0.029057382
250	0xbdb1c78d	-0.086806394
251	0x3dc1193c	0.09428641
252	0x3e1762b0	0.1478374
253	0xbce1aa37	-0.027546985
254	0x3c367fc9	0.011138865
255	0x3d0563e6	0.032565974

gru.bias_ih_l0_reverse f4 [192]
0	0xbd3aa995	-0.045571882
1	0x3d9ff5f2	0.07810582
2	0xbcacc878	-0.021091685
3	0xbd8b5802	-0.068038955
4	0x3e08d610	0.13362908
5	0x3d7507a2	0.059821732
6	0x3da8b4da	0.0823762
7	0xbd2f52c7	-0.042803552
8	0x3d5747c9	0.052558694
9	0x3dc0aad3	0.09407582
10	0x3cddde25	0.027083466
11	0x3d817ef6	0.06323044
12	0xbc916ba4	-0.017751522
13	0x3e0467af	0.12930177
14	0xbd90d28c	-0.07071409
15	0x3e2c6752	0.16836289
16	0xbdd6069b	-0.10450479
17	0xbe17115c	-0.14752716
18	0x3e1bfb58	0.15232599
19	0xbc4a4ac3	-0.012346926
20	0xbdb55ba2	-0.08855368
21	0x3d898763	0.06715276
22	0x3e16c768	0.14724505
23	0xbcc97f71	-0.024596902
24	0x3d93c9e7	0.07216244
25	0xbd2b3e23	-0.041807305
26	0xbb8e760f	-0.00434757
27	0xbd52f354	-0.051501587
28	0x3d08a7a2	0.033362992
29	0x3c845569	0.016154008
30	0x3d8a4112	0.067506924
31	0x3cd85e37	0.026412113
32	0xbd8c7d54	-0.06859842
33	0xbc7dd3f7	-0.015492431
34	0xbd2fc091	-0.042908255
35	0x3d28b3ec	0.041187212
36	0xbd912cda	-0.07088633
37	0xbc8cdc10	-0.017194778
38	0xbd277c0d	-0.04088979
39	0x3e25122c	0.16120213
40	0x3d80b40d	0.06284342
41	0xbbece9f7	-0.007230039
42	0x3d5ecb09	0.05439285
43	0xbcce4db3	-0.025183534
44	0xbcc78c29	-0.024358826
45	0x3d12c9ba	0.035836913
46	0x3b807567	0.0039202454
47	0x3d3f4e41	0.046705488
48	0x3e059b44	0.1304751
49	0x3e014b0b	0.12626283
50	0x3c34b4eb	0.011029462
51	0xbd9572ac	-0.072972625
52	0xbc6f787b	-0.014616127
53	0x3cc1c72f	0.023654548
54	0x3dc8d68b	0.09806546
55	0x3d88ffe4	0.06689432
56	0xbd11e476	-0.035618268
57	0x3d013f30	0.0315544
58	0x3e123966	0.14279708
59	0xbd9cd545	-0.076578654
60	0x3e0194c8	0.12654412
61	0x3dcd3bd0	0.10021174
62	0x3d9850b1	0.07437266
63	0xbd6328e5	-0.055458922
64	0x3d1004df	0.035160895
65	0x3dd31515	0.103067555
66	0xbc53e9cc	-0.0129341595
67	0x3da7a59f	0.081858866
68	0xbd593d22	-0.053036816
69	0xbd944423	-0.072395585
70	0x3da37c75	0.07982723
71	0x3cad4e90	0.021155626
72	0xbe1f11c0	-0.15534115
73	0x3cc2f04a	0.02379622
74	0xbb0696f4	-0.0020536752
75	0x3dcea239	0.10089535
76	0xbd0311c1	-0.031999353
77	0x3d227aa5	0.039667744
78	0x3d9f5b03	0.07781031
79	0x3e3875c1	0.1801367
80	0xbcec10b4	-0.028816558
81	0x3bc8c2e4	0.0061267484
82	0xbc0fa3ad	-0.008767051
83	0x3e1d6ce8	0.15373576
84	0xbdb73b35	-0.0894684
85	0xbb6376d3	-0.0034708276
86	0x3cf4a584	0.02986408
87	0x3d14771f	0.036246415
88	0x3d9cd3a5	0.076575555
89	0x3dd6ddca	0.10491522
90	0x3e827d16	0.25486058
91	0xbd8fd9e5	-0.07023982
92	0xbd9f3fb6	-0.07775824
93	0x3db58080	0.088624
94	0xbd25c132	-0.04046745
95	0x3daba2de	0.08380674
96	0x3c783cd0	0.015151218
97	0x3dbeefe7	0.093231015
98	0x3da6d98b	0.08146962
99	0xbcb9fdee	-0.02270409
100	0x3d0b3279	0.03398368
101	0x3e1588a1	0.14602901
102	0xbd240769	-0.04004613
103	0x3e0f43d7	0.13990723
104	0x3e259a23	0.1617208
105	0x3e09626a	0.13416448
106	0x3e521ccc	0.20518798
107	0xbda6b7fd	-0.08140562
108	0x3cc2346a	0.023706634
109	0x3dc2b3d7	0.09506958
110	0xbd27f466	-0.04100456
111	0x3d7907c1	0.06079841
112	0x3e1bdc3d	0.15220733
113	0x3dcf0007	0.10107427
114	0x3dbce969	0.09224207
115	0x3dbaade1	0.09115196
116	0xbc0b339a	-0.0084961895
117	0xbc92b7a8	-0.01790984
118	0xbd6666bc	-0.05625032
119	0x3cb59cd9	0.022169517
120	0x3e124a8c	0.1428625
121	0x3d680fb9	0.05665562
122	0xbc6752e7	-0.014118887
123	0xbe23a698	-0.15981519
124	0x3d447d20	0.04797089
125	0x3d0ca3ee	0.034336023
126	0xbd9bda17	-0.07609957
127	0xbd691582	-0.056905277
128	0x3c2416b3	0.010015178
129	0x3c4ca3eb	0.012490253
130	0x3d89bf40	0.06725931
131	0x3cd54833	0.026035404
132	0x3dba15c7	0.09086185
133	0x3dbcb02a	0.09213288
134	0x3db01c0f	0.08599102
135	0x3c347c4e	0.011015965
136	0xbdc920aa	-0.09820683
137	0x3d4e2a89	0.050333533
138	0xbdb434b8	-0.08799118
139	0xbdae0df5	-0.08498756
140	0x3e024c39	0.12724389
141	0x3e03bee6	0.1286579
142	0xbdb117ae	-0.08647095
143	0x3df3a28c	0.11896238
144	0x3dc61d4c	0.09673557
145	0xbe092ede	-0.13396785
146	0xbda58a11	-0.08082975
147	0x3c551d07	0.013007409
148	0x3cd609c5	0.026127705
149	0xbd0f709c	-0.035019502
150	0xbd663b3c	-0.056208834
151	0x3caa2649	0.020770209
152	0xbd571f66	-0.05252018
153	0xbd4871e6	-0.048936747
154	0xbdc4821b	-0.09595128
155	0x3cf3e8af	0.029774038
156	0x3dde0a8d	0.10841856
157	0xbdbb61bf	-0.09149503
158	0xbccd9d75	-0.025099495
159	0xbc5ef666	-0.013608551
160	0x3d70224b	0.058626454
161	0x3c55b8e4	0.01304457
162	0xbdc818a0	-0.09770322
163	0x3c014dc5	0.007892077
164	0xbb8fc33f	-0.004387289
165	0x3c85728d	0.016289974
166	0xbd9f8098	-0.07788199
167	0x3d6fa097	0.05850276
168	0xbd2c7fe0	-0.04211414
169	0x3dbb5bd0	0.09148371
170	0x3dbf6959	0.09346265
171	0x3dabd96a	0.08391078
172	0xbd5a4467	-0.05328789
173	0xbd28732e	-0.04112547
174	0xbcac3411	-0.021020921
175	0x3cc6f70f	0.024287729
176	0x3dcd6e22	0.10030772
177	0xbdacfa63	-0.08446195
178	0x3d9624f7	0.07331269
179	0x3d3fae01	0.046796802
180	0x3d83f2c9	0.06442792
181	0xbd5a92e9	-0.05336276
182	0xbddb6fe7	-0.10714703
183	0xbdc141d2	-0.09436382
184	0xbce00101	-0.027344229
185	0xbe0682d6	-0.13135847
186	0xbc8c33fc	-0.017114632
187	0xbc67bf06	-0.014144665
188	0x3cc3e9d1	0.023915203
189	0x3d72117a	0.0590987
190	0xbdc49888	-0.095994055
191	0xbb7543cd	-0.0037424446

gru.bias_hh_l0_reverse f4 [192]
0	0x3cc0f500	0.023554325
1	0xbccdd7ce	-0.025127318
2	0x3e320e01	0.17388155
3	0xbccaa4a1	-0.024736704
4	0x3c948b41	0.018132808
5	0x3bd802ad	0.006592116
6	0xbd96eab2	-0.07368983
7	0x3dcf14a5	0.101113595
8	0x3d0016d8	0.031271785
9	0x3d9bf84d	0.07615719
10	0xbc63b2c7	-0.013897604
11	0x3d863636	0.06553309
12	0x3dab7c6c	0.08373341
13	0x3cdcd54a	0.026957173
14	0x3d985bb5	0.07439367
15	0x3e40ac2d	0.1881568
16	0xbdb14b48	-0.08656937
17	0xbde9e63d	-0.114208676
18	0x3a056c90	0.00050897244
19	0x3d5379e1	0.051629905
20	0x3d0c759f	0.03429186
21	0x3d15346a	0.03642694
22	0x3e06592d	0.13119955
23	0x3e07fe7b	0.1328067
24	0xbd86a348	-0.06574112
25	0xbd82c4c8	-0.06385189
26	0x3c5dd6e4	0.013540003
27	0xbcff0194	-0.031128682
28	0x3dc43d38	0.09581989
29	0x3d892f9d	0.06698535
30	0xbc594691	-0.013261453
31	0x3d23160d	0.03981595
32	0x3e1cf284	0.15326887
33	0x3da9b73d	0.08286903
34	0x3da44bba	0.08022256
35	0xbcaaf651	-0.020869406
36	0xbd930327	-0.07178336
37	0x3db24b55	0.08705775
38	0x3bf1aa7c	0.0073750596
39	0xbd3a993f	-0.045556303
40	0x3de588a3	0.11207702
41	0xbd458043	-0.048218023
42	0xbca5699e	-0.020191964
43	0xbda96e52	-0.08272995
44	0x3d39e85a	0.045387603
45	0x3dfa0a5f	0.122090094
46	0xbc75c4ac	-0.0150005035
47	0x3d0128a2	0.03153289
48	0xbd330267	-0.043703463
49	0x3ca8c6b5	0.020602563
50	0xbd321f00	-0.043486595
51	0x3d4e96fe	0.050436966
52	0x3dc6833a	0.09692998
53	0x3ceee3f2	0.029161427
54	0xbdc5a919	-0.096513934
55	0x3dc5373f	0.09629678
56	0x3e335ef7	0.17516695
57	0x3d35e922	0.044411786
58	0x3d069b86	0.032863162
59	0x3dff7026	0.124725625
60	0xbdb41597	-0.087931804
61	0xbc901a3d	-0.017590636
62	0x3e186179	0.14880933
63	0x3a334def	0.0006839921
64	0xbdc312f8	-0.095251024
65	0x3d0f721f	0.035020944
66	0x3d86da50	0.065846086
67	0xbd8398b0	-0.06425607
68	0x3d5c3d96	0.05376967
69	0xbe27914a	-0.16364017
70	0x3d361aff	0.04445934
71	0x3bb2b334	0.0054534916
72	0xbe6cad9c	-0.23113102
73	0xbd8ec595	-0.069712795
74	0x3e007783	0.1254559
75	0x3dc7d9c2	0.09758331
76	0x3d40a4a2	0.047032006
77	0xbcf530e9	-0.029930549
78	0xbbb8b6ca	-0.0056370245
79	0x3e3e046d	0.18556376
80	0xbcfea225	-0.031083176
81	0x3b99af33	0.004690075
82	0x3e2936c3	0.16524796
83	0x3d079f3b	0.03311084
84	0x3cf4a1ec	0.029862367
85	0xbd1f7c97	-0.038937178
86	0xbd571b8b	-0.0525165
87	0xbd5c6ced	-0.053814817
88	0x3e3da5ca	0.18520275
89	0xbd962c61	-0.07332683
90	0x3e0605ae	0.13088104
91	0xbda75831	-0.08171118
92	0x3e14ab06	0.14518365
93	0x3c4238aa	0.01185433
94	0x3d452cfe	0.04813861
95	0x3e2a3a5c	0.16623825
96	0xbd8b4850	-0.06800902
97	0x3d2c75ef	0.042104658
98	0xbd206eac	-0.039168045
99	0x3d5a0ae2	0.053233035
100	0x3d8f5953	0.06999459
101	0x3cc6f4b1	0.0242866
102	0xbcefee0b	-0.029288312
103	0x3e353a4d	0.17698021
104	0x3e55cb1f	0.20878266
105	0x3da9e086	0.082947776
106	0x3dfa2178	0.12213415
107	0x3d34fbcd	0.04418545
108	0x3cd07cae	0.025450077
109	0xbbc53996	-0.0060188277
110	0x3dd05cff	0.101739876
111	0x3d17353f	0.036916014
112	0xbcc28bb1	-0.02374825
113	0xbde50e6c	-0.111843914
114	0x3cd475e7	0.025935126
115	0x3dd9697d	0.106158234
116	0x3e2efffa	0.17089835
117	0x3e39ac6f	0.18132184
118	0xbd31ae1b	-0.04337893
119	0x3db40639	0.087902494
120	0x3d5542c7	0.052065637
121	0xbd88c7bd	-0.06678722
122	0xbd4da3f1	-0.050205175
123	0xbd34b95a	-0.044122078
124	0x3e7fa4b6	0.24965176
125	0xbda6783c	-0.08128402
126	0x3dcf5e17	0.10125368
127	0x3d2f54d5	0.04280551
128	0x3c9639c3	0.01833809
129	0xbd8255fd	-0.06364057
130	0xbbeff8b3	-0.0073233484
131	0x3d412623	0.04715551
132	0xbd923e5d	-0.07140801
133	0x3db6e578	0.089304864
134	0x3e0587c1	0.13040067
135	0xbe093959	-0.13400783
136	0x3da39f67	0.07989388
137	0xbd3b7153	-0.04576237
138	0xbdd77d5f	-0.105219595
139	0xbb72b75d	-0.0037035563
140	0x3db42b64	0.087973386
141	0x3e05133d	0.1299562
142	0xbe03c69f	-0.12868737
143	0xbcc16627	-0.02360828
144	0x3d879d6b	0.06621822
145	0x3dd1b125	0.10238866
146	0x3da0fc83	0.07860663
147	0xbdd80211	-0.10547269
148	0xbcb5a506	-0.022173416
149	0x3daac71f	0.083387606
150	0x3da1d9ec	0.079028934
151	0x3b101173	0.0021983057
152	0x3dc9e359	0.09857816
153	0x3de87643	0.11350682
154	0xbd5db098	-0.05412349
155	0x3e03521c	0.12824291
156	0x3dd78206	0.10522847
157	0xbc6a171e	-0.014287738
158	0x3d56d31d	0.052447427
159	0xbb52cacd	-0.0032164336
160	0x3d99d895	0.07512013
161	0xbd3cf9ea	-0.046136774
162	0xbcb941e2	-0.022614423
163	0x3cbfc22f	0.023408024
164	0xbd67f4f1	-0.05663008
165	0x3d642784	0.055701748
166	0xbda146d7	-0.0787484
167	0xbd78cd8b	-0.060742896
168	0xbd8b408e	-0.06799422
169	0xbe07f704	-0.13277823
170	0x3d8101db	0.06299182
171	0x3d2ba4e1	0.041905288
172	0x3d583706	0.05278685
173	0x3df72217	0.12067049
174	0xbdc9c0bb	-0.098512135
175	0x3cd52ac9	0.026021378
176	0x3caac750	0.020846993
177	0xbd23666a	-0.03989259
178	0x3dc0d942	0.09416439
179	0xbd1dae17	-0.038496103
180	0x3b4a44b5	0.0030863706
181	0xbd46c414	-0.04852684
182	0xbc8b8882	-0.017032865
183	0x3d800d80	0.06252575
184	0x3d8af852	0.067856446
185	0x3d02a26a	0.03189317
186	0xbdbe201f	-0.0928347
187	0x3d81d2c5	0.06339029
188	0x3d10509f	0.035233136
189	0x3d931f25	0.07183675
190	0xbdf309ff	-0.11867141
191	0xbd72bd5c	-0.05926262
