model/classifier_weights/gru_h128_250epochs/classifier_llama3_8b_a100_tp2.pt (torch, 117740 bytes, 10 tensors)

gru.weight_ih_l0 f4 [192, 6]
0.15921669 1.3974522 1.0229349 0.24400058 -0.09535029 -0.43710193 1.5846769 -0.6141878
1.1953083 -0.60453653 -0.34086302 0.17816141 -0.19552979 1.3619168 1.3191878 0.55448204
1.3162018 -0.07542188 -1.380831 0.25866497 -0.7195811 -0.16521151 0.95942646 -0.1487209
-1.0212394 -0.02008162 0.9308511 -0.84368366 0.43216562 0.45121908 -0.092386805 0.8739553
-0.26426715 -0.733389 -0.026783394 -1.3109388 -0.10161488 0.1631827 -0.9032249 0.14748454
-0.2115182 0.8177932 0.09109168 1.5270658 0.2509616 -0.5626357 0.33995864 -0.22254363
1.1770695 0.20638387 3.0971832 0.14952017 -0.30815682 -0.20719884 0.24894229 0.92081785
1.4070135 -0.71131676 0.3375269 0.356271 -0.28773668 -0.80302894 -0.5609966 -0.10092732
1.124306 -0.11394763 -0.15961915 -1.3829879 -0.66662806 1.0847564 -0.08300038 1.8582609
-0.93277466 0.9222646 -0.80965954 -0.39434385 0.8011394 -0.46491373 -0.8319384 0.18471837
-0.723216 -1.3835666 -0.8406093 0.38213515 -0.32807922 0.47546342 -0.311349 -1.1094497
-1.1114875 0.04537221 1.3853971 0.9483277 0.08215802 0.6191983 1.5906309 0.55969316
-0.4281789 0.5532646 -0.8507226 1.054673 -0.25905073 0.8170274 1.1380551 1.8818947
-0.6574723 -0.118250854 0.12420573 -0.5667632 1.4455087 0.15273346 -0.28034532 -0.61664253
0.45373166 -0.26888078 0.6944164 0.4167564 -0.5181695 0.19545604 1.018314 0.593111
0.9137537 0.30282536 -0.3302989 -1.0664041 0.58236796 -0.72253656 -0.07382871 0.17798182
0.47860193 -0.15540126 -1.0763553 1.7308348 -0.20865153 -0.6547453 -1.2597164 -1.0450898
-0.17470282 -0.11557681 0.98583084 0.6257857 -0.35566226 1.0843033 -1.1199576 0.70771986
-0.8441317 -0.1492212 0.82120836 -0.7543373 1.0561403 -0.0114611555 -0.40549308 0.34186676
0.23688024 -0.11729442 0.5172804 0.19415988 1.4667075 0.8027723 1.766009 0.6674761
-1.2747082 -0.0415771 0.26541576 -0.5675204 -0.29823667 0.33361277 -0.9665452 0.9981618
0.82261544 -0.08380909 0.958565 -0.19125673 -0.7158158 -1.1796422 1.5371269 -0.035965845
-0.06639531 0.5186926 -0.30034265 0.15040582 0.16140537 1.0959221 -0.67376727 -0.41923255
0.041935533 -0.36230752 0.37124667 0.52501315 1.0639102 -0.41937554 -0.277459 -0.3492448
0.15649483 -0.06496155 -0.7998533 0.09863602 0.22511005 0.08554102 0.97550505 1.1348907
1.9141192 0.8277616 0.5388715 0.10528645 0.16976316 -0.53051364 0.46752483 -0.6232155
-0.75751555 -0.29794347 -0.15939364 -0.28111377 0.36604995 0.34689832 -0.36058787 0.5314745
1.1857672 -0.19345172 0.54006594 -0.58514935 0.6421049 -0.7962558 -0.74971104 0.23213746
0.23683147 -0.46447 0.6385859 0.0599654 -0.6468591 -0.80781156 0.3810646 0.4202509
0.18302584 0.21902288 -0.4050768 0.050005954 -0.06922376 -0.3587237 -0.24766886 0.6287715
-0.76402134 -0.05579062 -0.7919514 -0.34107858 0.67940515 -0.3494313 -0.82852995 -0.4909708
-1.3779676 0.12109157 0.6032926 -0.28220475 -0.802851 -0.5659154 -0.26526144 0.77163637
00000000: b309 233e b7df b23f 88ef 823f 4adb 793e
00000010: 0347 c3bd d3cb dfbe b1d6 ca3f 693b 1dbf
00000020: ddff 983f e8c2 1abf 9985 aebe f26f 363e
00000030: f638 48be 4a53 ae3f 25db a83f 89f2 0d3f
00000040: 4d79 a83f c976 9abd 12bf b0bf bc6f 843e
00000050: 7836 38bf 352d 29be f99c 753f 4b4a 18be
00000060: f9b7 82bf 3682 a4bc 424c 6e3f a7fb 57bf
00000070: d044 dd3e 3006 e73e 4b35 bdbd 89bb 5f3f
00000080: 064e 87be 62bf 3bbf d968 dbbc d8cc a7bf
00000090: 761b d0bd 5e19 273e bf39 67bf 3006 173e
000000a0: 3a98 58be e55a 513f 468e ba3d e476 c33f
000000b0: 0a7e 803e e508 10bf 0f0f ae3e 7ae2 63be
000000c0: 37aa 963f 4b56 533e 4038 4640 d11b 193e
000000d0: bbc6 9dbe ef2b 54be baea 7e3e b8ba 6b3f
000000e0: 0519 b43f db18 36bf 53d0 ac3e 2769 b63e
000000f0: 3952 93be 4e93 4dbf 799d 0fbf fcb2 cebd
00000100: 42e9 8f3f 605d e9bd 3473 23be bf05 b1bf
00000110: 23a8 2abf 4cd9 8a3f 1afc a9bd 7edb ed3f
00000120: 52ca 6ebf 8819 6c3f d945 4fbf 70e7 c9be
00000130: 7917 4d3f 2c09 eebe eaf9 54bf d026 3d3e
00000140: af24 39bf b618 b1bf 2c32 57bf 38a7 c33e
00000150: 00fa a7be f16f f33e 2369 9fbe 7302 8ebf
00000160: 3945 8ebf 36d8 393d b154 b13f 9bc5 723f
00000170: 7742 a83d c883 1e3f cb99 cb3f 0d48 0f3f
00000180: 443a dbbe c0a2 0d3f f5c8 59bf 86ff 863f
00000190: 4ca2 84be b528 513f caab 913f ede1 f03f
000001a0: 1b50 28bf 812d f2bd 935f fe3d 6517 11bf
000001b0: 6e06 b93f 2966 1c3e 6c89 8fbe 49dc 1dbf
000001c0: 844f e83e beaa 89be 46c5 313f 1861 d53e
000001d0: c2a6 04bf a125 483e 1d58 823f 1fd6 173f
000001e0: c3eb 693f ed0b 9b3e f01c a9be ee7f 88bf
000001f0: 1116 153f 28f8 38bf 8233 97bd de40 363e
00000200: 500b f53e 8221 1fbe 03c6 89bf ff8b dd3f
00000210: bfa8 55be 639d 27bf 633e a1bf 81c5 85bf
00000220: 4ce5 32be 89b3 ecbd 695f 7c3f 7e33 203f
00000230: 5d19 b6be 73ca 8a3f c55a 8fbf 212d 353f
00000240: 0419 58bf 71cd 18be b63a 523f 401c 41bf
00000250: 9b2f 873f 92c7 3bbc ca9c cfbe 2909 af3e
00000260: bc90 723e 0f38 f0bd 7d6c 043f d9d1 463e
00000270: 12bd bb3f 7c82 4d3f 950c e23f b7df 2a3f
00000280: a329 a3bf c04c 2abd 93e4 873e 0449 11bf
00000290: 7ab2 98be 4bcf aa3e 826f 77bf 8887 7f3f
000002a0: ed96 523f 1aa4 abbd 8464 753f ced8 43be
000002b0: b43f 37bf 84fe 96bf 93c0 c43f ec50 13bd
000002c0: 44fa 87bd 0ac9 043f 83c6 99be fc03 1a3e
000002d0: 7347 253e 2d47 8c3f 037c 2cbf a6a5 d6be
000002e0: 98c4 2b3d 5f80 b9be 0b14 be3e 4367 063f
000002f0: 362e 883f 64b8 d6be 1b0f 8ebe 37d0 b2be
00000300: 2e40 203e 900a 85bd 30c3 4cbf af01 ca3d
00000310: 4083 663e 2130 af3d b3ba 793f 1944 913f
00000320: dc01 f53f 2fe8 533f 7cf3 093f 6ca0 d73d
00000330: 65d6 2d3e becf 07bf 6a5f ef3e 0d8b 1fbf
00000340: 8aec 41bf 0c8c 98be 1638 23be 25ee 8fbe
00000350: e66a bb3e a89c b13e f99e b8be b60e 083f
00000360: 38c7 973f 3518 46be c341 0a3f 59cc 15bf
00000370: fd60 243f 6cd7 4bbf 10ed 3fbf 71b5 6d3e
00000380: f383 723e 03cf edbe 5e7a 233f 479e 753d
00000390: 8f98 25bf bdcc 4ebf e61a c33e 202b d73e
000003a0: 206b 3b3e 8947 603e 3a66 cfbe 0bd3 4c3d
000003b0: 30c5 8dbd a2aa b7be e89c 7dbe 2bf7 203f
000003c0: e796 43bf b584 64bd 54bd 4abf daa1 aebe
000003d0: 7fed 2d3f a9e8 b2be 8a1a 54bf 8660 fbbe
000003e0: 3e61 b0bf dbfe f73d 6271 1a3f 247d 90be
000003f0: a587 4dbf d5df 10bf 59d0 87be f689 453f

gru.weight_hh_l0 f4 [192, 64]
-1.2932327 -0.35300952 -0.39496347 0.6593178 -0.5573525 1.1887511 0.4421761 1.1243614
-0.5449631 -0.9755024 -0.5430316 0.18964796 0.04176587 0.2827564 0.5850633 -0.22221667
0.29204318 0.6979251 0.48060638 0.014784034 -0.051538162 0.14168979 0.47571272 0.2732401
-0.9350653 0.4670086 1.7208717 0.10350785 0.38121852 0.428707 1.0032734 0.17699073
-0.59733546 -0.29236916 0.10260369 -0.25580555 -0.20745781 0.05673006 0.43466178 0.50491065
-1.1802623 1.050458 0.71216094 -0.26902452 0.016622696 -0.25692615 0.6399711 0.33594978
-0.57669765 -0.08713982 0.2528217 0.4563582 0.27874932 0.41293138 -1.2261086 -0.3149471
-1.6904007 1.4947655 -0.5273398 -0.0031592215 0.0074353414 -0.36319393 -0.46498656 0.42607874
-0.56204927 -0.21556775 -0.20676054 1.3257012 -0.22413395 -0.08908175 -0.45833513 0.46668288
-0.2980244 -0.37796277 0.32454535 -0.1536975 0.3415471 0.12575337 0.27022487 -0.18658479
-0.69705474 -0.27730304 0.970078 0.910428 -0.59613574 -0.5521456 -0.9427736 0.9495208
-0.30376738 -0.03617788 -0.2439343 -0.910867 0.5177432 0.32925096 -0.7599579 0.28247747
0.71164054 1.3492943 -1.1118683 0.47313786 -0.59524137 0.066877924 0.09948146 -0.24524522
-0.7877659 -0.13337699 -0.09436139 -0.58846784 0.5573651 0.032548446 -0.21826348 -1.1943569
-0.6085268 -1.1907761 -0.3956315 -1.2880626 -1.027423 0.8336893 0.2172752 -0.5681776
-1.1627388 1.2079301 0.18971257 0.663603 0.03691537 -0.6684875 0.07596831 -0.33605263
0.61287105 -0.0918766 -0.88471997 0.59568954 0.0869218 0.49707714 0.28666767 -0.5094108
-0.18504182 0.54428625 0.08346275 0.20911251 0.083092764 -0.329986 -0.4088232 -0.77560925
1.0661001 -0.009068774 -0.27328804 0.6807163 -0.5177672 0.0066664997 -1.0781548 0.23572502
0.16737632 0.97890407 -0.6778485 -0.9320142 -0.17019334 -0.5084126 -0.29722708 -0.12930508
0.09450302 1.0477072 0.47089875 -1.430957 -0.25119233 -1.071509 -0.11807132 -0.33606282
0.7669432 0.3466426 0.7357559 -0.6569364 0.3303469 0.42521873 -0.19091953 0.83512646
0.51927555 0.372735 0.9975774 -0.22095956 0.6321842 -0.84642696 -1.0147554 -1.0328901
0.23131658 -0.3243221 0.11576882 -0.18669413 0.6094817 0.54214376 -1.014484 -0.00976272
-0.43841 -0.88814044 0.8320041 -0.5335337 0.5483705 0.124750786 -0.847428 -0.3854069
0.40297258 -0.8432893 -0.6888568 -0.23837894 0.33078668 0.25013417 0.13355939 0.33405936
-0.49869487 -0.3618321 -1.1810424 0.16461055 -0.26647383 0.56780356 -0.20418908 -0.52129924
0.24011569 -0.7890083 0.3376074 0.74179244 0.31477484 -0.07804577 0.22329956 -0.71722245
-0.6080636 0.8781434 -0.23733702 -0.048897915 0.4089131 -0.07060558 -0.086213574 0.27609256
0.5770743 -0.31680667 -0.7068535 -0.24480306 -0.38119388 0.91040844 0.09029833 1.0416335
0.2570676 0.32594302 -0.55145556 -0.63153946 0.49112576 -0.27626854 0.45290413 0.6007683
0.98624164 0.33775643 -0.51683134 0.7981358 -0.5693851 -0.60408765 0.81214064 -1.1278185
00000000: a688 a5bf aabd b4be a738 cabe 0dc9 283f
00000010: a7ae 0ebf ff28 983f e864 e23e 13eb 8f3f
00000020: b482 0bbf 86ba 79bf 1e04 0bbf 1333 423e
00000030: b012 2b3d 72c5 903e b5c6 153f c48c 63be
00000040: af86 953e 38ab 323f 0a12 f63e bc38 723c
00000050: ae19 53bd 2117 113e 9e90 f33e 20e6 8b3e
00000060: 7160 6fbf c01b ef3e 8645 dc3f ecfb d33d
00000070: 132f c33e 7c7f db3e 436b 803f 0f3d 353e
00000080: faea 18bf 69b1 95be e221 d23d f2f8 82be
00000090: d26f 54be c85d 683d fd8b de3e d341 013f
000000a0: d612 97bf 6875 863f 2e50 363f 95bd 89be
000000b0: 522c 883c d38b 83be 25d5 233f 9c01 ac3e
000000c0: 75a2 13bf 5d76 b2bd d971 813e c8a7 e93e
000000d0: 3bb8 8e3e be6b d33e 20f1 9cbf bf40 a1be
000000e0: 0d5f d8bf 7a54 bf3f beff 06bf f10a 4fbb
000000f0: 2aa4 f33b 8ef4 b9be b812 eebe fe26 da3e
00000100: 76e2 0fbf cbbd 5cbe 09b9 53be 94b0 a93f
00000110: 5f83 65be 7e70 b6bd e7aa eabe 0ff1 ee3e
00000120: a796 98be 5684 c1be cf2a a63e e162 1dbe
00000130: 43df ae3e 7ec5 003e ea5a 8a3e 1510 3fbe
00000140: 2e72 32bf aafa 8dbe 0857 783f cf11 693f
00000150: 5a9c 18bf 6a59 0dbf 9c59 71bf cc13 733f
00000160: 6687 9bbe 422f 14bd eac9 79be 942e 69bf
00000170: d18a 043f 9593 a83e 9a8c 42bf e3a0 903e
00000180: 132e 363f adb5 ac3f b351 8ebf 203f f23e
00000190: bd61 18bf 4bf7 883d f0bc cb3d 9021 7bbe
000001a0: 07ab 49bf fa93 08be 8b40 c1bd d4a5 16bf
000001b0: 7baf 0e3f 8551 053d 7680 5fbe b0e0 98bf
000001c0: 6ac8 1bbf 5a6b 98bf 3690 cabe 3cdf a4bf
000001d0: 9982 83bf a96c 553f 647d 5e3e 1674 11bf
000001e0: a0d4 94bf 749d 9a3f 0344 423e e3e1 293f
000001f0: 9234 173d ff21 2bbf 4695 9b3d 170f acbe
00000200: 1ee5 1c3f cd29 bcbd 027d 62bf 1c7f 183f
00000210: 0f04 b23d e580 fe3e 1bc6 923e bf68 02bf
00000220: 9a7b 3dbe 5856 0b3f 85ee aa3d 9721 563e
00000230: 8a2c aa3d edf3 a8be 4651 d1be 548e 46bf
00000240: f875 883f 3295 14bc 69ec 8bbe 6c43 2e3f
00000250: 648c 04bf a772 da3b fa00 8abf e661 713e
00000260: b364 2b3e 7599 7a3f 7b87 2dbf 7c98 6ebf
00000270: 2a47 2ebe 5427 02bf 262e 98be 8d68 04be
00000280: cd8a c13d 451b 863f a419 f13e 9929 b7bf
00000290: 489c 80be 3527 89bf 60cf f1bd 6d10 acbe
000002a0: 6456 443f 247b b13e 805a 3c3f fc2c 28bf
000002b0: 3b23 a93e 45b6 d93e 6980 43be d9ca 553f
000002c0: 3eef 043f 1fd7 be3e 3c61 7f3f 3943 62be
000002d0: d3d6 213f 70af 58bf 81e3 81bf be35 84bf
000002e0: 41de 6c3e 8c0d a6be 3418 ed3d bf2c 3fbe
000002f0: fe06 1c3f efc9 0a3f 9dda 81bf d1f3 1fbc
00000300: 4777 e0be 2c5d 63bf 38fe 543f aa95 08bf
00000310: 0262 0c3f 577d ff3d 0bf1 58bf 0e54 c5be
00000320: 6c52 ce3e cfe1 57bf eb58 30bf 9c19 74be
00000330: df5c a93e 9611 803e cbc3 083e d409 ab3e
00000340: ef54 ffbe 0f42 b9be 662c 97bf ab8f 283e
00000350: 426f 88be 935b 113f f116 51be de73 05bf
00000360: e3e0 753e 73fc 49bf e1da ac3e 1ce6 3d3f
00000370: 2b2a a13e 76d6 9fbd a4a8 643e e49b 37bf
00000380: 0eaa 1bbf 02ce 603f 7a08 73be 2e49 48bd
00000390: 0f5d d13e a999 90bd be90 b0bd 015c 8d3e
000003a0: 24bb 133f 7c34 a2be 5af4 34bf a7ad 7abe
000003b0: d82b c3be 8710 693f 55ee b83d 3f54 853f
000003c0: 5d9e 833e 01e2 a63e 312c 0dbf 92ac 21bf
000003d0: d674 fb3e 1273 8dbe 0de3 e73e f4cb 193f
000003e0: 557a 7c3f 69ee ac3e 0f4f 04bf a152 4c3f
000003f0: 39c3 11bf 7da5 1abf 73e8 4f3f 5b5c 90bf

gru.bias_ih_l0 f4 [192]
-0.84786564 -0.49059454 -0.4675661 0.23092474 -0.25559238 -0.6790682 -0.68729466 0.09049804
-0.6672706 -0.09630282 -1.1236078 -0.71529895 -0.735165 -0.300088 -0.794186 -0.5584322
-0.083314046 0.32245553 -0.41688412 -0.4126341 -0.4275031 -0.4547852 -0.6566208 -0.44860128
-0.22526415 -0.3902786 -0.8816123 -0.32660183 -0.4724348 -0.19668727 -0.4455465 -0.28568482
-0.19705278 -0.35838592 -0.42359683 -0.6559024 -0.5196243 -0.22575918 0.05289251 -0.08957363
-0.941055 -0.20851359 -0.2611253 -0.40865788 -0.7658048 -0.17733574 -0.14525428 -0.60282934
-0.5473515 -0.3224527 -0.43035424 -0.2831545 -0.12238619 -0.24800421 -0.037606645 -0.75357676
-0.057954393 -0.5711822 -0.32044783 -0.631093 -0.7561899 -0.9851985 -0.06966323 -0.04169782
0.5639594 1.7349349 -0.08550593 1.0181998 -0.5225454 0.21674363 -0.34445986 1.4036554
1.2033857 0.32122362 0.29673257 -0.2507509 0.7473289 0.98041594 -0.7652559 0.8467127
0.7606795 0.5140257 0.905206 0.5199118 0.35071176 -0.085931204 -0.84166104 0.658348
0.9383379 1.3145298 0.2771851 1.2369578 -0.19620496 0.3326279 0.9344697 0.904226
0.8788715 0.62205386 0.46576655 0.5850488 0.54909325 0.632501 0.82109326 0.64474255
0.84975547 1.3461868 1.4866734 0.57038414 0.9814299 0.3390261 -0.0072776973 0.8613044
0.090807006 0.4318693 1.1523988 0.38824865 0.4768233 0.35461012 -0.011407208 0.55130935
1.3584961 0.285931 1.3784412 0.0183321 0.6869685 0.40057892 -0.21530116 0.0981334
-0.4059937 -0.13207924 0.2721991 -0.18647501 0.3010864 0.16714425 -0.25145602 -0.16557805
0.18491939 0.32798547 -0.2685457 -0.15006135 0.07540584 -0.04234227 0.007881519 0.028905824
0.063476205 -0.11774585 0.083046295 -0.3915582 0.026873823 0.4301741 -0.020009182 0.088601455
-0.36261892 -0.21401297 0.18449366 0.2889132 -0.1928165 -0.11941376 0.19513778 -0.27464306
0.048673607 0.078151666 0.18594012 0.17187864 0.10395982 0.13498811 0.5598247 0.15608782
0.20888028 0.040642045 0.0041476656 0.101248 -0.06710956 -0.28505713 0.022381954 -0.10077186
0.021601899 0.087699115 -0.036831487 -0.24125858 -0.08541353 0.13055731 0.2585599 0.057404496
-0.07515005 -0.06978418 0.18146923 0.35008 0.029241001 0.10975509 -0.29841065 0.04736403
00000000: b90d 59bf 352f fbbe d364 efbe 8977 6c3e
00000010: 01dd 82be 6ad7 2dbf 8bf2 2fbf 0957 b93d
00000020: 3fd2 2abf 6a3a c5bd 61d2 8fbf d51d 37bf
00000030: c633 3cbf 22a5 99be c64f 4bbf 6af5 0ebf
00000040: 8ea0 aabd e418 a53e d671 d5be c744 d3be
00000050: b0e1 dabe 9bd9 e8be 4d18 28bf 11af e5be
00000060: a5ab 66be 99d2 c7be 58b1 61bf 5b38 a7be
00000070: f9e2 f1be 6368 49be ac1e e4be 4845 92be
00000080: 34c8 49be 5c7e b7be afe1 d8be 38e9 27bf
00000090: 1906 05bf 6a2d 67be d1a5 583d 6172 b7bd
000000a0: fbe8 70bf 9684 55be 37b2 85be 9b3b d1be
000000b0: c90b 44bf 8097 35be 8abd 14be 0653 1abf
000000c0: 3a1f 0cbf 8518 a5be 6457 dcbe a0f9 90be
000000d0: 9ca5 fabd d1f4 7dbe 6d09 1abd 68ea 40bf
000000e0: 9661 6dbd ff38 12bf bd11 a4be 508f 21bf
000000f0: a995 41bf f835 7cbf 98ab 8ebd 55cb 2abd
00000100: a55f 103f 5912 de3f bc1d afbd 5f54 823f
00000110: 89c5 05bf 0bf2 5d3e 0b5d b0be fbaa b33f
00000120: 8b08 9a3f 6c77 a43e 55ed 973e 6c62 80be
00000130: f250 3f3f 8afc 7a3f d0e7 43bf 2ac2 583f
00000140: e4bb 423f 3097 033f 95bb 673f f118 053f
00000150: 7e90 b33e b3fc afbd 1977 57bf 7f89 283f
00000160: ea36 703f 8342 a83f 35eb 8d3e a254 9e3f
00000170: f4e9 48be 344e aa3e 6839 6f3f 5b7b 673f
00000180: b9fd 603f ec3e 1f3f f478 ee3e c2c5 153f
00000190: 6091 0c3f 96eb 213f 2b33 523f d90d 253f
000001a0: 9389 593f d94f ac3f 504b be3f b204 123f
000001b0: fd3e 7b3f d494 ad3e c079 eebb 727e 5c3f
000001c0: 06f9 b93d f91d dd3e ce81 933f 87c8 c63e
000001d0: 2f22 f43e 758f b53e 4ce5 3abc 9c22 0d3f
000001e0: 33e3 ad3f 8c65 923e c370 b03f 332d 963c
000001f0: 2bdd 2f3f ae18 cd3e e877 5cbe 2afa c83d
00000200: 68de cfbe c83f 07be ae5d 8b3e 4ef3 3ebe
00000210: ff27 9a3e dd27 2b3e d8be 80be 4b8d 29be
00000220: 825b 3d3e b6ed a73e d27e 89be afa9 19be
00000230: 616e 9a3d 176f 2dbd 7d21 013c e8cb ec3c
00000240: d0ff 813d bc24 f1bd 2d14 aa3d 517a c8be
00000250: 7e26 dc3c c83f dc3e 4cea a3bc ae74 b53d
00000260: 30a9 b9be 3726 5bbe e8eb 3c3e 6eec 933e
00000270: b071 45be 348f f4bd 33d2 473e 049e 8cbe
00000280: fa5d 473d fb0d a03d 1667 3e3e f400 303e
00000290: e3e8 d43d 533a 0a3e ac50 0f3f 7cd5 1f3e
000002a0: b6e4 553e 4678 263d 24e9 873b 1d5b cf3d
000002b0: bd70 89bd 02f3 91be 5c5a b73c 7a61 cebd
000002c0: 77f6 b03c 989b b33d 9ddc 16bd 7d0c 77be
000002d0: 4aed aebd d1b0 053e f761 843e fa20 6b3d
000002e0: 45e8 99bd 02eb 8ebd 12d3 393e b03d b33e
000002f0: d38a ef3c 47c7 e03d 48c9 98be c900 423d

gru.bias_hh_l0 f4 [192]
-0.78403443 -0.6386353 -0.39608544 0.20212947 -0.2634384 -0.49079093 -0.51642066 0.090469986
-0.608868 -0.2717032 -1.0048625 -0.6075629 -0.6461256 -0.3951539 -0.7294129 -0.34212834
-0.10016594 0.338721 -0.5288696 -0.37969786 -0.4997085 -0.33949083 -0.534919 -0.4669592
-0.3402844 -0.3409644 -0.8155024 -0.14917026 -0.5104525 -0.15195905 -0.5137718 -0.3015423
-0.2317157 -0.35473132 -0.30893224 -0.70573527 -0.4904583 -0.20911676 -0.036408935 -0.01799282
-0.9075981 -0.15707387 -0.32309344 -0.41547886 -0.8743068 -0.14600337 -0.28529698 -0.6049964
-0.57929254 -0.10875489 -0.5393145 -0.37684214 -0.08026658 -0.31715524 0.12432341 -0.68928456
-0.1350832 -0.5996715 -0.39639616 -0.6122905 -0.6484914 -0.9642118 -0.10353432 -0.13026373
0.5328666 1.6603152 -0.039063487 1.0528772 -0.50456125 0.3357252 -0.34901723 1.367867
1.2542057 0.29892504 0.30947867 -0.17301957 0.8439737 0.9742359 -0.6829718 0.90696055
0.7029077 0.5320482 0.777724 0.53421754 0.24554303 0.04729865 -0.7900252 0.5710173
0.9004911 1.3411213 0.32238498 1.347355 -0.24940467 0.3207201 1.0735703 0.95443785
0.9338326 0.63631785 0.66761297 0.6155227 0.5500897 0.6361068 0.89369434 0.628884
0.73369765 1.2263129 1.344424 0.53834844 1.0708883 0.3119272 0.19165502 0.78806585
0.03668907 0.47133407 1.2964945 0.40523997 0.63632935 0.21672823 0.11082484 0.6887229
1.1904006 0.3222524 1.2458031 0.11829375 0.71492285 0.38612846 -0.2121057 0.17180903
0.2232769 -0.36520478 0.60246116 -0.09350217 -0.298694 0.038485326 -0.28619245 0.24982543
0.13879743 0.12233818 -0.67845005 -0.3849106 0.051202312 -0.39095464 -0.5873244 0.032718357
0.5002424 0.5693454 -0.34756413 -0.25019187 0.090264395 0.17448653 -0.53532004 -0.20562734
-0.5181285 -0.3445505 0.33626878 0.6546184 0.3483823 -0.5595271 0.0030221508 -0.44780448
-0.64446735 0.039986596 0.5326732 0.37323302 -0.5043061 0.31713757 0.20568116 0.4815047
0.66007686 0.072656065 -0.119674966 0.11992358 -0.22604604 -0.087557025 0.16239159 0.40730911
-0.05854605 0.13596751 0.29734743 -0.3978495 -0.4275585 0.6119433 0.38954392 0.60673314
0.15379968 -0.21135885 0.39995643 0.0008888368 0.5706473 -0.31255373 0.07701835 0.09201159
00000000: 7bb6 48bf 9a7d 23bf b6cb cabe 07fb 4e3e
00000010: 66e1 86be f348 fbbe 2534 04bf 5448 b93d
00000020: c6de 1bbf af1c 8bbe 569f 80bf 3e89 1bbf
00000030: 7d68 25bf 9d51 cabe ceba 3abf 722b afbe
00000040: cd23 cdbd d76c ad3e 0064 07bf c267 c2be
00000050: cbd9 ffbe bed1 adbe 74f0 08bf 4715 efbe
00000060: c239 aebe e392 aebe c4c4 50bf 17c0 18be
00000070: 04ad 02bf 279b 1bbe 8c86 03bf c163 9abe
00000080: e146 6dbe 589f b5be 5e2c 9ebe 11ab 34bf
00000090: 5a1d fbbe b422 56be 8921 15bd ae65 93bc
000000a0: 5958 68bf f9d7 20be 816c a5be a5b9 d4be
000000b0: 92d2 5fbf e881 15be 7212 92be 0be1 1abf
000000c0: 844c 14bf e2ba debd 8410 0abf 74f1 c0be
000000d0: ce62 a4bd 2c62 a2be 469d fe3d f474 30bf
000000e0: 4053 0abe 1284 19bf 70f4 cabe 12bf 1cbf
000000f0: 8803 26bf 96d6 76bf cd09 d4bd db63 05be
00000100: f269 083f 3585 d43f 0901 20bd aec4 863f
00000110: ed2a 01bf 2ce4 ab3e 63b2 b2be 4416 af3f
00000120: d089 a03f b40c 993e fd73 9e3e 0b2c 31be
00000130: a90e 583f 8667 793f 3dd7 2ebf 912e 683f
00000140: c2f1 333f 5034 083f ec18 473f 7bc2 083f
00000150: a26f 7b3e 3bbc 413d 173f 4abf 312e 123f
00000160: 9686 663f dda9 ab3f a50f a53e 2176 ac3f
00000170: f063 7fbe 6d35 a43e c06a 893f 0a56 743f
00000180: a70f 6f3f bae5 223f afe8 2a3f e592 1d3f
00000190: aed2 0c3f e5d7 223f 27c9 643f 8bfe 203f
000001a0: 9cd3 3b3f d2f7 9c3f 1616 ac3f 34d1 093f
000001b0: de12 893f ecb4 9f3e 3741 443e afbe 493f
000001c0: 4747 163d b352 f13e 88f3 a53f 9d7b cf3e
000001d0: 7be6 223f 01ee 5d3e 22f8 e23d 2550 303f
000001e0: 0c5f 983f 44fe a43e 7a76 9f3f fe43 f23d
000001f0: 2f05 373f a1b2 c53e 3d32 59be b5ee 2f3e
00000200: b3a2 643e 1ffc babe e53a 1a3f 117e bfbd
00000210: 6cee 98be caa2 1d3d d187 92be 3dd2 7f3e
00000220: ea20 0e3e 718c fa3d e7ae 2dbf 0113 c5be
00000230: 84b9 513d 352b c8be e45a 16bf af03 063d
00000240: e30f 003f 9fc0 113f edf3 b1be 2619 80be
00000250: 8adc b83d 99ac 323e bc0a 09bf f98f 52be
00000260: 12a4 04bf ec68 b0be 6c2b ac3e 1295 273f
00000270: 2a5f b23e 2b3d 0fbf 470f 463b a146 e5be
00000280: d0fb 24bf fcc8 233d 455d 083f 6618 bf3e
00000290: 341a 01bf db5f a23e 159e 523e c987 f63e
000002a0: ccfa 283f b4cc 943d 2618 f5bd 7e9a f53d
000002b0: 9d78 67be 1951 b3bd fb49 263e d28a d03e
000002c0: fccd 6fbd 113b 0b3e ec3d 983e eeb2 cbbe
000002d0: f3e8 dabe 51a8 1c3f 4d72 c73e dd52 1b3f
000002e0: aa7d 1d3e 746e 58be 17c7 cc3e d400 693a
000002f0: f115 123f 0b07 a0be ccbb 9d3d 9370 bc3d

gru.weight_ih_l0_reverse f4 [192, 6]
0.5284069 0.08891994 0.93210584 -0.14548084 1.0692809 0.50008917 -0.41579974 -0.22433645
0.009307104 -0.5345666 0.1117156 -0.17875896 0.6637754 -0.716355 -0.42920506 1.3985041
0.17048283 1.6997024 -0.20255668 0.7337581 -0.6552989 0.49387074 2.0389297 -0.55881387
-0.5699536 0.09736396 0.07898113 0.4298166 -0.13062365 0.3575933 -0.51795816 -0.07969194
-0.03043952 -1.1687323 -1.2720056 -1.175371 -0.9114824 -0.77876025 -1.2651433 -0.10920075
0.5667109 -0.51718634 -0.3396088 0.69588864 0.5924371 0.07336346 2.033073 -0.25638595
0.3038082 1.1578112 0.41175148 0.32356045 0.94433427 0.38474503 1.1292338 1.2210467
1.3736252 -0.821913 -1.0817848 -0.022365427 -0.43634912 1.2034248 -0.6168879 0.12349201
1.6650848 -0.09541618 -1.586604 0.2609016 -0.8290659 -1.8937584 -0.9135999 -0.7157172
0.08818556 0.9772103 -0.7236467 1.0140499 -1.6384426 1.1495355 1.8800498 0.6509991
-0.12995428 0.79250765 -0.749249 0.576998 0.9367349 2.0563562 2.955768 0.65695935
0.4231843 -0.46180084 0.14060031 1.2864918 0.0957403 1.4632875 0.38855642 1.2168552
0.0010877535 -0.3138174 0.3178766 0.9227585 -0.7593615 0.40611646 0.29881018 -0.15961075
-0.77627605 -0.97665924 -0.88496596 -1.3230592 -0.3812293 0.0019788055 0.24820028 -1.2876464
0.48615518 -0.35688183 1.7322124 1.2095181 1.5407078 -0.38945585 -1.2179933 0.39985943
0.35370344 0.6243258 0.025109613 -0.12745447 0.2677284 0.17989773 1.220284 0.6504513
0.53459984 -0.33087417 0.89498866 -0.6853489 0.32687858 -1.9109747 -1.0750709 0.81483084
-0.10971732 0.11606374 1.5799417 0.7724512 0.32636312 0.74287486 0.0091051245 0.09025039
0.27029002 1.0645177 0.5838001 -0.854467 -0.3488347 0.203332 -0.03166434 1.0883422
-1.722095 -0.2596874 0.99532354 0.0016405605 -0.021618927 1.1634618 -0.2754689 0.39373684
-0.30470964 0.046850443 -0.70356774 1.9715531 -0.2740826 -0.17883924 -1.8202045 -0.26799658
-0.23077986 0.2731049 0.5392471 -0.12927115 0.72181153 0.14526395 0.5970939 1.1686909
0.64814365 0.7950533 0.8802644 0.5479465 1.480403 0.18183857 0.8730998 -0.056587234
-0.90695417 -1.1469269 -0.45268917 -0.52766234 -1.232776 0.53038645 0.96071225 1.1159345
0.57396394 -0.1989196 2.4871507 -0.74626136 -0.26839373 0.6670146 -0.33723393 0.18126471
-1.4795911 -0.29682025 -0.42781216 -0.08149073 0.055753373 -0.8475096 -0.14202859 0.8065988
0.556659 0.5285813 0.5677186 0.2942871 -0.45282868 0.95572805 1.7587836 0.25809434
-0.97676486 -0.275362 -0.8325299 0.8282277 0.82177395 0.32949063 0.13030851 0.75092316
0.04776842 0.45145977 0.17248206 -0.14334995 0.18394916 -0.15920985 0.9804358 -0.61263895
-0.30227554 -0.26641658 -0.83525914 -0.76617175 -0.59251434 -0.10915834 0.57691604 -0.45202726
-1.6408775 -0.45864844 -1.8713001 -0.7060105 -1.5290613 0.28862068 0.95923567 -0.018162392
0.6790121 -0.08258837 0.6016446 -0.14381418 0.18624644 -0.54382586 0.47661096 -0.35175514
00000000: ad45 073f a81b b63d 7d9e 6e3f eef8 14be
00000010: 32de 883f d805 003f b4e3 d4be 74b8 65be
00000020: d37c 183c 5bd9 08bf 26cb e43d 970c 37be
00000030: 2fed 293f 0b63 37bf c4c0 dbbe 2f02 b33f
00000040: 0d93 2e3e d98f d93f 056b 4fbe 92d7 3b3f
00000050: abc1 27bf a0dc fc3e d37d 0240 6d0e 0fbf
00000060: 7be8 11bf c266 c73d dcc0 a13d ec10 dc3e
00000070: 35c2 05be 7816 b73e e898 04bf 8735 a3bd
00000080: 4d5c f9bc 0599 95bf 14d1 a2bf 8f72 96bf
00000090: e956 69bf d55c 47bf 37f0 a1bf a5a4 dfbd
000000a0: f713 113f 5366 04bf 34e1 adbe c225 323f
000000b0: f5a9 173f 953f 963d de1d 0240 0545 83be
000000c0: c08c 9b3e 2833 943f 17d1 d23e b7a9 a53e
000000d0: e4bf 713f 4dfd c43e bc8a 903f 424b 9c3f
000000e0: f3d2 af3f e468 52bf ed77 8abf b337 b7bc
000000f0: 2769 dfbe d309 9a3f 5eec 1dbf 61e9 fc3d
00000100: 8021 d53f 8f69 c3bd d715 cbbf e594 853e
00000110: aa3d 54bf ad66 f2bf afe1 69bf 3e39 37bf
00000120: a29a b43d 742a 7a3f e940 39bf 63cc 813f
00000130: 7db8 d1bf fb23 933f 79a5 f03f e1a7 263f
00000140: bc12 05be c8e1 4a3f c8ce 3fbf 24b6 133f
00000150: dccd 6f3f 579b 0340 4e2b 3d40 7d2e 283f
00000160: 9dab d83e 2971 ecbe 87f9 0f3e c3ab a43f
00000170: 7e13 c43d 014d bb3f def0 c63e e9c1 9b3f
00000180: f392 8e3a adac a0be b9c0 a23e e739 6c3f
00000190: 8465 42bf 7fee cf3e a6fd 983e 0071 23be
000001a0: 07ba 46bf 5706 7abf 218d 62bf 015a a9bf
000001b0: 7d30 c3be d9ae 013b 3728 7e3e 99d1 a4bf
000001c0: 55e9 f83e 37b9 b6be 23b9 dd3f 7dd1 9a3f
000001d0: ea35 c53f c266 c7be 34e7 9bbf 60ba cc3e
000001e0: 9e18 b53e d1d3 1f3f adb2 cd3c 6d83 02be
000001f0: b213 893e 1c37 383e 4432 9c3f fa83 263f
00000200: 89db 083f 5768 a9be fa1d 653f 0773 2fbf
00000210: a15c a73e d29a f4bf ec9b 89bf c198 503f
00000220: 79b3 e0bd d3b2 ed3d 883b ca3f 5dbf 453f
00000230: 1119 a73e 0c2d 3e3f a92d 153c 32d5 b83d
00000240: 7463 8a3e 1e42 883f ec73 153f 59be 5abf
00000250: 769a b2be 4436 503e 78b2 01bd cc4e 8b3f
00000260: 9c6d dcbf bff5 84be 86cd 7e3f 1308 d73a
00000270: 2d1a b1bc 51ec 943f 420a 8dbe e097 c93e
00000280: e702 9cbe 40e6 3f3d 041d 34bf da5b fc3f
00000290: 8e54 8cbe a221 37be 76fc e8bf d936 89be
000002a0: 8e51 6cbe 68d4 8b3e 190c 0a3f a85f 04be
000002b0: a4c8 383f 13c0 143e 25db 183f aa97 953f
000002c0: beec 253f 9d88 4b3f 0259 613f 3946 0c3f
000002d0: d87d bd3f e433 3a3e 7883 5f3f 04c8 67bd
000002e0: 262e 68bf 80ce 92bf e0c6 e7be e114 07bf
000002f0: 9bcb 9dbf 68c7 073f 3df1 753f f1d6 8e3f
00000300: 4def 123f 94b1 4bbe 7a2d 1f40 fc0a 3fbf
00000310: e76a 89be 78c1 2a3f eda9 acbe 759d 393e
00000320: 3e63 bdbf d3f8 97be 320a dbbe 9de4 a6bd
00000330: a65d 643d 64f6 58bf f16f 11be 427d 4e3f
00000340: 3481 0e3f 1b51 073f 0256 113f ccac 963e
00000350: 29d9 e7be 98aa 743f d21f e13f f124 843e
00000360: 430d 7abf 40fc 8cbe ae20 55bf bb06 543f
00000370: c75f 523f ffb2 a83e 986f 053e 803c 403f
00000380: d2a8 433d bc25 e73e 239f 303e 54ca 12be
00000390: 2b5d 3c3e e807 23be d7fd 7a3f e8d5 1cbf
000003a0: dcc3 9abe c167 88be 8bd3 55bf d523 44bf
000003b0: 05af 17bf 688e dfbd c5b0 133f 1e70 e7be
000003c0: 4608 d2bf f8d3 eabe c386 efbf 1bbd 34bf
000003d0: 48b8 c3bf 17c6 933e 7890 753f 4cc9 94bc
000003e0: bdd3 2d3f 1724 a9bd 6105 1a3f 0644 13be
000003f0: 63b7 3e3e 2c38 0bbf 5a06 f43e 4019 b4be

gru.weight_hh_l0_reverse f4 [192, 64]
-0.5750529 -0.4641041 0.2759731 0.13061199 -0.14814588 -0.005644831 0.03806175 0.101771414
-0.275826 0.46195462 -0.52792174 0.3622701 0.46294495 0.27902067 0.87747794 0.9099105
0.21493067 0.3462872 0.37311018 -0.27972597 0.027979182 1.4631878 -0.90926003 0.95289195
0.3575741 0.5981472 -0.44203612 -0.3750857 0.070416346 -0.26791015 -0.5390621 -1.9882324
0.31506333 0.13042027 0.52372664 0.22931726 -0.0056515974 0.52353925 0.53438133 -0.22769041
0.92779887 -0.66279244 0.72311354 0.76146275 0.6890544 -0.31547835 1.2679017 -0.028651267
0.24683346 0.40809134 0.43763474 -0.4431011 -1.4245598 1.8093486 -0.68196696 0.22538131
-0.7716447 -0.00638095 1.1929041 0.47163853 -0.52304536 -0.5425374 -0.14568469 -0.5358309
-0.32955852 0.24481179 -0.08128625 -0.63360524 -0.7685324 0.8452196 -0.7211358 -0.58382094
0.5933154 -0.67749524 -0.9916626 -0.28636423 1.0737197 -0.56194705 -0.027158197 -2.0603046
-0.31585276 -0.040125877 -0.19181135 0.013851367 0.2311798 -0.8135416 -0.0003992736 -0.71113557
0.034792498 0.25300705 -0.16630433 0.12883347 -0.5432796 -0.7189668 0.14264418 0.52405256
-1.1036428 -0.0940687 0.28394368 -0.85571927 -1.0954372 -0.37040493 0.22568287 -0.4223879
-0.90401477 0.017380632 0.78762263 -0.11231021 0.62355036 -0.26837477 0.36168325 -0.558921
0.614278 -1.0733663 0.3782953 0.9090715 -0.41961804 -0.45727804 0.558777 -0.38439193
0.6849921 -0.52525204 -0.12665142 -0.42543724 -0.00405215 0.7339213 -0.2305632 0.1735394
0.9911572 0.5644367 -0.5986613 0.70311475 0.32025707 0.35185632 0.4671749 -0.09379194
1.1813229 0.76354474 0.011370699 0.09250438 0.9645144 -0.6971175 0.04725517 -0.13948576
0.1600257 0.048998307 -0.6180466 -0.07418495 -0.0023129797 0.32697403 -0.03824244 -0.027181955
-0.3303171 0.31640148 -1.9589268 -0.9173248 -0.48952448 0.16183363 -0.2750132 -0.35821563
-0.0073322747 0.4145741 0.47524413 0.17375816 -0.1304079 -1.8439823 0.108184464 0.2529445
-0.44671065 1.0888577 0.16632481 0.5810752 0.49506503 0.03203998 -0.12128108 -1.4111986
-0.6456032 0.6422651 0.34728384 0.9508498 -0.47627306 0.18638328 -1.1560972 0.20166336
0.43912712 -0.5639592 0.16148785 1.6192608 0.5106423 0.2369979 0.162096 -0.17925154
-0.2988696 1.245587 -0.44549292 -0.19224605 1.3663145 0.0859557 1.2823702 0.30782455
1.1257939 0.58565503 -0.9478908 0.16875514 -1.1978841 0.012225218 -1.1942434 0.27232966
0.17905332 -0.48794094 -0.24905917 -0.64730495 -0.027374785 1.2780136 -0.5329229 0.69351256
0.1269491 0.22667074 0.59023166 -0.037564762 0.40867585 -0.6212139 -1.5521016 0.092219554
-0.10133866 0.7219925 0.5815498 0.7284917 0.23522359 0.4763931 1.7125747 -0.46626136
0.10956372 0.3969762 0.21266478 -0.3253804 0.56125957 0.7738562 -0.15603824 -0.08311642
-0.24005598 0.37311685 0.18564048 -0.5753909 -0.40417227 1.5206435 -1.3496627 -0.11854197
-0.34024066 0.3970132 0.07792215 -0.843527 1.036111 -0.77695507 0.16650319 -0.17429993
00000000: ab36 13bf 0d9f edbe 594c 8d3e 26bf 053e
00000010: 8eb3 17be 46f8 b8bb a3e6 1b3d 886d d03d
00000020: 1139 8dbe 5185 ec3e e125 07bf 777b b93e
00000030: 1f07 ed3e ccdb 8e3e 65a2 603f e5ef 683f
00000040: c916 5c3e 8e4c b13e 4c08 bf3e 3e38 8fbe
00000050: 9934 e53c bd49 bb3f 44c5 68bf baf0 733f
00000060: f413 b73e 2d20 193f 8f52 e2be 3c0b c0be
00000070: 7236 903d 852b 89be f9ff 09bf 667e febf
00000080: fb4f a13e e48c 053e f312 063f 25d2 6a3e
00000090: 0931 b9bb ab06 063f 37cd 083f ad27 69be
000000a0: 3a84 6d3f c4ac 29bf f81d 393f 39ef 423f
000000b0: df65 303f 6186 a1be 9a4a a23f 10b6 eabc
000000c0: e9c1 7c3e 59f1 d03e a911 e03e 26de e2be
000000d0: fa57 b6bf bc98 e73f 6395 2ebf 5cca 663e
000000e0: 828a 45bf 4a17 d1bb 15b1 983f 9b7a f13e
000000f0: 4de6 05bf bbe3 0abf 5e2e 15be 372c 09bf
00000100: e5bb a8be f1af 7a3e 6879 a6bd f433 22bf
00000110: 8abe 44bf 5060 583f 5b9c 38bf 4a75 15bf
00000120: 85e3 173f 5470 2dbf 9add 7dbf 559e 92be
00000130: a66f 893f c3db 0fbf de7a debc 08dc 03c0
00000140: 74b7 a1be 085b 24bd 326a 44be d8f0 623c
00000150: 66ba 6c3e 4344 50bf 9855 d1b9 fb0c 36bf
00000160: 9482 0e3d 248a 813e af4b 2abe ecec 033e
00000170: 5f14 0bbf 350e 38bf 5111 123e 4f28 063f
00000180: 2b44 8dbf 17a7 c0bd 1161 913e 6b10 5bbf
00000190: 4937 8cbf b7a5 bdbe 6919 673e 3a43 d8be
000001a0: 836d 67bf d461 8e3c a3a1 493f e502 e6bd
000001b0: ffa0 1f3f 6b68 89be 8c2e b93e 7215 0fbf
000001c0: 5341 1d3f 1164 89bf ecaf c13e e9b8 683f
000001d0: 2dd8 d6be 5920 eabe 020c 0f3f 05cf c4be
000001e0: a45b 2f3f eb76 06bf e9b0 01be e9d2 d9be
000001f0: e6c7 84bb 44e2 3b3f c218 6cbe 50b4 313e
00000200: 7abc 7d3f ec7e 103f de41 19bf 54ff 333f
00000210: bcf8 a33e 8326 b43e 8c31 ef3e fd15 c0bd
00000220: 9735 973f ab77 433f 2b4c 3a3c f072 bd3d
00000230: 6aea 763f 4b76 32bf a38e 413d 5bd5 0ebe
00000240: c7dd 233e 73b2 483d 4d38 1ebf 47ee 97bd
00000250: 5c95 17bb 2469 a73e 1ba4 1cbd b1ac debc
00000260: 531f a9be 60ff a13e 1dbe fabf ccd5 6abf
00000270: f4a2 fabe b7b7 253e 88ce 8cbe 0a68 b7be
00000280: 9443 f0bb 0e43 d43e 3353 f33e a9ed 313e
00000290: a689 05be 9d07 ecbf d18f dd3d f181 813e
000002a0: 42b7 e4be b05f 8b3f 0d51 2a3e 58c1 143f
000002b0: 2a79 fd3e 5b3c 033d 3762 f8bd 28a2 b4bf
000002c0: 4046 25bf 7c6b 243f 30cf b13e e46a 733f
000002d0: 10da f3be 42db 3e3e fefa 93bf d780 4e3e
000002e0: 45d5 e03e a15f 10bf 125d 253e f043 cf3f
000002f0: 74b9 023f 94af 723e 7efc 253e b78d 37be
00000300: 7005 99be 656f 9f3f a617 e4be 26dc 44be
00000310: 65e3 ae3f 8b09 b03d b524 a43f 2e9b 9d3e
00000320: 041a 903f 7ded 153f f9a8 72bf 26ce 2c3e
00000330: 4454 99bf 484c 483c f8dc 98bf cb6e 8b3e
00000340: c159 373e 65d3 f9be 5e09 7fbe c7b5 25bf
00000350: 1641 e0bc f395 a33f a36d 08bf 0a8a 313f
00000360: f2fe 013e 601c 683e 6c19 173f 82dd 19bd
00000370: f63d d13e e007 1fbf 44ab c6bf 9bdd bc3d
00000380: a58a cfbd 80d4 383f 73e0 143f 6f7e 3a3f
00000390: 74de 703e cce9 f33e a635 db3f cfb9 eebe
000003a0: f262 e03d 7740 cb3e ccc4 593e 4398 a6be
000003b0: b5ae 0f3f 711b 463f 7dc8 1fbe f138 aabd
000003c0: 3cd1 75be 2c09 bf3e 8a18 3e3e d14c 13bf
000003d0: abef cebe 72a4 c23f bfc1 acbf 22c6 f2bd
000003e0: 0634 aebe 5045 cb3e a695 9f3d 63f1 57bf
000003f0: 499f 843f 87e6 46bf d07f 2a3e ae7b 32be

gru.bias_ih_l0_reverse f4 [192]
-0.16171363 0.20985195 0.1780544 -0.28463942 -0.114057265 -0.45879206 -0.54841936 0.33111304
-0.68896776 -0.9207568 -0.41305166 -0.99913234 -0.42159805 -0.34436586 -0.0881889 -0.6740177
0.5267827 -0.48592314 -0.6195008 -0.45895573 -0.31738555 -0.18789874 -0.36394602 -0.5705864
-0.39895138 -0.84863085 -0.6928392 -0.03939333 -0.16093287 -0.31684318 -0.52271837 -0.3747078
-0.45636234 -0.07600512 -0.7714453 -0.37156406 -0.78581035 -0.48686618 -1.0446714 -1.0629196
0.42333493 -0.30748194 0.5049997 -0.4880854 -0.1809721 -0.78735733 0.13490382 -0.08916054
-0.15609011 -0.21016197 -0.14032815 0.018048411 -0.24188389 -0.34433803 -0.60713047 -0.51563877
-0.581771 -0.14580369 -0.031046294 -0.07249962 -0.67048603 -0.2138456 -0.6633825 -0.53961706
-0.26598355 1.2704018 0.958525 0.25729108 1.473926 0.6451638 -0.04809785 1.4489139
0.64982116 0.7105403 0.7572109 0.116634004 0.74099046 0.13752325 0.51026857 0.8314073
0.52282494 0.3714741 0.83048844 -0.3035058 0.45456538 1.1704508 0.68101007 0.38989067
0.22234134 0.57651895 -0.18195337 -0.15308163 1.1327645 1.0272422 1.7026722 0.78475755
1.0594312 0.43278643 0.2686517 0.23000017 0.37892976 0.81551546 0.38691646 0.32177764
0.69072586 0.93380016 0.975291 0.8255929 1.299133 -0.27521026 -0.1632697 -1.060743
0.49033228 0.41492042 -0.59593046 0.8380069 0.360937 0.6611831 0.24078244 -0.08659651
-0.30429956 0.63937145 0.9905436 0.21267049 0.85209656 0.9217071 -0.24201724 -0.6485954
-0.11978944 0.3716237 -0.2061113 -0.044180233 0.13533527 -0.11842608 0.27703086 -0.7546005
0.08258882 0.14150572 -0.23925869 -0.017660461 0.24500224 -0.25865328 0.23855227 -0.13751863
0.35731527 -0.15285277 -0.13011152 -0.36784083 -0.44679308 0.12570141 -0.0441949 0.07116031
-0.46735564 -0.0357317 -0.18961707 0.03619362 -0.06846767 0.06811925 0.06878311 0.33434868
-0.44959185 0.044392034 -0.047293626 -0.03341464 0.07564278 -0.32780626 -0.3144135 -0.2750653
-0.06348565 0.012543902 0.0968912 0.22802635 -0.09198821 -0.055311467 -0.34419543 -0.11902612
0.13616797 -0.06981027 0.20740983 -0.21527953 -0.2829604 0.28403875 0.13994677 -0.0075087934
-0.07084375 0.06670062 -0.119015194 -0.5802348 -0.15896693 -0.2498575 -0.25934976 -0.24778186
00000000: 4298 25be 6ee3 563e e553 363e 42bc 91be
00000010: db96 e9bd cbe6 eabe 3665 0cbf a687 a93e
00000020: 3160 30bf b8b6 6bbf 827b d3be 23c7 7fbf
00000030: b3db d7be b950 b0be 629c b4bd 6d8c 2cbf
00000040: 3bdb 063f ebca f8be 9b97 1ebf 3ffc eabe
00000050: 5c80 a2be 8768 40be 2257 babe f311 12bf
00000060: 5b43 ccbe df3f 59bf e95d 31bf e75a 21bd
00000070: 96cb 24be 4539 a2be dfd0 05bf b3d9 bfbe
00000080: 53a8 e9be 93a8 9bbd 707d 45bf a53d bebe
00000090: de2a 49bf 8646 f9be cbb7 85bf c00d 88bf
000000a0: 5bbf d83e 466e 9dbe a947 013f 54e6 f9be
000000b0: c050 39be 4090 49bf 3a24 0a3e cd99 b6bd
000000c0: 16d6 1fbe b334 57be 2fb2 0fbe 43da 933c
000000d0: 69b0 77be 134d b0be e76c 1bbf e700 04bf
000000e0: f2ee 14bf 904d 15be cc54 febc ae7a 94bd
000000f0: f9a4 2bbf 57fa 5abe 6fd3 29bf 5824 0abf
00000100: ff2e 88be 879c a23f e561 753f a8bb 833e
00000110: 9ba9 bc3f 7429 253f 4002 45bd 0376 b93f
00000120: ae5a 263f f8e5 353f 93d8 413f cfdd ee3d
00000130: 8db1 3d3f e5d2 0c3e f6a0 023f 1cd7 543f
00000140: dbd7 053f da31 be3e e49a 543f 1d65 9bbe
00000150: cbbc e83e 55d1 953f ad56 2e3f c09f c73e
00000160: 73ad 633e bf96 133f fc51 3abe 6ec1 1cbe
00000170: 6dfe 903f ac7c 833f 2af1 d93f dfe5 483f
00000180: 719b 873f 2f96 dd3e b78c 893e 2a85 6b3e
00000190: 1503 c23e 9fc5 503f ea19 c63e 0ac0 a43e
000001a0: 69d3 303f 870d 6f3f acac 793f 0e5a 533f
000001b0: fd49 a63f 5ce8 8cbe 2c30 27be 6dc6 87bf
000001c0: d50c fb3e 7370 d43e e68e 18bf 9f87 563f
000001d0: bccc b83e 4c43 293f ac8f 763e 8359 b1bd
000001e0: 27cd 9bbe d9ad 233f 4494 7d3f 4bc6 593e
000001f0: 0023 5a3f fff4 6b3f 5ed3 77be 590a 26bf
00000200: 2a54 f5bd 7645 be3e d70e 53be 55f6 34bd
00000210: 5495 0a3e 5f89 f2bd fdd6 8d3e 802d 41bf
00000220: 5424 a93d e0e6 103e 3b00 75be acac 90bc
00000230: dee1 7a3e 346e 84be 0c47 743e afd1 0cbe
00000240: 07f2 b63e 7085 1cbe f43b 05be a255 bcbe
00000250: 10c2 e4be dfb7 003e b605 35bd 7fbc 913d
00000260: 3d49 efbe 675b 12bd fa2a 42be c33f 143d
00000270: c738 8cbd 1b82 8b3d 29de 8c3d c02f ab3e
00000280: e730 e6be 6cd4 353d f6b6 41bd cadd 08bd
00000290: 9aea 9a3d 39d6 a7be cefa a0be 5cd5 8cbe
000002a0: c404 82bd f084 4d3c e56e c63d bd7f 693e
000002b0: 5164 bcbd 478e 62bd 623a b0be f7c3 f3bd
000002c0: 9e6f 0b3e b0f8 8ebd 3e63 543e 3d72 5cbe
000002d0: 30e0 90be 876d 913e 354e 0f3e 530c f6bb
000002e0: 8716 91bd 569a 883d 3dbe f3bd 458a 14bf
000002f0: 3ac8 22be a5da 7fbe 7ec9 84be 87ba 7dbe

gru.bias_hh_l0_reverse f4 [192]
-0.30443844 0.32382575 0.021792637 -0.4788183 -0.24537292 -0.554103 -0.495043 0.5512031
-0.5047744 -1.0019989 -0.47809768 -1.1565565 -0.3668905 -0.4808467 -0.118673116 -0.54568607
0.43634832 -0.5456773 -0.7646385 -0.58529913 -0.45695615 -0.31204882 -0.4006892 -0.48440242
-0.2406841 -0.7560463 -0.7284667 0.13267782 -0.32726312 -0.3313909 -0.49333152 -0.45829225
-0.663746 -0.23073067 -0.7272135 -0.21325797 -0.578171 -0.55570185 -0.94861466 -1.0137702
0.36332658 -0.32705915 0.5523029 -0.41881981 -0.22575228 -0.96644515 0.19743498 -0.1458337
0.017690824 -0.3720717 -0.21919261 0.05596643 -0.12137664 -0.4085951 -0.59353226 -0.4985012
-0.72418165 -0.015761623 -0.12418275 -0.24194267 -0.6495424 -0.29911712 -0.71088487 -0.462065
-0.1937725 1.2126175 1.0633184 0.16184995 1.3955947 0.5080331 0.0037018114 1.419097
0.65415156 0.6879041 0.8561871 0.03798522 0.89678735 0.20587522 0.60475653 0.626902
0.6596334 0.3915845 0.7655192 -0.19311962 0.33237463 1.1296889 0.83361906 0.41122413
0.2846262 0.5843239 -0.17804158 -0.026400989 1.0375758 0.9514164 1.6288288 0.8291564
1.1092033 0.3562494 0.28717855 0.18315372 0.38922134 0.8646212 0.5351169 0.12530716
0.6714634 0.73370826 1.0325111 0.8410378 1.3417617 -0.30566752 -0.23196068 -1.025378
0.6422983 0.39474136 -0.55903924 0.8435476 0.3312746 0.5799714 0.30293682 0.11500351
-0.29340777 0.63022256 0.8965448 0.036217827 0.8177119 0.9845547 -0.3865748 -0.56587124
-0.16519244 -0.0991413 0.47280845 0.39110568 -0.12233162 -0.114219114 -0.4203218 -0.7285469
-0.07255693 0.30931807 0.13165219 -0.14851701 -0.005565648 -0.3861593 -0.24665557 0.07523611
0.48749948 -0.15947998 0.064341836 0.011602834 0.21093406 -0.018178409 -0.2882242 0.4252732
-0.42752758 -0.3156883 -0.16078962 0.11001786 -0.47522488 -0.22339249 0.7108847 0.03340861
-0.10001299 0.6424686 -0.2235332 0.23470595 -0.20378311 0.1982881 -0.55596787 -0.23041388
-0.834106 0.3465538 0.16988489 0.13838147 -0.290801 -0.20704399 -0.6808297 -0.080279715
0.13191827 0.14256424 -0.8804285 -0.069900855 -0.12405135 -0.3465559 0.42638624 0.37628826
0.6870909 0.3888747 -0.07269607 -0.6570189 -0.3284405 -0.16421703 0.16096297 0.093544826
00000000: 5bdf 9bbe 7dcc a53e 7986 b23c ac27 f5be
00000010: 0a43 7bbe b2d9 0dbf 4776 fdbe a51b 0d3f
00000020: e538 01bf 8041 80bf 38c9 f4be 0b0a 94bf
00000030: 12d9 bbbe 8a31 f6be e40a f3bd 15b2 0bbf
00000040: 0c69 df3e 82b1 0bbf 59bf 43bf 2ad6 15bf
00000050: 28f6 e9be ddc4 9fbe 2327 cdbe 9803 f8be
00000060: e575 76be 408c 41bf cb7c 3abf b2dc 073e
00000070: 088f a7be 11ac a9be f395 fcbe 48a5 eabe
00000080: 42eb 29bf a944 6cbe aa2a 3abf 4c60 5abe
00000090: 0403 14bf 7a42 0ebf 69d8 72bf 39c3 81bf
000000a0: f105 ba3e 4c74 a7be b963 0d3f 8d6f d6be
000000b0: 9b2b 67be f368 77bf 652c 4a3e 6e55 15be
000000c0: 59ec 903c 2f80 bebe 0774 60be 0e3d 653d
000000d0: 5194 f8bd 6033 d1be bbf1 17bf 8d3b ffbe
000000e0: f863 39bf 851e 81bc 8753 febd d2bf 77be
000000f0: 6948 26bf e125 99be 8dfc 35bf c993 ecbe
00000100: 4c6c 46be 0d37 9b3f d11a 883f febb 253e
00000110: d9a2 b23f 750e 023f 179a 723b f8a4 b53f
00000120: 7a76 273f 7c1a 303f 142f 5b3f 6496 1b3d
00000130: db93 653f f4d0 523e 53d1 1a3f a67c 203f
00000140: bcdd 283f c37d c83e 11f9 433f 26c1 45be
00000150: 022d aa3e a599 903f 0f68 553f f88b d23e
00000160: 86ba 913e 4096 153f 8850 36be e346 d8bc
00000170: 49cf 843f 0690 733f 767d d03f 9843 543f
00000180: 60fa 8d3f 5266 b63e 1109 933e a68c 3b3e
00000190: 0548 c73e d157 5d3f 6cfd 083f 8550 003e
000001a0: 06e5 2b3f 4ed4 3b3f 5329 843f 414e 573f
000001b0: d9be ab3f 7480 9cbe 1a87 6dbe 963f 83bf
000001c0: a96d 243f 8a1b ca3e 321d 0fbf bcf2 573f
000001d0: d39c a93e 0179 143f 891a 9b3e f686 eb3d
000001e0: 8b39 96be 4456 213f f683 653f 2559 143d
000001f0: 9155 513f c70b 7c3f 22ed c5be f0dc 10bf
00000200: 3528 29be 980a cbbd f313 f23e 013f c83e
00000210: 0089 fabd b6eb e9bd 6b34 d7be 0d82 3abf
00000220: ba98 94bd f05e 9e3e d5cf 063e d814 18be
00000230: 0a60 b6bb acb6 c5be 4793 7cbe 6415 9a3d
00000240: 8899 f93e b84e 23be a7c5 833d d019 3e3c
00000250: 19ff 573e e3ea 94bc 1f92 93be 69bd d93e
00000260: e5e4 dabe e6a1 a1be 09a6 24be 0b51 e13d
00000270: ad50 f3be 00c1 64be 8afc 353f 77d7 083d
00000280: 9cd3 ccbd d278 243f e3e5 64be c256 703e
00000290: 85ac 50be 090c 4b3e e953 0ebf 9ef1 6bbe
000002a0: f987 55bf 806f b13e 4ef6 2d3e dfb3 0d3e
000002b0: dee3 94be 5703 54be db4a 2ebf b169 a4bd
000002c0: 9515 073e 5cfc 113e c363 61bf 2e28 8fbd
000002d0: a20e febd c66f b1be 4c4f da3e dba8 c03e
000002e0: 30e5 2f3f 961a c73e ade1 94bd 6432 28bf
000002f0: 5a29 a8be 8228 28be 7ad3 243e 6e94 bf3d

fc.weight f4 [6, 128]
0.18316579 0.30119842 0.06436258 -1.4480554 0.43634215 -1.1310906 -0.9903713 0.59031147
0.43552738 0.8074667 -2.554018 -0.4461912 0.92254233 0.1864836 -0.3767845 -1.0005974
2.3889735 -0.4060522 -0.14838314 0.61782485 0.020934638 0.65518695 -0.644749 -0.30761805
-2.0637379 0.2760112 0.13027208 -0.5679098 -0.39852956 -0.6563739 -2.055371 -0.70102966
1.5459219 -2.6077242 1.0833147 0.15829772 -0.6264166 -0.61524 3.558709 -3.651781
-0.65831244 -0.18091236 -0.49609607 -0.08646899 -0.007989982 0.61294883 -1.186722 -0.091027975
-0.53373456 -0.8556357 -0.033621203 -2.3767962 -0.022125121 1.0134116 -0.24065074 -0.20483185
-0.30568004 0.02717503 -0.53350276 -0.3745993 0.26926595 -0.68623245 -0.5687591 3.0266519
-1.9567524 1.4497277 0.1520212 -0.5385615 0.56904876 0.4453701 -0.7700726 -0.014414444
-0.79504496 0.4365451 -0.48859066 0.40275434 -0.99724835 -0.33507225 -2.2166634 1.2077587
0.66787535 -0.8664137 0.73554164 0.022362558 0.8609435 0.059503295 -1.3267282 0.6430516
-0.41547957 0.7178074 0.85967684 -0.9479113 0.68298656 -0.69758576 -0.43760058 -0.33248463
0.018910296 1.6266878 -0.115163974 0.32248756 -1.08054 -1.3883591 0.27947515 -1.1841973
-0.2349732 -0.36396283 1.1430542 0.548293 0.6615867 0.12080226 -1.1677545 0.36136302
-1.5368096 -0.085614376 -0.2033545 -1.031711 -2.3025463 -0.18353419 -1.1223646 -0.7768457
0.6773447 1.3374277 0.55077976 -0.99510175 -0.100277394 -0.23985878 0.97411364 0.48510474
0.12645265 -0.27121773 0.19038361 0.35733712 -0.14020291 0.525405 0.754828 0.37092903
-0.08947948 -0.17799951 0.8370798 -0.23409769 -0.32456872 -0.37618038 0.24728246 0.575269
-0.108456194 0.018122133 0.008891458 -0.36013892 -0.4962101 -0.0015850284 0.14661422 -0.64134735
0.9751506 -0.63619196 0.10379677 0.2381003 -0.49745637 -0.13073036 1.2576855 -0.12494979
-0.3606856 0.6634159 -1.463544 -0.49578616 0.5749596 -0.31442788 -1.0281292 0.6401142
-0.47565067 0.09216582 -0.30237684 -0.6430485 -0.19880065 0.04177608 0.7684328 0.17405841
0.23280632 0.4260372 0.063792855 0.9237092 0.2576839 -0.109533474 -0.151122 0.22745933
0.11380842 -0.63765377 0.6319489 -0.27219018 0.19674188 0.26357245 0.028177252 -1.267113
0.73053414 -0.53225183 -0.5001916 0.55966914 -0.46486586 -0.16548486 0.2428504 -0.62549543
-0.026474394 -0.27791184 0.26835045 -0.23825449 0.4469574 0.32910082 0.6146856 -0.4866562
-0.64008594 0.24402027 0.09134491 -0.1946617 0.21057487 -0.48600623 -0.09512656 -0.8124209
0.016739825 -0.064893454 -0.17940235 -0.06940135 -0.9477838 0.6321245 0.26505423 0.62041974
-0.01893032 -0.9776128 -0.53556484 0.79002506 0.70546573 0.18079689 -0.30405122 -0.053389292
-0.06300951 0.2079304 -0.74355054 -0.10707113 -0.050257046 -0.6411134 0.6929555 0.13476057
1.0326768 0.2064558 0.5491406 0.04491349 1.1993062 -0.48129413 1.0049431 0.10314093
0.09166852 -0.79553944 -0.4000608 1.3771378 0.6732287 0.034824807 -0.49505034 -0.39443284
00000000: d08f 3b3e ae36 9a3e 87d0 833d e159 b9bf
00000010: 3d68 df3e 94c7 90bf f988 7dbf a71e 173f
00000020: 72fd de3e 23b6 4e3f 0875 23c0 2c73 e4be
00000030: bc2b 6c3f 8ff5 3e3e e6e9 c0be 9313 80bf
00000040: f1e4 1840 13e6 cfbe c0f1 17be c529 1e3f
00000050: 1e7f ab3c 55ba 273f 450e 25bf 1d80 9dbe
00000060: 4814 04c0 5751 8d3e 0b66 053e 8962 11bf
00000070: 110c ccbe 1f08 28bf 338b 03c0 ae76 33bf
00000080: c5e0 c53f f4e4 26c0 0eaa 8a3f cc18 223e
00000090: d75c 20bf 5e80 1dbf e3c1 6340 c8b6 69c0
000000a0: 2a87 28bf 1741 39be 4e00 febe a716 b1bd
000000b0: 6ae8 02bc 37ea 1c3f 82e6 97bf e06c babd
000000c0: d4a2 08bf f10a 5bbf 63b6 09bd 6e1d 18c0
000000d0: be3f b5bc 79b7 813f 266d 76be 71bf 51be
000000e0: 1882 9cbe 2b9e de3c a393 08bf 7bcb bfbe
000000f0: 3add 893e eeac 2fbf 329a 11bf aab4 4140
00000100: dd76 fabf ad90 b93f 72ab 1b3e 2bdf 09bf
00000110: 2ead 113f 8d07 e43e 7a23 45bf 8f2a 6cbc
00000120: 1188 4bbf d782 df3e 8e28 fabe d135 ce3e
00000130: ab4b 7fbf 978e abbe d0dd 0dc0 d697 9a3f
00000140: e1f9 2a3f 4acd 5dbf 754c 3c3f af31 b73c
00000150: cb66 5c3f bab9 733d 3bd2 a9bf 089f 243f
00000160: bdb9 d4be 3ac2 373f c813 5c3f 51aa 72bf
00000170: 35d8 2e3f fb94 32bf 2f0d e0be 6d3b aabe
00000180: c4e9 9a3c 4e37 d03f 17db ebbd 171d a53e
00000190: 224f 8abf c0b5 b1bf 5e17 8f3e c793 97bf
000001a0: d19c 70be 5659 babe 9a4f 923f ee5c 0c3f
000001b0: bf5d 293f 2d67 f73d fb78 95bf 9304 b93e
000001c0: 2db6 c4bf 9756 afbd 293c 50be 1b0f 84bf
000001d0: eb5c 13c0 63f0 3bbe a5a9 8fbf 5cdf 46bf
000001e0: 7666 2d3f d530 ab3f e7ff 0c3f fdbe 7ebf
000001f0: 3c5e cdbd 8a9d 75be 835f 793f a65f f83e
00000200: ce7c 013e 0ddd 8abe ecf3 423e e4f4 b63e
00000210: 5a91 0fbe f180 063f 683c 413f 69ea bd3e
00000220: 0541 b7bd 8145 36be dd4a 563f 4eb7 6fbe
00000230: df2d a6be b79a c0be 9d37 7d3e d444 133f
00000240: 481e debd de74 943c 7aad 113c 2164 b8be
00000250: 400f febe bac0 cfba 0a22 163e 572f 24bf
00000260: 78a3 793f 7add 22bf 6793 d43d 91d0 733e
00000270: 9ab2 febe 2ede 05be d7fb a03f ade5 ffbd
00000280: c8ab b8be a0d5 293f 6955 bbbf afd7 fdbe
00000290: 8d30 133f b1fc a0be bd99 83bf 86de 233f
000002a0: 7c88 f3be 6fc1 bc3d 23d1 9abe d49e 24bf
000002b0: 6692 4bbe 651d 2b3d 03b8 443f 5e3c 323e
000002c0: c864 6e3e 8c21 da3e d4a5 823d 3578 6c3f
000002d0: 25ef 833e 1653 e0bd babf 1abe 19eb 683e
000002e0: 6414 e93d 473d 23bf 67c7 213f 835c 8bbe
000002f0: b476 493e f8f2 863e fbd3 e63c c230 a2bf
00000300: 4904 3b3f a841 08bf 8f0c 00bf 7a46 0f3f
00000310: e602 eebe dd74 29be c6ad 783e 7820 20bf
00000320: d4e0 d8bc 764a 8ebe 3b65 893e fcf8 73be
00000330: 9ad7 e43e e77f a83e 095c 1d3f 002b f9be
00000340: acdc 23bf 73e0 793e 0a13 bb3d 6655 47be
00000350: f0a0 573e cfd5 f8be b7d1 c2bd d1fa 4fbf
00000360: f521 893c dce6 84bd 40b5 37be 4c22 8ebd
00000370: f6a1 72bf e9d2 213f 30b5 873e d4d3 1e3f
00000380: c213 9bbc d544 7abf c71a 09bf 153f 4a3f
00000390: 6799 343f d222 393e 9aac 9bbe bbae 5abd
000003a0: 210b 81bd b5eb 543e 5459 3ebf 1c48 dbbd
000003b0: 55da 4dbd 0220 24bf 8865 313f adfe 093e
000003c0: c12e 843f 2669 533e 7a94 0c3f 35f7 373d
000003d0: de82 993f 2f6c f6be faa1 803f 8d3b d33d
000003e0: b4bc bb3d 79a8 4bbf c5d4 ccbe 0d46 b03f
000003f0: b758 2c3f 75a4 0e3d 3d77 fdbe 1af3 c9be

fc.bias f4 [6]
-0.2179841 -0.2361591 1.425192 -0.5991044 0.007892442 0.34785149
00000000: 3937 5fbe b1d3 71be b16c b63f e85e 19bf
00000010: 4d4f 013c 9719 b23e
