model/classifier_llama3_8b_a100_tp8.pt (torch, 117740 bytes, 10 tensors)

gru.weight_ih_l0 f4 [192, 6]
-0.97435284 -0.120782755 0.18193509 1.1127157 1.4741652 0.6385107 0.89751357 0.8490302
1.039374 -0.5604548 -1.3322647 -0.18189839 0.5570539 -0.9564774 0.6741221 0.080803305
-0.40260944 -0.52603555 0.07199097 1.0245926 -0.8125177 -1.7102656 0.4996029 -0.6630898
-0.40473843 -1.0890937 -0.53556037 0.32998708 -0.2838607 -0.8031757 1.0061597 -0.2546299
0.58153254 -0.31027663 1.0341681 0.8953858 -0.5741892 -1.21107 0.6340206 0.84113777
-0.46528408 0.097330324 -0.0126449745 0.23179916 -1.1905993 -0.62184274 0.2569234 -0.55424637
0.10181349 0.7899933 0.3902987 1.0026234 0.881447 -0.16789597 0.5001015 0.7062107
1.215619 -0.77409786 -0.8993375 -1.0529878 0.35460168 0.07484942 -0.047561135 -0.5222962
0.10709554 -0.2960695 1.2776691 0.084432214 0.6336747 -0.6891229 0.3615144 -0.44249234
1.2326845 0.17117266 0.96366173 0.6837762 0.5961073 0.0794235 -0.71420544 -0.2545786
-1.2561445 -0.684244 -0.8994939 0.8912102 0.28639865 0.20199606 -0.4712342 0.078969374
0.65240616 -0.470082 0.1810992 0.24966533 1.9607788 -0.99740845 0.9634622 -0.49384654
0.11152617 -0.39847705 -0.32111335 -0.26125258 0.8700908 -0.29588962 0.12204797 0.34339675
-0.12886152 1.127759 -0.15526792 0.3008055 1.7062297 -1.3718574 0.24443851 -0.71850294
0.9723111 0.18640351 0.26046747 0.12141756 -0.36318827 -0.31851405 0.9721913 0.539479
2.4366639 0.963515 1.0809555 -0.46601418 -0.12674704 0.1908743 -0.29949343 -0.47493693
0.6409599 -0.029926738 -1.4337183 0.15819103 0.18790102 -0.12656331 0.3048569 0.9291321
-0.4859183 0.9081917 0.577814 0.6055202 0.78846043 -0.31445113 -1.3203607 -0.83093745
0.68595874 -0.066437885 0.28337893 -0.40867618 -0.66439086 -0.54832387 0.21599351 -1.8751168
-1.4875834 0.40366504 0.3715573 -0.1379998 0.64142746 1.7536033 1.5401415 -0.5637454
-0.15852004 -0.8524622 -1.2211888 -1.3737183 -1.4368123 -0.51792747 -0.43959972 0.018843997
0.6295476 0.29572672 -1.1586571 -0.9054845 2.515526 0.55384797 0.6052965 0.017950704
0.32911593 -0.4520858 -1.0141838 0.647495 -0.5772274 0.09334762 -0.33809713 0.03958674
0.14215665 0.08612185 0.7882651 -0.33260593 0.4343454 0.11146224 0.025581226 0.44466066
1.182127 1.9742341 1.6085598 -0.00943377 1.4257767 -0.24454474 -0.37871158 -0.8610984
-0.58265984 0.633377 0.5134118 0.79879 0.3019194 -0.3480086 0.5884038 -0.21365179
0.5840672 0.9048481 -0.093127154 1.4045821 0.17018 -0.86693996 0.83050776 -0.22155553
-1.2129241 0.04282762 -1.4956368 -0.21616516 0.25138476 -1.3064941 0.74369764 0.8051682
0.34953228 -0.60824627 -0.6924803 1.1646118 -0.43472406 -0.42385355 0.32029766 0.61455494
0.44798985 -0.79027176 0.22727215 -0.65467334 0.0037752462 0.81183004 -0.7643019 0.18915816
0.47714418 0.14210217 -0.080266885 0.75316966 0.37731826 0.63651496 0.22775827 0.025177443
-1.2377188 1.5391407 0.20622392 0.5957281 -0.23930445 -0.7887683 -0.42826807 -0.49530417
00000000: 306f 79bf f35c f7bd 314d 3a3e 786d 8e3f
00000010: 72b1 bc3f 7075 233f 73c3 653f 0b5a 593f
00000020: 350a 853f f779 0fbf a687 aabf 9243 3abe
00000030: 169b 0e3f b4db 74bf 4493 2c3f 347c a53d
00000040: d322 cebe 44aa 06bf 0070 933d da25 833f
00000050: 2901 50bf fce9 dabf f4cb ff3e 41c0 29bf
00000060: e039 cfbe 6c67 8bbf 7c1a 09bf 11f4 a83e
00000070: 3156 91be ec9c 4dbf d7c9 803f da5e 82be
00000080: 51df 143f 94dc 9ebe 9f5f 843f 0138 653f
00000090: 10fe 12bf 5704 9bbf 2d4f 223f ce54 573f
000000a0: b739 eebe 1f55 c73d de2c 4fbc c25c 6d3e
000000b0: 8f65 98bf 1631 1fbf 778b 833e 17e3 0dbf
000000c0: 9783 d03d 003d 4a3f 3bd5 c73e f755 803f
000000d0: 83a6 613f ecec 2bbe a706 003f 39ca 343f
000000e0: 6799 9b3f 472b 46bf fb3a 66bf 4ec8 86bf
000000f0: 5a8e b53e a74a 993d 77cf 42bd 34b5 05bf
00000100: e854 db3d 6c96 97be a98a a33f ccea ac3d
00000110: 8138 223f 5c6a 30bf 6a18 b93e 5b8e e2be
00000120: 9bc8 9d3f e347 2f3e 89b2 763f f50b 2f3f
00000130: 7d9a 183f caa8 a23d 2bd6 36bf 2058 82be
00000140: 58c9 a0bf 9d2a 2fbf 3b45 66bf 5a26 643f
00000150: d8a2 923e 0ed8 4e3e 9c45 f1be b2ba a13d
00000160: 1704 273f 97ae f0be 1272 393e 45a8 7f3e
00000170: cdfa fa3f 2956 7fbf 75a5 763f 74d9 fcbe
00000180: d567 e43d 2f05 ccbe f868 a4be e6c2 85be
00000190: 45be 5e3f d87e 97be 49f4 f93d b3d1 af3e
000001a0: 46f4 03be 685a 903f 8efe 1ebe 2e03 9a3e
000001b0: bc65 da3f 0699 afbf 174e 7a3e cfef 37bf
000001c0: 61e9 783f 90e0 3e3e fe5b 853e c5a9 f83d
000001d0: d0f3 b9be 4614 a3be 87e1 783f 4c1b 0a3f
000001e0: 4df2 1b40 eba8 763f c05c 8a3f 6999 eebe
000001f0: fac9 01be 8d74 433e 3457 99be ef2a f3be
00000200: f315 243f eb28 f5bc 1584 b7bf d4fc 213e
00000210: 2069 403e d099 01be 3416 9c3e 9adb 6d3f
00000220: 49ca f8be 407f 683f 9eeb 133f 5f03 1b3f
00000230: 8bd8 493f bdff a0be 9401 a9bf 51b8 54bf
00000240: fe9a 2f3f 9610 88bd 0b17 913e 013e d1be
00000250: 8515 2abf f45e 0cbf 672d 5d3e d403 f0bf
00000260: 2269 bebf 2fad ce3e c23c be3e d24f 0dbe
00000270: 9734 243f 1376 e03f 5b23 c53f 9e51 10bf
00000280: 1453 22be f63a 5abf ea4f 9cbf 00d6 afbf
00000290: 77e9 b7bf e596 04bf 3713 e1be ba5e 9a3c
000002a0: 082a 213f 7e69 973e e04e 94bf d5cd 67bf
000002b0: 61fe 2040 fbc8 0d3f b6f4 1a3f 5b0d 933c
000002c0: e281 a83e ca77 e7be c6d0 81bf 3bc2 253f
000002d0: 2dc5 13bf 092d bf3d 111b adbe b525 223d
000002e0: 8391 113e a760 b03d becb 493f 534b aabe
000002f0: 8562 de3e 5146 e43d b88f d13c 90aa e33e
00000300: f04f 973f b4b3 fc3f 4ae5 cd3f 1990 1abc
00000310: da7f b63f f069 7abe 7ce6 c1be f270 5cbf
00000320: 3229 15bf ff24 223f f56e 033f 807d 4c3f
00000330: 2e95 9a3e 2f2e b2be a2a1 163f 89c7 5abe
00000340: 6e85 153f 20a4 673f 73b9 bebd 59c9 b33f
00000350: aa43 2e3e c7ef 5dbf 289c 543f 74df 62be
00000360: 1941 9bbf 046c 2f3d 0771 bfbf 665a 5dbe
00000370: 81b5 803e 333b a7bf f862 3e3f 811f 4e3f
00000380: e5f5 b23e 07b6 1bbf 6446 31bf 0012 953f
00000390: 2794 debe 5503 d9be 0efe a33e 7953 1d3f
000003a0: ed5e e53e 404f 4abf 08ba 683e ac98 27bf
000003b0: 1f6a 773b 18d4 4f3f 4aa9 43bf adb2 413e
000003c0: 3e4c f43e 3b83 113e f762 a4bd bacf 403f
000003d0: dc2f c13e a5f2 223f 7739 693e ed40 ce3c
000003e0: 926d 9ebf 9002 c53f 5d2c 533e a381 183f
000003f0: 3a0c 75be b8ec 49bf f445 dbbe 8298 fdbe

gru.weight_hh_l0 f4 [192, 64]
0.20296703 -1.7366552 -0.6772868 -0.25663528 1.1394138 0.82904285 2.1132002 -0.09022386
0.39452127 0.247725 -0.22580096 -0.02850296 0.35023758 0.12968689 0.23478082 0.5792861
0.4029027 0.1571658 0.42742616 -0.07789024 0.040571783 0.042511366 -0.005450146 -0.67097
-0.30088177 0.9935898 0.116479665 -0.5667097 -0.27244323 -0.64543664 0.73294926 0.12101549
1.1417373 0.17179176 -1.0404481 -1.8041415 -0.24720523 0.17818959 1.17111 0.9537391
0.3150803 0.9630785 0.37181714 0.14797266 -0.61094236 0.6844943 -0.6779086 0.25666958
-0.48894948 0.6041459 -0.3246788 -0.55688804 -0.103042975 -0.6936428 -1.1490077 0.19485722
0.8758939 -0.47478572 0.27666453 0.07777531 -0.13520004 -0.5269868 -0.4470031 1.3289189
-0.646878 -0.5758162 0.72038585 0.48654324 -0.49887833 -0.9202402 0.27236718 0.049463406
0.10370183 0.063389696 -0.4154267 0.44157222 -0.17928304 -0.5543153 0.6099362 -0.58096087
0.08101555 -0.7153224 -0.14389475 -0.3586499 0.37814614 -0.6797768 -0.7389281 -0.92398256
0.42699656 -0.5165704 -0.48695856 0.12493525 -0.56101084 -1.8354181 0.18860212 -0.096779406
-0.1685699 -0.87895536 -0.30635893 0.12419695 -1.5498923 0.7786083 -0.29891446 -0.9408921
0.09011618 0.30472702 -0.8403157 0.08705552 0.28830245 0.680247 1.347465 -0.5469649
-1.1625434 -0.7017627 0.004237208 0.9730231 -0.88608336 -0.6113924 -0.39872515 -0.08591913
-0.36450922 0.51793224 -0.26187518 -0.45733365 -0.32566434 -0.037066888 -0.12639982 -0.58755666
0.07687134 0.10492187 -0.33858493 0.74932 0.0076965746 -0.79525036 -1.170163 -0.54111964
0.8751098 -0.9338288 0.6057074 -0.3835679 0.72895414 -0.070513256 0.25177276 0.07288584
0.53618073 0.22111441 -0.21673246 -0.5092783 0.12093875 -1.0931629 -0.5586795 0.18634623
-0.80823165 -0.09757719 0.32440397 -1.4211956 -1.1153144 0.3387673 -0.29744267 0.25987673
0.30737412 -0.41318187 0.63939244 -0.11589652 -0.25897732 0.20861185 -0.0075411107 -0.58512616
0.32659858 0.96388876 1.0374787 -0.54599226 0.19396986 -0.23028219 -1.4599004 0.21638748
-0.69780076 0.4327152 -0.120864525 -0.879308 0.28834435 0.40430957 -0.68454117 0.53483605
0.04652609 0.37603888 -1.1509311 0.89724845 0.08230741 0.6143544 -0.21911743 0.1875718
0.35597286 0.31104374 0.9543861 -0.36251074 -0.1799595 0.6886697 -0.57953644 -0.05303242
-0.0050081387 0.29370862 -0.1375978 -0.086310565 0.20709635 -0.27992678 0.29091972 -0.7155638
-1.2955177 0.16744663 0.20779453 0.31058967 0.37335017 0.9692001 -0.5650967 0.49182707
-0.12992829 -0.788629 -0.28572813 0.91785413 0.70951355 -0.13691892 -0.2775308 0.02392296
-0.68329114 0.04074105 -0.3490197 -0.43921635 -0.8498979 -0.42894784 -1.0587832 -0.19289069
0.38701597 0.013878381 -0.6443515 0.83151484 0.094306454 0.05959646 0.12261031 -0.30304685
-0.035520338 0.16896594 0.004185301 -0.035793822 -0.018935163 -0.4607126 0.12315482 0.6107486
-0.39320624 0.548012 0.5188456 -0.13992432 -0.2065098 0.30160668 -0.52812386 0.6742753
00000000: 97d6 4f3e b84a debf ab62 2dbf b365 83be
00000010: 50d8 913f 273c 543f ac3e 0740 4ac7 b8bd
00000020: b1fe c93e 9fab 7d3e 5e38 67be 0a7f e9bc
00000030: 5752 b33e a4cc 043e 626a 703e 184c 143f
00000040: 4349 ce3e 12f0 203e 9ad7 da3e eb84 9fbd
00000050: 992e 263d 6620 2e3d 2397 b2bb b1c4 2bbf
00000060: 2d0d 9abe e75b 7e3f e48c ee3d e313 11bf
00000070: ae7d 8bbe 563b 25bf 90a2 3b3f f8d6 f73d
00000080: 7324 923f 2eea 2f3e 672d 85bf 1cee e6bf
00000090: 5e23 7dbe 5577 363e efe6 953f 3f28 743f
000000a0: 3552 a13e 508c 763f d15e be3e 2586 173e
000000b0: b866 1cbf 053b 2f3f 6b8b 2dbf 326a 833e
000000c0: 9657 fabe 4ea9 1a3f 4d3c a6be 3790 0ebf
000000d0: 3208 d3bd 9392 31bf af12 93bf a788 473e
000000e0: 953a 603f 1d17 f3be f9a6 8d3e a948 9f3d
000000f0: e171 0abe 9be8 06bf 97dd e4be 041a aa3f
00000100: cc99 25bf b168 13bf 356b 383f 321c f93e
00000110: fb6c ffbe dd94 6bbf b673 8b3e 249a 4a3d
00000120: a061 d43d 75d2 813d cfb2 d4be c115 e23e
00000130: f995 37be 9ce7 0dbf c724 1c3f dab9 14bf
00000140: 7beb a53d 5e1f 37bf 2559 13be f6a0 b7be
00000150: 5f9c c13e da05 2ebf 642a 3dbf 1f8a 6cbf
00000160: 4b9f da3e f53d 04bf a252 f9be 0dde ff3d
00000170: 689e 0fbf fbee eabf ea20 413e 4834 c6bd
00000180: 969d 2cbe 3803 61bf 14db 9cbe f85a fe3d
00000190: df62 c6bf e052 473f 510b 99be 4ede 70bf
000001a0: d58e b83d 2e05 9c3e ee1e 57bf 2a4a b23d
000001b0: 619c 933e ab24 2e3f bc79 ac3f e405 0cbf
000001c0: 39ce 94bf b8a6 33bf 47d8 8a3b 0b18 793f
000001d0: 5cd6 62bf 3684 1cbf b425 ccbe 5ef6 afbd
000001e0: f4a0 babe 3597 043f 8114 86be a327 eabe
000001f0: 7abd a6be 73d3 17bd f46e 01be 1d6a 16bf
00000200: b96e 9d3d 47e1 d63d 015b adbe 6fd3 3f3f
00000210: 8c33 fc3b 8795 4bbf e7c7 95bf d186 0abf
00000220: 3207 603f 670f 6fbf a40f 1b3f 0363 c4be
00000230: bd9c 3a3f 4169 90bd 5ce8 803e 2c45 953d
00000240: 2443 093f d16b 623e 1def 5dbe 1060 02bf
00000250: bcae f73d c3ec 8bbf 9f05 0fbf 8cd1 3e3e
00000260: 45e8 4ebf 8dd6 c7bd 4718 a63e bde9 b5bf
00000270: 9fc2 8ebf e872 ad3e 684a 98be 900e 853e
00000280: 2460 9d3e 938c d3be 39af 233f 285b edbd
00000290: ad98 84be 589e 553e 6c1b f7bb d4ca 15bf
000002a0: ee37 a73e 6ac1 763f 1acc 843f 26c6 0bbf
000002b0: 09a0 463e 18cf 6bbe 04de babf ae94 5d3e
000002c0: 12a3 32bf d98c dd3e d287 f7bd 541a 61bf
000002d0: dfa1 933e aa01 cf3e 173e 2fbf 04eb 083f
000002e0: 2492 3e3d 2b88 c03e b651 93bf 13b2 653f
000002f0: ca90 a83d 5446 1d3f 5260 60be d212 403e
00000300: 1342 b63e 2041 9f3e a652 743f 029b b9be
00000310: 4e47 38be a84c 303f 805c 14bf 8638 59bd
00000320: 501b a4bb fa60 963e 70e6 0cbe 98c3 b0bd
00000330: 1111 543e 9052 8fbe 6ef3 943e 302f 37bf
00000340: 86d3 a5bf 2177 2b3e 17c8 543e 9c05 9f3e
00000350: c127 bf3e 7f1d 783f 2daa 10bf c2d0 fb3e
00000360: ec0b 05be 97e3 49bf f54a 92be 7df8 6a3f
00000370: aea2 353f 7934 0cbe 8418 8ebe 15fa c33c
00000380: 2bec 2ebf 16e0 263d b6b2 b2be f7e0 e0be
00000390: e992 59bf 0d9f dbbe 3586 87bf 2385 45be
000003a0: f526 c63e 2662 633c 38f4 24bf 28de 543f
000003b0: be23 c13d 6b1b 743d 1d1b fb3d f528 9bbe
000003c0: c67d 11bd 6805 2d3e d924 893b 8b9c 12bd
000003d0: ea1d 9bbc 86e2 ebbe 9838 fc3d 055a 1c3f
000003e0: 5452 c9be 844a 0c3f 11d3 043f 5248 0fbe
000003f0: 4e77 53be 316c 9a3e 2033 07bf 4e9d 2c3f

gru.bias_ih_l0 f4 [192]
-0.7508228 -0.5544001 -0.8236841 -0.27516153 -0.79398984 -0.16803317 -0.53301316 -0.4665862
-0.3833792 0.031241924 -0.59379077 -0.18801421 -0.79075557 -0.22901848 -0.8604431 0.042637162
-0.46012053 -1.0838349 -0.4054104 -0.52954775 -0.45505884 -0.4020416 -0.28645495 -0.98944527
0.117033124 0.04916324 -0.07888047 -0.20088609 -0.45754912 -0.017028876 -0.96998686 -0.41297165
-0.40857795 -0.56519145 -0.7336704 -0.87064064 -0.75064343 0.04271389 -0.95630914 -0.4574868
-0.53004414 -0.5047438 -0.37793684 -0.48538408 -0.35784635 -0.21085936 -0.24833012 -0.2818352
-0.26097155 -0.20737058 0.009504976 -0.34037647 0.2983721 -0.38553387 -0.42382273 -0.34411773
-0.51511174 -0.5209711 0.12478278 -0.55290633 -0.59604275 -1.1032466 -0.3824645 -0.54793024
0.24339822 0.26792705 0.5688047 0.07731195 0.5926609 0.4382697 1.2086027 -0.22642349
1.3610493 0.19522843 1.2829312 0.35449323 -0.3108031 0.044405416 0.50229245 0.20542508
0.8508004 0.74528915 -1.2009367 0.4586135 0.89863956 0.9476184 -0.45510387 0.27789178
0.19241281 0.037768085 0.2522351 1.1168154 0.43420735 1.9116921 0.46880525 0.25994638
0.37003046 -0.16612037 0.6544538 0.75062 0.8085036 1.5221226 -0.1220696 0.65638435
-0.047524195 0.3218097 1.1293795 1.5482132 0.7774664 -0.25386408 0.36605895 -0.56428474
0.8486246 -0.18071176 1.192556 0.76973045 0.5070788 0.055615786 1.2812487 0.09785602
0.5988255 0.29835933 -0.015918763 1.4671068 0.8320302 0.42287964 0.42986712 1.0928645
-0.09676878 0.33088556 -0.07259903 0.3354831 -0.24640767 0.25700065 0.22649327 0.14044034
0.03827991 -0.07238363 -0.20488903 -0.3071807 0.29736757 0.13035509 -0.069911726 0.101126775
0.30371034 -0.1654728 0.024908626 0.15011117 0.11174936 0.1896196 0.20900463 0.0038134812
-0.22236569 0.25597522 0.30783677 -0.081108704 -0.25009966 0.36478564 -0.21705171 -0.1558091
0.21579222 0.22196344 -0.22296563 -0.14356062 -0.09363585 -0.09400093 0.16934246 -0.3805054
-0.3252453 0.19677332 -0.053842988 0.1918837 -0.090394735 -0.2623833 0.064718746 -0.30836374
-0.14057255 0.008018007 -0.19768634 -0.2406643 0.2987107 -0.072852656 0.26172775 0.21557048
0.19067061 0.12789677 -0.10670367 0.018892687 0.014573159 0.03895619 -0.012116108 -0.17515667
00000000: ec35 40bf 2aed 0dbf f6dc 52bf f9e1 8cbe
00000010: eb42 4bbf e310 2cbe 8d73 08bf 63e4 eebe
00000020: 474a c4be 10ef ff3c ac02 18bf cc86 40be
00000030: f56e 4abf d283 6abe 0046 5cbf 4ea4 2e3d
00000040: eb94 ebbe 1abb 8abf f491 cfbe 7190 07bf
00000050: 79fd e8be 66d8 cdbe 39aa 92be 494c 7dbf
00000060: 10af ef3d 655f 493d 158c a1bd 15b5 4dbe
00000070: e143 eabe 2480 8bbc 0f51 78bf 0571 d3be
00000080: 2131 d1be 63b0 10bf d3d1 3bbf 4ee2 5ebf
00000090: 2b2a 40bf c3f4 2e3d add0 74bf b63b eabe
000000a0: f9b0 07bf e436 01bf f080 c1be 4384 f8be
000000b0: a337 b7be 84eb 57be 404a 7ebe b44c 90be
000000c0: 109e 85be f458 54be c2ba 1b3c d345 aebe
000000d0: 3ac4 983e b264 c5be 4bff d8be 3330 b0be
000000e0: 5dde 03bf 5d5e 05bf 1d8e ff3d 458b 0dbf
000000f0: 4296 18bf 2f37 8dbf 63d2 c3be 2845 0cbf
00000100: 623d 793e bc2d 893e 2f9d 113f ba55 9e3d
00000110: a0b8 173f e364 e03e 7eb3 9a3f 8fdb 67be
00000120: dd36 ae3f f6e9 473e 1737 a43f 2380 b53e
00000130: 9521 9fbe 74e2 353d 3d96 003f f45a 523e
00000140: 0ece 593f 45cb 3e3f 4bb8 99bf 64cf ea3e
00000150: 3e0d 663f 1f97 723f 6003 e9be d547 8e3e
00000160: dd07 453e b5b2 1a3d f624 813e cff3 8e3f
00000170: 6d50 de3e 54b2 f43f 3e07 f03e b117 853e
00000180: a274 bd3e 751b 2abe 498a 273f a228 403f
00000190: 18fa 4e3f ead4 c23f a0ff f9bd ce08 283f
000001a0: bba8 42bd 3ec4 a43e 828f 903f da2b c63f
000001b0: 0a08 473f 79fa 81be 146c bb3e f774 10bf
000001c0: 763f 593f 810c 39be ada5 983f 0e0d 453f
000001d0: ebcf 013f 61cd 633d f5ff a33f bd68 c83d
000001e0: a14c 193f 8ec2 983e 1168 82bc 28ca bb3f
000001f0: eeff 543f ae83 d83e 8b17 dc3e fce2 8b3f
00000200: b62e c6bd d569 a93e cdae 94bd 71c4 ab3e
00000210: 4b52 7cbe 9795 833e daed 673e 98cf 0f3e
00000220: 65cb 1c3d de3d 94bd 6ece 51be ca46 9dbe
00000230: 9040 983e ce7b 053e e12d 8fbd 8e1b cf3d
00000240: ec7f 9b3e b471 29be 2d0d cc3c beb6 193e
00000250: d9dc e43d a42b 423e 4f05 563e 99eb 793b
00000260: d5b3 63be 2f0f 833e c89c 9d3e 521c a6bd
00000270: 100d 80be 2fc5 ba3e ce42 5ebe 6c8c 1fbe
00000280: a3f8 5c3e 624a 633e 1a51 64be 8e01 13be
00000290: 27c4 bfbd 8f83 c0bd 1c68 2d3e 9bd1 c2be
000002a0: 8d86 a6be f27e 493e 778a 5cbd 297d 443e
000002b0: e020 b9bd 1b57 86be 438b 843d dae1 9dbe
000002c0: 40f2 0fbe f55d 033c 4a6e 4abe b470 76be
000002d0: 9cf0 983e c633 95bd 2e01 863e 82be 5c3e
000002e0: 283f 433e 5ff7 023e 7487 dabd d6c4 9a3c
000002f0: 42c4 6e3c 8790 1f3d a482 46bc 455c 33be

gru.bias_hh_l0 f4 [192]
-0.75911087 -0.7180888 -0.90908045 -0.26178855 -0.91298133 -0.18228458 -0.5851367 -0.30474222
-0.31417856 -0.15102284 -0.6130923 -0.17261133 -0.904157 -0.24687105 -0.8004028 -0.09045917
-0.27392945 -1.0919229 -0.37631273 -0.61887103 -0.39242107 -0.41703755 -0.29602474 -0.94370896
0.15210246 -0.13381252 -0.29663834 -0.23134437 -0.40057272 0.07332108 -1.0476365 -0.4353285
-0.37935653 -0.6426572 -0.62477773 -0.85148734 -0.72502697 -0.022800824 -1.0911163 -0.51865137
-0.4597559 -0.5107423 -0.2779979 -0.36282602 -0.3695148 -0.08522631 -0.38491598 -0.27904922
-0.18760312 -0.20006885 0.054946557 -0.43230626 0.26533425 -0.43916473 -0.61969763 -0.21305652
-0.64434946 -0.68045753 0.03778274 -0.7095491 -0.72238 -1.0981845 -0.38992465 -0.65143377
0.05583918 0.49250868 0.5759507 0.029880762 0.70003945 0.35237724 1.4037662 -0.25751638
1.5519536 0.010814239 1.3024434 0.23820749 -0.21070409 0.023021588 0.36002114 0.17098027
0.85342234 0.8689512 -0.989009 0.4382741 1.0321511 1.052567 -0.3665092 0.19541426
0.34225655 -0.09364339 0.21692508 1.2005785 0.2606623 1.7290722 0.41898328 0.05753749
0.27426744 -0.13860634 0.6381903 0.6233936 0.79364014 1.7215683 -0.13393487 0.4684957
-0.09246827 0.3763977 1.2456387 1.3968323 0.78571314 -0.19844785 0.35540766 -0.73252225
0.7684759 -0.18438372 1.324 0.78974324 0.5386598 0.19440918 1.1171288 0.08708524
0.5011474 0.4957952 0.1889195 1.379921 0.8683145 0.36144847 0.43674693 1.0452042
-0.035552043 -0.44613418 -0.23135285 0.44656232 0.27535737 -0.20525451 0.21678413 0.24159576
-0.5781707 -0.48910213 0.30204803 -0.28188953 0.13283114 0.1634295 -0.27108482 -0.19123615
-0.2344603 0.19294155 0.27686784 -0.5298729 -0.052506175 0.13252652 0.18674546 0.44673562
-0.43003064 0.07735747 -0.16909018 0.14491399 -0.5256548 0.21405023 0.115801096 0.019635482
-0.47584462 -0.26886865 -0.48541066 -0.14294533 -0.9598658 -0.11741328 -0.18358158 0.11546876
-0.16725971 0.16032512 0.002497484 0.31227675 0.30185398 -0.20741405 -0.34765032 -0.12352542
-0.020819098 0.06987425 -0.4237725 -0.09916 -0.46133226 0.35228387 0.22765191 -0.1310387
0.10600124 -0.008030503 -0.2146402 0.26369673 -0.28339383 0.1999832 0.34121758 0.04502973
00000000: 1755 42bf abd4 37bf 7fb9 68bf 2609 86be
00000010: 25b9 69bf cfa8 3abe 85cb 15bf 2c07 9cbe
00000020: 03dc a0be bba5 1abe 9ef3 1cbf 06c1 30be
00000030: d576 67bf c4cb 7cbe 33e7 4cbf a842 b9bd
00000040: 7b40 8cbe 21c4 8bbf 10ac c0be 556e 1ebf
00000050: 6aeb c8be f285 d5be 8e90 97be e996 71bf
00000060: bfc0 1b3e 2606 09be fbe0 97be 8ae5 6cbe
00000070: de17 cdbe 5d29 963d f418 86bf 61e3 debe
00000080: 053b c2be 2f85 24bf 6ff1 1fbf 13fb 59bf
00000090: 5e9b 39bf cbc8 babc b3a9 8bbf 56c6 04bf
000000a0: 2065 ebbe 02c0 02bf be55 8ebe 55c4 b9be
000000b0: 0b31 bdbe 228b aebd b513 c5be 8adf 8ebe
000000c0: 081b 40be d9de 4cbe a40f 613d 3f57 ddbe
000000d0: e4d9 873e 33da e0be 81a4 1ebf 7d2b 5abe
000000e0: 16f4 24bf 7732 2ebf 13c2 1a3d 03a5 35bf
000000f0: e5ed 38bf 4f91 8cbf 34a4 c7be 5dc4 26bf
00000100: a0b7 643d 192a fc3e 8171 133f 80c8 f43c
00000110: c935 333f ca6a b43e 9cae b33f 30d9 83be
00000120: 6aa6 c63f 352e 313c 77b6 a63f aaec 733e
00000130: d0c2 57be c597 bc3c b154 b83e 7415 2f3e
00000140: e379 5a3f 9673 5e3f b22f 7dbf 7665 e03e
00000150: 871d 843f 84ba 863f 18a7 bbbe ad1a 483e
00000160: 403c af3e 1bc8 bfbd 9c21 5e3e 8eac 993f
00000170: 8775 853e 3d52 dd3f fa84 d63e 6eac 6b3d
00000180: c86c 8c3e d2ee 0dbe 7160 233f b996 1f3f
00000190: 002c 4b3f 5a5c dc3f 3926 09be abde ef3e
000001a0: 0160 bdbd 33b7 c03e 1771 9f3f 67cb b23f
000001b0: 7f24 493f ea35 4bbe fef7 b53e 9486 3bbf
000001c0: d6ba 443f 16cf 3cbe d578 a93f 9d2c 4a3f
000001d0: 9ce5 093f 3313 473e 14fe 8e3f bf59 b23d
000001e0: 324b 003f ded8 fd3e 1d74 413e 40a1 b03f
000001f0: dc49 5e3f c60f b93e 4b9d df3e 40c9 853f
00000200: 059f 11bd b36b e4be c3e7 6cbe d1a3 e43e
00000210: a4fb 8c3e 3d2e 52be a9fc 5d3e e164 773e
00000220: ff02 14bf 986b fabe 0aa6 9a3e d353 90be
00000230: e304 083e 105a 273e a1cb 8abe 69d3 43be
00000240: 5c16 70be 7892 453e 9fc1 8d3e c0a5 07bf
00000250: b710 57bd 08b5 073e 343a 3f3e 88ba e43e
00000260: fa2c dcbe 986d 9e3d fa25 2dbe 5564 143e
00000270: 5091 06bf fc2f 5b3e 2029 ed3d 97da a03c
00000280: e8a1 f3be 27a9 89be bf87 f8be 4360 12be
00000290: c4b9 75bf 6076 f0bd cffc 3bbe e37a ec3d
000002a0: 2146 2bbe 452c 243e d4ac 233b bde2 9f3e
000002b0: 9b8c 9a3e 5964 54be 39ff b1be e5fa fcbd
000002c0: d08c aabc 3b1a 8f3d b6f8 d8be 6614 cbbd
000002d0: be33 ecbe 8d5e b43e 951d 693e 022f 06be
000002e0: 2e17 d93d 5f92 03bc a4ca 5bbe 4203 873e
000002f0: ff18 91be 65c8 4c3e 12b4 ae3e 1871 383d

gru.weight_ih_l0_reverse f4 [192, 6]
0.6046733 0.86438394 0.42946625 0.41207185 -0.26778618 -0.07706472 -0.003109533 0.8976887
-0.24691524 -0.22881752 3.029071 -0.79161394 0.8881977 -0.8783611 -0.044375397 -0.7486107
-0.18969214 0.42336634 2.5210323 0.8194713 0.7678933 -0.035948083 0.09420647 0.020584486
-0.500619 0.664413 0.7901362 0.868439 0.9349794 0.5983708 -0.12518549 0.5120491
1.1927533 0.44686866 -1.0907367 1.1291791 -0.6977236 -0.1680594 0.46253952 1.5937909
1.723808 0.27306286 -0.56936234 -0.0947519 0.36677447 -0.97046024 -1.0589385 -1.1643078
0.31052837 0.79635876 -0.71113265 -0.07144494 -0.07446127 -1.1882088 1.260082 1.0981379
1.1614243 -0.82185435 -0.044879444 -0.19477627 0.45061812 0.26321545 0.05419348 -0.7926853
0.14044577 0.04546891 0.0057428153 -0.23901406 -0.03258661 1.0019692 1.6344916 0.80496955
0.12843879 0.54693216 1.0528758 -0.4044555 0.5468749 -0.7413394 -0.07034916 -0.21698685
-2.183936 -0.8601155 0.71281487 -1.4206896 0.33508548 0.27043605 0.18206987 0.43114874
-0.33706832 1.7451198 -0.2714305 -0.45839122 2.7925255 0.8283812 -0.3076471 0.34301066
-0.53590083 -0.3637284 -0.9911929 -0.18980038 -0.3561476 0.073960334 0.21299358 -0.40814748
-0.8604212 0.2858196 1.3393687 -0.5693168 1.0535578 2.204559 -0.300862 0.606186
1.5974259 0.19531506 -0.9408573 0.7344699 -0.8560236 0.27575383 0.94973695 -0.3811706
0.3723069 1.1758201 -0.04454527 0.24574457 -1.0912209 -0.68270385 -0.63773537 0.22831093
-0.379269 0.87105393 1.6158841 0.6594293 -0.70161253 -0.08364882 -0.2618351 0.42802462
-0.04305865 0.4135864 -0.63782114 -0.9050467 -0.250194 -0.4563816 -1.9251316 0.21494009
0.7994421 0.4107414 -0.2767545 -0.8020632 -0.08837443 1.4910862 1.2762457 1.0112152
0.38258645 -0.13391295 0.9776052 -0.9430564 -0.5250817 0.74329376 -0.32390776 -0.09176346
1.1962306 -0.3503166 0.07257629 0.12055164 0.67910194 -0.3936542 0.71773 -0.14639872
0.31070742 0.49996138 0.2875003 0.2853728 -0.68577945 -1.4598231 0.31742105 0.86560905
0.701324 0.1723171 -0.2498456 0.97762215 -0.050005723 -0.33085355 0.3128201 0.66305596
-0.31000826 1.5116609 -0.063513175 0.6774374 -0.44181997 0.2889872 -0.50686383 -0.13494968
-0.2582692 -1.3182362 -0.44902572 -0.37638938 -0.52446026 0.6955116 0.84186465 0.19280548
0.57218397 -0.2820938 -0.82244134 -0.011143448 0.625971 0.71021926 -0.29909772 -0.73128957
0.6098205 0.75678754 0.90694255 1.6745589 -0.052187454 0.10923383 0.9403378 -0.008440133
0.17407694 0.74950993 0.17785163 -1.2630554 -0.84368545 0.6696874 0.060917404 -1.4745895
0.7343539 -0.5196269 -0.103121765 -0.17604415 -0.0011960601 -0.8464303 0.6467393 -0.7239289
-1.8214599 0.4161794 -0.8017215 0.7162494 0.16093886 0.87248915 0.084950924 0.17381299
-0.72928166 -0.7754249 -0.24735963 -0.90185976 0.13975483 0.42271242 1.2574134 -0.088776015
0.09491789 0.7083808 0.68298477 0.32126132 -0.7235899 1.6682675 1.2297937 0.9916517
00000000: dfcb 1a3f 4448 5d3f 00e3 db3e 15fb d23e
00000010: 451b 89be 1cd4 9dbd 4fc9 4bbb edce 653f
00000020: 59d7 7cbe 244f 6abe 4ddc 4140 36a7 4abf
00000030: ed60 633f 46dc 60bf fac2 35bd f3a4 3fbf
00000040: a83e 42be 79c3 d83e 9858 2140 dfc8 513f
00000050: a894 443f 4c3e 13bd 52ef c03d cca0 a83c
00000060: 9128 00bf f816 2a3f 5e46 4a3f 0552 5e3f
00000070: cf5a 6f3f d42e 193f a030 00be a615 033f
00000080: 24ac 983f f8cb e43e 439d 8bbf f188 903f
00000090: 049e 32bf c317 2cbe fbd1 ec3e 5701 cc3f
000000a0: bea5 dc3f e5ce 8b3e bbc1 11bf 490d c2bd
000000b0: ddc9 bb3e 1570 78bf 4c8b 87bf 0a08 95bf
000000c0: 93fd 9e3e 2bde 4b3f ca0c 36bf ba51 92bd
000000d0: 267f 98bd 3a17 98bf 5e4a a13f c88f 8c3f
000000e0: 8da9 943f 0c65 52bf 82d3 37bd 6e73 47be
000000f0: 6bb7 e63e 2dc4 863e fcf9 5d3d 6ced 4abf
00000100: 04d1 0f3e 9c3d 3a3d 3a2e bc3b 1ac0 74be
00000110: 8a79 05bd 8740 803f 0537 d13f 7c12 4e3f
00000120: 7585 033e bf03 0c3f a2c4 863f cb14 cfbe
00000130: feff 0b3f 6bc8 3dbf 3813 90bd cd31 5ebe
00000140: 9cc5 0bc0 8830 5cbf 097b 363f 28d9 b5bf
00000150: 5390 ab3e 9876 8a3e 8670 3a3e 87bf dc3e
00000160: 3894 acbe 1660 df3f f0f8 8abe 41b2 eabe
00000170: bdb8 3240 ca10 543f ec83 9dbe 189f af3e
00000180: cc30 09bf 9c3a babe d1be 7dbf 085b 42be
00000190: fa58 b6be 8478 973d fd1a 5a3e b5f8 d0be
000001a0: 9044 5cbf f256 923e 6f70 ab3f bfbe 11bf
000001b0: fbda 863f 7f17 0d40 960a 9abe 012f 1b3f
000001c0: 7478 cc3f ac00 483e 06dc 70bf 3806 3c3f
000001d0: 5d24 5bbf 9b2f 8d3e f621 733f cb28 c3be
000001e0: 039f be3e 4681 963f 1a75 36bd 77a4 7b3e
000001f0: 20ad 8bbf aec5 2ebf a042 23bf 57ca 693e
00000200: 8c2f c2be 64fd 5e3f 4ad5 ce3f 5cd0 283f
00000210: e19c 33bf 1350 abbd 400f 86be 0b26 db3e
00000220: 445e 30bd 99c1 d33e 3f48 23bf 24b1 67bf
00000230: 6e19 80be d9aa e9be b66a f6bf 4119 5c3e
00000240: 3da8 4c3f b24c d23e c4b2 8dbe 0454 4dbf
00000250: a7fd b4bd eadb be3f 055c a33f 806f 813f
00000260: 5fe2 c33e 7a20 09be 5644 7a3f 256c 71bf
00000270: c16b 06bf 8048 3e3f 3dd7 a5be 7bee bbbd
00000280: 161e 993f b35c b3be e1a2 943d c7e3 f63d
00000290: a0d9 2d3f 0b8d c9be 27bd 373f 8ce9 15be
000002a0: 0b15 9f3e f0fa ff3e 3d33 933e 621c 923e
000002b0: 3e8f 2fbf 7cdb babf 0385 a23e 8e98 5d3f
000002c0: f889 333f e573 303e 86d7 7fbe 7245 7a3f
000002d0: cdd2 4cbd a365 a9be f529 a03e 09be 293f
000002e0: 67b9 9ebe 1b7e c13f 3213 82bd 8a6c 2d3f
000002f0: 3a36 e2be 21f6 933e d4c1 01bf 4030 0abe
00000300: dc3b 84be f7bb a8bf b3e6 e5be 1cb6 c0be
00000310: 0743 06bf 0c0d 323f 7184 573f cd6e 453e
00000320: a67a 123f 996e 90be 848b 52bf 0293 36bc
00000330: a33f 203f eed0 353f 5623 99be cb35 3bbf
00000340: 321d 1c3f d4bc 413f 632d 683f f257 d63f
00000350: 83c2 55bd fcb5 df3d fab9 703f 7c48 0abc
00000360: 3a41 323e e2df 3f3f bd1e 363e cdab a1bf
00000370: c5fb 57bf a270 2b3f 8784 793d 59bf bcbf
00000380: 9efe 3b3f 4506 05bf 8131 d3bd eb44 34be
00000390: 1ec5 9cba a8af 58bf b590 253f 6853 39bf
000003a0: 9925 e9bf 7715 d53e 9f3d 4dbf 1f5c 373f
000003b0: 28cd 243e 735b 5f3f c0fa ad3d 08fc 313e
000003c0: 34b2 3abf 3f82 46bf d84b 7dbe 48e0 66bf
000003d0: e41b 0f3e c36d d83e ecf2 a03f 33d0 b5bd
000003e0: 5064 c23d 7258 353f 17d8 2e3f 5d7c a43e
000003f0: 303d 39bf ca89 d53f e169 9d3f e3dc 7d3f

gru.weight_hh_l0_reverse f4 [192, 64]
0.03305885 -0.3720598 -0.022674434 -2.2156932 -0.19851574 0.7082734 -0.39127207 0.43574902
0.2626772 -0.9616871 -0.312086 -0.5077843 0.5113096 -0.4532172 0.57810754 0.52725685
-0.9291281 1.181327 -0.017431991 0.105125934 -1.5268703 -0.92348516 0.31515974 0.9480159
-0.38685447 1.0058874 0.66202223 -0.13406315 0.046546917 -0.35332713 0.26682475 0.40743887
0.3387968 1.1063012 0.8289797 0.9415075 0.07239169 -0.1842558 -0.8766952 0.67983073
0.045305755 -0.15711029 -1.1882471 0.56095666 -0.21119325 -0.5138465 0.28391755 0.41706195
-0.25337052 -0.67476064 0.8116973 -0.367923 -0.07929441 0.75126183 -0.9465199 0.15288307
-0.8630717 -0.051536016 0.15221508 -0.9651821 -0.34046382 0.46663365 0.5446614 -0.44883683
-1.2114006 0.26248172 -1.0866612 -0.2512746 -1.0900377 0.80960405 -0.011888869 -0.27672908
0.08579326 -0.4188292 -0.2253096 -0.39810494 0.40773952 -0.4956734 0.76235276 0.12858105
-1.0769886 -0.40343472 -0.505755 0.16496049 -0.7345657 0.38721234 0.13296792 0.6517382
-0.011611106 0.6876667 -0.40157926 0.9990416 0.39311513 0.22921452 0.5483588 0.050780598
-0.043200996 -1.0366321 0.4694967 0.45618573 0.48947042 0.03329559 0.04556525 -0.66779333
0.24399167 -1.3378793 0.36354434 -0.46873978 -0.15338637 -0.86592376 0.21987933 1.0817052
0.1224714 -0.23494525 -0.09227851 -0.2854594 -1.1863172 0.6369132 0.2595317 0.029586457
0.5426949 -0.18094502 -0.410032 0.071315095 -0.17166911 0.23485649 0.2499599 0.14649868
0.38719112 -0.81697637 0.14882535 0.020384328 0.13585511 0.0129558025 1.0868888 -0.046675928
-0.31407678 -0.5439003 -0.10376036 -0.27588442 0.10637632 -0.6111883 0.5641262 0.2583071
0.83692616 0.47916695 0.82532066 -0.0355513 0.55451924 0.37130675 0.39884478 0.8997285
-0.9109277 0.21033849 0.24743213 -0.27308416 1.0008124 -0.5995853 -0.7491246 0.7396391
-1.6554955 0.38483804 -0.7106133 0.17071761 -0.28631273 -0.31331265 -0.5388605 -1.0309064
-0.45117927 -0.35958812 -0.582011 0.6248558 -0.6405113 -0.13419004 0.046305437 0.009100389
0.27108836 0.1378129 0.7243076 -0.2501558 -0.5783115 0.05249501 0.38023102 -0.046090353
-0.26770532 0.22256409 -0.051888295 -0.7855906 0.24117583 -0.29749995 0.56403595 -1.639504
0.5387722 0.4061899 -0.72450113 -0.5993308 -0.8639897 0.040364172 -1.0384398 0.38520172
-0.7273669 -0.19677985 -0.41533595 -0.03923226 0.4909489 0.43998313 0.4373647 -0.31090477
-0.63639796 -0.30047408 1.9458377 -0.5586077 -0.74964285 0.29675502 0.2434717 -0.5915814
-0.6567839 -0.19229618 0.30030572 -0.39296824 0.23675154 -0.5329127 0.25004917 -0.24943797
0.23273373 -1.0808687 0.3064124 -0.10380933 0.71461195 -0.50308913 -0.22456567 0.6622043
-1.1425304 -0.09851395 -0.27620572 -0.35348436 0.32959145 -0.8620696 -1.005764 -1.249019
0.2296444 -0.16939698 -0.42174995 0.48578978 0.1812706 0.65971255 0.07064611 0.06922435
-0.72651047 0.87083673 0.28141707 1.0255898 -1.5623175 0.18283485 0.36963892 0.8377217
00000000: b768 073d 9f7e bebe bcbf b9bc ebcd 0dc0
00000010: b647 4bbe 6851 353f d054 c8be 7f1a df3e
00000020: a07d 863e 2031 76bf bcc9 9fbe 27fe 01bf
00000030: 30e5 023f 160c e8be dbfe 133f 4efa 063f
00000040: 57db 6dbf b935 973f 89cd 8ebc 444c d73d
00000050: 7c70 c3bf 8669 6cbf 9e5c a13e 2cb1 723f
00000060: ca11 c6be ebc0 803f 4a7a 293f da47 09be
00000070: fba7 3e3d 4be7 b4be 419d 883e d49b d03e
00000080: c676 ad3e 479b 8d3f 0338 543f a306 713f
00000090: 1842 943d 8dad 3cbe 196f 60bf 6309 2e3f
000000a0: 8792 393d 85e1 20be 7b18 98bf db9a 0f3f
000000b0: 0b43 58be 728b 03bf a45d 913e 2589 d53e
000000c0: c8b9 81be 1dbd 2cbf 65cb 4f3f 6760 bcbe
000000d0: 1c65 a2bd b252 403f 214f 72bf 618d 1c3e
000000e0: 44f2 5cbf 6e17 53bd 45de 1b3e 2d16 77bf
000000f0: 4651 aebe 9bea ee3e ee6e 0b3f f1cd e5be
00000100: 2d0f 9bbf 0164 863e b717 8bbf 10a7 80be
00000110: 5b86 8bbf 3642 4f3f 88c9 42bc 6faf 8dbe
00000120: 60b4 af3d c870 d6be 8fb7 66be 69d4 cbbe
00000130: 3cc3 d03e e7c8 fdbe 8d29 433f c0aa 033e
00000140: c3da 89bf ff8e cebe 2979 01bf 67eb 283e
00000150: 7f0c 3cbf b240 c63e be28 083e 51d8 263f
00000160: 823c 3ebc ed0a 303f cc9b cdbe 31c1 7f3f
00000170: 6346 c93e 36b7 6a3e 3e61 0c3f 51ff 4f3d
00000180: 87f3 30bd 5cb0 84bf df61 f03e 2d91 e93e
00000190: de9b fa3e f560 083d a1a2 3a3d 81f4 2abf
000001a0: f4d8 793e a13f abbf 7c22 ba3e a9fe efbe
000001b0: 5111 1dbe 2ead 5dbf 0c28 613e 5175 8a3f
000001c0: 49d2 fa3d 7d95 70be 84fc bcbd bc27 92be
000001d0: 3ed9 97bf be0c 233f 57e1 843e 4c5f f23c
000001e0: 0eee 0a3f a749 39be b7ef d1be a60d 923d
000001f0: 07ca 2fbe 387e 703e 7df5 7f3e c003 163e
00000200: ea3d c63e 5d25 51bf ac65 183e 09fd a63c
00000210: 9a1d 0b3e 9344 543c 2c1f 8b3f 422f 3fbd
00000220: acce a0be 0d3d 0bbf 5080 d4bd b940 8dbe
00000230: d4db d93d d676 1cbf 936a 103f d440 843e
00000240: cb40 563f 5f55 f53e 3748 533f 3d9e 11bd
00000250: f9f4 0d3f eb1b be3e 6235 cc3e 9b54 663f
00000260: 8f32 69bf f962 573e d95e 7d3e b0d1 8bbe
00000270: 9f1a 803f 6c7e 19bf a1c6 3fbf fd58 3d3f
00000280: 47e7 d3bf 7e09 c53e c1ea 35bf 99d0 2e3e
00000290: 9597 92be 846a a0be c3f2 09bf bef4 83bf
000002a0: f800 e7be ef1b b8be acfe 14bf 8df6 1f3f
000002b0: 8cf8 23bf 1d69 09be c5aa 3d3d cc19 153c
000002c0: 18cc 8a3e d31e 0d3e 396c 393f 6c14 80be
000002d0: 390c 14bf 0205 573d a4ad c23e 3dc9 3cbd
000002e0: ac10 89be d7e7 633e d288 54bd 771c 49bf
000002f0: ccf6 763e ea51 98be a964 103f 44db d1bf
00000300: faec 093f 1ff8 cf3e e878 39bf be6d 19bf
00000310: 6e2e 5dbf e754 253d 98eb 84bf 2939 c53e
00000320: b834 3abf a880 49be eaa6 d4be 02b2 20bd
00000330: a75d fb3e 7845 e13e 44ee df3e e92e 9fbe
00000340: faea 22bf bdd7 99be 3611 f93f ea00 0fbf
00000350: 98e8 3fbf 46f0 973e a550 793e e171 17bf
00000360: fd22 28bf 4ae9 44be acc1 993e 2233 c9be
00000370: ff6e 723e f76c 08bf 7206 803e ab6c 7fbe
00000380: c051 6e3e e859 8abf 16e2 9c3e fc99 d4bd
00000390: cff0 363f 73ca 00bf 8bf4 65be 3986 293f
000003a0: 703e 92bf afc1 c9bd d66a 8dbe e7fb b4be
000003b0: 36c0 a83e 98b0 5cbf e0bc 80bf dbdf 9fbf
000003c0: e727 6b3e 6776 2dbe 9cef d7be 70b9 f83e
000003d0: 009f 393e ece2 283f e8ae 903d 7fc5 8d3d
000003e0: 97fc 39bf 28ef 5e3f e615 903e 8746 833f
000003f0: 05fa c7bf 0f39 3b3e 5041 bd3e ee74 563f

gru.bias_ih_l0_reverse f4 [192]
-0.80615103 -0.8858929 -0.41529787 -1.1477377 -0.8091986 -0.2199933 -0.5943 -0.63406664
-0.58488315 -0.9649761 -0.46353248 -0.2456797 -0.30467153 -0.67379844 -0.7294616 -0.62744576
-0.6209221 -0.35478407 -0.51375824 -0.40827346 -0.6010764 -1.4294801 0.17852205 -0.53823465
-1.2411118 -0.45958605 -0.5106957 -0.60027695 -0.16222686 -0.17640983 -0.4049973 -0.2629299
-0.7550335 -0.6085144 -1.0383677 -0.17463188 -0.3605653 -1.2579464 -0.48075706 -0.5699691
-0.3367733 -0.36197746 -0.11185023 -0.2638953 -0.7619137 0.0626575 -0.49295843 -0.9174779
-1.1845542 -0.30092937 -0.5587949 -0.6555132 -0.70631343 -0.34454945 -0.16927624 -0.5370954
-0.33846807 -0.53134435 -0.329388 -0.3796957 -0.6394439 -0.8054965 -0.60635036 -0.4575946
0.28677225 0.58441794 1.0487139 -0.38923165 0.38477662 1.4568759 1.1076735 1.0328339
0.24016695 -0.3801501 0.7481565 0.9739276 1.817646 0.9344053 0.39218074 0.7305913
1.648106 0.38226673 0.14817674 1.0670402 0.6270614 0.40337738 1.0038031 0.61061287
-0.4810445 0.56421757 0.56000197 0.7610355 0.72661203 1.3482684 -0.40872347 1.3169333
-0.20642129 0.07749672 0.21348001 -0.21579757 0.35525796 -0.28497052 0.65224624 0.59514093
1.1492085 0.048173647 0.7338942 0.6604325 0.6532714 1.3826973 1.4342856 0.48044187
0.12631802 0.66648054 1.1459435 1.1058202 0.19076027 0.88746274 0.99432147 0.43848807
0.42228767 0.10748688 0.43536735 0.4405588 0.14896902 0.6168282 -0.508661 -0.523259
0.2723929 -0.1589318 -0.11209092 -0.010820234 -0.3460745 0.14454603 -0.13902341 0.036844417
0.004185899 -0.12649493 0.04410458 0.16920702 0.15866308 -0.14651403 0.285713 -0.055548687
-0.14991632 0.0057497 0.043366063 0.24088772 -0.151119 -0.3022496 0.022033898 -0.023829907
-0.09062025 -0.09946328 0.52937645 0.07354508 -0.07234861 -0.10592176 0.36234072 0.094074175
-0.3143258 0.068480186 0.10973884 -0.15093264 0.15621038 -0.06501717 -0.10441532 -0.031921588
-0.10932122 -0.08614186 -0.055111457 0.06991391 -0.22322308 0.060889393 -0.03200511 0.15345857
0.31444043 -0.23676433 -0.005721189 0.0803964 0.15883404 0.23610604 -0.08423292 0.041549925
0.14328583 -0.18118645 0.18138967 0.059888527 0.019772919 0.1494058 0.061433297 0.005203115
00000000: ea5f 4ebf e1c9 62bf eca1 d4be 12e9 92bf
00000010: a427 4fbf ec45 61be 0b24 18bf 3152 22bf
00000020: e7ba 15bf ac08 77bf 2154 edbe 7693 7bbe
00000030: e8fd 9bbe 0e7e 2cbf ffbd 3abf 49a0 20bf
00000040: c0f4 1ebf 42a6 b5be a985 03bf 3809 d1be
00000050: 25e0 19bf 34f9 b6bf 7cce 363e bfc9 09bf
00000060: c0dc 9ebf dd4e ebbe f4bc 02bf c0ab 19bf
00000070: cc1e 26be c7a4 34be ce5b cfbe bf9e 86be
00000080: e049 41bf 9ac7 1bbf 3ce9 84bf b3d2 32be
00000090: 049c b8be 6304 a1bf ca25 f6be 7fe9 11bf
000000a0: 8d6d acbe 1c55 b9be bc11 e5bd 491d 87be
000000b0: c70c 43bf 9352 803d 0c65 fcbe d5df 6abf
000000c0: 799f 97bf 6a13 9abe 2f0d 0fbf b7cf 27bf
000000d0: f5d0 34bf c968 b0be c056 2dbe 167f 09bf
000000e0: b04b adbe 2f06 08bf 8ba5 a8be 7a67 c2be
000000f0: 98b2 23bf 0535 4ebf c739 1bbf d749 eabe
00000100: d0d3 923e 6a9c 153f 423c 863f 5f49 c7be
00000110: 7101 c53e e97a ba3f 3fc8 8d3f e733 843f
00000120: 53ee 753e 09a3 c2be 2f87 3f3f 5253 793f
00000130: a0a8 e83f 3035 6f3f eacb c83e 0808 3b3f
00000140: 23f5 d23f 77b8 c33e a5bb 173e c694 883f
00000150: 1987 203f 7b87 ce3e 9f7c 803f 2051 1c3f
00000160: 774b f6be 9070 103f 4a5c 0f3f 39d3 423f
00000170: 3f03 3a3f 0f94 ac3f 3444 d1be 4591 a83f
00000180: 1a60 53be 9ab6 9e3d 819a 5a3e 0afa 5cbe
00000190: 5fe4 b53e a8e7 91be 9cf9 263f 285b 183f
000001a0: 4419 933f bb51 453d 7ee0 3b3f 1b12 293f
000001b0: cb3c 273f 3afc b03f ac96 b73f 7afc f53e
000001c0: 8359 013e 789e 2a3f 47ae 923f 848b 8d3f
000001d0: a956 433e c230 633f da8b 7e3f 8281 e03e
000001e0: 1736 d83e 1522 dc3d 78e8 de3e ec90 e13e
000001f0: 568b 183e 74e8 1d3f 9b37 02bf 4df4 05bf
00000200: 1577 8b3e 05bf 22be ed8f e5bd 5a47 31bc
00000210: ad30 b1be e003 143e 275c 0ebe 2cea 163d
00000220: de29 893b e387 01be 01a7 343d 9b44 2d3e
00000230: 9378 223e c607 16be f948 923e 0587 63bd
00000240: aa83 19be fb67 bc3b 9da0 313d 45ab 763e
00000250: f0be 1abe 76c0 9abe 6f80 b43c f036 c3bc
00000260: 1c97 b9bd 67b3 cbbd 3785 073f ce9e 963d
00000270: 822b 94bd 82ed d8bd b984 b93e f6a9 c03d
00000280: 50ef a0be 573f 8c3d c2be e03d 168e 1abe
00000290: 9df5 1f3e b927 85bd b3d7 d5bd 36c0 02bd
000002a0: cee3 dfbd 256b b0bd 8dbc 61bd 062f 8f3d
000002b0: 9794 64be 2867 793d ca17 03bd 3e24 1d3e
000002c0: 56fe a03e 5972 72be d078 bbbb dea6 a43d
000002d0: 64a5 223e c8c5 713e 4f82 acbd 4130 2a3d
000002e0: 85b9 123e f188 39be 37be 393e ac4d 753d
000002f0: d1fa a13c d6fd 183e 7ba1 7b3d e47e aa3b

gru.bias_hh_l0_reverse f4 [192]
-0.81561744 -0.9937053 -0.337463 -1.1211362 -0.80447817 -0.29160246 -0.5081185 -0.7046147
-0.45747215 -0.8979632 -0.34928754 -0.1046002 -0.29136485 -0.59980863 -0.7645527 -0.8368199
-0.42765063 -0.38659966 -0.66287833 -0.2650486 -0.66202056 -1.4784129 -0.013767098 -0.5415105
-1.1107948 -0.36430568 -0.5265706 -0.65798837 -0.30582035 -0.0241415 -0.5227508 -0.43666792
-0.9344728 -0.654322 -1.1041183 -0.11173658 -0.41837245 -1.4338477 -0.27136734 -0.5824618
-0.4163336 -0.3991573 -0.20624895 -0.15930395 -0.6667538 0.13076466 -0.5716974 -0.9249165
-1.2760748 -0.3307978 -0.730355 -0.7579048 -0.72390205 -0.43529564 -0.3629157 -0.41342515
-0.5348005 -0.46367374 -0.44699842 -0.26169804 -0.77533674 -0.7093663 -0.47550932 -0.6572904
0.419542 0.6354166 1.1725879 -0.37655896 0.4842368 1.4800131 1.157054 0.9612865
0.2725307 -0.3832789 0.60746133 0.8003771 1.815765 0.82280123 0.22700411 0.75944734
1.4669863 0.1930781 0.2414177 0.8531807 0.64898896 0.56973505 1.1541113 0.792542
-0.518225 0.5396288 0.46997574 0.5872142 0.747209 1.4184499 -0.43407327 1.2913634
-0.34465855 0.12002458 0.3089796 -0.26894692 0.24630304 -0.13414033 0.5883278 0.6111214
1.1199739 0.17678474 0.8022833 0.48146278 0.5097126 1.2415888 1.4840171 0.3730646
0.10896492 0.7349939 1.1366887 0.9647388 0.04660239 0.9801004 0.8598515 0.36090624
0.30866176 -0.021088833 0.4425233 0.5926371 0.12039467 0.54974866 -0.5510723 -0.52700365
0.19589514 0.069537535 0.27138543 0.7274767 -0.029304778 -0.15207465 -0.10525639 -0.16883151
0.03677915 0.3006582 0.06888041 0.0055456646 -0.17929603 -0.17757542 -0.25231156 0.41526565
0.31636465 0.2207813 0.1691686 0.099417284 0.5521307 -0.042553205 -0.33717427 -0.027394317
0.14306714 -0.101981364 0.106108144 0.22843781 -0.04957254 -0.08682407 0.14937377 0.18480508
-0.46860602 0.079917505 0.44502628 0.26783144 0.14136685 -0.21194044 0.39244175 -0.22300112
0.17456834 0.43665734 -0.11539197 0.17302203 0.39145052 -0.16306478 0.08342772 0.060058188
-0.21601883 0.02034244 -0.32252 0.43989232 0.1658404 0.09178801 -0.27285013 -0.3278472
0.34552503 0.15183078 -0.078713335 -0.010616446 0.6655646 0.038884666 -0.14884377 0.40846834
00000000: 4ecc 50bf 7863 7ebf f3c7 acbe 6481 8fbf
00000010: 48f2 4dbf eb4c 95be 0e14 02bf a161 34bf
00000020: ca39 eabe ebe0 65bf d1d5 b2be a138 d6bd
00000030: c62d 95be 0f8d 19bf bab9 43bf d439 56bf
00000040: 06f5 dabe 64f0 c5be 65b2 29bf 73b4 87be
00000050: 2e7a 29bf a23c bdbf 658f 61bc 6fa0 0abf
00000060: 862e 8ebf 4686 babe 55cd 06bf ed71 28bf
00000070: 7c94 9cbe 65c4 c5bc ffd2 05bf f092 dfbe
00000080: 9c39 6fbf a681 27bf c053 8dbf 26d6 e4bd
00000090: ea34 d6be 5288 b7bf a9f0 8abe 371c 15bf
000000a0: ad29 d5be 585e ccbe ed32 53be 9320 23be
000000b0: 61b0 2abf 2ce7 053e c35a 12bf 54c7 6cbf
000000c0: 6b56 a3bf 545e a9be 8cf8 3abf 0d06 42bf
000000d0: a551 39bf 12df debe 16d0 b9be 76ac d3be
000000e0: b0e8 08bf a566 edbe fadc e4be 49fd 85be
000000f0: 787c 46bf 0899 35bf f575 f3be 2f44 28bf
00000100: 36ce d63e aaaa 223f 5c17 963f 56cc c0be
00000110: e3ed f73e 1271 bd3f 581a 943f df16 763f
00000120: 2589 8b3e 223d c4be 9682 1b3f 83e5 4c3f
00000130: fd6a e83f 1aa3 523f c473 683e 246b 423f
00000140: 35c6 bb3f 44b6 453e 3436 773e 0d6a 5a3f
00000150: 2424 263f 28da 113f ebb9 933f 08e4 4a3f
00000160: 65aa 04bf 1d25 0a3f a9a0 f03e ab53 163f
00000170: 1749 3f3f c48f b53f da3e debe 654b a53f
00000180: 1677 b0be 72cf f53d 9332 9e3e 69b3 89be
00000190: dd36 7c3e 155c 09be a79c 163f 7472 1c3f
000001a0: 4e5b 8f3f 0f07 353e 7062 4d3f 4a82 f63e
000001b0: 867c 023f 62ec 9e3f 46f4 bd3f 5302 bf3e
000001c0: 0029 df3d 8f28 3c3f 047f 913f 1ff9 763f
000001d0: 26e2 3e3d dce7 7a3f 3a1f 5c3f b4c8 b83e
000001e0: ea08 9e3e 7dc2 acbc 6a92 e23e 11b7 173f
000001f0: 7b91 f63d 54bc 0c3f 1313 0dbf b6e9 06bf
00000200: bc98 483e b269 8e3d 08f3 8a3e ea3b 3a3f
00000210: 9310 f0bc 75b9 1bbe aa90 d7bd 2be2 2cbe
00000220: bca5 163d dfef 993e 2c11 8d3d 68b8 b53b
00000230: 6199 37be 55d6 35be fb2e 81be b39d d43e
00000240: 8cfa a13e 7e14 623e 893a 2d3e 4a9b cb3d
00000250: 7058 0d3f 454c 2ebd 1ba2 acbe 0c6a e0bc
00000260: 3180 123e 9bdb d0bd 3a4f d93d 9aeb 693e
00000270: 930c 4bbd d1d0 b1bd 70f5 183e 8b3d 3d3e
00000280: 21ed efbe caab a33d 7cda e33e 3421 893e
00000290: 79c2 103e ea06 59be 20ee c83e 685a 64be
000002a0: 0bc2 323e 8d91 df3e a052 ecbd b02c 313e
000002b0: 346c c83e 74fa 26be 27dc aa3d 93ff 753d
000002c0: 0a34 5dbe 30a5 a63c 5721 a5be 9139 e13e
000002d0: 11d2 293e 5afb bb3d 03b3 8bbe 97db a7be
000002e0: a8e8 b03e 8779 1b3e 7534 a1bd 9af0 2dbc
000002f0: 7162 2a3f 8745 1f3d 806a 18be c322 d13e

fc.weight f4 [6, 128]
0.62817115 -0.69922364 1.6012244 0.053947844 -0.0031244732 -0.2818418 0.3233607 0.12188654
-1.5836879 -0.6477365 -0.18963638 -0.61165315 0.8757486 0.734498 0.16901673 -0.17849623
0.64359564 0.26246646 -0.154826 -0.18592992 -0.96518725 -0.6174254 -0.09343064 -0.11627163
-0.5292673 1.0429753 -0.8487643 -0.3526402 -0.622717 0.31411013 0.94267213 -3.0247
-0.0011878756 -1.4623873 0.31608275 -0.48644894 -1.2469624 -0.26893136 0.173242 0.90256965
0.6799841 0.36076492 0.5358637 -1.7360367 -0.24748343 0.52196294 -0.045186475 0.01314545
0.7630777 -0.18167064 -0.07243713 0.023252007 -1.0867449 0.47413749 -0.02210385 0.2742143
-1.0794405 1.9066834 0.26620203 0.08677897 0.58955187 0.61282885 0.56497926 0.25162363
0.04467697 0.7387959 -0.6369297 0.8486375 -0.11950945 0.69236577 -1.1435608 -0.2177813
0.58978415 0.0637216 -1.6349272 -0.48839492 0.03640965 -0.14259972 -0.03334498 -1.0114871
-1.2822125 0.96465695 -0.67963004 0.9169081 -0.84351575 0.02429816 -0.080352776 -2.011671
-0.5209097 -0.25515458 1.0316582 1.4695659 -0.81270313 -0.16156341 0.7518088 0.72462416
-0.528801 -0.6809969 1.95021 -0.6397989 0.0386452 -0.029798146 0.88316625 -1.1574688
-0.509194 -0.66089755 -0.47605968 -0.925879 0.62589157 -1.5929863 -0.28934658 1.5001146
-0.2164444 0.9800626 0.071836114 0.8706982 -0.28230593 0.66681725 -0.74338007 -1.0931373
0.4147671 -0.2857989 -0.64070207 0.13582347 1.0787829 -0.26918736 -0.17341387 0.10534604
-0.87807953 0.85434324 -0.27713463 -0.16797335 0.38284513 0.5084003 -0.760237 0.52169186
0.1634578 0.57201767 0.46280122 1.3532132 -0.34460655 -1.5095135 0.45913616 0.009134395
-0.71498126 -0.5827612 -0.48437443 2.0811234 -0.35893628 -0.4401052 -0.29287052 -0.4359699
1.8077797 -0.70285916 1.47381 0.54712194 1.6568997 -0.5486277 0.19388896 1.6010114
0.039109286 0.9117071 0.10410665 -0.1384113 0.48398727 -0.48296443 -0.54208064 -0.34441325
0.32196602 -0.5020231 0.32546738 0.3668395 -0.10150662 -0.14352144 0.1054153 -0.17943926
0.58315945 -0.57059854 -0.11966631 0.6388722 0.6195684 -0.02965779 0.07310026 -0.56059605
0.7352012 -1.1370454 0.49136555 0.11047096 0.3512716 -0.9363347 -1.209209 -0.544739
0.6038512 -0.01921956 0.4193431 -0.3411007 -0.43079585 -0.4661926 1.3357548 0.34203878
-1.2871244 0.3051719 0.8270695 0.022241378 -0.2538967 0.516264 0.099770464 -0.36674717
0.33646494 -0.9631288 0.08820016 -0.3603339 -0.19248535 0.028132124 -0.2199423 0.73237646
0.7235652 -0.2503724 -0.97629535 -0.39490333 0.854841 -0.31613666 -0.3338635 -0.56681085
1.1355506 -0.01656477 -1.1654578 -0.18561341 -1.2939842 -0.98557717 -0.28826717 0.7254234
0.2685129 0.6129686 1.2761207 1.0587445 0.50854456 0.20842165 0.56472504 -2.383422
0.47719234 0.2279821 -0.18057749 -0.8449142 0.052301284 -0.39630798 0.6714599 0.9779681
-2.4886563 0.21696526 0.36258864 -0.8731199 -0.13746807 -0.12588562 0.026388966 -0.41781124
00000000: d3cf 203f 5200 33bf ecf4 cc3f 6af8 5c3d
00000010: f6c3 4cbb 924d 90be 898f a53e a69f f93d
00000020: 49b6 cabf 0fd2 25bf 0a30 42be 4d95 1cbf
00000030: 0f31 603f 1008 3c3f b912 2d3e b7c7 36be
00000040: afc2 243f 0162 863e b58a 1ebe 6a64 3ebe
00000050: 8316 77bf 970f 1ebf 9058 bfbd d21f eebd
00000060: 107e 07bf 3780 853f 9e48 59bf 428d b4be
00000070: 626a 1fbf 0bd3 a03e f652 713f af94 41c0
00000080: 7eb2 9bba 822f bbbf 99d5 a13e d60f f9be
00000090: 779c 9fbf 5fb1 89be 5a66 313e ce0e 673f
000000a0: 7013 2e3f 2eb6 b83e 5d2e 093f 7336 debf
000000b0: 4c6c 7dbe 5d9f 053f 7415 39bd 0360 573c
000000c0: 0f59 433f de07 3abe eb59 94bd fe7a be3c
000000d0: 751a 8bbf 26c2 f23e 2213 b5bc d165 8c3e
000000e0: 1b2b 8abf 340e f43f a24b 883e 2cb9 b13d
000000f0: dfec 163f 5ae2 1c3f 7ba2 103f d0d4 803e
00000100: 33ff 363d ba21 3d3f d30d 23bf 4f40 593f
00000110: 5fc1 f4bd e23e 313f 3360 92bf 1002 5fbe
00000120: 18fc 163f 7880 823d 4b45 d1bf e60e fabe
00000130: 4922 153d a905 12be bf94 08bd 6978 81bf
00000140: 8a1f a4bf c2f3 763f 3cfc 2dbf 7dba 6a3f
00000150: a6f0 57bf ef0c c73c ff8f a4bd 38bf 00c0
00000160: 575a 05bf 9fa3 82be 600d 843f bc1a bc3f
00000170: 500d 50bf e170 25be 8b76 403f f880 393f
00000180: 815f 07bf d055 2ebf 7ba0 f93f dcc9 23bf
00000190: 6e4a 1e3d 3e1b f4bc 2f17 623f f027 94bf
000001a0: 8a5a 02bf 9530 29bf 18be f3be 6806 6dbf
000001b0: 6e3a 203f fae6 cbbf 3c25 94be c103 c03f
000001c0: 9aa3 5dbe 62e5 7a3f d01e 933d 14e6 5e3f
000001d0: 678a 90be 89b4 2a3f 284e 3ebf eceb 8bbf
000001e0: 5a5c d43e 3c54 92be 0d05 24bf 4f15 0b3e
000001f0: 8f15 8a3f edd2 89be 6893 31be aabf d73d
00000200: d2c9 60bf 3db6 5a3f 97e4 8dbe 3501 2cbe
00000210: 4704 c43e 8626 023f e49e 42bf 998d 053f
00000220: 7b61 273e c06f 123f 48f4 ec3e 1736 ad3f
00000230: 4570 b0be bd37 c1bf e513 eb3e 6ea8 153c
00000240: 0309 37bf d72f 15bf edff f7be 2031 0540
00000250: 7fc6 b7be 7855 e1be 20f3 95be 7237 dfbe
00000260: 5365 e73f 94ee 33bf cea5 bc3f 2f10 0c3f
00000270: 4a15 d43f dd72 0cbf d48a 463e f1ed cc3f
00000280: 0f31 203d a365 693f de35 d53d b1bb 0dbe
00000290: 2ecd f73e 1d47 f7be ccc5 0abf ef56 b0be
000002a0: bbd8 a43e 9684 00bf a9a3 a63e 63d2 bb3e
000002b0: b4e2 cfbd 49f7 12be fae3 d73d edbe 37be
000002c0: f049 153f bf12 12bf 9c13 f5bd 218d 233f
000002d0: 099c 1e3f e5f4 f2bc 97b5 953d 3983 0fbf
000002e0: 2536 3c3f b48a 91bf 4494 fb3e 993e e23d
000002f0: dfd9 b33e a2b3 6fbf 5cc7 9abf 0474 0bbf
00000300: fe95 1a3f 5772 9dbc 24b4 d63e c0a4 aebe
00000310: 4691 dcbe ccb0 eebe 03fa aa3f b51f af3e
00000320: 7ec0 a4bf 7e3f 9c3e d4ba 533f 8d33 b63c
00000330: c0fe 81be e129 043f 7554 cc3d 49c6 bbbe
00000340: 2245 ac3e 9c8f 76bf 49a2 b43d af7d b8be
00000350: e11a 45be 5775 e63c 8e38 61be 067d 3b3f
00000360: 923b 393f d030 80be 7eee 79bf c530 cabe
00000370: dcd6 5a3f aadc a1be 28f0 aabe 841a 11bf
00000380: b959 913f d7b2 87bc b92d 95bf 7111 3ebe
00000390: 46a1 a5bf c94e 7cbf c197 93be 59b5 393f
000003a0: 867a 893e 83eb 1c3f ec57 a33f f184 873f
000003b0: fa2f 023f 7c6c 553e d291 103f fc89 18c0
000003c0: 8e52 f43e 2474 693e 4ee9 38be 4c4c 58bf
000003d0: df39 563d e1e8 cabe cce4 2b3f 1e5c 7a3f
000003e0: 2546 1fc0 242c 5e3e 38a5 b93e c984 5fbf
000003f0: 6ec4 0cbe 29e8 00be ac2d d83c 5beb d5be

fc.bias f4 [6]
-0.3918808 -0.7734211 0.4478575 1.1901152 0.9546064 0.010149198
00000000: 9aa4 c8be edfe 45bf 944d e53e b255 983f
00000010: 1661 743f d248 263c
