model/gru_classifier_weights/deepseek-r1-distill-8b_h100_tp1.pt (torch, 118213 bytes, 10 tensors)

gru.weight_ih_l0 f4 [192, 6]
-0.2178369 0.1644952 0.7955421 0.9837244 0.6556503 0.5943057 0.12096595 0.04764958
-0.21060163 0.32243964 -0.6237961 -0.19763319 0.10029043 0.29860568 0.44729352 -0.27190623
0.422853 -0.25511572 -0.123834334 0.18089785 -0.21984245 -0.1095993 0.24048069 0.03743337
0.1781002 -0.46108145 0.17087153 0.1470761 0.3501483 -0.29527393 -0.46790433 -0.113149025
0.15517439 0.05483859 -0.41999152 0.52796644 -0.5076592 0.24014068 0.2769281 0.46480292
0.20471242 0.14648063 0.1336713 0.11705433 -0.108877696 -0.18114296 0.05581422 -0.03897669
0.48702365 0.7178748 0.36018884 -0.07126521 0.14221139 -0.2787526 -0.30516586 0.08397736
0.19603232 -0.105937265 -0.19672218 0.13786513 0.21339795 0.13814309 -0.24679811 -0.64826065
0.05101471 -0.03425766 -0.25442556 0.55129683 -0.03046717 -0.3599398 0.086962216 -0.32296386
0.05699213 1.338469 0.03239493 -0.15211791 -0.7718588 -0.3947574 0.5140838 0.35067168
-0.1895498 0.3051847 -0.31422397 0.82263476 -0.55796355 -0.970767 -0.09252968 0.27120122
0.5222146 0.34608772 -0.3758283 -0.19528198 -0.09627435 0.062122837 -0.0008187001 -0.20429948
0.18973662 0.6442192 0.04700207 0.18538566 0.20629342 0.3243311 0.18152766 0.7947863
0.56200534 0.17392279 -0.28510654 0.2870079 0.3115522 -0.11667151 0.40141502 0.82925457
-0.2511675 1.000371 -0.5667332 -0.035536103 -0.11816366 -0.015190428 -0.12689273 0.052504856
0.10947206 0.33136666 0.5291787 0.33180967 -0.35646117 0.4262749 0.2623541 0.30804938
-0.10908737 0.043148585 0.59437245 -0.7359137 -0.11210949 -0.032936253 -0.25732294 -0.033395212
0.18722248 0.29194435 -0.4029349 0.09440426 -0.14466538 -0.40222973 0.18829171 -0.23573022
-0.04683014 0.23880886 -0.31714416 1.1360347 0.076774836 0.8233836 0.3204278 -0.51643634
0.41475525 -0.00072901475 0.76174355 0.108534835 0.03858983 -0.7755382 -0.34282926 0.23967959
0.14667928 0.1816797 0.8155607 0.7151858 0.459919 -0.1461568 -0.20845772 0.05052695
0.025546307 0.56936353 -0.14663187 0.24339704 0.60532683 -0.3015043 0.26931003 -0.17339672
0.3717333 -0.17724869 -0.83369356 -0.1920387 0.3030237 -0.24074368 -0.36756593 -0.46184173
-0.6583465 0.17503136 0.2987823 -0.2294294 -0.35152066 -0.036686268 0.0036264632 -0.19011027
-0.17270958 -0.1323227 -0.24957272 0.10176798 -0.34626418 -0.5111683 -0.0893886 0.6350083
-1.0803314 -0.04371658 0.14749013 -0.13916445 -0.39211348 0.6358982 -0.15215336 -0.062669836
-0.4324491 -0.108210415 0.27554584 -0.07529321 -0.1558647 -0.09549555 -0.06113492 -0.125095
0.34165588 0.5092225 0.45390934 0.4400225 0.28935465 0.092921 -0.54390717 -0.12216703
-0.43337822 -0.010455495 0.3995441 -0.4276964 -0.15855785 -0.05878837 -0.18308198 -0.6296708
-0.051365316 -0.22348994 -0.075739115 -0.2315376 0.1476056 0.49674097 0.18874268 -0.041494496
-0.17823298 0.3138639 0.26588383 0.17889775 0.514851 -0.4191739 0.21992974 0.26032868
0.047056124 -0.24547318 0.83299005 -0.38662273 -0.85890275 -0.7490643 -0.47037095 -0.09138934
00000000: a310 5fbe 6e71 283e a6a8 4b3f 5dd5 7b3f
00000010: b3d8 273f 6b24 183f ffbc f73d 352c 433d
00000020: f4a7 57be cf16 a53e 1ab1 1fbf 5b60 4abe
00000030: 1265 cd3d d8e2 983e a803 e53e 4b37 8bbe
00000040: 3080 d83e 879e 82be db9c fdbd 493d 393e
00000050: 611e 61be 9975 e0bd 9240 763e bc53 193d
00000060: e65f 363e de12 ecbe f2f8 2e3e 1e9b 163e
00000070: a346 b33e 252e 97be 2891 efbe adba e7bd
00000080: 09e6 1e3e 6e9e 603d 2109 d7be cf28 073f
00000090: f4f5 01bf 70e7 753e 85c9 8d3e a6fa ed3e
000000a0: 22a0 513e 05ff 153e 21e1 083e 2eba ef3d
000000b0: 45fb debd 8a7d 39be 749d 643d 06a6 1fbd
000000c0: 2a5b f93e a5c6 373f ac6a b83e 7ff3 91bd
000000d0: dd9f 113e a9b8 8ebe b33e 9cbe 52fc ab3d
000000e0: b2bc 483e a3f5 d8bd 8a71 49be 842c 0d3e
000000f0: fe84 5a3e 6275 0d3e a5b8 7cbe 69f4 25bf
00000100: cdf4 503d c351 0cbd 1144 82be ca21 0d3f
00000110: 4996 f9bc 084a b8be 3f19 b23d 855b a5be
00000120: 9470 693d f452 ab3f 8cb0 043d ccc4 1bbe
00000130: 8a98 45bf a41d cabe ff9a 033f 3d8b b33e
00000140: 5819 42be 2b41 9c3e f7e1 a0be 3198 523f
00000150: b3d6 0ebf 3084 78bf 3380 bdbd e3da 8a3e
00000160: dbaf 053f 6932 b13e 916c c0be 00f8 47be
00000170: 7d2b c5bd 8474 7e3d 099e 56ba e233 51be
00000180: 514a 423e 8deb 243f 3e85 403d bdd5 3d3e
00000190: 953e 533e ba0e a63e 63e2 393e 1d77 4b3f
000001a0: 95df 0f3f d118 323e 7cf9 91be b3f2 923e
000001b0: c583 9f3e 79f1 eebd 4586 cd3e 074a 543f
000001c0: 0799 80be 280c 803f 6d15 11bf 4e8e 11bd
000001d0: caff f1bd 46e1 78bc 2bf0 01be 550f 573d
000001e0: e332 e03d e4a8 a93e 4178 073f f5e2 a93e
000001f0: 1482 b6be b440 da3e 4753 863e a6b8 9d3e
00000200: 3369 dfbd 92bc 303d cb28 183f d764 3cbf
00000210: a999 e5bd 2ae8 06bd d5bf 83be 6bc9 08bd
00000220: 40b7 3f3e bb79 953e 7c4d cebe 0557 c13d
00000230: 2923 14be 0ef1 cdbe 8bcf 403e 4363 71be
00000240: f6d0 3fbd 4f8a 743e b860 a2be 9669 913f
00000250: 203c 9d3d 45c9 523f 1d0f a43e 2c35 04bf
00000260: cd5a d43e 5a1b 3fba a001 433f 8347 de3d
00000270: 5f10 1e3d ac89 46bf 5187 afbe 916e 753e
00000280: 1833 163e 3e0a 3a3e 96c8 503f 6b16 373f
00000290: 817a eb3e 21aa 15be f175 55be 59f5 4e3d
000002a0: 7d46 d13c cfc1 113f aa26 16be 133d 793e
000002b0: b3f6 1a3f c65e 9abe 01e3 893e e98e 31be
000002c0: d453 be3e ae80 35be f16c 55bf cba5 44be
000002d0: ec25 9b3e 8385 76be 9a31 bcbe 8576 ecbe
000002e0: 6589 28bf 6c3b 333e fef9 983e 8aef 6abe
000002f0: 84fa b3be 5744 16bd f5a9 6d3b 44ac 42be
00000300: c8da 30be 9a7f 07be fe8f 7fbe bb6b d03d
00000310: 8a49 b1be eddb 02bf 5f11 b7bd e78f 223f
00000320: 4d48 8abf 2810 33bd a707 173e 2081 0ebe
00000330: 19c3 c8be 39ca 223f 17ce 1bbe 0b59 80bd
00000340: f869 ddbe 6c9d ddbd 5814 8d3e 5433 9abd
00000350: ff9a 1fbe 2c93 c3bd 9c68 7abd e718 00be
00000360: 85ed ae3e 685c 023f ce66 e83e a14a e13e
00000370: 4b26 943e 5e4d be3d 803d 0bbf b532 fabd
00000380: c0e3 ddbe 864d 2bbc 0b91 cc3e 06fb dabe
00000390: fd5c 22be 13cc 70bd d879 3bbe 1b32 21bf
000003a0: 7064 52bd 8cda 64be 1c1d 9bbd 3118 6dbe
000003b0: ec25 173e d554 fe3e c345 413e 22f6 29bd
000003c0: b582 36be c5b2 a03e ed21 883e f930 373e
000003d0: 46cd 033f f69d d6be 4335 613e cd49 853e
000003e0: ecbd 403d 525d 7bbe d63e 553f 6af3 c5be
000003f0: 0de1 5bbf aec2 3fbf 76d4 f0be 562a bbbd

gru.weight_hh_l0 f4 [192, 64]
-0.46563703 -0.31913322 0.57398903 0.29147965 0.9309853 0.24193929 -0.0009823793 -0.41567725
-0.031086605 0.16998583 -0.77143526 -0.065668456 0.04278675 -0.611059 -0.3533414 -0.12483181
0.117150456 0.049791906 0.24173194 0.25261378 -0.09974727 0.24159934 -0.33835107 -0.39347538
0.40618882 -0.068556696 -0.6269095 -0.51790583 0.33991036 -0.14968957 -0.011398385 0.05927153
-0.47761324 0.08120949 0.8082698 0.07891587 0.2742278 0.2753413 0.21665603 0.556664
-0.34055012 -0.49381736 0.021739887 -0.4140053 0.12552044 0.46458346 0.29261732 0.11213133
-0.1689108 0.2694036 0.4020895 -0.05226924 0.1050795 0.33587343 -0.002154565 -0.26479277
0.424733 0.31992558 0.69513094 0.30452895 -0.06179632 -0.35644487 -0.063184366 -0.52082235
0.24011827 0.16006754 0.05304382 -0.46892008 -0.71493256 0.0698563 -0.12687796 -0.5436185
0.11105804 0.14680402 0.2364248 0.047306344 -0.1557526 0.3438777 -0.4465236 0.24122448
0.31442797 -0.10872858 -0.17944781 0.0050150827 0.0647784 -0.1934002 0.027765824 0.37296098
0.13961525 -0.16684306 -0.6227666 0.2058697 0.26118 -0.16199122 0.22545612 -0.19383754
-0.3741437 -0.22447094 -0.4083776 0.2163467 -0.13720328 0.7050436 -0.13461138 0.036384143
-0.14487396 -0.07423446 0.067372255 -0.06236743 0.449977 -0.15864776 -0.26787263 -0.20502463
-0.13267598 -0.1467481 0.24710383 -0.5376878 0.4309046 0.113502316 -0.18495761 -0.12593743
0.27470994 -0.31917703 0.44367534 0.022616822 -0.27092963 -0.8403869 -0.25370407 0.51102793
0.43745264 0.35176134 -0.26355058 -0.27323675 0.116359465 0.040042207 0.15263979 -0.2620002
0.2645828 -0.08032679 0.09254046 0.034404635 -0.28275216 -0.13768248 -0.58645046 -0.15380915
-0.25940183 0.11469388 0.48149902 -0.41201767 -0.19077392 0.12520836 0.017390164 0.18914701
-0.24243794 0.050581712 -0.48895162 0.51060504 -0.116568945 0.21230678 0.30530107 0.15464224
-0.3065144 0.12034652 -0.22628483 -0.20908721 -0.06644938 0.04732832 0.13608514 -0.060696483
-0.13093789 -0.13884754 0.38503522 0.24246418 -0.13776724 -0.3118369 -0.20582946 0.2974135
-0.39345023 0.047634 0.13586093 0.04337975 0.06094235 -0.032908745 -0.20858307 -0.009201442
0.04164361 0.06934859 0.1820119 -0.64471394 -0.17413715 -0.0049144696 0.45046884 0.34097856
-0.10351802 0.24950996 0.6272386 -0.08391338 -0.017382886 0.10554303 0.15012337 -0.5290835
-0.02102083 0.193928 0.32744914 -0.13372701 0.3633219 0.2727993 0.21751247 0.34209323
0.38825062 -0.1270185 0.09675719 -0.3493844 0.14069496 -0.51220393 -0.23623285 0.15626411
0.0072564078 0.086478055 -0.2785667 0.5658736 0.35176787 0.037149563 0.035221867 0.58485115
-0.07790839 0.048413746 -0.23514539 -0.10629049 -0.5280334 0.2614621 0.25172606 0.103038006
-0.39810598 -0.032172512 0.048673045 0.03772664 0.7043183 0.03423806 -0.292973 -0.1569358
0.55903333 0.105795994 0.11679549 -0.26325506 0.16226326 0.31701994 0.06850634 -0.27048448
-0.11125069 0.11237526 -0.21015929 -0.27824813 -0.21470454 -0.8292389 -0.057476994 -0.43307045
00000000: fa67 eebe 6e65 a3be f2f0 123f d23c 953e
00000010: 0d55 6e3f efbe 773e 2ec3 80ba a6d3 d4be
00000020: 56a9 febc c410 2e3e c87c 45bf 2f7d 86bd
00000030: 2941 2f3d 5d6e 1cbf 2ae9 b4be d2a7 ffbd
00000040: 94ec ef3d 99f2 4b3d 9488 773e 9856 813e
00000050: 4c48 ccbd d165 773e 5a3c adbe 9b75 c9be
00000060: fbf7 cf3e 7467 8cbd 247d 20bf 7a95 04bf
00000070: bb08 ae3e 3948 19be 4bc0 3abc b4c6 723d
00000080: b989 f4be 2951 a63d c5ea 4e3f a59e a13d
00000090: 9667 8c3e 89f9 8c3e 14db 5d3e 8881 0e3f
000000a0: 965c aebe a1d5 fcbe d917 b23c 81f8 d3be
000000b0: 6e88 003e e2dd ed3e f0d1 953e 1ca5 e53d
000000c0: f4f6 2cbe 45ef 893e adde cd3e 4518 56bd
000000d0: ec33 d73d 9af7 ab3e 9a33 0dbb eb92 87be
000000e0: 9b76 d93e 49cd a33e 1af4 313f 38eb 9b3e
000000f0: 231e 7dbd f17f b6be ce66 81bd 9d54 05bf
00000100: 90e1 753e bfe8 233e 7a44 593d 4b16 f0be
00000110: d205 37bf d210 8f3d 4cec 01be 952a 0bbf
00000120: 6672 e33d cb53 163e 5819 723e 4cc4 413d
00000130: 9c7d 1fbe bd10 b03e be9e e4be 8d03 773e
00000140: b4fc a03e 17ad debd 2bc1 37be 9055 a43b
00000150: 8aaa 843d b40a 46be 2775 e33c bef4 be3e
00000160: 4df7 0e3e e8d8 2abe a26d 1fbf 82cf 523e
00000170: 63b9 853e 07e1 25be f8dd 663e 597d 46be
00000180: c38f bfbe b6db 65be de16 d1be fd89 5d3e
00000190: 047f 0cbe bd7d 343f 91d7 09be 8a07 153d
000001a0: d759 14be 3d08 98bd 77fa 893d fe74 7fbd
000001b0: 6363 e63e 8f74 22be 9a26 89be faf1 51be
000001c0: 36dc 07be 2245 16be c908 7d3e e8a5 09bf
000001d0: 879f dc3e e773 e83d 8765 3dbe bef5 00be
000001e0: c8a6 8c3e 2c6b a3be 6a29 e33e ea46 b93c
000001f0: 4ab7 8abe 9923 57bf 80e5 81be bad2 023f
00000200: cbf9 df3e 101a b43e 1af0 86be b0e5 8bbe
00000210: df4d ee3d 4c03 243d 9b4d 1c3e e424 86be
00000220: 6677 873e 5f82 a4bd da85 bd3d e0eb 0c3d
00000230: e4c4 90be a3fc 0cbe 9e21 16bf 2580 1dbe
00000240: 51d0 84be a0e4 ea3d 0a87 f63e fbf3 d2be
00000250: 3d5a 43be 9f36 003e d175 8e3c c1af 413e
00000260: a741 78be c52e 4f3d de57 fabe 03b7 023f
00000270: b3bb eebd f366 593e 6c50 9c3e 895a 1e3e
00000280: 75ef 9cbe 3c78 f63d 36b7 67be f51a 56be
00000290: 9d16 88bd 57db 413d e759 0b3e e09c 78bd
000002a0: 9514 06be 0d2e 0ebe 5623 c53e 8848 783e
000002b0: db12 0dbe 16a9 9fbe f5c4 52be 9546 983e
000002c0: 4f72 c9be df1b 433d 211f 0b3e f7ae 313d
000002d0: b09e 793d 52cb 06bd cd96 55be a5c1 16bc
000002e0: 7d92 2a3d a206 8e3d 5461 3a3e f90b 25bf
000002f0: 0251 32be 8f09 a1bb daa3 e63e be94 ae3e
00000300: 4101 d4bd 8a7f 7f3e b592 203f c7da abbd
00000310: 8e66 8ebc f226 d83d f1b9 193e 0472 07bf
00000320: e033 acbc 1095 463e 6aa7 a73e bcef 08be
00000330: 5405 ba3e 5aac 8b3e 97bb 5e3e d826 af3e
00000340: c9c8 c63e 2311 02be a228 c63d 83e2 b2be
00000350: 5712 103e cc1f 03bf 06e7 71be b303 203e
00000360: 29c7 ed3b 681b b13d 4ba0 8ebe 18dd 103f
00000370: eb1a b43e 242a 183d ce44 103d ceb8 153f
00000380: 6f8e 9fbd 7e4d 463d f4c9 70be d4ae d9bd
00000390: 322d 07bf 5cde 853e 3de2 803e 9705 d33d
000003a0: 8cd4 cbbe 53c7 03bd 635d 473d 4087 1a3d
000003b0: 344e 343f 353d 0c3d 8f00 96be c7b3 20be
000003c0: cf1c 0f3f 92ab d83d 7932 ef3d 5ec9 86be
000003d0: 5728 263e 7050 a23e 0d4d 8c3d f17c 8abe
000003e0: 67d7 e3bd 0025 e63d ff33 57be 8a76 8ebe
000003f0: 82db 5bbe 0049 54bf ff6c 6bbd 69bb ddbe

gru.bias_ih_l0 f4 [192]
-0.22843978 0.2861425 0.05388657 0.07901447 0.1409065 0.0054562245 -0.029615512 0.22647385
0.26633 -0.076271705 -0.110569775 0.019123556 0.18706968 0.2274073 0.08775062 0.28967485
-0.19271544 0.09225944 0.07238903 -0.08516065 0.029245237 -0.13538551 0.10729489 -0.015393568
-0.08605128 -0.025438353 -0.011906629 -0.13232176 -0.2574536 -0.22306366 0.06459811 -0.23203087
0.21306893 0.22882803 -0.052968174 0.27577412 0.21300098 -0.123266846 -0.010777407 -0.043828707
0.54415566 0.20283693 0.2614893 0.14284514 0.017950064 -0.1813874 0.21061993 0.19798052
0.034487773 -0.16731435 -0.12765956 0.099167384 -0.20311306 -0.04959125 0.1408563 0.13876821
0.019370824 -0.12756097 -0.021973321 0.009433449 0.32451826 -0.2391418 0.046878412 -0.0738981
-0.061349764 -0.2866324 0.7214063 0.052325007 -0.31582266 -0.006733005 -0.0648317 0.17224184
0.50606513 0.18107101 0.09485053 -0.13429244 0.2935091 -0.24968542 0.056852594 0.26997322
0.34425154 0.17952517 0.19885923 0.27257526 0.65833765 0.025476204 0.15547621 -0.23426823
-0.1861682 -0.02881142 -0.02181257 -0.10276782 0.09357589 0.5096769 -0.24243954 0.37447757
0.082601495 0.16298607 0.2662903 0.35462904 0.010843974 0.07243003 0.26626658 0.107630946
-0.022333154 0.6226713 -0.0053923707 0.23010069 0.22907965 -0.2558421 -0.018379861 0.30703592
-0.2527146 0.2716722 -0.077800974 0.25135472 0.19361998 -0.11127045 0.38366273 0.12258319
0.49157417 0.22745292 0.22395463 0.5229191 -0.20318894 0.19674058 0.108735375 0.49513358
0.19577971 -0.12458579 0.14134337 0.033076223 -0.016694436 0.13331108 -0.15961248 0.008255774
0.08655644 -0.007218321 -0.1553616 -0.029780747 -0.049316943 0.06751992 0.13249318 -0.119257726
0.006202428 0.083404616 -0.10362206 0.08112634 -0.06727842 0.14171518 0.10849917 -0.048281375
-0.09331565 0.10592097 -0.0703972 0.025981724 0.13070354 0.14796183 0.043988332 0.19396818
-0.19344383 0.16496894 -0.27784428 0.07277357 -0.06267037 0.14225453 0.17439526 0.02859476
0.13936587 -0.06373555 -0.077438295 -0.30644366 0.08674222 -0.04055681 0.19307473 -0.12089946
0.33103162 0.24650492 0.041399468 0.2004698 0.08665242 0.24251193 -0.012164542 0.15114225
-0.14446017 -0.017453866 -0.055008233 0.14942876 0.06992618 0.14708656 0.05799197 -0.10434255
00000000: 1eec 69be 4581 923e 2ab8 5c3d 57d2 a13d
00000010: cb49 103e 21ca b23b 3b9c f2bc c3e8 673e
00000020: 685c 883e 5734 9cbd 6872 e2bd 01a9 9c3c
00000030: 328f 3f3e 76dd 683e 99b6 b33d 4350 943e
00000040: 3257 45be 84f2 bc3d b340 943d b568 aebd
00000050: b593 ef3c 80a2 0abe 6cbd db3d 4e35 7cbc
00000060: a73b b0bd 1864 d0bc 0614 43bc 5b7f 07be
00000070: f5d0 83be cd6a 64be 044c 843d 8099 6dbe
00000080: be2e 5a3e e551 6a3e 28f5 58bd 4432 8d3e
00000090: ee1c 5a3e 5473 fcbd b993 30bc bb85 33bd
000000a0: c94d 0b3f 7cb4 4f3e ede1 853e ff45 123e
000000b0: 030c 933c 9ebd 39be c0ac 573e 68bb 4a3e
000000c0: 0d43 0d3d 7454 2bbe 30b9 02be 4518 cb3d
000000d0: dffc 4fbe 3220 4bbd a23c 103e 4119 0e3e
000000e0: 90af 9e3c 589f 02be 6501 b4bc c18e 1a3c
000000f0: 4227 a63e 97e1 74be 9403 403d e357 97bd
00000100: e449 7bbd 7bc1 92be 15ae 383f bf52 563d
00000110: 82b3 a1be 8aa0 dcbb 7bc6 84bd 2a60 303e
00000120: 7c8d 013f ae6a 393e ff40 c23d f583 09be
00000130: d346 963e 89ad 7fbe 44de 683d ee39 8a3e
00000140: bd41 b03e 72d5 373e c1a1 4b3e fc8e 8b3e
00000150: d188 283f 79b3 d03c 2835 1f3e 03e4 6fbe
00000160: e0a2 3ebe ed05 ecbc 46b0 b2bc ef77 d2bd
00000170: b7a4 bf3d 2f7a 023f 1242 78be 86bb bf3e
00000180: f92a a93d d2e5 263e 3457 883e f091 b53e
00000190: ecaa 313c 3256 943d 1854 883e 9d6d dc3d
000001a0: 05f4 b6bc 6367 1f3f 7cb2 b0bb 849f 6b3e
000001b0: db93 6a3e bcfd 82be 5d91 96bc d033 9d3e
000001c0: cf63 81be 9e18 8b3e 1e56 9fbd 91b1 803e
000001d0: 5144 463e c3e1 e3bd 716f c43e e50c fb3d
000001e0: 9caf fb3e 6be9 683e 5d54 653e 07de 053f
000001f0: c310 50be 5d76 493e a7b0 de3d 2682 fd3e
00000200: 7a7a 483e d626 ffbd 51bc 103e ef7a 073d
00000210: c5c2 88bc b382 083e 7471 23be 3a43 073c
00000220: 8144 b13d aa87 ecbb 1c17 1fbe c1f6 f3bc
00000230: 9000 4abd e247 8a3d 4bac 073e 653d f4bd
00000240: bd3d cb3b 0ad0 aa3d cd37 d4bd 9125 a63d
00000250: 45c9 89bd c91d 113e d034 de3d b1c2 45bd
00000260: 471c bfbd 18ed d83d 682c 90bd a0d7 d43c
00000270: 26d7 053e 4e83 173e 1c2d 343d 989f 463e
00000280: 2416 46be 9eed 283e 9b41 8ebe 4f0a 953d
00000290: 5359 80bd 2cab 113e ac94 323e 8f3f ea3c
000002a0: edb5 0e3e c987 82bd f897 9ebd 2fe6 9cbe
000002b0: e8a5 b13d e61e 26bd 62b5 453e 239a f7bd
000002c0: fa7c a93e c96b 7c3e 7d92 293d f547 4d3e
000002d0: d376 b13d 0c55 783e ca4d 47bc 09c5 1a3e
000002e0: 5eed 13be 69fb 8ebc 5050 61bd da03 193e
000002f0: 7535 8f3d dc9d 163e fd88 6d3d 8cb1 d5bd

gru.bias_hh_l0 f4 [192]
-0.19064146 0.36022934 -0.012165154 0.12103374 0.096360266 0.049501423 0.10740072 0.17767142
0.2085089 -0.046394855 -0.1043668 0.012709087 0.11385544 0.18433455 0.18635103 0.28244686
-0.23114078 0.11450013 0.15324667 -0.21666044 0.030715857 -0.016224673 0.082944095 0.107081324
-0.18320996 0.05527711 0.040056027 -0.08503863 -0.09779462 -0.14845367 0.070803456 -0.09545374
0.22500145 0.16374336 0.12371968 0.3011166 0.04748014 -0.24471265 0.040552422 0.06427436
0.47112316 0.10333224 0.101181775 0.056967877 -0.099438965 -0.11996173 0.06909045 0.053148706
0.04354131 0.01612042 -0.046696454 0.13650993 -0.101720646 0.011778544 -0.0694731 0.14672391
-0.10946786 -0.09284996 -0.012228651 -0.11870654 0.46300188 -0.12421013 0.11418482 -0.14429654
0.002810633 -0.21979648 0.6333207 0.023613248 -0.22136298 0.16543587 -0.049075574 0.16989197
0.4028994 0.16919695 -0.0026682802 -0.08618969 0.27978268 -0.1846721 -0.014539351 0.37988418
0.14222324 0.19227944 0.16837771 0.23389831 0.7824461 -0.12439245 0.12407284 -0.109579265
-0.20116663 0.0058839247 0.017114228 -0.20417985 0.14701186 0.5493468 -0.061229516 0.37040883
0.14204554 0.17775701 0.30137196 0.3979859 -0.054611746 0.13149431 0.14519888 0.10998331
-0.04971243 0.50088346 -0.09792478 0.14285785 0.29077777 -0.105031826 0.049976263 0.3448483
-0.30868027 0.33492538 -0.10931066 0.195816 0.38316935 -0.15956755 0.2567902 0.12376125
0.71039146 0.22816347 0.12735963 0.6605356 -0.06963205 0.20891291 0.0009896157 0.54374164
-0.23180526 0.040896364 0.1113716 -0.016429296 0.026726423 0.13472746 -0.050667197 -0.019422092
0.094131716 0.15523833 0.043929443 0.24973352 0.110365026 0.11163018 0.08161561 0.021744141
0.1522927 0.07837029 -0.22256981 0.024883095 -0.15130994 0.028204108 0.0963431 -0.12795371
-0.15530929 0.0706242 0.1721998 0.10636692 0.020351829 -0.02193162 -0.08398668 0.19600035
-0.09067429 0.074620046 -0.19760576 0.01565401 -0.006737057 0.075468406 0.03188328 0.0154904155
-0.105223134 0.09554778 -0.33616236 -0.11761257 0.09815532 0.03806523 0.27974752 -0.14686413
-0.0070172404 0.1857184 0.01853775 0.030429753 -0.083318144 0.18561402 -0.14920318 0.21308494
-0.31625605 0.100821584 -0.15814802 0.0111751715 -0.16535932 0.08884503 -0.05350765 -0.020833364
00000000: 8437 43be fb6f b83e 5b50 47bc 8ae0 f73d
00000010: 8858 c53d 01c2 4a3d e9f4 db3d 7fef 353e
00000020: 5b83 553e 8808 3ebd 43be d5bd c639 503c
00000030: 0a2d e93d 32c2 3c3e ced2 3e3e e09c 903e
00000040: 2bb0 6cbe 0b7f ea3d b2ec 1c3e 3cdc 5dbe
00000050: d29f fb3c 9be9 84bc 98de a93d 744d db3d
00000060: 649b 3bbe 406a 623d ca11 243d bc28 aebd
00000070: 8c48 c8bd 3d04 18be 6701 913d 407d c3bd
00000080: c866 663e 57ac 273e be60 fd3d f42b 9a3e
00000090: 897a 423d f495 7abe 4c1a 263d 47a2 833d
000000a0: 0e37 f13e da9f d33d 6438 cf3d 2657 693d
000000b0: a8a6 cbbd 7fae f5bd 4b7f 8d3d 75b2 593d
000000c0: 5f58 323d f90e 843c c844 3fbd 42c9 0b3e
000000d0: ea52 d0bd cbfa 403c ea47 8ebd cb3e 163e
000000e0: af30 e0bd 1f28 bebd ae5a 48bc 6a1c f3bd
000000f0: 950e ed3e e161 febd bbd9 e93d 79c2 13be
00000100: 9932 383b 5412 61be 4e21 223f 9270 c13c
00000110: faac 62be 0568 293e 7803 49bd 29f8 2d3e
00000120: d548 ce3e f741 2d3e 50de 2ebb 3884 b0bd
00000130: ad3f 8f3e af1a 3dbe 7536 6ebc 2e80 c23e
00000140: f8a2 113e e7e4 443e 356b 2c3e 0a83 6f3e
00000150: 634e 483f 78c1 febd e719 fe3d 186b e0bd
00000160: a0fe 4dbe f0cd c03b 2333 8c3c 8614 51be
00000170: 478a 163e fea1 0c3f cdcb 7abd 3aa6 bd3e
00000180: 6374 113e ef05 363e 6d4d 9a3e cfc4 cb3e
00000190: 91b0 5fbd 72a6 063e 04af 143e ee3e e13d
000001a0: 439f 4bbd e639 003f c98c c8bd 5449 123e
000001b0: d3e0 943e ed1a d7bd e9b3 4c3d f58f b03e
000001c0: 570b 9ebe 577b ab3e 44de dfbd fd83 483e
000001d0: c62e c43e ad65 23be 017a 833e 8a76 fd3d
000001e0: 37dc 353f afa3 693e 906a 023e dc18 293f
000001f0: 409b 8ebd 44ed 553e feb5 813a a732 0b3f
00000200: 5c5e 6dbe f282 273d cb16 e43d bb96 86bc
00000210: 5ff1 da3c fff5 093e 6888 4fbd 141b 9fbc
00000220: 21c8 c03d ccf6 1e3e 5cef 333d 25ba 7f3e
00000230: 0f07 e23d 5d9e e43d 1626 a73d c520 b23c
00000240: 9ef2 1b3e 9a80 a03d 57e9 63be a2d7 cb3c
00000250: fef0 1abe 4d0c e73c 884f c53d 4c06 03be
00000260: 6609 1fbe 6ca3 903d 2555 303e e6d6 d93d
00000270: e1b8 a63c f1a9 b3bc 3501 acbd 51b4 483e
00000280: 71b3 b9bd 65d2 983d 2a59 4abe d73c 803c
00000290: 88c2 dcbb 2e8f 9a3d 0b98 023d 83cb 7d3c
000002a0: 3a7f d7bd 8eae c33d 791d acbe dcde f0bd
000002b0: a805 c93d 49ea 1b3d 113b 8f3e 8d63 16be
000002c0: e1f0 e5bb f72c 3e3e 7bdc 973c d147 f93c
000002d0: b4a2 aabd 9a11 3e3e b8c8 18be f032 5a3e
000002e0: 50ec a1be 8c7b ce3d 8ef1 21be 1118 373c
000002f0: f453 29be 62f4 b53d d62a 5bbd bbaa aabc

gru.weight_ih_l0_reverse f4 [192, 6]
0.06807271 0.22741456 0.6974897 0.4127055 0.76693726 0.0954494 -0.13171972 -0.7643975
-0.34888536 -0.35935313 -0.21665971 -0.2955019 -0.1675696 0.297719 -0.25461185 -0.12734349
0.665259 -0.2108129 -1.242447 -0.78338975 -0.4255555 1.0291201 0.18580526 0.38699803
-0.42227986 0.22056417 -0.16114083 -0.4478271 -0.15468213 -0.29768407 -0.4963244 0.21138121
-0.82830435 0.16992809 0.64531726 -0.5784862 0.17186435 0.21663322 -0.01809713 0.7973231
-0.28056517 -0.06405005 0.1980387 0.42022946 -0.24460803 -0.025713356 0.60595465 -0.4273789
-0.031211814 0.15397806 0.2101062 0.25783375 0.055611026 0.22454064 0.031430155 -0.7926116
0.32733038 -0.24497184 0.5881252 -0.3245605 0.110746786 -0.15552506 0.8254249 0.12772995
-0.83525276 0.12684833 -0.36161885 -0.13222767 0.52537924 0.03178344 0.21071623 -0.064056225
-0.21783042 -0.308801 -0.14534014 -0.44071484 0.93075615 -0.45426717 -0.35050115 0.10583306
0.197334 -0.360836 -0.11490055 -0.060896136 0.26235008 0.07678915 0.06686732 0.03511075
-0.48616523 0.45360357 0.51257527 -0.081647046 0.08703436 0.7389725 0.092743956 0.07871567
-0.3252433 -0.7097523 0.08768217 0.36032528 -0.03737467 0.40555105 -0.30730754 0.26579958
0.7438278 0.1650994 0.9838309 0.3395149 -0.72511303 -0.3047889 -0.46018848 -0.19560412
-0.10767597 0.6737817 -0.19746548 -0.054857712 -0.30489045 0.3040447 0.8238294 -0.40211347
-0.36186203 -0.88199437 -0.515716 0.024020715 -0.49163392 -0.01665151 0.1848509 0.2642126
-0.58412784 -0.9015567 -0.28344318 -0.5769093 -0.07017341 0.09404305 -0.32492793 0.6567544
-0.041332647 0.69997364 -0.5914953 0.0011828328 -1.2314626 0.41361645 -0.08478919 -0.15221329
-0.008613775 -0.3535909 0.506534 -0.32718924 -0.066270106 0.255903 -1.0957835 -0.22944716
0.14927724 0.22086523 0.13272183 -0.054666843 -0.6123049 -0.17307338 0.24844 0.06856821
-0.28137416 0.068014644 -0.16693826 -0.5616717 0.45287845 -0.2969089 -0.58938104 0.01679255
-0.18802118 -0.04271208 0.14445464 0.12925568 -0.69773376 -0.10385692 -0.07499313 -0.29864192
0.1648057 0.3319467 -0.80071735 0.2340364 0.46089715 -0.3803846 0.25021592 0.19784035
-0.20097452 -0.27755904 0.13097794 -0.14923789 0.43933767 0.0056219534 0.18892722 0.048507173
-1.1078933 0.0039214124 0.30933908 0.6014257 0.27366173 0.16272804 0.13416475 0.05367214
0.47357678 0.38907295 0.06886416 0.3994225 0.5155797 0.6481778 0.36935785 -0.41304788
0.24243176 -0.37769052 0.7290918 -0.05553591 -0.44405678 0.18940328 0.6539725 -0.13712895
0.36643726 0.6411159 -1.0660914 -0.10119397 0.51052225 -0.39802164 -0.4008304 0.7472564
0.09629653 0.16222373 -0.3425821 0.033707816 0.04428455 0.16411547 0.054058738 -1.088175
0.39142248 -0.0145080425 0.09698801 0.18383206 -0.23952986 0.34204873 -0.11240648 0.09724393
-0.022263406 0.70170766 0.5859286 -0.54983723 0.6658868 -0.013679661 0.7381059 0.95132715
0.1076258 0.043542188 0.22157982 0.37156928 0.23923567 0.23639682 0.26989433 0.16738227
00000000: b469 8b3d 5ddf 683e af8e 323f 234e d33e
00000010: 0056 443f fa7a c33d 89e1 06be 8eaf 43bf
00000020: 1aa1 b2be 22fd b7be 0bdc 5dbe 064c 97be
00000030: 5d97 2bbe a06e 983e 7c5c 82be 5566 02be
00000040: 6a4e 2a3f 56df 57be 8108 9fbf 3b8c 48bf
00000050: 69e2 d9be 35ba 833f bc43 3e3e 9b24 c63e
00000060: 1135 d8be 93db 613e 1a02 25be 9849 e5be
00000070: fe64 1ebe 0c6a 98be 3b1e febe 5174 583e
00000080: c10b 54bf a101 2e3e 8333 253f ac17 14bf
00000090: 35fd 2f3e 19d5 5d3e 6f40 94bc 5e1d 4c3f
000000a0: 3da6 8fbe ac2c 83bd a8ca 4a3e 5128 d73e
000000b0: 877a 7abe d1a4 d2bc d81f 1b3f 68d1 dabe
000000c0: ebaf ffbc 6dac 1d3e 1426 573e c902 843e
000000d0: 63c8 633d fbed 653e e8bc 003d 98e8 4abf
000000e0: d997 a73e e6d9 7abe 608f 163f cb2c a6be
000000f0: 36cf e23d f641 1fbe 0c4f 533f a4cb 023e
00000100: 20d3 55bf 87e4 013e 1b26 b9be b166 07be
00000110: 417f 063f 5a2f 023d ffc5 573e e92f 83bd
00000120: f00e 5fbe 2a1b 9ebe 0cd4 14be 60a5 e1be
00000130: 0946 6e3f b595 e8be e374 b3be 01bf d83d
00000140: ed11 4a3e 7fbf b8be fb50 ebbd 3a6e 79bd
00000150: c052 863e a143 9d3d bcf1 883d 4ad0 0f3d
00000160: a6ea f8be ba3e e83e 2238 033f 9136 a7bd
00000170: 123f b23d 4d2d 3d3f 8bf0 bd3d ae35 a13d
00000180: 4a86 a6be 54b2 35bf b692 b33d 8e7c b83e
00000190: 2f16 19bd 63a4 cf3e 6a57 9dbe e216 883e
000001a0: 806b 3e3f d10f 293e 58dc 7b3f e6d4 ad3e
000001b0: 02a1 39bf 4a0d 9cbe d39d ebbe 724c 48be
000001c0: 3885 dcbd f57c 2c3f 6434 4abe 7bb2 60bd
000001d0: 9a1a 9cbe bfab 9b3e 7ce6 523f d1e1 cdbe
000001e0: fb45 b9be 62ca 61bf f705 04bf 17c7 c43c
000001f0: 71b7 fbbe bf68 88bc 8e49 3d3e e046 873e
00000200: 6789 15bf 6bcc 66bf 771f 91be 54b0 13bf
00000210: 14b7 8fbd a599 c03d f45c a6be 0e21 283f
00000220: 6c4c 29bd 7931 333f 3c6c 17bf 4809 9b3a
00000230: 91a0 9dbf 89c5 d33e f4a5 adbd cddd 1bbe
00000240: ca20 0dbc de09 b5be 36ac 013f 5985 a7be
00000250: 9fb8 87bd b805 833e a242 8cbf 32f4 6abe
00000260: 22dc 183e 7f2a 623e 3be8 073e 57ea 5fbd
00000270: 04c0 1cbf 263a 31be 0e67 7e3e 7d6d 8c3d
00000280: 4610 90be 434b 8b3d ddf1 2abe b7c9 0fbf
00000290: afdf e73e 7104 98be ade1 16bf 8890 893c
000002a0: a088 40be ddf2 2ebd ebeb 133e 9a5b 043e
000002b0: ae9e 32bf f0b2 d4bd 0096 99bd 98e7 98be
000002c0: d3c2 283e ebf4 a93e d0fb 4cbf 3da7 6f3e
000002d0: b6fa eb3e c5c1 c2be 4d1c 803e a996 4a3e
000002e0: 44cc 4dbe 381c 8ebe 151f 063e d1d1 18be
000002f0: def0 e03e 5d38 b83b 2376 413e 75af 463d
00000300: 73cf 8dbf 317f 803b b161 9e3e 09f7 193f
00000310: 641d 8c3e 2ea2 263e 7c62 093e 51d7 5b3d
00000320: a878 f23e 9234 c73e a708 8d3d 1b81 cc3e
00000330: 08fd 033f fbee 253f 791c bd3e 037b d3be
00000340: 0840 783e a760 c1be c3a5 3a3f 9f79 63bd
00000350: 695b e3be eff2 413e be6a 273f 886b 0cbe
00000360: aa9d bb3e 2c20 243f af75 88bf c93e cfbd
00000370: 96b1 023f 7ec9 cbbe a439 cdbe 324c 3f3f
00000380: 1d37 c53d fa1d 263e ec66 afbe 3511 0a3d
00000390: b763 353d e30d 283e b26c 5d3d 5249 8bbf
000003a0: 8768 c83e 24b3 6dbc a6a1 c63d 793e 3c3e
000003b0: 5147 75be 0321 af3e 5e35 e6bd d327 c73d
000003c0: bf61 b6bc 1da3 333f 6bff 153f 22c2 0cbf
000003d0: 8f77 2a3f a820 60bc 82f4 3c3f 2d8a 733f
000003e0: ea6a dc3d 4b59 323d d2e5 623e 543e be3e
000003f0: 32fa 743e 0212 723e 972f 8a3e 4266 2b3e

gru.weight_hh_l0_reverse f4 [192, 64]
0.36231148 0.20107897 0.23275748 -0.31833896 0.28513977 0.25718126 0.4024033 -0.15010436
0.18595724 0.026019728 -0.48544806 -0.16014531 0.3806172 -0.51312953 0.007469403 -0.12509513
0.63129586 -0.015091123 0.047333933 -0.16271877 -0.17066675 0.14481845 -0.19400975 -0.017509298
0.35148498 0.3601326 -0.06377443 0.5981122 -0.357073 0.109815724 0.11090691 0.5658341
-0.14790645 0.27481848 0.08939208 0.5444955 -0.25328562 -0.006824459 -0.24011189 0.00038447857
-0.12601288 -0.38043436 -0.63551253 -0.20606443 -0.23170203 -0.2026944 -0.13544516 0.15446275
-0.2105627 -0.43172717 -0.22079661 0.0708327 -0.18876065 -0.3889946 -0.08222158 -0.19137916
0.40467212 0.36277503 0.10853497 -0.5593555 -0.3040507 0.057844456 -0.14334993 0.34853292
0.15486518 -0.007318576 -0.17539746 -0.15986682 0.1943932 0.26780662 0.49788958 0.084948115
0.08443575 -0.028472908 0.0655586 0.18520424 0.1413807 -0.38742626 0.11474638 -0.06667662
-0.09488222 -0.12451335 0.5413571 -0.035069667 0.13256878 0.0003235817 0.4899035 -0.07512967
0.3582507 0.073779196 0.25370672 -0.3250597 -0.31605396 -0.4115432 0.010498504 0.011526827
-0.71578455 0.4430799 0.1612825 -0.1877326 0.29698497 -0.119520776 -0.04517503 -0.14420421
0.20351747 -0.16114026 0.25772253 -0.0051746783 0.1834496 -0.090917625 -0.1161914 -0.06093573
-0.21576403 0.0031460826 -0.11639964 -0.004608508 0.039989922 -0.20158407 0.23637222 -0.5050068
0.09649026 -0.12631388 0.20253418 0.03329151 0.25942296 -0.19080071 0.21853694 -0.24805419
0.21389176 0.19447841 -0.36205542 0.098198764 0.22414193 0.18283488 -0.16967496 0.051143985
0.20302139 -0.11408458 -0.22199374 0.27592325 -0.5652597 -0.010309624 0.13518192 -0.07075953
-0.060549907 0.03187258 0.008979618 0.36590204 0.060571894 0.25215533 0.10912731 -0.309204
0.022974811 0.24347608 -0.52065074 0.08507291 0.3037438 0.116295375 -0.07311768 -0.0100748725
-0.10902046 0.0604797 0.012059804 0.0061116465 0.40037403 0.01961727 0.11261246 0.04544183
0.17934188 0.027086126 -0.0049679657 0.039315045 -0.08395581 -0.04721804 0.037880916 -0.31981748
0.032590657 0.13034599 -0.047746807 -0.069348484 0.1899579 -0.092803575 -0.07612814 0.06281433
-0.08955145 0.1511961 -0.06199321 0.52223295 -0.104747534 0.14346607 -0.024801776 0.018104441
-0.7181191 -0.24182135 0.108156875 -0.41477758 0.27674797 0.23668918 -0.13535243 -0.05236416
0.37001497 0.29552063 0.47127354 0.33219776 -0.4801655 -0.12367516 0.3302221 -0.04422539
-0.12392713 0.124836326 0.01360421 0.08174716 -0.24427304 0.24926955 -0.72958076 -0.39831716
-0.32124868 0.030974057 0.35084808 0.19385913 0.22798775 0.1475465 -0.72512007 -0.07348346
-0.24496593 -0.033947617 0.069161564 0.25193474 -0.33552942 -0.036914445 -0.024867145 0.007417085
0.08766154 0.019126346 0.14151151 0.108399846 0.018353796 -0.023925427 0.285785 0.41405538
0.17482042 -0.30369747 -0.037239917 0.7229511 -0.06513744 0.31174865 0.06546195 0.5173808
0.2636182 0.14983062 0.25929713 0.29541534 0.00020282695 0.448419 0.109727606 0.3126783
00000000: e480 b93e a5e7 4d3e fa57 6e3e 53fd a2be
00000010: d7fd 913e 43ad 833e ce07 ce3e f5b4 19be
00000020: 936b 3e3e 5327 d53c a68c f8be 22fd 23be
00000030: 42e0 c23e 755c 03bf e5c1 f43b f018 00be
00000040: 9b9c 213f c240 77bc 3ae1 413d c09f 26be
00000050: 44c3 2ebe 4a4b 143e 7eaa 46be a96f 8fbc
00000060: d7f5 b33e 4d63 b83e 2b9c 82bd e21d 193f
00000070: 46d2 b6be 11e7 e03d 2923 e33d 81da 103f
00000080: ca74 17be 02b5 8c3e 3213 b73d 0f64 0b3f
00000090: a7ae 81be b69f dfbb e4df 75be d793 c939
000000a0: 8509 01be 4bc8 c2be f3b0 22bf 8e02 53be
000000b0: 4c43 6dbe 1f8f 4fbe 23b2 0abe 7c2b 1e3e
000000c0: c09d 57be 580b ddbe 8218 62be bc10 913d
000000d0: 794a 41be 4d2a c7be ca63 a8bd e6f8 43be
000000e0: 2f31 cf3e a6bd b93e 9547 de3d ec31 0fbf
000000f0: 89ac 9bbe 4fee 6c3d 53ca 12be e872 b23e
00000100: fa94 1e3e aad0 efbb 649b 33be 21b4 23be
00000110: 030f 473e f31d 893e 62eb fe3e 47f9 ad3d
00000120: a7ec ac3d 0440 e9bc 9643 863d 2ea6 3d3e
00000130: 1ac6 103e bc5c c6be 2600 eb3d c08d 88bd
00000140: 9c51 c2bd db00 ffbd 6196 0a3f 36a5 0fbd
00000150: 1cc0 073e 67a6 a939 a2d4 fa3e 96dd 99bd
00000160: a36c b73e 8c19 973d d9e5 813e 3a6e a6be
00000170: d3d1 a1be cab5 d2be eb01 2c3c 04db 3c3c
00000180: a83d 37bf 5edb e23e 3d27 253e fa3c 40be
00000190: 6a0e 983e 4fc7 f4bd 7409 39bd 45aa 13be
000001a0: e266 503e f401 25be 35f4 833e 5990 a9bb
000001b0: 36da 3b3e 0533 babd c2f5 edbd be97 79bd
000001c0: 3ff1 5cbe 822e 4e3b ef62 eebd f802 97bb
000001d0: 79cc 233d 0e6c 4ebe 8f0b 723e 2048 01bf
000001e0: af9c c53d 6d58 01be 1f65 4f3e ae5c 083d
000001f0: 16d3 843e 4361 43be 26c8 5f3e eb01 7ebe
00000200: 7106 5b3e 5925 473e 545f b9be 6f1c c93d
00000210: 7685 653e 1139 3b3e 46bf 2dbe 5b7c 513d
00000220: d7e4 4f3e 2da5 e9bd 5452 63be d045 8d3e
00000230: dcb4 10bf b2e9 28bc 216d 0a3e 5fea 90bd
00000240: 2e03 78bd d38c 023d 3f1f 133c 8357 bb3e
00000250: 3c1a 783d 811a 813e 247e df3d fd4f 9ebe
00000260: ac35 bc3c cb51 793e 5e49 05bf b53a ae3d
00000270: 4f84 9b3e 452c ee3d b9be 95bd 1411 25bc
00000280: 1e46 dfbd 90b9 773d 7c96 453c 3544 c83b
00000290: d3fd cc3e 66b4 a03c 5da1 e63d 3621 3a3d
000002a0: 66a5 373e b9e3 dd3c 51ca a2bb d008 213d
000002b0: 06f1 abbd b467 41bd 0529 1b3d 1ebf a3be
000002c0: c87d 053d 6b79 053e 2892 43bd 9406 8ebd
000002d0: 5384 423e cd0f bebd 12e9 9bbd cda4 803d
000002e0: c066 b7bd 27d3 1a3e 98ec 7dbd 0fb1 053f
000002f0: e085 d6bd c5e8 123e 182d cbbc c44f 943c
00000300: a7d6 37bf 04a0 77be 5a81 dd3d ba5d d4be
00000310: e9b1 8d3e a65e 723e d499 0abe cd7b 56bd
00000320: 9a72 bd3e 7b4e 973e c44a f13e d315 aa3e
00000330: 41d8 f5be 6749 fdbd df12 a93e af25 35bd
00000340: 82cd fdbd 30aa ff3d 31e4 5e3c 0e6b a73d
00000350: b622 7abe 8440 7f3e cec5 3abf 3af0 cbbe
00000360: b57a a4be 4ebd fd3c 5ca2 b33e 0283 463e
00000370: 9f75 693e 6e16 173e 78a1 39bf 7f7e 96bd
00000380: 59d8 7abe a80c 0bbd 94a4 8d3d 97fd 803e
00000390: 83ca abbe 9a33 17bd 2fb6 cbbc 050b f33b
000003a0: e587 b33d dbae 9c3c 65e8 103e bd00 de3d
000003b0: b35a 963c 42ff c3bc 6952 923e 11ff d33e
000003c0: 2004 333e 3c7e 9bbe e288 18bd 5313 393f
000003d0: c766 85bd 859d 9f3e ea10 863d 1173 043f
000003e0: f7f8 863e 336d 193e 98c2 843e ae40 973e
000003f0: f2ad 5439 2d97 e53e deb8 e03d 5f17 a03e

gru.bias_ih_l0_reverse f4 [192]
-0.18071683 0.14943635 0.13182391 0.015330485 -0.030789565 0.02214608 -0.05109977 0.12769282
0.029172745 -0.21177454 0.014376816 0.13419707 0.05827739 -0.1419887 -0.009485067 0.09087026
0.034898423 -0.03467435 -0.029676521 -0.11924319 0.05484514 -0.06687239 -0.035227746 -0.12639073
-0.037480593 0.32655123 0.09171431 0.07874035 0.21073566 0.32435158 -0.15710077 0.10633272
-0.085480094 0.39035136 -0.07110481 -0.099399775 -0.106611535 0.05268386 -0.06695876 -0.0490314
0.037594162 -0.0668933 0.03296541 -0.03396047 -0.06774729 0.006118889 -0.013908343 0.16359365
0.12710705 -0.13639452 0.02222669 -0.261449 0.008181975 0.036438577 0.045504745 0.1776874
-0.031848095 0.10631846 -0.17897066 -0.117233306 -0.16567878 -0.16057684 0.14171445 0.20183441
0.45263788 0.5876183 1.4711254 -0.25527117 0.018403333 0.218689 0.21351102 -0.46672657
-0.14090875 -0.0033043677 -0.19347173 0.005184113 0.14460537 0.705622 0.3158367 -0.1452081
0.052390236 0.051423676 0.6259301 -0.20985408 0.5819665 -0.47603583 0.42799607 0.14501621
-0.08043348 -0.1316447 0.0676419 0.06721037 0.061715525 0.091214314 0.86133647 -0.10509214
-0.08485874 -0.29285994 0.005946025 -0.03557892 0.61851764 -0.18680276 -0.005998145 0.0674814
-0.37749422 0.48490384 0.2368666 0.46360055 0.210571 0.19590038 0.49696022 0.38003212
0.93366235 1.2676061 0.43878844 -0.0031696772 0.1341693 0.67768717 -0.34491065 0.4606398
0.20963097 -0.1955251 -0.24239704 -0.09864175 0.08585002 -0.028001437 -0.8385497 -0.15213908
0.20186682 0.21890795 -0.13533752 0.16015156 -0.0104742125 0.009291153 -0.073158726 0.10020561
0.03934249 -0.06737818 0.16343832 0.11973474 0.12723564 0.10420695 -0.05129448 -0.017396547
-0.13957112 0.102158345 -0.12862873 0.037290603 -0.013055213 -0.17582466 -0.06264931 -0.20516233
0.11891723 0.24320902 -0.06680955 -0.059087608 0.08881126 -0.1498208 0.15077408 0.006231124
0.103426345 0.140176 0.14887851 0.09005601 0.039525732 0.10354591 -0.035614144 -0.18683106
0.03153052 -0.15310976 0.022608962 0.06713251 -0.106306866 -0.09287174 0.05355721 0.2666832
-0.0767663 -0.01775857 0.12621762 -0.041386798 -0.1642333 0.06451621 -0.15412968 -0.07411644
0.08127831 0.17202897 -0.14431533 -0.0672096 -0.043222003 -0.03450503 0.10119973 -0.21165957
00000000: d50d 39be d805 193e d9fc 063e b72c 7b3c
00000010: 663a fcbc b26b b53c fe4d 51bd e8c1 023e
00000020: aefb ee3c 6ddb 58be bd8c 6b3c f56a 093e
00000030: 46b4 6e3d 7c65 11be 4167 1bbc 301a ba3d
00000040: a6f1 0e3d b106 0ebd 2d1c f3bc c635 f4bd
00000050: 4ca5 603d 64f4 88bd f84a 10bd 926c 01be
00000060: 4085 19bd b931 a73e b6d4 bb3d 9f42 a13d
00000070: 17cb 573e 6911 a63e 06df 20be f8c4 d93d
00000080: 3010 afbd 22dc c73e 669f 91bd 1c92 cbbd
00000090: 2657 dabd 08cb 573d ad21 89bd 26d5 48bd
000000a0: 56fc 193d 5bff 88bd bd06 073d 221a 0bbd
000000b0: 17bf 8abd f680 c83b d2df 63bc 1885 273e
000000c0: 5a28 023e 01ab 0bbe bf14 b63c a5dc 85be
000000d0: b10d 063c 9e40 153d 2f63 3a3d b0f3 353e
000000e0: 2673 02bd 7ebd d93d 1644 37be 0418 f0bd
000000f0: b3a7 29be 416e 24be 981d 113e aead 4e3e
00000100: 27c0 e73e 276e 163f d64d bc3f e7b2 82be
00000110: 96c2 963c 02f0 5f3e a2a2 5a3e c9f6 eebe
00000120: 624a 10be 178e 58bb 741d 46be 7edf a93b
00000130: 6e13 143e a5a3 343f 59b5 a13e 6fb1 14be
00000140: 2597 563d a2a1 523d f43c 203f fde3 56be
00000150: c2fb 143f f8ba f3be 4d22 db3e 217f 143e
00000160: 4fba a4bd decd 06be d687 8a3d 97a5 893d
00000170: 6bc9 7c3d 92ce ba3d 8c80 5c3f 8c3a d7bd
00000180: 6bca adbd bdf1 95be dfd6 c23b 34bb 11bd
00000190: 2c57 1e3f 3949 3fbe 168c c4bb b033 8a3d
000001a0: ec46 c1be 5145 f83e 288d 723e 0d5d ed3e
000001b0: ed9f 573e 1c9a 483e 9271 fe3e 9293 c23e
000001c0: 7f04 6f3f eb40 a23f e1a8 e03e 5cba 4fbb
000001d0: ad63 093e e87c 2d3f 2198 b0be fbd8 eb3e
000001e0: 80a9 563e bb37 48be ee36 78be b004 cabd
000001f0: 23d2 af3d 4563 e5bc 31ab 56bf 59ca 1bbe
00000200: 2db6 4e3e 6829 603e eb95 0abe c5fe 233e
00000210: 089c 2bbc ec39 183c 3ed4 95bd 9938 cd3d
00000220: 9725 213d 92fd 89bd 605c 273e 7d37 f53d
00000230: 0f4a 023e 746a d53d 291a 52bd 3483 8ebc
00000240: bbeb 0ebe 6538 d13d 40b7 03be 08be 183d
00000250: 88e5 55bc 610b 34be 484e 80bd 1316 52be
00000260: e08a f33d c90b 793e 72d3 88bd d905 72bd
00000270: aee2 b53d a06a 19be 8564 1a3e 752e cc3b
00000280: 31d1 d33d 4c8a 0f3e 9c73 183e 496f b83d
00000290: bce5 213d e10f d43d 23e0 11bd a450 3fbe
000002a0: 2626 013d cec8 1cbe 6e36 b93c c57c 893d
000002b0: 6ab7 d9bd 8a33 bebd ce5e 5b3d b38a 883e
000002c0: a637 9dbd 6c7a 91bc 313f 013e 3485 29bd
000002d0: c62c 28be 1321 843d 2cd4 1dbe 5cca 97bd
000002e0: 3e75 a63d 5d28 303e 66c7 13be 30a5 89bd
000002f0: 8e09 31bd 2555 0dbd ce41 cf3d 49bd 58be

gru.bias_hh_l0_reverse f4 [192]
-0.16777624 0.05706648 0.24238339 -0.11874639 -0.096757405 -0.017404236 -0.06801161 -0.023300713
0.03960441 -0.16523011 -0.004139605 -0.04437952 0.020089585 -0.22259028 0.16609214 0.12446053
0.045228597 0.17761663 0.010933278 -0.006931571 -0.10421319 -0.029720897 -0.012820295 -0.039632656
0.07438314 0.3512397 0.116573356 0.17428534 0.07262378 0.23783717 -0.11769372 0.18295556
-0.12298568 0.37635985 -0.02825625 0.10422015 -0.11072037 0.09661078 -0.10975024 0.023888685
-0.036785502 -0.028243247 -0.012260254 -0.098157264 -0.058185343 0.018915836 -0.13399655 0.15033951
0.101130664 -0.09215727 0.037647534 -0.2554515 0.014278026 0.23673399 -0.08686945 0.031577215
0.08937275 0.025520757 -0.16415755 -0.03019738 -0.2939301 -0.171607 0.042030726 0.10371813
0.4071484 0.5744363 1.2800695 -0.17456442 0.19990358 0.1498289 0.3649229 -0.35245147
-0.25278386 -0.0696302 -0.28128916 -0.034096923 -0.014466857 0.4959978 0.18019105 -0.05064005
0.123546764 0.11220603 0.52526295 -0.07058497 0.53263086 -0.3566518 0.28509977 0.15443037
-0.04695427 -0.03225564 0.10178124 -0.0028221244 0.05613311 0.15890163 0.78926533 -0.015948573
-0.032685347 -0.2832605 0.08228276 -0.20055132 0.7387036 -0.3472234 -0.078821 0.20500097
-0.34853035 0.43927753 0.11578519 0.49349642 0.04526792 0.105808176 0.52942455 0.24183671
0.9158111 1.1389157 0.3459182 -0.020012205 0.22741064 0.6665505 -0.24895054 0.35736987
0.28620753 -0.06657885 -0.247116 -0.17552802 0.13183874 -0.12928264 -0.7445688 -0.16680267
0.16228351 0.07480941 -0.11035601 0.15243104 0.057493143 0.12835309 0.009356424 0.2002675
-0.14661078 -0.06451194 0.2996459 0.02145195 -0.14468507 0.10944474 -0.17794564 0.019628096
-0.1565117 -0.01099104 -0.1278538 0.17999017 0.119025506 0.05733379 0.021318775 0.039053004
0.045724515 0.5491657 -0.01427969 -0.15677263 -0.14642826 -0.04800715 0.062146 0.022609744
-0.006796842 -0.04352879 0.15816486 -0.09800207 0.10398833 -0.02642416 0.04157852 -0.24825148
0.31426272 -0.026546061 0.048629187 -0.084254496 0.030967446 -0.063690394 -0.15081452 0.11565223
-0.04880751 -0.056433577 0.2706785 -0.109398685 -0.18999408 0.074060954 -0.11034157 0.090119116
0.1339983 0.13343857 0.07637284 -0.049388345 -0.124144815 0.013668317 0.28903726 -0.14203922
00000000: 89cd 2bbe 8bbe 693d 5a33 783e 4f31 f3bd
00000010: bf28 c6bd 5493 8ebc ac49 8bbd 23e1 bebc
00000020: 3c38 223d 1532 29be 86a5 87bb 4dc7 35bd
00000030: ea92 a43c b5ee 63be 0f14 2a3e 2ae5 fe3d
00000040: 9f41 393d 22e1 353e 7e21 333c 3b22 e3bb
00000050: ba6d d5bd 3d79 f3bc 370c 52bc da55 22bd
00000060: 3056 983d b1d5 b33e 03be ee3d db77 323e
00000070: c7bb 943d 968b 733e 6809 f1bd b458 3b3e
00000080: ebdf fbbd 3db2 c03e a779 e7bc 6071 d53d
00000090: 5dc1 e2bd dfdb c53d bcc4 e0bd 34b2 c33c
000000a0: 65ac 16bd 625e e7bc 3bdf 48bc ad06 c9bd
000000b0: c153 6ebd 62f5 9a3c 6436 09be 9af2 193e
000000c0: 981d cf3d f3bc bcbd 4d34 1a3d 8aca 82be
000000d0: 62ee 693c 656a 723e 9ce8 b1bd 1c57 013d
000000e0: 0f09 b73d e810 d13c eb18 28be 7f60 f7bc
000000f0: 027e 96be bfb9 2fbe 6928 2c3d 2c6a d43d
00000100: c175 d03e 420e 133f 51d9 a33f 04c1 32be
00000110: 86b3 4c3e bf6c 193e 2dd7 ba3e 8574 b4be
00000120: e36c 81be 479a 8ebd 2205 90be 37a9 0bbd
00000130: 6506 6dbc 6cf3 fd3e 0184 383e f16b 4fbd
00000140: 1606 fd3d 46cc e53d a277 063f da8e 90bd
00000150: 7f5a 083f 119b b6be 99f8 913e ff22 1e3e
00000160: 1f53 40bd 7d1e 04bd af72 d03d 64f3 38bb
00000170: d5eb 653d 1cb7 223e 4b0d 4a3f 95a6 82bc
00000180: 12e1 05bd 8507 91be dd83 a83d 535d 4dbe
00000190: ae1b 3d3f 44c7 b1be e86c a1bd c6eb 513e
000001a0: 9272 b2be fce8 e03e c920 ed3d 90ab fc3e
000001b0: db6a 393d f5b1 d83d 5e88 073f 0ba4 773e
000001c0: 9972 6a3f fdc7 913f 311c b13e a3f0 a3bc
000001d0: 56de 683e 0ea3 2a3f e4ec 7ebe 2ff9 b63e
000001e0: cb89 923e 7e5a 88bd fa0b 7dbe 9ebd 33be
000001f0: bc00 073e ab62 04be 109c 3ebf 52ce 2abe
00000200: a62d 263e ad35 993d 5502 e2bd e216 1c3e
00000210: ee7d 6b3d fe6e 033e b04b 193c ec12 4d3e
00000220: 2321 16be d61e 84bd 306b 993e 00bc af3c
00000230: 5328 14be 9024 e03d 6237 36be 1acb a03c
00000240: 9a44 20be c313 34bc 1bec 02be 584f 383e
00000250: a5c3 f33d d6d6 6a3d b6a4 ae3c 0bf6 1f3d
00000260: a149 3b3d 2096 0c3f 5cf5 69bc 0189 20be
00000270: 4af1 15be 25a3 44bd ce8c 7e3d 1238 b93c
00000280: 0bb8 debb 3f4b 32bd f8f5 213e 4fb5 c8bd
00000290: d5f7 d43d 7b77 d8bc 3d4e 2a3d a335 7ebe
000002a0: 0be7 a03e 2077 d9bc 662f 473d 9f8d acbd
000002b0: 71af fd3c 1c70 82bd 1f6f 1abe 14db ec3d
000002c0: 62ea 47bd e526 67bd 5f96 8a3e 6b0c e0bd
000002d0: cf8d 42be 45ad 973d c3fa e1bd 5f90 b83d
000002e0: da36 093e 1fa4 083e 5d69 9c3d 6f4b 4abd
000002f0: a33f febd 14f1 5f3c b1fc 933e bb72 11be

fc.weight f4 [6, 128]
0.7687652 1.7134584 0.5096295 1.7081821 2.2889261 0.8869833 -1.1283417 1.0550953
1.0003173 -0.5811935 -1.0783609 0.85259765 -0.7723228 0.89612174 -1.696375 -0.12873979
-0.61653775 0.44259575 1.6692141 -0.596604 -0.8369869 0.79160976 -0.2691221 -1.2420577
-0.55705166 0.243817 -0.17065577 -0.6041216 0.36872542 0.18158403 -0.23128796 0.52956206
-2.497618 0.49870622 -0.78527653 0.49354613 -1.3917115 -0.26173103 -0.3481718 0.55844074
-4.557831 -0.68908983 0.37390053 0.51035273 0.018812574 -0.75457 1.625893 0.37226534
0.24464856 -0.59479237 1.4568876 2.0474365 1.0833325 0.538583 0.1498088 0.44436112
-0.7587275 -1.0379748 0.22995315 0.8317805 -4.231103 -0.024293134 -1.5447949 -0.53168446
-0.16630754 0.21287379 0.2470856 -0.355125 -1.999908 0.9717623 1.1833591 2.775622
-0.7881388 0.40931162 -0.23399687 -1.4688809 0.21325557 -0.40948135 0.4599439 0.6904143
0.23567788 1.5568233 0.7747043 -0.24478374 0.41321394 0.9475535 0.43860808 -1.1369828
-0.9278147 -0.31688094 -1.2853769 0.3069142 0.9252939 1.7175146 0.3800891 0.3802339
0.673402 -0.72423136 -0.3546371 -0.22450534 0.53041077 -1.7385209 1.6284335 -0.41513675
-2.5124538 0.25237414 0.05162431 -0.2801709 2.045525 -1.4769634 -0.7554335 -1.8951242
-0.07844613 -0.039426766 0.96719867 -0.9434629 0.45310086 0.46027133 1.1016029 -1.1174505
-0.7669077 1.5542926 -1.0384302 0.017009176 1.4090352 -1.1541542 1.1081343 -1.1099703
0.45739 -0.47769892 0.30583614 -0.8170242 -1.9135011 -0.27027264 0.96730417 -0.5279908
-0.26832885 0.31360978 0.25489068 -0.5849017 0.2515169 -0.22970101 0.23881114 -0.22879645
-0.24321574 0.1012153 -0.7005694 -0.013191193 0.5608596 0.24375947 0.24287775 1.3733392
-0.027248237 0.25106508 0.40855238 0.40233043 -0.66989547 0.3637777 0.22417599 -0.27173337
1.2343268 -0.03602832 0.8071119 -0.5080646 0.6676782 0.38766652 -0.07968436 -1.274711
2.1416082 0.37759587 -0.52711594 -0.19887221 0.045461226 0.00772759 -0.4793437 -0.57842135
0.19293249 0.16523297 -0.57254523 -1.1045965 -0.024443751 -0.25781074 0.49828675 0.07478208
0.37787104 0.79011637 -0.203598 -0.08182758 1.7605196 -0.03887198 1.0088245 0.09503066
-0.11830133 -0.5069685 0.2261031 0.7971099 1.4881145 -0.5930206 -0.91688824 -2.096237
-0.019502886 -1.1727779 0.475119 0.9876992 -0.13851449 0.5095696 -0.44627374 -1.0605532
-0.5106551 -1.2099556 -0.7295035 0.71079564 -0.22184147 0.5592282 -0.2542618 0.7222544
0.030843114 0.38806158 1.1627003 -0.24672455 -0.6351385 -0.6518145 -0.15861538 0.18606308
-0.77044874 -0.082038336 0.18626674 0.32323024 -0.29925433 0.07423454 -1.2882558 -0.052772228
1.583001 -0.20737563 0.061228838 0.42315277 -1.5706168 1.0853521 0.2780826 1.3948425
0.4214666 0.043148007 -0.7456578 0.2651577 -0.020508818 -0.30511308 -1.1042511 -0.06824949
0.7052229 -1.5360619 0.5835786 0.78111124 -0.6725777 1.2116067 -0.28431618 -0.24108304
00000000: cccd 443f 9b52 db3f 1477 023f b6a5 da3f
00000010: c47d 1240 5611 633f 806d 90bf 5d0d 873f
00000020: 660a 803f 19c9 14bf bb07 8abf d743 5a3f
00000030: f2b6 45bf 3c68 653f d122 d9bf 5dd4 03be
00000040: 6bd5 1dbf e99b e23e cfa8 d53f 0abb 18bf
00000050: c644 56bf f0a6 4a3f 5fca 89be bffb 9ebf
00000060: f09a 0ebf 2aab 793e 63c0 2ebe b7a7 1abf
00000070: 94c9 bc3e 2af1 393e c0d6 6cbe 6191 073f
00000080: f9d8 1fc0 6c56 ff3e e207 49bf 14b2 fc3e
00000090: 9a23 b2bf 9c01 86be 9343 b2be f9f5 0e3f
000000a0: c0d9 91c0 3168 30bf e46f bf3e 7aa6 023f
000000b0: d41c 9a3c 802b 41bf 431d d03f 9099 be3e
000000c0: 2785 7a3e 5044 18bf 4b7b ba3f 3309 0340
000000d0: a4aa 8a3f 93e0 093f 7a67 193e 4d83 e33e
000000e0: f73b 42bf 5cdc 84bf d778 6b3e 91ef 543f
000000f0: 3265 87c0 6502 c7bc d7bb c5bf 791c 08bf
00000100: 864c 2abe 96fb 593e 0204 7d3e f2d2 b5be
00000110: fcfc ffbf 6ac5 783f 5078 973f caa3 3140
00000120: 77c3 49bf 4b91 d13e e09c 6fbe 4a04 bcbf
00000130: ab5f 5a3e 8aa7 d1be c47d eb3e febe 303f
00000140: 8b55 713e fc45 c73f 0553 463f 97a8 7abe
00000150: c790 d33e de92 723f 3d91 e03e a788 91bf
00000160: 4485 6dbf 383e a2be 3b87 a4bf dc23 9d3e
00000170: 10e0 6c3f 85d7 db3f 0a9b c23e 05ae c23e
00000180: 1364 2c3f 3a67 39bf fe92 b5be bae4 65be
00000190: 00c9 073f da87 debf 8270 d03f ce8c d4be
000001a0: 0bcc 20c0 2f37 813e 0374 533d 8f72 8fbe
000001b0: e2e9 0240 230d bdbf 1764 41bf 6e93 f2bf
000001c0: 5da8 a0bd f67d 21bd 559a 773f c986 71bf
000001d0: d6fc e73e afa8 eb3e 5301 8d3f 9e08 8fbf
000001e0: 1054 44bf 0ff3 c63f 48eb 84bf d456 8b3c
000001f0: 445b b43f 53bb 93bf 58d7 8d3f 8213 8ebf
00000200: 062f ea3e f494 f4be 8e96 9c3e 7f28 51bf
00000210: 9bed f4bf 2d61 8abe 3fa1 773f 682a 07bf
00000220: 6662 89be 7691 a03e 0881 823e 1ebc 15bf
00000230: d3c6 803e be36 6bbe e88a 743e 9e49 6abe
00000240: 8c0d 79be f849 cf3d 8458 33bf e01f 58bc
00000250: 7f94 0f3f 159c 793e f2b4 783e 94c9 af3f
00000260: b237 dfbc 9a8b 803e c72d d13e 41fe cd3e
00000270: 457e 2bbf 1241 ba3e 648e 653e a320 8bbe
00000280: 6cfe 9d3f 6f92 13bd e39e 4e3f 8610 02bf
00000290: f5ec 2a3f 3a7c c63e 8e31 a3bd bb29 a3bf
000002a0: 1c10 0940 3f54 c13e 12f1 06bf 28a5 4bbe
000002b0: 8d35 3a3d b937 fd3b 8a6c f5be 6c13 14bf
000002c0: 1890 453e d532 293e 5392 12bf 6b63 8dbf
000002d0: 433e c8bc c5ff 83be 711f ff3e 5927 993d
000002e0: 5078 c13e 1145 4a3f fe7b 50be 3895 a7bd
000002f0: b558 e13f 3a38 1fbd 2921 813f 6f9f c23d
00000300: f847 f2bd b0c8 01bf 9287 673e 650f 4c3f
00000310: 897a be3f 33d0 17bf 30b9 6abf bf28 06c0
00000320: 84c4 9fbc 961d 96bf cc42 f33e dbd9 7c3f
00000330: bed6 0dbe 2773 023f fe7d e4be 35c0 87bf
00000340: 4bba 02bf d3df 9abf bec0 3abf b4f6 353f
00000350: 692a 63be 9429 0f3f 9a2e 82be aae5 383f
00000360: b3aa fc3c 02b0 c63e 5dd3 943f 5ca5 7cbe
00000370: 7098 22bf 51dd 26bf 126c 22be 5287 3e3e
00000380: 213c 45bf b703 a8bd b5bc 3e3e 6f7e a53e
00000390: dd37 99be 4708 983d 91e5 a4bf b127 58bd
000003a0: c79f ca3f 475a 54be 17cb 7a3d 7ba7 d83e
000003b0: f909 c9bf d1ec 8a3f d860 8e3e 338a b23f
000003c0: 78ca d73e f7bb 303d 6ee3 3ebf c0c2 873e
000003d0: 1c02 a8bc c837 9cbe 1a58 8dbf 63c6 8bbd
000003e0: 7d89 343f ad9d c4bf 6865 153f e8f6 473f
000003f0: 0d2e 2cbf ee15 9b3f e491 91be 79de 76be

fc.bias f4 [6]
-0.571353 -0.310182 1.1699442 1.344562 -0.04335031 0.88289154
00000000: 3144 12bf 2dd0 9ebe bbc0 953f 9c1a ac3f
00000010: 1890 31bd 2e05 623f
