model/gru_classifier_weights/deepseek-r1-distill-8b_h100_tp4.pt (torch, 117768 bytes, 10 tensors)

gru.weight_ih_l0 f4 [192, 6]
000000 86 78 94 3e 35 da dd be 67 81 7f 3d 44 84 a9 3e
       0.28998202 -0.4333054 0.062379267 0.33108723
000010 d6 d2 f2 3d aa 5e c8 3e ac 84 b8 3d d5 48 4b 3f
       0.1185662 0.39134723 0.0900968 0.7940801
000020 b8 bc 74 be 49 0f 4c bd 18 4a 84 3f 4c 76 47 3c
       -0.23900115 -0.049819265 1.0335112 0.0121742
000030 70 1b 65 3e 71 66 09 3e 37 48 36 3e b3 b4 0a 3f
       0.22373748 0.13417985 0.17800985 0.54181975
000040 1c 3a 06 be c5 d0 aa 3e f1 95 d5 3e 50 a8 88 3e
       -0.13108104 0.33362404 0.4171596 0.26690912
000050 14 4d c8 3e 5d 68 d7 be c1 09 2e be 40 82 8d 3d
       0.39121306 -0.4207181 -0.16995908 0.06909609
000060 75 52 bd bd 7b 7e 56 3e 6e 65 29 3e a2 a3 61 3d
       -0.09244243 0.20946686 0.16542599 0.055087693
000070 c5 97 96 be 9e 79 dd 3c 25 f0 96 3d 05 3b ec be
       -0.29412666 0.02703553 0.07370023 -0.46138778
000080 03 79 0d be b7 1d 07 bc ca e7 57 be 80 26 28 3e
       -0.13815694 -0.008246831 -0.21084514 0.16420937
000090 16 4d 69 3d 23 21 09 bf ba 00 ea bd 5f 82 8a be
       0.05695828 -0.5356619 -0.1142592 -0.2705259
0000a0 0e 18 45 be 95 0a a3 be b3 f2 69 be 3b b4 3f bf
       -0.19247457 -0.3184401 -0.22846489 -0.74884385
0000b0 88 72 e2 be 75 df a8 3e 8d 3a 9d 3c ea 8a c4 be
       -0.44228005 0.32982984 0.019192958 -0.38387233
0000c0 93 d0 da 3d e3 5d 7b be bc 86 c4 be 91 32 1f 3d
       0.106843136 -0.24547534 -0.38384044 0.038866583
0000d0 1b d0 57 bf 22 52 08 be ad 48 d1 be aa f1 0d 3e
       -0.8430192 -0.13312581 -0.4087576 0.13861719
0000e0 76 09 79 bd 6e bd 4c 3f 95 01 ba 3e e1 04 3c 3f
       -0.06080004 0.79976547 0.36329332 0.73444945
0000f0 70 68 50 3e 6d 7e 3d be fa 6a e1 3d e7 76 e3 bd
       0.2035234 -0.18505259 0.11006732 -0.11106663
000100 f0 8b 82 be 62 af 3d be 18 90 60 3e c6 0e 0a 3f
       -0.2549739 -0.18523934 0.21929967 0.5392879
000110 8f a3 2b 3f af a1 59 be 1c 1c ac bd c8 f5 2d 3e
       0.67046446 -0.21253084 -0.08403799 0.1698829
000120 3b e2 d3 3e 4c 67 17 3f c8 4a 88 3e 10 8d d0 be
       0.41383538 0.59141994 0.26619554 -0.40732622
000130 8e c5 a7 be a3 7f 27 3d 2f c1 d1 bd c6 fd 92 be
       -0.3276791 0.04089321 -0.10241925 -0.2870924
000140 4a 7d 5b be f6 61 f6 be a1 87 28 bf 05 b3 48 bf
       -0.21434513 -0.48121613 -0.65831953 -0.7839816
000150 76 67 24 3f 22 06 df 3e 49 88 c6 3d f8 aa 6e bd
       0.6422037 0.43559366 0.09693963 -0.058268517
000160 07 43 93 3c 94 39 c0 be d7 e5 e0 3d 63 18 20 3e
       0.017976297 -0.3754393 0.109813385 0.15634303
000170 20 85 86 3e d3 8b c4 3e 7e 84 52 3f 80 b9 30 3c
       0.2627344 0.38387927 0.8223342 0.010786414
000180 a0 cb b6 be 28 09 57 bf e1 ec 5c be 9f 53 aa 3e
       -0.3570223 -0.83998346 -0.21574737 0.33266923
000190 e6 75 a0 bd 21 b6 b3 3e a3 33 7c 3e fd 01 a4 be
       -0.07834987 0.3509989 0.24629073 -0.32032767
0001a0 ed 3e dc 3e 9d d4 78 3d 2b 3e c3 3e 55 56 2a bd
       0.4301676 0.06074964 0.38133368 -0.04158624
0001b0 3e 24 5c 3f 39 39 22 3f 60 f8 72 be 7f f6 3c be
       0.859928 0.63368565 -0.2372756 -0.18453406
0001c0 ec 04 2f be 9f 5b e9 be 48 8c 1e be 77 90 ed 3e
       -0.17091721 -0.45577714 -0.154832 0.4639928
0001d0 b5 8e bf be f9 e4 e9 3d f4 3d 09 be a8 b8 e2 3d
       -0.37413564 0.11420626 -0.1340254 0.11070377
0001e0 8e ab 94 3e 31 99 e2 be 10 af 5f 3e e4 8c 70 3e
       0.29037136 -0.442575 0.21844125 0.23491246
0001f0 7f f1 a6 3e 14 55 cb 3d 2f ea 69 be 6a 2b 9c be
       0.32606122 0.09928337 -0.2284324 -0.30501872
000200 cb b6 0c be 85 d3 c8 3e 59 59 ba 3e c2 4c 70 3d
       -0.13741605 0.39223877 0.36396292 0.058666952
000210 9c 0b e3 be 4d 76 dc be ee b9 a4 3e a0 d2 16 3e
       -0.44344795 -0.43059006 0.32173103 0.14728785
000220 63 f9 14 3e 03 f4 cd 3e 65 50 6e be 2c 08 b1 be
       0.14548258 0.4022523 -0.23272856 -0.34576547
000230 1c 13 b6 3e ee b6 07 be 94 66 9b be 27 ef d3 be
       0.35561454 -0.13253376 -0.30351698 -0.41393396
000240 38 ee 54 be 57 1f 7f 3e 63 21 ad 3e b7 40 91 3d
       -0.20793998 0.24914299 0.33814535 0.070924215
000250 5d 04 05 bf c6 dc 85 3e 7d 5f 54 be 57 61 08 3e
       -0.5195978 0.26145 -0.20739551 0.13318382
000260 23 83 ce be 1d f5 98 bd 2a 16 1c bf cf 29 a2 be
       -0.40334424 -0.07468627 -0.6097132 -0.31672522
000270 b0 8a e9 3d 92 24 fc bd fe d4 fd 3d 38 c2 d5 3e
       0.11403406 -0.12311663 0.12394141 0.4174974
000280 2c 44 86 3e 8a 8c e0 bd 59 6c 96 3d 47 92 3e be
       0.26223886 -0.10964306 0.073448844 -0.18610488
000290 1a b7 fe be de f3 6d 3d 30 14 68 bf 58 04 40 3d
       -0.4974907 0.058093898 -0.90655804 0.046879143
0002a0 a0 df d0 bd 2b e3 16 bf 73 41 0a 3f fb 30 a2 3e
       -0.10198903 -0.5894038 0.5400612 0.31677994
0002b0 14 bc 62 3f 18 da 55 be 8c de 61 bc 96 f2 9f 3e
       0.88568234 -0.20883977 -0.0137859695 0.31239766
0002c0 11 67 a8 bf dd 2f 6d be 3a 71 a7 bd 40 2e b6 be
       -1.3156453 -0.2316279 -0.08175893 -0.3558216
0002d0 3d 90 97 be 2b a0 c1 be 66 55 b2 be f6 e0 db 3e
       -0.29602233 -0.3781751 -0.3483078 0.4294507
0002e0 c0 c6 69 3e ff 43 39 3e f8 85 4c bd d6 e7 c2 be
       0.22829723 0.18092345 -0.04993245 -0.38067502
0002f0 cf 49 62 bd 26 b0 1f be 8a 63 0f be 81 02 e9 be
       -0.05524617 -0.15594539 -0.14002815 -0.45509723
000300 7d 24 86 3d aa 14 a4 3e 2d 87 46 bc f0 55 8f bc
       0.06549928 0.32047015 -0.012117189 -0.017497033
000310 f6 e1 50 be a8 6f 57 3d f7 a1 9b 3e d6 b4 9c 3e
       -0.20398697 0.052596718 0.30397007 0.30606717
000320 3a 3d 15 bd aa d4 03 3e b2 ef 63 bd fd f8 ba be
       -0.036435343 0.12874094 -0.055648513 -0.36518088
000330 5c 7e 90 3d 0d 2a d0 be 92 e1 68 3c 5f 75 73 3e
       0.07055351 -0.40657082 0.014213936 0.23775242
000340 8d 13 a6 be 94 4d 04 3e 22 7d 5e bd b0 05 09 bf
       -0.3243679 0.12920219 -0.054318555 -0.53524303
000350 a8 2d ac 3e ec 4f 1e be da ab d3 3e 91 ce fd 3d
       0.33628583 -0.15460175 0.4134205 0.12392915
000360 db ed 95 3e 10 f4 e7 be 49 7c 6f 3e aa 12 2e bf
       0.29283032 -0.45303392 0.23387255 -0.6799723
000370 86 94 1d 3e 39 7c dc be 57 cb cc be f4 b6 4e 3e
       0.15388688 -0.43063524 -0.39998886 0.20186979
000380 b0 07 e7 be ea 85 d2 3d 4a 55 80 3e 1b 2a 6e 3e
       -0.45123053 0.10279448 0.2506507 0.2325825
000390 08 38 07 bf d1 cf d2 3d 45 9f 9d be 39 1e 02 be
       -0.5281987 0.10293544 -0.30785576 -0.12706842
0003a0 9e b3 0b 3e 66 2d 87 3d 1b db f3 be 12 b5 84 be
       0.13642737 0.06600456 -0.47628102 -0.25919396
0003b0 31 2d 03 bf 5e d6 9a 3e ac ab 3b bf b9 bf 30 3f
       -0.5124083 0.30241674 -0.73308825 0.69042546
0003c0 95 0d 4e bf 73 67 d2 be 85 9c f4 be f6 0f 37 3e
       -0.80489475 -0.4109455 -0.47775665 0.17877182
0003d0 69 29 56 3e 01 5a d3 3e f6 4e 6a be 43 a6 ff 3e
       0.20914234 0.41279605 -0.22881684 0.49931535
0003e0 98 05 35 3c 73 1c 2c bd ff c7 21 bf 80 07 95 be
       0.011048697 -0.04201932 -0.63195795 -0.29107285
0003f0 13 49 03 3e f6 87 13 3f ec 0f a2 be d9 68 60 3c
       0.12820844 0.57629335 -0.31652772 0.013696873

gru.weight_hh_l0 f4 [192, 64]
000000 f2 93 27 3b ba f1 67 3e be bc b7 3e d5 ed 32 3f
       0.002557036 0.22650805 0.35886186 0.6989415
000010 ed 35 ab 3d df 39 1d be 4e 38 dd 3e b9 5c 0d 3e
       0.08359895 -0.15354107 0.4320702 0.13804902
000020 78 c6 2e bd aa ea 88 3e 0a 4a 4c 3e 7d d3 1e 3e
       -0.042669743 0.26741534 0.19950119 0.15510364
000030 39 b0 9d bd 26 75 55 3f 4a ec 87 3e ed de d2 3d
       -0.076996274 0.8338188 0.26547462 0.10296426
000040 28 3b 4d be 14 85 9a be f3 e5 17 3e 84 ff 8f 3e
       -0.20042098 -0.30179656 0.14833812 0.2812463
000050 21 53 2d 3d af 3c 78 3e 21 a2 23 be ae a1 c6 3d
       0.042315606 0.24241899 -0.15979816 0.09698807
000060 e3 50 08 3e 66 4a 2d 3e 6d 9c 33 3d 9c bf c0 bd
       0.13312106 0.16922912 0.04385035 -0.094115466
000070 d3 0d 15 be ab 93 71 3c 7c d0 df 3d af 2e 8e 3e
       -0.14556055 0.014744679 0.10928437 0.27769992
000080 e5 b2 ca 3e 11 56 de be 18 79 d2 be fd 0a 54 bf
       0.3958961 -0.43425038 -0.41108012 -0.82829267
000090 8b 7e 01 3e 93 8c 82 bd 1d d6 84 bc 6a c1 60 3e
       0.12645929 -0.06374469 -0.016215378 0.21948782
0000a0 59 72 f8 3d 35 a5 2c bd f7 50 f2 bb 55 7c 9f 3e
       0.12131185 -0.04214974 -0.0073949057 0.31149545
0000b0 91 06 7e 3e 5d f0 50 bd 07 91 d7 3d 88 df 07 be
       0.24807192 -0.05101048 0.10525709 -0.13268864
0000c0 e8 56 52 be 11 c7 ce bc bb 3c 48 be a1 b4 3c be
       -0.20540965 -0.025241407 -0.19554417 -0.1842828
0000d0 07 93 b0 3c 25 4f 38 be 92 bb 02 3e 77 18 bc 3e
       0.021554483 -0.17998941 0.12766865 0.36737415
0000e0 d0 ef b4 be 5d 36 56 be fe e9 5b 3f cc d5 09 bf
       -0.35339212 -0.20919175 0.8590392 -0.53841853
0000f0 a8 ef 39 3f b2 81 fb 3d 65 b7 88 39 3c 46 73 be
       0.7263131 0.12280597 0.0002607658 -0.23757261
000100 f8 56 26 3d d6 7f 61 3d 03 d8 f7 be ce be b7 bd
       0.040610284 0.055053554 -0.4840699 -0.0897194
000110 24 3b c5 3d 2a 4c ef bd 3c 8a ec bd dc 05 7b be
       0.09630421 -0.11684449 -0.115498036 -0.24513954
000120 0c 61 26 bd 7f 08 08 be bb 76 33 3e 61 aa 71 be
       -0.040619895 -0.13284491 0.17525761 -0.2360015
000130 3a d2 8c be 92 75 0d 3e 0d 85 d6 be 7c 9a c4 be
       -0.2750414 0.13814381 -0.41898385 -0.38399112
000140 41 f3 bf 3e ce 8a 99 3e d6 2a 3d be af ee 5d bd
       0.37490276 0.29988712 -0.18473372 -0.054182705
000150 86 51 4e be 4c 14 bb be 8c 2b a9 bd ec 89 3a 3e
       -0.20148286 -0.36538923 -0.08260259 0.18216676
000160 73 48 8a be bd da 28 3e 24 be e7 3d bb b5 e9 3e
       -0.270084 0.16489692 0.11315563 0.45646462
000170 c0 fc e2 be 6e f7 a0 3d cb 59 2f be 70 3c 4e bd
       -0.44333458 0.078596935 -0.17124097 -0.050350606
000180 b3 e4 e1 be 6f 75 e4 3d ae 69 b6 3e 87 5e 36 3e
       -0.44119796 0.11155211 0.35627502 0.17809497
000190 e9 8b 58 be bc a8 0d be aa 2e 9a be c6 2e 8b bd
       -0.21147121 -0.13833898 -0.30113727 -0.06796031
0001a0 15 2b aa 3e a1 f2 33 3d 22 6e 65 be 59 38 2e 3e
       0.33235994 0.04393256 -0.22405294 0.17013682
0001b0 0c 2f aa bd 2c 25 48 be f1 0b cb 3c 1b 16 b4 be
       -0.08309755 -0.1954543 0.024785968 -0.35173115
0001c0 e8 90 db be fd 0d 15 3e 57 40 68 be 09 7a 14 3f
       -0.42883992 0.14556117 -0.22680794 0.5799871
0001d0 66 de fb 3c d1 da 80 3d 01 fb ba 3d d5 e2 58 be
       0.030745696 0.06291736 0.091299064 -0.2118028
0001e0 a2 d3 61 3e 2a 50 5c bd 26 65 ad bd 48 d6 2d 3e
       0.22053388 -0.053787388 -0.08466558 0.16976273
0001f0 5e 6f 48 3e 97 d8 80 bd 36 aa 37 3e 17 2a c8 3d
       0.19573733 -0.06291311 0.17936024 0.09773653
000200 39 0f ce 3e 44 8b 8b 3d 00 70 38 be 77 09 a9 bc
       0.4024599 0.06813672 -0.18011475 -0.020634396
000210 6c 59 a5 3d 49 6e 4d be 79 8b 68 3e a9 51 25 3e
       0.080736965 -0.20061602 0.22709455 0.16144432
000220 e9 f2 67 3e dd 32 64 be 11 be 8a 3d a6 29 e1 3c
       0.22651257 -0.22285028 0.067745335 0.02748568
000230 2f ac f0 bd df 52 05 3e db 96 b4 bd d3 51 bc be
       -0.117515914 0.13019894 -0.08817836 -0.36781177
000240 60 2f a8 bb e3 6e 94 be b7 59 17 be a5 fb be 3e
       -0.0051326007 -0.2899085 -0.14780317 0.37301365
000250 18 83 d3 be 5f fe 07 bf 85 ef 14 3e 49 3e 4c bf
       -0.41310954 -0.53122514 0.14544494 -0.7978254
000260 97 9b ba bd 34 bf d6 3e 50 3f 3e 3e 29 7d aa bd
       -0.09111708 0.4194275 0.1857884 -0.08324654
000270 25 4b b2 3b c9 01 44 3c 96 68 d5 be 0b 26 a1 3e
       0.005441087 0.011963316 -0.41681355 0.31474337
000280 25 ca b8 3d 1c 78 ac be 41 e8 2e bf cc c1 a0 be
       0.09022931 -0.33685386 -0.6832314 -0.31397855
000290 47 96 fa 3d 24 b1 e4 3c f4 a2 df 3d 0b 0b c5 be
       0.122356944 0.027916498 0.10919753 -0.38484988
0002a0 40 6e 5f be 5c 15 27 bf 9a 9b d9 3e 87 e4 8d bd
       -0.21819401 -0.65266967 0.42501527 -0.06928354
0002b0 b5 4e 6b be 27 fe 91 3d c7 1b 1b be 6b 6f 71 be
       -0.22979243 0.07128554 -0.15147315 -0.23577659
0002c0 48 d8 82 be b1 01 90 be 10 86 da be 53 ea ce bd
       -0.25555634 -0.2812629 -0.42680407 -0.101032875
0002d0 cc 87 cd 3d b1 09 dd bd 63 a3 ed 3e d7 09 99 be
       0.10035667 -0.10792864 0.46413717 -0.2989032
0002e0 fe ae 3b be 0a 9f 3a bd 60 3b a7 bd f3 67 ea bc
       -0.18328473 -0.045561828 -0.08165622 -0.02861402
0002f0 a2 7b f2 3e 22 9c ad 3e 72 fa e4 3e c2 ae 8e 3d
       0.4735995 0.33908182 0.44722325 0.06966926
000300 3e bd 15 3e 60 d5 f7 3d c2 24 0a 3e 59 43 74 3e
       0.14622971 0.12101245 0.13490584 0.23853816
000310 7b 8e d6 be b5 4f 8b 3e d0 41 86 be 7f b2 72 be
       -0.4190558 0.2720925 -0.26222086 -0.23700903
000320 a1 c5 d5 3d e0 d0 9c 3d 4f 33 42 3d 0c 21 bb bc
       0.10438085 0.07657027 0.047412213 -0.022842906
000330 a6 a4 52 3d 67 47 a5 bc 4f 48 64 3e 60 c8 c0 3d
       0.051426552 -0.020175649 0.22293209 0.094132185
000340 1f f8 32 3d 29 4e 82 be ba 3f 5a 3e 35 71 08 be
       0.043693658 -0.25450256 0.21313372 -0.13324435
000350 ba 8f 00 bf 2e a7 e1 3d f1 20 11 3f 95 d9 04 be
       -0.5021931 0.11018215 0.5669089 -0.12973626
000360 63 3c 86 be 0a 05 8d be 0e 59 14 be 77 cd e8 3e
       -0.26217946 -0.27542907 -0.14487097 0.45469257
000370 5f b0 6b 3e 56 f8 ae be 63 71 29 3e aa 38 10 be
       0.23016499 -0.3417384 0.1654716 -0.14084116
000380 46 e9 99 be 2b 46 ab 3e c4 0b 17 be e4 19 df bc
       -0.30060786 0.3345197 -0.14750582 -0.027234025
000390 86 85 a9 3e 35 d1 18 bb 71 2f f9 3d 3b 18 f5 3e
       0.33109683 -0.0023318056 0.12167252 0.4787005
0003a0 9e 83 22 be a7 12 82 be e7 ab ac be ee f4 ee 3d
       -0.1587052 -0.25404856 -0.337249 0.116678104
0003b0 cc dc 35 bd 15 80 a8 be e4 df a7 be c1 b0 01 3c
       -0.04440002 -0.3291022 -0.32788002 0.007915677
0003c0 b5 12 a5 3e 47 13 02 3e e1 77 e3 3d e3 86 30 be
       0.32240835 0.12702666 0.111068495 -0.17238955
0003d0 35 00 2b be 88 58 c0 3e bb e9 9f 3e a1 3f b6 3d
       -0.16699298 0.37567544 0.3123301 0.08898855
0003e0 4d 1e 4e 3e c0 8c 25 3e f2 b8 f5 3e 3f 29 1d 3f
       0.20128746 0.16166973 0.47992665 0.6139106
0003f0 00 57 41 bc 85 91 a4 3b ab 48 5f 3e 53 a7 2e be
       -0.011800528 0.00502223 0.21805064 -0.17056017

gru.bias_ih_l0 f4 [192]
000000 a7 3e 0c 3c c6 89 0d 3d 8d 09 a3 bc 21 3d 48 bd
       0.008559859 0.03455522 -0.019902015 -0.048886422
000010 42 fa 58 3e 33 0a 63 3e 55 69 90 3e 22 f7 5e bb
       0.21189216 0.2217186 0.28205362 -0.0034021814
000020 52 c7 bb 3d ac a2 1a be 4a 8d e5 3c 18 18 e2 3d
       0.09168877 -0.15101117 0.028021473 0.11039752
000030 61 6f 3f bd bf a0 7b 3b 2d 9e f5 3d 79 cb 23 be
       -0.04673708 0.0038395373 0.1199306 -0.15995587
000040 76 2b ce bc 8b f7 aa be 4e 03 3e 3d 9a 68 56 3d
       -0.025167208 -0.33391985 0.04638987 0.05234585
000050 c1 63 38 be af 5c 24 3d a7 c8 e7 bd d1 d2 f5 ba
       -0.18006803 0.040127452 -0.11317568 -0.0018754845
000060 41 d5 9e bc cc 4b 0b 3d 5c ed 09 bd a8 b6 af 3b
       -0.019388797 0.034007832 -0.03367363 0.0053623505
000070 00 3c 84 3e c7 7d 48 be 8d c3 06 be bc e4 de 3d
       0.25827026 -0.1957923 -0.13160534 0.10883471
000080 56 53 71 3d a8 6e f1 3d 4a cc 2c bb 7a ce ca bd
       0.058917366 0.11788684 -0.0026366883 -0.099026635
000090 8e 2b 84 3e d4 32 9c 3c 33 a1 a2 3e e2 f1 a1 3d
       0.2581448 0.019067205 0.3176361 0.079074636
0000a0 17 e1 a8 bd 92 cc 9c 3e b2 83 8b bd 11 b9 34 3e
       -0.082460575 0.30624825 -0.06812228 0.17648722
0000b0 f0 63 7e 3d d8 e4 15 bd 8a fb 8e 3e 01 95 89 3e
       0.062107027 -0.036595196 0.27926284 0.26871493
0000c0 2b 4f 10 bd ba 54 35 3e 10 39 8c 3d 7d 2a 6d bd
       -0.03523175 0.17708102 0.06846821 -0.057901848
0000d0 25 a6 fa bd 02 86 cf bc 69 e5 b5 3e 1d fe f7 3d
       -0.12238721 -0.025332455 0.3552659 0.12109015
0000e0 a7 2c 1b 3e a9 3c 02 3e 75 a0 7a bc a5 43 3b 3d
       0.15153752 0.12718453 -0.015297045 0.045718808
0000f0 63 d5 d1 3c d0 dc 14 3e ec ba 26 3e 21 f6 10 be
       0.025614446 0.14537358 0.16282243 -0.1415639
000100 b0 55 e5 3e f8 7b 4e be 86 dd 8a bc 04 df f9 bc
       0.44791937 -0.20164478 -0.016951334 -0.03050185
000110 8b af a1 3d 62 7c b2 3e 50 f5 74 bd dc 84 d2 3d
       0.0789481 0.34860522 -0.05980426 0.10279247
000120 83 23 4e 3e d4 3c 9e 3e 7e 19 3c 3f 0e 39 d0 3e
       0.20130734 0.30905783 0.734764 0.4066853
000130 96 d6 82 be 3c 69 94 3e 7b db ca 3d 4b f5 9f 3d
       -0.2555434 0.28986537 0.09905144 0.07810458
000140 d7 e6 3f 3e 8d 55 2b 3e 3c 17 a0 3e bd d0 90 3d
       0.18740402 0.16731854 0.31267726 0.07071064
000150 7d c8 ed 3e 27 a4 d4 3e 36 40 8f 3e b0 d4 e4 3d
       0.46442023 0.41531488 0.27978677 0.111733794
000160 7e e2 a5 bd e4 fe 5a bd 05 b0 1f 3f 6a 39 17 be
       -0.080998406 -0.05346574 0.6237796 -0.14767995
000170 c9 b0 4d bd 37 82 64 3b 00 f4 9a bc 5d 6d b7 be
       -0.050217424 0.0034867653 -0.018915176 -0.35825625
000180 41 23 6b 3f 77 24 3a bd 4b 09 5e 3e f9 60 cd bd
       0.9185067 -0.04544493 0.21683232 -0.10028262
000190 96 45 c0 bc be 5f 04 3f d7 cb 71 be 24 f1 5e 3e
       -0.023470681 0.5170859 -0.23612915 0.21771675
0001a0 f3 d4 6a be cf 73 5f 3e 76 d3 01 3e b0 14 22 be
       -0.22932796 0.21821521 0.12678322 -0.15828204
0001b0 dc 27 2b bc a4 95 45 bd bd ce 7f bd a0 66 97 3e
       -0.010446515 -0.04823841 -0.06245302 0.29570484
0001c0 70 db 54 3f 3f a3 dc 3e 7f ff af be 5d 57 33 3f
       0.83147335 0.43093297 -0.34374616 0.7005518
0001d0 78 48 4f 3e f5 0b e9 bd e0 1a 01 bf 19 f9 89 3e
       0.20242488 -0.11379234 -0.50431633 0.2694786
0001e0 7e 85 7a 3d 6f 17 35 3d 8a 95 09 3e ee 96 8a 3e
       0.061162464 0.0442118 0.13435951 0.27068275
0001f0 2b dd 4b 3e a8 ab 0f be ee 41 7d be 45 f6 3b 3e
       0.19908588 -0.14030325 -0.24732181 0.18355663
000200 dc a8 fc 3d 6b 8a c9 3c 6d 93 bb 3d 23 43 df bd
       0.12336895 0.024602136 0.091589786 -0.10901477
000210 68 c6 24 3e 9e 2f 0f 3e 33 a0 f5 3d 79 b8 35 be
       0.16091311 0.13983008 0.11993446 -0.17746152
000220 88 66 01 3c da 31 09 bd 2f 8e 91 3d ed 42 07 be
       0.0078979805 -0.033494808 0.071071975 -0.13209124
000230 8f 4a 18 bd 81 7e e6 bd d2 c1 0e be 13 37 17 3d
       -0.03718048 -0.112545975 -0.13941124 0.036917757
000240 a9 1d 2b be f5 95 63 bd 6d 6b 7e 3d 0d 80 c5 3c
       -0.16710533 -0.055562932 0.062114168 0.024108911
000250 53 eb b3 3c 60 a0 ad 3d c9 7f 2b be bd dc 5b ba
       0.021962797 0.08477855 -0.16747965 -0.00083870796
000260 56 54 d5 bd c8 fd 31 bd 7d 91 14 bd f0 43 7a bc
       -0.104164764 -0.043454915 -0.03627156 -0.015274987
000270 ae 65 f0 bd f8 cf 19 3e bc 1a fc 3d 32 b8 b7 bd
       -0.11738144 0.1502074 0.12309787 -0.08970679
000280 3c dc fd bc 06 a7 18 3e 6f 70 31 3c 7d d6 36 3c
       -0.030988805 0.14907464 0.010830029 0.011159536
000290 06 13 50 bc f5 b7 04 3e 86 bc 13 be 3a 02 1e 3e
       -0.012699848 0.12960799 -0.14427385 0.15430537
0002a0 fb 4a 27 3e 18 ca 2a 3e 0c e6 83 3d 65 b9 3b be
       0.16337197 0.16678655 0.06440362 -0.18332441
0002b0 c8 f0 cb b8 29 6c cf 3b 81 ef 56 bb c5 b2 55 3b
       -9.724643e-05 0.0063300324 -0.0032796564 0.0032607776
0002c0 0e e2 df 3d cf 23 f6 bd 79 3e 16 3c bc 89 a2 3b
       0.109317884 -0.12018549 0.009170168 0.004960267
0002d0 b0 67 08 be b0 e0 a3 bd 61 38 01 be b7 d0 ea 3d
       -0.13320804 -0.0800184 -0.12619163 0.114655904
0002e0 ef 97 32 3d f7 94 31 be ee b0 57 bd 12 5c 47 bd
       0.043601926 -0.17341982 -0.052658968 -0.04867179
0002f0 ec f1 2c 3d 2c 54 8c be a1 f5 14 be c4 2a b0 3d
       0.042222902 -0.27407968 -0.14546825 0.08601907

gru.bias_hh_l0 f4 [192]
000000 97 a7 05 3e ef 55 12 3e a1 92 85 bd 87 3e 33 3d
       0.13052212 0.14290594 -0.06522108 0.043760803
000010 2e 67 81 3d 44 23 59 3d 4b 74 dc 3d 32 99 3b bc
       0.06318508 0.053012148 0.107643686 -0.011450099
000020 5e 35 9e bd 7c 18 2c be 71 af 0c 3c fd cd 92 3d
       -0.07725023 -0.16806215 0.00858675 0.071681954
000030 7a a2 95 3d 88 cb 7a 3c 3c 95 e8 3d eb 6f c7 bd
       0.073063806 0.015307315 0.11356589 -0.097381435
000040 4d be ec bd d3 39 a6 be d2 cd d3 bd 11 cb 9b 3d
       -0.115597345 -0.3246599 -0.103419915 0.07607091
000050 39 a0 fd bd 4e a1 b4 3d 2b 29 d1 3c 48 18 91 3d
       -0.12384076 0.08819829 0.025532326 0.070847094
000060 1f 62 b4 bd 94 18 6e 3d e4 01 c0 ba 49 51 e4 3d
       -0.088077776 0.05812891 -0.0014649001 0.111483164
000070 89 fd 17 3e ae 5e 0c be 5c b2 fb 3c fc 2a 9e 3d
       0.1484281 -0.13707992 0.030724697 0.07723042
000080 3b 3d f6 3d 9c ac 2b 3c 31 8d 99 bd a7 79 a6 bd
       0.120233975 0.010478165 -0.07497633 -0.08128672
000090 f5 3d 7b 3e eb f0 80 3d 3a 5c 96 3e ce 38 bc ba
       0.24535353 0.062959515 0.29367238 -0.0014360191
0000a0 73 e7 54 be e8 bd 51 3e 7c 46 22 3c 38 cc 3a 3e
       -0.20791416 0.204826 0.0099045 0.18241966
0000b0 94 b3 49 3e 68 c7 5a 3c 5d be 1d 3e 50 99 b4 3d
       0.1969741 0.013353206 0.15404649 0.088183045
0000c0 3e 11 ab 3a c7 60 f1 3d ec ef e7 3d 50 59 c7 bc
       0.0013051403 0.11786037 0.11325058 -0.02433458
0000d0 88 6c 68 3c f2 97 da 3d cd 45 8a 3e e1 09 ab 3c
       0.014186032 0.106735125 0.2700638 0.020878734
0000e0 c0 7f 8d 3a 5f 49 c0 3d e8 d3 28 be 82 b2 0e be
       0.0010795519 0.093889944 -0.16487086 -0.13935283
0000f0 e1 0a 2f 3d e6 34 02 3e 12 dd a7 3c ce 19 d6 bd
       0.042734984 0.12715492 0.020491157 -0.104541406
000100 77 db e1 3e 2c 6f 86 be 7e 05 09 3d f4 d8 31 3e
       0.4411275 -0.26256692 0.033452503 0.17367917
000110 fe c9 78 3d 73 d4 e3 3e 08 0f 28 bb 9d 10 1d 3e
       0.06073951 0.44498023 -0.0025643725 0.15338369
000120 aa 25 b5 3c 6f 4b a8 3e 87 ee 46 3f ce 63 f5 3e
       0.022112686 0.3287005 0.77707714 0.47927707
000130 ea 48 88 be 0f cd 30 3e 5a e6 cd bd 4a 0d 22 3e
       -0.2661813 0.17265724 -0.10053702 0.15825382
000140 fa 33 6e 3e 5a 18 2b 3e b3 c9 8c 3e dd 1e 8e 3c
       0.23262015 0.16708508 0.27497634 0.017348701
000150 74 2f f8 3e 41 59 a5 3e 72 ae 95 3e 1b e6 2c 3d
       0.48473704 0.32294658 0.29234654 0.042211633
000160 d8 d6 b2 3d 02 3e 4a be fe c3 26 3f c2 08 82 be
       0.087323844 -0.19750217 0.6514281 -0.25397307
000170 ef b3 09 be e6 08 d4 3c 4c 15 44 be da 64 6b be
       -0.13447545 0.02588315 -0.19148749 -0.2298769
000180 cf 45 5d 3f 1b f0 1b bd 46 bf bf 3d d4 7d 72 bd
       0.86434644 -0.03807078 0.093626544 -0.05920203
000190 42 74 cd ba db 29 1e 3f ac f4 4a be 39 97 07 3e
       -0.0015674906 0.61782616 -0.19819897 0.1324128
0001a0 62 c8 0a be b1 ec 4e 3e be 49 8d 3e 20 be 50 be
       -0.13553002 0.20207478 0.27595323 -0.20385027
0001b0 d3 99 c3 bd ab 47 ad 3c a8 75 41 bd 91 90 dd 3e
       -0.09550824 0.021152338 -0.047231346 0.43274358
0001c0 fb c7 50 3f 37 9d ae 3e 71 43 56 be 82 d9 4e 3f
       0.81555146 0.3410432 -0.20924164 0.8080064
0001d0 7d 1d 94 3c 44 e6 53 bd 69 c5 00 bf 2e 8d c7 3d
       0.018080467 -0.05173327 -0.50301224 0.09743725
0001e0 7d 5d d3 3d 04 87 df bd c4 e9 ac bc e7 42 1c 3e
       0.10320566 -0.10914424 -0.021107562 0.15259896
0001f0 7f 6d b7 3e 9d 07 3c be 83 2c 39 be 50 f3 0b 3e
       0.35825726 -0.18362279 -0.18083386 0.13667035
000200 5e 75 12 3e 86 73 3c 3e 3b 1c 92 3c d1 d6 58 be
       0.14302585 0.18403444 0.017835727 -0.21175696
000210 52 a7 11 3e fd b5 39 bd 45 4e 00 3e 25 13 8a bd
       0.14223984 -0.045339573 0.12529857 -0.06741933
000220 00 26 e5 3d 47 cd 39 3c c9 cf 78 3d 71 b6 a1 3d
       0.111888885 0.011340446 0.060745034 0.07896126
000230 7c d8 0d be 7c b6 bf 3d cf f4 c5 3c 5c fd 0e 3d
       -0.13852113 0.09360978 0.024164585 0.03490959
000240 e1 a8 d0 bd 73 d5 a1 3c 46 c2 8a bd d1 88 4c 3e
       -0.10188461 0.0197551 -0.06775336 0.19974066
000250 1f b6 f3 bd 0a 8c f4 3c 9f b3 6f bd 33 a2 11 3e
       -0.11899971 0.029851932 -0.05852091 0.1422203
000260 5f a1 88 3d f6 b4 0f 3e 29 a7 5b 3d c7 86 5f be
       0.06671404 0.14033875 0.053626213 -0.21828757
000270 c1 64 23 be 2c 74 b6 3d 1f ec 4f bc c6 d9 4c 3d
       -0.15956403 0.08908877 -0.012690573 0.050012372
000280 98 62 07 3e 3a b7 63 bd be 73 c6 bd 6f 22 ac 3d
       0.13221204 -0.05559466 -0.09690045 0.08405005
000290 f4 97 ac bd 97 62 ba 3d 1f 4d 4e be c9 cb e5 3c
       -0.0842742 0.09100836 -0.20146607 0.028051274
0002a0 e9 04 2a 3e 73 c2 e8 3d dc e9 16 3d 18 35 86 be
       0.16603436 0.11365213 0.03684412 -0.26212382
0002b0 ae 4b 00 be da d7 26 3d ec 9a 5d 3e 10 03 89 bd
       -0.1252887 0.040733196 0.2164113 -0.06690037
0002c0 9a f7 00 bd 31 cc dd 3d 97 60 43 bd 1f 9c 6a bc
       -0.03148613 0.10829962 -0.047699537 -0.014319449
0002d0 86 9d aa bd 94 d2 0b 3d a2 02 c2 bd 80 0f a3 3b
       -0.083308265 0.03413637 -0.094731584 0.004976213
0002e0 10 5e 80 bd fe d3 91 bd ed e1 c4 bd 22 e8 4a 3e
       -0.06267941 -0.071205124 -0.096134044 0.19815114
0002f0 24 5e 7e bd d6 86 5c be 1f cd 00 be e1 68 b1 3d
       -0.0621015 -0.21535811 -0.12578247 0.08662582

gru.weight_ih_l0_reverse f4 [192, 6]
000000 d1 9a 28 3e 9d 72 cc 3d 1c cd e8 be 58 96 15 3e
       0.16465308 0.09982798 -0.45468986 0.14608133
000010 15 ee 7b be 3a d6 40 be c7 e8 ed be 09 9f 90 bd
       -0.2460254 -0.18831721 -0.46466658 -0.070615835
000020 fb bb a9 bd a0 b3 9a 3e f7 7c 74 bd d8 6a 22 be
       -0.082878076 0.30215168 -0.05968949 -0.1586107
000030 11 2a 7d be db bf 39 3d 1b 25 85 be 1e a6 f1 3e
       -0.24723078 0.045348983 -0.26004872 0.4719705
000040 7d 32 19 3b 34 af 7c be de d6 88 3a 51 c4 c7 3d
       0.002337604 -0.2467621 0.0010440012 0.09754241
000050 ae 26 e8 39 b5 5a e4 3e 5b 15 e6 be 26 53 5d 3e
       0.00044279307 0.44600454 -0.44938168 0.2161375
000060 c9 13 72 be 51 bd c2 bd 34 94 77 be 20 b9 95 3e
       -0.2364036 -0.095087655 -0.24177629 0.29242802
000070 39 9f e4 3e 13 52 d2 3e 36 28 9f 3d 19 84 b9 3e
       0.44652727 0.41078243 0.077713415 0.36233595
000080 d9 31 b7 3d 37 d0 ef 3e b0 d6 03 3e 3f b4 06 3d
       0.089450546 0.46838543 0.12874866 0.03288674
000090 e0 73 1d 3e 60 12 ca be 5d 75 36 3e 0b cb 62 3c
       0.15376234 -0.39467144 0.17818208 0.0138423545
0000a0 90 70 1e 3f 94 ce 18 3e c7 83 d7 3d 99 76 49 be
       0.61890507 0.14922553 0.105231814 -0.19674148
0000b0 fa 83 b9 be e6 27 20 3f 32 bf a5 3e dd 4e cc 3d
       -0.36233503 0.6256088 0.32372433 0.099759795
0000c0 1f d4 f6 be 0a 34 01 bf be 13 82 3d 40 99 b7 3d
       -0.4820871 -0.5047003 0.06351422 0.08964777
0000d0 a8 d4 88 3e 0c ad 65 bd 55 ea 00 3f 12 ba 53 be
       0.26724744 -0.056073233 0.5035756 -0.20676449
0000e0 ba 70 be 3e e6 b5 3e be cf fa a8 be a9 96 99 3d
       0.3719538 -0.18624076 -0.33003852 0.07499439
0000f0 fe 9b 47 3e a9 a3 a4 bd 3f d1 d2 3e 75 f2 3a 3d
       0.194931 -0.08039028 0.41175267 0.04564138
000100 13 d2 04 bf 1d 44 a3 bd 52 9e 93 3e 5f 31 82 bd
       -0.5188305 -0.07971976 0.28831726 -0.06357073
000110 87 63 9e 3e f2 da 0c 3f 81 fb 26 3f 3f 2c 34 3f
       0.30935308 0.55021584 0.65227515 0.70380014
000120 29 a8 76 3d a4 23 7a be 68 ec 7b be e2 a3 8c be
       0.060218964 -0.24427658 -0.246019 -0.27468783
000130 7a 46 1a 3e 4e 44 18 bf 55 87 a3 3e df a0 a9 3e
       0.15065947 -0.59479225 0.31939188 0.33130547
000140 46 fa 52 3e c1 02 05 3e b8 8b 1a be b2 db c4 3e
       0.20603284 0.12989332 -0.15092361 0.38448864
000150 90 c6 b2 be c5 8b cc 3e 36 66 67 be 59 2a 64 3f
       -0.34917116 0.39950386 -0.22597584 0.8912712
000160 8a 52 91 3e 57 4a 19 3e 90 55 53 3e fb 9f 14 be
       0.28383285 0.14969765 0.20638108 -0.14514153
000170 ed 1d e2 3e 44 7d 5e 3e af 89 63 3e a8 11 26 3e
       0.44163457 0.21727473 0.22220491 0.16217673
000180 e8 ba 2e 3d 79 09 86 be 83 64 c1 3e c9 5b c9 3d
       0.042658716 -0.26179102 0.37771997 0.0983196
000190 4b 0a 72 3d c9 09 9b be 93 b8 4d be 54 95 8b be
       0.059091847 -0.30280903 -0.2008994 -0.27262366
0001a0 70 3b 5f be 8c c3 87 3d 1f c5 34 3f 51 d8 aa 3a
       -0.21800017 0.066290945 0.7061328 0.0013034438
0001b0 1b 32 af 3e 9f 4c 76 3e cc d0 37 3e e4 bd 97 3e
       0.34217915 0.24052666 0.17950743 0.29637063
0001c0 98 88 ee 3e 22 d3 d2 bc d6 50 b7 3e da f2 86 bd
       0.46588588 -0.025735442 0.3580386 -0.06589289
0001d0 93 b2 ab bd c0 2f 2f 3e 1c 6e b9 3e b1 b2 85 be
       -0.0838367 0.17108059 0.3621682 -0.26112893
0001e0 b7 55 8f bd b5 97 b9 3e ad 47 d7 be b7 f4 ef 3d
       -0.06998771 0.36248556 -0.42046872 0.117165975
0001f0 50 c1 bd 3e 42 ca 41 be fe 4b 8b be 7d 87 c7 bd
       0.37061548 -0.18924811 -0.27206415 -0.09742639
000200 fa 8a ac 3e b9 e3 c9 3e 67 bf 2f 3c bc 2f 44 bc
       0.3369978 0.3943155 0.010726786 -0.011974271
000210 91 8b 84 be f1 3a 0f bd c7 8e 1e 3b cc a7 5a 3f
       -0.2588773 -0.03496832 0.0024193989 0.8541229
000220 ef 08 5d 3f 39 2c 8b 3e 9b 0a 3c bc 2a 36 01 bc
       0.86341757 0.27182177 -0.011477138 -0.007886449
000230 9b 9d bb be 72 a5 81 bf 95 d0 04 3e df 3a 1b bf
       -0.3664368 -1.0128615 0.12970193 -0.60636705
000240 a4 42 01 bf ee 5c 1c 3e 0e 96 63 bf c1 41 91 bd
       -0.5049231 0.15269825 -0.8890084 -0.0709262
000250 f5 91 e5 3e e1 bf 92 be b5 ce 99 3e 11 57 37 bf
       0.4483792 -0.28662017 0.30040517 -0.7161723
000260 00 1e 18 3f 9b b2 9d 3d a0 3b ab bd 72 35 8c be
       0.59420776 0.07700082 -0.08360982 -0.27384526
000270 8c 43 85 be 01 c7 cc be c8 aa 90 be 19 b9 d4 bc
       -0.26028097 -0.39995578 -0.28255296 -0.025967168
000280 31 15 0e be 26 63 be 3d aa 27 c2 3e bf 2a 24 3f
       -0.13875271 0.09296255 0.37920886 0.64127725
000290 9e 15 dd 3e 0d 7c 93 3e 44 88 93 3e a7 57 04 3b
       0.43180555 0.2880558 0.288149 0.0020193846
0002a0 ef ae ad 3e 39 d1 85 3e bc 32 3c 3e fa 05 78 3d
       0.33922526 0.26136187 0.18378729 0.060552575
0002b0 df db 88 be 7a d1 83 3e 7c 97 a3 3c a1 04 21 bf
       -0.26730248 0.25745755 0.019969694 -0.6289769
0002c0 97 bd 55 bf 25 cc 33 be 69 ee ce 3d f0 66 13 be
       -0.83492416 -0.17558344 0.10104067 -0.14394736
0002d0 e1 9f 06 be 41 d5 e5 3c c0 da 8d bf 34 c6 95 3e
       -0.13146926 0.028055789 -1.1082382 0.2925278
0002e0 ef c0 89 be 09 56 88 3e 4a b2 bf 3e bf a3 e2 3d
       -0.2690501 0.2662814 0.3744071 0.11066388
0002f0 c0 e9 66 be c8 90 be be 30 18 c4 be 64 ad 5d 3d
       -0.22550106 -0.37219834 -0.38299704 0.054120436
000300 cc 79 bf bd b3 4d 5c be 8b cf ac bd 14 6f a2 3e
       -0.09349403 -0.21514015 -0.08438023 0.3172537
000310 bb 8a f0 3e b0 8a 81 3e ab 13 4f 3d 9f 0b a9 3e
       0.46980843 0.25301123 0.050555866 0.3301668
000320 d3 b2 d0 be 48 83 ac be fa ea 44 bc ba a8 c0 be
       -0.40761432 -0.3369391 -0.012018913 -0.37628728
000330 0e dc 6b be c6 f0 9b 3e 7e 9d 38 3e f1 e5 c0 3e
       -0.23033163 0.30457133 0.18028829 0.3767543
000340 f7 31 47 3e 62 d5 f6 3e 6d bf 24 3f c8 25 1a bd
       0.19452654 0.48209673 0.6435459 -0.037633687
000350 ec 19 da 3e 92 f1 3f 3e cf 3c c3 3d 2c 1b 1f 3e
       0.42597902 0.18744496 0.09533083 0.15537709
000360 c3 ab 98 3c 8a 98 59 be 65 0e 82 3b e5 54 2c 3f
       0.01863659 -0.21249595 0.003969001 0.6731704
000370 0a 8b 07 3f 0f c8 f4 bb 68 91 b9 bd 38 30 26 3e
       0.5294653 -0.007470138 -0.09060937 0.16229331
000380 69 ee 87 3e a7 39 f3 3d 27 ed 7e bf b9 ad ab 3c
       0.2654908 0.11876231 -0.99580616 0.02095686
000390 1f 4e 4b 3e 48 03 8b 3e 6e 30 a8 bd 7d 64 d0 3e
       0.1985402 0.2715094 -0.08212362 0.40701666
0003a0 61 18 91 3d 23 58 13 3e 1d 35 b5 3e 4c 3d e9 be
       0.07084728 0.1438909 0.35392085 -0.45554578
0003b0 31 c0 1a be c5 e6 3e be 25 cb 06 3f c7 db 69 be
       -0.15112378 -0.18642719 0.52653724 -0.22837745
0003c0 56 8a 08 3d c3 63 9e bd ca c5 ed 3e 0c 16 b9 3e
       0.033335052 -0.07733872 0.46439964 0.36149633
0003d0 19 4f 36 be cf e1 56 3e f5 e4 d4 be bd 71 0d bf
       -0.17803611 0.20984577 -0.4158093 -0.55251676
0003e0 3d 90 03 bf cc 01 1b be 40 1f aa bc a0 66 92 be
       -0.51391965 -0.15137404 -0.020766854 -0.28593922
0003f0 af 42 9f 3d e7 02 0b bf da b6 a6 bc 6c 2a 4e 3e
       0.07776391 -0.54301304 -0.020350862 0.2013337

gru.weight_hh_l0_reverse f4 [192, 64]
000000 7c ad fa 3d be ce d5 bc 4e ca 23 be a6 1b 78 be
       0.12240121 -0.026099559 -0.15995142 -0.24229297
000010 5e ac 0e 3d e0 52 fb 3d 34 1a f5 3d ae a0 58 3d
       0.03483235 0.122716665 0.119678885 0.05288761
000020 64 38 47 3e d6 65 19 3e 91 59 97 be 90 e4 3a 3d
       0.19455105 0.14980254 -0.2956052 0.04562813
000030 da 8e 8f bd b1 c3 31 3e f0 0e 7c 3e db bb 16 be
       -0.07009669 0.17359807 0.24615073 -0.14720099
000040 4f 65 a7 be 26 c1 a8 3e 23 d0 1a 3e 90 45 a4 bd
       -0.3269448 0.3295986 0.1511846 -0.080210805
000050 e4 37 ac 3d 28 ac 69 3e 0f 53 07 bd 71 3a 2b bd
       0.08409098 0.22819579 -0.033038195 -0.04180378
000060 23 5d 1b be c9 51 c9 be f7 80 83 be 7d c1 e3 3d
       -0.15172248 -0.3932021 -0.2568433 0.11120889
000070 3d df a0 3d e8 02 6c 3e bb 76 cb 3e ea fb 20 be
       0.07855079 0.23047984 0.39739022 -0.15721098
000080 c9 19 b2 3d c7 25 28 be 67 e1 bf 3b d8 c7 ad bc
       0.086963244 -0.16420661 0.0058557275 -0.021213457
000090 8b 19 0b 3c 35 db 8a be 3d f5 cf 3b 37 23 e5 bc
       0.008489977 -0.27120367 0.0063463734 -0.027970893
0000a0 17 65 72 3c 03 93 65 3e d0 c9 4c bd 50 a1 89 3b
       0.0147946095 0.22419362 -0.04999715 0.004200138
0000b0 ff f0 4a 3d bd 20 3f 3c 93 4f 23 3d 50 75 c9 bd
       0.049546238 0.01166552 0.03987081 -0.09836829
0000c0 0d a4 d4 3c 94 20 14 3e 27 e5 bd 3e b1 c6 b6 3e
       0.025957132 0.14465553 0.37088892 0.35698465
0000d0 af 7a 3a bd f9 cd 8a 3e d3 b2 34 3e e3 d8 44 be
       -0.045527156 0.2711027 0.17646341 -0.1922336
0000e0 93 9b 48 3d 67 97 57 3e 89 36 38 be 5e ad ea 3c
       0.048976492 0.21053849 -0.17989554 0.028647121
0000f0 f9 aa 08 be 6d 8a cc 3e ab 16 89 3e 10 23 f6 bc
       -0.13346471 0.3994936 0.26775107 -0.030046016
000100 9e 37 48 bf 2d c2 fd 3d 79 f7 d0 3e f2 02 9f 3d
       -0.78209865 0.12390552 0.40813807 0.07764234
000110 5d 1e 36 be 20 0e 21 3d 1c e5 03 3e fc 8b a1 bd
       -0.1778502 0.03932011 0.12880367 -0.07888028
000120 95 46 b4 be 4a 29 57 be d7 47 3f 3d 83 a2 4c 3e
       -0.352101 -0.21011844 0.04669937 0.19983868
000130 30 51 02 3e 38 c6 db be bc aa e7 bd 20 f8 c7 be
       0.12726283 -0.42924666 -0.11311862 -0.39056492
000140 db c4 25 3e c7 f5 fc bd 0c 06 65 be 94 04 33 bd
       0.16188376 -0.12351566 -0.22365588 -0.043705538
000150 5e ff bc 3e a7 55 d5 be 2c 64 8d 3d d0 68 ce 3e
       0.3691358 -0.4166691 0.06903872 0.4031434
000160 57 e6 f6 3d 59 73 4f be dc 8a 46 be 14 00 08 bf
       0.120556526 -0.20258845 -0.19388908 -0.5312512
000170 5a 8e 95 bd 22 62 72 bd 15 17 b9 3d 01 50 99 3e
       -0.07302542 -0.059175618 0.09037606 0.2994385
000180 75 db b6 be 37 79 d2 3e 07 12 a3 3e 6e 4a 1c 3e
       -0.35714307 0.41108105 0.3184969 0.15262768
000190 79 fd 55 3e 45 78 c9 3e 6a 03 3b be bb d9 9c 3d
       0.20897473 0.3934957 -0.18263021 0.07658716
0001a0 e4 ca c2 3e b3 c1 c1 bd 86 6e b0 bd 30 4d 22 3e
       0.38045418 -0.09460773 -0.08614831 0.15849757
0001b0 ce 7e 71 be 05 e2 ef 3d b6 a5 66 be 57 2a 76 bf
       -0.23583528 0.11713032 -0.22524151 -0.96158355
0001c0 bc 4d 21 bf 2b cb 8b be 19 b1 38 3c d7 ae 8b be
       -0.6300924 -0.27303442 0.011272692 -0.2728183
0001d0 7d 42 b5 bc 86 24 d6 be 60 0a 62 3e b0 81 34 3e
       -0.02212643 -0.4182474 0.2207427 0.17627597
0001e0 58 fc 75 be a9 6d 11 be c0 34 45 3e f1 94 e9 3e
       -0.24022043 -0.14201988 0.19258404 0.45621446
0001f0 25 1a 65 3e e5 b8 de bd 9b d4 31 be 39 c5 a2 3d
       0.22373255 -0.108751096 -0.17366259 0.079477735
000200 67 8c 8c be ad dc 5c be 80 a9 8a 3d 2b 42 b0 3e
       -0.27450868 -0.21568556 0.06770611 0.34425482
000210 e8 34 86 3d 37 60 7e 3e 60 49 81 3e 72 73 05 bd
       0.0655306 0.2484139 0.25251293 -0.0325808
000220 77 ce dc bd 5f 76 6b 3e d9 20 10 bd cd 9f 2d 3f
       -0.107815675 0.22994374 -0.035187576 0.6782196
000230 0b 53 07 3f 08 2b da be f2 7c 45 3c 67 95 12 bf
       0.5286109 -0.42610955 0.012053715 -0.5725922
000240 c1 5e 16 3e d5 4c cf ba 4c e9 c8 3e 68 53 21 3e
       0.14684583 -0.0015815744 0.3924049 0.15754473
000250 e6 f1 3a bd 24 70 e6 be 8c 9a d3 bd e7 39 8d be
       -0.04564085 -0.45007432 -0.10332212 -0.27583238
000260 23 79 1c 3d a0 ae 94 bd b7 99 0a 3e f7 e5 65 be
       0.038201462 -0.072598696 0.135352 -0.22451006
000270 f1 cf 75 be 50 62 6a 3e 49 7b 78 3e 9f ee e8 bc
       -0.24005105 0.22889066 0.2426578 -0.028434096
000280 8a ee 95 be 4e cb 7c 3c f3 2a a4 be e3 7d c1 3c
       -0.29283553 0.015429331 -0.32064018 0.023619598
000290 13 c0 2a bd e2 05 96 3d af 97 fa bd 5f f3 8b bf
       -0.041687082 0.07325341 -0.122359626 -1.0933646
0002a0 bb 29 85 3e 51 32 58 be 32 5d 21 3d b3 df 05 3f
       0.260084 -0.21112944 0.03939552 0.5229446
0002b0 cc 6a 0e bf 75 e9 a9 3e 52 64 df bd 83 26 b5 be
       -0.5563171 0.33185926 -0.109078065 -0.35380945
0002c0 ae 79 a9 bd d7 c5 0d 3f 77 cc 9f bd 72 ba 81 be
       -0.08275162 0.55380005 -0.078026704 -0.2533756
0002d0 61 28 6f 3d d1 f7 5b bb 39 55 fd bd c1 f9 10 3e
       0.058388118 -0.0033564458 -0.123697706 0.14157774
0002e0 46 f0 fc 3d 20 b1 c7 3b 32 cc 58 3e 81 ec 93 bd
       0.12350516 0.006094113 0.21171644 -0.07222844
0002f0 46 d9 13 bf e1 9f 27 3f fe 98 36 3e 6e 9a 6c bd
       -0.5775341 0.6547833 0.178318 -0.057764463
000300 46 12 b5 be 60 1c 82 be 2c 93 02 3f 8b a6 98 3e
       -0.35365504 -0.25412273 0.51005816 0.29814562
000310 7a 1f bb bd 52 6e c4 3d f9 27 40 be f8 2d de 3c
       -0.09136863 0.095913544 -0.18765248 0.027121529
000320 a6 9d 59 be e0 96 d3 3d 30 13 53 3e 57 b1 97 3e
       -0.21251544 0.103315115 0.20612788 0.29627487
000330 4a 42 29 3e 88 cf 5e 3e a1 5d 94 3c 1e 67 24 3d
       0.16529194 0.21758854 0.018111052 0.040137403
000340 1a a1 95 be f2 ff 41 be 18 77 1a be 3f 9f ab 3e
       -0.29224473 -0.18945292 -0.15084493 0.33519933
000350 01 67 c4 bb c8 5a 9c 3a 15 64 e9 bc 59 83 82 3e
       -0.0059937243 0.001192891 -0.028490106 0.25490835
000360 5e 56 ba bd 4a ce 5e bc b6 66 8c 3c ba 69 27 3e
       -0.090985045 -0.013598988 0.01713882 0.16348925
000370 be 5f af bc 47 d5 8e bd 2c 3f b9 ba 10 a4 24 3e
       -0.021407958 -0.06974273 -0.0014133207 0.1607821
000380 64 3c 11 be ad bd 52 be f3 dd e4 bd 6a c8 d8 bd
       -0.14183193 -0.20580168 -0.11175146 -0.10585101
000390 04 53 fd bd b8 a6 93 be 0b a6 8f 3b 7e a3 14 be
       -0.123693496 -0.28838134 0.0043838075 -0.14515492
0003a0 0e 1f ce 3d 21 72 44 bc 2f 1f c4 bd 56 64 b0 3e
       0.10064517 -0.011990101 -0.0957626 0.3445155
0003b0 b8 cf 2a 3e 03 94 5e bd 29 65 81 bd d2 66 f5 3d
       0.16680801 -0.054340374 -0.06318123 0.11982502
0003c0 88 5a c2 3e a7 15 64 3d d3 e5 01 be 46 8d 09 be
       0.37959695 0.05568471 -0.12685327 -0.13432798
0003d0 de 90 a9 be 51 fc d2 bb 5e 54 42 3e b2 8c 8a bd
       -0.33118337 -0.00643877 0.18977496 -0.06765117
0003e0 d8 4a 24 bd 2f 9e 2f 3e d8 b7 37 be 92 48 6c 3d
       -0.04011044 0.17150186 -0.17941225 0.057686396
0003f0 d9 30 54 be 6c 23 f1 3b 94 3e 97 bd dc cd 18 be
       -0.20721759 0.007358959 -0.07384983 -0.14922279

gru.bias_ih_l0_reverse f4 [192]
000000 56 51 a7 bc 07 1a d9 3d 16 c2 89 bd 08 cd 1e 3e
       -0.020424526 0.106006674 -0.06726472 0.155079
000010 94 90 c9 3e e5 c0 e2 3d 3f 8b e8 3d 39 73 28 3d
       0.39368117 0.11071948 0.11354684 0.04112551
000020 87 5d e7 be 4e 16 a6 3e a5 37 c4 3d 60 3a c5 bd
       -0.45188543 0.32438892 0.09580926 -0.09630275
000030 f0 af 23 3d 3d fb 9b 3d 32 9c 02 3d f7 db ca 3e
       0.03996271 0.07616279 0.03188724 0.39620945
000040 1e 80 ad bd 28 58 a9 3d 81 79 19 bc d6 93 8b 3e
       -0.08471702 0.082687676 -0.009367348 0.27261227
000050 00 a2 27 3c f6 67 71 3e 42 9a 42 3d 14 f0 b6 bd
       0.010231495 0.23574814 0.047510393 -0.0893251
000060 4a d9 c7 bc 02 26 32 3e 2e 87 2c 3e ab 6b 77 3b
       -0.024395604 0.17397311 0.16848442 0.0037753384
000070 a2 73 14 3d 57 34 f1 3d 2c 74 01 3e 1b bd f1 3d
       0.03624309 0.11777561 0.12641972 0.11803647
000080 b1 b8 ee bd a5 e7 a5 bc ad eb ab 3d 67 f1 07 3e
       -0.11656321 -0.020252058 0.08394561 0.13275681
000090 3a ee 0c 3e ce 37 66 3d df 6e b9 bd 20 af a9 3e
       0.13762751 0.056205563 -0.0905435 0.33141422
0000a0 97 23 4a 3e 7a 20 21 be 32 12 ea bd 9e 2c a1 3e
       0.19740139 -0.15735045 -0.11429252 0.31479353
0000b0 0f 55 89 3e 16 6d 5e 3e db c9 99 bc a4 06 1e 3e
       0.26822707 0.217213 -0.01877301 0.1543222
0000c0 5e be 0d 3e 6d 9d d1 3d c5 7b 0f 3d 4e 7f 2e 3d
       0.1384215 0.10235105 0.035030145 0.042601876
0000d0 65 33 eb bd 00 1e 7f 3c 84 b8 b6 bd 18 ec 8c 3e
       -0.11484412 0.015571117 -0.08921912 0.27523875
0000e0 d9 e7 0c 3e bd 3b f5 3e f0 e8 fd 3c 33 56 c2 3e
       0.13760318 0.4789714 0.030994862 0.3795639
0000f0 78 d9 01 3e 87 b3 01 bd 86 49 3f 3e 6d 5c 18 3d
       0.12680614 -0.03166535 0.1868039 0.03719752
000100 87 77 aa 3e 14 46 ba 3d cd e8 02 be 22 ca e9 3e
       0.33294317 0.090953976 -0.12784119 0.45662028
000110 44 6b 1e be a8 3c 35 3c fc 84 d7 3e 52 fc 0d 3e
       -0.15470606 0.011061825 0.42093647 0.13865784
000120 6b fe b3 3e 38 db 29 3e bf 0f b8 3e 9a 09 a0 3e
       0.35155043 0.16587532 0.35949513 0.31257325
000130 ba f9 32 3f 3f a1 1d 3f 0c c4 3d 3e e1 07 8c bd
       0.699123 0.61574167 0.18531817 -0.0683744
000140 f4 94 19 be 6b 0a e1 3d 4b 3c 7e 3e d5 b4 b3 3d
       -0.14998227 0.10988315 0.24827687 0.08774725
000150 a8 f9 da be 5f 11 b2 3e 9a 72 b5 3d d4 07 63 be
       -0.42768598 0.34778878 0.08859749 -0.22170955
000160 44 7f 47 bc d9 dc e9 bd 6a 2f 6b bc ad ab 15 be
       -0.012176339 -0.114190765 -0.014354566 -0.1461627
000170 b4 dc 00 3e 17 98 8c bc 63 29 83 bd 80 72 b3 3e
       0.12584192 -0.017162366 -0.06404378 0.35048294
000180 41 78 48 3d c8 71 03 be 78 5c b0 bd d2 0d 1d 3e
       0.048942808 -0.12836373 -0.08611387 0.15337303
000190 b9 93 2a 3d 67 0f bf bd 4c 03 d0 bd f1 36 30 bd
       0.041644786 -0.0932911 -0.10156879 -0.043021146
0001a0 e2 21 62 3e d9 14 6a ba 98 7c ac 3d 84 da 4e be
       0.22083238 -0.0008929498 0.08422202 -0.20200545
0001b0 8d a6 eb 3e 93 66 8a 3e 33 a2 08 be 11 5c c3 3e
       0.46025506 0.27031383 -0.13343124 0.3815618
0001c0 7f e9 82 3e 7b 35 9b 3e f4 02 cb bd 41 21 0d 3f
       0.25568768 0.3031424 -0.09912673 0.55128866
0001d0 b6 48 29 bd d4 6e 18 3d 15 21 8f 3e f0 5b 58 3e
       -0.04132911 0.03721507 0.27954927 0.21128821
0001e0 06 3a 97 3e 80 82 12 be 63 87 15 3e 2e 03 89 3e
       0.29536456 -0.14307594 0.14602427 0.26760238
0001f0 54 98 8b 3d 80 9f 1b 3e 11 37 a2 3e 70 6e 88 be
       0.06816164 0.15197563 0.31682637 -0.26646757
000200 20 b5 ce bd de a5 0e be 2f 5f 3c 3d 7f bd 34 3d
       -0.100931406 -0.13930461 0.04598921 0.04412603
000210 7d ec 5c bd e3 57 84 bc fe cb 71 bd cd be 67 bd
       -0.05393647 -0.016155189 -0.059032433 -0.056578446
000220 d8 34 24 3d df 69 6f be c3 70 56 3d 64 55 cb 3d
       0.04008946 -0.2338023 0.05235363 0.09928396
000230 11 53 20 bd 35 bf 47 3d 76 28 cc bd f4 52 70 3d
       -0.03914172 0.048766334 -0.09968655 0.05867286
000240 c8 cc 86 bd bb 89 63 3d 9c 81 f3 bd f0 c4 94 3d
       -0.06582028 0.055551272 -0.118899554 0.07264125
000250 1d 0e d1 3d ee db b6 3d 6d 67 ea 3c a4 74 9a 3b
       0.1020777 0.08928667 0.02861377 0.0047136117
000260 d0 a9 d7 3c 51 97 88 bc ce d9 38 3d 60 e1 20 bd
       0.02632609 -0.016673716 0.04512959 -0.039277434
000270 62 0d e0 bd 38 8e c1 3b 9c b3 3f 3d dc 56 24 be
       -0.109400526 0.0059068464 0.04680215 -0.16048759
000280 72 82 22 be e0 1f ee b6 3f ad 3b 3e 14 9a 4e 3d
       -0.15870073 -7.0966635e-06 0.18327807 0.05043991
000290 0b a9 a0 bc 59 36 cd 3d e9 3c 55 be 7e 94 d0 3d
       -0.019611856 0.100201316 -0.20824017 0.10184573
0002a0 9e b2 0e 3d 72 25 a0 bd 7f e6 87 3c 69 14 06 be
       0.03483831 -0.07819642 0.016589401 -0.13093723
0002b0 32 71 0f bd 82 bf b0 bb 72 fc 8a 3c 31 dc 28 be
       -0.03502006 -0.0053939233 0.016966078 -0.16490246
0002c0 4f aa 0c 3e e2 a5 f1 bd 5c 5f 4e 3e 32 fa d3 bc
       0.13736843 -0.11799218 0.20153564 -0.025876138
0002d0 af 98 e4 bd 6d 28 c4 bc 8d cc bd bd a8 42 a5 bc
       -0.111619346 -0.023945058 -0.092675306 -0.020173386
0002e0 52 eb 44 3e cb a3 1c 3e 57 e3 1d 3e 9c 5d bb 3d
       0.19230393 0.15296857 0.15418755 0.09148714
0002f0 5e 95 66 3d 52 74 e4 bc a1 57 8c bd ef 00 7f bd
       0.05629479 -0.027887497 -0.068526514 -0.06225675

gru.bias_hh_l0_reverse f4 [192]
000000 fe db 7b bd 0f 79 77 3d 20 9c 4e be 02 25 0f 3e
       -0.061489098 0.060418185 -0.20176744 0.13978961
000010 2a 43 f0 3e 2a 41 fb 3c c1 81 85 3e 4c f8 8c bd
       0.46926242 0.030670721 0.26075557 -0.06883296
000020 fc 66 c7 be e8 44 3c 3e 88 e8 8f 3d 4b 43 92 be
       -0.38945758 0.1838566 0.07026774 -0.28566965
000030 90 9e ba 3d a2 79 86 bd f5 bb 3b 3d 49 f8 ee 3e
       0.09112275 -0.06566168 0.045833547 0.46673802
000040 9c 92 1d be b9 f2 72 bb 2b ff af 3d 8a 6b bf 3e
       -0.15387958 -0.0037070944 0.08593591 0.37386733
000050 c6 66 b3 3d af 5e 48 3e ba 77 e3 bd 26 25 65 3c
       0.08759837 0.19567369 -0.111068204 0.013985908
000060 80 f0 d7 3c 73 94 ba 3d 9f 0e a5 3e 68 7c 27 3e
       0.026359797 0.09110346 0.32237718 0.16356051
000070 23 d0 a9 3c 9c e6 3d 3e 2e 73 28 3e 8e d1 07 3e
       0.02072913 0.18545002 0.16450188 0.13263533
000080 4b 2f b3 bd ce 70 07 3e 60 49 59 3e b2 08 02 3c
       -0.08749255 0.13226625 0.21219397 0.007936643
000090 9e 1f bc 3d e9 6b 98 3d 04 00 cc bd b2 d5 61 3e
       0.09185718 0.07442457 -0.099609405 0.22054175
0000a0 84 9f 7a 3e a2 46 b7 bc 2d 32 ee 3d ae 6d b9 3e
       0.24474913 -0.022372548 0.11630664 0.3621649
0000b0 d7 89 83 3e 5f 1b 08 3e 18 b2 65 bc a6 8a 86 3d
       0.256911 0.13291691 -0.014019512 0.06569414
0000c0 fa 6f 74 3e 28 a0 bc bc e2 8c 83 3e dc 67 81 3d
       0.2387084 -0.023025587 0.25693423 0.06318638
0000d0 df 2f 52 be 94 62 ed 3d e8 74 4d 3d ba d6 7d 3e
       -0.20526074 0.11591068 0.05016032 0.24788943
0000e0 79 80 98 3d 48 14 e5 3e 23 03 a1 3c 92 82 c5 3e
       0.07446379 0.44742036 0.019654816 0.3857618
0000f0 a0 4f fa 3c f1 06 c2 3d 39 3c 2a 3e a1 87 50 3e
       0.030555546 0.0947398 0.16624536 0.20364238
000100 64 85 a9 3e 46 e0 83 3e c7 c3 ab 3c 01 36 14 3f
       0.3310958 0.25757045 0.020967377 0.57894903
000110 f5 c2 62 be 4b ea 5f 3d 02 80 db 3e 52 11 4f bd
       -0.22144683 0.0546668 0.428711 -0.050553627
000120 fe 66 cc 3e 07 d2 eb 3d 72 1e d5 3e 22 4f d0 3d
       0.39922327 0.11514669 0.4162479 0.101713434
000130 3d 5a 2e 3f 46 23 19 3f 05 e8 04 3d 44 69 24 bd
       0.6810644 0.5981945 0.032447834 -0.04013945
000140 d4 3c be 3d ca 66 85 3e 4f 5c 88 3e ed a7 06 3e
       0.09288946 0.26054984 0.26632926 0.13149996
000150 03 1d af be 7d ca 82 3e 34 1a 44 3e ee 4c 6b be
       -0.34201822 0.2554511 0.1915062 -0.22978565
000160 3f 4e bf bc e8 9e 02 be 9d 98 8b 3c 05 0b 41 be
       -0.02335274 -0.1275593 0.017040545 -0.1885186
000170 4d 06 d4 3d 78 c7 6f ba 83 bc 39 be f3 87 83 3e
       0.10352764 -0.00091468496 -0.18138318 0.2568966
000180 f9 18 fb 3d 71 6e 7e 3d 8f 21 ad 3d c9 68 0d 3d
       0.122606225 0.062117044 0.084536664 0.03452376
000190 da 5b cd 3d ed 2b b0 bc 87 3f 84 3d ea 11 52 bd
       0.10027285 -0.02150532 0.064574294 -0.051286615
0001a0 e2 10 21 3d 1b 46 0f 3d 2b dc e2 3c 00 9d cf be
       0.03932274 0.034978967 0.027692875 -0.4054947
0001b0 fa b7 d4 3e 0e cc a5 3e a8 79 72 be 63 61 80 3e
       0.41546613 0.32382244 -0.2367922 0.250743
0001c0 a0 61 52 3e bb a6 32 3e 6a f4 47 be 84 af bd 3e
       0.20545053 0.17446415 -0.1952683 0.3704797
0001d0 2d 70 05 3e f8 3f 16 3d 54 94 d6 3e dd 45 61 3e
       0.13031073 0.0366821 0.4191004 0.21999307
0001e0 40 b7 ac 3e 38 7d 35 be 98 0c 0b 3e 02 e0 91 3e
       0.3373356 -0.17723548 0.13579023 0.28491217
0001f0 42 69 f9 bc ba 67 22 3e 55 bd c6 3e e2 82 aa be
       -0.030445699 0.15859881 0.38816324 -0.3330298
000200 6b be 1f be 9c 45 e2 bd c9 74 3c 3b df 40 d6 3d
       -0.15599982 -0.11048433 0.0028756133 0.10461592
000210 0c 1a b9 bd df 9b f0 3c 13 16 a8 3d 96 6f 8d 3d
       -0.09038171 0.0293712 0.08207335 0.06906049
000220 a2 1c d5 3d 8d 6a 40 be af 26 34 bb 9a bc 35 3e
       0.10405852 -0.18790646 -0.0027488878 0.17747727
000230 98 fc 96 bd 99 8b 9f bd 9a 3d 87 3d 83 91 02 bd
       -0.07372397 -0.07790298 0.066035464 -0.031877052
000240 a7 b2 31 bc 84 46 1e be 61 47 62 bd c5 0b 3b bd
       -0.010845817 -0.15456587 -0.055243853 -0.04566552
000250 d4 8b 19 3e 9e 5b f1 3d 4f ac 6f bc 73 ae 83 bd
       0.14994746 0.11785053 -0.014628484 -0.06429758
000260 1f 28 a1 3c 71 04 02 3e cc 59 61 3c c0 3e 32 bd
       0.019672452 0.12697007 0.013754319 -0.043516874
000270 81 70 24 be 81 c9 2b be 72 d9 d0 bd ea 80 11 bd
       -0.16058542 -0.16776086 -0.101977244 -0.035523333
000280 da 30 dd bd 55 5a af bd b7 27 06 3e 56 a6 01 be
       -0.10800333 -0.08562151 0.13101088 -0.12661108
000290 69 6e 76 3d 35 4b 30 bd 48 31 66 be 13 15 7a bd
       0.06016389 -0.043040473 -0.22479737 -0.061055254
0002a0 d3 96 fe 3d 98 41 88 bd 12 09 a1 bc ad e2 b5 bc
       0.12431111 -0.06653136 -0.019657645 -0.022202814
0002b0 ab 7e f9 bc 1a 48 d6 3d 19 da 6a be af 7f 92 bd
       -0.030455908 0.10462971 -0.2293476 -0.0715326
0002c0 b3 20 0b be 46 11 b5 bd 76 1b 92 3d 7f 3e 91 bd
       -0.13586693 -0.08841185 0.07134144 -0.07091998
0002d0 c0 b8 06 be 0e f7 bc 3d c1 57 e2 bd 61 15 3a be
       -0.13156414 0.092268094 -0.11051894 -0.18172218
0002e0 69 5c 19 3e a6 9a ee 3d 71 69 5e bd b0 0f 70 3d
       0.14976658 0.116505906 -0.054299776 0.05860871
0002f0 ba 4b 48 be 54 1d 9a bd 36 1a 7d bd 8a eb df bd
       -0.19560137 -0.07525125 -0.061792575 -0.109335974
