model/gru_classifier_weights/llama-3-8b_a100_tp1.pt (torch, 485425 bytes, 22 tensors)

in_norm.weight f4 [6]
00000000: 0d91 8a3f b7ad 8b3f 9ce8 843f d5ec 883f
00000010: a1bb 8f3f c2cd 853f
1.0825516 1.0912389 1.0383487 1.0697275 1.1229135 1.0453417

in_norm.bias f4 [6]
00000000: bca6 3339 87b7 683c f5fa bfbc 217e cbbc
00000010: 8e0a 963c 3260 debc
0.00017132884 0.014203913 -0.023435095 -0.024840416 0.01831558 -0.027145479

gru.weight_ih_l0 f4 [192, 6]
00000000: 4375 4bbe 96f1 2f3e 36c6 bcbc 1757 693e
00000010: 14f7 87bd b3c2 6c3e c678 85bd 6e39 9a3a
00000020: 07aa 4f3e 81a3 2abe 79d8 303c fc08 233e
00000030: f7ee 3bbe cd39 4cbd 734a 1abe cec9 b73c
00000040: 8f40 7cbe 6c60 3b3e 260f 9b3d 60c3 2abe
00000050: d59a c0bc 66d7 86bc e3dd 423e 8b1f 9cbc
00000060: d4a3 e93d 091a ba3d ad8c d43c 32e9 5d3e
00000070: 42a2 ac3c 5abe 5cbe e056 c8bd 8127 7fbe
00000080: a727 dabd 36dc 903d c297 02bd 1bbc 853c
00000090: 3166 28be c2af 343d 52f4 5e3e 1e1d 553e
000000a0: 6dfe d43d df7a f5bd c414 7d3e 28d9 173e
000000b0: 5135 2a3e 337f 463d 652c 6dbd 0c0b febc
000000c0: eff9 3dbd 4a20 ccbb 9f19 84be 8261 c0bd
000000d0: 7356 9c3d dfab 2b3e a8c7 f23c 6429 03be
000000e0: 60cd c83d 3cdf fc3d 2c11 1abc 6508 9abd
000000f0: f7c6 223e bb37 363e a3c4 3e3e e6ea 213e
00000100: a3be 583e 829d 1a3e 3ae9 6abe 4066 183e
00000110: 3d34 64bd e41f c5bd a110 95bd 4f02 47bd
00000120: e71d 8b3d 2f65 3dbe 3861 593d 739a c2bd
00000130: 769b 3dbe 129e b6bd 6cff 553e d56d 4cbe
00000140: 64ae 263d 9ec1 5dbe 165d 14bd de2f 34be
00000150: 9ce2 5f3e b079 193e 1ae4 ce3d 2107 f8bd
00000160: 9417 cdbc 63ad 55be ff19 98bd 3937 d33c
00000170: 1cf9 473e 15f2 d3bd 52d0 173e 8d7b 77be
00000180: f894 8cbd 2373 1c3e f69f a93c 2ecb bd3d
00000190: 58bf 313d b4ac 163e 56b4 3ebe 8650 14be
000001a0: 0ec2 813c beaf 43be 7758 cdbd 2b96 29be
000001b0: e0fd 79be 1b03 f8bd f137 bcbd c3f2 7a3e
000001c0: 27a1 00be 3013 afbd 35ad 383e 4bec bd3d
000001d0: 84ba 8fbd 1746 53bd d6ae c0bd b4a6 2ebd
000001e0: adb9 403e a638 86be 90ee 4f3e 0c9c 1c3e
000001f0: 5877 12be 3263 3abd 10b1 5fbe 4a63 d03d
00000200: 7730 4abe f56a 3abe 814d 113e 2ef1 71be
00000210: adc2 403e 93d1 65be d89f f4bc 3111 823d
00000220: 4fe9 283e 0a97 65be c564 8cbd 43f6 19be
00000230: fae6 bdbd b6ca 5b3e ed5c 943d 3b1f 56bd
00000240: 1741 72be 0397 80be cf1d 543e 13ce 43bb
00000250: a558 61bd b5b7 a23b f021 523e 4de2 4d3d
00000260: 77bc 0bbd a76e 623e fe54 983d d265 5d3e
00000270: 4c02 6cbd b714 663d 4fb6 823e d04a 693d
00000280: fe2c 873e cb94 acbd 6d2a d2bc abaa 08bd
00000290: dcce 9fbd 1cde 25be 0c08 44bc 0e53 5c3e
000002a0: e191 7fbe c365 47bd e06e 5e3d 989a 123e
000002b0: 2321 073e a383 443e 82d1 cbbc 794e 63bd
000002c0: 2252 a13c 7cf4 5b3e 9a72 0cbe ee18 0c3e
000002d0: 6c88 6c3e f5e1 2e3e 49de b03c 3f4e 783d
000002e0: 5588 ad3d 91a1 33be c223 c23d ea18 f03d
000002f0: d74e 3c3e 0f44 babd c07a 35be 49bf 523e
00000300: a44e d4bd 17fc e73b 511c 91be d653 c63d
00000310: 8461 7d3e e878 b2bc 56df 52be 5d66 953d
00000320: c68f 44be dabe 32be c627 753e 2a6b c33c
00000330: 5036 0dbe e1f3 13be 337c 863e c41e 4a3d
00000340: 8661 f5bd e4c1 81be a162 2cbe a81b 53be
00000350: 44b1 ebbd 09c6 52be af17 5b3e 75af 8a3d
00000360: b253 0dbe e77b 09be c30b 7bbd 058a 8bbe
00000370: cee5 603d 6cee b4bc f583 ec3d 1564 7cbd
00000380: d40c 4d3e 0b07 85be c40b 783d ed52 fbbd
00000390: 5d48 e7bd aec2 f4bd 8257 673d ab4a b03c
000003a0: 3c76 40bd 5ff6 bcbc bbb2 debd 4447 353e
000003b0: 0243 3abd 0bbf a1bd eb04 d1bc f156 173e
000003c0: db20 8dbd abe0 f13d c5cb 1f3e 2caa f63d
000003d0: e915 9c3d 60b5 293e dcea f83c 6ee8 2bbe
000003e0: eeb1 3abe 4d03 423e 573f 15be 2ff0 46be
000003f0: 9b1d 153e c15a 6ebe 6fa3 093e 09e3 ebbd
-0.1986895 0.17182001 -0.023043733 0.22787128 -0.06638923 0.23121147 -0.06517176 0.0011766383
0.20279704 -0.16663934 0.010793799 0.15921396 -0.18352877 -0.04985981 -0.15067463 0.022435095
-0.24634002 0.18298501 0.07571249 -0.16676092 -0.02351133 -0.016460132 0.19029956 -0.01905801
0.11408201 0.09086997 0.025945986 0.21670988 0.021073464 -0.21556988 -0.09782195 -0.24917413
-0.10652094 0.07073252 -0.03188301 0.016325047 -0.16445233 0.04411293 0.21772888 0.20811889
0.1040009 -0.119863264 0.24714953 0.14828932 0.16621901 0.04846115 -0.057903666 -0.031011127
-0.046380933 -0.006229435 -0.25800797 -0.09393598 0.076336764 0.16764782 0.02963622 -0.12808758
0.09804797 0.12347266 -0.009403508 -0.075211324 0.15896212 0.17794697 0.18629698 0.15812263
0.21166472 0.15099147 -0.22940531 0.14882755 -0.05571388 -0.09625223 -0.07278562 -0.048586186
0.06792813 -0.1849563 0.05307123 -0.09502115 -0.18516335 -0.08916868 0.20898217 -0.19963773
0.040693656 -0.2165589 -0.036221586 -0.17596385 0.21863788 0.14987826 0.10102101 -0.12110735
-0.025035657 -0.20866923 -0.07426833 0.025783168 0.19528621 -0.10348908 0.14825562 -0.24168225
-0.06864351 0.15278296 0.020706158 0.09267269 0.04339537 0.14714319 -0.1862348 -0.14483842
0.015839603 -0.19110009 -0.10026639 -0.16561191 -0.24413252 -0.12109967 -0.091903575 0.24506669
-0.12561475 -0.085485816 0.18034823 0.09273585 -0.07017997 -0.051580515 -0.09408347 -0.04263945
0.1882083 -0.26215094 0.20305848 0.15293902 -0.14303339 -0.045504756 -0.21844888 0.10175188
-0.1974505 -0.18204863 0.14189722 -0.23627159 0.18824263 -0.22443227 -0.029861376 0.06350935
0.1649525 -0.22420898 -0.06855158 -0.15035348 -0.09272571 0.21464047 0.07244287 -0.052275877
-0.23657642 -0.25115213 0.20714496 -0.0029877468 -0.05501618 0.0049657472 0.20520759 0.050264645
-0.03411528 0.22112523 0.07438086 0.21620873 -0.057619378 0.0561721 0.25529715 0.056956112
0.26401514 -0.084268175 -0.025654996 -0.033365887 -0.07803127 -0.16198009 -0.011964809 0.21516058
-0.24957992 -0.048681032 0.054304957 0.14316785 0.13196234 0.1919084 -0.024880175 -0.05549476
0.019692484 0.21479982 -0.13715592 0.13681385 0.23098916 0.17078383 0.021590369 0.060621496
0.08473269 -0.17542101 0.094794765 0.11723502 0.1838945 -0.090950124 -0.17722607 0.20580782
-0.10366562 0.007079612 -0.28341916 0.09683959 0.2474423 -0.021786168 -0.20593008 0.07294915
-0.1919547 -0.17455617 0.23940954 0.02385481 -0.1379025 -0.14448501 0.2626663 0.049345747
-0.11981492 -0.2534324 -0.16834499 -0.20616019 -0.1150842 -0.20583357 0.21395753 0.06771747
-0.13801458 -0.13426171 -0.061290514 -0.27253738 0.05490666 -0.022086345 0.11548606 -0.061618883
0.20024425 -0.25981936 0.060558096 -0.12271676 -0.11293099 -0.11951195 0.05647994 0.02151998
-0.046987757 -0.023066698 -0.10873934 0.17702967 -0.04547406 -0.07897767 -0.02551504 0.1477926
-0.06891032 0.1181043 0.15605076 0.120441765 0.076213665 0.16573095 0.030385427 -0.16787884
-0.18231937 0.18946572 -0.14574943 -0.1942756 0.14562075 -0.23276807 0.13441251 -0.11517913

gru.weight_hh_l0 f4 [192, 64]
00000000: c98a 5f3b 5aa2 4dbd a494 dd3c da4c 42bd
00000010: 4dd7 85bd d518 93bc 2afb 1a3d 21c4 b93c
00000020: 8bd0 ecbd 8151 993d 494e 0fbe 95a8 0f3d
00000030: fecc bdbc bde4 0c3a 0775 97bd 927b 413d
00000040: 9e0d a53c d7d7 3b3e 5ba0 0c3d 2752 f53d
00000050: 96d1 b5bd d048 bbbd 0c17 1a3e 6f32 893c
00000060: a423 1e3d 3822 8f3d 4468 7c3d c17d 763d
00000070: 1097 2a3d 7bec 473d 10e8 093d dd01 453d
00000080: 1c4d 6a3d 76de 06be b15e ca3c a0c8 86bc
00000090: b356 eabd fa54 193d 29dc e1bc 9d26 abbd
000000a0: d86b 4d3e de26 ed3d a2f0 96bd 26ba 3fbd
000000b0: 0eb9 0d3e af04 38bd 3008 083e 7966 3a3d
000000c0: 89e3 ccbd 4705 e7bd 1931 dabd 5d6b 5f3d
000000d0: 57a7 333c 4e4b a73d db97 003e c535 763d
000000e0: 1ba5 31bc b576 7bbd 020e b73d edeb b33d
000000f0: 1f19 14be 7dfc baba 36b8 bbbd cfcc c3bd
00000100: 060a ae3c 9d2b debd c328 623d a489 b93d
00000110: 7f23 c03d 1a30 2abe a5f5 463d c644 2e3e
00000120: 5b36 533c 7e5d d5bc d0a3 92bc 3b82 7e3d
00000130: 93e8 08bd 8292 0ebd f2c7 83bd 98b1 d6bc
00000140: e7d8 b83c 6306 40bd 0e92 edbc 9c2e cd3d
00000150: 1bbb 04be 1cb8 c6bd fbd1 b63d 3bd3 80bd
00000160: caeb 71bd 9b05 fabd 5695 81bd ddf2 74bb
00000170: d5a1 0a3c 8708 99bd 9a74 ccbc 3a9d b33d
00000180: add0 aa3c d26b 143d cb04 6a3d 997f a7bd
00000190: dd26 7e3c c181 4e3c 53e7 983d 27c9 d4bd
000001a0: 9f87 e13b cd68 053d a0af 9dbd 2624 863d
000001b0: 83ce 09bd 04cf 8c3d c8cb 0abe 2ed5 c2bd
000001c0: 2514 29bd f179 b8bd e618 9e3c afaf 38bd
000001d0: b315 1abe d0cb 28bb 2bfc 743e 5552 943c
000001e0: 2c29 423d 928f 15bd 7bb0 943c 0c96 b83d
000001f0: 43c4 af3d d806 4c3d a217 17bc 6599 e13c
00000200: 3f08 e0bd fd6b 71bc 567d 033e ceb8 233c
00000210: e49e d63c 0f95 3a3d ac94 b2bb 18dc ecbd
00000220: ed23 bcbc b29d 283d 369f 803d 7048 18bd
00000230: 25c6 18be b653 633d 64e3 9e3d 62f1 e73c
00000240: 5da7 673b 644b 633d 8440 8f3d afed 69bc
00000250: 6c1b 213c ea28 37bc 6978 c7bc a65b dabd
00000260: 5c75 e0bc b447 9f3d a940 473d 7829 4bbe
00000270: dec4 a5bd af8f 8dbd 6101 7fbd e482 cdbb
00000280: e139 823c b6bb ac3d d1c6 a73d d186 82bd
00000290: 4354 eebd 1f06 e63c 52df 9bbd 29d5 acbd
000002a0: 6eb4 6a3d 862f c2bd ca80 8d3d 0686 25bd
000002b0: 7c04 d1bd 1ed3 92bd bbde 813c ad01 713d
000002c0: 5b23 ec3b 4112 15be e967 c4bc ddac 8e3d
000002d0: 1c92 d63b 323d 863c 5fd0 c33d 0673 12bd
000002e0: 04c6 f3bd e905 fa3d 1cfd 0c3e 2d99 153d
000002f0: 0553 003e 4c58 eabc 5796 fd3d d45a 8e3c
00000300: 70d1 6cbd 067f 2e3d d2a4 543c 7491 0b3e
00000310: daa4 c9bd 4309 cebc d147 a6bd e755 293d
00000320: e958 a03d 0f6b e8ba b400 99bd cb55 033e
00000330: 945a 013e fa57 323d cf83 863c 1aec 0abe
00000340: d777 0fbe 93b2 1a3e 2ea5 6cbd 46aa 803d
00000350: 37ad b13c 14f8 81bc 53b7 813d 486c a4bd
00000360: cd3a efbb 7777 b7bd 9b5b 993c e5f8 113e
00000370: f41a 66bc 02bd 8bbd 4873 f4bd a822 abbd
00000380: a8ef 00bd 4de9 d0bb 197d db3c 82f1 a1bd
00000390: 87f4 81bd 62d7 8dbd bb8d cebd 96b4 47bd
000003a0: 7b7b 5fbd 57d6 d3bd 6baa d2bd c295 803d
000003b0: 0ffe 8f3b 394f c13d c515 9b3d 5d8d edbd
000003c0: e0ad 08bd 8fc6 023d ada2 38bd 2a72 393d
000003d0: 0933 a0bd 6b56 90bd 20cd 09bd 1f04 88bc
000003e0: 010f 113d b4fb 073d af2d e8bc 3daf 073d
000003f0: 0775 8bbc ad13 1c3d 3a7a 42bd a368 85bd
0.0034109822 -0.05020366 0.027048416 -0.047436573 -0.06535206 -0.017956177 0.037837185 0.02267653
-0.11563214 0.07486249 -0.13994707 0.03507288 -0.023169037 0.0005374661 -0.07395368 0.047236986
0.020148095 0.18344055 0.034332614 0.1197856 -0.08877866 -0.09144747 0.15047854 0.016747681
0.03860821 0.069889486 0.061622873 0.060178522 0.04164797 0.04880951 0.033668578 0.04809748
0.057202443 -0.131708 0.024703356 -0.016453087 -0.11442318 0.037434556 -0.0275708 -0.08356974
0.2006067 0.11579679 -0.07370116 -0.046808384 0.13840124 -0.04492634 0.13284373 0.04550788
-0.100043364 -0.112803034 -0.10653896 0.05454575 0.01096519 0.0816866 0.12557928 0.060109872
-0.010842587 -0.061392505 0.08938219 0.08785234 -0.14462708 -0.0014265921 -0.09165995 -0.095605485
0.021245014 -0.10848162 0.055214655 0.09059456 0.0938177 -0.16619912 0.04857411 0.17018422
0.012891377 -0.026045557 -0.017900378 0.062135916 -0.033424925 -0.03480769 -0.06434621 -0.02620773
0.022564365 -0.04688109 -0.029000308 0.10018656 -0.12962 -0.09703085 0.08926769 -0.06290289
-0.059062757 -0.122081004 -0.06327312 -0.0037376203 0.008461435 -0.074723296 -0.024957944 0.08770223
0.020851457 0.036235638 0.057133477 -0.08178634 0.015512195 0.012604178 0.074659966 -0.10389929
0.0068826224 0.03257065 -0.076995134 0.065498635 -0.03364421 0.068754226 -0.13554299 -0.09513317
-0.041278977 -0.090076335 0.019298982 -0.04508942 -0.1504734 -0.0025756247 0.2392432 0.018105665
0.047402546 -0.036513872 0.018150559 0.09012994 0.08582356 0.049811214 -0.009221943 0.027538965
-0.10939073 -0.014735219 0.1284078 0.009992791 0.026198812 0.04555231 -0.005449852 -0.11565417
-0.02296635 0.041166015 0.06280367 -0.037178457 -0.14919336 0.055499755 0.07758215 0.028313342
0.003534756 0.05549182 0.06994727 -0.01427786 0.009833198 -0.011179188 -0.024349408 -0.10662012
-0.027399711 0.07777348 0.04864565 -0.19840038 -0.0809419 -0.06912171 -0.062257174 -0.006271707
0.01589674 0.084342405 0.08192218 -0.063733704 -0.116371654 0.02807909 -0.07610954 -0.084390946
0.057300977 -0.094817206 0.0690933 -0.040411018 -0.102059335 -0.07169174 0.015853276 0.05883949
0.007206363 -0.14557745 -0.02397533 0.06966565 0.0065481793 0.016386602 0.09561228 -0.035754226
-0.11903003 0.122081585 0.13768429 0.036523033 0.1253167 -0.028606556 0.12382191 0.017377295
-0.057816923 0.042601608 0.012978749 0.13629705 -0.09845896 -0.0251509 -0.08119167 0.04134169
0.07829458 -0.0017732101 -0.07470837 0.12825696 0.12632209 0.043540932 0.016420273 -0.13566628
-0.14010559 0.15107183 -0.057774715 0.06282477 0.02168904 -0.015865363 0.063337944 -0.080284655
-0.007300711 -0.08958333 0.018720439 0.14255102 -0.014044512 -0.0682316 -0.11936051 -0.083562195
-0.031478554 -0.006375468 0.02679305 -0.07907392 -0.06345468 -0.06925847 -0.10085627 -0.048756205
-0.05456112 -0.103436165 -0.10286411 0.06278564 0.0043943 0.09438939 0.075725116 -0.115992285
-0.033368945 0.03192764 -0.045077015 0.04527489 -0.07822234 -0.07047733 -0.033642888 -0.016603528
0.0354147 0.033199027 -0.028342096 0.033126105 -0.017023576 0.0381047 -0.047479846 -0.065140985

gru.bias_ih_l0 f4 [192]
00000000: d597 08bc 628d 003d 2cb1 ad3d 5ecf cc3c
00000010: 0f82 c13c 9d6b 983c 45d5 1abc ac67 683c
00000020: d41d 12bb a495 653b a92a 353c 58ca ca3c
00000030: 5456 623b 695e c33c 38c9 d23b 40ef ad3d
00000040: d949 2d3c 2158 cc3c d167 5b3d 25ea e53c
00000050: 6d64 003d 8d70 433d 9021 503c 1e4b 803d
00000060: 43d7 dc3c 0121 1c3d 3ecc 1c3c cbb3 cb3c
00000070: 541f 083d 3780 5b3d c080 633c ee97 6e3c
00000080: afca adbc 6373 913d 2502 273c 5c0e e03b
00000090: fe40 ea3c d0eb 573c 976a 183d 030f a33c
000000a0: 9d8c ef3c b284 843b 5b18 653c fd46 dd3c
000000b0: f693 813c 3900 153d e266 413d 992a 46b9
000000c0: f8ac 823c 9374 d33c 3812 393c 2b76 963c
000000d0: f0a0 273c c517 27bc bf9b 29bc eba5 8ebc
000000e0: 17b0 8e3c 099d e43c ba38 833c e44f 373d
000000f0: f290 013c 8d7b 983c 215d 973c 6aec 473d
00000100: cafc afbc af36 b8bc 956f 2ebb 6355 d53c
00000110: b66c 283d 95bb e43b 789d 21bb 9caf 353d
00000120: d196 88bb dc6f 153c fc39 38bd 90ae 7a3d
00000130: d5ec 903c f67b 973c 7af6 873b ed20 a3bc
00000140: 5a6d 323d e5f5 2a3d 6825 3b3c 302a 1e3d
00000150: fe27 863c 84b3 803c 5520 223b f8f9 90bb
00000160: 1534 78bc b628 ca3c 7ab7 aa3d 6416 363c
00000170: 093c 0e3d c0a9 d43d 4aec 033d 9cc1 cb3c
00000180: 87c7 fd3c 3885 c23c c443 fd3a 13da ae3d
00000190: 4f3c c93d 3079 6fbd ae2b 803d 0756 a43c
000001a0: eb1f 0ebd a0f1 14bd 34c6 6d3c 66e7 f8bc
000001b0: 5d68 fdbc e4e9 acbc 2644 943d 5c42 e93c
000001c0: 0dbd 473d f177 bebb 7d0a 14bb 92ab 173e
000001d0: 4dd1 60bc 8a2f 6fbd 1d9e ad3d 4f1b 9cbd
000001e0: 1877 0bbb a3f6 cc3d f9ef 13bd d129 133d
000001f0: 950d f13b 5f63 663d 6407 2bbc af77 ca3d
00000200: 664b cc3c 6181 603c 807f 12bd dc0d babb
00000210: aac7 87bc 3915 fc3c 828d 093a bff7 923c
00000220: dc9f 18bc f460 393a 0d3a b7bc 270c 243a
00000230: aa13 8f3c 8220 5fbc b530 863c 4758 033d
00000240: ce8d afbc 4642 d4bb 845e 3e3b a6cc 6a3b
00000250: 06ed 593c e17a a0bc 12ae 1abc 52ad 9c3c
00000260: 7c38 103d 7ede e73c 9deb 8dbc 8cd3 c7bc
00000270: 9bba f03c a1e2 b93c 1564 11bc 73ca bc3c
00000280: ec58 723c d1fc 5fbc 6fdf 3fbc f588 0a3c
00000290: 5015 303c 4e87 fbbc ca22 173d 0556 b8bc
000002a0: 595c e63c fa14 bf3c bc4c d63c 11bc 183d
000002b0: fa82 ecbb 0367 9bbc fc0d dfbc 0d63 d4bb
000002c0: 2b5a 86bc 9f55 90ba 9f05 d63c 96b6 a73b
000002d0: 8152 03bb cdb3 02bd 2e8e 91bc 1b00 ad3c
000002e0: 17a2 1f3c 3c06 b63c 643a a0bc 0b30 33bb
000002f0: 24c3 9a3c 9755 1d3d 3fad 983c 9165 3cbc
-0.008336981 0.031384833 0.084810585 0.025001224 0.023621587 0.018606002 -0.0094502615 0.014184874
-0.002229561 0.003503182 0.011057534 0.024754688 0.003453632 0.02384873 0.0064326786 0.08492899
0.010576689 0.024944367 0.053565804 0.02806575 0.031345773 0.04771476 0.012703314 0.062643275
0.026958114 0.038117412 0.0095701795 0.024866005 0.033233 0.053589072 0.013885677 0.01456259
-0.021214811 0.071020864 0.010193382 0.0068376493 0.028595444 0.013178781 0.037211027 0.01990462
0.029241854 0.004044139 0.013982858 0.027011389 0.015817624 0.036377165 0.047217257 -0.0001889862
0.015951619 0.025812423 0.011295848 0.018366894 0.010231242 -0.010198538 -0.010352074 -0.0174131
0.01741795 0.027906911 0.01601826 0.044753924 0.007908093 0.018613601 0.018477025 0.048809446
-0.021482844 -0.022487013 -0.00266168 0.026041692 0.0411193 0.0069803693 -0.002466051 0.044356927
-0.0041683693 0.009120908 -0.044977173 0.061201632 0.017691055 0.018491726 0.0041492553 -0.019913161
0.043561317 0.04173841 0.011422493 0.038614452 0.016376492 0.0157106 0.002473851 -0.00442433
-0.015149136 0.024677616 0.083357766 0.011113737 0.034725223 0.1038394 0.032207765 0.024872594
0.030978931 0.023745164 0.0019322564 0.08537688 0.09825956 -0.058465183 0.06258331 0.020060552
-0.034698408 -0.036363244 0.014512587 -0.030383777 -0.030933553 -0.021107621 0.07239561 0.028474025
0.048764277 -0.005812638 -0.002258926 0.14811543 -0.013721776 -0.058394946 0.08477423 -0.07622396
-0.0021280702 0.1000798 -0.036117528 0.03592855 0.0073563554 0.05624711 -0.010438774 0.09886109
0.024938297 0.013702721 -0.035766125 -0.0056779217 -0.0165747 0.030771839 0.00052472216 0.0179404
-0.009315457 0.0007071637 -0.022366548 0.00062579144 0.017465431 -0.01361859 0.016380647 0.03206661
-0.021429922 -0.006477627 0.0029048035 0.0035827546 0.01330114 -0.019589843 -0.009440916 0.019125614
0.035210118 0.028304335 -0.017324263 -0.024392866 0.029385855 0.022691073 -0.008873959 0.023045754
0.014791708 -0.013671116 -0.011710986 0.008455505 0.010747269 -0.030704167 0.03689841 -0.022501955
0.028120207 0.023325432 0.026159637 0.03728873 -0.007217762 -0.018970018 -0.027228348 -0.0064815343
-0.016400417 -0.0011011845 0.026125727 0.0051182015 -0.002003819 -0.031909753 -0.017767992 0.021118214
0.009743235 0.02221977 -0.019559093 -0.0027341868 0.018891878 0.038411703 0.018637298 -0.011498825

gru.bias_hh_l0 f4 [192]
00000000: d597 08bc 628d 003d 2cb1 ad3d 5ecf cc3c
00000010: 0f82 c13c 9d6b 983c 45d5 1abc ac67 683c
00000020: d41d 12bb a495 653b a92a 353c 58ca ca3c
00000030: 5456 623b 695e c33c 38c9 d23b 40ef ad3d
00000040: d949 2d3c 2158 cc3c d167 5b3d 25ea e53c
00000050: 6d64 003d 8d70 433d 9021 503c 1e4b 803d
00000060: 43d7 dc3c 0121 1c3d 3ecc 1c3c cbb3 cb3c
00000070: 541f 083d 3780 5b3d c080 633c ee97 6e3c
00000080: afca adbc 6373 913d 2502 273c 5c0e e03b
00000090: fe40 ea3c d0eb 573c 976a 183d 030f a33c
000000a0: 9d8c ef3c b284 843b 5b18 653c fd46 dd3c
000000b0: f693 813c 3900 153d e266 413d 992a 46b9
000000c0: f8ac 823c 9374 d33c 3812 393c 2b76 963c
000000d0: f0a0 273c c517 27bc bf9b 29bc eba5 8ebc
000000e0: 17b0 8e3c 099d e43c ba38 833c e44f 373d
000000f0: f290 013c 8d7b 983c 215d 973c 6aec 473d
00000100: cafc afbc af36 b8bc 956f 2ebb 6355 d53c
00000110: b66c 283d 95bb e43b 789d 21bb 9caf 353d
00000120: d196 88bb dc6f 153c fc39 38bd 90ae 7a3d
00000130: d5ec 903c f67b 973c 7af6 873b ed20 a3bc
00000140: 5a6d 323d e5f5 2a3d 6825 3b3c 302a 1e3d
00000150: fe27 863c 84b3 803c 5520 223b f8f9 90bb
00000160: 1534 78bc b628 ca3c 7ab7 aa3d 6416 363c
00000170: 093c 0e3d c0a9 d43d 4aec 033d 9cc1 cb3c
00000180: 87c7 fd3c 3885 c23c c443 fd3a 13da ae3d
00000190: 4f3c c93d 3079 6fbd ae2b 803d 0756 a43c
000001a0: eb1f 0ebd a0f1 14bd 34c6 6d3c 66e7 f8bc
000001b0: 5d68 fdbc e4e9 acbc 2644 943d 5c42 e93c
000001c0: 0dbd 473d f177 bebb 7d0a 14bb 92ab 173e
000001d0: 4dd1 60bc 8a2f 6fbd 1d9e ad3d 4f1b 9cbd
000001e0: 1877 0bbb a3f6 cc3d f9ef 13bd d129 133d
000001f0: 950d f13b 5f63 663d 6407 2bbc af77 ca3d
00000200: ea51 d93c 1a86 5f3c b9e7 22bd 4682 d3bb
00000210: 3733 8dbc 21bf f83c ce30 133b 5f2b 973c
00000220: 30cc 17bc 9636 663a 843f aebc 73a5 af3a
00000230: fc05 953c 93bc 61bc 95ea 863c e5f0 053d
00000240: 96aa acbc 825f bbbb bb26 513b 299f a53b
00000250: 0b96 8e3c f9fc 99bc 3e67 28bc 3a65 8c3c
00000260: 5938 0b3d 83f2 e73c 945a 91bc ab56 d2bc
00000270: f047 f33c 0779 a23c 8b69 17bc cae7 af3c
00000280: 865e 6a3c 8b62 4fbc 0a05 2abc 759a 2b3c
00000290: 3139 253c 18da 05bd 4eb1 0d3d 4ef0 b2bc
000002a0: 737b d33c 5ca6 df3c 8f33 e23c c350 0f3d
000002b0: 9f43 02bc beb9 a2bc caa4 e7bc 8d23 febb
000002c0: 8936 8bbc a058 63bb ed59 ba3c f8bc a33b
000002d0: 2257 1fbb 8ac9 e3bc 2ef6 91bc 2c44 b23c
000002e0: 4ed0 2a3c 505b a83c adfc a0bc dc53 5bbb
000002f0: 7a71 963c 6161 273d 9b8c b23c 4f72 36bc
-0.008336981 0.031384833 0.084810585 0.025001224 0.023621587 0.018606002 -0.0094502615 0.014184874
-0.002229561 0.003503182 0.011057534 0.024754688 0.003453632 0.02384873 0.0064326786 0.08492899
0.010576689 0.024944367 0.053565804 0.02806575 0.031345773 0.04771476 0.012703314 0.062643275
0.026958114 0.038117412 0.0095701795 0.024866005 0.033233 0.053589072 0.013885677 0.01456259
-0.021214811 0.071020864 0.010193382 0.0068376493 0.028595444 0.013178781 0.037211027 0.01990462
0.029241854 0.004044139 0.013982858 0.027011389 0.015817624 0.036377165 0.047217257 -0.0001889862
0.015951619 0.025812423 0.011295848 0.018366894 0.010231242 -0.010198538 -0.010352074 -0.0174131
0.01741795 0.027906911 0.01601826 0.044753924 0.007908093 0.018613601 0.018477025 0.048809446
-0.021482844 -0.022487013 -0.00266168 0.026041692 0.0411193 0.0069803693 -0.002466051 0.044356927
-0.0041683693 0.009120908 -0.044977173 0.061201632 0.017691055 0.018491726 0.0041492553 -0.019913161
0.043561317 0.04173841 0.011422493 0.038614452 0.016376492 0.0157106 0.002473851 -0.00442433
-0.015149136 0.024677616 0.083357766 0.011113737 0.034725223 0.1038394 0.032207765 0.024872594
0.030978931 0.023745164 0.0019322564 0.08537688 0.09825956 -0.058465183 0.06258331 0.020060552
-0.034698408 -0.036363244 0.014512587 -0.030383777 -0.030933553 -0.021107621 0.07239561 0.028474025
0.048764277 -0.005812638 -0.002258926 0.14811543 -0.013721776 -0.058394946 0.08477423 -0.07622396
-0.0021280702 0.1000798 -0.036117528 0.03592855 0.0073563554 0.05624711 -0.010438774 0.09886109
0.026528317 0.013642812 -0.03977177 -0.006454739 -0.017236335 0.030364575 0.002245951 0.018453298
-0.009264991 0.00087819376 -0.021270521 0.0013400748 0.01819133 -0.01377787 0.01646928 0.032700438
-0.021077435 -0.0057181725 0.0031913954 0.0050543738 0.01740553 -0.018797385 -0.010278521 0.017138112
0.033989284 0.02831388 -0.017743386 -0.025676092 0.029697388 0.019833101 -0.009241472 0.02147283
0.014304763 -0.012657772 -0.010377178 0.010473837 0.010084436 -0.032678694 0.03459292 -0.021843102
0.025815701 0.027301006 0.027612476 0.03498913 -0.007950692 -0.01986396 -0.02827682 -0.007755703
-0.016993778 -0.0034690276 0.022747958 0.004996892 -0.002431341 -0.027806062 -0.017817583 0.021761023
0.01042564 0.020551354 -0.019651735 -0.0033466732 0.018364657 0.040864352 0.021795562 -0.011135652

gru.weight_ih_l0_reverse f4 [192, 6]
00000000: 9f3a 4dbe 06a1 c23d ecc3 c0bc ff76 f1bb
00000010: 3b06 103d 2f49 02bd e1d2 67be 48b1 efbd
00000020: b220 dd3d e812 6a3e 56bc 813e 2c2b 45bc
00000030: 180f 2bbe 9c7f 06be 5e1e 0abe 81ac 883e
00000040: a59c dd3d 334d 3d3e 7aa5 c6bc 9fd3 dcbd
00000050: 440b 293e 89ca 823e 9bf2 70bd 7929 38be
00000060: b7ec 383e b67c ec3d 98c4 7b3e 31e5 6ebd
00000070: 4428 77be de51 dcbd 3e53 95bd 1059 3dbe
00000080: 52bc 093e cabd 26be 59ff bbbd f8ee 5ebd
00000090: 0d57 a73d f11d f63b e8ac e13d 5567 14be
000000a0: 77ed 65be 5aa5 bf3d c18c 14be 5f70 66be
000000b0: 5b69 6dbe 09f3 c0bc 55a8 3a3e f067 edbd
000000c0: 53b9 243e 618f eb3b 4a30 533d ce80 443d
000000d0: c660 83bd 0482 003e 1025 273a 17ec 8fbd
000000e0: a390 85bd 0584 5d3e d938 44be 3082 d73c
000000f0: 6027 10bd 8713 593e 7129 6b3e aef7 edbd
00000100: 03c1 ecbd b1b0 87be 53a6 883d f844 69be
00000110: b39e 92be 7f96 723e 06c0 8ebe 9315 6d3e
00000120: e43f e1bd 6494 333e 705c 563e 5d39 35be
00000130: e1b8 3fbd e170 003e becb 133e f1a3 61be
00000140: e48d d7bd 8346 8dbc 5403 5bbe 02da ef3d
00000150: b360 113e d5b8 223e c9b2 80bc b683 ff3d
00000160: 057f 17be 5e78 1e3d 20c6 8f3d ab39 063e
00000170: 4a69 0f3e 64f8 edbd 4703 e5bb 5f65 1cbe
00000180: cd28 213e b648 a73d 163f eebd 8a45 7bbe
00000190: a383 603e 2219 3d3e e759 9d3d d19e c3bc
000001a0: 85a6 a5bd c52d 29be 3015 203e 6b79 f43d
000001b0: 35bf 813e a320 06be c2cb 193e a7c1 973d
000001c0: cc75 3dbd 43b6 8bbc 7e1e 0dbe 6d6e 33bd
000001d0: ed95 f43d 3171 203e 19f2 1e3d 8742 053e
000001e0: 8ca8 fc3d bf28 763d a772 323e 84c4 5abe
000001f0: 1c64 833e 49d8 4c3e 8a0d d6bd 78bb 153e
00000200: 5d37 71be aed7 ce3d 049e 1e3e 5f21 3dbc
00000210: 29a6 5dbe 0d3a bdbd 41fa d43d aeec 673d
00000220: 675f 5fbe 1387 58be 0219 8dbc d3b7 de3d
00000230: e6fc 073e 2193 373e 122d aebd e02d 583e
00000240: 60b7 1bbe cfe1 7d3e 56ef 4bbe 98cb 77bd
00000250: 46e5 85bd aea1 233e de27 babd 7dab 833e
00000260: 9c7d c23c 552f 873e 1f29 cd3d feb6 343e
00000270: b4ec 113e 42cb cd3d 46d0 063e 585e 53be
00000280: 1cfd d73d 798f 83bd ad4b ad3c 82f4 923c
00000290: b193 98bd 5d8e 743e e62a d9bd 48ab 30be
000002a0: 2643 43be f8db 403e c930 d7bd effa fa3d
000002b0: 6f8f 113d d5f8 273d 9d7e bfbd 0748 883e
000002c0: 86df 413e 4801 4abb f31d 1a3e 22cc 133d
000002d0: 27d9 b33d de74 443e 0d28 cc3d e7b5 babc
000002e0: ef34 7fbe d650 273e 45e9 12bc 5081 573d
000002f0: 7f87 3cbe 7ce7 07be 3a31 38be 9bd3 c73d
00000300: 1400 493d 2dd6 f93d cb2b 123e baf1 3bbe
00000310: ae38 763d 0399 09bc b4a1 5e3c 4001 3d3e
00000320: b75b 41bc 9645 92be 3e83 173e 8ce6 b8bd
00000330: d8d7 a7bd c489 75be 576f 93be 4169 63bd
00000340: 5ad8 60bb ad7c 713b e0b0 163e e87e 80bc
00000350: 77ff 70be 3689 1ebd bf57 07be 275e 4dbd
00000360: 5339 a63d 4d8a 983e 4d9b ed3d c9cd bc3d
00000370: cb56 753e 36a0 6d3e 0760 ec3b 8a6f 473e
00000380: b2f8 54be e1a4 27be f350 0dbe 11e7 83bd
00000390: ae47 43be 1283 3ebe 4b32 363e 8c6f 56be
000003a0: 7a89 223e 03f1 463e 8c8e 71bd ea6a 48be
000003b0: 7820 7a3b 0363 3fbe 24f7 1f3e a09c c13d
000003c0: 4b3b d33d d8d2 fb3d f30a 7d3e 0c48 9cbd
000003d0: 976a e03a 2f86 1f3e ca18 6c3c 5cd7 3e3e
000003e0: 54d5 4ebb 2782 babd 10b3 64be 4519 cdbd
000003f0: 6f17 5e3e cac2 ce3c c672 9bbe 55b4 313e
-0.20041893 0.09503369 -0.023530923 -0.007368922 0.03516219 -0.031808075 -0.22639038 -0.117037356
0.10797252 0.22858775 0.25339 -0.012034219 -0.16704977 -0.13134617 -0.13488147 0.2669411
0.10820893 0.1848648 -0.024248827 -0.10782551 0.16508204 0.25545147 -0.058825117 -0.1798457
0.1805905 0.11547224 0.24586713 -0.058324043 -0.24136454 -0.107578024 -0.07291268 -0.18491006
0.13450745 -0.16283336 -0.09179563 -0.054427117 0.081709005 0.0075108935 0.110193074 -0.14492543
-0.22453867 0.0935771 -0.14506818 -0.22503804 -0.23184721 -0.023553388 0.18228276 -0.1159209
0.1608632 0.007188723 0.051559724 0.0479744 -0.064149424 0.12549597 0.0006376067 -0.070274524
-0.06521728 0.21632393 -0.1916231 0.026307195 -0.0351938 0.21198855 0.22965027 -0.11619507
-0.115602516 -0.26501992 0.06672349 -0.22780216 -0.28636703 0.23690222 -0.27880877 0.23152761
-0.10998514 0.17537075 0.209337 -0.17697664 -0.046807174 0.1254306 0.1443319 -0.22035195
-0.1052511 -0.017245537 -0.21387988 0.117115036 0.14197044 0.1589082 -0.015710251 0.12476294
-0.14794548 0.03868901 0.07020211 0.13107936 0.14005008 -0.116196424 -0.006988916 -0.15273045
0.1573822 0.081681654 -0.116331264 -0.24538246 0.21925215 0.18466619 0.07683163 -0.02387944
-0.08088402 -0.16521366 0.15633082 0.11937221 0.25341192 -0.13098387 0.15019134 0.07409983
-0.046254918 -0.017054683 -0.13781163 -0.043806482 0.119426586 0.15668179 0.0388051 0.1301366
0.12336835 0.060097452 0.17426549 -0.21364027 0.25662315 0.20004381 -0.10451801 0.14622295
-0.23556276 0.100997314 0.15489966 -0.011543601 -0.21645416 -0.09239588 0.10399295 0.0566222
-0.21813737 -0.21145277 -0.017223839 0.108749054 0.13280067 0.17927219 -0.0850469 0.2111125
-0.15206671 0.2479317 -0.19915518 -0.060496897 -0.06537871 0.15979645 -0.09089635 0.25716773
0.023741536 0.264033 0.10017609 0.17647931 0.14250451 0.10048534 0.13165388 -0.20641458
0.10546324 -0.064238496 0.02115425 0.017938856 -0.07450045 0.23882432 -0.10603885 -0.17252839
-0.19068584 0.18833911 -0.10507352 0.12254893 0.03553718 0.04100879 -0.093503214 0.26617453
0.18932924 -0.0030823518 0.15050487 0.036083348 0.08781653 0.19185206 0.099685766 -0.022791816
-0.24922536 0.1633943 -0.008966749 0.052613556 -0.18411063 -0.13271898 -0.17987528 0.097571574
0.04907234 0.12199054 0.14274518 -0.1835393 0.060112648 -0.008398297 0.013588358 0.18457508
-0.011801652 -0.28568715 0.14796159 -0.09028348 -0.08195466 -0.23978335 -0.28795883 -0.0555203
-0.0034308643 0.0036847994 0.1471591 -0.015685514 -0.23534952 -0.038705073 -0.13217066 -0.05013862
0.081164025 0.29793015 0.11601887 0.09218938 0.2395889 0.23205647 0.007213596 0.19476143
-0.20797995 -0.1637149 -0.13800411 -0.06440557 -0.19070312 -0.18604687 0.17792623 -0.2094099
0.15872756 0.19427876 -0.058973834 -0.19572034 0.0038166326 -0.18690114 0.1562162 0.09453702
0.103140436 0.12296075 0.24711208 -0.07630929 0.001712161 0.1557853 0.014410207 0.1863684
-0.003156026 -0.09106856 -0.22333932 -0.100145854 0.21688627 0.025239367 -0.30361003 0.17353947

gru.weight_hh_l0_reverse f4 [192, 64]
00000000: da2f 23be 1e95 12bd dce0 e33d a5b8 663c
00000010: e6ad 0abe 2d7a 0bbe cb58 c2bc be49 47bd
00000020: c027 fc39 8f0e 9c3d a500 273c ed9c 8fbd
00000030: 6e97 2ebd 204f 33be 7c5b 0c3d db7d 8bbd
00000040: 3765 173d 63ad 1d3d 8eec 1c3d b949 36bb
00000050: 064e 853d 29ae 21bd 5126 02be 8000 c0bd
00000060: 3bee d6bc bcbd d13d 5686 ea3c e634 c93d
00000070: 2c3c e13c ba6e e73c c12e 7bbd 5d6f 15be
00000080: 3e00 8b3d 961f 8d3d 11eb e23d 8d34 fdbc
00000090: e12c c6bd 6c7e 6c3d f2e6 0b3d 321b 313e
000000a0: 2d9a eb3d 8b3a 273e 0d05 cb3d 90be 5cbd
000000b0: a2c0 33bd bae4 aebd 6d13 c43d f129 a8bc
000000c0: bac7 15bc d945 95bd 662b 8abc 981c 8c3d
000000d0: 9ad6 363e 66bb 173d d54f 973d 54a2 ac3d
000000e0: 74bf 31bd 8c1d 8abc 5a97 213d c666 d03d
000000f0: 99b0 c3bc b890 bcbc 5979 463d 1b58 ebbc
00000100: f39b 33bd 8da8 15bb 8aa1 8ebc 6743 c83d
00000110: 38b0 5c3d 150c fdbd 797c 0b3d 914e 903d
00000120: 2fea d43d 4b70 e8bd 22b2 81bd b882 1abe
00000130: 742e 473c a28b 75bb 7a0b b3bd e20e 42bb
00000140: fb60 a6bd 3973 5b3d c959 acbd 4b0c 1c3e
00000150: f89f dabc 6641 83bd 41a3 043b 60bc 91bd
00000160: 5ac2 13be e2d6 0f3e 8f37 36bd 9228 0a3e
00000170: e634 9d3d 67d0 6ebd 952c 83bc 148f 8b3c
00000180: 821f c5bd 5d12 f9ba dc4b 873d 441f 87bd
00000190: 3f4d 1bbd 3581 9e3c 708b 363e 50bf c63d
000001a0: 41a7 0c3e 385a 9dbd 7a08 053c 77f2 8d3c
000001b0: 9f31 043d 36f5 6f3c 1e7a bbbd 8af1 d23d
000001c0: 4223 943d 993d bb3c 7324 e5bc 9529 94bd
000001d0: 00f2 9abd fe1c 6cbd 308e c53d a063 c33c
000001e0: 842d fbba b78c 16bd d7d8 e03d 2802 39be
000001f0: 5dbd b93d bd2b af3d aa2a 293d 2e9a 9fbd
00000200: 0ac8 283e 3548 39bd 717e dc3b 308c e43d
00000210: 22d6 e73d e864 26bd 46e7 43bd a151 9dbd
00000220: ae5d c6bc fc29 003d 9b1d 813d e592 97bd
00000230: 276e 0c3b 9d31 0cbe 8337 ad3d 4573 a23c
00000240: ab1e 20bd 7c40 893d f31d 91bc 595e dcbc
00000250: 0081 263d f8d5 f23d 7389 86bd 90c1 b0bd
00000260: 7986 02bd 543c a13d f11c daba b80e b3bd
00000270: 7f66 5d3d e864 83bd 77fe e1ba f035 b0bd
00000280: 9ec5 44bd d309 043d 195d b83d 7d69 453b
00000290: c027 0abe fcfd a83c a6c0 e6bd ff8d b5bd
000002a0: 2ab6 5e3d 3ff6 2b3e 89fa 8fbc 9146 8f3d
000002b0: 6508 88bd 7a13 ed3c 3117 19bb 0625 83bd
000002c0: f432 2dbd 0ebe f8bd c721 e6bd bcef 2fbe
000002d0: a353 2c3d 47cb bf3c a8c0 02bd 33c9 2fbd
000002e0: e444 483e b019 aebc bc45 f83d 15db 79bd
000002f0: 9ba5 b53d 8dca 03bd 7437 543d 69dd af3b
00000300: 0a67 483d 27e4 113d 2ab4 113d 2649 273e
00000310: 7574 e33d 0d7e 6c3e 40db 9a3c 7c67 debd
00000320: b2c4 7d3d 1f55 2e3e 2818 9b3d b7b0 54bd
00000330: 9543 c7bd 397c afbd 76cc e4bd 84e0 51bd
00000340: 7a03 0abd f955 273c 7f34 67bd fc47 8b3c
00000350: eb55 6b3b 384c 9a3d bd1c 263c 96c6 0dbd
00000360: e932 b3bc c465 d0bc 959a d63c 2aa1 15bd
00000370: b71e 313d d301 933d 2086 0e3d af19 833b
00000380: 739b 313c f913 013d df2e a03d 80f5 ab3c
00000390: 6c64 15bd f9ba 87bd f530 283e e8dc 39bd
000003a0: ac42 b6bd 31bd 68bd da2e a93c d86f e4bd
000003b0: 05dd 3e3d 81cf ad3d 4f5f e8bc c812 253e
000003c0: 9368 c03d f265 3f3d 2480 943d c5dd ecbd
000003d0: fe46 033e e5e8 a3bd e5a3 38be 748e 6d3d
000003e0: b17b 4dbd d5ef 173e 8743 20be be0b 543d
000003f0: 4205 2abc 9f7a 323d 9d30 7c3b de96 423d
-0.15936223 -0.03578674 0.11126873 0.014082109 -0.135429 -0.13620825 -0.02372398 -0.04865431
0.00048094802 0.07619964 0.010193025 -0.07012353 -0.042624883 -0.17510653 0.034266934 -0.068111144
0.03696176 0.038495433 0.038311534 -0.0027814938 0.065090224 -0.039472733 -0.12709929 -0.09375095
-0.026236644 0.10241267 0.02862851 0.09824543 0.027494512 0.02825104 -0.061323885 -0.14593263
0.067871556 0.0689079 0.110799916 -0.030908847 -0.09676529 0.057737753 0.034155793 0.1729553
0.11504016 0.16330926 0.09913073 -0.053892672 -0.04388488 -0.0853972 0.09574018 -0.020527812
-0.009141857 -0.07288713 -0.016866397 0.06841391 0.17855301 0.03704395 0.073882736 0.08429399
-0.043395475 -0.016859792 0.03945098 0.101758525 -0.02388792 -0.023018226 0.04845557 -0.028728535
-0.043849897 -0.002283606 -0.017411012 0.09778481 0.053878993 -0.1235582 0.034054253 0.07046235
0.103962295 -0.11349543 -0.06332804 -0.15088928 0.012157071 -0.003746726 -0.08742423 -0.0029610922
-0.08123966 0.05357668 -0.08415563 0.15239064 -0.026687607 -0.06408958 0.0020238908 -0.07116008
-0.14429608 0.14046815 -0.04448658 0.13492039 0.07676105 -0.058304217 -0.01601247 0.017035998
-0.0962515 -0.0019002665 0.06606266 -0.0659776 -0.037915464 0.01934872 0.17826629 0.09704459
0.13735677 -0.076832235 0.008119697 0.01732753 0.032273885 0.014645865 -0.091541514 0.10299976
0.072332874 0.02285652 -0.027971482 -0.07234494 -0.07565689 -0.057644837 0.09646261 0.023851216
-0.0019163345 -0.03675529 0.10978859 -0.18067229 0.09069321 0.08553264 0.041300453 -0.07793079
0.16482559 -0.045234878 0.00672894 0.11159551 0.113201395 -0.040623575 -0.04782798 -0.07681585
-0.024214592 0.03129004 0.06304475 -0.07401065 0.002142796 -0.13690801 0.08457854 0.019830355
-0.039091747 0.067017525 -0.017714476 -0.026900457 0.040650368 0.118572176 -0.06569185 -0.08630669
-0.031866524 0.07872835 -0.0016640705 -0.08743042 0.054052826 -0.06415731 -0.0017241974 -0.08604038
-0.048040025 0.03223593 0.09002132 0.003012269 -0.13491726 0.020628922 -0.112672135 -0.08864974
0.054372944 0.16793154 -0.01757552 0.06995881 -0.06642226 0.028939951 -0.002335977 -0.06403546
-0.04228492 -0.12145625 -0.11236911 -0.17181295 0.04207195 0.02341236 -0.031922013 -0.042916488
0.1955753 -0.021252483 0.12122676 -0.06099995 0.08869477 -0.03217559 0.051810697 0.0053669703
0.04892639 0.035617974 0.03557221 0.16336498 0.11106197 0.2309496 0.018903375 -0.10859582
0.06195516 0.17024659 0.07572967 -0.05192634 -0.09729687 -0.085686155 -0.1117181 -0.051239505
-0.03369472 0.010213369 -0.05644655 0.017002098 0.0035909365 0.07534069 0.010138688 -0.034613214
-0.021874862 -0.02543915 0.026196757 -0.03653065 0.043242183 0.07178082 0.03479588 0.0040008645
0.010840285 0.031513188 0.0782144 0.020991087 -0.036472723 -0.06627459 0.16424926 -0.04537669
-0.088994354 -0.056821052 0.020652223 -0.11154145 0.0465975 0.08486844 -0.02836576 0.16120446
0.09394946 0.046728082 0.072510034 -0.11565737 0.1282005 -0.080034055 -0.18031271 0.057997182
-0.05016679 0.14837582 -0.1565076 0.05176901 -0.01037723 0.04357397 0.0038481124 0.04750716

gru.bias_ih_l0_reverse f4 [192]
00000000: 1118 80bb 52bd 90bb 03c5 c03c df64 a73c
00000010: 01b4 993c 44f2 a53c d771 3c3c 448b 493c
00000020: b7df 353d 92d0 5cbb e13c 023d 7a1a 723c
00000030: ccaa d33c a4ee 593d befc 10bc d2a8 d5bb
00000040: 4b17 f83c 241e 683c 19fe 1f3b 37e9 bc3c
00000050: b10c 37bb 91bb 363d 1744 5f3c 4c0a 0f3c
00000060: dd95 083b 515c 043c eaca c8bb 8185 1f3d
00000070: b5a7 a83b c0f5 083c 3a2b 223d 987e 233c
00000080: 8b1c ad3c 66e5 d0bb aba1 1d3d ff9d ad3c
00000090: 1f00 443d 5e31 7d3b 24bb 953c 2734 a33c
000000a0: ed5e c73c 7cb6 e2ba bdcc 5c3b f0e1 8f3d
000000b0: 075a a03c 58da b33c c76d cc3c af85 2d3d
000000c0: 2ff5 9c3c d4d2 9cbc c182 8c3c 6d95 023c
000000d0: 7406 a73c b949 003c 6397 c03c 0251 293b
000000e0: f712 5a3d 4ebf 413b 8630 e43c 644a acbb
000000f0: f471 f43c e5f1 723d a8f7 613b 286a 0c3a
00000100: bc9c f1bd 0388 9a3c 97b8 113d e131 a8bc
00000110: b98b 34bb 0446 05bd 2b84 93bb 1781 1abd
00000120: 4d93 48bc 4ee5 873d 5880 9dbb 55b4 423d
00000130: c26d a63c d108 483d ca7f 163d b0e7 113d
00000140: 0f1d 783a a817 1e3d 7b90 bd3c 7d6f ad3d
00000150: b2bb 253d 450e 02bd d4a0 4f3d 1e1a 083c
00000160: 1be3 a03d b10e 9bbc 40a7 303d a480 72bc
00000170: 6cb4 e73c cca7 ae3c 9f60 b73b afe5 2f3d
00000180: eb38 f13b b1d5 5c3c c166 db3b 1693 d43c
00000190: 99ce 4c3c f7b2 043d 5fbd f43c bf6e 1a3e
000001a0: 17b4 0bbd 0c15 133d 0857 bd3c 956f ccbb
000001b0: 3f7f 913c 579d b5bc 4eb6 7e3b 4105 503d
000001c0: 8bd1 7a3c e1dc 1cbd b281 1c3d 240c 66bc
000001d0: 2f56 86b8 3854 22bc b4ae 843d 1298 b6bc
000001e0: 4c8f 563d 458c cc3b 3918 d6bb 80a5 06bd
000001f0: 3928 bebc fdda 013d f5bb ac3d 9ee5 3d3d
00000200: 7722 96ba 2fc9 a53c ca42 df3c d11d aabc
00000210: f768 66bc cc8e 3d3d f8c2 893b 81cf 71bc
00000220: 9dc4 b03b bb96 b43c ff3d 84ba e6ff 143c
00000230: 510c a23c b5a8 a73c 2c73 f83c 29fb 21b8
00000240: 17d0 13bc 59d8 a2ba 3cba 2cbb 7475 8cba
00000250: b14c a03b 28c5 c63d 368b a33c aec8 a9bc
00000260: 2f7c 4dbb 2e26 93bc 0bd0 a3bb ef7e 583c
00000270: 65db c2bc 4f99 cbbc fbc0 57bc 4912 e7bb
00000280: 4fcd 9f3c 1158 d33c c47f 013c 02b7 b23a
00000290: dbf2 1dbd 3131 d6bc 3d29 f03c 526c 90bb
000002a0: 6f38 8a3b 8b0f 69bc 714b a5bc 907b 0dbd
000002b0: 860b 7d3c e656 63bb 13ee 6fbb 345f 963c
000002c0: fe50 2b3c fa7d 15bc b080 a43c 29e6 88bc
000002d0: 7ca4 22bc b71d cdbb 4768 a73b 221a c5bc
000002e0: f8eb 8cbc 56ee c93c 1047 ab3c 9d1a d3bc
000002f0: c30a 42bd 81db e2bc b9cb acba 1593 973c
-0.003909119 -0.0044171 0.023531443 0.020433841 0.01876259 0.020257123 0.011501751 0.01230127
0.044402804 -0.0033693654 0.03179634 0.01477682 0.025838278 0.0532061 -0.008849321 -0.006520369
0.030284544 0.014167342 0.0024412929 0.023060424 -0.0027931149 0.04461247 0.013627074 0.008730482
0.0020841279 0.008078651 -0.006127705 0.03894568 0.0051469454 0.008359373 0.039592005 0.009978913
0.021131774 -0.0063750027 0.038484257 0.021193502 0.047851678 0.0038634161 0.018277712 0.01992233
0.024337256 -0.0017296816 0.003369137 0.07025516 0.019574178 0.0219547 0.02495469 0.04236382
0.019159881 -0.0191435 0.017152192 0.007970196 0.02038882 0.007830077 0.023509687 0.0025835638
0.053240743 0.002956349 0.027855169 -0.0052578915 0.029839493 0.05931272 0.003447989 0.00053563947
-0.11797473 0.018863684 0.03557643 -0.020531597 -0.0027549102 -0.032537475 -0.0045018396 -0.037720766
-0.0122421505 0.06635533 -0.0048065595 0.04753526 0.020316008 0.048836533 0.036742963 0.035621345
0.0009464779 0.03859678 0.023140183 0.0846853 0.040462203 -0.03175189 0.050690487 0.008307008
0.07855817 -0.018927904 0.043128252 -0.014801178 0.028284274 0.021320246 0.005596235 0.042943653
0.0073615215 0.013478682 0.006695599 0.025949042 0.012500429 0.032397237 0.029875455 0.15081309
-0.034107294 0.035908744 0.023112789 -0.0062388876 0.017760871 -0.022169752 0.0038865986 0.05078626
0.015308748 -0.038296584 0.038209625 -0.0140409805 -6.405671e-05 -0.009907775 0.064786345 -0.02228931
0.052382752 0.0062423074 -0.0065336493 -0.032872677 -0.023212539 0.031702984 0.084342875 0.04636156
-0.0011454363 0.020237533 0.027253527 -0.02076617 -0.0140631115 0.04627876 0.0042041503 -0.014758945
0.005394532 0.02204453 -0.0010089277 0.009094214 0.019781264 0.020466188 0.030328356 -3.8619302e-05
-0.00902178 -0.0012424096 -0.0026356122 -0.0010716156 0.004891955 0.09705573 0.019963842 -0.020725574
-0.0031354537 -0.017962541 -0.004999166 0.013213857 -0.023786256 -0.024853377 -0.013168569 -0.0070517403
0.019507078 0.02579883 0.007903997 0.0013634863 -0.038561683 -0.026146503 0.029316539 -0.004407444
0.004218153 -0.014224897 -0.020177575 -0.034541667 0.015444642 -0.0034689247 -0.003661041 0.018355943
0.010456322 -0.009124273 0.020080894 -0.016711311 -0.009926911 -0.006259646 0.0051088664 -0.024060313
-0.017202362 0.02464978 0.020907909 -0.025769526 -0.047373544 -0.027692558 -0.0013183273 0.018502751

gru.bias_hh_l0_reverse f4 [192]
00000000: 1118 80bb 52bd 90bb 03c5 c03c df64 a73c
00000010: 01b4 993c 44f2 a53c d771 3c3c 448b 493c
00000020: b7df 353d 92d0 5cbb e13c 023d 7a1a 723c
00000030: ccaa d33c a4ee 593d befc 10bc d2a8 d5bb
00000040: 4b17 f83c 241e 683c 19fe 1f3b 37e9 bc3c
00000050: b10c 37bb 91bb 363d 1744 5f3c 4c0a 0f3c
00000060: dd95 083b 515c 043c eaca c8bb 8185 1f3d
00000070: b5a7 a83b c0f5 083c 3a2b 223d 987e 233c
00000080: 8b1c ad3c 66e5 d0bb aba1 1d3d ff9d ad3c
00000090: 1f00 443d 5e31 7d3b 24bb 953c 2734 a33c
000000a0: ed5e c73c 7cb6 e2ba bdcc 5c3b f0e1 8f3d
000000b0: 075a a03c 58da b33c c76d cc3c af85 2d3d
000000c0: 2ff5 9c3c d4d2 9cbc c182 8c3c 6d95 023c
000000d0: 7406 a73c b949 003c 6397 c03c 0251 293b
000000e0: f712 5a3d 4ebf 413b 8630 e43c 644a acbb
000000f0: f471 f43c e5f1 723d a8f7 613b 286a 0c3a
00000100: bc9c f1bd 0388 9a3c 97b8 113d e131 a8bc
00000110: b98b 34bb 0446 05bd 2b84 93bb 1781 1abd
00000120: 4d93 48bc 4ee5 873d 5880 9dbb 55b4 423d
00000130: c26d a63c d108 483d ca7f 163d b0e7 113d
00000140: 0f1d 783a a817 1e3d 7b90 bd3c 7d6f ad3d
00000150: b2bb 253d 450e 02bd d4a0 4f3d 1e1a 083c
00000160: 1be3 a03d b10e 9bbc 40a7 303d a480 72bc
00000170: 6cb4 e73c cca7 ae3c 9f60 b73b afe5 2f3d
00000180: eb38 f13b b1d5 5c3c c166 db3b 1693 d43c
00000190: 99ce 4c3c f7b2 043d 5fbd f43c bf6e 1a3e
000001a0: 17b4 0bbd 0c15 133d 0857 bd3c 956f ccbb
000001b0: 3f7f 913c 579d b5bc 4eb6 7e3b 4105 503d
000001c0: 8bd1 7a3c e1dc 1cbd b281 1c3d 240c 66bc
000001d0: 2f56 86b8 3854 22bc b4ae 843d 1298 b6bc
000001e0: 4c8f 563d 458c cc3b 3918 d6bb 80a5 06bd
000001f0: 3928 bebc fdda 013d f5bb ac3d 9ee5 3d3d
00000200: 4430 aaba 7a09 af3c 009e ce3c b9c8 a7bc
00000210: aa9c 34bc ddc6 3b3d fe59 2e3b 02d9 75bc
00000220: 04eb ea3b caa2 d33c 13fc 08bb a9a8 193c
00000230: dde1 903c 0cf7 b43c f5b2 f63c 6cd7 7c3a
00000240: 45dc 02bc 5e10 8c38 aa44 6abb a40b 75ba
00000250: edee ad3b 234a c13d 8eb1 9e3c c4c7 a9bc
00000260: 2187 22bb 01d5 7cbc cf49 c4bb a0e9 e13b
00000270: 81bd c4bc ecb7 c6bc 8d35 4abc 6c15 04bc
00000280: 55fb b83c 5931 db3c e477 5ab9 40e3 2e3b
00000290: 30f9 17bd f1d6 c9bc b398 f23c f9e4 a0bb
000002a0: f579 ae3b 7c83 87bc cc34 aebc d321 e9bc
000002b0: 6fe2 7f3c 3c2d abbb 6bc1 9dbb 3351 b13c
000002c0: f74d 1e3c ec23 f5bb e7dc a83c cbbf 86bc
000002d0: a6dc 25bc 94e1 aabb 7ac8 a73b 8055 b6bc
000002e0: 83bd 88bc 4279 c43c ce35 aa3c cf49 d1bc
000002f0: 525e 37bd 4e5f 01bd 8c9b a5ba e74a 903c
-0.003909119 -0.0044171 0.023531443 0.020433841 0.01876259 0.020257123 0.011501751 0.01230127
0.044402804 -0.0033693654 0.03179634 0.01477682 0.025838278 0.0532061 -0.008849321 -0.006520369
0.030284544 0.014167342 0.0024412929 0.023060424 -0.0027931149 0.04461247 0.013627074 0.008730482
0.0020841279 0.008078651 -0.006127705 0.03894568 0.0051469454 0.008359373 0.039592005 0.009978913
0.021131774 -0.0063750027 0.038484257 0.021193502 0.047851678 0.0038634161 0.018277712 0.01992233
0.024337256 -0.0017296816 0.003369137 0.07025516 0.019574178 0.0219547 0.02495469 0.04236382
0.019159881 -0.0191435 0.017152192 0.007970196 0.02038882 0.007830077 0.023509687 0.0025835638
0.053240743 0.002956349 0.027855169 -0.0052578915 0.029839493 0.05931272 0.003447989 0.00053563947
-0.11797473 0.018863684 0.03557643 -0.020531597 -0.0027549102 -0.032537475 -0.0045018396 -0.037720766
-0.0122421505 0.06635533 -0.0048065595 0.04753526 0.020316008 0.048836533 0.036742963 0.035621345
0.0009464779 0.03859678 0.023140183 0.0846853 0.040462203 -0.03175189 0.050690487 0.008307008
0.07855817 -0.018927904 0.043128252 -0.014801178 0.028284274 0.021320246 0.005596235 0.042943653
0.0073615215 0.013478682 0.006695599 0.025949042 0.012500429 0.032397237 0.029875455 0.15081309
-0.034107294 0.035908744 0.023112789 -0.0062388876 0.017760871 -0.022169752 0.0038865986 0.05078626
0.015308748 -0.038296584 0.038209625 -0.0140409805 -6.405671e-05 -0.009907775 0.064786345 -0.02228931
0.052382752 0.0062423074 -0.0065336493 -0.032872677 -0.023212539 0.031702984 0.084342875 0.04636156
-0.0012984355 0.021366823 0.025221825 -0.020481454 -0.01102368 0.045843948 0.0026603932 -0.015005352
0.0071691293 0.02583446 -0.00209022 0.009378591 0.017685825 0.022090457 0.03011463 0.00096451375
-0.007987087 6.678769e-05 -0.0035746493 -0.0009347743 0.005308023 0.094379686 0.019371774 -0.020725138
-0.0024799781 -0.015431643 -0.005990244 0.0068943053 -0.024016144 -0.024257623 -0.012341869 -0.008061748
0.022580782 0.02675693 -0.00020834763 0.0026685745 -0.037102878 -0.024638625 0.029613828 -0.004910108
0.005324597 -0.016542189 -0.02126541 -0.028458511 0.015617951 -0.005223898 -0.004814317 0.021645164
0.009662143 -0.007481089 0.020613147 -0.016448876 -0.0101234075 -0.0052148793 0.005120334 -0.022257566
-0.016691929 0.023983601 0.02077761 -0.02554789 -0.044767685 -0.03158503 -0.0012634858 0.017613841
