results/training/llama-3-70b_h100_tp4/model_tp4_H64_biGRU.pt (torch, 116621 bytes, 10 tensors)

gru.weight_ih_l0 f4 [192, 6]
000000 81 63 80 3d ad 26 a6 bd a6 75 1a be f3 24 f7 3d
       0.06268979 -0.081128456 -0.15083942 0.120675944
000010 4b 73 1a be b2 a9 77 3d 2a e4 6a 3d 6c c8 87 3c
       -0.15083043 0.06046457 0.0573465 0.01657506
000020 cc 32 b4 3d d2 46 30 3d 34 55 00 3e 21 f0 40 3d
       0.08798751 0.04303629 0.12532502 0.047104005
000030 dd 76 8b 3d 6b 20 9d bd 85 28 ba 3c e6 f1 25 3e
       0.06809781 -0.07672199 0.0227244 0.16205558
000040 b5 c2 89 3b 76 f0 ad bb 73 f2 c8 bd 0a 7f 15 be
       0.004204119 -0.005308206 -0.098118685 -0.14599243
000050 68 b3 ba bd a1 17 be 3c 91 70 00 be ab 02 3f 3e
       -0.0911625 0.023204627 -0.1254294 0.18653361
000060 f3 b9 5a 3c 9a e0 0d be e1 02 df bd 9a 19 0c bd
       0.013349998 -0.1385521 -0.10889221 -0.034204103
000070 df fd f6 bc 0f 96 e7 3d 29 0a ff bc cc ed 1e be
       -0.030150352 0.11307918 -0.031132774 -0.155204
000080 89 39 19 be f4 f6 4a 3d 8d a7 64 ba 41 47 0b 3e
       -0.14963354 0.04955192 -0.0008722477 0.136014
000090 6e f7 5d bd d8 d2 59 3d b6 62 32 be 6b 37 20 3e
       -0.054191045 0.053179592 -0.17420468 0.1564614
0000a0 40 58 68 3c e7 2f 07 bd b0 ed d1 3d e2 cd 1e bd
       0.014181197 -0.033004668 0.102504134 -0.038770564
0000b0 42 c5 e2 bc 65 63 eb 3c 28 2d 4c 3d 7b 7b 17 3e
       -0.02768195 0.028733918 0.04984775 0.14793198
0000c0 7d 91 a7 bd f1 7d da bc 18 c0 fe bd 1d 70 ae bd
       -0.081820466 -0.026671382 -0.12438983 -0.08517478
0000d0 a1 ba 75 3d 83 5d db 3d 33 46 55 bd 12 ab 1d be
       0.059992436 0.10711195 -0.0520689 -0.1539729
0000e0 53 ea a5 bd 32 73 51 3d 10 3c f4 3c 58 c0 3d bd
       -0.081013344 0.05113525 0.029813796 -0.04632601
0000f0 ab e0 74 bd d7 01 3d 3c 29 54 da bc 10 38 22 3e
       -0.059784573 0.011536083 -0.026651459 0.15841699
000100 c8 01 12 3e 85 e2 36 3e de 47 0e bc 77 ad 25 3d
       0.14258492 0.17859848 -0.008684127 0.040448632
000110 55 ba 56 be 0b 8d ca bb 03 58 65 bd 13 1f 60 3e
       -0.20969518 -0.0061813644 -0.055992138 0.21886854
000120 da 74 7b 3c a6 ee 98 bd 31 ef 1d be 45 3b a0 3d
       0.015347684 -0.074673936 -0.15423276 0.07823805
000130 86 a0 d4 3d ba 49 27 3d c3 96 c6 3c 31 ca 2f bd
       0.1038218 0.040841796 0.02424181 -0.042917434
000140 5c 99 95 3d c5 80 49 3c 66 21 47 3d 00 f6 00 bc
       0.073046416 0.012298767 0.048615836 -0.007871151
000150 4b 5c 4a bd 8c d3 f1 bc f9 fa be bc 77 cd 1c bc
       -0.049404424 -0.029519819 -0.023313032 -0.009570471
000160 f7 6c 01 bd 57 ed c4 bb 0e 36 ee 3d 69 1a 0d bd
       -0.031598058 -0.0060097384 0.11631404 -0.034449015
000170 a3 57 92 bd 6b c9 87 3d e0 11 f7 bd f7 99 a0 3d
       -0.07145622 0.06630214 -0.12063956 0.078418665
000180 ae af e2 3d 2e c2 18 be f8 02 2e bd 38 bc 7c bc
       0.110686645 -0.14917824 -0.0424833 -0.015425734
000190 97 78 57 bd 88 67 97 bd 0c 37 4a be af 98 d3 bd
       -0.052605238 -0.07392794 -0.19747561 -0.103318565
0001a0 a0 25 4a 3c 1c a5 42 bd 5a 13 36 be 44 21 ea 3b
       0.012338072 -0.04752074 -0.1778082 0.007145079
0001b0 dd 0a 3e 3d 42 65 8f bb 8e 18 5e 3c 9d 3c 22 3d
       0.04639708 -0.0043760845 0.013555659 0.039608587
0001c0 8f f9 19 3d c9 ee 82 bc 0e cc 40 3a 69 da b9 bd
       0.037591513 -0.015983002 0.0007354625 -0.090748616
0001d0 d0 a5 c0 bd 97 7a d4 3d 86 38 fe bd 42 d1 2e bc
       -0.09406626 0.10374945 -0.12413125 -0.010670008
0001e0 fa b5 29 bd 43 fc 2e be 69 0a 0c be 1b 31 85 3d
       -0.041433312 -0.17088418 -0.13675846 0.06503507
0001f0 7b d1 36 bd 44 4d de 3d 98 98 fa bc 82 44 32 3d
       -0.04463337 0.10854581 -0.03059034 0.043522365
000200 db 5c ad bc 9c 3f 00 3d dd fc 02 bd a5 fa bd bc
       -0.021162441 0.031310663 -0.03197943 -0.023190806
000210 6d 80 80 3d f2 fa 07 3c 65 e2 3f bd fb 2b e9 3c
       0.06274495 0.008299576 -0.046846766 0.028463354
000220 23 2f 9b bc c4 d2 09 3e ad 33 b7 bc 00 60 23 be
       -0.018943375 0.13459307 -0.022363508 -0.1595459
000230 27 61 96 bd 56 5d 24 3e 8d f9 31 be 6e 6e 66 bc
       -0.07342749 0.1605123 -0.17380352 -0.014064414
000240 58 30 de bd 78 08 da bd 31 c0 10 3d c9 b9 cc 3b
       -0.108490646 -0.106461465 0.035339538 0.0062477333
000250 39 10 8f 3c d8 7c ad 3d ab 43 79 3c 5c 28 3d bd
       0.01746379 0.08471078 0.015213887 -0.046181068
000260 b2 80 fd bd 6f 8a bd 3d 4c 07 a0 3d fd 95 66 bd
       -0.12378062 0.0925492 0.07813892 -0.056295384
000270 53 fc ba 3d 25 81 5c 3c ac 26 cf 3d e7 b2 6e bd
       0.09130158 0.013458525 0.10114798 -0.058276083
000280 52 71 31 3c 0c 47 0d 3e 35 b6 b2 bd eb b3 9d bc
       0.01083024 0.13796633 -0.087261595 -0.01925083
000290 bf b6 02 be 58 4b 13 3c 71 f8 0f 3d 84 70 96 bd
       -0.12765025 0.008990131 0.03514904 -0.073456794
0002a0 b5 b9 21 be e8 d7 18 be 3e 3a 32 be 9e e7 a6 3d
       -0.15793498 -0.14926112 -0.1740503 0.08149646
0002b0 bb 64 8a bd 40 85 d2 bc b6 fe 89 bd 07 6a 52 bd
       -0.06757494 -0.025698304 -0.067380354 -0.051370647
0002c0 21 54 78 bd 06 86 22 3d 47 9e e1 3b af 70 1b 3d
       -0.060627107 0.039678596 0.006885323 0.03794926
0002d0 ce 49 3e be ca 19 79 bc 5a 15 f1 3c 61 37 51 3d
       -0.18582842 -0.0152039025 0.029429127 0.051078204
0002e0 29 a6 de bd 91 e8 9a 3d 78 16 58 bd a4 47 96 3d
       -0.10871536 0.0756389 -0.052755803 0.07337883
0002f0 eb ad 00 bd d1 c1 62 3d 58 62 88 bd 4a 20 ae bd
       -0.03141586 0.05536062 -0.066593826 -0.085022524
000300 35 56 80 3d 59 88 4e bd ce 32 a5 3d 27 d2 ee bc
       0.06266443 -0.050423 0.08066331 -0.029152943
000310 59 72 c9 bd b7 a5 69 bd 66 76 fd 3d 02 82 c9 bd
       -0.09836263 -0.057042804 0.12376098 -0.0983925
000320 69 93 90 3c 86 00 fb bd 87 0f 22 3c 9d 57 7c bd
       0.017648416 -0.12255959 0.009891397 -0.061606992
000330 41 54 dc bd aa 30 0c 3d da a9 ea 3c e2 65 9b 3d
       -0.10758258 0.034226097 0.028645445 0.07587792
000340 60 ac 64 3c 1c bc da 3d f8 92 76 bb d9 a2 9d bd
       0.013957113 0.1068041 -0.0037624221 -0.07697076
000350 76 f0 89 3d 99 b1 6c 3c d6 61 59 bd 1b 49 24 3d
       0.067353174 0.014446639 -0.05307182 0.04010878
000360 4c 37 5a bd ab 3d 14 be 29 07 d0 3b 42 4e 24 3c
       -0.05327539 -0.1447665 0.00634851 0.010028424
000370 bb 40 10 bb b7 28 e4 3d 9f 10 c6 3c d8 fd 8e 3d
       -0.0022011239 0.11140578 0.024177847 0.069820106
000380 42 9a 8b 3c 71 33 08 3d 49 5c f6 3d b6 04 83 3d
       0.01704133 0.033252183 0.12029321 0.06397383
000390 a8 9e 05 be e5 80 50 3d f2 ab c8 bd bb e4 c7 3b
       -0.13048804 0.050904173 -0.09798421 0.006100265
0003a0 48 a6 c2 3d 9d 5b fe 3d 99 0c 9a 3d 9c a8 a8 bd
       0.09504372 0.124198176 0.07521934 -0.08235285
0003b0 fb cd 88 b9 a3 6e d0 3d e5 32 dd 3c e9 05 95 3d
       -0.0002609341 0.10177352 0.027001807 0.07276518
0003c0 98 c9 c5 bd 94 7b 02 be dc 36 e5 bd 59 22 20 3e
       -0.096575916 -0.12742454 -0.11192104 0.15638103
0003d0 7f c2 60 bd 44 f8 d7 3d 6d 6d 9b 3d a2 65 9c bd
       -0.054872986 0.105454 0.07589231 -0.076365724
0003e0 94 16 74 3c db 0c 17 3e 99 db 90 bd 98 3d d5 3d
       0.014897961 0.14750998 -0.07073135 0.10412139
0003f0 3f b3 27 3d a3 69 9b 3d cb 3f 9c 3d 33 6e 1b 3d
       0.040942427 0.07588508 0.07629355 0.03794689

gru.weight_hh_l0 f4 [192, 64]
000000 c3 2a 6c 3c 61 06 07 be 95 d1 0e be 19 72 44 bd
       0.014414492 -0.13186027 -0.13947137 -0.047960375
000010 d4 6b 98 3d fd d7 3a 3d 5b 3a 25 3e 6b e5 8d 3c
       0.074424416 0.04561614 0.16135542 0.01732131
000020 64 94 97 bd 3d 25 90 bd ef c7 de bd 8b e3 97 3c
       -0.0740135 -0.07038353 -0.10877978 0.018541118
000030 30 5c 8e bb 64 c2 f7 3d bd 6e 3a be a7 0e 4a bd
       -0.0043444857 0.12097624 -0.18206306 -0.04933038
000040 86 4e 46 bd 62 c4 0c 3d 63 0e f6 3b e1 09 cd bc
       -0.04841473 0.034366973 0.0075090392 -0.025029125
000050 0d b0 23 bd 10 3d 31 bb 88 52 ac 3d 5e ab c1 bd
       -0.039962817 -0.0027044453 0.08414179 -0.09456514
000060 3a 39 b1 3d 29 fe 0f bd ce 88 4d 3c ea ea a4 bd
       0.08653493 -0.035154495 0.012544824 -0.08052619
000070 43 44 29 3b de 41 02 3c 9d 65 8c 3c d0 a8 0f 3d
       0.002582804 0.007950274 0.017138297 0.0350731
000080 5b df b6 bc 86 73 4a bd 54 03 97 3d e5 5b 98 3d
       -0.022323301 -0.049426578 0.07373682 0.074394025
000090 d2 ca 42 bb d4 be 16 bd fe 26 30 bc de 59 11 be
       -0.002972294 -0.03680308 -0.010751484 -0.14194438
0000a0 7b 5f 2f be 08 61 a8 3d 3a 85 4a 3d 66 3d cb 3d
       -0.17126267 0.08221632 0.04944346 0.0992382
0000b0 d2 83 c7 bd 4f 1b ce bd e5 cb b4 bd f4 2f b8 3d
       -0.097419396 -0.100638025 -0.08827952 0.08993521
0000c0 00 70 21 3d 0e 1e 10 3e ac 26 0d be 96 dd 35 bd
       0.039413452 0.14073965 -0.13784283 -0.044400774
0000d0 fa 79 08 be 3b 85 36 bd 47 3b 89 3d 8b e8 b8 3d
       -0.1332778 -0.044560652 0.067007594 0.09028729
0000e0 85 e7 a5 3b 85 57 55 3d 6c ff fe bd e6 e7 f7 bd
       0.0050629997 0.05208542 -0.124510616 -0.12104778
0000f0 4a c2 ad bd 40 fe 08 3e e0 a5 ae 3c bb 96 91 3d
       -0.08484323 0.13378239 0.02131933 0.07108828
000100 a0 8b e9 bd 10 bc ca bd 9b c5 83 bd ba 2b ce 3d
       -0.114035845 -0.09899151 -0.064341746 0.10066934
000110 15 cc 96 bd 61 99 14 3e 86 2f 2b bd 46 35 ae 3d
       -0.07363144 0.14511634 -0.04179337 0.08506255
000120 0b 42 fd bb fd 1c a5 3d 7d a6 0e 3e 6d 8d 60 bd
       -0.00772882 0.0806217 0.13930698 -0.054822374
000130 49 06 e4 bc a9 31 a6 3d 9c f9 fd bd 35 a4 41 3d
       -0.027835028 0.08114941 -0.12401125 0.04727574
000140 a7 84 b3 3d a5 43 07 3e 10 44 b4 3d f5 4b 91 bc
       0.08765536 0.13209398 0.088020444 -0.017736414
000150 3a 3f ca bc 5a bc 50 bd b1 e4 0f 3d 47 5f 86 bd
       -0.024688352 -0.050960876 0.035130206 -0.065611415
000160 db ff eb 3d d6 ff 93 bc b9 e6 17 3e ef 4f 08 bc
       0.1152341 -0.018066328 0.14834107 -0.008319839
000170 d7 0b 88 bd cb 96 c9 bd 58 4f fa bc de 4d a1 3d
       -0.06642883 -0.098432146 -0.030555412 0.0787618
000180 b3 63 f8 bd a9 29 e2 bd c2 27 2a bd 7f 33 9b bd
       -0.12128391 -0.11043102 -0.041541822 -0.075781815
000190 f1 2f 1b bc 9c f9 d9 bc b7 78 13 3e 3b 59 d5 bc
       -0.009471879 -0.02660828 0.14401518 -0.026043525
0001a0 56 e5 4e bb d0 50 95 3d 83 2a f9 bd 20 b3 0c be
       -0.00315698 0.072908044 -0.121663116 -0.13740206
0001b0 ee de b6 39 e8 ef 16 be c8 c2 56 bd 6a 7f 25 3e
       0.0003487984 -0.14739954 -0.05243185 0.16161886
0001c0 3d b6 8a bd 8b be 18 be 2e 00 53 3d a1 8a 12 3d
       -0.067730404 -0.14916436 0.051513843 0.035776738
0001d0 a1 e8 29 bd 2e 7c b9 bc 85 20 ea b9 64 75 1c be
       -0.041481618 -0.022642221 -0.00044656187 -0.15279156
0001e0 36 47 f7 3d a0 18 e6 3d 55 49 66 3d 0a 1e d5 bd
       0.12074129 0.112351656 0.05622228 -0.1040612
0001f0 fa ad cc 3d 09 ad bc 3d 15 23 3f 3d 51 65 69 3d
       0.09994121 0.09212691 0.046664316 0.05698139
000200 06 56 13 3d 4c de eb bd 0f 42 21 be a2 f7 de 3c
       0.03597071 -0.11517009 -0.15747856 0.02721769
000210 1a a9 14 3e f7 59 aa bd d7 0e fc 3d 15 0a 2e bd
       0.14517632 -0.08317941 0.12307518 -0.042490084
000220 a7 2f ff bd 4c a8 61 3d 51 2d 90 bd 75 fe 58 bd
       -0.12460261 0.05509214 -0.070398934 -0.052977044
000230 6c 40 2d bd 0a e7 b1 bd e7 15 61 3c 43 7f 46 bd
       -0.042297766 -0.08686645 0.013738132 -0.04846121
000240 86 ec 05 3e 42 0a 15 3e 3c 8f 0d 3e 47 0e c8 bd
       0.13078508 0.14554694 0.13824171 -0.09768348
000250 b2 8a 16 3d 0a d9 85 bd dd cb 1f bd 44 32 b8 3d
       0.036753364 -0.065355375 -0.03901278 0.089939624
000260 18 24 98 3d f1 48 9a 3d a6 96 a4 3d 8e e7 7d bd
       0.07428759 0.07533444 0.080365464 -0.061988406
000270 cc 67 d6 bd f5 c0 e1 bd b3 3b ca bb b6 3f 71 bb
       -0.104690164 -0.11023132 -0.0061716675 -0.0036811656
000280 f6 15 e9 bb b0 c0 90 3d a1 2b 3e 3c 6b 1a 00 3d
       -0.0071132137 0.07068002 0.011607082 0.031275194
000290 41 c8 9a bd 3e 63 96 3d 00 60 dd 3d 91 28 86 bd
       -0.07557727 0.07343148 0.10809326 -0.06550706
0002a0 f3 31 87 3d c7 4a dd bc fa ed 35 be 51 20 07 be
       0.06601324 -0.027013196 -0.17766562 -0.13195921
0002b0 04 db 01 3e bd b4 05 3c 23 9f 11 bd 30 a7 2e 3d
       0.12681204 0.008160767 -0.035552155 0.04263991
0002c0 c9 45 58 bc 4a cc e2 bd 98 ad 8a 3d c7 ba e2 bd
       -0.013200232 -0.11074121 0.06771392 -0.11070781
0002d0 e0 74 81 b9 9c ac a8 3d dd 8f b1 bc 27 7b c9 bc
       -0.00024691876 0.082360476 -0.021675045 -0.024594856
0002e0 74 a2 29 bd 2f 82 24 bd 01 0e 44 3c 0c 1d 0b bd
       -0.041414693 -0.040163215 0.011966229 -0.033963248
0002f0 e0 8e 91 3c 2e 60 95 3d 8e bf 7d 3d fd 5e c0 bd
       0.017768323 0.072937354 0.06195026 -0.093931176
000300 76 1c e9 bc 44 92 a1 3c 1a 0b 9b 3d 61 40 5c 3d
       -0.028455954 0.019723065 0.07570477 0.053772334
000310 03 bd 39 3e 6e 2b d3 3d e1 c8 1a 3d 4a ec 38 3d
       0.18138508 0.10311018 0.03778923 0.045147218
000320 84 52 21 be 56 27 00 3e 88 24 8a bc ec 01 7a 3d
       -0.15754133 0.12515005 -0.016863123 0.06103699
000330 de ee 38 3d a0 83 4c bd bc 3b e9 3d 7b ab a0 3b
       0.045149677 -0.049930215 0.113883466 0.0049032546
000340 77 c7 08 3e 2d 56 2a 3e aa 5e e8 3d d2 9b 53 bc
       0.1335734 0.16634436 0.11346181 -0.012915568
000350 a5 18 be bd f9 6b 36 3d 23 e7 67 bd 90 3d 81 3d
       -0.09282044 0.044536564 -0.056616914 0.0631057
000360 cb 3a 43 3d 71 f8 18 be 06 03 b6 bd 7c 85 29 3e
       0.04766349 -0.14938523 -0.088872954 0.16554826
000370 b4 76 ab bd aa f0 b9 bd 6d 73 39 bd ba e8 69 3d
       -0.0837225 -0.09079106 -0.045276094 0.05710671
000380 b0 f5 2b be 92 4c e4 bc 21 79 a0 3d e3 8e f2 3c
       -0.16792941 -0.027868543 0.078356035 0.02960915
000390 73 aa 8e bd f7 ed ff bd b5 d7 40 3d ce 4f e0 bd
       -0.06966104 -0.1249656 0.047080714 -0.109527215
0003a0 5b 0f 16 bc ec f0 dd 3d 03 5a 1a be 96 21 1e be
       -0.0091589345 0.10836968 -0.15073399 -0.154425
0003b0 0f b0 c6 3d 17 c2 2a 3d e1 14 a9 bc 88 a4 48 3d
       0.09701549 0.041689005 -0.020639839 0.048985034
0003c0 6b c8 5a 3c 82 3f ea 3c 57 b9 42 3d 0f 59 ee bd
       0.013353447 0.028594736 0.047540035 -0.1163808
0003d0 da 84 a2 bd 06 ab be bd 5e 43 cd 3d b5 7e 10 be
       -0.07935496 -0.09309964 0.10022615 -0.14110835
0003e0 9f f3 01 bd ff 35 85 3d b0 0e f5 bd 87 f9 dc 3d
       -0.031726476 0.065044396 -0.11965692 0.10789781
0003f0 90 fb 58 3d 07 1c 52 bd ea eb 50 bd c7 85 a6 bb
       0.052974284 -0.05129626 -0.051006235 -0.0050818655

gru.bias_ih_l0 f4 [192]
000000 15 44 10 3e 65 83 8c 3d c9 87 89 bd 6d 82 59 3d
       0.14088471 0.06860999 -0.06715352 0.0531029
000010 a0 8b e9 3d df a2 10 bd 42 46 62 3d 21 b0 22 3e
       0.114035845 -0.035311576 0.055242784 0.158875
000020 ff d7 87 3d 80 60 d1 3d 01 cf a5 bd 87 1e 97 bd
       0.06632995 0.10223484 -0.080961235 -0.073788695
000030 92 ac b8 3d 8f 0c 58 bd ed ff b5 3d 97 34 71 3d
       0.0901729 -0.05274635 0.088867046 0.058888044
000040 1a d5 08 3e 20 04 93 bc b5 a1 55 bd f2 a7 80 3d
       0.13362542 -0.017946303 -0.05215617 0.06282033
000050 09 eb 08 3d 61 1a e4 bc da a6 16 bd 9d 7e 12 3e
       0.033427272 -0.02784461 -0.036780216 0.14306112
000060 ab 8a 02 3e 38 cd 87 3d 21 26 3a 3d 44 7e 56 3d
       0.1274821 0.06630939 0.04544652 0.05236651
000070 ca f7 b9 3c 60 b7 ed bd 2e 03 96 bd 35 d4 7e 3d
       0.022701163 -0.11607242 -0.07324825 0.062214095
000080 34 94 de 3d 85 4f 9c 3d f8 c5 0b 3e dd 24 2a 3d
       0.10868111 0.07632355 0.13649738 0.04153906
000090 ad 21 6c bd 20 4b 0b 3e 78 4a b1 3d 20 b4 c3 3d
       -0.057649303 0.13602877 0.08656782 0.095558405
0000a0 44 ee 08 3d 7e de 0b 3e a9 dc 82 bd 71 66 00 3e
       0.033430353 0.13659093 -0.06389744 0.12539078
0000b0 6b 7e e0 3d b9 c9 e2 bb d8 cf 22 bd c5 f2 a1 3d
       0.10961612 -0.00692102 -0.039748996 0.07907633
0000c0 22 28 17 3d f1 57 cc 3d 4c c1 93 bd eb 34 c3 bc
       0.036903508 0.09977711 -0.07214603 -0.023828944
0000d0 09 2e 03 3e e1 3f 16 bd 96 79 07 3e 15 24 10 bd
       0.1281053 -0.036682013 0.13229975 -0.03519066
0000e0 b9 f7 fe 3c 0b 6a 00 3e c2 d4 ad 3d 35 fb 6b bd
       0.031123983 0.12540452 0.08487846 -0.057612617
0000f0 16 76 ae 3c 82 65 01 3e 3d 37 76 bb da 57 88 3d
       0.021296542 0.12636378 -0.0037569546 0.06657381
000100 4f 1b 0f 3e 13 1f f9 3d dd b8 35 bd e5 21 12 3e
       0.13975261 0.1216413 -0.044365752 0.14270742
000110 a7 94 f2 3d 2a c1 c7 3d 2f 85 f7 3c 2a f9 65 3e
       0.118447594 0.0975364 0.030214874 0.2245833
000120 36 3f bc 3d 21 39 c8 3d c6 6a 09 3e 5a eb 3e 3e
       0.09191744 0.097765215 0.13419637 0.18644467
000130 b0 d1 50 3d 48 d6 42 3d 07 56 f8 bc 7c 7d 04 bd
       0.050981224 0.047567636 -0.030314459 -0.032346234
000140 ba 57 8d 3c b9 ab d6 3d 9d 51 db 3d e2 92 0d 3e
       0.017253745 0.10481972 0.10708926 0.13825563
000150 5d d5 ed 3d c9 76 21 3d 3b 03 a7 3d ff 71 14 bd
       0.116129614 0.039419923 0.08154913 -0.036241528
000160 cb 72 b2 3d 4c 3d f6 3d e5 6a 6c bc 7e 47 93 bd
       0.08713301 0.1202341 -0.0144297825 -0.071913704
000170 54 c3 dd 3d c6 ae 0b 3e ee 02 85 3d 3f 26 92 3d
       0.108282715 0.1364089 0.064946994 0.07136201
000180 e4 17 bb 3d 14 0a 45 3e be 41 93 bd 80 28 f2 3d
       0.09135416 0.19242126 -0.07190274 0.11824131
000190 17 62 ef bc 9c bb e0 3c 20 d5 19 bd 4a 81 55 3d
       -0.029221578 0.02743321 -0.037556767 0.052125253
0001a0 ee 18 f6 3d 8a 89 ac 3d 3d d3 33 3e 9c 1f 54 3c
       0.12016474 0.08424671 0.1756105 0.012946989
0001b0 fb f3 5f bd e1 c2 d9 bc 7d 91 13 3e a4 42 cc bc
       -0.054676037 -0.026582183 0.14410968 -0.02493412
0001c0 3f 8b a8 3d f0 68 d5 3d 9f 22 c7 bd 38 dd 0a 3e
       0.08229684 0.10420406 -0.097234 0.13560951
0001d0 01 fd c0 3d 83 80 03 3d 4b bb f0 bc d6 e9 5a bc
       0.09423257 0.03210498 -0.029386183 -0.013361415
0001e0 9a 11 d1 3c 02 a5 12 3e 69 f7 0c 3d 9f cf 02 3d
       0.025521088 0.14320758 0.034415636 0.031936284
0001f0 56 df 2c bd ad 83 13 3e e3 b5 5c bd 6d 40 37 3e
       -0.042205177 0.14405699 -0.0538844 0.1789567
000200 6d 90 00 be 7a 95 b5 bd 66 bb b6 3d eb 8f 7b 3d
       -0.12555094 -0.08866401 0.08922462 0.061416548
000210 0f 95 22 bb 13 a5 f3 3c d9 f5 b5 3d ee 13 65 bd
       -0.0024808084 0.0297418 0.08884782 -0.05592721
000220 d1 02 d4 bd 01 97 eb 3d 29 c3 d1 3c bb ea 2e bd
       -0.103521 0.11503411 0.025605755 -0.042704325
000230 dc cd 97 bd 5b 9b 95 3d 6c 2b d5 bd 73 48 be 3d
       -0.074123114 0.07305022 -0.10408673 0.09291162
000240 64 f2 60 bd 80 8c dc 3d 84 32 f2 3d ce 56 0f 3e
       -0.05491866 0.10768986 0.11826041 0.13997957
000250 77 a9 d8 bd 5c ca b7 3b 84 27 8e 3d 31 55 09 be
       -0.10579198 0.00560884 0.06941131 -0.13411404
000260 ef 7b f7 3d 60 08 ee bd 24 d5 0c be 21 d9 28 bc
       0.12084185 -0.11622691 -0.13753182 -0.010305674
000270 99 36 da bc d5 66 1c bd ed 63 1f 3d f0 77 3a 3d
       -0.026637362 -0.038184006 0.038913656 0.045524538
000280 0d 90 43 3d 47 b1 df bc 91 38 d4 3d 03 0d fb bd
       0.0477448 -0.027306212 0.10362352 -0.12258341
000290 30 21 cf bd 35 8e ac 3b 7f 3a 6a bd 74 63 84 3d
       -0.10113752 0.005265976 -0.057184692 0.06464282
0002a0 6e 1f 02 3e f4 7e b1 3c 76 0f 2b bd e7 2f 6c bd
       0.12707302 0.021666981 -0.04176279 -0.05766287
0002b0 03 82 79 3d 37 91 a5 bd e3 96 a6 3d 21 75 48 3d
       0.060915004 -0.08084338 0.08134248 0.048939828
0002c0 1a cc e3 3b e8 98 e0 3d 1b 59 e9 bd 33 28 bb 3c
       0.006951821 0.109666646 -0.11393949 0.022846317
0002d0 9a 5f 59 bd 8f 22 58 bd 17 b8 43 bc 04 c1 b8 bd
       -0.05306969 -0.052767333 -0.011945746 -0.0902119
0002e0 ae 96 c8 bd 42 a0 b8 3d 82 24 44 3d c6 ed ff 3d
       -0.09794365 0.09014942 0.04788638 0.124965236
0002f0 e2 fc bf bd 10 59 9a bd f9 b0 b0 bc 49 24 9b 3d
       -0.093744054 -0.075365186 -0.021568762 0.0757528

gru.bias_hh_l0 f4 [192]
000000 9d f1 54 bd f3 35 a4 bc 7c 6a 8f 39 63 00 53 3d
       -0.051988233 -0.020045256 0.00027354422 0.05151404
000010 e0 2c 09 3d 45 40 d2 bc 9e 4e 22 3d c0 e6 19 3e
       0.03349006 -0.025665412 0.039625756 0.1502943
000020 97 e5 b3 bb 5b b9 97 bd 1a 14 0f 3d 34 a0 18 3e
       -0.0054900157 -0.074084006 0.03493128 0.14904863
000030 0a 38 bc 3d 99 e2 5e bd ce a3 73 bd a0 8e 4c bd
       0.09190376 -0.05441532 -0.05948239 -0.049940705
000040 2c 9a e5 3d b9 20 1a bd 37 a1 53 3d 36 de 49 3d
       0.112110466 -0.037628863 0.05166742 0.049284182
000050 64 85 1b bd 6d 4f 41 bd 10 9b 15 3c a0 47 a6 3c
       -0.037969008 -0.047194887 0.009131208 0.020297825
000060 51 4b a3 3d 62 24 9b ba 88 b5 bc 3c b4 c1 de 3d
       0.0797335 -0.0011836404 0.02303578 0.1087679
000070 19 f6 67 3c 75 67 b4 3d 84 27 d1 3d 3f ef c2 3d
       0.014157795 0.08808795 0.10212615 0.09518289
000080 0f d3 19 3d 2a 60 32 3e 86 2c 55 3d d6 b9 fa 3d
       0.037554797 0.17419496 0.052044414 0.12242477
000090 08 a4 71 3c 68 f1 a2 3d 19 e5 e6 3d 10 d9 d7 bd
       0.014748581 0.07956201 0.11274166 -0.10539448
0000a0 1e 0b b0 3d 6d c3 7f bd 77 43 ae 3d 84 0c e6 3d
       0.085958704 -0.062442232 0.08508962 0.11232856
0000b0 5c 51 ee 3c 8f 23 0b 3e 44 92 93 bb b3 04 cb 3d
       0.02909153 0.13587783 -0.00450352 0.09913006
0000c0 de 65 a9 3b 09 f2 d5 3c 20 bb c1 bd aa ee a6 3d
       0.005169614 0.026116388 -0.094595194 0.0815099
0000d0 35 01 a0 3d ce d7 73 3d 9d 5b 94 3d db 54 e9 3d
       0.0781273 0.05953198 0.07244036 0.11393138
0000e0 34 94 13 bd fa 35 ea 3c d4 fc 78 bd b8 88 98 bd
       -0.03603001 0.028590191 -0.06078799 -0.07447952
0000f0 f4 d6 9c bd 25 c6 0b 3e e1 a8 05 bd 4d 5d 27 bd
       -0.076581866 0.13649805 -0.03263176 -0.040860463
000100 93 c0 40 3c 71 4d 3a 3c 6e 79 00 3e c2 d9 21 3e
       0.011764663 0.0113710025 0.12546322 0.15805724
000110 c1 f5 8c bd 79 d2 6b bd fc a9 3f 3e af fb 58 3c
       -0.06882811 -0.05757377 0.18717188 0.0132436
000120 bb 2f de 3d 05 10 3e 3d 4c ad ed 3b 4c 99 1e 3e
       0.108489476 0.046401996 0.0072533246 0.15488166
000130 7d da 12 3e e1 c7 22 3e a3 43 14 3e c7 fe bc 3d
       0.14341159 0.1589656 0.14478926 0.092282824
000140 af 48 2e 3c 55 0f 38 3d 53 06 c7 3d 4f e0 49 3e
       0.010637446 0.044936497 0.09718003 0.19714473
000150 8a b1 57 3e 4b 06 f4 3d e8 24 fc 3d 25 90 f0 bc
       0.2106382 0.11915263 0.12311727 -0.029365608
000160 ea f4 4f 3d 59 c1 f5 3d 9f 34 dc 3d 22 f9 3d bd
       0.050770678 0.11999769 0.10752224 -0.04638017
000170 32 a0 e2 bc df ed da 3d 12 58 57 bd 7b 8c 47 3c
       -0.027664278 0.106899016 -0.052574225 0.012179489
000180 b9 0b 0e be e6 07 c7 bb 85 f6 61 3d cc be 47 bd
       -0.1387166 -0.0060739396 0.05516674 -0.048765942
000190 3c e7 d9 3a 0e 2e 0b 3e 26 fd 10 3e e0 1c 88 bd
       0.0016624699 0.13591787 0.14159068 -0.066461325
0001a0 5c 9a 3a 3d b7 47 ca 3c a5 77 f9 3c 57 fb f8 3d
       0.045557365 0.0246924 0.030452559 0.12157314
0001b0 f8 c7 33 bd df c5 a0 3d 9d dd c7 3d a4 b3 eb 3d
       -0.043891877 0.07850241 0.09759066 0.11508873
0001c0 01 03 f3 3d 38 da b2 3d d4 33 1b be 24 68 54 3d
       0.11865807 0.08733028 -0.1515649 0.05185713
0001d0 1f 17 57 3e d6 81 3f 3e 99 0a 63 3c c4 d0 c2 3d
       0.21004914 0.18701872 0.013857507 0.09512475
0001e0 ab 24 e3 bd 63 22 19 3e 41 80 42 3e e7 2a 34 be
       -0.11090978 0.14954524 0.18994237 -0.17594491
0001f0 41 74 44 3d a9 75 03 3e 33 c3 e9 3d 95 ef 8b bc
       0.04796243 0.12837853 0.114141844 -0.017082015
000200 2e 52 f3 bd a0 b4 30 bd 72 ae c8 bd 77 91 d1 3d
       -0.11880909 -0.043141007 -0.09798898 0.10232823
000210 fe ac a1 3d fd 61 5c bd 96 b7 37 3d 0b 7a b7 3d
       0.07894324 -0.053804386 0.044852816 0.08958825
000220 d8 35 bf 3c 7e a5 bf bd 7c 9e af 3d cc ee e5 3c
       0.023341104 -0.09357737 0.0857515 0.028067969
000230 05 6b 06 ba db bf f3 3d 85 fc 9c 3c 7e 34 e9 3d
       -0.00051276415 0.11901828 0.01916338 0.11386965
000240 37 80 fc bd c7 9e cd bd c8 fa 1d 3b 02 b0 00 bd
       -0.123291425 -0.1004005 0.0024105776 -0.031417854
000250 77 a0 ab 3d 63 f3 a9 bd 7f 19 f4 bc 81 32 b9 3d
       0.083802156 -0.082983755 -0.029797314 0.09042836
000260 7e d2 c4 bd 47 18 0d be c0 50 d8 3d df de a4 3d
       -0.09610461 -0.13778792 0.10562277 0.08050322
000270 90 1d bd bd 1f 03 62 bd 79 40 8e bc 33 7a 11 3d
       -0.09234154 -0.055178758 -0.017364727 0.03551693
000280 8f 8a d5 bd 1b b3 85 bd d2 06 b3 3d 2c e7 89 bd
       -0.104268186 -0.06528302 0.08741535 -0.06733546
000290 d6 e2 72 3c 6b 99 0a be 1b 58 af bd af e9 08 be
       0.01482459 -0.13535087 -0.08561727 -0.13370393
0002a0 fb 6e 83 3d 71 15 83 3d 0f 0a 74 3d 27 26 10 3d
       0.06417652 0.06400574 0.059579905 0.035192635
0002b0 4e 31 d6 3d 4a 46 03 3c d4 06 9a 3c 5b da 19 bb
       0.10458623 0.008012364 0.018802084 -0.0023476097
0002c0 78 a2 f9 bd 29 d0 93 bd 3e a2 d4 3d 6c 37 e0 bc
       -0.121891916 -0.07217438 0.10382508 -0.027370177
0002d0 8f e1 3f 3d 1c d1 97 bb cc ed 1d 3d 5e dc e0 bd
       0.04684597 -0.004633082 0.03855686 -0.10979532
0002e0 19 45 d2 3d 9d 83 86 3c f6 43 d1 3d 42 7f 32 3d
       0.102670856 0.01642018 0.10218041 0.043578394
0002f0 d7 6e 58 bd 30 54 00 be 98 1a ee 3d 9e a6 4b 3d
       -0.05284008 -0.12532115 0.11626166 0.049719445

gru.weight_ih_l0_reverse f4 [192, 6]
000000 4a e9 37 bc e6 17 ba bd ca f5 ad 3d 74 ff 03 3d
       -0.011225054 -0.090865895 0.08494146 0.03222604
000010 62 a6 2c bd f8 9d 1b 3e 8b 9d 53 3d 27 c1 c3 bd
       -0.042150863 0.15196979 0.051663917 -0.09558325
000020 a1 24 6c 3d 83 18 35 3c 7c cf 0f bd d4 5a 10 3e
       0.05765212 0.011053207 -0.035109982 0.14097148
000030 d9 a8 b0 3d 3d c3 0a bd 98 29 b6 3d 2f 83 b0 3d
       0.08625955 -0.0338776 0.08894652 0.08618771
000040 cd 3b f1 3d 55 fc 1e bd c9 0d e0 bc f1 28 c6 3d
       0.11778984 -0.03881486 -0.027350323 0.09675778
000050 cd c6 4d bc fd 8e dd bd 2c a7 6a 3c 5c 18 ac 3c
       -0.012559605 -0.108182885 0.014322083 0.02100771
000060 a4 cf 24 3d 1e 3e 31 bd 7f 75 9e bd 85 49 6f 3d
       0.040237084 -0.04327213 -0.07737254 0.058419723
000070 ff 94 e1 bb 1d 31 b4 bd dc 61 ae bd cf 4f 8d bd
       -0.006884217 -0.0879843 -0.08514759 -0.06899988
000080 3a 43 a5 bd c3 e7 82 bd 37 b1 ac 3d 34 50 e3 bc
       -0.08069463 -0.06391861 0.084322385 -0.027748205
000090 74 2a 15 bd b4 39 d2 bd ad c4 30 bd 64 fe d4 3d
       -0.03641744 -0.10264912 -0.043156315 0.10400084
0000a0 9a 71 30 be a7 b6 94 3b f7 d6 ea bd e1 a2 97 3d
       -0.17230836 0.0045383754 -0.114667825 0.074041136
0000b0 e7 b4 42 bc 1c 2f f2 bd 5f 9e bd bd b4 c5 97 bd
       -0.011883951 -0.11825392 -0.092587225 -0.07410756
0000c0 99 f6 a9 bd 2e ae a1 bd 1c 53 8a 3d 4d 6d 9c bd
       -0.08298988 -0.0789455 0.06754133 -0.07638035
0000d0 49 c6 22 3d cd 2c f0 3d 96 31 db bd 7d 1c c8 bc
       0.03973988 0.11727295 -0.10702817 -0.024427647
0000e0 7c 41 4a be d5 f6 80 3d 4b 75 84 bd ca 4f af 3d
       -0.19751543 0.062970795 -0.06467684 0.085601404
0000f0 e5 77 fa 3d 96 62 81 bd b9 ce 93 3d f0 b9 c6 3c
       0.12229899 -0.06317632 0.072171636 0.024258584
000100 c1 9c 19 3e 35 5a e6 3d 3d 90 bc 3c 13 c2 5e bd
       0.15001203 0.112476744 0.023017997 -0.054384302
000110 03 e0 91 3c 0d aa ae bd ee 32 e9 bd bb ad c0 3c
       0.017807012 -0.08528528 -0.11386667 0.023520341
000120 cd 4f f4 bd 06 55 cf bc ce d3 17 be 1d c8 88 bd
       -0.11929283 -0.025309097 -0.14826891 -0.066787936
000130 53 a9 9d bd e6 5f a1 3d 1a 01 b9 bc 29 43 ec 3c
       -0.07698312 0.07879619 -0.022583533 0.028840618
000140 53 af e7 3d 1c 88 c0 3d 54 fb 7d bd 5e 8e 80 3d
       0.11312737 0.09400961 -0.062007263 0.062771544
000150 26 7e eb 39 a2 d4 1e 3e 11 c4 a5 3d 07 6c 03 3d
       0.0004491668 0.155108 0.08094037 0.032085445
000160 f4 db 52 3b 44 db 01 3e d4 18 17 3e 75 32 7e 3d
       0.003217456 0.126813 0.14755565 0.06205984
000170 44 f0 09 be a3 0a 59 bd 84 ec 19 be 3b 43 e9 bd
       -0.1347056 -0.05298866 -0.1503163 -0.11389776
000180 47 dd f1 3d f6 fe a7 3d 5a 1f ee bc 77 c5 69 bd
       0.118097834 0.08202927 -0.029067684 -0.057073083
000190 cf c2 03 3e aa 27 1d 3d ef ba 74 3b 2f 07 87 ba
       0.12867282 0.038367905 0.0037342866 -0.0010301823
0001a0 3c c8 83 3d f4 fa 1f 3e eb 75 48 bc 4b 37 04 3b
       0.06434676 0.15623075 -0.012235145 0.0020174559
0001b0 15 ab 30 bd 78 3d 72 bc 26 c9 a5 bc d4 ed 52 3d
       -0.043131907 -0.014785163 -0.020237517 0.05149634
0001c0 66 e3 19 3d ef 30 4c 3d b8 46 ff 3d 65 38 a3 3d
       0.03757038 0.049851354 0.124646604 0.07969741
0001d0 de f9 01 be d6 9c 1e 3d 6b 13 ae 3d 69 af 0c 3e
       -0.12692973 0.03872379 0.084997974 0.13738789
0001e0 c4 40 47 bd c6 65 5a bd 63 a9 c8 3d de e8 72 3d
       -0.04864575 -0.053319715 0.09797933 0.05930411
0001f0 51 42 1b 3e 20 be 1a 3c 75 3a c2 3c 8f 71 bc 3d
       0.15162016 0.009444743 0.023709515 0.09201347
000200 5a 49 d5 3d 79 fd 99 bb f5 5f 95 3d 74 4a 46 bd
       0.10414381 -0.0046994057 0.07293693 -0.048410848
000210 66 54 8c 3d f6 e4 e3 bc 10 d5 37 bd 89 88 b3 3d
       0.06852035 -0.027819138 -0.044880927 0.087662764
000220 bf ee 8f bc 4e bf 87 3d 0b 29 07 bb 12 e8 a2 3d
       -0.017569898 0.06628285 -0.0020623829 0.0795442
000230 22 3a 88 3c c0 08 ff 3d 0e 0d 05 3d 25 0a f8 bc
       0.016629282 0.12452841 0.032483153 -0.030278275
000240 0d 19 2a be fb e5 be bd 74 c4 99 bb b5 2b 53 3d
       -0.16611119 -0.09321209 -0.0046926085 0.051555354
000250 e2 23 91 3d 74 33 45 3d 50 06 b7 bc ba e6 e0 bd
       0.07086922 0.048144773 -0.022341877 -0.109815076
000260 29 af 33 bc 61 0f ee 3b 5d e0 a6 3d 06 ae 04 be
       -0.010967054 0.007265017 0.08148263 -0.1295701
000270 85 6b 05 be 82 49 12 be a2 39 fb bc 67 86 fa 3d
       -0.13029297 -0.14285854 -0.03066713 0.122326665
000280 51 aa 37 be e9 58 9c bd 12 cf 88 bd a1 89 42 3d
       -0.17936064 -0.07634146 -0.066801205 0.047494534
000290 6e da c0 bd 1f 46 fb bd 7d ee e8 3c f1 46 c3 3d
       -0.09416662 -0.12269234 0.028434033 0.095350154
0002a0 68 35 8f 3d 70 78 c3 3d 96 0a 06 be ec 60 5c 3d
       0.06992608 0.09544456 -0.13089976 0.05380337
0002b0 23 ad f1 bd de 34 0b 3e 36 2b 07 be 6f 7e 57 bd
       -0.11800601 0.13594386 -0.13200077 -0.05261081
0002c0 d4 2a b8 3d 08 5e a4 3c 68 a8 b2 bd 01 af fc 3b
       0.08992544 0.020064369 -0.08723527 0.007711292
0002d0 b3 28 0c be 2a 03 08 be 19 69 4a 3c 86 0b 06 3e
       -0.136874 -0.13282457 0.012354159 0.13090333
0002e0 4c db 02 3d b7 7f 48 bd ec 28 3a 3d ce c1 20 3e
       0.03194742 -0.048949923 0.045449182 0.1569893
0002f0 2b 65 8d 3d 00 cd 99 3c 82 9c d6 3d fa dd 70 3d
       0.06904062 0.01877451 0.1047907 0.058805443
000300 21 77 11 bd ae fd 24 bd 83 65 03 be 75 c2 d6 bd
       -0.035514 -0.04028099 -0.12831692 -0.104863085
000310 dd 0b b1 3d 4d 3f 62 bd 46 55 a0 3b 4e 27 44 bd
       0.08644841 -0.05523615 0.004892978 -0.047889046
000320 d1 74 94 bd 79 e0 b4 bd 59 54 db 3c bb cf 14 3d
       -0.072488435 -0.08831877 0.026773619 0.03633092
000330 47 ac 22 bd 5a 25 a2 bd 97 a5 95 bd 0e a9 0e 3e
       -0.039715078 -0.079172805 -0.073069744 0.13931677
000340 0e b0 95 bc c9 70 b4 3d d4 b9 2f 3e 41 a0 91 bc
       -0.018272426 0.088105746 0.17160732 -0.01777661
000350 10 30 50 bd 36 a2 4c 3d a7 c5 9a 3c a2 4b bf 3d
       -0.050827086 0.049959384 0.018893076 0.09340598
000360 12 ed f6 3d 95 a2 a0 bb d8 0c 0c 3e b3 00 11 3c
       0.12056936 -0.004902194 0.13676775 0.008850264
000370 c3 e4 f7 bd aa 0b 9e bd 5a cb 28 be 26 34 77 3c
       -0.1210418 -0.077170685 -0.16483822 0.015088117
000380 c7 7d 90 bd 00 52 3e 3c 19 bc 2d be 4d 5d 22 3e
       -0.0705524 0.01161623 -0.16966285 0.15855904
000390 e2 c8 ec bd a0 b9 9d 3d 8c 66 e8 bd a2 b8 67 bd
       -0.11561753 0.07701421 -0.11347684 -0.056572564
0003a0 5b b9 50 bd 93 be 89 3a e8 f4 83 3d 5a 4f c8 bb
       -0.05095802 0.0010509066 0.064431965 -0.006112975
0003b0 af 4f a5 bc b4 7e 3b bd 1e 91 40 bd e6 24 89 3d
       -0.020179598 -0.04577513 -0.047013395 0.06696491
0003c0 32 15 35 bd 3b fb 8f bd 2d af 85 3c d1 bb e4 3d
       -0.044209667 -0.0703034 0.016318882 0.11168636
0003d0 cb 5a fe bd c7 55 31 3d e3 62 5d bd c4 4a 39 bd
       -0.12419661 0.043294694 -0.054049384 -0.045237318
0003e0 78 bf 03 be 06 3a ff 3d 8c bd 83 3d 83 8f f8 3d
       -0.12866008 0.12462239 0.064326376 0.12136748
0003f0 6b 4a ac 3d 7e 89 cf 3c 76 55 df 3c 37 f0 d9 bd
       0.084126316 0.025334116 0.02726243 -0.106415205

gru.weight_hh_l0_reverse f4 [192, 64]
000000 2c e1 18 be 4f b2 01 be 5c a3 25 bc f0 b2 c8 3d
       -0.14929646 -0.12665676 -0.010109749 0.097997546
000010 05 d2 8f bd f9 8e ac 3c 25 c0 7a 3d 74 da 75 bd
       -0.0702248 0.021064268 0.0612184 -0.060022786
000020 07 ff 95 bd 8e d3 1a 3d 85 42 d1 3d 83 3b 4a 3d
       -0.07324033 0.03779941 0.10217766 0.04937316
000030 cf fb 45 3b 40 95 f4 bc a7 bb e8 bc 55 ca ec bc
       0.0030209904 -0.029856324 -0.028409792 -0.028905073
000040 e7 66 d1 3d 3b 36 4b bd 02 d1 6c 3d b6 79 0b 3c
       0.10224705 -0.049612265 0.057816513 0.008512905
000050 bf ac 14 bd 7c f0 06 bd 43 cf b8 3d e6 e4 82 bd
       -0.036297556 -0.032944188 0.09023907 -0.06391315
000060 32 dc c5 3d 31 84 00 3e 11 66 26 be 9d c6 f8 3d
       0.096611395 0.12550427 -0.16249873 0.121472575
000070 20 a8 be 3c 6e 5b e4 bd c5 34 85 bb a3 26 d3 bd
       0.023273528 -0.11150251 -0.0040651285 -0.10310104
000080 6f f2 b5 bd 3e b8 95 bd 55 5b 6b 3d 36 10 99 3d
       -0.08884131 -0.07310532 0.057460148 0.07473795
000090 1d 1c fb bd b9 6f 0b 3d f0 f0 7d 3d cb 03 c9 3d
       -0.122612216 0.034042094 0.061997354 0.098151766
0000a0 5b bc 5f 3d ef 2e 0d bd 71 3b f7 3a 0a 2c ca bc
       0.05462299 -0.034468587 0.0018862319 -0.024679203
0000b0 e9 33 fe bd a4 99 57 bd e0 bd 32 3d 43 f4 28 3d
       -0.12412245 -0.052636757 0.04363811 0.04124857
0000c0 37 c8 b7 3d b7 ac a2 bd af f3 a2 3d 72 c6 36 bd
       0.08973735 -0.07943099 0.07956635 -0.044622846
0000d0 9a 5c c2 3c b4 39 5f 3d 3d 88 3f bd 85 63 19 3e
       0.023725796 0.05449839 -0.046760786 0.1497937
0000e0 01 5b 73 bd af 63 99 3b 84 2d 94 3d 68 95 68 bc
       -0.05941296 0.0046810727 0.07235244 -0.0141957775
0000f0 7d f4 51 bc dc c2 1d 3b 04 a0 8a 3d ca a0 06 be
       -0.012814638 0.0024072444 0.06768802 -0.13147274
000100 5e 43 f7 bc 12 0f 23 be a4 eb ab bd 59 95 47 3e
       -0.03018349 -0.15923718 -0.08394554 0.19490565
000110 99 5c fa 3c 6a 86 1a 3d 82 c7 c2 bd fe 69 5a bd
       0.030561732 0.037725843 -0.09510709 -0.05332374
000120 f7 a8 d2 3d f8 e4 b2 bd 59 d6 06 3e 3b 0c c6 bd
       0.10286134 -0.087350786 0.13167705 -0.096703015
000130 55 73 d5 bb 70 04 c2 3d 39 74 c7 bd 94 3b 44 3d
       -0.006513993 0.09473503 -0.097389646 0.04790838
000140 53 c9 18 3e 9a ae ba bd 67 10 09 be e1 3a 8a bd
       0.14920549 -0.09115334 -0.13385163 -0.067495115
000150 77 cf 79 ba c7 7a 92 3b 1c be ee 3d a8 23 76 bc
       -0.0009529511 0.0044702026 0.11657354 -0.01502315
000160 20 4d b9 bd cd 68 ba 3d b3 51 db bd cb 8b 83 3d
       -0.090479136 0.091020204 -0.10708942 0.06423148
000170 1e d9 7d bd 2a 08 f9 3d fc 3d c8 3d 53 53 d3 3d
       -0.061974637 0.1215976 0.097774476 0.10318627
000180 d1 3d 3f be 9b a2 c4 bb 70 ae cc bd 7f e1 a8 bc
       -0.18675925 -0.0060008294 -0.09994209 -0.020615337
000190 90 eb 00 3e a0 70 84 3c ce a3 86 bd 7e f5 3d bd
       0.1258986 0.016166985 -0.06574212 -0.046376698
0001a0 ca 85 2a bc ce f7 45 bd ef db 6b 3d 51 0a 15 3e
       -0.010407874 -0.048332028 0.057582792 0.14554717
0001b0 ec c4 81 3d 14 2e 8a bd e4 30 9e bd 4e d3 f8 bd
       0.06336388 -0.0674707 -0.07724169 -0.12149678
0001c0 69 b2 de 3d cb 70 94 3d 1b 87 17 3d 39 1f 90 bd
       0.10873873 0.07248076 0.03699408 -0.07037205
0001d0 24 fc 36 3d 66 0f 80 bc 82 ae 94 3d 71 02 8b bd
       0.044674054 -0.015632343 0.07259847 -0.06787575
0001e0 4c ee c8 bd 31 e3 30 bd 90 82 0e 3e 9f a9 16 bb
       -0.098110765 -0.043185417 0.13916993 -0.0022989286
0001f0 1d a0 1d 3e 7e bd 85 bd 9d 07 e7 3d 89 7f f9 3c
       0.1539311 -0.065302834 0.11280749 0.030456321
000200 30 b6 ea 3d cb a0 ff bd 2d 1d dc 3d 59 2c 0c 3d
       0.11460531 -0.12481841 0.10747752 0.03422198
000210 eb 35 07 bd fa a1 a4 bd 06 e8 a1 bd 67 36 75 3d
       -0.033010405 -0.08038707 -0.07905583 0.059866335
000220 fa 31 4d bd ed b3 88 bd 4f ab 1c bc cc e5 e5 bd
       -0.05009649 -0.06674943 -0.0095623275 -0.11225471
000230 59 75 17 bd 3f 49 cb bd 9a 8c ed 3c 2e 8d 8e bd
       -0.036977146 -0.0992608 0.028997708 -0.06960522
000240 76 cc 97 3d 19 2a 2f 3c 7d a9 6b bd a0 ee d2 3d
       0.07412045 0.010691189 -0.057534683 0.1029942
000250 c6 c1 bf bd d5 ca 13 be 9a eb a2 3b 52 1a 9c bd
       -0.09363131 -0.14432843 0.0049719336 -0.07622208
000260 b2 aa 99 bd 93 2a 0c 3b 2c 6c 98 bd cd 16 6b bd
       -0.07503261 0.002138768 -0.07442507 -0.05739479
000270 df 96 d6 bd c9 a1 9e 3d 4a 38 f8 bb c3 8e 16 bd
       -0.10477995 0.07745702 -0.0075750696 -0.036757242
000280 74 02 2d bd 41 db 8d 3d 8a 85 aa 3d e5 df eb bd
       -0.042238668 0.06926585 0.08326252 -0.11517314
000290 5e 42 56 bd d6 ae ba bd 44 ad 91 3c 8e 9f 8f bd
       -0.052309386 -0.091153786 0.017782815 -0.070128545
0002a0 8a d2 6c bd f3 85 9d 3d 5d 9a 25 bd 2f 01 48 3d
       -0.057817973 0.076915644 -0.040430415 0.048829254
0002b0 04 28 55 3d d0 16 ce 3d 68 57 ed bd 67 ef 8c bd
       0.052040115 0.10062945 -0.11588937 -0.068816
0002c0 54 9f de bb 92 b5 75 3b df e5 53 bd d7 fa 2a bc
       -0.0067938957 0.0037492258 -0.051732894 -0.010435781
0002d0 4c 6e 91 bd a9 67 2f bc b6 12 f6 bd 93 cc 78 bd
       -0.071011156 -0.010705867 -0.120152876 -0.060741972
0002e0 64 7f 12 be 90 4d e0 3b d2 28 d4 3d 29 83 0f bc
       -0.14306408 0.0068451837 0.10359348 -0.008759298
0002f0 75 89 53 bd 62 a0 a6 bd b9 19 ce bd ac e3 a7 bd
       -0.05164476 -0.08136059 -0.100635 -0.08197722
000300 d2 64 77 3d 6c f9 f6 bd 88 68 cb 3d 1f 76 fd bc
       0.060398884 -0.12059292 0.09932047 -0.030940114
000310 1d 1f 89 bd 8d 0a 8d bd a8 26 dc bd 50 af d3 bd
       -0.066953875 -0.06886778 -0.107495606 -0.103361726
000320 31 5e a6 3d 82 3b a9 3d 42 d1 fe bd 74 12 f8 bc
       0.08123434 0.08263303 -0.124422565 -0.030282237
000330 1e 54 95 bd b4 6d ab 3d 1d fd 7d 3d 46 d3 f6 3d
       -0.07291435 0.083705336 0.062008966 0.12052016
000340 e1 b4 cb 3d c6 7f ee 3d b9 06 ce bd 55 96 00 be
       0.09946609 0.116454646 -0.10059876 -0.12557347
000350 51 c9 d6 3d cc 83 12 3c a6 86 8d bd 2d 7a e0 3d
       0.10487617 0.008942556 -0.06910448 0.10960803
000360 80 25 a3 3a c7 47 9c 3d e1 f8 1a 3e 7f 54 06 be
       0.0012447089 0.07630878 0.15134002 -0.1311817
000370 13 ef 8a 3d 89 89 29 be 9e 55 14 3d 95 d6 ab bc
       0.06783881 -0.16556372 0.036214463 -0.020976344
000380 9e f2 1b 3e c2 cf 9b bd bb 12 d6 3d 9d cd a5 bc
       0.1522927 -0.07607986 0.10452791 -0.020239646
000390 52 49 eb bd a6 e1 cb 3d 2e 27 52 3c 63 d7 4f bd
       -0.11488594 0.099551484 0.012826724 -0.05074252
0003a0 3b af c4 3c 80 05 9e 3b c5 33 92 3d b4 e1 a1 bd
       0.024009338 0.004822433 0.071387805 -0.079043776
0003b0 15 65 21 3e 3c df 85 bd bd 0f 18 bc eb dc 5f bc
       0.15761216 -0.06536719 -0.009281096 -0.013663511
0003c0 15 d2 53 bd 2d 0f f8 bd d2 5e 3a 3c 6e 79 25 3d
       -0.05171402 -0.121122696 0.011375146 0.040399007
0003d0 f3 dc 0f be 87 5a 15 be 15 2d 12 3d 02 ff a0 3b
       -0.14049129 -0.14585315 0.035687525 0.004913212
0003e0 1b 99 13 bd 12 58 5e bd d2 d2 86 bd ea 0e 33 be
       -0.036034685 -0.05428321 -0.065831795 -0.17486158
0003f0 fe 24 0a 3d 6e 29 88 bc 4c df bf bd b8 8c 14 bd
       0.033726685 -0.016621318 -0.093687624 -0.036267012

gru.bias_ih_l0_reverse f4 [192]
000000 25 dc b7 3d 60 b1 06 3e 22 ad 96 3d 7c c3 4b 3d
       0.08977536 0.131536 0.07357241 0.049746975
000010 d7 31 43 bb 04 98 6c 3d b1 cf 85 3d 7a b4 92 3d
       -0.0029784346 0.05776216 0.065337546 0.071633294
000020 e4 cc 3b 3c 46 d9 e7 3d b2 40 b8 bc 95 eb ad 3d
       0.011462424 0.113207385 -0.022491787 0.08492199
000030 cb e9 c6 3d 6d d3 95 bd c5 b2 6c 3d b8 ce 6e bd
       0.09712561 -0.07315717 0.057787675 -0.05830261
000040 22 86 2c 3e 96 fb 6d bd 43 9b 03 bd 6c ea 3f bd
       0.16848043 -0.05810126 -0.03213049 -0.04685442
000050 9e eb 02 bd a9 66 81 bd 76 7c f7 3d c3 ac 22 3e
       -0.031962983 -0.06318409 0.12084286 0.15886216
000060 e1 0f 8e ba 8c af d4 bb be 0b 99 bc 3a 51 53 ba
       -0.0010838473 -0.0064906534 -0.018682357 -0.0008061115
000070 f6 36 d2 3d f5 a6 51 3d 1f 1d 03 3e f8 f3 da 3b
       0.10264389 0.051184613 0.12804078 0.0066819154
000080 fe e6 c4 3d 3e 78 a5 bd 46 4c 78 bd 33 f4 fe 3d
       0.09614371 -0.08079575 -0.060619615 0.12448921
000090 a2 49 84 bd 3d 7a 4d bd ed eb 0f 3d bc 67 a8 3c
       -0.06459357 -0.050165404 0.035137106 0.020557277
0000a0 61 b6 7f bd 10 f4 d4 bc 04 92 db bc e2 35 1e 3e
       -0.06242979 -0.025995284 -0.026803024 0.15450242
0000b0 20 4e bc 3d 11 e9 0b 3e a7 97 29 bd 71 f3 bb bd
       0.09194589 0.13663127 -0.041404393 -0.09177292
0000c0 3f 1c ee 3d 7a 30 27 3c 44 66 cf 3d 27 d2 d7 3d
       0.11626481 0.010204429 0.101269275 0.1053813
0000d0 15 b4 15 bd 63 75 63 bd 3a 50 90 3d c2 21 27 3e
       -0.036548693 -0.05553187 0.07046552 0.16321471
0000e0 e0 62 21 3e ce f5 5d bd 89 5b a3 3d 1e 59 e4 bc
       0.15760374 -0.054189496 0.07976443 -0.027874526
0000f0 4b cd a1 3d ab 1e 92 bd 76 39 fb bc 86 a5 91 3d
       0.07900485 -0.07134756 -0.030667048 0.07111649
000100 87 6e b9 3d 63 16 60 3e e8 6d 2f 3e 36 d6 2e 3c
       0.090542845 0.2188354 0.1713177 0.010671189
000110 e0 a9 35 3e 21 34 27 3e a9 17 df 3d 4f 01 98 3d
       0.17740583 0.1632848 0.10893185 0.074221246
000120 fa af 3d 3d b1 f9 53 bc af f7 b5 3d b7 a6 a7 3d
       0.046310402 -0.012937949 0.088851325 0.08186095
000130 b6 29 f9 3d aa f7 01 bb 1d 10 d3 3d 4a bd fc 3d
       0.12166159 -0.0019831457 0.10305808 0.123407915
000140 91 e2 6b 3e 5f 97 67 3d ee 6b da bc 12 1d 00 3c
       0.23035647 0.056540843 -0.026662793 0.007819431
000150 ad 56 30 bc a1 72 0c 3e d4 49 33 3e 53 b2 5b 3d
       -0.010762853 0.13715602 0.17508632 0.05363686
000160 74 5f 1f 3e ea aa 8a bd 96 c8 64 3d cf 18 c8 bd
       0.15563756 -0.067708805 0.055855356 -0.09770357
000170 54 ce a7 3d 89 a7 10 3e 93 5b 36 3e 3d 67 9e bd
       0.08193651 0.1412641 0.1780837 -0.07734535
000180 07 db 9b 3d 0a 0b 66 3e 36 88 d0 3d f3 75 d2 3d
       0.076101355 0.22465149 0.1018223 0.10276403
000190 70 8a 12 be b1 37 b7 3d 0f c3 82 3e eb b8 ab 3c
       -0.14310622 0.08946169 0.25539443 0.0209622
0001a0 cc 4f 00 3e 4a e9 44 3e a9 30 85 3d 8c ff 2d 3e
       0.1253044 0.19229618 0.06503422 0.16992015
0001b0 06 ed 62 bd 73 1d ff 3d fc 20 81 3d 8a 16 9e bc
       -0.055401824 0.12456789 0.063051194 -0.019297857
0001c0 00 dd 8a 3d 8f db 36 3d 0b fc 15 3e 28 0d 23 bc
       0.06780434 0.04464298 0.14646928 -0.009951867
0001d0 1d 87 84 3d 03 d1 73 bb 37 0d 35 bd eb f2 d7 3d
       0.06471083 -0.0037203438 -0.044202056 0.1054438
0001e0 0a ae c7 3c 4b 0c df 3d 2f 8d e4 3d ff 8c 82 3d
       0.02437498 0.108910166 0.11159741 0.06374549
0001f0 82 94 bd 3d 9f cc fd bd 36 58 79 3c 2e d3 51 3e
       0.09256841 -0.12392544 0.015218785 0.20490715
000200 f5 40 8e 3d e7 21 f2 bc a9 9a 80 3c 9b dc ee 3d
       0.06945983 -0.029557182 0.015698748 0.11663171
000210 ee 08 d5 3c 7d 2c 92 3c 00 f6 c2 bd 7b bc f4 3d
       0.026005235 0.01784348 -0.09519577 0.11950012
000220 24 3e 5e bd 0f b0 84 3d d1 25 18 3d 07 d1 b2 3b
       -0.05425848 0.06478893 0.03714544 0.005457047
000230 a3 6b 38 bc d7 07 1e bb b4 93 b3 3d 2f 8c da 3c
       -0.011256131 -0.002411356 0.087684065 0.026678173
000240 1b ea f9 3d 66 bd c1 3d ad a2 cd 3c f7 e1 95 bd
       0.12202855 0.09459953 0.025101984 -0.0731849
000250 7d 19 07 3e f6 17 c6 3c e4 5a f3 3d b5 de 29 3d
       0.13193317 0.024181347 0.118825704 0.041472156
000260 a0 c3 d4 bc 87 28 05 3e 05 8f 62 3d 57 c3 08 be
       -0.025972188 0.13003741 0.055312175 -0.13355766
000270 32 7c d6 bd 17 b7 cf bd ac e0 c1 3c cb d7 b2 bc
       -0.10472907 -0.101423435 0.023666702 -0.021831414
000280 eb 3f e0 3d 91 86 89 bd 02 55 b1 bd c3 28 13 3e
       0.109496914 -0.0671512 -0.08658792 0.14371018
000290 9b 11 b6 bd d3 e0 27 bd 8b 3a 08 bc 95 9d 08 3e
       -0.08890077 -0.040985893 -0.008314739 0.13341363
0002a0 8a ba d3 3c b7 79 fd bd 7c 3e db 3c 0b 53 1a 3d
       0.025845785 -0.12376731 0.026763193 0.037676852
0002b0 78 9e 9e 3d a6 2b 88 bc 3b 4d a6 3c 33 05 79 bc
       0.07745069 -0.016622376 0.020300498 -0.0151989935
0002c0 66 d3 f5 3d 1d 54 c5 bd 7f 20 b4 bd 61 1f 00 3e
       0.12003212 -0.09635184 -0.08795261 0.1251197
0002d0 6a 57 97 3d ff bc 83 bd 49 24 dc bd f6 9f 9e 3c
       0.0738972 -0.064325325 -0.10749108 0.019363385
0002e0 65 4a 45 3b c3 88 16 bd 2a 03 02 3d 5f 84 03 3e
       0.0030104157 -0.03675152 0.0317413 0.12843464
0002f0 3b f1 cb 3d 39 6d 06 3e 62 f7 0d 3e c4 f8 87 3d
       0.099581204 0.13127603 0.138639 0.06639245

gru.bias_hh_l0_reverse f4 [192]
000000 6d 18 ea 3d c1 eb 95 3d dc 29 db 3d 1b 42 2d 3d
       0.1143044 0.07320357 0.107013434 0.04229937
000010 9b a3 86 bd 8c 91 f6 3b bf af ad bd d6 e7 05 3e
       -0.06574174 0.0075246748 -0.084807865 0.1307672
000020 c1 95 11 3e b1 ef 84 3d f6 6a b2 3c 14 b1 e7 3d
       0.14217283 0.0649103 0.021779519 0.11313072
000030 73 0a 0d 3e 93 87 bf 3c b1 bf ad 3d 51 83 96 3d
       0.13773517 0.023380077 0.08483828 0.07349265
000040 3c 58 d9 3c 1a 41 c2 3b 71 73 3c 3d c9 15 0f 3d
       0.026531331 0.005928171 0.04600853 0.034932885
000050 9b b5 cf 3c a5 90 db bd 55 01 6c 3c fe 43 26 3e
       0.02535515 -0.10720948 0.014404614 0.16236874
000060 8b 37 98 3c 6d 17 5a 3d 06 5f a3 3c 6d f6 c6 3d
       0.018581172 0.053244997 0.019942772 0.09714971
000070 3f ef 28 bc 11 54 11 3d a0 34 f0 bc 37 fb 9e bc
       -0.010310947 0.035480563 -0.029321969 -0.019406898
000080 09 01 4b bd 7a d0 72 bd 35 60 06 3d b7 a7 54 3d
       -0.049561534 -0.05928085 0.032806594 0.051917758
000090 25 fb 7d 3d 0c 5e 8e bd b2 6a d4 3d 7e ee c9 3d
       0.06200709 -0.06951532 0.10371913 0.09859942
0000a0 70 19 35 bd 21 f8 0a 3e 8c 88 7a 3d a0 60 f3 3c
       -0.044213712 0.13571216 0.061165377 0.02970916
0000b0 da 21 20 3e d6 d4 ee 3d 42 8d 7b bd 2d 06 8d 3d
       0.15637913 0.11661689 -0.06141401 0.068859436
0000c0 5d 7e af 3d 7e 8e 15 bd c7 6d 80 3c e6 fe df 3d
       0.08569024 -0.036512844 0.015677346 0.1093729
0000d0 51 e3 d2 bc f8 04 86 bd 69 cc bc 3c 45 c6 eb 3c
       -0.025743159 -0.065439165 0.02304669 0.028781066
0000e0 f8 73 08 bd 0b 1f 72 bd 20 96 1b 3e 18 59 2a 3d
       -0.03331372 -0.059111636 0.15193987 0.041588873
0000f0 61 d6 bb 3d d9 7c 23 3e d2 f3 6c 3d d2 04 e7 3d
       0.09171749 0.15965594 0.057849713 0.11280216
000100 b7 ea da 3d 22 ad 2b 3d 23 3a e9 3b b9 c5 b8 3d
       0.106892996 0.04191316 0.007117526 0.090220876
000110 30 1c ea 3d e8 b9 84 3d aa 13 16 3e 0b 7e a7 3d
       0.114311576 0.06480771 0.14655939 0.08178338
000120 56 41 92 3c 36 2e b1 3c 06 d3 48 bd 88 6e 81 3d
       0.01785342 0.02162848 -0.049029373 0.0631991
000130 a8 29 4c 3e b7 86 5f 3c dd d4 aa 3d 43 0f ad bd
       0.19937766 0.013642958 0.08341382 -0.084501766
000140 f3 42 88 3e 21 20 4a 3e 22 cc d7 3d 9f 67 66 bd
       0.26613578 0.19738819 0.10536982 -0.056251165
000150 bf 05 59 3b 26 34 06 3e d6 cd 86 3d a1 d5 9a bd
       0.0033114997 0.1310583 0.06582229 -0.07560278
000160 83 c1 60 3d 21 99 83 3c 75 25 97 3d 88 6c c4 3d
       0.054872047 0.016064228 0.07380191 0.09591013
000170 57 a3 e4 3d d8 c9 1f 3e dc 8c da 3d eb 69 17 3e
       0.11163967 0.15604341 0.10671398 0.14786498
000180 6c 77 01 3e 12 6d 07 3e 13 43 81 bd ca c1 20 3e
       0.12643212 0.13225201 -0.063116215 0.15698925
000190 1d 11 f4 3c 9d 5e b0 3d be bc 10 3d be 05 04 3d
       0.029793316 0.08611796 0.03533625 0.03223204
0001a0 f4 53 56 bd 80 fc 9b 3d b9 96 02 3d 2a 88 84 3d
       -0.052326158 0.0761652 0.03188202 0.06471284
0001b0 cd bc f6 3d 3a b2 68 3e 0b 0b 4a 3e 73 93 89 bd
       0.1204773 0.22724238 0.19730775 -0.06717577
0001c0 97 22 31 bd 88 e1 e6 bc cc e2 01 bd 3b 2b a7 3d
       -0.043245878 -0.028183714 -0.03171043 0.081625424
0001d0 d7 84 e2 b7 1b 7c 28 3e ff 44 8f 3d 5a 76 78 bd
       -2.7003158e-05 0.16453592 0.06995582 -0.060659744
0001e0 b7 d1 ab 3b 74 8c 86 3d 3f 10 1a 3d 97 b6 59 3d
       0.005243506 0.06569758 0.03761315 0.053152647
0001f0 d9 51 28 3d 3c 09 e1 3b 2b a3 38 3e 95 07 99 3d
       0.04109368 0.006867556 0.18030994 0.07472149
000200 ce cb 7b bd a5 9b c9 bd 2b 01 e6 3d 4b 39 24 3c
       -0.06147366 -0.0984414 0.112306915 0.010023425
000210 1d dd a7 bd 50 7f 86 3d 43 22 d0 3d 24 16 9d bb
       -0.08196471 0.06567252 0.10162785 -0.004793899
000220 b3 b3 6b 3c cf e9 54 3d 3e d7 95 bd 80 b0 da 3d
       0.014386105 0.05198079 -0.07316445 0.10678196
000230 31 bf ab bd ee b8 97 bd cc 2b c9 bc 5e 8a 4f bd
       -0.08386076 -0.074083194 -0.024557017 -0.050669067
000240 b9 82 40 bd c1 8f a8 bd 94 2a 2e 3c a3 0e b6 bd
       -0.046999667 -0.08230544 0.010630269 -0.088895105
000250 f6 2a 97 bc d0 55 a6 bd ee 1f fd 3d 26 c0 82 3d
       -0.018453103 -0.08121836 0.12359606 0.06384306
000260 98 4d fc 3d 7b cc 52 bd 6f b6 36 bd ce e2 88 3d
       0.12319487 -0.05146454 -0.044607576 0.066838846
000270 44 ee d2 3d 49 ad 83 3d 6f a8 f4 3d 36 84 4d 3d
       0.10299352 0.06429536 0.11946189 0.050174914
000280 62 45 8b bd e0 73 f4 3c 5c bb 8a 3d 21 2a d0 3d
       -0.06800343 0.02984041 0.06774017 0.101642855
000290 c6 36 2e 3c a0 9d eb bc 8a b8 f8 3c b9 30 04 3e
       0.010633176 -0.028761685 0.030361433 0.12909211
0002a0 2a d6 c7 bd 43 00 a9 3d c4 1c a0 bd e2 80 06 3d
       -0.097576454 0.08252003 -0.078179866 0.032837756
0002b0 f6 2f 11 bd 12 ae f0 3c f1 d4 11 bd 86 60 5b 3c
       -0.03544613 0.029379878 -0.035603467 0.013389712
0002c0 9b da 5d 3c 57 a8 c6 3d e3 d1 0d 3d 48 ec 5a 3c
       0.013540889 0.09700077 0.03462399 0.013361998
0002d0 cc 58 bb bd 33 ba 04 be 11 4a 90 bd 50 09 c7 ba
       -0.09147796 -0.12961654 -0.07045377 -0.001518527
0002e0 4e 94 db 3b 38 b2 1c 3d 91 bf 8a bd 57 16 08 3e
       0.006701029 0.0382559 -0.0677482 0.13289772
0002f0 88 85 00 bd 17 4f a8 3d c4 82 8d 3d ee ea 10 bd
       -0.031377345 0.0821821 0.06909707 -0.035380296
