results/training/llama-3-70b_h100_tp4/model_tp4_H64_biGRU.pt (torch, 118157 bytes, 10 tensors)

gru.weight_ih_l0 f4 [192, 6]
-0.07080501 -0.008968145 -0.15902191 -0.094879515 0.09338859 -0.00059718627 0.053777788 -0.034898017
0.015779233 -0.094667695 0.08689557 0.007599452 0.10987055 0.06904761 -0.11263348 -0.08753125
0.06433619 -0.13162054 -0.022241823 0.01525304 0.06530139 -0.062670976 -0.02214286 0.0910028
-0.013197946 0.12695014 -0.08307366 -0.015314147 0.051671408 0.0271011 0.10931371 -0.034123164
0.05976507 -0.06303783 0.01463037 0.114790894 -0.16205128 -0.0676518 -0.12904148 -0.004039305
0.03939365 -0.11214671 0.026422128 0.09168184 0.06708448 0.035728883 0.16912784 0.044255067
-0.11732086 -0.16820721 0.052163173 -0.087213196 -0.096399955 -0.07019282 -0.024483202 -0.09695669
-0.108319685 0.17250618 -0.11490105 0.12998855 0.045042116 -0.1113914 -0.06543598 -0.00035619407
-0.12909551 -0.04419109 0.0030819394 0.01863455 0.03227482 -0.07665888 0.06377107 -0.024326839
0.090877764 -0.074372366 -0.12895928 0.066267006 0.13580577 0.033380095 0.14715429 -0.07726642
-0.01941015 0.049476516 0.055466864 0.07111645 -0.010019037 -0.07652599 -0.12831248 -0.112647496
-0.08940295 0.014142151 -0.18468997 -0.08070339 -0.063389555 -0.040804304 -0.21751662 0.041806318
-0.02501188 -0.17458092 -0.15396866 -0.081956275 -0.03586089 -0.029079145 0.1202918 0.06988094
-0.11427615 0.12284039 0.0767603 0.06935837 -0.11196546 -0.05481801 0.008099011 -0.01384769
-0.057500906 0.058234386 -0.079434335 -0.039336324 0.069766074 -0.03630039 -0.09495274 -0.07187414
-0.08976698 0.028349293 -0.07018586 -0.0838077 -0.1242889 -0.075655445 0.13034298 -0.013148617
-0.07326279 0.04070834 -0.056350116 -0.02647501 -0.12442001 0.014401018 -0.1249536 0.0572192
-0.120283484 -0.028237704 0.042362943 0.08496054 0.029179828 -0.047919907 -0.0992681 0.115088865
0.035152275 -0.086503394 0.020596152 -0.07164584 0.06886752 0.07316787 0.15325107 0.13848191
0.11621726 -0.0028317184 0.085151374 -0.06751187 0.004556139 -0.041643042 -0.07757024 -0.061994072
0.044621017 -0.016496137 -0.12064036 -0.0662605 -0.0782172 -0.07791894 0.09252905 0.06297938
-0.1362626 -0.10231212 0.0637446 -0.062732115 0.064391814 -0.028156502 0.14914007 -0.023762776
0.03413422 0.16016404 0.027375951 0.0071840133 -0.0087353205 -0.13783686 -0.18791011 -0.013360759
-0.094946146 0.091176845 0.1367041 -0.007976076 0.09728634 -0.01121188 -0.070830725 -0.02528844
-0.08382662 0.021457123 -0.17842273 -0.07187856 -0.17664884 -0.095354795 0.094574906 0.027558412
-0.049933627 -0.004199854 0.06834879 -0.10579993 -0.04314518 -0.062440872 -0.19289286 -0.13106993
0.02419294 -0.06857582 0.019424763 -0.10359915 -0.18974672 0.014352369 -0.09932219 -0.10958655
-0.10159126 -0.17450963 -0.042155687 -0.12196265 -0.19618668 -0.12936834 -0.19020972 -0.10263724
-0.077108726 0.032107472 0.054208994 -0.006596638 0.05284059 -0.033151347 -0.1545793 0.16667444
-0.02170091 0.11921797 -0.07424096 -0.12353934 -0.10115739 -0.08335977 -0.024645735 0.056520395
-0.08786235 -0.10664717 0.0025767742 -0.14195408 0.0088658575 -0.03770536 0.01797045 -0.013899512
-0.14253806 0.06386018 0.0326657 0.003484089 -0.10658002 -0.0531739 -0.11210252 0.07384924
00000000: 3802 91bd 20ef 12bc a4d6 22be 3150 c2bd
00000010: 8442 bf3d 7e8c 1cba 1946 5c3d 39f1 0ebd
00000020: 7343 813c 23e1 c1bd 4ef6 b13d d304 f93b
00000030: d003 e13d d568 8d3d 62ac e6bd 9643 b3bd
00000040: b1c2 833d 89c7 06be 7c34 b6bc e3e7 793c
00000050: bcbc 853d a459 80bd f164 b5bc ad5f ba3d
00000060: 333c 58bc 38ff 013e 8622 aabd 30e8 7abc
00000070: 66a5 533d 2003 de3c dedf df3d bbc4 0bbd
00000080: 38cc 743d fa19 81bd 38b4 6f3c 7d17 eb3d
00000090: c5f0 25be 078d 8abd 7323 04be 255c 84bb
000000a0: 3c5b 213d 2dad e5bd 3873 d83c b0c3 bb3d
000000b0: 9663 893d 7358 123d d92f 2d3e cd44 353d
000000c0: eb45 f0bd 833e 2cbe 0da9 553d d59c b2bd
000000d0: 576d c5bd 41c1 8fbd ff90 c8bc 3b91 c6bd
000000e0: b6d6 ddbd 76a5 303e 3e51 ebbd b81b 053e
000000f0: 157e 383d 2d21 e4bd 4d03 86bd 8fbf bab9
00000100: 9d31 04be b701 35bd 5dfa 493b 7ca7 983c
00000110: 9a32 043d 55ff 9cbd 689a 823d 1449 c7bc
00000120: 1f1e ba3d 8a50 98bd e70d 04be ffb6 873d
00000130: ab10 0b3e 91b9 083d 9daf 163e db3d 9ebd
00000140: 0902 9fbc e3a7 4a3d 3931 633d 80a5 913d
00000150: e326 24bc a9b9 9cbd 5964 03be bbb3 e6bd
00000160: e518 b7bd 7bb4 673c 5e1f 3dbe d247 a5bd
00000170: 62d2 81bd 6a22 27bd adbc 5ebe 1a3d 2b3d
00000180: b7e5 ccbc 57c5 32be f6a9 1dbe b1d8 a7bd
00000190: dee2 12bd 6337 eebc 8c5b f63d bd1d 8f3d
000001a0: 9d09 eabd be93 fb3d 8134 9d3d c30b 8e3d
000001b0: 264e e5bd da88 60bd b7b1 043c 6ce1 62bc
000001c0: 1286 6bbd 2e87 6e3d 78ae a2bd 201f 21bd
000001d0: 84e1 8e3d b8af 14bd 9576 c2bd c032 93bd
000001e0: c0d7 b7bd c73c e83c 9bbd 8fbd 5fa3 abbd
000001f0: 2e8b febd 3ef1 9abd a178 053e 4c6d 57bc
00000200: cd0a 96bd cabd 263d 61cf 66bd 1fe2 d8bc
00000210: ebcf febd 3ff2 6b3c ace7 ffbd ae5e 6a3d
00000220: 3057 f6bd c252 e7bc c484 2d3d cbff ad3d
00000230: 890a ef3c aa47 44bd 134d cbbd b6b3 eb3d
00000240: d5fb 0f3d b128 b1bd 43b9 a83c 0ebb 92bd
00000250: 6a0a 8d3d 09d9 953d d9ed 1c3e 34ce 0d3e
00000260: 5103 ee3d 5a94 39bb d863 ae3d aa43 8abd
00000270: aa4b 953b e591 2abd 25dd 9ebd 7fed 7dbd
00000280: 87c4 363d e822 87bc 4b12 f7bd 96b3 87bd
00000290: 5730 a0bd f793 9fbd df7f bd3d 55fb 803d
000002a0: 6c88 0bbe 0489 d1bd 878c 823d b279 80bd
000002b0: dbdf 833d 77a8 e6bc 2db8 183e 27aa c2bc
000002c0: 53d0 0b3d 0b02 243e 8843 e03c df67 eb3b
000002d0: 971e 0fbc 1b25 0dbe 826b 40be 16e7 5abc
000002e0: 2073 c2bd edba ba3d 29fc 0b3e 16ae 02bc
000002f0: 103e c73d 08b2 37bc b30f 91bd b429 cfbc
00000300: 4aad abbd d9c6 af3c 73b4 36be 1135 93bd
00000310: 6fe3 34be 6049 c3bd 7db0 c13d 2ec2 e13c
00000320: 3487 4cbd ee9e 89bb 73fa 8b3d a2ad d8bd
00000330: 00b9 30bd 00c2 7fbd b585 45be 3237 06be
00000340: 4630 c63c 7b71 8cbd ae20 9f3c cb2b d4bd
00000350: f74c 42be 3326 6b3c 6f69 cbbd ea6e e0bd
00000360: 140f d0bd a7b2 32be 71ab 2cbd 8ec7 f9bd
00000370: 29e5 48be 2279 04be 56c6 42be 7933 d2bd
00000380: 2eeb 9dbd 2083 033d 400a 5e3d 9c28 d8bb
00000390: 606f 583d b5c9 07bd 094a 1ebe b4ac 2a3e
000003a0: 1bc6 b1bc 8d28 f43d a50b 98bd 3202 fdbd
000003b0: 9b2b cfbd 87b8 aabd dae5 c9bc ee81 673d
000003c0: 2df1 b3bd d569 dabd 19df 283b 695c 11be
000003d0: 1a42 113c f070 1abd c436 933c c7ba 63bc
000003e0: 7ff5 11be 20c9 823d 78cc 053d 5055 643b
000003f0: a046 dabd e0cc 59bd 0296 e5bd 453e 973d

gru.weight_hh_l0 f4 [192, 64]
-0.035234015 0.00046657491 0.10160681 0.11769713 -0.09000724 -0.10956267 -0.1539411 -0.09396872
0.083229735 0.07520405 0.08279389 0.04203689 0.09858058 0.12579836 0.05649644 -0.11906838
-0.020235749 0.042602457 0.06087427 0.08625652 0.06527575 0.10031876 -0.08720846 -0.11988488
-0.051057693 0.09612735 0.08015254 0.091934316 0.042891312 0.05680043 0.091285214 -0.18106484
0.0047164224 0.004090398 0.056674767 -0.058783118 0.10652686 0.035990432 -0.1004637 0.10381795
0.013805827 -0.070644096 -0.0039812475 0.07352304 -0.1640081 -0.016830651 0.0029299841 -0.04120187
-0.01694592 -0.043514498 -0.009289936 -0.028749902 -0.017434934 -0.020304602 0.0017640672 -0.10257218
0.008360701 0.03666445 -0.08764748 0.003423983 0.040026147 0.03095439 -0.024521168 -0.0059271343
0.07560679 -0.07541201 -0.07370348 -0.06824465 0.014796104 0.00965798 -0.074878395 0.14073823
0.046222255 -0.009040523 0.09968896 0.1294739 0.15093346 0.17124529 0.04764029 0.021418534
-0.020972548 -0.061699513 0.033560563 -0.04076701 0.04011162 0.1015413 0.00557682 -0.012895713
0.103204384 0.057956956 -0.062356133 -0.060438503 -0.10374749 -0.110136434 -0.02862716 -0.03594065
-0.1579458 0.09611986 0.050323118 -0.02453533 -0.07662184 -0.16549563 -0.046197496 0.008044812
0.06910849 -0.101107866 0.109396346 0.09409284 0.024382072 0.03391374 -0.030736767 -0.08852874
-0.044753835 0.07525646 0.05151252 0.12688945 0.11986078 -0.06678447 0.14912368 0.13041359
0.016747577 -0.06191462 0.055690516 -0.026943708 0.063892044 -0.03238205 -0.10438907 -0.0889343
0.09371354 -0.07732134 0.026527535 0.05342768 0.06593472 -0.15465611 -0.00043381544 0.015016958
0.11061123 0.036540754 0.0075935577 0.027758654 0.10549403 -0.08106883 0.011473051 0.14352027
0.009867947 0.028241174 -0.013863476 0.048573602 -0.09024816 0.043808956 -0.085357554 -0.1050765
0.096728764 0.004893823 0.092216276 0.04290178 0.080802195 0.08355304 -0.02573266 0.02379451
0.0764604 0.11245105 -0.10287122 -0.06297686 0.13905358 -0.14165236 -0.048791505 -0.1013446
-0.03486975 -0.06553921 0.10469048 0.15037692 -0.07019431 -0.04732953 -0.041271236 0.11187303
0.085107155 0.01683933 -0.015518669 -0.08799579 0.07423486 -0.09887515 -0.029951323 0.06398305
0.064006224 0.0717877 -0.024012312 0.058291994 0.1096474 -0.08060736 0.06989075 -0.027369155
-0.033458445 -0.019864025 -0.04215935 0.034743253 0.08450456 -0.0845089 -0.0019773084 0.049804177
0.052795433 -0.076193765 0.057713013 -0.13362482 -0.08770901 -0.056077432 0.0010033748 0.07655216
0.012581008 0.021948265 0.14154708 0.11603789 0.08887427 -0.034724552 0.054730106 0.035948683
-0.12128367 0.033976495 0.05520389 -0.07631233 0.029706234 0.038895138 -0.06359354 0.04123665
-0.0021948952 0.09222397 0.059522778 -0.1620149 0.0038769974 -0.12782656 0.0061286795 -0.14666846
0.1297564 -0.038745623 0.07226323 -0.0054226522 -0.03413377 0.009524621 -0.020451674 0.0012124154
-0.12052498 0.011580794 -0.06861579 0.14252278 0.059339352 -0.013901651 0.011090908 0.107829675
0.11585795 0.087175325 -0.02204507 0.06969988 0.045569297 0.035756867 0.087079145 -0.04619979
00000000: 8b51 10bd a09e f439 3b17 d03d 310b f13d
00000010: b755 b8bd 6562 e0bd bca2 1dbe ac72 c0bd
00000020: 5a74 aa3d 9504 9a3d d88f a93d e02e 2c3d
00000030: 9de4 c93d 49d1 003e d068 673d 1fda f3bd
00000040: 71c5 a5bc ea7f 2e3d 4c57 793d 42a7 b03d
00000050: 4baf 853d ec73 cd3d 599a b2bd 3486 f5bd
00000060: df21 51bd 6bde c43d 0427 a43d 0f48 bc3d
00000070: cdae 2f3d 91a7 683d bef3 ba3d 1069 39be
00000080: 388c 9a3b bf08 863b cd23 683d 91c6 70bd
00000090: c12a da3d b46a 133d eabf cdbd 819e d43d
000000a0: d631 623c daad 90bd 2075 82bb 3f93 963d
000000b0: bdf1 27be 6fe0 89bc fa04 403b 4bc3 28bd
000000c0: 2cd2 8abc 423c 32bd d134 18bc ea84 ebbc
000000d0: b5d3 8ebc d655 a6bc 4638 e73a 5d11 d2bd
000000e0: 52fb 083c 762d 163d 8680 b3bd e764 603b
000000f0: 75f2 233d 1094 fd3c 9ee0 c8bc 6838 c2bb
00000100: bcd7 9a3d 9d71 9abd daf1 96bd dac3 8bbd
00000110: 5c6b 723c 813c 1e3c d859 99bd af1d 103e
00000120: 8c53 3d3d b41e 14bc ba29 cc3d ce94 043e
00000130: 4d8e 1a3e ed5a 2f3e 7722 433d ec75 af3c
00000140: 9fce abbc a1b8 7cbd cd76 093d 4ffb 26bd
00000150: 154c 243d e3f4 cf3d c2bd b63b 8a48 53bc
00000160: d25c d33d 4664 6d3d 2569 7fbd 5d8e 77bd
00000170: 9079 d4bd 368f e1bd 8183 eabc 8136 13bd
00000180: 8bbc 21be 7dda c43d 9d1f 4e3d 51fe c8bc
00000190: e9eb 9cbd b077 29be 9639 3dbd 63ce 033c
000001a0: c188 8d3d a411 cfbd 310b e03d bfb3 c03d
000001b0: e9bc c73c 22e9 0a3d accb fbbc 8e4e b5bd
000001c0: cc4f 37bd 0f20 9a3d cbfe 523d 4fef 013e
000001d0: 9279 f53d 4cc6 88bd e1b3 183e 248b 053e
000001e0: 3732 893c 2f9a 7dbd bd1b 643d 0db9 dcbc
000001f0: d5d9 823d 0aa3 04bd f0c9 d5bd 3023 b6bd
00000200: e2ec bf3d a75a 9ebd 4650 d93c fcd6 5a3d
00000210: c808 873d 2c5e 1ebe b971 e3b9 b009 763c
00000220: 2488 e23d c2ab 153d 61d3 f83b 1e66 e33c
00000230: 410d d83d 6a07 a6bd 77f9 3b3c faf6 123e
00000240: 2bad 213c 095a e73c a223 63bc 1df5 463d
00000250: 07d4 b8bd 0571 333d f1cf aebd 5932 d7bd
00000260: bb19 c63d 5d5c a03b e3db bc3d c7b9 2f3d
00000270: 9f7b a53d db1d ab3d 4dcd d2bc b4ec c23c
00000280: 4597 9c3d bc4c e63d 25ae d2bd 03fa 80bd
00000290: 1064 0e3e 510d 11be 9ad9 47bd c28d cfbd
000002a0: 95d3 0ebd 6c39 86bd f667 d63d 68fc 193e
000002b0: 09c2 8fbd 9cdc 41bd 070c 29bd b01d e53d
000002c0: a94c ae3d a2f2 893c 0442 7ebc 2337 b4bd
000002d0: 7208 983d 0e7f cabd 7a5c f5bc 8c09 833d
000002e0: b215 833d 6e05 933d 78b5 c4bc 96c3 6e3d
000002f0: d18e e03d 7915 a5bd e222 8f3d 4735 e0bc
00000300: b90b 09bd e1b9 a2bc 48af 2cbd f14e 0e3d
00000310: ba10 ad3d 0113 adbd bb95 01bb 77ff 4b3d
00000320: 0640 583d 7a0b 9cbd 7b64 6c3d f2d4 08be
00000330: c8a0 b3bd 73b1 65bd ac83 833a 61c7 9c3d
00000340: 9220 4e3c d9cc b33c b8f1 103e 46a5 ed3d
00000350: b703 b63d 553b 0ebd ad2c 603d ed3e 133d
00000360: 9363 f8bd f02a 0b3d 791d 623d a449 9cbd
00000370: 7d5a f33c 8250 1f3d 543d 82bd c3e7 283d
00000380: 3bd8 0fbb ecdf bc3d 28ce 733d 3ce7 25be
00000390: 3915 7e3b f7e4 02be 17d3 c83b 4230 16be
000003a0: ddde 043e bbb3 1ebd bffe 933d 81b0 b1bb
000003b0: dacf 0bbd 280d 1c3c 458a a7bc e9e9 9e3a
000003c0: cdd5 f6bd 5fbd 3d3c 6f86 8cbd 7ef1 113e
000003d0: d20d 733d c0c3 63bc a4b6 353c ced5 dc3d
000003e0: ef46 ed3d fa88 b23d dd97 b4bc d0be 8e3d
000003f0: dfa6 3a3d cb75 123d 8d56 b23d fe3b 3dbd

gru.bias_ih_l0 f4 [192]
-0.058566894 -0.062410302 0.0014611948 0.14352363 -0.06690659 0.13717031 -0.11001477 0.120475754
-0.06257872 -0.061743442 -0.041418113 -0.023460304 -0.027023211 0.08140012 0.008891585 0.15274842
0.004226219 -0.065036386 0.026886325 -0.032406654 -0.050380398 -0.061188474 0.044733208 0.07245618
-0.034648344 -0.07093388 0.13654372 -0.036955252 0.07667858 0.14863887 0.0699602 0.04314608
-0.010967734 -0.06241533 -0.045665782 -0.098745205 -0.07039767 -0.041261427 0.03696762 0.090959154
0.0051165842 -0.0899409 0.13408081 -0.036201343 0.09488958 0.008711406 0.083459 0.08075702
-0.0003519322 0.07671759 0.13059817 0.068273105 -0.056056608 0.060829572 0.15352896 0.0036467195
-0.033220008 0.12505892 -0.044163372 0.14070281 0.00037401685 -0.093225025 0.14740355 0.123422764
0.017016675 0.017642748 -0.019388314 0.093050376 0.023457825 0.02308367 0.11210186 -0.010016834
0.03732838 -0.016395044 -0.000360661 0.07627437 0.07695939 0.1678029 0.016140882 0.07141868
-0.053661425 -0.004890322 -0.07249527 0.031279225 -0.052636545 0.015852468 0.03883137 -0.039133355
0.063793495 0.08267134 -0.012420639 0.059901375 -0.04347493 0.15392241 0.042835016 0.10328905
0.01651595 0.06799292 0.08701012 0.046660755 0.15059207 0.16140525 0.07139927 0.00796811
0.09566609 0.16095789 0.10984859 -0.013189599 0.09999812 0.1528952 0.19046016 0.020470388
0.016790437 0.10339687 0.006239374 -0.016361358 0.0031828824 0.122275986 0.16107927 0.06818473
0.12763378 0.11244659 -0.023699433 -0.0064478405 0.117064424 0.16249505 0.1337282 -0.017873462
0.13184825 0.10135544 0.06653121 -0.0017395089 -0.046686754 -0.042261172 -0.037534848 0.10330532
0.09469554 0.01118876 0.07505155 0.06822524 0.037802037 -0.01272604 0.03845055 -0.011146691
0.048178084 -0.12484391 0.07261638 0.086416416 -0.11776225 0.007873008 -0.0064661987 -0.13055216
0.010339527 0.10558136 0.05877077 0.062562995 0.004113635 0.027416011 -0.09217077 -0.09674232
-0.063011624 -0.06800437 -0.11084508 -0.04626393 0.13567711 -0.106238164 0.00087580684 -0.052477635
0.11982596 0.050018653 0.05674975 0.09941949 -0.12440265 0.04564586 -0.08065806 -0.04490713
-0.10302613 0.058547914 -0.0722619 0.11480404 0.024808219 -0.07976003 0.09960008 -0.09240806
-0.04497567 0.008407173 -0.01763858 -0.03625935 0.024063911 0.0863615 -0.018764628 -0.12690003
00000000: d7e3 6fbd f2a1 7fbd 9085 bf3a dcf7 123e
00000010: 5206 89bd 6076 0c3e 6c4f e1bd febb f63d
00000020: 4629 80bd b1e6 7cbd 0aa6 29bd d32f c0bc
00000030: c85f ddbc 1bb5 a63d 03ae 113c 156a 1c3e
00000040: 187c 8a3b cc31 85bd b640 dc3c d7bc 04bd
00000050: ad5b 4ebd c4a0 7abd 2b3a 373d e863 943d
00000060: 6ceb 0dbd c845 91bd 1ed2 0b3e 645e 17bd
00000070: a909 9d3d ca34 183e 4b47 8f3d f2b9 303d
00000080: 03b2 33bc 38a7 7fbd 0b0c 3bbd ed3a cabd
00000090: a72c 90bd be01 29bd 5c6b 173d cb48 ba3d
000000a0: 05a9 a73b ef32 b8bd 7b4c 093e dc47 14bd
000000b0: 7855 c23d 49ba 0e3c 8dec aa3d f063 a53d
000000c0: 8a83 b8b9 1d1e 9d3d 87bb 053e c5d2 8b3d
000000d0: 9d9b 65bd 6e28 793d b236 1d3e cdfd 6e3b
000000e0: b411 08bd 720f 003e a7e4 34bd 6614 103e
000000f0: b117 c439 c3ec bebd f5f0 163e 13c5 fc3d
00000100: 8e66 8b3c 8687 903c 3ed4 9ebc 3291 be3d
00000110: a02a c03c f719 bd3c a995 e53d a61d 24bc
00000120: a5e5 183d e64e 86bc 1a17 bdb9 bd35 9c3d
00000130: e29c 9d3d 86d4 2b3e e239 843c f543 923d
00000140: 15cc 5bbd ff3e a0bb 6678 94bd a51e 003d
00000150: 6b99 57bd 09dd 813c a50d 1f3d 4c4a 20bd
00000160: 2aa6 823d 974f a93d f07f 4bbc 255b 753d
00000170: c512 32bd d69d 1d3e c573 2f3d 3689 d33d
00000180: 754c 873c df3f 8b3d 5d32 b23d 591f 3f3d
00000190: cf34 1a3e 6b47 253e c839 923d ad8c 023c
000001a0: 95ec c33d 25d2 243e 4cf8 e03d 3019 58bc
000001b0: d0cb cc3d 8f90 1c3e fd07 433e 84b1 a73c
000001c0: 198c 893c bdc1 d33d aa73 cc3b 4108 86bc
000001d0: e897 503b d56b fa3d f7f1 243e 70a4 8b3d
000001e0: 6eb2 023e 664a e63d 5025 c2bc 6848 d3bb
000001f0: 79bf ef3d 1a65 263e 0cf0 083e 5e6b 92bc
00000200: 3a03 073e 7193 cf3d 8441 883d 3c00 e4ba
00000210: 9c3a 3fbd 0d1a 2dbd 24be 19bd bd91 d33d
00000220: bcef c13d 1051 373c a1b4 993d adb9 8b3d
00000230: 4fd6 1a3d e180 50bc 537e 1d3d 9ca0 36bc
00000240: 6256 453d 2aae ffbd e6b7 943d 17fb b03d
00000250: 562d f1bd cafd 003c 68e2 d3bb 77af 05be
00000260: 1f67 293c 0a3b d83d 9eb9 703d 0721 803d
00000270: accb 863b 8b97 e03c 07c4 bcbd d620 c6bd
00000280: 3d0c 81bd e045 8bbd bf02 e3bd 3f7f 3dbd
00000290: f1ee 0a3e 6593 d9bd 6796 653a caf2 56bd
000002a0: 5067 f53d 5ce0 4c3d 6d72 683d 729c cb3d
000002b0: d1c6 febd 27f7 3a3d 0e30 a5bd 8af0 37bd
000002c0: 5dff d2bd f0cf 6f3d 0cfe 93bd 611e eb3d
000002d0: 9b3a cb3c 3a59 a3bd 20fb cb3d 7040 bdbd
000002e0: 6838 38bd 3dbe 093c c97e 90bc af84 14bd
000002f0: ae21 c53c 4cde b03d 47b8 99bc 15f2 01be

gru.bias_hh_l0 f4 [192]
-0.015872577 0.051611487 -0.091324195 -0.085719995 -0.0070279213 0.03032764 0.058104 -0.052868072
0.08813109 0.05080639 0.013092945 -0.017620834 0.027035134 -0.074121445 -0.026086561 0.02981735
0.013565963 -0.06225897 -0.088868015 0.12799191 0.16516016 0.13687558 0.1444237 0.116990216
0.100110315 0.08731735 0.021446005 0.10859778 0.0852913 0.011089306 0.022749236 0.14257963
0.11471185 -0.0009505484 0.06623044 0.09543956 0.004878707 -0.044390388 0.05217653 0.06448306
0.06828063 -0.09941359 0.098078035 -0.0005603206 0.11077536 -0.041229293 0.10856375 0.0023297789
0.06426323 0.058289114 0.0065663755 -0.085598834 0.063993104 0.11148325 0.09212391 0.0841832
0.07805896 0.14176011 0.07490767 0.0042792656 0.15199366 -0.084915705 0.017239535 -0.005664253
-0.025607249 -0.03428999 -0.06359289 0.11542484 0.009966692 0.034741648 0.07978446 0.037056606
0.12381066 0.039500892 0.19419982 0.061988562 0.17111525 0.076448284 0.086805105 0.041159112
0.062237006 0.12473239 0.11893573 0.0637453 0.0018848134 0.20510831 0.061821625 -0.12727909
0.13624205 0.055919364 0.100023575 0.057041343 -0.007889925 0.10324973 -0.02416726 -0.00026325395
-0.035167392 0.072545744 0.18960287 0.10252419 0.104561865 0.0051470613 -0.079163425 0.12194016
-0.06680161 0.012103464 0.071200244 0.18052742 0.20145983 0.1491473 0.09705859 -0.075604156
-0.024725934 -0.068004 0.11957852 0.10568255 0.12143114 0.033910103 0.065446995 0.1237602
-0.040322736 0.017970396 0.010996615 0.11243686 0.17141211 0.029817807 0.17013209 0.046012364
0.05397757 0.11867434 -0.052205596 0.07276641 0.0004682594 -0.06874009 0.07785331 0.07868596
0.09114176 0.020243859 -0.078313105 -0.04147982 0.12382794 0.078595914 -0.027763898 0.025494402
-0.10219731 -0.12358942 0.13296883 -0.049279895 -0.11699157 0.07153719 -0.047154978 0.029651083
0.059225693 -0.05275107 -0.003816796 0.09612925 -0.020323027 0.069435604 -0.08173894 -0.052851792
0.09018818 -0.11469942 -0.07411242 0.09902243 -0.023059538 -0.12484275 0.03054672 -0.06303632
0.019614382 0.027143842 -0.019339483 -0.03345031 -0.09215217 0.13071255 -0.11488203 -0.055898104
0.09245679 0.018455267 0.12077579 0.050535772 0.06471894 -0.07512059 -0.012983023 0.1293109
-0.041294128 0.019700564 -0.108292 -0.0413337 0.017477313 0.014260061 -0.11586691 0.08098277
00000000: 3507 82bc 9166 533d 2e08 bbbd f78d afbd
00000010: 7a4a e6bb ac71 f83c 76fe 6d3d 318c 58bd
00000020: 137e b43d 5c1a 503d cb83 563c 9159 90bc
00000030: c978 dd3c fccc 97bd 7cb3 d5bc 8443 f43c
00000040: c643 5e3c 4303 7fbd 6f00 b6bd 5010 033e
00000050: bf1f 293e 1d29 0c3e cee3 133e 9198 ef3d
00000060: a306 cd3d 70d3 b23d 88af af3c 8368 de3d
00000070: 35ad ae3d ecaf 353c 9b5c ba3c 6500 123e
00000080: 0cee ea3d 392e 79ba d3a3 873d d175 c33d
00000090: 90dd 9f3b b2d2 35bd 0fb7 553d b20f 843d
000000a0: b7d6 8b3d 5a99 cbbd 23dd c83d 7be2 12ba
000000b0: 31de e23d 0ce0 28bd ac56 de3d 34af 183b
000000c0: 719c 833d 91c0 6e3d c02a d73b 714e afbd
000000d0: d10e 833d 5551 e43d 76ab bc3d 3e68 ac3d
000000e0: 60dd 9f3d 9029 113e 3169 993d 1539 8c3b
000000f0: 3aa4 1b3e 49e8 adbd ed39 8d3c 339b b9bb
00000100: 4bc6 d1bc a973 0cbd fd3c 82bd dc63 ec3d
00000110: 564b 233c 424d 0e3d 0966 a33d abc8 173d
00000120: 7190 fd3d b0cb 213d 51dc 463e b8e7 7d3d
00000130: d638 2f3e eb90 9c3d e0c6 b13d 7596 283d
00000140: 3bec 7e3d b273 ff3d 9394 f33d e58c 823d
00000150: d80b f73a ea07 523e ac38 7d3d 7355 02be
00000160: 0983 0b3e b40b 653d 29d9 cc3d 2fa4 693d
00000170: be44 01bc 9874 d33d 6bfa c5bc 5905 8ab9
00000180: af0b 10bd dd92 943d 4127 423e 34f8 d13d
00000190: 8824 d63d aea8 a83b 6f20 a2bd c3bb f93d
000001a0: 48cf 88bd 9c4d 463c 6fd1 913d 2edc 383e
000001b0: 7c4b 4e3e 12ba 183e a7c6 c63d 5ad6 9abd
000001c0: 0b8e cabc ae45 8bbd 95e5 f43d 1870 d83d
000001d0: e4b0 f83d 52e5 0a3d 1309 863d fd75 fd3d
000001e0: 7429 25bd a736 933c 252b 343c 4c45 e63d
000001f0: a886 2f3e 7944 f43c 1b37 2e3e 7677 3c3d
00000200: 9617 5d3d 880b f33d 89d5 55bd 8e06 953d
00000210: b680 f539 9bc7 8cbd 8e71 9f3d 1b26 a13d
00000220: 88a8 ba3d 73d6 a53c 9f62 a0bd bee6 29bd
00000230: 8199 fd3d e5f6 a03d 1d71 e3bc a3d9 d03c
00000240: d34c d1bd 731c fdbd fb28 083e b7d9 49bd
00000250: 4799 efbd 1782 923d 9425 41bd d4e6 f23c
00000260: a496 723d 8211 58bd 3623 7abb 6adf c43d
00000270: 7a7c a6bc 4134 8e3d bf66 a7bd 1f7b 58bd
00000280: 95b4 b83d 88e7 eabd 41c8 97bd 46cc ca3d
00000290: 5be7 bcbc 8ead ffbd 1d3d fa3c 3019 81bd
000002a0: 57ae a03c c35c de3c d66d 9ebc 3103 09bd
000002b0: 47ba bcbd 83d9 053e 4547 ebbd 69f5 64bd
000002c0: fc59 bd3d 802f 973c 4c59 f73d 99fe 4e3d
000002d0: 5d8b 843d d3d8 99bd bfb6 54bc 146a 043e
000002e0: 0824 29bd 1463 a13c 32c8 ddbd 874d 29bd
000002f0: 952c 8f3c 08a3 693c a14b edbd 4bda a53d

gru.weight_ih_l0_reverse f4 [192, 6]
-0.1711755 -0.15844014 -0.1419956 -0.112645306 -0.20574972 0.14147948 -0.070589304 -0.045811515
0.03538876 0.107134625 0.045506436 0.14923206 -0.023833636 0.07689433 -0.033131935 -0.09128498
0.025945755 -0.056228414 -0.16776223 -0.07631255 -0.02324631 0.020802218 -0.11489056 -0.036920935
0.0009106323 -0.15610862 -0.11598252 0.13704039 -0.14970823 0.14884816 -0.16236971 -0.14854296
-0.16089553 0.03224316 -0.12016349 0.010553156 0.020207707 -0.092228286 0.102930635 -0.09058537
-0.05099126 0.06170181 -0.031666234 0.034885153 -0.008161021 0.052209787 0.042514052 0.08997494
0.011339799 -0.020857096 0.038897928 -0.016080247 -0.08613672 0.049123615 0.09147286 -0.033015963
0.07213698 0.073906444 0.02876779 -0.014912028 0.054645255 -0.10470652 -0.0029205317 0.024960587
-0.10492876 0.11053055 0.12684393 0.025538767 0.0151972575 -0.11127125 0.031052422 0.06285098
0.08698312 -0.069038816 0.11620433 0.012390338 0.0045261225 0.042587165 -0.005077487 -0.12136637
-0.025451662 0.06655039 -0.119472645 0.060826767 -0.12348893 -0.04563125 0.0014068821 -0.041231606
-0.24787131 -0.085095465 0.024178643 -0.13581224 -0.12355084 0.045629833 0.06821965 0.027712762
0.046326607 0.018890468 0.04669259 -0.046815682 0.1276546 0.042419568 0.057127837 -0.06051711
-0.118418366 -0.09523007 -0.002945102 0.11743682 -0.19798529 -0.10421881 -0.004100367 -0.06508445
-0.189784 -0.11020614 0.12458965 -0.020864872 0.04376698 0.19061346 -0.02392363 0.069595486
-0.01465888 -0.091654316 -0.0024404817 -0.01714257 0.04270986 0.04279175 -0.15550487 -0.13316956
-0.0009059991 0.067639045 -0.21854603 0.16822106 -0.019903034 -0.012441195 -0.041700304 -0.0002628322
0.06143866 -0.056998454 -0.04080631 0.08170838 0.1458688 0.09436419 -0.06840083 0.08983066
-0.14778559 -0.16539958 -0.04179605 -0.0061522187 -0.08383778 0.031508073 0.049262606 0.027914265
-0.020715741 -0.005251407 0.0034584843 0.04478554 -0.114872836 -0.14611931 -0.027165677 -0.09897796
-0.09827893 0.10427185 -0.03989918 -0.13181916 0.027570944 0.100978784 -0.12204425 0.011115009
0.08141732 -0.035612527 0.06313606 -0.009119343 0.036302313 -0.040727213 -0.09046864 -0.13251804
0.0896269 -0.004807184 0.016227724 -0.10473861 0.0687967 -0.11554767 0.008912345 0.012878527
-0.08790029 -0.022013245 -0.1968218 -0.111169025 -0.013603791 0.020511573 -0.19782723 0.074338295
0.03035153 -0.0029872984 -0.023104044 0.010369028 -0.101771444 -0.018173676 -0.067368455 -0.044561673
-0.13020292 0.07210849 0.008332116 0.09315928 -0.16951542 -0.13196728 0.062211446 0.09348349
-0.05607756 -0.061118197 0.11920652 0.13547818 0.112098105 -0.08327147 0.10677874 -0.029355414
-0.10906871 -0.02524239 -0.076303445 -0.031676818 -0.10131853 0.076055415 -0.07688842 0.04113459
0.1443381 0.02042433 0.0341372 -0.002364839 -0.17613043 0.0015614711 -0.06456259 0.111235015
-0.19651555 -0.016534152 0.1395593 -0.06649485 0.08514936 0.0011854046 -0.011951471 -0.0017633608
-0.05766055 0.02780603 0.05669651 -0.023219405 -0.1562105 0.044488184 -0.025982743 0.026740039
-0.07715769 0.13567099 -0.02953797 0.01957291 -0.08101204 -0.10023882 -0.070945285 0.09320869
00000000: a148 2fbe 223e 22be 4b67 11be 95b2 e6bd
00000010: 0eb0 52be ffdf 103e 2091 90bd dba4 3bbd
00000020: cef3 103d 6669 db3d f564 3a3d 4ad0 183e
00000030: c23e c3bc c67a 9d3d 5ab5 07bd 9ff3 babd
00000040: 318c d43c c44f 66bd ddc9 2bbe c149 9cbd
00000050: 0c6f bebc 6a69 aa3c be4b ebbd 683a 17bd
00000060: 80b7 6e3a f0da 1fbe 3e88 edbd 5154 0c3e
00000070: 1d4d 19be a76b 183e 3f44 26be a51b 18be
00000080: ccc1 24be 6711 043d 4718 f6bd 25e7 2c3c
00000090: a28a a53c 2fe2 bcbd 4ccd d23d d384 b9bd
000000a0: 36dc 50bd 0abb 7c3d 74b4 01bd bce3 0e3d
000000b0: ceb5 05bc eed9 553d 3723 2e3d c844 b83d
000000c0: 90ca 393c 80dc aabc 6f53 1f3d b9ba 83bc
000000d0: 7368 b0bd d835 493d 1f56 bb3d bf3b 07bd
000000e0: 8ebc 933d 435c 973d 6eaa eb3c 9451 74bc
000000f0: b4d3 5f3d 5f70 d6bd 6466 3fbb 257a cc3c
00000100: e4e4 d6bd d75d e23d 60e3 013e ad36 d13c
00000110: ebfd 783c 2ee2 e3bd a661 fe3c 04b8 803d
00000120: 3524 b23d 3964 8dbd 89fc ed3d d800 4b3c
00000130: de4f 943b e16f 2e3d 0c61 a6bb ee8e f8bd
00000140: 0180 d0bc 924b 883d 13ae f4bd 7d25 793d
00000150: c4e7 fcbd d5e7 3abd 2167 b83a 79e2 28bd
00000160: fad1 7dbe 8846 aebd 4a12 c63c 5d12 0bbe
00000170: 3908 fdbd 59e6 3a3d beb6 8b3d e005 e33c
00000180: f8c0 3d3d 2fc0 9a3c bb40 3f3d cdc1 3fbd
00000190: e3b7 023e 24c0 2d3d e1fe 693d cae0 77bd
000001a0: 5485 f2bd fc07 c3bd 9d02 41bb b782 f03d
000001b0: a8bc 4abe ac70 d5bd 5f5c 86bb ff4a 85bd
000001c0: bd56 42be c2b3 e1bd dc28 ff3d cfec aabc
000001d0: 0145 333d 2d30 433e 7dfb c3bc 1488 8e3d
000001e0: cd2b 70bc 42b5 bbbd 7df0 1fbb 936e 8cbc
000001f0: 89f0 2e3d 6746 2f3d ab3c 1fbe 9a5d 08be
00000200: 9280 6dba 5786 8a3d 88ca 5fbe 2442 2c3e
00000210: b00b a3bc 27d6 4bbc f0cd 2abd becc 89b9
00000220: 1ba7 7b3d 3677 69bd 8424 27bd b956 a73d
00000230: a15e 153e 0342 c13d bc15 8cbd 23f9 b73d
00000240: 1b55 17be 825e 29be 5632 2bbd 8d98 c9bb
00000250: 24b3 abbd 9c0e 013d 96c7 493d 75ac e43c
00000260: 0fb4 a9bc ff13 acbb bda7 623b 0b71 373d
00000270: 7342 ebbd 4da0 15be 8e8a debc f5b4 cabd
00000280: 7746 c9bd 7b8c d53d 536d 23bd 9afb 06be
00000290: 76dc e13c f7cd ce3d 56f2 f9bd ba1b 363c
000002a0: 20be a63d 71de 11bd 7b4d 813d 4c69 15bc
000002b0: bcb1 143d 94d1 26bd 9f47 b9bd cfb2 07be
000002c0: 4f8e b73d 9585 9dbb 01f0 843c 3281 d6bd
000002d0: 49e5 8c3d 42a4 ecbd 1605 123c 7500 533c
000002e0: 1105 b4bd 1f55 b4bc a78b 49be 96ac e3bd
000002f0: 6fe2 5ebc e307 a83c 3993 4abe ad3e 983d
00000300: c6a3 f83c 8dc6 43bb b144 bdbc dbe2 293c
00000310: 8c6d d0bd f6e0 94bc 79f8 89bd 4d86 36bd
00000320: ea53 05be 9ead 933d 6d83 083c 4bca be3d
00000330: 7395 2dbe 6e22 07be 6ed1 7e3d 4674 bf3d
00000340: 95b1 65bd 1357 7abd 8c22 f43d cbba 0a3e
00000350: b193 e53d 3c8a aabd d0ae da3d c47a f0bc
00000360: 6a5f dfbd 21c9 cebc fb44 9cbd 8dbf 01bd
00000370: 1780 cfbd f1c2 9b3d ad77 9dbd be7c 283d
00000380: 5ecd 133e ed50 a73c 73d3 0b3d 6afb 1abb
00000390: 895b 34be 47aa cc3a 6439 84bd 2fcf e33d
000003a0: 5f3b 49be a172 87bc a2e8 0e3e 742e 88bd
000003b0: ca62 ae3d 945f 9b3a 1ad0 43bc 9220 e7ba
000003c0: 782d 6cbd 79c9 e33c 9a3a 683d 9f36 bebc
000003d0: a5f5 1fbe 3e39 363d c3d9 d4bc ed0d db3c
000003e0: da04 9ebd 56ed 0a3e 9df9 f1bc 5e57 a03c
000003f0: a4e9 a5bd 034a cdbd c34b 91bd 33e4 be3d

gru.weight_hh_l0_reverse f4 [192, 64]
-0.10156704 -0.10032952 -0.11608139 -0.02872771 -0.027849497 -0.044358775 0.041139346 -0.012204855
0.025904084 0.04857728 0.098363206 -0.03488346 -0.06875035 0.08649255 -0.090452366 -0.064362645
-0.12489208 0.034381792 0.05412675 -0.10499262 -0.035821762 -0.06470771 -0.014968935 -0.059808623
0.10375314 0.05708581 -0.02960099 0.059564587 -0.035040937 -0.06582742 0.017453926 -0.06817774
0.059339598 0.013789044 0.0866756 0.05417272 0.106794275 -0.12949707 -0.002854811 0.08020768
-0.07567307 -0.008503699 -0.07101271 0.040650766 -0.031237246 0.07755837 0.026585491 0.07453806
0.1055578 -0.12698878 -0.08790503 0.030018985 -0.08205307 0.011267529 -0.0049547777 -0.04641076
0.023059715 -0.0852272 0.04451294 -0.01649576 0.11656411 -0.06599281 -0.016207282 -0.059952345
0.046462726 -0.09279132 0.12923655 0.10639689 0.10629439 0.097113684 -0.120696045 0.15260917
-0.12242324 -0.04390864 -0.009646082 0.07965778 -0.08262828 -0.019011578 -0.14284587 0.09805204
0.02842046 -0.036622364 -0.0016821801 0.04749885 -0.07777936 0.014971808 0.058373835 0.17721154
-0.021844815 0.09033709 0.026489673 -0.100066245 -0.07077281 0.022025477 0.054402113 0.015585743
-0.08069387 0.0043349825 -0.0049211774 -0.025446542 0.07542371 -0.023866855 -0.08258846 -0.038036592
-0.005890532 -0.047998514 0.09642715 0.16754216 0.12376293 0.1280803 0.058999673 -0.0010416454
-0.07097592 0.09558995 0.058494687 -0.031843647 0.021395199 0.045878917 0.054668717 0.052342948
0.12174842 0.052851487 -0.105176955 0.064261705 -0.029822366 0.046403743 0.07669867 -0.114223436
0.023618339 0.028611416 -0.030115815 -0.046871316 -0.050344907 -0.05277602 -0.0062252916 -0.04987199
-0.08193803 -0.050931927 -0.023051897 0.13972618 -0.14747892 -0.057056785 -0.03299986 0.018840238
-0.09881363 0.09261136 -0.11778025 0.12501162 -0.00038586033 -0.03801054 0.064195395 0.043423463
-0.028795574 0.071444884 -0.016496146 -0.07763013 -0.102427654 0.03343704 -0.045551024 -0.049150523
-0.009729838 0.012608335 0.07596606 0.11230834 0.0054925107 -0.04944402 0.10510626 0.0065066596
-0.090696976 -0.040773466 0.08702766 -0.093117476 -0.00846807 -0.13989405 0.11400562 -0.106401645
-0.08280331 -0.16310942 -0.01259574 0.04741877 -0.088563964 -0.12224967 0.013947101 -0.049902685
-0.042230655 -0.054992605 0.10217335 -0.11477229 0.122377835 0.036997866 0.073595814 -0.039018847
0.058389716 0.0078554405 -0.10538835 -0.017006971 -0.057612784 0.03051372 -0.052112233 0.02090573
0.05468151 0.049512617 -0.028852805 0.007949233 0.07571722 -0.11092427 -0.0017547433 -0.089534685
-0.12833244 -0.07839321 -0.05120822 -0.10465821 -0.04673486 -0.022095311 -0.008955194 -0.016716996
-0.10537237 -0.0950175 0.005624327 0.08652985 0.09456473 0.07766362 -0.034111787 0.11094199
0.09569772 0.120948896 -0.023411142 0.09701333 0.040841408 0.02061702 -0.08271679 -0.12852903
0.04217882 -0.0066011883 0.019452235 -0.00041905828 0.049844403 0.015286527 -0.079848826 -0.09110196
-0.007915054 0.0066234786 0.1092051 -0.046794042 -0.037028406 -0.12196549 -0.053846907 -0.12614942
-0.100868054 -0.13998456 -0.04243921 0.10325022 -0.09232628 -0.09186292 -0.102875136 0.015219789
00000000: 6102 d0bd 9079 cdbd 14bc edbd 6056 ebbc
00000010: a124 e4bc 8cb1 35bd bb81 283d dff6 47bc
00000020: cd34 d43c f8f8 463d a672 c93d f5e1 0ebd
00000030: fccc 8cbd 0223 b13d 173f b9bd 90d0 83bd
00000040: 6bc7 ffbd ecd3 0c3d 03b4 5d3d 5f06 d7bd
00000050: d7b9 12bd 7a85 84bd 4440 75bc e3f9 74bd
00000060: 877c d43d cfd2 693d c67d f2bc fff9 733d
00000070: 1687 0fbd 87d0 86bd 89fb 8e3c c5a0 8bbd
00000080: 140e 733d 71eb 613c fa82 b13d 37e4 5d3d
00000090: f5b6 da3d e19a 04be c817 3bbb ed43 a43d
000000a0: 7cfa 9abd 1953 0bbc 1d6f 91bd 6b81 263d
000000b0: 41e5 ffbc ecd6 9e3d d1c9 d93c 69a7 983d
000000c0: b02e d83d 5909 02be 8d07 b4bd 60ea f53c
000000d0: 710b a8bd 719b 383c b05b a2bb 3619 3ebd
000000e0: bae7 bc3c 998b aebd 3353 363d 1e22 87bc
000000f0: 2ab9 ee3d 3d27 87bd 22c5 84bc 9790 75bd
00000100: b34f 3e3d 6009 bebd 9656 043e 9de6 d93d
00000110: e0b0 d93d 8ae3 c63d 7d2f f7bd 9445 1c3e
00000120: 09b9 fabd 8cd9 33bd 9a0a 1ebc 9e23 a33d
00000130: 0439 a9bd 2bbe 9bbc 3046 12be 82cf c83d
00000140: 06d2 e83c 5501 16bd 997c dcba 278e 423d
00000150: c94a 9fbd 504c 753c 6719 6f3d f176 353e
00000160: e6f3 b2bc a702 b93d df00 d93c 88ef ccbd
00000170: 56f1 90bd c66e b43c c0d4 5e3d 585b 7f3c
00000180: d442 a5bd 780c 8e3b d441 a1bb 4475 d0bc
00000190: bf77 9a3d 6c84 c3bc 2324 a9bd 42cc 1bbd
000001a0: 5d05 c1bb 179a 44bd 997b c53d 2c90 2b3e
000001b0: 6b77 fd3d 7b27 033e a4a9 713d d287 88ba
000001c0: d35b 91bd aac4 c33d 2098 6f3d 7c6e 02bd
000001d0: fc44 af3c 88eb 3b3d 4eec 5f3d 8f65 563d
000001e0: 3c57 f93d cd7a 583d 0467 d7bd a49b 833d
000001f0: 094e f4bc da11 3e3d 3114 9d3d faed e9bd
00000200: 3f7b c13c 7d62 ea3c 71b5 f6bc 23fc 3fbd
00000210: 7636 4ebd ab2b 58bd 88fd cbbb 9246 4cbd
00000220: 20cf a7bd ff9d 50bd 55d7 bcbc 6114 0f3e
00000230: b704 17be 60b4 69bd dc2a 07bd d856 9a3c
00000240: cd5e cabd 06ab bd3d c636 f1bd 0c03 003e
00000250: 4c4d cab9 f1b0 1bbd e078 833d cddc 313d
00000260: b2e4 ebbc b251 923d ed22 87bc 8cfc 9ebd
00000270: 97c5 d1bd 47f5 083d b693 3abd 0f52 49bd
00000280: e669 1fbc 3193 4e3c 1894 9b3d ea01 e63d
00000290: 85fa b33b d085 4abd f341 d73d d135 d53b
000002a0: 56bf b9bd 1402 27bd 8f3b b23d 60b4 bebd
000002b0: a9bd 0abc 6340 0fbe c77b e93d 1be9 d9bd
000002c0: c894 a9bd 2806 27be 5d5e 4ebc 2f3a 423d
000002d0: 0661 b5bd 095e fabd 6282 643c c266 4cbd
000002e0: 0dfa 2cbd ed3f 61bd 4340 d13d bc0d ebbd
000002f0: 3ba1 fa3d 138b 173d 67b9 963d 3ad2 1fbd
00000300: 0e2a 6f3d 1bb4 003c d9d5 d7bd 3452 8bbc
00000310: 62fb 6bbd e9f7 f93c a373 55bd 7e42 ab3c
00000320: b8f9 5f3d becd 4a3d b85c ecbc 803d 023c
00000330: a111 9b3d 432c e3bd 6aff e5ba f65d b7bd
00000340: 9469 03be 9f8c a0bd b6bf 51bd 0b57 d6bd
00000350: 0d6d 3fbd 3a01 b5bc ceb8 12bc 15f2 88bc
00000360: 78cd d7bd 8998 c2bd 464c b83b 9036 b13d
00000370: 27ab c13d 1b0e 9f3d cdb8 0bbd 8e35 e33d
00000380: 2bfd c33d 0eb4 f73d b9c8 bfbc edae c63d
00000390: 5249 273d 06e5 a83c 6c67 a9bd 1d9d 03be
000003a0: b3c3 2c3d c84e d8bb 4b5a 9f3c 0db5 dbb9
000003b0: a529 4c3d 5774 7a3c c887 a3bd aa93 babd
000003c0: 25ae 01bc c409 d93b eca6 df3d 1cab 3fbd
000003d0: 19ab 17bd 0bc9 f9bd 938e 5cbd 502d 01be
000003e0: e993 cebd 1d58 0fbe bdd4 2dbd da74 d33d
000003f0: 9015 bdbd a022 bcbd 33b0 d2bd 6c5c 793c

gru.bias_ih_l0_reverse f4 [192]
-0.101494 0.043994885 -0.043950476 0.1818018 0.064473204 0.086083 -0.03620265 0.07673005
-0.046789616 0.13165374 0.032511946 0.096772574 0.14033492 -0.076719396 -0.05725035 -0.06572299
-0.07119971 0.09982145 0.06645224 -0.008482274 -0.016504955 0.08051545 0.029947877 0.08295396
0.1265998 0.1455801 0.07692739 0.055536535 0.12815692 0.11491747 -0.058855146 0.081463195
-0.025528394 0.19020382 0.10234596 0.08642662 -0.05933396 0.004600375 0.008718132 -0.0142369615
0.096628584 0.05693777 0.097318955 -0.0039817924 -0.04345993 -0.032546975 0.02344314 0.109929904
0.05091043 -0.030497093 -0.03856756 0.06348316 0.02588402 0.12022832 0.050941527 0.11029807
0.045168575 -0.017027015 -0.001830716 0.015052354 -0.03277987 -0.06390401 -0.06155635 -0.0074505634
0.018792266 0.13961777 0.038312163 0.10572129 0.16557549 0.107758455 0.08157903 0.08168338
0.09447521 -0.06599596 -0.008645355 -0.059687603 -0.017855654 0.0008642395 0.019183882 -0.016172439
-0.021767762 0.09955091 0.027034946 0.1015095 0.08353441 0.05514219 0.15354274 0.0044954484
0.08482662 0.07319767 0.15444995 0.15460728 0.030479003 0.007533249 0.11413986 0.07393884
0.20440333 0.037945766 0.04504541 -0.06761007 0.08109588 0.07232535 -0.034691542 0.07113702
-0.052007712 0.1724708 0.191826 0.115621105 -0.05529867 0.0371571 -2.541498e-05 0.16989037
0.17596489 0.20062813 0.08982814 -0.06923814 -0.009934634 -0.030944092 0.2053427 -0.04167888
0.0032008686 0.081048205 0.14158933 -0.029274851 -0.17574203 0.09573534 0.1265109 -0.08519026
-0.009737527 -0.053837456 0.023965286 -0.088274 -0.039046437 -0.006420238 0.011614561 0.105246864
-0.037447304 0.08978286 0.036182508 0.096507095 -0.09761317 0.029672148 -0.12974106 -0.012553156
-0.107976824 0.035490613 -0.028084848 0.08271804 -0.06704296 0.037039734 -0.07262368 -0.09823176
0.033186123 0.023349423 0.011853131 0.013595604 -0.01632721 -0.13453779 0.08264342 -0.03261177
-0.0044584316 0.09186209 -0.02725893 0.07526025 -0.006696376 -0.057057913 -0.120161325 -0.11624407
0.05330332 0.012210692 0.08323065 -0.027084772 0.10983175 -0.012103952 0.13151091 -0.06880889
-0.015354722 -0.076197445 -0.0416006 -0.02570483 0.062362745 -0.12239001 -0.07034641 0.04539319
-0.090202555 0.03789663 -0.038082533 -0.026271503 0.11345394 0.10161992 0.0077459165 -0.1361051
00000000: 16dc cfbd fb33 343d 6a05 34bd 402a 3a3e
00000010: 870a 843d 494c b03d 3b49 14bd a524 9d3d
00000020: 78a6 3fbd 3dd0 063e 3f2b 053d b330 c63d
00000030: f5b3 0f3e 0f1f 9dbd 587f 6abd c699 86bd
00000040: 27d1 91bd 306f cc3d 1d18 883d 3cf9 0abc
00000050: 6635 87bc 49e5 a43d 4055 f53c c4e3 a93d
00000060: 61a3 013e f312 153e 1c8c 9d3d 477a 633d
00000070: 913b 033e da59 eb3d 1812 71bd 2dd6 a63d
00000080: ec20 d1bc cac4 423e c29a d13d 7100 b13d
00000090: 2b08 73bd bebe 963b 7fd6 0e3c 2542 69bc
000000a0: 35e5 c53d 9437 693d 294f c73d b279 82bb
000000b0: 0a03 32bd fa4f 05bd d40b c03c ee22 e13d
000000c0: 7487 503d 0ad5 f9bc 05f9 1dbd 7603 823d
000000d0: b90a d43c 443a f63d 10a8 503d f4e3 e13d
000000e0: af02 393d 3d7c 8bbc a3f4 efba 269e 763c
000000f0: 2f44 06bd 1be0 82bd 8322 7cbd db23 f4bb
00000100: 3df2 993c f6f7 0e3e 37ed 1c3d 6784 d83d
00000110: 9f8c 293e 77b0 dc3d e812 a73d 9e49 a73d
00000120: 387c c13d e428 87bd 3fa5 0dbc fd7a 74bd
00000130: 0546 92bc 228e 623a 8427 9d3c 107c 84bc
00000140: 4e52 b2bc 59e1 cb3d 6478 dd3c 36e4 cf3d
00000150: 1714 ab3d c7dc 613d 4f3a 1d3e 8e4e 933b
00000160: 94b9 ad3d a9e8 953d 2128 1e3e 5f51 1e3e
00000170: 1aaf f93c 79d9 f63b 29c2 e93d 3f6d 973d
00000180: 1b4f 513e 056d 1b3d 8981 383d 2677 8abd
00000190: 9915 a63d 501f 943d b818 0ebd 49b0 913d
000001a0: 0a06 55bd 2f9c 303e 096e 443e c2ca ec3d
000001b0: dc80 62bd 0b32 183d 4132 d5b7 bef7 2d3e
000001c0: 2430 343e 7671 4d3e d1f7 b73d bacc 8dbd
000001d0: e0c4 22bc 777e fdbc 5b45 523e 79b7 2abd
000001e0: aac5 513b 9afc a53d cbfc 103e d0d1 efbc
000001f0: b8f5 33be e410 c43d 138c 013e 3b78 aebd
00000200: 268a 1fbc aa84 5cbd d952 c43c 00c9 b4bd
00000210: 28ef 1fbd dc60 d2bb 004b 3e3c ab8b d73d
00000220: 5862 19bd 13e0 b73d 1c34 143d 83a5 c53d
00000230: 6ae9 c7bd 0113 f33c d7da 04be c1ab 4dbc
00000240: f422 ddbd 9b5e 113d 3212 e6bc 1368 a93d
00000250: d24d 89bd fab6 173d b9bb 94bd bc2d c9bd
00000260: 2cee 073d 4a47 bf3c a333 423c 19c0 5e3c
00000270: a4c0 85bc 46c4 09be f440 a93d eb93 05bd
00000280: 0918 92bb 3122 bc3d 1f4e dfbc 0c22 9a3d
00000290: 466d dbbb 8fb5 69bd 2417 f6bd 5f11 eebd
000002a0: 9554 5a3d 5b0f 483c d574 aa3d e2e0 ddbc
000002b0: 78ef e03d a74f 46bc ccaa 063e adeb 8cbd
000002c0: 5f92 7bbc 680d 9cbd 6465 2abd f092 d2bc
000002d0: 1470 7f3d 9da7 fabd c711 90bd 36ee 393d
000002e0: 1ebc b8bd 7f39 1b3d 6efc 1bbd 5637 d7bc
000002f0: 8a5a e83d 1b1e d03d 75d1 fd3b 235f 0bbe

gru.bias_hh_l0_reverse f4 [192]
0.061803665 0.051050507 0.13484241 -0.016141616 -4.7289395e-05 -0.022519004 0.0018277328 0.051331624
0.013403841 0.118897244 0.0136870295 0.09124015 0.04263022 -0.054154217 0.14746799 0.03619274
-0.055289082 0.0380905 -0.0777304 0.13951987 -0.056500863 -0.012102514 0.035791982 0.13070627
0.13597307 0.09896728 0.0118322205 0.14284967 -0.059171855 0.0059785894 0.027299644 -0.03985642
0.020659283 0.010500782 0.16848269 0.027045233 0.084218524 0.05849672 0.054111823 -0.020228129
-0.06702532 0.00859108 0.00032355599 0.006795055 0.14617476 0.03395151 0.075602315 -0.018926999
-0.039096314 0.14639191 -0.07385974 -0.04400215 -0.005463803 0.03979972 0.019920394 -0.047334548
-0.0010161807 0.070513114 -0.10373744 0.008292783 0.08100607 0.12143433 0.10562819 -0.043334525
-0.054319 -0.061227076 -0.001148658 0.19195895 0.050488546 0.000646785 -0.12835333 0.049924396
0.104687706 -0.078338824 0.11605862 0.031700827 0.015233489 0.14445154 0.010281033 -0.13040401
0.10199574 -0.04747623 -0.08016341 0.17717348 0.054076884 0.17813566 -0.058868855 0.032436386
-0.0671051 0.12773915 0.02037473 0.008006403 -0.043245897 -0.009741871 -0.08495543 -0.018551623
0.032442257 0.14214575 0.18578996 0.077806845 0.009458972 0.13648488 0.09877016 0.00043972663
-0.08811247 0.016195346 0.0136199985 0.10492523 -0.04138549 -0.12711246 0.02341965 -0.016578035
-0.017196242 0.026999367 -0.047870807 -0.0811381 -0.17311151 0.03740236 0.08340969 0.018702766
0.15262543 -0.071451865 -0.05542005 0.1705128 -0.14339177 0.12284205 -0.033277962 -0.007481157
-0.10917558 -0.07647731 -0.104692906 0.06871721 -0.11373538 -0.03521788 0.034357112 0.0708108
0.013499336 0.030137697 0.018956909 0.09383562 0.019459229 0.113739036 0.0492051 0.11526208
-0.045780603 0.06349011 0.02377715 -0.0021633569 0.064086914 -0.027463082 -0.059069794 -0.05806754
-0.11771035 0.0025612386 -0.04870285 0.032853443 -0.05270807 0.023115566 0.14569151 0.10928294
0.0037389935 0.14080396 -0.096635506 -0.0035421208 -0.02514444 -0.12963822 0.024874538 -0.10629917
0.0063584656 -0.10717772 0.07533873 -0.12309782 0.10707271 -0.11481564 0.07647978 0.021326292
-0.093516506 -0.12978207 0.12133346 0.07579972 0.06553753 0.041460827 0.10457785 -0.08147916
0.0021595906 -0.03996624 0.057060815 0.10463284 0.042309828 0.08043746 -0.093884 0.096400395
00000000: d725 7d3d 561a 513d 2114 0a3e 6c3b 84bc
00000010: 9a58 46b8 c679 b8bc 8990 ef3a 1c41 523d
00000020: c99b 5b3c 6680 f33d 903f 603c 1edc ba3d
00000030: 079d 2e3d d0d0 5dbd d901 173e d73e 143d
00000040: ce76 62bd c904 1c3d 1e31 9fbd 4cde 0e3e
00000050: 736d 67bd 9f49 46bc 9d9a 123d ddd7 053e
00000060: 863c 0b3e 5baf ca3d eedb 413c 2f47 123e
00000070: 305e 72bd 0be8 c33b 81a3 df3c 7c40 23bd
00000080: a83d a93c 790b 2c3c ba86 2c3e f78d dd3c
00000090: c37a ac3d 429a 6f3d 5ca4 5d3d 76b5 a5bc
000000a0: 9244 89bd 9ac1 0c3c f3a2 a939 0da9 de3b
000000b0: d6ae 153e bd10 0b3d 63d5 9a3d cb0c 9bbc
000000c0: 7523 20bd c3e7 153e c643 97bd 993b 34bd
000000d0: b409 b3bb 0805 233d 1830 a33c dfe1 41bd
000000e0: 5e31 85ba 2e69 903d 4c74 d4bd 74de 073c
000000f0: 83e6 a53d 90b2 f83d 9853 d83d 8b7f 31bd
00000100: 9a7d 5ebd 3ec9 7abd 918e 96ba e390 443e
00000110: 14cd 4e3d 028d 293a 0e6f 03be 867d 4c3d
00000120: 8266 d63d 1b70 a0bd 24b0 ed3d bad8 013d
00000130: e295 793c 1beb 133e c771 283c a188 05be
00000140: 24e3 d03d 6f76 42bd b72c a4bd f76c 353e
00000150: b97f 5d3d 3269 363e 7820 71bd 04dc 043d
00000160: 666e 89bd 0dce 023e e8e8 a63c 4a2d 033c
00000170: 9c22 31bd 5e9c 1fbc 1dfd adbd 93f9 97bc
00000180: 2ce2 043d a88e 113e b93f 3e3e 3259 9f3d
00000190: cef9 1a3c b1c2 0b3e 0248 ca3d 1c8b e639
000001a0: 5074 b4bd 1aac 843c 6a26 5f3c 0ae3 d63d
000001b0: d583 29bd c529 02be 91da bf3c a9ce 87bc
000001c0: 22df 8cbc c72d dd3c 2e14 44bd bb2b a6bd
000001d0: 2544 31be 3833 193d b3d2 aa3d 8b36 993c
000001e0: d749 1c3e 5b55 92bd 2200 63bd e89a 2e3e
000001f0: 4bd5 12be 9d94 fb3d 794e 08bd 7e24 f5bb
00000200: 7297 dfbd 23a0 9cbd 3c69 d6bd 9cbb 8c3d
00000210: 18ee e8bd a040 10bd 0bba 0c3d 4105 913d
00000220: 522c 5d3c 55e3 f63c 854b 9b3c e42c c03d
00000230: f668 9f3c 03f0 e83d 498b 493d 870e ec3d
00000240: 7184 3bbd 1a07 823d 4cc8 c23c 1bc7 0dbb
00000250: 0040 833d 42fa e0bc 2bf3 71bd 3bd8 6dbd
00000260: 2012 f1bd 74da 273b a47c 47bd 5591 063d
00000270: 6be4 57bd db5c bd3c 2830 153e bccf df3d
00000280: e709 753b ea2e 103e d6e8 c5bd ed22 68bb
00000290: b6fb cdbc e2bf 04be b0c5 cb3c 61b3 d9bd
000002a0: ad5a d03b fe7f dbbd 314b 9a3d b61a fcbd
000002b0: f048 db3d 7624 ebbd 6ea1 9c3d 7ab4 ae3c
000002c0: 9585 bfbd 97e5 04be ad7d f83d e23c 9b3d
000002d0: 8a38 863d d4d2 293d e92c d63d 8cde a6bd
000002e0: eb87 0d3b a4b3 23bd 9ab8 693d be49 d63d
000002f0: 124d 2d3d 65bc a43d 4146 c0bd 926d c53d
