model/sharegpt_gru_classifier_weights/deepseek-r1-distill-8b_h100_tp8.pt (torch, 118213 bytes, 10 tensors)

gru.weight_ih_l0 f4 [192, 6]
00000000: cbe4 803e e4fe 35bb 4e50 82be 4eb3 0bbf
00000010: ceb9 96be ff24 e23e e5f0 8b3e 76db f1bc
00000020: 17c9 733f 2f27 023f b4de a73e 87ad 043f
00000030: ae8b cc3d 9562 2a3d 2456 dd3d 52f9 9fbd
00000040: 37ff 263f d3dd 3abe 66a8 98be c673 9e3e
00000050: 54ee bebe 7b42 b2bd 0126 82bf 7be7 dbbe
00000060: dce3 2c3e 89ef 54bd 6c23 2cbf 9f66 443e
00000070: 4eb0 503f e541 21bd 5e5a e93d b263 22bf
00000080: 59d5 283d a1c6 2f3e dbff ed3e c9cc 14be
00000090: fb16 76be 6e15 f0bd bc5d 463e ddf8 863e
000000a0: 4d20 49bf 16db 993e efc6 7bbe 3f33 90bc
000000b0: ed84 88be d0c2 7bbd 76fd aabe b717 dcbd
000000c0: 1822 ccbe 6f01 b4be 9b0f 90be eccd 0a3f
000000d0: c2b0 87be 3c87 273e 5e02 443d 7556 46bf
000000e0: 5839 97be 75e3 3a3e 23e9 0bbe fca5 2a3e
000000f0: 021e a3be 8522 413f 1f38 e4bb acc4 e2be
00000100: 17d6 1dbf 260c 583e 0754 18be 4a4a 1fbd
00000110: 1748 823e 875e 8d3e 942d 59be 5665 2a3f
00000120: bc58 403e c9c1 a2be 78be 35be fc11 c43e
00000130: 32c8 453f 925d 45be 4cc8 1cbf fd77 fd3d
00000140: a1bb 853d 7084 13be a94a 063e 9275 813e
00000150: a5e2 22bf c410 d8be c046 a23e ab23 debe
00000160: eedc d73d ffbb 753d 2b73 033f 0ce0 943e
00000170: b78f 403f 864a df3d 7f1d b0be a571 83be
00000180: 2c83 1fbe be71 1d3e ffca f5bc f5da 503c
00000190: 4864 e0be 9c94 07be cab7 15bf ca8f d93e
000001a0: 6faa 3c3e 73db 453f e800 a6be a283 273f
000001b0: 056a d4bb 9c18 363f 8f60 073f 8b14 473e
000001c0: 4a8c 46be 6a1b 81be 5560 2d3f adc2 a53e
000001d0: fdfb 513e 9eda 963e 0a94 703f 900c de3d
000001e0: 8832 f73e ad05 e63e 94cd c13e 5958 e43e
000001f0: d645 483f b5cc d43e edf0 39bf 96a3 913d
00000200: c334 fabd 35f4 f93e 64b8 01bf db93 093f
00000210: cb10 733e fb68 89be 838f 583e fed5 7e3e
00000220: ee11 453e e964 133e edc5 5d3e 22ea ad3e
00000230: d34b 833e 8dfd 993e c4e8 923e 6c47 80be
00000240: 006d 343f 4b17 d93d 8a13 343d cf73 b23e
00000250: a81e 143f 4fdd ffbb 2921 04bf e87d 07bf
00000260: 9992 c8bd 27b8 303d d084 e23e 15d1 96bd
00000270: ebb8 d73d d05f 98be 4bdb 33bf 33a6 f6bc
00000280: 1a0a 9c3e 1500 cdbe d15b 3cbe bc60 aabe
00000290: 1f3f 143e c6ae 8a3e ab7e 183f 396c e93d
000002a0: 6b4e c4be 070b 15bf df22 493f d2f6 ec3d
000002b0: 850a a83e 0556 a03e a880 80be 7bfb a33e
000002c0: b33c 0bbf 92d2 d33e 27f6 3d3f 779e 203e
000002d0: 04e9 323f f2af 543e 10f1 5d3e 856d 0c3f
000002e0: 4cc4 133e cc60 15bd c496 8d3e de8e 893e
000002f0: c5f9 203d 2adf a93e dde9 763e dbd5 90be
00000300: c6e3 7f3f 6edc 683e 1e4d 07be 3d2c 5ebf
00000310: 01db a0be c543 32bd a844 9f3e f5c5 303f
00000320: fbae bb3d 369d 8ebc 0a63 1b3f 5fc2 8b3e
00000330: 99cb 553d e76f 303e e125 753f 224d 943b
00000340: 2557 3b3f 5514 4abf 7c8d f3be 6407 6fbe
00000350: a194 f2be 190e 663e 471a ce3e 017d d9bd
00000360: 3d02 aebe 3736 07be 07e5 64be 6f24 1b3e
00000370: cac2 0f3d ef2f 6fbe d0ea 0ebf 7d0c 41be
00000380: 8c81 10bf 84e1 8b3e 24e6 ebbe 7c43 bebd
00000390: 583b 573f 2866 b33e f506 d63e eb56 c5be
000003a0: 0d91 c4bd ae49 603e ac92 fbbe 1a47 983e
000003b0: 32da 993e 1d29 0c3f 7656 653f d428 923e
000003c0: d489 313e 22be 653a 216e d4bd 4a51 f13e
000003d0: e569 023e 513e 2bbe c488 b4be 75ee c13c
000003e0: a022 57bd 5802 543e e067 acbc 5132 47bd
000003f0: a1b2 3cbf 69a0 d93d 60cb 73bf 021f f2bd
0.25174555 -0.0027770335 -0.25451893 -0.5457047 -0.29438633 0.4416885 0.27332225 -0.029523592
0.95228714 0.5084104 0.32787097 0.5182728 0.09987579 0.04159792 0.10807446 -0.07811226
0.65233177 -0.18248682 -0.29815978 0.30947703 -0.37291205 -0.087040864 -1.0167848 -0.42950043
0.16883796 -0.05198625 -0.6724155 0.19179772 0.8151902 -0.039369483 0.11394189 -0.6343337
0.04121909 0.17165615 0.46484265 -0.14531244 -0.24032204 -0.117228374 0.19371694 0.26361743
-0.7856491 0.30049962 -0.24587606 -0.017602561 -0.26663914 -0.061465085 -0.333965 -0.10746711
-0.3986976 -0.35157344 -0.28136906 0.5422046 -0.26502043 0.16360182 0.04785382 -0.7747567
-0.29535937 0.1825083 -0.13663153 0.1666488 -0.31858832 0.754433 -0.006964698 -0.44290674
-0.616548 0.21098384 -0.14875804 -0.038889207 0.25445625 0.2761118 -0.21208793 0.66560876
0.1878385 -0.3178847 -0.1774844 0.3829497 0.772586 -0.19273975 -0.6124313 0.123764016
0.06529928 -0.1440599 0.13114418 0.25285012 -0.6362708 -0.4220029 0.31694603 -0.43386588
0.10540186 0.05999374 0.5134761 0.29077184 0.7521929 0.10902886 -0.34397504 -0.2567264
-0.15577382 0.1537542 -0.030004023 0.012747516 -0.4382651 -0.13240284 -0.58483565 0.42492515
0.1842439 0.7728798 -0.32422566 0.6543523 -0.006482365 0.711313 0.5288171 0.1944143
-0.19389454 -0.25216228 0.67725116 0.32375088 0.20506282 0.29463667 0.9397589 0.1084224
0.4828074 0.44926205 0.37852156 0.44598654 0.7823156 0.4156243 -0.7263325 0.0711128
-0.12217095 0.48819128 -0.5067198 0.53741235 0.23736875 -0.26837906 0.21148495 0.24886319
0.19245121 0.14393963 0.21657534 0.33967692 0.25643787 0.30076256 0.2869321 -0.2505449
0.7047882 0.10600146 0.043963946 0.3485398 0.5785928 -0.0078083645 -0.516131 -0.5292649
-0.09793586 0.04314437 0.44241953 -0.07364098 0.10533317 -0.297606 -0.7025649 -0.030108547
0.30476457 -0.40039125 -0.183944 -0.33276927 0.14477204 0.27086467 0.5956828 0.11397595
-0.38341078 -0.5821995 0.78568834 0.11570515 0.32820526 0.31315628 -0.25098157 0.32027802
-0.54389495 0.4137159 0.74203724 0.1568545 0.69886804 0.20770243 0.2167399 0.54854614
0.1443035 -0.036469266 0.27654088 0.26866812 0.0393007 0.33178073 0.2411265 -0.2828816
0.9995693 0.22740337 -0.13213012 -0.8678625 -0.31417087 -0.04352166 0.31107068 0.6905206
0.09164234 -0.017408948 0.60697997 0.2729673 0.05219612 0.17230187 0.95760924 0.0045257965
0.73179847 -0.78937274 -0.47568882 -0.23342663 -0.4737902 0.22466315 0.40254423 -0.10619546
-0.33986083 -0.13204275 -0.22352992 0.15150617 0.035097875 -0.23358129 -0.55827045 -0.1885242
-0.5644767 0.27320492 -0.4607402 -0.092902154 0.84074926 0.35038877 0.41802183 -0.38542876
-0.09597979 0.21903107 -0.4913534 0.29741746 0.30049282 0.54750234 0.89585054 0.28546774
0.17337734 0.0008763989 -0.10372568 0.4713233 0.12735708 -0.1672299 -0.35260594 0.023673275
-0.052523255 0.20704019 -0.021045625 -0.04863197 -0.73710066 0.10626299 -0.952322 -0.118223205

gru.weight_hh_l0 f4 [192, 64]
00000000: ba27 a0bd 49f3 da3b d529 9e3e 2fee 283f
00000010: 0a1a 433d d417 d7be e72c 18be da27 4e3e
00000020: a49f 663e c4a0 ee3d 845b c13e fbb4 5dbd
00000030: 8c08 eebd a9f4 333f 322b 71be 81b1 95be
00000040: 7dd3 f43d fc47 073e bf1f c73e d86c c7bd
00000050: 44af 09be d53b 29bf 151f 5b3e 5c21 98be
00000060: 942a 00bf 0177 803e f768 aabe 87f2 163e
00000070: e341 27be 0499 86be f186 77be 60de e0bc
00000080: 1794 853f 0fb4 f9bd 369c 7a3f eef1 653e
00000090: 186d 283e d552 afbe 23c8 10be ca4b a1bd
000000a0: 6357 5a3e efa2 4f3e 96b4 af3e 5b6a a7bd
000000b0: 2a7a fcbd d7b8 c53e 3526 653d a155 683e
000000c0: 9bbe 61be de8b 29be 2f86 093f f1ff bcbe
000000d0: 4c86 2f3e 3fe0 bdbe 8bbb 78be eb7e 173e
000000e0: 5856 dbbe aaf3 02be 1024 39bf 5dbd 8dbe
000000f0: eb9b c0be 2a4d 4c3f 87c3 75bf 207e e03c
00000100: b6eb 83bd c015 a63e 1836 e9be 21bd 893e
00000110: 460a 9a3d fdb6 03be d0fc 9bbe dec7 57bc
00000120: 62d6 b73b d7bc 103e 5df7 1ebe 3e9a 353e
00000130: 3ba6 bd3d bca4 81bc 46d8 82be 79a2 203f
00000140: 8dd7 07bd aaf4 c03e 7ebd 00bd 0ebc dbbe
00000150: 38c6 183e 8c76 063f af79 babe 6cb8 d5be
00000160: 1e1d ecbd 5552 023e c989 6b3e b96e 3fbe
00000170: b206 253e be27 223f cc10 2c3d f976 cebd
00000180: 8471 bebd b296 95bd f069 85be 757a b03e
00000190: 7781 28be 81bd 393e 2f19 d53e b6fc 0cbf
000001a0: 8541 a4be 0756 b0be afa9 bcbd bf18 31be
000001b0: b83f d43e 2ef1 0d3e dd42 ad3e 83b0 09bd
000001c0: efa4 13bf bcc0 863c d920 083f cc2a 21be
000001d0: c5a0 29bf a7bf f03d a590 c6be bffe 1ebe
000001e0: 8c59 26bc 2b65 a0be 9fd4 0c3f 42a9 77be
000001f0: 037f 14bd bb9c 56be 99cf d73e 6e05 7a3e
00000200: 460e 02be 23dc 043d def5 d3bd 78b4 76be
00000210: e23c fdbe 77da d43e 2f30 673d 7a55 17bd
00000220: a325 a1be f70b e2be 0070 933e c32f 30be
00000230: 761c d5be 9193 c2bc 07f6 9dbe c4b0 8a3e
00000240: 9940 9a3d 3ddf a0be e52a 293e 6a5f 76be
00000250: ec74 57bd f770 10bd a194 c93d f484 5b3e
00000260: 9096 46be 218d b7be a7f9 473c c345 ce3d
00000270: 5383 543e eb53 84bc b212 8bbd 479c f63d
00000280: 18f1 ecbe 32ca 82be 2b05 113e 267c eabe
00000290: 4b89 5e3e 2776 e8bb c8ca e73d fd60 ef3d
000002a0: 7af2 dc3d 35e6 e2bc a36a ef3e d641 dabd
000002b0: 0e65 1abe de7c 863c 6b57 e43e 32e2 473d
000002c0: 281b 6d3e 5e2c 9d3e 7666 683e da2e 4e3e
000002d0: 1e79 22be 10ce 833e 43b9 66be e374 4b3e
000002e0: 35da abbd b874 fa3e d132 ca3d 6a9a b33d
000002f0: 9959 1a3e 7814 65bd 5a9e 113e 7ea3 d8be
00000300: 3410 493e 8d09 6abe 30d5 2fbe 367b 983d
00000310: 368b a7be 4eeb 9c3e 6da4 7abd b0bd a9bd
00000320: aa16 5cbd afbc 343e 2cc7 293e 6f64 5c3d
00000330: e975 b9be 1120 87be 03e8 153e 68d9 9b3e
00000340: 61fc f83e 2b4c 49be bbc9 6cbe c113 4ebe
00000350: 4fb3 093f a8f1 743d 0d25 323f bd8b acbe
00000360: 0b56 d4bd 139d 83be 03c0 493e 9b74 053e
00000370: bc97 15bf 0a74 c8be 34b3 81bd c700 ccbd
00000380: 7993 3a3e b190 27bd c749 7c3e a2d9 633d
00000390: dad6 bd3e 850d 65bd 1b92 fcbe a522 8bbe
000003a0: 50ab 50bd 9b3c a1be 5d3e 6bbe 18fb 9cbd
000003b0: 5de2 d93d 4d07 58be 3f5e d6bd dedb 8c3d
000003c0: 3254 293e 004c 78bd f528 b2bd f14d 3d3e
000003d0: e787 b13d 5c9a 0fbe 0486 efbe b4b1 53be
000003e0: 829e 023f 54e0 823e 1fe0 b53d 8a9a 91bb
000003f0: b6f2 0e3e 6b89 aabe 9dea 3bbf b31f af3e
-0.07820077 0.006681834 0.3089129 0.6598844 0.047632255 -0.42010367 -0.14860879 0.2013239
0.22521836 0.11651757 0.37765133 -0.054127675 -0.11622724 0.70295197 -0.23551634 -0.29236987
0.11954401 0.13211054 0.38891408 -0.09737557 -0.13445765 -0.6610692 0.21398576 -0.2971295
-0.5006497 0.25090793 -0.33283207 0.14740954 -0.16333728 -0.26288617 -0.2417257 -0.027449787
1.0435818 -0.121925466 0.9789461 0.2245557 0.16447866 -0.34242883 -0.14138846 -0.07875784
0.21322398 0.20276998 0.34317464 -0.081745826 -0.123279884 0.38617584 0.05594464 0.22688915
-0.22045366 -0.16557261 0.5372037 -0.36914018 0.17141074 -0.3708515 -0.24290292 0.14794509
-0.42839313 -0.12788263 -0.7232065 -0.27683535 -0.37618956 0.79805243 -0.96001476 0.027403891
-0.06441443 0.3243847 -0.45549083 0.26902106 0.07521491 -0.12862773 -0.30466318 -0.013170211
0.005610273 0.14134537 -0.15524049 0.1773462 0.092602216 -0.015825622 -0.2555563 0.62747914
-0.03316455 0.37686664 -0.031430714 -0.42916912 0.14919364 0.5252464 -0.36420962 -0.41742265
-0.11528991 0.1272672 0.2300178 -0.18694581 0.16115835 0.6334189 0.042008206 -0.10081286
-0.09298995 -0.073041335 -0.26057386 0.34468427 -0.16455637 0.18138696 0.41620776 -0.55073106
-0.32081237 -0.34440634 -0.09212052 -0.17294596 0.41454864 0.13861534 0.33840075 -0.0336156
-0.57673544 0.016449325 0.5317512 -0.15738982 -0.6626094 0.11755305 -0.3878223 -0.15526865
-0.010153186 -0.31327185 0.55011934 -0.2418566 -0.03625394 -0.20958225 0.42150572 0.24416134
-0.12700757 0.0324365 -0.1034963 -0.24092281 -0.49460512 0.41572925 0.056442436 -0.03694675
-0.31474027 -0.44149753 0.28796387 -0.1720572 -0.41623276 -0.023752006 -0.30851766 0.27087986
0.07531852 -0.31420317 0.16520269 -0.24059835 -0.05260174 -0.03526398 0.09842802 0.21437436
-0.19393373 -0.3584986 0.012205518 0.100719 0.20753221 -0.016153296 -0.06790675 0.12041526
-0.4627769 -0.25544888 0.14162128 -0.45797843 0.2173206 -0.007094163 0.11317974 0.11688421
0.10788436 -0.027697662 0.46761045 -0.106570885 -0.15077612 0.016416963 0.44597945 0.0487997
0.2315489 0.30697912 0.22695336 0.2013506 -0.15866515 0.2574315 -0.22531609 0.19868807
-0.08391229 0.48917174 0.09872974 0.087696865 0.15073241 -0.055927724 0.14220563 -0.42312235
0.19635087 -0.22855206 -0.17171168 0.074453756 -0.32723397 0.30648273 -0.061191965 -0.08288133
-0.05373255 0.17650102 0.16579884 0.05380672 -0.3622277 -0.26391652 0.14639287 0.30439305
0.4863005 -0.19657962 -0.23123829 -0.20124723 0.5378923 0.059800774 0.69587785 -0.33700362
-0.10367974 -0.25705776 0.19702153 0.13032763 -0.58434653 -0.3915103 -0.063330084 -0.09961086
0.18220319 -0.040909473 0.24637519 0.055627473 0.3707798 -0.055921096 -0.4933022 -0.2717487
-0.050944626 -0.3149155 -0.22973008 -0.0766508 0.106388785 -0.21096535 -0.10467195 0.06877874
0.16536024 -0.060619354 -0.08699218 0.18486764 0.086684994 -0.14023727 -0.46781933 -0.20673257
0.51023114 0.25561774 0.08880638 -0.0044434713 0.13959774 -0.33307967 -0.73404866 0.34203872

gru.bias_ih_l0 f4 [192]
00000000: 2c1d 58bc 90eb 743e a6d4 2abe 8049 ce3d
00000010: 0c92 9cbc 1726 13bd 1428 02bc f771 1c3d
00000020: 9f28 a83e 8cbd 16bb 70ba 0c3e abcd a0bc
00000030: f8fc f83d 9375 eb3b b2a8 ca3d d319 8c3d
00000040: 3978 a23d b512 50be 71c4 bd3d 66c9 1cbd
00000050: df85 c1bd 6b71 373e c88f 0ebc 9b50 09be
00000060: ae09 913c bf5d 833d f7d6 133e 8821 00bd
00000070: cd41 093e e463 243e 8375 11be bbf6 1b3d
00000080: 9c2b 7fbe 46ed 02be 02be 833e 5b77 363e
00000090: 1435 083e 1ce8 e6bd a9d2 ff3d b7a1 323e
000000a0: 3507 253c 619a 94be 7407 eabd ca9c 243e
000000b0: f70f 9fbd 4c55 a53d b142 fd3d 2629 943d
000000c0: 0524 e3bc 5133 063e b425 893d be22 15be
000000d0: cd44 c83d c742 d33d 90bb b63d de8f 423b
000000e0: f396 a2bc 9fc1 4dbe b83b b23e 866d e5bd
000000f0: 3a19 2c3e 7f78 64bc f35d 923c 71e7 fdbd
00000100: 4d36 143e 2f53 0bbe f02a 573f 3606 193f
00000110: 2801 2f3f b83f 0d3f ee00 7d3f 87c8 58ba
00000120: ab04 55bd f6f6 ca3e d98f 123e 3cb7 52bd
00000130: bc58 9ebd 4fa9 863e a1c6 ec3e 5b72 d13e
00000140: ad80 283f a327 873e 072c 7c3d 6920 d93e
00000150: c7f5 51bd f2cb 80be 066c 1f3f eaf8 cb3c
00000160: d5bd 163f 4839 923e b011 d33e d6df db3d
00000170: 1df4 bebe a378 113f 783a 373e 6151 c8be
00000180: e19b 713e de76 1a3e 85fd b13e ed16 523f
00000190: dbb8 b93e 8e3a 7d3e d777 0a3f 837f d53d
000001a0: 58f7 82be b2f0 33be 85d0 02be a619 9d3b
000001b0: c79a 0d3f cab9 6b3d 7a70 d43e ec2b f63d
000001c0: 35e4 be3e 12a5 37be 4160 0cbe 05b2 a83e
000001d0: fc1c 87be 600f f5be 549b dc3e e467 973e
000001e0: fc7f 193e 3036 e9bd bbd3 fbbd 5fed d13e
000001f0: 5b54 253d 58a8 83be 392a 063f 776f 5abe
00000200: c934 cbbd 481d e6bc 13f7 d2bc ea81 1abe
00000210: 2088 fe3d 6f07 8bbd 3f2f 0fbe f6af f73d
00000220: 5bc9 983d 0455 7fbc 03f6 883d 6122 f43d
00000230: 71c2 f43b f2ba dcbd afa3 dfbd cb83 8c3e
00000240: cad4 5b3d 44e2 723e 056a 893d 2096 2c3e
00000250: a0ab abbd 7fa6 883b a242 4abd 09af aa3d
00000260: e77b f93d 1c90 ed3c 7402 99bd 065e 9fbd
00000270: d489 51bd 6966 053e 05f9 cc3d b98a 7fbc
00000280: f2e5 14be 91b2 e33d 2d5a 22be 1f15 a3bd
00000290: 6271 b6bd f07b ff3d 2302 6c3e 1a18 cfbd
000002a0: e549 b7bc 981f ce3d 5792 86be 4dce 91bd
000002b0: ac54 40bc 9f6a 47ba 48c7 da3d 5e64 c9bd
000002c0: d0e6 af3d 327a c83e c162 933e 1ff9 e33c
000002d0: 6184 543e 8053 0dbe c244 843c 889d cb3c
000002e0: db1a f4bd f92a 13be 9164 8abe 4605 21be
000002f0: 56d6 3ebd 589b 4a3e 4b98 44be befd 3b3e
-0.013190549 0.23917985 -0.16682681 0.10072613 -0.01911261 -0.035924997 -0.007944126 0.038194623
0.3284349 -0.0023001162 0.13742995 -0.01962932 0.12157625 0.007185647 0.09895457 0.06840863
0.07933087 -0.20319636 0.09265984 -0.038278006 -0.09449362 0.1791436 -0.008701272 -0.13409655
0.017704811 0.06414365 0.14437471 -0.031281978 0.13404007 0.1605373 -0.14204983 0.038077097
-0.2491898 -0.12785825 0.25730902 0.17818968 0.13301498 -0.1127474 0.12491352 0.17444502
0.010072519 -0.29024032 -0.11427203 0.16075435 -0.07766717 0.0807291 0.12366236 0.07234411
-0.027727136 0.13105513 0.066966444 -0.14564034 0.09778748 0.10315471 0.089224935 0.0029687802
-0.019847369 -0.20093392 0.34811187 -0.112025306 0.16806498 -0.013944744 0.017867064 -0.123976596
0.14473839 -0.13605951 0.8404989 0.597751 0.6836114 0.5517535 0.98829544 -0.0008269627
-0.052006405 0.3964154 0.14312686 -0.051444277 -0.077317685 0.26301047 0.46245292 0.4090756
0.65821344 0.26397428 0.061565425 0.4240754 -0.051259782 -0.25155598 0.62274206 0.024898965
0.5888341 0.28559327 0.41224432 0.10736053 -0.3729562 0.568247 0.17893398 -0.39124587
0.2359462 0.15084407 0.34763733 0.8206623 0.36273846 0.24729368 0.5408911 0.104247116
-0.25579333 -0.17572287 -0.12774856 0.0047943173 0.55314296 0.05755023 0.41492063 0.12020096
0.37283483 -0.17934063 -0.13708593 0.32948318 -0.263893 -0.47863293 0.43087256 0.2957145
0.14990228 -0.113872886 -0.12296244 0.41001412 0.04036365 -0.25714374 0.52408177 -0.21331583
-0.09922177 -0.028090134 -0.02575258 -0.15088621 0.124283075 -0.06788527 -0.13982867 0.12094109
0.074602805 -0.015584234 0.06687548 0.1192062 0.0074694683 -0.107778445 -0.10919892 0.274443
0.05366973 0.23719126 0.06709675 0.16854143 -0.08382344 0.0041702385 -0.049379952 0.083341666
0.121818356 0.02899938 -0.07471171 -0.077816054 -0.051156834 0.13027348 0.10008434 -0.015597039
-0.14540842 0.11118043 -0.15854712 -0.07963013 -0.08908345 0.12474811 0.2304769 -0.10112019
-0.022374103 0.1006462 -0.26283523 -0.07119427 -0.011738937 -0.00076071353 0.10682541 -0.09833597
0.08588946 0.39155728 0.2878628 0.027828751 0.20753624 -0.13801384 0.016146068 0.02485539
-0.11919185 -0.14371862 -0.2702985 -0.15724668 -0.046591125 0.19785821 -0.1919872 0.18358514

gru.bias_hh_l0 f4 [192]
00000000: a3f1 69be 46ed 453e 88f1 43bd de00 d73d
00000010: 8406 8b3d b759 c3bc 6da2 8d3d 587b f03d
00000020: d6db c23e bb79 c23d d212 f83d e0a5 48bd
00000030: 7136 0b3e 8644 05bd ca76 e43d 4e6b 113c
00000040: 92db abbd 2881 b0bd 2f31 b03b ecb9 3bbb
00000050: cd7a afbb 40f4 643e 3f51 23be b19e 913c
00000060: 4f43 863d b071 e33d 84d4 d5bc 05c5 79bd
00000070: e803 7fbc da64 0a3e acf0 403c 0b0a 173e
00000080: 8e34 75be cfce c03d 9540 ef3d 39b9 11bc
00000090: 8c65 133c 9350 22be fe62 a63d cebe 6d3d
000000a0: 2edf f93b 6aa4 82be 3a2c d1bd d0d1 243e
000000b0: 928f 073c 2ec5 4b3e c77c 083e add2 76bd
000000c0: 617a 1a3e b1df 423e 95a2 6b3c f42c e13b
000000d0: e1e9 783e bd6e 0a3c ece8 02bd b8ec 643d
000000e0: 45da c4ba 86e7 77be c12d dc3e fea4 14be
000000f0: e5d3 4e3e af0e 4ebc 2dfa 8bbd 40bd 1cbe
00000100: 63c3 143e 3867 f0bd 67ac 4a3f b827 f33e
00000110: 2790 1c3f 74d3 ec3e d194 7b3f d1fd d63b
00000120: 5cc8 ef3d 20bc da3e 3aee ca3d c21e 273c
00000130: 0a8e fdbd 4cb4 a03e 6f77 073f 87ce cb3e
00000140: 7f92 4f3f 9b07 8e3e 3fdf 6bbd 31f8 ac3e
00000150: 65d1 a1bc d4e4 13be 92fc 053f 2024 0b3e
00000160: b5b9 0d3f ce6a 443e 8217 d53e e5fd c13d
00000170: 6606 c4be 801d 3b3f c8bd 6b3e 9a5a 0cbf
00000180: c340 6d3e 013b cf3b b423 023f 68e2 273f
00000190: c9ee e23e 829b 3f3e 9154 053f 7e62 9a3d
000001a0: 40b0 cabd 9a69 f7bd 5b2e 853c ed44 663d
000001b0: 8788 113f 9780 4b3b 4c4c 813e a919 583d
000001c0: 6c1c 003f 715f 81be f2c1 46be 67d3 9b3e
000001d0: 4a59 81be 56ec 1bbf 2605 ae3e 31fd 773e
000001e0: ddeb 083e 5e1c 22be 8749 c6bd da6f d53e
000001f0: 95f5 df3d 65cb 02be 9994 ed3e 23c7 b8be
00000200: 5e74 a4bd 2712 023e 30ff 393e 0c6a e23c
00000210: 92e2 d23d 011c 94bd b6e3 01be e043 a33d
00000220: cf69 9b3e 79d0 11bc 0a5a 8e3c 861f 4c3d
00000230: 227b fe3d b740 93bd b63a 55be 611d 033e
00000240: c820 e1bd d55f ed3c f0d4 923d 75b0 a8bd
00000250: 9dfb 3bbe 1ffd da3d 28c0 81be e251 7fbd
00000260: c8dd 673e a718 99bd 2bb0 fdbc 89e7 473e
00000270: 45a8 253e ced2 933d 39e3 b6bd 3991 08be
00000280: 72f3 cdbd 4cae e23b a189 92bd d821 ccbc
00000290: bcc5 b9bd 6aea d53d 3af0 1cbc bd79 fa3c
000002a0: 5f9b cd3d 7319 753d 5428 613d 140d c33b
000002b0: 56ac 56be 36d0 e43d 3105 a63d 60ec e83c
000002c0: 772c 2d3e 6107 b63d d216 853d 7c93 463e
000002d0: 36ef 3b3e b0cd 22be d984 df3c c827 8f3d
000002e0: 1531 1bbe be2e 02bd 8f6b bf3e b6c4 b5bd
000002f0: fb65 bebb 303a da3d eda1 25be af7d 2b3e
-0.22846083 0.19328794 -0.047837764 0.10498212 0.06788352 -0.02384649 0.06915746 0.11742276
0.38058347 0.094958745 0.12112965 -0.048986316 0.13594986 -0.032536052 0.1115547 0.008875681
-0.08391489 -0.086183846 0.005376957 -0.0028644754 -0.005355215 0.22358799 -0.15948962 0.017775865
0.06555807 0.111056685 -0.026102312 -0.060978908 -0.015564896 0.13515034 0.011776131 0.14749925
-0.2394583 0.094144456 0.1168224 -0.008894258 0.008996379 -0.15851049 0.0812435 0.058043294
0.007625482 -0.25516063 -0.10213514 0.16095662 0.008273976 0.19899437 0.13328849 -0.06025951
0.15085746 0.19030644 0.014382024 0.006871814 0.24307968 0.008449254 -0.031960413 0.055889815
-0.0015018663 -0.24209413 0.43003657 -0.14516065 0.20198019 -0.012576743 -0.068348266 -0.15306568
0.14527659 -0.117384374 0.79169315 0.4749124 0.6115746 0.46255076 0.9827395 0.006561019
0.117081374 0.42721653 0.09908719 0.010200204 -0.123806074 0.31387556 0.52916616 0.39806005
0.8108291 0.27740178 -0.05758595 0.33783105 -0.019753167 -0.1444276 0.52338517 0.13588
0.5536149 0.19181368 0.41619498 0.09472255 -0.38286132 0.7309189 0.23021615 -0.54825747
0.23169236 0.0063241725 0.5083573 0.65579844 0.44322804 0.18711665 0.52082163 0.07538317
-0.09896898 -0.12080689 0.016257456 0.056218076 0.5684895 0.0031051987 0.25253522 0.052758846
0.5004337 -0.2526813 -0.19409922 0.30434725 -0.25263435 -0.60907495 0.33988303 0.24217679
0.13371225 -0.15831134 -0.09681993 0.41686898 0.10935513 -0.12772901 0.46402434 -0.3608943
-0.08030008 0.12702237 0.18163753 0.027638458 0.10297121 -0.07231904 -0.12684521 0.079719305
0.30354163 -0.008899801 0.017376918 0.04983475 0.124258295 -0.07190078 -0.20823178 0.12804176
-0.10992581 0.02897636 0.07169521 -0.082367815 -0.18357702 0.1069281 -0.25341916 -0.06233395
0.22643197 -0.07475405 -0.030967792 0.19521917 0.16177471 0.07217942 -0.08930058 -0.13336648
-0.10056199 0.0069177505 -0.07155157 -0.024918482 -0.09070918 0.104451016 -0.009578759 0.030575627
0.100394 0.059838723 0.0549701 0.005952487 -0.20964178 0.111725256 0.08106459 0.028433025
0.16911493 0.08888126 0.06498493 0.19392198 0.1835297 -0.15898776 0.027285026 0.069900095
-0.15155442 -0.031782858 0.37386748 -0.0887541 -0.005810497 0.1065563 -0.16175051 0.16747163

gru.weight_ih_l0_reverse f4 [192, 6]
00000000: fcda 9d3d 55c7 e23d e0de 473e 2fe8 dc3e
00000010: 8708 f93e b06f b4bc 9a3a 513d 4fbb 3cbe
00000020: 2060 653e f051 253f 6089 ab3e eeae b93e
00000030: 8c50 0e3f 40ea 613e 43c5 5f3e 0171 f03d
00000040: 4f66 0b3f 3427 98bc 7200 e7be 006a 5a3f
00000050: cf03 3cbe 6ae4 35be 331d 2bbf 2b31 50bf
00000060: 5021 143e 647f 1b3e fdc7 37be 116c 4bbe
00000070: c979 6d3f 4590 8d3d 5626 efbe f408 f53e
00000080: 142b 3fbe 018a fabd 549a ad3f 500c c23d
00000090: d92b 3f3f 84fc be3e 9f25 473f e5b8 d33e
000000a0: 66a4 b3bd 0a26 ec3e ab70 fb3e 050e a43e
000000b0: 554c c13d 6d20 673e c236 8e3e 4d04 6f3d
000000c0: e077 5ebe b81d 5a3c b8ed 96be 04d7 66bf
000000d0: 8ff7 14bf 0436 423e a987 0bbf 221e 133e
000000e0: bf4b 5abe 8740 b9bf 39fd d03e 588f 3cbf
000000f0: 7826 243f 512c 833f e313 df3e 40ab fc3e
00000100: 5aaf 3fbf 73c2 033f 30f1 513e 7b17 293e
00000110: 74a1 813e 1a09 1a3d 3347 a63f 9bbc 1f3e
00000120: b3da 2d3e bc33 00be 3ea8 36be 655a 5dbe
00000130: 4056 863f e934 86be 2e00 a33d 16ab 0abe
00000140: 3460 613d df36 a0bd 1d36 be3e 40cc 463e
00000150: be68 47be 11fb 46bf 9461 67be 4374 b23e
00000160: 949c 28be 8c4f a33d c18f 283d 1416 3d3e
00000170: aac4 87be 910a 9d3d 834a ac3e a139 293b
00000180: 92c9 bfbe 07d2 9a3d f465 adbe 4d77 1b3d
00000190: 000c f73e acc4 033e f124 aa3e 4957 a73e
000001a0: aac4 5b3e 5b12 cb3c b145 ac3e fb67 133e
000001b0: 7981 85be 99f1 ddbe 6d2b 183e 73cf 4abc
000001c0: 7451 71bf dcc3 513e a4cb a5be 9216 223f
000001d0: d798 31bf b0c5 013b 7a12 c83e 510c 14be
000001e0: a5e3 063f 2a39 023f f0d8 703e d77f 663f
000001f0: cfd0 1d3f adb2 b53e 9a5d 603f e5d5 813e
00000200: 82b2 023f 5e78 a83d fe01 b9bd f58d a5be
00000210: 1665 213d 5449 2ebe 710e acbe 85c7 163e
00000220: cc14 47be 9300 8abe 2b93 a4be f484 793e
00000230: cbe9 4d3e b5f1 ed3e 14f5 233e 2b24 433d
00000240: 5117 5c3e c7ba 94be f9d3 88be 8adf 953e
00000250: f4ab 10bf 653f e4be 608d 16be 80b6 efbd
00000260: 1f4a d13d b50e dc3e 6a41 d63d 414d f2bd
00000270: 329a 58bd be56 173e b315 31be 7387 5b3e
00000280: b37c fdbe 7013 5dbd 5568 4b3e 5913 d83e
00000290: 1d2b ec3d d714 f93e 3c80 e43e 70a3 b83e
000002a0: 056a 893e 9018 cdbe c692 e53e 6001 07bf
000002b0: f669 92be 7bb8 29bf 061e 453e da1d 093f
000002c0: 6c00 2f3e 8905 d2be 7517 c6bc 86c1 a0be
000002d0: cf0e 733c 8496 203f 9e89 48be 52c2 133e
000002e0: e87e 9c3f 4d45 8cbd c25c d43e c926 d53e
000002f0: 6170 e1bc 86a4 083f e913 58bc a448 d13d
00000300: 6e46 44be 331b 3f3d 5ff2 2fbf f004 a0bd
00000310: 6dba 233e e236 0abf 143c 01bf ca61 0bbf
00000320: 70d0 ddbe bf86 c83d dabc ce3e f4fd c4bd
00000330: b141 7bbe 1ced b6be 6a37 ac3e 3d3f b7be
00000340: 17be 34bf ccf7 413d 5db3 d1be c06b 8abe
00000350: b77b 7dbf 6284 efbe 02c2 a53e 832b 45be
00000360: 473f bfb9 226b 9c3d e303 77be c979 373f
00000370: ca63 ffbd 47e6 0d3f 7e5a 753e e327 e23e
00000380: 8dcb ef3e 072c e83e ea9d c33d df81 54bd
00000390: 3047 aebe 0f90 99bf 781e e8be f27e b6be
000003a0: 5be2 27be 8d2b ad3e eebb be3d 4c1f a0bb
000003b0: e486 ba3d a1b5 443f 1e3e 413f 1c4c aa3d
000003c0: 75aa 333e 1eb1 1ebe 380c 94be 1ca9 9a3e
000003d0: 9231 a03e 7252 8c3e b4f7 0d3f ce05 c1bd
000003e0: e951 b73f 4f9a 663f 5ad8 e33d a929 9cbd
000003f0: 6a78 8a3d d158 2bbe fa1e 6a3f bf53 c93c
0.077077836 0.11073176 0.19518614 0.43145892 0.48639318 -0.022025913 0.051081277 -0.18430828
0.2239995 0.6457815 0.33503246 0.36266273 0.55591655 0.22062016 0.21852593 0.11740304
0.54452986 -0.018573381 -0.45117527 0.85317993 -0.18360828 -0.17762914 -0.6684143 -0.81325024
0.14465833 0.15185314 -0.17947383 -0.19865443 0.92763954 0.06912283 -0.46708935 0.47858393
-0.18668777 -0.122333534 1.3562722 0.09475005 0.7467628 0.3730203 0.7779178 0.41352
-0.08771591 0.46122772 0.49109396 0.32041946 0.09438387 0.22570963 0.27776152 0.05835371
-0.21725416 0.01331275 -0.2947824 -0.9017184 -0.58190244 0.18965918 -0.54503876 0.14366964
-0.21317957 -1.4472817 0.40818194 -0.73656225 0.641212 1.0247899 0.4356986 0.49349403
-0.7487694 0.5146858 0.20502162 0.16512863 0.2531849 0.037606336 1.2990478 0.15599291
0.16977958 -0.12519735 -0.17837617 -0.21616514 1.0495071 -0.26212242 0.07959019 -0.13541827
0.055023387 -0.07822966 0.3715066 0.19413853 -0.1947355 -0.77726847 -0.22595817 0.34854326
-0.1646598 0.07974157 0.04115272 0.18465453 -0.2651723 0.07668031 0.33650598 0.0025821703
-0.37458473 0.07559591 -0.33866847 0.03795557 0.48251343 0.12867993 0.3323131 0.3268378
0.2146174 0.024789026 0.3364692 0.14395134 -0.26075342 -0.43348387 0.14860316 -0.012378561
-0.9426491 0.2048487 -0.32381928 0.6331569 -0.6937384 0.0019801669 0.39076596 -0.14457823
0.5269111 0.50868475 0.23520255 0.9003882 0.6164674 0.3548788 0.87642825 0.253585
0.5105363 0.08226083 -0.09033583 -0.32334867 0.039403044 -0.1702016 -0.33604768 0.14724548
-0.19441527 -0.26953563 -0.3214353 0.24367124 0.20108716 0.4647347 0.16011459 0.047641914
0.2149327 -0.2904875 -0.26724222 0.2927211 -0.5651238 -0.44579616 -0.14702368 -0.11704731
0.102192156 0.4297997 0.104616955 -0.11831141 -0.052881427 0.14779183 -0.17293434 0.21438389
-0.495092 -0.053973615 0.19864018 0.4220226 0.11531661 0.48648712 0.44629085 0.36062193
0.268387 -0.40057802 0.44838542 -0.52736473 -0.28596467 -0.6629712 0.19249734 0.53561175
0.17090005 -0.41019848 -0.024181107 -0.31397647 0.014835074 0.6272967 -0.19583747 0.14429596
1.2226229 -0.068491556 0.4147702 0.41631153 -0.027519407 0.5337604 -0.013188341 0.10218933
-0.19167492 0.0466568 -0.68729204 -0.07813442 0.15989085 -0.53989995 -0.50482297 -0.5444609
-0.43323088 0.09791326 0.40378457 -0.0961875 -0.24536778 -0.35727775 0.33636028 -0.35790434
-0.70602554 0.04735546 -0.40957156 -0.27035332 -0.990169 -0.46780688 0.3237458 -0.1925488
-0.00036477504 0.076376215 -0.24122576 0.71670204 -0.12470205 0.554295 0.23960301 0.44171056
0.46834984 0.4534609 0.09551604 -0.051881667 -0.34038687 -1.1997088 -0.45335746 -0.35643727
-0.16394942 0.3382229 0.093131885 -0.0048865434 0.091077596 0.76839644 0.7548541 0.08315298
0.17545493 -0.15497252 -0.28915572 0.30207145 0.3128782 0.2740665 0.5545609 -0.09424935
1.4321872 0.90079206 0.1112525 -0.076251335 0.067612484 -0.167331 0.91453516 0.024576066

gru.weight_hh_l0_reverse f4 [192, 64]
00000000: 859a 733e eb97 143e 6546 a33e bd38 bebe
00000010: f13c 18bf 7162 c63e eef5 d0be f7bd 903e
00000020: 73f5 50bd bdae 573c 4f7a a23e 0fb6 1bbe
00000030: 0d8f fb3e ac12 c13d cb92 6ebe 329c 4e3e
00000040: 14f9 7b3d 2775 cc3c b7e6 f23d 3f5b 683c
00000050: ee01 623e 8e2d 82be a08e 9b3e aab8 85bd
00000060: eec3 d8bc 4eb7 533e 769b 93bc a0a0 c13e
00000070: 0765 c23e 46e4 cdbd 7679 5f3e 1fc9 edbe
00000080: f90b 913e 29d8 ffbd 134f 37bf deb3 d5bd
00000090: 2d05 34be e648 98bd d7be 3f3c eb03 f1bd
000000a0: ddcd 383e b14e d6bc 3ff8 e9bd 1970 723e
000000b0: 71f8 3d3d f8b1 1c3e e8ab 9c3d a9e9 933e
000000c0: 5fb2 003f a7eb 513e 69c4 a93c d48f 283e
000000d0: 451a d13e 07a6 2fbf dc42 4abf 3605 f8bd
000000e0: 351b 01bf 298d 9e3e 7d71 41bf acc0 223b
000000f0: 964e 873e eacf 61be 5f1b a5be 9f10 113c
00000100: 0d2b 2ebe dc1c 08bf 30c9 8a3d 5e32 cf3d
00000110: 0f37 dcbe 8f12 c6be c6e8 91be c703 a53c
00000120: c285 cebe e73e aabd 5609 8e3e 5987 ed3c
00000130: 4c86 423e 3929 a63e f3f5 8d3d d5d7 a5bd
00000140: 3ec1 4c3e da9d 953e 48b8 f6be 80d3 743f
00000150: e70f 3fbc ef22 acbe 6533 11bf a9c3 efbe
00000160: c43c 673e 2ed5 d93e cea7 5fbd 05f8 0d3e
00000170: 7a24 1f3e 3e86 363e 2325 9ebd a5b6 953d
00000180: 364c 253e 87dc 2b3e 91fc e3be f273 203d
00000190: 36a0 303e c3dd bd3e 49f9 93be b927 de3d
000001a0: 8c20 6b3e b938 8fbf d448 533e 884a 2b3e
000001b0: 5f75 8f3e 5fd7 ebbc 9dc2 923e 89dd 2c3f
000001c0: 448c 64bd 240a 493e b3ae 1dbe d034 e7bd
000001d0: 1781 763d 4a49 a73b 56af 3abe 9145 67bf
000001e0: f347 d3bd 8e74 8c3e 8624 9ebf 9b76 f9bd
000001f0: bcd6 15bf c1e7 45bd c730 e73e 4a6e a83e
00000200: 5c96 273d cfa2 813e db26 4b3d 045d 97be
00000210: d859 283e 5bc3 193e d551 283e 6f3a c83e
00000220: d34d be3d bc5a e33d 1f0e abbd 4169 31bd
00000230: facc a43e 7560 cbbe 8a6b a23e b633 82be
00000240: 50f5 efbe 5726 333d a8b3 83be ecc9 223e
00000250: 9370 4d3d 7cbb 4fbd e6f3 c83c d122 7abe
00000260: 5fa2 ba3e a46f d13d 2af2 6fbd 7d27 83bd
00000270: 7586 5bbb e337 10bf d810 3dbe adaa 7ebe
00000280: ab7b ed3b 2150 adbe 8f24 33bd e206 343e
00000290: 97da 9dbe b566 4abe ac79 583e da55 8e3e
000002a0: 8adb 68be 253f d63e 7180 f4bd 7942 9d3e
000002b0: fc0c 9c3d 9d18 833c fad8 fdbe 484d a1bd
000002c0: b2d9 24bf e5f5 7abe 1bd9 81be cc3a 2f3e
000002d0: 83c8 81bd 7df7 edbd 5896 c9bc 3219 dcbe
000002e0: 30f3 57be c6b6 92bd 01d0 9cbe d596 cabd
000002f0: 37f4 98be 29ad c2be b5e6 f4bd b9db 39be
00000300: 11c3 66bd 3d85 f33c 719e 323e 8104 8a3e
00000310: dabb 473e 3843 79be fbcd 793e b616 c13d
00000320: 2b1c ef3e 1e72 3cbf dfcd 013f 8ef5 c1be
00000330: 12ef 66be 6cfe 433e 8ae1 c13e 40c9 623e
00000340: db08 463c 2984 b1bd 528e c63d 8b85 83bd
00000350: 940b e3bd 9b94 40bd eb22 b13e 2dea fcbd
00000360: 6886 183d a592 b0be df93 8dbe c596 5dbf
00000370: 5a5b 5c3e a368 a03e 867f 9dbd 88ca 933e
00000380: 553a 8e3e 62bd d9be 688f cabc c827 0a3c
00000390: 7410 953e 41c4 263f 84b7 a63b 835b 763d
000003a0: d8ff 683e 3afa c6bd 1836 f63d a44f 9fbd
000003b0: 40ce 1f3f 5298 d93d 89af ca3e fff3 323f
000003c0: 6cbb 9c3d fd5f 9b3d 75e4 903e 16f0 173d
000003d0: 4b40 adbe 6069 c83e a149 3abe 80fc 3a3e
000003e0: caa2 b63e 1530 153f 83d2 cdbe 8de2 663e
000003f0: bfce 133e 355f a23d 9acf ac3e 2687 8dbe
0.23789413 0.14511077 0.31889644 -0.37152663 -0.5946799 0.3874698 -0.4081263 0.28269932
-0.05101533 0.013164219 0.3173394 -0.15206169 0.49132577 0.094273895 -0.23298185 0.20176771
0.061516836 0.024958206 0.118604116 0.014181911 0.22071049 -0.2542538 0.30382252 -0.065293625
-0.026460614 0.20675394 -0.018018465 0.3781786 0.37967703 -0.10053305 0.21823677 -0.46442506
0.28329447 -0.12492401 -0.7160503 -0.104346976 -0.175801 -0.07435779 0.011703215 -0.117683254
0.1804728 -0.02616057 -0.11424302 0.23675574 0.04637951 0.15302265 0.07649976 0.28889206
0.5027217 0.2050005 0.020723538 0.16461116 0.40840355 -0.6861271 -0.7900827 -0.12110369
-0.5043214 0.30967072 -0.75563794 0.002483408 0.26427144 -0.22051969 -0.32247445 0.00885406
-0.1700861 -0.53169036 0.06776655 0.10117029 -0.43010756 -0.38686034 -0.28497905 0.020143403
-0.40336424 -0.08312779 0.27741498 0.028995203 0.18996543 0.32453325 0.06931677 -0.08097807
0.19995591 0.29221994 -0.4818747 0.95635223 -0.011661506 -0.33620402 -0.56719047 -0.46828964
0.22581774 0.42545456 -0.05460339 0.13864143 0.15541258 0.17824647 -0.07721927 0.07310227
0.16142353 0.16783343 -0.4452863 0.039173074 0.17248616 0.37083253 -0.28901127 0.1084742
0.22961634 -1.1189185 0.2063325 0.1672765 0.28019235 -0.02878922 0.28664103 0.67525536
-0.05579783 0.19632775 -0.15398674 -0.1128937 0.060181703 0.0051051723 -0.18230948 -0.90340525
-0.103164576 0.27432674 -1.2354896 -0.12180825 -0.58530784 -0.04831672 0.45154402 0.32896644
0.04091488 0.25319526 0.049597602 -0.29563153 0.16440523 0.15015928 0.16437466 0.3910708
0.092921875 0.111012906 -0.08352303 -0.04331327 0.32187635 -0.39722028 0.3172267 -0.25430077
-0.46866846 0.043737736 -0.25723004 0.1589734 0.050156187 -0.05071591 0.024530362 -0.24427344
0.36452004 0.10226372 -0.058580555 -0.06404016 -0.003349689 -0.56335276 -0.18463457 -0.24869795
0.0072474084 -0.33850196 -0.043736037 0.1758075 -0.30830833 -0.19765742 0.21140164 0.27799875
-0.22739998 0.4184505 -0.11938561 0.30714777 0.07619664 0.016002947 -0.49579602 -0.07876068
-0.64394677 -0.24507864 -0.2536095 0.17112273 -0.06337073 -0.1161947 -0.024607822 -0.42987972
-0.21088862 -0.071637675 -0.30627444 -0.0989205 -0.2987382 -0.38022736 -0.119580664 -0.18150224
-0.056338374 0.029726619 0.17443253 0.2695656 0.19505253 -0.24342048 0.24394982 0.0942816
0.46701178 -0.7361163 0.5070476 -0.37882656 -0.22552136 0.19140023 0.37867385 0.22147083
0.012087072 -0.08667786 0.09695114 -0.06421956 -0.11086193 -0.04701672 0.34596953 -0.12349353
0.037237555 -0.3448688 -0.2765188 -0.8655818 0.21519223 0.3132983 -0.07690339 0.28865457
0.2777888 -0.425273 -0.024726585 0.008432336 0.29114115 0.6514321 0.0050877947 0.060145866
0.22753847 -0.09715696 0.12022036 -0.07778862 0.6242409 0.10624756 0.39587048 0.6990356
0.076529354 0.07586668 0.282993 0.0370942 -0.33838114 0.39142895 -0.1819215 0.18260384
0.35671073 0.5827649 -0.4019967 0.2254736 0.14434336 0.079283156 0.33752137 -0.27642173

gru.bias_ih_l0_reverse f4 [192]
00000000: 8e86 2cbe f781 473d a481 053e b21e a9bd
00000010: ed45 8cbe 54dc 4cbe 3bb1 963e a5b4 9d3d
00000020: 1d4a 643d 34bb 863d 4601 11be 1590 253e
00000030: 430f 9abb 1c37 0f3f ee62 ef3d a72e 943e
00000040: ddbf 1fbe f976 f8bb a673 8b3d 3546 55be
00000050: 04e3 bebc 52eb 21bd de9f 873e 5cc8 35bc
00000060: 08f6 df3b 12c2 b03c 0636 023e 99c2 4ebe
00000070: ea2b 003d fb0e 873e 840e 45be 189b 2c3e
00000080: 7149 65bd 4b42 d33d 4213 403e 079a acbd
00000090: 1d30 adbd a4e3 493e 45c0 313d b46e 42be
000000a0: 25ad 93bd cf52 6fbe 53c1 1bbe 82d0 5b3d
000000b0: 1cae 073e 4556 20be f7c9 99bd a83d 27be
000000c0: 99bd 753e 96b0 a83e 51ef 1f3d c094 1b3e
000000d0: d273 aabd c73a f93c df4a b3be f6a3 293e
000000e0: c4cb 543f eda6 d43d 74b9 533e a7e5 503e
000000f0: 88e9 643e 0a44 a73e 11fb 343e 1513 37be
00000100: 1fc3 c13e 5540 38be 457d 59be 137b d03d
00000110: 2b79 803f dc57 0f3f a286 823e c301 203f
00000120: fa72 2dbe efd8 8b3d 1f43 153f 1927 0d3e
00000130: 6a8b 8fbd 9c17 5fbf 5b89 293e 1dad dc3e
00000140: 979f 563e b00c 853e 1563 b8bc 15f9 343e
00000150: 5b7a b0be 1f02 8fbd 6f57 223f c4cc 413e
00000160: 6576 9b3e bb25 be3e be53 8d3e 167e a23e
00000170: 3c6f bebb fb15 dd3e c3bb 93be ab10 933e
00000180: 72a9 6fbe 0929 ac3e 17ba 84be aade 2bbb
00000190: 8dbb 053e 28b3 97bd dc3d 443e fb21 c9bc
000001a0: cfe3 00bf 0ff9 c83e 0c33 863e 1d65 bbbe
000001b0: 99e1 82bb 3efd 843e c49c 0b3f 35fb 163f
000001c0: c3b4 d7be 9989 2f3e 744f 053f 302d 8fbd
000001d0: e660 523e 05a3 383e cdc3 583e 7da8 d43d
000001e0: cfae a1be 4ab5 823e e210 8cbe bf53 043f
000001f0: 9deb 503e 98cd 5f3d 0e8a 063c 414c e03a
00000200: 3056 d53b 6d99 c03d 734f 7f3d a44f ed3c
00000210: 33cb b9bc f517 1cbd dec1 f5bd 7612 293d
00000220: f59e 13be 379f 04be e6ea 793c d62b a0bd
00000230: 05a4 d6bd 738a 0bbe c894 8c3e 678a a43d
00000240: 77d8 4e3d 556c 17be bc59 babd 9a9a 143e
00000250: 7c39 4bbe 6a4f f1bc de38 673e 1e52 9ebd
00000260: b9b2 143e 93b9 b6bb da14 cc3c c287 afbd
00000270: 465f 113d afe5 fabd 9191 1d3e 6fd8 5a3d
00000280: af3b 9d3d 6d9e 26bd 79b6 023e bcce 8abd
00000290: 29ec f8bb 011e 39be 1a1e 0cbb 1d8d 0e3d
000002a0: 2d30 183c 0084 39bd 4772 35be 1a0a e33d
000002b0: e9fe a43d fc39 4d3e 737e 0ebe a6a7 20bc
000002c0: 9a85 453e 1e6d 39bd d3c7 edbd e94c c63c
000002d0: da8c c83d b17b 1c3e d6b7 f2bc d1f3 443e
000002e0: 61d7 83bd 23eb 6e3d 743b 2f3e b0df 8a3d
000002f0: 7b2f 1cbe 1b2e d23e 9dab d0bc a71b 613d
-0.16848204 0.04870793 0.13037735 -0.08257808 -0.273971 -0.20005924 0.2943209 0.07700471
0.055734742 0.06578675 -0.14160642 0.16168244 -0.0047015264 0.55943465 0.11688791 0.28941843
-0.15600534 -0.007582542 0.068091676 -0.20827563 -0.023301609 -0.03953106 0.26489156 -0.011095133
0.006834749 0.021576915 0.12715921 -0.2019142 0.03129188 0.26378617 -0.19243819 0.16856039
-0.055978242 0.10315379 0.18757346 -0.08427816 -0.084564425 0.19715744 0.043396253 -0.18987542
-0.07210759 -0.23371433 -0.15210466 0.053665645 0.13250011 -0.15657909 -0.07509225 -0.16332114
0.23998107 0.32947224 0.03904659 0.15193462 -0.08322872 0.030423535 -0.3501806 0.16566452
0.8312342 0.10383401 0.20676214 0.20400105 0.2235471 0.32669097 0.17673899 -0.17878373
0.37844178 -0.1799329 -0.21239193 0.101797245 1.0036978 0.5599344 0.25493342 0.6250269
-0.16938391 0.06828486 0.58305544 0.13784446 -0.07009013 -0.871454 0.16556303 0.43100825
0.20959316 0.25986242 -0.022508183 0.17673142 -0.3446835 -0.069828264 0.63414663 0.18925768
0.30363765 0.3713816 0.27602953 0.3173682 -0.0058116 0.43180832 -0.28854188 0.28723654
-0.23404482 0.33625057 -0.25923225 -0.0026225247 0.13059826 -0.07407218 0.19164222 -0.024552336
-0.5034761 0.39252517 0.2621082 -0.3660058 -0.0039941785 0.25974458 0.5453608 0.5897706
-0.42130098 0.17142333 0.5207436 -0.06991041 0.20544776 0.18030937 0.21168442 0.10383699
-0.3157868 0.25528938 -0.2735663 0.51690286 0.2040238 0.05463943 0.008211626 0.0017112569
0.0065105185 0.09404264 0.062331628 0.02896864 -0.0226799 -0.038108785 -0.11999868 0.04127737
-0.14416106 -0.1295136 0.015253758 -0.07820861 -0.10480503 -0.13627033 0.2745726 0.08034211
0.050499406 -0.14787419 -0.09099147 0.14512101 -0.19846147 -0.029456813 0.22580287 -0.07730506
0.14521302 -0.0055763214 0.024912287 -0.085708156 0.03549125 -0.1225084 0.1538756 0.053429063
0.07677399 -0.04067843 0.1276492 -0.06777713 -0.007596512 -0.18077852 -0.0021380247 0.034802545
0.00928883 -0.0452919 -0.17719375 0.11085911 0.08056433 0.2004165 -0.13915424 -0.0098055955
0.19289246 -0.045270078 -0.11610379 0.024206595 0.0979249 0.1528156 -0.029628675 0.19233634
-0.06437565 0.058329713 0.17112523 0.06780946 -0.15252487 0.410508 -0.025472457 0.054958012

gru.bias_hh_l0_reverse f4 [192]
00000000: 048c 85be a6b0 563d 9ebe 8b3e bcdf 1b3d
00000010: c0f9 91be 7936 19be f153 683e ab7a 483d
00000020: 39f0 343d 68c9 643d 1916 363d 6f50 d13d
00000030: 25b3 383d 73ca 1b3f ff0e 953d f05d 833e
00000040: e42b 19be f95f 783d ca4f 103e 1fb3 28be
00000050: e46e dd3d 807f 91bd b2cb 953d 01d8 23bd
00000060: 4137 b53c b91f 273b 65b0 4e3e 1ad3 b9be
00000070: 32ad d5bd 061e 113e 67cb 1abe 01ac 843d
00000080: 974f 573c 47a6 633e 3451 b53e 35b8 7d3c
00000090: c79b 5b3d 9672 163e 5cca 033e 1383 bebd
000000a0: c11f ef3c 60cc 34be 6a12 8dbd 6d18 e53c
000000b0: ed9c ac3d 95cb bdbc 34fc d83d 8e2d e4bd
000000c0: 7df8 c73d 4504 823e 0b12 1bbe dad3 0d3d
000000d0: baf3 33be 3a01 e43c 3b65 eebe 5f57 323e
000000e0: 83ff 513f 5127 733e e928 fb3d 0617 aa3d
000000f0: cab2 973e 6a51 6b3e 32d8 f63d 0f25 a8bd
00000100: 191f c53e 9524 79bd 8a76 54be bc4c da3d
00000110: 5b6f 573f f0f1 2e3f daae 8c3e 3e39 3b3f
00000120: 2c4e 41bc c434 d93d 3de6 083f b42f 3a3e
00000130: a498 9ebd 9a32 74bf bf30 5d3e 6fcd e43e
00000140: 8aa3 163e 1e3a 533e 4351 14bd 2804 1e3e
00000150: 1c64 82be e6cd 13be 99ae 033f be39 b83e
00000160: f81a b03e beb0 e63e 0ed4 713e 609b a63e
00000170: ee75 29bd 6a7b e63e 6335 10be 6704 7f3e
00000180: f6cb 9cbe 4876 2a3e 236f 79be baa3 69bd
00000190: 8d30 b03d c68f 3ebd 15d7 323e 9d4a 06be
000001a0: 80c8 e1be 55c6 973e b85d 5b3e 1f4c 84be
000001b0: 6cc9 48bc 71d4 053e ccc8 073f 0b7c 1d3f
000001c0: 5554 a6be 1368 483e 456a 0c3f 1fd2 b73c
000001d0: b9ac b03d 1cb1 613e 4330 443e 0ba5 da3d
000001e0: 690c d0be 5ab9 193e 0ae7 b5be 03e5 0d3f
000001f0: f3b1 523e af0d 7d3d 62fd 233e 19af 053e
00000200: 3910 d43b f29f 5fbe 0984 573e c87f 073e
00000210: 2bb0 8ebd 61e6 363e 372a 69bd 1ae2 083e
00000220: 13fd 963e 619d a4bd 9caf cd3a e24e 72bc
00000230: 4224 44be a809 373c b07a 8bbc 7d43 fd3d
00000240: 502e 4b3c 5fd6 033d ca7f 9d3d b639 5abd
00000250: 0724 72be 4bc6 a0bc 3611 113d bc8e a13c
00000260: f3ee be3d c1b5 90bd 14f5 14be 18af e33d
00000270: 5411 04be 749b c93d b898 003e ad32 42bd
00000280: 40bc 48be 0003 6c3c 58e9 693d 1eed 1b3e
00000290: 5591 63bd d13e 9b3d ddf0 3c3e ebd8 d6bd
000002a0: 7fd2 eebd 606b 98bb 81a8 e43c dbe7 223d
000002b0: 8e7a d3bc 7ff9 e7bd 3269 5f3d bfad 113e
000002c0: 7cea 22be 0208 b1bd 6e64 bebd 72fb 903e
000002d0: 427d 213e aaf0 733c 224b 95bd 6e11 863d
000002e0: bf2c 1dbc f21d 3f3e ea7c babd 54e1 adbd
000002f0: c9b5 143c 7c5b 813e 26a8 d13d b637 cc3d
-0.26083386 0.05241456 0.27293867 0.038055167 -0.28510857 -0.14962186 0.22688271 0.04894511
0.044174407 0.05585614 0.044454668 0.102204196 0.04509272 0.6085579 0.07278251 0.25657606
-0.14958149 0.0606384 0.14092937 -0.1647458 0.10812166 -0.07104397 0.073142424 -0.04000092
0.022121074 0.0025501086 0.20184477 -0.3629387 -0.10433425 0.1417161 -0.15116654 0.0647812
0.013141534 0.22231399 0.35413516 0.015485813 0.053615358 0.14692149 0.12870163 -0.09302344
0.029189946 -0.17656088 -0.06888278 0.027965749 0.08428369 -0.023168365 0.10594979 -0.11141501
0.09764192 0.25393882 -0.15143602 0.034625866 -0.17573443 0.027832616 -0.46561608 0.17416142
0.82030505 0.23745467 0.12263662 0.083051726 0.29628593 0.22980276 0.12052955 -0.08210193
0.38500288 -0.060825903 -0.20748344 0.10659167 0.8415429 0.6833792 0.2747715 0.7313422
-0.011798423 0.10605767 0.53476316 0.1818226 -0.07743958 -0.9538971 0.21600626 0.44687983
0.14710823 0.20627639 -0.03621031 0.15431273 -0.25467002 -0.14434013 0.5143829 0.35981554
0.34395576 0.4505672 0.23616049 0.32540417 -0.041372232 0.45016032 -0.14082865 0.24904023
-0.3062436 0.16646683 -0.24358802 -0.057040907 0.0860301 -0.04652383 0.1746486 -0.131144
-0.44098282 0.29643503 0.2142247 -0.25839326 -0.012255054 0.13069321 0.53040767 0.615174
-0.32486215 0.19570951 0.54849654 0.02243906 0.08626694 0.22040218 0.19159035 0.10676011
-0.40634468 0.15012112 -0.3552783 0.5542757 0.20575695 0.061780628 0.16014627 0.13055076
0.0064716605 -0.21838358 0.21046461 0.13232338 -0.06967195 0.1786132 -0.056925025 0.13367501
0.29489955 -0.0803783 0.0015692594 -0.014789315 -0.19154456 0.011171736 -0.017026275 0.12366388
0.0124011785 0.032186862 0.076903895 -0.053277694 -0.23646556 -0.019625803 0.035416804 0.019721381
0.0932292 -0.07065917 -0.14546615 0.11117381 -0.12897235 0.098441035 0.12558258 -0.04741161
-0.19603062 0.014405012 0.0571073 0.15227172 -0.05555852 0.07580341 0.18451257 -0.104905926
-0.11661243 -0.004651472 0.02791238 0.039771896 -0.025815275 -0.113268845 0.05454368 0.14226435
-0.15909761 -0.086441055 -0.09296499 0.28316838 0.15770438 0.014888922 -0.07289721 0.06546293
-0.009593188 0.18663767 -0.09105857 -0.084902436 0.009076544 0.2526511 0.1023715 0.099715635

fc.weight f4 [6, 128]
00000000: c735 743f 9658 413f 4d2c 87bd 2ec9 51be
00000010: b791 a23e 9e75 a03e 7caa 87be 698c 32bf
00000020: 9b5b b73e 7690 ce3e 3104 8fbe e616 a63e
00000030: f5d4 9f3f 3a5c 2ebf 5cb1 d93d b7e1 833e
00000040: 8a42 b1be 69c1 903f d5b8 f4be a629 fd3e
00000050: 2989 713e 6e07 36be c2d9 a7be d684 c6bf
00000060: b68e a3be 4c16 2d3e 9663 393e e256 113e
00000070: 51aa 79bf 5ddd 933e 06fd 92be f448 e23f
00000080: 2ba7 ccbe eba4 db3d d801 3dbf 7656 4bbe
00000090: 6f70 9a3e fd2a 333f 4d73 1ebf 971d c43e
000000a0: 0ae4 343f 54a5 7b3d 3391 fdbe 669f 17bf
000000b0: f993 8bbe c6e2 c63e aa02 eabd e32a 453e
000000c0: ba6f c7bd 1af0 1b40 b943 b1bd dd30 323f
000000d0: 30c8 f3be a5d7 60bf 4589 0e3f 188c 943f
000000e0: 9af6 713d 0ef8 1e3f caa2 0dc0 74e2 5cbf
000000f0: 65d9 413f 604a f03d 6a7a c8be 3651 243f
00000100: ccd3 5c3e ad8d e9bc 742c 673f 9736 d5bd
00000110: b366 87bf f1b9 41be cdde febb 1c73 89be
00000120: efaf 733f a7c0 85bf 5369 3abe 15df 02bf
00000130: b73b e43e b415 2140 a17f 3cbe f4a5 19bf
00000140: d8d1 703e f48f 083f e462 423f 887c 0a3e
00000150: 76a9 dc3d 5ee0 babe 7552 1e3e 0590 13bc
00000160: 6c69 65bd a9ea 893e f536 213f 9db8 adbe
00000170: 19e2 9c3e 1f7b 643d 68c7 3f3f 78e2 eb3e
00000180: 619e d63e a463 51bf 7fda c6bf 42e1 b5be
00000190: 14cf 283f b7b7 cc3e 14fd adbd 2fb8 4d3e
000001a0: c3b4 0a3f b7bb 27bf 031a 363e 25dc 833f
000001b0: e2e9 013e 0265 173d 1fec cd3d 119d a03e
000001c0: ed7f ed3f 39e9 543f eee0 79be 383c 003e
000001d0: 2e71 5c3e fbb8 253e f547 833f 0178 a23e
000001e0: 29af fabf 46d4 163f c5cc c7bf 8310 acbe
000001f0: f259 923e 8235 2e3f c053 823e 7054 883e
00000200: 5251 c4bf 0055 95bf 5d2f e03c b962 0a3e
00000210: c8e2 4dbf ee34 13bd 278d 113e fa72 693f
00000220: 852d 77bf ae24 ffbe 92fb fd3e d4e0 8bbf
00000230: 3e19 fcbf 3dac 8f3f 54af 9bbe ffdc d9be
00000240: ca8f 8f3e 1f46 cfbf 6711 2c3f 5484 12bf
00000250: aeb3 cb3d fc84 ce3e df24 833f a023 0540
00000260: a9fc 3d3e 6cef 4fbe 7546 9dbe 57d6 26be
00000270: f497 f63f 2142 e5be 56f9 a73c 7bf2 3ac0
00000280: d4d2 253f e94c 33be ab91 863f 8620 c43d
00000290: 8f4a c1be 1db6 45bf 466e 5e3f 4944 87be
000002a0: 9e7b c4bf 4272 45bf b6fe a73f 6524 373f
000002b0: 1f02 023f d262 33bf 7a5c f03d ae1d f6be
000002c0: 02ef d5bd b963 86c0 32bf af3e 1512 92bf
000002d0: dc24 833f 95af c63f 0aa9 38bf 5d4d 1bc0
000002e0: 076d c43d 11a6 8abf dc93 6f40 ed9d b63f
000002f0: bee4 c4bf eb62 b9be 5f66 313f b80f 9bbf
00000300: def3 91be c935 c23e 4086 a8bf dbbd bc3c
00000310: 3505 c43f 1e1a c63e 28b9 f3bd c485 c83e
00000320: 2ad2 ccbf 5897 e43f d183 b13c f8b7 623f
00000330: 3a2e e8be bf7b 95c0 747c d73e bfc3 653f
00000340: 2de0 2fbf 3758 63bf c972 ddbf 4626 19bf
00000350: 204b b3be e31a 5e3f 8b74 c0be 2702 31bd
00000360: 07d7 1f3d 17d1 373e 52ca 91bf 9151 123f
00000370: 14f1 e3be b6d5 e2be a8e5 9ebf 28c2 61bf
00000380: 0201 48bf 3970 2f3f 241a e63f 7c3e 943e
00000390: 536a 88bf b0f3 1dbf fa0c 413e c569 09be
000003a0: 6141 92bf 7644 983f 64f7 cfbe 8478 e4bf
000003b0: 0b85 37bf b11a 073f 73ec d33d 1403 28bf
000003c0: a46d 5fc0 07c7 09c0 0287 4d3e c99c a03a
000003d0: 2faa f6be f491 1abe 5eed cabf 5464 f5be
000003e0: ec16 6440 7266 69bf aedf 3840 c866 123f
000003f0: 98fc d1be 735f c2bf 2a3b 373c 9605 08bf
0.9539456 0.75525796 -0.066002466 -0.204869 0.31751797 0.31339735 -0.26497257 -0.697455
0.35812077 0.4034459 -0.27932885 0.32439345 1.2486864 -0.68109477 0.10629532 0.25758144
-0.34621078 1.1309024 -0.47797266 0.49445838 0.23587479 -0.17776272 -0.32783324 -1.5509288
-0.31944817 0.16903037 0.18104395 0.141933 -0.9752551 0.28879824 -0.28708667 1.7678514
-0.3997129 0.10724815 -0.7383094 -0.19857201 0.30163905 0.6998747 -0.61894685 0.38303825
0.7066046 0.061436966 -0.4952484 -0.592276 -0.27261332 0.3884489 -0.114262894 0.19254641
-0.09738107 2.4365296 -0.08655495 0.6960581 -0.47613668 -0.8782905 0.55678207 1.1605253
0.05907307 0.6209725 -2.2130609 -0.8628304 0.7572234 0.11732936 -0.39155895 0.6418642
0.21565169 -0.02850994 0.90302205 -0.10410803 -1.0578216 -0.18918587 -0.0077780248 -0.26845634
0.9519033 -1.0449418 -0.1820424 -0.51121646 0.4457681 2.5169497 -0.18408062 -0.6001885
0.23517549 0.53344655 0.75932145 0.13524067 0.107745096 -0.36499304 0.15461142 -0.009006505
-0.05600874 0.26936844 0.6297448 -0.3392991 0.3064125 0.05578148 0.74913645 0.4607122
0.4191771 -0.81792665 -1.553543 -0.3552342 0.65940976 0.39983913 -0.084955364 0.20089792
0.5418207 -0.65520805 0.1778336 1.0301558 0.12686875 0.036961563 0.10054802 0.31369832
1.8554665 0.8316837 -0.2440221 0.12522972 0.2152755 0.16183846 1.0256335 0.3173218
-1.9584705 0.58917654 -1.5609366 -0.33606347 0.28584248 0.68050396 0.2545452 0.2662692
-1.5337317 -1.1666565 0.027366335 0.13514222 -0.80424166 -0.03593915 0.14214002 0.91191065
-0.9655383 -0.49832672 0.49605995 -1.0927987 -1.9695203 1.1224438 -0.30407202 -0.4255142
0.2803939 -1.6193274 0.67214054 -0.57233167 0.099463806 0.40335834 1.0245627 2.0802994
0.18553413 -0.20306176 -0.30717817 -0.16292702 1.9265122 -0.44777015 0.020504635 -2.9210498
0.64774823 -0.17509808 1.0513204 0.09576516 -0.37752196 -0.7723101 0.86887014 -0.26419285
-1.5350225 -0.7712747 1.3124607 0.7153991 0.50784487 -0.7007266 0.117363885 -0.4806952
-0.10445978 -4.199673 0.34325558 -1.1411768 1.0245624 1.5522333 -0.72132933 -2.4265969
0.09591108 -1.083193 3.7433996 1.4266945 -1.5382307 -0.3620828 0.6929683 -1.2114172
-0.28506368 0.3793166 -1.316597 0.023039749 1.5314089 0.386918 -0.1190055 0.39164555
-1.6001637 1.7858686 0.0216693 0.88561964 -0.45347768 -4.6713557 0.42087138 0.8975181
-0.6870144 -0.8880648 -1.7300655 -0.59824026 -0.35018253 0.86759776 -0.37588915 -0.043214943
0.039023425 0.17950855 -1.1389868 0.5715571 -0.44519866 -0.44303674 -1.2413836 -0.88186884
-0.7812654 0.68530613 1.7976727 0.28953922 -1.0657448 -0.6169996 0.18852606 -0.13419254
-1.1426202 1.1895893 -0.40618432 -1.7849278 -0.7168738 0.527751 0.103478335 -0.65629697
-3.491067 -2.1527727 0.20071033 0.0012253757 -0.48176715 -0.15094739 -1.5853689 -0.47928107
3.563899 -0.91171944 2.8886523 0.5718808 -0.41013026 -1.5185379 0.011183539 -0.53133523

fc.bias f4 [6]
00000000: 566e 4c3f a7ed a0bf c115 a4bf 6e5c c03f
00000010: e668 4d3f c654 df3f
0.7985586 -1.2572526 -1.2819139 1.5028207 0.8023819 1.7447746
