results/training/gpt-oss-20b_h100_tp2/model_tp2_H64_biGRU.pt (torch, 482669 bytes, 22 tensors)

in_norm.weight f4 [6]
0	0x3f80d5de	1.0065267
1	0x3f8443cd	1.0333191
2	0x3f841534	1.0318971
3	0x3f811391	1.0084096
4	0x3f81fa47	1.0154504
5	0x3f7ee626	0.9956993

in_norm.bias f4 [6]
0	0x3af1a5f3	0.0018436298
1	0xbb200b53	-0.0024420812
2	0xbbf1502a	-0.0073642926
3	0x3a78fdf3	0.00094982906
4	0xbb7b60b9	-0.0038357212
5	0x3c88b15f	0.01668614

gru.weight_ih_l0 f4 [192, 6]
0	0x3dfdcb95	0.12392346
1	0x3e233577	0.15938364
2	0x3e274a32	0.16336897
3	0x3df5cd24	0.12002018
4	0x3da42b0b	0.08016022
5	0x3e819d96	0.2531554
6	0x3e2c9fb1	0.16857792
7	0xbe2ea3ee	-0.17054722
8	0x3e584f00	0.21123886
9	0x3d253e31	0.040342513
10	0x3d8f77cc	0.07005271
11	0xbe30f810	-0.17282128
12	0xbe6a034f	-0.22852825
13	0x3e73b328	0.23798811
14	0x3d6277e2	0.05529011
15	0x3e000baf	0.12504457
16	0x3d84eefc	0.06490895
17	0xbe5dc4db	-0.21657126
18	0x3d20ba8a	0.039240398
19	0x3dfa5bbd	0.12224529
20	0x3e77a108	0.24182522
21	0xbdacfb46	-0.08446364
22	0x3de9ef37	0.1142258
23	0xbc4e2b0b	-0.012583504
24	0xbd8106eb	-0.063001476
25	0xbe727e25	-0.23680933
26	0xbdba8e07	-0.09109121
27	0x3da4d14b	0.08047732
28	0x3de1d431	0.110268004
29	0xbd9f078c	-0.07765111
30	0x3e69e60d	0.22841664
31	0x3e6c1104	0.23053366
32	0x3e67c483	0.22633557
33	0xbe0a5593	-0.13509206
34	0xbd290f00	-0.04127407
35	0x3e20ba51	0.15696074
36	0xbd081079	-0.033218835
37	0xbe0acdb5	-0.13555034
38	0x3e3f5a0c	0.18686694
39	0x3dec7a31	0.11546744
40	0xbe7349da	-0.23758641
41	0xbe19f36b	-0.15034263
42	0xbd1fb1dc	-0.03898798
43	0x3d8243c4	0.063605815
44	0x3d5a27a0	0.053260446
45	0xbdb758fa	-0.08952518
46	0x3dd3c2f8	0.10339922
47	0x3d7cafbb	0.061691027
48	0x3db2ae90	0.087247014
49	0xbded9cda	-0.11602183
50	0x3db108d0	0.08644259
51	0xbe33fb0e	-0.17576239
52	0xbe80d3b0	-0.25161505
53	0xbd512b78	-0.051066846
54	0xbe40beca	-0.1882278
55	0x3e17bd2d	0.14818259
56	0x3e131a10	0.14365411
57	0x3e2628ce	0.16226503
58	0x3e272a2a	0.16324678
59	0xbda9570a	-0.082685545
60	0xbe60ba50	-0.21946073
61	0xbdd26a5a	-0.10274191
62	0x3e7005e7	0.23439752
63	0xbdf94818	-0.12171954
64	0xbd63aa55	-0.055582363
65	0xbde61f11	-0.11236394
66	0x3dc55d56	0.09636943
67	0x3e63ba03	0.22238927
68	0xbe5cc195	-0.2155822
69	0x3e7a0822	0.24417165
70	0xbc693b7b	-0.014235373
71	0xbbf3851c	-0.0074316394
72	0x3e21ee2c	0.15813512
73	0xbe64a380	-0.22327995
74	0x3e432c8c	0.19059962
75	0x3e705044	0.23468119
76	0xbc9eba29	-0.019375877
77	0x3d80170c	0.06254396
78	0x3e182008	0.14855969
79	0xbe746c7d	-0.2386951
80	0xbe692c6a	-0.22770849
81	0x3e201981	0.15634729
82	0x3e698773	0.22805576
83	0x3cc0bcc1	0.023527505
84	0xbdaf776b	-0.08567699
85	0x3e5a5677	0.21322046
86	0xbdb253e8	-0.0870741
87	0xbdb16c34	-0.08663216
88	0xbdb3c94f	-0.08778631
89	0x3e41ff1f	0.18944977
90	0x3e316046	0.17321882
91	0x3e50efc0	0.20403957
92	0x3e6ee0df	0.23327969
93	0x3d2c0422	0.04199613
94	0xbe538625	-0.20656641
95	0x3e387675	0.18013938
96	0x3d0db13d	0.034592856
97	0xbd9c6669	-0.07636721
98	0x3dc03085	0.09384254
99	0xbe24dd2f	-0.161
100	0x3df3f660	0.11912227
101	0x3d898964	0.06715658
102	0xbd72ef9a	-0.059310533
103	0x3d02cda2	0.031934388
104	0xbe0866cb	-0.13320462
105	0xbe405790	-0.18783402
106	0x3e15493e	0.14578721
107	0x3dc1e5c1	0.0946765
108	0x3c2db402	0.010601999
109	0x3cf0e1ba	0.02940451
110	0xbe3a3159	-0.18182887
111	0xbe4399a1	-0.19101574
112	0xbd0c867c	-0.03430794
113	0x3df69d26	0.120416924
114	0x3c84ca74	0.016209818
115	0x3d7ed6c9	0.062216554
116	0x3c6a714e	0.0143092405
117	0xbce9d091	-0.028541835
118	0xbe0736e3	-0.13204531
119	0x3e5a71d3	0.21332483
120	0xbe641959	-0.22275294
121	0x3dce8c93	0.10085406
122	0x3e62b253	0.22138338
123	0xbdf67b0c	-0.12035188
124	0xbe032311	-0.12806346
125	0xbe1a6383	-0.15077023
126	0x3dbba781	0.09162808
127	0x3dc40de4	0.09572962
128	0x3e635c79	0.22203244
129	0x3e323ee2	0.174068
130	0x3dba8496	0.0910732
131	0x3d3cd5c4	0.0461023
132	0xbd24cc26	-0.040233754
133	0xbe421154	-0.18951923
134	0xbdf38279	-0.1189012
135	0x3d874290	0.06604493
136	0x3e1b47dd	0.15164132
137	0xbdb24a20	-0.087055445
138	0xbe40746c	-0.18794411
139	0xbc9caca4	-0.01912529
140	0x3d64c307	0.055850055
141	0x3e7d100a	0.2471315
142	0x3d9d7857	0.07688969
143	0x3e023076	0.12713799
144	0x3ccd81db	0.025086334
145	0x3d89e7f8	0.06733698
146	0x3d87ecae	0.0663694
147	0xbd548da1	-0.05189288
148	0xbe6ba4c3	-0.2301207
149	0x3e16a475	0.14711173
150	0xbdf3651a	-0.11884518
151	0x3e0d0ac1	0.13773634
152	0x3df83441	0.12119342
153	0xbe5ad5f8	-0.21370685
154	0x3e5bca31	0.21463849
155	0x3e856319	0.26052168
156	0x3d1c7c73	0.03820462
157	0xbe5f45eb	-0.21804015
158	0xbccba515	-0.02485899
159	0xbd849be2	-0.06475045
160	0xbe006810	-0.12539697
161	0x3da044ed	0.078256465
162	0xbd0608ec	-0.032723352
163	0x3b43d274	0.0029880079
164	0x3e0cbd71	0.13744141
165	0x3d672337	0.056430068
166	0x3e5b9dd0	0.2144692
167	0xbd5fea48	-0.054666787
168	0xbe33b57c	-0.175497
169	0x3db26762	0.08711125
170	0x3d2873f3	0.041126203
171	0x3e4dd233	0.20099716
172	0x3e51ea01	0.20499422
173	0xbe2f65a3	-0.17128615
174	0x3e8059aa	0.25068408
175	0x3e20ad61	0.15691139
176	0xbe5c08ea	-0.21487775
177	0x3dc71b18	0.097219646
178	0x3c6700b3	0.014099288
179	0xbe4c2922	-0.19937566
180	0xbe769df6	-0.24083695
181	0xbe66308e	-0.2247946
182	0xbe5b64fb	-0.2142524
183	0x3e477a43	0.19480233
184	0x3cc267b8	0.023731098
185	0x3dc42997	0.09578245
186	0x3c37924f	0.011204316
187	0xbe39cb4e	-0.18143961
188	0x3e43333c	0.19062513
189	0x3e3208e8	0.1738621
190	0x3da42724	0.08015278
191	0x3e319e90	0.17345643
192	0xbce9d895	-0.028545657
193	0x3db999c2	0.0906253
194	0xbe70ea9b	-0.23526995
195	0xbe1262bf	-0.14295481
196	0x3c7b2952	0.015329676
197	0x3e37b3ab	0.17939632
198	0x3e0d45b4	0.13796121
199	0x3e313788	0.1730634
200	0x3ccdacc4	0.025106795
201	0xbd541d65	-0.051785845
202	0x3de3fb72	0.11131944
203	0xbd8d2dfa	-0.06893535
204	0x3e155e75	0.14586814
205	0xbda9d7d8	-0.08293122
206	0xbdcc29f9	-0.09968943
207	0xbc0ddd4b	-0.008658717
208	0x3e76cdb6	0.2410191
209	0x3ddca8a5	0.10774354
210	0x3dc9456f	0.098276965
211	0xbd02dd87	-0.031949546
212	0xbe7036ac	-0.23458356
213	0xbbc0c726	-0.0058831153
214	0x3d25becb	0.040465157
215	0xbe506517	-0.20351063
216	0x3c258cc3	0.010104361
217	0xbe6a7297	-0.22895275
218	0xbe127ac9	-0.14304651
219	0x3dd2fdfd	0.10302351
220	0x3e151aa5	0.14560945
221	0x3e4132cb	0.18867032
222	0x3cfbcf7e	0.030738588
223	0xbd157b9e	-0.036494844
224	0x3d04ff0d	0.032469798
225	0x3ccbc97f	0.024876354
226	0x3e6ce295	0.23133309
227	0xbe3e03e0	-0.18556166
228	0x3e385c57	0.18003975
229	0xbccd08ba	-0.025028575
230	0x3e679b5d	0.2261786
231	0x3df94550	0.121714234
232	0x3d04fb5d	0.03246628
233	0x3e30e5d7	0.17275177
234	0x3e0df73e	0.13863847
235	0xbe429902	-0.1900368
236	0xbb8a08e6	-0.0042124866
237	0xbdea375e	-0.11436342
238	0xbe79a032	-0.24377516
239	0xbde982ee	-0.11401926
240	0xbe620b94	-0.22074729
241	0xbd34a2fa	-0.04410074
242	0x3ca5956d	0.020212853
243	0x3e5309f3	0.20609264
244	0xbe5313a9	-0.20612969
245	0xbd33ed30	-0.04392737
246	0x3e1ae40a	0.15126052
247	0xbe3fcf21	-0.18731357
248	0x3e7140dc	0.23559898
249	0xbe6b5b60	-0.22984076
250	0xbd0afb19	-0.03393087
251	0xbe1f78c1	-0.15573408
252	0x3d056985	0.032571334
253	0x3e6c5538	0.23079383
254	0x3da4ebb5	0.0805277
255	0x3e8434de	0.25821584

gru.weight_hh_l0 f4 [192, 64]
0	0xbb759fa0	-0.0037479177
1	0xbd008f92	-0.03138692
2	0xbdebb3d8	-0.11508912
3	0xbdae0742	-0.08497478
4	0xbe22827f	-0.15870093
5	0x3cd1b72f	0.025600044
6	0xbda90ac2	-0.08254005
7	0x3c89010b	0.01672413
8	0x3cd6629f	0.026170073
9	0xbe2ec89b	-0.17068712
10	0xbcc4e443	-0.024034625
11	0xbdaa0e05	-0.08303455
12	0x3d846a8e	0.06465636
13	0xbda160db	-0.07879802
14	0x3c0014ce	0.00781746
15	0xbd795fe5	-0.060882468
16	0xbdbcd713	-0.0922071
17	0x3d001bc6	0.031276487
18	0xbdb80bfd	-0.089866616
19	0xbcdfb26e	-0.027306762
20	0x3d0b55f8	0.034017533
21	0x3db9144c	0.090370744
22	0x3e0c348c	0.1369192
23	0xbcbfe081	-0.023422481
24	0x3c8a6202	0.016892437
25	0xbd5282e8	-0.051394373
26	0x3ddf9112	0.10916342
27	0xbdbaf4bc	-0.09128711
28	0x3cfc1025	0.030769417
29	0x3d398125	0.045289177
30	0x3ddeafc2	0.10873367
31	0xbc16f40c	-0.009213459
32	0x3d0da425	0.03458037
33	0x3e003599	0.12520446
34	0xbd4392c2	-0.04774738
35	0x3da9ae7b	0.08285233
36	0xb9cc6268	-0.0003898323
37	0xbcb4914c	-0.02204194
38	0x3d57bd7f	0.052670952
39	0xbd6a480d	-0.05719762
40	0xbdbea830	-0.09309423
41	0x3c0df934	0.008665372
42	0x3d1457ab	0.03621642
43	0x3cba838a	0.0227678
44	0x3ccfe525	0.02537782
45	0xbb63d4da	-0.003476432
46	0x3c77f18c	0.015133273
47	0xbdb290c8	-0.08719021
48	0x3c9493a3	0.018136805
49	0x3d9717a5	0.07377557
50	0xbda2fd11	-0.07958425
51	0x3d4cda5b	0.050012928
52	0xbe2e0e92	-0.16997746
53	0xbded6ed7	-0.11593407
54	0xbd85eab9	-0.065389104
55	0xbbcfaa89	-0.006337468
56	0xbcc7fc28	-0.02441223
57	0xbd283922	-0.04107011
58	0x3d531261	0.0515312
59	0xbd02c3ae	-0.031924896
60	0xbdc41755	-0.09574763
61	0x3d3fd14e	0.046830468
62	0xbd4f9c79	-0.050686333
63	0x3ddadd87	0.10686784
64	0x3e1d9754	0.15389758
65	0x3d9c8203	0.07641985
66	0x3da0cdfd	0.07851789
67	0x3d6c0504	0.05762197
68	0xbe0e60c8	-0.13904107
69	0x3d28b249	0.04118565
70	0x3c56bf19	0.013107085
71	0xbdf4ec28	-0.11959106
72	0xbb59625a	-0.0033170194
73	0x3c450402	0.012024881
74	0x3c78d09b	0.015186454
75	0xbda13a0a	-0.07872398
76	0x3dbfd5ea	0.09366973
77	0x3d0a79b1	0.03380746
78	0xbd49c555	-0.049260456
79	0x3d52b96f	0.051446375
80	0xbc5d46e5	-0.013505672
81	0xbd4fb311	-0.05070788
82	0xbc474a57	-0.01216372
83	0x3d12ddfe	0.03585624
84	0xbd1607ee	-0.036628656
85	0x3d89eee2	0.067350164
86	0x3ce1552b	0.027506432
87	0xbdb59ee2	-0.08868195
88	0xbdc73132	-0.0972618
89	0xbd3a2f62	-0.045455344
90	0xbd03aa3f	-0.03214478
91	0x3cb4e8d5	0.02208368
92	0x3dc45b27	0.095876984
93	0x3d1a66d4	0.03769572
94	0xbd5f5d91	-0.05453259
95	0xbdd01b35	-0.10161439
96	0xbd90c4b3	-0.070687674
97	0x3dabda7b	0.08391281
98	0xbc938ae2	-0.01801056
99	0x3dae866c	0.08521733
100	0xbd41593c	-0.04720424
101	0xbd321aec	-0.043482706
102	0x3d3967da	0.045265056
103	0xbe3ba47d	-0.18324466
104	0x3d6b1edd	0.05740248
105	0x3d4f191a	0.050561048
106	0x3d88065f	0.0664184
107	0xbbba4564	-0.0056845415
108	0x3d92af9e	0.071624026
109	0x3d0220a1	0.0317694
110	0x3d28446a	0.04108087
111	0x3d56a733	0.052405547
112	0x3cfeea5f	0.031117616
113	0x3ce87b8b	0.028379222
114	0xbd9bcfb6	-0.07607977
115	0x3ca2519e	0.019814309
116	0x3c484a9e	0.012224821
117	0x3d909ed0	0.07061541
118	0x3d36c90f	0.04462534
119	0x3d924302	0.07141687
120	0x3d69cb61	0.057078723
121	0x3d9975b2	0.07493152
122	0x3db383bc	0.08765361
123	0x3de7bd90	0.11315453
124	0x3cfb14be	0.03064954
125	0xbdc72aaa	-0.097249344
126	0x3dca2cb5	0.098718084
127	0xbe2503dc	-0.16114753
128	0x3df2d6a5	0.118573464
129	0x3d325143	0.04353453
130	0x3d42c831	0.0475542
131	0xbd7e9a30	-0.062158763
132	0xbd602d88	-0.054730922
133	0xbcf9a803	-0.030475622
134	0xbd932e13	-0.07186522
135	0x3d8432c7	0.064549975
136	0xbd35b07a	-0.044357754
137	0xbd9850a3	-0.07437255
138	0x3e5c8be0	0.21537733
139	0x3cb20dc8	0.021735087
140	0x3ddadc44	0.106865436
141	0x3c78d175	0.015186657
142	0x3d611e9b	0.05496083
143	0xbd831e1f	-0.064022295
144	0x3d6bceb6	0.05757018
145	0xbc67fae1	-0.014158935
146	0x3cea2d33	0.028586006
147	0x3dc8adb2	0.09798755
148	0x3d1574ff	0.03648853
149	0x3c55e5a3	0.013055238
150	0x3cd791ca	0.026314635
151	0x3cff312d	0.031151379
152	0x3de17a4f	0.11009657
153	0x3aa84ebd	0.0012840849
154	0xbcc8d840	-0.024517179
155	0xbdfe2311	-0.12409032
156	0xbd554891	-0.052071158
157	0xbccb0933	-0.02478466
158	0x3d35d674	0.04439397
159	0x3e393142	0.18085197
160	0xbdb6ea10	-0.08931363
161	0xbc02fbad	-0.0079945745
162	0x3ba52b44	0.005040558
163	0xbc2a07bd	-0.0103778215
164	0xbc0f5189	-0.008747467
165	0x3de46a41	0.11153079
166	0xbdf5266c	-0.11970219
167	0x3df5176b	0.11967357
168	0x3e072a06	0.13199624
169	0x3c168eab	0.009189288
170	0xbdc8ad9c	-0.09798738
171	0xbcb9e9f3	-0.022694563
172	0xbc58d3db	-0.013234104
173	0x3d236a01	0.039896015
174	0xbc822a64	-0.015889354
175	0x3c8a17f6	0.016857129
176	0xbd9b1865	-0.07573012
177	0x3d0f7680	0.03502512
178	0xba2f4172	-0.00066854723
179	0x3cf100db	0.029419353
180	0xbe1eca33	-0.1550682
181	0x3d1eaa55	0.03873666
182	0xbc8d8593	-0.017275607
183	0x3ce8c9a1	0.028416457
184	0xbdac9571	-0.08426941
185	0xbc24dd38	-0.010062508
186	0x3d3c4563	0.04596461
187	0xbbee5c70	-0.007274203
188	0xbcefdb07	-0.029279245
189	0xbd861217	-0.06546419
190	0xbd86955a	-0.06571455
191	0xbd2d6e47	-0.042341497
192	0xbd82cf91	-0.063872464
193	0xbe3f6be6	-0.18693504
194	0x3cd27e4a	0.025694985
195	0x3dc5e3f3	0.096626185
196	0xbd141497	-0.03615245
197	0x3cbab786	0.022792589
198	0x3db6f380	0.08933163
199	0xbd9b8b8e	-0.07594977
200	0xbd2beeda	-0.041975833
201	0x3d1bd494	0.038044527
202	0x3c53ffe1	0.012939424
203	0xbd81cf98	-0.063384235
204	0xbd6833a7	-0.056689885
205	0x3d25fb01	0.04052258
206	0x3d3f884a	0.046760835
207	0x3d46cd66	0.048535727
208	0x3d0d0404	0.034427658
209	0xbc500230	-0.012695834
210	0x3d81e187	0.06341844
211	0xbc149d14	-0.0090706535
212	0x3d30907c	0.04310654
213	0xbd8f5121	-0.06997896
214	0x3d958b7f	0.073019974
215	0xbe08d3f2	-0.133621
216	0x3da46d0a	0.0802861
217	0xbd83c337	-0.06433719
218	0xbd0ecbdb	-0.03486238
219	0xbe253bcf	-0.16136096
220	0x3d88789a	0.06663628
221	0xbd98a00d	-0.07452402
222	0xbd976f0b	-0.07394227
223	0xbd9cefb0	-0.07662904
224	0xbdb6c414	-0.08924118
225	0xbd003435	-0.03129979
226	0x3e2b5333	0.16730957
227	0xbdb1aec0	-0.08675909
228	0xbd26f337	-0.04075929
229	0x3d3f7ee0	0.046751857
230	0x3c9478ff	0.018124102
231	0x3d5b7195	0.053575117
232	0x3d1eb9d9	0.038751457
233	0x3e1fe155	0.15613301
234	0xbd901a63	-0.07036283
235	0xbb53c305	-0.0032312286
236	0x3d8dad3b	0.06917807
237	0xbdbeadc7	-0.09310489
238	0x3d9c710c	0.076387495
239	0x3c82606a	0.015915114
240	0xbe04a365	-0.12952955
241	0x3d958a3b	0.07301756
242	0xbd4b5f31	-0.04965133
243	0x3dfe085c	0.12403938
244	0x3d6068c7	0.054787423
245	0x3dc1d2de	0.09464048
246	0xbc6ad93e	-0.014334021
247	0x3e261a42	0.16220954
248	0x3db0dd11	0.08635915
249	0xbce0f67b	-0.027461281
250	0xbd4cb663	-0.049978625
251	0x3bf84578	0.0075766407
252	0x3caf80cb	0.021423718
253	0x3d2d415f	0.04229867
254	0xbd20afe9	-0.03923026
255	0x3e22d340	0.15900898

gru.bias_ih_l0 f4 [192]
0	0x3a610309	0.0008583521
1	0xbadab94d	-0.0016687304
2	0x3a37a605	0.0007005635
3	0xba8e860a	-0.0010873687
4	0x3c3de9d7	0.011591396
5	0x3b83a041	0.0040169065
6	0xbb5e5e1c	-0.0033930605
7	0x3ad7a02e	0.0016450936
8	0xbb0b2e02	-0.002123714
9	0x3ac99dde	0.0015382131
10	0x3c53eb5a	0.01293453
11	0x3a04e0b1	0.0005068882
12	0xbbd58d66	-0.0065171
13	0x3bebe16d	0.0071985037
14	0x3c7d3742	0.015455069
15	0x3c50910a	0.0127298925
16	0x3c639a61	0.013891787
17	0x3ba273b5	0.004957641
18	0x3b8d6c28	0.0043158717
19	0x3d07f2ee	0.03319066
20	0x3bcec05c	0.006309552
21	0xba9946b4	-0.0011694045
22	0xb994204d	-0.00028252826
23	0x3b942cc5	0.0045219385
24	0x3bcdfd31	0.0062862863
25	0x3d032a39	0.03202269
26	0x3c779d02	0.015113117
27	0x3cb64d62	0.022253696
28	0x3d03220f	0.032014903
29	0x3a74a0fa	0.00093318487
30	0xbb34c96b	-0.0027585875
31	0x3c3a6f2c	0.0113790445
32	0xbb2fb3e8	-0.0026810113
33	0x3c0e2121	0.008674891
34	0xb9fd0cc7	-0.0004826544
35	0x3bef3bb3	0.007300818
36	0x3cee23ef	0.029069869
37	0xbb60b0e6	-0.0034285127
38	0x3c83bb6c	0.01608058
39	0x3ba18c63	0.0049300655
40	0x3c160f13	0.009158867
41	0x39365ec3	0.00017392174
42	0x3a815b60	0.0009869151
43	0x3c8dc364	0.017305084
44	0xba879c9e	-0.0010346358
45	0x3a82e92d	0.0009987705
46	0x3c3f9ba7	0.011694825
47	0xb9b5693d	-0.0003460142
48	0x3b55152a	0.0032513835
49	0x3c217092	0.009853499
50	0xbbb4c252	-0.005516329
51	0xbbce49bf	-0.0062954123
52	0xbb4657bd	-0.0030264698
53	0x3bf1f6d4	0.0073841605
54	0x3ca81e6d	0.02052232
55	0xbb9a429c	-0.0047076475
56	0x3b5b73ff	0.0033485887
57	0x3c1e6038	0.009666495
58	0x3b6f8602	0.003654838
59	0x3c48cdb1	0.012256072
60	0x3cc012b8	0.023446426
61	0x3c6575fb	0.0140051795
62	0xbcb78806	-0.022403728
63	0x39d4b6e6	0.0004057206
64	0x3c8f3007	0.017478956
65	0xbaf1934c	-0.0018430739
66	0x3c8833af	0.016626207
67	0xbc55422d	-0.013016266
68	0xbc574beb	-0.013140659
69	0xbc0e48ba	-0.008684332
70	0x39c170a0	0.0003689574
71	0xbcac42b7	-0.021027906
72	0x3c885aa4	0.016644783
73	0xbb1b61a8	-0.002370933
74	0xbc91f85d	-0.017818624
75	0x3c32a63f	0.010903894
76	0x3c9166e2	0.017749254
77	0xba88de6b	-0.0010442262
78	0x3cfe962b	0.031077465
79	0x3cc0df8e	0.0235441
80	0x3bc78f88	0.0060901083
81	0xbc439bfa	-0.011939043
82	0x3c5c1984	0.013433818
83	0x3d18953a	0.03725169
84	0xbc828e07	-0.015936865
85	0x3c540fab	0.012943189
86	0x3d3e367a	0.04643867
87	0xba85ef38	-0.0010218387
88	0xba305d95	-0.0006727812
89	0x3ca6a3ab	0.020341715
90	0xbce944a5	-0.028475115
91	0x3d2a70ed	0.0416116
92	0x3bf9ab3d	0.00761929
93	0x3c4947ee	0.012285216
94	0x3ba5a5eb	0.0050551794
95	0xbd14a90e	-0.036294036
96	0x3a45e201	0.0007548631
97	0x3c9e5f39	0.019332515
98	0x3cb026d8	0.021502897
99	0xbcd2bff3	-0.025726294
100	0x3c2be3ed	0.010491353
101	0x3ced780f	0.028987912
102	0x3ca1153e	0.01966345
103	0x3cb11fb1	0.021621557
104	0x3d1fc315	0.039004404
105	0x3ce6a13b	0.028153053
106	0x3c9646d1	0.018344315
107	0xbcc5b8e7	-0.02413602
108	0xbca53044	-0.020164616
109	0x3c200944	0.009767834
110	0xbc2cd936	-0.010549834
111	0xb85cfeed	-5.2689506e-05
112	0x3c8228cb	0.015888592
113	0xbc90c60a	-0.017672557
114	0x3b509e33	0.0031832575
115	0x3cec8666	0.02887268
116	0x3c56d6fc	0.01311278
117	0xbb8576c0	-0.004072994
118	0x3bead768	0.0071667917
119	0xbbfa0f0a	-0.0076311873
120	0x3c0956d0	0.008382514
121	0x382ec66e	4.1669635e-05
122	0x3c053bf8	0.008131973
123	0x3c98d341	0.018655421
124	0xbc6646ef	-0.014054998
125	0x3cc84fc7	0.024452103
126	0x3be406f5	0.006958837
127	0x3ca75fb7	0.020431383
128	0x3c42cbdf	0.011889427
129	0x3c01266d	0.007882697
130	0x3b6295e8	0.0034574214
131	0x3b924556	0.004463832
132	0xbb077323	-0.0020667992
133	0xbc0011c8	-0.007816739
134	0xbaf53a25	-0.0018709345
135	0x3ad30164	0.0016098437
136	0x3bbbfae1	0.005736694
137	0x3bc5ba5c	0.0060341787
138	0x3a4db981	0.00078477716
139	0x3a774b4a	0.0009433521
140	0xbc044026	-0.008071935
141	0xba2ccf13	-0.0006592136
142	0xbbb3be7f	-0.0054853554
143	0x3b30fb1d	0.0027005144
144	0xbc146306	-0.009056812
145	0x3a3854ec	0.00070316973
146	0x3a99f76b	0.001174671
147	0xbbce07c3	-0.0062875464
148	0xbb020827	-0.0019841285
149	0xbc1f19f3	-0.009710777
150	0x3a9a7405	0.0011783844
151	0x3b9a02db	0.0047000474
152	0x3bba9553	0.0056940704
153	0x3bbde516	0.0057951314
154	0x3c41901d	0.011814144
155	0xbc0eb687	-0.00871051
156	0xba8e6bef	-0.0010865907
157	0xbac80ea6	-0.0015263155
158	0x3b87adbb	0.0041405833
159	0x3c133e74	0.008987058
160	0xbbb7da0f	-0.0056107114
161	0x3bb0cc3a	0.0053954395
162	0x3b6d255a	0.0036185593
163	0xbc409c05	-0.011755948
164	0xbb3d6761	-0.002890073
165	0xbc158067	-0.009124852
166	0xbc05de5b	-0.008170689
167	0xbb9b4b07	-0.0047391686
168	0x3c0a3ee2	0.008437844
169	0x3b4fa765	0.0031685468
170	0x3c3c252c	0.011483472
171	0x3c2c32df	0.0105101755
172	0xbc0088e7	-0.00784514
173	0xbc1a5809	-0.009420403
174	0x3b8367d9	0.0040101823
175	0xb998adf2	-0.000291213
176	0xbb95ea09	-0.0045750183
177	0xbc082f74	-0.008312095
178	0x3c12b686	0.00895465
179	0x3b553a1e	0.0032535861
180	0x3b8d98c9	0.004321192
181	0x3be8f965	0.0071098083
182	0x3961b59b	0.00021525325
183	0xbbd42934	-0.0064746384
184	0xbb14e3e7	-0.0022718848
185	0xbb1245ab	-0.0022319357
186	0x3a40560d	0.00073370413
187	0x3b7997c1	0.0038084837
188	0xbc1c36b9	-0.009534531
189	0xbbc3c11f	-0.0059739496
190	0xbb2dda53	-0.0026527836
191	0xb9bfe233	-0.0003659889

gru.bias_hh_l0 f4 [192]
0	0x3a610309	0.0008583521
1	0xbadab94d	-0.0016687304
2	0x3a37a605	0.0007005635
3	0xba8e860a	-0.0010873687
4	0x3c3de9d7	0.011591396
5	0x3b83a041	0.0040169065
6	0xbb5e5e1c	-0.0033930605
7	0x3ad7a02e	0.0016450936
8	0xbb0b2e02	-0.002123714
9	0x3ac99dde	0.0015382131
10	0x3c53eb5a	0.01293453
11	0x3a04e0b1	0.0005068882
12	0xbbd58d66	-0.0065171
13	0x3bebe16d	0.0071985037
14	0x3c7d3742	0.015455069
15	0x3c50910a	0.0127298925
16	0x3c639a61	0.013891787
17	0x3ba273b5	0.004957641
18	0x3b8d6c28	0.0043158717
19	0x3d07f2ee	0.03319066
20	0x3bcec05c	0.006309552
21	0xba9946b4	-0.0011694045
22	0xb994204d	-0.00028252826
23	0x3b942cc5	0.0045219385
24	0x3bcdfd31	0.0062862863
25	0x3d032a39	0.03202269
26	0x3c779d02	0.015113117
27	0x3cb64d62	0.022253696
28	0x3d03220f	0.032014903
29	0x3a74a0fa	0.00093318487
30	0xbb34c96b	-0.0027585875
31	0x3c3a6f2c	0.0113790445
32	0xbb2fb3e8	-0.0026810113
33	0x3c0e2121	0.008674891
34	0xb9fd0cc7	-0.0004826544
35	0x3bef3bb3	0.007300818
36	0x3cee23ef	0.029069869
37	0xbb60b0e6	-0.0034285127
38	0x3c83bb6c	0.01608058
39	0x3ba18c63	0.0049300655
40	0x3c160f13	0.009158867
41	0x39365ec3	0.00017392174
42	0x3a815b60	0.0009869151
43	0x3c8dc364	0.017305084
44	0xba879c9e	-0.0010346358
45	0x3a82e92d	0.0009987705
46	0x3c3f9ba7	0.011694825
47	0xb9b5693d	-0.0003460142
48	0x3b55152a	0.0032513835
49	0x3c217092	0.009853499
50	0xbbb4c252	-0.005516329
51	0xbbce49bf	-0.0062954123
52	0xbb4657bd	-0.0030264698
53	0x3bf1f6d4	0.0073841605
54	0x3ca81e6d	0.02052232
55	0xbb9a429c	-0.0047076475
56	0x3b5b73ff	0.0033485887
57	0x3c1e6038	0.009666495
58	0x3b6f8602	0.003654838
59	0x3c48cdb1	0.012256072
60	0x3cc012b8	0.023446426
61	0x3c6575fb	0.0140051795
62	0xbcb78806	-0.022403728
63	0x39d4b6e6	0.0004057206
64	0x3c8f3007	0.017478956
65	0xbaf1934c	-0.0018430739
66	0x3c8833af	0.016626207
67	0xbc55422d	-0.013016266
68	0xbc574beb	-0.013140659
69	0xbc0e48ba	-0.008684332
70	0x39c170a0	0.0003689574
71	0xbcac42b7	-0.021027906
72	0x3c885aa4	0.016644783
73	0xbb1b61a8	-0.002370933
74	0xbc91f85d	-0.017818624
75	0x3c32a63f	0.010903894
76	0x3c9166e2	0.017749254
77	0xba88de6b	-0.0010442262
78	0x3cfe962b	0.031077465
79	0x3cc0df8e	0.0235441
80	0x3bc78f88	0.0060901083
81	0xbc439bfa	-0.011939043
82	0x3c5c1984	0.013433818
83	0x3d18953a	0.03725169
84	0xbc828e07	-0.015936865
85	0x3c540fab	0.012943189
86	0x3d3e367a	0.04643867
87	0xba85ef38	-0.0010218387
88	0xba305d95	-0.0006727812
89	0x3ca6a3ab	0.020341715
90	0xbce944a5	-0.028475115
91	0x3d2a70ed	0.0416116
92	0x3bf9ab3d	0.00761929
93	0x3c4947ee	0.012285216
94	0x3ba5a5eb	0.0050551794
95	0xbd14a90e	-0.036294036
96	0x3a45e201	0.0007548631
97	0x3c9e5f39	0.019332515
98	0x3cb026d8	0.021502897
99	0xbcd2bff3	-0.025726294
100	0x3c2be3ed	0.010491353
101	0x3ced780f	0.028987912
102	0x3ca1153e	0.01966345
103	0x3cb11fb1	0.021621557
104	0x3d1fc315	0.039004404
105	0x3ce6a13b	0.028153053
106	0x3c9646d1	0.018344315
107	0xbcc5b8e7	-0.02413602
108	0xbca53044	-0.020164616
109	0x3c200944	0.009767834
110	0xbc2cd936	-0.010549834
111	0xb85cfeed	-5.2689506e-05
112	0x3c8228cb	0.015888592
113	0xbc90c60a	-0.017672557
114	0x3b509e33	0.0031832575
115	0x3cec8666	0.02887268
116	0x3c56d6fc	0.01311278
117	0xbb8576c0	-0.004072994
118	0x3bead768	0.0071667917
119	0xbbfa0f0a	-0.0076311873
120	0x3c0956d0	0.008382514
121	0x382ec66e	4.1669635e-05
122	0x3c053bf8	0.008131973
123	0x3c98d341	0.018655421
124	0xbc6646ef	-0.014054998
125	0x3cc84fc7	0.024452103
126	0x3be406f5	0.006958837
127	0x3ca75fb7	0.020431383
128	0x3c4a5c8a	0.012351165
129	0x3c0a6427	0.00844673
130	0x3b7857b3	0.003789407
131	0x3b3bf91f	0.0028682423
132	0xbb11dfd8	-0.0022258665
133	0xbbf633c2	-0.007513494
134	0xbb2f3bea	-0.0026738592
135	0x3a928cb7	0.0011180852
136	0x3bad9c34	0.005298162
137	0x3b9e8526	0.00483765
138	0x3a82eb6e	0.0009988376
139	0x3b06d25e	0.0020572166
140	0xbbffba4d	-0.007804191
141	0xbacfea5b	-0.001586269
142	0xbba5e3e2	-0.005062566
143	0x3ab61746	0.0013892434
144	0xbc162c8e	-0.009165896
145	0x3a2a5a81	0.00064984715
146	0x39972375	0.00028827382
147	0xbbcb2dad	-0.0062005133
148	0xbacebfa6	-0.0015773668
149	0xbc1dad00	-0.009623766
150	0x3af0f119	0.00183824
151	0x3b9f8f7c	0.0048693996
152	0x3bc0c366	0.0058826683
153	0x3bdd89f3	0.0067608296
154	0x3c3e1cff	0.011603593
155	0xbc19c5f0	-0.009385571
156	0xba95954d	-0.0011412293
157	0xbb237306	-0.0024940385
158	0x3b82439c	0.003975345
159	0x3bf95904	0.0076094884
160	0xbbaff7bf	-0.00537011
161	0x3bddc20f	0.0067675184
162	0x3b3c71a5	0.002875426
163	0xbc48d5e2	-0.012258025
164	0xbac2503c	-0.0014824937
165	0xbbfd0ac7	-0.007722232
166	0xbc0c1122	-0.008549007
167	0xbbabad20	-0.005239144
168	0x3c0d586d	0.008627039
169	0x3b2d1fc9	0.002641665
170	0x3c36d47e	0.0111590605
171	0x3c2bf8ab	0.010496299
172	0xbc015844	-0.007894579
173	0xbc2aa31e	-0.010414867
174	0x3b63a398	0.003473496
175	0xba1619ff	-0.00057259196
176	0xbb8cacb0	-0.004293047
177	0xbc0cb3d2	-0.008587794
178	0x3c090040	0.008361876
179	0x3b4772a3	0.003043332
180	0x3b9685a5	0.0045935684
181	0x3be5a4c7	0.0070081684
182	0x39e097ef	0.0004283781
183	0xbbc28baf	-0.0059370617
184	0xbb14a2a5	-0.0022679952
185	0xbb366409	-0.0027830622
186	0x3a5d136b	0.00084333745
187	0x3b6672dd	0.0035163679
188	0xbc11c731	-0.008897589
189	0xbbcebcec	-0.0063091423
190	0xba9c7c27	-0.0011938856
191	0xb9232538	-0.00015558756

gru.weight_ih_l0_reverse f4 [192, 6]
0	0x3e1dff74	0.15429479
1	0xbe105248	-0.14093888
2	0x3e274ff3	0.16339092
3	0x3e16e6b9	0.14736451
4	0x3e4fb9cd	0.20285721
5	0x3d78f422	0.0607797
6	0x3c9b65c7	0.01896943
7	0x3d333b7e	0.043757908
8	0xbc0fd40b	-0.008778582
9	0xbe57c543	-0.21071343
10	0xbe23640d	-0.15956135
11	0xbca94eaf	-0.020667402
12	0xbe2b936b	-0.16755454
13	0xbd4969bd	-0.049173106
14	0xbd49fe13	-0.04931457
15	0x3df6f2c3	0.12058022
16	0xbe6579cd	-0.22409745
17	0x3e46eeb7	0.19427
18	0xbe4ce11a	-0.20007744
19	0xbe78342f	-0.24238656
20	0x3ccf1a14	0.02528099
21	0x3d3d8e26	0.04627814
22	0xbc1c54af	-0.0095416745
23	0x3d4c7f84	0.049926296
24	0xbdaf3b2d	-0.08556209
25	0xbe5cb1b9	-0.21552171
26	0x3e4a7008	0.19769299
27	0x3d94618d	0.07245169
28	0x3e4357c1	0.19076444
29	0x3e44a353	0.19202928
30	0x3db9b6ba	0.090680555
31	0x3e216474	0.15760976
32	0x3e07065e	0.13186023
33	0xbe13d54f	-0.1443684
34	0xbd4f2d07	-0.05058005
35	0xbd8c98d8	-0.0686509
36	0xbda854c9	-0.082192965
37	0xbe46560f	-0.19368766
38	0x3e049780	0.12948418
39	0x3d7e5f29	0.06210247
40	0xbe2b541b	-0.16731302
41	0x3d64124c	0.05568151
42	0xbcb41cbc	-0.021986358
43	0x3dc4dd4b	0.09612521
44	0xbd8fa748	-0.07014328
45	0x3d13b7d2	0.036063977
46	0xbd3ad3fd	-0.045612324
47	0xbda184cf	-0.07886659
48	0xbe35da17	-0.17758976
49	0x3e5d1837	0.21591268
50	0x3e1cd59e	0.15315863
51	0xbe34ee7e	-0.17669103
52	0xbd88c4b3	-0.066781424
53	0xbe56853f	-0.20949267
54	0x3e350a3a	0.17679682
55	0xbe2b8bc0	-0.16752529
56	0x3b2952e0	0.002583675
57	0xbe57b075	-0.21063407
58	0x3dcbeb0c	0.09956941
59	0xbd3236a6	-0.043509148
60	0xbdcc19dc	-0.0996587
61	0x3e31fab4	0.17380792
62	0xbe0899ad	-0.13339873
63	0xbda1f126	-0.079073235
64	0xbdbbd365	-0.0917118
65	0x3e6355d1	0.22200705
66	0xbe025835	-0.12728961
67	0x3dee4767	0.11634713
68	0xbd090bf4	-0.033458665
69	0x3e1aede6	0.15129814
70	0x3e15f9ac	0.14646024
71	0xbe02e345	-0.12782009
72	0xbd9723dc	-0.073798865
73	0x3e16f78a	0.14742866
74	0x3ddded71	0.10836304
75	0x3dfc1998	0.12309569
76	0xbe23a8ce	-0.15982363
77	0x3e4c49b5	0.19949992
78	0xbe8000af	-0.25000522
79	0x3e175a27	0.14780484
80	0x3e3c8a1b	0.18412058
81	0xbbc41549	-0.0059839827
82	0xbe2f1c9e	-0.1710076
83	0xbe685630	-0.22689128
84	0x3c8ac991	0.016941817
85	0xbe803e85	-0.250477
86	0xbe76ceec	-0.24102372
87	0x3d0db753	0.03459866
88	0xbe6e92bb	-0.2329816
89	0x3e6fbca0	0.23411798
90	0xbe66a49e	-0.22523734
91	0xbe7b3a68	-0.24533999
92	0x3dd93a5d	0.10606835
93	0xbdc56bd2	-0.09639706
94	0xbd26c2b5	-0.04071303
95	0x3e399f6f	0.18127225
96	0x3d7f3887	0.062309768
97	0xbbc4616b	-0.0059930584
98	0xbd863701	-0.0655346
99	0xbe58aad2	-0.21158913
100	0x3df23012	0.11825575
101	0x3d254680	0.040350437
102	0x3da8e55a	0.0824687
103	0x3e1fb251	0.15595366
104	0xbdfdf5fc	-0.124004334
105	0xbcf7969e	-0.030223187
106	0x3c8c9e6b	0.017165383
107	0xbdfc9444	-0.12332967
108	0xbd271ef0	-0.04080099
109	0x3dae0f97	0.08499067
110	0xbe6f262b	-0.23354404
111	0x3d0b0ec4	0.03394963
112	0x3d6b11a2	0.057389863
113	0x3e566bec	0.20939606
114	0x3d86da25	0.065845765
115	0x3e161310	0.1465571
116	0xbe337b1b	-0.1752743
117	0xbdb89101	-0.09012032
118	0xbe014207	-0.12622844
119	0xbd52bef3	-0.051451635
120	0x3d402faf	0.046920475
121	0xbd4edcea	-0.05050365
122	0xbe29312d	-0.16522665
123	0x3e6a1135	0.22858126
124	0xbd75e18e	-0.06002956
125	0x3d97c093	0.074097775
126	0xbe2641ed	-0.16236086
127	0x3deb785b	0.11497565
128	0x3d1b6ba4	0.03794445
129	0xbe051314	-0.12995559
130	0xbe71172b	-0.23543994
131	0xbe387027	-0.18011533
132	0xbd625f8a	-0.055266894
133	0x3db6d654	0.089275986
134	0x3e6d7781	0.23190118
135	0xbe68a5ca	-0.22719494
136	0x3e08f569	0.13374867
137	0xbc99206d	-0.01869222
138	0x3e338e13	0.17534666
139	0xbbe8de62	-0.007106588
140	0x3d131a63	0.035913836
141	0xbda2f84b	-0.079575144
142	0xbe5406f5	-0.20705779
143	0xbdb117e3	-0.08647134
144	0xbe50eb80	-0.20402336
145	0x3e256d0e	0.16154882
146	0x3e5560e3	0.2083774
147	0x3dca2222	0.098697916
148	0xbd2d6811	-0.042335574
149	0x3e3b381d	0.18283124
150	0xbd593ed4	-0.053038433
151	0x3e728450	0.23683286
152	0xbc0faf50	-0.008769825
153	0xbdefa717	-0.11701792
154	0xbca8abf8	-0.020589814
155	0xbe127462	-0.14302209
156	0x3d4be177	0.049775567
157	0x3d5a0378	0.053225964
158	0x3db3cb15	0.08778969
159	0xbcd31d94	-0.02577094
160	0xba92dee4	-0.0011205343
161	0xbd302d72	-0.04301209
162	0x3e7c33ba	0.24629107
163	0x3db8dcc1	0.090264805
164	0xbe2cccc1	-0.16874982
165	0x3d3d3124	0.046189442
166	0xbd8e0066	-0.0693367
167	0xbe26a7a3	-0.16274886
168	0x3e06af10	0.13152719
169	0xbe3a018f	-0.18164657
170	0x3d157fa2	0.036498673
171	0xbe0024db	-0.12514059
172	0xbe0b2e0d	-0.13591786
173	0xbe277514	-0.16353256
174	0x3d676c0a	0.05649952
175	0xbe81cbf0	-0.25350904
176	0x3e16dad5	0.14731915
177	0xbd2fe6f5	-0.042944867
178	0x3e31f4da	0.1737856
179	0xbe18e446	-0.1493083
180	0x3e1b7a00	0.15183258
181	0xbda0f6e3	-0.0785959
182	0x3dc3e815	0.095657505
183	0x3e4ea194	0.20178825
184	0x3e498c4b	0.19682424
185	0x3df6f2ab	0.12058004
186	0xbcc5f348	-0.024163857
187	0xbdb60acf	-0.0888878
188	0x3e1b4793	0.15164022
189	0x3b9b36fc	0.0047367793
190	0x3e50f54e	0.20406076
191	0xbe15098b	-0.14554422
192	0x3e2ac5de	0.16677043
193	0xbc56ad55	-0.013102849
194	0x3e2d43fa	0.16920462
195	0x3e0f6250	0.14002347
196	0x3e039c8b	0.12852685
197	0x3e0354e3	0.1282535
198	0xbce8cd01	-0.028418066
199	0x3dffc627	0.124889664
200	0x3d09955e	0.033589713
201	0xbdb41a7a	-0.087941125
202	0x3e592967	0.212072
203	0x3d6c5297	0.05769595
204	0xbe477106	-0.19476709
205	0x3e5a4d5a	0.2131857
206	0xbe22e52d	-0.15907736
207	0xbde0a7a4	-0.10969475
208	0xbe38faaf	-0.18064378
209	0x3da0d370	0.078528285
210	0xbe0fdc8a	-0.14048973
211	0xbdbf0d74	-0.09328738
212	0x3df0e636	0.11762659
213	0xbc6309ec	-0.013857346
214	0xbe4c6210	-0.19959283
215	0xbe1aca70	-0.15116286
216	0xbd89b777	-0.06724446
217	0xbdedc425	-0.11609677
218	0x3e3ad786	0.18246278
219	0xbe223edb	-0.1584429
220	0x3d950147	0.07275634
221	0x3d8b4158	0.06799573
222	0xbe71117c	-0.23541826
223	0x3e58de92	0.21178654
224	0x3e3551a8	0.1770693
225	0x3ca36755	0.019946733
226	0x3cf7cf90	0.03025034
227	0x3cea7430	0.028619856
228	0xbe4fed4c	-0.20305365
229	0x3e2aa5ae	0.16664764
230	0x3e1175d6	0.14205107
231	0x3dab5aa9	0.083669014
232	0xbdb249b7	-0.08705466
233	0x3e10a1b0	0.14124179
234	0x3dabfa40	0.08397341
235	0x3e75e1d9	0.24011935
236	0xbe150e12	-0.14556149
237	0xbd32782a	-0.04357163
238	0x3cbdde4c	0.023177288
239	0xbe04e242	-0.12976936
240	0x3e4ae258	0.19812906
241	0xbe158018	-0.14599645
242	0x3e237159	0.15961207
243	0xbe0d4dcc	-0.13799208
244	0xbe31f987	-0.17380343
245	0xbd0bdd25	-0.034146447
246	0xbe171227	-0.14753018
247	0xbd9b394f	-0.0757929
248	0xbe198360	-0.14991522
249	0x3dc77965	0.09739951
250	0xbe62532b	-0.22102039
251	0xbe1ac729	-0.15115036
252	0x3e3eb9a3	0.18625502
253	0xbe5a83ee	-0.2133939
254	0xbc9cb4e6	-0.019129228
255	0xbd14d8c8	-0.03633955

gru.weight_hh_l0_reverse f4 [192, 64]
0	0x3ddbed42	0.10738613
1	0x3cbe4c81	0.02322984
2	0x3e3e5262	0.18586114
3	0x3d6559c6	0.055993818
4	0xbd042814	-0.032264784
5	0xbc88f062	-0.016716186
6	0x3b6f557e	0.0036519463
7	0x3e015b0a	0.12632385
8	0xbbafa460	-0.005360171
9	0x3ca72c7c	0.020406954
10	0x3b9f7348	0.0048660375
11	0x3c9a9b33	0.018872833
12	0x3d8372ef	0.06418406
13	0xbcbb04ea	-0.022829492
14	0x3dce9c05	0.10088352
15	0xb99d6abc	-0.00030024897
16	0x3e3020b2	0.17199972
17	0xbd82a99b	-0.06380006
18	0x3de24d2b	0.11049875
19	0x3d0773fb	0.033069592
20	0xbdbeeb32	-0.09322204
21	0x3d330e24	0.043714657
22	0x3d2ab028	0.041671902
23	0x3d0510f2	0.032486863
24	0xbe104624	-0.14089257
25	0xbce11329	-0.027474957
26	0xbd23c65e	-0.0399841
27	0x3df0a5c3	0.117503665
28	0x3d791f5b	0.06082092
29	0x3cc87a84	0.024472483
30	0x3d276eda	0.0408772
31	0x3cda3108	0.026634708
32	0xbe3074b1	-0.17232014
33	0xbd212709	-0.039343867
34	0x3d59991f	0.053124543
35	0xbd93c64c	-0.072155565
36	0xbdd98edf	-0.106229536
37	0xbb92d683	-0.004481138
38	0x3e0d2e26	0.13787135
39	0xbd6c3374	-0.057666257
40	0xbcc00607	-0.023440374
41	0x3cac0f9c	0.021003537
42	0x3d2d0978	0.04224536
43	0x3d4295a2	0.047505982
44	0x3c9c4c0d	0.019079233
45	0x3de2e63f	0.11079072
46	0xbb374e4e	-0.0027970257
47	0x3d6320ee	0.055451326
48	0xbd7a7265	-0.06114425
49	0xbd703846	-0.058647417
50	0xbd002344	-0.031283632
51	0xbe027b75	-0.12742408
52	0xbddd392c	-0.1080192
53	0x3c8313f5	0.016000727
54	0x3d2bc584	0.041936412
55	0x3c69a624	0.014260802
56	0xbda0cc7f	-0.078515045
57	0x3c09288a	0.008371482
58	0x3bb6494f	0.0055629383
59	0xbc5dc54c	-0.013535809
60	0x3bcaccfe	0.0061889878
61	0xbcbb99f2	-0.022900555
62	0x3d887e41	0.06664706
63	0xbcd84c4a	-0.026403565
64	0x3ca675a6	0.020319771
65	0x3b4de9b9	0.0031419827
66	0xbc506fc3	-0.012721959
67	0xbbe1279a	-0.006871176
68	0xbd693cfb	-0.05694292
69	0x3e2b78aa	0.16745248
70	0xbda8163a	-0.082073644
71	0xbc9b00b6	-0.018921237
72	0xbd9e3cec	-0.07726464
73	0xbe1191fd	-0.14215846
74	0xbdc89415	-0.097938694
75	0x3c293da5	0.010329639
76	0xbdf253b2	-0.1183237
77	0x3cffd105	0.031227598
78	0xbddd0c3a	-0.10793348
79	0xbb63645b	-0.0034697268
80	0xbc8c1fd4	-0.01710502
81	0x3d68326f	0.056688722
82	0xbd00e651	-0.031469647
83	0xbc79a6a3	-0.015237483
84	0x3dd76f6a	0.105192974
85	0x3cd38077	0.025818093
86	0xbd176927	-0.036965515
87	0x3bff6e4d	0.0077951313
88	0x3d8aeb29	0.067831345
89	0x3d92c6c7	0.0716682
90	0xbc278121	-0.010223658
91	0x3d7d7479	0.061878655
92	0x3dabc353	0.083868645
93	0x3e67e544	0.22646052
94	0x3e0e77c4	0.13912874
95	0x3d420500	0.04736805
96	0xb9852281	-0.00025393444
97	0x3d5874da	0.052845813
98	0xbe0cb5c3	-0.13741212
99	0xbd31a87a	-0.043373562
100	0x3d82a2a2	0.06378676
101	0xbcb44df2	-0.022009823
102	0x3d1ea198	0.038728327
103	0xbd3fc381	-0.046817306
104	0xbbbfd80f	-0.0058546136
105	0x3beaf7dc	0.0071706604
106	0x3d81ff0b	0.06347474
107	0x3ccbf64c	0.024897717
108	0x3dc8e39c	0.09809038
109	0x3c90b397	0.01766376
110	0xbc0e6b82	-0.008692624
111	0xbb8f1605	-0.0043666386
112	0xbb3061ec	-0.0026913835
113	0xbd9b1230	-0.07571828
114	0xbd286f40	-0.04112172
115	0x3db94038	0.09045452
116	0xbdfe3365	-0.124121465
117	0xbc3d6320	-0.011559278
118	0xbd5e69b0	-0.05430001
119	0xbd777eb2	-0.06042356
120	0x3d9644d5	0.073373474
121	0xbc23f096	-0.010006091
122	0xbc8e99f3	-0.017407393
123	0xbd9ba104	-0.07599071
124	0x3ddf23b3	0.10895481
125	0x3ca53a27	0.02016933
126	0x3c0bf3bc	0.0085419975
127	0xbd4b7269	-0.049669657
128	0x3baa017f	0.0051881666
129	0xbd01bf9f	-0.031676885
130	0xbddaec07	-0.1068955
131	0xbdc6eaad	-0.097127296
132	0x3ce87b69	0.028379159
133	0xbe09c86b	-0.1345536
134	0xbd3eaf31	-0.046553794
135	0x3d826a5d	0.063679434
136	0x3dd6bbaa	0.10485013
137	0xbe2b1e18	-0.16710699
138	0xbbce90a7	-0.006303865
139	0x3d0f71ed	0.035020757
140	0x3d10eda3	0.035382878
141	0x3d3b413d	0.045716513
142	0x3cb6d37a	0.022317637
143	0xbb253a88	-0.002521189
144	0xbe0194d6	-0.12654433
145	0xbc6c0f99	-0.014408016
146	0x3dd79f3c	0.105284184
147	0x3d99dbbf	0.07512616
148	0xba68483f	-0.0008860863
149	0xbcdece80	-0.027198076
150	0x3ce94786	0.028476488
151	0xbcff4e85	-0.03116537
152	0xbda04a11	-0.07826627
153	0x3da7307e	0.08163546
154	0x3d5a05fe	0.05322837
155	0x3d44edc3	0.04807831
156	0x3c091730	0.008367345
157	0x3d3363bd	0.04379629
158	0xbe067d79	-0.13133802
159	0x3e43403e	0.19067475
160	0x3d15252c	0.036412403
161	0xb993a9a4	-0.00028164417
162	0x3c488592	0.012238877
163	0xbc4ee9ee	-0.012629015
164	0xbe265b63	-0.16245799
165	0xbd2e393f	-0.042535063
166	0xbdc5ce9e	-0.0965855
167	0x3d94f348	0.07272965
168	0x3d8b568c	0.06803617
169	0xbd902f70	-0.07040298
170	0x3d0e1353	0.034686398
171	0xbd911a3b	-0.07085081
172	0x3d9fabbc	0.077964276
173	0xbbde0b36	-0.006776239
174	0x3c8daeee	0.017295327
175	0xbdb1e0ab	-0.0868543
176	0xbd939833	-0.07206764
177	0x3d89b0a7	0.06723147
178	0x3dffde75	0.12493602
179	0x3c028740	0.007966816
180	0x3dc83d4d	0.09777317
181	0xbcdb7bfd	-0.02679252
182	0xbc2561d2	-0.010094123
183	0x3e131c5e	0.1436629
184	0xbc954799	-0.018222617
185	0x3dc1a0b6	0.09454481
186	0x3bd8589f	0.0066023613
187	0x3e265bd3	0.16245966
188	0x3d860a0d	0.06544886
189	0xbd1fb38d	-0.038989592
190	0xbe04bcee	-0.12962696
191	0xbcd439a9	-0.0259064
192	0x3c9950e5	0.018715331
193	0xbdba9b38	-0.09111637
194	0xbcaf705f	-0.021415887
195	0xbdf5d614	-0.12003723
196	0xbd72cdc0	-0.05927825
197	0xb98157ec	-0.00024670304
198	0x3dae8ad6	0.085225746
199	0x3ca886d6	0.020572107
200	0xbd87277f	-0.0659933
201	0x3ceaeb8f	0.028676776
202	0xbd6a4efb	-0.057204228
203	0xbd9fdb96	-0.078055546
204	0x3d2269d4	0.039651707
205	0x3d4f0815	0.050544817
206	0xbd463762	-0.04839266
207	0xbcd5aefb	-0.026084414
208	0xbe024bfc	-0.12724298
209	0xbd8fea46	-0.07027106
210	0x3de56a80	0.11201954
211	0xbdaf4a9e	-0.08559154
212	0xbcda8d3c	-0.026678674
213	0xbdedc3cc	-0.11609611
214	0x3ca8312f	0.020531265
215	0xbb26b9ed	-0.002544041
216	0x3d80ef7f	0.0629568
217	0xbc526a6f	-0.012842759
218	0xbcb58032	-0.022155855
219	0xbd6d4314	-0.0579253
220	0x3a215dc0	0.00061556324
221	0xbdbb0121	-0.09131075
222	0xbde6d35d	-0.11270783
223	0xbd7ee298	-0.062227815
224	0x3d147fbb	0.036254626
225	0x3d5e0068	0.054199606
226	0x3c71c39c	0.01475611
227	0xbd880df7	-0.066432886
228	0xbc862478	-0.016374812
229	0x3c1cd6f9	0.009572738
230	0x3dcc5a4f	0.099781625
231	0x3d48d1eb	0.04902832
232	0xbd2967b4	-0.041358665
233	0x3caff84d	0.021480704
234	0xbd2f8292	-0.04284913
235	0x3b390c79	0.0028236194
236	0x3da3580f	0.0797578
237	0xbc89db3e	-0.016828176
238	0x3d68d254	0.05684121
239	0x3e236962	0.15958169
240	0x3d0faeb9	0.035078738
241	0xbcc99532	-0.024607275
242	0xbdc6617d	-0.09686563
243	0x3c36b6b6	0.01115196
244	0xbc9b6201	-0.01896763
245	0xbd0619d9	-0.032739494
246	0xbda26c09	-0.07930762
247	0x3db56c64	0.088585645
248	0xbe08ae14	-0.13347656
249	0xbdd03a4d	-0.1016737
250	0x3c972625	0.018450806
251	0x3d093e7a	0.033506848
252	0x3acaffaa	0.0015487571
253	0xbda2adad	-0.07943282
254	0x3b554d5d	0.0032547333
255	0xbd46763a	-0.048452593

gru.bias_ih_l0_reverse f4 [192]
0	0x3bf7c3ad	0.007561168
1	0xbc5b808a	-0.013397345
2	0x3c72184c	0.014776301
3	0x3ab26032	0.0013608991
4	0x3c2a5844	0.010397021
5	0xbb5327d7	-0.0032219791
6	0x3baf180d	0.0053434432
7	0x3bc729b6	0.0060779704
8	0x3c37fbc6	0.011229461
9	0x3b87b514	0.0041414592
10	0x3b46f099	0.003035581
11	0xbb7681eb	-0.0037614058
12	0x3b9f6d38	0.004865315
13	0x3c2fadee	0.01072262
14	0x3c3ef141	0.011654199
15	0xbb9e7399	-0.0048355577
16	0x3b0c6d09	0.0021427295
17	0x3b106df6	0.0022038198
18	0x3bb81d6c	0.0056187417
19	0xbbb9d0b8	-0.005670633
20	0x3b01a40d	0.001978162
21	0x3c124e1c	0.008929756
22	0x3c774e20	0.01509431
23	0x3ba57977	0.00504988
24	0xbaac0bb5	-0.0013126048
25	0x3c81895b	0.015812567
26	0x3901f41f	0.00012393341
27	0xbb428ecf	-0.0029687171
28	0x3c9d4049	0.019195693
29	0x3c210ad5	0.009829243
30	0x3c3f81e4	0.011688683
31	0x3b223399	0.0024749993
32	0x3c048473	0.008088219
33	0x3bdcc030	0.0067367777
34	0x3c148016	0.009063741
35	0x3ad0637f	0.0015898793
36	0xbb736c45	-0.003714339
37	0x3b0e1e4c	0.0021685539
38	0x3bf1311d	0.007360591
39	0x3c80fea7	0.015746428
40	0x3b9524fe	0.004551529
41	0xbaefe45b	-0.0018302308
42	0x3c28d549	0.010304757
43	0xba1aff24	-0.00059126527
44	0xbc2c497f	-0.01051557
45	0xbaef953a	-0.0018278726
46	0x3b43adbc	0.0029858192
47	0x3c094a12	0.008379476
48	0x3b4d3efe	0.0031318064
49	0x3be233f7	0.0069031673
50	0xba15452e	-0.00056942075
51	0x3cd5828d	0.026063228
52	0x3bf5f8fe	0.007506489
53	0x3baaf7a7	0.0052175107
54	0xbaab62ef	-0.0013075749
55	0x3bb18ab1	0.0054181446
56	0x3c81edb5	0.015860418
57	0x3c196cad	0.009364289
58	0x3b4a46c5	0.0030864936
59	0x3c269ca7	0.010169185
60	0xbbb9ef68	-0.0056742914
61	0x3c0c4fe3	0.008563968
62	0x3c941ce4	0.018080182
63	0x39dd3529	0.00042192012
64	0xbd03b1dc	-0.03215204
65	0xbbce73c9	-0.0063004238
66	0xbc92be99	-0.01791315
67	0x3bf17259	0.0073683676
68	0x3b205541	0.0024464878
69	0x3c958544	0.018252023
70	0xbc853a32	-0.016263101
71	0xbc5177b4	-0.012784887
72	0x3d1fc7cd	0.039008904
73	0x3cecb94b	0.028896948
74	0x3cbd226f	0.023087708
75	0x3c2130b4	0.009838272
76	0x3c126e8a	0.008937487
77	0xbba45fa1	-0.0050162827
78	0x3ca92e83	0.020652061
79	0xbc726a2b	-0.01479582
80	0xbbde67b8	-0.0067872666
81	0x3c133d79	0.008986824
82	0x3c788e22	0.015170606
83	0xbb967d52	-0.004592576
84	0xbb67a86e	-0.0035348195
85	0x3c9e0ae1	0.019292297
86	0x3bd74ae1	0.0065702056
87	0xbc2d99a4	-0.010595713
88	0xbc95951e	-0.018259581
89	0x3b4216f1	0.0029615725
90	0x3cb866bb	0.022509923
91	0x3d046536	0.032323085
92	0x3b8934ce	0.004187203
93	0x3993a762	0.00028162735
94	0xbc30cb55	-0.010790666
95	0xbcd6fd49	-0.026243823
96	0xbc31364c	-0.010816168
97	0xbc21d0a5	-0.009876405
98	0x3c84007e	0.016113516
99	0xbc8fadad	-0.01753887
100	0x3c692cde	0.014231889
101	0xbccf88d0	-0.025333792
102	0x3c6034eb	0.013684492
103	0x3c673590	0.014111891
104	0xbbf72c2b	-0.007543107
105	0xbc8de1b2	-0.017319534
106	0xbc55eeda	-0.013057435
107	0x3b9b8975	0.0047466108
108	0x3cb0f3c2	0.021600608
109	0x3d4d4c61	0.05012167
110	0x3c83f0fa	0.016106118
111	0x3c977fa7	0.018493487
112	0x3c85ac0c	0.01631739
113	0xbc14488f	-0.009050502
114	0xbc946fe1	-0.018119754
115	0x3d175554	0.03694661
116	0x3825537c	3.9416816e-05
117	0x3c3794d0	0.011204913
118	0xbb2cc64b	-0.002636331
119	0xbcb5a99e	-0.022175606
120	0xb9fa9242	-0.00047792686
121	0xbc5b03f8	-0.013367645
122	0xbc953f58	-0.018218681
123	0xbd0abd9b	-0.033872228
124	0xbbbf6e88	-0.005842034
125	0x3bd27461	0.006422565
126	0xbb367cf9	-0.0027845486
127	0xbb0715e1	-0.0020612406
128	0xbb58a08e	-0.0033054682
129	0x38605d73	5.3492793e-05
130	0xbc39547a	-0.011311645
131	0xb9e6df50	-0.000440354
132	0x3b06f77a	0.0020594285
133	0x3c001750	0.007818058
134	0x3bc9a94a	0.006154214
135	0xba6bbedf	-0.00089929806
136	0xbc2d374c	-0.010572266
137	0x3aef8c20	0.0018276013
138	0x3baac63a	0.0052116187
139	0xb9c785b9	-0.0003805587
140	0x3992249a	0.0002787456
141	0xbb6fd736	-0.0036596782
142	0xbbe9fe45	-0.007140907
143	0x3b9a0000	0.004699707
144	0xbb04cc4a	-0.0020263367
145	0xbbe0f6b0	-0.006865345
146	0x3b4da336	0.00313778
147	0xba050784	-0.0005074667
148	0x3a5f4e0f	0.00085184065
149	0x3ba6317d	0.0050718174
150	0xbaa230a1	-0.0012374112
151	0x38edca16	0.00011338682
152	0x3c415e53	0.011802274
153	0xbbbd8c68	-0.00578456
154	0xbb589946	-0.0033050342
155	0x3be309d3	0.0069286614
156	0x3c6bda30	0.014395282
157	0x3b1bc9ec	0.0023771478
158	0xbc40b7e1	-0.01176259
159	0xba711d62	-0.0009197799
160	0xb918c377	-0.00014568666
161	0x3bcccc96	0.0062499745
162	0x3bceacdc	0.0063072275
163	0x3bd51509	0.0065027517
164	0x3addd063	0.0016923066
165	0x3a503a21	0.0007943232
166	0x3c46c895	0.012132783
167	0x3b241af9	0.002504049
168	0xbb5ef6b1	-0.0034021551
169	0xbb38f95f	-0.0028224809
170	0xbbd0867f	-0.0063636894
171	0x3b77de69	0.0037821776
172	0xba3505f6	-0.00069054903
173	0x3c0be4b5	0.008538415
174	0xbbf3c6a7	-0.0074394527
175	0x3ae29494	0.0017286711
176	0xb917a61f	-0.00014462367
177	0x3ba3b63d	0.0049960897
178	0xbb1b05d8	-0.0023654606
179	0x3c28ba1f	0.010298281
180	0xbba5271e	-0.0050400635
181	0xbbb985e0	-0.005661711
182	0x381b8f14	3.708813e-05
183	0x3c3e01fa	0.011597151
184	0xbc4390a3	-0.01193634
185	0xba808008	-0.0009803781
186	0xbc0e1861	-0.008672805
187	0xbbc5141d	-0.0060143606
188	0xbbcba71c	-0.0062149893
189	0xbbf9ef08	-0.0076273717
190	0xbbf7bada	-0.0075601162
191	0xbaddae05	-0.0016912824

gru.bias_hh_l0_reverse f4 [192]
0	0x3bf7c3ad	0.007561168
1	0xbc5b808a	-0.013397345
2	0x3c72184c	0.014776301
3	0x3ab26032	0.0013608991
4	0x3c2a5844	0.010397021
5	0xbb5327d7	-0.0032219791
6	0x3baf180d	0.0053434432
7	0x3bc729b6	0.0060779704
8	0x3c37fbc6	0.011229461
9	0x3b87b514	0.0041414592
10	0x3b46f099	0.003035581
11	0xbb7681eb	-0.0037614058
12	0x3b9f6d38	0.004865315
13	0x3c2fadee	0.01072262
14	0x3c3ef141	0.011654199
15	0xbb9e7399	-0.0048355577
16	0x3b0c6d09	0.0021427295
17	0x3b106df6	0.0022038198
18	0x3bb81d6c	0.0056187417
19	0xbbb9d0b8	-0.005670633
20	0x3b01a40d	0.001978162
21	0x3c124e1c	0.008929756
22	0x3c774e20	0.01509431
23	0x3ba57977	0.00504988
24	0xbaac0bb5	-0.0013126048
25	0x3c81895b	0.015812567
26	0x3901f41f	0.00012393341
27	0xbb428ecf	-0.0029687171
28	0x3c9d4049	0.019195693
29	0x3c210ad5	0.009829243
30	0x3c3f81e4	0.011688683
31	0x3b223399	0.0024749993
32	0x3c048473	0.008088219
33	0x3bdcc030	0.0067367777
34	0x3c148016	0.009063741
35	0x3ad0637f	0.0015898793
36	0xbb736c45	-0.003714339
37	0x3b0e1e4c	0.0021685539
38	0x3bf1311d	0.007360591
39	0x3c80fea7	0.015746428
40	0x3b9524fe	0.004551529
41	0xbaefe45b	-0.0018302308
42	0x3c28d549	0.010304757
43	0xba1aff24	-0.00059126527
44	0xbc2c497f	-0.01051557
45	0xbaef953a	-0.0018278726
46	0x3b43adbc	0.0029858192
47	0x3c094a12	0.008379476
48	0x3b4d3efe	0.0031318064
49	0x3be233f7	0.0069031673
50	0xba15452e	-0.00056942075
51	0x3cd5828d	0.026063228
52	0x3bf5f8fe	0.007506489
53	0x3baaf7a7	0.0052175107
54	0xbaab62ef	-0.0013075749
55	0x3bb18ab1	0.0054181446
56	0x3c81edb5	0.015860418
57	0x3c196cad	0.009364289
58	0x3b4a46c5	0.0030864936
59	0x3c269ca7	0.010169185
60	0xbbb9ef68	-0.0056742914
61	0x3c0c4fe3	0.008563968
62	0x3c941ce4	0.018080182
63	0x39dd3529	0.00042192012
64	0xbd03b1dc	-0.03215204
65	0xbbce73c9	-0.0063004238
66	0xbc92be99	-0.01791315
67	0x3bf17259	0.0073683676
68	0x3b205541	0.0024464878
69	0x3c958544	0.018252023
70	0xbc853a32	-0.016263101
71	0xbc5177b4	-0.012784887
72	0x3d1fc7cd	0.039008904
73	0x3cecb94b	0.028896948
74	0x3cbd226f	0.023087708
75	0x3c2130b4	0.009838272
76	0x3c126e8a	0.008937487
77	0xbba45fa1	-0.0050162827
78	0x3ca92e83	0.020652061
79	0xbc726a2b	-0.01479582
80	0xbbde67b8	-0.0067872666
81	0x3c133d79	0.008986824
82	0x3c788e22	0.015170606
83	0xbb967d52	-0.004592576
84	0xbb67a86e	-0.0035348195
85	0x3c9e0ae1	0.019292297
86	0x3bd74ae1	0.0065702056
87	0xbc2d99a4	-0.010595713
88	0xbc95951e	-0.018259581
89	0x3b4216f1	0.0029615725
90	0x3cb866bb	0.022509923
91	0x3d046536	0.032323085
92	0x3b8934ce	0.004187203
93	0x3993a762	0.00028162735
94	0xbc30cb55	-0.010790666
95	0xbcd6fd49	-0.026243823
96	0xbc31364c	-0.010816168
97	0xbc21d0a5	-0.009876405
98	0x3c84007e	0.016113516
99	0xbc8fadad	-0.01753887
100	0x3c692cde	0.014231889
101	0xbccf88d0	-0.025333792
102	0x3c6034eb	0.013684492
103	0x3c673590	0.014111891
104	0xbbf72c2b	-0.007543107
105	0xbc8de1b2	-0.017319534
106	0xbc55eeda	-0.013057435
107	0x3b9b8975	0.0047466108
108	0x3cb0f3c2	0.021600608
109	0x3d4d4c61	0.05012167
110	0x3c83f0fa	0.016106118
111	0x3c977fa7	0.018493487
112	0x3c85ac0c	0.01631739
113	0xbc14488f	-0.009050502
114	0xbc946fe1	-0.018119754
115	0x3d175554	0.03694661
116	0x3825537c	3.9416816e-05
117	0x3c3794d0	0.011204913
118	0xbb2cc64b	-0.002636331
119	0xbcb5a99e	-0.022175606
120	0xb9fa9242	-0.00047792686
121	0xbc5b03f8	-0.013367645
122	0xbc953f58	-0.018218681
123	0xbd0abd9b	-0.033872228
124	0xbbbf6e88	-0.005842034
125	0x3bd27461	0.006422565
126	0xbb367cf9	-0.0027845486
127	0xbb0715e1	-0.0020612406
128	0xbb543541	-0.0032380375
129	0x38e158b6	0.0001074536
130	0xbc173956	-0.009229979
131	0xba68f6be	-0.0008886865
132	0x3b1dc126	0.0024071424
133	0x3bd7940e	0.006578929
134	0x3bbfaf00	0.005849719
135	0xba7debda	-0.00096863287
136	0xbc416b7a	-0.01180541
137	0x3aa0f943	0.0012281317
138	0x3ba9b97e	0.005179583
139	0xba543200	-0.0008094609
140	0x3a2d30ae	0.000660668
141	0xbb99c1f9	-0.004692313
142	0xbc00fc24	-0.007872615
143	0x3b8ef909	0.0043631834
144	0xba97ed07	-0.0011591025
145	0xbbaf5f76	-0.005351956
146	0x3b414105	0.0029488218
147	0xb9b7793b	-0.00034994804
148	0x3b12e501	0.002241433
149	0x3b9d2831	0.004796051
150	0xba82d95d	-0.0009982992
151	0x3a37155a	0.00069840776
152	0x3c3b390b	0.011427174
153	0xbba62e76	-0.0050714565
154	0xbb5dead7	-0.00338619
155	0x3be2203b	0.006900815
156	0x3c6abda9	0.014327445
157	0x3ac2cef1	0.0014862699
158	0xbc41aa9c	-0.011820462
159	0xbaab0e00	-0.0013050437
160	0xb9c00da7	-0.00036631266
161	0x3bedce76	0.007257278
162	0x3bec4ebf	0.0072115357
163	0x3bd32902	0.0064440975
164	0x3aca642c	0.001544123
165	0x3a7e3ca2	0.0009698366
166	0x3c350650	0.011048868
167	0x3b8029b2	0.0039112205
168	0xbb8a42c0	-0.004219383
169	0xbb331e51	-0.0027331302
170	0xbbc748b2	-0.006081664
171	0x3b57f952	0.0032955003
172	0x3a6a41e4	0.000893621
173	0x3c081067	0.008304692
174	0xbc008f1d	-0.007846621
175	0x3ad6c96d	0.0016386934
176	0xba8db7e8	-0.0010812255
177	0x3ba903ca	0.0051579224
178	0xbb10e8f1	-0.00221115
179	0x3c3336ee	0.010938389
180	0xbba73ed9	-0.0051039276
181	0xbbbef584	-0.0058276076
182	0xb894c188	-7.093238e-05
183	0x3c45f051	0.012081222
184	0xbc51cbc7	-0.012804932
185	0xbadbe3f6	-0.0016776312
186	0xbc0b0a35	-0.00848632
187	0xbbc18892	-0.005906173
188	0xbbd33585	-0.006445589
189	0xbbf2a32a	-0.0074047046
190	0xbbd7cfe0	-0.00658606
191	0xbb03e095	-0.0020122875
