results/training/llama-3-70b_a100_tp8/model_tp8_H64_biGRU.pt (torch, 482669 bytes, 22 tensors)

in_norm.weight f4 [6]
000000 0d 7c 82 3f 97 77 83 3f 1b 1a 82 3f 97 ee 80 3f
       1.0194107 1.0270871 1.0164217 1.0072812
000010 f1 3c 82 3f 76 9b 80 3f
       1.0174848 1.0047443

in_norm.bias f4 [6]
000000 0c 1a dc bb ea a8 a2 3a cb a7 b1 ba 47 ae 2a 3b
       -0.006716972 0.001240996 -0.0013554035 0.0026043819
000010 ea 26 1d 3b e2 28 2f bb
       0.0023979493 -0.002672725

gru.weight_ih_l0 f4 [192, 6]
000000 dc 0c 29 bd 1f 9d 74 3d 3e 40 51 be f7 8d 41 3d
       -0.04127203 0.059720155 -0.20434663 0.04725453
000010 d5 40 49 3d 97 d8 c8 3c 80 db 82 bc 4c 6a 67 bd
       0.049134094 0.02451734 -0.015973806 -0.056497857
000020 2b d3 85 3d 5d 97 db bd de f1 23 3d 26 67 2d be
       0.06534418 -0.1072223 0.040025584 -0.1693388
000030 9b 55 37 be 62 f5 17 be cb 9d 78 3e cd 1a 89 3c
       -0.1790375 -0.148397 0.24278943 0.016736412
000040 50 c7 ab bd 27 dc c9 3d 36 34 1d 3d 21 92 87 3d
       -0.08387625 0.09856444 0.03837987 0.06619669
000050 00 92 1d 3e 6a 09 d5 bd 3d 3f 00 be 5e 73 58 be
       0.15387726 -0.10402186 -0.12524123 -0.21137759
000060 64 9f db bd f5 d2 39 3e bd b4 32 3e 37 e6 32 be
       -0.10723761 0.1814688 0.17451759 -0.17470632
000070 ed e1 f4 bd 78 8e 39 3e f4 29 58 be 50 a0 22 be
       -0.119571544 0.18120754 -0.21109754 -0.15881467
000080 34 c2 53 be 50 bd 57 3e fb e8 14 3e bb 3d 21 be
       -0.20679551 0.2106831 0.14542 -0.15746205
000090 a5 d0 25 bd 40 94 41 bd 9e 8e eb bd 43 bd 1a be
       -0.040482182 -0.047260523 -0.115018114 -0.1511126
0000a0 b4 a5 b5 3d a3 38 7b 3e 33 a3 9c 3d 5b 13 84 3d
       0.08869496 0.24533324 0.07648315 0.06449004
0000b0 24 04 2e 3e 1a 69 74 be 87 b7 43 be f8 d9 4c 3e
       0.16993767 -0.23868218 -0.19112979 0.20005023
0000c0 f6 c7 20 be b2 4b f3 bd a8 83 38 be b9 a8 e6 bb
       -0.15701279 -0.11879672 -0.18018973 -0.0070391563
0000d0 ed e2 b4 bd f9 4e 65 be 29 18 38 be ee 93 45 3e
       -0.08832345 -0.22393407 -0.17977966 0.19294712
0000e0 5d 99 94 3d 73 0a 8c 3d 52 5a 05 3e 90 60 ac 3d
       0.07255814 0.068379305 0.13022736 0.08416855
0000f0 04 6d 64 be 76 72 52 3e ef 02 31 3e 29 0e 1e be
       -0.22307211 0.20551476 0.17286275 -0.15435089
000100 55 1d 51 3d 83 5c 17 bd 68 82 96 3d 8f e9 5c 3e
       0.051053364 -0.03695346 0.07349092 0.2157347
000110 d5 b5 2f bd af 12 97 3b 21 f2 c1 bd a5 98 85 bc
       -0.042898018 0.0046103816 -0.094700105 -0.016308138
000120 5c 95 15 3e b4 ca 53 3e b7 27 56 3a e4 4c 95 bd
       0.14607757 0.20682794 0.000816937 -0.07290056
000130 af b6 9f 3d cf de 58 be 76 ac 43 3e 0d dd d7 bd
       0.07798516 -0.21178745 0.19108757 -0.10540209
000140 18 ed 09 be bd ef 72 be 69 40 94 3d 61 6e 6f be
       -0.1346935 -0.23724265 0.07238848 -0.2338195
000150 6b ee ba 3c 56 af bc bd 4c 60 6b 3e aa cf a0 3d
       0.022818765 -0.0921313 0.22985953 0.07852109
000160 f3 3b 43 be 8c fd 3f 3e 3d 2a 17 3e 70 05 3b 3e
       -0.19065838 0.18749064 0.14762206 0.18263793
000170 53 bc 56 bd 4d 9a 07 be 43 6a 03 be 85 38 dd 3d
       -0.052425694 -0.13242455 -0.12833504 0.10801796
000180 44 f8 4e 3e ae 26 42 3d a3 09 ee 3c e9 7f e0 bd
       0.20211893 0.04740017 0.02905733 -0.10961897
000190 0f 72 03 bc ea 1d 56 3e a5 07 4c be a3 2d d0 3d
       -0.008022799 0.20909849 -0.19924791 0.101649545
0001a0 87 0c 71 3e b0 b2 88 be 1e 45 87 be 1a bb 09 3e
       0.23539935 -0.26698828 -0.2641992 0.1345028
0001b0 97 16 27 be 9f 71 4c 3e e1 38 99 3d a5 01 a8 bd
       -0.16317211 0.19965218 0.07481552 -0.08203439
0001c0 30 ff d1 bc 6d 5c 23 be cf e3 c4 bd 6e 8b 5f bd
       -0.025634378 -0.15953226 -0.096137635 -0.05457633
0001d0 0c b9 b8 bd 7e 60 bf bd 6a 42 01 be f1 49 19 be
       -0.0901967 -0.09344576 -0.12622991 -0.14969613
0001e0 e4 d2 b5 3d 94 19 3c 3e 77 5f 3f 3c cb ac de bd
       0.08878115 0.18369132 0.011680475 -0.108728014
0001f0 e9 fe 72 bd 7d ab 2c bd 4f e8 a5 bd 1e 5e 24 3d
       -0.059325133 -0.04215573 -0.0810095 0.04012882
000200 20 fb f6 3d ee bd 1f 3e 1d 76 4a bc a7 4a 39 bd
       0.12059617 0.15599796 -0.012357262 -0.04523721
000210 01 e0 5b be 5a 8e 6f be a2 11 c1 bd 2e ea 0c be
       -0.2147217 -0.23394147 -0.09427191 -0.13761207
000220 42 2a 7b 3e b8 83 38 be bb b1 30 be c0 e8 93 bc
       0.24527839 -0.18018997 -0.17255299 -0.01805532
000230 45 57 b6 3d f8 ec 99 bd 83 82 3b 3e a6 83 fe bd
       0.08903364 -0.07515901 0.18311505 -0.12427454
000240 50 2a 3b 3e a9 42 36 be 0c 05 52 be e5 7d 2a be
       0.1827786 -0.17798866 -0.20509738 -0.16649587
000250 2e b9 ce bd 97 b1 c5 3d 74 25 f1 bd d2 c7 53 be
       -0.10093914 0.09653013 -0.11774722 -0.20681694
000260 f4 5e 08 3d 3f 6e 08 be 9c 03 47 be 1c 27 cc bd
       0.03329368 -0.13323306 -0.1943497 -0.09968397
000270 fe fa 15 be d0 b4 22 bd 5a ed 34 be 3a 82 4f 3e
       -0.14646527 -0.039723217 -0.17668667 0.20264521
000280 f2 11 8d 3d 55 40 7f 3d 5f 07 6f be 32 1f 36 be
       0.068881884 0.06231721 -0.23342656 -0.17785338
000290 66 82 65 bc 97 e4 e7 bd ce 93 13 3e 13 96 81 be
       -0.01400814 -0.11322897 0.14411852 -0.2530981
0002a0 36 b8 ea 3d c2 72 60 be 67 99 d4 bd 5c 36 92 3c
       0.11460917 -0.21918777 -0.10380822 0.017848186
0002b0 15 5e c4 3d 87 58 16 3e 28 fa c2 ba 3a 12 27 3e
       0.09588257 0.14682208 -0.0014875578 0.16315547
0002c0 29 ea 7a be 57 c8 12 3e 9b 35 0b be c3 82 2a 3d
       -0.24503388 0.14334236 -0.13594668 0.04162861
0002d0 b3 e2 3f 3e 0c 95 1b bd 5f a3 01 3d fe 16 16 3b
       0.18738823 -0.03798394 0.031649943 0.0022901888
0002e0 1c d4 84 3d c7 ed 6a bc 2a 42 97 bd 89 43 0f be
       0.06485769 -0.014338917 -0.07385667 -0.13990606
0002f0 f6 c9 08 3e 16 c7 ae 3c 8d 5e f5 3c 8e 11 8f 3d
       0.13358292 0.021335166 0.029952312 0.0698577
000300 b3 7c 36 3e a5 72 07 bd e4 e6 42 3e d1 bc af 3d
       0.17821006 -0.033068318 0.1903339 0.08580936
000310 d1 7c 3b be e4 33 6b be e1 6f 4c bd 06 43 c3 3d
       -0.18309332 -0.22969013 -0.049911384 0.09534268
000320 57 fb bb 3d 41 ef 43 3e 38 96 49 be cc 1a 5e 3d
       0.09178799 0.19134237 -0.1968621 0.054224774
000330 6f 19 2f be 17 3a 16 bb 57 b6 21 3d a7 2d d2 3d
       -0.17099546 -0.0022922808 0.039480533 0.10262614
000340 e8 82 aa bc 9a 9f 1d be 33 ff 8f 3c 74 42 51 3e
       -0.020814374 -0.15392914 0.017577743 0.20435506
000350 a8 39 d3 bd 95 4f 5b 3e cb 58 30 3e 44 d2 32 3d
       -0.103137314 0.21417077 0.17221372 0.043657556
000360 d5 f7 63 be 60 72 e5 3d 10 d9 3f 3d 20 10 b0 3d
       -0.22262509 0.11203456 0.046837866 0.085968256
000370 cb a9 0d bd 05 4d 4c bc 9c e5 3c 3e 23 aa 74 be
       -0.034585755 -0.012469535 0.18446964 -0.23893027
000380 72 42 bb 3d 2c 63 99 bd 95 7b 3d 3e 19 72 0c 3e
       0.09143533 -0.07489619 0.18504174 0.137154
000390 1b bb 0f 3e 28 e2 51 be 4c dd ee 3d 2d e7 1e 3c
       0.14036219 -0.20496428 0.11663303 0.009698671
0003a0 63 2e 84 3d c2 ae 23 be c1 cd cc bd 4b 94 1c be
       0.0645416 -0.15984634 -0.10000182 -0.15290944
0003b0 44 80 5d be da dc 14 3e df a7 8d bb ca d7 0f 3e
       -0.2163096 0.14537373 -0.0043229903 0.1404716
0003c0 7c 75 c2 b9 47 d5 a0 3d c1 d3 65 bd a9 36 39 be
       -0.00037090096 0.078531794 -0.056110147 -0.18087257
0003d0 8c 69 72 be 46 f3 32 3e 79 b5 69 be 08 4b 91 bd
       -0.23673075 0.17475614 -0.22823133 -0.07094389
0003e0 d4 8d e9 bd e2 54 c3 3c c9 37 5c 3e 6a 66 38 be
       -0.11404005 0.023844186 0.21505655 -0.18007818
0003f0 c7 85 6b 3e 50 ef ee bd c6 82 91 3d d5 d6 f7 bd
       0.23000251 -0.11666739 0.07105021 -0.12101523

gru.weight_hh_l0 f4 [192, 64]
000000 11 f8 9a 3d 23 f0 9a bc 6f 89 43 3d 8b df 35 bd
       0.07566846 -0.018913334 0.04773849 -0.04440264
000010 94 60 ec 3c 70 dc 0f bd f9 1a 3f 3d 94 0f c8 bc
       0.028854646 -0.035122335 0.046656583 -0.02442149
000020 6e ba 58 bd ee eb c2 3d 4e ba 0a bd 07 48 3f 3d
       -0.05291217 0.09517656 -0.03386908 0.04669955
000030 38 12 8b bd 0e 42 4d bd 23 b8 2b 3b 26 ba 01 3d
       -0.06790584 -0.050111823 0.0026202283 0.031671666
000040 71 f4 c2 bd 6b 27 06 3c 32 51 86 3d 6d 4e dc 3d
       -0.0951928 0.008188109 0.065584555 0.10757146
000050 20 37 ce bd 2e 7a 4a 3d 3a 21 15 3d 3e 1f 65 3d
       -0.10069108 0.049432926 0.03640864 0.055937998
000060 17 a4 31 be 85 d1 0e be 92 09 4c 3d 38 14 f7 3c
       -0.17347752 -0.13947113 0.049813814 0.030161008
000070 a6 a9 4f bd 40 86 01 3d 36 ee cd bd 10 df 73 3c
       -0.0506989 0.03162217 -0.10055201 0.014884725
000080 8c 87 2e bd 9a 15 9f 3d 4f 99 f7 bd 65 1a 3d 3e
       -0.042609736 0.07767792 -0.12089788 0.184671
000090 bb 47 85 bc 0d 40 1c 3d 10 c4 20 be 6c b9 dc 3a
       -0.016269555 0.03814702 -0.15699792 0.0016839928
0000a0 53 dd 3a 3d 92 e5 63 3d da 6c 36 bd 62 29 a7 3d
       0.045621227 0.055638857 -0.044537403 0.0816219
0000b0 65 5f b6 3c 63 49 06 3e a2 60 af bc 06 89 96 bd
       0.022262285 0.13113932 -0.021408383 -0.07350354
0000c0 46 45 d3 3c 36 22 11 be a1 22 40 3d d8 0d 0c bd
       0.025789868 -0.14173207 0.046908025 -0.03419289
0000d0 5b 69 6d bc 33 93 85 3c 90 58 6e bb 96 0e eb bc
       -0.014490451 0.016305542 -0.0036368705 -0.028693479
0000e0 b2 f8 d6 b9 c8 a3 57 bc ef d4 2a bd 5e ba d0 bc
       -0.00041002553 -0.013161607 -0.041706976 -0.025479492
0000f0 e9 69 a3 bd 22 d9 3d bc ff ba a7 bd 57 d4 e1 bd
       -0.07979185 -0.011587413 -0.081899635 -0.11026829
000100 9a 38 b8 3b 1e 80 5a bd b5 93 6b 3d 51 16 01 bd
       0.005621982 -0.05334484 0.05751391 -0.031515423
000110 78 b6 0e bd e4 99 c3 bd 98 14 64 bd 05 df 11 bd
       -0.034841985 -0.09550837 -0.055683702 -0.03561308
000120 97 ed a9 3d 9a c6 89 3d 70 25 33 bd f0 66 c6 3d
       0.0829727 0.06727333 -0.043736875 0.096876025
000130 62 31 9d 3d 7d b6 a1 3d 6b a3 3b 3d 9e 09 2b 3c
       0.07675435 0.07896135 0.045810144 0.010439305
000140 6d a2 32 bd 56 5e fb 3d 9a eb 84 bd 0d d5 ec 3d
       -0.043611933 0.122738525 -0.0649025 0.11564074
000150 35 7c 64 bb a5 c4 80 3b 94 86 97 bc ec 33 4a bd
       -0.0034864072 0.003929692 -0.018496789 -0.049365923
000160 f1 5a 00 be ca f1 79 3c 73 8d 1c bd 93 b5 b2 bd
       -0.12534691 0.015255401 -0.038220834 -0.08726039
000170 01 48 1e 3c 1f f4 89 bd ac 1c 03 3c 85 4a d7 bd
       0.009660722 -0.067360155 0.008002441 -0.1051226
000180 59 0a d0 bc 3d be db bd 55 dc 4f 3d ad 9a 5e bc
       -0.02539556 -0.107296444 0.050747234 -0.013586682
000190 32 b4 1a 3e a5 9e 51 3d 1c 09 53 3d b1 b6 fe 3c
       0.15107802 0.051176686 0.05152236 0.031092973
0001a0 e1 86 ae 3d 51 ab 92 bd 43 c2 40 3d 45 99 e0 bc
       0.0852182 -0.07161582 0.047060262 -0.027416835
0001b0 55 2f 30 3b 21 0c df bc c6 5c 91 3d ae 4d 41 3b
       0.002688368 -0.027227463 0.07097773 0.0029495764
0001c0 af 05 b5 3d c7 8e 09 be 8f ef 05 3d 96 3f 39 bd
       0.08838975 -0.13433371 0.032699164 -0.045226656
0001d0 7a df 12 3e 59 b2 ed 3d d7 15 2a bd 80 55 33 bd
       0.14343062 0.11606283 -0.041524734 -0.04378271
0001e0 01 80 a8 3d d4 35 bf 3d 9d c3 20 bd ab 5a 84 bd
       0.0822754 0.09336439 -0.03924905 -0.06462606
0001f0 23 19 a4 bc 76 4f b1 bc 35 b2 1c bd a8 af df 3c
       -0.020031517 -0.021644335 -0.03825589 0.02730544
000200 5b 29 4c bd d0 16 81 3c 4d de 75 3d ee 7f 4e bd
       -0.049844127 0.015757948 0.060026456 -0.050414972
000210 79 d0 6e 3c 6a 61 43 bd e9 ee 86 bd 71 57 94 3b
       0.014576071 -0.047700323 -0.06588537 0.0045270254
000220 70 df 55 bd 5a f8 c1 bc e0 2a 89 3c 48 a1 4b 3c
       -0.05221504 -0.023677994 0.016744077 0.012428589
000230 e4 ad 1a bd 23 7c 17 3d 87 a9 01 3e 5a 8c dc 3a
       -0.03776349 0.03698362 0.12662326 0.0016826496
000240 b3 3a 8d bd 26 48 bd 3b bd 9c d9 3c 27 26 e9 bc
       -0.068959616 0.005776423 0.026563996 -0.028460575
000250 90 3d 21 3b 37 46 72 3d ef c8 a7 3b aa 52 9a 3d
       0.0024603345 0.059148993 0.0051203887 0.07535298
000260 30 f3 96 bd 72 84 00 be 8b b3 87 bd 74 f5 e4 3c
       -0.07370603 -0.12550524 -0.06626042 0.027949072
000270 ea 82 1e bd a2 9f 2b bd e9 85 9b 3b 71 b6 2c 3d
       -0.038699068 -0.041900285 0.004746188 0.042166177
000280 33 15 9e bc 98 96 2b bd 1d f7 95 3b 6b 79 cb 3d
       -0.019297218 -0.041891664 0.0045765773 0.09935268
000290 b3 c4 ad bd 0b f5 e1 3b 2a 24 b3 3d 26 8d 54 be
       -0.08484783 0.0068956665 0.08747132 -0.20756969
0002a0 34 85 68 3d 4c 42 ac 3d 85 dd bf bd 07 b9 4f bd
       0.056767657 0.084110826 -0.09368423 -0.050713565
0002b0 31 e0 07 bd 67 fb 93 3d 7c ef 30 3d ce 3f 4a bd
       -0.03317279 0.072256856 0.04319714 -0.049377255
0002c0 32 e8 2a bc f1 40 04 3d 29 99 56 bd 8a 3d e4 bc
       -0.010431336 0.032288495 -0.05239216 -0.027861375
0002d0 b7 43 c5 bd ff 51 91 bd 56 7e a4 bc f4 32 17 3c
       -0.09632056 -0.07095718 -0.020079773 0.009228457
0002e0 37 d9 2e 3c 73 a2 80 3d b9 fe 13 3c 6c 05 81 bd
       0.010671905 0.06280985 0.009032899 -0.06299862
0002f0 3e 88 2f 3c 35 3b 00 3d 20 36 23 bd 08 8b f0 bd
       0.010713635 0.031306464 -0.03984654 -0.11745268
000300 44 6e f4 bc 04 a8 82 bd fb 94 2c 3d 75 fc e4 3d
       -0.029837735 -0.06379703 0.042134266 0.11180965
000310 fa f0 d6 3c d8 9d ba 3d e8 42 36 3d 3e c2 af 3c
       0.026237953 0.091121376 0.0444974 0.021454927
000320 3e 2b 63 3d 2d 7f a9 bc 72 b9 54 bd fd 2b 11 be
       0.05546116 -0.020690525 -0.051934667 -0.14176936
000330 01 52 ba 3d 78 97 39 3d f7 fd b1 3c 02 02 61 3d
       0.09097672 0.045310467 0.021727545 0.054933555
000340 0e 9e 77 bd c6 23 74 3d d4 05 14 3d 21 86 ce bd
       -0.060453467 0.05960443 0.03613837 -0.10084177
000350 91 96 ae bd 75 a7 fe 3d b0 78 11 bd 47 57 18 bb
       -0.08524812 0.12434284 -0.035515487 -0.002324538
000360 12 15 3a 3c e2 90 68 bd 9a 70 32 bd 2e 80 8e 3b
       0.011357563 -0.056778796 -0.043564416 0.0043487763
000370 93 e5 6d 3c 62 83 1c 3d 49 19 8d bd b2 03 e2 3c
       0.014520067 0.038211234 -0.068895884 0.027589653
000380 fa df 1c 3e 50 7f 83 3d f3 e0 21 3d e0 a4 a4 bc
       0.15319815 0.06420767 0.03952117 -0.02009815
000390 23 a2 2e 3c 2f 2b 82 3d 31 1b aa bd d3 03 d4 bd
       0.010658774 0.06355893 -0.083059676 -0.10352292
0003a0 03 b0 af bd 38 68 9c 3a 4c 13 a3 bd 84 c1 f7 3d
       -0.085784934 0.0011932915 -0.07962665 0.12097457
0003b0 31 49 71 3d ec d6 48 3b 5e 75 aa 3c 35 56 76 bd
       0.05890769 0.0030645682 0.020807918 -0.060140807
0003c0 51 b6 59 bd 61 33 85 3e 9d c0 85 bb 4d ac 37 be
       -0.053152386 0.26015761 -0.004081799 -0.17936821
0003d0 71 ea 1b 3d 7c fe fb 3d 92 d1 a0 bd a0 61 0d bd
       0.038065378 0.123043984 -0.07852472 -0.03451693
0003e0 7a dc 73 bd cb 23 00 3e 87 4b 19 3e fa 2c d6 3d
       -0.059536435 0.12513654 0.14970218 0.10457797
0003f0 4c ca 1f be 88 1e 98 3d 3e 09 a4 bd cc 10 68 3d
       -0.15604514 0.074276984 -0.08009575 0.056656644

gru.bias_ih_l0 f4 [192]
000000 92 e1 61 3b ec 30 84 bb b0 d3 08 3c c2 13 7e 3c
       0.0034466726 -0.0040341523 0.0083512515 0.01550764
000010 c0 42 53 3b 68 fb 3a b9 05 0d 33 3c 31 34 02 3c
       0.003223583 -0.00017831998 0.010928397 0.007947014
000020 77 2e 46 3b ac a4 e8 bb 63 a9 a2 bb cb d4 22 bc
       0.0030240098 -0.0070997085 -0.00496404 -0.009938429
000030 61 fb a7 3b 23 e9 a6 3b 9f 63 d5 3b d7 38 30 3c
       0.0051264022 0.00509371 0.00651212 0.010755739
000040 f5 95 27 3c 23 ee 15 3c 7f ef 3e 3c 34 8a d9 3b
       0.010228624 0.0091510145 0.01165378 0.0066387895
000050 d1 be 9c 3c bc ea 08 3a 8b 98 2c 3c 07 45 bd 3c
       0.019133957 0.00052229664 0.010534416 0.023104204
000060 f3 81 8b 3b 2e 61 d6 bb e4 7d 5a 3a 3f 84 c7 3b
       0.0042574345 -0.0065423464 0.0008334799 0.006088763
000070 2b c0 9a 3c a6 7d 55 3c 3b b3 98 3c f2 dd 57 3b
       0.018890461 0.013030445 0.018640151 0.0032938686
000080 15 69 b9 3b 90 cf a7 3a 35 cf b1 ba 29 84 d1 3a
       0.0056582787 0.0012802947 -0.0013565781 0.0015984821
000090 f4 cd 92 38 81 0c 3c bc 6c fb a5 3b 83 c8 ce 3c
       7.000184e-05 -0.011477591 0.005065372 0.025242096
0000a0 56 c6 63 3b 0e 72 0b 3c 1d 5d 40 3c 87 81 ad 3b
       0.0034755669 0.0085110795 0.01174095 0.005294982
0000b0 a6 6e 8e 3b 90 ec 25 3c 9f 4b 2d 3c 33 b5 4e 3c
       0.0043466864 0.010127202 0.0105771115 0.012616443
0000c0 ae b0 f4 ba 59 6b f5 3b 86 e8 a0 3c da a7 48 bb
       -0.0018668377 0.0074896035 0.019642126 -0.0030617625
0000d0 38 78 19 3c 71 5f 43 3c f7 20 2f 3c 57 d3 30 3a
       0.009367041 0.0119246105 0.010689012 0.0006745359
0000e0 62 69 7c 3b 7b 5b 8e 3a 67 48 ea 3b 92 13 72 3c
       0.0038514961 0.0010861004 0.0071497443 0.014775174
0000f0 ba ed 77 3c f2 6e c5 3b 67 b0 c6 3b e3 af 7c bb
       0.015132362 0.0060251886 0.0060635093 -0.0038556985
000100 bb 98 d9 bc 7f c8 1e bc 49 a3 03 3a a3 14 ac 3c
       -0.026562085 -0.009691357 0.0005021585 0.021005934
000110 d4 18 e3 3c d7 88 52 3b 38 97 b8 bc f8 77 1d 3d
       0.0277218 0.003212502 -0.022533044 0.03844449
000120 99 92 22 3c 50 b4 06 bc 5d 8a cf 37 46 35 d1 ba
       0.009922647 -0.008221701 2.4740753e-05 -0.0015961311
000130 4d e1 cb bb 8b b6 a7 3b 4e a3 8c 3c 11 d1 0b 3d
       -0.0062219263 0.0051181964 0.017167713 0.034134928
000140 93 b4 a6 ba 8e 86 eb 3a f4 10 06 3b c9 28 be 3c
       -0.001271861 0.0017969178 0.0020456882 0.023212807
000150 14 4a 0f bb 08 35 f9 3c 00 de 0c 3d a2 25 fa bc
       -0.0021864222 0.030420795 0.034391403 -0.030535523
000160 f5 2c 55 bc b9 24 fb 3c 4f 33 01 bd a8 24 80 bc
       -0.013011207 0.03065716 -0.031543072 -0.015642479
000170 ec 66 5c 3d 1b 7f 25 3c b5 04 03 3d 7b e9 ca 3c
       0.05380909 0.010101105 0.03198691 0.024769535
000180 00 c7 d4 bc 5a 6e 87 3c 2b b3 8a 3b 36 80 15 bc
       -0.025973797 0.016532112 0.0042327843 -0.009124806
000190 1e 29 2e bc 8e 60 33 ba f9 6c 30 bc c8 f4 8f 3c
       -0.01062992 -0.0006842696 -0.010768169 0.017572775
0001a0 47 7b 28 3c 59 5a 04 bd a2 82 0d 3d df 81 84 bc
       0.010283298 -0.032312725 0.03454841 -0.016175209
0001b0 92 68 9c 3b 40 0f 19 3c 6b 05 97 bb f7 64 34 3d
       0.004773208 0.009342015 -0.0046088 0.0440416
0001c0 e7 f6 08 3c cc fc 67 bc 4a 8c 34 3d 97 56 94 bc
       0.008359647 -0.014159393 0.044079103 -0.018107696
0001d0 7e e0 c6 3c 40 34 1b 3d aa b7 2f 3b 63 51 78 3b
       0.024276968 0.037891626 0.0026812353 0.0037890307
0001e0 d3 de 0e 3d 05 dc ab bc 60 c3 e7 b9 2d c9 b1 3c
       0.03488047 -0.020978937 -0.0004420532 0.021702373
0001f0 5d bd 54 3c ee 37 40 3c 6d 96 91 bc 41 71 f8 3b
       0.012984601 0.011732085 -0.017771924 0.0075818603
000200 bd 0f 3a bb 96 eb 85 bb da e0 2c bb 3e ec 4e bc
       -0.0028390728 -0.004086922 -0.002637914 -0.012629567
000210 16 29 2c 3c 5c c6 aa 3b 9a 80 0a 3b 6e 6d d8 3b
       0.0105078425 0.0052116346 0.0021133781 0.006604842
000220 4d c8 76 3c 81 dc 8c 3b 22 ed 89 3c eb cd 42 3c
       0.015062404 0.004298747 0.016836707 0.011889915
000230 3c 49 95 b9 1a 26 2e 3c a9 33 c9 b8 26 49 28 3c
       -0.00028474058 0.010629201 -9.594049e-05 0.010271346
000240 e2 0c 46 bb 4c a3 58 3a 6e 39 10 3b 2f 0a 51 3c
       -0.003022008 0.0008264079 0.0022006887 0.012758776
000250 db ca 97 bb 4d 6f 4d 3c ed 6e 28 3c c5 00 03 3b
       -0.0046323366 0.012538743 0.010280353 0.0019989472
000260 37 6f a9 3a 33 b7 44 3c 0a 81 c2 39 8a a1 84 3a
       0.0012926821 0.012006569 0.00037098705 0.0010118943
000270 7a d9 c6 ba 28 a5 81 b9 7a f0 92 bb aa 1b 75 bc
       -0.0015171014 -0.00024727848 -0.0044842334 -0.014960209
000280 26 1c 12 3c a7 ed 18 bb 85 02 63 3a d7 e7 78 3b
       0.008917844 -0.0023335011 0.0008659738 0.0037979984
000290 c4 15 2e 3c 04 6d 1a 3b 53 8d dd bb 4f dc bf bb
       0.0106253065 0.0023563514 -0.006761232 -0.0058551203
0002a0 5a 4b 25 bc c3 63 8c bb 79 63 0b 3c bf 55 03 3c
       -0.010088766 -0.0042843535 0.008507603 0.008016049
0002b0 b9 65 09 bb 69 af da ba 34 2b 86 3b b3 6e 04 3c
       -0.0020965172 -0.0016684356 0.0040945057 0.008083033
0002c0 74 35 ee bb 0b 94 0d bc 7b 89 63 3b 2c cc 72 bb
       -0.0072695557 -0.008641253 0.0034719396 -0.0037047965
0002d0 40 16 6f 3a f5 30 97 ba 48 ae a4 3b 4f ad 71 ba
       0.0009120442 -0.0011534976 0.0050256588 -0.00092192454
0002e0 06 de 06 bb 47 36 b6 bb 9a 5d 62 3b 55 ad 80 3b
       -0.0020579114 -0.0055606696 0.0034540654 0.003926913
0002f0 60 2e 38 3c 89 be 17 bb 7c 7e 09 3c f9 36 ed bb
       0.011241525 -0.002315434 0.008391973 -0.0072392193

gru.bias_hh_l0 f4 [192]
000000 92 e1 61 3b ec 30 84 bb b0 d3 08 3c c2 13 7e 3c
       0.0034466726 -0.0040341523 0.0083512515 0.01550764
000010 c0 42 53 3b 68 fb 3a b9 05 0d 33 3c 31 34 02 3c
       0.003223583 -0.00017831998 0.010928397 0.007947014
000020 77 2e 46 3b ac a4 e8 bb 63 a9 a2 bb cb d4 22 bc
       0.0030240098 -0.0070997085 -0.00496404 -0.009938429
000030 61 fb a7 3b 23 e9 a6 3b 9f 63 d5 3b d7 38 30 3c
       0.0051264022 0.00509371 0.00651212 0.010755739
000040 f5 95 27 3c 23 ee 15 3c 7f ef 3e 3c 34 8a d9 3b
       0.010228624 0.0091510145 0.01165378 0.0066387895
000050 d1 be 9c 3c bc ea 08 3a 8b 98 2c 3c 07 45 bd 3c
       0.019133957 0.00052229664 0.010534416 0.023104204
000060 f3 81 8b 3b 2e 61 d6 bb e4 7d 5a 3a 3f 84 c7 3b
       0.0042574345 -0.0065423464 0.0008334799 0.006088763
000070 2b c0 9a 3c a6 7d 55 3c 3b b3 98 3c f2 dd 57 3b
       0.018890461 0.013030445 0.018640151 0.0032938686
000080 15 69 b9 3b 90 cf a7 3a 35 cf b1 ba 29 84 d1 3a
       0.0056582787 0.0012802947 -0.0013565781 0.0015984821
000090 f4 cd 92 38 81 0c 3c bc 6c fb a5 3b 83 c8 ce 3c
       7.000184e-05 -0.011477591 0.005065372 0.025242096
0000a0 56 c6 63 3b 0e 72 0b 3c 1d 5d 40 3c 87 81 ad 3b
       0.0034755669 0.0085110795 0.01174095 0.005294982
0000b0 a6 6e 8e 3b 90 ec 25 3c 9f 4b 2d 3c 33 b5 4e 3c
       0.0043466864 0.010127202 0.0105771115 0.012616443
0000c0 ae b0 f4 ba 59 6b f5 3b 86 e8 a0 3c da a7 48 bb
       -0.0018668377 0.0074896035 0.019642126 -0.0030617625
0000d0 38 78 19 3c 71 5f 43 3c f7 20 2f 3c 57 d3 30 3a
       0.009367041 0.0119246105 0.010689012 0.0006745359
0000e0 62 69 7c 3b 7b 5b 8e 3a 67 48 ea 3b 92 13 72 3c
       0.0038514961 0.0010861004 0.0071497443 0.014775174
0000f0 ba ed 77 3c f2 6e c5 3b 67 b0 c6 3b e3 af 7c bb
       0.015132362 0.0060251886 0.0060635093 -0.0038556985
000100 bb 98 d9 bc 7f c8 1e bc 49 a3 03 3a a3 14 ac 3c
       -0.026562085 -0.009691357 0.0005021585 0.021005934
000110 d4 18 e3 3c d7 88 52 3b 38 97 b8 bc f8 77 1d 3d
       0.0277218 0.003212502 -0.022533044 0.03844449
000120 99 92 22 3c 50 b4 06 bc 5d 8a cf 37 46 35 d1 ba
       0.009922647 -0.008221701 2.4740753e-05 -0.0015961311
000130 4d e1 cb bb 8b b6 a7 3b 4e a3 8c 3c 11 d1 0b 3d
       -0.0062219263 0.0051181964 0.017167713 0.034134928
000140 93 b4 a6 ba 8e 86 eb 3a f4 10 06 3b c9 28 be 3c
       -0.001271861 0.0017969178 0.0020456882 0.023212807
000150 14 4a 0f bb 08 35 f9 3c 00 de 0c 3d a2 25 fa bc
       -0.0021864222 0.030420795 0.034391403 -0.030535523
000160 f5 2c 55 bc b9 24 fb 3c 4f 33 01 bd a8 24 80 bc
       -0.013011207 0.03065716 -0.031543072 -0.015642479
000170 ec 66 5c 3d 1b 7f 25 3c b5 04 03 3d 7b e9 ca 3c
       0.05380909 0.010101105 0.03198691 0.024769535
000180 00 c7 d4 bc 5a 6e 87 3c 2b b3 8a 3b 36 80 15 bc
       -0.025973797 0.016532112 0.0042327843 -0.009124806
000190 1e 29 2e bc 8e 60 33 ba f9 6c 30 bc c8 f4 8f 3c
       -0.01062992 -0.0006842696 -0.010768169 0.017572775
0001a0 47 7b 28 3c 59 5a 04 bd a2 82 0d 3d df 81 84 bc
       0.010283298 -0.032312725 0.03454841 -0.016175209
0001b0 92 68 9c 3b 40 0f 19 3c 6b 05 97 bb f7 64 34 3d
       0.004773208 0.009342015 -0.0046088 0.0440416
0001c0 e7 f6 08 3c cc fc 67 bc 4a 8c 34 3d 97 56 94 bc
       0.008359647 -0.014159393 0.044079103 -0.018107696
0001d0 7e e0 c6 3c 40 34 1b 3d aa b7 2f 3b 63 51 78 3b
       0.024276968 0.037891626 0.0026812353 0.0037890307
0001e0 d3 de 0e 3d 05 dc ab bc 60 c3 e7 b9 2d c9 b1 3c
       0.03488047 -0.020978937 -0.0004420532 0.021702373
0001f0 5d bd 54 3c ee 37 40 3c 6d 96 91 bc 41 71 f8 3b
       0.012984601 0.011732085 -0.017771924 0.0075818603
000200 27 34 1d bb da 16 8f bb f2 76 f9 ba 82 c2 54 bc
       -0.0023987384 -0.004366738 -0.0019032641 -0.012985827
000210 a4 2e 22 3c 66 1b a0 3b 42 72 1b 3b 0c d1 0f 3c
       0.009898815 0.0048860786 0.0023719226 0.008777868
000220 75 1d 70 3c 91 a1 86 3b f0 2e 8c 3c 11 b8 47 3c
       0.014655461 0.0041086157 0.017112225 0.012189881
000230 0c c0 99 3a 62 e1 37 3c 65 59 bb b9 e0 f2 30 3c
       0.0011730208 0.011223169 -0.00035734024 0.010800093
000240 cd 97 2b bb 86 9c 16 ba 6d f1 93 3b 91 11 57 3c
       -0.002618301 -0.00057453697 0.004514864 0.013126747
000250 15 5d a2 bb 18 55 42 3c a8 b3 1c 3c c8 e8 9d 3a
       -0.004954944 0.011861108 0.009564318 0.0012047524
000260 d9 50 a8 3a c5 fe 51 3c 02 44 49 39 a8 95 05 3b
       0.0012841477 0.012817089 0.00019194189 0.0020383392
000270 db 2b c5 ba 63 bf e2 ba 03 fc 89 bb 7a 2f 63 bc
       -0.0015042977 -0.0017299469 -0.0042109503 -0.0138663
000280 4b 95 1f 3c 5a 9c 25 bb 50 4e d0 3a a9 58 07 3b
       0.009740184 -0.0025270195 0.001589248 0.002065221
000290 72 b4 25 3c cb 50 15 3b ed f4 ef bb 0c 17 9a bb
       0.010113822 0.0022783752 -0.0073228986 -0.0047024544
0002a0 6c dd 38 bc 0a d8 67 bb 1f a7 0a 3c 08 48 e8 3b
       -0.01128326 -0.0035376572 0.008462696 0.007088665
0002b0 30 a8 39 bb c8 29 89 ba f9 f1 82 3b c6 a0 01 3c
       -0.0028329007 -0.0010464722 0.0039961305 0.0079118665
0002c0 ce 95 f9 bb 32 66 fa bb ab 2a 54 3b a6 11 4e bb
       -0.007616735 -0.007641577 0.0032374065 -0.0031443625
0002d0 49 dd ff 3a a2 c2 c7 ba 45 59 a1 3b d5 8f ce b9
       0.0019520904 -0.00152405 0.004923972 -0.00039398545
0002e0 62 97 ba ba 28 55 7d bb a6 cc 58 3b e2 fa 69 3b
       -0.001423579 -0.0038655493 0.0033080964 0.0035702516
0002f0 ce e6 37 3c 44 38 2e bb 49 dd 08 3c 06 69 cf bb
       0.011224462 -0.002658383 0.00835354 -0.0063296584

gru.weight_ih_l0_reverse f4 [192, 6]
000000 63 40 36 be 21 5b e3 bd 2b ba e0 3d d0 b0 49 3d
       -0.17797999 -0.11101366 0.10973009 0.049240887
000010 b0 ee 00 3e 5b f0 db bd 8d 83 ca bc 1b 7f 41 3e
       0.12591052 -0.107392035 -0.024720931 0.18896143
000020 08 29 f7 bd cb 57 49 be 04 9d 0b 3e e4 04 3b be
       -0.12068373 -0.19662397 0.13634115 -0.18263584
000030 a0 41 1c bc b9 0d 0f be 58 5a 86 3c af 95 b1 ba
       -0.009537131 -0.13970079 0.016400501 -0.0013548638
000040 96 c0 ca bd 65 cb 7e 3d 6b 53 78 be d7 d5 19 be
       -0.09900014 0.06220569 -0.24250571 -0.1502298
000050 66 18 3d be 29 9a 6d 3e 72 a2 72 3e 56 5c b8 3c
       -0.18466339 0.23203339 0.2369478 0.022504967
000060 4d 6e 3a bd 2d 53 56 bd c6 9b 34 be 36 b4 26 be
       -0.045515347 -0.052325416 -0.17637548 -0.16279683
000070 6e e4 6c bd f3 ab 60 3e 5c af de 3d 7b e4 15 bd
       -0.057835035 0.21940593 0.10873291 -0.03659485
000080 d5 32 da 3d 2e fa 01 be 2b 5e 7a 3e b8 af 3c 3e
       0.10654227 -0.12693092 0.24449985 0.18426406
000090 fc bb 4d 3e e8 74 53 be fc 50 79 3e 11 df f2 bd
       0.20091242 -0.20650065 0.243473 -0.11858953
0000a0 bb 00 03 be 47 0b 58 be 73 b2 43 3d f1 07 46 be
       -0.12793247 -0.21098052 0.047777604 -0.19338967
0000b0 6f 6d ab 3d 0a 31 8c bd 35 95 08 3e ce f2 16 3d
       0.08370482 -0.06845291 0.13338168 0.03685265
0000c0 72 45 1b 3e 3e fd b6 3d 73 5a f4 3d 5f ec 30 be
       0.1516321 0.08935021 0.11931314 -0.17277668
0000d0 e5 b2 c8 3d 02 48 45 3e 18 60 fe bd 75 f3 26 be
       0.097997464 0.1926575 -0.12420672 -0.16303809
0000e0 32 4b 3b bd e1 2a c7 3c 36 b4 0d bd 3a 9b c5 bd
       -0.04572601 0.024312438 -0.03459569 -0.09648748
0000f0 23 fb 18 be 60 07 1e 3e 8d a1 0f 3d 3b be 3c be
       -0.14939551 0.15432501 0.035066176 -0.18431942
000100 a0 e6 19 be 6b 02 73 3d cf bf 49 be 58 ce 48 3d
       -0.15029383 0.059328478 -0.19702075 0.04902491
000110 3f a8 9e 3d 0c 65 04 be c1 b4 73 3e e5 ca 4b be
       0.07746934 -0.12929171 0.23799421 -0.19901617
000120 5d 86 1e be 88 39 0c bd e5 43 a3 bd a1 bc 36 be
       -0.15480943 -0.034234554 -0.07971934 -0.17845394
000130 1d 3a e6 bd 2e f5 61 be 83 02 dc 3d 93 cb 66 3e
       -0.11241553 -0.22066185 0.107426666 0.22538595
000140 dd 6c 94 3d f4 70 7a 3d 0c 6a 06 bd 5e 91 64 3e
       0.072473265 0.061142877 -0.032815978 0.22321078
000150 64 81 0d 3e 51 9a 18 3e 93 37 bc bd 82 19 76 bd
       0.1381889 0.14902617 -0.091902874 -0.06008292
000160 e2 b1 31 3d 1b 87 19 bd 6b b3 d9 3d dc 95 9f 3d
       0.043382533 -0.037482362 0.106299244 0.07792255
000170 63 0d 54 be 50 38 15 be f6 b7 09 be 4b 57 73 bd
       -0.20708232 -0.14572263 -0.13449082 -0.05940942
000180 f2 27 8a 3d 95 dc 04 be 96 ab 28 3d 8b 03 91 3d
       0.067459 -0.1297477 0.041179262 0.07080754
000190 ab d8 4e be 2a 43 08 3e 68 83 a6 bd 96 d1 13 3e
       -0.2019984 0.13306871 -0.081305325 0.1443542
0001a0 c5 ac 19 be df 0c 6d bd d1 04 55 be d9 1d 7b bd
       -0.15007313 -0.057873603 -0.20802619 -0.06130776
0001b0 0c bc 1d 3d 12 45 13 3e 2e e3 6e 3e 16 41 63 3e
       0.038509414 0.14381817 0.2332885 0.22192797
0001c0 fa 8d 6d 3e e6 53 62 3e d2 25 a5 bd 36 9d 34 3e
       0.23198691 0.22102317 -0.08063854 0.17638096
0001d0 c3 7d 81 bd a5 a2 5d be ad 03 60 bd b4 f1 89 bd
       -0.06322815 -0.21644075 -0.054691005 -0.06735554
0001e0 f3 8d dc bd 60 2b e9 3d 6a 54 37 3e 0e 13 35 be
       -0.10769262 0.11385226 0.17903295 -0.1768305
0001f0 b0 8a 47 3e 82 6d 03 3e 71 12 51 be c7 a7 71 3e
       0.19486499 0.12834743 -0.20417191 0.23599158
000200 3a 41 7e 3e 8c 83 15 3e f4 47 67 be d7 17 2b be
       0.2482957 0.14600962 -0.22586042 -0.16708313
000210 75 d9 8c bd f1 28 18 bb cc ce 0d 3e e9 97 cc bd
       -0.06877414 -0.0023217762 0.13848418 -0.09989912
000220 b0 67 af bd 42 3e 6f be 25 9f 09 be 44 10 42 be
       -0.08564699 -0.23363593 -0.13439615 -0.18951517
000230 28 7d 11 bd 86 39 70 3e 43 5f af bb 66 33 25 3e
       -0.03551975 0.23459443 -0.0053519323 0.16132888
000240 5f bc 07 bd 3c 53 02 be 1f 79 95 3d 6f 6c 21 3d
       -0.03313863 -0.12727064 0.07298493 0.03941005
000250 cc 1a e1 3d 1b 67 6e 3e 65 05 06 3d bb e4 a8 bd
       0.10991439 0.23281519 0.03271999 -0.08246752
000260 a7 06 3d bd 7b 18 4c be 93 ec f0 3d 13 0f 3c 3e
       -0.046148922 -0.19931214 0.11763873 0.18365125
000270 67 64 89 3d da c7 34 3e 7e 90 92 be 1f f1 0b 3e
       0.06708603 0.17654362 -0.28625864 0.13666199
000280 0d d0 0a 3e 90 c9 82 3e 2d 0b 03 bc 2c dd 04 3e
       0.13555928 0.25544405 -0.00799827 0.12974995
000290 63 a2 5f 3e 2d cd c7 bd b0 32 3c be f0 8b df bd
       0.2183929 -0.09755931 -0.18378711 -0.10915363
0002a0 94 fe 31 3e 40 01 f4 bd 95 97 5a be 3c 57 36 3e
       0.1738227 -0.11914301 -0.21346886 0.17806715
0002b0 2d 5d 84 3d 19 73 6a be c2 3d 0b 3d 62 66 37 3c
       0.06463084 -0.22895469 0.033994444 0.011193844
0002c0 28 51 0f 3e d1 a3 b4 bd f7 b1 32 3d ed 57 69 be
       0.13995802 -0.08820308 0.04362675 -0.22787447
0002d0 1c a1 3a 3e 94 7a be bd 42 a4 8e 3d 70 a2 46 be
       0.18225521 -0.09300724 0.069649234 -0.19397902
0002e0 51 38 45 be 4c 33 64 be 2e 26 77 be 73 a2 4d 3e
       -0.19259764 -0.22285193 -0.24135658 0.200815
0002f0 f6 1d 01 be 1e 9a 75 3e c7 57 40 3e b7 56 e1 bd
       -0.12609085 0.23984572 0.18783484 -0.11002868
000300 e8 3d 0d 3e df 8c 19 be 62 ba e8 bd 90 e3 99 bd
       0.13793147 -0.14995144 -0.11363675 -0.07514107
000310 c0 64 d7 3d 2c 2c 21 3e 76 49 14 3e d4 cb 5c be
       0.105172634 0.15739506 0.14481148 -0.2156213
000320 11 8b 97 3b af 92 67 3e 8b b4 1a be 6a 68 81 bd
       0.0046247323 0.22614549 -0.15107934 -0.063187435
000330 e5 79 7e 3d 75 6d 15 bd e0 69 dd 3d e5 ef 28 3e
       0.062127966 -0.03648134 0.1081121 0.16497763
000340 06 b6 68 bd 11 88 09 3e 3e c8 60 be 9e e6 ab 3d
       -0.056814216 0.13430811 -0.21951386 0.08393596
000350 4e 88 64 be 32 11 61 be 02 14 5b 3d e5 9a b3 3d
       -0.22317621 -0.21979216 0.053485878 0.08769778
000360 17 38 11 be 82 88 2a 3c fb 56 2e 3e d0 46 98 bd
       -0.14181553 0.010408523 0.17025368 -0.074353814
000370 57 48 0b 3e d3 37 5c 3e 61 4e 06 3d f2 4f 42 3e
       0.13601814 0.2150567 0.03278959 0.18975809
000380 c2 f4 05 be c0 b3 ee bd 80 a1 46 3e 74 21 aa bd
       -0.13081649 -0.11655378 0.19397545 -0.08307162
000390 47 f4 79 3e 30 fa d7 bd 38 c2 f6 3d 31 34 a7 bd
       0.2440959 -0.10545766 0.12048763 -0.081642516
0003a0 e4 ee 3f 3e fe ea 42 3e 12 e2 a5 bd 8a a1 68 3e
       0.18743473 0.19034955 -0.0809976 0.22717872
0003b0 d2 b8 52 be 10 62 df bc f1 82 3c bc 1d fe e2 3d
       -0.20578316 -0.02726844 -0.011505828 0.110836245
0003c0 6a 36 7a be c5 6b ee bc 53 58 62 be 1b 44 4a 3d
       -0.2443482 -0.029104123 -0.22104006 0.049381357
0003d0 15 03 41 3e 00 c5 ae bb ce e6 a5 3d 74 85 18 3e
       0.18848832 -0.005333543 0.08100663 0.14894658
0003e0 35 fd 23 be 65 fb 19 bd 87 4d 86 bd 4e 95 7a be
       -0.1601456 -0.037593264 -0.06557756 -0.24471018
0003f0 27 7a 30 3d 32 ec 55 3e 2a 1d 54 3d 66 94 82 3d
       0.043085244 0.20890883 0.051785626 0.06375961

gru.weight_hh_l0_reverse f4 [192, 64]
000000 a3 a3 24 bd 34 11 56 3b 60 32 59 bb c3 f5 bb 3d
       -0.04019512 0.0032664062 -0.0033141598 0.09177735
000010 37 3e 13 3d fc 0c 4f bd 58 95 00 be a0 fd 65 bd
       0.035948005 -0.050549492 -0.1255697 -0.05615008
000020 7c 71 db 3d 04 b6 5f bd f6 4c d1 bc 08 6d 85 bd
       0.10715005 -0.054616943 -0.025549393 -0.06514937
000030 13 82 ee 3d 2a 8a 62 3b 64 f1 da bd e1 b7 ea 3c
       0.116459034 0.0034567215 -0.10690573 0.028652133
000040 62 18 c4 bb 16 43 f8 3a 89 6e 16 bd 9d 23 56 bd
       -0.005984352 0.0018940892 -0.03672651 -0.052280057
000050 61 eb e7 bd 44 5d 1c bd 7f 45 b6 bc b7 3a 35 3e
       -0.11324192 -0.038174883 -0.022249935 0.17698179
000060 43 fb 59 3d ff f2 ad bd dd e8 90 3b 94 7a 2e 3d
       0.053218137 -0.084936135 0.0044222907 0.04259737
000070 f9 36 9a bd ab 5e 50 bd f8 fb 5f bd 32 e6 da bd
       -0.075300165 -0.050871532 -0.054683656 -0.106884375
000080 17 17 aa bc db 99 43 bd 0d 7a 0a bd 3c 95 4f bd
       -0.020762963 -0.04775415 -0.033807803 -0.05067943
000090 f7 28 08 3d c4 16 89 3c 9f 24 48 bd e3 1f f4 bd
       0.033242192 0.016734488 -0.04886305 -0.119201444
0000a0 03 9d 77 bd 77 ca ba bd 45 2a 45 3d c6 be dd 3c
       -0.060452472 -0.09120648 0.048136014 0.027068507
0000b0 9e c1 89 bd 9a 45 ae bb e6 77 86 3d b5 e7 a0 3d
       -0.06726383 -0.0053183557 0.065658376 0.078566946
0000c0 a3 30 6a 3c bf 76 c9 bd ed 3b 77 3c 57 e2 74 3d
       0.014293822 -0.09837102 0.015089971 0.059786167
0000d0 c3 c2 d6 3b 53 ce 20 be 48 be ca bd f9 4c a4 bc
       0.006553979 -0.15703706 -0.098995745 -0.020056235
0000e0 a0 e4 a1 bb 54 36 62 bd 8f 8e 02 3e 2c e3 21 bd
       -0.0049405843 -0.055227593 0.12749694 -0.03952329
0000f0 4a 1a b5 3d 52 02 24 3d d1 87 03 be 44 dc 06 3b
       0.08842905 0.040041275 -0.12844779 0.0020578066
000100 6d f9 3d 3e eb 43 1c bd bc 60 b8 bd 9c 2b 94 bd
       0.1855218 -0.03815071 -0.090028256 -0.0723488
000110 3a 10 41 3c b0 4b d7 bc 47 cd d8 bc f3 a2 21 3d
       0.011783654 -0.026281208 -0.026465071 0.03946204
000120 3c a3 ba 3d e4 cb 09 3e 3b 58 95 3a b3 d9 8a bd
       0.09113166 0.13456684 0.0011394093 -0.06779804
000130 77 c1 94 bc 4c 78 20 3d d4 ee 31 be d5 c8 9d bd
       -0.018158657 0.039177224 -0.17376262 -0.07704321
000140 a4 4b 5c 3d 00 e6 1a 3e fa 9a 47 bc e2 9a ce 3b
       0.053783074 0.151268 -0.012182945 0.0063050846
000150 46 49 b3 bd c0 60 98 bc 02 83 a7 3d 5f dd cb bd
       -0.0875421 -0.018600821 0.08179285 -0.099543326
000160 c0 99 a5 ba 67 68 d1 bc 95 5e 81 bc 3e 25 9c bd
       -0.0012634322 -0.025562478 -0.01579217 -0.07624291
000170 84 05 4c 3d 7f 1b e5 3a d9 eb 03 3e e8 f8 99 bd
       0.049809948 0.0017479508 0.12882937 -0.07518178
000180 16 cb 1f 3d 79 e8 c0 bd 3e ae 89 3d 32 51 0a 3d
       0.039012037 -0.09419341 0.06722687 0.03376884
000190 13 b0 cf bc a2 fe 03 3c 2b 48 aa bd fd f5 17 be
       -0.025352513 0.008056315 -0.08314546 -0.14839931
0001a0 98 97 23 bd 9a 1c 06 3e e7 3b f0 bd e7 63 54 3d
       -0.039939493 0.13096848 -0.117301755 0.051853087
0001b0 f0 70 12 3d 21 ef c4 bd f8 f6 26 3e 8c d4 13 3d
       0.035752237 -0.09615923 0.16305149 0.036091372
0001c0 ef 68 e3 3d fb 51 cc bc 8c eb 9c 3d 0e 90 21 3d
       0.11103999 -0.024941435 0.076621145 0.039444022
0001d0 0f 1b a5 bd ca 82 59 3d 94 e3 f7 bd 9b 29 40 3c
       -0.08061802 0.053103246 -0.12103954 0.0117286695
0001e0 50 34 08 bd 20 76 a5 bc a7 54 ba bb f9 35 2c 3d
       -0.033253014 -0.020197928 -0.005686361 0.04204366
0001f0 97 06 70 3d 51 b6 e2 bc 92 13 04 bd 14 63 20 be
       0.058600035 -0.027674826 -0.032245226 -0.15662795
000200 28 8a cb 3d dc 5d 2d bd d3 5a 15 3e 05 fb c6 3c
       0.099384606 -0.04232584 0.14585428 0.024289617
000210 a3 6a 03 bb 34 c3 b6 bd 25 7b 00 3d 42 10 6b 3c
       -0.0020052574 -0.08923951 0.03136744 0.014347138
000220 06 96 72 3d 6b f8 80 bd 49 75 37 be 72 ea 21 be
       0.059225105 -0.06297382 -0.17915834 -0.1581209
000230 70 4f b3 3d 7e e8 14 be 3d ff e6 3d 72 25 b5 3d
       0.08755386 -0.14541814 0.112791516 0.08845033
000240 fd 88 a7 3d f9 f0 10 3c 99 dd 57 3d 42 8c 9e ba
       0.08180425 0.008846515 0.052701566 -0.0012096243
000250 02 ce 91 bd 2b c2 5e 3d 4c b7 a2 bd c7 66 5f bd
       -0.07119371 0.05438439 -0.07945117 -0.054541375
000260 52 73 54 3c 56 28 21 bd 6a da 5f bd 31 36 92 bd
       0.012966948 -0.039345108 -0.054651655 -0.071392424
000270 64 ac bc bd 68 1d f3 bc 3a a0 f9 bc f8 dd ff bd
       -0.092125684 -0.029677108 -0.03047191 -0.12493509
000280 72 93 72 3d 8f 50 11 3d f7 c7 44 3d 80 8f bb bb
       0.059222646 0.035477217 0.048042264 -0.0057238936
000290 c8 47 a5 3d 03 7b 03 3d 72 18 64 bd 0c 93 d7 bc
       0.08070332 0.032099735 -0.055687375 -0.026315235
0002a0 0d e5 96 3c 96 13 a8 3b a4 3d fd 3d 73 71 18 bd
       0.018419767 0.005129288 0.12365273 -0.03721757
0002b0 7f 7a 4e bd 61 2e d1 bd 0d 33 ce 3c bd 44 e5 3d
       -0.05040979 -0.10213924 0.025170827 0.111947514
0002c0 42 dc 3d 3d cd 54 12 bc ad 3f 18 bc fd 6e 06 bd
       0.046352632 -0.008931351 -0.009292525 -0.03282069
0002d0 4d b0 3e 3c e3 01 92 3d ed 15 13 bb b4 ff 8e 3d
       0.011638713 0.07129266 -0.0022443489 0.06982365
0002e0 5e 9a d1 3c 86 49 df bc da 70 7e bc 21 a2 ec 3d
       0.025586303 -0.027256738 -0.015529836 0.11554361
0002f0 61 41 85 3d 2d 0a 3e bd 80 e8 15 3e 01 8e 68 3c
       0.06506611 -0.046396423 0.14639473 0.014194013
000300 dc cb 31 3d c0 5d 88 bc be 80 91 3c 25 e0 4c bd
       0.043407306 -0.016646266 0.017761584 -0.05001845
000310 1b 08 f0 bd 6e 3c cf 3c 0f f7 03 3e 76 c2 a9 bd
       -0.11720296 0.02529737 0.12887214 -0.082890436
000320 b4 0d b8 bd 90 46 5f bd bf 9b 66 3d d6 3f b9 bd
       -0.08986989 -0.054510653 0.056300875 -0.09045379
000330 94 e0 ff 3c 69 ab 82 bc 4f 2f fa ba b7 02 d5 3a
       0.031235017 -0.015950875 -0.0019087585 0.001625142
000340 93 04 82 bd 2d 9f 1d bd 2c 79 d7 bc b1 d9 3e bd
       -0.06348529 -0.03848188 -0.026302896 -0.046594325
000350 33 f6 15 3d 91 53 f6 3c d6 71 ee 3a 85 ad c2 3c
       0.036611747 0.030069144 0.0018191885 0.023764381
000360 fe e8 b7 3d a2 dd af 3d f4 1c 29 3e cd 9a 0f bd
       0.089799866 0.08587195 0.16514951 -0.03505974
000370 ec 99 0d bd d7 a9 2f bd 27 bb 2f 3e e8 50 dd bc
       -0.03457062 -0.04288658 0.17161237 -0.027016118
000380 90 55 b5 bd e0 ef b1 bd f2 e5 29 3c 3c 76 00 3d
       -0.088542104 -0.08688331 0.010369765 0.031362757
000390 e2 4d 2d bd f3 a8 b3 3d 7b af 94 bc 1d 4b c9 bc
       -0.042310603 0.08772459 -0.018150082 -0.02457195
0003a0 5c 37 83 bd 8f c1 8e 3d 4f 16 0e 3d 5c 3b 38 3d
       -0.06407043 0.06970512 0.034689244 0.044978485
0003b0 c2 60 94 bd 2e 97 37 bd 43 a5 c2 bd 80 cf 6e bc
       -0.072450176 -0.04482191 -0.095041774 -0.014575839
0003c0 5c 11 b6 3d 1e a2 5b 3e e1 b4 08 3e 05 43 aa 3c
       0.0889003 0.21448562 0.1335025 0.02078391
0003d0 14 16 fc 3c 10 d1 c8 bc 4a 6e 69 bd 5e 16 9b bd
       0.030772246 -0.024513751 -0.056989945 -0.075726256
0003e0 b6 c1 a7 bc 71 95 84 3c cc a5 4d bd eb 9c d3 3d
       -0.02047811 0.01618454 -0.050206944 0.10332664
0003f0 e1 69 ad 3c 40 8d b7 bc 52 86 62 bc 2f 19 69 3b
       0.021168651 -0.02240622 -0.01382597 0.003556799

gru.bias_ih_l0_reverse f4 [192]
000000 e2 e4 84 bb 99 9b 7b 3b 8a 76 6c 3a c2 60 a0 3c
       -0.0040556053 0.0038392304 0.0009020349 0.019577388
000010 6d 5e cd 3b bd 2c d2 3c 41 16 8b 3c 46 9b 98 3a
       0.00626736 0.025656098 0.016978385 0.0011642955
000020 7d 48 8a 3c dc f0 a1 3c a3 3e 17 bb 5e f7 a1 3c
       0.016880268 0.019768171 -0.0023078106 0.019771274
000030 4b 50 0f 3c 43 ee 64 3c 15 4a 98 3b f9 70 ce 3c
       0.008747171 0.013972822 0.004647503 0.025200354
000040 a8 e0 aa 3b c7 aa 67 3c 38 8c c6 3c f3 1d f9 3b
       0.0052147694 0.014139838 0.024236783 0.007602447
000050 20 34 99 3c 8b 6c 9e 3c 42 ad 90 3c 94 1f 58 3c
       0.018701613 0.019338867 0.01766074 0.013191123
000060 76 62 bd 3b 0b cd 52 3c fd 87 19 3d ed 43 12 39
       0.0057795597 0.012866269 0.037483204 0.0001394895
000070 8c 0e 26 3c 79 f1 c0 3c 81 15 ba bb 34 cc 73 3a
       0.010135304 0.023552643 -0.005678833 0.0009300143
000080 53 26 f0 3b 59 2d 55 3c c8 87 53 3b 64 98 af 3a
       0.0073287874 0.0130113 0.0032276977 0.0013396856
000090 74 cb 7d 3b 98 e2 c0 3c cc 9f 1b bc 0e a2 75 3c
       0.0038726004 0.023545548 -0.009498548 0.01499225
0000a0 36 ca 24 3b d7 8a 52 3c ef 60 e2 3b 2a 2c ee 3c
       0.0025144941 0.012850485 0.006908528 0.029073793
0000b0 12 3a 3e 3c 27 d3 e4 3b c6 05 ab 3c e1 99 2f 39
       0.011610525 0.006983179 0.020876776 0.00016746625
0000c0 c0 c4 e3 bb 91 d9 bf ba 2d 82 da 3c 5f 93 64 3c
       -0.0069509447 -0.0014636983 0.0266734 0.013951152
0000d0 45 f8 6d 3c 6a c4 67 3c ed d5 90 ba 08 9c 6d 3c
       0.014524524 0.01414595 -0.0011050083 0.014502533
0000e0 67 46 1b 3c 18 f3 c9 3b 02 f2 94 3c 3d ae 02 bb
       0.009477234 0.0061630122 0.018181805 -0.001994028
0000f0 88 da 50 3c ce 8b 3d 3c f9 fd b1 3c bf b0 4e 3c
       0.012747414 0.011568977 0.021727549 0.012615382
000100 fd d9 37 3d d9 26 15 bc 97 ee 1b bc fc b2 43 bc
       0.044885624 -0.0091035 -0.0095173335 -0.011944529
000110 0a 10 17 3d 48 46 55 3c 2c 3c 2b bc 4a 6a 93 bc
       0.03688053 0.013017245 -0.010451358 -0.017995019
000120 ea 93 15 3d dc 6c 32 bc 20 8b 17 3d 4d 4e 42 3d
       0.036518015 -0.010890212 0.036997914 0.047437955
000130 9b 0d c7 bc b1 96 2b 3c e8 3a 42 3d 09 da 60 3c
       -0.02429848 0.010472939 0.04741946 0.013723859
000140 03 6d b2 bc d1 c3 5c 3c aa 68 51 3d 08 0f 8c 3c
       -0.021780496 0.013474421 0.051125206 0.017097011
000150 fb b6 4a 3d a8 d7 74 3c 60 97 ff bc ec 89 fe 3b
       0.04949091 0.014943995 -0.03120011 0.0077679064
000160 ce 33 3d 3d 2c af bc 3c 4f c1 ca 3a 1d 78 60 3a
       0.046191983 0.023032747 0.0015468987 0.000856282
000170 56 91 e5 3c bd 34 8c bb 5b af 06 3d de c5 fa 3b
       0.028023403 -0.004278748 0.032882076 0.007652982
000180 e6 ca be ba 94 09 54 3d 7d aa c5 3c d2 5a 69 3b
       -0.0014556318 0.051766947 0.024129147 0.0035607112
000190 06 dc ab bc 01 ff c9 3c 64 79 6b 3c 3b 70 5f 3c
       -0.020978939 0.024657728 0.0143722035 0.013637598
0001a0 9a 69 5b ba ef 9c 7e 3c 25 81 df bc 39 5b 8b 3c
       -0.0008369923 0.015540346 -0.02728326 0.017011272
0001b0 85 41 e5 3b 59 cf 10 bc 67 0c ab bc d7 1a 0d 3b
       0.006996336 -0.008838498 -0.020879937 0.002153089
0001c0 46 ba aa 3c 05 fe 28 3d fc 35 2e 3d 83 36 01 3c
       0.020840775 0.041257877 0.042531952 0.007886532
0001d0 de ad 0b 3d 14 ad 7d bc 05 42 7c 3c 50 ba fa 3b
       0.03410136 -0.01548316 0.0153966 0.0076516047
0001e0 0f dd 62 bc 59 a1 97 3c 59 51 be 3b 75 77 2b bc
       -0.01384665 0.018509554 0.0058080372 -0.0104654925
0001f0 9b 07 2f 3d 71 bf d0 37 5f 37 00 3d f0 7c 9a 3c
       0.042731863 2.4884679e-05 0.031302806 0.018858403
000200 5f 25 04 3c 5e 53 b1 3a 00 8c 0f 3c 72 50 a8 3b
       0.008065551 0.0013528874 0.008761406 0.005136543
000210 1d e9 e1 bb 22 5d 68 bb 66 21 99 bb 53 cc d4 bb
       -0.0068942443 -0.0035455902 -0.004673171 -0.006494084
000220 c1 73 59 bc 2a 86 44 3c f9 57 01 bb af 01 00 bb
       -0.013272227 0.011994878 -0.0019736274 -0.0019532254
000230 0f ed b5 bb 18 6a 4e 3b 0f 1f 26 3a 02 33 b3 3b
       -0.005551941 0.0031496342 0.00063370256 0.005468727
000240 b4 38 f7 3a 26 ec 9a 3b 01 82 6e 3b e4 ae 2c bc
       0.0018861503 0.004727858 0.0036393406 -0.010539744
000250 de c2 7b 3b d1 68 28 3c 3b 5b 49 bc 4e 0d 64 3c
       0.003841571 0.010278896 -0.012289817 0.013919188
000260 f7 ee 0b bb eb da b3 3c e4 4e 08 bc ed 44 a1 3b
       -0.002135215 0.021954974 -0.00831959 0.0049215467
000270 cd b8 f1 3b 87 d0 d2 3b 25 4c 28 3c d3 23 08 bb
       0.0073767663 0.00643355 0.0102720605 -0.0020773306
000280 bb 4e bb bb e9 c3 82 bb 96 ef 22 3c 69 73 fa bb
       -0.0057161725 -0.0039906395 0.009944817 -0.0076431525
000290 ab 83 a7 3b c6 ba 86 bb ef 90 0a bc cf 08 54 b9
       0.0051121316 -0.0041116206 -0.008457406 -0.00020221177
0002a0 ff 5a 42 3c 5b c3 29 bc 5a 3f fd 3b a8 1d 06 bc
       0.0118625155 -0.010361518 0.0077284994 -0.008185782
0002b0 22 4c ca 3b a5 90 3f bc 10 9e f6 bb 17 51 b4 3b
       0.0061736265 -0.011692201 -0.0075261667 0.0055028307
0002c0 b0 a8 03 bc 74 4e f0 3b 41 f9 90 3b f1 a0 fe b9
       -0.008035824 0.007333571 0.0044242446 -0.00048566566
0002d0 3d 5b 32 3c 12 d7 e9 bb 77 a1 bc 3a a4 d5 87 ba
       0.010886011 -0.007136234 0.0014391382 -0.0010363352
0002e0 1f f5 60 bb 63 ae 0a 3c 17 99 d7 bb 5c 92 a1 3b
       -0.003432579 0.008464429 -0.006579529 0.0049307775
0002f0 66 b9 b8 3b d8 84 39 bb 52 16 bc 3b 6a 65 0d 3a
       0.0056373356 -0.002830794 0.0057399655 0.0005393835

gru.bias_hh_l0_reverse f4 [192]
000000 e2 e4 84 bb 99 9b 7b 3b 8a 76 6c 3a c2 60 a0 3c
       -0.0040556053 0.0038392304 0.0009020349 0.019577388
000010 6d 5e cd 3b bd 2c d2 3c 41 16 8b 3c 46 9b 98 3a
       0.00626736 0.025656098 0.016978385 0.0011642955
000020 7d 48 8a 3c dc f0 a1 3c a3 3e 17 bb 5e f7 a1 3c
       0.016880268 0.019768171 -0.0023078106 0.019771274
000030 4b 50 0f 3c 43 ee 64 3c 15 4a 98 3b f9 70 ce 3c
       0.008747171 0.013972822 0.004647503 0.025200354
000040 a8 e0 aa 3b c7 aa 67 3c 38 8c c6 3c f3 1d f9 3b
       0.0052147694 0.014139838 0.024236783 0.007602447
000050 20 34 99 3c 8b 6c 9e 3c 42 ad 90 3c 94 1f 58 3c
       0.018701613 0.019338867 0.01766074 0.013191123
000060 76 62 bd 3b 0b cd 52 3c fd 87 19 3d ed 43 12 39
       0.0057795597 0.012866269 0.037483204 0.0001394895
000070 8c 0e 26 3c 79 f1 c0 3c 81 15 ba bb 34 cc 73 3a
       0.010135304 0.023552643 -0.005678833 0.0009300143
000080 53 26 f0 3b 59 2d 55 3c c8 87 53 3b 64 98 af 3a
       0.0073287874 0.0130113 0.0032276977 0.0013396856
000090 74 cb 7d 3b 98 e2 c0 3c cc 9f 1b bc 0e a2 75 3c
       0.0038726004 0.023545548 -0.009498548 0.01499225
0000a0 36 ca 24 3b d7 8a 52 3c ef 60 e2 3b 2a 2c ee 3c
       0.0025144941 0.012850485 0.006908528 0.029073793
0000b0 12 3a 3e 3c 27 d3 e4 3b c6 05 ab 3c e1 99 2f 39
       0.011610525 0.006983179 0.020876776 0.00016746625
0000c0 c0 c4 e3 bb 91 d9 bf ba 2d 82 da 3c 5f 93 64 3c
       -0.0069509447 -0.0014636983 0.0266734 0.013951152
0000d0 45 f8 6d 3c 6a c4 67 3c ed d5 90 ba 08 9c 6d 3c
       0.014524524 0.01414595 -0.0011050083 0.014502533
0000e0 67 46 1b 3c 18 f3 c9 3b 02 f2 94 3c 3d ae 02 bb
       0.009477234 0.0061630122 0.018181805 -0.001994028
0000f0 88 da 50 3c ce 8b 3d 3c f9 fd b1 3c bf b0 4e 3c
       0.012747414 0.011568977 0.021727549 0.012615382
000100 fd d9 37 3d d9 26 15 bc 97 ee 1b bc fc b2 43 bc
       0.044885624 -0.0091035 -0.0095173335 -0.011944529
000110 0a 10 17 3d 48 46 55 3c 2c 3c 2b bc 4a 6a 93 bc
       0.03688053 0.013017245 -0.010451358 -0.017995019
000120 ea 93 15 3d dc 6c 32 bc 20 8b 17 3d 4d 4e 42 3d
       0.036518015 -0.010890212 0.036997914 0.047437955
000130 9b 0d c7 bc b1 96 2b 3c e8 3a 42 3d 09 da 60 3c
       -0.02429848 0.010472939 0.04741946 0.013723859
000140 03 6d b2 bc d1 c3 5c 3c aa 68 51 3d 08 0f 8c 3c
       -0.021780496 0.013474421 0.051125206 0.017097011
000150 fb b6 4a 3d a8 d7 74 3c 60 97 ff bc ec 89 fe 3b
       0.04949091 0.014943995 -0.03120011 0.0077679064
000160 ce 33 3d 3d 2c af bc 3c 4f c1 ca 3a 1d 78 60 3a
       0.046191983 0.023032747 0.0015468987 0.000856282
000170 56 91 e5 3c bd 34 8c bb 5b af 06 3d de c5 fa 3b
       0.028023403 -0.004278748 0.032882076 0.007652982
000180 e6 ca be ba 94 09 54 3d 7d aa c5 3c d2 5a 69 3b
       -0.0014556318 0.051766947 0.024129147 0.0035607112
000190 06 dc ab bc 01 ff c9 3c 64 79 6b 3c 3b 70 5f 3c
       -0.020978939 0.024657728 0.0143722035 0.013637598
0001a0 9a 69 5b ba ef 9c 7e 3c 25 81 df bc 39 5b 8b 3c
       -0.0008369923 0.015540346 -0.02728326 0.017011272
0001b0 85 41 e5 3b 59 cf 10 bc 67 0c ab bc d7 1a 0d 3b
       0.006996336 -0.008838498 -0.020879937 0.002153089
0001c0 46 ba aa 3c 05 fe 28 3d fc 35 2e 3d 83 36 01 3c
       0.020840775 0.041257877 0.042531952 0.007886532
0001d0 de ad 0b 3d 14 ad 7d bc 05 42 7c 3c 50 ba fa 3b
       0.03410136 -0.01548316 0.0153966 0.0076516047
0001e0 0f dd 62 bc 59 a1 97 3c 59 51 be 3b 75 77 2b bc
       -0.01384665 0.018509554 0.0058080372 -0.0104654925
0001f0 9b 07 2f 3d 71 bf d0 37 5f 37 00 3d f0 7c 9a 3c
       0.042731863 2.4884679e-05 0.031302806 0.018858403
000200 4d 8f fc 3b ae eb b9 3a 6e 30 17 3c 02 5c c0 3b
       0.0077075125 0.0014184618 0.009227855 0.005870343
000210 9d 8e fd bb 4a a4 83 bb c7 b6 81 bb 3c 86 db bb
       -0.007737948 -0.0040173875 -0.0039585563 -0.0066993516
000220 2e 6b 7f bc 95 6c 48 3c c9 b0 f5 ba 04 9f f5 ba
       -0.0155895185 0.012232919 -0.0018744703 -0.0018739407
000230 37 30 97 bb a9 eb 34 3b 06 28 83 3a b1 ef cd 3b
       -0.004613902 0.0027606285 0.0010006435 0.006284677
000240 f5 f2 13 3b 21 22 9e 3b 97 ae a7 3a 1f bd 2f bc
       0.0022575234 0.004825846 0.0012793121 -0.010726242
000250 b4 d6 f7 3a 7b d2 2a 3c 79 34 5e bc 24 1c 63 3c
       0.0018908591 0.010426159 -0.013562315 0.01386169
000260 eb 97 a2 ba 7e fd b2 3c 31 14 07 bc 23 ee a3 3b
       -0.0012404894 0.02184939 -0.00824456 0.0050027533
000270 27 17 00 3c e0 f0 bc 3b a5 f0 31 3c a6 25 2f bb
       0.00781802 0.005766019 0.010860597 -0.002672532
000280 06 d8 9a bb ad 55 bd bb ed 90 2c 3c 88 ee 09 bc
       -0.004725459 -0.0057780356 0.0105326 -0.008418687
000290 b0 bb a7 3b 8f c8 81 bb 66 7e 17 bc 71 a7 8c b9
       0.0051188096 -0.003960676 -0.009246444 -0.00026827634
0002a0 70 b9 36 3c 11 7b 2a bc 09 91 09 3c b0 1e 18 bc
       0.01115261 -0.010405318 0.0083963955 -0.00928466
0002b0 8b af 60 3b f4 0d 44 bc e0 a5 f8 bb c5 f5 aa 3b
       0.003428432 -0.011966217 -0.007588133 0.0052172863
0002c0 72 46 01 bc 1f 39 da 3b b4 9a 80 3b c0 ee 0c bb
       -0.007890331 0.0066596414 0.003924692 -0.002150461
0002d0 98 10 36 3c 0a 19 09 bc b1 17 d6 3a 98 6d 52 ba
       0.011112355 -0.008367786 0.0016333965 -0.0008027195
0002e0 98 5d 89 bb b0 20 d9 3b 43 4b da bb ae 93 ef 3b
       -0.0041920654 0.006626211 -0.006661804 0.007311306
0002f0 62 d4 e0 3b ce 2d 18 bb c0 61 ea 3b c6 4e 03 3a
       0.0068612555 -0.002322066 0.007152766 0.00050089916
