results/training/gpt-oss-120b_a100_tp8/model_tp8_H64_biGRU.pt (torch, 488813 bytes, 22 tensors)

in_norm.weight f4 [10]
0	0x3f81a121	1.0127298
1	0x3f811dc0	1.0087204
2	0x3f83ce81	1.0297395
3	0x3f7f1c7f	0.99652857
4	0x3f81f4b7	1.0152806
5	0x3f7f2369	0.99663407
6	0x3f8055a1	1.0026132
7	0x3f82ca6c	1.0218024
8	0x3f807459	1.0035506
9	0x3f81f6f7	1.0153493

in_norm.bias f4 [10]
0	0xbb6b4650	-0.0035900064
1	0x3bd5d7fc	0.0065259915
2	0x3b565cf4	0.0032709213
3	0x3b801f08	0.003909949
4	0xba5989f6	-0.0008298451
5	0x3b7b25df	0.0038322133
6	0x3b62ff22	0.0034636934
7	0xbbb37e9b	-0.005477739
8	0x3ad7b9dc	0.0016458589
9	0x3a87be88	0.0010356465

gru.weight_ih_l0 f4 [192, 10]
0	0x3e663088	0.2247945
1	0xbe5da30d	-0.2164423
2	0x3e437790	0.19088578
3	0x3de0f235	0.10983697
4	0x3e5c3620	0.21505022
5	0x3e2a839f	0.16651772
6	0x3d679414	0.056537703
7	0xbe6459aa	-0.22299829
8	0x3df27035	0.11837808
9	0xbda58405	-0.08081821
10	0xbcb04d40	-0.02152121
11	0xbe734fce	-0.23760912
12	0xbe19c661	-0.15017082
13	0xbe00de79	-0.12584867
14	0xbe01e5f3	-0.12685375
15	0x3e3782eb	0.17921035
16	0x3daa7c8b	0.08324536
17	0x3c8500c3	0.016235715
18	0xbe1fad26	-0.15593395
19	0xbe842431	-0.25808862
20	0xbd314d01	-0.043286327
21	0xbc97eb33	-0.018544769
22	0x3e3d095f	0.18460606
23	0xbd369697	-0.044577207
24	0xbe22c313	-0.15894727
25	0x3e5f6e8b	0.21819513
26	0x3e594ef7	0.21221529
27	0x3e4a46ac	0.19753522
28	0x3e34e13e	0.17664048
29	0x3e547c51	0.20750548
30	0x3d8d2e49	0.06893594
31	0x3e5f1185	0.21784027
32	0x3e3d97af	0.18514894
33	0xbe74d214	-0.23908263
34	0x3e3a80a7	0.1821314
35	0x3e23a0ba	0.15979281
36	0xbe50d6f2	-0.20394495
37	0xbd932079	-0.07183928
38	0x3e4f2ac6	0.2023116
39	0xbe4d4375	-0.20045264
40	0x3df6ed56	0.12056987
41	0xbe4051c5	-0.18781193
42	0xbe2ae5e8	-0.16689265
43	0xbc959751	-0.01826063
44	0x3e13cf60	0.14434576
45	0x3d0c189d	0.03420316
46	0xbd1f2c60	-0.03886068
47	0x3e5858e8	0.21127665
48	0x3deebea0	0.116574526
49	0x3e329126	0.17438182
50	0xbd3fd0c2	-0.046829946
51	0x3e559b24	0.20859963
52	0xbe306e3f	-0.17229556
53	0x3e0fe6c2	0.14052871
54	0xbe508c76	-0.20366082
55	0x3d0aab9e	0.033855073
56	0xbd06eb30	-0.032939136
57	0x3dc607e7	0.09669476
58	0xbc6b4f66	-0.014362192
59	0x3db30586	0.08741288
60	0x3e046623	0.12929587
61	0xbe7c3356	-0.24628958
62	0xbe827b8d	-0.25484887
63	0xbe24e035	-0.16101153
64	0xbe283ba3	-0.16429
65	0xbcf6a182	-0.03010631
66	0xbe428bd7	-0.18998657
67	0xbe16127a	-0.14655486
68	0x3d8fcf7c	0.070219964
69	0xbe37c0ee	-0.1794469
70	0x3e633540	0.22188282
71	0x3e4af657	0.19820534
72	0x3dd07d37	0.10180133
73	0x3e2e0118	0.16992605
74	0xbe094db8	-0.13408554
75	0x3db9dafc	0.09074971
76	0x3d13f5c3	0.03612305
77	0x3e80c03b	0.2514666
78	0xbd83283d	-0.06404159
79	0xbe563e0d	-0.20922108
80	0x3e07b4f4	0.13252622
81	0x3e4f0f85	0.20220764
82	0xbe320c63	-0.17387538
83	0x3e266be7	0.16252099
84	0x3db57a4d	0.08861218
85	0xbe50def4	-0.2039755
86	0xbe4eed6d	-0.20207758
87	0xbd3aef3a	-0.0456383
88	0xbcde7bb4	-0.027158596
89	0x3e2e9d7b	0.17052262
90	0xbe16af5d	-0.14715333
91	0xbd5045f4	-0.050847962
92	0xbcdbd0b2	-0.026832912
93	0xbe4a43f2	-0.19752482
94	0x3e0c7af0	0.13718772
95	0x3e41f60e	0.18941519
96	0xbda72b8a	-0.08162601
97	0x3d7872dd	0.060656417
98	0xbde526e8	-0.111890614
99	0xbded342d	-0.11582217
100	0xbe5c0881	-0.21487619
101	0x3e4982f4	0.19678861
102	0xbdec4150	-0.11535895
103	0xbe1590d8	-0.14606035
104	0x3e4816f6	0.19540009
105	0xbe0d0bd0	-0.13774037
106	0x3e7feb84	0.24992186
107	0xbb80e37e	-0.003933369
108	0x3e5501f8	0.20801532
109	0x3ccd8f66	0.025092792
110	0xbe1f5b48	-0.15562165
111	0x3de209db	0.11037036
112	0xbd11a993	-0.03556211
113	0x3c346a60	0.01101169
114	0x3d46f1f7	0.0485706
115	0x3cd75361	0.026284875
116	0x3d9cbc29	0.07653076
117	0x3e0ef702	0.13961414
118	0x3e42300e	0.18963644
119	0x3d1346a7	0.03595605
120	0xbded3560	-0.11582446
121	0xbe716dc5	-0.2357703
122	0xbd9ce000	-0.07659912
123	0x3e2deab1	0.16984059
124	0x3e55963c	0.20858091
125	0xbe24521a	-0.16046944
126	0x3e32e77c	0.17471117
127	0xbde08826	-0.10963468
128	0x3e13324f	0.1437466
129	0x3e52f519	0.2060131
130	0xbe61ca88	-0.22049916
131	0xbe6fa9ac	-0.23404568
132	0x3d94de13	0.0726892
133	0x3d88a4b8	0.066720426
134	0xbe2dcceb	-0.16972701
135	0x3cb1bb4b	0.021695754
136	0xbe6e38eb	-0.232639
137	0xbd82bcf3	-0.063836955
138	0x3dc2cd6d	0.09511838
139	0x3debd1ec	0.11514649
140	0xbe20c347	-0.15699492
141	0x3d26d76e	0.040732794
142	0x3dcf4dd2	0.10122265
143	0x3e174473	0.14772205
144	0xbe2863da	-0.1644434
145	0x3cc28c63	0.023748582
146	0xbddb8766	-0.107191846
147	0xbc3b8c04	-0.011446957
148	0xbe6fcfd4	-0.23419124
149	0x3e0f1503	0.13972859
150	0x3c9c7174	0.019097067
151	0x3e015763	0.12630992
152	0x3cdd2530	0.026995271
153	0xbde20666	-0.11036377
154	0x3e4ed649	0.20198931
155	0xbd197334	-0.037463382
156	0x3de547a1	0.11195303
157	0xbd1dbda6	-0.03851094
158	0x3dd081ef	0.10181033
159	0x3cbe3014	0.023216285
160	0x3e0ae9e6	0.13565788
161	0x3d706987	0.05869439
162	0xbcd21ddc	-0.025649004
163	0x3d771ab8	0.060328215
164	0xbe4a6ac3	-0.19767289
165	0x3e0e4db4	0.13896829
166	0x3e40bd35	0.18822177
167	0xbe5fb964	-0.21848065
168	0x3b8c7890	0.004286833
169	0xbe5fe686	-0.21865281
170	0xbe7873bd	-0.242629
171	0x3e15094e	0.1455433
172	0x3d338b72	0.043834157
173	0x3c83f195	0.016106406
174	0x3e1ce087	0.15320025
175	0x3e011b89	0.1260816
176	0xbe642491	-0.22279574
177	0x3d969f0d	0.07354555
178	0xbe13a7cd	-0.1441948
179	0x3d43f1e8	0.04783812
180	0x3e312d12	0.17302349
181	0xbe2340cd	-0.15942688
182	0x3dabd7a3	0.08390739
183	0x3e798bc6	0.24369726
184	0xbc9ad2a1	-0.018899264
185	0x3d80e0bc	0.06292865
186	0xbe4c1114	-0.1992839
187	0x3e29cb6d	0.16581507
188	0x3e1ff92b	0.15622394
189	0xbe1c8e8c	-0.15288752
190	0x3db5f1b8	0.08883995
191	0x3e2b605a	0.16735974
192	0xbe62922e	-0.22126076
193	0x3df90fa4	0.12161186
194	0x3e104c6b	0.14091651
195	0x3ba27a0d	0.0049583972
196	0x3dff7140	0.124727726
197	0xbe7cb402	-0.24678043
198	0xb9abbb8e	-0.000327554
199	0x3dea8092	0.11450304
200	0x3e4d03e8	0.20021021
201	0xbc0a524e	-0.0084424745
202	0x3d8c3624	0.06846264
203	0x3e6f26ee	0.23354694
204	0xbe316385	-0.1732312
205	0xbc05238f	-0.008126154
206	0xbe0dd2b5	-0.1384991
207	0xbe5eb718	-0.21749532
208	0x3de68f61	0.11257816
209	0xbe2fba4a	-0.17160907
210	0xbd391508	-0.045186073
211	0xbdcaaf12	-0.09896673
212	0x3e35bd4c	0.17747992
213	0xbcf1aaa1	-0.029500308
214	0x3e7c90a5	0.24664553
215	0x3e5e0799	0.21682586
216	0xbe20af8d	-0.15691967
217	0x3d5a53a1	0.05330241
218	0x3da32f18	0.07967967
219	0xbe0fcdeb	-0.14043395
220	0xbe673ecf	-0.22582553
221	0x3e4db04c	0.20086783
222	0x3bab79e8	0.005233038
223	0xbe59ecae	-0.21281692
224	0x3e03b2a2	0.12861112
225	0xbe6e4c89	-0.23271383
226	0x3d5bb7b3	0.053641986
227	0xbda4efc3	-0.080535434
228	0x3e76d915	0.24106248
229	0x3e0c3fe2	0.13696244
230	0x3e680b24	0.226605
231	0x3de81a13	0.11333098
232	0x3da13d50	0.078730226
233	0xbe866970	-0.26252317
234	0xbdab00d1	-0.08349765
235	0xbdf250f1	-0.118318446
236	0x3e3fbd7b	0.18724625
237	0x3e4734ea	0.19453779
238	0xbd590e1c	-0.05299197
239	0xbe108a60	-0.14115286
240	0xbd21e8cc	-0.039528653
241	0xbe67ebc9	-0.22648539
242	0x3dc89c98	0.09795493
243	0x3e279a6c	0.16367501
244	0x3d4d66a2	0.050146706
245	0xbdc2ac90	-0.0950557
246	0x3e5f4570	0.21803832
247	0x3e5955a7	0.2122408
248	0x3e22069a	0.15822831
249	0x3d426e14	0.04746826
250	0x3e54bd53	0.20775346
251	0xbc03b1c9	-0.008037993
252	0x3e84380b	0.25824007
253	0xbe016432	-0.12635878
254	0xbe00f5be	-0.12593743
255	0x3dfffcb8	0.12499374

gru.weight_hh_l0 f4 [192, 64]
0	0xbcc5cd78	-0.024145827
1	0x3d9f75c0	0.07786131
2	0x3c8c6bc6	0.017141234
3	0x3db4c602	0.088268295
4	0xbccbc14b	-0.024872443
5	0x3bc8e1b5	0.006130422
6	0xbc349b93	-0.01102342
7	0xbd3cbb2f	-0.04607695
8	0x3c9ab872	0.018886779
9	0x3c9f3ea2	0.019439045
10	0x3a3ce332	0.00072054856
11	0x3d5bd18d	0.05366664
12	0xbdd47930	-0.10374677
13	0xbd7eeb4b	-0.06223611
14	0x3d70fef2	0.058836885
15	0xbd49f3a2	-0.049304612
16	0x3aaeffe6	0.001335141
17	0xbe028b8c	-0.12748545
18	0x3cf9823d	0.03045761
19	0x3d2750fd	0.04084872
20	0x3def7388	0.11691958
21	0x3e0d0d75	0.13774665
22	0x3da5abbe	0.08089398
23	0x3dd45ae6	0.103689
24	0x3dc8260d	0.097728826
25	0x3c446299	0.011986398
26	0xbd2230cc	-0.039597318
27	0xbdac5b57	-0.08415859
28	0x3ca8f78b	0.02062585
29	0xbd8ffa2f	-0.070301406
30	0xbdae77a3	-0.08518913
31	0xbddeea46	-0.10884528
32	0x3d86511e	0.065584406
33	0xbd94575d	-0.07243226
34	0x3dbce765	0.092238225
35	0xbcb9d3b6	-0.02268396
36	0x3d061e3b	0.032743674
37	0xbcce61dc	-0.025193147
38	0xbbaaa2bf	-0.005207389
39	0xbd46f974	-0.04857774
40	0xbd5abb1f	-0.05340111
41	0x3ca8682d	0.020557487
42	0xbdde8c0b	-0.10866555
43	0xbd51082a	-0.051033176
44	0xbd06f67e	-0.032949917
45	0xbd74badd	-0.05974852
46	0xbdac4992	-0.0841247
47	0x3c9d23d6	0.019182127
48	0xbdc967de	-0.09834264
49	0x3d02bcce	0.03191834
50	0xbda388a1	-0.07985044
51	0xbd5df5ec	-0.054189608
52	0x3c0aae47	0.0084644025
53	0x3e278164	0.16357952
54	0xbdb703fe	-0.08936308
55	0x3e29e5fd	0.1659164
56	0xbcd7a9e3	-0.026326125
57	0x3cae3440	0.02126515
58	0xbd553a6f	-0.05205768
59	0x3dce408a	0.100709036
60	0xbd2e20f0	-0.04251188
61	0xbd9f62ee	-0.07782541
62	0x3d7fda39	0.062463973
63	0x3d1505ad	0.036382366
64	0xbdc87bc1	-0.09789229
65	0x3dee7383	0.11643126
66	0xbd315ab9	-0.04329941
67	0xbcc40cca	-0.02393188
68	0xbe399efb	-0.18127052
69	0xbcbb11f6	-0.022835713
70	0x3d840f8f	0.0644828
71	0xbd2f06f7	-0.04273125
72	0x3e0c45bd	0.13698478
73	0x3e00d155	0.12579854
74	0x3d930957	0.07179516
75	0xbdde6dc5	-0.108607806
76	0x3d431977	0.047631707
77	0xbddbae2a	-0.107265785
78	0xbd57142d	-0.052509475
79	0xbd79c296	-0.060976587
80	0xbbe84dd4	-0.007089356
81	0x39ca6232	0.00038601604
82	0xbd012ce9	-0.03153697
83	0x3e1c8d3a	0.15288249
84	0xbc4b9f45	-0.0124281095
85	0x3bb2534d	0.005442059
86	0xbdc0ff03	-0.094236396
87	0xbdd26ffc	-0.102752656
88	0x3d2ca76f	0.042151865
89	0x3e079868	0.13241732
90	0x3d4477c4	0.04796578
91	0xbd2c0b4a	-0.042002954
92	0x3d9a157e	0.075236306
93	0x3d20f9a8	0.03930059
94	0xbbade1f4	-0.0053064767
95	0xbd6e378c	-0.058158442
96	0xbcf5e60e	-0.030016925
97	0xbe0b0e73	-0.1357973
98	0x3d23cb81	0.039989
99	0x3c753eb3	0.014968562
100	0x37b03658	2.100614e-05
101	0x3e145ea8	0.14489233
102	0x3d5a216d	0.053254534
103	0xbc8e39ce	-0.017361548
104	0x3d9bb84b	0.076035105
105	0xbc85cbd4	-0.016332544
106	0x3dc0844d	0.09400234
107	0xbcef59a0	-0.029217541
108	0x3d0ac87a	0.033882596
109	0x3c2793b6	0.010228088
110	0xbd4dd957	-0.0502561
111	0x3d263dc4	0.040586248
112	0xbd89df10	-0.06731999
113	0xbd934f63	-0.07192876
114	0xbd9a3123	-0.07528903
115	0xbd2c6dfe	-0.042097084
116	0xbc6f7594	-0.014615435
117	0xbd9ee64e	-0.07758771
118	0x3e2e1558	0.1700033
119	0xbda0c2ac	-0.07849631
120	0xbca5a272	-0.020219062
121	0xbbb91882	-0.0056486735
122	0x3dcaf67e	0.09910296
123	0x3ca40a56	0.02002446
124	0x3ce4d95c	0.027935676
125	0xbd3bc2cc	-0.04584007
126	0x3c472df7	0.012156955
127	0x3e06b3f9	0.13154592
128	0x3bb792bb	0.0056022084
129	0x3c9b2dab	0.018942675
130	0x3d1a26b8	0.03763458
131	0x3c21ca49	0.009874889
132	0xbc36b5c5	-0.011151736
133	0x3df5bdda	0.11999102
134	0xbdae0e62	-0.08498837
135	0xbd0c39d6	-0.034234844
136	0x3d6916d3	0.056906532
137	0xbdabc0ef	-0.083864085
138	0x3d863c8c	0.06554517
139	0x3dd82f4e	0.10555898
140	0x3cb202c4	0.021729834
141	0x3e0b9833	0.13632278
142	0x3cb63376	0.022241335
143	0x3dd22d7d	0.102625825
144	0xbdb55b4f	-0.08855306
145	0xbb74d42c	-0.003735791
146	0x3dfe7c0d	0.124260046
147	0x3cb5f55f	0.022211729
148	0xbc391e4b	-0.011298726
149	0x3d1753a2	0.036944993
150	0x3de65ef7	0.11248582
151	0x3de87325	0.11350087
152	0x3cb94072	0.022613738
153	0x3d853117	0.06503504
154	0xbca2bd53	-0.019865667
155	0xbd634fa0	-0.05549586
156	0x3c5643d5	0.013077696
157	0xbd6f8286	-0.058474086
158	0xbcbd0cfc	-0.02307748
159	0x3d75701b	0.059921365
160	0xbd04f808	-0.032463104
161	0xbbd11401	-0.0063805585
162	0xbd3609a3	-0.044442784
163	0x3d81e9ad	0.06343398
164	0x3dec1e2d	0.11529193
165	0xbd578076	-0.052612744
166	0x3d37d417	0.04488
167	0x3e05b9d6	0.13059172
168	0xbbd0729f	-0.00636132
169	0x3b85bfa2	0.0040816823
170	0xbcd5ddcc	-0.026106738
171	0x3c9e259c	0.019305043
172	0x3c82d1d0	0.015969187
173	0x3cb03204	0.021508224
174	0xbcc685b8	-0.024233684
175	0x3d0ee644	0.034887567
176	0x3ca108ea	0.01965757
177	0xbd23a7a9	-0.039954815
178	0xbd8fa4b9	-0.0701384
179	0xbdcabd97	-0.09899443
180	0x3d33fbb7	0.043941226
181	0x3ac248c9	0.0014822717
182	0xbd3b692e	-0.045754604
183	0x3d5f633a	0.05453799
184	0x3d26d0a9	0.040726338
185	0xbd36c2c0	-0.04461932
186	0xbd870643	-0.06592991
187	0x3cfe3a61	0.031033697
188	0xbdd34d8c	-0.10317525
189	0x3df069ef	0.11738955
190	0xbe09dea9	-0.13463844
191	0xbda719b3	-0.081591986
192	0x3d139568	0.036031157
193	0x3d62268f	0.055212554
194	0x3b979467	0.0046258452
195	0xbd53cac1	-0.051707033
196	0xbc1e6ffa	-0.009670252
197	0x3cb8c898	0.022556588
198	0x3d94c773	0.072646044
199	0xbd62b211	-0.0553456
200	0x3d58e765	0.05295505
201	0xbc0414b5	-0.008061578
202	0xbd7e9e02	-0.062162407
203	0xbd9b5bf0	-0.07585895
204	0xbd92847a	-0.07154174
205	0x3d9e36d5	0.07725302
206	0x3be520c3	0.006992431
207	0xbcdabe7c	-0.026702158
208	0xbdc295c0	-0.09501219
209	0x3dea006e	0.11425863
210	0x3d097372	0.033557363
211	0xbc8e7031	-0.017387481
212	0xbd340f6c	-0.04396002
213	0x3dd84a82	0.10561086
214	0x3dde46cf	0.108533494
215	0xbce5f5ac	-0.028071247
216	0x3d9abe1c	0.07555792
217	0xbd33490f	-0.043770846
218	0x3e36a640	0.17836857
219	0xbda5a794	-0.080886036
220	0xbd01fd88	-0.031735927
221	0xbd78208d	-0.060577918
222	0x3cc12af5	0.023580054
223	0x3d0a3111	0.0337382
224	0xbd9bfec8	-0.07616955
225	0x3defd1bb	0.11709925
226	0x3d70063f	0.058599707
227	0xbc8459c0	-0.016156077
228	0x3d6e09aa	0.058114685
229	0xbca9db37	-0.020734413
230	0xbce10dca	-0.027472395
231	0x3bc91440	0.006136447
232	0x3ceb8406	0.028749477
233	0x3d8a815f	0.06762957
234	0x3d7e2b52	0.062053032
235	0x3db5c3d5	0.088752426
236	0xbc57115d	-0.013126698
237	0xbdc29723	-0.09501483
238	0xbd22d982	-0.039758213
239	0xbdcabfa2	-0.09899832
240	0xbca018b6	-0.019543033
241	0x3d83f7dd	0.064437605
242	0xbb37cec8	-0.0028046835
243	0xbdc15d49	-0.09441621
244	0xbdddf8d8	-0.10838479
245	0xbd0857e3	-0.03328694
246	0xbd86602a	-0.065613106
247	0x3db2d802	0.087326065
248	0xbd9e63c4	-0.077338725
249	0xbca22e3a	-0.019797433
250	0x3d79972f	0.060935196
251	0xbcd31bbb	-0.025770059
252	0x3d1f1549	0.03883866
253	0x3d81ca77	0.06337445
254	0xbe03c961	-0.12869789
255	0xbdff0ba0	-0.12453389

gru.bias_ih_l0 f4 [192]
0	0x3c684324	0.014176164
1	0x3c87aa88	0.016560808
2	0x3aa63c04	0.0012682681
3	0x3aa72b03	0.0012753907
4	0x3cc3a4e2	0.023882333
5	0x3b879108	0.004137162
6	0x3bde7684	0.0067890305
7	0x3bd61772	0.0065335566
8	0x398c5c5d	0.00026771697
9	0x3bcff4f1	0.006346338
10	0x3c5b6f7e	0.013393281
11	0x3aabe3fa	0.0013114207
12	0x3c0b76fb	0.008512254
13	0xbc63a3a8	-0.013893999
14	0xbb8eecc9	-0.004361723
15	0x3a9fa817	0.0012180832
16	0x3c084779	0.008317822
17	0x3c1daf7d	0.009624359
18	0xbb6efe5b	-0.0036467526
19	0x3b0aadd5	0.002116074
20	0xbb9906da	-0.004670006
21	0x3b683243	0.003543035
22	0x3ba3e24c	0.005001342
23	0x3bdce2eb	0.006740918
24	0xbc2961d1	-0.010338263
25	0x3b9f6f32	0.0048655504
26	0x3a2b2c3d	0.00065297243
27	0x3c26b80e	0.010175718
28	0x3b8116cf	0.0039394866
29	0x3c48ccb3	0.012255835
30	0x3cea8a8f	0.028630523
31	0xbb21992e	-0.0024657953
32	0xbb96af6d	-0.004598549
33	0xbc33426c	-0.010941129
34	0x3ca88357	0.02057044
35	0x3c5e2627	0.013558901
36	0xb9fc52c6	-0.00048126857
37	0xb8296272	-4.0384424e-05
38	0x3b1a9b25	0.0023591009
39	0x3ccb7100	0.024834156
40	0xbc0cfb0b	-0.008604775
41	0xbc026387	-0.0079582995
42	0x3cd24e92	0.02567223
43	0x3baebc71	0.0053325226
44	0x3c81e751	0.01585737
45	0xbc87f7dc	-0.01659768
46	0xba870759	-0.0010301872
47	0x3939f6c8	0.00017734908
48	0x3c485fc9	0.012229868
49	0x3c70be9a	0.01469388
50	0x3c2fa2db	0.01071998
51	0x3ba4b98e	0.0050270027
52	0x3bf2f44e	0.0074143773
53	0xb9857591	-0.0002545533
54	0x3c521364	0.012822006
55	0xbbd6f3ba	-0.006559816
56	0x3b4e199b	0.0031448368
57	0xbbf74b73	-0.007546836
58	0x3c5f9088	0.013645299
59	0x3ba17874	0.004927689
60	0x3c6cf03f	0.014461576
61	0x3c196f52	0.00936492
62	0xbbfe8bd0	-0.007768132
63	0x3cda2b7e	0.026632067
64	0xbc8f506e	-0.017494407
65	0x3b40b768	0.0029406194
66	0xbc53b747	-0.012922115
67	0x3ac0f541	0.0014721529
68	0x3ce46013	0.027877843
69	0x37820742	1.5500587e-05
70	0x3b978d97	0.004625033
71	0xbcf9ded1	-0.030501755
72	0x3c8d86b9	0.017276155
73	0x3bcf800b	0.0063324026
74	0x3cfe391a	0.031033088
75	0x3d2d7ab5	0.04235335
76	0x3ba7bba7	0.0051188054
77	0xbc9aa6ef	-0.018878428
78	0xbc370022	-0.011169465
79	0x3cd0329d	0.02541476
80	0xbbed5be7	-0.0072436216
81	0x3c2123cb	0.009835194
82	0x3c5fbe06	0.013656145
83	0x3a46a7a3	0.00075780804
84	0x3aa238b3	0.0012376517
85	0xbcd630bd	-0.026146287
86	0x3ca05989	0.019573944
87	0xbbd5dbbf	-0.00652644
88	0x3c95e78e	0.01829889
89	0xbc3bd421	-0.01146415
90	0x3c8ed7f1	0.017436953
91	0x3c35904d	0.011081767
92	0xbc22393d	-0.009901342
93	0x3be6b44f	0.0070405374
94	0x3d459768	0.048240095
95	0x3cacdb1c	0.021100573
96	0x3c1ff03d	0.009761867
97	0xbbdaf4aa	-0.0066819983
98	0xbc7d990e	-0.015478386
99	0x3d07ec68	0.03318444
100	0x3cb49c0c	0.022047065
101	0x3cbc9310	0.023019344
102	0xbc376122	-0.011192592
103	0x3d1d8ecf	0.03846627
104	0x3bac03f4	0.0052494947
105	0xbc006d40	-0.007838547
106	0x3d4a085f	0.04932439
107	0xbc720edd	-0.0147740515
108	0x3d189600	0.037252426
109	0x3ce75eb5	0.028243402
110	0xbca1634a	-0.019700665
111	0x3ca48b0c	0.020085834
112	0x3c243868	0.010023214
113	0xbcf52e17	-0.029929204
114	0x3d069e75	0.03286596
115	0x3c0f9c71	0.008765326
116	0xba788cbe	-0.00094814214
117	0x3c4b4dff	0.012408732
118	0xbbdd15a5	-0.006746965
119	0xbb5070d3	-0.003180553
120	0xbb1e79d0	-0.0024181493
121	0xbca51520	-0.020151675
122	0x3cc1af3e	0.023643132
123	0xbb3fd8b5	-0.0029273455
124	0x3cfd760d	0.03094008
125	0x3c83e713	0.016101396
126	0x3c8e5aa1	0.0173772
127	0xbb4d0d68	-0.0031288508
128	0xb9b1e198	-0.0003392815
129	0xbac8e58b	-0.0015327198
130	0x3b8c991b	0.0042907125
131	0xbc06dd5a	-0.008231485
132	0x38f0e2bc	0.000114863244
133	0x3c027eec	0.007964831
134	0x3bcdb749	0.006277953
135	0x3bb79558	0.00560252
136	0x3a36f799	0.0006979644
137	0xb9e8435e	-0.0004430068
138	0x3b6c33cb	0.0036041613
139	0xba36db51	-0.000697543
140	0xbc2dd237	-0.010609201
141	0xbb2a420e	-0.0025979313
142	0x3b3b5f09	0.002859058
143	0x3c684b41	0.014178098
144	0x3ba1b0b8	0.0049343966
145	0x3b744c63	0.0037276975
146	0xbaa16a61	-0.0012315029
147	0xbc2e3f6a	-0.010635236
148	0x3b9af6c4	0.004729124
149	0xb9897608	-0.00026218616
150	0x3ad21061	0.001602661
151	0xbc490c24	-0.012270961
152	0xbc2e0621	-0.010621578
153	0x3bfc3a19	0.0076973555
154	0x3bce7d5c	0.006301565
155	0xbb30a7bf	-0.0026955453
156	0xbbdb7dfd	-0.0066983686
157	0x3b9ccd38	0.004785206
158	0xbb057362	-0.0020362963
159	0xbb21f09c	-0.0024710065
160	0x3b4cc3d3	0.003124465
161	0x39db14f5	0.0004178655
162	0x36c7c976	5.9541153e-06
163	0x3b84cb92	0.004052588
164	0xbafc1a43	-0.0019233901
165	0x3aebd56b	0.0017992681
166	0x3b2cf689	0.0026392064
167	0xbb16967f	-0.0022977886
168	0x3b27971e	0.002557225
169	0x3bab5390	0.0052284673
170	0xbaac425e	-0.0013142338
171	0xbc3bf99b	-0.011473085
172	0x3b8a32a4	0.0042174626
173	0xbbd29eaf	-0.006427608
174	0xbb203ff6	-0.0024452186
175	0x396598aa	0.00021896014
176	0xb9f5db91	-0.0004689363
177	0xbb83546e	-0.0040078675
178	0xbb87337a	-0.0041260095
179	0x39c5dc5d	0.00037738952
180	0x3b070a28	0.0020605419
181	0x3b591c43	0.0033128418
182	0xbbd20f60	-0.0064105242
183	0xbb80f58d	-0.003935522
184	0x3b1b607b	0.002370863
185	0xba7fa0c9	-0.0009751437
186	0x3afd4b15	0.0019324744
187	0xbade60fe	-0.0016966162
188	0x3ba7aff4	0.005117411
189	0xbc060cd0	-0.008181766
190	0xbbf70bd8	-0.0075392537
191	0xba831d94	-0.0010003322

gru.bias_hh_l0 f4 [192]
0	0x3c684324	0.014176164
1	0x3c87aa88	0.016560808
2	0x3aa63c04	0.0012682681
3	0x3aa72b03	0.0012753907
4	0x3cc3a4e2	0.023882333
5	0x3b879108	0.004137162
6	0x3bde7684	0.0067890305
7	0x3bd61772	0.0065335566
8	0x398c5c5d	0.00026771697
9	0x3bcff4f1	0.006346338
10	0x3c5b6f7e	0.013393281
11	0x3aabe3fa	0.0013114207
12	0x3c0b76fb	0.008512254
13	0xbc63a3a8	-0.013893999
14	0xbb8eecc9	-0.004361723
15	0x3a9fa817	0.0012180832
16	0x3c084779	0.008317822
17	0x3c1daf7d	0.009624359
18	0xbb6efe5b	-0.0036467526
19	0x3b0aadd5	0.002116074
20	0xbb9906da	-0.004670006
21	0x3b683243	0.003543035
22	0x3ba3e24c	0.005001342
23	0x3bdce2eb	0.006740918
24	0xbc2961d1	-0.010338263
25	0x3b9f6f32	0.0048655504
26	0x3a2b2c3d	0.00065297243
27	0x3c26b80e	0.010175718
28	0x3b8116cf	0.0039394866
29	0x3c48ccb3	0.012255835
30	0x3cea8a8f	0.028630523
31	0xbb21992e	-0.0024657953
32	0xbb96af6d	-0.004598549
33	0xbc33426c	-0.010941129
34	0x3ca88357	0.02057044
35	0x3c5e2627	0.013558901
36	0xb9fc52c6	-0.00048126857
37	0xb8296272	-4.0384424e-05
38	0x3b1a9b25	0.0023591009
39	0x3ccb7100	0.024834156
40	0xbc0cfb0b	-0.008604775
41	0xbc026387	-0.0079582995
42	0x3cd24e92	0.02567223
43	0x3baebc71	0.0053325226
44	0x3c81e751	0.01585737
45	0xbc87f7dc	-0.01659768
46	0xba870759	-0.0010301872
47	0x3939f6c8	0.00017734908
48	0x3c485fc9	0.012229868
49	0x3c70be9a	0.01469388
50	0x3c2fa2db	0.01071998
51	0x3ba4b98e	0.0050270027
52	0x3bf2f44e	0.0074143773
53	0xb9857591	-0.0002545533
54	0x3c521364	0.012822006
55	0xbbd6f3ba	-0.006559816
56	0x3b4e199b	0.0031448368
57	0xbbf74b73	-0.007546836
58	0x3c5f9088	0.013645299
59	0x3ba17874	0.004927689
60	0x3c6cf03f	0.014461576
61	0x3c196f52	0.00936492
62	0xbbfe8bd0	-0.007768132
63	0x3cda2b7e	0.026632067
64	0xbc8f506e	-0.017494407
65	0x3b40b768	0.0029406194
66	0xbc53b747	-0.012922115
67	0x3ac0f541	0.0014721529
68	0x3ce46013	0.027877843
69	0x37820742	1.5500587e-05
70	0x3b978d97	0.004625033
71	0xbcf9ded1	-0.030501755
72	0x3c8d86b9	0.017276155
73	0x3bcf800b	0.0063324026
74	0x3cfe391a	0.031033088
75	0x3d2d7ab5	0.04235335
76	0x3ba7bba7	0.0051188054
77	0xbc9aa6ef	-0.018878428
78	0xbc370022	-0.011169465
79	0x3cd0329d	0.02541476
80	0xbbed5be7	-0.0072436216
81	0x3c2123cb	0.009835194
82	0x3c5fbe06	0.013656145
83	0x3a46a7a3	0.00075780804
84	0x3aa238b3	0.0012376517
85	0xbcd630bd	-0.026146287
86	0x3ca05989	0.019573944
87	0xbbd5dbbf	-0.00652644
88	0x3c95e78e	0.01829889
89	0xbc3bd421	-0.01146415
90	0x3c8ed7f1	0.017436953
91	0x3c35904d	0.011081767
92	0xbc22393d	-0.009901342
93	0x3be6b44f	0.0070405374
94	0x3d459768	0.048240095
95	0x3cacdb1c	0.021100573
96	0x3c1ff03d	0.009761867
97	0xbbdaf4aa	-0.0066819983
98	0xbc7d990e	-0.015478386
99	0x3d07ec68	0.03318444
100	0x3cb49c0c	0.022047065
101	0x3cbc9310	0.023019344
102	0xbc376122	-0.011192592
103	0x3d1d8ecf	0.03846627
104	0x3bac03f4	0.0052494947
105	0xbc006d40	-0.007838547
106	0x3d4a085f	0.04932439
107	0xbc720edd	-0.0147740515
108	0x3d189600	0.037252426
109	0x3ce75eb5	0.028243402
110	0xbca1634a	-0.019700665
111	0x3ca48b0c	0.020085834
112	0x3c243868	0.010023214
113	0xbcf52e17	-0.029929204
114	0x3d069e75	0.03286596
115	0x3c0f9c71	0.008765326
116	0xba788cbe	-0.00094814214
117	0x3c4b4dff	0.012408732
118	0xbbdd15a5	-0.006746965
119	0xbb5070d3	-0.003180553
120	0xbb1e79d0	-0.0024181493
121	0xbca51520	-0.020151675
122	0x3cc1af3e	0.023643132
123	0xbb3fd8b5	-0.0029273455
124	0x3cfd760d	0.03094008
125	0x3c83e713	0.016101396
126	0x3c8e5aa1	0.0173772
127	0xbb4d0d68	-0.0031288508
128	0xba2fdfee	-0.00067090883
129	0xbad4e19e	-0.0016241556
130	0x3b8625f8	0.0040938817
131	0xbc12e4a2	-0.008965643
132	0x3a1144ff	0.0005541592
133	0x3bfad9e3	0.0076553687
134	0x3beed043	0.0072880103
135	0x3bc88fa6	0.00612064
136	0xb9f3fcdc	-0.00046536967
137	0xba3b1249	-0.00071362086
138	0x3b4c6ecb	0.0031193967
139	0xba5df96a	-0.00084676465
140	0xbc24f207	-0.010067469
141	0xbb035696	-0.0020040623
142	0x3a929743	0.0011183996
143	0x3c78b53e	0.01517993
144	0x3b8fdc15	0.0043902495
145	0x3b85db42	0.0040849755
146	0xb951aac3	-0.00019995407
147	0xbc28b66a	-0.010297397
148	0x3bb252b9	0.00544199
149	0xb9dedf0d	-0.00042509325
150	0x3b689903	0.0035491593
151	0xbc6aa87f	-0.014322399
152	0xbc2f7314	-0.010708589
153	0x3bdde2de	0.0067714294
154	0x3baf345d	0.0053468184
155	0xb9197108	-0.00014633324
156	0xbbb833c5	-0.005621406
157	0x3bbe4267	0.0058062556
158	0xbb1d5b10	-0.0024010576
159	0xbb6d7955	-0.003623565
160	0x3b5416d9	0.003236225
161	0xbb13c1a7	-0.0022545846
162	0x39bd518b	0.00036109643
163	0x3b86b0e8	0.0041104443
164	0xbaad11c0	-0.0013204142
165	0x3aab00ed	0.001304654
166	0x3b29b4e5	0.0025895175
167	0xb9f5e656	-0.00046901655
168	0x3b1d7927	0.0024028511
169	0x3bb7b5e3	0.0056063994
170	0xbb2f89a8	-0.002678493
171	0xbc2e9f60	-0.010658115
172	0x3b0d7c74	0.0021589072
173	0xbb9fa884	-0.0048723835
174	0xbb118179	-0.0022202416
175	0x3b2fe720	0.0026840642
176	0xba4e23ea	-0.0007863628
177	0xbbb0bcf2	-0.005393618
178	0xbae59d4e	-0.0017518194
179	0x39d68df5	0.00040923027
180	0x3b2831f8	0.002566455
181	0x3b47a48d	0.003046307
182	0xbbeae5af	-0.0071684937
183	0xbb5f85f0	-0.0034106933
184	0x3b050b32	0.0020300862
185	0x3aac4168	0.0013142051
186	0x3ae75f7b	0.0017652357
187	0xbb558dfa	-0.0032585845
188	0x3bc735dc	0.0060794186
189	0xbc09b71c	-0.008405473
190	0xbbe12be3	-0.006871687
191	0x39b8c050	0.000352385

gru.weight_ih_l0_reverse f4 [192, 10]
0	0xbba9fdc3	-0.0051877215
1	0xbbed6f74	-0.0072459523
2	0xbde32ba8	-0.11092311
3	0xbdc5b0cd	-0.09652863
4	0xbe4fb6bc	-0.20284551
5	0x3cec893e	0.028874036
6	0x3e611778	0.21981609
7	0x3e5f7113	0.21820478
8	0xbe55e50d	-0.20888157
9	0xbe6e582a	-0.2327582
10	0xbd4ccd6c	-0.050000593
11	0xbe50c60e	-0.20388052
12	0xbe7448ce	-0.23855898
13	0xbe6b82b1	-0.22999074
14	0xbe62ec52	-0.22160462
15	0xbe6e420e	-0.23267385
16	0xbe2fdbca	-0.17173687
17	0xbd75d861	-0.060020808
18	0xbe12e28a	-0.1434423
19	0xbd573488	-0.052540332
20	0x3e5d56e3	0.21615176
21	0xbe12974d	-0.14315529
22	0xbe275d62	-0.16344216
23	0xbe0b3f23	-0.13598303
24	0xbc088017	-0.00833132
25	0x3d84ebd1	0.06490291
26	0x3e08fa8a	0.13376823
27	0xbdde52ec	-0.1085566
28	0xbd2ad240	-0.041704416
29	0xbcfc0eae	-0.030768719
30	0x3e0caed8	0.13738573
31	0xbd270378	-0.040774792
32	0xbd92d974	-0.07170382
33	0x3e0d0416	0.1377109
34	0xbda66e63	-0.08126523
35	0x3e58ad98	0.21159971
36	0xbe20d653	-0.15706758
37	0x3ddc01c8	0.10742527
38	0x3e5b5c69	0.2142197
39	0xbe5a86f1	-0.21340539
40	0x3e65b124	0.22430855
41	0x3e5f0888	0.21780598
42	0xbe5cd2f6	-0.2156485
43	0x3dd67ab2	0.10472621
44	0xbd970dde	-0.07375692
45	0xbe4b2db0	-0.19841647
46	0xbd297a56	-0.041376434
47	0xbdf938c9	-0.12169034
48	0xbc915977	-0.017742855
49	0x3c697138	0.014248185
50	0x3d121825	0.035667557
51	0xbd03c221	-0.032167558
52	0xbe0f2b33	-0.13981323
53	0xbe1fac6f	-0.15593122
54	0xbe2d36e6	-0.16915473
55	0x3e4f7403	0.20259099
56	0x3de655c2	0.11246826
57	0xbdc649b8	-0.096820295
58	0x3cb0d143	0.021584159
59	0x3e3287f3	0.17434673
60	0x3d71c31f	0.059023973
61	0xbe032e04	-0.12810522
62	0x3e115f73	0.14196567
63	0xbe01718f	-0.12640975
64	0x3e1932db	0.14960806
65	0xbe2cd9f5	-0.16880019
66	0xbb3f5d96	-0.0029200069
67	0xbdf61dc1	-0.12017394
68	0xbdf1bacb	-0.11803206
69	0x3e63d872	0.22250536
70	0xbdffe9c7	-0.12495761
71	0xbd5992f2	-0.053118654
72	0xbdac95f2	-0.08427037
73	0x3e6ceb6e	0.23136684
74	0x3e2ae6ed	0.16689654
75	0x3cab88c5	0.02093924
76	0x3e4a34da	0.19746724
77	0xbe8a8716	-0.27056187
78	0xbe50f32f	-0.20405267
79	0x3e2b3b58	0.16721857
80	0xbd8a1cb6	-0.067437574
81	0xbe4082ec	-0.18799943
82	0x3db76dac	0.08956465
83	0x3d1a6452	0.03769333
84	0x3d15d214	0.0365773
85	0xbe09d399	-0.13459624
86	0xbdede9be	-0.116168484
87	0x3e0222e7	0.12708627
88	0x3e36f002	0.17864993
89	0x3d94204d	0.072327234
90	0x3e1b5627	0.15169583
91	0x3d2c563e	0.042074434
92	0x3cf51ee8	0.029921964
93	0x3dda5fb3	0.106627844
94	0x3e0230fe	0.12714002
95	0xbc0f0115	-0.008728285
96	0x3e395123	0.18097357
97	0x3c5906a4	0.013246212
98	0xbd8232f1	-0.063573726
99	0x3dea9c67	0.11455613
100	0x3ddab0de	0.10678266
101	0x3cc4c9cd	0.024022007
102	0x3e548532	0.20753935
103	0xbdd3d66e	-0.103436336
104	0xbc9618e5	-0.018322418
105	0x3e286662	0.16445306
106	0xbe12e512	-0.14345196
107	0x3d25f3cf	0.040515717
108	0x3e84c1b8	0.25929046
109	0xbe2595a2	-0.16170362
110	0x3db44104	0.08801463
111	0xbe76894b	-0.2407581
112	0x3e71bbfe	0.2360687
113	0xbe00a5d9	-0.12563266
114	0xbd3a0d45	-0.04542281
115	0x3e0f6dab	0.14006679
116	0xbe14e689	-0.14541067
117	0xbde5b7d5	-0.11216704
118	0x3d20f43c	0.03929542
119	0xbd107d20	-0.03527558
120	0x3d04e4fa	0.03244493
121	0x3dfc93cb	0.12332877
122	0x3d816605	0.06318287
123	0xbde49afe	-0.11162375
124	0x3c309a09	0.010778912
125	0xbd22d1d6	-0.039750896
126	0xbd87c23d	-0.06628845
127	0xbe26636e	-0.16248867
128	0xbe16d537	-0.14729773
129	0xbdd23e5f	-0.102658026
130	0x3e42ff9a	0.19042817
131	0xbd64837c	-0.055789456
132	0x3e83e03e	0.2575702
133	0x3d629083	0.0553136
134	0xbe1dcd47	-0.15410338
135	0xbe4a5e64	-0.1976257
136	0x3defae9c	0.11703226
137	0x3c36095f	0.011110633
138	0xbe2f4242	-0.17115119
139	0x3e1d73b1	0.15376164
140	0xbd687c61	-0.056759242
141	0x3e4bd7ce	0.19906542
142	0xbde8c1ac	-0.11365065
143	0x3e3d3307	0.18476497
144	0x3e4c3f17	0.19945942
145	0x3df59998	0.11992186
146	0x3e2d57ab	0.16927974
147	0xbe6a3ce6	-0.22874793
148	0xbbbe8cce	-0.005815125
149	0xbe3e5259	-0.185861
150	0x3e6fe635	0.23427661
151	0xbd7a7688	-0.061148196
152	0x3e794679	0.2434329
153	0x3d62b9ed	0.055353094
154	0xbd9e7aaf	-0.07738244
155	0xbe5bfe0a	-0.21483627
156	0x3d5dca72	0.054148145
157	0xbe68ed8b	-0.22746865
158	0x3cc577c7	0.024104966
159	0xbe7c48d1	-0.24637152
160	0x3e55fe40	0.2089777
161	0x3e7bb9dd	0.2458262
162	0x3dd8ea18	0.10591525
163	0x3e04342a	0.12910524
164	0xbdf93667	-0.121685795
165	0xbe68b5e4	-0.22725636
166	0x3dc807af	0.097670905
167	0xbd7a6b27	-0.061137345
168	0xbc97c2a6	-0.018525433
169	0x3e5cdd47	0.21568786
170	0x3da5fd41	0.08104945
171	0x3d8dfc0d	0.069328405
172	0x3e05ec12	0.13078335
173	0x3d1f702d	0.03892534
174	0xbdec607d	-0.11541841
175	0x3d6f91a9	0.05848852
176	0x3d857bb2	0.06517734
177	0xbcebb862	-0.028774444
178	0xbe174199	-0.14771117
179	0xbe46a668	-0.19399416
180	0xbe6dfa14	-0.23239928
181	0xbe71b91b	-0.23605768
182	0xbd11cbc5	-0.03559472
183	0x3de6cb03	0.1126919
184	0xbccdea80	-0.025136232
185	0x3dba75c6	0.09104495
186	0x3d30a680	0.043127537
187	0xbd880a57	-0.06642597
188	0xbe39b63c	-0.18135923
189	0xbe2576f7	-0.16158663
190	0x3e617381	0.22016717
191	0xbe1cc210	-0.15308404
192	0x3e43dee9	0.19128002
193	0xbe85240e	-0.2600407
194	0xbe062e56	-0.13103613
195	0x3e5be9b7	0.21475874
196	0x3d0ad71a	0.033896543
197	0xbe1ce3a2	-0.1532121
198	0x3d9e622a	0.07733567
199	0xbe50802f	-0.20361398
200	0x3d1b1ef8	0.03787133
201	0xbe226148	-0.15857422
202	0xbdb9f36c	-0.09079632
203	0x3d6ef801	0.058341984
204	0x3e10d495	0.14143594
205	0xbdee9f12	-0.11651434
206	0x3df15d91	0.117854245
207	0xbdb18325	-0.08667592
208	0xbe75e462	-0.24012902
209	0xbce580ff	-0.028015612
210	0xbe3aca6e	-0.18241283
211	0xbcb42e2c	-0.021994673
212	0xbe168a97	-0.14701305
213	0xbe514dde	-0.2043986
214	0xbe7a4ccb	-0.24443357
215	0x3dc64917	0.096819095
216	0xbe52cf8f	-0.2058699
217	0xbe5bb9af	-0.21457551
218	0x3d2028ad	0.03910129
219	0xbde2c49b	-0.11072656
220	0xbe30b0d5	-0.17254956
221	0x3e437992	0.19089344
222	0xbe80b4f7	-0.25138065
223	0xbdda2348	-0.106512606
224	0x3e4632cc	0.19355315
225	0x3e32c28c	0.17457026
226	0xbdd61985	-0.10454086
227	0x3cc9be19	0.024626778
228	0x3e4b714e	0.19867441
229	0x3d75bb29	0.059992943
230	0x3dd9ec0a	0.10640724
231	0x3e207bf1	0.1567228
232	0x3dbd57f4	0.09245291
233	0x3e167d90	0.14696336
234	0xbdc9cca4	-0.09853485
235	0xbe04f2c7	-0.12983237
236	0x3dce86e4	0.10084322
237	0x3dfeef35	0.12447969
238	0xbe6f0474	-0.23341542
239	0xbe5c366f	-0.2150514
240	0xbe3cd87a	-0.18441954
241	0x3dff744e	0.12473355
242	0xbe383e3e	-0.17992494
243	0x3d87064c	0.06592998
244	0xbc7c060f	-0.015382304
245	0xbc98ff70	-0.01867649
246	0x3defe2e9	0.117132016
247	0xbe0ffcc3	-0.14061265
248	0xbe03da19	-0.12876166
249	0x3e365fd5	0.17809995
250	0x3d0188ee	0.031624727
251	0xbc65ee61	-0.014033885
252	0x3e5feb40	0.21867085
253	0x3e464e9f	0.19365929
254	0x3e32be1a	0.1745533
255	0xbe18ab18	-0.14909017

gru.weight_hh_l0_reverse f4 [192, 64]
0	0xbd099370	-0.033587873
1	0x3d53f38e	0.051745944
2	0x3d60a97e	0.05484914
3	0xbdbf3bf0	-0.09337604
4	0x3e0f8656	0.14016089
5	0x3c2192e8	0.009861685
6	0x3ce8dbb3	0.028425073
7	0x3de3fcaf	0.1113218
8	0x3dcf3e3d	0.10119293
9	0x3dadb701	0.08482171
10	0x3ddbca5c	0.10731956
11	0xbc9477cb	-0.018123528
12	0xbe0ada2a	-0.13559785
13	0xbe1530d7	-0.14569412
14	0xbd7e4384	-0.062076107
15	0xbd59d1f5	-0.053178746
16	0xbe2cb8c1	-0.16867353
17	0xbc728af6	-0.014803639
18	0xbd293927	-0.04131427
19	0x3a229e63	0.0006203411
20	0xba8f6dbf	-0.0010942741
21	0xbd629e7b	-0.05532692
22	0x3d290e96	0.041273676
23	0xbd150d7b	-0.03638981
24	0x3d1d4e12	0.03840453
25	0xbc36133e	-0.011112986
26	0xbd8c18cf	-0.06840669
27	0x3ddc27be	0.10749768
28	0x3c21581a	0.009847665
29	0x3c357d09	0.011077174
30	0xbc88c23c	-0.01669418
31	0xbd6e170f	-0.05812746
32	0xbbd3fc6a	-0.006469299
33	0xbd1a4cf5	-0.03767105
34	0x3daccf30	0.084379554
35	0xbcc11922	-0.023571555
36	0xbc2aaaeb	-0.010416727
37	0xbc8831ad	-0.01662525
38	0xbe4deba0	-0.20109415
39	0x3d412dd1	0.047162835
40	0x3c32221d	0.010872391
41	0x3e0a13a4	0.13484055
42	0xbe01cf5b	-0.12676756
43	0xbd086593	-0.033299994
44	0xbcbae554	-0.02281443
45	0x3b864c3f	0.0040984447
46	0x3c9283ab	0.01788505
47	0xbbea82fe	-0.0071567288
48	0x3d3523c2	0.044223554
49	0x3b0e1e49	0.0021685532
50	0x3d8ad690	0.06779206
51	0x3d7769e0	0.060403705
52	0xbde7ea7d	-0.11324022
53	0xbe06d227	-0.13166104
54	0xbddafeab	-0.10693105
55	0xbd183d82	-0.037168033
56	0xbdf39287	-0.11893182
57	0x3d80a153	0.0628077
58	0x3df4c5a7	0.11951762
59	0xbe096625	-0.13417871
60	0x3df244b6	0.11829512
61	0x3dc56b0b	0.096395575
62	0xbc9bf8ef	-0.0190396
63	0x3df9d7a9	0.12199337
64	0xbcdfe1d1	-0.027329357
65	0xbd07cb78	-0.033153027
66	0x3dabbbdb	0.0838544
67	0xbd2dd000	-0.042434692
68	0xbce544b8	-0.02798687
69	0x3d0315b9	0.03200314
70	0xbe08c738	-0.13357246
71	0x3cd4a147	0.02595581
72	0xbda55a9e	-0.080739245
73	0x3b8f4b09	0.0043729586
74	0x3d6de9d5	0.058084328
75	0xbb40cb33	-0.0029417991
76	0xbd1cd094	-0.038284853
77	0xbdad8f4f	-0.084745996
78	0xbbbb5115	-0.005716453
79	0xbd946894	-0.07246509
80	0x3c95f103	0.0183034
81	0xbb5b5806	-0.0033469214
82	0x3d663e75	0.056211907
83	0x3dfb41bf	0.122683994
84	0xbc07847b	-0.008271332
85	0xbd81c8da	-0.063371375
86	0x3d85e060	0.06536937
87	0xbd6062a7	-0.054781582
88	0xbdfedd55	-0.124445595
89	0xbda7e5d7	-0.08198135
90	0x3da29c61	0.07939983
91	0xbc5e8834	-0.013582278
92	0x3dd288c1	0.1027999
93	0x3dc168ef	0.094438426
94	0xbc831a94	-0.016003884
95	0x3db04e00	0.08608627
96	0xbd92bab8	-0.0716452
97	0x3dac235b	0.08405181
98	0xbcdacc78	-0.026708826
99	0x3dc30370	0.0952214
100	0xbd2aac41	-0.04166818
101	0xbd8fa600	-0.07014084
102	0x3d54d0d4	0.051956967
103	0x3bcda5d3	0.0062758713
104	0xbd7b0797	-0.061286535
105	0xbe34481b	-0.17605631
106	0x3c24d8f4	0.010061491
107	0xbd1986d8	-0.037482113
108	0x3dc7a1ba	0.09747644
109	0xbdac2cc4	-0.08406976
110	0x3cffb2cb	0.031213185
111	0x3e0df7be	0.13864037
112	0xbe09e4b3	-0.13466148
113	0xbe045cb7	-0.12925993
114	0xbdf1d8d1	-0.118089326
115	0xbd24d508	-0.040242225
116	0xbdebea89	-0.115193434
117	0xbd63f914	-0.05565746
118	0xbd58a62e	-0.052892856
119	0x3d55343c	0.052051768
120	0x3cdcf38b	0.0269716
121	0x3d207fca	0.03918437
122	0xbcc826d2	-0.024432573
123	0x3ba17ccd	0.0049282075
124	0xbd22953d	-0.039693106
125	0xbd1205d8	-0.035650104
126	0xbd44c6ec	-0.04804127
127	0xbe161313	-0.14655714
128	0xbcb07d97	-0.02154426
129	0x3c8ceb50	0.01720205
130	0xb84443a8	-4.679305e-05
131	0x3dcfdee0	0.10149932
132	0x3e1d95c1	0.15389158
133	0xbd804039	-0.062622495
134	0xbd31a901	-0.043374065
135	0xbe244de4	-0.16045338
136	0x3ddd626b	0.10809787
137	0xbcda535e	-0.02665108
138	0xbd6f2d2e	-0.058392696
139	0x3cf93c0c	0.03042414
140	0xbb4d2602	-0.0031303172
141	0x3cefbbbb	0.029264322
142	0xbd3f368e	-0.046682887
143	0x3d0d854a	0.034550942
144	0x3c6987f7	0.014253608
145	0xbe06579b	-0.13119356
146	0x3c2f3d7c	0.010695811
147	0x3d0553ab	0.032550495
148	0x3e2e9a63	0.17051081
149	0xbd87cf12	-0.066312924
150	0xbbb0af17	-0.005391966
151	0xbdf055cd	-0.11735115
152	0x3c69cbb7	0.014269761
153	0x3d8347fe	0.06410216
154	0x3d05650c	0.03256707
155	0x3d6f04e9	0.058354292
156	0x3c0e1ab6	0.008673361
157	0xbe0aa7d7	-0.13540588
158	0xbd46aba7	-0.048503544
159	0xbd688ace	-0.056773
160	0xbd238ab7	-0.03992721
161	0xbd9e005d	-0.07714913
162	0xbdd879cf	-0.10570108
163	0x3c3da01c	0.011573818
164	0xbd4aa859	-0.049476955
165	0x3dc42f2b	0.09579309
166	0x3d0f455c	0.034978256
167	0xbd07f0b2	-0.03318853
168	0x3de0b5da	0.109721854
169	0x3d94bd61	0.07262684
170	0xbc0d8a0b	-0.008638869
171	0x3cd7af38	0.026328668
172	0xbdebb9d3	-0.115100525
173	0x3c6fdbac	0.014639776
174	0xbe133940	-0.14377308
175	0xbc8929b7	-0.016743524
176	0xbd6ed68a	-0.05831007
177	0xbdc7282e	-0.097244605
178	0x3a717e0a	0.00092122017
179	0xbe31ae98	-0.17351758
180	0x3c18058f	0.009278669
181	0xbc687e57	-0.014190278
182	0xbcbc0c01	-0.022954943
183	0x3d69bfc4	0.057067648
184	0xbd2b92d9	-0.04188809
185	0x3db133fb	0.086524926
186	0x3dbd1c40	0.09233904
187	0x3ca55ad2	0.020184908
188	0xbdacfe42	-0.08446933
189	0xbda31109	-0.079622336
190	0xbd939d3a	-0.07207723
191	0x3d98de24	0.07464245
192	0xbd921724	-0.0713332
193	0xbd2f8a66	-0.042856596
194	0x3db378df	0.08763289
195	0x3d735f29	0.059416924
196	0x3b65649d	0.0035002597
197	0xbd0db766	-0.03459873
198	0x3d5d13c5	0.05397393
199	0xbc9c05c4	-0.019045718
200	0xbc5126e4	-0.01276562
201	0x3d865af5	0.065603174
202	0xbce2a870	-0.027668208
203	0x3d4a9d82	0.049466617
204	0x3d8c90b7	0.0686354
205	0x3d5b6e75	0.053572137
206	0x3e3b46f8	0.18288791
207	0x3c424c90	0.011859074
208	0xbe0752ab	-0.13215129
209	0x3d86907b	0.06570526
210	0x3cab7461	0.020929517
211	0x3cd56913	0.02605108
212	0x3d8db0bd	0.06918476
213	0xbbf2ed3a	-0.0074135335
214	0xbda44f1e	-0.08022903
215	0x3cb68f15	0.022285024
216	0xbd335048	-0.043777734
217	0xbd7d0aa5	-0.06177773
218	0xbd858d9e	-0.06521152
219	0xbdb62fd8	-0.08895844
220	0x3c35c798	0.01109495
221	0x3ce0008a	0.027344007
222	0xbe0884d8	-0.13331926
223	0xbdd22f7e	-0.10262965
224	0xbdd25abd	-0.10271213
225	0x3c71edb3	0.014766145
226	0x3da974f6	0.08274262
227	0xbbfb5243	-0.0076697185
228	0xbcf8af74	-0.0303571
229	0x3d815fb3	0.06317081
230	0xbd1404aa	-0.03613726
231	0x3da2b811	0.07945264
232	0xbb9e0a0d	-0.0048229755
233	0xbd4e5e86	-0.050383113
234	0xbe08e8a4	-0.13369995
235	0xbdc243d3	-0.09485593
236	0xbd9e0d98	-0.077174366
237	0x3dc54f53	0.096342705
238	0x3d958a7c	0.073018044
239	0x3d27ca25	0.040964264
240	0x3d14dd62	0.03634394
241	0x3d010856	0.03150209
242	0x3c192dff	0.009349345
243	0xbd439768	-0.047751814
244	0xbc82ef61	-0.015983285
245	0x3ca33296	0.019921582
246	0x3d6696c9	0.056296144
247	0x3c994dca	0.01871385
248	0x3c87d8d2	0.01658288
249	0xbdd51550	-0.10404456
250	0xbe122cee	-0.14274952
251	0xbd3905d7	-0.045171585
252	0x3d685064	0.05671729
253	0xbd575cdf	-0.052578803
254	0xbd8d679b	-0.06904527
255	0xbd2169f2	-0.039407678

gru.bias_ih_l0_reverse f4 [192]
0	0xbbf2d66c	-0.007410815
1	0x3c59f293	0.013302463
2	0xbab3212b	-0.0013666501
3	0x3c3be4a3	0.011468085
4	0x3b7eb337	0.0038864145
5	0x3c804075	0.015655736
6	0xbb38e87e	-0.0028214748
7	0xbc0b13ee	-0.008488638
8	0x3bd84a91	0.006600686
9	0xbaa04a0c	-0.0012229099
10	0x3c152905	0.009104018
11	0x3a6351f1	0.0008671573
12	0xbc3fb1e3	-0.011700126
13	0xbb4b8050	-0.0031051822
14	0x3c62ef6b	0.013851027
15	0x3b0d3cc9	0.0021551123
16	0x3ba9d2a9	0.0051825834
17	0x3c3feda0	0.011714369
18	0x3c788df8	0.015170567
19	0x3bdea84e	0.006794966
20	0x3c8ba55e	0.017046627
21	0xbba25f31	-0.0049551954
22	0x3bf8bd3e	0.007590919
23	0x3b9eace3	0.004842387
24	0x3bf33685	0.0074222707
25	0xbc2709fe	-0.010195253
26	0x3b10578d	0.002202484
27	0x3b495711	0.0030722062
28	0x3c9efc8d	0.019407535
29	0xbb6b4976	-0.003590194
30	0xbac3106f	-0.0014882217
31	0x3b5194c9	0.0031979552
32	0x3b96dba8	0.004603822
33	0x3bce4dbb	0.0062958873
34	0x3b7c9916	0.0038543395
35	0xbb83ffc9	-0.0040282947
36	0x39aef032	0.00033366826
37	0xbaef9998	-0.0018280027
38	0xbbea15db	-0.0071437187
39	0xbb340747	-0.0027470158
40	0x3c1532b4	0.009106327
41	0xbba07d0d	-0.0048977197
42	0x3af7e34d	0.0018912345
43	0x3ca83bfb	0.020536413
44	0x3c86d370	0.016458243
45	0x3c291480	0.010319829
46	0x3b2b5a09	0.0026146194
47	0x3b7bdb52	0.0038430286
48	0xbbbcaab6	-0.005757655
49	0x3c29f3cc	0.010373067
50	0x3c8efe6d	0.017455304
51	0x3b87fa84	0.004149737
52	0xba923cdd	-0.0011157055
53	0xbc4637a0	-0.012098223
54	0xbbafaf9d	-0.005361511
55	0xbb9d5740	-0.004801661
56	0x3ce1abc8	0.027547732
57	0xbbc34693	-0.005959341
58	0x3ba9d57b	0.0051829196
59	0xbbd4681c	-0.0064821374
60	0xbc255c64	-0.010092828
61	0xbb861df6	-0.004092927
62	0x3ce5aa7b	0.028035393
63	0xbb362de9	-0.002779836
64	0x3ae20cd1	0.0017246251
65	0x3c9f656f	0.019457547
66	0xbc06622d	-0.008202118
67	0xbc63ab41	-0.013895811
68	0x3c88c0fd	0.016693586
69	0x3c60f23a	0.013729626
70	0x3cbf20f5	0.023331145
71	0x3b957d9b	0.0045620925
72	0xbb846591	-0.004040428
73	0x3c83f531	0.016108127
74	0x3c47967f	0.012181877
75	0xbc86a6d1	-0.016436966
76	0xbb92f9d5	-0.0044853487
77	0x3b91bb6c	0.0044473913
78	0x3d1ead5c	0.038739547
79	0xbc8749ee	-0.016514745
80	0x3c32f49d	0.010922578
81	0x3cf65146	0.030068051
82	0x3cf6b4c2	0.030115489
83	0x3cfd79eb	0.030941924
84	0xbcbed52d	-0.02329501
85	0x3bd7fb91	0.0065912683
86	0x3c252b45	0.010081117
87	0x3ca424bf	0.020037053
88	0xbbd31b93	-0.006442496
89	0xbc7409dd	-0.01489493
90	0xbbec9faf	-0.007221184
91	0xbc0c0624	-0.008546386
92	0x3d0b4e64	0.034010306
93	0xbcb01494	-0.021494187
94	0x3b30bb52	0.002696712
95	0xbb8bee14	-0.0042703245
96	0x3cdf7013	0.02727512
97	0x3b6509cf	0.0034948473
98	0x3bcf7b83	0.0063318624
99	0x3c689648	0.014195986
100	0xbc85d6cd	-0.016337777
101	0x3c5102c8	0.012757011
102	0xbc3c30af	-0.011486216
103	0x3b7a459b	0.003818846
104	0xbc3a7598	-0.011380576
105	0x3c976f87	0.018485798
106	0x3cad3931	0.021145435
107	0x3cec0d42	0.028814916
108	0x3d0f1f75	0.03494211
109	0xbba57bed	-0.0050501735
110	0xbc2dc78c	-0.010606658
111	0x3c7358ee	0.014852745
112	0xbcde89e1	-0.027165355
113	0x3c8ef5a9	0.017451124
114	0x3ab9e4c4	0.0014182557
115	0x3b5e8044	0.0033950964
116	0x3d0bf593	0.034169745
117	0xbbf6e816	-0.007534991
118	0xbb33a45c	-0.0027411198
119	0x3cb1541f	0.021646557
120	0x3d3b72f3	0.04576392
121	0x3ae24128	0.001726185
122	0xbba04256	-0.0048907204
123	0x3b888586	0.004166308
124	0xbc5ddb9a	-0.013541127
125	0xbb1dc0e6	-0.0024071275
126	0x3d2ed20e	0.042680793
127	0x3d2cfe4a	0.042234696
128	0x3b8edf15	0.0043600895
129	0x3c0c15ca	0.008550117
130	0xb92a822f	-0.0001626096
131	0xbc42e228	-0.01189474
132	0xbbd29831	-0.006426834
133	0x3b390fbb	0.0028238136
134	0x38c5862f	9.418686e-05
135	0xbbbcbcb2	-0.005759799
136	0x3ac48d3b	0.0014995703
137	0x3bbf9ac2	0.005847306
138	0xbb1c712b	-0.0023871164
139	0x3b4aeb76	0.00309631
140	0x3a833040	0.0010008886
141	0xbb476f1a	-0.0030431212
142	0xb9c52c0b	-0.00037607583
143	0x3bb9485a	0.005654377
144	0xbb82b8ec	-0.0039893296
145	0xbc161fe1	-0.009162874
146	0x3c0b82b5	0.00851505
147	0xbad3887a	-0.0016138696
148	0xbc03d5af	-0.008046552
149	0xbb0f41a4	-0.0021859193
150	0xbaca199d	-0.001541901
151	0x3a7cb099	0.0009639352
152	0xbb5b2665	-0.0033439633
153	0x3b8c15f4	0.004275078
154	0xbbfe3ae1	-0.0077584838
155	0xbb566300	-0.0032712817
156	0x3ba8a865	0.0051470273
157	0x39e000d8	0.00042725238
158	0xbbe9f66a	-0.0071399705
159	0xbc081d1d	-0.008307722
160	0xbb3a2711	-0.0028404633
161	0x386e1ff1	5.677337e-05
162	0x3b85612f	0.004070423
163	0xbb466940	-0.0030275136
164	0xba847623	-0.0010106008
165	0x3b37e165	0.002805793
166	0xbbef80cf	-0.0073090564
167	0xbb4b017b	-0.0030976224
168	0xbba0c924	-0.0049067903
169	0xbb8105a0	-0.003937438
170	0xbb1dbd9f	-0.0024069322
171	0xbae8b3c2	-0.0017753767
172	0xbac49cd9	-0.0015000358
173	0xba32df8f	-0.0006823474
174	0xba78bb56	-0.00094883644
175	0x3b4ab665	0.003093147
176	0x3b80358d	0.0039126338
177	0x3b671236	0.0035258657
178	0xbc044c4a	-0.008074829
179	0x3a14956b	0.0005668017
180	0x3af57729	0.0018727529
181	0x39b8774b	0.00035184095
182	0xbadb1180	-0.001671359
183	0x3bb04408	0.0053792037
184	0x3b911393	0.0044273823
185	0x3c4664b9	0.012108975
186	0xbbeea085	-0.007282319
187	0xbb916e90	-0.004438229
188	0x3bfd8deb	0.007737865
189	0xbbbdc0b3	-0.005790794
190	0x3bed72d9	0.007246357
191	0xbb930294	-0.0044863913

gru.bias_hh_l0_reverse f4 [192]
0	0xbbf2d66c	-0.007410815
1	0x3c59f293	0.013302463
2	0xbab3212b	-0.0013666501
3	0x3c3be4a3	0.011468085
4	0x3b7eb337	0.0038864145
5	0x3c804075	0.015655736
6	0xbb38e87e	-0.0028214748
7	0xbc0b13ee	-0.008488638
8	0x3bd84a91	0.006600686
9	0xbaa04a0c	-0.0012229099
10	0x3c152905	0.009104018
11	0x3a6351f1	0.0008671573
12	0xbc3fb1e3	-0.011700126
13	0xbb4b8050	-0.0031051822
14	0x3c62ef6b	0.013851027
15	0x3b0d3cc9	0.0021551123
16	0x3ba9d2a9	0.0051825834
17	0x3c3feda0	0.011714369
18	0x3c788df8	0.015170567
19	0x3bdea84e	0.006794966
20	0x3c8ba55e	0.017046627
21	0xbba25f31	-0.0049551954
22	0x3bf8bd3e	0.007590919
23	0x3b9eace3	0.004842387
24	0x3bf33685	0.0074222707
25	0xbc2709fe	-0.010195253
26	0x3b10578d	0.002202484
27	0x3b495711	0.0030722062
28	0x3c9efc8d	0.019407535
29	0xbb6b4976	-0.003590194
30	0xbac3106f	-0.0014882217
31	0x3b5194c9	0.0031979552
32	0x3b96dba8	0.004603822
33	0x3bce4dbb	0.0062958873
34	0x3b7c9916	0.0038543395
35	0xbb83ffc9	-0.0040282947
36	0x39aef032	0.00033366826
37	0xbaef9998	-0.0018280027
38	0xbbea15db	-0.0071437187
39	0xbb340747	-0.0027470158
40	0x3c1532b4	0.009106327
41	0xbba07d0d	-0.0048977197
42	0x3af7e34d	0.0018912345
43	0x3ca83bfb	0.020536413
44	0x3c86d370	0.016458243
45	0x3c291480	0.010319829
46	0x3b2b5a09	0.0026146194
47	0x3b7bdb52	0.0038430286
48	0xbbbcaab6	-0.005757655
49	0x3c29f3cc	0.010373067
50	0x3c8efe6d	0.017455304
51	0x3b87fa84	0.004149737
52	0xba923cdd	-0.0011157055
53	0xbc4637a0	-0.012098223
54	0xbbafaf9d	-0.005361511
55	0xbb9d5740	-0.004801661
56	0x3ce1abc8	0.027547732
57	0xbbc34693	-0.005959341
58	0x3ba9d57b	0.0051829196
59	0xbbd4681c	-0.0064821374
60	0xbc255c64	-0.010092828
61	0xbb861df6	-0.004092927
62	0x3ce5aa7b	0.028035393
63	0xbb362de9	-0.002779836
64	0x3ae20cd1	0.0017246251
65	0x3c9f656f	0.019457547
66	0xbc06622d	-0.008202118
67	0xbc63ab41	-0.013895811
68	0x3c88c0fd	0.016693586
69	0x3c60f23a	0.013729626
70	0x3cbf20f5	0.023331145
71	0x3b957d9b	0.0045620925
72	0xbb846591	-0.004040428
73	0x3c83f531	0.016108127
74	0x3c47967f	0.012181877
75	0xbc86a6d1	-0.016436966
76	0xbb92f9d5	-0.0044853487
77	0x3b91bb6c	0.0044473913
78	0x3d1ead5c	0.038739547
79	0xbc8749ee	-0.016514745
80	0x3c32f49d	0.010922578
81	0x3cf65146	0.030068051
82	0x3cf6b4c2	0.030115489
83	0x3cfd79eb	0.030941924
84	0xbcbed52d	-0.02329501
85	0x3bd7fb91	0.0065912683
86	0x3c252b45	0.010081117
87	0x3ca424bf	0.020037053
88	0xbbd31b93	-0.006442496
89	0xbc7409dd	-0.01489493
90	0xbbec9faf	-0.007221184
91	0xbc0c0624	-0.008546386
92	0x3d0b4e64	0.034010306
93	0xbcb01494	-0.021494187
94	0x3b30bb52	0.002696712
95	0xbb8bee14	-0.0042703245
96	0x3cdf7013	0.02727512
97	0x3b6509cf	0.0034948473
98	0x3bcf7b83	0.0063318624
99	0x3c689648	0.014195986
100	0xbc85d6cd	-0.016337777
101	0x3c5102c8	0.012757011
102	0xbc3c30af	-0.011486216
103	0x3b7a459b	0.003818846
104	0xbc3a7598	-0.011380576
105	0x3c976f87	0.018485798
106	0x3cad3931	0.021145435
107	0x3cec0d42	0.028814916
108	0x3d0f1f75	0.03494211
109	0xbba57bed	-0.0050501735
110	0xbc2dc78c	-0.010606658
111	0x3c7358ee	0.014852745
112	0xbcde89e1	-0.027165355
113	0x3c8ef5a9	0.017451124
114	0x3ab9e4c4	0.0014182557
115	0x3b5e8044	0.0033950964
116	0x3d0bf593	0.034169745
117	0xbbf6e816	-0.007534991
118	0xbb33a45c	-0.0027411198
119	0x3cb1541f	0.021646557
120	0x3d3b72f3	0.04576392
121	0x3ae24128	0.001726185
122	0xbba04256	-0.0048907204
123	0x3b888586	0.004166308
124	0xbc5ddb9a	-0.013541127
125	0xbb1dc0e6	-0.0024071275
126	0x3d2ed20e	0.042680793
127	0x3d2cfe4a	0.042234696
128	0x3bab461f	0.005226865
129	0x3c1d9068	0.009616949
130	0x3a55bad4	0.0008153145
131	0xbc457c0d	-0.012053502
132	0xbbb30198	-0.0054628365
133	0x3b4d8c5a	0.0031364174
134	0xba2ef387	-0.00066738616
135	0xbb9e14db	-0.0048242635
136	0x3b18b6c6	0.00233023
137	0x3bd21618	0.006411325
138	0xbb02df02	-0.0019969349
139	0x3b927d13	0.0044704764
140	0x3accafb2	0.0015616326
141	0xbb7497ac	-0.0037321849
142	0xb983876c	-0.00025087164
143	0x3bc46825	0.0059938603
144	0xbb82021d	-0.003967537
145	0xbc21cd7c	-0.009875651
146	0x3c11cb3b	0.008898552
147	0xbb140efb	-0.0022591937
148	0xbc0165f9	-0.007897847
149	0xbb13b99f	-0.0022541059
150	0xbac90001	-0.0015335084
151	0x39967feb	0.00028705536
152	0xbb6cbc8c	-0.0036123125
153	0x3b983238	0.0046446584
154	0xbbe8a349	-0.007099543
155	0xbb880fc1	-0.0041522686
156	0x3b982b8a	0.004643862
157	0x3a131522	0.0005610754
158	0xbbe23af5	-0.006904001
159	0xbbe43d33	-0.0069653033
160	0xbb271417	-0.0025494152
161	0xbb2bc0ce	-0.002620745
162	0x3b83e205	0.0040247464
163	0xbb965549	-0.0045878035
164	0xbaeb40c7	-0.0017948382
165	0x3b38dd93	0.002820824
166	0xbbcf177a	-0.0063199373
167	0xbb63f200	-0.0034781694
168	0xbb98f2d3	-0.004667619
169	0xbb335e6c	-0.0027369512
170	0xbb1024c8	-0.002199458
171	0xbb11b65e	-0.0022233943
172	0xbabc9a4d	-0.0014389247
173	0x3a197f4c	0.00058554555
174	0xba900b1d	-0.001098964
175	0x3b1f3c1a	0.0024297298
176	0x3b7a6923	0.003820964
177	0x3b8e35d4	0.004339913
178	0xbc0e7c33	-0.008696604
179	0xb9a580af	-0.0003156713
180	0x3b08679d	0.0020813711
181	0xb84aca8a	-4.8349182e-05
182	0xbb05f6ff	-0.002044141
183	0x3bb19037	0.005418803
184	0x3b5fba9b	0.0034138325
185	0x3c36bbf8	0.011153214
186	0xbbcb09af	-0.0061962227
187	0xbb69110a	-0.0035563135
188	0x3c0b8183	0.008514765
189	0xbbe37f77	-0.006942685
190	0x3be8e1f7	0.0071070152
191	0xbbaaf4e0	-0.0052171797
