results/training/gpt-oss-120b_a100_tp8/model_tp8_H64_biGRU.pt (torch, 116621 bytes, 10 tensors)

gru.weight_ih_l0 f4 [192, 6]
-0.094170935 0.070714846 -0.11829732 0.015404387 -0.10805104 -0.07605021 -0.050303433 -0.1371472
0.025285216 -0.03283261 -0.08069815 -0.09555237 0.09672741 0.0847453 0.075106695 0.071230516
0.014195237 0.02614797 0.13135973 0.09812518 0.1213847 -0.13055809 0.027693665 0.01574465
0.03581734 0.075098656 0.051292103 -0.09812586 -0.07406312 0.034746524 0.021920115 0.069715016
-0.022450015 0.03967442 -0.05338945 0.11237646 0.032875277 0.029087422 -0.107499 0.0084118545
-0.096251935 0.069861434 0.14740366 0.040411707 -0.01569203 -0.058530796 0.0074477 -0.095653914
0.0631234 0.017326744 0.007494023 0.10740002 -0.041926436 0.030317117 0.12579657 -0.074623324
0.1100652 0.08643778 -0.07427567 0.040178914 -0.025541415 0.08289485 0.08458085 -0.03962154
0.012593492 -0.0010723639 -0.16440746 -0.044866636 -0.062143125 -0.08562896 -0.11941589 -0.020437906
-0.031010825 -0.05306334 0.14844237 0.16232145 -0.049208064 0.03819558 0.057326883 -0.07050057
0.13013226 0.016137721 -0.012444162 0.1292815 0.084924266 0.019078225 0.12275904 0.036569107
-0.056760263 0.060612183 -0.06347424 0.16340768 0.14671421 -0.028107995 0.057364576 0.14699703
0.035649084 0.07058556 0.023485426 -0.084596485 0.104292795 -0.13445464 0.10740783 0.16002376
-0.017275896 0.056116153 -0.009628101 -0.053572126 0.015884278 -0.05696399 -0.08789377 0.08734776
-0.0624531 0.08711931 -0.014739841 0.027007129 0.07088931 -0.120692186 0.018789878 -0.12679933
0.09005266 -0.028567797 0.1295741 -0.039374113 -0.03905341 0.060047273 -0.048419517 -0.0393697
-0.07518862 -0.031207904 -0.09750317 -0.092911765 0.007822577 -0.017248925 0.06339284 0.14442135
-0.06258681 0.09886723 -0.05952647 -0.060852718 -0.08491705 -0.035301585 -0.0056632003 0.0930173
0.04471968 -0.09488667 0.06368036 0.0810873 -0.11923118 -0.025427286 -0.023204863 -0.06050606
-0.004597036 0.08180928 0.09425367 0.053216662 0.11126028 -0.075138845 -0.046724524 -0.08291369
-0.014773575 0.07339266 -0.13058844 0.043125544 -0.09986375 0.057760168 0.061151776 -0.17216879
-0.10224655 -0.034065947 -0.09569646 0.05291107 -0.09030215 -0.0555461 0.09391066 0.1015597
0.08625079 0.15243186 -0.10760483 -0.013080306 -0.10721054 0.028510218 -0.027141424 -0.050053235
-0.091765635 -0.064519934 0.0796805 0.038852993 -0.06866384 0.04922868 -0.11610374 -0.076754816
0.0697103 -0.07272283 0.1103387 -0.019574206 0.08919267 0.015712727 0.07202781 0.031659067
0.1355599 -0.022420082 0.10529003 -0.038794123 -0.049311023 0.06690461 -0.096246175 -0.07026457
-0.072013624 -0.029658211 0.06601395 -0.072717905 -0.06598695 0.039208315 0.038888328 0.04823596
-0.058258202 -0.05566988 0.061127756 0.07837122 0.058836356 -0.032812953 0.10792498 0.04979618
0.023757907 0.01055761 -0.07019568 -0.0036184783 -0.052186616 0.021219097 0.077864684 0.081501566
-0.017898297 0.087717086 0.13232374 -0.049833037 -0.10438778 0.11286636 -0.06174266 -0.039125465
0.018650243 0.013539039 -0.040309805 0.050021473 -0.06659188 0.13843863 0.076683894 0.0092917485
0.044437733 -0.04373821 0.15011081 0.017880112 0.09379226 0.12533014 0.08153679 -0.086236514
00000000: b1dc c0bd f2d2 903d de45 f2bd af62 7c3c
00000010: dd49 ddbd 36c0 9bbd f90a 4ebd 5170 0cbe
00000020: f122 cf3c 7d7b 06bd 1245 a5bd f6b0 c3bd
00000030: 0519 c63d f28e ad3d 8ad1 993d 4ee1 913d
00000040: 2493 683c 4534 d63c 2a83 063e dbf5 c83d
00000050: 8b98 f83d 05b1 05be d3dd e23c edfa 803c
00000060: 34b5 123d 53cd 993d ab17 523d 36f6 c8bd
00000070: 68ae 97bd 5f52 0e3d d091 b33c bfc6 8e3d
00000080: 18e9 b7bc a581 223d e5ae 5abd a125 e63d
00000090: 3aa8 063d bf48 ee3c 7028 dcbd e0d1 093c
000000a0: bc1f c5bd 8313 8f3d fcf0 163e bf86 253d
000000b0: 928c 80bc fdbd 6fbd d60b f43b 33e6 c3bd
000000c0: d746 813d d1f0 8d3c 6c90 f53b 8bf4 db3d
000000d0: 0ebb 2bbd 9a5b f83c d1d0 003e 1dd4 98bd
000000e0: dd69 e13d 4a06 b13d d81d 98bd a592 243d
000000f0: 3b3c d1bc c6c4 a93d ba38 ad3d 324a 22bd
00000100: ef54 4e3c 908e 8cba 6e5a 28be 14c6 37bd
00000110: ca89 7ebd 3c5e afbd 5190 f4bd 656d a7bc
00000120: 6a0a febc f258 59bd 4701 183e 9837 263e
00000130: 658e 49bd f872 1c3d 98cf 6a3d 9a62 90bd
00000140: 6441 053e 4133 843c 99e2 4bbc 5f62 043e
00000150: c6ec ad3d f049 9c3c 1769 fb3d 7dc9 153d
00000160: 737d 68bd 7b44 783d c8fe 81bd 5854 273e
00000170: 403c 163e bd42 e6bc 1ef7 6a3d 6486 163e
00000180: c604 123d 298f 903d 8264 c03c ec40 adbd
00000190: 7697 d53d 7aae 09be a3f8 db3d 45dd 233e
000001a0: 2e86 8dbc 0dda 653d 2fbf 1dbc 726e 5bbd
000001b0: bf1f 823c 1353 69bd a601 b4bd 62e3 b23d
000001c0: d2ce 7fbd 9c6b b23d 607f 71bc 0e3e dd3c
000001d0: 6a2e 913d 772d f7bd 3bed 993c afd7 01be
000001e0: 876d b83d 0307 eabc 13af 043e c046 21bd
000001f0: 78f6 1fbd 21f4 753d 8b53 46bd 1f42 21bd
00000200: 7efc 99bd b8a7 ffbc beaf c7bd 8648 bebd
00000210: 442a 003c 9e4d 8dbc 1bd4 813d 31e3 133e
00000220: 832d 80bd e77a ca3d 07d2 73bd b340 79bd
00000230: fee8 adbd 6598 10bd 5e92 b9bb db7f be3d
00000240: fc2b 373d f153 c2bd d96a 823d 1911 a63d
00000250: 7a2f f4bd e24c d0bc 2018 bebc 34d5 77bd
00000260: bca2 96bb a08b a73d 1108 c13d b7f9 593d
00000270: 6edc e33d 65e2 99bd 3762 3fbd a7ce a9bd
00000280: dd0c 72bc e44e 963d fab8 05be 69a4 303d
00000290: 5e85 ccbd ed95 6c3d 497a 7a3d 044d 30be
000002a0: a466 d1bd bc88 0bbd 81fc c3bd 47b9 583d
000002b0: 55f0 b8bd 4f84 63bd 3b54 c03d 88fe cf3d
000002c0: 41a4 b03d 1917 1c3e ec5f dcbd c84e 56bc
000002d0: 3391 dbbd 438e e93c b157 debc 9f04 4dbd
000002e0: 9fef bbbd 0723 84bd 882f a33d 5124 1f3d
000002f0: a19f 8cbd 03a4 493d ccc7 edbd a131 9dbd
00000300: 46c4 8e3d b5ef 94bd 42f9 e13d 165a a0bc
00000310: a6aa b63d fab7 803c 5183 933d f0ac 013d
00000320: 37d0 0a3e 52aa b7bc 4da2 d73d 96e6 1ebd
00000330: 5bfa 49bd 4905 893d b71c c5bd dfe6 8fbd
00000340: e17b 93bd c7f5 f2bc 5232 873d 20ed 94bd
00000350: 2b24 87bd e698 203d 5e49 1f3d 1293 453d
00000360: 27a0 6ebd 1a06 64bd 1961 7a3d 1781 a03d
00000370: 64fe 703d e066 06bd c607 dd3d 14f7 4b3d
00000380: f19f c23c d3f9 2c3c c1c2 8fbd fe23 6dbb
00000390: a2c1 55bd acd3 ad3c 8577 9f3d 4bea a63d
000003a0: 739f 92bc 04a5 b33d e07f 073e ba1d 4cbd
000003b0: 43c9 d5bd 7a26 e73d dfe5 7cbd 0642 20bd
000003c0: 65c8 983c d8d2 5d3c e51b 25bd 51e3 4c3d
000003d0: 5361 88bd dbc2 0d3e 720c 9d3d 6b3c 183c
000003e0: 5704 363d d626 33bd a6b6 193e 5079 923c
000003f0: 2816 c03d 8b56 003e c3fc a63d c59c b0bd

gru.weight_hh_l0 f4 [192, 64]
0.10892394 0.01681919 -0.046047352 -0.06400117 0.020549886 0.009164149 -0.12592901 -0.09591974
-0.083751015 0.041764233 0.07370124 -0.097371735 0.06021636 0.04098333 -0.06867357 -0.028374873
0.036329813 0.011878727 0.0069545796 0.11318443 -0.102673925 -0.029388778 -0.10792141 -0.10098561
0.016226292 0.034609165 0.103071555 0.12599131 0.023122048 0.09851599 0.057810277 -0.10954735
0.019726893 -0.042898387 -0.06828714 0.048924617 -0.10030826 -0.099981405 -0.07508249 0.06484142
0.024639282 0.07429415 -0.079826176 -0.04764656 -0.087147705 0.034172338 0.0055225757 0.11854256
-0.09779426 0.0713073 -0.08762923 0.0505433 -0.07814951 0.09633965 -0.09302041 -0.022280617
-0.059855767 0.014552905 -0.027395928 -0.06994014 -0.039808545 0.016712852 0.0077195526 0.0919045
0.11804488 0.035169445 0.046976574 -0.086166434 -0.08371152 0.108542465 0.12895264 0.024124686
-0.04171592 0.040606983 0.08150243 0.0261976 0.06503819 -0.05771159 0.03257602 -0.09717419
-0.16526437 0.005265022 0.08406191 0.10816262 -0.105570436 0.07881513 -0.06648831 -0.061708126
-0.002161 -0.029747954 0.019213088 0.06864444 -0.005570952 -0.12714823 0.0940213 -0.08332654
-0.022723865 0.08466443 -0.08545821 -0.04116273 -0.058269527 0.09755802 0.035822004 0.03446122
-0.06651473 -0.042869087 0.014013512 0.044808656 0.087630264 0.0050722053 -0.033524446 0.028064238
-0.077583835 -0.05168421 0.06305769 0.0036276996 0.06887189 -0.03705668 0.007777422 -0.08229659
-0.056741096 0.17217216 -0.05201653 -0.045762457 -0.04978864 -0.027975302 0.14013954 -0.06132388
0.019292878 0.088313945 -0.06851958 0.120938815 0.053842977 0.015146153 0.071098015 0.115765914
0.05331124 0.08269173 -0.06635095 -0.09840438 -0.05280583 -0.061454665 0.06948267 -0.05035554
-0.06463005 0.011413489 0.012578593 0.015680294 0.03616805 -0.08372933 0.09072437 -0.1333858
-0.11778282 -0.0031229572 -0.006624211 -0.012403915 0.11795955 -0.039978735 -0.017020268 0.020023681
-0.025529103 -0.08337022 -0.11141377 0.07132265 0.13118067 -0.0256012 -0.08233459 -0.13963528
-0.030317625 -0.048669152 0.12316243 -0.08278187 -0.054989778 -0.004744669 -0.09777837 -0.009196276
0.10710457 -0.04355904 -0.06292894 -0.091865875 0.06777982 0.15860488 0.042243794 0.038999554
0.12805942 0.044544436 -0.08504377 -0.07736293 0.04108885 -0.007827841 -0.057063032 0.043711454
0.07305264 0.09926088 -0.009994601 -0.023436278 -0.12825802 -0.12023636 0.14081377 0.045039684
-0.012125373 -0.004414213 0.08301886 -0.081883095 -0.053373117 -0.13903953 0.042637877 0.014910192
-0.09700171 -0.046166398 0.11274198 -0.025665674 -0.13526358 0.10133736 0.10744603 -0.04409318
0.06953313 -0.011527098 0.072910406 0.04185777 0.0017819148 -0.05215388 0.08092824 -0.1207729
-0.10029028 0.15737675 -0.10427576 -0.08451937 0.017914765 0.06903076 -0.08594485 0.089601874
-0.05657436 0.091579884 0.08947697 -0.0534435 -0.13385828 -0.15168335 0.040961087 -0.04572019
-0.08441791 -0.08343657 0.009486849 0.08045248 -0.12172887 0.07685277 0.0018555978 0.043118272
-0.02698341 0.14083354 0.12831318 0.074486025 -0.07328002 0.043884687 0.12723231 0.0613887
00000000: 8413 df3d 66c8 893c 269c 3cbd 0c13 83bd
00000010: 3c58 a83c 3a25 163c 89f3 00be 9271 c4bd
00000020: a785 abbd f910 2b3d adf0 963d d56a c7bd
00000030: 6ea5 763d 23de 273d bba4 8cbd 6c72 e8bc
00000040: 92ce 143d fe9e 423c 3ee3 e33b 3dcd e73d
00000050: b546 d2bd bcc0 f0bc e605 ddbd 8bd1 cebd
00000060: 00ed 843c 57c2 0d3d 2e17 d33d de03 013e
00000070: 736a bd3c c0c2 c93d 78ca 6c3d 5c5a e0bd
00000080: 4b9a a13c 38b6 2fbd 21da 8bbd 2e65 483d
00000090: 6b6e cdbd 0dc3 ccbd d9c4 99bd 94cb 843d
000000a0: 52d8 c93c 8827 983d e87b a3bd 0a29 43bd
000000b0: 7f7a b2bd 4bf8 0b3d b9f6 b43b 71c6 f23d
000000c0: 5b48 c8bd 9009 923d f476 b3bd 7e06 4f3d
000000d0: da0c a0bd b94d c53d 7c81 bebd d785 b6bc
000000e0: 522b 75bd 4f6f 6e3c 6d6d e0bc c73c 8fbd
000000f0: 490e 23bd 64e9 883c 4df4 fc3b 6d38 bc3d
00000100: 84c1 f13d d60d 103d 826a 403d 0778 b0bd
00000110: f270 abbd 834b de3d 290c 043e 22a1 c53c
00000120: 50de 2abd 8253 263d bfea a63d 599c d63c
00000130: be32 853d fd62 6cbd 6f6e 053d 4303 c7bd
00000140: 103b 29be 3586 ac3b a728 ac3d 5d84 dd3d
00000150: 5035 d8bd d469 a13d 062b 88bd a9c1 7cbd
00000160: 909f 0dbb fbb1 f3bc c464 9d3c 7595 8c3d
00000170: 888c b6bb 2533 02be 3d8e c03d 1ba7 aabd
00000180: 6627 babc 8b64 ad3d b704 afbd 409a 28bd
00000190: 07ac 6ebd 80cc c73d 18ba 123d 3527 0d3d
000001a0: e038 88bd 7f97 2fbd ee98 653c 4889 373d
000001b0: 7f77 b33d be34 a63b ee50 09bd f9e6 e53c
000001c0: 46e4 9ebd d2b2 53bd 6424 813d b3be 6d3b
000001d0: b50c 8d3d bfc8 17bd bfd9 fe3b 1d8b a8bd
000001e0: 5a69 68bd e64d 303e 490f 55bd 6a71 3bbd
000001f0: 2cef 4bbd 762c e5bc bd80 0f3e c02e 7bbd
00000200: 190c 9e3c f1dd b43d fe53 8cbd c5ae f73d
00000210: 748a 5c3d 9227 783c d69b 913d ae16 ed3d
00000220: e35c 5a3d 485a a93d 02e3 87bd 3c88 c9bd
00000230: ed4a 58bd e3b7 7bbd ee4c 8e3d 9c41 4ebd
00000240: c25c 84bd a4ff 3a3c 7116 4e3c f673 803c
00000250: f324 143d 487a abbd b3cd b93d 4a96 08be
00000260: 1e38 f1bd 87aa 4cbb e90f d9bb ca39 4bbc
00000270: c794 f13d bec0 23bd 176e 8bbc b408 a43c
00000280: 6922 d1bc 02be aabd e72c e4bd 9c11 923d
00000290: 3a54 063e 9cb9 d1bc 0a9f a8bd 8dfc 0ebe
000002a0: ab5c f8bc 4e59 47bd 963c fc3d 8b89 a9bd
000002b0: f63c 61bd 2b79 9bbb 0740 c8bd faab 16bc
000002c0: a459 db3d f76a 32bd e3e0 80bd 2d24 bcbd
000002d0: 25d0 8a3d 5169 223e d407 2d3d ffbd 1f3d
000002e0: 0222 033e 3a74 363d 6e2b aebd 7570 9ebd
000002f0: c84c 283d 5840 00bc edba 69bd c80a 333d
00000300: 9f9c 953d 4a49 cb3d 65c0 23bc 70fd bfbc
00000310: 1256 03be 7b3e f6bd 7c31 103e 887b 383d
00000320: 80a9 46bc 1aa5 90bb cb05 aa3d 53b2 a7bd
00000330: c59d 5abd 6160 0ebe 0ea5 2e3d e149 743c
00000340: d5a8 c6bd fa18 3dbd 44e5 e63d d240 d2bc
00000350: 8982 0abe f689 cf3d aa0c dc3d 0d9b 34bd
00000360: 6367 8e3d 27dc 3cbc 0d52 953d 0e73 2b3d
00000370: 248f e93a 4f9f 55bd b5bd a53d c857 f7bd
00000380: fe64 cdbd 5f27 213e 888e d5bd 7e18 adbd
00000390: fcc1 923c 0060 8d3d db03 b0bd 3081 b73d
000003a0: 84ba 67bd 3c8e bb3d b43f b73d 92e7 5abd
000003b0: 2512 09be e152 1bbe d0c6 273d 1845 3bbd
000003c0: 4ce3 acbd cbe0 aabd bb6e 1b3c 45c4 a43d
000003d0: fc4c f9bd fc64 9d3d 8837 f33a c99c 303d
000003e0: 500c ddbc ab36 103e 8864 033e 218c 983d
000003f0: d613 96bd 6ec0 333d 3049 023e b872 7b3d

gru.bias_ih_l0 f4 [192]
0.0445899 -0.060304947 0.06458004 -0.021215059 0.012106913 0.034319326 -0.11953134 0.106653884
-0.072604194 -0.05426102 0.038321536 -0.019570464 0.07844866 0.07733963 0.08082718 0.033880156
0.08183913 0.121426366 0.11551832 0.12614726 0.011026727 -0.035858057 -0.040502347 0.046704266
0.073975526 0.0351078 -0.100524984 0.07154943 0.098164834 0.04673393 0.09758519 0.08201993
0.108584434 0.07962691 0.047650743 0.03858038 0.011819663 0.13940631 0.09640605 -0.026551783
0.037310544 0.030313196 0.036256652 -0.010224036 0.045226444 0.12918869 -0.02264674 -0.027721142
-0.019999797 -0.10971952 0.051312074 0.11239714 0.11975164 -0.098396406 0.035767864 0.060503908
-0.07028534 0.17003064 0.01980933 -0.07588448 -0.04296192 0.0094515495 -0.025345009 0.13486427
0.15135777 -0.05083326 -0.04453322 -0.010504229 0.075085945 0.022979701 0.12999581 -0.06468026
0.15080357 0.029120209 0.14189127 -0.026911935 0.09874824 0.08318657 -0.0012500747 0.04813898
0.00950534 -0.019528653 0.13946243 0.0047124894 0.024908353 -0.087650105 0.060158286 -0.01183698
0.0073749 -0.011759755 0.060811926 -0.06928724 0.07880738 0.066837825 -0.01744929 -0.14755456
-0.028484538 0.0006759477 0.13946332 0.044655513 0.074742556 0.11091379 -0.018293465 0.1391784
-0.04537216 0.09907645 0.21807143 0.0062739206 0.04201889 -0.07000351 0.021914516 0.040238738
-0.021626083 0.0029445866 0.17553017 0.058799736 0.039639533 -0.02955849 -0.11474785 0.119359165
0.059440542 -0.119666696 0.07243697 0.06856213 0.15365082 0.17309906 0.10296392 0.01941395
0.06962139 0.08686448 -0.093622975 0.010023987 0.041564204 0.02590028 0.039834138 0.03628703
-0.035045855 -0.048957672 0.14675911 -0.09403323 -0.055037867 -0.0034814945 -0.11141067 -0.11751076
-0.12275759 0.03531314 -0.03047972 0.13887247 0.027773531 -0.07932059 0.037770648 -0.082201935
0.025349867 0.06758169 -0.029959302 0.02284499 0.06725987 -0.0019688944 -0.106836736 -0.093222514
0.019270806 -0.029401809 0.023474801 0.11909933 0.10519771 0.120325394 -0.117477484 0.014787349
0.07214273 -0.06304502 0.05998587 -0.103911676 -0.022035617 -0.13183565 -0.009790179 0.090474755
0.09155101 -0.077474415 -0.0970321 -0.0055669425 -0.10630285 0.09400433 -0.039798226 -0.13829203
0.11612817 0.14059784 0.107138485 0.013818528 0.012695828 0.0005283168 0.013174962 -0.08902222
00000000: e6a3 363d 5202 77bd 8a42 843d 34cb adbc
00000010: 135c 463c 6c92 0c3d d9cc f4bd 5a6d da3d
00000020: 82b1 94bd ce40 5ebd 0bf7 1c3d 3d52 a0bc
00000030: b1a9 a03d 3d64 9e3d b888 a53d ebc5 0a3d
00000040: 469b a73d 63ae f83d de94 ec3d bf2c 013e
00000050: 72a9 343c e6df 12bd cae5 25bd f94c 3f3d
00000060: 7b80 973d 32cd 0f3d 0be0 cdbd 8288 923d
00000070: a50a c93d 146c 3f3d beda c73d 11fa a73d
00000080: 8461 de3d 6f13 a33d 6d2d 433d 7606 1e3d
00000090: 43a7 413c 87c0 0e3e 8970 c53d 2083 d9bc
000000a0: f1d2 183d 6153 f83c db81 143d b782 27bc
000000b0: 5d3f 393d 0a4a 043e a885 b9bc 7317 e3bc
000000c0: 9dd6 a3bc a1b4 e0bd 9c2c 523d 7930 e63d
000000d0: 5940 f53d 0e84 c9bd 5381 123d f2d2 773d
000000e0: c3f1 8fbd 831c 2e3e 2d47 a23c 5269 9bbd
000000f0: d7f8 2fbd acda 1a3c 56a0 cfbc dc19 0a3e
00000100: 88fd 1a3e 8936 50bd 7768 36bd ee19 2cbc
00000110: a9c6 993d ed3f bc3c 9f1d 053e 1677 84bd
00000120: 406c 1a3e 818d ee3c f24b 113e 6b76 dcbc
00000130: 843c ca3d b85d aa3d 8cd9 a3ba 612d 453d
00000140: 49bc 1b3c 8efa 9fbc 3dcf 0e3e 3a6b 9a3b
00000150: 9a0c cc3c e681 b3bd 8968 763d e4ef 41bc
00000160: 25a9 f13b fdab 40bc ed15 793d 78e6 8dbd
00000170: c365 a13d 45e2 883d d0f1 8ebc 8b18 17be
00000180: 6858 e9bc 1532 313a 79cf 0e3e b3e8 363d
00000190: a012 993d c526 e33d 2ddc 95bc c884 0e3e
000001a0: 28d8 39bd 98e8 ca3d 1e4e 5f3e 7695 cd3b
000001b0: 001c 2c3d 005e 8fbd 1286 b33c 60d1 243d
000001c0: 2f29 b1bc f7f9 403b 2ebe 333e fed7 703d
000001d0: 105d 223d a524 f2bc ec00 ebbd 9472 f43d
000001e0: ed77 733d d013 f5bd d659 943d 4d6a 8c3d
000001f0: a456 1d3e e140 313e bfde d23d 010a 9f3c
00000200: a995 8e3d 01e6 b13d 67bd bfbd a63b 243c
00000210: 3a3f 2a3d d32c d43c 1f29 233d b5a1 143d
00000220: 3e8c 0fbd d787 48bd 0548 163e 7e94 c0bd
00000230: 636f 61bd c929 64bb 472b e4bd 7ba9 f0bd
00000240: 5568 fbbd 83a4 103d 9bb0 f9bc 9634 0e3e
00000250: 5185 e33c d572 a2bd 65b5 1a3d 7d59 a8bd
00000260: 86aa cf3c 4568 8a3d 366d f5bc 6b25 bb3c
00000270: 8bbf 893d 9108 01bb 38cd dabd 72eb bebd
00000280: cfdd 9d3c 10dc f0bc 3a4e c03c 59ea f33d
00000290: e671 d73d 296d f63d 0998 f0bd a346 723c
000002a0: 91bf 933d bf1d 81bd beb3 753d a5cf d4bd
000002b0: 0a84 b4bc edff 06be fd66 20bc d44a b93d
000002c0: 197f bb3d e8aa 9ebd c4b8 c6bd e66a b6bb
000002d0: 4fb5 d9bd 5885 c03d 7703 23bd 6d9c 0dbe
000002e0: 9bd4 ed3d e1f8 0f3e 6c6b db3d 1b67 623c
000002f0: 2a02 503c be7e 0a3a ccdb 573c 4851 b6bd

gru.bias_hh_l0 f4 [192]
0.009221482 -0.020848436 -0.02475523 -0.014328779 0.02413477 0.061313078 -0.106976606 0.11849882
-0.018187407 -0.028005416 -0.03716345 -0.08874565 0.059831847 -0.07054961 0.14595017 0.102571115
0.11364158 -0.033371884 -0.0380782 0.1463137 -0.04283613 -0.018328171 -0.05165936 -0.072854586
0.01025808 -0.035220537 0.0068244813 -0.050678268 0.12089464 -0.058366742 -0.05470337 -0.11253028
-0.050848555 0.081645936 0.009771851 0.15668613 -0.047944717 -0.054532528 0.0113776205 0.099255785
-0.021362806 -0.009019557 0.02596266 0.12635536 -0.098215744 0.07432015 0.047223292 0.11122207
0.09402783 0.13140787 0.11988295 0.15951332 -0.02113986 -0.110791825 0.01249353 0.11469308
0.15085173 -0.058178183 -0.059665035 -0.07281544 0.11296928 0.082568474 -0.00783069 -0.084959395
0.044476125 -0.01514634 -0.028190954 0.11216984 0.14815822 -0.03632825 0.04489912 0.1149912
0.07700667 0.10002822 0.025935736 -0.0055434997 0.14958754 0.172038 0.18264365 0.09996564
0.08154308 0.13920513 0.04862666 -0.10902877 -0.037961263 -0.041627742 0.16631076 0.090516366
-0.019114379 0.037070926 0.056606393 -0.049952142 0.1687039 -0.0024825472 -0.063861914 -0.06484982
0.14664792 0.13587913 0.09023459 0.028284242 0.08264849 -0.028108297 0.11348422 0.20747888
0.0046696323 0.15774979 0.18161327 0.07408704 0.0029571685 -0.069331884 0.042343844 0.061028894
0.056894336 -0.041934393 0.07194921 0.03793111 -0.00809472 -0.038691547 -0.049448684 -0.04254922
-0.034579374 0.119462624 -0.06241959 -0.012318092 0.1697201 0.035599295 0.08333044 -0.10643907
0.115270816 -0.061103694 -0.050767463 0.14049532 -0.117962986 -0.034524973 0.02846688 -0.07271739
-0.0049123256 0.07267741 0.03080285 0.096867934 -0.060156815 -0.07355898 0.08173651 0.03437756
-0.1366138 -0.13216512 -0.10754849 0.07206222 -0.1332946 -0.043699667 0.042614095 -0.07393872
0.021331213 -0.0040007764 -0.10329725 -0.051956505 0.036302835 -0.082721464 0.12913446 0.029041452
-0.038769513 0.14179076 0.09068038 -0.008104431 -0.012869909 0.07406417 -0.06272134 -0.12392536
-0.038057122 0.06890827 -0.051222812 0.1128898 -0.015468752 -0.061187252 -0.08200633 0.020821026
-0.0482238 -0.04680504 0.10337155 0.1191892 0.06719087 -0.021798821 -0.061777722 -0.11008521
0.019925335 0.042154606 -0.04390969 -0.07316022 -0.05068643 0.07906438 0.071881615 -0.009900474
00000000: b315 173c 57ca aabc 7bcb cabc 41c3 6abc
00000010: 48b6 c53c 6c23 7b3d 8d16 dbbd 82af f23d
00000020: c2fd 94bc 9d6b e5bc b438 18bd 48c0 b5bd
00000030: 3d12 753d 507c 90bd f673 153e ce10 d23d
00000040: ebbc e83d f5b0 08bd e3f7 1bbd 42d3 153e
00000050: f074 2fbd f624 96bc c498 53bd c934 95bd
00000060: 8211 283c 6943 10bd e69f df3b 0494 4fbd
00000070: 9c97 f73d f711 6fbd a410 60bd 4776 e6bd
00000080: 9346 50bd fc35 a73d 1d1a 203c 5472 203e
00000090: ae61 44bd 805d 5fbd 3369 3a3c 9e46 cb3d
000000a0: 0d01 afbc c4c6 13bc a5af d43c 4d63 013e
000000b0: 5625 c9bd 2a35 983d 366d 413d 66c8 e33d
000000c0: aa91 c03d c98f 063e 3185 f53d 7657 233e
000000d0: 802d adbc d3e6 e2bd aab1 4c3c 35e4 ea3d
000000e0: e078 1a3e 3f4c 6ebd 5363 74bd 4320 95bd
000000f0: 705c e73d a919 a93d 4b4c 00bc 31ff adbd
00000100: 992c 363d 5b28 78bc b7f0 e6bc 4db9 e53d
00000110: cab6 173e eecc 14bd 24e8 373d 8280 eb3d
00000120: acb5 9d3d 98db cc3d 2e77 d43c 3fa6 b5bb
00000130: 7a2d 193e bb2a 303e f006 3b3e c9ba cc3d
00000140: 0f00 a73d ca8b 0e3e c02c 473d 7a4a dfbd
00000150: 457d 1bbd da81 2abd 5e4d 2a3e a560 b93d
00000160: c295 9cbc afd7 173d 1bdc 673d 9e9a 4cbd
00000170: b7c0 2c3e 3bb2 22bb 09ca 82bd fccf 84bd
00000180: df2a 163e e623 0b3e eacc b83d 5bb4 e73c
00000190: 9d43 a93d 5f43 e6bc 6a6a e83d 5875 543e
000001a0: b703 993b 2989 213e d4f8 393e f2ba 973d
000001b0: 0ecd 413b e0fd 8dbd bd70 2d3d 6ff9 793d
000001c0: 090a 693d 66c3 2bbd 1b5a 933d a75d 1b3d
000001d0: b79f 04bc 077b 1ebd b48a 4abd 1748 2ebd
000001e0: 1aa3 0dbd d2a8 f43d afab 7fbd d3d1 49bc
000001f0: 1bcb 2d3e 91d0 113d 26a9 aa3d bafc d9bd
00000200: 1b13 ec3d de47 7abd 8bf1 4fbd 01de 0f3e
00000210: 9496 f1bd 0f6a 0dbd 6033 e93c dbec 94bd
00000220: 93f7 a0bb e5d7 943d 4256 fc3c b262 c63d
00000230: fe66 76bd 17a6 96bd 7965 a73d 7ccf 0c3d
00000240: 7de4 0bbe 4b56 07be 6242 dcbd 5b95 933d
00000250: 617e 08be 6cfe 32bd 1e8c 2e3d 2f6d 97bd
00000260: ccbe ae3c f218 83bb 828d d3bd 58d0 54bd
00000270: 48b2 143d df69 a9bd d33b 043e 57e8 ed3c
00000280: c8cc 1ebd 9931 113e a3b6 b93d 73c8 04bc
00000290: 50dc 52bc f5ae 973d 0c74 80bd 94cc fdbd
000002a0: c9e1 1bbd c71f 8d3d 03cf 51bd c432 e73d
000002b0: a670 7dbc 7c9f 7abd eff2 a7bd db90 aa3c
000002c0: 5286 45bd a4b6 3fbd 77b4 d33d 7819 f43d
000002d0: 5e9b 893d 7193 b2bc a30a 7dbd 5b74 e1bd
000002e0: 753a a33c 4faa 2c3d a6da 33bd 07d5 95bd
000002f0: 939c 4fbd 81ec a13d ab36 933d 9935 22bc

gru.weight_ih_l0_reverse f4 [192, 6]
0.02847811 -0.03126764 -0.02424703 0.034976747 0.068391025 -0.010678631 0.082520925 -0.08318378
0.12862837 0.09440808 0.088002086 0.0768608 -0.12674862 0.022687435 -0.11967606 0.002800606
0.09303189 -0.03712246 0.14011481 0.07679431 0.09137413 0.0423855 0.050051145 0.10793251
-0.008753377 -0.07309883 0.02184183 0.009420108 -0.032306854 -0.09807523 -0.0958245 0.015953664
0.02645608 0.007600687 -0.029244868 0.04006246 -0.0026670098 -0.12213571 0.0007455743 -0.022188814
-0.10600639 0.06526324 0.16612159 0.07341281 0.14548898 0.09689152 0.04565417 -0.062518656
-0.004806962 0.03428521 0.018622816 -0.10839535 0.14357097 -0.031056663 -0.047896136 -0.08352361
0.011409068 0.10263723 -0.041378662 0.008603855 0.08833183 0.063795 -0.022629209 0.052504793
0.018292306 -0.11709032 -0.06736928 0.11421591 -0.0986251 0.12655406 0.07841491 -0.008211812
-0.07229556 0.025987713 0.068761975 -0.02482145 -0.049504958 -0.113905996 0.09123772 -0.02230968
-0.10607592 0.025754463 0.045554727 -0.07871412 0.13510796 0.08156668 0.045513317 -0.0010867122
-0.011354063 0.15016323 -0.09717637 -0.12616721 -0.09762406 -0.08383393 0.07096963 0.12640862
-0.013987593 0.17755507 0.1179502 0.04250008 0.061639298 0.0034344639 0.036382288 0.05889131
0.057111517 -0.008760226 -0.12928496 0.07715523 -0.08466236 -0.011752691 -0.01239366 -0.11859797
-0.02837599 0.06449739 0.12237756 0.09317645 0.06999146 0.14993317 0.05219069 -0.06807559
0.08654277 -0.0048079584 -0.045924876 0.050477833 0.060858425 0.008279466 0.06557705 -0.051164098
0.08850123 0.11348432 0.04907763 0.10974233 -0.014003094 0.13220334 -0.013500928 0.07035488
-0.095970534 0.106743895 -0.014540726 0.05731544 -0.102915466 -9.919143e-06 0.056547735 0.00025067583
0.056626476 0.042764504 -0.12301345 -0.09616458 0.032519765 -0.043882255 -0.056212265 -0.11674084
-0.06557435 -0.03860959 0.06129013 -0.029206008 -0.05666276 0.11181368 0.1097184 0.15722275
0.063502036 0.040869884 0.07095884 0.009869287 0.03229898 -0.044630107 -0.031469148 -0.003807349
-0.022508206 -0.05811409 -0.08996329 -0.06480033 0.051757608 -0.04151275 0.05102818 -0.044227038
-0.06297222 0.10733309 0.044142652 0.090632975 0.111307904 0.093382955 0.04492196 -0.015323882
0.023085054 -0.015851168 -0.011839691 0.12181152 -0.047908183 0.06324848 0.046211388 -0.05178186
-0.108735695 0.065855294 -0.123562865 0.012826106 -0.05127619 -0.15053163 0.13282855 -0.00650636
0.079622 0.16668232 0.16573803 0.15233389 0.12333986 -0.0039478024 0.13088144 0.11619995
-0.100335464 0.06573012 -0.036638673 -0.11841937 -0.016987557 0.045627978 0.077132165 -0.1269403
-0.09365072 -0.005373635 -0.076513015 -0.09779492 -0.1439608 0.060430318 -0.061936136 -0.10342839
0.13133693 -0.11627302 0.05232929 0.04371558 -0.03488048 -0.055074442 -0.09993893 0.0018232345
-0.119452916 -0.14536358 -0.08171765 -0.021441154 -0.10966631 0.057792224 -0.08675045 0.09998849
0.00627167 0.0036757889 0.005925277 -0.08555582 0.13083148 0.006110262 -0.019957587 -0.022260256
-0.111341916 -0.044318896 0.005046516 -0.0019106852 -0.10058959 0.13364366 0.0430568 0.10591958
00000000: ed4a e93c 7f12 00bd b5a1 c6bc c743 0f3d
00000010: 9810 8c3d 6df5 2ebc bb00 a93d 425c aabd
00000020: 28b7 033e 0659 c13d 703a b43d 3269 9d3d
00000030: 64ca 01be 00db b93c b918 f5bd 5f8a 373b
00000040: 8187 be3d b80d 18bd 427a 0f3e 5646 9d3d
00000050: 5c22 bb3d 6b9c 2d3d 6e02 4d3d b80b dd3d
00000060: 536a 0fbc d7b4 95bd a3ed b23c cc56 1a3c
00000070: 3154 04bd abdb c8bd a33f c4bd 42b1 823c
00000080: 6cba d83c 2f0f f93b ef92 efbc 8918 243d
00000090: 00c9 2ebb 4a22 fabd a572 433a 51c5 b5bc
000000a0: e119 d9bd bca8 853d c71b 2a3e 7559 963d
000000b0: 10fb 143e 106f c63d deff 3a3d c809 80bd
000000c0: b883 9dbb a66e 0c3d e08e 983c 62fe ddbd
000000d0: 4504 133e 8b6a febc bd2e 44bd 6d0e abbd
000000e0: 19ed 3a3c 7833 d23d ac7c 29bd 2ff7 0c3c
000000f0: 52e7 b43d f4a6 823d e460 b9bc 440f 573d
00000100: bfd9 953c 0dcd efbd e8f8 89bd 08ea e93d
00000110: f5fb c9bd 6397 013e ff97 a03d d68a 06bc
00000120: b20f 94bd 2fe4 d43c 14d3 8c3d 5a56 cbbc
00000130: b6c5 4abd 8c47 e9bd d7da ba3d cac2 b6bc
00000140: 553e d9bd 06fb d23c 9897 3a3d de34 a1bd
00000150: be59 0a3e 6e0c a73d 2c6c 3a3d 0370 8eba
00000160: 6406 3abc 64c4 193e 6804 c7bd fa31 01be
00000170: 20ef c7bd 20b1 abbd 8658 913d 4371 013e
00000180: 382c 65bc ffd0 353e e08f f13d 9014 2e3d
00000190: 7d79 7c3d be14 613b 9805 153d 0438 713d
000001a0: c4ed 693d 0d87 0fbc 4763 04be 9003 9e3d
000001b0: 7663 adbd 5c8e 40bc c70e 4bbc 7ee3 f2bd
000001c0: c474 e8bc 3517 843d 16a1 fa3d 4bd3 be3d
000001d0: af57 8f3d 1588 193e e8c5 553d 376b 8bbd
000001e0: 563d b13d 148c 9dbb b91b 3cbd d8c1 4e3d
000001f0: af46 793d 99a6 073c 434d 863d 7291 51bd
00000200: 2240 b53d 786a e83d a005 493d 96c0 e03d
00000210: 3c6d 65bc 5060 073e ff32 5dbc 3816 903d
00000220: 338c c4bd 8b9c da3d 3a3c 6ebc 98c3 6a3d
00000230: 58c5 d2bd 656a 26b7 999e 673d 246d 8339
00000240: 2af1 673d d529 2f3d 7aee fbbd eff1 c4bd
00000250: 7233 053d e1bd 33bd d53e 66bd d215 efbd
00000260: d84b 86bd 1725 1ebd 5c0b 7b3d 7041 efbc
00000270: 3617 68bd 92fe e43d 0ab4 e03d 00ff 203e
00000280: 5b0d 823d 2e67 273d de52 913d cab2 213c
00000290: ef4b 043d 0fce 36bd cbe5 00bd b784 79bb
000002a0: 2163 b8bc 0a09 6ebd ac3e b8bd 09b6 84bd
000002b0: c9ff 533d 4609 2abd ed02 513d 6927 35bd
000002c0: 94f7 80bd 73d1 db3d edce 343d c89d b93d
000002d0: 66f5 e33d 903f bf3d 1700 383d 0511 7bbc
000002e0: de1c bd3c 4fda 81bc 43fb 41bc 5178 f93d
000002f0: 5f3b 44bd 6b88 813d 2748 3d3d 3719 54bd
00000300: d2b0 debd 24df 863d 870e fdbd 9624 523c
00000310: fb06 52bd f724 1abe 3504 083e 4e33 d5bb
00000320: dc10 a33d c5ae 2a3e 3bb7 293e 6afd 1b3e
00000330: 9c99 fc3d 915c 81bb c905 063e 3dfa ed3d
00000340: ae7c cdbd 839d 863d 6f12 16bd db85 f2bd
00000350: 7d29 8bbc 67e4 3a3d 78f7 9d3d a3fc 01be
00000360: f3cb bfbd 5115 b0bb dbb2 9cbd b448 c8bd
00000370: 766a 13be c885 773d bfb0 7dbd 44d2 d3bd
00000380: 307d 063e 8d20 eebd 3d57 563d 1c0f 333d
00000390: d6de 0ebd bd95 61bd c8ac ccbd 99f9 ee3a
000003a0: bba3 f4bd 31da 14be 955b a7bd 5ca5 afbc
000003b0: bb98 e0bd 8ab7 6c3d 38aa b1bd c4c6 cc3d
000003c0: 9582 cd3b 81e5 703b d328 c23b e437 afbd
000003d0: b0f8 053e 9838 c83b 187e a3bc 245b b6bc
000003e0: 3b07 e4bd bb87 35bd 3f5d a53b f56f faba
000003f0: ea01 cebd e2d9 083e 545c 303d 5dec d83d

gru.weight_hh_l0_reverse f4 [192, 64]
0.0533243 0.04216445 0.1185155 0.08210991 0.025277536 -0.05886224 0.16408786 -0.043537002
-0.16512106 0.12836559 -0.07332205 -0.1454369 -0.044234045 0.035590533 -0.05311098 0.120604694
-0.003121358 0.07034421 0.10444128 -0.055135638 0.03287692 0.10684549 0.005620747 0.0028467039
-0.056515332 -0.0069380784 0.0722335 0.01865599 -0.08150987 0.012465989 0.14365393 -0.0883881
-0.054078426 0.14285652 -0.017088948 0.1133391 -0.02002282 -0.059838295 -0.09133883 0.11893714
0.07600507 -0.044418506 0.045527752 0.039290644 0.045622114 -0.008170918 -0.11805561 -0.10214643
-0.07151477 -0.01735825 0.031175742 0.10784114 0.011560534 -0.09727908 -0.0048303106 -0.14086589
0.032494977 0.11243081 0.18014075 0.04596039 -0.060124308 -0.04444035 0.1395806 -0.058877632
0.01246104 -0.16469477 0.0302179 0.052835006 -0.034362923 -0.16582936 0.1222812 -0.04933343
0.0065596127 -0.048312366 0.100785784 -0.01393195 0.10282971 0.06372788 -0.03536883 -0.021078918
-0.049549915 -0.062304918 0.08384446 -0.051295616 0.03327973 -0.001438114 0.049992368 -0.014359917
0.06949354 0.007849575 -0.116032645 0.09754343 -0.062024772 -0.12118286 0.1110252 -0.09680124
-0.10530261 0.13716549 -0.043803025 -0.059849028 -0.14440696 0.10981823 -0.08894606 0.03839497
0.09561567 -0.00983602 -0.14063063 -0.16700381 0.09894438 -0.14084876 0.055140525 0.04691785
0.04581059 0.12927814 -0.02369299 -0.024384612 0.075806335 -0.0073742676 -0.024922028 0.060806632
0.076551005 0.13488333 0.059111286 -0.03539767 0.023597525 0.06650292 -0.008376558 0.058066174
-0.0389865 -0.14012201 -0.025575709 0.083389446 -0.015377646 -0.014465408 0.13240385 -0.12742338
-0.025136434 0.090203546 -0.0013487686 0.089544356 0.08700451 -0.00080621295 0.014667031 -0.004886143
-0.023495711 0.060609005 0.021108106 0.11264589 -0.032359183 -0.07761795 -0.07598142 -0.09754904
0.107752256 -0.053113937 -0.01477202 0.084903054 -0.07355319 -0.024269031 0.029581403 -0.02161895
0.09759546 0.103460476 0.098332696 0.03953969 -0.087001376 -0.047105256 -0.09276754 0.1149487
-0.086067714 0.06934398 0.06694571 0.020070923 0.123959936 -0.052915283 -0.03810552 0.082516275
-0.13221964 -0.089485735 0.030617159 -0.07487328 -0.04025825 -0.029281178 0.024582634 -0.09466067
0.058249176 0.030694192 0.04560073 0.027359052 0.015041814 0.10304401 -0.049734518 0.08337993
-0.14273772 -0.15544572 0.033087764 0.013437558 -0.034760736 0.06013576 0.13998324 0.033084333
-0.021397527 0.13012542 -0.09269297 -0.17954825 0.022335088 0.044145912 -0.084646955 0.09041499
0.024302384 0.007490446 -0.10911274 0.06367476 0.15883675 -0.08658077 -0.047918037 0.03684618
-0.054555852 -0.0009903825 -0.004449251 0.031718157 0.08691371 -0.028835112 0.1390387 -0.11985298
-0.09707661 -0.060815908 0.021829551 0.018665263 -0.016178988 0.06050008 0.098496854 0.03498741
-0.109007195 0.11654444 -0.12578529 -0.09915231 0.08152119 -0.14845009 -0.09199172 0.020167056
0.107955135 0.05298633 0.12142442 -0.020022176 -0.10198939 -0.08043562 0.0012669613 0.032101903
-0.0146838715 -0.044398457 0.015960123 -0.012658478 -0.030660182 -0.18996982 0.1018169 -0.05644312
00000000: 956a 5a3d a1b4 2c3d 41b8 f23d 3e29 a83d
00000010: d612 cf3c 8819 71bd a606 283e db53 32bd
00000020: 7f15 29be 4572 033e df29 96bd 69ed 14be
00000030: c22e 35bd 61c7 113d e68a 59bd 98ff f63d
00000040: b38f 4cbb a010 903d 4fe5 d53d e8d5 61bd
00000050: f3a9 063d cfd1 da3d 3e2e b83b c48f 3a3b
00000060: 9f7c 67bd d258 e3bb 28ef 933d 72d4 983c
00000070: a6ee a6bd 263e 4c3c 041a 133e d204 b5bd
00000080: 5781 5dbd fb48 123e 1ffe 8bbc 541e e83d
00000090: e606 a4bc 0019 75bd da0f bbbd 5195 f33d
000000a0: 8ca8 9b3d 2ef0 35bd 4f7b 3a3d 3aef 203d
000000b0: 41de 3a3d 50df 05bc 24c7 f1bd 2632 d1bd
000000c0: 5676 92bd e432 8ebc 4564 ff3c d1db dc3d
000000d0: 6568 3d3c 413a c7bd 9547 9ebb 263f 10be
000000e0: 7419 053d 2042 e63d d176 383e f640 3c3d
000000f0: e844 76bd 1607 36bd 38ee 0e3e ac29 71bd
00000100: 6429 4c3c bfa5 28be 888b f73c 8569 583d
00000110: 23c0 0cbd 2ccf 29be 916e fa3d da11 4abd
00000120: 05f2 d63b 30e3 45bd c768 ce3d d542 64bc
00000130: 6298 d23d c383 823d e8de 10bd b2ad acbc
00000140: daf4 4abd 7133 7fbd a5b6 ab3d 5a1b 52bd
00000150: 5350 083d 197f bcba ccc4 4c3d db45 6bbc
00000160: a152 8e3d 819b 003c 86a2 edbd dac4 c73d
00000170: b00d 7ebd b82e f8bd 2e61 e33d bb3f c6bd
00000180: e5a8 d7bd 1c75 0c3e cd6a 33bd 4124 75bd
00000190: 6bdf 13be 61e8 e03d 5a29 b6bd 0b44 1d3d
000001a0: 26d2 c33d 4227 21bc 7a01 10be 0c03 2bbe
000001b0: 5aa3 ca3d a83a 10be 08db 613d ee2c 403d
000001c0: e3a3 3b3d 7d61 043e cd17 c2bc 3dc2 c7bc
000001d0: 5a40 9b3d d7a3 f1bb 4829 ccbc 6010 793d
000001e0: c6c6 9c3d db1e 0a3e ad1e 723d 26fd 10bd
000001f0: 994f c13c af32 883d d53d 09bc ccd6 6d3d
00000200: 4fb0 1fbd 257c 0fbe 2684 d1bc 16c8 aa3d
00000210: 86f2 7bbc 5200 6dbc e094 073e 467b 02be
00000220: ecea cdbc a3bc b83d 2ac9 b0ba 0863 b73d
00000230: 6c2f b23d 0958 53ba fd4d 703c f01b a0bb
00000240: 147a c0bc 2641 783d e8ea ac3c e3b2 e63d
00000250: 108b 04bd 29f6 9ebd 269c 9bbd cbc7 c7bd
00000260: 37ad dc3d 008e 59bd 5806 72bc a7e1 ad3d
00000270: 0ea3 96bd d9cf c6bc b354 f23c 391a b1bc
00000280: 21e0 c73d 16e3 d33d a762 c93d 5ff4 213d
00000290: c72d b2bd 71f1 40bd e8fc bdbd 396a eb3d
000002a0: 4544 b0bd 3704 8e3d d51a 893d c76b a43c
000002b0: b5de fd3d b2bd 58bd 8914 1cbd 4bfe a83d
000002c0: 9664 07be 4c44 b7bd d6d0 fa3c 2a57 99bd
000002d0: d6e5 24bd 15df efbc 8561 c93c 74dd c1bd
000002e0: b096 6e3d 6372 fb3c d5c7 3a3d 1720 e03c
000002f0: f171 763c bd08 d33d 6cb6 4bbd 19c3 aa3d
00000300: d629 12be 2a2d 1fbe 0987 073d 3429 5c3c
00000310: 4661 0ebd ea50 763d c457 0f3e 7083 073d
00000320: de49 afbc 993f 053e d0d5 bdbd 7fdb 37be
00000330: 13f8 b63c 58d2 343d 625b adbd 7f2b b93d
00000340: cb15 c73c 6a72 f53b 8076 dfbd ea67 823d
00000350: 1aa6 223e 4251 b1bd b445 44bd 05ec 163d
00000360: f575 5fbd b9cf 81ba 06cb 91bb e6ea 013d
00000370: d1ff b13d 9d37 ecbc 2960 0e3e 7b75 f5bd
00000380: 1ad0 c6bd 1a1a 79bd e3d3 b23c e5e7 983c
00000390: cc89 84bc efce 773d b8b8 c93d f54e 0f3d
000003a0: 2a3f dfbd daae ee3d dccd 00be 5e10 cbbd
000003b0: 95f4 a63d 4d03 18be 2866 bcbd 6235 a53c
000003c0: 9517 dd3d 3208 593d 5ead f83d 8c05 a4bc
000003d0: d0df d0bd 6ebb a4bd 2b10 a63a 497d 033d
000003e0: 9f94 70bc 28db 35bd cebe 823c 8165 4fbc
000003f0: 102b fbbc 7387 42be 6185 d03d e730 67bd

gru.bias_ih_l0_reverse f4 [192]
0.027847685 -0.069344185 -0.069765486 0.16367778 -0.07135403 0.025891226 0.16076425 0.107342765
0.0069566597 -0.023489067 -0.024262965 -0.030392107 0.051752284 0.097283885 -0.02028563 -0.00023999224
-0.048442617 -0.07179151 -0.03138589 0.11961502 0.06838229 -0.045154974 -0.077874936 0.045004316
0.086976975 0.058552366 0.046350915 -0.11877284 -0.040881567 0.063548885 -0.019545529 -0.04904494
-0.035717368 0.10240274 -0.061150283 -0.074713655 0.045483842 -0.10237082 0.14593108 0.1467573
0.024780069 0.08489784 0.09436453 -0.023769325 -0.079006374 0.031160768 0.036060084 0.08066751
-0.036471423 -0.056460667 0.022556175 -0.007875157 0.0133465035 0.025297714 0.10153109 -0.022004928
-0.12313716 0.08261254 -0.017489426 0.011784263 0.0351934 0.09724183 0.1397487 0.043897383
0.091311246 0.027610425 -0.042816997 -0.022473205 -0.076610334 0.134926 -0.0964096 -0.10159419
0.077158615 0.16540447 0.040273022 -0.03721654 -0.023553252 0.08195321 0.12585108 -0.10740187
0.09768113 0.039455324 0.20892215 -0.04143349 0.061916843 0.03999265 0.16809593 0.17216861
-0.034665797 -0.010646726 0.18135107 -0.086496234 0.13463047 -0.049938254 0.06417555 0.107463114
0.08193296 0.051505234 0.07344271 0.0061456286 0.058312617 -0.0565393 -0.0910177 -0.05651543
0.18765031 -0.12004489 0.1290266 -0.024632348 0.0291755 0.053016733 0.031172002 0.1161028
-0.044124346 -0.046140347 0.042250175 -0.022212751 0.13686737 0.06734121 0.09372587 -0.12395024
0.073706575 -0.09165552 0.12918985 -0.061720636 0.17446376 -0.09383001 -0.020846134 -0.03774627
-0.09247937 -0.14138708 0.14755195 -0.06325752 -0.05295345 -0.0834987 0.11872404 -0.015074396
-0.03151208 0.084868714 0.058927607 -0.06125546 0.025545692 0.05427991 -0.08345057 0.017380312
-0.039536152 0.11306076 -0.014838294 -0.049459476 -0.070243 0.07898976 -0.08821698 -0.10710096
0.12140559 0.011736578 -0.09966288 0.07431289 0.085069984 -0.05050289 0.051679328 -0.12215758
0.031846456 0.06934997 0.02635279 -0.003441022 -0.12673031 0.027782124 -0.041435536 0.11328073
-0.004922379 0.037100043 -0.0125563815 -0.10164996 -0.049643565 -0.0007342041 -0.029013356 -0.13256854
-0.1227965 -0.051937107 -0.061674375 0.13025422 -0.089133635 -0.039516736 0.10176177 -0.068262324
0.10100477 0.097155266 0.049703613 -0.0037987435 -0.02607611 -0.13814624 -0.04554477 -0.01413465
00000000: d420 e43c 5304 8ebd 35e1 8ebd 269b 273e
00000010: 1022 92bd d619 d43c 629f 243e 86d6 db3d
00000020: b1f4 e33b 256c c0bc 20c3 c6bc def8 f8bc
00000030: 34fa 533d c63c c73d 0d2e a6bc 6da6 7bb9
00000040: c46b 46bd 6d07 93bd 7e8e 00bd b8f8 f43d
00000050: 040c 8c3d 6cf4 38bd e57c 9fbd 7256 383d
00000060: fc20 b23d 9bd4 6f3d 75da 3d3d 2d3f f3bd
00000070: 6e73 27bd eb25 823d f21d a0bc 59e3 48bd
00000080: 604c 12bd 87b8 d13d b878 7abd 7903 99bd
00000090: 444d 3a3d cba7 d1bd f56e 153e 8c47 163e
000000a0: 92ff ca3c ebde ad3d 3142 c13d e3b7 c2bc
000000b0: 18ce a1bd de44 ff3c bdb3 133d 0235 a53d
000000c0: 0f63 15bd 4d43 67bd bac7 b83c cd06 01bc
000000d0: 4bab 5a3c 273d cf3c 88ef cf3d ae43 b4bc
000000e0: 562f fcbd c330 a93d fc45 8fbc c812 413c
000000f0: f426 103d b926 c73d 491a 0f3e becd 333d
00000100: 6401 bb3d 422f e23c e060 2fbd ba19 b8bc
00000110: e1e5 9cbd 0b2a 0a3e 6572 c5bd 9d10 d0bd
00000120: 5605 9e3d ca5f 293e 53f5 243d 5f70 18bd
00000130: c0f2 c0bc 16d7 a73d 1bdf 003e 83f5 dbbd
00000140: 0b0d c83d e89b 213d b0ef 553e 2ab6 29bd
00000150: 849c 7d3d 55cf 233d 5721 2c3e f84c 303e
00000160: b9fd 0dbd 9b6f 2ebc 18b4 393e f024 b1bd
00000170: 92dc 093e 0e8c 4cbd 796e 833d 9f15 dc3d
00000180: 78cc a73d 27f7 523d 2269 963d 4561 c93b
00000190: 36d9 6e3d c195 67bd 7d67 babd b97c 67bd
000001a0: 6727 403e 18da f5bd 8d1f 043e c7c9 c9bc
000001b0: 7501 ef3c 1328 593d 6d5c ff3c 4ec7 ed3d
000001c0: bbbb 34bd a9fd 3cbd 850e 2d3d 84f7 b5bc
000001d0: f626 0c3e 30ea 893d 59f3 bf3d a0d9 fdbd
000001e0: 79f3 963d e4b5 bbbd 584a 043e c7ce 7cbd
000001f0: a1a6 323e f329 c0bd 83c5 aabc d59b 1abd
00000200: d365 bdbd c6c7 10be dc17 173e 298d 81bd
00000210: b7e5 58bd 5e01 abbd 9725 f33d 99fa 76bc
00000220: d012 01bd a6cf ad3d 135e 713d 01e7 7abd
00000230: 3345 d13c 9c54 5e3d 22e8 aabd 2861 8e3c
00000240: a9f0 21bd 668c e73d 511c 73bc 0596 4abd
00000250: 90db 8fbd 62c5 a13d 1bab b4bd c057 dbbd
00000260: 7ea3 f83d c74a 403c 0d1c ccbd 5b31 983d
00000270: 2c39 ae3d 1edc 4ebd b4ad 533d c12d fabd
00000280: 6e71 023d 5b07 8e3d cee1 d73c c582 61bb
00000290: 97c5 01be 5697 e33c 4fb8 29bd baff e73d
000002a0: e84b a1bb 37f6 173d 48b9 4dbc db2d d0bd
000002b0: 0d57 4bbd 9a77 40ba 6bad edbc 0cc0 07be
000002c0: bb7c fbbd 01bc 54bd 459e 7cbd 5d61 053e
000002d0: b28b b6bd 4ddc 21bd 7a68 d03d 1ecd 8bbd
000002e0: 97db ce3d 57f9 c63d 0496 4b3d 57f4 78bb
000002f0: 919d d5bc 3576 0dbe 278d 3abd 0595 67bc

gru.bias_hh_l0_reverse f4 [192]
0.058542088 0.08883886 0.059163358 0.04550332 -0.028757334 -0.016636213 0.104204334 -0.08681669
0.07356361 0.06081227 0.08425966 -0.058561467 0.08535379 0.10315873 0.06045557 -0.057962175
-0.052052643 -0.052749425 0.1020531 -0.029766452 -0.023132658 0.04984197 0.13449357 -0.03930094
-0.020397488 0.1372021 -0.09816798 0.02735495 0.0630961 -0.03148537 -0.011303328 0.11901724
0.042451035 0.046355177 -0.082104504 0.00832156 -0.078568645 0.042110924 -0.06266619 -0.010936344
0.08105751 0.011206147 0.055913255 -0.018513469 0.1659361 0.12410593 0.122536995 -0.040139735
0.06878711 -0.0180398 -0.081996515 -0.07842694 0.098075785 0.0636381 -0.065034136 0.07432559
-0.073945664 -0.012838603 -0.09224254 -0.031701356 -0.06430591 0.10341626 0.10202846 0.13922575
-0.022258377 0.08552437 0.097222105 -0.0038846966 -0.11216773 0.059179667 0.07365412 -0.07866786
-0.000992344 -0.020052627 0.102218546 -0.011532877 0.02875401 0.12603392 0.004362648 -0.124500304
-0.055628084 0.095347114 0.035917547 -0.03280046 0.041056145 0.07655683 0.06284636 0.19949587
-0.078589484 0.12738524 0.06611753 -0.06714878 -0.042049676 0.0493586 -0.05149179 -0.0206712
0.059097696 0.16083916 0.046873104 0.02589728 -0.061691664 0.031936385 0.07110478 -0.023782987
0.089931294 -0.069239005 0.124571495 0.104295686 -0.04715171 -0.0702026 -0.0767038 -0.008247392
0.12885748 0.022174457 0.17829593 0.05357945 0.18618843 0.13008325 -0.09114373 -0.109950244
-0.009035332 0.021629252 -0.054501515 -0.054007344 -0.00022634972 0.06412703 0.109706946 0.19283888
-0.052762475 0.026597677 -0.097349614 -0.06980188 -0.0824647 -0.11169627 0.0943624 -0.049271822
-0.012856354 -0.01838499 0.0019309913 0.049800694 -0.045647506 0.0107905725 0.043739837 -0.0099146925
-0.08560718 -0.042258903 0.12488786 -0.12703839 0.13894176 0.10943382 0.108946756 0.009395899
0.006174937 0.030156808 0.037834063 0.10680824 -0.05966243 0.11860386 0.13256541 0.06971533
-0.09223353 -0.08669187 -0.035330918 0.008939375 -0.08122452 -0.05508438 0.08643175 0.11203763
-0.014855264 0.069466166 -0.0728906 0.04612082 0.027444063 -0.13566764 -0.05927529 -0.11895439
0.011280637 0.11830919 0.08486222 0.03336909 -0.031180698 0.05180944 0.08758397 -0.054160688
-0.015018949 0.1413889 -0.06593984 -0.09176991 0.0053783082 -0.14029571 0.012218597 -0.08407146
00000000: d4c9 6f3d 26f1 b53d 4755 723d b061 3a3d
00000010: 8094 ebbc ab48 88bc 1569 d53d f3cc b1bd
00000020: 85a8 963d 4916 793d 5490 ac3d 26de 6fbd
00000030: f8cd ae3d e244 d33d 43a0 773d bf69 6dbd
00000040: 2735 55bd c80f 58bd 3701 d13d c6d8 f3bc
00000050: b380 bdbc 1827 4c3d afb8 093e 06fa 20bd
00000060: a218 a7bc b57e 0c3e 4b0c c9bd 7d17 e03c
00000070: 8738 813d cef6 00bd 9831 39bc 50bf f33d
00000080: 23e1 2d3d edde 3d3d 6826 a8bd 2757 083c
00000090: 99e8 a0bd 817c 2c3d 2257 80bd 5a2e 33bc
000000a0: 7b01 a63d fd99 373c 4c05 653d 8fa9 97bc
000000b0: 27eb 293e 402b fe3d adf4 fa3d 9069 24bd
000000c0: 42e0 8c3d 34c8 93bc caed a7bd 4e9e a0bd
000000d0: f5db c83d b154 823d 9e30 85bd 0438 983d
000000e0: d370 97bd 0159 52bc a8e9 bcbd 48d9 01bd
000000f0: d1b2 83bd e7cb d33d 4cf4 d03d 3291 0e3e
00000100: 3357 b6bc 6727 af3d 621c c73d 6596 7ebb
00000110: 32b8 e5bd 6166 723d f9d7 963d 9d1c a1bd
00000120: 8a11 82ba 6845 a4bc f557 d13d 64f4 3cbc
00000130: 888d eb3c 090f 013e 8bf4 8e3b 04fa febd
00000140: 46da 63bd 5945 c33d 471e 133d c659 06bd
00000150: 7d2a 283d d4c9 9c3d 98b5 803d a548 4c3e
00000160: 86f3 a0bd 4771 023e a168 873d 4d85 89bd
00000170: 483c 2cbd 3e2c 4a3d 0ee9 52bd a656 a9bc
00000180: 6d10 723d 05b3 243e 03fe 3f3d 8826 d43c
00000190: 66b0 7cbd bacf 023d 629f 913d 8ad4 c2bc
000001a0: e62d b83d 2ecd 8dbd 571f ff3d fa98 d53d
000001b0: 2722 41bd 61c6 8fbd e216 9dbd 1220 07bc
000001c0: 37f3 033e 35a7 b53c 3593 363e 2076 5b3d
000001d0: 2ea8 3e3e 8b34 053e 90a9 babd 982d e1bd
000001e0: ee08 14bc d42f b13c fb3c 5fbd ce36 5dbd
000001f0: 4a58 6db9 0855 833d 09ae e03d 8e77 453e
00000200: 771d 58bd 5fe3 d93c 3c5f c7bd 4af4 8ebd
00000210: 41e3 a8bd 04c1 e4bd 1341 c13d 40d1 49bd
00000220: 75a3 52bc 1e9c 96bc 5119 fd3a d0fb 4b3d
00000230: e1f8 3abd f1ca 303c 8b28 333d 3c71 22bc
00000240: d152 afbd ac17 2dbd 35c5 ff3d 5a16 02be
00000250: c046 0e3e d71e e03d 7a1f df3d 42f1 193c
00000260: 2057 ca3b 690b f73c e4f7 1a3d 47be da3d
00000270: 9860 74bd 95e6 f23d 3abf 073e e9c6 8e3d
00000280: efe4 bcbd 828b b1bd 27b7 10bd 7576 123c
00000290: 0b59 a6bd 29a0 61bd 2103 b13d fc73 e53d
000002a0: 7e63 73bc 4744 8e3d ab47 95bd 2fe9 3c3d
000002b0: 5fd2 e03c 75ec 0abe a6ca 72bd 5c9e f3bd
000002c0: 6cd2 383c 174c f23d 3ecc ad3d 07ae 083d
000002d0: aa6e ffbc 2336 543d 395f b33d 99d7 5dbd
000002e0: 0a12 76bc 40c8 103e 780b 87bd ddf1 bbbd
000002f0: 853c b03b aea9 0fbe 8330 483c a82d acbd
