gru_classifier_weights/gpt-oss-120b_a100_tp4.pt (torch, 117989 bytes, 10 tensors)

gru.weight_ih_l0 f4 [192, 6]
00000000: df64 303e 1421 5ebd a48b 8b3d 40a8 0e3e
00000010: bdb0 67bd f1ab 223e d4b0 ad3d 14ea f639
00000020: 9518 343d d21b 843d f958 013e 722d 903d
00000030: f2b6 f63d da28 19bd bac5 adbd 5bca f8bc
00000040: 0a85 973d 5c62 88bd 80ad 6abc a36e 79bb
00000050: ebb8 8f3d 71db 72bb 90a1 dd3b e6da 343e
00000060: fd89 cbbd ffc6 46bd b245 903c 9f48 d8bd
00000070: 9af2 eebc 63ef 293d 7b27 373d 52e9 54bd
00000080: 139d 5b3d e3df 953c 9e54 5c3d edbc 473e
00000090: 1b45 5f3d f431 1c3e 4983 0abe 78b0 a1bd
000000a0: f4d3 f9bc 2c29 6b3d 079a c43d ccbc 3c3c
000000b0: 6115 8abc 0759 843d acec 17bc 07c1 b93d
000000c0: e627 5cbd 362e b3bd f32e 0ebe 3ba6 5dbd
000000d0: f3bf 34bc 5314 f6bc 6cd6 243d 837b f03d
000000e0: a03f 323c 1921 d4bc 728d 87bd 7bed a83d
000000f0: 3c5c 93bd f2ee b9bb a8c0 803d 7aed 003d
00000100: 5f16 8b3d fa17 9f3d bbb6 533d 1743 a5bd
00000110: 3501 3b3d 1d48 4cbd 331a c5bd 75b9 aebd
00000120: fdba 4a3c da9b cd3d 315c 6abd 09a5 1a3e
00000130: 25f8 853c f938 f43d fbeb 523c bf0e ef3c
00000140: b1ea 213d 5a7e 7f3d e505 343d e17d 183e
00000150: af1f 083e 5971 4abb 11d3 5cbc d272 363e
00000160: c8cf 043e 95b8 b93b 4295 f33d 32de 263e
00000170: 18d5 c03d 0fd0 2f3d 330e e7bb 41e5 03bd
00000180: 0567 3bbd 8393 58bd 11af 9eb9 6c37 2bbc
00000190: 8af7 e13d 0231 233e bbf7 1cbd 2aa8 283d
000001a0: 5ac5 9cbd b9f4 b7bc b6a1 9c3d 44ce 2cbd
000001b0: be6b 7fbd f9e1 173d afdd aa3c 8730 2cbd
000001c0: 0d60 92bb 09b7 c1bc d8c2 e03d bd2f b23d
000001d0: 084b 8bbd 47c3 5e3d 7485 16bb b068 fabd
000001e0: 5ba7 b13c 91e3 dfbd e9d6 afbd 7435 a33d
000001f0: cb8b ad3d 8362 763c be03 af3d 5077 113c
00000200: e6c7 12bd 0fbd fc3c b40c 0bbe 70a3 d6bc
00000210: 4846 6d3c e229 e7bc ea71 f13d ed84 183e
00000220: 4976 963d e691 2e3e edc9 2fbd 1a5c 2abb
00000230: 61b4 e3bd 05ab 243d c95a 7ebc ba87 e3bb
00000240: d900 1b3d 2cb6 9b3d 6f97 47be 38cc cabd
00000250: 263f 08bd e4b1 d73d e513 91bd e269 c9bd
00000260: 4367 16bd 5d3a e73d ca11 c73d 73ad a93d
00000270: 29a6 083e 5bf5 ad3d 1637 143e 582c 7fbd
00000280: 8215 51bd d74a 0f3e 281b f13d b500 b93c
00000290: 93eb fe3d 83b1 df3d e837 0b3d ab7a 4c3c
000002a0: 5472 2f3e 1d03 693c 03be debc 9634 da3d
000002b0: 9da8 213e efad a03d fe9f 8a3d 88e7 c03d
000002c0: 83a8 8f3c 15da aa3d cf75 3bbc 3779 b03d
000002d0: ff08 afbd 4978 bd3c 062f 15be 1bb5 ef3d
000002e0: 5188 213d 180c a93c a3be 673d c5d1 f6bd
000002f0: 2954 b4bc 0b1a cc3d 5464 cebd 15ad 203e
00000300: d684 00bc 9b43 d6bd 7c64 d6bd 781b e2bd
00000310: c341 c23c da74 563c 2d84 083e dff6 7ebc
00000320: 07cd dfbc 8dc6 91bd 3fed 413d 2a11 9dbc
00000330: 00ee 10bd 737c 153e 5f8e c63d 44ba c8bc
00000340: 8609 ccbc 9176 8ebb b366 86bd c21c 0c3e
00000350: 97cd a0bd 4b09 c03d 7441 dfbb c66c 37bd
00000360: 430d 5bbd 06b8 d53d eb09 97bd f6d0 793d
00000370: 0e5a cb3d 6d82 cb3d 91dc 983d 7bd1 76bd
00000380: 874c 18bb 6b9a c33d 6f65 903d ba97 83bd
00000390: 526c f43d 5de2 2c3d c3da 103e 5149 f83d
000003a0: 9abc 4a3d 2e85 1e3d 5ed9 ec3d 30d9 7d3d
000003b0: b4cf f4bc 8631 db3d 3506 023e b212 b63c
000003c0: 5fc0 323e 5f7a eb3d 07c4 923d c740 b33d
000003d0: 3177 eb3d d7b1 403e 9b42 283e 0d4c 0a3e
000003e0: 2ec6 94bd 2df8 243c ad8d 0e3d f9a1 a2bd
000003f0: a0f4 913b 772c 823d 7f6a a2bc c2d1 e83c
0.1722598 -0.054230765 0.06813744 0.1393137 -0.056565035 0.15885903 0.08480993 0.00047095178
0.043968756 0.06450619 0.12631597 0.07039918 0.12046613 -0.037392475 -0.08484979 -0.030369928
0.07398422 -0.066593856 -0.014323592 -0.003806033 0.07017692 -0.0037057067 0.0067636445 0.17661628
-0.099384286 -0.04852962 0.017611358 -0.105607264 -0.029168416 0.041488063 0.044715386 -0.051980324
0.053616595 0.018295234 0.053791635 0.19505663 0.054509263 0.1525343 -0.13526644 -0.07894987
-0.030496575 0.05741231 0.09599691 0.011519622 -0.016855897 0.06462293 -0.009272736 0.0907002
-0.053748988 -0.087490484 -0.13885097 -0.054113608 -0.011032092 -0.030038988 0.04024355 0.11742308
0.010879427 -0.025894688 -0.066187754 0.08248421 -0.07195327 -0.0056742365 0.06286746 0.031476475
0.06791376 0.07768245 0.051687937 -0.08069437 0.045655448 -0.04987346 -0.09624138 -0.08531467
0.012373683 0.10039492 -0.057216827 0.15102018 0.016353676 0.11924929 0.012873645 0.029181836
0.03953046 0.062376358 0.043950934 0.14891769 0.13293336 -0.0030890314 -0.0134780565 0.17817238
0.12969887 0.005667756 0.11893703 0.16295698 0.094156444 0.04292303 -0.007051253 -0.032201055
-0.045752544 -0.052875053 -0.00030266543 -0.010450225 0.110335425 0.15936664 -0.03832219 0.041176
-0.07654829 -0.02245556 0.076480314 -0.042188898 -0.06235861 0.03708074 0.02085766 -0.042038467
-0.0044670166 -0.023646848 0.109746635 0.087005116 -0.068014205 0.05438545 -0.0022967728 -0.12226999
0.021686247 -0.10932077 -0.08585913 0.0796918 0.08473929 0.015038135 0.08545636 0.008878544
-0.03583517 0.030851869 -0.13579065 -0.02620098 0.014482088 -0.028218213 0.117893055 0.14894457
0.0734678 0.17047843 -0.04291718 -0.0025994838 -0.11118389 0.04020216 -0.015524575 -0.00694367
0.037842605 0.07603106 -0.19491361 -0.09902233 -0.033263348 0.10531977 -0.07083873 -0.09834649
-0.03671957 0.11290429 0.0972019 0.08285036 0.13344635 0.084940635 0.14474139 -0.06229815
-0.051045902 0.13993393 0.11772758 0.022583345 0.12447276 0.109225295 0.033988863 0.012480418
0.17133456 0.014221934 -0.027190214 0.10654561 0.15786977 0.07845675 0.06768797 0.09419161
0.017536407 0.08342377 -0.011441662 0.0861687 -0.08546638 0.023128645 -0.1456872 0.11704465
0.039436642 0.02063565 0.05657829 -0.12051729 -0.022012787 0.09965905 -0.1007773 0.15691026
-0.007844171 -0.104621135 -0.104683846 -0.110403955 0.023712998 0.013089383 0.13331671 -0.015561788
-0.027319444 -0.07117949 0.047345396 -0.019173224 -0.035383224 0.14598255 0.09695124 -0.02450288
-0.024906885 -0.0043476303 -0.06562557 0.13682845 -0.07851713 0.093767725 -0.0068132225 -0.04478147
-0.053479444 0.1043549 -0.073749386 0.060990296 0.09929286 0.09936986 0.07463945 -0.06025837
-0.0023238973 0.09550937 0.07050597 -0.06425424 0.11934723 0.042208064 0.14145951 0.12123359
0.04949627 0.03870123 0.11564897 0.061974704 -0.029884197 0.10702805 0.1269768 0.022225711
0.17456196 0.1149795 0.071662955 0.0875259 0.11497343 0.1881784 0.16431658 0.13505574
-0.07264362 0.010068935 0.03480308 -0.0794105 0.0044542104 0.06356137 -0.019826172 0.028420333

gru.weight_hh_l0 f4 [192, 64]
00000000: efc7 393c bc0e 3cbc 0d45 62bc e124 423c
00000010: 085f 0abd 746e af3d 00bd 34bd e317 08bd
00000020: 8cd1 5dbd 66c0 7abd 19d5 4cbd d419 9d3d
00000030: c2e4 b3bd edf2 c53d 7848 8dbd 4899 b2bd
00000040: 9c90 30bd 1338 c0bd 1cdc 0abe 837d 0b3e
00000050: d55d 333d ca46 05bd fd25 c03d 7770 2b3c
00000060: 71c0 b83b b641 5e3d 2f42 223d d105 1b3d
00000070: a55b f93d 3162 a13c 5713 c2bd a0d0 de3c
00000080: 52c2 49bd dcbd 01be 2bb9 8f3d f3ee 853c
00000090: b24f dcba df2f 873d 7d22 10bc 520a b33d
000000a0: ddc0 0f3e 595d 52bb 2c51 873c 1878 a03d
000000b0: 6f5b 023c 41d2 a5bd c4c5 4ebc bbac 023e
000000c0: c5d0 b6bd 9e3f 543d 4af5 1bbe 54c4 db3d
000000d0: dbb7 cebd 2ba2 95bd 0c78 ecbd b3c8 43bb
000000e0: f1d8 ecbc 0dd8 3dbd 5773 9dbd 8d4f 6bbd
000000f0: 53a6 103d d697 2dbd 298e 343d 58d2 a3bb
00000100: 541c dbbd ec8a 3e3d d826 8b3d 108a 803d
00000110: 4d31 afbd e26f d23d 5110 4dbd ce1e e63d
00000120: d3c3 093c 9c53 b0bd 82ca bfbc cb79 00be
00000130: 331c 71bb f287 dfbd 367f d3bd b8cb dabc
00000140: 36d1 b0bd 1846 48bd e0a7 10be e96c 043e
00000150: 40d5 8b3d 218b 723d 9a70 333d 2cf2 9fbc
00000160: db1f 093e d63e 46bd e780 ebba 2cd4 a63d
00000170: 1f3c a13d 552d dc3d a957 9abd 0d82 acbd
00000180: 6c63 99bc 8436 08bd 573e 43bb e7a2 8a3c
00000190: 1e04 08bc 2e6f 353b a614 efbd 96d8 acbd
000001a0: da7a 92bc fab1 cb3c 5605 5ebd 5553 46bd
000001b0: 4766 34bd 3bd4 02be 2156 273d 7b9c 96bd
000001c0: 0bd4 69bd 107f 023d d44d 9bbd 99cc afbd
000001d0: 5f5f 51bd c6cc 39bc c632 d4bc 2588 1f3a
000001e0: 2177 893c 1d5c a23c 6c84 e7bd dc23 32bd
000001f0: 4c09 1ebd 0885 c13c 23f0 093a 4aeb 31bd
00000200: d5e9 4cbd 77a9 de3d 790f 8638 384b 7abc
00000210: ffed 743d 6a64 9d3d 2463 95bd e924 c0bd
00000220: 72a3 ee3c 9471 023e 71d7 323d 5ce6 34be
00000230: 7886 cb3b 7f4c e5bd 85f5 85bd de18 f63c
00000240: d1dd c83d d53a e93d 7582 7d3d 45df b7bc
00000250: ca12 d43d 2f31 e8bc 08e5 043c 12ff bf3d
00000260: 7261 003e ace8 17bd 87c7 c5bd be82 c8bc
00000270: 7d2f cdbd 4e2a 8d3d a6e6 f8bd b28f a0bc
00000280: ed46 54bd d684 df3d 0beb bf3d 33ac 943d
00000290: 357d f63c 70de b93d 0561 5dbd 5653 e3bd
000002a0: 7a7b e0bd 6bef 3d3c a7cb e3bd 1b1f 953d
000002b0: 398f 17bd 6311 a23c c0e1 cb3d a291 b93d
000002c0: fc6c 4ebc 6603 5dbd 2ce3 fcbd 4338 f0bc
000002d0: 8af9 b53d 75f4 423c 5f36 f53c 53df 743d
000002e0: 9893 f9bd 51c3 33bc 5fc7 183d 6d68 8f3d
000002f0: de05 c3bd ecb5 ad3d 950e a23d accb f73d
00000300: 41c6 d93c 56c2 18be 5b61 e3bd caec b93d
00000310: 4fb0 5dbd 8a22 fe3c affa 2ebd 863f d23d
00000320: 52a5 6c3d 9751 91bd 095f 703c 78dc b03d
00000330: 59a7 d13c 2378 ddbd 7c48 083e a2ca 973d
00000340: a718 d93d efa8 113e de59 fd3c b529 88bc
00000350: 46e2 99bd 6f84 1b3b 2b20 01be 0b6a 14bd
00000360: 88ed ea3d 534d 1bbe f1b9 e33c ac5f 523c
00000370: e93a ae3d aa9a 053e 61c9 dfbd cf9f 163e
00000380: 7367 a53d eef1 f83b af53 1b3d 8721 3f3d
00000390: 4f10 a4bd 2584 41bd 5815 c2bd 1a5d bb3d
000003a0: 0050 d03d 063b 6f3d a071 573d 751e d8bc
000003b0: 6f8b 8cbc 3278 98bc fb29 013e 7b2b 30bd
000003c0: df45 e1bd e20a babd ad7b c3bd cf35 b53d
000003d0: f7b8 a1bd cfbf 25be 6dd4 88bd 0375 28be
000003e0: fd13 9abd 1a50 d83c 69d1 d23d 3feb 89bd
000003f0: 7a1a 4cbd 1364 79bd ee4e aabd cd60 afbd
0.011339172 -0.011478122 -0.013810408 0.011849613 -0.033782035 0.08565989 -0.044125557 -0.033225905
-0.054154918 -0.06121864 -0.050007913 0.07670942 -0.087838665 0.09665475 -0.06898588 -0.08720642
-0.04310666 -0.09385695 -0.13560528 0.13622098 0.043790657 -0.032538213 0.09382246 0.010463825
0.005638175 0.054261886 0.0396139 0.037847344 0.12175683 0.019700142 -0.09476345 0.02719909
-0.049257584 -0.12670082 0.0701774 0.016349291 -0.0016808419 0.066009276 -0.008797285 0.08742203
0.14038415 -0.0032099097 0.016518198 0.07835406 0.00795637 -0.080967434 -0.012620393 0.12761204
-0.089265384 0.051818483 -0.15230289 0.10730806 -0.100936614 -0.07306322 -0.115463346 -0.0029874265
-0.02891204 -0.04634862 -0.07688015 -0.057448912 0.03531487 -0.04238113 0.044080887 -0.00499944
-0.106987625 0.046519205 0.06794518 0.06276333 -0.08554325 0.10275246 -0.05006439 0.11236344
0.008408505 -0.08609697 -0.023411993 -0.1254646 -0.003679049 -0.109146014 -0.10326998 -0.026708469
-0.08633654 -0.04889497 -0.14126539 0.12932171 0.068277836 0.059214715 0.043808557 -0.019524656
0.13391058 -0.04839977 -0.0017967493 0.08145937 0.07872795 0.10750834 -0.07536251 -0.08423243
-0.018724166 -0.033255115 -0.0029791796 0.016923381 -0.008301763 0.0027684676 -0.1167386 -0.08439748
-0.017880846 0.02486514 -0.054204307 -0.048419315 -0.04404285 -0.12776272 0.040853623 -0.07354065
-0.057086986 0.031859457 -0.07583204 -0.08583946 -0.051116344 -0.011340326 -0.025903117 0.0006085656
0.016780438 0.019819314 -0.11304554 -0.04349123 -0.038583085 0.023623005 0.00052619184 -0.04343728
-0.050027687 0.108721666 6.3925e-05 -0.015276723 0.059797283 0.07685168 -0.072943 -0.0938204
0.029130671 0.12738639 0.043662492 -0.17666 0.0062110983 -0.11196231 -0.0654097 0.030041154
0.09807933 0.113881744 0.06189199 -0.02244533 0.10355146 -0.028343765 0.008111246 0.09374823
0.12537172 -0.037087128 -0.096571974 -0.024476405 -0.10018823 0.068928346 -0.12153368 -0.01959977
-0.051825453 0.10914008 0.09371003 0.07259407 0.030089 0.0907563 -0.054047603 -0.110998794
-0.10961051 0.011592726 -0.11122828 0.072813235 -0.037001822 0.019783681 0.09955168 0.090609804
-0.012599226 -0.05395832 -0.12348017 -0.029323703 0.088854864 0.011899103 0.029933153 0.05978329
-0.121863544 -0.01097186 0.03729951 0.070023395 -0.095226035 0.084819645 0.079129376 0.12099394
0.026583793 -0.14917883 -0.111025535 0.09078367 -0.05412322 0.031022329 -0.04271954 0.102660224
0.05777485 -0.0709564 0.014671096 0.08635801 0.025592493 -0.1081393 0.133089 0.07411696
0.10600405 0.142246 0.030926641 -0.01662145 -0.07513861 0.002373006 -0.12609927 -0.036233943
0.11471087 -0.15166216 0.027798625 0.012840193 0.0850733 0.13047281 -0.10927082 0.147094
0.08076372 0.0075971996 0.037921604 0.046662834 -0.08010923 -0.047245163 -0.09476727 0.09148617
0.10171509 0.0584059 0.052598596 -0.02638171 -0.01715633 -0.018612001 0.1261367 -0.043010216
-0.10999655 -0.09084107 -0.09545074 0.08848154 -0.07896607 -0.1618645 -0.06681142 -0.16450886
-0.07523344 0.026405383 0.10293848 -0.06734323 -0.049829938 -0.060886454 -0.08315836 -0.08563385

gru.bias_ih_l0 f4 [192]
00000000: 069a eb3d 32cc fc3d 9824 233d 83b7 7abd
00000010: 7490 fc3c eb9f 15bb 500c cfba 3643 a83d
00000020: 64ed c53d dc4e 103e 40cc b0bd b59b a83c
00000030: 0787 b13d e4e7 493d 1182 5dbc cb6a f0bc
00000040: 2da0 a33d dc5b 823d 02e0 4fbd 2db4 e33d
00000050: 7199 043e e30d debd 763f 8dbd da24 1d3e
00000060: 1957 55bd a15b 113e e837 20bc 4439 e53d
00000070: b4e8 093c 4c8b 9c3d d47a 4b3c b677 0d3e
00000080: b96e bcbd db77 cfbd 606b 62bd 03b8 97bd
00000090: 1ddd 223e 47d1 ef3d cce0 103e e761 8dbd
000000a0: 1ba0 0fbd 0d62 a6bd c87e 083e fed8 123d
000000b0: 180c 123d c434 76bc d36c 953b 504a 5fbd
000000c0: 21c2 13bd ac4d 073e cb0f b7bc 02fb a4bd
000000d0: f35e 86bd 8588 d73d c76a 9abc 3211 98bd
000000e0: 7cbc 5ebd 2ed9 1a3e 01b7 f83d f8fc bfbd
000000f0: 1c46 9d3d 1131 c3bb 2e19 1b3c 66f3 883b
00000100: 89f7 1d3d d209 b23d 74f1 20be b63a ebbd
00000110: fb3d dc3d 1a76 d33b d802 88bd 3581 b93c
00000120: 22dd 18be dad4 fb3d e83c 663c 2b31 323d
00000130: c31a 0b3e bf72 dabc 735f c33d 1cf4 e13d
00000140: 279c c73d 4166 733d 3e4c f6bc f84e 40bd
00000150: 8753 cabd 6d7b e33c 9cda 7e3c d140 023e
00000160: 1bca 6f3d 46c4 e0bc 0cd2 ba3d 6dd9 3ebd
00000170: be29 b43d 3b89 673d 6a02 a43d eb92 40bd
00000180: e973 e73c 5dc3 b8bc 660e 96bd 100f 953d
00000190: a365 a6bd e2b1 f33c 6f71 f9bc 5e94 c53d
000001a0: 01f2 9b3d bd75 933d 4b91 a43d 3060 113a
000001b0: 4d52 c1bd d270 54bd 4d3b 233e 9dc9 29bc
000001c0: b4ed efbd 7e2c a53c c566 cc3d 3182 e2bd
000001d0: 7ad2 b63d 622e 0a3e 36f4 b6bc 2a72 babc
000001e0: 7049 253d f876 babc cd70 a73d c3ba 033e
000001f0: d446 fb3d cbeb df3c 7657 c03d 558e b63b
00000200: d1a7 88bd b3ce e0bd 06ca 993d 87d2 b4bd
00000210: 8772 f6bd 4da5 cfbc 2506 113d 5787 4abc
00000220: b28c ab3d ac76 933d 4abf b0bc 900f c4bc
00000230: 2686 cfbd 1647 93bd 9244 02be 4de3 00be
00000240: 44fc e03d dc75 133d 8ca0 a33c b7f7 86bd
00000250: 07d7 f73d 826a c3bd 370f 023e dc6c 94bc
00000260: e351 cc3d b97b eabd c057 243d b26d 773b
00000270: cd5a a1ba e845 7d3d 7eaa 6e3d 4056 fd3b
00000280: 3211 c03d b039 34bb d221 7abb 0392 bd3d
00000290: 1f88 103d ba0a e2bd aeb7 5abd d526 bd3d
000002a0: ab27 4cbd b5cb c73d 5616 5a3b d16b 2f3d
000002b0: e7c0 15bc 3df1 e83b b0a8 b93d 6d8b ea3d
000002c0: 12c4 02be e05a 1c3d c21c 01be b896 b1bc
000002d0: e181 4bbd 18c5 f43d 5423 c6bd f3f8 cb3d
000002e0: e913 7c3d ce8c 7f3d d1d7 6ebd f4d2 a93d
000002f0: a75b d9bd 5648 043e a71a 8b3d 8826 cfbc
0.11503987 0.12343635 0.03982982 -0.061210167 0.0308306 -0.0022830914 -0.0015796516 0.082159445
0.09664419 0.14092582 -0.086327076 0.02058206 0.086683325 0.049293414 -0.01351978 -0.029347798
0.079895355 0.06365177 -0.05075074 0.1111835 0.12949158 -0.108424924 -0.0689687 0.15346089
-0.052085016 0.1419511 -0.009778954 0.11192563 0.008417297 0.07643756 0.012419421 0.13815197
-0.09200806 -0.101302825 -0.055278182 -0.07408144 0.1590466 0.11709838 0.14148253 -0.06903439
-0.035064798 -0.081241705 0.13329613 0.03585147 0.035656065 -0.015027229 0.004560092 -0.05451423
-0.036073808 0.13213223 -0.022346398 -0.080556884 -0.06561079 0.10524086 -0.018849744 -0.07425155
-0.05437897 0.1512191 0.1214428 -0.09374422 0.07679388 -0.005956777 0.0094664525 0.004179406
0.038566146 0.08693279 -0.15717107 -0.114858076 0.10754009 0.006453288 -0.066411674 0.022644619
-0.14928105 0.122964576 0.014052607 0.04350392 0.13584428 -0.026666043 0.0953969 0.11032888
0.097465806 0.05942369 -0.030065652 -0.04695031 -0.09879213 0.027768815 0.01555505 0.12720038
0.058542352 -0.02743734 0.091220945 -0.046594072 0.08797024 0.056527358 0.08008273 -0.047015112
0.028253512 -0.022554094 -0.07326965 0.072782636 -0.081248544 0.029747907 -0.030449597 0.096474394
0.07614518 0.07200191 0.08035525 0.0005545644 -0.09439526 -0.051865406 0.1594059 -0.01036301
-0.1171526 0.020162817 0.09980539 -0.11059988 0.08926864 0.13494256 -0.022333246 -0.022759516
0.04035324 -0.022761807 0.08175812 0.12864213 0.12269369 0.027334115 0.09391682 0.0055711665
-0.066726334 -0.10976925 0.07509236 -0.088292174 -0.12033563 -0.025347376 0.03540625 -0.012361369
0.08376445 0.07200369 -0.021575589 -0.023933202 -0.10133009 -0.07191293 -0.1272147 -0.12586708
0.10985616 0.03600107 0.019974016 -0.065902166 0.1210156 -0.09541799 0.12701117 -0.018118314
0.09976556 -0.114493795 0.040122747 0.0037754592 -0.0012310386 0.061834246 0.058268063 0.007731229
0.0937828 -0.0027500205 -0.003816713 0.09256365 0.035286065 -0.11037202 -0.053397827 0.09235922
-0.049842518 0.09755651 0.0033277473 0.04282743 -0.00914023 0.007108836 0.09065378 0.114523746
-0.12770107 0.038172603 -0.12608626 -0.021678314 -0.04968441 0.11951655 -0.09674707 0.09959593
0.061542425 0.06239014 -0.058311287 0.08292189 -0.106131844 0.12918219 0.06792193 -0.025286928

gru.bias_hh_l0 f4 [192]
00000000: ffe6 273d bfe7 9ebd 2557 903d ee7f d33d
00000010: ad6d df3d 3be9 0e3d d985 1d3c 0586 3f3c
00000020: 165f 05bd 35d6 363e 84e8 4cbd b9ab 563d
00000030: 8389 043d 42e3 f1bc d1fd 1c3b f185 e8bc
00000040: 9b71 fa3d e3b1 a93d e5b8 78bd d63e 29bd
00000050: 6040 8a3d 03b6 fa3d 5a0a 6c3d d7bb 16bc
00000060: 262d bf3d a898 583d 748a dcbd 5899 fbbc
00000070: f027 b0bc a007 f3bd 1551 21bd efa1 d83d
00000080: 3cab 0a3e 3f84 833d e8fd d33d 1869 813d
00000090: aad0 5ebd 977f 6e3d b137 043e 4a90 b13d
000000a0: c796 873d 18d3 dc3c 1995 f53d 8283 e43c
000000b0: 022e a63d 2dbe a73d 344b c13d f361 433d
000000c0: ee0a 9c3b 6839 ae3d 2d49 b03d b0f5 533d
000000d0: d01d 873c 7f5f f0bc 3251 843d a024 39bd
000000e0: 5177 1bbc f1d3 003e e33c 9fbd 5740 8c3c
000000f0: a69f c53d 5c5d cabd 2686 013e 5402 e13d
00000100: c644 8e3d 3340 e0bd 73e1 0b3d a042 3bbd
00000110: 50cb 20bc 17fe b1bd 6225 6c3a d3b2 3c3e
00000120: 538b 523d d4df 9d3d 2126 643d 3c35 bcbd
00000130: 85cc 103e 8bc7 113e 0490 b53d 03bf 433d
00000140: ae53 a53c 6485 1e3e 41cc 0cbe 2131 aebd
00000150: a957 1abe ed15 91bd 0375 0d3e 95be 073e
00000160: 8bf0 adbd b7f0 55bc 9315 1bbd f4a4 343e
00000170: b9c8 5bbd f21b bcbd 948d b83b 491d 1e3d
00000180: cbe2 863d 2f24 523d 7676 b2bd e5fb 4b3e
00000190: 4895 393c 2f86 f8bc 03c2 2b3e afe1 f13d
000001a0: c406 393e 1a81 ff3b 1f45 7cbc 8a0e a0bd
000001b0: a2f8 873d 305e 843c e538 163e c325 82bc
000001c0: 73a2 c0bc 28ab c63d 7940 d6bd 96da 26be
000001d0: 7e28 b53d 858f 0b3d e3b4 f23d 635f 793c
000001e0: 23ec da3c cec4 0a3d 0a2d 10bd abf7 173e
000001f0: b676 a9bc 3c76 363e 5339 ad3d a07c bd3d
00000200: c3aa 98bd 0f9c fa3d 10a6 98bd fedb ec3c
00000210: ae59 cdbb 5db1 053d 3ec1 bd3c 800f 8b3d
00000220: a408 a1bd 0a6f 34bc 9e3c e1bd 53ce a3bd
00000230: 4b77 84bd d810 4a3d 561d 06bd fa10 ddbd
00000240: 45d9 a3bd 6d26 b53d fcf8 1ebd ab8b ecbc
00000250: f73d d53c 3e59 edbd c142 323c b317 94bb
00000260: 4a05 6cbd ce5f 7e3c b73d 683d fa19 01bd
00000270: a83a 7bbd 5016 b93d ccc0 e8bc b635 933c
00000280: f17b 8dbd c67e b3bd bda8 043e b0e7 853d
00000290: d328 0cbd 52bd 263d d668 aabc 751b d53c
000002a0: e5ff ccbd 7b44 023d 4add 853d bf32 4dbd
000002b0: a1b4 33bd de14 4d3d 763a 313d 4458 c8bc
000002c0: 3fb9 dc3d 1bd7 c1bb cffd 03be ec23 b73d
000002d0: 4a82 843d d916 73bc 79a1 a7bc 7ca4 cdbd
000002e0: 3687 063e d840 fb3d 9f12 f0bd 2a4a b5bd
000002f0: 2982 013d 8150 87bd 693a 8dbd 500a 873c
0.04099178 -0.07759046 0.070478715 0.10327135 0.10909591 0.034890395 0.009614431 0.011689668
-0.032561384 0.17855151 -0.05002643 0.05240986 0.032357704 -0.02952731 0.0023954997 -0.02838418
0.122287 0.08285882 -0.060723204 -0.04131969 0.0675056 0.12241747 0.05762706 -0.009200058
0.09334783 0.05287996 -0.10768595 -0.030712768 -0.021503419 -0.11866689 -0.039383966 0.105777614
0.13541883 0.06421708 0.10351163 0.06318873 -0.054398216 0.058227148 0.1291187 0.08670099
0.06620555 0.026956126 0.11991329 0.027894739 0.08114244 0.0819057 0.09438172 0.047700834
0.004762045 0.08507043 0.08607707 0.051747978 0.016493708 -0.029342411 0.06460799 -0.045200944
-0.0094888965 0.12580849 -0.07775285 0.017120523 0.09649591 -0.09881088 0.1264883 0.10986772
0.06946711 -0.10949745 0.034150552 -0.045717835 -0.0098140985 -0.08691042 0.0009008256 0.18427591
0.0514024 0.077087075 0.055700425 -0.09189841 0.14140518 0.14236276 0.088653594 0.047789585
0.020181503 0.15480572 -0.13749792 -0.08505464 -0.15072502 -0.0708426 0.13814168 0.13256295
-0.084931456 -0.013057879 -0.03786237 0.1764105 -0.05365822 -0.09185018 0.005632112 0.038602147
0.06586226 0.05130404 -0.08714001 0.19920309 0.011327095 -0.030337421 0.16773228 0.11810624
0.18068987 0.0077973725 -0.015397339 -0.07815273 0.0663922 0.016158193 0.14670141 -0.015887147
-0.023514962 0.09700614 -0.10461516 -0.16294321 0.08845614 0.034072418 0.11850908 0.015220496
0.026723927 0.033879094 -0.035199203 0.14840572 -0.020686489 0.1781854 0.08458199 0.09252286
-0.07454445 0.12236797 -0.07453549 0.028913494 -0.006266794 0.03263985 0.023163434 0.06790066
-0.07862976 -0.011012802 -0.1099789 -0.079983376 -0.06468066 0.04933247 -0.03274282 -0.10794254
-0.08000425 0.0884522 -0.03881167 -0.028875193 0.026030524 -0.11589287 0.010880173 -0.0045194267
-0.05762223 0.015525771 0.05669948 -0.031518914 -0.061335236 0.09037459 -0.028412245 0.017969947
-0.069084056 -0.087644145 0.12954994 0.065383315 -0.03421862 0.040707894 -0.020801943 0.02601407
-0.100097455 0.03180359 0.06536348 -0.050097223 -0.043873433 0.05006873 0.043268643 -0.02445615
0.107775204 -0.005915535 -0.12889789 0.089423984 0.06470163 -0.01483699 -0.020462738 -0.100411385
0.13137516 0.12268227 -0.11722302 -0.08852036 0.03161827 -0.06607152 -0.068959065 0.01648441

gru.weight_ih_l0_reverse f4 [192, 6]
00000000: a958 a3bd baef a0bd ea0e a83d 9acc 4c3e
00000010: 8a84 4cbd a8e0 d83d 52c9 c6bb b7fc 7ebd
00000020: 6fe1 77bd 349f df3d e048 b8bc 0022 a83d
00000030: 4365 10bc 42b8 b3bb 0dae ecbd 7f2c bf3d
00000040: 986d 303d de36 ba3d 0182 d1bc fa26 fcbd
00000050: 8641 513a 06f5 01be a615 e5bd 9a8b 98bc
00000060: 72eb e03a 9e56 6fbc 5f52 233d 0c50 69bd
00000070: 244f 5ebd 2b68 0cbe 4ebe 8abd f070 bd3d
00000080: be33 fe3d a553 f53d d562 0c3e c4bb 123e
00000090: a587 f93c 4e63 3e3d 288f 82bc 9965 8f3c
000000a0: 388e 0d3d b33b c9bc 7fe8 7fbd 4e29 b1bd
000000b0: 17c5 2abd 8e0d 0e3e 6c61 05bc 82e7 49bb
000000c0: 8738 8a3d 1db1 1dbe fd6b 33be 856c 903d
000000d0: 3287 acbd bd6f d73b 58f7 2abd aca8 3f3d
000000e0: aa37 773c 025d 023b eaa2 f83c 8e76 12be
000000f0: 0954 253e a531 873d 31c9 d4bc 0d06 2e3e
00000100: c823 493e 3b34 bf3d a676 35bd f216 043d
00000110: f26d d6bd 93b8 e33c e9aa 1fbc aef1 c3bd
00000120: 9468 0d3e 5131 bbbd 0b87 86bd 6dd1 8ebd
00000130: 1edf 453d ea92 cc3d 354b 913c 3276 b0ba
00000140: 4a35 7ebd 012d dbba 13f4 103d bce3 33bd
00000150: 5723 343d 9dcd d63c 9bf9 d9bc b0f4 adbd
00000160: 8f7b d5bc 479f 9cbd 9792 193d 5349 853c
00000170: 2d93 dc3c e78e 5c3d 3a56 df3d ba2b 30bd
00000180: 5d96 c83c 092e bbbc 0cdf 43be 0116 6c3c
00000190: cb7c 493a d6cc 183c 5787 bdbd 732a e13d
000001a0: dcd3 91bc dc8c e2bc 6b76 e5bd 32dc 3bbd
000001b0: a44f eebd 24c7 bdbd 4d65 3dbe 4b9a 82bd
000001c0: 7348 1e3a 5268 1fbe b83f 29bd f778 b6bd
000001d0: c03b 40be 52f8 f8bc cfc6 bbbc 210a 06be
000001e0: b6e3 6f3d a133 a3bd b3f3 8dbd 126b 9abd
000001f0: bab6 b33d 748c dfbd c09a 863c c210 1e3e
00000200: cb0b 023d 1268 323e fd19 043e 189d 113e
00000210: 2b0f 763d dc7b 193e 63df 95bd 6d1a 2e3e
00000220: 893c fa3d 6042 1a3e aacc a2bc b590 cf3d
00000230: e7bf 25ba f71e 793b 4a09 9c3d 2283 20bd
00000240: ab74 d43d 2772 31bb d0a7 b2bd 5590 303e
00000250: 2016 23bc c3af ce3d 60d0 a7bd c632 6ebc
00000260: 6711 3b3d 958b 8bbc e69f dd3c ac50 fcbc
00000270: 1d40 8c3d d1d1 a3bd 8c24 3ebe e5f1 8cba
00000280: 4864 213c 63fc 8e3d 975f 65bb 5a5c e83c
00000290: 6ff4 4f3c 15b6 1a3d c05d 83bd c305 c7bd
000002a0: 21d7 a83b 71ee 643d f7ec 213d e45a ff3d
000002b0: cfa9 1a3e 4d83 ccbd 678b f53d e6c7 113d
000002c0: 5a3e ce3c efe3 acbc 5fcb afbc a249 d53d
000002d0: f6a3 cb3c 0c61 ae3c fc10 8dbd 55d2 483d
000002e0: 6568 cc3d 1125 38bc 1522 043e b406 43bc
000002f0: 2623 e83d a070 16bd f2c0 173d c071 6fbd
00000300: 4d01 3ebd 38f5 dcbd 0583 f5bc 383a 423d
00000310: ceb4 80bd 3aec 53bd 4d0d 953b 0a01 8e3d
00000320: 2d5c 293e 82a2 39bb 7c37 13bd 9afd 6dbd
00000330: 60e2 71bc d465 abbd e99c 1bbe 8c4f 653c
00000340: fd0f dcbc 4056 3abc d37e 0b3e 1dd6 e0bc
00000350: fdeb 1f3d 6462 553e fdae 903c 6ea1 4cbc
00000360: 558b a73d aaaf a7bd a8f3 a93d 3efc 2f3e
00000370: fc36 afbd 0c1e bdbc 41eb 08be b94c 4dbd
00000380: d26e c3bc 051b 343e f79c bebd 38fe bdbd
00000390: ad1e 923d 4214 31bd 9dae 21be 9a2a 93bd
000003a0: 5197 e3bd 83da e9bd 9173 8b3c 5243 9e3d
000003b0: d7d4 ccbd 2f07 b13d d53a 013d f5f2 48bd
000003c0: a0d9 893c c00b 0b3e 1aa9 1f3c 548d ae3d
000003d0: e114 743d 95ff 203d 87c2 f7bd 71b5 e8bd
000003e0: 868a a6bc e0e6 ce3d 9a49 923d a910 27bc
000003f0: bdb9 bfbb 2cef a33d 1a1a e4bd d83f b13c
-0.07975895 -0.07858224 0.0820597 0.19999924 -0.049931087 0.10589725 -0.0060664797 -0.062252726
-0.060517725 0.109190375 -0.022495687 0.0820961 -0.008813205 -0.0054846117 -0.11556635 0.09334659
0.043073267 0.09092496 -0.025574686 -0.12312122 0.0007982481 -0.12691125 -0.1118577 -0.018621255
0.0017160012 -0.0146080535 0.039873477 -0.056961104 -0.054274693 -0.13711612 -0.06774579 0.09250057
0.12412213 0.119788446 0.13709576 0.1432944 0.030460188 0.046481423 -0.015937403 0.0175045
0.03455946 -0.0245646 -0.062477585 -0.08650456 -0.041691866 0.13872358 -0.008140903 -0.0030808155
0.06749063 -0.15399595 -0.17521663 0.070519485 -0.08424224 0.0065745995 -0.04173979 0.046791717
0.015088955 0.0019891863 0.030351121 -0.14303038 0.16145338 0.06601266 -0.025974842 0.16994496
0.19642556 0.09336134 -0.044302605 0.032248445 -0.10470189 0.027797973 -0.009745338 -0.09567581
0.13809425 -0.09140266 -0.06568726 -0.069735385 0.048308484 0.09988959 0.017736057 -0.0013462959
-0.06206254 -0.0016721786 0.035389017 -0.043918356 0.043979015 0.02622109 -0.026608279 -0.08493936
-0.026059894 -0.07647567 0.037493315 0.016270315 0.026925648 0.05384722 0.10905118 -0.04301045
0.024485761 -0.0228491 -0.19128054 0.014409543 0.0007686137 0.00932618 -0.0925433 0.10994425
-0.017801218 -0.027655058 -0.11204227 -0.04586429 -0.11636284 -0.09266499 -0.18495674 -0.06377085
0.00060380175 -0.15567139 -0.041320533 -0.08909791 -0.18772793 -0.030391846 -0.022921948 -0.13089801
0.05856677 -0.07968832 -0.069312476 -0.07539953 0.08775087 -0.10915461 0.016431212 0.1543608
0.031749528 0.17422512 0.12900539 0.14220083 0.06007306 0.14988655 -0.07317998 0.17002268
0.122185774 0.15064383 -0.019872982 0.101350226 -0.0006322846 0.0038012841 0.07618959 -0.039187558
0.10373815 -0.0027076097 -0.08723414 0.17242558 -0.0099540055 0.10092118 -0.08194041 -0.0145384725
0.045670893 -0.017034331 0.027053785 -0.030800186 0.06848166 -0.07999004 -0.18568629 -0.0010753243
0.009850569 0.06981733 -0.0034999603 0.02836435 0.012692555 0.037771303 -0.06414366 -0.09717896
0.0051525985 0.055891458 0.039532628 0.12468508 0.1510384 -0.09985981 0.119894795 0.03559103
0.025176216 -0.021104781 -0.02145928 0.10414435 0.024858456 0.02128651 -0.06888005 0.049028713
0.09980849 -0.011239306 0.12903626 -0.011903454 0.11334829 -0.0367285 0.03704924 -0.05845809
-0.04638796 -0.10788959 -0.029969702 0.047418803 -0.06284486 -0.051738955 0.0045487047 0.06933792
0.16539069 -0.0028325622 -0.035941586 -0.05810318 -0.014763445 -0.083690315 -0.15196575 0.013996016
-0.026863093 -0.011373103 0.13622598 -0.027445847 0.039043415 0.20838314 0.017661566 -0.01248966
0.08180872 -0.08187802 0.08298427 0.17186067 -0.08555409 -0.023085617 -0.13370992 -0.050121997
-0.023856554 0.17588432 -0.093072824 -0.09277004 0.07134757 -0.04323221 -0.15789266 -0.0718586
-0.11112846 -0.11418631 0.01702288 0.07727684 -0.100015335 0.08643948 0.031550247 -0.049059827
0.016827404 0.13578701 0.009744907 0.0852305 0.059590224 0.039306242 -0.1209765 -0.11362732
-0.020329725 0.1010263 0.07142945 -0.010196843 -0.005850999 0.08004603 -0.11137791 0.021636888

gru.weight_hh_l0_reverse f4 [192, 64]
00000000: aede bebd 2013 b6ba b92e 333d d9bc 0cbe
00000010: 3088 f03c e96f 033d edaa b4bb e089 3b3d
00000020: d01a 23bd a24e 8b3c f548 91bd 707b f4bc
00000030: ced0 133d cf10 7f3b eab2 1f3e 927e c63d
00000040: ca50 10be 89ef cd3c fb85 00bd 0bb1 d53c
00000050: 2b4e 91bd ae98 1b3e fb06 fcbc 4c6a 40bc
00000060: 1696 583d 7f43 933c 54af a9bd 5165 5d3d
00000070: b424 923d fbc5 303e ae62 38bc 3353 20bd
00000080: 674f 983d b762 a6bd 342f 4c3d 64f7 153e
00000090: dd73 1e3d 54aa a6bc fade c13d 5df5 063e
000000a0: 22b3 6bbd cd7e abbd ba63 e0bd a8bf b2bd
000000b0: 9597 edbc 307d 45bc 9eb5 1abd 3e9c 113c
000000c0: da9d 933d 19f0 47bc b48b d4bd aefa 853d
000000d0: 7f2b 4abd 063d 823c f56a f6bd a4a6 073e
000000e0: 5175 af3d 9e01 a8bc 8256 19be 1ef7 8b3d
000000f0: c8b5 8a3d 9847 1abd 1687 43bd e9fe 30be
00000100: 3c02 cf3c d822 5ebd a91f 8cbd f830 623c
00000110: 4bb7 ce3d 2a5f fa3d cd4d 7a3d f61a 26bd
00000120: 106d 9cbd 8208 55bc 225b 82bd 2273 5abd
00000130: 9111 a53c db88 193d 8bfd 603d cb01 523c
00000140: 2eb8 a23d 55b0 623d f594 ff3d 8233 bcbc
00000150: 8f20 48bd c25a c73d 87a1 e1bd 2c0b 263c
00000160: 32ca 06be 7afd ad3c 8ad0 40bd 8964 a23c
00000170: 65e4 0abe cbd4 63bc cc00 83bd 834e 1e3e
00000180: 8d5b 2b3d c870 27bd 6508 fa3d f4f3 d73c
00000190: 5c78 c9bd be45 8c3d 0b7c 783d e9d4 c4bd
000001a0: 310d b63b ecee 453c 59d2 c53d 526c 04be
000001b0: c7e2 d83c 9f58 49bd bbf6 413d 83ab beba
000001c0: b5bb 9a3d 19f5 083e ce90 35be f6ab 3d3d
000001d0: 9451 0e3e b8f1 a33d 367a 8fbd d2fa 133e
000001e0: 3331 c1bc 6621 d83c 74c1 2ebd 4642 01be
000001f0: d320 b53d 59d5 1cbd b000 a2bd d7d2 a239
00000200: 5135 07bd a42d 503d 1fdf 093e 80fc a33c
00000210: a2c9 29bd 9e49 29bd b827 253d c142 2c3d
00000220: a934 05be 8347 853d 82e4 c13c 3bce e63c
00000230: 4ea9 94bc e545 27be f218 a03d 9d05 95bd
00000240: 8a72 d03b 9887 10bd 5bb6 95bc 0d2d 78bd
00000250: 8fea 1d3d 2fab 7c3d b574 ff3c 3d06 b6bd
00000260: 25cb 413d 417a 06bc 8c44 933d df4b 093e
00000270: 6b8c 8ebd 3367 0cbd 1fe9 03be 20f1 cabd
00000280: e4a3 89bd ba2b c23d 2038 893d 2f05 1dbe
00000290: 106c eebd 29cf 0bbe 2425 ebbd 850d e5bd
000002a0: 2408 183e 3e9f 32be a7d4 643d 551d 523d
000002b0: 9442 963d e6bd 6ebd 1644 93bd 1d3b 3abd
000002c0: b015 843d 38c7 06bc e611 763d 2be8 adbd
000002d0: 8b7a 143d d816 64bd 9c0b 9e3d 4190 c9bc
000002e0: 5c9d 9fbc d58d 263d 9c8a be3d 1fc2 c03d
000002f0: 01ef a0bd 8f0c aabc d797 c8bd 29cb 223e
00000300: 7182 f93d 0cc1 1cbd a331 91bd c8e1 10bd
00000310: f00c 283d 50ae 49bd a99e c0bc acd7 6c3d
00000320: ede0 fbbd 50b4 cfbd 4c2f 313d 0e4d 393d
00000330: bb07 543d 9ce9 b83d db6f 213d 1918 c93d
00000340: 4502 883c 9198 69bd 4d94 c73c 4875 b7bd
00000350: 63ee c6bd 6f48 acbd f7fd 1dbe 8446 403b
00000360: 7c25 b33d a434 c33d 2db1 e03d fb11 8bbd
00000370: 3237 b23d 5614 d5bd 2b9b 913d 4786 48bd
00000380: 0111 b3bd fd1c 7a3d 7931 df3d f201 f03d
00000390: 1027 5b3d 8d6f 06be c2b7 ff3c b148 883d
000003a0: 201c a53d c7dc 533d 315d 393d a8cc 033e
000003b0: aa4b 82bd b5ba 44bd 03e5 5fbd 7f70 c6bd
000003c0: 37c6 50bd 4052 db3d 9197 e6bd 81c3 f03d
000003d0: 0ee1 cd3d 2a53 133d d2c0 a43d c04c 873d
000003e0: a21b 043d 56eb b93d 2523 933c 14a8 8abd
000003f0: 36ff 9b3d 6e3b 033e 0fc3 51bd fadd 96bd
-0.093198165 -0.0013891198 0.04374573 -0.13743915 0.029361814 0.032089148 -0.00551354 0.045785785
-0.039820492 0.017005268 -0.070939936 -0.029844016 0.036087804 0.003891993 0.15595594 0.0969211
-0.14093319 0.025138633 -0.031377774 0.026085397 -0.070949875 0.15194961 -0.030765047 -0.011744093
0.052877508 0.01797652 -0.08285394 0.0540517 0.07135907 0.17263024 -0.011253996 -0.039141845
0.0743702 -0.08124297 0.049849704 0.14645153 0.038684715 -0.02034489 0.094663575 0.13179536
-0.05754388 -0.08373795 -0.10956521 -0.08727962 -0.029002944 -0.012053773 -0.03777086 0.008887349
0.07207842 -0.01220324 -0.10378209 0.06541954 -0.049357887 0.015898239 -0.12032119 0.13247162
0.08567298 -0.020508584 -0.14974406 0.06834243 0.06772953 -0.037665933 -0.04773625 -0.1728474
0.02526962 -0.05423245 -0.06841976 0.01380562 0.10093554 0.12225182 0.061109353 -0.040553056
-0.076379895 -0.013002517 -0.063650385 -0.053332455 0.020149978 0.03748403 0.054929297 0.01281781
0.07945286 0.055343945 0.12479583 -0.02297378 -0.048859175 0.097341076 -0.11017137 0.0101344995
-0.13163069 0.021239031 -0.04707388 0.01982333 -0.13563688 -0.013905714 -0.06396636 0.15459637
0.041835357 -0.04087904 0.122086324 0.026361443 -0.0983741 0.0684924 0.06066517 -0.09610922
0.0055557718 0.012080889 0.09659261 -0.12931946 0.026475323 -0.04915678 0.04735444 -0.0014546964
0.075553335 0.13374747 -0.1773102 0.046306573 0.13898307 0.080050886 -0.07005732 0.14451149
-0.02358303 0.026383113 -0.04266496 -0.12622938 0.08844151 -0.0382894 -0.079102874 0.00031056136
-0.03300983 0.050824776 0.1346402 0.020017862 -0.041452058 -0.041329972 0.040321082 0.04205585
-0.1300837 0.065077804 0.023668531 0.02817451 -0.018147137 -0.16335256 0.07817258 -0.07276461
0.0063613104 -0.035285562 -0.01827543 -0.06058984 0.03855377 0.06168669 0.03118358 -0.088879086
0.047312874 -0.008207859 0.07190809 0.13407849 -0.06960376 -0.034278106 -0.12881897 -0.09909272
-0.06720713 0.094809964 0.06700158 -0.15334009 -0.11641705 -0.13653244 -0.114816934 -0.11184219
0.14846855 -0.17443559 0.055866864 0.051297504 0.073369175 -0.05828657 -0.07190721 -0.04546653
0.06449449 -0.008226208 0.060075663 -0.08491548 0.03624968 -0.055685848 0.07717058 -0.024604918
-0.019484214 0.040662605 0.093037814 0.09412026 -0.078580864 -0.020757942 -0.09794586 0.15897812
0.12183083 -0.03827004 -0.070895456 -0.03537157 0.041027963 -0.049238503 -0.023513155 0.05782287
-0.122987606 -0.10141814 0.043257996 0.0452395 0.051765185 0.090289325 0.039413314 0.098190494
0.016602645 -0.057030264 0.024362708 -0.089579165 -0.097134374 -0.08412253 -0.15428911 0.0029338906
0.08747384 0.09531525 0.109712936 -0.06790539 0.08701934 -0.104042694 0.07109674 -0.04895618
-0.087434776 0.0610628 0.10898108 0.11719121 0.05350405 -0.13128491 0.031215552 0.0665449
0.08062005 0.05172422 0.04525489 0.12871039 -0.06362088 -0.04802962 -0.054661762 -0.09689426
-0.050970282 0.10709047 -0.11259378 0.117560394 0.100526914 0.035967983 0.0804459 0.06606436
0.032252915 0.0907809 0.017961094 -0.067703396 0.07617037 0.1281564 -0.051211413 -0.073665574

gru.bias_ih_l0_reverse f4 [192]
00000000: 06f6 72bb e777 273c 672a 5ebd f314 97bd
00000010: 0d8b dfbc 8ab1 003d 35f8 073e d0d9 c23d
00000020: bea7 e63d 03a6 0b3d bff9 2c3e b5b2 9dbd
00000030: dd2b 9a3d 3600 313e 7428 5c3d beb1 8c3d
00000040: ecba ee3d 240e 2e3e b51e 953d e3eb cf3c
00000050: 1cbd 693c f6ab 1cbd a5ba f23c 5009 aebd
00000060: 5551 083c a4eb cabc a2f5 7ebd 1be0 ea3d
00000070: 3b01 efbd e250 023e ba52 0a3c 8e5d 333c
00000080: c1a1 913c a203 f63d bd21 f93d ee2b 2c3e
00000090: a41e f73d 064d 713d bfe3 273e 8681 18bd
000000a0: 3346 ab3c bb4e 1d3e 6f62 c23d 940a 37bd
000000b0: 698e 42bc 4f28 85bc ce34 013e ca43 1c3e
000000c0: 627e 293d 6d12 95bd 9bea 41bc 0cf2 42bd
000000d0: 76b5 123d a79b 193e 6fd6 673d 0329 01bd
000000e0: 8163 003d eeed a53c f72f b9bd a398 f53d
000000f0: ff10 fd3d 3665 1bbd abd7 353d 447d f63d
00000100: 908b f03c 9922 1b3d 8fd9 9b3d a122 03be
00000110: bc9b 2d3e 63da 743d 2a4b 2dbd c819 173d
00000120: 5c7c 2a3d cc41 7fbd d672 3a3e 44d3 b03d
00000130: 7742 d63b a897 2b3e 5cbb fe3d 4c17 273d
00000140: 92c6 693e c74b d93d 53b3 d03c 1d7a 2fbd
00000150: 2708 6b3d 349a 673d 8532 cc3d 6266 523d
00000160: d87b 1b3e 4795 e73d 85ce 8fbc ee73 093e
00000170: 9e34 153c 37fc 9f3d 99d3 a63d 37cb 6e3e
00000180: c7c5 8cbd 5f7b 423d c7eb 6c3e 97b6 253e
00000190: 793a e73d d9b3 003e cd33 a83d 8f18 1f3e
000001a0: edaf 373e 11ad 203e cc69 a53c 7f73 9f3d
000001b0: 0938 7f3c c7a2 dfbd 96ab c73d bf9f 33bd
000001c0: 2c5a 583e ef05 06bd ccb7 90bd e681 25bd
000001d0: b028 043e c9ca 623b 9c37 143e 3385 113e
000001e0: cf4a 393e f353 4b3e 5b32 ec3c 5e90 edbd
000001f0: 310c f8bb e15a 4e3d 513f 4e3e 43b4 423e
00000200: 3b9c c93d 8344 073e 1645 833d da95 713d
00000210: da15 db3b a4fd 3c3d 85cf fa3d 1095 7b3d
00000220: b962 aabd 4a86 95bd eaac 6c3c d6af 11be
00000230: f5e3 723d e6e8 85bd 730c ea3d 84cf be3d
00000240: 0e4f 76bd 9d99 6cbc 82c2 d7bd 55d7 b5bd
00000250: 57c8 e4bd e920 bdbd 4746 98bd 66f1 debd
00000260: ece5 f2bd c6a4 02be 2a32 973d 9e86 81bd
00000270: 2856 03be c94b 043e 8bc3 07be 0219 143d
00000280: 1661 d73c d9df cf3d f770 df3d 4e81 75bb
00000290: 47ed 08be 4860 283c b8ae f83d f356 053d
000002a0: 71d4 083e e859 453d 356d 543d cbf0 903b
000002b0: 9e0a 1dbd 8284 9bbd b0a8 8e3d 0eef d1bd
000002c0: b294 0c3e 534f a03d b5f3 fbbd d02f ae3d
000002d0: 4689 5b3d 819d 29bd e036 a73d 7cc7 14bd
000002e0: d183 ce3d 6add 05bd a021 30bd 5a6a c1bd
000002f0: c1d7 cbbd 8289 c43d 86cc 003d 3c0d 2d3c
-0.003707291 0.010221458 -0.054239657 -0.073770426 -0.027287984 0.031419314 0.13278277 0.09514201
0.11262463 0.034093868 0.16892146 -0.07700101 0.075278975 0.17285237 0.053749517 0.06869839
0.11656746 0.16997582 0.072812475 0.025381034 0.014266279 -0.038249932 0.029630015 -0.0849787
0.008320172 -0.024770565 -0.062245972 0.11468526 -0.116701566 0.12726167 0.008442575 0.010947598
0.017777326 0.12012412 0.12164638 0.16813633 0.12066391 0.058911346 0.16395472 -0.0372329
0.020907497 0.15362065 0.09491431 -0.044687822 -0.011874774 -0.016254572 0.126178 0.15260234
0.041380294 -0.07278905 -0.011835719 -0.047594115 0.035817586 0.15000783 0.056600984 -0.031533252
0.031344894 0.020255055 -0.09042352 0.11992004 0.123567574 -0.03793832 0.04439513 0.12035611
0.029363424 0.03787479 0.076098554 -0.12806179 0.16953939 0.059778582 -0.04230801 0.03688982
0.041622505 -0.06231861 0.18207869 0.08634046 0.006538685 0.16757071 0.1243808 0.040793702
0.22829655 0.106101565 0.025476133 -0.042841066 0.05738082 0.056543544 0.09970573 0.05136717
0.15183961 0.11307769 -0.01755453 0.1342313 0.009106783 0.07811778 0.08145828 0.23319708
-0.068736605 0.047480937 0.23136817 0.16182934 0.1129045 0.12568606 0.08213005 0.15536712
0.17938204 0.1569102 0.02019205 0.07785701 0.015577325 -0.10919719 0.09749524 -0.043853518
0.21128148 -0.032720502 -0.070663065 -0.040407084 0.12906146 0.0034605733 0.14474338 0.14210968
0.18094943 0.19856243 0.028832605 -0.115998015 -0.0075698127 0.050379638 0.20141341 0.19014077
0.09844252 0.13209729 0.064096615 0.0589808 0.0066859545 0.046140328 0.122466125 0.061421454
-0.08319611 -0.07301004 0.014445523 -0.14227232 0.059299428 -0.065385625 0.11428156 0.09316924
-0.060133986 -0.014440921 -0.10535146 -0.08878962 -0.11171024 -0.09234793 -0.07435279 -0.10885887
-0.1186026 -0.12758169 0.07382615 -0.06324504 -0.12825835 0.12919535 -0.13258187 0.03615666
0.026291411 0.101501174 0.10910218 -0.0037461105 -0.13371764 0.0102768615 0.121427 0.032553624
0.1336229 0.048181444 0.05186196 0.004423236 -0.038340203 -0.07593633 0.06965768 -0.10250674
0.13728598 0.0782763 -0.12302343 0.08505213 0.05359771 -0.041409973 0.081647635 -0.036323056
0.10083736 -0.03268186 -0.043000817 -0.09444113 -0.09953261 0.0959654 0.03144505 0.010562237

gru.bias_hh_l0_reverse f4 [192]
00000000: fce8 153b 98c7 023e 58b6 063e 8db3 0f3e
00000010: 7442 783d a20c e8bc c29c 7d3d f6ec 113d
00000020: f3fb 38bd ff67 bd3c 96ee 2c3e 9971 8a3b
00000030: 8dbd 543d 23be 8ebc 6c81 06bd fcf2 b93d
00000040: 86bf edbb 52db c33c 8475 073e f536 413d
00000050: ecc7 43bd a2a2 183e a06c ebbc 6b45 b7bd
00000060: 97be b83d aea8 a6ba 9301 d73d 2a09 9e3c
00000070: d122 e53d 192e 933d 3be0 1f3e 434d 713d
00000080: 5914 8c3d 4ca0 80bd 763a 9a3d fe87 163e
00000090: 1d6b 823d 857e 60bd b2be dbbb 7db3 b53d
000000a0: c89e b53d 60ab 6abd 87f0 40bc 80d7 38bd
000000b0: 68ca a63d 3db5 33bd 8944 263e 82dc f03d
000000c0: 7671 2a3e ede6 c93d 5f88 9e3d 791b 053e
000000d0: 58fa 193d 4fee c43b 8856 c73d e127 1f3e
000000e0: 928c febc e671 53bd f63d 103c 22ac 9c3d
000000f0: afce 423b 950b 41bb c919 d73d ead1 db3b
00000100: 0212 5a3e ba35 313d e85b 193e 73a1 b0bd
00000110: 6979 683e cbd6 573e 6544 80bd 2b94 fb3d
00000120: 1b5a 83bc 5d97 1b3c aec6 cd3d f30b 4d3e
00000130: 9856 e33d d32d 0e3e 9540 0a3c 6630 aebc
00000140: 81a9 c43d b3e7 1abb 1387 eb3d d177 853d
00000150: aa2c ce3d a27c c93d 09f0 833c 02ca c93d
00000160: 9c50 193e 39f0 bd3d 004c e13d df5b 8c3d
00000170: 4773 0f3e 4655 273e dc1b 2cbd 67b4 ad3d
00000180: d003 063d d8d2 393e 9828 cc3c 7c56 553d
00000190: 8d71 3c3e 34f4 ec3d 3f0f 183d 57a3 343e
000001a0: 3ac8 0c3e 33ce 1f3e c97f cabc 49d8 20bd
000001b0: 631d 233e c4eb a63c aaa9 313e f52a dabd
000001c0: 90d5 3e3d b24f 3f3d 9b21 26be 3b47 493e
000001d0: 791c 00bc 2bd5 04be 350d 923d 5d48 3e3e
000001e0: 44df 94bb 2f33 123d e419 5d3e 1f71 a83d
000001f0: ae90 453e c0c2 e7bc 2ea1 fb3c 9ecd 7e3d
00000200: c5b1 45bc 9299 543d 5d4d 833d 1cfb afbd
00000210: 6f42 883d 90cf ef3d 5c46 a33d d9a4 65bb
00000220: 6316 f13d 2a96 ed3c 32c0 9fbb 6175 c13d
00000230: 0e56 b83d a0f5 70bd 7182 e13d 705a 86bc
00000240: 18cf f03d 4244 853d 787b 00bd 73ec 6abd
00000250: f8f8 473c e590 d2bc 7af4 eb3c e3e4 453d
00000260: eb01 023e 8c18 ccbc 9e3f c0bc 085c aa3d
00000270: 3ad5 56bc 62e1 903d acf7 5d3d 291f ff3b
00000280: 2184 c7bd 33b5 aabc c113 203c ba65 54bd
00000290: e326 babd 585e ccbd eb15 56bd dd6e 623b
000002a0: 46eb 9039 3765 af3c 8671 4abd b663 35bd
000002b0: 0f1b 803d f7e5 15bd 2ab8 a73d 7876 26bd
000002c0: e897 bb3d 073d a1bd a2fe 01be c9a3 8ebb
000002d0: 0c72 c1bc 34ac 3a3c fc6a dbbc 4094 883d
000002e0: 11d8 24bd 0dda 7ebd 3ef1 7f3d 9cd0 8dbd
000002f0: ce75 c33d 1625 c63d ad41 79bd 2542 d73d
0.0022874465 0.12771451 0.13155496 0.14033337 0.06061025 -0.028326336 0.061917074 0.035626374
-0.045162152 0.023120878 0.16887888 0.0042249677 0.051938582 -0.017424649 -0.03283827 0.09079549
-0.0072554974 0.023908291 0.13228422 0.04717155 -0.047798082 0.1490579 -0.02873832 -0.08948787
0.09020727 -0.0012715065 0.10498347 0.01929148 0.11188281 0.07186527 0.15612881 0.058911573
0.068398185 -0.06280574 0.07530682 0.14700314 0.063680865 -0.05480816 -0.0067060823 0.08872125
0.08868176 -0.057292342 -0.011776096 -0.04512739 0.08144075 -0.043874014 0.16237082 0.117608085
0.16644844 0.09858499 0.077408545 0.12998761 0.037592262 0.006009854 0.097333014 0.15542556
-0.031072889 -0.051622294 0.008803835 0.07650019 0.0029725244 -0.0029456366 0.10502965 0.0067083733
0.21295932 0.04326413 0.14976466 -0.08624544 0.22702564 0.21078031 -0.06263045 0.1228412
-0.016034177 0.009496537 0.10047661 0.2002409 0.11100501 0.13884668 0.008438249 -0.021263313
0.09602643 -0.0023636639 0.11500373 0.06516994 0.10067113 0.09838225 0.016105669 0.09852983
0.14972156 0.092743345 0.11000824 0.068534605 0.14008819 0.16341123 -0.042018756 0.08481675
0.03271848 0.18146837 0.0249217 0.05208443 0.18402691 0.115700155 0.037123915 0.17640434
0.13748255 0.15606003 -0.024719136 -0.039268766 0.15929179 0.020376094 0.17349878 -0.10652725
0.046590388 0.046706863 -0.16223757 0.19656079 -0.007819288 -0.12971942 0.07131425 0.18582292
-0.004543217 0.035693344 0.21591908 0.08224701 0.19293472 -0.028291106 0.030716505 0.06220781
-0.012066309 0.05190427 0.0641124 -0.08592817 0.06653296 0.11709511 0.07972404 -0.0035040884
0.11771848 0.029002268 -0.0048752064 0.094462164 0.09000789 -0.058827996 0.11011208 -0.016400546
0.1175825 0.0650716 -0.03136775 -0.0573544 0.012205355 -0.025703857 0.028803099 0.048313987
0.12696044 -0.024914049 -0.023467835 0.08318335 -0.013112361 0.07074238 0.054191276 0.007785697
-0.097419985 -0.020838356 0.009770335 -0.051854827 -0.09089448 -0.09978932 -0.052266996 0.0034550943
0.00027641113 0.021410568 -0.04942467 -0.044284545 0.06255161 -0.036596265 0.081894234 -0.040640324
0.09159833 -0.07872968 -0.12694791 -0.004353021 -0.023613952 0.0113935955 -0.026784413 0.066689014
-0.04024512 -0.06221967 0.062485926 -0.06924555 0.09543954 0.09675042 -0.06085365 0.10510663

fc.weight f4 [6, 128]
00000000: bfa1 78bd 15a0 bfbc e105 02bd 825a b2bd
00000010: 7374 673d 84a4 80bc 377e 00be 9a07 cdbd
00000020: ea74 0b3d 4215 6a3d fdbd 703d b8a5 5d3d
00000030: 0492 8c3d d79c ca3d df4b bfbd ad5b 923b
00000040: b627 9ebd fba8 fbbd 0753 093d 7fbe c2bd
00000050: d4d0 88bd 09fc 853d 22d5 97bc 6c48 923d
00000060: 7a84 6d3d fd98 d53d 69ba 4dbd 0d96 f7bd
00000070: 71d4 9dbd f1ad 853d 7c74 853b aede 80bd
00000080: de99 aa3d c3c2 5c3d 792f 8cbd 6865 e7bc
00000090: f7d8 0b3d ac4e abbd 4af5 f33d 57b2 aebd
000000a0: 8f54 0abe bf8b b2bc 62cb b33c c588 813d
000000b0: 4a24 2bbd 44ae e53c 0cec 3d3d d69e 5f3d
000000c0: 52a0 873d a1d9 ad3d 6519 243d 11ac ef3c
000000d0: 1868 94bd 664e 8a3d 1d1f 073e df8d b23c
000000e0: a1ca 2bbd 2ae5 993d 3e2f 93bc 8ef0 9bbd
000000f0: e08d 9fbb 87e8 223d 2c8c c43d 0de8 653d
00000100: 6c67 da3a 8b34 8e3d 9f59 0fbc 9539 acbd
00000110: 52f4 b93d a9df 59bd 9463 a1bc 34c2 bcbd
00000120: f3b3 c3bc e0be 523b b91e c93c b17b c03d
00000130: 4595 ad3c 8106 93bd 31f1 273d 70cf 8d3c
00000140: cc21 d93d 31d6 663c bd7c db3d ddda 98bd
00000150: d59e 973d 3093 ebbc 4ad2 95bc f0d2 a43d
00000160: 216a b2bd 3b76 d33d 76f7 303d 6aec 503c
00000170: 4d5d 5d3d 4b9a aabd 29ef 5abc 5439 41bd
00000180: baf0 8f3d c1c3 433d db53 06bd 9bb3 a53c
00000190: ac47 54bd bdac cb3b 795b 78bd beac acbd
000001a0: 8a4a bbbd 97e7 b6bd 24d1 94bb a3ef abbd
000001b0: 5c00 df3d fc78 89bc bcef 6bbd bfa3 13bd
000001c0: 965c cebd 75ee e8bb 991a b43d 5fb6 7e3d
000001d0: a4eb 94bd 92b6 fdbc 4985 9f3d 15e2 4ebd
000001e0: b635 28bd dd19 4a3d 264c 5a3d 4070 103b
000001f0: e7a7 9d3d 39aa 43bd c9ac babd eac5 763d
00000200: 46c8 f8bb 6e2b a2bd 28b4 9ebd e955 8e3d
00000210: 616f cebc b3c1 953d 36b0 9e3d 1807 b9bc
00000220: 7ed2 6d3c a526 c43d 8c65 863d 1cc4 6abc
00000230: 0905 b6bd e073 05bd 8a7b ae3d 8681 0c3a
00000240: ce0e 5fbd cdbb 1fbc ef89 e9bc e4c9 c53d
00000250: 4230 70bd 8449 983c ec7f 94bd e9cd b7bc
00000260: 14a1 b73d a51b e33c 25d2 733d 719b 91bd
00000270: da47 80bd 981e 5e3c f0c3 07be f087 4ebd
00000280: d031 8ebd e25f 1c3c 87c1 83bd 6699 983d
00000290: a2c2 a4bc 446f 2c3d 5a10 2d3d 3a97 a73c
000002a0: 0533 d83d f8e2 79bd a9f6 6bbc faef 50bd
000002b0: 6407 b83d 0fe1 36bd 1314 a03d 3fe2 1abd
000002c0: da7d f9bc be87 23bd ce69 d8bc 9e44 943c
000002d0: c0af 083e de1b 71bd 4c21 a2bd a3d8 8c3d
000002e0: 3fc5 4cbd bba0 debc 0af2 09bd 2d91 d33c
000002f0: d0ed 94bd 2378 bcbd d237 023e d296 693d
00000300: a30b ebbd 5f6d cabc e6a6 943d d332 1f3d
00000310: 822b 253d 7663 6e3d 36dc 9cbb 643b 713c
00000320: 6e06 fd3c 73ab a03c 3157 27bd ae7f 833c
00000330: aa3d 94bc 77a7 e93d cf6f 0f3d e95a a2bd
00000340: 8165 c9bd 3f38 fcbd b4bf 363d 882c 0d3d
00000350: 0770 e03d 3ccc a8bc 1dc2 303d 0cea 343d
00000360: 94e3 7d3b 3eb3 3c3c 9291 45bb 956d dfbd
00000370: 33d2 39bd fec7 ccbd 1bd2 983d 2b4f d2bc
00000380: 4447 01bd 10cf 0a3d a71b 14be a6c0 bb3d
00000390: 810e 893d 6ed3 d23d 3369 9c3d 0bb2 7f3d
000003a0: 3e0b cbbd 9cff 353c 6805 2ebd 8e19 98bd
000003b0: 7f21 e6bc 586a d73d 4c71 5fbd 91de ad3c
000003c0: 194c a0bd bbb3 aabd 1d98 7a3c c6d5 9bbc
000003d0: 5725 2f3c 399e e03c 8809 bfbd 9206 243d
000003e0: 8423 86bd 6e61 6c3d c091 ff3c 1bc3 e83c
000003f0: 4c59 873d c1a3 07be 44ac a9bc 955d e3bc
-0.060701128 -0.023391763 -0.031743888 -0.08708669 0.05650754 -0.015703447 -0.12548147 -0.100112155
0.034047045 0.05714918 0.058774937 0.05411312 0.06863788 0.09893196 -0.09340643 0.004466495
-0.07722418 -0.1228809 0.033526447 -0.095089905 -0.06680456 0.065422125 -0.018534247 0.071427196
0.057987668 0.10429571 -0.050226603 -0.12089167 -0.077065356 0.06527317 0.004072724 -0.06292473
0.08330129 0.053896677 -0.06844992 -0.028246596 0.03414246 -0.08364615 0.119120196 -0.085301094
-0.13508819 -0.021795152 0.021947566 0.06324915 -0.041782655 0.028037198 0.04636769 0.054594837
0.066223755 0.08488775 0.04006328 0.029256852 -0.07246417 0.067532346 0.13195463 0.021796165
-0.04194129 0.07514413 -0.017966863 -0.076142415 -0.0048692077 0.039772537 0.09597048 0.056129504
0.0016662902 0.069436155 -0.008749395 -0.084094204 0.090798035 -0.053191815 -0.019700803 -0.09216729
-0.023889517 0.0032157227 0.024550783 0.09398592 0.021189341 -0.07178975 0.041001502 0.017310828
0.10602149 0.014089153 0.10717151 -0.0746362 0.07403342 -0.028756708 -0.01828875 0.08048046
-0.08711649 0.10325285 0.043204747 0.012751678 0.054044057 -0.0833021 -0.013362684 -0.047173813
0.07028337 0.047794107 -0.032794815 0.020227244 -0.051826164 0.0062156604 -0.06063411 -0.084313855
-0.091450766 -0.08930891 -0.004541533 -0.083953165 0.108887404 -0.016781323 -0.057601675 -0.036044832
-0.10076253 -0.0071085044 0.087941356 0.06218564 -0.072715074 -0.030970845 0.07789094 -0.050508577
-0.041066848 0.04934107 0.053295277 0.0022039562 0.076980405 -0.04776976 -0.091149874 0.06024734
-0.007592234 -0.0791844 -0.07749206 0.0694998 -0.025199594 0.07312336 0.07748453 -0.02258639
0.014515517 0.09577683 0.06562337 -0.014328983 -0.08887679 -0.03258121 0.08519657 0.00053598767
-0.05445748 -0.009749365 -0.028508155 0.09657648 -0.058639772 0.018589742 -0.07250962 -0.022437053
0.0896627 0.027723143 0.05952658 -0.07109726 -0.062637046 0.013557099 -0.13258338 -0.05042261
-0.06943095 0.009544345 -0.06433397 0.074511334 -0.02011234 0.0420983 0.042251922 0.020457853
0.10556606 -0.06100747 -0.01440207 -0.05101011 0.08985785 -0.044648226 0.07816329 -0.03781342
-0.030455519 -0.039924376 -0.02641764 0.018099125 0.13348293 -0.058864467 -0.07916507 0.06877258
-0.049992796 -0.027176252 -0.033678092 0.025826061 -0.07271922 -0.09202602 0.12716606 0.0570286
-0.11476829 -0.024710355 0.07258396 0.03886683 0.040324695 0.058200322 -0.0047869934 0.0147236325
0.030886855 0.019613003 -0.040854637 0.016052093 -0.01809581 0.114088945 0.03501874 -0.07927496
-0.098338135 -0.123154156 0.044616416 0.034466296 0.109588675 -0.020605199 0.04315387 0.044168517
0.0038740383 0.011517344 -0.003014658 -0.10909573 -0.045366477 -0.09999083 0.074619494 -0.025672516
-0.031562105 0.033888876 -0.14463674 0.09167604 0.066922195 0.10294233 0.07637253 0.062425654
-0.09914254 0.011108305 -0.042485625 -0.07426749 -0.028092144 0.1051833 -0.054551408 0.021224292
-0.078270145 -0.08335062 0.015295056 -0.019022834 0.010690055 0.027419196 -0.0932799 0.04004533
-0.06549743 0.057710104 0.031197429 0.028413346 0.06608829 -0.13246061 -0.020712025 -0.027754584
