gru_classifier_weights/gpt-oss-120b_a100_tp8.pt (torch, 485481 bytes, 22 tensors)

in_norm.weight f4 [6]
0	0x3f82b12e	1.0210321
1	0x3f834cdf	1.0257834
2	0x3f841586	1.0319068
3	0x3f7f71a7	0.99782795
4	0x3f8273c9	1.0191585
5	0x3f800a95	1.0003229

in_norm.bias f4 [6]
0	0xbb904640	-0.0044029057
1	0x3833ef34	4.28997e-05
2	0xbbec0ef4	-0.007203931
3	0x3c1fbfd0	0.0097503215
4	0xbc47dc27	-0.0121984845
5	0x3bc9b5d1	0.0061557074

gru.weight_ih_l0 f4 [192, 6]
0	0xbe44f64f	-0.19234584
1	0xbe0c88b2	-0.1372402
2	0xbe57bd22	-0.21068242
3	0x3e0d6f74	0.13812047
4	0xbe641a38	-0.22275627
5	0xbe0ebf4b	-0.1394016
6	0xbe704175	-0.2346247
7	0xbddf1e5d	-0.10894463
8	0xbe424ed7	-0.18975388
9	0x3e32d40c	0.17463702
10	0xbdc6709a	-0.09689446
11	0xbdd70e39	-0.1050076
12	0x3e0ea7aa	0.13931146
13	0x3e2a4e32	0.16631392
14	0x3d33a378	0.043857068
15	0x3d560373	0.052249383
16	0x3e382cd4	0.1798585
17	0x3e753b3d	0.23948379
18	0x3d6942d1	0.056948487
19	0x3de938f6	0.113878176
20	0x3e2c01ab	0.16797511
21	0xbbd0f3f7	-0.006376739
22	0x3ceb0df2	0.028693173
23	0x3e3353ae	0.1751239
24	0x3d51568e	0.051107936
25	0xbb00c4a7	-0.0019648464
26	0xbc98e5a5	-0.01866419
27	0xbdab2361	-0.08356357
28	0xbdddb44e	-0.10825406
29	0xbd9380e3	-0.072023176
30	0xbe1bcbb3	-0.15214424
31	0x3ddffad8	0.109365165
32	0xbd75f7ab	-0.060050648
33	0xbe0165c3	-0.12636475
34	0x3e127f42	0.14306358
35	0x3d6b146f	0.057392534
36	0xb9e36f90	-0.00043379935
37	0x3e295afc	0.16538614
38	0xbe26aef1	-0.16277672
39	0xbd955a5b	-0.072926246
40	0xbe3ae103	-0.18249898
41	0xbb085df6	-0.0020807958
42	0x3dff17d9	0.124557205
43	0x3dcc41dc	0.09973499
44	0x3d912649	0.070873804
45	0xbd87b02e	-0.066254005
46	0xb9eff7f6	-0.00045770378
47	0xbdc250f3	-0.09488096
48	0xbe2fc4af	-0.17164873
49	0xbd293d68	-0.041318327
50	0x3d719b88	0.058986217
51	0xba92fc8e	-0.0011214183
52	0x3dc9c38c	0.09851751
53	0x3e078f6c	0.13238305
54	0xbe79930e	-0.24372503
55	0xbe0d8778	-0.13821208
56	0xbe8316f7	-0.25603458
57	0x3bc639d5	0.0060493746
58	0xbe73b17f	-0.23798178
59	0x3bdb4533	0.006691599
60	0xbdff11ba	-0.12454553
61	0xbdb3db78	-0.08782095
62	0xbe3675a0	-0.17818308
63	0xbe0d23ad	-0.1378314
64	0xbe0358af	-0.12826799
65	0x3e26cae2	0.16288331
66	0x3e02f4d3	0.12788706
67	0xbe2f7dd5	-0.17137845
68	0x3e686886	0.22696123
69	0xbc818418	-0.015810058
70	0x3d1d09c7	0.038339403
71	0xbe3715b1	-0.17879368
72	0x3e3bd8ce	0.18344423
73	0xbd9c98e9	-0.07646353
74	0x3e144963	0.1448112
75	0x3d0b452f	0.034001525
76	0x3e7ee80c	0.24893206
77	0x3e353957	0.17697655
78	0xbe24a0e8	-0.16077006
79	0xbe7aee20	-0.245049
80	0x3e465b21	0.193707
81	0x3d949637	0.07255214
82	0x3de87819	0.11351032
83	0x3e23dc28	0.16001952
84	0x3e207428	0.1566931
85	0xbd901c26	-0.07036619
86	0xbd9dd302	-0.07706262
87	0x3e411174	0.18854314
88	0x3b160548	0.0022891331
89	0xbddae88e	-0.106888875
90	0xbd00aaae	-0.031412773
91	0xbe16e005	-0.14733894
92	0xbe334934	-0.17508394
93	0x3db23fa2	0.08703543
94	0xbdab87fb	-0.083755456
95	0xbc9103be	-0.01770198
96	0xbe3a1fad	-0.18176146
97	0x3e398051	0.18115355
98	0x3da938a4	0.082627565
99	0xbd8d4d3b	-0.06899496
100	0x3c41d9f3	0.011831748
101	0x3e6e4247	0.2326747
102	0x3e668935	0.22513278
103	0xbe3c04bc	-0.18361181
104	0xbc216b80	-0.00985229
105	0x3e3c42e5	0.18384893
106	0xbdb1b9ea	-0.086780384
107	0xbe4b866d	-0.19875498
108	0xbe077d14	-0.13231307
109	0x3e5c5f14	0.21520644
110	0xbe002f8b	-0.12518136
111	0x3e8177f1	0.2528682
112	0x3d3e9102	0.04652501
113	0xbcc403b6	-0.02392755
114	0x3e33433f	0.17506121
115	0xbe15c8f2	-0.14627436
116	0xbd02ea37	-0.031961646
117	0x3e29df8e	0.16589186
118	0xbe334bc9	-0.17509378
119	0x3e5593ed	0.2085721
120	0xbb47c132	-0.0030480144
121	0xbdd475ea	-0.10374053
122	0x3e5a69f5	0.21329482
123	0xbe75737a	-0.23969832
124	0x3e6d9469	0.23201145
125	0xbdd358d5	-0.10319678
126	0x3dfadef9	0.1224956
127	0xbddd7172	-0.108126536
128	0xbd96ca42	-0.07362796
129	0x3d19a65a	0.03751216
130	0x3e8064e5	0.25076976
131	0xbc768b37	-0.01504784
132	0xbde507e5	-0.111831464
133	0x3e51639e	0.20448157
134	0x3e534ba1	0.20634319
135	0xbc425c0b	-0.011862765
136	0xbcecaa8a	-0.028889913
137	0xbd83a22c	-0.06427416
138	0xbc87dff2	-0.016586278
139	0xbcf95872	-0.030437682
140	0x3e20d25d	0.15705247
141	0xbdfb6ab5	-0.12276212
142	0xbe0f924d	-0.14020653
143	0x3e7e52a1	0.24836208
144	0xbe15fc37	-0.14646994
145	0x3e48e47d	0.19618411
146	0x3e454c82	0.19267467
147	0x3e1c27c7	0.15249549
148	0xbcdb7815	-0.026790658
149	0xbd02118c	-0.031755015
150	0x3e874078	0.26416373
151	0x3e887471	0.26651338
152	0x3c62966b	0.013829808
153	0xbe7aeb7e	-0.24503896
154	0x3e7b443f	0.24537753
155	0xbdec4f0e	-0.11538516
156	0x3d00ea32	0.031473346
157	0xbd95f280	-0.07321644
158	0x3deaa616	0.1145746
159	0x3e656814	0.22402984
160	0x3e383d4b	0.17992131
161	0x3e72aeba	0.23699465
162	0xbd4e1b71	-0.05031914
163	0xbe55611b	-0.20837824
164	0xbdb3b3a5	-0.08774499
165	0xbdf5edac	-0.12008223
166	0x3e095f9f	0.13415383
167	0x3e614ce3	0.22001986
168	0xbe381b14	-0.1797908
169	0x3e553096	0.20819315
170	0x3d44aec9	0.04801825
171	0x3cf99d8e	0.030470636
172	0x3e6bdb78	0.2303294
173	0x3d11c0da	0.03558431
174	0xbd007ea2	-0.031370766
175	0xbe21a923	-0.15787177
176	0x3d013c0f	0.031551417
177	0xbe4bb46c	-0.19893044
178	0xbd609a8d	-0.05483489
179	0x3e6b0c2d	0.22953863
180	0xbd38c54a	-0.045110025
181	0x3b27e088	0.0025616009
182	0x3ca6c135	0.0203558
183	0xbe6dff93	-0.23242025
184	0xbe6aa4d2	-0.22914436
185	0x3e00461a	0.12526742
186	0x3e29d849	0.16586412
187	0x3c9699a5	0.01838381
188	0xbcf8fa79	-0.030392872
189	0x3df024c2	0.11725761
190	0x3d006ebd	0.03135561
191	0x3ca0389d	0.019558245
192	0x3ca2a787	0.019855274
193	0xbd0e9cfb	-0.034817677
194	0xbcb6fd02	-0.02233744
195	0xbe258832	-0.16165236
196	0xbe66a937	-0.22525488
197	0x3c5cc7c0	0.0134753585
198	0x3e1d86b0	0.1538341
199	0x3e49300f	0.19647239
200	0xbe4bb60b	-0.19893663
201	0xbe69a2b7	-0.22815977
202	0xbcadab3f	-0.02119982
203	0x3dbee960	0.093218565
204	0x3e661c94	0.22471839
205	0x3dcb17de	0.09916662
206	0xbdaf4633	-0.08558311
207	0xbd958d5f	-0.07302355
208	0xbd48d63e	-0.049032442
209	0xbe7a3dc6	-0.24437627
210	0xbe0bfd61	-0.13670875
211	0xbe3dfe33	-0.18554
212	0x3d8911c3	0.06692841
213	0xbd2db226	-0.042406224
214	0xbe795ac4	-0.2435103
215	0xbe2a1319	-0.16608848
216	0x3c8d5223	0.01725108
217	0xbe2b3ca4	-0.16722351
218	0x3dcd11ae	0.10013138
219	0xbe6c0184	-0.23047453
220	0x3e0996f5	0.13436492
221	0x3dc1641e	0.09442924
222	0xbc8e9a71	-0.017407628
223	0x3d93464f	0.07191145
224	0x3e3765c2	0.17909911
225	0x3e56d1e8	0.2097851
226	0xbe16a7d4	-0.14712459
227	0x3d863f0d	0.06554995
228	0x3d957854	0.072983414
229	0xbe65d651	-0.22445036
230	0x3e036962	0.12833169
231	0xbe190c68	-0.14946139
232	0x3d4e39f7	0.05034825
233	0x3e1f694e	0.15567514
234	0x3d988bbb	0.074485265
235	0x3d2226d4	0.03958781
236	0x3e3b3ed3	0.18285684
237	0xbe626722	-0.22109655
238	0xbd9884b1	-0.07447184
239	0x3e6e4db9	0.23271836
240	0x3e6353f2	0.22199991
241	0xbdb86f33	-0.090055846
242	0x3d7c161a	0.061544515
243	0xbde7dfc9	-0.113219805
244	0x3da2bf02	0.07946588
245	0xbdcb0501	-0.09913064
246	0xbe49563e	-0.19661805
247	0xbc9625b1	-0.01832852
248	0xbda78105	-0.081789054
249	0xbe23ff23	-0.16015296
250	0x3e6520df	0.2237582
251	0xbdc4395e	-0.095812544
252	0x3bed0530	0.0072332844
253	0x3df80c46	0.12111716
254	0x3e0aa633	0.13539962
255	0xbd432a6e	-0.047647886

gru.weight_hh_l0 f4 [192, 64]
0	0xbbc550f6	-0.006021614
1	0x3d6cd4ba	0.05782006
2	0xbe19f3ce	-0.1503441
3	0xb8d52711	-0.00010163908
4	0xbd03437f	-0.03204679
5	0x3d68f846	0.056877397
6	0xbdd9eb77	-0.106406145
7	0xbd9fcb0c	-0.078024
8	0xbbdbf011	-0.0067119678
9	0x3c059a3d	0.008154449
10	0xbdce748b	-0.100808226
11	0xbd472fc4	-0.048629537
12	0xbdb6d4eb	-0.0892733
13	0x3cd2feb2	0.025756214
14	0x3ce3bee2	0.027800981
15	0x3cec3cd9	0.028837608
16	0xbdf8ce90	-0.12148774
17	0x3dcbd36f	0.09952437
18	0x3b93d3dd	0.00451134
19	0x3c78f3cc	0.015194844
20	0x3ca15e23	0.019698208
21	0x3db579c2	0.08861114
22	0xbdf05878	-0.11735624
23	0xbd399ce7	-0.04531565
24	0xbc90805a	-0.017639328
25	0xbd2494e2	-0.04018105
26	0x3d1461f2	0.03622622
27	0x3cb2870b	0.02179291
28	0xbd0fb1f3	-0.035081815
29	0xbc04e7b0	-0.008111879
30	0xbd50d88b	-0.05098776
31	0xbb860b2f	-0.0040906887
32	0xbe00aaff	-0.1256523
33	0x3bcb7a04	0.0062096138
34	0xbbf6038e	-0.007507748
35	0x3d97e997	0.074176006
36	0xbdb3db71	-0.087820895
37	0x3d7ad162	0.06123484
38	0xbcec0de2	-0.028815214
39	0x3e0875df	0.13326214
40	0x3d67d3b7	0.05659839
41	0xbd218176	-0.039430104
42	0xbdee69aa	-0.116412476
43	0x3c929e9d	0.017897898
44	0xbd05e753	-0.03269131
45	0xbd8ab245	-0.067722835
46	0xbd857874	-0.06517115
47	0xbc2a8ca7	-0.010409511
48	0xbdbd3dfd	-0.09240339
49	0xbe36f1b1	-0.17865635
50	0x3d599812	0.05312354
51	0xbc12f737	-0.008970073
52	0x3de769f1	0.112995036
53	0x3c8861a9	0.01664813
54	0x3e0fe93a	0.14053813
55	0x3b4c4b51	0.0031172822
56	0x3d8ce8ed	0.068803646
57	0xbc8c3a79	-0.017117726
58	0x3d04d2f5	0.032427747
59	0x3d9c7b88	0.07640749
60	0x3db5a55e	0.08869432
61	0xbc436b9f	-0.011927514
62	0xbd986f1a	-0.07443066
63	0x3daa27ed	0.083083965
64	0xbd16156a	-0.036641516
65	0x3db7d4ab	0.0897611
66	0xbc9ce535	-0.019152263
67	0xbe16e2b3	-0.14734916
68	0xbcaff60b	-0.021479627
69	0xbdcc23e0	-0.0996778
70	0x3d08492c	0.033272907
71	0x3e09faae	0.13474533
72	0x3c59d2b6	0.013294866
73	0x39a7e5ce	0.0003202394
74	0xbd305a67	-0.043054964
75	0x3bf58126	0.0074922023
76	0x3b9981ed	0.004684678
77	0x3d36e9b4	0.04465647
78	0xbda3a534	-0.07990494
79	0xbe0cd2fc	-0.13752359
80	0xbc24bff8	-0.010055535
81	0xbd513251	-0.051073376
82	0xbd037fd4	-0.03210433
83	0xbca9d152	-0.020729695
84	0x3d8b0747	0.067884974
85	0xbd05791d	-0.032586206
86	0x3ba62718	0.0050705783
87	0x3d3c68f8	0.045998544
88	0x3e21ba54	0.15793735
89	0xbd43be90	-0.047789156
90	0x3dbe3ed2	0.09289326
91	0x3d130ea4	0.035902634
92	0xbd88977b	-0.066695176
93	0xbd0ca6d7	-0.0343388
94	0x3d3859ba	0.045007445
95	0xbcc7864a	-0.024356026
96	0x3c1fb672	0.009748088
97	0x382905f9	4.0298302e-05
98	0x3d748fcb	0.059707444
99	0xbe0e2b36	-0.13883671
100	0xbcf6f232	-0.030144785
101	0x3cdbce2f	0.026831714
102	0x3ce33281	0.027734043
103	0xbdd2c596	-0.10291593
104	0x3bbe56d8	0.0058086924
105	0x3c80d951	0.015728625
106	0xbd9a1453	-0.07523408
107	0x3d7a66b4	0.0611331
108	0x3c1ac04c	0.009445261
109	0x3a55e0d6	0.00081588083
110	0xbc671319	-0.014103674
111	0xbc6956db	-0.014241899
112	0xbd0ae6e1	-0.03391159
113	0x3db0afc6	0.08627276
114	0x3e4b30ae	0.19842789
115	0xbd498eef	-0.049208578
116	0xbd8b2209	-0.06793601
117	0x3de78133	0.1130394
118	0xbd36d01f	-0.044632073
119	0xbce7fcf4	-0.02831886
120	0xbd9b6374	-0.075873286
121	0xbdbd897c	-0.09254739
122	0xbd5a115d	-0.053239215
123	0xbdf94b2a	-0.121725395
124	0x3cacab0c	0.021077655
125	0x3c124471	0.0089274505
126	0xbdef3aad	-0.116811134
127	0xbd227c2d	-0.039669205
128	0xb9953952	-0.00028462202
129	0xbcde289e	-0.027118977
130	0x3ce052a2	0.027383152
131	0x3cf3dcfe	0.029768463
132	0x3ca271e6	0.019829702
133	0xbe22bab5	-0.15891536
134	0x3d6ffc88	0.058590442
135	0x3d6b7a7c	0.057489857
136	0xbdea28b3	-0.11433544
137	0xbd97355b	-0.073832236
138	0xbd98a18c	-0.074526876
139	0x3c7dc856	0.015489658
140	0x3dea642e	0.11444889
141	0x3e11178a	0.14169136
142	0x3d84a304	0.06476405
143	0x3d6f1b9b	0.058375936
144	0xbdf08d81	-0.1174574
145	0x3cbfbf0b	0.023406526
146	0xbdadd8f9	-0.0848865
147	0xbc62cfb1	-0.013843463
148	0x3d5afb97	0.05346259
149	0xbc42822d	-0.011871857
150	0x3e0cc81c	0.1374821
151	0xbb211b3c	-0.0024582883
152	0x3d91f0b1	0.07125986
153	0x3d0c758c	0.03429179
154	0xbd975979	-0.073901124
155	0xbd6aeade	-0.057352893
156	0xbb2339d8	-0.0024906304
157	0x3d9338a7	0.0718854
158	0xbc565cdf	-0.013083666
159	0x3d4e73ca	0.050403394
160	0xbd924a48	-0.07143074
161	0x3d695570	0.056966245
162	0x3cfe5bf0	0.031049699
163	0x3da4a4d6	0.080392525
164	0xbe06dd27	-0.131703
165	0x3e231c68	0.15928805
166	0x3df1e61b	0.11811467
167	0x3de5d24a	0.1122175
168	0xbd21c28c	-0.039492175
169	0x3d78a8cc	0.060707852
170	0x3d4fd29d	0.050737966
171	0x3dd30e58	0.1030547
172	0xbd96115b	-0.07327529
173	0x3d3e2c1a	0.046428777
174	0x3cec068c	0.028811716
175	0xbcc9d993	-0.02463988
176	0x3abea106	0.0014543838
177	0x3cb92a13	0.02260307
178	0x3df822f6	0.12116043
179	0xbc8df245	-0.017327437
180	0x3d166047	0.03671291
181	0xbd8fab10	-0.070150495
182	0xbddf1488	-0.10892588
183	0x3c45c9e0	0.0120720565
184	0xbd3ba989	-0.04581598
185	0xbd9e167a	-0.07719131
186	0x3cb63447	0.022241725
187	0xbd367d7c	-0.044553265
188	0xbc03122a	-0.007999936
189	0xbd1b0be5	-0.03785314
190	0x3d4648e2	0.04840935
191	0xbdc8a214	-0.09796539
192	0x3dc9a147	0.09845214
193	0x3d8d279b	0.0689232
194	0xbdbef44b	-0.09323939
195	0x3c699e8f	0.014258995
196	0xbd8b5f8b	-0.06805333
197	0x3d2acc05	0.041698474
198	0x3d355e11	0.04427916
199	0xbe041799	-0.12899627
200	0xbd95338f	-0.07285225
201	0x3ca83d7c	0.02053713
202	0x3d27c953	0.040963482
203	0xbd5e7358	-0.05430922
204	0xbd45fdbc	-0.048337683
205	0xbdf9a165	-0.12188987
206	0xbce4983c	-0.027904622
207	0x3d5d2ba1	0.053996686
208	0x3d19696d	0.037454057
209	0xbdf72777	-0.12068074
210	0xbdf53a64	-0.11974028
211	0x3e022222	0.12708333
212	0xbda5e75f	-0.08100771
213	0x3c295226	0.010334527
214	0x3cc90340	0.024537683
215	0xbcf26978	-0.029591307
216	0xbd99fd12	-0.075189725
217	0x3d4aade8	0.049482256
218	0xbda43a1e	-0.080188975
219	0xbc8b91d4	-0.01703731
220	0xbc94c688	-0.018161073
221	0xbd3f9b53	-0.046778988
222	0x3d781990	0.060571253
223	0xbd49fea4	-0.04931511
224	0xbc53e2f3	-0.012932527
225	0xbc0dfad1	-0.008665756
226	0x3bd1f1dd	0.006407006
227	0x3c11847c	0.008881684
228	0xbddc0058	-0.10742253
229	0xbb9d84db	-0.0048070974
230	0xbcf2635d	-0.029588396
231	0xbd462dae	-0.048383407
232	0x3bbd135c	0.00577013
233	0xbd908c0c	-0.07057962
234	0xbd0475ce	-0.03233891
235	0x3da18b57	0.07887905
236	0x3e061546	0.13094053
237	0x3c8498e2	0.016186181
238	0x3d66829f	0.056276914
239	0x3c9bed73	0.019034123
240	0xbb879407	-0.0041375193
241	0xbdce463e	-0.100719914
242	0x3dcf3b98	0.101187885
243	0xbd925d6b	-0.07146724
244	0x3dd1ad7c	0.10238168
245	0xbd81bcee	-0.063348636
246	0xbdae0cb9	-0.084985204
247	0x3cd75a43	0.026288157
248	0x3e1828ce	0.14859316
249	0x3cf448e4	0.029819913
250	0xbd80c936	-0.06288378
251	0x3db54f2c	0.088529915
252	0x3d57440c	0.05255513
253	0x3d80da9b	0.06291696
254	0xbd8268e1	-0.0636766
255	0xbd633142	-0.055466898

gru.bias_ih_l0 f4 [192]
0	0x3c2c03c1	0.010498942
1	0xbb308edb	-0.0026940617
2	0xbc069eab	-0.00821654
3	0x3b270bb7	0.002548916
4	0xbb9b515e	-0.0047399243
5	0x3b2b1521	0.0026105123
6	0x3bdee5e2	0.0068023065
7	0x3cd2d80d	0.025737787
8	0x3c0b6e3f	0.008510171
9	0x3b1eff3f	0.0024261025
10	0x3c31776d	0.010831696
11	0x3c188b98	0.0093106255
12	0x3bb869c5	0.005627843
13	0x3be7f1d9	0.007078391
14	0x3a159695	0.00057063374
15	0xbb5b2145	-0.0033436578
16	0x3bdad367	0.006678033
17	0x3c1faf40	0.009746373
18	0xba0c5fad	-0.0005354833
19	0x3bc05c04	0.005870344
20	0x3b6f3ee5	0.0036505994
21	0xbc308e0f	-0.010776057
22	0x3c6e5c6a	0.0145484
23	0x3c0bfd99	0.008544349
24	0x3c6bea93	0.014399189
25	0x3bb619a9	0.005557258
26	0x3caa5792	0.02079371
27	0xbba2f3d5	-0.0049729147
28	0x3c047eb0	0.008086845
29	0x3cb677ee	0.022273984
30	0x3c166970	0.009180412
31	0x3c00fff6	0.007873526
32	0x3bbf3443	0.0058350875
33	0x3bb9d222	0.0056708017
34	0x3c4148fc	0.011797186
35	0x3c84f5da	0.016230512
36	0xbb19f0d6	-0.0023489497
37	0x3c847454	0.01616875
38	0x3c3659b0	0.011129782
39	0x3bea71d7	0.007154684
40	0xbc2b0c88	-0.010439999
41	0x3c55595e	0.013021795
42	0x3c1647a5	0.009172355
43	0xba6e2a10	-0.00090852473
44	0xbad5ee73	-0.0016321674
45	0xbc60886e	-0.013704402
46	0xba3a9a13	-0.0007118296
47	0xbc1bab9e	-0.009501366
48	0x3c849a8f	0.01618698
49	0x3befde31	0.0073201885
50	0x3a239627	0.0006240331
51	0x3c006413	0.00783636
52	0xbb6bf9db	-0.003600708
53	0x3bb1d1cc	0.005426621
54	0x3bf73ca3	0.0075450703
55	0x3c43cb2e	0.011950297
56	0x3c257e76	0.010100951
57	0x3c407557	0.011746726
58	0xbb7ffff9	-0.0039062484
59	0x3b33a45f	0.0027411205
60	0xbab2a657	-0.0013629895
61	0x3b7f5f75	0.003896681
62	0x3c341caf	0.010993167
63	0x3b8a3594	0.004217813
64	0x3c925ddd	0.017867023
65	0x3a916922	0.0011093954
66	0xbc24eb83	-0.010065916
67	0x3cac82ef	0.021058528
68	0xbc22623a	-0.009911114
69	0x3bbcdbc4	0.005763503
70	0xbb036553	-0.0020049408
71	0xbcd6aff5	-0.02620695
72	0xbc943807	-0.018093122
73	0x3cabca32	0.020970438
74	0x3d00acd0	0.031414807
75	0x3c20df0a	0.009818802
76	0x3ce2c990	0.027684003
77	0x3c3a1b2b	0.011359016
78	0xbc1381d6	-0.009003123
79	0xbc6654c2	-0.014058294
80	0xbb360503	-0.0027773983
81	0x3cb2eac7	0.021840466
82	0xbc2509d0	-0.01007314
83	0x3cd7a49f	0.026323615
84	0xbcba2188	-0.022721067
85	0x3c588682	0.013215663
86	0xbbff9159	-0.007799309
87	0x3cdd3397	0.027002139
88	0xbc556fb2	-0.0130271185
89	0x3cdc3def	0.026885001
90	0x3c2567cd	0.010095549
91	0xbc4bc33b	-0.012436683
92	0xb9d66883	-0.00040895128
93	0xbcd0ce53	-0.025489008
94	0x3c3365f1	0.010949598
95	0x3c0d588f	0.008627071
96	0x3cd2ebc5	0.02574719
97	0x3cb82a3a	0.022481073
98	0x3c676449	0.014123031
99	0xbc468ce3	-0.012118551
100	0x3cb75bf3	0.022382712
101	0x3c594d53	0.013263064
102	0x3c230db8	0.009952001
103	0x3bdea930	0.006795071
104	0xbb93d232	-0.004511141
105	0x3b9b70eb	0.0047436855
106	0x3d3a0733	0.045417022
107	0x3bd0cfc0	0.006372422
108	0xbc145e66	-0.0090557095
109	0x3d191ff0	0.037383974
110	0x3c33bbe5	0.0109700905
111	0x3c12e337	0.008965305
112	0xbcb0bfde	-0.021575864
113	0x3cb21aed	0.021741355
114	0x3c30a952	0.010782557
115	0xbcc76d58	-0.024344131
116	0x3cafc014	0.021453895
117	0xbc35b3f1	-0.011090265
118	0xbbf5ef7b	-0.007505355
119	0x3bd55442	0.0065102885
120	0xbd09cd6c	-0.03364317
121	0x3a9ee2d1	0.001212204
122	0x39d04ef0	0.00039731665
123	0x3c080a1d	0.008303192
124	0x3cd3cc9a	0.025854398
125	0xbc4d877f	-0.012544512
126	0xbce36e90	-0.027762681
127	0xbc451f67	-0.012031413
128	0xbb7966f6	-0.0038055754
129	0xbb9f0229	-0.0048525524
130	0x3aa4fd2b	0.0012587657
131	0x3c4a1c11	0.012335793
132	0x3ba11361	0.00491564
133	0x3b5360af	0.0032253673
134	0x3c1c90fa	0.0095560495
135	0x3a44562f	0.0007489649
136	0x3b4952bd	0.0030719482
137	0xbc113cb2	-0.008864569
138	0x3b57729a	0.0032874704
139	0x3beae11a	0.0071679475
140	0x3b9b6571	0.0047423174
141	0x3a8685d5	0.0010263274
142	0x3a9248e4	0.0011160639
143	0xbc43fe97	-0.011962554
144	0x3b57e615	0.0032943536
145	0xbbbcf8d3	-0.005766967
146	0xbbad3864	-0.0052862633
147	0xbb77d99e	-0.003781892
148	0xbafec881	-0.0019438417
149	0x3b702f17	0.0036649161
150	0xbc27dca9	-0.010245481
151	0xb969c3aa	-0.00022293502
152	0x3985abcc	0.00025495735
153	0xbb7a8023	-0.0038223348
154	0xb74be5e1	-1.2153266e-05
155	0xbb7661c4	-0.0037594894
156	0x3b6b5998	0.0035911556
157	0x3b91a1a6	0.004444319
158	0x3a3cf36c	0.00072079035
159	0xbb80e85b	-0.003933949
160	0x3b11469f	0.0022167338
161	0xbb351523	-0.0027631007
162	0xba1af28c	-0.0005910776
163	0xb8e90959	-0.00011112047
164	0x3be7cc6b	0.007073929
165	0x3ba4d021	0.0050296937
166	0x3bcd78e3	0.0062705143
167	0xbbb1b1b6	-0.005422796
168	0x39984283	0.00029041254
169	0x3a65be05	0.0008763972
170	0xbb21e760	-0.002470456
171	0x3aed4198	0.0018101213
172	0x3bd4d60f	0.0064952443
173	0xbb1ddc4d	-0.0024087608
174	0x3b6fe9cb	0.0036607857
175	0xb9f093a8	-0.0004588638
176	0xbad83db4	-0.0016497881
177	0xbabf4259	-0.0014591917
178	0x3b6a8371	0.0035783912
179	0xbae5908e	-0.0017514394
180	0x3b8f28db	0.004368884
181	0xbb92a53c	-0.004475264
182	0x3b191149	0.002335625
183	0x3b63a716	0.0034737042
184	0x3b88c11b	0.0041734106
185	0xbb34fcb6	-0.0027616448
186	0x3a567cf8	0.0008182074
187	0x3b66310b	0.0035124447
188	0x3b778043	0.003776566
189	0x3b4bba2f	0.0031086316
190	0x3b704fff	0.0036668775
191	0xbbb16b66	-0.005414414

gru.bias_hh_l0 f4 [192]
0	0x3c2c03c1	0.010498942
1	0xbb308edb	-0.0026940617
2	0xbc069eab	-0.00821654
3	0x3b270bb7	0.002548916
4	0xbb9b515e	-0.0047399243
5	0x3b2b1521	0.0026105123
6	0x3bdee5e2	0.0068023065
7	0x3cd2d80d	0.025737787
8	0x3c0b6e3f	0.008510171
9	0x3b1eff3f	0.0024261025
10	0x3c31776d	0.010831696
11	0x3c188b98	0.0093106255
12	0x3bb869c5	0.005627843
13	0x3be7f1d9	0.007078391
14	0x3a159695	0.00057063374
15	0xbb5b2145	-0.0033436578
16	0x3bdad367	0.006678033
17	0x3c1faf40	0.009746373
18	0xba0c5fad	-0.0005354833
19	0x3bc05c04	0.005870344
20	0x3b6f3ee5	0.0036505994
21	0xbc308e0f	-0.010776057
22	0x3c6e5c6a	0.0145484
23	0x3c0bfd99	0.008544349
24	0x3c6bea93	0.014399189
25	0x3bb619a9	0.005557258
26	0x3caa5792	0.02079371
27	0xbba2f3d5	-0.0049729147
28	0x3c047eb0	0.008086845
29	0x3cb677ee	0.022273984
30	0x3c166970	0.009180412
31	0x3c00fff6	0.007873526
32	0x3bbf3443	0.0058350875
33	0x3bb9d222	0.0056708017
34	0x3c4148fc	0.011797186
35	0x3c84f5da	0.016230512
36	0xbb19f0d6	-0.0023489497
37	0x3c847454	0.01616875
38	0x3c3659b0	0.011129782
39	0x3bea71d7	0.007154684
40	0xbc2b0c88	-0.010439999
41	0x3c55595e	0.013021795
42	0x3c1647a5	0.009172355
43	0xba6e2a10	-0.00090852473
44	0xbad5ee73	-0.0016321674
45	0xbc60886e	-0.013704402
46	0xba3a9a13	-0.0007118296
47	0xbc1bab9e	-0.009501366
48	0x3c849a8f	0.01618698
49	0x3befde31	0.0073201885
50	0x3a239627	0.0006240331
51	0x3c006413	0.00783636
52	0xbb6bf9db	-0.003600708
53	0x3bb1d1cc	0.005426621
54	0x3bf73ca3	0.0075450703
55	0x3c43cb2e	0.011950297
56	0x3c257e76	0.010100951
57	0x3c407557	0.011746726
58	0xbb7ffff9	-0.0039062484
59	0x3b33a45f	0.0027411205
60	0xbab2a657	-0.0013629895
61	0x3b7f5f75	0.003896681
62	0x3c341caf	0.010993167
63	0x3b8a3594	0.004217813
64	0x3c925ddd	0.017867023
65	0x3a916922	0.0011093954
66	0xbc24eb83	-0.010065916
67	0x3cac82ef	0.021058528
68	0xbc22623a	-0.009911114
69	0x3bbcdbc4	0.005763503
70	0xbb036553	-0.0020049408
71	0xbcd6aff5	-0.02620695
72	0xbc943807	-0.018093122
73	0x3cabca32	0.020970438
74	0x3d00acd0	0.031414807
75	0x3c20df0a	0.009818802
76	0x3ce2c990	0.027684003
77	0x3c3a1b2b	0.011359016
78	0xbc1381d6	-0.009003123
79	0xbc6654c2	-0.014058294
80	0xbb360503	-0.0027773983
81	0x3cb2eac7	0.021840466
82	0xbc2509d0	-0.01007314
83	0x3cd7a49f	0.026323615
84	0xbcba2188	-0.022721067
85	0x3c588682	0.013215663
86	0xbbff9159	-0.007799309
87	0x3cdd3397	0.027002139
88	0xbc556fb2	-0.0130271185
89	0x3cdc3def	0.026885001
90	0x3c2567cd	0.010095549
91	0xbc4bc33b	-0.012436683
92	0xb9d66883	-0.00040895128
93	0xbcd0ce53	-0.025489008
94	0x3c3365f1	0.010949598
95	0x3c0d588f	0.008627071
96	0x3cd2ebc5	0.02574719
97	0x3cb82a3a	0.022481073
98	0x3c676449	0.014123031
99	0xbc468ce3	-0.012118551
100	0x3cb75bf3	0.022382712
101	0x3c594d53	0.013263064
102	0x3c230db8	0.009952001
103	0x3bdea930	0.006795071
104	0xbb93d232	-0.004511141
105	0x3b9b70eb	0.0047436855
106	0x3d3a0733	0.045417022
107	0x3bd0cfc0	0.006372422
108	0xbc145e66	-0.0090557095
109	0x3d191ff0	0.037383974
110	0x3c33bbe5	0.0109700905
111	0x3c12e337	0.008965305
112	0xbcb0bfde	-0.021575864
113	0x3cb21aed	0.021741355
114	0x3c30a952	0.010782557
115	0xbcc76d58	-0.024344131
116	0x3cafc014	0.021453895
117	0xbc35b3f1	-0.011090265
118	0xbbf5ef7b	-0.007505355
119	0x3bd55442	0.0065102885
120	0xbd09cd6c	-0.03364317
121	0x3a9ee2d1	0.001212204
122	0x39d04ef0	0.00039731665
123	0x3c080a1d	0.008303192
124	0x3cd3cc9a	0.025854398
125	0xbc4d877f	-0.012544512
126	0xbce36e90	-0.027762681
127	0xbc451f67	-0.012031413
128	0xbb8c3252	-0.0042784596
129	0xbb86bdbe	-0.0041119745
130	0x3abecdbd	0.0014557164
131	0x3c3e8e9d	0.011630681
132	0x3ba3132a	0.00497665
133	0x3b4dabcb	0.0031382914
134	0x3c0d6f49	0.0086324895
135	0x3a18150d	0.00058014767
136	0x3b8d9477	0.004320677
137	0xbc18f55c	-0.009335842
138	0x3b676cb0	0.0035312586
139	0x3becbe15	0.007224808
140	0x3bcd15ef	0.006258718
141	0x3aa5eb21	0.0012658575
142	0xb824d64f	-3.9300237e-05
143	0xbc50936b	-0.01273046
144	0x3b4cc60e	0.003124598
145	0xbbc44df7	-0.0059907394
146	0xbbdb95f5	-0.006701226
147	0xbb06f8c6	-0.0020595058
148	0xbac83b0b	-0.0015276385
149	0x3b722c52	0.0036952686
150	0xbc34f1a4	-0.01104394
151	0xb96aca3e	-0.0002239132
152	0x3a0dca83	0.00054089
153	0xbb5463dd	-0.0032408156
154	0x37f78279	2.950545e-05
155	0xbb734759	-0.0037121384
156	0x3b78158e	0.0037854644
157	0x3b88e1d7	0.004177313
158	0x397e6168	0.00024259614
159	0xbb8690a1	-0.0041065966
160	0x3b06ab6e	0.0020548957
161	0xbab44ae9	-0.0013755235
162	0x3a7f9c30	0.0009750752
163	0xb9dccd4a	-0.00042114622
164	0x3bdda6ae	0.0067642545
165	0x3bc96a35	0.006146694
166	0x3bf6fa26	0.0075371442
167	0xbb91c495	-0.004448483
168	0x39f6daac	0.000470837
169	0x3a8a52f4	0.0010553286
170	0xbb0671c1	-0.002051458
171	0x3ad3386b	0.0016114836
172	0x3bbfa1d0	0.005848147
173	0xbb1dc286	-0.0024072244
174	0x3b51540e	0.003194097
175	0xba774218	-0.0009432151
176	0xba8ca000	-0.0010728836
177	0xba92c094	-0.0011196309
178	0x3b8c79c5	0.004286977
179	0xbaecfdec	-0.0018081046
180	0x3ba1b9bc	0.0049354713
181	0xbb7b082a	-0.0038304427
182	0x3b0f5c06	0.0021874919
183	0x3ac8c67b	0.0015317941
184	0x3b7d4034	0.0038643004
185	0xbb1203f2	-0.0022280184
186	0x3a496209	0.000768215
187	0x3b8dfc80	0.004333079
188	0x3b8f4f83	0.004373492
189	0x3b341f34	0.0027484419
190	0x3b8f6cfe	0.0043770066
191	0xbbb169f2	-0.005414241

gru.weight_ih_l0_reverse f4 [192, 6]
0	0xbe38e73b	-0.18056957
1	0xbc811ebf	-0.015761731
2	0x3e4ce427	0.20008908
3	0xbdca3ec7	-0.09875255
4	0x3dc16bf0	0.094444156
5	0xbbe64a7a	-0.0070279213
6	0x3e065c94	0.13121253
7	0xbe4dd78d	-0.20101757
8	0x3adb37f9	0.0016725055
9	0xbd52963b	-0.051412802
10	0xbe139b4d	-0.14414711
11	0xbe55cf71	-0.20879914
12	0xbe3f1534	-0.18660432
13	0x3df21a4e	0.118214235
14	0x3e09d46e	0.13459942
15	0xbd1a3e1c	-0.03765689
16	0x3e2ee042	0.17077735
17	0x3de86d5f	0.11348986
18	0x3e0c1190	0.13678575
19	0x3e6ed41f	0.23323105
20	0x3e440f63	0.19146495
21	0x3e5919e0	0.21201277
22	0x3e2ff706	0.17184076
23	0x3d57228a	0.052523173
24	0xbe00a1ef	-0.12561773
25	0x3e5f3161	0.2179618
26	0xbc65c866	-0.0140248295
27	0xbcc5a067	-0.024124337
28	0xbdf8cfba	-0.12148996
29	0x3d5770af	0.052597698
30	0xbe675848	-0.2259227
31	0xbbd95611	-0.0066325744
32	0x3c8d631c	0.017259173
33	0x3b906b0b	0.0044072918
34	0xbe0774de	-0.13228175
35	0xbc3f9d99	-0.011695289
36	0x3c64889b	0.013948585
37	0x3d357fc2	0.044311292
38	0xbd493b49	-0.049128804
39	0x3d51d8ea	0.051232256
40	0x3e231b03	0.15928273
41	0xbe38652e	-0.18007347
42	0x3e281cea	0.1641728
43	0xbe1b82ba	-0.15186587
44	0x3df80220	0.1210978
45	0xbe648469	-0.22316135
46	0xbdc29fd9	-0.09503145
47	0xbcd794a3	-0.026315993
48	0xbc9c7ffa	-0.019103993
49	0x3debaa0c	0.11507043
50	0x3d48fc1b	0.04906855
51	0xbda966fe	-0.08271597
52	0xbd8b1891	-0.06791795
53	0xbde12998	-0.109942615
54	0x3e3e3c20	0.18577623
55	0x3adbb260	0.0016761534
56	0x3cc5a46a	0.02412625
57	0x3ba06310	0.0048946217
58	0xbe5b2899	-0.21402206
59	0xbda2eac6	-0.07954936
60	0x3da5a9f7	0.08089059
61	0xbd2d1431	-0.042255584
62	0x3e3f79f2	0.18698862
63	0x3e0091bd	0.12555595
64	0x3e4b94d0	0.19880986
65	0x3e098744	0.13430506
66	0x3d4844c6	0.048893712
67	0x395f59cb	0.00021300388
68	0xbe40327d	-0.1876926
69	0x3e75b90f	0.23996376
70	0xbce0e7cb	-0.027454278
71	0xbe0d9197	-0.1382507
72	0x3dc4c966	0.09608726
73	0x3d718f3e	0.058974497
74	0x3e0a8d14	0.1353038
75	0xbc7ca603	-0.01542044
76	0x3e57b6c5	0.21065815
77	0xbe225d2c	-0.15855855
78	0x3c027320	0.007962018
79	0x3de64adc	0.11244747
80	0x3dc38ec0	0.09548712
81	0xbd75b58c	-0.05998759
82	0xbdbba904	-0.091630965
83	0x3cb458de	0.022015031
84	0x3e4fa5da	0.20278111
85	0x3e2fbca8	0.1716181
86	0x3e6c6474	0.23085195
87	0xbd0699d3	-0.032861542
88	0xbe4bea23	-0.19913535
89	0x3d19667f	0.037451264
90	0xbdceb3e9	-0.10092909
91	0xbdaa0c48	-0.08303124
92	0x3dafa975	0.08577243
93	0x3d6a50f7	0.05720612
94	0xbe3e78bb	-0.18600743
95	0x3adb3812	0.0016725084
96	0xbe2a9f3f	-0.1666231
97	0xbe4f62c6	-0.20252523
98	0x3e0e792f	0.13913415
99	0xbe64d50c	-0.22346896
100	0xbe28993d	-0.16464706
101	0x3e3d5827	0.18490659
102	0xbe788323	-0.24268775
103	0x3e046359	0.12928523
104	0xbe0872b2	-0.13325003
105	0xbe533f57	-0.20629631
106	0xbdab4040	-0.08361864
107	0x3e2e4167	0.17017137
108	0xbd1e0474	-0.038578466
109	0x3e54c911	0.20779826
110	0x3cee1567	0.02906294
111	0xbd55dd24	-0.05221285
112	0x3d3c1937	0.045922484
113	0xbcae013a	-0.02124082
114	0x3e44473c	0.19167799
115	0xbe098f4a	-0.13433567
116	0x3c9aba33	0.018887615
117	0x3e018dcc	0.12651747
118	0x3dcfc13c	0.101442784
119	0x3e7616ee	0.24032184
120	0xbd9edff7	-0.07757562
121	0x3e08f3ff	0.13374327
122	0xbdf2394a	-0.11827333
123	0x3e74dcab	0.23912303
124	0x3e3b62e1	0.18299438
125	0xbd8eb449	-0.069679804
126	0xbb04284b	-0.0020165618
127	0x3d2183ed	0.039432455
128	0xbe6d7d5e	-0.23192355
129	0x3e4a1db2	0.1973789
130	0x3e482a31	0.19547345
131	0x3e546a53	0.20743684
132	0x3d912324	0.07086781
133	0x3dade3ca	0.08490713
134	0x3e0a5378	0.13508403
135	0x3dce602f	0.10076939
136	0xbe6c5227	-0.23078214
137	0x3ca6dcdc	0.020368986
138	0xbdeae208	-0.11468893
139	0x3e0e177c	0.13876146
140	0xbd73adc3	-0.059491884
141	0xbe074685	-0.13210495
142	0x3e8487cb	0.25884852
143	0xbe70c7e9	-0.2351376
144	0xbe67da7d	-0.2264194
145	0x3e6d4473	0.23170643
146	0xbd430765	-0.047614474
147	0x3e3c1553	0.1836751
148	0xbae3afed	-0.0017371156
149	0x3e3c4093	0.18384008
150	0xbdaac5bd	-0.08338497
151	0x3e73f4dd	0.23823877
152	0x3d8dde69	0.06927187
153	0x3e759ef8	0.23986423
154	0xbe1f135a	-0.15534726
155	0xbe08ea90	-0.13370728
156	0x3e06c5d1	0.13161398
157	0x3d8f83af	0.070075385
158	0x3e2306c3	0.15920548
159	0xbe2fe652	-0.17177704
160	0x3e0e0a8c	0.13871211
161	0x3d9c9d3c	0.076471776
162	0x3e0e7789	0.13912787
163	0xbe2bb274	-0.16767293
164	0xbe7b10ab	-0.24518077
165	0xbe26184b	-0.16220205
166	0xbc4f2895	-0.012643953
167	0x3e06ba02	0.13156894
168	0xbe5216e8	-0.2051655
169	0x3e411540	0.18855762
170	0x3ddfc965	0.10927085
171	0x3df1f4c2	0.11814262
172	0x3dd428d1	0.103593476
173	0x3d951d08	0.07280928
174	0x3e2625c6	0.16225347
175	0x3de7aade	0.11311887
176	0xbd624d96	-0.055249773
177	0xbe6e9e11	-0.23302485
178	0x3e3b879d	0.18313451
179	0xbd52acda	-0.051434375
180	0xbe3ae13b	-0.18249981
181	0xbd8c7115	-0.06857506
182	0x3d5381b0	0.05163735
183	0x3d9213d5	0.07132689
184	0xbe56e74e	-0.20986673
185	0x3d2660f2	0.040619798
186	0xbd17a90a	-0.037026443
187	0x3e1296bd	0.14315315
188	0x3cd4a99b	0.02595978
189	0x3df34333	0.118780516
190	0xbe31094a	-0.172887
191	0x3e59a3a7	0.21253835
192	0x3d02675d	0.031836856
193	0xbde154fb	-0.11002537
194	0x3d9e5c02	0.07732393
195	0xbe306546	-0.17226133
196	0x3e0f2a76	0.13981041
197	0xbe0ddd24	-0.1385389
198	0xbdf006e3	-0.117200635
199	0xbe067aa4	-0.13132721
200	0xbdda744e	-0.106667146
201	0xbe4d2acc	-0.20035857
202	0xbe11ef7c	-0.14251512
203	0xbe1f95b2	-0.15584448
204	0xbe7f036c	-0.24903649
205	0x3e400f8e	0.18755934
206	0x3e6761d6	0.22595915
207	0xbe4f7bea	-0.20262113
208	0xbdb775bd	-0.08958004
209	0xbcdb94fb	-0.026804438
210	0x3df8cdb3	0.12148609
211	0x3e47ba63	0.19504695
212	0xbd98db5a	-0.07463713
213	0xbd1393f1	-0.03602976
214	0xbdf51cd4	-0.11968389
215	0xbe3806be	-0.17971322
216	0xbdab810d	-0.08374224
217	0xbe3cc91a	-0.18436089
218	0xbc1ef3cb	-0.009701679
219	0xbe2bbdda	-0.16771641
220	0xbe683ab2	-0.2267864
221	0x3e6962bd	0.22791572
222	0xbdd578ae	-0.104234084
223	0x3e1b636b	0.15174644
224	0xbddde0f2	-0.108339205
225	0x3e1354af	0.14387773
226	0x3e0c14c0	0.1367979
227	0xbda36613	-0.079784535
228	0xbc8b4d17	-0.017004533
229	0xbe029398	-0.12751615
230	0xbe5ac519	-0.2136425
231	0x3e3826cf	0.17983554
232	0x3e40cac8	0.18827355
233	0x3e6d146d	0.23152323
234	0xbe497cfe	-0.19676587
235	0x3bc7e9a3	0.0061008497
236	0x3d85f237	0.065403394
237	0x3e65b8f9	0.22433843
238	0x3db8f0a6	0.09030275
239	0x3e64c0f8	0.22339237
240	0x3d74c4f6	0.05975815
241	0xbe22755e	-0.15865085
242	0x3e34cc15	0.17655976
243	0x3e153d09	0.14574064
244	0xbe3da3d1	-0.18519522
245	0xbd32c312	-0.043643065
246	0xbe1abacf	-0.15110324
247	0x3e004980	0.12528038
248	0xbe264a0f	-0.16239189
249	0x3bd4d326	0.0064948974
250	0xbde2eae5	-0.11079959
251	0xbe10568e	-0.14095518
252	0x3b64b615	0.0034898568
253	0x3d9dee51	0.07711471
254	0x3c8b18d5	0.016979614
255	0xbe28a9cf	-0.16471027

gru.weight_hh_l0_reverse f4 [192, 64]
0	0x3ddc09ee	0.107440814
1	0xbdb12411	-0.08649457
2	0xbd81b326	-0.06332998
3	0xbced9b82	-0.029004816
4	0x3b191c6e	0.0023362893
5	0x3c85e145	0.016342768
6	0x3d5206ad	0.051275898
7	0xbe17d0b1	-0.14825703
8	0x3cec7c53	0.028867876
9	0xbd44253f	-0.047887083
10	0x3e051a5d	0.12998338
11	0x3de8dd22	0.11370303
12	0xbdc17949	-0.094469614
13	0xbdbaae7d	-0.09115312
14	0xbc86ea8b	-0.01646926
15	0x3dc13206	0.09433369
16	0x3c70deeb	0.014701585
17	0x3ccee644	0.025256284
18	0xbe2ca0fe	-0.16858289
19	0xbdd5dc9a	-0.10442467
20	0xbd4a5c22	-0.04940427
21	0x3e07ef36	0.13274845
22	0xbd2d1318	-0.042254537
23	0x3d51327d	0.05107354
24	0xbe054210	-0.13013482
25	0x3d572cd9	0.052533004
26	0xbd12974a	-0.03578881
27	0x3e204beb	0.1565396
28	0x3cb19edc	0.021682195
29	0xb9e953f6	-0.0004450378
30	0xbd9ef78f	-0.07762062
31	0x3d05ba55	0.032648403
32	0xbda146ff	-0.078748696
33	0x3c47109a	0.012149954
34	0x3d415e31	0.04720897
35	0xbb1e9ac4	-0.0024201134
36	0x3cf2f6f6	0.029658776
37	0x3c833782	0.01601768
38	0xbe1cdccb	-0.15318601
39	0xbdd864d3	-0.10566106
40	0x3d0e01b1	0.03466958
41	0xbd1a6fbd	-0.03770422
42	0x3c33a37c	0.010964271
43	0x3b4567a4	0.003012159
44	0x3d0bac1c	0.034099683
45	0xbd629aac	-0.055323288
46	0xbd4fe2ba	-0.050753333
47	0xbd8748a3	-0.06605651
48	0xbc492458	-0.012276731
49	0x3dde2c57	0.10848301
50	0x3defb023	0.11703517
51	0xbd13c917	-0.036080446
52	0xbdacf84a	-0.08445795
53	0xbddb6de3	-0.107143186
54	0x3d9e0a48	0.07716805
55	0xbcda464f	-0.026644854
56	0x3d381d53	0.04494984
57	0x3c51f84b	0.012815545
58	0xbddfca52	-0.109272614
59	0xbca788c6	-0.02045096
60	0xbc6040ea	-0.013687352
61	0x3d71def1	0.059050504
62	0x3d854375	0.06507007
63	0xbdbeb7f1	-0.09312428
64	0xbd930d41	-0.07180262
65	0x3cebda39	0.02879058
66	0x3c51ab3c	0.012797173
67	0xbc7027b2	-0.014657902
68	0x3d98e492	0.07465471
69	0xbd883456	-0.06650607
70	0xbd871d9a	-0.06597443
71	0xbcf53574	-0.029932715
72	0xbb39a079	-0.002832441
73	0x3d88f5ae	0.06687485
74	0xbe02b098	-0.12762678
75	0xbd135bae	-0.035976104
76	0x3d1b8e85	0.037977714
77	0xbe08237a	-0.13294783
78	0x3d524a5c	0.051340446
79	0x3d7f47c4	0.0623243
80	0x3dbaaf50	0.091154695
81	0xbdb6bbf3	-0.08922567
82	0x3da612e5	0.081090726
83	0xbe139c17	-0.14415012
84	0x3d625bb2	0.05526323
85	0xbd21c1ad	-0.039491344
86	0x3d26b1a5	0.04069676
87	0x3d8f4675	0.069958605
88	0x3cc7d157	0.024391813
89	0x3d365c1f	0.044521447
90	0xbd80b21b	-0.06283971
91	0x3d52af4b	0.051436704
92	0x3c9793a3	0.018503016
93	0x3c88f12b	0.01671656
94	0x3d2b7837	0.041862693
95	0x3e427b77	0.1899241
96	0xbccea2a7	-0.025224043
97	0xbdddd19a	-0.10830994
98	0xbd886a69	-0.06660921
99	0x3c8a412b	0.016876778
100	0x3d3be17c	0.045869336
101	0x3ddc544c	0.10758266
102	0xbd940d6d	-0.07229123
103	0x3ce1b217	0.02755074
104	0x3cc7dae5	0.02439637
105	0xbd63f936	-0.055657588
106	0xbd0a5a71	-0.033777658
107	0x3d0b248a	0.033970393
108	0x3c1eea0b	0.009699355
109	0x3d26a3d3	0.04068358
110	0xbd9939bb	-0.07481714
111	0x3cb006e9	0.02148767
112	0x3db7b719	0.0897047
113	0xbd58a4e2	-0.05289162
114	0x3d9588e2	0.07301499
115	0x3d8d815e	0.069094405
116	0xbc8e0bf9	-0.017339693
117	0xbcf43515	-0.029810468
118	0xbd1841e8	-0.037172228
119	0x3d143e06	0.036191963
120	0xbd1395bc	-0.03603147
121	0xbdaace58	-0.08340138
122	0x3ce4beb3	0.027922964
123	0xbd897615	-0.067119755
124	0xbce12a27	-0.02748592
125	0x3e029a55	0.12754185
126	0x3c3ea703	0.011636498
127	0x3cc19b6c	0.023633681
128	0xbc35a25e	-0.011086075
129	0xbdf79c97	-0.12090414
130	0x3c9bc8b0	0.019016594
131	0xbda2fcbd	-0.07958362
132	0x3beeafd7	0.0072841453
133	0x3b5189a6	0.0031972914
134	0x3da8c962	0.08241536
135	0xbd199c88	-0.037502795
136	0x3d2b567f	0.041830536
137	0x3d8d9437	0.06913035
138	0x3cd0128d	0.02539947
139	0xbdbf08ac	-0.09327826
140	0xbcfcd414	-0.030862845
141	0x3da3f75a	0.08006163
142	0xbd5680ab	-0.0523688
143	0x3bb23ce0	0.005439386
144	0xbe187c76	-0.14891228
145	0xbd678c17	-0.056530084
146	0x3d63571d	0.055503
147	0xbd5f0465	-0.05444755
148	0x3d59b92c	0.05315511
149	0xbb83a2c9	-0.0040172082
150	0xbd0e646b	-0.034763735
151	0xbcfa38ad	-0.030544603
152	0x3e66702f	0.22503732
153	0xbd95a49d	-0.07306788
154	0xbd1ff51d	-0.039052118
155	0x3cf7c389	0.030244606
156	0xbd35fc8b	-0.044430297
157	0x3da5cca1	0.080956705
158	0x3ceea953	0.029133474
159	0x3d155bc1	0.036464456
160	0xbd1602ac	-0.03662364
161	0x3da2ddba	0.07952447
162	0xbd943dbf	-0.0723834
163	0xbe104624	-0.14089257
164	0x3b11601c	0.002218253
165	0xbe06225f	-0.13099049
166	0xbbd08ccf	-0.006364442
167	0xbe06664f	-0.13124965
168	0xbda8b42c	-0.0823749
169	0x3a479097	0.0007612793
170	0xbdddde4b	-0.10833415
171	0x3b3293ee	0.0027248817
172	0x3cdbe77d	0.02684378
173	0xbdb2f846	-0.08738761
174	0x3c73346e	0.014844043
175	0xbcc53771	-0.024074288
176	0xbd9e2cde	-0.077234015
177	0xbd6c8b97	-0.05775031
178	0xbcb34537	-0.02188359
179	0x3d91973d	0.071089245
180	0x3d93392c	0.07188639
181	0x3d75a157	0.05996832
182	0x3c829cb6	0.015943866
183	0x3cf4a3cf	0.029863266
184	0xbd07690d	-0.03305917
185	0x3d064b5d	0.032786716
186	0x3d483964	0.048882857
187	0x3da9493d	0.08265922
188	0x3da5d4e9	0.0809725
189	0x3cb2390a	0.021755714
190	0x3defc592	0.117076054
191	0x3d6051bd	0.05476545
192	0x3dd5f12e	0.10446392
193	0x3cdce954	0.026966728
194	0xbc811f7e	-0.015762087
195	0x3d52c07a	0.05145309
196	0xbbadd4a5	-0.00530489
197	0x3daeef38	0.08541721
198	0xbd7fbbf3	-0.0624351
199	0xbd94f22e	-0.072727546
200	0xbd937bd9	-0.072013564
201	0x3d494b06	0.049143814
202	0x3cdfc84e	0.027317192
203	0xbd436c9e	-0.047711007
204	0x3bbfe9f5	0.0058567473
205	0xbc2936d0	-0.01032801
206	0x3d50f2be	0.051012747
207	0xbcff6758	-0.031177208
208	0xbd9b4361	-0.07581211
209	0x3d2c3df5	0.042051274
210	0xbda649d1	-0.08119548
211	0x3db41239	0.08792538
212	0xbdf5c14d	-0.1199976
213	0xbbb45376	-0.0055031134
214	0x3e0d267e	0.13784215
215	0x3cf0381c	0.02932363
216	0xbd2c6e6d	-0.042097498
217	0x3bd1e058	0.0064049177
218	0x3d5a5d49	0.05331162
219	0xbd92b583	-0.07163527
220	0x3e22d876	0.15902886
221	0x3cd1ea59	0.025624441
222	0xbb952b9e	-0.0045523187
223	0x3be21c56	0.0069003506
224	0xbca05b98	-0.019574925
225	0xbd770d87	-0.060315635
226	0xbce0211a	-0.027359534
227	0x3e0192e7	0.12653695
228	0xbd69ac68	-0.057049185
229	0x3d8b4a1a	0.06801243
230	0xbcecb79c	-0.028896146
231	0xbd832606	-0.06403737
232	0x3d0e6132	0.03476066
233	0xbd55a519	-0.052159403
234	0xbde7dfe9	-0.11322004
235	0xbd039906	-0.032128356
236	0xbb699c08	-0.003564598
237	0xbdd70bf5	-0.105003275
238	0x3c325d7a	0.010886544
239	0x3d8950c6	0.067048594
240	0xbdd5c4da	-0.10437937
241	0xbdbaac3c	-0.09114882
242	0xbcb15046	-0.021644723
243	0x3d422227	0.04739585
244	0x3cacd22a	0.021096308
245	0xbcf48105	-0.029846678
246	0x3d182cb7	0.03715202
247	0x3d9cf0cb	0.07663115
248	0xbd86f94b	-0.065905176
249	0x3b326626	0.002722153
250	0x3ca442e0	0.02005142
251	0xbe3927e5	-0.18081625
252	0xbdbd85a2	-0.09254004
253	0xbcbea91f	-0.023274003
254	0x3d3adeb9	0.04562256
255	0x3d86325f	0.06552576

gru.bias_ih_l0_reverse f4 [192]
0	0xbbf75dfd	-0.007549046
1	0xbb89c6fb	-0.0042046285
2	0x3cacd8d3	0.021099484
3	0x3bfe1e08	0.007755045
4	0x3a9d5fe3	0.0012006726
5	0xbbdcbd78	-0.0067364536
6	0x3bba40d3	0.005683997
7	0xbb45f093	-0.0030203208
8	0xbc6f77ab	-0.014615933
9	0x3c977326	0.018487524
10	0x3af3693a	0.0018570789
11	0xbb59b7dc	-0.003322116
12	0x3c12d8c4	0.008962814
13	0x3bc4ed56	0.006009738
14	0x3c90d9d0	0.017681986
15	0x3b70b402	0.0036728387
16	0x3b8aac90	0.004231997
17	0x39ae1a05	0.00033207252
18	0xbb24d89e	-0.0025153528
19	0x3c069d6e	0.008216245
20	0x3bcd3f12	0.006263622
21	0x3b4c44ee	0.0031169015
22	0x3b67710e	0.0035315189
23	0x3cbe1b31	0.023206325
24	0x3c16d830	0.009206817
25	0x3cbeb897	0.023281379
26	0x3c15ba31	0.00913863
27	0x3b558de1	0.0032585787
28	0x3bdfc070	0.0068283603
29	0x3c024a31	0.007952259
30	0x3c1238c1	0.008924664
31	0x3c354334	0.011063386
32	0x3c116af1	0.0088755945
33	0x3c33a497	0.010964534
34	0x3c405449	0.011738845
35	0x3c67e78c	0.014154326
36	0x38bb1417	8.920597e-05
37	0x3b814885	0.0039454126
38	0x3b9fe065	0.004879045
39	0x3c3b5af2	0.011435257
40	0xbbdcbb2f	-0.006736181
41	0x3c343b1d	0.011000422
42	0x3c9d3c2f	0.019193737
43	0xbb8523c1	-0.0040631
44	0x3c821b3f	0.015882133
45	0x3c53c033	0.012924242
46	0x3b98a88e	0.004658765
47	0x3b65eeeb	0.0035085033
48	0x3b8ad720	0.0042370707
49	0x3c7cbece	0.015426351
50	0x3c370646	0.011170929
51	0x3c5548ec	0.013017874
52	0xbc004302	-0.007828476
53	0xbc384564	-0.011247013
54	0x3b41bdfa	0.0029562698
55	0x3cbc46e3	0.02298302
56	0x3c666a54	0.014063437
57	0xbb789bfc	-0.003793477
58	0x3bb16515	0.0054136612
59	0xbc437aec	-0.011931162
60	0xbc074177	-0.008255354
61	0x3bc91aed	0.006137243
62	0xbb8a51df	-0.0042211856
63	0x3b8a464e	0.0042198068
64	0xbca32a0f	-0.019917516
65	0xbccae5c8	-0.024767771
66	0x3d2f360d	0.042776156
67	0x3c09b293	0.008404392
68	0x3ceff1f6	0.02929018
69	0x3bd5e309	0.006527309
70	0x3ca0d489	0.019632595
71	0xbcb6b1c7	-0.022301568
72	0x3c832625	0.0160094
73	0x3c5c913d	0.013462362
74	0x3d1d0478	0.03833434
75	0x3b9af1df	0.0047285403
76	0x3b7d98bc	0.0038695773
77	0x3ce97bdd	0.028501445
78	0x3ad1b0c6	0.0015998117
79	0x3c3358ee	0.010946495
80	0xbb194c27	-0.0023391338
81	0x3b32ebbb	0.002730115
82	0x3d195233	0.037431907
83	0x3ccbdbbb	0.02488505
84	0x3c460385	0.0120858
85	0xbc9b89a7	-0.018986536
86	0x3bf99f94	0.0076179
87	0x3ca9b7a1	0.020717444
88	0xbc007a86	-0.007841712
89	0x3c431812	0.011907594
90	0x3c3a7a6a	0.011381725
91	0x3d0ae7de	0.033912532
92	0x3d098bab	0.033580463
93	0x3bc9bdac	0.006156644
94	0x3caf62e7	0.021409465
95	0xbc8e4d1a	-0.01737075
96	0x3bc3bcbe	0.0059734276
97	0xbbc0e59e	-0.0058867475
98	0x3bd9040e	0.006622798
99	0xbcd33a27	-0.025784565
100	0x3c82e8ed	0.015980208
101	0xb84d4c31	-4.8946767e-05
102	0xbc783469	-0.015149214
103	0x3cd56799	0.026050376
104	0x3a277785	0.0006388354
105	0x3ccc2171	0.02491829
106	0x3c3dc89a	0.011583472
107	0x3c23d1a2	0.009998711
108	0x3ceec68c	0.029147409
109	0xb9a8bd0f	-0.00032184317
110	0xbc5ecd94	-0.013598818
111	0xbb4d5b3c	-0.0031334898
112	0x3ccfd8d1	0.02537194
113	0xbae9279b	-0.0017788293
114	0xbc96d35b	-0.018411329
115	0x3bb5a903	0.0055438294
116	0x3c4ccc76	0.012499919
117	0xbbef1e0f	-0.0072972844
118	0xbc36edd9	-0.011165106
119	0x3d15bcc8	0.03655699
120	0x3ba7fbcd	0.0051264525
121	0xbcbcc79c	-0.0230444
122	0xbc49f89c	-0.0123273395
123	0x3c462c97	0.012095592
124	0x3cdcf351	0.026971491
125	0x3bde012a	0.006775041
126	0x3cddf297	0.027093215
127	0xbca12baf	-0.01967415
128	0x38bd2f64	9.0210495e-05
129	0x3a045a91	0.0005048896
130	0xbb307329	-0.002692411
131	0xbb374b68	-0.002796853
132	0x3bd55cda	0.006511313
133	0x3ab74d60	0.0013984852
134	0x3b4fc0dd	0.0031700649
135	0x3b686f10	0.003546659
136	0x3a3379af	0.00068464404
137	0x3a3b26a0	0.00071392395
138	0x3ab145b5	0.0013524803
139	0x3ac1b2e6	0.0014778047
140	0x3b3a7acb	0.0028454538
141	0x3a8d654c	0.0010787635
142	0x3ba00fda	0.004884702
143	0x3b0b6fc2	0.002127633
144	0xbc3aab96	-0.011393448
145	0x3b2a6999	0.0026002883
146	0x3a8b2d65	0.0010618387
147	0xbb96288b	-0.00458247
148	0xbb8f0eb1	-0.004365765
149	0x3bf1288d	0.0073595704
150	0xbb4e2ca4	-0.0031459713
151	0x3b49f3a4	0.0030815387
152	0xbb6f48b1	-0.0036511833
153	0xbb2f8cea	-0.0026786872
154	0x3b93d4a3	0.0045114323
155	0x3a8a1f72	0.0010537936
156	0x3ab572ee	0.0013843456
157	0x3bc8d87a	0.0061293216
158	0xbb8fdb62	-0.004390166
159	0x3a4fa325	0.0007920734
160	0x3c227877	0.009916416
161	0x3bd8dbdd	0.0066180066
162	0xbbfda0f1	-0.007740133
163	0xbb37029e	-0.0027925144
164	0x3b4243d4	0.002964248
165	0xbbb91c51	-0.0056491275
166	0xbb59aadd	-0.0033213415
167	0x3bb09700	0.0053890944
168	0xbb7589fe	-0.0037466283
169	0x3bf2a09f	0.0074044014
170	0x3a9beab7	0.0011895512
171	0xbb80ad40	-0.003926903
172	0xba817791	-0.0009877553
173	0xbb94817d	-0.004532038
174	0xbbbbd72e	-0.0057324385
175	0x3bec85ce	0.007218099
176	0x3a924ef9	0.0011162452
177	0x3b43b11c	0.0029860204
178	0x3aeffccc	0.0018309592
179	0x3c1d4876	0.009599796
180	0xbb9ef40c	-0.00485087
181	0x3a34445f	0.0006876643
182	0x3bd5ca91	0.006524392
183	0x3c296772	0.010339605
184	0xbbe08520	-0.0068518072
185	0xbb9f53f4	-0.004862303
186	0xbc8718a6	-0.016491245
187	0xbabb5f59	-0.0014295384
188	0xbaded1c5	-0.0016999772
189	0xbb1d0827	-0.0023961158
190	0x3b4bd505	0.0031102311
191	0xbbe6a87e	-0.007039129

gru.bias_hh_l0_reverse f4 [192]
0	0xbbf75dfd	-0.007549046
1	0xbb89c6fb	-0.0042046285
2	0x3cacd8d3	0.021099484
3	0x3bfe1e08	0.007755045
4	0x3a9d5fe3	0.0012006726
5	0xbbdcbd78	-0.0067364536
6	0x3bba40d3	0.005683997
7	0xbb45f093	-0.0030203208
8	0xbc6f77ab	-0.014615933
9	0x3c977326	0.018487524
10	0x3af3693a	0.0018570789
11	0xbb59b7dc	-0.003322116
12	0x3c12d8c4	0.008962814
13	0x3bc4ed56	0.006009738
14	0x3c90d9d0	0.017681986
15	0x3b70b402	0.0036728387
16	0x3b8aac90	0.004231997
17	0x39ae1a05	0.00033207252
18	0xbb24d89e	-0.0025153528
19	0x3c069d6e	0.008216245
20	0x3bcd3f12	0.006263622
21	0x3b4c44ee	0.0031169015
22	0x3b67710e	0.0035315189
23	0x3cbe1b31	0.023206325
24	0x3c16d830	0.009206817
25	0x3cbeb897	0.023281379
26	0x3c15ba31	0.00913863
27	0x3b558de1	0.0032585787
28	0x3bdfc070	0.0068283603
29	0x3c024a31	0.007952259
30	0x3c1238c1	0.008924664
31	0x3c354334	0.011063386
32	0x3c116af1	0.0088755945
33	0x3c33a497	0.010964534
34	0x3c405449	0.011738845
35	0x3c67e78c	0.014154326
36	0x38bb1417	8.920597e-05
37	0x3b814885	0.0039454126
38	0x3b9fe065	0.004879045
39	0x3c3b5af2	0.011435257
40	0xbbdcbb2f	-0.006736181
41	0x3c343b1d	0.011000422
42	0x3c9d3c2f	0.019193737
43	0xbb8523c1	-0.0040631
44	0x3c821b3f	0.015882133
45	0x3c53c033	0.012924242
46	0x3b98a88e	0.004658765
47	0x3b65eeeb	0.0035085033
48	0x3b8ad720	0.0042370707
49	0x3c7cbece	0.015426351
50	0x3c370646	0.011170929
51	0x3c5548ec	0.013017874
52	0xbc004302	-0.007828476
53	0xbc384564	-0.011247013
54	0x3b41bdfa	0.0029562698
55	0x3cbc46e3	0.02298302
56	0x3c666a54	0.014063437
57	0xbb789bfc	-0.003793477
58	0x3bb16515	0.0054136612
59	0xbc437aec	-0.011931162
60	0xbc074177	-0.008255354
61	0x3bc91aed	0.006137243
62	0xbb8a51df	-0.0042211856
63	0x3b8a464e	0.0042198068
64	0xbca32a0f	-0.019917516
65	0xbccae5c8	-0.024767771
66	0x3d2f360d	0.042776156
67	0x3c09b293	0.008404392
68	0x3ceff1f6	0.02929018
69	0x3bd5e309	0.006527309
70	0x3ca0d489	0.019632595
71	0xbcb6b1c7	-0.022301568
72	0x3c832625	0.0160094
73	0x3c5c913d	0.013462362
74	0x3d1d0478	0.03833434
75	0x3b9af1df	0.0047285403
76	0x3b7d98bc	0.0038695773
77	0x3ce97bdd	0.028501445
78	0x3ad1b0c6	0.0015998117
79	0x3c3358ee	0.010946495
80	0xbb194c27	-0.0023391338
81	0x3b32ebbb	0.002730115
82	0x3d195233	0.037431907
83	0x3ccbdbbb	0.02488505
84	0x3c460385	0.0120858
85	0xbc9b89a7	-0.018986536
86	0x3bf99f94	0.0076179
87	0x3ca9b7a1	0.020717444
88	0xbc007a86	-0.007841712
89	0x3c431812	0.011907594
90	0x3c3a7a6a	0.011381725
91	0x3d0ae7de	0.033912532
92	0x3d098bab	0.033580463
93	0x3bc9bdac	0.006156644
94	0x3caf62e7	0.021409465
95	0xbc8e4d1a	-0.01737075
96	0x3bc3bcbe	0.0059734276
97	0xbbc0e59e	-0.0058867475
98	0x3bd9040e	0.006622798
99	0xbcd33a27	-0.025784565
100	0x3c82e8ed	0.015980208
101	0xb84d4c31	-4.8946767e-05
102	0xbc783469	-0.015149214
103	0x3cd56799	0.026050376
104	0x3a277785	0.0006388354
105	0x3ccc2171	0.02491829
106	0x3c3dc89a	0.011583472
107	0x3c23d1a2	0.009998711
108	0x3ceec68c	0.029147409
109	0xb9a8bd0f	-0.00032184317
110	0xbc5ecd94	-0.013598818
111	0xbb4d5b3c	-0.0031334898
112	0x3ccfd8d1	0.02537194
113	0xbae9279b	-0.0017788293
114	0xbc96d35b	-0.018411329
115	0x3bb5a903	0.0055438294
116	0x3c4ccc76	0.012499919
117	0xbbef1e0f	-0.0072972844
118	0xbc36edd9	-0.011165106
119	0x3d15bcc8	0.03655699
120	0x3ba7fbcd	0.0051264525
121	0xbcbcc79c	-0.0230444
122	0xbc49f89c	-0.0123273395
123	0x3c462c97	0.012095592
124	0x3cdcf351	0.026971491
125	0x3bde012a	0.006775041
126	0x3cddf297	0.027093215
127	0xbca12baf	-0.01967415
128	0x3aaeceac	0.001333674
129	0x3a5e2704	0.0008474442
130	0xbb31cb4a	-0.0027129226
131	0xbb21eda6	-0.00247083
132	0x3bdfe141	0.0068322723
133	0x3a907ff6	0.0011024463
134	0x3b795b7a	0.003804891
135	0x3b439671	0.0029844309
136	0x3a3a5657	0.00071082026
137	0x3a1db114	0.00060154614
138	0x3a475e1d	0.00076052715
139	0x3aa6c36e	0.0012723038
140	0x3b0dd2ea	0.0021640607
141	0x3a989d81	0.001164362
142	0x3b2ddc6e	0.0026529091
143	0x3b16b7c6	0.002299772
144	0xbc3273e9	-0.010891893
145	0x3b5ef14a	0.0034018331
146	0x3a9502ec	0.0011368669
147	0xbba1e286	-0.004940334
148	0xbb8d9526	-0.0043207584
149	0x3c02b4fe	0.007977722
150	0xbb4b88e3	-0.0031056933
151	0x3b4f5c41	0.003164068
152	0xbb411216	-0.0029460243
153	0xbb3324c2	-0.0027335142
154	0x3b7357a8	0.0037131105
155	0x3aa37e26	0.0012473508
156	0x3afe1349	0.001938441
157	0x3b9e7011	0.0048351367
158	0xbbc3f03c	-0.005979566
159	0x3ac34fb5	0.0014901074
160	0x3c1912e4	0.009342883
161	0x3bca2d93	0.0061699837
162	0xbc01e0e3	-0.007927152
163	0xbb0b1cbb	-0.0021226841
164	0x3b4a14c5	0.0030835134
165	0xbbaa070e	-0.0051888293
166	0xbb5e8682	-0.0033954685
167	0x3baa7d9c	0.005202962
168	0xbb33be3a	-0.0027426616
169	0x3c06d5a9	0.0082296515
170	0x3ae643c4	0.0017567803
171	0xbb7d5da3	-0.0038660548
172	0xb9f8b55e	-0.00047437375
173	0xbb693f76	-0.0035590804
174	0xbb9c6dc4	-0.0047738273
175	0x3c0a5f1b	0.0084455265
176	0x3b0e988e	0.002175841
177	0x3b59f8e6	0.0033259927
178	0x3a81f859	0.0009915932
179	0x3c1c65f4	0.009545792
180	0xbb9e6b2f	-0.0048345546
181	0x3a6ca9b5	0.0009027974
182	0x3bcb2bdb	0.0062002963
183	0x3c27139a	0.0101975445
184	0xbbd14857	-0.0063867974
185	0xbbbe1941	-0.0058013503
186	0xbc911646	-0.017710816
187	0xbadf2bc1	-0.001702659
188	0xba38ea00	-0.00070539117
189	0xba5752d8	-0.0008213944
190	0x3b2db3c5	0.0026504856
191	0xbbebf83a	-0.007201222
