gru_classifier_weights/llama-3-70b_a100_tp8.pt (torch, 491597 bytes, 22 tensors)

in_norm.weight f4 [10]
000000 d2 27 82 3f 86 e4 83 3f 67 1a 7f 3f 8f a8 81 3f
       1.0168402 1.0304115 0.9964966 1.0129565
000010 9b ef 82 3f be 76 81 3f e0 d3 80 3f 08 26 84 3f
       1.0229372 1.0114362 1.0064659 1.0324106
000020 d5 0c 81 3f ef ae 80 3f
       1.0082041 1.0053385

in_norm.bias f4 [10]
000000 ea a9 c7 3b b4 98 f9 bb 84 a1 9b 3c 9f 73 8b 3b
       0.0060932534 -0.0076170806 0.018997915 0.0042557265
000010 3c 09 87 bb e6 6d 42 3a d4 20 a0 3a 21 43 b6 3b
       -0.004120974 0.0007416889 0.0012216815 0.0055622016
000020 f0 83 f4 3b a0 14 f4 ba
       0.0074620172 -0.0018621869

gru.weight_ih_l0 f4 [192, 10]
000000 d3 96 5f 3d b4 11 f3 3d 6a cd 51 3d dc ac 33 be
       0.054587197 0.11868611 0.05122129 -0.1754641
000010 d6 8a 56 3e c3 53 40 3e 09 31 6f be 8a e1 0e be
       0.20951399 0.18781953 -0.23358549 -0.13953224
000020 56 ce 21 3e 56 94 4e 3e 2a ee 66 be 9f 5f 91 3d
       0.15801367 0.20173773 -0.2255179 0.070983164
000030 ae 02 37 3e 1f 60 b1 3d c4 55 42 3e 29 f7 ba 3d
       0.17872116 0.08660912 0.1897803 0.09129173
000040 41 1e 90 bd cd b8 60 3e 79 95 6d 3e 4f 36 70 3e
       -0.070370205 0.21945496 0.2320155 0.23458217
000050 f0 51 d2 bd 6e 3e 85 bd 73 ce 2f be b6 d2 01 3e
       -0.102695346 -0.06506048 -0.17168598 0.12678036
000060 30 f1 70 be 1e 09 79 be e3 b8 90 3d 33 43 ae 3d
       -0.23529506 -0.24319884 0.07066514 0.08508911
000070 cf e9 6d 3e 2f 1a 56 bd 78 8c 68 bd 5c 98 02 3e
       0.23233722 -0.052271064 -0.056774586 0.12753433
000080 48 70 af 3d 7c 75 e2 bd 50 0d 21 3e d7 ba 31 be
       0.08566338 -0.110575646 0.15727735 -0.1735643
000090 8b 2c b8 bd fe 79 f0 3d 81 40 9a bd 46 65 42 3e
       -0.08992871 0.11742018 -0.075318344 0.18983945
0000a0 ab 66 4c be dd 9c 5d be 53 ca 84 3d 7f b9 7e 3e
       -0.1996104 -0.2164187 0.06483903 0.24875449
0000b0 5f e1 45 3e 58 1e eb 3d be a5 dd bd 19 3e 56 bd
       0.19324253 0.11480397 -0.108226284 -0.052305315
0000c0 84 c2 5d 3e ce 8b fa bd 9f ed ad 3d 7f e6 74 be
       0.21656233 -0.12233697 0.08492588 -0.23916052
0000d0 d9 62 5d 3e 99 27 53 bd c2 be 16 be 39 8e 9f 3c
       0.21619739 -0.051551435 -0.14721206 0.019476997
0000e0 3f 40 00 be 7b 22 10 be f3 1d 8e bc 4e 53 99 3d
       -0.12524508 -0.14075653 -0.017348265 0.07486592
0000f0 fe 56 8a 3d ad af d1 3d 77 82 31 3e 3c 7d 6f 3e
       0.06754874 0.102385856 0.17334925 0.23387617
000100 7c 31 f6 bc 41 0b c1 bd 1b 6a b6 3c fd 89 51 bc
       -0.030052893 -0.09425975 0.022267392 -0.012789247
000110 19 2c 94 3c fe 9d ab 3d e6 be 43 bd 25 5a a0 bc
       0.018087434 0.08379744 -0.047789477 -0.019574234
000120 51 2f 9d 3d 03 b5 f2 bd 88 3a 6c 3e e6 e5 6c be
       0.076750405 -0.118509315 0.23069203 -0.23134574
000130 23 2c 01 be 75 78 c4 3d a5 5e bc 3d 57 45 b2 bd
       -0.12614493 0.09593288 0.091977395 -0.08704632
000140 da b9 4c 3e 34 f5 da 3d 6a 45 5e be 87 34 07 be
       0.19992772 0.106913 -0.21706167 -0.13203631
000150 54 9d 3a 3c 7f 9f 1d be fa 44 5c be 55 c7 25 bd
       0.011390049 -0.15392874 -0.21510687 -0.0404733
000160 a5 1c 5b 3d 6f d4 6c be d6 bc 31 be 10 6d 5b 3d
       0.053494114 -0.23127912 -0.17357191 0.053570807
000170 e0 21 97 bd 74 76 17 be 8c 7f 26 be 61 45 f6 3d
       -0.07379508 -0.1479128 -0.16259593 0.12024952
000180 33 e0 49 3e 21 fd c7 3d cd 58 5d bd 7e 0e a6 bd
       0.19714431 0.097650774 -0.054039765 -0.08108233
000190 2e c6 97 bd fb 2c ce bc 36 a5 09 be a3 75 6b be
       -0.07410847 -0.025167933 -0.13441929 -0.22994094
0001a0 86 db 52 3e 57 d7 58 be 09 e3 30 be 79 fb 95 bc
       0.20591554 -0.21175896 -0.17274107 -0.018308388
0001b0 9c 6b c6 bd cb ed 56 bd b3 2c 1f 3e f3 3c 16 3e
       -0.096884936 -0.05247287 0.15544395 0.14671688
0001c0 c5 7f 1a be 46 84 38 be 3b ae e7 bd b2 8a 1b 3d
       -0.15087803 -0.18019208 -0.11312529 0.037974067
0001d0 ab 8f 4e bd 93 71 4d be 83 49 25 bd 1b 93 24 3e
       -0.05042998 -0.20062856 -0.04035331 0.16071741
0001e0 58 75 3e be 36 89 bd 3b eb a9 40 3e 04 3b 04 3c
       -0.1859945 0.005784179 0.18814819 0.008070711
0001f0 f7 9a 5c be 7a 6b 3b be c6 66 15 3e 34 26 56 3e
       -0.2154349 -0.18302718 0.14589986 0.20913011
000200 98 92 72 3d 54 1f d6 3d ac 4c 51 3e 46 a8 fa 3d
       0.059221834 0.10455194 0.20439404 0.12239127
000210 72 b3 2a be 17 ce 43 be 26 54 2f 3e 8f a8 85 be
       -0.16670015 -0.19121586 0.17121944 -0.26105163
000220 ce 03 61 be 42 ea 6e be 2f ea 94 bd 63 cc 8a 3d
       -0.21974108 -0.2333155 -0.072712295 0.06777265
000230 2e ba 19 bd b1 dc 48 be ee 61 10 3d 8f cb 46 3e
       -0.03753107 -0.19615437 0.035249643 0.19413589
000240 bd 25 12 be 9b 81 30 bd 5f b7 d3 bd 93 2d 64 be
       -0.14272209 -0.04309235 -0.1033771 -0.2228301
000250 98 9f ea 3d 1f d7 a4 3d 67 55 78 bb c3 7c 38 be
       0.11456221 0.080488436 -0.00378927 -0.18016343
000260 1c ab 5c be 99 d0 18 3e 90 44 55 bd a0 62 5a be
       -0.21549648 0.14923324 -0.05206734 -0.21326685
000270 2e 50 5e 3e db 62 e0 bd a3 63 59 3e cf f4 09 3d
       0.21710274 -0.10956355 0.21229415 0.033680733
000280 91 17 55 be 00 9a 53 3e f9 8a 2d 3e c1 b5 e4 bc
       -0.20809771 0.20664215 0.16947545 -0.027918698
000290 d5 aa 44 3d eb ff 9e 3d 6c 60 ad bd d6 8b 46 3e
       0.04801448 0.07763656 -0.08465657 0.1938928
0002a0 10 84 1a 3e 12 81 65 3e c7 f8 60 bd d3 b7 14 be
       0.1508944 0.22412518 -0.054924753 -0.14523248
0002b0 3a 95 11 3e 26 e2 16 3e 9d 81 48 bd ad 3d 58 3d
       0.14217082 0.14734706 -0.048951734 0.052793194
0002c0 38 aa d1 bd 4e c6 29 bc 33 ef 85 be 2a c1 ff bb
       -0.10237545 -0.010362221 -0.26159057 -0.0078050094
0002d0 80 da 98 3c 0a fe 0d 3e 1a 8a 7d 3d c3 16 73 be
       0.018658876 0.1386644 0.061899282 -0.23739152
0002e0 ad 62 28 3e 08 8b 00 3d d2 2d 63 be b8 de 11 be
       0.16443892 0.03138259 -0.22185448 -0.14245117
0002f0 2a 2c 37 bc 2f 7c 3d be c1 30 a6 3d a0 59 33 3e
       -0.011179963 -0.18504404 0.08114768 0.17514658
000300 6d c3 44 3d b0 d3 93 3d b0 f5 6f be 40 f0 61 3e
       0.048037935 0.072181106 -0.23433566 0.22064304
000310 38 c4 33 be 36 83 00 3d 5a f9 40 3e 63 1e 63 be
       -0.1755532 0.031375133 0.1884512 -0.2217956
000320 ac 1d 19 3e c2 cb 27 3d 71 2a 01 3d b5 cd a2 bd
       0.14952725 0.040965803 0.031534616 -0.07949392
000330 17 be 3d be 3b 40 49 be 81 0d 46 bd b6 fa 50 be
       -0.18529545 -0.19653408 -0.048352722 -0.20408139
000340 34 34 d3 bc f4 2c 34 bd fd b5 80 bd fe e8 ef bd
       -0.025781728 -0.043988183 -0.062847115 -0.117143616
000350 05 69 03 3e 7d cb 1b be 52 00 ea bc 88 3d 8d bc
       0.1283303 -0.15214343 -0.028564606 -0.017241254
000360 eb 6f be 3d 4f 89 69 be d7 9b d5 bc 7f 97 24 be
       0.092986904 -0.22806285 -0.026075287 -0.16073416
000370 33 f5 0c be 22 c8 30 3e 3c d1 64 bc 46 24 15 3e
       -0.13765411 0.17263845 -0.013965901 0.14564618
000380 dc 74 01 be 21 7a 75 3e ad 03 75 3d ef 5b 2c 3e
       -0.12642235 0.2397237 0.05981796 0.16831945
000390 fd 0d dc 3d 1d 1d 49 3d 4d 6f 5e be c2 43 48 3d
       0.107448556 0.04910003 -0.21722145 0.048892744
0003a0 aa 10 81 bd 1a e2 dc 3d 49 99 b3 3d cb eb 09 be
       -0.063020065 0.10785313 0.08769471 -0.13468854
0003b0 44 41 3b 3e 7f 39 11 be 07 3e 4f be e2 11 63 bd
       0.18286616 -0.1418209 -0.20238505 -0.055436976
0003c0 e4 03 08 3e 0d 94 a3 3d b7 f1 15 be b3 6a c0 3d
       0.13282734 0.07987223 -0.14642988 0.09395351
0003d0 e5 3b 66 be ad 82 65 3d fc 16 57 be 75 02 42 3d
       -0.22483785 0.056032825 -0.21004862 0.047365624
0003e0 09 35 81 be b8 6b 1a be aa 54 5c be 93 7e 0f 3e
       -0.25235775 -0.15080154 -0.21516672 0.14013128
0003f0 be a5 ea 3b 40 1e 58 3e 87 c4 5a 3e b1 47 06 3d
       0.0071608713 0.2110529 0.21364032 0.032783214

gru.weight_hh_l0 f4 [192, 64]
000000 41 3f 2e bd c2 2c fc 3d 27 6f ba bd c2 88 e3 3c
       -0.042540792 0.123132244 -0.09103232 0.027775172
000010 cb 1b 71 bd 04 70 77 3d 17 61 8e bd 22 d1 40 3d
       -0.058864396 0.06040956 -0.06952112 0.047074445
000020 a0 8e 2e bd d7 cd 28 bd 47 c0 54 bd fc 67 0a be
       -0.042616487 -0.04121193 -0.051941182 -0.1351623
000030 f9 8a 3b 3c 7e fa 2f bd 7a 64 2d bd a4 33 75 bd
       0.011446708 -0.042963497 -0.04233215 -0.0598637
000040 11 e4 3a 3d 30 c4 7e bd 71 06 ea 3d 7e 8d 98 bd
       0.045627657 -0.062198818 0.1142701 -0.074488625
000050 5c 29 bc 3d a0 e7 94 3c f6 07 39 bc 23 1d 65 bc
       0.09187576 0.018176854 -0.011293402 -0.0139839975
000060 2c 67 a2 bc 98 f2 60 3b aa 89 b7 bc 2a f3 ec bd
       -0.019824587 0.0034324285 -0.02240451 -0.11569817
000070 6c 15 fd 3c 01 6f a3 bc 0e 6b 25 bc e7 08 c1 bc
       0.030894004 -0.019950392 -0.010096325 -0.023563815
000080 4c 6d 12 bd cc 4b 71 3c d6 9b ae 3d e8 b3 81 bd
       -0.035748765 0.014727544 0.08525817 -0.063331425
000090 e5 8b 57 bd 12 98 b2 bd 95 35 d9 bd c8 27 91 3d
       -0.05262365 -0.08720411 -0.10605923 0.07087666
0000a0 e7 18 a6 bd 65 ba 31 3c bd d5 72 3d 2a 79 ac bb
       -0.081102185 0.010847663 0.059285868 -0.0052634673
0000b0 c6 af 9b 3d ac b5 3e bd 72 66 21 bc f0 2a 22 bd
       0.076018855 -0.046559975 -0.009851085 -0.03959173
0000c0 a5 2c 90 bb 74 3e 7c bd 56 af 9f bd 19 1c 1f bd
       -0.0043998533 -0.061582997 -0.077971146 -0.038845155
0000d0 a0 83 d1 bd 5f 10 e3 3d bf 3c 92 bd 2b 4b e9 3d
       -0.102301836 0.11087107 -0.07140493 0.1139129
0000e0 b7 56 47 3b a4 7f dc bd d2 a5 6d 3e 77 92 b4 3d
       0.0030416676 -0.10766533 0.23207787 0.088169985
0000f0 8e a6 b9 3d 65 ea ac bd 15 84 f2 3b 47 eb 57 bd
       0.09064971 -0.08443145 0.0074009993 -0.052714612
000100 63 58 ed bd 32 3d 8a 3d e0 a9 a8 3d 29 95 29 3d
       -0.11589124 0.06749953 0.08235526 0.041402016
000110 97 ee 8e bd 71 e3 ce bd 4b cc ff bb 51 51 9c 3d
       -0.06979101 -0.10101975 -0.007806336 0.076326974
000120 54 90 28 3b 6a 15 16 bc 98 4e d6 3d 51 bc 15 bd
       0.0025720792 -0.009160379 0.10464209 -0.036556546
000130 45 92 8e bd 23 91 21 3c 7f 14 47 bd d1 dd 71 3d
       -0.069614924 0.009861263 -0.04860353 0.05904943
000140 5e 08 80 3a 67 7d cc 3d 96 24 9d bd 9b 73 26 3d
       0.0009768119 0.09984856 -0.07672994 0.040637594
000150 b5 28 3d 3d 53 d3 1d 3e 06 f6 1d 3e 95 24 b1 3d
       0.0461814 0.15412645 0.15425882 0.086495556
000160 c8 b4 e3 3c 17 fb 56 3d bb 1f 9c 3d 2c d4 61 3c
       0.027796164 0.05248555 0.076232396 0.013783496
000170 ca bb 6e 3d 03 32 03 be c8 8a 9d bd 35 69 a9 bd
       0.05828456 -0.12812047 -0.07692486 -0.0827202
000180 5f b1 be 3d c2 64 de 3b 26 e9 f4 3d c5 a3 72 3c
       0.093111746 0.0067869136 0.11958532 0.0148095535
000190 74 a8 b7 bd b9 35 5a bd d8 99 47 bd 37 e8 4e be
       -0.08967677 -0.05327389 -0.0487307 -0.2020577
0001a0 c6 56 77 bd 2b 65 a7 bd 39 6f b6 3d b7 ac ca 3d
       -0.060385488 -0.08173593 0.08907933 0.09896224
0001b0 c8 f0 42 bd 51 db 21 bd 59 6c e1 bd 85 ef 7a 3c
       -0.04759291 -0.039515797 -0.11006994 0.015315895
0001c0 61 44 c4 3d a8 a7 c1 3d 54 cd 98 3d 8a 65 09 be
       0.09583355 0.09455806 0.07461038 -0.1341764
0001d0 e3 a5 8a bd 9b 62 22 bb f8 c3 cb 3d e6 c3 3d bd
       -0.06769922 -0.0024778012 0.099494874 -0.0463294
0001e0 7b 40 14 bd 40 6e 06 3d 11 a3 5a bc c0 d1 05 be
       -0.036194306 0.032819986 -0.013344542 -0.13068295
0001f0 69 b3 e1 bd 47 09 14 3e d7 37 21 bd 7f 28 76 3c
       -0.11020548 0.14456664 -0.039359894 0.015024303
000200 e9 ed 0e bc 47 50 f9 bd c8 32 09 bc 11 58 49 3e
       -0.008723714 -0.12173515 -0.008373924 0.19662501
000210 71 14 56 bd 06 00 d9 3d 12 1c dd 3c 10 5e be bd
       -0.05226559 0.105957076 0.026990924 -0.09295285
000220 69 46 03 3d d5 d1 9a bc 86 3e 79 3d 2c 92 24 3d
       0.03204957 -0.018898884 0.060850643 0.040178463
000230 12 c1 06 bd bd 52 54 bd 59 d0 42 3d 2c 59 4c bc
       -0.03289897 -0.051836718 0.047561977 -0.012472432
000240 db aa 09 bd a9 9c 85 3d ae 3a a5 3c 21 8d 16 3d
       -0.033610206 0.06524021 0.020169582 0.036755685
000250 67 96 81 3d 74 36 d4 3c 03 73 10 3d 92 b9 94 bb
       0.06327515 0.025904872 0.035265934 -0.0045387233
000260 3c 9e 86 bd c0 a5 2e 3e 5f 53 cb 3d ac 43 01 be
       -0.065731496 0.17055416 0.09928011 -0.12623471
000270 82 e3 17 3c 88 2c bf bd b6 26 e2 3c 84 6d 08 be
       0.009270551 -0.093346655 0.02760635 -0.13323027
000280 48 79 1d 3d 29 8d 67 3d 51 47 e4 bd a3 4c 8f bd
       0.03844574 0.056531105 -0.11146415 -0.06997039
000290 8f 64 33 bd b5 2b 1f bd a6 7c a3 bd 4f 7f 13 be
       -0.043797072 -0.03886004 -0.07982759 -0.14404033
0002a0 13 6b 11 bd 8e f2 c2 3c 82 65 db 3c 35 3e 66 bc
       -0.035502505 0.0237973 0.026781801 -0.014052917
0002b0 e2 d2 b2 bc 6d 6f 27 be 5b ba e8 3b fe 39 45 be
       -0.021829072 -0.163511 0.0071022934 -0.19260404
0002c0 79 f3 c6 bd 54 f3 1e be 6b 9b a5 bc 6a ed 03 be
       -0.097144075 -0.1552251 -0.02021571 -0.12883535
0002d0 88 a7 0f bd 8d e3 75 3d 34 9f 85 bd 47 d0 8e 3c
       -0.03507188 0.060031462 -0.06524506 0.017433299
0002e0 e8 55 42 3d ad 0f e0 3b cf 92 aa bd 69 34 ec 3c
       0.047445208 0.006837806 -0.08328783 0.028833585
0002f0 8e 00 19 3d 03 b8 f3 3c 36 9f 52 bd 5f a1 58 bd
       0.037354045 0.02975083 -0.051421367 -0.05288827
000300 e5 2c 20 bd 05 cc 18 be 36 46 00 3d 49 02 fd 3b
       -0.039105315 -0.14921577 0.03131696 0.0077212197
000310 96 b5 08 be a8 b9 18 3d 74 44 1f 3d 2d ab 38 3e
       -0.1335052 0.03728643 0.03888364 0.18034048
000320 b1 a4 da 3d 41 86 40 be 0e ba 63 3c 9a d0 7a bd
       0.10675944 -0.18801214 0.013899339 -0.061234094
000330 99 e3 6b bd 2b d6 ba 3b 5a fc 14 be 04 43 e4 bd
       -0.0575901 0.0057018003 -0.1454939 -0.11145595
000340 77 2c 67 bd f6 10 e1 3d 54 54 16 bd 5c af 74 3c
       -0.05643889 0.10989563 -0.036701515 0.014934387
000350 88 88 5f 3d 23 98 25 bd ad f1 73 3d c9 d8 36 3c
       0.054573566 -0.040428292 0.05955665 0.011160084
000360 f1 70 a7 bd d7 7d 8b bc f0 2a fb 3d 85 4a 1e 3e
       -0.08175839 -0.017027779 0.12264049 0.15458114
000370 da 5a d7 3b 89 a3 40 3e bc 2a 00 3c b5 f0 c9 bc
       0.0065721096 0.18812384 0.007822689 -0.02465091
000380 63 eb 1a 3e 1c 2e d4 3d 0c 3c a2 3d d1 68 7a bd
       0.15128855 0.10360357 0.07921609 -0.061135117
000390 7f 16 00 3e ee 8a 8a bd d4 6b d6 3c 8c 69 3a bd
       0.12508582 -0.0676478 0.026174463 -0.045510814
0003a0 50 aa b9 3c 36 29 df 3c bc c5 dc bc be 9e b5 bc
       0.02266422 0.02724133 -0.026949756 -0.02217042
0003b0 d3 4a 11 bd 2c 50 33 3d 6a 22 4d 3c 37 65 85 bc
       -0.03547175 0.04377763 0.012520412 -0.016283615
0003c0 43 78 70 3d d4 d0 ae bd 97 3b 27 3d 2c dc 88 bd
       0.05870844 -0.085359246 0.040828314 -0.066826195
0003d0 28 1f b7 3d c9 55 d1 3d 22 66 64 bd a9 e9 9a bd
       0.089414895 0.1022144 -0.055761464 -0.075640984
0003e0 c0 06 7a bc 40 0b 0c bd 4c f4 87 3c 9c 27 21 bc
       -0.015260398 -0.034190416 0.016595982 -0.009836104
0003f0 52 d4 55 bc 7b 4a 0d bd 60 1d 1a 3d dd d7 0d 3d
       -0.013051109 -0.03449486 0.03762567 0.03462969

gru.bias_ih_l0 f4 [192]
000000 1c 22 b0 3a e2 f5 de bb 16 7a d6 3b 83 13 3a 3c
       0.00134379 -0.006804214 0.0065453155 0.011357191
000010 30 7e 39 3c 56 d7 e8 3b e5 0a 48 3c 63 9f af ba
       0.011321589 0.007105748 0.012209629 -0.0013398941
000020 84 a2 b7 3c 53 67 82 bb 36 53 59 3b 84 8c 55 3b
       0.02241636 -0.0039796024 0.003316117 0.0032584975
000030 2f 63 3d bb d3 23 22 bb d4 a6 d4 bb 1c fa 38 b9
       -0.002889823 -0.0024740591 -0.006489614 -0.0001764078
000040 6e 89 34 3c 9e 6c 30 3c 46 a9 2c 3c 5e 0d 88 bb
       0.011019094 0.010768084 0.010538405 -0.004151984
000050 75 4a 94 3c 25 0f 09 3c f8 a6 8e 3a 5d 29 d6 bb
       0.01810191 0.008365427 0.0010883501 -0.0065356926
000060 a1 ac 5d 3b a3 19 37 bb 88 1d 43 3b 44 76 0b 3c
       0.0033824819 -0.0027938865 0.002977224 0.008512083
000070 9d 8b f1 3b be f2 2b 3b 8a dd 22 bc a1 19 13 39
       0.0073713795 0.0026237215 -0.009940514 0.0001402856
000080 e4 ab 23 3c 93 12 b4 bb 1d 62 9e 3c 46 26 f0 3b
       0.009989712 -0.0054953783 0.019333893 0.0073287813
000090 62 73 72 3b fe d1 c2 3b 86 66 30 3c d3 11 5f 3c
       0.0036995043 0.005945443 0.010766631 0.0136150895
0000a0 8a 5b 04 3c 5f 51 36 3c c3 85 91 bc bc de d8 bb
       0.008078465 0.011127799 -0.017763978 -0.006618349
0000b0 be fb 1f 3c 70 5c 7d 3a 92 24 c2 bb bf 6f 8a 3b
       0.00976461 0.00096649583 -0.0059247697 0.004224747
0000c0 21 c0 6a 3c 8e 8d 9b 3c aa d6 45 3b 28 f0 d3 bc
       0.014328034 0.018988397 0.0030187764 -0.025871351
0000d0 f7 e7 b1 bb 5d e0 bd 3b 5b a8 ee 3b 73 6a 9b bb
       -0.0054292637 0.0057945685 0.007283253 -0.0047429143
0000e0 34 65 c4 3b 93 09 06 3c 4e db 5f 3b cf ff 16 3c
       0.0059935097 0.008180994 0.0034157815 0.009216263
0000f0 74 94 c0 3c db ef 2c 3c 6c bf 1c bc d6 03 eb 3b
       0.023508288 0.010555233 -0.009567123 0.007172088
000100 c9 d8 c4 3c 0c b5 9a 3c 66 73 c3 3c 5d 8f 0f 3d
       0.024029152 0.018885158 0.023858737 0.03504883
000110 fb e7 8e 3c 3c 60 03 3d 27 d6 59 3d f8 96 f3 3c
       0.017444601 0.032074198 0.053182747 0.029735073
000120 b7 02 14 3c dd 61 fc bc 83 14 a2 bc 2f 81 54 3c
       0.00903385 -0.030808384 -0.019785171 0.012970253
000130 82 6d ef 3c bd 85 30 3c d6 07 a5 3c 88 e4 b9 3c
       0.029227022 0.010774073 0.020145338 0.02269198
000140 01 e4 cd bc b3 df cb bc 14 c8 e3 3c 98 e9 00 bd
       -0.025133135 -0.024886942 0.027805366 -0.031472772
000150 d6 31 27 3d 73 89 06 bc 55 e3 4d 3c fa 3f 4f bc
       0.04081901 -0.008211481 0.012566407 -0.012649531
000160 21 f3 8f 3c 15 3e 22 bc d1 1c f8 3a 69 de 35 3d
       0.017571988 -0.009902497 0.0018929486 0.04440156
000170 3e 4e 3b 3c aa f4 ee bc 53 f3 e2 3c 2e a3 2e 3d
       0.011432229 -0.0291694 0.027703917 0.04263609
000180 38 74 73 bb e9 a8 c6 3c f7 4a ea ba b6 71 c6 bc
       -0.003714813 0.024250465 -0.0017875124 -0.024224143
000190 bd 14 e1 3c 55 be 35 3c 46 ea 5c bc 62 02 24 3d
       0.02747571 0.011092742 -0.0134835895 0.040041335
0001a0 02 f0 69 bb b4 cb 16 3d c8 46 23 bc c6 dd 15 3d
       -0.0035696034 0.03681536 -0.009965606 0.036588453
0001b0 58 ec a5 3c 86 05 90 bc c2 21 cc bc 84 29 46 bb
       0.020254299 -0.017580759 -0.02491844 -0.0030237148
0001c0 34 ab 54 3c 80 57 22 3b ff f1 32 3b 44 36 e5 3c
       0.012980271 0.0024771392 0.0027304885 0.027979977
0001d0 e8 09 1e 3d 7d 15 07 bc cc 0f 1f 3b a1 51 10 bb
       0.038583666 -0.008244869 0.002427089 -0.002202131
0001e0 72 50 66 bb 5d f6 ed 3c 32 b8 34 3d c4 bf 10 3d
       -0.0035143164 0.02904814 0.044120975 0.035339132
0001f0 60 11 72 3b 93 6d f0 bc dd 4e 04 3c 03 ef 04 3c
       0.0036936626 -0.029349124 0.008075443 0.008113625
000200 e2 e4 4e 3b 55 41 2d bb ed b0 bb 3b 31 11 93 3b
       0.003156953 -0.0026436646 0.0057278783 0.0044881334
000210 27 b4 3b bb 40 1b e4 3b 63 9d d7 bb 0b c2 f6 3b
       -0.0028641315 0.0069612563 -0.0065800413 0.007530456
000220 9f 8b 6b 3b 68 4a a2 3a 49 46 8f 3b 30 4a 15 bc
       0.0035941375 0.0012381794 0.0043723923 -0.009111926
000230 ae 9a bd ba 87 88 bc 3b 26 3a e8 3b ba 29 67 3c
       -0.0014465654 0.00575358 0.00708701 0.0141090695
000240 e1 52 a9 3b e9 3f cd 3b 59 c8 e6 bb 0e 79 31 bc
       0.0051673506 0.006263722 -0.0070429263 -0.010832084
000250 75 22 96 bc d8 ef f7 bb 45 41 49 bc 61 40 64 3a
       -0.018326977 -0.0075664334 -0.012283628 0.0008707103
000260 b1 51 94 bb ac 3b 27 bc 5e 1a 33 bc 86 64 bf bb
       -0.00452634 -0.010207098 -0.010931579 -0.0058408407
000270 c9 bc 8b 3b ee 85 ff bb be 50 91 3c 91 75 77 bc
       0.0042644483 -0.007797948 0.017738696 -0.015103714
000280 8c b0 dc bb 0c d9 ec bb 1e a6 99 bb 56 01 2c 3c
       -0.006734913 -0.0072280224 -0.004688992 0.010498365
000290 f0 49 3b ba 63 e4 06 bc 02 33 2a bc db 55 7d bb
       -0.00071445014 -0.008233163 -0.010388138 -0.003865591
0002a0 f8 1b ab bb 7d 22 af 3b e0 04 b8 3b f2 36 ad 3b
       -0.00522184 0.0053446875 0.0056158155 0.005286091
0002b0 1c dd 54 3b ec 37 41 3b cd 01 66 3b 58 e0 12 3c
       0.0032480424 0.0029482795 0.0035096288 0.0089646205
0002c0 1f f9 74 3b 7e 71 8a 3c 61 39 f6 b9 c7 9c a2 bb
       0.0037379933 0.01689982 -0.00046963527 -0.004962537
0002d0 c2 6d 0c bb a6 73 78 3b 4b 2c 0f bc ec e9 a2 ba
       -0.0021427725 0.0037910729 -0.008738588 -0.0012429333
0002e0 a0 dd 14 bc d2 c4 6b 3c 66 12 ae 39 48 fb 7f bb
       -0.009086043 0.014390187 0.00033201574 -0.0039059687
0002f0 0b 32 ec bb 41 41 c5 3b 63 b4 28 3b f1 3f 16 bb
       -0.007208114 0.0060197418 0.0025742284 -0.0022926296

gru.bias_hh_l0 f4 [192]
000000 1c 22 b0 3a e2 f5 de bb 16 7a d6 3b 83 13 3a 3c
       0.00134379 -0.006804214 0.0065453155 0.011357191
000010 30 7e 39 3c 56 d7 e8 3b e5 0a 48 3c 63 9f af ba
       0.011321589 0.007105748 0.012209629 -0.0013398941
000020 84 a2 b7 3c 53 67 82 bb 36 53 59 3b 84 8c 55 3b
       0.02241636 -0.0039796024 0.003316117 0.0032584975
000030 2f 63 3d bb d3 23 22 bb d4 a6 d4 bb 1c fa 38 b9
       -0.002889823 -0.0024740591 -0.006489614 -0.0001764078
000040 6e 89 34 3c 9e 6c 30 3c 46 a9 2c 3c 5e 0d 88 bb
       0.011019094 0.010768084 0.010538405 -0.004151984
000050 75 4a 94 3c 25 0f 09 3c f8 a6 8e 3a 5d 29 d6 bb
       0.01810191 0.008365427 0.0010883501 -0.0065356926
000060 a1 ac 5d 3b a3 19 37 bb 88 1d 43 3b 44 76 0b 3c
       0.0033824819 -0.0027938865 0.002977224 0.008512083
000070 9d 8b f1 3b be f2 2b 3b 8a dd 22 bc a1 19 13 39
       0.0073713795 0.0026237215 -0.009940514 0.0001402856
000080 e4 ab 23 3c 93 12 b4 bb 1d 62 9e 3c 46 26 f0 3b
       0.009989712 -0.0054953783 0.019333893 0.0073287813
000090 62 73 72 3b fe d1 c2 3b 86 66 30 3c d3 11 5f 3c
       0.0036995043 0.005945443 0.010766631 0.0136150895
0000a0 8a 5b 04 3c 5f 51 36 3c c3 85 91 bc bc de d8 bb
       0.008078465 0.011127799 -0.017763978 -0.006618349
0000b0 be fb 1f 3c 70 5c 7d 3a 92 24 c2 bb bf 6f 8a 3b
       0.00976461 0.00096649583 -0.0059247697 0.004224747
0000c0 21 c0 6a 3c 8e 8d 9b 3c aa d6 45 3b 28 f0 d3 bc
       0.014328034 0.018988397 0.0030187764 -0.025871351
0000d0 f7 e7 b1 bb 5d e0 bd 3b 5b a8 ee 3b 73 6a 9b bb
       -0.0054292637 0.0057945685 0.007283253 -0.0047429143
0000e0 34 65 c4 3b 93 09 06 3c 4e db 5f 3b cf ff 16 3c
       0.0059935097 0.008180994 0.0034157815 0.009216263
0000f0 74 94 c0 3c db ef 2c 3c 6c bf 1c bc d6 03 eb 3b
       0.023508288 0.010555233 -0.009567123 0.007172088
000100 c9 d8 c4 3c 0c b5 9a 3c 66 73 c3 3c 5d 8f 0f 3d
       0.024029152 0.018885158 0.023858737 0.03504883
000110 fb e7 8e 3c 3c 60 03 3d 27 d6 59 3d f8 96 f3 3c
       0.017444601 0.032074198 0.053182747 0.029735073
000120 b7 02 14 3c dd 61 fc bc 83 14 a2 bc 2f 81 54 3c
       0.00903385 -0.030808384 -0.019785171 0.012970253
000130 82 6d ef 3c bd 85 30 3c d6 07 a5 3c 88 e4 b9 3c
       0.029227022 0.010774073 0.020145338 0.02269198
000140 01 e4 cd bc b3 df cb bc 14 c8 e3 3c 98 e9 00 bd
       -0.025133135 -0.024886942 0.027805366 -0.031472772
000150 d6 31 27 3d 73 89 06 bc 55 e3 4d 3c fa 3f 4f bc
       0.04081901 -0.008211481 0.012566407 -0.012649531
000160 21 f3 8f 3c 15 3e 22 bc d1 1c f8 3a 69 de 35 3d
       0.017571988 -0.009902497 0.0018929486 0.04440156
000170 3e 4e 3b 3c aa f4 ee bc 53 f3 e2 3c 2e a3 2e 3d
       0.011432229 -0.0291694 0.027703917 0.04263609
000180 38 74 73 bb e9 a8 c6 3c f7 4a ea ba b6 71 c6 bc
       -0.003714813 0.024250465 -0.0017875124 -0.024224143
000190 bd 14 e1 3c 55 be 35 3c 46 ea 5c bc 62 02 24 3d
       0.02747571 0.011092742 -0.0134835895 0.040041335
0001a0 02 f0 69 bb b4 cb 16 3d c8 46 23 bc c6 dd 15 3d
       -0.0035696034 0.03681536 -0.009965606 0.036588453
0001b0 58 ec a5 3c 86 05 90 bc c2 21 cc bc 84 29 46 bb
       0.020254299 -0.017580759 -0.02491844 -0.0030237148
0001c0 34 ab 54 3c 80 57 22 3b ff f1 32 3b 44 36 e5 3c
       0.012980271 0.0024771392 0.0027304885 0.027979977
0001d0 e8 09 1e 3d 7d 15 07 bc cc 0f 1f 3b a1 51 10 bb
       0.038583666 -0.008244869 0.002427089 -0.002202131
0001e0 72 50 66 bb 5d f6 ed 3c 32 b8 34 3d c4 bf 10 3d
       -0.0035143164 0.02904814 0.044120975 0.035339132
0001f0 60 11 72 3b 93 6d f0 bc dd 4e 04 3c 03 ef 04 3c
       0.0036936626 -0.029349124 0.008075443 0.008113625
000200 c9 7e 1b 3b 7e 5e 91 bb 38 a2 a6 3b 1c d7 d4 3a
       0.0023726693 -0.004436313 0.005085256 0.0016238424
000210 78 aa 5c ba 29 48 e9 3b 0a ce f4 bb 1b aa 07 3c
       -0.0008417736 0.007119198 -0.007470851 0.008280302
000220 1a 00 b8 3b 4a c1 49 ba ee d4 9d 3b a9 82 17 bc
       0.0056152465 -0.0007696344 0.004816643 -0.00924746
000230 5b f5 15 bb d3 52 d1 3b 21 a6 aa 3b 95 29 5e 3c
       -0.002288184 0.0063880472 0.0052077924 0.013559719
000240 0d 4f 94 3b 29 b2 d3 3b e3 c5 05 bc ff 25 21 bc
       0.004526025 0.0064604473 -0.008164856 -0.009835719
000250 5d 4e a3 bc f7 66 d8 bb f0 98 54 bc 60 f2 ed 3a
       -0.019934827 -0.0066040712 -0.012975916 0.0018153898
000260 90 36 32 bb 2a 76 32 bc 0b ec 3e bc a8 3e c4 bb
       -0.0027193166 -0.01089243 -0.011652957 -0.0059889145
000270 a7 a5 26 3b 62 8a 13 bc 2a 8b 8b 3c 77 b7 7c bc
       0.0025428326 -0.009005161 0.017034132 -0.015424601
000280 68 0a f1 bb 1a 0c eb bb 28 94 72 bb 93 d9 1c 3c
       -0.007355977 -0.0071730735 -0.0037014578 0.009573358
000290 0d df 58 3a fe 4c 56 bc ba c4 23 bc f7 be 84 bb
       0.0008272983 -0.01307988 -0.009995634 -0.004051085
0002a0 c8 d5 d8 bb 8c e0 f6 3b 28 2f 52 3b 52 8a 8d 3b
       -0.0066172816 0.0075340923 0.0032071564 0.0043194676
0002b0 8b ab 1f 3b 0c 21 9d 3b 55 3d 26 3b 39 1d 19 3c
       0.0024363722 0.0047951993 0.0025366147 0.009345346
0002c0 56 ea 83 3b 23 0e 8c 3c cb 2e a9 3a af d5 99 bb
       0.0040257378 0.017096585 0.0012907622 -0.0046946625
0002d0 31 d4 e2 ba e8 4a 11 3b d4 5a 0a bc 49 b3 77 ba
       -0.001730567 0.0022169892 -0.008444507 -0.0009449018
0002e0 a9 a1 1f bc 77 a4 76 3c 2b 54 75 bb 79 77 32 bb
       -0.009743133 0.01505386 -0.0037434201 -0.0027231856
0002f0 46 32 de bb ad ec ce 3b ec 55 82 3b c9 05 33 bb
       -0.0067808954 0.006314835 0.003977528 -0.002731668

gru.weight_ih_l0_reverse f4 [192, 10]
000000 38 37 65 be bb c9 5a be 89 e6 40 be d8 de 9b bd
       -0.22384346 -0.21366017 -0.18837942 -0.076108634
000010 7d 12 2f be c6 ad 18 3e 31 58 e4 bd 32 3e 09 3d
       -0.17096896 0.1491004 -0.11149634 0.03350658
000020 20 7d d3 bd f4 aa b3 bd b0 d4 61 be 43 56 08 3e
       -0.103266 -0.08772841 -0.2205379 0.13314156
000030 32 7a b2 3d ae e5 5e be ab 5d 5d bd 76 8a 2f 3e
       0.08714713 -0.21767303 -0.054044407 0.17142662
000040 f4 aa 75 be f9 f6 cb 3d 2e fb 17 be ba 6a 64 be
       -0.23990995 0.09959216 -0.14841911 -0.22306338
000050 bc 63 2a be d5 e3 0d 3d 36 11 13 3c e2 a3 b8 3b
       -0.16639608 0.034641106 0.008976271 0.0056347707
000060 ff 83 a8 3c df 76 e9 bd 80 2c d2 3d c5 cf 75 3e
       0.020570753 -0.11399626 0.10262394 0.24005039
000070 d1 57 95 bc 22 a2 4a be 16 56 06 3e 30 c5 32 be
       -0.01823035 -0.19788411 0.13118777 -0.17458034
000080 a0 e6 f7 3d a1 c6 e4 bd cb 40 4f 3e 47 7d 05 3e
       0.12104535 -0.11170698 0.2023956 0.13036071
000090 6d b1 5d bd 1f d9 6c 3e a0 2f 5c 3e 2c e7 4c 3e
       -0.054124285 0.231297 0.21502542 0.2001006
0000a0 d6 e9 cf bc 90 e1 00 3e bd c3 0d bb 6c e6 15 be
       -0.025380056 0.12586045 -0.0021631562 -0.1463868
0000b0 c0 f6 60 be dd 90 f2 bd ea a9 f6 bd da f8 52 3c
       -0.21969128 -0.11844037 -0.12044127 0.012876714
0000c0 f5 16 f8 bd da 00 fb bd 19 03 12 3e 8e 39 2c be
       -0.12113754 -0.12256022 0.14258994 -0.1681883
0000d0 89 7a c6 3b 07 c3 14 3e a3 20 60 3d 49 d6 e7 bc
       0.006057088 0.14527522 0.054718625 -0.028300421
0000e0 2a 05 c8 bd f9 6e d4 bd 83 db f7 bb 30 52 5c 3e
       -0.0976661 -0.10372729 -0.0075640096 0.21515727
0000f0 f7 84 3b be b7 2a d7 bd f3 4d 31 be 96 4d 80 be
       -0.18312441 -0.10506194 -0.17314892 -0.25059193
000100 d7 06 08 3e 1d d5 71 3c 94 b9 11 3e 30 67 ff bd
       0.13283859 0.014760283 0.14230949 -0.12470853
000110 07 12 0b 3e 45 a1 39 bd aa 2d 4f 3e b2 13 88 3c
       0.13581096 -0.045319814 0.20232263 0.016610954
000120 2a fb 41 be 4f f9 c2 bd f4 72 5f 3e 09 a0 3d 3e
       -0.18943468 -0.09520208 0.21821195 0.1851808
000130 83 f6 1d 3e 27 98 55 bd b5 39 e9 3d 16 42 0a be
       0.15426068 -0.052147057 0.1138796 -0.13501772
000140 12 a8 6c 3d ee 4d ff bc 61 85 6e be df 98 f2 3b
       0.05777747 -0.03116509 -0.23293068 0.0074034776
000150 69 e5 66 3e a0 11 26 3e 14 c8 9c 3c 07 8c 3b be
       0.2254845 0.16217661 0.019138373 -0.18315135
000160 95 54 a8 3d ed 97 9a bd cf 05 80 3e d9 e3 97 bd
       0.08219258 -0.07548509 0.25004432 -0.07416505
000170 80 fc 02 3e c3 58 29 be ca f7 00 be 24 13 6e 3e
       0.12791634 -0.16537766 -0.12594524 0.23249489
000180 99 cc 78 3e 51 8e 58 be 47 f5 46 be 1a 60 74 bd
       0.24296798 -0.2114804 -0.19429503 -0.059661962
000190 2a 34 c3 bd 8e 57 3e 3e 64 c0 29 3e 81 cc 73 be
       -0.09531434 0.18588087 0.16577297 -0.23808481
0001a0 9f 99 2c be 50 0c 56 be fc ad a7 3d e3 2b 84 3e
       -0.16855477 -0.20903134 0.08187482 0.25814733
0001b0 4d 13 fc 3d c8 df 05 3e 25 5b 6d be 69 eb b9 bd
       0.12308369 0.13073647 -0.231793 -0.09078104
0001c0 8c eb 23 3e 46 dd 2c be 8f 64 57 3e 3e 9e 5e 3d
       0.16007823 -0.16881284 0.21034454 0.05435013
0001d0 54 bc 49 3d 2d 9a 88 3e f1 b5 00 bd e4 74 89 3c
       0.04925187 0.26680127 -0.031423513 0.01677937
0001e0 4b 82 1d 3e f0 6c 94 bb a7 15 f5 3c c3 ef 21 be
       0.15381734 -0.004529588 0.029917551 -0.15814118
0001f0 91 87 6b 3e 38 1e 92 bd 36 d2 eb bb ef 68 50 be
       0.23000933 -0.0713467 -0.00719669 -0.20352529
000200 df 82 45 be f2 49 0d be 1a a5 27 3e 13 51 be bd
       -0.19288205 -0.13797739 0.16371575 -0.092928074
000210 f9 c4 44 be 8b d3 04 be 4c 8c 2c be a0 55 ff 3d
       -0.19215764 -0.12971322 -0.16850394 0.124675035
000220 3a 44 7f 3e 1b e9 24 be ab 12 37 3d 34 76 2d be
       0.2492837 -0.16104548 0.044695538 -0.16939622
000230 b4 1b da bd c6 16 aa 3d fe b3 55 bd b2 fa 17 be
       -0.10649815 0.08305125 -0.052173607 -0.14841726
000240 95 08 5f 3e 44 36 d7 3d 92 a7 1f 3e 9e 6f 70 3e
       0.21780618 0.10508397 0.15591267 0.23480079
000250 3c 90 86 bc ad a8 3c bd 00 b1 36 3e 4f 1f 5c ba
       -0.016426198 -0.0460593 0.17840958 -0.00083969993
000260 5f a7 e5 3d 47 5a 4d 3e b4 c9 fc 3c 64 f3 03 be
       0.11213564 0.2005397 0.030857898 -0.12885815
000270 35 13 62 be 15 cb 28 be 6b 14 e0 bb 3a 8c af bc
       -0.2207764 -0.1648372 -0.0068383715 -0.02142917
000280 a8 40 b5 bd aa 99 d5 3d 7a fe 9a bd 83 ac 0a bc
       -0.08850223 0.104297 -0.07568069 -0.008463982
000290 8e a2 30 be 80 30 25 be 9c f8 b6 bd d5 79 53 bd
       -0.1724951 -0.16131783 -0.08934137 -0.05162986
0002a0 72 91 b4 bb 16 70 1f 3d 3e 75 56 3d 0b c1 46 3e
       -0.0055105025 0.038925253 0.052357905 0.19409578
0002b0 21 de 03 3c b3 af 6f 3e 84 7a 64 be b7 f6 80 3e
       0.008048565 0.23406868 -0.22312361 0.25188228
0002c0 6a ed 11 be fa d2 43 3e 06 cb a6 bd c8 8a e7 bd
       -0.14250723 0.1912345 -0.081441924 -0.11305767
0002d0 03 25 91 bc 33 a2 42 3e 46 37 5e bd 51 c6 72 3e
       -0.017717844 0.19007187 -0.05425193 0.23708464
0002e0 d3 7a 1f be 61 b6 3d be de e4 61 3e a9 09 84 3d
       -0.15574197 -0.18526603 0.22059962 0.06447155
0002f0 c3 cc 7c 3e 6c b5 e8 bd e5 d7 c3 bb 0f 46 41 3e
       0.24687485 -0.113627285 -0.0059766644 0.18874381
000300 4d b2 04 be ed e0 09 be 49 bd 93 bd e7 b1 04 bd
       -0.12958641 -0.13464709 -0.07213838 -0.032396223
000310 70 f3 31 3e a0 22 48 3e 47 4b 85 3c 90 0b 6c be
       0.1737802 0.19544458 0.016271247 -0.23051286
000320 d6 79 e3 3a 11 8a 92 3d 1c 95 0a bc fe 8f 3f be
       0.0017355036 0.0715524 -0.008458402 -0.18707272
000330 a7 7d 80 3d a9 f1 2f bd 1d e4 22 be ce 24 b0 bd
       0.06273966 -0.042955074 -0.15907331 -0.0860077
000340 d4 db 26 3e 8d aa 6b be 5f 09 ae 3b 47 91 1d 3e
       0.16294795 -0.23014279 0.0053111757 0.1538745
000350 61 d0 ae bd 37 ae 52 3e a2 1c 99 3d 1e 9b 6e 3e
       -0.08535839 0.2057427 0.074761644 0.2330136
000360 96 07 25 be ad c7 16 be 38 a6 bf bc c9 9e 39 bd
       -0.16116175 -0.14724608 -0.023394689 -0.045317445
000370 e1 cb 09 bd 3f 2e 35 3c 27 a3 94 bc 16 fe 9d bd
       -0.0336417 0.011058389 -0.018144203 -0.07714479
000380 6e 4e 5f 3e 8a b0 30 3e 0e 09 f7 bd cd da 84 3d
       0.21807262 0.17254844 -0.12062274 0.064870454
000390 dd 1f 85 3d 2f 01 3a be 27 12 1d 3e fd b4 14 be
       0.06500218 -0.18164514 0.15338956 -0.14522167
0003a0 b7 b2 3c 3e 05 da 98 bd 50 85 cc bd ae 01 ad bb
       0.1842755 -0.07463459 -0.09986365 -0.0052797412
0003b0 26 4f 22 3e ef 3f 1b 3e da af 19 3e 13 fc cb 3d
       0.15850505 0.15161107 0.15008488 0.09960189
0003c0 f6 2b 69 be 30 c5 21 3b 2b 6a 09 3e b3 8b 89 bb
       -0.22770676 0.0024684183 0.13419406 -0.0041975616
0003d0 01 34 54 3e d8 4d 5b 3e 7e 3f 2c 3e bc 16 1f 3e
       0.20722963 0.21416414 0.16821095 0.15536016
0003e0 f9 89 ee 3d 08 9b 76 3d cd fe d0 3d ef ee 7a 3d
       0.1164741 0.060206443 0.102048494 0.06126302
0003f0 46 c4 e9 bd 0e 40 7e be 9e 86 52 3d 73 12 e4 3d
       -0.11414389 -0.24829122 0.051397912 0.111363314

gru.weight_hh_l0_reverse f4 [192, 64]
000000 cc 26 19 bd dd b7 82 bd 11 a0 8a bd a4 27 39 3d
       -0.037390515 -0.063827254 -0.067688115 0.04520382
000010 de 10 4d 3e 3c 0c da bd c1 f3 3c bc e8 c0 95 3c
       0.20025966 -0.10646865 -0.011532725 0.018280461
000020 63 ac 11 3e e4 8d 7f 3d 5a e3 c5 3c 33 78 b2 bd
       0.14225917 0.062391177 0.024156261 -0.087143324
000030 b4 b6 42 3d be 30 07 3b e9 e1 92 3d 94 2e be 3d
       0.04753752 0.0020628418 0.07171995 0.09286228
000040 97 f2 bb bb 94 9e 4e be 69 7d 7e bc 57 e2 af bc
       -0.005735706 -0.2017768 -0.01553283 -0.021470232
000050 5b ee 9b 3c b4 01 e6 3d 36 17 5b bd 17 d4 a6 bc
       0.019034555 0.112307936 -0.053488933 -0.020364804
000060 dd 2b b3 3c 20 05 00 3c dc df b1 3d 57 fe 9d 3d
       0.021871502 0.007813722 0.08685276 0.07714527
000070 fd 86 df bc 55 fc d3 bb 86 62 33 bc c8 87 75 3d
       -0.027286047 -0.0064692893 -0.010948783 0.059943944
000080 44 15 7c 3d 67 ef 5d bc 0a 07 cc 3d cf ff 43 3d
       0.061543718 -0.0135458475 0.0996228 0.04785138
000090 29 e9 64 bc 17 b3 8d bd 0c 55 e4 ba 8a 15 33 bd
       -0.013971605 -0.06918924 -0.0017420365 -0.043721713
0000a0 9c d1 22 3c 93 69 2b 3c b5 0d c5 bc da 5a f9 3c
       0.00993767 0.010462183 -0.024054388 0.03043883
0000b0 0a fc f9 3c 87 7f f5 3d 2f 61 c1 3d 6e 69 93 3d
       0.03051569 0.119872145 0.094423644 0.071978435
0000c0 fd a9 ea 3c 68 af 8a 3d a9 d8 86 bb ba 01 88 3d
       0.02864551 0.06771737 -0.0041151834 0.06640954
0000d0 d2 45 8e bd f4 69 06 3e 0e 6e 43 bc 89 2b 46 bd
       -0.06946911 0.13126355 -0.011928095 -0.048381362
0000e0 99 f2 6d 3e a6 94 c3 3d f5 f5 58 3d 9b 1a 01 bd
       0.23237075 0.09549837 0.052968938 -0.031519514
0000f0 7d 66 dd bd 34 47 89 bd 34 a8 4c bd 9b 23 6a bd
       -0.10810564 -0.06703034 -0.0499651 -0.057162862
000100 23 79 17 bd aa a6 af 3d 29 bf 18 be b1 51 92 bd
       -0.03698076 0.085767105 -0.14916672 -0.07144488
000110 e3 5c fc 3c f9 17 e0 bd cb 69 b6 bd 7f 9b 31 bd
       0.03080601 -0.109420724 -0.08906897 -0.043361183
000120 58 cf 14 3c e7 e5 48 be 66 a6 90 3d 27 6d 9e 3d
       0.009082638 -0.19618951 0.07062988 0.07735663
000130 36 53 98 3d 67 7e c2 bd 90 ea 18 bd 7b e5 a0 bd
       0.07437746 -0.094967656 -0.03733307 -0.0785627
000140 b6 f7 08 3d 82 d4 28 3d c9 88 f3 3c 15 db c5 3d
       0.03343936 0.04121829 0.02972831 0.09660927
000150 84 7b fb bc 73 5b 11 be 6b 8f 4c bd fb 0d d9 bb
       -0.030698545 -0.14195041 -0.04994146 -0.006623981
000160 92 c3 0f be 65 3e 18 bd 29 4c 77 bd c3 3e b9 3d
       -0.14039448 -0.03716888 -0.060375366 0.09045174
000170 7b dc 16 3c 3d 20 92 bc 90 5f ab 3d 36 7d c2 bd
       0.00920784 -0.017837638 0.083678365 -0.09496538
000180 f8 01 20 bd 13 df bc bd 0f 12 b7 bd 61 74 8a bd
       -0.039064378 -0.092222355 -0.08938991 -0.06760479
000190 b3 aa 7f 3d a2 cb 8c bd 58 b4 27 3c 59 1d f0 3b
       0.06241865 -0.068747774 0.010235868 0.0073277173
0001a0 06 32 98 bd 80 e6 29 3c 28 a5 fa 3c 80 a7 43 bd
       -0.07431416 0.010369897 0.03059633 -0.047767162
0001b0 2a 1b 89 3d 30 97 a2 bd ae 02 b7 bd 9f 90 4b be
       0.06694634 -0.07938993 -0.08936058 -0.19879387
0001c0 29 0d 48 bd 02 37 17 38 2d 31 24 be 81 69 93 3a
       -0.048840676 3.6052435e-05 -0.16034384 0.0011246653
0001d0 0d 5f 0a 3a 3a 57 81 3c d9 7f ea bb 94 f3 a1 bd
       0.0005278446 0.015788663 -0.007156354 -0.07907787
0001e0 62 17 2e 3e 67 7b 0c 3d 03 60 12 bd 6c 50 b2 bc
       0.17001107 0.034297373 -0.035736095 -0.021766864
0001f0 2f 24 d0 3b 5f a3 89 3d 20 02 8c 3c 52 c7 52 3d
       0.0063519697 0.06720614 0.017090857 0.051459618
000200 90 10 2d be 12 be 89 3d ea 3b ba bd 42 ef 77 bd
       -0.1690085 0.06725706 -0.09093459 -0.06053091
000210 76 23 58 3d 15 40 4b be 4e 1b 81 3d 09 82 b3 3d
       0.052768193 -0.19848664 0.06304036 0.087650366
000220 f3 b9 64 3d 64 ae 8b bd 0a 7f c1 3c d0 72 57 3d
       0.055841397 -0.06820372 0.023620147 0.052599728
000230 f8 8f 0b 3d c4 d8 ad 3d 51 7c e2 3c c0 85 56 bd
       0.034072846 0.084886104 0.02764717 -0.052373648
000240 5f 16 fb 3d e1 a0 da bd 86 af 2e bd 37 7d dc 3c
       0.12260126 -0.106752165 -0.04264786 0.026915176
000250 19 36 be bc 57 8a 98 3c 9e b6 1f 3d 8a a7 1a 3d
       -0.023219155 0.018620653 0.038992517 0.037757434
000260 5b 8c ae 3c a7 37 a7 bd 71 81 ef 3d a9 b5 7c bd
       0.021307161 -0.08164912 0.11694611 -0.061696682
000270 37 e7 3e 3e 17 a6 d7 3d 7e 62 66 bd cc 4b 79 3d
       0.18642889 0.10529726 -0.056246273 0.0608633
000280 30 a2 12 3d d5 45 00 3d b3 73 c4 3d 5e 1a 1b be
       0.035799205 0.031316597 0.095923804 -0.15146777
000290 f2 44 41 3d 81 a2 8c 3c 88 ac 66 bc a0 d0 97 3d
       0.047184892 0.017167332 -0.014079221 0.07412839
0002a0 2e 7a 64 3c 41 23 ab 3d ef 01 9b bd 34 71 71 3d
       0.0139451455 0.083563335 -0.07568728 0.05894585
0002b0 e8 71 e0 3c 9f b9 a1 3c dc a1 93 bd 0e d6 95 bc
       0.027398065 0.019741831 -0.072086066 -0.018290546
0002c0 be eb 65 3c ac 78 09 bb 95 1c 6f 3d 03 45 84 3b
       0.014033256 -0.0020976467 0.058376867 0.004036547
0002d0 37 8a 29 3c da e5 82 bc 56 01 1c 3e 4e d8 65 3d
       0.010347894 -0.015978742 0.15234885 0.056114487
0002e0 63 b2 36 3c 5f f5 49 bd c8 0e 93 bc db d2 0a 3e
       0.011150929 -0.04930627 -0.017951384 0.13556997
0002f0 3d c2 2b bd 22 4f bd 3d 03 1b 97 3d 25 47 b0 3c
       -0.041933287 0.09243609 0.07378199 0.0215183
000300 51 61 01 3d ee 46 76 bd 70 40 da 3b 3b a2 54 3d
       0.03158695 -0.060126238 0.0066605136 0.051912528
000310 a6 2a ba bc 97 60 e4 3d 37 84 10 be 7f b9 c6 3d
       -0.022725414 0.111512356 -0.14112936 0.09703349
000320 ca 42 86 bd c4 3c 06 be cc d3 c9 bb ec dc 92 bd
       -0.06555708 -0.13109118 -0.0061592814 -0.07171044
000330 57 28 ff bd 78 dd 98 3c ab bd fc bc 46 ea ae bc
       -0.12458866 0.018660292 -0.03085216 -0.021351945
000340 06 f0 08 3c e6 0c 24 3d 97 30 17 3e 0f 83 c5 ba
       0.008358007 0.040051363 0.1476463 -0.0015068966
000350 70 41 89 3c 80 bf 2f bc a0 f7 91 bd 6e 6c a0 bd
       0.016754836 -0.0107268095 -0.07127309 -0.07833181
000360 e9 60 56 3c f6 a8 cc bd a7 4f 60 3d b7 f5 fd 3d
       0.013084629 -0.09993164 0.054763462 0.12400382
000370 de 73 44 be 10 0b b9 3d ef b8 26 bd 0c 69 3b 3b
       -0.19184825 0.09035313 -0.04070371 0.0028596548
000380 be f3 b0 bd 21 49 4d 3d 13 b0 25 3c bb 77 c2 3d
       -0.0864024 0.05011857 0.01011278 0.09495493
000390 36 a5 2e 3d 4b c8 06 ba 80 fc 6a 3b 4b 65 dc 3d
       0.042638026 -0.00051415403 0.0035856068 0.107615076
0003a0 62 79 12 3d fe f3 59 3c fd 20 79 bd db 71 02 be
       0.03576029 0.013302801 -0.060822476 -0.12738745
0003b0 58 fe d6 b7 23 e2 ab bd a0 05 eb 3b af e2 ac bd
       -2.5629226e-05 -0.083927415 0.0071723014 -0.08441674
0003c0 d2 b7 57 bc ec a0 93 bd fc 10 3e 3d 64 11 97 bd
       -0.013166385 -0.07208428 0.046402916 -0.07376364
0003d0 e9 f2 e1 3c 19 33 a3 bd 48 f2 b1 3c d1 de 47 3d
       0.027581649 -0.079687305 0.021721974 0.04879648
0003e0 0c a7 c7 bc 3c 94 37 bc c7 ae 97 3d 1e b5 d4 3c
       -0.024371646 -0.011204775 0.07406383 0.02596527
0003f0 a9 0e 78 3d c6 fe e4 bc e0 95 8d bd af 72 29 be
       0.060560856 -0.027953517 -0.06913352 -0.16547655

gru.bias_ih_l0_reverse f4 [192]
000000 1f e6 17 bc 9c 3a 56 bc e2 3b 97 3b d2 7a 12 bb
       -0.009271174 -0.013075497 0.004615293 -0.0022351039
000010 18 48 91 3b 1e 8b 10 3c 63 ea 86 3b 53 90 0b 3c
       0.004433643 0.008822231 0.0041172965 0.008518296
000020 63 12 93 3b 51 d1 e6 bb 76 7b be 3b 55 5f 4d 3c
       0.004488276 -0.0070439954 0.0058130575 0.012534936
000030 e3 2f 66 3c ee 70 e5 3c a3 14 e0 3b 63 4e 5d 3b
       0.014049503 0.02800795 0.0068383976 0.0033768646
000040 65 75 6a 3b 64 63 ca 3c 53 00 1e bc 1a d9 83 3c
       0.003577554 0.024705596 -0.009643632 0.016094733
000050 41 f0 0d 3c 1b 2e 3e 3c 33 26 16 bc 79 7b a5 3c
       0.008663238 0.011607672 -0.009164381 0.020200478
000060 f6 c2 89 bb 89 25 a2 bb 62 3b e0 ba cd b0 15 3c
       -0.0042041494 -0.004948322 -0.0017107541 0.009136391
000070 0b 58 10 3c 7b 78 35 3b b8 33 28 bb 8f 9a dc 3a
       0.008810054 0.002769022 -0.0025665592 0.001683073
000080 9f 35 9e 3b b1 ee eb ba 03 1c d1 3c 1c 95 c0 3b
       0.0048281695 -0.0018000213 0.025526052 0.00587715
000090 6a 1c b5 bb f9 23 02 3c 3e cd 95 3c da 2e 41 3c
       -0.005527069 0.007943147 0.018286344 0.011790955
0000a0 ce 57 84 bb 56 28 cc 3c 02 86 19 3c cb ea 8a ba
       -0.0040387874 0.024921577 0.009370329 -0.0010598538
0000b0 f1 60 45 3c c9 61 a3 3c ef 8e ab 3b ef 7b 78 3c
       0.012047038 0.019944089 0.005235545 0.015166267
0000c0 73 47 9c 3c 78 3c 12 3b 03 67 44 3b 82 ad cd 3b
       0.019077038 0.0022313874 0.0029968626 0.0062767873
0000d0 2a d6 75 3c 68 d4 83 3c d1 d2 90 3b 26 d4 d7 3b
       0.015004674 0.016092494 0.0044196625 0.0065865694
0000e0 c3 29 01 3c 98 e2 23 3a 3e 42 4b bb 95 cd 03 ba
       0.007883492 0.00062517216 -0.0031014825 -0.00050278875
0000f0 05 52 42 3c 60 44 ab 3b 16 3d ad 3c 42 7e 11 bb
       0.011860375 0.005226657 0.021147292 -0.00222005
000100 dc d9 a5 3c 81 1d ca 3b 68 45 09 3c d7 28 7a 3a
       0.020245485 0.006168068 0.008378364 0.0009542829
000110 42 4b 84 3d dd e9 a9 3c d9 d0 14 3d 5e 64 a0 3c
       0.06459667 0.020741398 0.036331985 0.019579109
000120 f4 86 23 3d e3 bb 19 3d dd b9 4a 3c f6 44 ed bc
       0.039923623 0.0375327 0.012373415 -0.028963547
000130 50 a2 76 3d 3b 32 24 3d 15 f9 d6 bc e4 74 20 3d
       0.060213387 0.040086966 -0.026241818 0.039173976
000140 5d fd 8d bc 04 2a af 3b 5a dc 39 3b 7a 2d 1e 3d
       -0.017332727 0.005345585 0.00283601 0.03861759
000150 b5 5f 86 3b 91 7d b5 3c 3a b0 11 bc 74 7a 93 3c
       0.0041007646 0.022154601 -0.008892113 0.018002726
000160 f3 d0 c5 3c 90 22 2b 3d 7d b8 f6 ba 22 1f bb bc
       0.024147486 0.04178101 -0.0018823292 -0.022841994
000170 31 4e d5 3c eb d7 36 3d 21 be 20 3d 65 5d 94 3c
       0.026038261 0.04463951 0.03924382 0.01811094
000180 e5 b7 15 bb 43 26 04 3c b8 97 d6 3b 03 20 1a bc
       -0.0022845205 0.008065763 0.006548848 -0.009407046
000190 20 f3 de bc 50 9a db 3c d3 3b 5d bc 8a 60 1c bc
       -0.02721554 0.02680698 -0.013503033 -0.009544501
0001a0 43 31 62 3c cb 41 db 3c 2c 05 4f bc 1e 36 f3 3b
       0.01380569 0.026764771 -0.01263551 0.0074222228
0001b0 e7 37 61 bb fc 4e 5c bc 99 84 20 3d 6f bd 30 3d
       -0.0034365596 -0.013446566 0.039188955 0.043149408
0001c0 ec 25 b2 3b 3e e1 4b bc 4a 09 65 3c 4f 89 0f 3d
       0.0054366495 -0.012443839 0.0139792655 0.035043057
0001d0 35 12 68 bb 98 cd d2 bc 58 f4 23 3d 89 2f ae bb
       -0.0035411243 -0.0257328 0.040027946 -0.005315725
0001e0 f6 7f b6 3b c0 dd d8 3c 71 9d 3d 3d d5 36 b3 3c
       0.0055694534 0.026472926 0.046292726 0.021876732
0001f0 55 3f 3d bb d1 43 0b 3d e4 a0 7b 3c b7 57 98 bc
       -0.002887686 0.03400022 0.0153581835 -0.018596513
000200 f2 59 2d bc 23 38 7c 3a e0 72 72 bb e3 88 5f 3c
       -0.010580527 0.0009621402 -0.003699474 0.013643476
000210 2a bd a7 bb 95 92 40 3c 15 81 a8 bb bb d3 f8 3b
       -0.0051189857 0.011753698 -0.005142341 0.0075935996
000220 d3 95 fe bb b3 3e 94 3b 26 65 25 bc cb d2 a5 3b
       -0.0077693253 0.004524076 -0.010094916 0.005060529
000230 cb 13 6f bb 94 5e 3b 3b 0a 04 85 3b cc aa df 3b
       -0.0036480303 0.0028590309 0.0040593194 0.0068257805
000240 c6 3d 30 3a a8 c0 9c bb 0f f9 ff ba 71 cf a0 bc
       0.0006723072 -0.0047837086 -0.0019529181 -0.019630166
000250 23 1d 9f bc 13 2d 88 3c f3 cf b6 ba b0 29 2e 3a
       -0.019423073 0.016623056 -0.0013947472 0.0006643785
000260 3b 01 1c 3c 57 0b 35 bc 4b 35 58 bb 91 22 97 b9
       0.009521778 -0.011050067 -0.003299075 -0.00028826718
000270 96 f3 02 bc b3 5e 49 3c 74 e6 72 bc 76 2b f8 3b
       -0.007992646 0.012290644 -0.014825452 0.0075735403
000280 34 b7 23 3c 0b 98 28 ba 2e c7 1e 3b f5 dd 01 bc
       0.0099924095 -0.00064313476 0.0024227607 -0.007926454
000290 47 04 e0 3b e3 8d 1e 3c b1 e3 be 3b 15 d7 b4 3b
       0.0068364474 0.009677383 0.005825483 0.005518804
0002a0 d7 2a 8c bb c8 c8 82 bb 34 1d 28 3c 85 0e 2b 3b
       -0.004277568 -0.00399122 0.010260869 0.0026101184
0002b0 89 ed 14 bc 26 f2 5a bb cb 23 7e 3b ae a3 27 bb
       -0.009089836 -0.0033408492 0.0038778658 -0.0025579738
0002c0 84 d5 c3 3b 17 99 1a bc 33 a2 c5 bb 8f 47 2b 39
       0.005976381 -0.0094359135 -0.0060312985 0.00016334488
0002d0 69 13 01 3c 05 ba 18 bc c1 5a bc bb 51 4e 85 3b
       0.007878163 -0.009321694 -0.0057481234 0.004068174
0002e0 9e 96 a8 bb f9 c1 4c bc 75 5a e8 3b 8e d8 24 3a
       -0.005144908 -0.012497419 0.0070908614 0.00062883727
0002f0 e9 d5 aa 39 7b 4f 3d bc 38 b8 40 3c fb 61 6b ba
       0.00032584302 -0.011554594 0.011762671 -0.0008979139
