gru_classifier_weights/llama-3-8b_a100_tp1.pt (torch, 485425 bytes, 22 tensors)

in_norm.weight f4 [6]
0	0x3f828e76	1.0199726
1	0x3f839a7a	1.0281518
2	0x3f83f9fa	1.0310662
3	0x3f803813	1.0017112
4	0x3f83cfde	1.0297811
5	0x3f8081bd	1.0039593

in_norm.bias f4 [6]
0	0xbb04a752	-0.0020241332
1	0xbc968535	-0.018374065
2	0xbc1e7d73	-0.009673464
3	0x3c2ab13a	0.010418231
4	0xbb06ada0	-0.0020550266
5	0x3bcfe82e	0.0063448166

gru.weight_ih_l0 f4 [192, 6]
0	0xbe1cbdd9	-0.15306796
1	0xbd5afab2	-0.053461738
2	0xbdc81ef2	-0.09771527
3	0xbdb26a55	-0.087116875
4	0x3e46692e	0.1937606
5	0xbe23b5e0	-0.15987349
6	0xbdf7227b	-0.120671235
7	0xbdc61b60	-0.0967319
8	0x3dae24a3	0.08503082
9	0x3e2addb5	0.16686137
10	0xbe6d26f3	-0.23159389
11	0x3da9bddd	0.08288167
12	0xbd2447df	-0.040107604
13	0xbe0dfc9a	-0.13865891
14	0xbe1344b7	-0.14381681
15	0xbd4415bb	-0.047872286
16	0xbe125d81	-0.14293481
17	0x3e2373ac	0.15962094
18	0x3d85deb4	0.06536618
19	0x3e20425b	0.15650313
20	0x3e63466a	0.2219483
21	0x3cecc6ba	0.028903354
22	0xbe122c4f	-0.14274715
23	0x3d49553e	0.04915356
24	0x3d6e7934	0.058221057
25	0xbd7dde7a	-0.06197975
26	0x3e41bd4d	0.18919869
27	0xbdd85c2e	-0.10564457
28	0xbdc6060a	-0.096691206
29	0xbe416b3c	-0.18888563
30	0x3deb2335	0.114813246
31	0xbd6a35eb	-0.057180326
32	0x3e603c21	0.21897937
33	0x3bdf00e9	0.0068055284
34	0x3e1eee3c	0.15520567
35	0x3e3e9c41	0.18614294
36	0x3e5060ba	0.20349398
37	0xbdd09817	-0.10185259
38	0xbde0cc5a	-0.10976477
39	0xbc75fa23	-0.0150132505
40	0x3e5a5c7c	0.21324342
41	0x3d8ee384	0.06976989
42	0xbe5152fa	-0.2044181
43	0xbca50a6a	-0.020146567
44	0x3d870018	0.06591815
45	0x3c109203	0.008823874
46	0x3d544894	0.05182703
47	0xbdd34a37	-0.1031689
48	0x3e81273d	0.2522525
49	0xbe0aae43	-0.13543038
50	0xbcb58512	-0.02215818
51	0xbd8765a5	-0.06611184
52	0x3d23bb17	0.039973345
53	0x3c1fd556	0.009755453
54	0xbe1e8e44	-0.15483958
55	0x3e0c54d3	0.13704233
56	0xbcba9e88	-0.022780672
57	0x3d87fdbb	0.06640192
58	0x3d2d5706	0.04231932
59	0xbe465925	-0.19369943
60	0x3e2a2402	0.16615298
61	0xbcd5c535	-0.026095012
62	0xbe0bbe77	-0.13646875
63	0x3d50b7d8	0.050956577
64	0x3e6706be	0.22561166
65	0x3e1a0c5d	0.15043779
66	0xbe4f6fec	-0.20257539
67	0x3c361ea1	0.011115701
68	0x3e421f0c	0.18957156
69	0xbe0cf53b	-0.13765423
70	0xbe3c8780	-0.18411064
71	0xbc363ab1	-0.011122392
72	0x3e352d6e	0.17693111
73	0x3e385236	0.18000111
74	0x3c6dd18a	0.01451529
75	0x3e1834d5	0.14863904
76	0xbde2d060	-0.110749006
77	0x3dc844da	0.097787574
78	0xbe5bda37	-0.21469961
79	0x3d02bc2b	0.031917732
80	0xbcc6bacb	-0.024258992
81	0x3c93506c	0.017982684
82	0xbc40304f	-0.011730268
83	0x3e740d58	0.23833215
84	0x3e6cd746	0.23128995
85	0xbd602b9e	-0.054729097
86	0xbd120795	-0.035651762
87	0xbdb5b927	-0.08873206
88	0xbd7afb8d	-0.061275054
89	0xbdaff5b2	-0.085917845
90	0xbcdb08b0	-0.026737541
91	0x3e433f6a	0.1906716
92	0x3d658c61	0.05604208
93	0x3e2d61fb	0.16931908
94	0x3ceed741	0.029155375
95	0x3d9e60b7	0.07733291
96	0xbdba8578	-0.091074884
97	0x3c8178b7	0.015804632
98	0x3e253811	0.16134669
99	0x3e3eb270	0.18622756
100	0x3d25c67d	0.040472496
101	0x3c32f3ff	0.010922431
102	0x3db2244f	0.086983316
103	0xbdbf6636	-0.09345667
104	0x3c8d7759	0.017268823
105	0xb994e169	-0.00028396703
106	0xbe364c69	-0.17802586
107	0xbda44bdc	-0.080222815
108	0xbdb47b66	-0.08812599
109	0x3dfadd8e	0.122492895
110	0x3e128403	0.14308171
111	0x3e55d596	0.20882258
112	0xbe464157	-0.19360863
113	0x3e13c557	0.14430748
114	0xbcd21dab	-0.025648912
115	0xbdd56a40	-0.10420656
116	0x3dce560d	0.10075007
117	0x3c7d6886	0.015466815
118	0xbdb89296	-0.09012334
119	0xbe7dfd37	-0.24803625
120	0x3ce937d5	0.028469006
121	0xbda8c29c	-0.08240244
122	0x3dfbabde	0.122886404
123	0x3de1eb74	0.11031237
124	0xbd77786b	-0.060417574
125	0xbe56b10a	-0.20965973
126	0x3e50bea6	0.20385227
127	0x3e229d96	0.15880427
128	0xbd35317b	-0.04423664
129	0x3cf89a72	0.030347083
130	0x3de3f39c	0.11130449
131	0xbe23c52b	-0.15993182
132	0xbd00ddae	-0.03146141
133	0xbd8c4181	-0.068484314
134	0x3dccb689	0.09995753
135	0x3de021e4	0.10943964
136	0xbbc9f5a6	-0.006163317
137	0x3e52586a	0.2054154
138	0x3dd31bf6	0.103080675
139	0xbcb59a66	-0.02216835
140	0x3e2a185c	0.16610855
141	0x3e1caf3d	0.15301223
142	0x3d8d4c18	0.06899279
143	0x3e0ab1b0	0.13544345
144	0x3ca5ff58	0.020263359
145	0xbe742bc0	-0.23844814
146	0x3e169049	0.14703478
147	0xbdc15a60	-0.09441066
148	0x3cfb246b	0.030657014
149	0xbe043049	-0.12909044
150	0xbda61cc1	-0.08110953
151	0xbd98d190	-0.07461846
152	0x3cf4d46b	0.029886445
153	0x3dce693d	0.10078666
154	0xbe50fcc2	-0.2040892
155	0xbe74ced2	-0.2390702
156	0x3dcfc657	0.10145252
157	0xbc909d1a	-0.017653037
158	0xbd71f64c	-0.059072778
159	0x3e09f656	0.13472876
160	0x3d1f7bdd	0.038936485
161	0x3e18c3f0	0.14918494
162	0xbe4386fa	-0.19094458
163	0xbcab88b5	-0.02093921
164	0x3e3d4ecb	0.18487088
165	0x3e41c945	0.18924434
166	0xbd997b8b	-0.07494267
167	0xbdcb680f	-0.09931957
168	0x3e14dae4	0.14536625
169	0xbe654f1e	-0.22393462
170	0x3e76956d	0.24080439
171	0x3cf4f69e	0.029902752
172	0x3e2f08fc	0.17093271
173	0x3e72c158	0.23706567
174	0xbd8adc2a	-0.06780274
175	0xbd537405	-0.051624317
176	0x3df2ce20	0.118557215
177	0xbc940d3b	-0.018072715
178	0x3e652272	0.22376421
179	0x3e4e37f4	0.20138532
180	0x3e1e5032	0.1546028
181	0x3e35c839	0.1775216
182	0xbd9e7ad4	-0.07738271
183	0xbe37777b	-0.17916672
184	0xbb283ab4	-0.0025669755
185	0x3dee98c2	0.1165023
186	0xbd19a6cc	-0.037512586
187	0xbd9b6f99	-0.07589645
188	0xbe45552f	-0.19270776
189	0x3bf5b8e3	0.007498847
190	0x3e5227cb	0.20522992
191	0x3ddd618b	0.108096205
192	0xbe5ed5ef	-0.21761297
193	0xbe7aa0b3	-0.24475364
194	0x3ca3ffbc	0.020019405
195	0xbacfc207	-0.0015850671
196	0x3e5f12aa	0.21784464
197	0xbe0a68c5	-0.13516529
198	0x3e170f6f	0.14751981
199	0x3d34e5f6	0.04416462
200	0x3e6f982b	0.23397891
201	0xbc5b39c6	-0.0133804735
202	0xbdbcfabf	-0.092275135
203	0xbe79eece	-0.24407503
204	0xbe606ca5	-0.21916445
205	0x3da6fd54	0.08153787
206	0x3e09a9b1	0.13443638
207	0xbe695ae4	-0.22788578
208	0xbe36e3c4	-0.17860323
209	0xbe673adb	-0.22581045
210	0xbe6eaa58	-0.23307168
211	0xbdac7dd3	-0.084224366
212	0xbdbbae96	-0.09164159
213	0xbd130574	-0.035893872
214	0x3e739990	0.23789048
215	0xbe0761c4	-0.13220888
216	0x3e5ecdde	0.2175822
217	0xbd3c2c51	-0.0459407
218	0x3e1671c0	0.1469183
219	0x3e362f4e	0.17791483
220	0xbe455b92	-0.19273213
221	0x3e0262ec	0.12733048
222	0x3e78e744	0.24306971
223	0x3e523fba	0.20532122
224	0xbe347dac	-0.17626065
225	0xbe4aba62	-0.19797662
226	0x3e6d267e	0.23159215
227	0x3e354a09	0.17704023
228	0x3d8a01f5	0.067386545
229	0xbceb670b	-0.028735658
230	0x3e015536	0.12630162
231	0xbe6438f0	-0.22287345
232	0x3d783ac5	0.060602922
233	0x3cae1e1e	0.021254595
234	0xbe69b5a4	-0.22823197
235	0xbe5ac36e	-0.21363613
236	0x3e2efc51	0.17088439
237	0xbe2022a1	-0.1563821
238	0x3d5ff9ff	0.054681774
239	0x3dab3dad	0.08361373
240	0xbaccd356	-0.0015626948
241	0x3ce75322	0.028237883
242	0x3e0413bd	0.12898155
243	0x3e25848a	0.16163841
244	0x3e705b59	0.23472346
245	0x3e63bf92	0.22241047
246	0xbe7f9d43	-0.24962334
247	0x3d310252	0.043215103
248	0x3e1f262a	0.15541902
249	0xbdc845e8	-0.097789586
250	0xbe416ef4	-0.18889982
251	0xbddd8870	-0.10817039
252	0x3c18e899	0.009332799
253	0x3e48efd8	0.19622743
254	0xbe78e5d6	-0.24306425
255	0xbe4ddf5f	-0.2010474

gru.weight_hh_l0 f4 [192, 64]
0	0xbd379a50	-0.0448249
1	0xbcd8de0c	-0.026473068
2	0x3dda6665	0.106640615
3	0xbd89d5f4	-0.067302614
4	0xbdd4adfe	-0.10384749
5	0xbd5e1c2c	-0.054226086
6	0x3e063419	0.13105811
7	0xbd5040ea	-0.050843157
8	0xbcbbda0c	-0.022931121
9	0x3cdb369f	0.026759444
10	0xbe0faa1a	-0.14029732
11	0xbd891cd1	-0.066949494
12	0x3cbac1e6	0.022797536
13	0x3c3bba83	0.011458042
14	0x3ddeee50	0.10885298
15	0xbdade5f5	-0.084911264
16	0xbd892a51	-0.06697524
17	0x3d15ccab	0.03657214
18	0xbd8699a5	-0.06572274
19	0xb91c7643	-0.00014921375
20	0x3e02f27c	0.12787813
21	0xbcfbaafe	-0.030721184
22	0xbe4402b4	-0.19141656
23	0x3c199fd1	0.009376482
24	0xbceee184	-0.029160269
25	0xbd46a36d	-0.0484957
26	0xbdced6b5	-0.10099546
27	0x3d1c0bc1	0.038097147
28	0x3d63e4db	0.055638175
29	0xbe049295	-0.12946542
30	0xbdf3fc45	-0.11913351
31	0x3d1235be	0.035695784
32	0xbc1bfcc9	-0.009520718
33	0x3cbfc430	0.02340898
34	0x3d05eece	0.032698445
35	0x3c96076c	0.018314086
36	0x3dca4c7a	0.09877868
37	0x3bb4555d	0.00550334
38	0xbc95df29	-0.018294888
39	0xbd4a22b9	-0.04934952
40	0x3d3e37b9	0.04643986
41	0x3dfbd5be	0.122966275
42	0xbd58cfd3	-0.05293257
43	0x3c634e72	0.013873683
44	0xbd0c86b2	-0.034308143
45	0x3e04f983	0.12985806
46	0x3df17322	0.11789538
47	0x3c98ddf7	0.018660529
48	0x3cd5c8d8	0.026096746
49	0xbbcc78f3	-0.006240004
50	0x3c3a485a	0.011369789
51	0xbdbef09b	-0.093232356
52	0xbd5229fd	-0.051309574
53	0x3c8525b3	0.016253328
54	0x3dbc78d5	0.092027344
55	0xbd9fd719	-0.078046985
56	0x3be1b1a4	0.0068876315
57	0xbc97068f	-0.018435745
58	0x3d63e366	0.055636786
59	0xbb29261f	-0.0025810075
60	0xbc07e4f2	-0.008294331
61	0x3d688daf	0.056775745
62	0x3e32ba3d	0.17453857
63	0xbb0ab63c	-0.002116575
64	0xbdb2a3ca	-0.087226465
65	0x3dbb268c	0.091382116
66	0xbd0e7c0a	-0.03478626
67	0xbcd3efe9	-0.025871234
68	0xbd41c209	-0.047304187
69	0xbd0f8ded	-0.03504746
70	0x3cae58a1	0.021282496
71	0x3ded9711	0.11601079
72	0xbce448c2	-0.027866725
73	0xbc4829ca	-0.012216995
74	0xbc36274c	-0.011117768
75	0xbd8cde04	-0.068782836
76	0xbc5a80ee	-0.013336403
77	0x3da5a320	0.08087754
78	0xbd051c23	-0.032497536
79	0xbd6ac0c0	-0.057312727
80	0x3d3cae32	0.046064563
81	0x3cf655db	0.030070236
82	0xbdbd7660	-0.09251094
83	0x3d818bc3	0.063254856
84	0x3dea4200	0.1143837
85	0x3d8c8ff1	0.06863392
86	0x3dba8608	0.09107596
87	0x3dc32eb7	0.095303945
88	0x3c3969fc	0.011316773
89	0xbdb2ba39	-0.087269254
90	0xbd0eb2ab	-0.03483836
91	0xbc7f4daf	-0.015582486
92	0xbd8df028	-0.06930572
93	0xbd333699	-0.04375324
94	0xbc3e278c	-0.011606108
95	0x3b3bd6c4	0.0028661946
96	0x3d1b50e8	0.037918955
97	0x3df86742	0.1212907
98	0x3d9fafd0	0.077972054
99	0x3c8229fc	0.01588916
100	0xbd45e1ee	-0.048311166
101	0xbdd70b51	-0.10500205
102	0x3dddd9b9	0.10832543
103	0x3cb20676	0.021731596
104	0xbb0a1cef	-0.0021074375
105	0x3c0e3bbe	0.008681236
106	0x3c42ccda	0.011889661
107	0xbcc9b2fb	-0.024621477
108	0xbccf23d7	-0.025285644
109	0x3d164032	0.036682315
110	0xbd96e465	-0.073677815
111	0xbd9e6f3b	-0.07736059
112	0xbb0f2d2e	-0.0021846998
113	0x3d0ec625	0.034856934
114	0x3d8ea704	0.069654495
115	0xbd5d9031	-0.05409259
116	0x3d5370a8	0.05162111
117	0xbe442921	-0.19156314
118	0xbcb85d34	-0.02250538
119	0x3c72867b	0.01480257
120	0x3da7aee8	0.081876576
121	0x3ba71f3e	0.00510016
122	0x3df2221f	0.11822914
123	0xbd8d192a	-0.06889565
124	0xbd97f656	-0.07420032
125	0xbe33a5a1	-0.17543651
126	0xbcbfe289	-0.02342345
127	0xbd1b7ed7	-0.03796276
128	0xbcb18d4c	-0.02167382
129	0xbcf98566	-0.030459117
130	0xbcf27437	-0.029596431
131	0x3d6c301d	0.057663072
132	0x3c982933	0.018574333
133	0x3cebbbb6	0.028776031
134	0x3d125fd9	0.03573594
135	0xbb865ae8	-0.0041001923
136	0xbcf4b4f9	-0.02987145
137	0xbd9086ea	-0.07056983
138	0xbdbd85af	-0.09254014
139	0x3e0e0fde	0.1387324
140	0x3e039a8e	0.12851927
141	0x3bc06903	0.0058718934
142	0x3dae5c12	0.08513655
143	0x3c7c7d1a	0.015410686
144	0xbd4c589b	-0.04988919
145	0xbdae0114	-0.084962994
146	0x3d24a248	0.040193826
147	0xbdaed518	-0.08536738
148	0xba93b5ba	-0.0011269369
149	0xbd51536a	-0.05110494
150	0xbcbc0398	-0.022950932
151	0x3dbd695a	0.0924861
152	0x3cc7aa90	0.024373323
153	0xbdcc1c93	-0.099663876
154	0xbda4f14b	-0.080538355
155	0xbd7b1199	-0.06129608
156	0x3daf9f3f	0.08575296
157	0xbd9666f4	-0.073438555
158	0xbdf30add	-0.118673064
159	0x3c62383a	0.013807351
160	0xbdf0c449	-0.117561884
161	0x3d83792c	0.06419596
162	0x3d4825e5	0.048864264
163	0xbba8973e	-0.0051449826
164	0x3de05f51	0.1095568
165	0xbd22b8ae	-0.039726906
166	0xbd03c84a	-0.032173432
167	0x3dcf472e	0.10120998
168	0xbcc80373	-0.024415707
169	0x3d5546d7	0.05206951
170	0xbdab8c8c	-0.083764166
171	0xbe085e58	-0.1331724
172	0xbdad17d2	-0.08451809
173	0x3c4497fd	0.011999127
174	0x3dbe541e	0.09293388
175	0xbd65cc05	-0.05610277
176	0xbc708d1a	-0.014682079
177	0x3e3a5c95	0.1819938
178	0x3c44319b	0.0119747175
179	0xbd451495	-0.04811533
180	0x3d14959e	0.0362755
181	0xbb39ef54	-0.002837141
182	0xbcb86581	-0.022509338
183	0xbc836718	-0.01604037
184	0x3d35bc90	0.04436928
185	0xbd39eed9	-0.0453938
186	0xbd4e0791	-0.050300185
187	0x3cf8f0a3	0.030388182
188	0x3d7a6fb8	0.0611417
189	0x3d378693	0.044806074
190	0x3d5e7edc	0.0543202
191	0x3d2783f1	0.040897314
192	0xbdca99c9	-0.098926134
193	0xbd333408	-0.043750793
194	0x3d86f390	0.065894246
195	0xbcfedf46	-0.031112324
196	0x3db4c0da	0.08825846
197	0xbbbd8241	-0.0057833497
198	0xbd5d3bfe	-0.05401229
199	0xbd160353	-0.036624264
200	0x3dfe253c	0.12409446
201	0x3c5fe5d6	0.013665637
202	0x3dd99d29	0.10625679
203	0x3d4a1ccc	0.04934387
204	0xbe1752cf	-0.14777683
205	0x3dae2e39	0.0850491
206	0x3d19906d	0.03749125
207	0x3e03a47e	0.12855718
208	0xbc4ece5b	-0.012622441
209	0x3ab532c7	0.0013824337
210	0x3d08c264	0.03338851
211	0x3d3ddeb9	0.046354983
212	0x3d2896b6	0.041159354
213	0xbd73bb19	-0.059504602
214	0xbd65e122	-0.056122907
215	0x3d0a0653	0.033697437
216	0x3daf0b9e	0.08547138
217	0x3d0c17d9	0.03420243
218	0xbbce3bbf	-0.0062937434
219	0xbde0e177	-0.10980504
220	0x3d24d09e	0.040238015
221	0xbd320c6b	-0.043468874
222	0x3d9b26ca	0.07575758
223	0xbc300b8b	-0.01074494
224	0x3de58fce	0.11209069
225	0x3c035e5a	0.008018101
226	0x3dc04c93	0.093896054
227	0x3e7cce5c	0.24688095
228	0x3d176c48	0.0369685
229	0xbdb81334	-0.08988038
230	0xbd342745	-0.043982763
231	0x3c3217c5	0.010869925
232	0xbd241e44	-0.040067926
233	0x3e0fb43b	0.14033596
234	0xbdb05001	-0.086090095
235	0x3cdb86cc	0.026797675
236	0xbd3ba951	-0.04581577
237	0xbb206123	-0.002447196
238	0x3d524841	0.051338438
239	0xbde52f44	-0.11190656
240	0xbcc69daf	-0.024245111
241	0x3c3ca1b1	0.01151316
242	0xbcabe160	-0.02098149
243	0xbd463ff2	-0.048400827
244	0x3cae592d	0.021282757
245	0xbd048a91	-0.03235871
246	0x3d09031a	0.033450224
247	0xb9850c50	-0.0002537691
248	0x3d85164a	0.06498392
249	0x3cb6a53f	0.022295592
250	0x3c9d8875	0.019230107
251	0xbc179f3e	-0.009254275
252	0xbe00e43a	-0.12587062
253	0xbd2928a1	-0.041298512
254	0xbd4eb275	-0.05046316
255	0x3da26670	0.07929695

gru.bias_ih_l0 f4 [192]
0	0x3b8b07b1	0.0042428602
1	0x3ca998b9	0.020702707
2	0xbc0fa27a	-0.008766765
3	0x3bee9411	0.0072808345
4	0x3c7ea45e	0.015542118
5	0xbb0b2e54	-0.002123733
6	0x3b8b023f	0.004242211
7	0x3c4e94cc	0.012608718
8	0xbb8a1b78	-0.0042147003
9	0x3cb58f00	0.022162914
10	0xbbe1260d	-0.006870991
11	0x3bc590bb	0.006029216
12	0x3bd62435	0.006535078
13	0xbb6486b6	-0.0034870333
14	0x3ab3ba90	0.0013712216
15	0xbbe3b730	-0.006949328
16	0x3c227c3b	0.009917314
17	0x3b49a249	0.0030766896
18	0x3be17db2	0.006881439
19	0xbaa4f7f0	-0.0012586098
20	0x3c90e79c	0.017688565
21	0x3aea11ac	0.001785805
22	0xbb029710	-0.0019926466
23	0x39e28192	0.00043202617
24	0x3c2c8af3	0.010531175
25	0xba34290c	-0.00068725715
26	0x3b3b67b9	0.002859576
27	0xbb199608	-0.0023435373
28	0xbba2f8ec	-0.0049735215
29	0x3ca269bd	0.01982581
30	0x3c2faec3	0.010722819
31	0xbb6e24d0	-0.003633786
32	0x3c5f3220	0.013622791
33	0x3c2a8ad7	0.010409079
34	0xbc2befa7	-0.010494149
35	0x3c0c6db9	0.008571082
36	0x3c62b2ba	0.013836557
37	0xbb194e3a	-0.0023392574
38	0x3b02f5be	0.00199829
39	0x3ccbdf80	0.024886847
40	0x3b193f31	0.0023383612
41	0x3b498a46	0.0030752583
42	0x3bde2da2	0.006780342
43	0x3a8b53af	0.0010629798
44	0xb8fd6d71	-0.00012084365
45	0x3b3e1823	0.0029006086
46	0x3c787c00	0.015166283
47	0x3c59e1a4	0.013298426
48	0x3c8bce87	0.017066253
49	0x3b82f4f0	0.003996484
50	0x3ca29c11	0.019849809
51	0xbbad415e	-0.0052873334
52	0x3b7741de	0.003772847
53	0x3beeef09	0.007291679
54	0x390e6ed9	0.00013583469
55	0x3c9a350f	0.018824128
56	0x3c88efda	0.016715933
57	0x3b9e2bb9	0.0048269895
58	0x3c36df70	0.01116167
59	0x3c0c2e14	0.008555908
60	0x3bbefee6	0.005828726
61	0x3ab69f91	0.0013933053
62	0xbb8f82e0	-0.004379615
63	0x3ba7d27d	0.0051215277
64	0x3cb92094	0.022598542
65	0xbc9a60ad	-0.018844927
66	0xbbce5681	-0.006296933
67	0x3c974b64	0.018468566
68	0xbc54d4ce	-0.01299019
69	0x3c7d5ce2	0.0154640395
70	0x3cdba525	0.026812145
71	0x3d190383	0.037356865
72	0x3c26a553	0.010171252
73	0x3cf41a6e	0.029797759
74	0x3cbc2203	0.022965437
75	0x3cbfea76	0.02342723
76	0xbcba7b7c	-0.02276396
77	0x3c2e0f67	0.010623789
78	0xbcdbfc85	-0.02685381
79	0xbba6762a	-0.005080004
80	0xbc3df1fc	-0.011593338
81	0x3bde2d50	0.006780304
82	0xbbcc6fa6	-0.0062388955
83	0xbc6ddd9c	-0.014518168
84	0x3c1bf070	0.009517774
85	0x3b7bc3a9	0.0038416183
86	0x3d00822e	0.03137415
87	0x3cd72c15	0.026266137
88	0x3d05cebb	0.032667857
89	0xbc57e404	-0.013176922
90	0x3c853b5d	0.016263658
91	0xbcfa0220	-0.030518591
92	0xbbb4b809	-0.0055151028
93	0x3cc0b9b4	0.02352605
94	0xbc340d4f	-0.010989501
95	0xbca23436	-0.019800287
96	0x3c457a12	0.01205303
97	0xbab42b9b	-0.0013745906
98	0xbaa69119	-0.0012708037
99	0x3c9c7670	0.019099444
100	0x3d0e3510	0.034718573
101	0xbbde7233	-0.006788516
102	0xba9f08f1	-0.0012133402
103	0x3b8f3326	0.004370111
104	0x3d235360	0.039874434
105	0x3d0a6795	0.03379019
106	0x3cc6c55c	0.02426403
107	0x3d147183	0.036241066
108	0xbb71ebc4	-0.003691421
109	0xb94c937e	-0.00019509901
110	0x3baba678	0.0052383505
111	0x3ca5fe48	0.020262852
112	0xbae29df2	-0.0017289503
113	0x3c352b11	0.011057631
114	0xbc0887f4	-0.008333195
115	0xbc92fe3b	-0.017943492
116	0x3c9a84c6	0.01886214
117	0x3cf41426	0.029794764
118	0x3ceb760b	0.02874281
119	0x3ce9bfd9	0.028533863
120	0x3cfd420c	0.030915283
121	0x3cdc56b9	0.026896821
122	0xba4dd18c	-0.00078513543
123	0xbbefb556	-0.007315318
124	0xbc4eac44	-0.0126143135
125	0xbc7b30da	-0.015331471
126	0xbbdb2d27	-0.006688732
127	0x3b7a3256	0.0038176975
128	0x3b8cf692	0.0043018544
129	0x3c40182b	0.011724512
130	0xbc161ff9	-0.009162896
131	0x3c557c0a	0.0130300615
132	0x3c219f50	0.009864643
133	0xbb91edad	-0.004453382
134	0x3c0ad648	0.00847394
135	0xbc155405	-0.00911427
136	0x3b822519	0.0039717075
137	0x3ca59d23	0.02021653
138	0xbc1fd133	-0.009754467
139	0xbc16597d	-0.009176609
140	0x3b9b7ad9	0.004744869
141	0x3c6a8408	0.014313705
142	0xbc004e23	-0.007831129
143	0x3b3d16cb	0.0028852697
144	0x3acaa273	0.0015459791
145	0xbc9129a9	-0.01772006
146	0x3c169204	0.009190086
147	0xbade8497	-0.0016976771
148	0x3b7fb1a6	0.0039015799
149	0x3c3e2cd9	0.011607372
150	0xbb747bed	-0.003730531
151	0xbc8296b2	-0.015940998
152	0xbb1044d4	-0.002201368
153	0xbc04d894	-0.008108277
154	0x3c0a8dec	0.008456688
155	0xbc82981f	-0.015941678
156	0xbc84bdf5	-0.01620386
157	0x3975528f	0.00023395776
158	0xbbd64fd8	-0.00654028
159	0xbc32a6f9	-0.010904067
160	0x3b075a4f	0.0020653193
161	0xbc0a3e33	-0.008437681
162	0x3b97b9cb	0.0046303025
163	0x3c8a5de6	0.016890477
164	0x3c62aeca	0.013835618
165	0xbbd97c1b	-0.006637109
166	0xb97acdd1	-0.0002391853
167	0xbbe767ec	-0.007061949
168	0x3b5bba36	0.0033527738
169	0x3be76c5f	0.0070624794
170	0x3c3c0126	0.011474883
171	0x3c300770	0.010743961
172	0xbb9aaa56	-0.0047200127
173	0xbc4fc1a6	-0.012680447
174	0x3bb3b0c3	0.005483718
175	0x3aecc263	0.0018063303
176	0x3c0467b3	0.008081364
177	0x3bed29f8	0.007237669
178	0xba004853	-0.00048935896
179	0xbbdfeabf	-0.006833404
180	0x3c047b09	0.0080859745
181	0x3c1ef3db	0.009701694
182	0xb937a394	-0.00017513178
183	0xb9e97468	-0.00044527953
184	0xbc982881	-0.018574001
185	0x3babd753	0.0052441745
186	0x39e448dc	0.00043541833
187	0xbb07dca0	-0.0020730868
188	0xba905e3b	-0.0011014411
189	0xbbfe1fdf	-0.007755264
190	0x3a9cd833	0.0011966288
191	0xb9e86ea1	-0.00044332913

gru.bias_hh_l0 f4 [192]
0	0x3b8b07b1	0.0042428602
1	0x3ca998b9	0.020702707
2	0xbc0fa27a	-0.008766765
3	0x3bee9411	0.0072808345
4	0x3c7ea45e	0.015542118
5	0xbb0b2e54	-0.002123733
6	0x3b8b023f	0.004242211
7	0x3c4e94cc	0.012608718
8	0xbb8a1b78	-0.0042147003
9	0x3cb58f00	0.022162914
10	0xbbe1260d	-0.006870991
11	0x3bc590bb	0.006029216
12	0x3bd62435	0.006535078
13	0xbb6486b6	-0.0034870333
14	0x3ab3ba90	0.0013712216
15	0xbbe3b730	-0.006949328
16	0x3c227c3b	0.009917314
17	0x3b49a249	0.0030766896
18	0x3be17db2	0.006881439
19	0xbaa4f7f0	-0.0012586098
20	0x3c90e79c	0.017688565
21	0x3aea11ac	0.001785805
22	0xbb029710	-0.0019926466
23	0x39e28192	0.00043202617
24	0x3c2c8af3	0.010531175
25	0xba34290c	-0.00068725715
26	0x3b3b67b9	0.002859576
27	0xbb199608	-0.0023435373
28	0xbba2f8ec	-0.0049735215
29	0x3ca269bd	0.01982581
30	0x3c2faec3	0.010722819
31	0xbb6e24d0	-0.003633786
32	0x3c5f3220	0.013622791
33	0x3c2a8ad7	0.010409079
34	0xbc2befa7	-0.010494149
35	0x3c0c6db9	0.008571082
36	0x3c62b2ba	0.013836557
37	0xbb194e3a	-0.0023392574
38	0x3b02f5be	0.00199829
39	0x3ccbdf80	0.024886847
40	0x3b193f31	0.0023383612
41	0x3b498a46	0.0030752583
42	0x3bde2da2	0.006780342
43	0x3a8b53af	0.0010629798
44	0xb8fd6d71	-0.00012084365
45	0x3b3e1823	0.0029006086
46	0x3c787c00	0.015166283
47	0x3c59e1a4	0.013298426
48	0x3c8bce87	0.017066253
49	0x3b82f4f0	0.003996484
50	0x3ca29c11	0.019849809
51	0xbbad415e	-0.0052873334
52	0x3b7741de	0.003772847
53	0x3beeef09	0.007291679
54	0x390e6ed9	0.00013583469
55	0x3c9a350f	0.018824128
56	0x3c88efda	0.016715933
57	0x3b9e2bb9	0.0048269895
58	0x3c36df70	0.01116167
59	0x3c0c2e14	0.008555908
60	0x3bbefee6	0.005828726
61	0x3ab69f91	0.0013933053
62	0xbb8f82e0	-0.004379615
63	0x3ba7d27d	0.0051215277
64	0x3cb92094	0.022598542
65	0xbc9a60ad	-0.018844927
66	0xbbce5681	-0.006296933
67	0x3c974b64	0.018468566
68	0xbc54d4ce	-0.01299019
69	0x3c7d5ce2	0.0154640395
70	0x3cdba525	0.026812145
71	0x3d190383	0.037356865
72	0x3c26a553	0.010171252
73	0x3cf41a6e	0.029797759
74	0x3cbc2203	0.022965437
75	0x3cbfea76	0.02342723
76	0xbcba7b7c	-0.02276396
77	0x3c2e0f67	0.010623789
78	0xbcdbfc85	-0.02685381
79	0xbba6762a	-0.005080004
80	0xbc3df1fc	-0.011593338
81	0x3bde2d50	0.006780304
82	0xbbcc6fa6	-0.0062388955
83	0xbc6ddd9c	-0.014518168
84	0x3c1bf070	0.009517774
85	0x3b7bc3a9	0.0038416183
86	0x3d00822e	0.03137415
87	0x3cd72c15	0.026266137
88	0x3d05cebb	0.032667857
89	0xbc57e404	-0.013176922
90	0x3c853b5d	0.016263658
91	0xbcfa0220	-0.030518591
92	0xbbb4b809	-0.0055151028
93	0x3cc0b9b4	0.02352605
94	0xbc340d4f	-0.010989501
95	0xbca23436	-0.019800287
96	0x3c457a12	0.01205303
97	0xbab42b9b	-0.0013745906
98	0xbaa69119	-0.0012708037
99	0x3c9c7670	0.019099444
100	0x3d0e3510	0.034718573
101	0xbbde7233	-0.006788516
102	0xba9f08f1	-0.0012133402
103	0x3b8f3326	0.004370111
104	0x3d235360	0.039874434
105	0x3d0a6795	0.03379019
106	0x3cc6c55c	0.02426403
107	0x3d147183	0.036241066
108	0xbb71ebc4	-0.003691421
109	0xb94c937e	-0.00019509901
110	0x3baba678	0.0052383505
111	0x3ca5fe48	0.020262852
112	0xbae29df2	-0.0017289503
113	0x3c352b11	0.011057631
114	0xbc0887f4	-0.008333195
115	0xbc92fe3b	-0.017943492
116	0x3c9a84c6	0.01886214
117	0x3cf41426	0.029794764
118	0x3ceb760b	0.02874281
119	0x3ce9bfd9	0.028533863
120	0x3cfd420c	0.030915283
121	0x3cdc56b9	0.026896821
122	0xba4dd18c	-0.00078513543
123	0xbbefb556	-0.007315318
124	0xbc4eac44	-0.0126143135
125	0xbc7b30da	-0.015331471
126	0xbbdb2d27	-0.006688732
127	0x3b7a3256	0.0038176975
128	0x3b71ffd9	0.0036926179
129	0x3c526f2b	0.012843887
130	0xbc1671ab	-0.009182374
131	0x3c5be914	0.013422269
132	0x3c1b349f	0.009472995
133	0xbb8ad88e	-0.004237241
134	0x3c0f7b58	0.008757435
135	0xbc1974b5	-0.009366204
136	0x3b6a5b68	0.0035760049
137	0x3ca8ef08	0.020621791
138	0xbc176733	-0.009240913
139	0xbc1d54ca	-0.009602735
140	0x3b9f94cd	0.0048700334
141	0x3c6e8b69	0.014559605
142	0xbbfc2e0c	-0.007695919
143	0x3b43f737	0.002990199
144	0x3b0cbdc1	0.0021475407
145	0xbc90e597	-0.017687602
146	0x3c307aa5	0.010771428
147	0xba637fc0	-0.0008678399
148	0x3b8dd023	0.0043277903
149	0x3c2db0df	0.010601251
150	0xbb369919	-0.002786225
151	0xbc824b6e	-0.015905108
152	0xbaea467d	-0.001787379
153	0xbc03b349	-0.00803835
154	0x3c040d6e	0.0080598425
155	0xbc8378f0	-0.016048878
156	0xbc89cae5	-0.01682038
157	0x3aa8e847	0.0012886607
158	0xbbe97c11	-0.0071253856
159	0xbc2acb8b	-0.010424505
160	0x3aea5712	0.0017878732
161	0xbbe13d58	-0.006873768
162	0x3b848d11	0.0040451367
163	0x3c895b75	0.016767243
164	0x3c60e3ca	0.013726184
165	0xbbdb1c34	-0.0066867117
166	0xb92f1478	-0.00016696926
167	0xbbc07aef	-0.00587403
168	0x3b81b7e6	0.00395869
169	0x3bd990f2	0.0066395933
170	0x3c51ba2d	0.012800735
171	0x3c207e2e	0.009795709
172	0xbb9d6c5f	-0.0048041786
173	0xbc4d8804	-0.012544636
174	0x3bd34963	0.0064479574
175	0x3a828e39	0.0009960599
176	0x3c0ba800	0.008523941
177	0x3bed1f9c	0.007236434
178	0x3a78393d	0.00094689784
179	0xbbd942aa	-0.0066302614
180	0x3c01edc7	0.007930226
181	0x3c0fd4a7	0.008778728
182	0xb9df7330	-0.00042619696
183	0xba32cbf4	-0.00068205525
184	0xbc9a1962	-0.018810932
185	0x3b8c1a06	0.004275563
186	0x3ab0860c	0.0013467683
187	0xba2d1042	-0.0006601849
188	0xb90b7c04	-0.00013302272
189	0xbbffcf77	-0.007806714
190	0x393d0677	0.00018026853
191	0xb98bc62e	-0.000266598

gru.weight_ih_l0_reverse f4 [192, 6]
0	0xbdeed8c1	-0.11662436
1	0xbde856b1	-0.1134466
2	0x3e7f46f7	0.24929415
3	0x3e6d804e	0.23193476
4	0x3e1082cc	0.14112395
5	0x3e6e653a	0.23280802
6	0x3e6ad080	0.22931099
7	0xbe49438b	-0.19654672
8	0x3e5fdc86	0.21861467
9	0xbcc925f0	-0.024554223
10	0x3e6b90f3	0.23004512
11	0xbe1f8805	-0.15579231
12	0xbe694737	-0.22781073
13	0xbdf119f4	-0.11772528
14	0x3dcea6bf	0.10090398
15	0xbdefac49	-0.11702783
16	0x3e00e142	0.12585929
17	0xbb7e612f	-0.003881525
18	0x3e2ae5b1	0.16689183
19	0x3e543b81	0.20725824
20	0xbd42c4b3	-0.04755087
21	0xbe005fee	-0.12536594
22	0x3e132efa	0.14373389
23	0x3dbd6c6d	0.09249196
24	0x3e32bb96	0.17454371
25	0x3dd16f61	0.10226322
26	0x3e33c42e	0.17555305
27	0xbd0371fe	-0.032091133
28	0x3cabe86b	0.020984849
29	0xbe34cb57	-0.17655693
30	0x3df5dac8	0.1200462
31	0x3d2060ae	0.0391547
32	0x3c1be27d	0.009514448
33	0x3e54eb41	0.20792867
34	0xbc9bbeb7	-0.019011838
35	0xbc74367e	-0.01490557
36	0x3dcf0e81	0.10110188
37	0x3dabcbbd	0.08388469
38	0x3def0d0d	0.11672411
39	0xbe443c9e	-0.19163749
40	0xbd75244c	-0.05984907
41	0x3d2b472f	0.041815933
42	0x3e1a82cd	0.15088959
43	0xbe37d7ec	-0.17953461
44	0x3e01a068	0.12658846
45	0x3b0c25c2	0.002138481
46	0xbe0001e0	-0.12500715
47	0xbe1682cf	-0.14698337
48	0xbdefa8a1	-0.11702085
49	0xbe6da535	-0.23207553
50	0x3e72a24c	0.23694724
51	0xbe7b3e66	-0.24535522
52	0xbd4f8688	-0.05066541
53	0x3d7fd52c	0.062459156
54	0x3e3ddc27	0.18541013
55	0xbd7ca05f	-0.06167638
56	0x3c065b59	0.00820049
57	0xbc2e32cd	-0.010632229
58	0xbe64cf53	-0.22344713
59	0xbe7cf560	-0.24702978
60	0xbe71dcba	-0.23619357
61	0xbe318711	-0.1733668
62	0x3c983da2	0.018584076
63	0x3d030f08	0.031996757
64	0xbe4b4b3e	-0.19852921
65	0xbe559d34	-0.2086075
66	0x3db78660	0.08961177
67	0xbdd497c1	-0.10380507
68	0xbe555fc2	-0.2083731
69	0xbd46b78a	-0.04851488
70	0xbe5d890b	-0.21634309
71	0xbda50e00	-0.08059311
72	0x3e64b364	0.22334057
73	0x3c75e2f2	0.015007721
74	0xbdbfbf47	-0.09362655
75	0x3e1aa451	0.15101744
76	0x3db62a1e	0.08894752
77	0xbe2b6a6c	-0.16739815
78	0x3e6742c9	0.2258407
79	0xbe7f8b44	-0.2495547
80	0x3e5ae986	0.21378145
81	0x3da7d41f	0.08194756
82	0xbdf1299e	-0.11775516
83	0xbe2353c7	-0.15949927
84	0xbe47b39a	-0.19502106
85	0x3e192553	0.14955644
86	0x3dd8431e	0.105596766
87	0x3d9c8fd5	0.07644621
88	0xbd933a9d	-0.07188914
89	0xbe5cdb6e	-0.21568081
90	0x3e05bed1	0.13061072
91	0x3e6aeb10	0.22941232
92	0x3e3dca5c	0.18534225
93	0xbc8283a6	-0.015931915
94	0xbe28724d	-0.16449852
95	0x3de6fe4a	0.112789705
96	0xbe2204c5	-0.15822132
97	0x3cc5fe18	0.024169013
98	0x3e0a7334	0.13520509
99	0xbbd7acbb	-0.0065818704
100	0xbd62806f	-0.055298265
101	0x3e6d5a43	0.23178963
102	0x3c25c237	0.010117105
103	0xbe32c4db	-0.17457907
104	0x3dcfebd8	0.101524055
105	0xbe1fa909	-0.15591826
106	0x3e01db1e	0.12681243
107	0x3cdcead6	0.026967447
108	0xbe3eb962	-0.18625405
109	0xbe3c77bb	-0.18405049
110	0xbe2b4168	-0.16724169
111	0x3dcd16cf	0.10014116
112	0xbd4c6d83	-0.049909126
113	0xbd73623b	-0.05941985
114	0x3e6af6f7	0.22945772
115	0xbdfcc935	-0.12343065
116	0x3ccd0b8b	0.025029918
117	0xbe269240	-0.16266727
118	0x3e57d4dd	0.21077295
119	0xbe1c37f8	-0.15255725
120	0x3d33dbf5	0.04391094
121	0x3e7f272b	0.24917285
122	0xbe0a2cce	-0.13493654
123	0x3d89b490	0.06723893
124	0x3e515b56	0.20444998
125	0x3c90cdda	0.017676283
126	0xbd79fed9	-0.061034057
127	0x3e6a979b	0.22909395
128	0x3e508a7b	0.20365326
129	0x3e5ea173	0.21741275
130	0xbe5ab0d4	-0.21356517
131	0xbe5f86c5	-0.21828754
132	0x3da813eb	0.08206924
133	0x3e2b02ef	0.16700338
134	0x3dbb304e	0.09140073
135	0x3dfc1a8c	0.12309751
136	0xbd0b7b28	-0.034052998
137	0xbe652dbc	-0.22380728
138	0xbe67776b	-0.22604148
139	0x3cd26383	0.025682217
140	0xbe5d2841	-0.21597387
141	0x3e3e5195	0.18585809
142	0x3c867e7e	0.016417738
143	0x3e8172bc	0.25282848
144	0x3e858487	0.26077673
145	0x3dd4da60	0.10393214
146	0xbe442026	-0.19152889
147	0x3e2d6f99	0.16937102
148	0x3d4d4f09	0.050124202
149	0x3e4e7f09	0.20165648
150	0xbd8d5f8b	-0.06902989
151	0xbe499167	-0.19684373
152	0xbe6a5ec1	-0.22887708
153	0xbe04dd97	-0.12975155
154	0xbe2d3e40	-0.16918278
155	0xbde6fd60	-0.11278796
156	0xbe4933ed	-0.19648714
157	0x3e83356b	0.25626692
158	0x3d8467dc	0.06465122
159	0x3e15968f	0.14608215
160	0xbd95d363	-0.073157094
161	0x3e155df0	0.14586616
162	0x3c989d52	0.018629704
163	0xbe204023	-0.15649466
164	0x3e51c423	0.20484976
165	0xbe5c3f99	-0.21508636
166	0x3d95b45c	0.073097914
167	0xbdcc104e	-0.09964047
168	0x3e73d373	0.2381113
169	0xbdf718d9	-0.12065286
170	0x3e4a58a2	0.19760373
171	0xbe46149c	-0.193438
172	0xbe41a6f8	-0.1891135
173	0xbcaf578b	-0.021404048
174	0xbc71f9d2	-0.014769034
175	0x3c83c54f	0.016085295
176	0xbe814417	-0.2524726
177	0x3e757ee7	0.2397419
178	0x3e24762c	0.16060704
179	0xbe3655f2	-0.17806223
180	0x3df4589c	0.119309634
181	0x3e3661d7	0.1781076
182	0x3e224ffb	0.15850823
183	0x3dfbf7e8	0.12303144
184	0x3e73ea29	0.23819794
185	0xbe742233	-0.23841171
186	0xbc5f49f1	-0.013628469
187	0xbd2b8b63	-0.041880976
188	0xbde5eacd	-0.11226425
189	0xbdc86e0e	-0.09786616
190	0x3d47853f	0.048711058
191	0x3e07f485	0.1327687
192	0xbe5a1aed	-0.21299334
193	0x3ccfcf55	0.025367418
194	0xbe1fd8d5	-0.15610059
195	0x3e5e33ee	0.21699497
196	0x3d23db50	0.040004075
197	0x3dbbe938	0.09175342
198	0xbdaec319	-0.08533306
199	0x3e481683	0.19539838
200	0x3e4e6cd2	0.20158699
201	0xbca7207d	-0.020401234
202	0x3e1b9384	0.15192991
203	0xbe3be8c5	-0.18350513
204	0xbdbc4497	-0.0919277
205	0x3db43f2e	0.08801113
206	0x3e74377a	0.23849288
207	0xbc12a691	-0.008950845
208	0x3e27ac73	0.16374378
209	0xbd70150d	-0.058613826
210	0xbe1b2cc4	-0.15153795
211	0x3d76e6c6	0.060278676
212	0x3da00b4b	0.07814654
213	0x3da3cecc	0.07998428
214	0x3e73b501	0.23799516
215	0xbe120a88	-0.1426183
216	0xbd0a0fe8	-0.033706576
217	0xbe246ca5	-0.1605707
218	0xbced14e3	-0.028940624
219	0xbe3fb004	-0.18719488
220	0xbdbe90c7	-0.09304958
221	0x3d4127de	0.04715716
222	0xbd64c7cf	-0.055854615
223	0x3d7e628b	0.062105697
224	0x3e669991	0.22519518
225	0x3e4b50d9	0.1985506
226	0x3e58f63c	0.21187681
227	0x3cffc8f1	0.031223746
228	0x3e10f779	0.14156903
229	0x3e3f573f	0.18685625
230	0x3d508714	0.05091007
231	0xbdd8dba7	-0.1058877
232	0x3e132739	0.14370431
233	0x3dec2ec2	0.11532356
234	0xbdedeb0f	-0.116170995
235	0xbdfe095b	-0.12404128
236	0xbd342bde	-0.043987148
237	0xbe4b5eb4	-0.19860345
238	0x3d0ccd78	0.034375638
239	0xbe3905db	-0.1806864
240	0xbdf9565f	-0.12174677
241	0x3e39c2d1	0.18140723
242	0xbdb0db42	-0.0863557
243	0x3d2579dd	0.04039942
244	0xbe374f79	-0.1790141
245	0x3d73d37f	0.05952787
246	0xbe40ff5a	-0.18847409
247	0x3e71ed8f	0.23625778
248	0xbe291c33	-0.16514663
249	0xbe64d00e	-0.22344992
250	0xbe4a1984	-0.19736296
251	0x3e736983	0.23770718
252	0xbe16e8f0	-0.14737296
253	0x3e18d8b8	0.14926422
254	0x3e171293	0.14753179
255	0x3e315403	0.17317204

gru.weight_hh_l0_reverse f4 [192, 64]
0	0xbdb6e96b	-0.0893124
1	0xbdab399e	-0.08360599
2	0xbb96e106	-0.0046044616
3	0xbdcefee4	-0.1010721
4	0x3d7ca29f	0.061678525
5	0x3ca3906e	0.01996633
6	0xbd789e79	-0.060698006
7	0x3d063c30	0.032772243
8	0x3dc49255	0.09598223
9	0x3c34e2d3	0.011040407
10	0xbd846dde	-0.06466268
11	0x3d13ab67	0.036052134
12	0x3cf175f9	0.029475199
13	0x3e019463	0.12654261
14	0xbdaf90a6	-0.085725114
15	0xbce2b07a	-0.027672041
16	0x3c86b6b4	0.016444542
17	0xbc617002	-0.013759615
18	0xbd5ecb04	-0.05439283
19	0xbcef202a	-0.029190142
20	0xbcf7e2b2	-0.030259464
21	0x3e026916	0.127354
22	0xbdaac360	-0.08338046
23	0xbc6dedab	-0.0145219965
24	0x3cf9dcbd	0.030500764
25	0xbcaa32fd	-0.020776266
26	0x3da95970	0.08269012
27	0x3e003597	0.12520443
28	0xbd1dde4d	-0.03854208
29	0x3cba019c	0.022705846
30	0xbdd2fe69	-0.10302431
31	0x3dd9c823	0.10633876
32	0xbd0dc2ec	-0.03460972
33	0x3d96b5a1	0.07358862
34	0x3d8b7e26	0.0681117
35	0xbc027c38	-0.007964186
36	0xbddd7a76	-0.10814373
37	0xbe275189	-0.16339697
38	0x3e4331b4	0.19061929
39	0xbd08696b	-0.03330366
40	0xbc90f2da	-0.017693926
41	0x3c33cd2e	0.010974212
42	0xbd4a33b2	-0.049365707
43	0x3d9616d5	0.073285736
44	0x3e07886d	0.13235636
45	0xbda8247d	-0.082100846
46	0x3d15220f	0.036409434
47	0x3c235311	0.009968535
48	0xbd587be7	-0.052852537
49	0xbcf889a7	-0.030339075
50	0x3e009526	0.12556896
51	0x3c996e39	0.018729316
52	0xbe188b32	-0.14896849
53	0xbdb56a57	-0.08858173
54	0x3dfb3ff1	0.12268055
55	0x3d6726e1	0.056433562
56	0x3d75bd57	0.05999502
57	0xbd0c4d9d	-0.034253705
58	0x3cbbded6	0.022933405
59	0x3dcad92a	0.09904702
60	0x3d608592	0.054814883
61	0xbdeceb2a	-0.115682915
62	0x3d3b0087	0.0456548
63	0xba902ce8	-0.0010999711
64	0x3cf31f85	0.029678116
65	0x3d06e403	0.032932293
66	0xbd99d49e	-0.07511257
67	0x3abe3fe3	0.0014514889
68	0x3d250245	0.040285368
69	0x3d541217	0.051775064
70	0xbcec1a05	-0.028821
71	0xbe0b1083	-0.13580517
72	0x3cca4a8a	0.024693746
73	0x3bd26929	0.0064212275
74	0x3da913e8	0.0825575
75	0xbbc92ff4	-0.0061397497
76	0x3da4f52e	0.08054577
77	0xbe53a4af	-0.2066829
78	0x3d30a14d	0.04312258
79	0x3d691456	0.05690416
80	0x3d1e6670	0.03867191
81	0xbcba7040	-0.022758603
82	0xbd7dc591	-0.061955992
83	0xbaaed6b2	-0.0013339131
84	0xbdc85cd8	-0.097833335
85	0x3d299484	0.0414014
86	0x3e09f529	0.13472427
87	0xbc87683f	-0.0165292
88	0x3d631b20	0.05544579
89	0x3c1a7ece	0.009429647
90	0xbd3fdb69	-0.046840105
91	0x3bacdb8e	0.0052751964
92	0xbddc7e95	-0.10766331
93	0x3dc13394	0.09433666
94	0x3cadfa7c	0.021237604
95	0x3c103f7b	0.008804197
96	0x3c9df8c2	0.019283656
97	0xbc9c8053	-0.019104159
98	0xbe241f03	-0.16027455
99	0xbd9b0855	-0.075699486
100	0xbca4777a	-0.020076502
101	0x3d3f472c	0.046698734
102	0x3d93d7e3	0.072189115
103	0x3e0c2ea9	0.13689674
104	0xbd0874b4	-0.03331442
105	0x3e1c4149	0.1525928
106	0x3e49ed3b	0.19719402
107	0x3da85c40	0.0822072
108	0xbd16d751	-0.036826435
109	0x3cc836cf	0.024440197
110	0xbc9e8226	-0.019349169
111	0xbd039840	-0.03212762
112	0xbd72a142	-0.05923582
113	0xbdd5e45d	-0.104439475
114	0xbcac312d	-0.021019543
115	0xbd177067	-0.03697243
116	0x3d3062bd	0.043062914
117	0xbdbaf1da	-0.09128161
118	0xbd00118c	-0.031266734
119	0xbdb03c6d	-0.08605275
120	0xbd06b1e8	-0.03288451
121	0xbd05c01a	-0.032653905
122	0x3dd7784e	0.10520993
123	0xbd0b822e	-0.034059696
124	0x3df291a7	0.11844187
125	0xbd5de2df	-0.05417144
126	0x3c775aa1	0.015097291
127	0x3d75a7ba	0.05997441
128	0xbe07fed3	-0.13280801
129	0xbddadc6f	-0.106865756
130	0x3d1d1701	0.038352016
131	0xbda4082a	-0.0800937
132	0xbb40c950	-0.0029416867
133	0x3dbb0ce8	0.09133321
134	0x3d2603d7	0.040531006
135	0x3d828a64	0.06374052
136	0x3d8f8ed6	0.07009666
137	0x3d26c741	0.040717367
138	0x3d1da487	0.038486984
139	0x3ca706b0	0.020388931
140	0xbc22a717	-0.009927533
141	0xbd2bedf3	-0.041974973
142	0x3d0ef693	0.03490312
143	0xbc5c3971	-0.0134414295
144	0x3d2b1183	0.041764747
145	0x3c25ac83	0.010111931
146	0x3c6f37c8	0.014600702
147	0xbc558a73	-0.013033497
148	0x3cf92707	0.030414118
149	0xbd1fa2e1	-0.038973693
150	0xbda004cd	-0.07813416
151	0xbda6c1be	-0.08142422
152	0x3c9810ff	0.018562792
153	0x3da59bf3	0.080863856
154	0x3cd69523	0.02619416
155	0xbc47ae6e	-0.012187583
156	0xbd96d3e0	-0.07364631
157	0xbdbd8cbf	-0.09255361
158	0x3dbca136	0.09210436
159	0x3bff5530	0.0077921376
160	0x3dd44fe2	0.10366799
161	0x3d377c53	0.0447963
162	0xbd989740	-0.07450724
163	0x3d88febe	0.06689213
164	0xbc85f99b	-0.016354373
165	0xbb7c69f5	-0.0038515304
166	0xbda49755	-0.08036677
167	0x3c52fb72	0.012877332
168	0x3d9da7b1	0.07698
169	0xbd4a7a86	-0.049433254
170	0xbd89f9ad	-0.06737075
171	0xbdce6b42	-0.100790516
172	0x3d220f38	0.039565295
173	0xbdba473c	-0.09095618
174	0xbde9077a	-0.11378379
175	0xbce24b4d	-0.027623797
176	0xbdaa71f0	-0.08322513
177	0x3d84f335	0.064917006
178	0x3e17bfd2	0.14819267
179	0x3d6c9fcd	0.057769585
180	0xbd9000e9	-0.070314236
181	0x3dbd404c	0.09240779
182	0x3e0856af	0.13314317
183	0x3de6d5c7	0.112712435
184	0x3c3aeb82	0.0114086885
185	0xbd443c4a	-0.04790906
186	0x3dab005f	0.0834968
187	0xbd60ca8c	-0.054880664
188	0x3bce18cc	0.006289577
189	0x3cbcc9d1	0.023045452
190	0xbd42633f	-0.04745793
191	0x3a8c2177	0.0010691126
192	0xbbffe825	-0.007809656
193	0x3dc29c2a	0.09502442
194	0xbc83036e	-0.015992846
195	0xbbe2ced7	-0.00692163
196	0xbe10359d	-0.14082952
197	0xbd3a8ec4	-0.04554631
198	0x3dd45f52	0.103697434
199	0xbd5fc86a	-0.05463449
200	0xbd3c1925	-0.045922417
201	0x3e246d87	0.16057406
202	0xbda33d68	-0.07970697
203	0xbd7dff42	-0.06201101
204	0x3e0d493e	0.13797471
205	0x3dbae0eb	0.09124931
206	0xbdffc90a	-0.12489517
207	0x3dbec859	0.09315557
208	0x3d269d23	0.0406772
209	0xbd467ffe	-0.048461907
210	0x3cf27ae9	0.029599624
211	0xbc08b9d7	-0.008345089
212	0xbe1347bd	-0.14382835
213	0xbd83adf3	-0.064296626
214	0x3dcf4e74	0.101223856
215	0xbce8cd32	-0.028418157
216	0xbc7099ae	-0.014685078
217	0x3e2a0c78	0.16606319
218	0x3ddc7f7d	0.10766504
219	0x3e2787e0	0.16360426
220	0xbc9a1104	-0.018806942
221	0xbdefca0c	-0.11708459
222	0x3daf6896	0.0856487
223	0xbdaf4eff	-0.08559989
224	0x3ca9ce32	0.020728204
225	0xbd113085	-0.035446662
226	0x3d8ffce3	0.07030656
227	0xbbabe03e	-0.0052452376
228	0x3da9bd24	0.08288029
229	0xbcb2881b	-0.021793416
230	0xbd458cf2	-0.04823012
231	0xbc43a8e3	-0.011942121
232	0x3c0d7cfa	0.008635754
233	0xbd9e95e8	-0.07743436
234	0xbcc00771	-0.023441048
235	0x3d9a5eae	0.0753759
236	0x3cd78589	0.026308792
237	0xbd4b2f2d	-0.049605537
238	0x3c23baa4	0.009993229
239	0x3d38b99d	0.04509889
240	0x3d08bc76	0.033382855
241	0x3d2e4c56	0.04255327
242	0x3bfe639b	0.0077633387
243	0x3d97e574	0.074168116
244	0x3d1e4dd7	0.038648453
245	0xbd36718e	-0.044541888
246	0x3dd45b80	0.10369015
247	0xbe1e7cfd	-0.15477367
248	0xbdceeb23	-0.101034425
249	0x3d9ae15f	0.075625174
250	0x3d7525c6	0.059850477
251	0xbc03ef79	-0.0080527
252	0x3da9f201	0.08298112
253	0x3d3bf4d6	0.04588779
254	0x3d72e10c	0.059296653
255	0x3ce7d3bd	0.028299207

gru.bias_ih_l0_reverse f4 [192]
0	0x3cea8558	0.028628036
1	0x3c46f5cb	0.012143563
2	0x3c6c6b47	0.014429874
3	0xbc6c570d	-0.014425051
4	0x3c6a7e48	0.014312334
5	0x3a9aa7b2	0.0011799245
6	0x3af4a5ba	0.0018665113
7	0xba330765	-0.000682941
8	0x3bbdc1b8	0.0057909153
9	0xbc44a028	-0.012001075
10	0x3c405a54	0.011740286
11	0xb9ad5251	-0.00033058462
12	0xbb77a9bf	-0.0037790386
13	0x3b0cfe64	0.0021513933
14	0x3cdaf47e	0.026727911
15	0xbb3b8851	-0.0028615186
16	0xbab26115	-0.0013609255
17	0x3c4c4028	0.012466468
18	0x3b8434fc	0.0040346365
19	0x3b62b0f0	0.0034590326
20	0xbb753598	-0.0037415978
21	0x3cb0e0a6	0.021591496
22	0xba7d562d	-0.0009664025
23	0x3c099d51	0.008399324
24	0x3b9e063d	0.004822521
25	0x3b717765	0.0036844846
26	0x3b8f242c	0.0043683257
27	0x3c7bf652	0.015378552
28	0x3be52310	0.006992705
29	0x3c2ec508	0.010667093
30	0x3c24004b	0.0100098355
31	0x3b86558e	0.0040995544
32	0x39c05039	0.00036680864
33	0x3c9b4680	0.018954515
34	0x3b5e3efe	0.0033912058
35	0x3cd82b3c	0.026387803
36	0xbc8f9cd4	-0.017530836
37	0x3abf6174	0.0014601187
38	0xbb9a48cd	-0.0047083856
39	0x3ba07411	0.0048966487
40	0x3902485d	0.00012424724
41	0x3ca262d4	0.019822516
42	0x3a339ded	0.0006851841
43	0x3c26fb41	0.01019174
44	0x3bc7ff28	0.006103415
45	0x3c84a783	0.016193157
46	0xbb6cd4fa	-0.0036137686
47	0x3b9cf0a3	0.0047894283
48	0x3c215d93	0.00984897
49	0x3a76d8a5	0.0009416438
50	0xbbacf132	-0.005277776
51	0x3cd00482	0.025392774
52	0x3ca3445e	0.019930061
53	0x3c70a0a9	0.014686742
54	0xbaa8f506	-0.0012890405
55	0x3c020e38	0.00793796
56	0xbbb8d77f	-0.0056409235
57	0xbab01fb3	-0.0013437181
58	0xbb0cfdb2	-0.002151352
59	0x3b6e570f	0.003636781
60	0x3c9d490e	0.019199874
61	0xb83bb360	-4.475133e-05
62	0x3b8dcc12	0.0043273056
63	0x3c3f1413	0.011662501
64	0x3d0b4386	0.033999942
65	0x3c8cf4f5	0.017206648
66	0xb9e3ea2d	-0.00043471289
67	0x3ca6965d	0.02033537
68	0x3bbf1bc7	0.0058321687
69	0xbca0a28d	-0.01960876
70	0x3cef5a92	0.029217992
71	0xbc839645	-0.016062865
72	0x3cbc3ad6	0.022977274
73	0xbca37e2d	-0.019957626
74	0xbbe245eb	-0.0069053075
75	0xbc9e09dd	-0.019291813
76	0xbccf21a0	-0.025284588
77	0xbbd34b34	-0.006448174
78	0x3cadd101	0.021217825
79	0x3c74661e	0.014916925
80	0xbbc17c07	-0.005904678
81	0xbc2e4a63	-0.010637852
82	0xbc8a0446	-0.01684774
83	0xbc92280a	-0.017841358
84	0xbccf599d	-0.025311286
85	0x3d129d78	0.035794705
86	0xbbfc6718	-0.0077027194
87	0x3c7fcc93	0.015612739
88	0x3a58ad15	0.00082655373
89	0x3b2bf5b0	0.002623897
90	0x3c3c09af	0.011476918
91	0xbc6c3359	-0.014416539
92	0x3c6dc4d2	0.014512258
93	0xbcae4d9b	-0.02127724
94	0x3c10c95a	0.008837068
95	0x3cad39c7	0.021145714
96	0xbc8c826f	-0.01715204
97	0x3c94e9dc	0.01817792
98	0xbc9855e8	-0.01859565
99	0xbc8c8ca6	-0.01715691
100	0x3cdfd5ab	0.027323565
101	0x3ca10c02	0.019659046
102	0xbd088530	-0.033330142
103	0x3c56e719	0.013116621
104	0x3d269d05	0.04067709
105	0xbae91820	-0.0017783679
106	0xbc736f89	-0.014858135
107	0xbd0a3c3a	-0.033748843
108	0x3d34100b	0.043960612
109	0x3ccf1928	0.02528055
110	0xbd058797	-0.03260001
111	0x3c2b4e3f	0.010455667
112	0xbab0c76f	-0.001348717
113	0xb9c05f4d	-0.00036692098
114	0x3c9fff14	0.01953081
115	0x3b9265bf	0.0044676955
116	0xbbf065dd	-0.007336362
117	0xbb922dc5	-0.0044610226
118	0xbc2659c1	-0.010153235
119	0xbcb660ae	-0.022262897
120	0x3c997258	0.018731281
121	0xbb9cec79	-0.004788932
122	0xbc937248	-0.01799883
123	0x3cbb406d	0.022857869
124	0x3ccdb8ca	0.025112528
125	0x3cffe377	0.031236393
126	0xbc7c6794	-0.015405554
127	0x3d22d52f	0.03975409
128	0xbbf96044	-0.0076103527
129	0x3c10b32b	0.0088317795
130	0xbb56f6f9	-0.0032801016
131	0xbb3b3f3b	-0.0028571624
132	0x3a7f3a83	0.0009736197
133	0x3b5b2ecb	0.0033444639
134	0x3bc01253	0.0058615594
135	0x3b1fd9a8	0.0024391208
136	0xbc39e784	-0.0113467015
137	0x3bbede49	0.0058248383
138	0x3bcb4bb6	0.006204094
139	0xbc02dcc1	-0.007987202
140	0xbbf225d4	-0.0073897634
141	0x3c3ff005	0.01171494
142	0xbbde827e	-0.006790458
143	0xbc00692e	-0.007837577
144	0xbbf6ccfe	-0.007531761
145	0x3b94a8fd	0.0045367465
146	0xbbd4e598	-0.0064970963
147	0xb8aeb0b7	-8.329882e-05
148	0x3be259b4	0.006907666
149	0xbbc0d4e9	-0.005884756
150	0x3b88e24c	0.0041773673
151	0x3bd92124	0.006626265
152	0xbbca9897	-0.006182741
153	0x3685b45c	3.9847055e-06
154	0x3c1eff08	0.009704359
155	0x3baeb922	0.005332128
156	0xbc6f0a1f	-0.014589815
157	0x3a2e0b56	0.00066392624
158	0xbc46c037	-0.0121307885
159	0x3bd62fcb	0.006536459
160	0x3c173404	0.00922871
161	0x3bef59a1	0.007304386
162	0x3b623c1c	0.0034520691
163	0xbba5da13	-0.005061397
164	0xbc79caea	-0.015246132
165	0x3c097853	0.008390504
166	0x3a1ae071	0.0005908078
167	0xbc7e8b0e	-0.015536083
168	0xbc45533b	-0.0120437695
169	0x3b8bca61	0.004266069
170	0x3c1d511d	0.009601858
171	0xbb09d88b	-0.002103361
172	0xbb063817	-0.002048021
173	0xbbfef6f4	-0.007780904
174	0x3ac27213	0.0014835022
175	0xbbbe342b	-0.0058045588
176	0xbbefab6b	-0.007314136
177	0x3ba41c7b	0.005008278
178	0x3c59abb7	0.013285569
179	0xbc1277d0	-0.008939698
180	0x3a6edcc8	0.00091118785
181	0xbac7bbfc	-0.0015238519
182	0x3b139d94	0.0022524344
183	0xbbdfd47f	-0.0068307514
184	0xbb140957	-0.0022588575
185	0x3ae33560	0.0017334633
186	0xbb1addd3	-0.0023630753
187	0xbc417e5c	-0.011809912
188	0xbbb5ae58	-0.005544465
189	0xbc556e3a	-0.013026768
190	0x3bbfedfd	0.005857228
191	0xb923f82a	-0.0001563734

gru.bias_hh_l0_reverse f4 [192]
0	0x3cea8558	0.028628036
1	0x3c46f5cb	0.012143563
2	0x3c6c6b47	0.014429874
3	0xbc6c570d	-0.014425051
4	0x3c6a7e48	0.014312334
5	0x3a9aa7b2	0.0011799245
6	0x3af4a5ba	0.0018665113
7	0xba330765	-0.000682941
8	0x3bbdc1b8	0.0057909153
9	0xbc44a028	-0.012001075
10	0x3c405a54	0.011740286
11	0xb9ad5251	-0.00033058462
12	0xbb77a9bf	-0.0037790386
13	0x3b0cfe64	0.0021513933
14	0x3cdaf47e	0.026727911
15	0xbb3b8851	-0.0028615186
16	0xbab26115	-0.0013609255
17	0x3c4c4028	0.012466468
18	0x3b8434fc	0.0040346365
19	0x3b62b0f0	0.0034590326
20	0xbb753598	-0.0037415978
21	0x3cb0e0a6	0.021591496
22	0xba7d562d	-0.0009664025
23	0x3c099d51	0.008399324
24	0x3b9e063d	0.004822521
25	0x3b717765	0.0036844846
26	0x3b8f242c	0.0043683257
27	0x3c7bf652	0.015378552
28	0x3be52310	0.006992705
29	0x3c2ec508	0.010667093
30	0x3c24004b	0.0100098355
31	0x3b86558e	0.0040995544
32	0x39c05039	0.00036680864
33	0x3c9b4680	0.018954515
34	0x3b5e3efe	0.0033912058
35	0x3cd82b3c	0.026387803
36	0xbc8f9cd4	-0.017530836
37	0x3abf6174	0.0014601187
38	0xbb9a48cd	-0.0047083856
39	0x3ba07411	0.0048966487
40	0x3902485d	0.00012424724
41	0x3ca262d4	0.019822516
42	0x3a339ded	0.0006851841
43	0x3c26fb41	0.01019174
44	0x3bc7ff28	0.006103415
45	0x3c84a783	0.016193157
46	0xbb6cd4fa	-0.0036137686
47	0x3b9cf0a3	0.0047894283
48	0x3c215d93	0.00984897
49	0x3a76d8a5	0.0009416438
50	0xbbacf132	-0.005277776
51	0x3cd00482	0.025392774
52	0x3ca3445e	0.019930061
53	0x3c70a0a9	0.014686742
54	0xbaa8f506	-0.0012890405
55	0x3c020e38	0.00793796
56	0xbbb8d77f	-0.0056409235
57	0xbab01fb3	-0.0013437181
58	0xbb0cfdb2	-0.002151352
59	0x3b6e570f	0.003636781
60	0x3c9d490e	0.019199874
61	0xb83bb360	-4.475133e-05
62	0x3b8dcc12	0.0043273056
63	0x3c3f1413	0.011662501
64	0x3d0b4386	0.033999942
65	0x3c8cf4f5	0.017206648
66	0xb9e3ea2d	-0.00043471289
67	0x3ca6965d	0.02033537
68	0x3bbf1bc7	0.0058321687
69	0xbca0a28d	-0.01960876
70	0x3cef5a92	0.029217992
71	0xbc839645	-0.016062865
72	0x3cbc3ad6	0.022977274
73	0xbca37e2d	-0.019957626
74	0xbbe245eb	-0.0069053075
75	0xbc9e09dd	-0.019291813
76	0xbccf21a0	-0.025284588
77	0xbbd34b34	-0.006448174
78	0x3cadd101	0.021217825
79	0x3c74661e	0.014916925
80	0xbbc17c07	-0.005904678
81	0xbc2e4a63	-0.010637852
82	0xbc8a0446	-0.01684774
83	0xbc92280a	-0.017841358
84	0xbccf599d	-0.025311286
85	0x3d129d78	0.035794705
86	0xbbfc6718	-0.0077027194
87	0x3c7fcc93	0.015612739
88	0x3a58ad15	0.00082655373
89	0x3b2bf5b0	0.002623897
90	0x3c3c09af	0.011476918
91	0xbc6c3359	-0.014416539
92	0x3c6dc4d2	0.014512258
93	0xbcae4d9b	-0.02127724
94	0x3c10c95a	0.008837068
95	0x3cad39c7	0.021145714
96	0xbc8c826f	-0.01715204
97	0x3c94e9dc	0.01817792
98	0xbc9855e8	-0.01859565
99	0xbc8c8ca6	-0.01715691
100	0x3cdfd5ab	0.027323565
101	0x3ca10c02	0.019659046
102	0xbd088530	-0.033330142
103	0x3c56e719	0.013116621
104	0x3d269d05	0.04067709
105	0xbae91820	-0.0017783679
106	0xbc736f89	-0.014858135
107	0xbd0a3c3a	-0.033748843
108	0x3d34100b	0.043960612
109	0x3ccf1928	0.02528055
110	0xbd058797	-0.03260001
111	0x3c2b4e3f	0.010455667
112	0xbab0c76f	-0.001348717
113	0xb9c05f4d	-0.00036692098
114	0x3c9fff14	0.01953081
115	0x3b9265bf	0.0044676955
116	0xbbf065dd	-0.007336362
117	0xbb922dc5	-0.0044610226
118	0xbc2659c1	-0.010153235
119	0xbcb660ae	-0.022262897
120	0x3c997258	0.018731281
121	0xbb9cec79	-0.004788932
122	0xbc937248	-0.01799883
123	0x3cbb406d	0.022857869
124	0x3ccdb8ca	0.025112528
125	0x3cffe377	0.031236393
126	0xbc7c6794	-0.015405554
127	0x3d22d52f	0.03975409
128	0xbc08e788	-0.008355983
129	0x3c0a0fed	0.008426649
130	0xbb940acb	-0.004517888
131	0xbb8c2b9a	-0.0042776586
132	0x3b189c3f	0.002328649
133	0x3b452a5d	0.0030085065
134	0x3bcd83f8	0.0062718354
135	0x3b3f99d6	0.002923598
136	0xbc3fbc2a	-0.011702577
137	0x3bb3e3d4	0.0054898057
138	0x3bc2f21a	0.005949271
139	0xbbf9bc11	-0.007621296
140	0xbc093fe7	-0.008377052
141	0x3c3b84b7	0.011445216
142	0xbc10b99b	-0.008833314
143	0xbbfc2454	-0.0076947603
144	0xbbe0e250	-0.006862916
145	0x3b9977db	0.0046834773
146	0xbbeb9774	-0.0071896855
147	0xba84fae8	-0.0010145577
148	0x3beefc36	0.0072932495
149	0xbbce3018	-0.0062923543
150	0x3b400093	0.0029297217
151	0x3bdcb032	0.0067348713
152	0xbbd0f467	-0.0063767913
153	0x38df59ed	0.000106502186
154	0x3c1876fe	0.009305714
155	0x3b7c1e62	0.0038470258
156	0xbc743295	-0.014904638
157	0x3a5b6b9a	0.0008370221
158	0xbc4862bc	-0.012230571
159	0x3be68c41	0.0070357625
160	0x3c1ae26a	0.009453395
161	0x3bc92ee1	0.0061396216
162	0x3b3ded04	0.0028980384
163	0xbbc9536a	-0.006143977
164	0xbc7f83d5	-0.015595396
165	0x3c247bb2	0.010039257
166	0x3a5ae013	0.00083494297
167	0xbc80082b	-0.015628895
168	0xbc420406	-0.01184178
169	0x3b0bd9c7	0.0021339522
170	0x3c19e968	0.009394027
171	0xbad89c37	-0.0016526048
172	0xba902272	-0.0010996594
173	0xbc0bf7d7	-0.008542976
174	0x3ab5cdec	0.0013870574
175	0xbbc3cf66	-0.0059756516
176	0xbbe38e5a	-0.00694446
177	0x3ba08afc	0.0048993807
178	0x3c549a62	0.012976261
179	0xbc135045	-0.008991306
180	0x3851f7d1	5.006028e-05
181	0xbaca621b	-0.0015440615
182	0x3af9e636	0.0019065801
183	0xbbe41cb2	-0.0069614286
184	0xbac59a7a	-0.0015075945
185	0x3b29895c	0.0025869226
186	0xbb28e9ab	-0.0025774043
187	0xbc3d62e2	-0.01155922
188	0xbbd08e19	-0.0063645956
189	0xbc1b94d9	-0.009495937
190	0x3bd61080	0.0065327287
191	0xbac0048b	-0.0014649791
