gru_classifier_weights/llama-3-8b_a100_tp1.pt (torch, 117957 bytes, 10 tensors)

gru.weight_ih_l0 f4 [192, 6]
00000000: 4bce 75bd 1d98 46be 03ba cf3c 3f96 9a3c
00000010: 6a01 b9bd b407 96bd 2a89 0c3d f32e b0bd
00000020: 9614 013e ab95 043d 0139 db3b c806 fbbd
00000030: ca2a 39be d59f cebd 2ace 933d ed2b 053d
00000040: 7141 dbbd 3d49 a23d 709c 8ebc 8b88 d23c
00000050: eae2 a7bd a7c0 dfbd 74a0 b2bc 8dd2 7e3d
00000060: 1f89 3dbe 3111 d5bc f713 21bc dfba 1abe
00000070: 31c7 0cbe 550a e03d fa91 843c 8840 2dbd
00000080: e7dc a33d 0488 bb3c 6c8d e8bd c70c d3bc
00000090: b7d2 753d 0777 963a d8d5 cdbb cc1a 95bd
000000a0: 6a26 ce3d 50b2 903d 48a7 223d 8046 04bc
000000b0: 1bdf 8dbd b26c 06be e594 94bd d5dd f73d
000000c0: a81a 33be 5cb3 04bd f195 353b 7308 10be
000000d0: 2c3b 0ebd 2a9e a6bd e1e6 29be 1166 56bd
000000e0: 7161 7d3c dcb2 b3bd 71d6 883d e7db f53d
000000f0: e4e5 b7bc 2352 1dbe 6e79 0ebe 5916 7abc
00000100: 0c12 15be 96e9 ae3d 153b 98bb d4aa 343d
00000110: 5549 603d 7912 3cbc b3f4 47bd d806 eebc
00000120: 2e67 123e 15bf 0bbd 319f 883d a797 883d
00000130: f0b9 d8bc 6b48 ee3d 8096 0bbe 3770 08be
00000140: 8da7 bcbd f0b6 c9bd a8e2 efbd 9a3e a73d
00000150: d703 38bd 8848 a53d 908a 443d f686 233d
00000160: 1e6b 123d 877b ef3d 81d8 b83d d20b 2fbc
00000170: 127b 5cbd d212 f03b 1736 22bd d741 02be
00000180: dcc8 e73c 6036 0dbe ed1e b13d e1dc 44bd
00000190: c9a2 f53b 829c fc3d dbcd 19be b521 1abe
000001a0: d14b 63bd 48d0 053e 0de8 3abe d181 40bd
000001b0: cc3d 08be 9e98 debc b432 ecbd 7740 f0bd
000001c0: c701 8c3d 6bba 9b3d 96d5 33be 473c 52bd
000001d0: 36fa c63d 9184 90bd 0380 4ebc 4c9a f53c
000001e0: 905e ecbd aa32 23be 543f 8cbd 701f 9a3d
000001f0: ea8e 76bd df8d a9bd a8e3 13be 5076 59bc
00000200: 3ea2 f9bd 588d 213e 50c3 20bc da42 2a3e
00000210: af96 28be 0b36 2fbe 1aa6 70bd 97c3 cfbd
00000220: b58b 19be 5271 9dbc 849c a5bd b475 07be
00000230: 0af0 d0bb 8f15 d53d ac50 e9bc 4187 4ebd
00000240: e956 efbd 0cc0 f1bd 9946 1cbe 1c32 1cbe
00000250: fb8c b3bd 1c3f 9cbc 516d 44be 2f20 63bd
00000260: 93b6 8dbd ec07 443d 736f 9ebb d19e 92bc
00000270: bec4 fcbd f1f3 0abd 77cf 1e3d d36c d13d
00000280: e872 21be 9153 84bc 448a 75be 9635 bebd
00000290: 1f86 e1bc f16f 6c3d 7c28 c7bd a226 0cbe
000002a0: af2d 5bbe 3704 17be 06a5 023d 6334 9ebd
000002b0: cb9b 8a3d 87cb a3bd 68ca 6a3d 9499 8f3d
000002c0: 87b7 ac3c bf72 9c3d a73d dc3d 1676 97bd
000002d0: ef5a 6b3c 6f7b 03be da60 6ebd 33dc 5c3d
000002e0: cfda 9037 3acc 8fbd 5199 a0bc d370 973d
000002f0: 56df 90bd ec09 1f3e c6e1 a9bd 5af6 0a3e
00000300: 0d40 debd b2ab bfbd 1bd4 4b3c dc1b 20bd
00000310: e37f 9abd 1d6c 04be 2984 bfbb bfcf 16be
00000320: 2bf0 c4bd 947d 95bd 7d7d b2bd fd94 0d3d
00000330: c6ac cdbd 0b0c 963c ef3e 003d 6042 043c
00000340: 28e3 e7bc 16c5 5b3d 833b 02be 9329 a7bd
00000350: b8e2 16be 0c06 d2bc 9b80 673c dc03 7b3d
00000360: 7cb0 22bc 051f 5e3d 401a 68bd 00bd 5c3d
00000370: 5e6e bebd 309c d13c 3d59 1fbe 1aa9 5bbe
00000380: e607 ed3c d3a3 acbb d9e5 9b3c 6221 133e
00000390: 7680 f5bd 5f00 e1bd f771 0bbe 0fcd 05be
000003a0: 31ee a43c 33aa 723d b3b4 a53d ac66 d0bd
000003b0: 538c 813c c905 073e ca19 eabc e24b 043e
000003c0: 6726 c63d 6b3d 79bd 8e82 323d f062 4cbd
000003d0: a50f 063e 2837 fa3d da23 b2bd e58d 0abd
000003e0: 5542 c4bd d0d8 c83d 958f 84bd b8e0 3a3d
000003f0: 87e6 173d 4328 6d3d 1a10 6b3c d657 233d
-0.06001119 -0.19393964 0.025357252 0.018870471 -0.09033473 -0.07325688 0.034310497 -0.08602705
0.12605509 0.032369297 0.006690145 -0.12257153 -0.18082729 -0.10089079 0.07217057 0.032512594
-0.10705841 0.07924125 -0.01740858 0.025699874 -0.08197577 -0.109254174 -0.021805026 0.062212516
-0.18509339 -0.026009174 -0.00983142 -0.15110348 -0.1374786 0.10939471 0.016182888 -0.04229787
0.08001118 0.022892006 -0.11355099 -0.025762929 0.060015406 0.0011479565 -0.0062815957 -0.07280502
0.10065921 0.070652604 0.039710313 -0.008073449 -0.069273196 -0.13127401 -0.07254962 0.12102858
-0.17490637 -0.032397613 0.002770778 -0.14065723 -0.0347244 -0.08135636 -0.1659198 -0.05234343
0.015465126 -0.08774349 0.066815265 0.12004834 -0.022448488 -0.15363364 -0.13913509 -0.015264117
-0.14557666 0.08540647 -0.004645715 0.044108227 0.054757435 -0.011479014 -0.048817348 -0.029055998
0.14297172 -0.034117777 0.06670988 0.066695504 -0.02645585 0.116349064 -0.1363163 -0.13324057
-0.09211645 -0.09849346 -0.11713153 0.08166237 -0.044925537 0.08070475 0.047983706 0.03992363
0.035746686 0.11693483 0.0902567 -0.0106839705 -0.053828306 0.0073264623 -0.039602365 -0.12720428
0.02829402 -0.13790274 0.08648477 -0.04806221 0.007496212 0.12334539 -0.15019934 -0.1505192
-0.055492226 0.13067734 -0.18252583 -0.046998803 -0.13304824 -0.027172383 -0.11533108 -0.11731046
0.068362765 0.07603916 -0.17561945 -0.051327016 0.09715693 -0.07056535 -0.012603763 0.029980801
-0.11541474 -0.15937296 -0.068480164 0.075255275 -0.060194887 -0.08279013 -0.14442313 -0.013272837
-0.12189148 0.15776575 -0.009812191 0.16627064 -0.16463731 -0.1711046 -0.058752157 -0.10144728
-0.149947 -0.019219074 -0.080864936 -0.13228494 -0.006376271 0.104045026 -0.02848085 -0.050421957
-0.11686499 -0.11804208 -0.15261306 -0.1525349 -0.08767124 -0.019073062 -0.19182326 -0.055450615
-0.06919589 0.047859117 -0.004835063 -0.017897995 -0.12342213 -0.033924047 0.038772073 0.10225835
-0.1576649 -0.016153129 -0.23978525 -0.092875645 -0.027529774 0.057723943 -0.09724519 -0.13686612
-0.21404146 -0.14747702 0.03189566 -0.07724836 0.067679964 -0.07997804 0.057321936 0.070117146
0.021083606 0.076390736 0.10753947 -0.0739557 0.014364942 -0.12840055 -0.058197834 0.053920936
1.7268028e-05 -0.07021375 -0.019604357 0.073945664 -0.07073848 0.15531129 -0.08295016 0.13570538
-0.108520605 -0.0935892 0.012440707 -0.03908907 -0.07543924 -0.12931867 -0.005844612 -0.14727686
-0.09616121 -0.07299343 -0.08715341 0.034565914 -0.100427195 0.01831629 0.03131002 0.008072466
-0.028306559 0.053654753 -0.12718014 -0.081622265 -0.14734924 -0.025637649 0.014129783 0.061282977
-0.0099297725 0.0542288 -0.05666566 0.053891182 -0.092983946 0.025587171 -0.15561385 -0.21451226
0.02893443 -0.005268553 0.019030498 0.14368203 -0.119873926 -0.10986399 -0.13617693 -0.13066505
0.02013311 0.059244346 0.08091106 -0.10175833 0.015813982 0.131858 -0.02857675 0.12919572
0.096752934 -0.06084959 0.043581538 -0.04989904 0.13091905 0.122175515 -0.086982444 -0.033826727
-0.09582964 0.09806979 -0.064726986 0.045624465 0.037085082 0.057899725 0.014347101 0.03987869

gru.weight_hh_l0 f4 [192, 64]
00000000: 3c95 f8bd 5324 29bc 7aab cabd 195b 16be
00000010: 511d cd3d 7c52 42bd 1e47 eebd 9c58 343e
00000020: 9522 debd b403 18bd f2b8 973d 9a6b 98bc
00000030: 77e3 8dbd f05d 8abd a881 643d 7dc9 14be
00000040: 3ddc 023e f2e0 093d fb3c bcbd cac3 61bd
00000050: 718d 383d ac40 ae3c ff00 093e ff62 2cbc
00000060: 81e9 253d 53bf bebc c21b b13d a633 78bd
00000070: c3af 5d3d d501 59bd fa53 823d b789 2a3d
00000080: 0af2 49bd 6f67 f23d 8e87 9dbd 337c 9e3d
00000090: e4f9 c6bd 1a7c 0b3c 99e2 923d 2687 08be
000000a0: b65a 3dbd 6478 ed3d e0d9 86bd 2964 9dbd
000000b0: 90b0 1d3d d20b 153d f14a 57bd 915d b63d
000000c0: 4c94 a53d f5ae a13d e4bc a63d 3d62 bbbc
000000d0: a0db 273e abf3 2a3d c89e 03bd ca7b 89bc
000000e0: 09ca 73bd 3891 fd3d 843e df3c d9cf 1f3e
000000f0: c415 3ebd 012a 9f3d 658e 1dbd 395f acbd
00000100: df38 3d3d 719f cabb 7b84 8c3b e47f 653c
00000110: bb8c ad3d bda2 04bc fd96 ae3d 7d1a 37bd
00000120: 7193 563c d029 713d c788 433d 4bd1 a13b
00000130: 33e8 b63d b381 d83d e059 75bd 2dcd 6dbd
00000140: a58c 58bc 59c2 2e3d 9cd1 0f3e 3d42 f03d
00000150: c50d 01bd 10d0 f63d 48da a5bd c8b7 0fbc
00000160: bf68 8e3c 5602 28be 1910 9a3d 327e dcbc
00000170: 3e43 d73d 87ea f83d 470e 3e3d c75b 45bd
00000180: 4c44 9abd 2675 073e 5dc2 e43d bfe6 ccbd
00000190: 0544 063e aae0 a8bd 71ef d33d 143f 47bd
000001a0: 5ae0 233e 8495 7a3d 440b e23d 2516 9d3d
000001b0: 5c99 683d ded5 b53d 150c 96bd ecc6 9abd
000001c0: d73d 973d d47b babd 8c6e 03be 317b dc3d
000001d0: ec32 053e 557f d7bb c917 11be 2ff6 673d
000001e0: a1e3 a53c 146b 96bd 0f1a f23d f326 afbd
000001f0: 1689 9bbd ad0c 99bd 7dfe 2e3d e1dd 773d
00000200: 7f5f 2ebc 31f5 d2bd 4a97 76bd 9d78 56bd
00000210: 6097 10bd 2245 b2bd 30a8 0dbe c4e9 043e
00000220: e23b babd fc5c bcbd 2c3c 0a3a febd a4bd
00000230: cea6 373d 085c 933d 844c d43d 9dec ecbc
00000240: 1917 e93c d63b d4bc ad78 fa3d 62f9 6cbc
00000250: d204 bf3c 6143 453d c8f7 583d faf5 28bd
00000260: 97f4 f0bd a348 1ebe 37ce ae3c 4c77 87bd
00000270: 2656 ca3c ad0a ad3d 7669 0d3d f66d 0fbe
00000280: 7dcc 8bbd 7fe6 12bd c030 083e 0ace 61bb
00000290: dfb7 153e 0411 4dbd 6cc8 443e 5951 a2bd
000002a0: 430e 9dbd 53a1 cfbd d28d 90bd 3fcd 04bd
000002b0: 6140 403d dd29 d03c 952b ad3d c2e1 f8bd
000002c0: 09e1 013e 1b22 043e dd05 0abd 8d38 c63d
000002d0: f365 fc3d 5d39 14bc 19bb ee3c 4536 41bd
000002e0: ad9e e0bc 8425 3dbc cbcd 063e 9426 183e
000002f0: 576a 123d 556d c6bd 4360 a9bd 1a3e 943d
00000300: 166f c03d 35f2 21bd 2b55 123e e2ed fd3c
00000310: 13ba bf3d 8501 1a3e 1358 143d 55f1 fc3d
00000320: 8fda a73c d087 a33d 3709 33bd fe88 933b
00000330: dd0f 82bb 0948 0cbd 984b 47bc bdfd 713d
00000340: cb3c b6bd 5665 c7bd 2c22 90bd 277f d03d
00000350: 34c4 bcbc 7a76 5fbd 4563 1dbd 04d2 05bd
00000360: e011 9a3d a411 a93b 59d6 1d3c 40bc 09bd
00000370: 6b0e a1bc 4946 fb3c 0b1c aa3c 5b0f 3dbc
00000380: cd1c d33a 7559 9ebd 892d babd de5b 303d
00000390: 4640 9abd a00c 75b8 8f41 92bc eaa6 12be
000003a0: 6188 823d e750 9f3d 580e 5ebd 8b69 d33d
000003b0: 5d76 a23d 7448 ebbd d7bd 9ebd 8eb6 8bbd
000003c0: 11cd 23bd dc4a bf3c d14e eebd e28c ffbb
000003d0: 6dff b53d 52b3 76bd 42d3 1fbe 0ecb 623d
000003e0: 95ea 03be 6b62 da3d 086e 99bd 11ab 2b3e
000003f0: 5237 80bd ea5b e93d 4a46 283d e1ad 403d
-0.12137839 -0.010323602 -0.09895988 -0.14683188 0.10015357 -0.047441944 -0.11634658 0.17611927
-0.1084644 -0.037112907 0.074083224 -0.018605996 -0.06928151 -0.067561984 0.055787712 -0.14529987
0.12779327 0.03366179 -0.091913186 -0.05511836 0.045056764 0.021271072 0.13379286 -0.010521649
0.04050589 -0.02328459 0.086478725 -0.06059613 0.054122698 -0.052980263 0.063636735 0.04163524
-0.049303092 0.11836135 -0.07691871 0.07738533 -0.097156316 0.008513475 0.07172126 -0.13332805
-0.046229087 0.11595228 -0.06584525 -0.0768512 0.03849846 0.036388226 -0.052561704 0.08904565
0.08084926 0.078946985 0.08141497 -0.022873992 0.16392374 0.041736286 -0.032133847 -0.01678266
-0.059518848 0.12381214 0.02725149 0.15606631 -0.046407476 0.077716835 -0.038465876 -0.084166
0.046196815 -0.0061835577 0.004288254 0.014007542 0.08474108 -0.00809544 0.085248925 -0.044702996
0.013096676 0.058877766 0.047737863 0.0049382797 0.08931007 0.10571613 -0.059900165 -0.058057
-0.013217126 0.042665813 0.14044803 0.11731384 -0.031507272 0.120514035 -0.080982745 -0.008771844
0.017383931 -0.16407141 0.07522602 -0.026915643 0.10510872 0.121541075 0.046400335 -0.04818323
-0.07532558 0.13228282 0.11169884 -0.10004949 0.13111885 -0.08245976 0.10348404 -0.04864414
0.16003552 0.061177745 0.11037305 0.07670239 0.05678688 0.088786826 -0.07326523 -0.075574726
0.07384842 -0.091056496 -0.12835139 0.107656844 0.13007706 -0.0065764585 -0.1416923 0.056631263
0.020250143 -0.07344642 0.118213765 -0.08552351 -0.075945064 -0.07473121 0.042723168 0.060514335
-0.010642885 -0.10300673 -0.060202874 -0.05236112 -0.035300612 -0.08704592 -0.1383369 0.129798
-0.09093453 -0.09197423 0.00052732485 -0.08044051 0.04483681 0.07195288 0.10366157 -0.02892142
0.028453397 -0.025907438 0.12230048 -0.014463754 0.023317728 0.04815996 0.052970678 -0.041250207
-0.11765402 -0.15457396 0.021338565 -0.06614551 0.024699282 0.08449302 0.034524404 -0.1400679
-0.068261124 -0.03586435 0.13299847 -0.0034455084 0.14620923 -0.050065055 0.1921708 -0.07925672
-0.07668736 -0.10138192 -0.070583 -0.0324223 0.046936397 0.025410587 0.08455578 -0.12152435
0.126835 0.12903635 -0.033696998 0.09678755 0.12324133 -0.00904688 0.02914195 -0.047170896
-0.027419413 -0.011544589 0.13164441 0.14858466 0.035745945 -0.09688822 -0.082703136 0.072384074
0.09396188 -0.039537627 0.14290302 0.03099722 0.09361663 0.15039642 0.036216807 0.12350718
0.020489959 0.079848886 -0.04370996 0.0045024147 -0.003969176 -0.034248386 -0.012164019 0.059079874
-0.08898314 -0.09736125 -0.07037768 0.101805024 -0.023042776 -0.054556347 -0.03842475 -0.03267099
0.07522941 0.0051595736 0.009633624 -0.033626795 -0.019660195 0.030673163 0.020765325 -0.011539306
0.0016106606 -0.07731906 -0.090907164 0.04305636 -0.075317904 -5.842431e-05 -0.017853526 -0.14321485
0.063736685 0.07779103 -0.054212898 0.10322865 0.07932732 -0.11488429 -0.07751053 -0.06821929
-0.03999049 0.023351125 -0.11636127 -0.007798777 0.08886609 -0.060229607 -0.15607932 0.05536943
-0.12882455 0.10663303 -0.0749169 0.16764475 -0.062605515 0.11394484 0.041082658 0.047040824

gru.bias_ih_l0 f4 [192]
00000000: d894 d33d 118b 96bc 66fb dd3d e0c8 d1bd
00000010: 0fae 703d 7958 b1bd a317 0dbb cdb3 9fbd
00000020: 9e90 5f3d 0efb 213e b833 083e ecde 463c
00000030: f919 823d 9443 903d 473f ff3d de78 233d
00000040: 5f4d 1e3e aef6 79bd a9e1 363e b08d a5bd
00000050: 78e1 b73d ffe5 d93d 65dd 8f3d 0ba9 40bc
00000060: 9139 5e3d d0ac cdbd dde8 4f3d db79 e73d
00000070: fa9d db3d c8aa 153e 603b 5bbd e7fd aa3d
00000080: a9fb 3dbd a388 873d bfe1 c33c 9bfa bf3d
00000090: a94d c53d 2803 103e ee08 7d3d a364 b3bd
000000a0: 0d0d bd3d 5a22 f73d dacc 0d3e b4a0 a73d
000000b0: 78a6 5fba fac1 b63d 37e1 643d f385 573c
000000c0: 1524 ac3d 38ce 093e 5910 3bbd 8e4a 013e
000000d0: 2a99 2b3e f713 163e e372 a73c 4d68 9ebd
000000e0: 2560 cdbc 6f24 123b b074 403d 40cb c53d
000000f0: 02ed 38bd afec a6bd cc36 1f3d 678a 043e
00000100: 7326 393e fa05 1d3d 82ce 3a3d 0a4d 383e
00000110: 869c 283e 1e51 8d3d a34c 183e f783 183e
00000120: 08cc 8c3d e549 24bd 032a b9bc b1ca 71bd
00000130: dae3 6d3d 8e9c 173d f8c0 373e 5775 523c
00000140: 5ef0 543e 4d22 c8bb 71b2 923e 10ac f13d
00000150: 7303 923d 188a df3d 61b0 223e 9dec 2c3e
00000160: 642c c13d 2a10 113d e37c 0f3d b6f5 153e
00000170: 31dd 14bd c8ed 223e 922b 873d 0506 623d
00000180: 5182 b73c 7704 2b3e e909 15bd 3047 87bd
00000190: ff4b 1b3e 1e87 24bd 9fea c0bd 4784 1d3d
000001a0: b9da bebd 6a6c 1e3d 56ff f53d 3e76 0d3e
000001b0: 7466 a33d 31fe 14be 32f7 963d 313b 96bc
000001c0: fcb1 103e 56e8 143e 9011 983d 555e 5e3e
000001d0: a3ad 973d 47ee 703e 676c 5fbd e478 803d
000001e0: 346f 4c3d 3fdc f23d f2fb 093e 8d24 03bd
000001f0: c8d0 a9bd 3cdc bf3d e7f2 853e a155 a33d
00000200: f873 43bc 3e4e 8abd 4619 4cbc 7d8d c8bd
00000210: 3d9c d7bb 0558 98bd dcbe cbbd e791 b13d
00000220: d428 363b 9f4b ad3d 806c a33c 43ef dc3d
00000230: 8016 d2bd 482b 9f3d a121 85bd af67 94bd
00000240: ff36 083e 8cf1 083e fe64 cc3d 5890 633c
00000250: 2247 dd3c 2df0 853d c896 de3d 23d9 8b3d
00000260: ed11 b63d f88d b63d c24d b23d ba1d a1bc
00000270: 25a2 60ba be76 ed3d 4390 f6bd 05ff 923d
00000280: 286e babd cd81 d3bc bfc1 e7bc 93c1 b13d
00000290: 4486 613d 4412 26bd 0198 dabd b557 d63d
000002a0: 4289 e33d 4da5 843d e8d9 873d b8cf 203c
000002b0: b3d1 f93d a6cb b6bd 2476 053d bcb0 b53d
000002c0: 3046 f7bd f8f7 cd3c e63d a0bd 4b54 33bd
000002d0: 8fc1 3b3d 698e af3c 591a cbbd 6b18 d83d
000002e0: eb5c 973c 157b 23bd c9da a6bd 8c6d 203d
000002f0: d6f1 943c f7ac 93bd 7e82 1e3d d8be 053d
0.10331124 -0.018376859 0.10838966 -0.10243392 0.058759745 -0.08659453 -0.002152898 -0.07797966
0.054581277 0.15818426 0.13300979 0.01213811 0.0635261 0.070441395 0.12463241 0.03991019
0.15459202 -0.061026268 0.1785952 -0.08083665 0.089785516 0.106395714 0.070246495 -0.011759053
0.05425412 -0.10042727 0.050759185 0.11302539 0.10723491 0.14615929 -0.05352342 0.08349209
-0.04638258 0.06617858 0.023911355 0.09373971 0.09633953 0.14063704 0.061776094 -0.08759429
0.09231005 0.12067099 0.13847676 0.081849486 -0.00085315807 0.08923717 0.055878844 0.013154495
0.084053196 0.13457572 -0.045669887 0.12626097 0.16757646 0.14656053 0.020440524 -0.077347375
-0.02507026 0.0022299548 0.046986282 0.096579075 -0.045147903 -0.081506126 0.038870618 0.12943421
0.18081073 0.038335778 0.045607097 0.17998138 0.16465959 0.069002375 0.14872985 0.1489409
0.068748534 -0.040109534 -0.02260304 -0.059031192 0.058078624 0.037014537 0.17944705 0.012845359
0.20794818 -0.0061076046 0.28651765 0.118003964 0.07129564 0.10915011 0.15887596 0.16887136
0.09432295 0.035415806 0.03503121 0.14644513 -0.036343757 0.15911019 0.06600107 0.055181522
0.022401007 0.16700922 -0.036386404 -0.06605375 0.15165709 -0.04016792 -0.094197504 0.038456228
-0.09319062 0.03867761 0.12011592 0.13814637 0.07978526 -0.14550091 0.073713675 -0.018338772
0.14130396 0.14541754 0.07425225 0.21715672 0.074061655 0.23528396 -0.05454674 0.06273058
0.04991074 0.11858415 0.13475016 -0.03201728 -0.08291775 0.09368178 0.26161882 0.07975317
-0.011929505 -0.06753205 -0.0124571975 -0.09792612 -0.0065799044 -0.074386634 -0.09948513 0.08670407
0.0027795332 0.08461689 0.019949198 0.10787823 -0.10258198 0.07771927 -0.06500555 -0.072463386
0.1330223 0.13373393 0.099802 0.013889395 0.027011458 0.065399505 0.10868603 0.06828525
0.08890138 0.08913797 0.087062374 -0.019667495 -0.00085690833 0.11594914 -0.120392345 0.07177547
-0.09103042 -0.02581873 -0.028290628 0.086794995 0.055059686 -0.040544763 -0.10673524 0.104659475
0.11110164 0.06476841 0.06633359 0.009815149 0.121982 -0.089255616 0.03258337 0.088716
-0.12073934 0.025142655 -0.07824306 -0.04378156 0.04583889 0.021430211 -0.09917135 0.10551532
0.018476924 -0.039912302 -0.08147199 0.039166972 0.018181723 -0.07210725 0.038698666 0.032652706

gru.bias_hh_l0 f4 [192]
00000000: 0a10 223e 9ac8 713c 6b0a 42bd a8c0 04bd
00000010: d56b 003e 0875 1a3e b49d 85bc 7244 af3d
00000020: c881 993c 4a5e 043d cc4c c83d 9e5a fcbc
00000030: e17c fc3d 0153 0f3d ea52 ae3d fce0 1c3d
00000040: 3e51 453d 5d96 9ebd daaa b13d ce0a bd3c
00000050: 8c08 e53d 91b8 5c3d 9c66 233e bd8f a93d
00000060: e313 1a3d 878f 983d c9a3 063d 0bf8 1a3d
00000070: 759f 733d 2269 ec3c daeb e03d a9a2 613d
00000080: f153 74bc 87d1 083e eeec b4bd 3f36 92b9
00000090: 627d 263d e1ce 3a3d 546b ebbd a6b8 8bba
000000a0: d056 aabd 68c2 023e 357f 43bd f556 193d
000000b0: 3a5d 4bbc 294a 65bd 6a2a 34bd b35b edbc
000000c0: 40cc b63c 5ede adbd 1efc 32bd 1c5f d63d
000000d0: b3ba e03d af59 2c3e aed0 17bd 602d 733b
000000e0: 66ff 913d 1fd4 b13d 6fac 373e 8c6d c73d
000000f0: a1cf 403b c8d6 d1bd 4e7d ba3d b046 8e3d
00000100: caf1 3f3e b2ef 9d3b 38ed b23d 1f40 363e
00000110: c7ab 293e 171f 153d 574d 733d c4a4 f83d
00000120: 3e96 3c3e 0c64 023e a887 3b3e d03c 0d3e
00000130: 15e2 af3d adf0 1c3e 8a33 ca3d a87f debd
00000140: f9e2 fdbb 59d6 c13d d6c1 053e d525 183e
00000150: 9b69 a73c c4a7 143d 5a1d 493e f258 d43d
00000160: 8b22 813e 36e7 0a3d d4d0 823a 2bab 753e
00000170: 35c1 6d3d c1ac b23d b971 73bc 9d0b bf3b
00000180: 47e0 30bd 0c7d 5b3e 02bf 1c3e 97ef 713d
00000190: f312 313e 8e52 4dbd 8bbc b0bd ff00 db3d
000001a0: 6109 eebd a746 263e cf5b 973d 7aa5 233e
000001b0: 8123 97bd 7ceb dcbc 9d10 64bd 51b1 4ebe
000001c0: a6ea ddbb 9a95 193e 8225 953d ecf8 ec3d
000001d0: 5574 ca3d 4ad2 b83d 572e 873d 586a 953d
000001e0: c884 8b3d 175c d43d f856 203e fb72 123e
000001f0: 0738 243e 6333 c8bc 3af6 923e 8972 333d
00000200: d9df c43d 8a17 663d cf9d dabc ed75 af3d
00000210: 3bc2 b93d c6b2 d93d bf0b 073e 97e7 8b3c
00000220: f95c 52bd ad22 033c 8b3a 14bd 4ee0 b83d
00000230: 3b03 47bc 74e7 e33d bb10 11be abbb 9abc
00000240: af31 b03d 1d68 4bbd 12a5 5dbd 3f41 2b3d
00000250: 51ed b2bc de72 143d 9a6e b53d 0740 623d
00000260: db9e 5dbd 6a92 eebd 7f23 35bd b91a 9abd
00000270: 9dd9 30bd 9ee1 1b3d 33c8 11bd c245 b5bd
00000280: c8b2 d53c 9fd3 293d 0ec5 4d3d 36d9 cbbd
00000290: 0032 fabd 9873 b6bd a890 f73d 91e9 723d
000002a0: 6ce8 2b3d 6fdb 7a3d 60be d83d e857 283c
000002b0: ee44 69bd 0e1d d93b 5ab3 8abd e233 e3bd
000002c0: 4e41 163d 11d0 a7bd 8e04 e6bc 9cc2 e83d
000002d0: ffad 043d 0e87 4fbb b43d efbc 6a13 f4bd
000002e0: e88b e63c 9173 23bd 355a aa3c 6a84 463c
000002f0: 6f01 97bc 7b09 d33b 2339 c73d 872c d93c
0.15826431 0.0147573 -0.047373217 -0.032410294 0.12541135 0.15083706 -0.01631055 0.08557977
0.018738642 0.032316484 0.09780273 -0.030804928 0.12328506 0.034991268 0.08511908 0.0383005
0.04817318 -0.07743523 0.086751655 0.023076441 0.11183271 0.053886954 0.15957111 0.08279369
0.03761662 0.07449251 0.03287104 0.03783421 0.059478242 0.028858725 0.10982485 0.055086765
-0.014912591 0.13361178 -0.08834253 -0.00027887707 0.040646918 0.04560745 -0.114950806 -0.0010659888
-0.083173394 0.12769473 -0.047728736 0.037436444 -0.012412364 -0.055978928 -0.04398576 -0.02897439
0.02231419 -0.08489679 -0.04369747 0.104673594 0.1097311 0.16831087 -0.037064247 0.0037105903
0.071287915 0.08683037 0.17936872 0.09737691 0.0029420631 -0.102460444 0.09105931 0.06947076
0.18744579 0.0048198337 0.08736652 0.17797898 0.16569434 0.036406603 0.05939993 0.121408015
0.18416688 0.12733477 0.18313468 0.1379273 0.085880436 0.15326186 0.098731115 -0.10864192
-0.0077480045 0.09464712 0.13062224 0.14858182 0.020436099 0.036292806 0.19640103 0.103685275
0.25221667 0.033911906 0.0009980449 0.23991077 0.058045585 0.087243564 -0.014858657 0.005830242
-0.043182638 0.2143442 0.15307239 0.05906638 0.17292385 -0.05012756 -0.08629712 0.10693549
-0.11622883 0.16237889 0.07390558 0.15981093 -0.07379819 -0.026967756 -0.055679906 -0.20184828
-0.006772357 0.14998475 0.07282545 0.115709156 0.0988547 0.090244845 0.066006355 0.07295674
0.068124354 0.10369127 0.15658176 0.14301674 0.16036998 -0.024438566 0.2870348 0.0438104
0.09613008 0.056174792 -0.026686577 0.085674144 0.0907025 0.106298015 0.13188075 0.017078204
-0.051358197 0.008003873 -0.036188643 0.09027158 -0.012146766 0.111281306 -0.14166538 -0.018888315
0.086032264 -0.049659837 -0.0541125 0.04181027 -0.021841677 0.03624236 0.08858986 0.055236842
-0.054106575 -0.1164902 -0.044223305 -0.07524628 -0.043176282 0.038056962 -0.035591315 -0.08851196
0.026086226 0.041461583 0.050236754 -0.09953539 -0.12216568 -0.089087665 0.12088138 0.059304778
0.0419697 0.061244424 0.10583186 0.010274865 -0.056950502 0.006625778 -0.0677249 -0.1109388
0.036683373 -0.081939824 -0.028078344 0.11365244 0.032392498 -0.0031666192 -0.029204227 -0.119177654
0.028142884 -0.039905135 0.020794967 0.012116531 -0.0184333 0.006440339 0.09727695 0.02651049

gru.weight_ih_l0_reverse f4 [192, 6]
00000000: 72f1 023d deff 983a 7fb5 64bc ac54 333c
00000010: 97fb 47bc bab2 a8bc e862 fc3d e585 adbd
00000020: 267c 0e3d b265 a73d 3131 16be 928d d53d
00000030: ef2d dabc 0f26 27be 7cfb 29bd d759 cf3b
00000040: 18d7 16bd 33d4 103d cfb8 8ebd b2cf bd3a
00000050: 07cd 44bc 76ee 03be e428 a43b 6be3 933c
00000060: f83b 2bbe 13dd d73c b955 e3bd f8fa 0fbe
00000070: d1bb a7bd fe81 0dbe 16ef b0bd 60c3 4ebb
00000080: 433a 70bc 39de 64bd ec32 24be ac33 603d
00000090: 7644 283d 4228 b8bc 265a 2ebe bb08 f13d
000000a0: 4eb3 c0bd ae48 683d 09b2 18bc 8727 223e
000000b0: 09cb bbbd 6b8b 493d 539d c93d 0aa8 283e
000000c0: 8350 febd fe0b adbd 2520 56be 21a3 d9bd
000000d0: d68c 31be 5886 493c 9ba7 1fbd 2fc6 c63c
000000e0: dbb6 963d 29c0 c0bd 9860 a83d 8a60 aabd
000000f0: 19a0 313c aaa9 59bb 64cb 66bd 1365 f03d
00000100: 9919 71bd 3448 23bd a41d 5ebd 6678 84bd
00000110: 7ff0 843d c526 dd3d 045a 1ebe e6c6 78bb
00000120: e44a 5fbc 6f85 9abc 44ce b4bd fac9 413e
00000130: b850 973c 50c3 623e 3f23 b1bb 3592 58be
00000140: fc90 4fbe b409 f13b a743 72bd 9b80 113d
00000150: 7858 bd3d 3a67 19bd ff14 1d3c 8819 393c
00000160: 5883 b9bd 9764 1bbd 1dba 58bd dccf b73d
00000170: 61d3 e43c c763 04be 4818 bd3d 56ab b1bc
00000180: 29ab 14bd 120c 2cbd 2f6b 02be 7bbf 5ebd
00000190: bb37 99bc d144 99bd 90b5 e43d 6067 cdbd
000001a0: c6e5 e7bb 3e0d 1fbd 6293 07bd 50f4 3abc
000001b0: 5476 2c3d 0ab4 e43d 1279 c43c 087c f5ba
000001c0: 84da 6b3d c5f7 be3d d72d 9a3d 4080 13be
000001d0: b0f8 f7bd 2951 773d ae91 62bd fac0 bb3d
000001e0: e102 dcbb dfc3 1a3d 98d3 31be 6b1e c03d
000001f0: 3563 133d d0d5 d3bd 7fd5 8e3d 1137 fcbd
00000200: 1490 4ebe 5c30 b7bd e95a 05be f94a 05be
00000210: c70d 963d 8965 9c3d 6e8c 533d 7345 883d
00000220: dab2 86bc 7020 60bd c506 afbd 62ef f3bd
00000230: 51da 26be 3bff 8b3c ab78 85bd f136 653d
00000240: c616 fabd 4c1e eabd af7c 84be dd4c 903d
00000250: 2480 b8bc 5fc4 aa3d 0039 d63d e019 65bd
00000260: 1a08 fcba c0ad f53d 27ca ecbb 4425 323e
00000270: daea 87bd 53d2 efbd 3f76 54be 0885 00be
00000280: 4121 3ebe 8a7b 99bd 9a9b 2a3d 9a81 233c
00000290: a213 07be ebbe ae3c f700 e33d 8656 79bd
000002a0: 5e0c 863d 571f 693d 3932 413d beb7 fe3d
000002b0: ecaf 0b3e 3f82 e9bd d39a 1ebc 29a5 83bc
000002c0: 8595 a2bd 00a2 0dbd 8e29 123d 1f7f 3c3e
000002d0: 7e50 633d 19da 5a3b 7458 a4bd 865e 9cbd
000002e0: 2cbc f23d 4981 fa3c cf89 eebd 7752 a6bb
000002f0: b138 15be bd45 36bd f86a a1bd 17aa 443e
00000300: 4961 043d 014a 2b3d b24a 0e3e 95f9 14bc
00000310: 4c6d 233e 83b9 c83c 72c5 08be 0108 51ba
00000320: e364 90bd 297c 4abc 3a1d 76bd 2467 a7bd
00000330: d8f1 f53d 6d39 f53c 6746 553d f145 4d3d
00000340: df42 dbbd e2af 823d d2f3 573d de03 2b3e
00000350: b86b e9bd 0439 1bbe fa3e 82bd 9ce2 e1bd
00000360: 2b47 20bc 537f bebd 995b 0dbd 5d71 8abc
00000370: c95c b23d 26b7 093e c035 fe3b 4700 bfbd
00000380: dc9e 12be 44fe 76bd d923 31be 78cf d03d
00000390: 1cba 043e 6ff8 3f3d 5747 3b3d c02f cebc
000003a0: 01f6 063e 9847 32bd 48bd bc3c 555e 293d
000003b0: be88 d4bd 995c 76bd da00 85bb b661 873d
000003c0: 6309 d23b fcfe aabc d71a 613d 2571 69bd
000003d0: f3b1 2ebd 145a 193e abe3 3cbc 9c3d 983c
000003e0: da90 89bd c8fe 163e 272c 553d 4a58 583c
000003f0: 64b0 183d a97b 12bc 0a76 25bd 43e7 20be
0.03196854 0.0011672934 -0.013959288 0.01094548 -0.01220598 -0.020593036 0.12323552 -0.08472804
0.034786366 0.08173694 -0.14667203 0.10427393 -0.026633231 -0.16323112 -0.0414996 0.0063278484
-0.036826223 0.03535862 -0.06968843 0.0014481454 -0.012011773 -0.12883934 0.0050097574 0.018052777
-0.16722095 0.026350534 -0.11100335 -0.1406058 -0.0819012 -0.1381912 -0.08639352 -0.0031549558
-0.014662328 -0.05587599 -0.1603505 0.05473678 0.041080914 -0.022480134 -0.17026576 0.11769243
-0.094092 0.056709938 -0.009319791 0.15835391 -0.09169585 0.049205225 0.0984446 0.16470352
-0.124177 -0.08449553 -0.209107 -0.106268175 -0.17338881 0.012300096 -0.0389782 0.024264423
0.07359096 -0.09411652 0.08221549 -0.083191946 0.010841393 -0.00332127 -0.056346312 0.117380284
-0.058862302 -0.03986378 -0.054227486 -0.06468277 0.064911835 0.1079841 -0.15464026 -0.003796035
-0.013628695 -0.018862454 -0.088284045 0.18924704 0.018471107 0.22144818 -0.005405813 -0.21149524
-0.20270151 0.007355893 -0.05914655 0.03552304 0.0924539 -0.03745196 0.009587525 0.011297591
-0.09058255 -0.037937727 -0.052911866 0.08975193 0.027932825 -0.12928687 0.09233147 -0.021688145
-0.036296044 -0.0420037 -0.127362 -0.05438183 -0.018703332 -0.07483829 0.11167443 -0.10029483
-0.0070769517 -0.038830988 -0.03309954 -0.011410788 0.042105034 0.11167152 0.023983512 -0.0018728981
0.05758144 0.09324602 0.075282745 -0.14404392 -0.1210798 0.060380135 -0.055314712 0.09167667
-0.0067142104 0.037784453 -0.17365873 0.09380802 0.035983283 -0.10343516 0.06974315 -0.123151906
-0.20172149 -0.08944771 -0.1302296 -0.13016881 0.073268466 0.07636554 0.051647596 0.066538714
-0.016442705 -0.054718435 -0.08546213 -0.11910893 -0.16294219 0.017089477 -0.06517156 0.0559606
-0.12211375 -0.1143156 -0.25876376 0.070459105 -0.02252204 0.08338236 0.10460091 -0.05593288
-0.0019228489 0.11996031 -0.007226247 0.17397028 -0.06636591 -0.11710038 -0.20748232 -0.12550747
-0.18567373 -0.07494266 0.0416523 0.00997963 -0.13191083 0.021331271 0.110841684 -0.06087353
0.065453276 0.056914654 0.047167037 0.1243739 0.13641328 -0.114017956 -0.009680468 -0.016069965
-0.07938675 -0.034578323 0.03568416 0.18407868 0.055496685 0.0033394156 -0.080246836 -0.076352164
0.11852297 0.030579226 -0.11647379 -0.0050757485 -0.14572407 -0.0445001 -0.07881731 0.19205509
0.03231934 0.041818622 0.13895682 -0.009092708 0.15959662 0.024502521 -0.1335657 -0.000797391
-0.070504926 -0.012358704 -0.060086466 -0.081739694 0.12009019 0.02993461 0.052069094 0.05011553
-0.10706114 0.06381203 0.05272276 0.16700694 -0.11397499 -0.15158468 -0.06359668 -0.110295504
-0.009782593 -0.09301629 -0.034511182 -0.016899759 0.087091036 0.13448772 0.0077578723 -0.09326225
-0.14318413 -0.06030108 -0.17298831 0.101958215 0.1296162 0.046867784 0.04572233 -0.025169253
0.1317978 -0.04352531 0.023039475 0.041349728 -0.10377644 -0.0601469 -0.0040589394 0.06610434
0.0064098104 -0.02087354 0.054957237 -0.05699267 -0.042650174 0.14975768 -0.01152889 0.018584065
-0.06717081 0.14745629 0.05204406 0.0132046435 0.037277594 -0.008940616 -0.040395774 -0.1571322

gru.weight_hh_l0_reverse f4 [192, 64]
00000000: c4e7 b33c a761 b0bc 1945 7ebd 2972 ebbd
00000010: 2c23 28be 4eb6 103e 1d1d 783d 5785 213d
00000020: f747 59bd 7d0e 08be 5fa9 d43d 68f9 f3bd
00000030: d133 00be 6644 d1bd ad98 8dbd 25f1 e9bc
00000040: 8f82 99bc 895d 0dbe efda b23d 9607 663d
00000050: 856e d8bc 21c3 13bd fd86 f53d 96f5 dc3d
00000060: 5bd6 bf3d 9d30 923d db48 5fbc 57af ffbd
00000070: e400 e23c b979 b63d 5804 d03d 9e37 ddbc
00000080: dd90 26be 4ab0 093e 2882 2b3d 887d 1e3e
00000090: eb76 143d 39ff b9bd 74a9 88bd eca1 90bc
000000a0: 8cbf 3dbc db23 aabc ba85 85bd d143 e33c
000000b0: 3123 483b 65ef fcbd d3b5 0f3d b3c9 ff3d
000000c0: e8d0 b9bd fd45 e0bd 671d 94bd b6a5 763b
000000d0: 61ca febd b770 8bbc 20dc 843c 6c17 97bd
000000e0: bb58 e63d 8847 b13d 37ac 11be 911e 903c
000000f0: 032d 93bd e31e f5bb 90a3 933d 026d 3e3d
00000100: 9362 0bbd 2ef3 403e 53bf 433e 7037 e4bd
00000110: 43ad ecbc 27a4 6dbd ba95 76bc 5bea ebbc
00000120: 10f8 a53d 2cfb 1c3e a411 703d fe5e babd
00000130: e0e5 53be c849 233e 2225 2d3d 7ce7 953c
00000140: 058a 9bbd a2cd 0ebe b016 983d fc51 b13d
00000150: 22b8 4cbe 36f4 d8bd b977 043e f0b1 d13d
00000160: 7250 85bb 7870 193d f9ac 5d3c ece4 4abd
00000170: 355a d03c 5c1c 353e 9c06 003e f5d8 abbd
00000180: b9fa a0bd db48 0c3e 9327 aa3d 7042 c5bb
00000190: 07df febc 6885 a53c c37b 0f3e 6df4 88bd
000001a0: f9ed 413d 084d e63d 5230 3dbe c18f 23bd
000001b0: 5cb6 d2ba 9d67 abbd 64cc 80bd 63bf c3bd
000001c0: b64d cfbd 6c73 86be 1396 e2bc 3b76 48be
000001d0: a822 23bd 4951 50be 837a 83bb b5fa 323d
000001e0: 8727 ddbb fde0 ecbd 3799 9ebd 6224 15be
000001f0: 032a ed3d 4e95 f93b 5412 2ebb b239 a43d
00000200: 44ff af3b 8042 473d 6620 5ab9 698c 1bbe
00000210: d33d b3bd c323 8cbd f053 2bbd cf04 a03d
00000220: aea7 8eb9 7bc4 ec3d cf62 ec3c 3f76 f9bd
00000230: cc55 e53d f226 a9bd d10d 503d 3db2 e53b
00000240: a218 393d a9f3 953c 03be 123d 4af3 b9bd
00000250: 4b73 6fbd 7169 d13c b0f0 523c abdb 9fbc
00000260: 1e4d 24be 7ff7 b83c 8ebb adbc 7a12 813d
00000270: b8d6 8a3d beb2 c33d 4032 073b 59a0 9e3d
00000280: ad76 3c3d e950 cbbc bfbb 633d 7b60 bd3d
00000290: 21d2 47be 4b94 9c3c c723 6fbd 5866 273d
000002a0: 6ebc 36be f5a9 e13d ab88 25be cda3 023e
000002b0: fd07 203d 4ecd 1a3e 66c8 25be 2203 923d
000002c0: b120 a43d 2bd5 c33d e43e 6ebd 7371 033d
000002d0: febd 23be d981 453d 52b4 f1bc bbee 0abe
000002e0: 4f16 a5bd d86e 22bd 38d4 b6bd 0c2f 1c3d
000002f0: 6eeb 4d3d 5f6b c639 6483 c03d 4ec0 833d
00000300: 667e 483d fa82 a73d d70c e5bd 5ebf cc3d
00000310: 821a c43c 88c4 75bd 8ef5 03be 1382 c63d
00000320: 91b8 693d 3340 063d 0ad4 dd3d af59 dd3d
00000330: ba38 ddbd 5c77 5c3d 2875 273e 4cc6 3a3e
00000340: 44f1 b63d 5461 e33d 1a23 373b c342 2ebe
00000350: 6259 4abe 1c22 443c 9cd7 063e 3e69 b23d
00000360: 7679 80bd 0584 5e3d 5847 a43c 5e95 2ebd
00000370: b5bf 863d 20a8 0e3e 3fa7 f33d aaa2 443d
00000380: 3d5a 0f3d acfd b8bd 4b76 f2bc 05fc d53d
00000390: e657 09bd d0b2 ad3d c81f adbd 5073 e0bc
000003a0: 9fad 0dbe e4d6 473e 3fbf 5bbd 8375 7e3d
000003b0: 0e11 1fbe 0d67 8e3d 0fab ebbd 673b 253d
000003c0: 2c1b 8f3d f3b6 b7bd 7050 3cbd 9219 41be
000003d0: 04d6 9bbd 251a 2cbd 35b6 56bd 9f40 c7bd
000003e0: 3839 293d 4866 e93d 5170 d1bd 7184 323d
000003f0: 543c 5bbc e8aa e6bd 11b1 9a3d 132c b33d
0.0219611 -0.02153094 -0.062077615 -0.11496384 -0.16419667 0.14132044 0.06057464 0.039433803
-0.053047147 -0.13286777 0.103838675 -0.11912805 -0.12519766 -0.10218124 -0.06913886 -0.02855737
-0.018739013 -0.13805212 0.087331645 0.05615958 -0.026419887 -0.03607476 0.119886376 0.10789029
0.09367057 0.071381785 -0.01362821 -0.12484615 0.027588315 0.089099355 0.101570785 -0.02700406
-0.16266198 0.13446155 0.041872174 0.15477574 0.03624622 -0.09081883 -0.066729456 -0.017655335
-0.011581313 -0.02076905 -0.06519647 0.027742298 0.0030538554 -0.123503484 0.03508551 0.12489643
-0.09073049 -0.10950849 -0.072321706 0.0037635393 -0.124409445 -0.01702152 0.016218245 -0.07377514
0.11247393 0.08656222 -0.14225851 0.0175927 -0.0718632 -0.0074804886 0.072089314 0.046490677
-0.034029555 0.18842766 0.19115953 -0.11143386 -0.028891211 -0.058017876 -0.015050346 -0.028798273
0.08103955 0.1533019 0.058610573 -0.091001496 -0.20693159 0.15946114 0.04227174 0.018298857
-0.075946845 -0.1394563 0.07426202 0.086582154 -0.19992116 -0.105934545 0.12936296 0.10239017
-0.0040684277 0.037460774 0.013530009 -0.049534723 0.025433639 0.176866 0.12502521 -0.08390991
-0.078603216 0.13699667 0.083083294 -0.006019883 -0.031112207 0.020205215 0.14012055 -0.066872455
0.04734609 0.11245161 -0.18475464 -0.039932016 -0.0016076076 -0.08369372 -0.062889844 -0.095579885
-0.10122244 -0.26259935 -0.027659452 -0.19576351 -0.039827973 -0.20343508 -0.0040124073 0.043696124
-0.006749097 -0.115663506 -0.07744067 -0.1456466 0.11580279 0.0076166755 -0.0026561217 0.08018817
0.005371006 0.048647404 -0.0002080217 -0.15190281 -0.087520264 -0.068427585 -0.041828096 0.07813417
-0.00027209282 0.11560913 0.02885571 -0.12180757 0.11198005 -0.08259381 0.050794426 0.007009773
0.045189507 0.018304663 0.03582574 -0.09079607 -0.05845956 0.025562974 0.012874767 -0.019513926
-0.16045043 0.022578953 -0.021207597 0.06302352 0.067792356 0.09555577 0.0020629317 0.07745428
0.046011616 -0.024818854 0.05559897 0.09246918 -0.19513752 0.01911368 -0.05838373 0.040869087
-0.17845318 0.11018745 -0.16165416 0.12757798 0.03907012 0.1511738 -0.16189727 0.07129504
0.08014048 0.09562143 -0.058165446 0.032090615 -0.15990445 0.048219535 -0.029504929 -0.13567631
-0.08060896 -0.03965649 -0.08927196 0.038130805 0.05027335 0.000378455 0.09400061 0.064331636
0.048948668 0.08179279 -0.1118409 0.09997438 0.023938421 -0.06000188 -0.1288664 0.096927784
0.057060782 0.03277607 0.10831459 0.108081214 -0.10801835 0.053824767 0.16353285 0.18239707
0.089327365 0.11102548 0.0027944506 -0.17017655 -0.1976066 0.011971023 0.13168186 0.087114796
-0.06273167 0.054325122 0.02005355 -0.042622916 0.06579534 0.13931322 0.11897134 0.04800669
0.034998167 -0.09032759 -0.029597422 0.104484595 -0.033531092 0.084813714 -0.084533274 -0.027398735
-0.13835762 0.19515568 -0.053649183 0.062123787 -0.1553385 0.06953249 -0.11507236 0.040339854
0.069876045 -0.08970442 -0.04597515 -0.1885741 -0.076091796 -0.04201712 -0.05241986 -0.09729122
0.041314334 0.11396462 -0.10226501 0.043583337 -0.013381083 -0.112630665 0.07553304 0.08748641

gru.bias_ih_l0_reverse f4 [192]
00000000: 4de2 7bbd eb36 a93c d6c7 62bc 4a89 1b3e
00000010: f092 173e aa06 183e 4d84 c73d dba7 8d3d
00000020: 9bd1 953a 78e2 02bd b5c0 413e ba12 0a3e
00000030: a61e 243e 0a88 92bd 4638 753c 8f5f 493d
00000040: 5a06 0f3e b8f2 903d b18d 793d 258b 123e
00000050: 7a33 e6bc 1618 c43c 429b db3d 946e cb3d
00000060: 6763 353e a72b 553d d7e8 42bd 1b6a 69bd
00000070: 18df 073e aefc 87bd 0a7c 6dbc 0ab9 f23c
00000080: 2b24 053e f7f2 d03d 6a77 ba3d ce10 a23d
00000090: 72ec 033e 6147 903c 39fa 4dbd 31ee 8fbd
000000a0: cc41 313e 2854 f3bc e9dc 463d a7da 8f3d
000000b0: dfa7 ca3d bf48 b8bc d6ec 893d 116c 2cbc
000000c0: fb6b 8c3d f5be 28bd 4681 2abd 84c5 df3d
000000d0: cb54 593d df45 933d 9872 733c 0127 0c3d
000000e0: b983 9d3c b9c6 023d e406 623c d5b0 8ebc
000000f0: 797e 2f3e 13cb c4bd 8427 a4bd c556 01bd
00000100: c9a0 323d a6a7 203e cd20 f13d b64b 963d
00000110: cc1a db3b 1cfb 2a3e c4e5 2f3e fe29 1a3e
00000120: 9756 043d 4529 933d 5386 983e 18b6 adbb
00000130: a8c8 973d 584b e03d 4d85 babc 34a9 83bd
00000140: 85fc 1dbe 2e16 0e3e 218e 743d 66f7 8dbd
00000150: 8159 08bb eb39 123e e30e 8cbc c7e7 343e
00000160: 1c49 0e3e 267b c63d eecc 81bd 29ad 5d3e
00000170: 6c79 d53d 6cf5 2f3e 3046 20bc 0297 303e
00000180: f023 313d d777 f83d 3321 253e 5b07 3bbe
00000190: dcab 583e fb04 133e 5730 e83c 0939 d73c
000001a0: 2e9b 183d 31d4 c73d d31e 693e a654 a63d
000001b0: 004f 8f3d 6898 333e badd 303e 4c6e 983c
000001c0: 9709 993d 37f8 933d 255c 383e 9ed7 7f3d
000001d0: 4466 983d 28f7 d5bb 1852 f53c a6e6 aa3d
000001e0: 1634 a8bd 5a9a 863d f84e 233e 565e 403d
000001f0: 6bd0 50bd 66b4 8d3b 6a2b 473d 8275 233e
00000200: 0274 08bd 85a9 04bb 6b65 ffbc f790 a9bd
00000210: 317e 45bc e9a6 a7bd d4a5 4cbd 9710 9e3d
00000220: 5520 9e3d c63c d6ba 20db 763d 47db 453d
00000230: 2b7f c83d c091 993d e6d9 c13d 4d50 ad3d
00000240: 5ad9 cf3c 9fc2 653d 02ad 8f3d 34b3 9bbd
00000250: e79a fabd a49e 54bc cf42 a23d 727d dbbd
00000260: d0f3 e3bc 9113 7abd 6e3b 383d dc9f eebd
00000270: af7b 553d 523c f2ba 330c 8abd 52cc 3f3d
00000280: a796 24bd 5959 533d a778 d23d 3063 133d
00000290: eb21 f0bd c72f 7fbb 05c6 01be 9a4f cc3c
000002a0: 002f 96bd 9a46 363d 5e74 cabd beea b73d
000002b0: dfd2 01be 7648 363d 43f2 98bd a29a 2ebb
000002c0: dc58 c2bb bf07 d7bd bb0a 0c3d 8f03 fcbd
000002d0: 473e 11be 24c4 bf3d 3078 a13b c24c cf3a
000002e0: e400 673d 04d2 f63d 4ca3 2d3d 33d4 9fbd
000002f0: a644 d4bd fb36 583b a731 a23d f073 a9bc
-0.061495114 0.02065607 -0.01384159 0.1518909 0.14802146 0.14846292 0.09742031 0.069167815
0.0011430265 -0.03195426 0.18921168 0.13483706 0.16027316 -0.07154854 0.01496703 0.049163397
0.13967267 0.07077545 0.060926143 0.14310892 -0.028100718 0.023937266 0.107229725 0.099332005
0.177137 0.052043583 -0.047585335 -0.056985956 0.13268697 -0.06639992 -0.014494905 0.02962925
0.13002078 0.10202592 0.09104808 0.079133615 0.12883165 0.017612161 -0.05028746 -0.07027853
0.17310256 -0.029703215 0.04855052 0.070241265 0.098953 -0.022495626 0.06734626 -0.010523812
0.06856533 -0.041197736 -0.04162719 0.10926345 0.05305938 0.07191061 0.014858864 0.034216885
0.01922785 0.031927798 0.013795588 -0.017418304 0.17138089 -0.09609046 -0.080153495 -0.03157689
0.043610368 0.15688953 0.117738344 0.073386595 0.006686544 0.16697353 0.17177492 0.15055081
0.03230914 0.07185606 0.2978998 -0.0053012483 0.07411319 0.10951871 -0.02276864 -0.06428757
-0.1542836 0.13875648 0.059705857 -0.06931953 -0.0020805302 0.14279906 -0.017096942 0.17666541
0.13895077 0.096914575 -0.06337915 0.21648087 0.1042355 0.17183465 -0.009782359 0.17245105
0.043247163 0.12132233 0.16125946 -0.18264525 0.21159309 0.14357369 0.028343363 0.026272314
0.037257366 0.09757269 0.22765665 0.08121614 0.0699749 0.17538607 0.17272082 0.018607281
0.07472532 0.072250776 0.180039 0.062461488 0.074413806 -0.0065297075 0.029946372 0.08344774
-0.082130596 0.06572409 0.15948093 0.046964966 -0.050980013 0.0043244837 0.048625387 0.15962794
-0.03331376 -0.0020242643 -0.03117629 -0.08279603 -0.012054012 -0.081861325 -0.049962834 0.07718008
0.077210106 -0.0016345016 0.060267568 0.048304822 0.0978988 0.07498503 0.09465389 0.08462582
0.025372196 0.05609381 0.070154205 -0.0760254 -0.122365765 -0.012977276 0.07922899 -0.10717286
-0.02782622 -0.061053816 0.04497855 -0.116515845 0.052119907 -0.0018481112 -0.06740608 0.046825714
-0.040182736 0.05159888 0.10276919 0.035983264 -0.11725219 -0.003893839 -0.12673195 0.0249403
-0.07333183 0.044500925 -0.098854765 0.089803204 -0.12678097 0.044502698 -0.07468083 -0.0026642461
-0.005931003 -0.10499524 0.03418992 -0.12305366 -0.14183913 0.09363583 0.0049276575 0.0015815722
0.056397334 0.12051776 0.04239206 -0.07804146 -0.10364656 0.0032991755 0.07919627 -0.020685166

gru.bias_hh_l0_reverse f4 [192]
00000000: b27d ee3a 3c06 a43d d6a3 f53d 4c4c 6fbd
00000010: 3264 483d 785b 163e 208b 463e 172e c2bb
00000020: 1109 0a3e fe94 123e 6da4 dc3c 6085 0f3d
00000030: 0c07 72bd a30d 163e 4194 4abc 02c6 e23d
00000040: 3dd7 f83d 338b 083e a801 ac3d 41ed 9c3d
00000050: 7a3b 2d3e efc6 603d 3d90 ee3d 5daa bb3b
00000060: d3e2 463e dc3a 68bc 95d7 0f3e 327d cb3c
00000070: f9d6 8a3c 3819 d8bb 80ba 223c d39b d43c
00000080: 27fa 213d 79b9 3f3e a9e2 b3bd 317f db3b
00000090: 391e b73c 811a c03d 7618 6dbd ba42 6a3d
000000a0: f241 5a3d 84d0 2fbd aee2 323d b8da 9bbb
000000b0: cdda 003e f392 403e c37d 153e 5a24 3dbd
000000c0: e78b 5b3d db0c 3f3d ab7a 293e 4036 9f3d
000000d0: a3c9 83bd 5e47 4cbd 97e0 bf3d 824f 9abd
000000e0: 403e a8bd 2fd3 9c3d 5987 f53d e3ac 863d
000000f0: 1c57 bc3d 08df cf3d 8ffb 943d 460a 9ebb
00000100: bafd 023d 0b32 a23d 26dc 25bd f493 643e
00000110: 2cac d63d cc44 b53d eb80 9c3d ec9b 583e
00000120: 9d03 d93c 2a5f b33d 85de fe3d 34b9 323e
00000130: 703c 113d 7d9b 5b3e e7f3 2a3b 183c c5bd
00000140: 45cf 9b3c 11ef 623c f703 083e a689 98bc
00000150: e861 0abd f858 123d 8b3e 043e dc04 1d3d
00000160: f028 373e 0382 f53d f527 aabd a1d7 703e
00000170: f244 f33d 7eb4 cd3d 8aac c3bd a977 bc3d
00000180: 7c2a 303d cf6c e83d 2e79 713e 77ac 403c
00000190: 8c76 3c3e ae18 0e3e 6e29 633e 7678 e73d
000001a0: 0c9a 4a3e 0c4d 093e d512 1c3d 6bf7 993c
000001b0: 233e c53d 90b5 893d ced5 8e3d 472b 363e
000001c0: d98e 0a3d a93b ac3d cbaf af3d a735 ac3c
000001d0: 023b 413e 893a 5e3d 3c6e 5dbd cc14 df3d
000001e0: 7435 06be aa93 3bbd 5e53 ec3d 2544 b73d
000001f0: a1db 4d3d 2d20 ca3d 4705 263d 5d90 b33d
00000200: fdb8 cd3c 587d adbd c5d9 16ba 2ed6 043e
00000210: 69c7 49bd c151 603d 2f4e 253b 6853 0cbe
00000220: 793b b43d 5d95 5f3d 99e1 193d 63b6 be3d
00000230: e22b 713d 9a08 17be ba27 d93d df3a c5bc
00000240: ba47 54bd 07fd dbbd 6cc9 f7bc 81a3 633d
00000250: 4e04 bcbd 04d9 d93d 2f27 853d 0628 89bd
00000260: 4e8a 3e3d 5745 cf3c 6d88 153d eb3b b4bd
00000270: f780 183e 1434 e03d 1eab ca3d 292c 25bd
00000280: f4bf 82bd 7fe2 04be 1cd9 e83d 4feb d13c
00000290: 6821 b43d 5411 9d3d 9691 653d 3f00 0a3c
000002a0: 739b 503d a8bd 393d aca8 36be d7a5 9d3d
000002b0: 201a 5f3c f86c f0bd a72c 823d 803f 923d
000002c0: 86ba 91bd 5344 4a3d fdd6 393d 1d0e 52bd
000002d0: c82b ae3d 5cc5 853d 4104 923c aa3b c8bd
000002e0: ca68 ef3c 2474 77bc efa2 5b3d 2b96 98bd
000002f0: a825 ba3c 3202 b93d 0837 e5bd ecbe 0d3e
0.0018195419 0.080090016 0.1199414 -0.05842237 0.04892368 0.1468333 0.1938901 -0.0059259045
0.13480021 0.14314649 0.026933873 0.035039306 -0.05908875 0.1465364 -0.012364448 0.11072923
0.121504284 0.1333435 0.083987534 0.0766244 0.1691722 0.054877218 0.11648605 0.005727096
0.19422464 -0.014174189 0.14047082 0.024839971 0.01694821 -0.006594803 0.00993216 0.025953209
0.039545204 0.18723096 -0.08783466 0.006698512 0.022353278 0.09380055 -0.057884656 0.05719254
0.053285547 -0.042923465 0.04367321 -0.004756298 0.12583466 0.18806057 0.14598756 -0.046177246
0.05360022 0.04664312 0.165507 0.07774019 -0.064349435 -0.04987275 0.09369009 -0.07534696
-0.08214998 0.076574676 0.11988706 0.06575944 0.09196302 0.10149962 0.072745435 -0.004823002
0.031980254 0.07919701 -0.040493153 0.22322065 0.10482058 0.088510126 0.07641777 0.2115323
0.02649098 0.087583855 0.12444786 0.17453462 0.03545803 0.21446033 0.0026085319 -0.096306026
0.019019732 0.013850943 0.13282762 -0.018620323 -0.033784777 0.03572938 0.12914483 0.038334712
0.1788671 0.119876884 -0.083084024 0.23519756 0.11878385 0.10044192 -0.095543936 0.09202511
0.043009266 0.113488786 0.23581383 0.011759869 0.18404597 0.13876602 0.22183773 0.11302273
0.19785327 0.13408297 0.038103897 0.018794736 0.09630992 0.067240834 0.06974374 0.17789946
0.033827636 0.08409817 0.08578452 0.021021677 0.18870166 0.054255042 -0.054060206 0.108926386
-0.13106328 -0.04579512 0.115393385 0.089485444 0.050258283 0.09869418 0.040532377 0.087677695
0.025112623 -0.08471173 -0.0005754496 0.12972328 -0.049262438 0.054765467 0.0025223603 -0.13703692
0.08800406 0.054585803 0.037568662 0.09312131 0.05887974 -0.14749375 0.1060328 -0.024075923
-0.051826216 -0.107416205 -0.030247413 0.05557585 -0.091805086 0.106370956 0.06501614 -0.06697087
0.046518616 0.025301619 0.03650706 -0.08800491 0.14892946 0.10947433 0.09895919 -0.040325318
-0.063842684 -0.12977026 0.11369535 0.0256249 0.08795434 0.07669321 0.056047045 0.00842291
0.050929498 0.045346886 -0.1783778 0.07697647 0.0136170685 -0.11739534 0.06356173 0.07141018
-0.07115655 0.049381565 0.045371044 -0.05128299 0.08504444 0.06531784 0.017824294 -0.09777005
0.029224772 -0.015103374 0.053622182 -0.07450517 0.022723034 0.09033622 -0.11192137 0.13842362

fc.weight f4 [6, 128]
00000000: b9b4 f73d 8025 c4bd cae0 783b 9b6c 843c
00000010: 2526 253d d2b6 283e 6b82 1d3e b378 e9bd
00000020: 6e9a 153e f140 c83d b58a fc3d 1838 e83d
00000030: 3755 063e 9fe8 033d 7e8c 6e3d f064 65bd
00000040: ffc0 14be 0c48 afbd fcc6 b43d 998c 43be
00000050: f269 babd b015 aa3d 976f 9ebd d0f6 0cbe
00000060: 355c 203e dc94 fbbd fe7d 943b 67be 52bd
00000070: ed60 f9bd 7892 ff3d 0054 acbd 464a db3d
00000080: 354c 04bd 3bc9 113e c110 b0bd 5f58 f7bd
00000090: 264b 14be 62de 093e 8d3f db3c f728 213d
000000a0: 99bf 77bc 8193 c1bd 3fa3 7fbd 3445 47bd
000000b0: 20de df3c eacc 6fbd 3886 7cbd 5ae1 533c
000000c0: 23a5 203d 4162 403d 2139 08bd 30ab dfbd
000000d0: 769f e5bd 8a35 20be 6a96 e13b 1235 22be
000000e0: e3ab 91bd 5e80 babd 5d8e 11be bd35 61bd
000000f0: d637 20be e6e1 913d 946a fd3d 16a4 c93d
00000100: ca1b d0bd 2a4c 7c39 399f b5bd 3082 d83d
00000110: 8637 9e3c ae16 1abc a0e9 b1bd b30a 043d
00000120: 5156 8c3d 5952 16be 5a48 723d 5fcb e03d
00000130: 1687 cf3d fbee e5bd 3a47 febc 99df 70bd
00000140: 5573 c9bd 7377 6b3d f71b 483d cce0 ccbc
00000150: 0d2d 9a3d ede9 97bd ed50 b2bd 9feb d1bd
00000160: 5733 d33d 3f03 d2bd f679 94bd b4e1 a93c
00000170: 11c6 d4bc 58c8 9cbd d87a 853c 9726 c0bc
00000180: f023 5a3c a712 a4bd 211a e13c aa7a 863d
00000190: ed61 9a3d ed92 92bd b041 bebc 7d85 0ebe
000001a0: 117d 7d3d da77 16be 2e4d 88bc e497 e43d
000001b0: 5558 983c 3aa8 95bd e3fa 063e 1584 853d
000001c0: cc98 143d beb5 f13d 409f 833d 9017 ce3d
000001d0: 52ab a0bd f9fe c53d b7da cdbd 367d 9d3d
000001e0: 8f12 8ebd 76c6 f13d 0565 9fbc 7464 f5bc
000001f0: b06c 49bd 550f ba3d 2bd6 26be fac5 d53c
00000200: 8a46 5fbd 0977 c93d 05a1 25bc b4e6 19bc
00000210: cea4 f7bd 2d77 debd 1ff6 b6bd 42f9 2d3a
00000220: 772e 6abd 892f 773d cb0e 98ba b304 10bd
00000230: 1b51 333c 5522 00be 4bc4 b23d 7745 df3d
00000240: 7a92 003d a230 5abd d3d6 e4bd cbf6 5a3d
00000250: 34b6 ac3d c64f b6bd a723 c13d eb01 bc3d
00000260: 9533 a9bd 3f09 e23d 383d 66bd a377 833c
00000270: a58d 903c 0cbe dfbd b0bb a53d 7b67 933a
00000280: c34c ec3d 5f0f 4a3c adf3 9e3d 37d0 b83c
00000290: 26bf c73d d0b4 37ba cc18 9abd e577 0bbe
000002a0: 41f6 bd3d 9ad3 e03d e209 823d 4edd 66bd
000002b0: e8c3 90bb 308d 4a3d 5bd4 67bd a0a6 62bc
000002c0: d558 47bc 285f 96bd dd4b 9fbc 247e c63d
000002d0: bc45 183d fbad cc3d 4fbc bcbb 516b 9e3b
000002e0: ded1 94bd b65f 593d 3027 a63d 1aba ce3d
000002f0: e2f6 053d 9de0 b1bd d7a4 07be 1e0b ff3c
00000300: 89f9 fa3d b4c5 933d e9ba 933c 5f8d 5abd
00000310: 1309 19be 7627 bcbc 3606 853d e0cf c5bd
00000320: d096 713d 674c cd3c 211f dd3d b64d fc3c
00000330: ac65 15bb 5649 873b d8a3 a33c bc0e c83c
00000340: 7afa 98bb 2cfc bbbd 4bca c3bd d631 553d
00000350: 6e54 febc 5e6d d3bc 440f d1bd 80a9 353d
00000360: d445 d3bd 9f68 96bc 97ac 0cbe 24db bbbd
00000370: a3ae b8bd 827e 92bc 89ad 853d cc3d f03d
00000380: 0cf6 9ebd e0d9 263e ba21 a8bc 3d45 53bb
00000390: abe8 4dbd fa0c c13d 9b0d 59bb 8450 ab3b
000003a0: 3741 0ebd 71ce 84bc 9606 ec3d e847 02bc
000003b0: 8462 6abd 2483 90bd 8a6c a7bd 608f e03d
000003c0: b44c fcbb 4dad 42bb c29c 01be f689 683d
000003d0: ed83 b9bd a2d0 14bc 6827 ae3d a41a 2d3c
000003e0: 3b54 8bbc ed82 97bc e53b ff3d f46d 8dbd
000003f0: 394e 83bc b525 873d 6edc 13bd 54e1 873c
0.12095017 -0.09577465 0.0037975782 0.016165068 0.04031958 0.1647599 0.15381782 -0.11399975
0.14609692 0.097780116 0.12331144 0.11338824 0.13118444 0.032204267 0.058239453 -0.056004465
-0.14526747 -0.08558664 0.08827016 -0.19096602 -0.09102239 0.08304918 -0.07736128 -0.13766026
0.15660174 -0.12284252 0.004531621 -0.051451113 -0.1217669 0.124791086 -0.08414459 0.10707526
-0.03229924 0.1423692 -0.085969456 -0.12077402 -0.14481792 0.13463739 0.026763702 0.039345708
-0.015121364 -0.09451962 -0.062411543 -0.04864998 0.027327597 -0.05854503 -0.06165144 0.012932146
0.039219987 0.046968702 -0.033257607 -0.10921323 -0.112120554 -0.15645424 0.006884386 -0.15840557
-0.07112863 -0.09106515 -0.14214464 -0.05498289 -0.156463 0.07123165 0.12373844 0.0984575
-0.1016155 0.00024060966 -0.0886826 0.10571706 0.019313585 -0.009404821 -0.086871386 0.032236766
0.06852401 -0.1467985 0.05915103 0.1097629 0.101331875 -0.112272225 -0.031039823 -0.05880699
-0.09836451 0.057486963 0.048854794 -0.025009535 0.07528124 -0.07417665 -0.087068416 -0.10250019
0.10312527 -0.102545254 -0.07249825 0.020737506 -0.025973352 -0.076554 0.016293928 -0.023455901
0.013314232 -0.0801137 0.02747828 0.06566365 0.07538209 -0.0715693 -0.023224682 -0.13918109
0.06188685 -0.14694157 -0.016638365 0.11161783 0.018596807 -0.07307477 0.13181643 0.06519333
0.03627853 0.11802243 0.06426859 0.10063088 -0.07845177 0.09667773 -0.10051482 0.07689898
-0.069371335 0.118054315 -0.01945735 -0.029955126 -0.049175918 0.090849556 -0.16292636 0.02609538
-0.05451063 0.09837157 -0.010109191 -0.009393383 -0.12091981 -0.10862575 -0.089336626 0.00066365686
-0.05717322 0.060348067 -0.0011601088 -0.03516073 0.01094463 -0.12513097 0.08728846 0.10901921
0.03138969 -0.053269036 -0.11173787 0.053458016 0.0843319 -0.08901934 0.09430628 0.09180053
-0.082617916 0.1103692 -0.056210726 0.016048258 0.017645666 -0.109249204 0.08092439 0.001124605
0.11538079 0.012332766 0.07761321 0.022560222 0.097532555 -0.0007007839 -0.07524261 -0.13619955
0.09275485 0.1097786 0.06349541 -0.056363396 -0.004417885 0.049451053 -0.056599002 -0.013833672
-0.012167175 -0.07342368 -0.019445354 0.09692028 0.03717588 0.09994122 -0.005759753 0.0048345705
-0.072665915 0.053069793 0.08112943 0.1009409 0.03270615 -0.0868542 -0.13246475 0.03113323
0.12254626 0.07215443 0.018033462 -0.05335748 -0.14944868 -0.022968035 0.06495325 -0.0965879
0.058981717 0.025060846 0.10796953 0.030798774 -0.0022796197 0.0041286154 0.019975588 0.024421088
-0.004668531 -0.09178957 -0.09560069 0.05204948 -0.031046119 -0.025808986 -0.1020799 0.0443511
-0.10316053 -0.018360434 -0.13737713 -0.09172657 -0.09017684 -0.01788259 0.0652724 0.11730537
-0.077617735 0.1629405 -0.020523895 -0.0032237314 -0.050270718 0.09426303 -0.0033119682 0.005228104
-0.034730162 -0.01621172 0.11524694 -0.007951714 -0.057222858 -0.07056263 -0.08174999 0.109648466
-0.0076995734 -0.0029705346 -0.12657455 0.056772195 -0.09058366 -0.009082945 0.0850361 0.010565434
-0.017007938 -0.018495047 0.12462596 -0.069057375 -0.01602851 0.06598989 -0.03609889 0.016586937
