gru_classifier_weights/llama-3-8b_h100_tp2.pt (torch, 117957 bytes, 10 tensors)

gru.weight_ih_l0 f4 [192, 6]
000000 9e 3c 0d bc e1 b5 81 3d 23 45 0c 3e 6a 65 d9 3d
       -0.008620409 0.06333519 0.13698249 0.10615046
000010 f3 c1 c0 3d 5d 0e 06 bd be 66 8d 3d 82 9d 20 3e
       0.09411993 -0.03272854 0.06904362 0.15685084
000020 8e 07 46 bd 1c 79 35 3e 38 ea 86 bd 66 51 56 bd
       -0.04834705 0.17721981 -0.065876424 -0.05232372
000030 9a 5e 1c bd 46 db c3 bd c3 8f a6 bd b5 c8 23 bc
       -0.038176157 -0.095633075 -0.08132889 -0.009996583
000040 00 8e e0 3d cc 8c ad 3d 2a 2f 08 3c 1e 7e 52 bd
       0.10964584 0.084741205 0.008312026 -0.051389806
000050 cd 70 70 bc e4 fb 7b 3d f9 42 b2 3d d1 e9 85 bc
       -0.014675331 0.06151952 0.0870418 -0.016346844
000060 07 52 18 bc 72 ff 8a bd 1c 9d 1e 3e be bd 52 bd
       -0.009296901 -0.067870036 0.1548962 -0.051450484
000070 30 a8 ef 3d 7a cf 3b 3d 04 14 24 3d 4e aa 88 3d
       0.11702001 0.045852162 0.04005815 0.06673108
000080 ff 57 ea 3d d9 2d e6 3c f0 23 73 bd ac b9 17 bd
       0.11442565 0.028098034 -0.059360445 -0.037042305
000090 44 48 c6 bc 77 30 1c 3d 58 82 fb bc 9b db 77 3d
       -0.02420438 0.038132157 -0.030701801 0.060512166
0000a0 59 d5 21 3d f8 40 80 3c c6 34 ea 3c e5 03 8b 3d
       0.039510105 0.01565598 0.028589617 0.06787852
0000b0 ad b4 85 bc 5a 35 0f 3e ed 2a f3 3d 3d 40 f2 3d
       -0.016321504 0.13985196 0.11873422 0.11828659
0000c0 9b 03 0a 3e 55 b1 75 bd 10 cf 13 3d 96 e3 7b bd
       0.13477938 -0.05998357 0.036086142 -0.06149634
0000d0 eb 8f f5 bb 88 4b 52 bd 7e a6 06 bd 5c cd 8d 3d
       -0.007493963 -0.051341563 -0.032873623 0.06923935
0000e0 07 47 4d 3d f5 ec 73 bd 7e 7e 76 bd 32 f9 e2 bc
       0.050116565 -0.05955215 -0.060179226 -0.027706716
0000f0 9e 30 43 3d d9 5b a9 bd fd 2d 96 3d 4d 96 3f bd
       0.047653787 -0.08269472 0.0733299 -0.046774197
000100 b1 53 b9 bc a6 fa 0a bd 85 33 ff bd c5 b2 0e bd
       -0.022622915 -0.033930443 -0.124609984 -0.034838457
000110 c8 8f 4b bc 93 3a 22 bb a8 18 ef 3d 6c a6 55 bd
       -0.012424417 -0.0024754151 0.11674625 -0.052160665
000120 1e 5d 00 3e da 63 14 bd 92 3b c0 bd e0 d6 42 3e
       0.12535521 -0.03622804 -0.09386362 0.19027281
000130 0b c0 08 3d d1 5b e4 3d d8 8c ce 3b bc 1c bf 3c
       0.03338627 0.11150325 0.006303411 0.023329131
000140 d1 3a 1a bd f3 59 cf 3d e9 aa 8b 3d 9c b6 ef ba
       -0.037653748 0.10124578 0.06819708 -0.0018288675
000150 15 49 6e bd 4f 00 b6 bd 63 f3 50 3b ce 3e 8a 3d
       -0.058175165 -0.088867776 0.003188335 0.0675026
000160 c0 4f 11 bd 54 6e 7f bd dd bd 9c bd 5b 9e e0 bc
       -0.035476446 -0.062361076 -0.07653401 -0.02741926
000170 42 53 19 bd 19 66 9b 3d 7b be 70 3d e5 e5 38 3d
       -0.037432916 0.07587833 0.058775406 0.04514112
000180 67 7f e8 3d 69 e3 c3 3d 31 99 0b 3b 3f 1a f9 3b
       0.11352425 0.095648594 0.0021301026 0.0076020057
000190 b8 f4 c8 3d c2 3d 58 3d 27 62 10 3d de c6 18 be
       0.098123014 0.05279327 0.035249855 -0.14919612
0001a0 20 d2 95 3c 35 41 3b ba 05 5e 3a bd f2 4d 0a 3d
       0.018288672 -0.00071432005 -0.04549982 0.03376574
0001b0 f5 01 43 bd b9 33 6e 3c fa 30 34 bd e2 14 47 bd
       -0.04760929 0.014538699 -0.04399202 -0.0486039
0001c0 15 ec 01 be 35 1c 8b 3d 15 de c6 bd 0c b5 30 3d
       -0.12687714 0.067924894 -0.097103275 0.04314141
0001d0 1e 69 f0 bd 78 47 ce 3d d9 d6 cf bd 40 e1 d3 3c
       -0.117387995 0.10072225 -0.10148401 0.025864244
0001e0 e4 c3 ea 3c 61 7f e0 bd 61 3b e2 bc 02 1b 30 bd
       0.028657861 -0.109617956 -0.027616205 -0.042994507
0001f0 fb 9c a0 3d 93 e4 c5 bd 31 e7 bf bb 44 f5 5d 3d
       0.07842442 -0.09662738 -0.0058564176 0.05418898
000200 83 03 67 3d a8 93 1c 3e 2c 50 33 bb 52 02 07 3d
       0.056399833 0.15290701 -0.0027361019 0.032961197
000210 85 e4 85 3d e1 be c0 bb 02 e4 36 bd b8 92 28 3e
       0.06537727 -0.0058821295 -0.04465104 0.16462219
000220 c6 77 78 bd fa f1 bd 3d 08 9a 26 bd 46 19 55 bd
       -0.0606611 0.09274669 -0.04067424 -0.052026056
000230 17 63 b2 3c 98 1f 24 3e 9a e6 26 3e 55 45 3d 3d
       0.021775765 0.16027677 0.16298905 0.0462087
000240 c6 91 ac bc 78 a0 0a 3e a9 89 fb bd a8 53 8c 3d
       -0.021065604 0.13537776 -0.12282116 0.06851894
000250 a9 0e d6 3d 0b a6 84 3d e9 11 ab bd 15 f8 d0 bc
       0.10452015 0.06476983 -0.083530255 -0.02550892
000260 8c 2d 6c bd 4e 12 46 bd c1 85 a8 3b a8 a4 88 bd
       -0.057660624 -0.0483573 0.005142898 -0.06672031
000270 5d 5a 6f 3d fc 05 88 3d 98 dc 65 3d 71 a1 40 bd
       0.058435787 0.066417664 0.056118578 -0.047028963
000280 2e 68 85 3d 64 3c cb bd 6b ca e1 bd dc c0 83 bd
       0.06514011 -0.09923628 -0.11024936 -0.064332694
000290 d8 b8 ef bd 55 89 c6 3d cf b0 c4 3d 0a 10 70 3c
       -0.11705178 0.09694163 0.09604036 0.0146522615
0002a0 8c f4 04 bd 2b 25 5f 3d 8a 0f 67 bd 1a b1 10 3d
       -0.03245978 0.054478806 -0.056411304 0.035325147
0002b0 03 e1 e3 3d 5a 38 9e 3d e2 a1 b4 3d b9 f2 de 3d
       0.11126902 0.07725592 0.08819939 0.108861394
0002c0 ec ec 1a 3e 8f 7e 1d 3c 54 f4 4b 3d d9 dc 45 3b
       0.15129441 0.009612693 0.049793556 0.003019145
0002d0 68 29 c2 3d e4 5f db bd 93 60 a9 3d f0 ad 14 3e
       0.09480554 -0.10711649 0.08270373 0.14519477
0002e0 02 b0 8b bd 50 23 d9 3d de a3 b0 3b c1 0e 29 bd
       -0.0682068 0.106024384 0.0053906282 -0.041273836
0002f0 a4 f6 3b 3e 6d d2 28 3d cf 6a 0c 3d 94 36 d0 3d
       0.18355805 0.041216303 0.034281548 0.1016666
000300 fe 4a 04 3d 0b cd ca 3d b0 b0 df 3d c1 9b 93 bd
       0.03229808 0.0990239 0.10922372 -0.07207442
000310 95 19 28 bd 8b 40 bc 3b 50 62 87 3d 8f e5 8c 3d
       -0.041040022 0.005744999 0.066105485 0.06879722
000320 28 0a d9 3d f6 09 b0 bc a7 a4 4c 3e 50 ff dd bd
       0.1059764 -0.021489125 0.19984685 -0.108397126
000330 c4 64 e5 3c 43 37 44 3d 40 1c 8c 3d 82 8d cf bd
       0.02800215 0.047904264 0.06841326 -0.10134412
000340 f7 4d db bd ae bf ad bd 6c f3 0b 3e fb 64 0d 3e
       -0.1070823 -0.084838256 0.13667077 0.13808052
000350 ec d3 eb bc eb c9 72 3d 62 0e 22 3e 91 ac ce bd
       -0.028787576 0.059274595 0.15825799 -0.10091508
000360 dc 7a d3 3d 7e ca 92 bd 60 e2 30 3e 51 c3 dd 3d
       0.10326168 -0.071675286 0.17273855 0.10828269
000370 67 a6 0c bd f3 f2 8e bc 87 2b 6f bd a8 be 28 bd
       -0.03433838 -0.017449832 -0.05839112 -0.04119745
000380 1e c1 47 3d c1 36 4c 3e df 23 3d 3d ef db f4 bd
       0.048768155 0.19942762 0.046176787 -0.119560115
000390 86 1d 43 bd c8 50 43 bd a4 2c 47 3d 89 05 a4 3d
       -0.047635578 -0.04768446 0.048626557 0.08008868
0003a0 c3 89 80 3d 70 99 ee bd 40 96 86 3d f4 e8 00 3b
       0.06276276 -0.1165036 0.06571627 0.00196701
0003b0 eb f6 d0 bc b9 a5 1d bd 68 a7 b6 3c 65 ff e6 3c
       -0.025508365 -0.038488124 0.022296622 0.028197953
0003c0 b3 eb c4 3d 9a aa 5a 3d 6a 17 bc 3d 03 b1 d8 3d
       0.096152686 0.053385355 0.091841534 0.10580637
0003d0 48 07 26 3d a6 7b da bd 58 c5 c5 3d 35 91 32 bd
       0.040534288 -0.10668115 0.09656781 -0.04359551
0003e0 53 67 93 3d 71 b6 36 be 9b 05 78 bc 82 33 e5 bc
       0.07197442 -0.17843033 -0.015138055 -0.027978662
0003f0 72 3c c9 3d 7b e1 89 3d 1b 16 45 3c 18 59 3d b7
       0.09825982 0.0673246 0.012029196 -1.1286022e-05

gru.weight_hh_l0 f4 [192, 64]
000000 ca e3 83 3d 83 7c 3c bd 95 8c 91 bd 34 0f 71 bd
       0.06439932 -0.04601718 -0.07106892 -0.05885239
000010 27 b3 08 be 5b 4b 96 bd cd a4 e3 3d 81 ff 27 3e
       -0.13349591 -0.07338592 0.11115418 0.16406061
000020 12 9d 19 3d c2 c6 84 3d 9e fb 09 bd e0 51 eb 3d
       0.03750331 0.064832225 -0.033687226 0.11490226
000030 19 ce 84 bd a9 ce 87 bd 03 de 10 3d d8 4d 8d bd
       -0.064846225 -0.06631214 0.035367977 -0.06899613
000040 bf 6f 21 be 8f db 80 3d 82 89 29 be 0e e5 33 3c
       -0.15765284 0.062918775 -0.16556361 0.010979904
000050 c3 cb 3c 3d 8b 1c d8 bc 08 9c f6 bd d3 03 bd bd
       0.04609276 -0.026380798 -0.12041479 -0.09229245
000060 d3 d1 b2 bc 26 06 11 3d a7 c7 8b bd a0 19 37 3e
       -0.021828568 0.035406254 -0.0682519 0.17880869
000070 fa 28 b9 bc 5b 66 83 bd 0a 1f 05 3e b6 21 31 3e
       -0.022602547 -0.06416007 0.13000122 0.17298016
000080 b9 bb 62 3d 7b bf af bc 93 04 83 3d 8b 65 06 3c
       0.055354808 -0.02145361 0.06397357 0.008202921
000090 9f a5 44 bd 6c aa 5b bd 7a 13 88 bd 98 e3 28 3d
       -0.04800951 -0.053629324 -0.0664434 0.041232675
0000a0 df bb dc 3d 14 6d c4 3d cf 69 91 bc b1 58 b3 bb
       0.10778021 0.095911175 -0.017750649 -0.0054732193
0000b0 98 4c ca bd 6b 8a a6 bd 84 e4 14 be 0d 1a b3 bd
       -0.0987789 -0.0813187 -0.14540297 -0.08745203
0000c0 32 4f a1 bc be a3 a3 bd d7 c3 67 bd cf 79 97 bc
       -0.019691084 -0.07990216 -0.05658325 -0.0184907
0000d0 c1 21 a3 bb 65 02 35 bd f6 ef 48 bd 11 f5 d5 bd
       -0.004978389 -0.044191737 -0.04905697 -0.10447133
0000e0 22 c4 0f bd e5 1b 0c bd af 10 c6 bd 0d f1 05 bc
       -0.035099156 -0.03420629 -0.09671151 -0.008175147
0000f0 27 fc a1 3b 5f b8 e4 bd 1a dd 61 ba 98 3d 22 be
       0.004943389 -0.111679785 -0.00086160155 -0.15843809
000100 9c c8 22 3d 3f d5 81 3d dc ff d2 3c ff c4 d6 bd
       0.039742097 0.063395016 0.025756769 -0.10486793
000110 d8 76 85 bc 50 67 f6 bd 43 9a 93 3d b1 4e fb bc
       -0.01629202 -0.12031424 0.072071575 -0.030677171
000120 36 06 52 bd 31 3a 36 bd cd f6 da 3d 16 8d e9 3d
       -0.051275454 -0.04448909 0.10691605 0.11403863
000130 7e 58 e6 3d 17 2f 88 bd 65 de 21 bc aa dc d6 3d
       0.11247347 -0.06649607 -0.009879683 0.10491307
000140 10 45 c2 bd c8 85 22 be ce c4 97 3c d9 3e b1 3d
       -0.09485829 -0.15871346 0.018526461 0.08654565
000150 be e5 90 3d 51 bd 36 bd 68 9d 0a be 6c 2a a6 3d
       0.0707507 -0.04461414 -0.13536608 0.0811356
000160 c8 aa 84 3d 9b f3 26 3d 8e bd 3e be 1b 65 98 3d
       0.064778864 0.040759664 -0.18626997 0.07441159
000170 51 3a 70 bd 9a ac e1 3d fe b2 e1 bc 59 51 39 bd
       -0.058649365 0.11019249 -0.02755117 -0.045243595
000180 56 c3 3e 3d 90 ae c5 3d e3 fd ab bd 5d 28 71 3d
       0.046573006 0.09652436 -0.083980344 0.058876384
000190 4a 46 83 bc 5e fc ae bc 37 61 bf 3d 7d aa 65 3d
       -0.016024727 -0.021360572 0.09344714 0.056070793
0001a0 ae 4b a9 3d f3 32 11 3e 8e 34 46 3d 6c 34 fe bd
       0.08266388 0.14179592 0.048389964 -0.124123424
0001b0 c0 82 3a bd 91 98 33 3d 78 d6 32 3c 78 3d b3 bd
       -0.04553485 0.04384667 0.010915391 -0.087519586
0001c0 06 52 10 3e b8 10 23 be 27 52 df 3b 78 97 04 3e
       0.1409379 -0.15924346 0.0068152132 0.12948406
0001d0 d2 19 f1 bd 56 7b cd 3a e9 1e 27 be c5 52 37 3d
       -0.11772503 0.0015677016 -0.16320385 0.04475667
0001e0 05 98 c7 bd a8 c8 9b bd e4 8d 01 be ce 29 86 3d
       -0.09745792 -0.076066315 -0.12651783 0.06550942
0001f0 23 c5 0c 3e 0f 9a 91 bc ae e2 91 bd dd 9b 76 bd
       0.13747077 -0.017773656 -0.07123314 -0.060207237
000200 96 e5 44 bd 25 71 ba 3d 5e 4a a2 bd ee 99 ee 3b
       -0.048070513 0.09103612 -0.07924341 0.0072815334
000210 a0 28 de 3c ed 82 02 bd dc 59 c6 bd f6 55 43 3d
       0.02711898 -0.03186314 -0.09685108 0.0476894
000220 00 e2 9c 3c 2a b5 40 3d 8d e8 aa bb ea 7c 5e 3a
       0.019150734 0.04704777 -0.0052157105 0.00084872416
000230 cc ee 9a bd a2 34 32 3d 2f 81 89 3d 90 fe 4a bd
       -0.07565078 0.043507226 0.06714093 -0.049559176
000240 eb 0b 2e 3d 51 65 9a bc 56 fa 61 bd a6 fe a8 bd
       0.042491835 -0.01884714 -0.05517038 -0.08251695
000250 45 d6 a0 3d 6f d6 0e be 23 11 8e 3d 1d 17 13 3d
       0.07853369 -0.13948987 0.06936862 0.035910714
000260 8c ad 95 bd 37 87 40 3d bd 94 26 be 90 51 11 bd
       -0.07308492 0.04700395 -0.16267677 -0.035478175
000270 b7 26 d3 3d b8 0d a6 3b 16 65 10 bd 22 dd 87 3d
       0.10310119 0.0050675534 -0.035252653 0.066339746
000280 3d 4d dc 3d 11 90 d2 3c 7d 49 f6 3c c9 e3 a9 bd
       0.107569195 0.025703462 0.030064339 -0.082954
000290 1f 32 12 be ed d1 8e 3d b6 b3 bd bd ae 27 87 3d
       -0.14276932 0.06973634 -0.09262793 0.06599365
0002a0 24 5f 94 bd 67 4d ca 3d f2 3c 9a bd 72 1e 89 bd
       -0.07244709 0.098780446 -0.07531156 -0.0669526
0002b0 f1 26 19 3d 94 51 ab 3d 4d a8 79 bd 8b ff 86 3d
       0.037390653 0.08365169 -0.06095152 0.0659171
0002c0 1f 15 92 3c 87 da 06 be 38 ea b5 bd 63 ff 23 bd
       0.017832337 -0.13169299 -0.08882564 -0.040038478
0002d0 bb 41 eb bd 34 57 5e 3d 5b 2c be bc 47 ea ae 3d
       -0.114871465 0.054282382 -0.02321451 0.085407786
0002e0 f5 62 d6 3d 05 59 7d bd 4c db e3 bc 7a f0 d8 3d
       0.10468093 -0.061852474 -0.02781453 0.10592742
0002f0 96 25 d0 3d 1b 82 b7 3d 6d 93 95 bd 23 ab 08 bd
       0.10163419 0.089603625 -0.0730351 -0.033366334
000300 82 19 11 be 7d 79 87 3d ce cb a2 3d 1e eb b7 ba
       -0.14169887 0.06614969 0.07949029 -0.0014031862
000310 14 1e 9f bc b2 3a 87 3b 54 3a ea 3d e9 07 a7 bd
       -0.019423522 0.00412687 0.114369065 -0.081558056
000320 0d 7c 84 bd 76 16 d7 bd 12 c0 2b 3b e3 c7 07 bc
       -0.06468973 -0.10502331 0.0026207012 -0.008287403
000330 1b ae d9 bd 1d da de bd 18 61 ba bd c4 b6 0b be
       -0.10628911 -0.108814456 -0.091005504 -0.13643938
000340 fd 67 54 3c 16 82 ff bc 8b 0c b3 bd 90 10 56 bc
       0.012964246 -0.03118996 -0.08742627 -0.013065472
000350 5e fb 2c be 62 d6 b3 3c a3 d1 10 be 38 27 87 bd
       -0.16892764 0.021952812 -0.1414247 -0.06599277
000360 88 52 cb 3c 85 70 94 bd 2c b9 13 be 0d 36 47 3c
       0.024819627 -0.07248024 -0.14426106 0.012158883
000370 77 58 10 3e 3b f3 2c 3c 14 7c f9 3d a6 e3 07 bd
       0.14096247 0.010556038 0.12181869 -0.033176087
000380 d8 8b e7 bc 18 6d db bd d8 27 4a 3c a9 9d 0e 3e
       -0.028264925 -0.10714167 0.012338601 0.1392733
000390 dd 27 94 bd 2b 24 05 be 83 8c eb bb 94 2b d9 bd
       -0.07234166 -0.13002078 -0.007188381 -0.10604015
0003a0 c5 0c d0 3d 8b 18 4d 3b 2c 3b bd 3d ac 9d fe bd
       0.101586856 0.0031295146 0.09239802 -0.12432417
0003b0 c0 a6 a4 3d 99 28 1e be fd 69 42 3c 17 6a 9e 3c
       0.080396175 -0.15445174 0.01186609 0.019337697
0003c0 02 64 8e bd 2b 90 9e bd cf ac d0 bd 97 17 7c bb
       -0.06952669 -0.077423416 -0.101892106 -0.003846621
0003d0 be 5f 7d 3d c8 0d 82 3d 56 f0 ba 3d eb 41 3d 3c
       0.061858885 0.06350285 0.09127872 0.011551361
0003e0 e1 79 1b bd 9c bd af 3d f0 ae 8f 3d 0a 46 87 bd
       -0.03795803 0.08581087 0.070157886 -0.06605156
0003f0 f6 fa 6b bd c3 fd 86 3d 0d c2 72 3d e4 ef 25 3d
       -0.057612382 0.0659137 0.059267092 0.04051198

gru.bias_ih_l0 f4 [192]
000000 e1 2e 25 3e 48 a6 2b 3e a7 86 e4 3d 2c fd 09 3d
       0.16131164 0.1676265 0.111584954 0.03368871
000010 55 9b b8 bd 98 d1 4e bc e3 dc 56 3b 5a a4 79 3c
       -0.09014002 -0.012623213 0.0032785467 0.015236938
000020 26 01 04 3e aa bb 19 3e 70 a6 d6 bd 17 d6 84 3d
       0.12891063 0.15012994 -0.10480964 0.06486147
000030 f2 ca 00 3e 74 4b b9 bd 0d bf 86 bc dd c1 68 bd
       0.12577417 -0.09047595 -0.016448522 -0.056825507
000040 15 87 8e bd 7f 35 1f 3e 9c d9 84 bd d6 31 ee 3d
       -0.069593586 0.15547751 -0.06486818 0.11630599
000050 df 3c 26 3e 52 75 cd ba 16 ca 88 bd 4e 48 d8 3d
       0.16234158 -0.0015675223 -0.0667917 0.10560666
000060 94 51 96 bc ed 84 65 3b a6 bf e9 3d ba d5 20 bd
       -0.018349446 0.0035021857 0.11413507 -0.039266326
000070 a7 17 88 bd dc 9b 02 bd fc 76 3a 3d 7a 39 75 bd
       -0.06645136 -0.03188692 0.04552363 -0.059869267
000080 21 9f 82 3d 4c ca 0e bd b7 74 00 3e 0f c5 19 bc
       0.06378008 -0.034860894 0.12544523 -0.009385361
000090 73 51 7a bb 0b b7 01 3e d4 00 09 3c 71 b3 50 bd
       -0.003819552 0.12667482 0.008362014 -0.05095238
0000a0 c8 bf dd bd 61 7d fc 3c 12 b6 14 3e e9 54 9b 3d
       -0.10827595 0.030821504 0.1452258 0.07584555
0000b0 89 f7 bd 3d f9 71 7b bd a8 8b a8 bd 35 b4 f3 3c
       0.09275729 -0.06138799 -0.08229762 0.029749015
0000c0 eb cd ec 3d c0 3e f8 3d c9 1e 09 3e b3 ee 81 bd
       0.11562713 0.121213436 0.1339065 -0.063443564
0000d0 fe 1d 01 bd 0b de e9 3d ad e6 98 bd 5b 43 80 3a
       -0.031522743 0.114193045 -0.07465873 0.0009785698
0000e0 d0 23 1b 3d 8e 4c b6 3d d9 1c bb 3d 46 4a 2e 3d
       0.03787595 0.089013204 0.09136362 0.0425513
0000f0 96 08 21 3e 3c 80 a4 3d 71 a1 a9 3c 33 6e d5 3c
       0.15725932 0.08032271 0.020706864 0.026053524
000100 86 e8 0d 3e c8 92 2c 3e 35 14 29 3d ba aa e3 3d
       0.13858232 0.16852868 0.041279037 0.11116548
000110 db 41 e3 3c 42 51 85 bc 38 c3 bf 3d df b6 0d bc
       0.027741363 -0.016274098 0.09363407 -0.008649557
000120 f1 64 c7 bd 5d 7c b6 bc 97 ad 0b 3e b1 7e 07 3e
       -0.0973605 -0.022276098 0.13640438 0.13231923
000130 04 be e2 bc 9a f4 8f bd 7a ab a4 3d 31 f0 9f bd
       -0.027678497 -0.07029076 0.08040519 -0.07809485
000140 9b 82 09 3e 04 2b 17 3d 6c 26 3a bc 93 46 cf bc
       0.13428728 0.036906257 -0.0113617 -0.025302207
000150 78 f1 5d 3d 8c bd 52 3e 11 ac 45 3d 80 4b a9 3d
       0.05418536 0.20580119 0.0482598 0.082663536
000160 46 5c 14 3e c7 d5 12 3e 01 02 55 3d ec a5 bd 3d
       0.14488325 0.14339362 0.052003864 0.09260163
000170 8d 8e f0 bc 86 1e 6a bd aa 7b bc 3a 39 09 a4 3d
       -0.029364849 -0.057158016 0.0014380116 0.080095716
000180 48 41 ef 3d ea d9 f2 3d 46 fe b8 3d 4d 6c 9c 3d
       0.11682373 0.1185797 0.09032874 0.07637844
000190 28 7c b9 3c 5f 9d dd 3d 05 0b 2f 3d 2d 3f 72 3d
       0.02264221 0.10821032 0.04273512 0.05914228
0001a0 0c 97 d4 3b f5 24 1c bd 83 50 f8 3d 4c 42 2c bd
       0.0064877328 -0.038121182 0.121247314 -0.042055413
0001b0 09 6d 78 3e 30 39 9d 3d 8d aa a5 3d 7e ba 46 3d
       0.24260344 0.07676923 0.080891706 0.048517697
0001c0 71 0e 68 3c bb 92 32 3e 88 fc b5 3d 77 9e 32 3e
       0.014163599 0.17438786 0.08886057 0.17443262
0001d0 49 67 54 3d 11 b3 21 3d 90 e4 c0 3d a4 c1 b5 3c
       0.051856313 0.03947741 0.09418595 0.022187062
0001e0 00 49 fd 3d 88 bb a6 3d d0 5e 0d bd d2 00 bc 3d
       0.12367439 0.081412375 -0.03451425 0.09179844
0001f0 6c b4 87 3d 7f 7a 97 3d ab e5 46 3e 34 c9 ae bc
       0.066262096 0.07396411 0.19423549 -0.021336176
000200 77 4c f5 bd 9c 42 1b bd 22 95 00 be 14 ca fb bd
       -0.11977475 -0.03790532 -0.1255689 -0.12294403
000210 2d 0c c9 3d ad 39 49 bc 8e 8f b2 bd bc 4e 41 bd
       0.098167755 -0.012281817 -0.08718787 -0.047194228
000220 34 99 c1 3d ee 2b f9 bd 3b c1 3c 3d a3 9f 84 3d
       0.09453049 -0.12166582 0.046082716 0.06475761
000230 61 85 64 3d 9f 9c a7 3d 5a a0 a2 3d 36 2c 49 bc
       0.055791263 0.0818417 0.07940741 -0.012278607
000240 97 12 6d bd fe f6 d8 bc 45 b5 3c bc b1 46 29 bb
       -0.057879057 -0.026484963 -0.011517827 -0.002582949
000250 9f c7 0d bd 91 3e e9 3c 55 0d 80 bd 83 e9 9e 3d
       -0.0346142 0.028472217 -0.06252543 0.077593826
000260 8f 3d d5 bc 1d a7 29 3d 79 51 f2 bd c1 67 ce bd
       -0.02603033 0.041419137 -0.11831946 -0.10078383
000270 bf 0a 5c bd b1 f2 c9 bd ab e1 18 3d 0a 94 c1 bc
       -0.053721186 -0.09860743 0.03732459 -0.02363016
000280 e4 02 ea 3d 99 7c a8 bd ca b4 15 bd b0 81 bd 3d
       0.114263326 -0.0822689 -0.036549367 0.092532516
000290 28 b3 c3 bd b4 d4 22 3d cf 08 19 3d c6 de af bc
       -0.09555656 0.03975363 0.037361916 -0.021468531
0002a0 0b 3e d9 3c 9d 0b 33 bb f4 57 d5 bc c5 51 ee 3d
       0.026518842 -0.0027320154 -0.026042916 0.1163669
0002b0 32 49 43 bd 0a 76 14 3d 04 2c 5b 3d ad 0a 55 bd
       -0.047677226 0.036245383 0.053508773 -0.052012134
0002c0 b7 10 a6 bd 1f 08 e7 bd 29 52 e9 3d f8 d4 27 bd
       -0.08108657 -0.11280846 0.11392624 -0.040974587
0002d0 61 e2 e2 bc 64 68 4c 3d 95 93 db bd dc 81 e1 bd
       -0.027695836 0.049904242 -0.107215084 -0.11011097
0002e0 e4 ae dc 3d b2 77 8c bb 03 3d 28 bd f4 53 f1 3d
       0.10775545 -0.0042867297 -0.04107381 0.11783591
0002f0 9a 63 64 3d 7e 34 9a bb 4b af b8 3d a4 e8 01 3e
       0.05575905 -0.0047059646 0.090178095 0.12686402

gru.bias_hh_l0 f4 [192]
000000 c8 98 6f bd 7a 47 bf 3d d3 3b 1b bd b4 60 e8 3d
       -0.058495313 0.09339805 -0.03789885 0.1134657
000010 c9 52 b9 3b 1f fb ca 3c 39 df cc 3d 8e 8d 8d bd
       0.0056556207 0.024777947 0.10003514 -0.06911765
000020 8c f4 03 3e 3d 2a 5c 3b fe 06 57 bc c0 29 56 bd
       0.12886256 0.0033594512 -0.013124226 -0.05228591
000030 5a 3c 8a 3d c7 88 fd 3c a6 86 11 bd da 87 9a bb
       0.067497924 0.03094901 -0.0355288 -0.004715902
000040 de 4d 87 bd 4a e1 f7 3d ee b4 1e 3e fd 3f 75 bd
       -0.06606649 0.12103517 0.15498707 -0.059875477
000050 c0 f9 9e 3d 9b bf 23 bc b9 e9 99 3d 82 6c 66 bb
       0.0776248 -0.009994413 0.07515282 -0.003515989
000060 d6 e2 97 bd 70 59 b1 3d d0 d4 fb 3d 41 64 62 bd
       -0.074163124 0.08659637 0.1229645 -0.05527139
000070 a3 c6 04 3e 9f 2b 1e 3c 5b 7e a4 3d 51 cb 38 bd
       0.12966399 0.009653955 0.08031913 -0.045115773
000080 1e 71 ad 3c 6b 72 c8 bd 89 a6 e3 3d 01 e4 2d 3d
       0.021172103 -0.097874485 0.111157484 0.04245377
000090 8f 2c 08 3e 1f f0 c6 3c b0 15 83 3c 3a a5 eb 3b
       0.13298248 0.02428442 0.016001552 0.0071913274
0000a0 40 88 a5 bd a1 33 96 3d dd 88 1e 3d f6 47 74 3d
       -0.08082628 0.07334066 0.03870474 0.05963894
0000b0 f4 49 26 bc 34 32 c4 3d bc f0 16 bd 5b eb b9 3d
       -0.010149468 0.09579888 -0.036850676 0.090780936
0000c0 63 75 ea 3d 56 88 a2 3d 71 92 ba 3c d7 df dc 3c
       0.11448171 0.0793616 0.022774907 0.026962204
0000d0 51 6f e5 3d fc 6c 65 bd 3a b5 83 3d 27 33 fd bd
       0.112028725 -0.05601214 0.064310506 -0.12363272
0000e0 c5 c1 b9 bd 46 e7 cf bd e5 7b 5c bd 23 3e db 3d
       -0.09070162 -0.10151534 -0.053829093 0.10705211
0000f0 4c be 2b 3d 69 b5 25 bd 48 42 34 bd 8a 65 9d 3d
       0.041929528 -0.04045621 -0.044008523 0.07685383
000100 3e 0a 6a 3c 18 0d 11 3e 33 1a 0b 3d 52 af 4a bd
       0.0142846685 0.14165151 0.033960532 -0.049483605
000110 5f 45 79 bc 87 eb 3b bd f3 2d ad 3c 7b 93 0a 3d
       -0.015214293 -0.045878913 0.021140074 0.033832055
000120 03 69 f3 bc 34 4b 44 3d 3c 17 38 3c 93 be 11 3e
       -0.02971316 0.04792328 0.011236008 0.14232855
000130 f1 4d 93 bc e3 e7 7f bd 7d db b6 3c c8 ff 9e 3c
       -0.017981501 -0.062477004 0.022321457 0.019409075
000140 8c 4b 95 3d ba 2d e8 bc 8a fa 2a ba 57 27 a0 bc
       0.072898 -0.028342117 -0.00065223186 -0.019550009
000150 91 79 06 3e d8 13 4a 3d 30 ab 53 3e f7 56 36 3e
       0.13132311 0.04933533 0.20670772 0.17806612
000160 a8 ea b5 3d 1a c6 1d 3e 35 ed ab 3d 79 75 92 3d
       0.08882648 0.15407601 0.08394853 0.071513124
000170 0e 53 2d 3e 87 41 d4 3d 1d 7e 01 3e 3b f5 2a 3e
       0.16926214 0.10364061 0.12645765 0.1669511
000180 f4 92 90 bd 62 1e 32 3e 3c 61 eb 3d e0 86 66 bd
       -0.07059279 0.17394403 0.11493155 -0.05628097
000190 30 3b f3 bc 16 d4 8a 3d a1 8a a6 bd 73 87 04 3d
       -0.029691309 0.067787334 -0.0813191 0.032355737
0001a0 18 84 a6 bc f7 80 30 3e 6c 67 b2 3d a0 f6 0d b9
       -0.02032666 0.17236696 0.087111324 -0.00013538683
0001b0 57 31 cd 3b c5 2b aa 3d d1 e8 30 3d bd ad 64 3c
       0.0062619853 0.083091296 0.04319078 0.013957438
0001c0 78 ca 27 3e 27 24 15 3e 0d 1a 6e 3e 58 d4 2d 3e
       0.1638583 0.14564572 0.23252125 0.16975534
0001d0 ae e1 77 3d a4 af f7 3d eb ff d2 3d fd ad 40 bc
       0.06051796 0.12094048 0.10302719 -0.011760232
0001e0 06 d8 d4 3d a1 8e 5e 3d 78 a7 7c 3d d6 48 81 bc
       0.10392766 0.05433524 0.06168315 -0.015781801
0001f0 da c7 3f 3e 3c fc 9b bc e2 f9 c6 3d 6d 9b 0d 3e
       0.18728581 -0.019041173 0.0971563 0.13828821
000200 59 d2 84 3c b6 ec 88 3c 4d 62 02 3d 91 a3 db bd
       0.016213583 0.016714435 0.03183203 -0.10724557
000210 6e 48 9d bd 19 28 bc bd 8e 6c cf bd 65 d1 90 bb
       -0.076798305 -0.091873355 -0.10128127 -0.004419493
000220 9e 3a e5 3c 48 37 8c bc d2 ab de bc 9b da a0 3d
       0.027982052 -0.017116204 -0.02718154 0.07854196
000230 90 a1 f9 3d fd 19 ec bc ff df d0 3b 05 7f 89 bd
       0.12189019 -0.028820986 0.0063743587 -0.0671368
000240 26 63 0b 3d db 43 8e bd fd b9 d9 3c 1e ee 5e bd
       0.034030102 -0.06946536 0.026577944 -0.054426305
000250 2e 54 3a 3d 54 2c 88 bd 16 26 bf bd 07 89 8c 3c
       0.045490436 -0.0664908 -0.09333436 0.017155183
000260 c0 ca ee 3d 4c 4b 33 bd bd b4 9d bd d0 e1 d8 3d
       0.11659765 -0.04377298 -0.07700489 0.10589945
000270 43 f8 04 3c 39 1c 60 3d 2b 8d ad 3d 01 c5 8b bd
       0.008115831 0.054714415 0.08474191 -0.06824685
000280 cc ee 75 3d d3 fb ac bd c3 3c f7 bd 1c 51 fc bd
       0.060042188 -0.08446469 -0.12072136 -0.12320158
000290 a8 6c 64 bd 26 24 7b bc a6 b1 ac bc bd 74 99 bd
       -0.055767685 -0.015328443 -0.021080803 -0.07492969
0002a0 5c 3e da 3d 6f 51 b4 3d 81 c1 cb 3d cc 18 09 be
       0.10656425 0.08804595 0.09949017 -0.13388366
0002b0 51 bf b1 bd bd 53 ea bd b2 a0 bb 3d 86 d2 83 bd
       -0.08679069 -0.11441753 0.091615096 -0.064366385
0002c0 33 be e2 bd c6 7a 38 bd c6 9b e2 bb cc ab 21 3b
       -0.11071434 -0.04503896 -0.0069155423 0.002466905
0002d0 3e 58 81 bd 12 7e 83 3c 73 c9 c4 bd ba d9 c5 3c
       -0.06315659 0.016051326 -0.09608736 0.024151672
0002e0 ce 9b 8b bb 23 80 77 3c b3 fa 96 bd 1c 9b 3b bc
       -0.0042605167 0.015106234 -0.07372036 -0.011450555
0002f0 15 77 f0 3d 2e 69 fb 3b b7 cf f2 3d 5b ef b8 3d
       0.11741463 0.0076724505 0.11856025 0.090300284

gru.weight_ih_l0_reverse f4 [192, 6]
000000 20 9a 1e 3e df 3e 07 3e 03 ed d4 3d 8a b1 bb 3a
       0.15488482 0.13207577 0.10396769 0.0014319879
000010 a0 04 4f 3c a3 6e f3 3d b9 81 a4 3d 67 30 e2 3a
       0.01263538 0.11886337 0.08032555 0.0017256857
000020 54 c7 0d be 90 9e fa 3d 95 6e a6 3d 21 e5 e9 bd
       -0.13845569 0.12237275 0.081265606 -0.11420656
000030 b1 d1 d8 bc ad 1b 0b bd 4a df 1d bd 8e be bb 3d
       -0.026467176 -0.03396194 -0.038543023 0.09167205
000040 fa b9 bc 3d 34 c6 d4 bd 3b f9 8f bd 31 77 18 3e
       0.0921516 -0.10389367 -0.07029959 0.14889218
000050 d1 67 82 bd a4 1d 86 3d 04 9d ed 3d 03 bb c4 3d
       -0.06367458 0.06548622 0.11602214 0.09605982
000060 7e b5 b1 3c 75 5a 3f bd 23 89 26 bd 94 49 6c bd
       0.021692988 -0.046717126 -0.040658128 -0.057687357
000070 13 92 a7 3d 37 5f b1 3d 62 75 6e bc e6 1b 8d bd
       0.08182158 0.08660739 -0.014554353 -0.06890087
000080 f8 0a 20 be d4 0b bf bc fd be 00 be cd 8b de 3c
       -0.15629184 -0.02332107 -0.12572856 0.027166272
000090 9e 26 44 3d e4 18 31 bb 73 9d 43 bd 08 6e 23 bd
       0.04788839 -0.0027022893 -0.047757577 -0.039899856
0000a0 48 8e 7c bd 97 ef 77 3d 62 0e 52 3d db ba 15 3e
       -0.061659127 0.060531225 0.051283248 0.14622061
0000b0 d9 25 27 3e 84 a7 cf 3d 79 8e 29 bd c2 01 d7 bd
       0.16323031 0.10139373 -0.04139564 -0.10498382
0000c0 ec 0d 1d bd 3c dd 1d bc 2a 61 9d 3d 02 64 6c bd
       -0.038343355 -0.009635266 0.07684548 -0.057712562
0000d0 ee 25 02 bd 2c a4 3c bd b8 53 ed 3d 84 30 14 bc
       -0.031774454 -0.046055004 0.11588234 -0.00904477
0000e0 cd b1 e3 bc bf bf b4 bd ec 57 13 3d 05 bf ab 3c
       -0.027794743 -0.08825635 0.03597252 0.020965109
0000f0 21 60 3a 3e 4e ce ec 3c 36 74 5f 3d f6 5d 79 3d
       0.18200733 0.028906967 0.054554187 0.060880624
000100 5d bc 50 bd 78 93 fa bd ab fd c3 3d 74 f1 5c bd
       -0.050960887 -0.12235159 0.09569868 -0.053941205
000110 49 44 43 bd 28 a6 f2 3d 26 d5 b6 3d 95 ac 28 3d
       -0.047672544 0.11848098 0.089273736 0.041180212
000120 6a 4e e7 bc 59 62 cb 3d 6f be 58 3d 08 44 b1 3d
       -0.028235633 0.09930868 0.052915987 0.08655554
000130 1d 56 e4 3c 44 31 2a 3d 57 87 fd 3d 6d 2a 16 3e
       0.027873093 0.04155089 0.1237933 0.14664622
000140 83 4a 97 bc a3 56 2a 3e 64 68 0e 3e b8 73 03 3d
       -0.018468147 0.16634612 0.1390701 0.03209278
000150 b1 f3 c4 3b 22 60 a2 bd cb 15 a1 3c 37 4c 19 3e
       0.0060104956 -0.07928492 0.019663712 0.1497048
000160 e5 1f 57 bd 9a 32 b1 bd 5b be 05 be 7c 66 af 3d
       -0.05252065 -0.086522296 -0.13060896 0.08564469
000170 55 e5 4e bd 9a b4 43 bc 64 48 44 ba 82 bb ac bd
       -0.050511677 -0.011944914 -0.00074875937 -0.08434202
000180 3e d1 99 bd 21 83 93 bd a3 23 c2 3c dc 79 35 3c
       -0.07510613 -0.07202745 0.023698634 0.011076417
000190 67 50 12 3e 3c 85 be bd 6c bf bf bb c8 14 ef 3d
       0.14288484 -0.09302756 -0.0058516767 0.116738856
0001a0 d5 51 64 bc 02 35 81 bd cc 47 ce 3c b8 bd 9e bd
       -0.013935526 -0.063089386 0.02518072 -0.0775103
0001b0 96 29 8d 3d 81 68 dc 3c 8e da 36 be 2e 9e ef 3b
       0.068926975 0.0269053 -0.1785681 0.0073125577
0001c0 e0 4b 81 3d 95 51 0f bb 06 46 77 bd 78 a2 16 3c
       0.063133 -0.0021868695 -0.060369514 0.009194009
0001d0 2a 32 26 3d 7f 39 b3 3c 23 65 d1 3d a3 23 2c 3d
       0.040575184 0.021878002 0.102243684 0.042026173
0001e0 dc f9 0b bd 95 ff 6c bd 30 e6 20 be 46 51 a9 bc
       -0.03417383 -0.05786093 -0.1571281 -0.020668637
0001f0 5c 7f 6a 3d ce cc 91 3b 16 b1 51 be 34 d2 b9 3c
       0.057250366 0.0044494634 -0.20477709 0.02268324
000200 d9 9d 24 be 58 31 ad bc bb 39 0d bd f8 a9 e6 3d
       -0.16075839 -0.021141693 -0.034478884 0.11262888
000210 46 a1 1d bd 55 a6 5c 3d f2 33 5b 3d 10 4c 64 bd
       -0.03848388 0.053869564 0.053516336 -0.0557366
000220 ae b3 e5 bc 18 f9 87 3d 8d f2 94 3d 41 87 94 3d
       -0.02803978 0.06639308 0.072728254 0.0725236
000230 b7 66 ac 3d 1e 44 5e 3d 2f df 5d 3d 0e da d6 3d
       0.08418029 0.05426418 0.054167923 0.104908094
000240 8e 34 f0 bd 24 90 5c bd a1 69 41 b9 39 ae cd 3d
       -0.11728774 -0.0538484 -0.00018445264 0.10042996
000250 ff b2 18 3d 05 b1 5d bd 50 63 c7 bd 00 86 60 3d
       0.03728008 -0.054123897 -0.09735739 0.054815292
000260 96 7d ed bd b7 5e 33 bd 67 40 84 bd 61 ea f3 3c
       -0.11596219 -0.0437915 -0.06457596 0.029774847
000270 37 04 03 3e fc 8a 44 3d 3b cf d0 3c 20 70 63 3c
       0.12794577 0.04798411 0.02548944 0.013881713
000280 70 c0 96 3d fc cf 7e bd eb 10 2e 3e be 8f a8 3d
       0.07360923 -0.062210068 0.16998641 0.08230542
000290 65 30 87 3a 74 8f 72 3d 5f b5 95 3d a4 dd 94 bd
       0.0010314105 0.05921884 0.073099844 -0.07268837
0002a0 60 6b 92 bd bc 79 b2 3c ec ca ee 3d 87 40 4a 3d
       -0.071493864 0.021786563 0.11659798 0.049377944
0002b0 fa d4 20 3d 35 52 9f bd 00 d4 e6 bd 53 de c2 3c
       0.03926561 -0.077793516 -0.112709045 0.023787653
0002c0 cf 7b 20 bd e4 59 cc bc b2 7e 25 3d 39 13 0b 3c
       -0.039180573 -0.024945207 0.04040403 0.00848847
0002d0 4d 10 6e 3d c0 bc e7 3d 4c d3 5f bd 2f fe 01 3d
       0.058121014 0.11315298 -0.054644868 0.03173655
0002e0 5e 61 b1 3d 40 ab cb 3d 27 08 50 bd a0 d6 f2 3d
       0.086611494 0.09944773 -0.050789025 0.11857343
0002f0 ff d7 15 bd fc dd b8 3c 21 15 82 3c cc bb a7 39
       -0.036582943 0.022566788 0.015879216 0.00031992642
000300 92 fa 2f bc ab 34 ce bd c5 be 1e be 10 68 3c 3e
       -0.010740893 -0.10068639 -0.1550246 0.18399072
000310 5d fb 03 bb 21 04 7b bd 2a fa 38 bc 83 43 e5 bd
       -0.0020138838 -0.061283235 -0.0112901125 -0.111945175
000320 44 ed b0 bd ba 37 4b 3d d7 d1 f6 3d 46 00 aa 3d
       -0.08639005 0.049613692 0.120517425 0.083008334
000330 67 98 ef bd c5 c1 dc bd a2 8f 44 be 3b f8 34 3d
       -0.1169899 -0.10779146 -0.19195417 0.044182044
000340 36 35 a5 3d 68 29 81 bd 3c b1 4b bb 59 5d 71 bd
       0.0806679 -0.06306726 -0.0031080982 -0.058926914
000350 9c ab 93 bd 0e 23 9a 38 51 0c c8 3d 80 06 b6 bc
       -0.07210466 7.349822e-05 0.09767974 -0.022219896
000360 42 63 0a bd 5e 78 d5 3c b0 40 df 3c a2 ca 80 bd
       -0.033786066 0.026058372 0.027252525 -0.06288649
000370 1a ba 0e 3d 28 23 45 3d 12 eb f1 3d 2d 58 3d 3e
       0.03484545 0.04812923 0.11812414 0.18490668
000380 c6 b3 ba bd d3 28 90 3c 0d bb 2b 3e e8 e1 03 3d
       -0.0911632 0.017597592 0.16770573 0.032197863
000390 ce 94 e5 3d ba 8f b3 bc 7b 89 87 3d fd f9 04 3e
       0.11210023 -0.02191912 0.06618019 0.12985988
0003a0 0f 80 c2 3d 1e 33 04 bd 62 b7 d3 bd e4 7b db 3d
       0.094970815 -0.03227531 -0.10337712 0.1071699
0003b0 db 5a bf bd b3 23 01 3e 1c d7 4d 3d b9 b4 2b 3d
       -0.09343501 0.12611274 0.050253972 0.041920397
0003c0 35 1d b2 bd f1 60 bc bd cc 16 d9 3c 04 85 06 3e
       -0.08696977 -0.091981776 0.026500128 0.13136679
0003d0 0d 71 21 be 66 ca a2 bd ca b3 c6 3c 7b cf 94 3d
       -0.15765782 -0.07948761 0.024255652 0.07266136
0003e0 c8 f8 d0 3c 95 59 43 3e f6 cc 1f 3e 95 dd f9 3d
       0.025509253 0.19077142 0.1560553 0.122004665
0003f0 a6 53 53 3d eb b3 0b bd 5c 4a b5 3d 84 f5 36 3e
       0.051593445 -0.03410713 0.088520736 0.17867094

gru.weight_hh_l0_reverse f4 [192, 64]
000000 22 7e 43 3d 32 8b 7f bc 97 da b3 bd 4e e9 26 3d
       0.04772771 -0.015597152 -0.08781927 0.04074984
000010 52 8b 3c bc 7d 19 3c 3d 0b 37 91 bc 8a 00 1d 3d
       -0.011507826 0.045922745 -0.017726442 0.038330592
000020 47 50 8a 3d ff 19 29 3d 06 cc 52 bd 3b f1 bc bd
       0.06753593 0.041284557 -0.051464103 -0.092256986
000030 a8 34 e6 bd 19 4c 80 bd 04 cf 1b 3e e8 63 3a bd
       -0.11240512 -0.062645145 0.15215689 -0.045505434
000040 ec fd 81 bd f2 cb ae 3d 00 6e c8 3d 99 d5 a6 bd
       -0.0634726 0.08534993 0.09786606 -0.08146209
000050 e4 32 d4 bd 6f cd 5f bd 04 67 2d 3e 18 ea 28 bc
       -0.10361269 -0.054639276 0.16933829 -0.010309719
000060 98 7b 92 3d c4 a9 de 3d f8 b8 7f 3d 7a 38 f9 bc
       0.0715248 0.10872224 0.06243226 -0.030422438
000070 a0 68 39 3e 7e 0c 28 be ad 67 eb bc c7 18 d4 3d
       0.18106318 -0.16411015 -0.02873596 0.103562884
000080 fc ee c7 bc f5 58 3a 3d 4d ae db 3c 88 35 0e bb
       -0.024405949 0.045494992 0.026816512 -0.0021699388
000090 56 c1 79 bd 1f 26 e6 bd d1 9e 85 bd 49 70 99 bd
       -0.060975395 -0.1123774 -0.065244325 -0.0749212
0000a0 27 b4 90 3d 95 df 6f bd 8b 7b 1d 3e 05 c2 2a 3d
       0.07065611 -0.058562834 0.15379159 0.041688938
0000b0 69 21 1f 3e f4 9e d0 3d 70 94 fc 3d c4 a3 21 3e
       0.15540089 0.10186568 0.12333 0.15785128
0000c0 eb 10 9e bc 0f ac 22 bd 35 56 68 bd f8 ec 60 bd
       -0.019295176 -0.03971487 -0.05672284 -0.05491349
0000d0 52 8e df 3c c7 d9 49 bd e4 81 16 3d a2 61 da bb
       0.027289543 -0.049279954 0.036744967 -0.006664471
0000e0 83 49 57 3d de f9 ff bc 4f b6 41 3d 7f 87 68 3d
       0.05256034 -0.031247076 0.047293004 0.056769844
0000f0 fb e4 22 3e 77 99 a2 3d c1 89 e5 bb 19 d1 f3 3d
       0.15907662 0.07939427 -0.007004947 0.119051166
000100 51 61 40 3d 5e bf 8f bd c2 80 c6 bd bd cd da bd
       0.04696781 -0.07018922 -0.09692527 -0.10683773
000110 54 81 9b 3d a9 0c bc bd 85 9d 27 bd 14 9f cd bd
       0.07593027 -0.09182102 -0.040921707 -0.10040107
000120 c9 5c 17 3e 23 37 b1 bc 35 7c 06 3e 0d c1 8c 3d
       0.14781488 -0.021632737 0.13133319 0.06872759
000130 bd bf 10 3d 9b 61 09 be f9 77 9d 3d 07 07 b3 bd
       0.035339106 -0.1341614 0.076888986 -0.08741575
000140 cb 44 0f bd 9c f5 2b bd 7b d5 93 bd 11 f0 51 3c
       -0.034977715 -0.04198228 -0.072184525 0.012813584
000150 22 10 24 3d 12 0f 97 bd 38 1d 79 bd 13 88 9d 3d
       0.040054448 -0.07375921 -0.06081888 0.0769197
000160 e1 85 ac bc ef 36 99 bc 2d 32 97 3d 0a 72 21 bd
       -0.021059932 -0.018702952 0.07382617 -0.039415397
000170 df 2f 10 3d 32 15 b5 3d ba 54 8e 3d 35 9e e6 bd
       0.035201903 0.08841933 0.06949754 -0.11260644
000180 6f c3 cc bd da cd 6e bc 79 09 6b bc 88 9d 50 bd
       -0.099982135 -0.014575446 -0.01434552 -0.050931484
000190 df b6 6b 3d a2 ba 93 bd dd df 8e 3d 9a ca 8c 3c
       0.057547446 -0.07213332 0.06976292 0.017186452
0001a0 ee 1f 06 3e cd 42 8b bc 13 45 a8 3d 6b 23 0d be
       0.13098118 -0.016999627 0.082163 -0.13783042
0001b0 36 aa b3 3d c5 d8 a2 bc 3c a2 10 bd 64 26 45 bb
       0.087726995 -0.019878754 -0.03531097 -0.0030082697
0001c0 87 3a 82 bd 46 08 50 bc a9 92 cf bd ea 91 c7 3d
       -0.063588195 -0.012697285 -0.10135395 0.09744628
0001d0 b0 e2 e1 3d a3 f2 5e bd 37 c3 be 3d b3 50 00 be
       0.11029565 -0.054430615 0.09314578 -0.12530784
0001e0 f6 38 c2 3d 21 bd e3 3d 71 78 8d 3d 89 3c a1 3d
       0.09483521 0.11120058 0.06907738 0.07872874
0001f0 fe de d5 3d a5 b4 86 bd 72 05 68 bd 5c 59 8d bd
       0.10442923 -0.06577424 -0.056645818 -0.069018096
000200 5e f9 a0 bd e8 ca 37 3d 23 d4 92 bd d2 68 a2 3d
       -0.07860063 0.04487124 -0.07169368 0.07930149
000210 23 a0 8e 3d 33 0e cb bd 58 22 d9 bd 5e c0 17 3e
       0.069641374 -0.09914818 -0.10602254 0.14819476
000220 d5 ee ec 3d ec 40 8e bc ff bf f8 3d 2e 63 77 bd
       0.11568991 -0.017364942 0.12145995 -0.06039732
000230 a7 f3 0e bd 62 03 d8 bd 74 bc 20 bd 62 c2 e1 3d
       -0.034900334 -0.1054752 -0.039242223 0.11023404
000240 df 39 89 bd c5 a3 22 be 6f 50 ec 3c 23 18 b8 bd
       -0.06700491 -0.15882786 0.028846947 -0.08988979
000250 bb 33 4f bd 97 1e 69 bd 3e 7b 18 be 7f ba 0c be
       -0.050586443 -0.05691394 -0.14890763 -0.13743018
000260 d7 34 0d 3e 5d 61 b3 3d 29 4e 0c 3e e7 22 40 3c
       0.13789688 0.08758805 0.1370169 0.011727071
000270 ee 92 a7 bd 6e 77 1e 3e f2 1d 97 bc 2b 87 f7 bb
       -0.081823215 0.15475246 -0.018446896 -0.007553955
000280 ee 07 a9 bd 6e 55 bc 3c a8 df 9c bd d0 2a f5 bb
       -0.082534656 0.022989955 -0.076598465 -0.0074819103
000290 1a ad 74 3d be 94 89 3d 79 49 8d bd 16 b3 88 bd
       0.059735395 0.067178234 -0.068987794 -0.06674783
0002a0 e1 5d cd 3d 90 dc 90 3d 91 ce e1 bd 92 fb 3d 3d
       0.100276716 0.07073319 -0.110257275 0.046382494
0002b0 bc b6 bf 3d d1 2b da 3d 03 0d b3 bd 33 7d a8 bd
       0.09361026 0.106528886 -0.08742716 -0.08227005
0002c0 13 2e f8 3d e4 2c b6 bc 3a 4e be 3d 9c 38 2a 3e
       0.12118163 -0.022238202 0.09292264 0.16623157
0002d0 83 e2 0c be 6f 02 cf bd cc b8 17 bd ef 4e 9b 3c
       -0.13758282 -0.10107886 -0.03704147 0.018958537
0002e0 f4 d3 b0 3c b8 d0 19 3d 8a 55 9d bd 09 b9 c0 3d
       0.021585442 0.037552565 -0.07682331 0.09410293
0002f0 e5 be 1e 3d 17 27 09 3b 9c b7 f6 3d e2 45 05 be
       0.03875627 0.002092784 0.120467395 -0.1301494
000300 db 98 93 bd 39 e4 c9 ba d2 25 cb bd a8 d9 f1 bc
       -0.07206889 -0.0015403099 -0.09919323 -0.029522732
000310 f9 38 80 3c b2 7e 03 be 09 07 f2 3c a2 d5 50 bd
       0.015652167 -0.12841299 0.02954437 -0.050984986
000320 30 70 4e 3d 81 88 54 3d 9e e7 7b bb 7b 61 b9 bd
       0.05039996 0.051887993 -0.0038437615 -0.09051796
000330 e0 23 3e bd 39 bf c8 3c 56 7e ec bc 82 e1 4c bd
       -0.04642093 0.024505245 -0.028868835 -0.05001975
000340 a3 63 c5 bd e8 bd e8 bd 17 47 40 3c 17 01 14 be
       -0.09638145 -0.11364347 0.011735699 -0.1445354
000350 9c b7 b2 bd 22 40 1f 3d 32 2c 86 bd cd a7 99 3d
       -0.08726427 0.03887952 -0.06551398 0.075027086
000360 94 cc c6 bd 80 d1 db 3d c7 b1 de bd 86 89 10 3d
       -0.09706989 0.10733318 -0.10873752 0.035287403
000370 b8 a0 f1 3d 9f 83 db bc c1 37 dd bc 59 72 ab 3c
       0.11798233 -0.02679616 -0.027004125 0.020928549
000380 9c b3 1a 3d 95 c2 29 be 1c 10 b3 3d 30 f4 d0 3d
       0.037768945 -0.16578133 0.08743307 0.10202825
000390 f5 d8 b2 bd 5a 86 e7 3d 0b d7 00 bd 4e 43 94 3a
       -0.087327875 0.113049224 -0.03145508 0.0011311562
0003a0 b1 6a c1 3c 5d 0c ee bd 80 04 e4 3c fa ab d5 3c
       0.023610445 -0.11623452 0.027834177 0.026082981
0003b0 04 1d 6e bb 37 a0 9e bc 0e e0 b5 bb 8b 0e 2a bd
       -0.0036333213 -0.019363506 -0.005550391 -0.041517776
0003c0 fb b3 4e bd a9 de eb bd 56 35 17 bc 73 49 7d bd
       -0.05046461 -0.115170784 -0.009229025 -0.061837625
0003d0 d9 e4 0a be 0b 3f f7 bd db d2 c8 3d a6 cc 0a 3e
       -0.13563861 -0.12072571 0.098058425 0.1355463
0003e0 76 8f 2a 3c 3f bf 28 3d ff b8 c5 bd fd 8d f1 3a
       0.01041018 0.04119801 -0.09654426 0.0018429157
0003f0 92 da 46 3d 89 85 ad bd 59 53 9c bd 26 f5 b5 bd
       0.04854829 -0.084727354 -0.07633085 -0.08884649

gru.bias_ih_l0_reverse f4 [192]
000000 f0 b7 4c bd 5a 7b b8 3d 87 44 9b bd 09 82 e2 3c
       -0.049980104 0.090079024 -0.0758143 0.027649896
000010 aa 8b d4 3d 5c 58 e5 3c a1 8a c6 bd 47 51 fb 3d
       0.10378201 0.027996235 -0.0969441 0.12271362
000020 f4 c4 db 3d ee b0 04 3e 6a 84 da bd 9c 9e 0a 3d
       0.10730925 0.12958118 -0.10669787 0.033842668
000030 52 8a 16 bd c2 e7 d2 bd ac fa 00 3e 1b d7 1b 3e
       -0.036753006 -0.102981105 0.12595624 0.15218775
000040 ba 1c 1e 3c 51 18 19 3e e4 a6 41 bd 18 3d d7 3d
       0.009650404 0.14950682 -0.0472783 0.105096996
000050 31 6d 8b 3d 05 9b 66 bd c9 92 0c bd 44 87 ff bc
       0.06807936 -0.056300182 -0.034319673 -0.03119243
000060 2d 9e a8 bc 2a 89 26 3d 65 4a 96 3d 6a fa 91 3d
       -0.020583237 0.040658154 0.073384084 0.07127841
000070 02 69 72 bd 32 96 8a 3d de 0d 56 bb b1 67 8f 3d
       -0.059182175 0.06766929 -0.0032662074 0.070021994
000080 76 07 a2 3d f1 a3 1a bd 5b 38 38 3d 45 b7 42 3e
       0.07911579 -0.037754003 0.04497562 0.19015224
000090 ab 94 b1 3c 95 61 21 bd cc 61 89 bc 9a 47 9b bd
       0.021677336 -0.039399702 -0.016770266 -0.07582016
0000a0 7d 73 93 bc a1 79 77 bd 16 d2 0c 3c 25 fa 14 3d
       -0.017999405 -0.06041873 0.00859501 0.03637137
0000b0 66 d2 2a 3d 90 3a 2a 3e c3 2e af bd 2e b1 c5 3d
       0.041704558 0.16623902 -0.08553841 0.09652935
0000c0 7d 60 d9 3d 99 1e 67 3d 19 88 28 bd 90 74 d6 3d
       0.10614107 0.056425665 -0.041145418 0.10471451
0000d0 f3 64 19 3e 93 32 88 bd a5 71 cc b9 26 b1 ea bc
       0.14979915 -0.06650271 -0.00038994584 -0.028648924
0000e0 f9 c9 80 3c c5 f6 48 bd 44 7a bd bc a1 63 64 3d
       0.015721308 -0.049063463 -0.02312959 0.055759076
0000f0 cf 55 97 3d 17 b8 02 3e a5 33 be 3b a0 9b 4e 3d
       0.073894136 0.12765537 0.0058044964 0.050441384
000100 d2 1e a5 3d a7 91 4e 3d ac b6 1a 3e 22 36 a0 3d
       0.08062519 0.050431874 0.15108746 0.07822825
000110 1f 20 30 3e f7 0e bc 3d 4f 7f d2 bb 64 dd fe 3d
       0.17199753 0.09182542 -0.006423868 0.12444571
000120 1d 04 4a bc 59 9a e3 3d 46 c1 47 bd d1 d0 23 3e
       -0.012330082 0.11113424 -0.048768304 0.15997626
000130 d2 6b 2e bc f8 14 6d 3e 03 46 3c 3e d6 5e 9e 3d
       -0.010645824 0.2315253 0.18386082 0.07732932
000140 a3 6d e8 3d 65 a7 4e 3e 7b 62 15 3d 2d 84 54 3e
       0.113490365 0.20181043 0.03647087 0.20753546
000150 40 31 9a bd 03 d7 a0 3c 04 de fe bb 9b a2 0c 3d
       -0.07528925 0.019633776 -0.007777931 0.03433476
000160 0a 28 f7 3d 98 5d 60 3d ea 42 fa 3d a7 a8 9a 3d
       0.12068184 0.054776758 0.12219794 0.07551699
000170 4a 08 c9 3c 78 7c 98 3d 6a a2 74 3d a7 c0 89 3d
       0.024540085 0.074456155 0.059725203 0.06726199
000180 0d 7a 0b be 76 63 f3 3d ba c0 d9 3d 7a fc 95 3e
       -0.13620777 0.11884205 0.10632463 0.29294187
000190 18 b9 06 3e 37 7d 8c ba c5 23 b8 bc b7 16 ec 3d
       0.13156545 -0.0010718469 -0.022477994 0.1152777
0001a0 20 3e ea 3d 64 68 48 3e 2b 09 a8 3d 5e a6 80 3d
       0.11437631 0.19571072 0.08204874 0.06281732
0001b0 e7 8a 19 3e 8d 49 35 3e fc cf 83 bb 57 d2 cc 3d
       0.14994393 0.17703839 -0.0040225964 0.10001057
0001c0 0c 19 58 3d 11 6f 65 bb 45 1a 10 be dd f7 ee 3c
       0.05275826 -0.0035008828 -0.14072521 0.029170925
0001d0 9c 72 d3 3d 4f e0 53 3e b0 6b e0 3c 28 4c 2e 3e
       0.103245944 0.20691036 0.0273951 0.17021239
0001e0 e0 36 38 3e fc 94 09 3e 5e bb e0 3d 7d b4 0a 3e
       0.17989683 0.1343574 0.109732375 0.13545413
0001f0 a5 9c 01 3c 55 70 95 3d d8 86 fd 3c 3f 2a 69 3d
       0.007910882 0.07296816 0.030948088 0.056925055
000200 be 90 f4 3d 97 0f ac 3d ac 09 ec 3d ca 56 25 3d
       0.1194167 0.08401411 0.11525282 0.04036597
000210 a5 4b bb 3d b7 71 87 bd c9 bc d3 bd 1e f3 e7 3d
       0.091452874 -0.06613486 -0.10338742 0.11325668
000220 c9 d0 c0 3d 82 e9 2e 3d c7 82 11 3d d2 7c d9 3d
       0.094148226 0.04270316 0.03552511 0.10619511
000230 08 19 30 3d 10 e9 9d bd d4 93 81 bc 9f 8e 6c 3d
       0.04299262 -0.07710469 -0.01581756 0.0577532
000240 82 4d ce 3c 21 4f 7c bd 14 3c bd 3d 29 48 f0 3a
       0.025183443 -0.0615989 0.092399746 0.0018332052
000250 f7 21 85 bc 5c 31 6c 3d e1 86 27 bd bf e3 cf bd
       -0.016251547 0.05766426 -0.040900115 -0.10150861
000260 ab 60 95 3d b3 bd 4e bd 89 b9 eb 3d 68 73 59 bc
       0.072938286 -0.05047388 0.115099974 -0.013272144
000270 7e dc a4 3b 72 17 c1 3b 7e f5 94 3b 04 3a 0f be
       0.0050311675 0.0058926875 0.0045458665 -0.13986975
000280 84 6c f5 3d df 56 45 bc 2d dc 9b bc f3 ab ac 3d
       0.11983588 -0.012044637 -0.019025886 0.08431234
000290 a6 df 9e 3d 52 b3 ed 3d 81 da c0 3d 8e 7b df bd
       0.07757501 0.11606468 0.09416676 -0.10912238
0002a0 8d 25 31 3d 20 a8 e3 bc 38 04 f9 bd ea 67 c0 bd
       0.0432487 -0.02779013 -0.12159008 -0.0939482
0002b0 6c dd 37 bd 33 81 c2 3d bb d1 10 bd 05 87 e3 3c
       -0.0448889 0.09497299 -0.035356265 0.027774343
0002c0 00 85 78 bc 15 52 a6 3d 12 74 bf bb 83 df b4 3d
       -0.015168428 0.08121125 -0.005842694 0.08831694
0002d0 8a ee c1 3c 5b f1 2d bd b3 2e 17 3d 8c f1 66 3b
       0.023673315 -0.042466503 0.03690977 0.0035239188
0002e0 c7 11 79 3d c9 d8 a7 bd 77 ef e9 bd 97 b2 62 3d
       0.06080797 -0.08195645 -0.114226274 0.055346098
0002f0 10 1c 82 3d bf 0b 55 3d 51 46 b2 3d cf 88 d3 bd
       0.06353009 0.052013155 0.08704818 -0.103288285

gru.bias_hh_l0_reverse f4 [192]
000000 ec 79 bf bd 0d d6 b3 ba c7 42 df 3d 7c ee f3 3d
       -0.093494266 -0.0013720408 0.10901409 0.11910722
000010 48 d5 6c 3d fe e6 34 bd 93 e1 0b 3e 88 26 e5 3d
       0.05782059 -0.044165604 0.13660268 0.1118899
000020 77 37 3e bb 68 e4 e4 3d c7 45 4b 3d f0 6e 92 bd
       -0.002902476 0.111763775 0.04962709 -0.07150066
000030 f9 ae 0a 3e 0a ec 03 3e cf d7 18 3e ae 91 9b bd
       0.1354331 0.1288301 0.14926074 -0.075961456
000040 19 1b 77 bd df 21 06 bd cc 69 b8 bb 1f 5b cd 3d
       -0.060328577 -0.032747146 -0.0056278463 0.100271456
000050 69 8c 0e 3e bf be ed 3d 27 b5 b7 b9 28 06 98 3d
       0.1392075 0.116086476 -0.0003503945 0.07423049
000060 f4 1d 18 3e 5b ae 0e 3e 56 4c d0 3d 38 85 45 3d
       0.14855176 0.13933699 0.1017081 0.04822275
000070 32 90 8d 3d d5 9f a0 3d 25 6b e9 3d 9b 6b 88 bc
       0.06912269 0.078429855 0.11397389 -0.016652873
000080 ad 18 3a 3d f9 e2 ae 3d b3 97 ba 3a 9d 91 ff 3a
       0.04543369 0.08539385 0.0014235884 0.0019498352
000090 eb 2d ae 3d 10 a7 e9 3d 25 7d 09 bd a7 2d 84 bd
       0.08504852 0.11408818 -0.033566613 -0.0645402
0000a0 c7 7b 7f 3d b9 81 0b 3c 87 58 39 bd e5 c8 f9 3d
       0.062373903 0.008514815 -0.045250442 0.12196521
0000b0 5e 40 53 3c cc ee 3e 3e 49 bc 29 bc 69 79 e0 3d
       0.012893764 0.18645781 -0.010359832 0.10960657
0000c0 bd f5 e1 3d f2 de 9c bd 7c 33 9c bd ec 77 52 3d
       0.11033199 -0.07659711 -0.07627007 0.051383898
0000d0 69 1a 3e 3d a5 7d 0f bd c0 37 ae 3d 34 b3 05 3d
       0.046411905 -0.035031933 0.08506727 0.032641605
0000e0 94 a2 19 3d e0 c9 1a 3e d0 4c 87 3d 20 31 e7 3d
       0.037508562 0.15116072 0.06606448 0.11288667
0000f0 40 c0 16 3e 91 34 8f 3d ba bf 06 3e b4 58 47 bd
       0.14721775 0.06992448 0.13159075 -0.04866858
000100 2b f4 05 3e 46 2e 2b 3e ed 77 d0 3d 63 b7 42 3e
       0.13081424 0.1671687 0.10179124 0.19015269
000110 a2 f5 e6 3d e2 4f 25 3e 95 e5 9e 3c 56 0a 59 3e
       0.112773195 0.16143754 0.019396583 0.21195349
000120 dc 87 ba 3c b4 78 29 3e ec b0 24 3e 9d 7f 83 bc
       0.02276986 0.16549951 0.16083115 -0.016052062
000130 18 2a 21 3e 75 ec 2a 3e e8 b0 eb 3d 0c 3c 0a bd
       0.15738714 0.16691764 0.115083516 -0.03374867
000140 47 7f b9 3d f2 fe 76 3e c8 76 23 3e bf 47 03 3e
       0.09057479 0.24120691 0.1596328 0.12820338
000150 e6 f8 0b 3e fa 7b 56 bd 63 71 b3 3d 16 9c 5a 3d
       0.13669166 -0.052364327 0.08761861 0.05337151
000160 04 ac 0a 3c c0 ba 17 3e 04 c8 3f 3e ed 8d 18 3e
       0.008463863 0.14817333 0.18728644 0.1489789
000170 1b 24 f6 3d fc 18 49 3e bd ac 94 3d 68 07 89 3c
       0.12018605 0.19638437 0.0725951 0.016727164
000180 36 f8 a0 3b ce d8 54 3e fa 0a 60 3d 4b 30 ac 3d
       0.0049124015 0.2078583 0.054697968 0.08407649
000190 64 42 0c 3e 49 fb 1d 3e 66 35 81 bd 65 a9 fb 3b
       0.13697201 0.15427889 -0.06309013 0.0076801055
0001a0 28 f9 8f 3d 5d 27 99 3d f9 e4 07 3e 1f 62 93 3d
       0.07029945 0.07478211 0.1327094 0.071964495
0001b0 3a 89 47 3e 3e c8 97 3d c8 45 65 3e 25 1e 10 3e
       0.19485942 0.0741124 0.223899 0.14073999
0001c0 a5 ac 51 3e c9 cb e8 3d f3 b1 60 be 07 3f 5e 3e
       0.20476015 0.11366994 -0.21942882 0.2170373
0001d0 c1 6f 16 3e 94 13 db 3d 7b 16 d0 bd d5 fb 32 3e
       0.14691068 0.106970936 -0.10160538 0.17478879
0001e0 13 65 1f 3d f3 9d 80 bb b4 6b 82 bd 3a 1e 06 3e
       0.03891475 -0.003925079 -0.06368199 0.13097468
0001f0 dc c8 20 3e 88 84 01 3e 8c 43 66 3c a0 48 a1 3d
       0.15701622 0.12648213 0.01405419 0.0787518
000200 7f 49 00 3e ca b7 cb 3d 13 0a 18 3c 25 ff 08 be
       0.12528037 0.09947164 0.009279746 -0.1337858
000210 a8 c9 50 bd 83 10 ea 3c 67 d3 70 bd 05 0a 80 bd
       -0.050973564 0.028572327 -0.05879536 -0.06251911
000220 85 5e 93 3b b8 d6 15 3e af 03 8e 3d e0 c4 b1 bd
       0.0044973516 0.1463269 0.06934296 -0.08680129
000230 fe 21 e4 bb ad af cf 3d e6 e6 03 bd 45 cd 62 b9
       -0.00696206 0.10140929 -0.032202624 -0.00021629508
000240 4f ea 04 be de da 1a bb e6 6c ef 3d 6a 21 39 bd
       -0.12980007 -0.002362899 0.116906926 -0.04519788
000250 e4 e6 42 3d f0 e9 07 3e d9 1b f4 bd 77 f6 c0 bd
       0.047583476 0.13272834 -0.11919374 -0.094220094
000260 e3 30 13 3a 45 45 15 3d 9e db b2 bd df c1 48 bd
       0.00056148897 0.036443014 -0.08733295 -0.049013015
000270 17 34 c5 bd 1b 1b 36 3d a7 60 07 be eb 1d 8f bb
       -0.09629076 0.044459444 -0.13220464 -0.00436758
000280 fd 94 b9 bd 4b 27 e5 bd 24 d8 29 bd ea 9e 78 bd
       -0.090616204 -0.11189135 -0.041465893 -0.060698427
000290 9d 2d e1 bd 35 e9 f6 bd 36 87 8d bd 70 4d a1 bd
       -0.10995028 -0.120561995 -0.06910555 -0.07876098
0002a0 5a 35 13 bd 31 57 8a 3d f9 a6 a6 3d 3c e5 7d bd
       -0.035939552 0.06754912 0.08137316 -0.061986193
0002b0 0b ff 64 3d cd 95 5e bd c8 cd 04 bd 8a ee f3 bd
       0.05590729 -0.05434208 -0.03242281 -0.11910732
0002c0 dc 82 97 3b ee f5 f4 3d 70 9a cd 3d 0c 3b c2 3d
       0.004623754 0.1196097 0.10039222 0.094839185
0002d0 ad 75 ad bc d7 1b d2 bd 70 bc b0 bd ac 20 bb 3c
       -0.021174276 -0.10259216 -0.086296916 0.022842728
0002e0 41 33 b9 3d d1 8d a5 bd ad 31 d0 bd 27 5f 1e bd
       0.09042979 -0.0808369 -0.10165725 -0.038664963
0002f0 c6 a6 4b 3d 9f 60 9f bd 8b 34 8e 3d 0c 9c 50 bd
       0.049719594 -0.07782101 0.069436155 -0.050930068
