gru_classifier_weights/llama-3-70b_h100_tp8.pt (torch, 119509 bytes, 10 tensors)

gru.weight_ih_l0 f4 [192, 6]
-0.06896016 -0.04911386 -0.020708924 0.039891344 -0.05007317 0.010864311 -0.024033042 0.0054519703
-0.101793446 0.07530963 0.0090908855 -0.04495257 -0.018816616 -0.034640603 -0.012042997 0.12213142
-0.05456638 0.06153918 -0.16078965 -0.09173378 -0.16558734 -0.03224129 -0.14581431 -0.074158855
0.10335854 0.060289003 0.1509055 -0.12693942 0.046032134 -0.11546925 0.007890833 0.06103531
0.11492965 0.025339104 -0.11291794 -0.0071780286 -0.004051083 -0.1265949 -0.15454626 0.09054005
0.026972903 -0.13099419 0.032438047 -0.014149025 0.027055493 -0.12803745 -0.15595348 -0.025077457
-0.08429829 -0.14288543 0.12500541 -0.08337066 -0.12738104 -0.007107015 0.051921602 -0.08418992
0.02085477 0.05214208 0.021920327 0.11005752 -0.080129266 -0.0114967385 -0.07675175 0.042325485
-0.044169787 -0.019817455 -0.033500783 -0.035509888 -0.006468318 0.030225493 -0.13566455 0.039248962
-0.16108942 -0.06258164 -0.063672744 0.0912276 -0.13047372 -0.013185976 0.0070801857 -0.11378772
0.0067417976 0.06106984 -0.14236934 -0.008927928 -0.15767644 0.013020376 0.056132857 -0.027610349
0.063664414 -0.10047208 0.14873168 0.035836328 -0.002677677 0.118875064 0.039859924 0.008690475
0.027856696 -0.12398824 0.052209087 -0.00027319876 0.022293812 -0.0022432345 0.1271786 -0.07396174
0.00988978 -0.10947451 0.07350655 0.042253643 0.024249673 -0.0014856758 0.15715854 0.05915608
0.1866714 -0.0066967723 0.11321918 -0.10538402 0.01485498 0.12707599 -0.03743121 0.12830743
-0.1253599 -0.067973875 0.04494996 0.076945685 -0.004323026 0.000588695 -0.03981509 -0.10649798
-0.13038883 -0.044649594 -0.023344032 0.16932943 -0.15084152 -0.11678386 -0.10249401 -0.10289138
0.0156926 -0.088943586 0.06211666 -0.043651473 -0.08330748 -0.07707029 0.02376404 0.11966968
0.07545554 -0.082535796 0.12924792 0.11553356 0.14216256 -0.055580884 0.076869674 0.12847017
0.10798821 0.11029297 -0.025379142 0.1718473 -0.14811224 -0.07189595 0.04771945 0.059857234
-0.03125231 -0.05020791 0.0019869795 0.019735284 0.08946171 0.030311914 0.057992265 -0.07228266
-0.08118337 -0.15942772 0.07875356 -0.029514397 0.017299267 -0.095493264 0.1664131 -0.03534001
-0.018622827 0.12551895 -0.011265646 0.065562874 0.13017069 -0.05175629 0.02219685 0.15104303
0.013433438 0.12817262 0.11696225 -0.00223017 0.026550127 0.01023161 -0.0105255535 -0.037992723
0.113828 0.05131685 0.09517259 0.088596255 0.06592947 0.12266365 0.120025516 0.05848526
-0.04644349 0.043425784 0.082075186 0.03714996 0.029263025 -0.0074355854 0.051641915 0.038754694
-0.06781956 0.15752245 -0.04661251 -0.06446126 -0.035155557 0.11580407 -0.07695146 0.13363022
-0.062295314 -0.046209447 0.14126652 -0.056348097 -0.17110449 -0.08579054 0.036720507 -0.018334812
-0.094295174 0.011345442 0.0997459 -0.016349873 -0.096426815 0.0480436 -0.055427607 -0.14389107
-0.00998578 -0.1843956 -0.093325846 -0.017465262 0.050093364 -0.055728734 0.004961987 0.10215247
-0.06024995 -0.13151485 -0.004846442 -0.10071742 -0.15976621 -0.13316572 0.15069953 -0.05952532
0.090614654 0.089625575 0.024936657 0.020156166 0.008308545 0.036230385 0.024899358 0.10559187
00000000: fc3a 8dbd 9d2b 49bd c3a5 a9bc 1b65 233d
00000010: 8619 4dbd 3900 323c f1e0 c4bc 71a6 b23b
00000020: 1579 d0bd ef3b 9a3d f0f1 143c 3020 38bd
00000030: 4e25 9abc 4ee3 0dbd fe4f 45bc 0a20 fa3d
00000040: ff80 5fbd 8210 7c3d 0ba6 24be ecde bbbd
00000050: ba8f 29be 710f 04bd 5950 15be 99e0 97bd
00000060: a4ad d33d 9af1 763d f986 1a3e 68fc 01be
00000070: 318c 3c3d 247b ecbd 8d48 013c 2900 7a3d
00000080: 3d60 eb3d f493 cf3c 8541 e7bd ab35 ebbb
00000090: f2be 84bb 18a2 01be 6041 1ebe 106d b93d
000000a0: 47f6 dc3c 5723 06be c2dd 043d 50d1 67bc
000000b0: 7ba3 dd3c 401c 03be 45b2 1fbe 3d6f cdbc
000000c0: 95a4 acbd 8f50 12be 6b01 003e 3dbe aabd
000000d0: 2d70 02be f6e1 e8bb bfab 543d c46b acbd
000000e0: 9fd7 aa3c ef92 553d 4292 b33c d665 e13d
000000f0: d01a a4bd d15c 3cbc 0630 9dbd 7d5d 2d3d
00000100: 61eb 34bd 3758 a2bc 1e38 09bd d172 11bd
00000110: 2ff4 d3bb 749b f73c a6eb 0abe 85c3 203d
00000120: a0f4 24be ce2a 80bd db66 82bd 89d5 ba3d
00000130: e79a 05be fe09 58bc e700 e83b 8909 e9bd
00000140: 4cea dc3b 5e24 7a3d 45c9 11be 7246 12bc
00000150: ef75 21be 6a53 553c 91eb 653d 192f e2bc
00000160: 7d62 823d 4ec4 cdbd 1e4d 183e 1dc9 123d
00000170: f77b 2fbb c574 f33d 2944 233d 7e62 0e3c
00000180: ba33 e43c 8ced fdbd 32d9 553d 1e3c 8fb9
00000190: 83a1 b63c 3b03 13bb 1b3b 023e 4179 97bd
000001a0: be08 223c 2c34 e0bd 9a8a 963d 2812 2d3d
000001b0: 40a7 c63c 02bb c2ba 2bee 203e a54d 723d
000001c0: ca26 3f3e 9970 dbbb 75df e73d 94d3 d7bd
000001d0: 4d62 733c 3520 023e 7851 19bd 0663 033e
000001e0: 585e 00be e335 8bbd 731d 383d b395 9d3d
000001f0: 2ca8 8dbb a752 1a3a 2615 23bd 9d1b dabd
00000200: a684 05be 7ee2 36bd fc3b bfbc b264 2d3e
00000210: 3376 1abe 602c efbd 61e8 d1bd b7b8 d2bd
00000220: c48d 803c 0e28 b6bd 0a6e 7e3d e3cb 32bd
00000230: 1d9d aabd 07d7 9dbd ceac c23c 6115 f53d
00000240: 6f88 9a3d 8708 a9bd 9159 043e dc9c ec3d
00000250: 1093 113e c8a8 63bd d96d 9d3d af8d 033e
00000260: ec28 dd3d 48e1 e13d ebe7 cfbc bdf8 2f3e
00000270: bcaa 17be 2f3e 93bd 7875 433d dc2c 753d
00000280: 6c02 00bd cfa6 4dbd fc37 023b e4ab a13c
00000290: b337 b73d b150 f83c 4c89 6d3d ee08 94bd
000002a0: 7743 a6bd 0541 23be 8c49 a13d 2dc8 f1bc
000002b0: 31b7 8d3c f991 c3bd 3268 2a3e b0c0 10bd
000002c0: e68e 98bc 0a88 003e 8b93 38bc d445 863d
000002d0: 774b 053e 67fe 53bd 2bd6 b53c 06ab 1a3e
000002e0: ec17 5c3c af3f 033e e789 ef3d 0b28 12bb
000002f0: a77f d93c 7ca2 273c 5f73 2cbc 429e 1bbd
00000300: a81e e93d 9e31 523d d9e9 c23d f471 b53d
00000310: 0806 873d 1437 fb3d f0cf f53d 3d8e 6f3d
00000320: 873b 3ebd 3cdf 313d 0917 a83d 8e2a 183d
00000330: 03b9 ef3c 36a6 f3bb 7986 533d 3ebd 1e3d
00000340: fbe4 8abd 914d 213e c2ec 3ebd 4404 84bd
00000350: 46ff 0fbd af2a ed3d ba98 9dbd 5cd6 083e
00000360: 5f29 7fbd 1e46 3dbd 2ca8 103e 43cd 66bd
00000370: 0436 2fbe f3b2 afbd 3e68 163d e332 96bc
00000380: d41d c1bd 3ce2 393c 9447 cc3d 2bf0 85bc
00000390: 6c7b c5bd 5ec9 443d 0f08 63bd 2e58 13be
000003a0: 669b 23bc 33d2 3cbe 9f21 bfbd 4f13 8fbc
000003b0: b32e 4d3d d043 64bd 2a98 a23b 5035 d13d
000003c0: a7c8 76bd d4ab 06be e7ce 9ebb ef44 cebd
000003d0: c199 23be 985c 08be fa50 1a3e d2d0 73bd
000003e0: 2d94 b93d 9d8d b73d f647 cc3c 8b1e a53c
000003f0: 9020 083c 5066 143d bdf9 cb3c 8d40 d83d

gru.weight_hh_l0 f4 [192, 64]
-0.04520263 0.045486618 -0.121683456 0.021670118 -0.065068066 0.023799255 0.08733561 -0.060860097
0.038566686 0.06887442 -0.055950273 0.044119928 -0.04352521 0.018050453 -0.10010338 0.06466952
0.119408526 -0.036148526 0.13676375 -0.08203387 -0.07949073 -0.022938756 -0.03158522 -0.038082164
-0.04580342 -0.06617374 0.177334 0.13441315 0.016878847 -0.028339487 -0.06425269 -0.01617028
-0.009418188 -0.12590897 0.0704804 -0.09140837 0.016536718 -0.17507556 0.09701094 -0.036899094
0.09869814 0.04241207 0.1136632 -0.13299616 -0.069245726 -0.004017787 0.05368711 -0.11438839
0.08000575 0.14539087 0.0973622 0.098268844 0.13204744 -0.030772544 -0.08086971 -0.013100262
0.02542393 0.053918757 -0.075108096 -0.07952772 -0.08305121 -0.101982735 0.023711488 -0.08623985
-0.048792418 -0.016770182 0.033099968 0.005831421 0.08848628 -0.028250268 0.11016505 0.002686197
0.045293055 0.045250107 -0.06472214 0.00984274 -0.1415993 0.06736582 -0.00024355942 -0.0016312265
0.023339592 0.0927468 -0.07780567 0.06943273 0.010832778 0.14082915 0.040014267 0.01744521
0.10090775 -0.042333104 0.17815182 0.09087238 -0.003128242 0.09453365 -0.014797901 -0.024785154
-0.05732199 -0.18626586 0.0014144359 -0.15209189 -0.05754044 0.014664997 0.08010282 0.10541645
-0.006433272 0.054211233 -0.00541518 -0.040890545 0.0063122977 0.05032924 0.08180959 -0.0063560074
-0.049917974 0.1458794 0.048047267 0.11405719 0.053570375 -0.12771486 0.08274305 -0.05641246
-0.10400414 -0.15410173 0.022628492 -0.15342455 -0.025179822 -0.15454592 0.14571871 0.09260429
-0.010765278 -0.019735802 0.07095752 -0.09164626 -0.114276916 0.12484917 0.10467045 -0.040412296
0.0060372115 0.031481758 -0.030762123 0.09751956 -0.03053288 0.035344798 -0.061638538 -0.04784816
0.004289328 0.124039404 -0.03933474 -0.05789858 -0.03606631 0.099204145 0.042671792 0.076347984
-0.051023312 -0.022076538 0.0842205 0.075186744 -0.13453795 -0.0807541 3.7920752e-05 0.12882607
-0.0015971955 -0.082245536 0.09910202 -0.1043277 0.029078515 -0.1522163 -0.008166283 0.045068882
0.051339705 -0.08278685 0.08102294 -0.043396395 0.020733912 0.0807633 -0.044255964 -0.0075711333
0.09453632 -0.059904896 0.09448772 -0.014609735 0.13919888 -0.058126945 0.0727958 -0.11005263
-0.100350045 0.04402828 -0.050749913 0.02714112 0.08371073 -0.057374757 0.14726163 -0.06261942
-0.044983197 -0.04656968 0.121592306 -0.0126955975 -0.047991794 -0.06263515 -0.0950994 -0.11352895
0.10424484 -0.029690806 -0.1492767 0.054174736 0.08602169 0.09198212 -0.043683894 -0.006397561
0.0069757174 -0.05220364 -0.07726256 -0.14617808 0.021394381 0.085049905 -0.09426414 0.022464057
-0.1390555 0.110034384 0.07531641 0.03856998 -0.1119516 0.012661571 -0.11206304 -0.030341394
-0.06339121 -0.027493624 0.016360067 -0.101371475 -0.09738998 -0.14210539 -0.00572065 -0.021781482
-0.079035 0.024771323 -0.017636085 -0.06876672 -0.012798227 -0.16895749 -0.019486655 -0.090484075
0.07667861 -0.040991593 -0.0041263658 0.10677991 0.0047853175 -0.09582195 0.06080638 -0.11061755
0.034879517 0.004299663 -0.0017579636 -0.1782211 0.07922951 -0.10393973 0.0065040104 -0.01937664
00000000: 6526 39bd 2d50 3a3d 2d35 f9bd 8885 b13c
00000010: 6842 85bd a8f6 c23c 03dd b23d 7048 79bd
00000020: 1af8 1d3d 080e 8d3d 1d2c 65bd 19b7 343d
00000030: 7e47 32bd 8bde 933c 0003 cdbd 7471 843d
00000040: 758c f43d 7a10 14bd cc0b 0c3e 6001 a8bd
00000050: 09cc a2bd 0fea bbbc 815f 01bd 0bfc 1bbd
00000060: 5e9c 3bbd 1986 87bd 0b97 353e 9aa3 093e
00000070: 8245 8a3c 3628 e8bc ea96 83bd 8977 84bc
00000080: be4e 1abc 48ee 00be 0758 903d 5034 bbbd
00000090: 0378 873c 0247 33be acad c63d 8123 17bd
000000a0: 4022 ca3d 47b8 2d3d 40c8 e83d 2530 08be
000000b0: b4d0 8dbd a4a7 83bb 04e7 5b3d 7644 eabd
000000c0: 0eda a33d 58e1 143e d565 c73d 2d41 c93d
000000d0: 7237 073e b416 fcbc 059f a5bd 7ba2 56bc
000000e0: d845 d03c ead9 5c3d 46d2 99bd 6edf a2bd
000000f0: c116 aabd 53dc d0bd 983e c23c 859e b0bd
00000100: 8fda 47bd 9f61 89bc d593 073d 8115 bf3b
00000110: 4b38 b53d 1b6d e7bc 379e e13d e80a 303b
00000120: 3685 393d 2d58 393d 0b8d 84bd 7243 213c
00000130: 68ff 10be 17f7 893d fc63 7fb9 e1ce d5ba
00000140: ac32 bf3c 09f2 bd3d 9458 9fbd bf32 8e3d
00000150: f77b 313c 8435 103e 00e6 233d 42e9 8e3c
00000160: b9a8 ce3d 7a65 2dbd 6e6d 363e 4c1b ba3d
00000170: 3103 4dbb dc9a c13d e572 72bc 3c0a cbbc
00000180: 77ca 6abd 7abc 3ebe 9864 b93a fabd 1bbe
00000190: 86af 6bbd 7545 703c f30c a43d 94e4 d73d
000001a0: 32ce d2bb 990c 5e3d d371 b1bb d87c 27bd
000001b0: 64d7 ce3b 0826 4e3d c98b a73d 0e46 d0bb
000001c0: ca76 4cbd 6961 153e 36cd 443d d196 e93d
000001d0: 9c6c 5b3d afc7 02be 3075 a93d c010 67bd
000001e0: 1f00 d5bd d8cc 1dbe 635f b93c 531b 1dbe
000001f0: ea45 cebc 4941 1ebe 4937 153e 51a7 bd3d
00000200: d960 30bc faac a1bc 2d52 913d 09b1 bbbd
00000210: 040a eabd ecb0 ff3d 765d d63d 5d87 25bd
00000220: cdd3 c53b 04f3 003d d900 fcbc 56b8 c73d
00000230: 1720 fabc b5c5 103d b178 7cbd 6ffc 43bd
00000240: 7e8d 8c3b 5f08 fe3d 771d 21bd 1027 6dbd
00000250: 44ba 13bd 8b2b cb3d 9ec8 2e3d 555c 9c3d
00000260: d2fd 50bd dbd9 b4bc cc7b ac3d 82fb 993d
00000270: 51c4 09be 6862 a5bd 190d 1f38 fbea 033e
00000280: fd58 d1ba 5970 a8bd 00f6 ca3d c3a9 d5bd
00000290: 1136 ee3c 97de 1bbe e0cb 05bc 269a 383d
000002a0: 9549 523d 278c a9bd 5bef a53d 6bc0 31bd
000002b0: 2ada a93c 3b67 a53d be45 35bd 4517 f8bb
000002c0: 429c c13d d65e 75bd c782 c13d ac5d 6fbc
000002d0: 278a 0e3e 8516 6ebd f715 953d 4663 e1bd
000002e0: 5384 cdbd ff56 343d 24df 4fbd 0e57 de3c
000002f0: 8870 ab3d cb01 6bbd c1cb 163e 9c3e 80bd
00000300: 4d40 38bd d9bf 3ebd 6305 f93d 3201 50bc
00000310: 0b93 44bd dc46 80bd 79c3 c2bd de81 e8bd
00000320: 527e d53d 223a f3bc fedb 18be 54e6 5d3d
00000330: 242c b03d 1f61 bc3d e2ed 32bd a2a2 d1bb
00000340: 8f94 e43b 7cd3 55bd d53b 9ebd b5af 15be
00000350: 4543 af3c a52e ae3d 8f0d c1bd 8b06 b83c
00000360: 9164 0ebe b559 e13d 7d3f 9a3d 8efb 1d3d
00000370: e146 e5bd 7a72 4f3c 4f81 e5bd 848e f8bc
00000380: 40d3 81bd 4f3a e1bc 8c05 863c d99b cfbd
00000390: 6674 c7bd 1384 11be 4a74 bbbb 146f b2bc
000003a0: 1add a1bd 3bed ca3c 8d79 90bc 91d5 8cbd
000003b0: a8af 51bc 3103 2dbe 7aa2 9fbc b74f b9bd
000003c0: ad09 9d3d cde6 27bd 7736 87bb 6daf da3d
000003d0: 27ce 9c3b 4c3e c4bd 1c10 793d 748b e2bd
000003e0: d3dd 0e3d 30e4 8c3b 786b e6ba 987f 36be
000003f0: 1543 a23d 5ade d4bd 981f d53b c2bb 9ebc

gru.bias_ih_l0 f4 [192]
-0.023989549 -0.007712631 0.093509786 0.11566525 0.1139641 -0.018215371 -0.014270733 -0.008747318
0.052867014 0.07079592 0.17076989 0.08313689 -0.065661505 0.14545496 -0.08262661 0.00016408552
-0.024687758 -0.062271 -0.040212598 0.09450408 0.04395397 0.13014302 0.07669494 0.1417653
0.08767122 -0.015850222 0.01713638 0.023550216 0.074101456 0.16816421 0.002982909 -0.038865905
0.08705884 -0.073830985 0.15866406 0.0785454 0.06507018 0.029822772 -0.042235166 0.02136708
-0.055962402 -0.028533036 0.052475337 -0.06696814 0.12575565 0.086470105 -0.019633362 -0.039787438
0.09074427 -0.04892673 0.058292635 0.019551648 0.06559222 -0.066760786 -0.036274403 0.09815966
0.07642455 0.11156427 -0.030384215 -0.03899863 -0.0067985845 -0.062653 0.08204594 0.05201727
0.013722088 0.08628492 0.08133274 0.2121469 0.19726735 -0.0018353416 0.19554646 0.19357964
0.037761398 0.017621964 0.020070886 0.21582697 0.19767672 0.09161162 -0.0010691814 0.110099986
-0.09894137 0.12950249 0.11973546 -0.0023825502 -0.03582445 0.17912522 0.010277324 0.0061480817
0.016081775 0.010411141 -0.024589043 0.01847687 -0.10955446 0.0876037 0.057233043 0.13584799
0.04715895 0.12115341 0.058617905 -0.034841336 0.0076683867 0.14783864 0.1630559 0.1392497
0.19288178 0.10025973 0.04369319 0.10647454 0.032991167 0.016900232 0.20751898 0.027843766
0.06947289 -0.034363773 0.09448279 0.02397686 -0.040657833 -0.008820759 0.034424286 0.02176567
0.14747283 0.029182065 -0.066996716 -0.13023141 0.08633011 0.13687405 0.08861013 -0.08012687
-0.10781994 0.03350186 0.10402577 -0.00385645 -0.022626996 0.022248186 -0.08227883 -0.15820147
0.10501686 -0.015642382 -0.11419827 0.0015442666 -0.10720913 0.06760542 -0.112354435 0.026348917
-0.0066381055 0.065367416 -0.11186714 -0.12165654 -0.1313488 -0.07421739 0.011342236 0.07275177
-0.031065026 0.07729051 0.052188084 0.06513809 -0.14400975 0.010261586 0.07549554 0.06831995
0.06708786 -0.08063602 -0.09621095 -0.1348406 0.047278114 -0.13018766 0.019907458 0.0501212
0.099734604 0.008355648 0.10266802 0.100515105 -0.026395962 -0.04583223 -0.12278836 -0.07881416
0.09863118 0.11909327 -0.07940532 -0.021857845 0.030480655 -0.02121301 -0.09399325 -0.08347829
0.040925488 -0.0066594435 -0.08590807 -0.09947653 -0.0314727 -0.06255985 0.09778143 -0.10296566
00000000: bb85 c4bc 3dba fcbb 0f82 bf3d e7e1 ec3d
00000010: 0366 e93d 6738 95bc cbcf 69bc e950 0fbc
00000020: 158b 583d 74fd 903d 4dde 2e3e ac43 aa3d
00000030: 8a79 86bd 25f2 143e 2438 a9bd 5f0e 2c39
00000040: fb3d cabc e00f 7fbd f7b5 24bd 5b8b c13d
00000050: 1409 343d 3644 053e 3d12 9d3d ec2a 113e
00000060: f88c b33d 53d8 81bc 9861 8c3c 62ec c03c
00000070: 81c2 973d 3d33 2c3e e97c 433b db31 1fbd
00000080: e84b b23d b334 97bd d578 223e 69dc a03d
00000090: 8443 853d e34e f43c c8fe 2cbd 040a af3c
000000a0: d538 65bd 1dbe e9bc 61f0 563d 9826 89bd
000000b0: 17c6 003e 3d17 b13d 25d6 a0bc 27f8 22bd
000000c0: 22d8 b93d 6567 48bd 42c4 6e3d c72a a03c
000000d0: 3755 863d e1b9 88bd 7894 14bd ef07 c93d
000000e0: 7984 9c3d cf7b e43d 51e8 f8bc 07bd 1fbd
000000f0: a9c6 debb 3750 80bd b407 a83d 1010 553d
00000100: 9cd2 603c 26b6 b03d c891 a63d 093d 593e
00000110: 7400 4a3e d88f f0ba 553d 483e be39 463e
00000120: b2ab 1a3d f05b 903c b36b a43c bf01 5d3e
00000130: c46b 4a3e df9e bb3d c623 8cba 1a7c e13d
00000140: c6a1 cabd 4d9c 043e dd37 f53d 8f24 1cbb
00000150: a9bc 12bd 9a6c 373e 3962 283c d975 c93b
00000160: edbd 833c 7e93 2a3c f66e c9bc ce5c 973c
00000170: 175e e0bd 9269 b33d 326d 6a3d bc1b 0b3e
00000180: be29 413d 471f f83d 5419 703d cab5 0ebd
00000190: 1747 fb3b 0363 173e 20f8 263e 7997 0e3e
000001a0: cd82 453e f954 cd3d a1f7 323d 530f da3d
000001b0: bf21 073d 5b72 8a3c db7f 543e 9c18 e43c
000001c0: cd47 8e3d 07c1 0cbd 3180 c13d 1f6b c43c
000001d0: d488 26bd f284 10bc 7b00 0d3d eb4d b23c
000001e0: 1e03 173e 3a0f ef3c 9335 89bd 625b 05be
000001f0: d7cd b03d b628 0c3e 3a79 b53d 8e19 a4bd
00000200: b3d0 dcbd 3f39 093d 770b d53d 7fbc 7cbb
00000210: 405c b9bc d441 b63c ce81 a8bd 91ff 21be
00000220: 1413 d73d 7424 80bc c8e0 e9bd fd68 ca3a
00000230: 7690 dbbd b674 8a3d 151a e6bd afd9 d73c
00000240: 7784 d9bb 5adf 853d 991a e5bd 1027 f9bd
00000250: 4d80 06be 49ff 97bd c9d4 393c e1fe 943d
00000260: 157c febc 7d4a 9e3d 2cc3 553d 1e67 853d
00000270: 4b77 13be 3620 283c 689d 9a3d 54eb 8b3d
00000280: 5c65 893d 7f24 a5bd 3f0a c5bd a713 0abe
00000290: b2a6 413d ea4f 05be f714 a33c e34b 4d3d
000002a0: a841 cc3d 21e6 083c 9c43 d23d ddda cd3d
000002b0: 583c d8bc 94ba 3bbd 7778 fbbd 5169 a1bd
000002c0: 25ff c93d 2ce7 f33d 429f a2bd 390f b3bc
000002d0: 91b2 f93c e8c6 adbc 887f c0bd aaf6 aabd
000002e0: 7ca1 273d 7637 dabb 92f0 afbd 5aba cbbd
000002f0: 85e9 00bd 611f 80bd a141 c83d a9df d2bd

gru.bias_hh_l0 f4 [192]
-0.034083612 0.058714993 0.08289524 0.14869907 -0.10177205 0.052490175 -0.00734937 -0.042407576
0.013673406 0.118766166 0.1628541 0.010884195 -0.033636585 0.13353735 -0.054041363 0.08122508
-0.09791505 0.14471166 -0.067446396 -0.059543025 -0.04702675 0.1172493 0.054645065 0.09316485
0.099068336 0.12423488 -0.06724241 -0.06912548 0.051761325 0.10269819 0.050871313 0.020720987
0.050105914 0.12503898 0.023046622 -0.06286274 -0.045996852 0.13627091 0.06899208 0.013896453
0.11498099 -0.05306493 -0.0683958 -0.016293602 0.0032004477 0.034417313 0.021499623 0.11843625
-0.05482301 -0.08667616 0.06456223 0.12138849 -0.017205698 0.12865949 0.14166737 0.1391434
0.0015640653 0.15261112 0.10759664 -0.12360043 0.09207827 0.089339614 0.07697371 0.025381962
-0.0011044665 0.19193883 0.10428887 0.0029493738 0.07694911 0.09587264 0.12910458 -0.00057085836
0.096617624 -0.024047455 0.0407145 0.10864666 -0.013282539 0.06284823 0.1558679 -0.06830241
0.08033184 0.07187498 0.09748736 -0.07961099 -0.041613016 0.15992106 -0.022091642 0.056350898
-0.02233252 0.046123188 0.020066414 0.080757506 -0.04442236 -0.057818666 0.09296398 0.11010478
0.1384237 0.21377863 0.101677164 0.039936878 -0.089322194 -0.052920893 0.16285118 0.17636487
0.08633497 -0.09412541 0.016314043 0.031086285 0.012792286 0.0011042472 -0.029464373 -0.035234407
-0.019401459 0.05222779 0.05575014 0.11604993 0.18187535 0.12388882 -0.03314822 0.13301279
0.101024866 0.00654114 0.035702474 -0.10037658 0.07371819 0.00445934 0.095029995 -0.025428787
-0.06828769 0.0077947765 0.0054397765 -0.031847008 0.064448625 0.1280048 -0.09362937 -0.013637033
0.09737187 -0.025405178 -0.10632767 0.08557772 0.1095642 -0.09208762 0.05625812 0.0077272817
0.04508574 0.09196466 0.06635859 -0.073790915 0.07145039 0.09464677 0.07323804 0.11486741
-0.091299 0.06019391 0.108028926 0.06036931 0.047911186 -0.04680716 0.018635523 0.071400024
0.06920694 0.028422235 0.1000094 -0.07858118 0.075128235 -0.14393929 -0.12012422 -0.09900714
-0.13979968 0.09336824 0.10661111 0.012204608 0.027222192 -0.14203395 -0.043819796 -0.1400694
0.13437377 0.026595479 0.120185815 -0.08753253 0.06410165 -0.057847302 0.025122592 0.023499051
-0.1018362 -0.016290119 -0.08702135 -0.052028943 0.08445429 0.07438991 0.09667992 0.08063951
00000000: 429b 0bbd 227f 703d fbc4 a93d 9244 183e
00000010: dd6d d0bd f0ff 563d fcd2 f0bb 91b3 2dbd
00000020: 6c06 603c ad3b f33d 3ac3 263e 9f53 323c
00000030: 84c6 09bd 04be 083e 7a5a 5dbd 5659 a63d
00000040: b087 c8bd 4b2f 143e 5621 8abd 63e3 73bd
00000050: 1f9f 40bd 6720 f03d 81d3 5f3d 36cd be3d
00000060: 57e4 ca3d db6e fe3d 63b6 89bd a991 8dbd
00000070: af03 543d 6e53 d23d 705e 503d 0fbf a93c
00000080: dc3b 4d3d 380a 003e 45cc bc3c 2ebe 80bd
00000090: 3267 3cbd 9a8a 0b3e b84b 8d3d f3ad 633c
000000a0: 277b eb3d 9d5a 59bd 1913 8cbd 297a 85bc
000000b0: 9abe 513b 2bf9 0c3d fa1f b03c b48e f23d
000000c0: 188e 60bd 4583 b1bd 3439 843d 879a f83d
000000d0: f7f2 8cbc 50bf 033e 4011 113e 9c7b 0e3e
000000e0: 5301 cd3a 1746 1c3e a15b dc3d 3922 fdbd
000000f0: 8893 bc3d b0f7 b63d 64a4 9d3d d5ed cf3c
00000100: bfc3 90ba 9d8b 443e 6795 d53d 484a 413b
00000110: 7f97 9d3d e058 c43d fe33 043e a8a5 15ba
00000120: 76df c53d 2bff c4bc 3fc4 263d 2482 de3d
00000130: 029f 59bc 93b6 803d d69b 1f3e 22e2 8bbd
00000140: 0585 a43d 3133 933d 74a7 c73d 160b a3bd
00000150: 6972 2abd 59c2 233e 88f9 b4bc 33d0 663d
00000160: b0f2 b6bc abeb 3c3d 5262 a43c 3164 a53d
00000170: 38f4 35bd 44d3 6cbd e663 be3d 9d7e e13d
00000180: f1be 0d3e c9e8 5a3e 1e3c d03d da94 233d
00000190: 8eee b6bd 94c3 58bd 76c2 263e fe98 343e
000001a0: 64d0 b03d d3c4 c0bd 07a5 853c aaa8 fe3c
000001b0: bd96 513c 63bc 903a 455f f1bc f451 10bd
000001c0: cfef 9ebc cfec 553d 425a 643d 96ab ed3d
000001d0: 883d 3a3e 6cb9 fd3d 6ec6 07bd 8134 083e
000001e0: 20e6 ce3d 0f57 d63b c23c 123d 3d92 cdbd
000001f0: 90f9 963d a81f 923b 169f c23d 0850 d0bc
00000200: 6bda 8bbd 536b ff3b 2740 b23b 0272 02bd
00000210: a4fd 833d b113 033e c1c0 bfbd dd6d 5fbc
00000220: e76a c73d 851e d0bc 52c2 d9bd 5f43 af3d
00000230: 3263 e03d 6f98 bcbd ea6e 663d 2335 fd3b
00000240: d3ab 383d f857 bc3d 03e7 873d b11f 97bd
00000250: 9554 923d 2ad6 c13d d3fd 953d 9b3f eb3d
00000260: f8fa babd e48d 763d 453e dd3d cf45 773d
00000270: 853e 443d ddb8 3fbd 86a9 983c 2d3a 923d
00000280: 5ebc 8d3d bfd5 e83c bad1 cc3d 2bef a0bd
00000290: d5dc 993d d264 13be b003 f6bd 41c4 cabd
000002a0: a627 0fbe d937 bf3d ed56 da3d d6f5 473c
000002b0: 1301 df3c 5971 11be 637c 33bd 5a6e 0fbe
000002c0: 4799 093e c3de d93c fb23 f63d 4144 b3bd
000002d0: ba47 833d 4bf1 6cbd e5cd cd3c 1581 c03c
000002e0: 7f8f d0bd db72 85bc 4038 b2bd 4d1c 55bd
000002f0: 5ff6 ac3d bd59 983d 1f00 c63d 5426 a53d

gru.weight_ih_l0_reverse f4 [192, 6]
-0.0030747165 0.07126595 -0.037915584 -0.038659565 0.08561921 0.14668564 0.12485576 -0.0052815313
-0.05886501 -0.0012076276 -0.036470823 -0.09041981 -0.06069994 0.074254975 0.12476002 0.123400986
0.10365865 0.087082356 0.0147375995 0.07310984 -0.0033653106 0.06375001 -0.12646058 0.094953045
-0.12346243 -0.14792864 0.024668608 0.13842042 -0.07942802 -0.066938646 -0.10313009 0.09268585
-0.0035659005 -0.049859613 -0.09404792 -0.019373659 -0.013447377 -0.015030683 0.030646836 -0.10346991
-0.06341973 -0.055743005 0.096520655 -0.12164696 -0.044983476 0.16822578 -0.12660362 0.028039893
0.0033245436 -0.11687278 -0.01553116 -0.14080177 -0.101411425 -0.15207173 0.0592979 -0.06049758
0.020764992 0.1540029 0.053774577 0.09059226 0.06334246 -0.0542835 -0.058133077 0.047945175
-0.07006693 -0.10604114 0.011688924 -0.048211824 0.010049749 0.06614797 0.017615173 0.11605781
-0.05914033 -0.022913583 -0.09346951 -0.016460558 0.07531481 0.04520973 -0.0015543778 0.056137398
0.11263628 0.021103213 0.0055974815 0.038908828 0.06984353 -0.01055708 -0.039105076 0.09675909
0.05358422 0.029196385 0.08032707 0.16723815 -0.040226925 0.12803416 -0.052829698 0.04832645
0.03884607 -0.10807781 0.05158021 0.048538044 -0.050082825 -0.06413274 0.04372342 0.022845794
-0.105443195 -0.09998552 0.06000068 0.019488411 -0.14155999 -0.13974544 -0.18021546 -0.06843548
-0.18002366 -0.06652994 0.17605011 0.030351777 0.036045853 0.020408591 0.052188165 0.12930124
0.098662466 -0.06398207 -0.03797799 0.06705591 -0.020167014 -0.050229885 0.14866793 -0.010136807
-0.0033583257 -0.03281392 0.17711982 0.13038686 0.03080666 -0.11758162 0.0022238793 0.09979087
0.0003878102 -0.022685224 -0.0674955 0.008052405 -0.09568211 -0.05123715 0.065823935 -0.09123415
0.04720262 0.080432005 -0.19062038 0.12694901 -0.01646098 0.07245483 0.010311331 -0.033722207
0.13544752 0.15144497 -0.020190816 -0.00848057 -0.109253734 -0.025247402 -0.13129945 0.12442219
-0.00952721 -0.07697618 -0.16386124 0.07669522 -0.007136331 -0.06533446 -0.13283458 0.024047118
-0.052104805 0.033862036 -0.09792937 0.055346526 0.06447374 0.08128889 0.09295296 -0.1363527
-0.098503925 0.05183606 -0.10905454 0.0066291397 -0.02739644 -0.013136899 -0.068096116 -0.009616107
-0.056803633 0.07918308 -0.11901908 -0.11536661 0.058054276 -0.030520532 0.0101832645 0.11645922
0.019101579 0.13458875 0.097442664 0.17654236 -0.0015195756 0.10584213 0.040717274 0.051254135
-0.091294914 -0.0115944315 0.028985886 -0.1296873 0.056468904 0.057582997 -0.17274651 0.09837535
-0.07591163 -0.07154814 0.061481073 -0.06352374 -0.044060346 -0.0726071 -0.11450235 -0.04004776
0.07622127 0.050640017 0.040585812 -0.030720204 0.10606038 0.13803805 -0.0788639 -0.10452144
-0.028475828 -0.09810398 0.08415491 -0.052564926 0.086153924 -0.050971292 -0.07684384 -0.08004824
-0.013264489 -0.031150497 0.12230227 0.040042877 -0.009403524 -0.081048295 -0.092242524 -0.09555067
-0.14179224 -0.12654589 -0.056283448 0.014562605 0.0044419565 -0.084586576 -0.08082789 0.01735628
0.0054844194 -0.091411695 0.0016441415 -0.06479049 -0.07549512 -0.075357564 -0.13327791 0.10476045
00000000: 2f81 49bb e2f3 913d 5f4d 1bbd 7e59 1ebd
00000010: 2059 af3d c334 163e 60b4 ff3d b210 adbb
00000020: 701c 71bd 4249 9eba 6e62 15bd 052e b9bd
00000030: 80a0 78bd fe12 983d 2e82 ff3d a8b9 fc3d
00000040: fc4a d43d 3c58 b23d f975 713c 9dba 953d
00000050: 8b8c 5cbb 5e8f 823d e27e 01be be76 c23d
00000060: dfd9 fcbd 9b7a 17be d215 ca3c 15be 0d3e
00000070: 28ab a2bd 2117 89bd de35 d3bd 14d2 bd3d
00000080: e2b1 69bb 9839 4cbd 329c c0bd 82b5 9ebc
00000090: 6352 5cbc 4143 76bc 130f fb3c 08e8 d3bd
000000a0: 34e2 81bd c752 64bd 9fac c53d 0b22 f9bd
000000b0: 9840 38bd 6143 2c3e 61a4 01be ebb3 e53c
000000c0: 96e0 593b ff5a efbd 6876 7ebc 572e 10be
000000d0: cbb0 cfbd b1b8 1bbe 5be2 723d 4fcc 77bd
000000e0: 581b aa3c f0b2 1d3e bb42 5c3d 6f88 b93d
000000f0: b1b9 813d 6058 5ebd f31c 6ebd 2962 443d
00000100: 407f 8fbd 192c d9bd e782 3f3c c379 45bd
00000110: b4a7 243c 9678 873d b24d 903c b8af ed3d
00000120: 213d 72bd 44b5 bbbc f16c bfbd 4bd8 86bc
00000130: a73e 9a3d d62d 393d 44bc cbba 54f0 653d
00000140: daad e63d a5e0 ac3c 146b b73b dd5e 1f3d
00000150: 200a 8f3d 9af7 2cbc a52c 20bd a129 c63d
00000160: 217b 5b3d 422d ef3c 8582 a43d 7a40 2b3e
00000170: fdc4 24bd 631b 033e f463 58bd f5f1 453d
00000180: 0f1d 1f3d e657 ddbd c545 533d d4cf 463d
00000190: a623 4dbd 0758 83bd 5417 333d 1a27 bb3c
000001a0: 9af2 d7bd 35c5 ccbd 46c3 753d 29a6 9f3c
000001b0: 1af5 10be 6e19 0fbe 678a 38be e727 8cbd
000001c0: 1f58 38be d940 88bd 7b46 343e 4aa4 f83c
000001d0: d1a4 133d eb2f a73c 42c3 553d 8b67 043e
000001e0: 8c0f ca3d 0809 83bd cf8e 1bbd 9c54 893d
000001f0: 4b35 a5bc dabd 4dbd 683c 183e da14 26bc
00000200: 5b17 5cbb e467 06bd e65e 353e 2284 053e
00000210: 405e fc3c a2ce f0bd 81be 113b 285f cc3d
00000220: 0153 cb39 5dd6 b9bc 153b 8abd 3cee 033c
00000230: fbf4 c3bd 0cde 51bd b3ce 863d f8d8 babd
00000240: 8957 413d 89b9 a43d fd31 43be ecfe 013e
00000250: 2dd9 86bc 3363 943d dbf0 283c 4c20 0abd
00000260: c1b2 0a3e 6414 1b3e 3667 a5bc 17f2 0abc
00000270: 6cc0 dfbd a4d3 cebc 5d73 06be 10d1 fe3d
00000280: 0418 1cbc b0a5 9dbd 3ecb 27be 6212 9d3d
00000290: e2d7 e9bb 13ce 85bd ca05 08be 76fe c43c
000002a0: d96b 55bd ebb2 0a3d 328f c8bd 0ab3 623d
000002b0: cf0a 843d ca7a a63d 1f5e be3d 0ba0 0bbe
000002c0: 6dbc c9bd 0c52 543d fd57 dfbd 4139 d93b
000002d0: 806e e0bc 263c 57bc fa75 8bbd e08c 1dbc
000002e0: edaa 68bd bd2a a23d 47c0 f3bd 5445 ecbd
000002f0: 52ca 6d3d 3206 fabc b5d7 263c 2c82 ee3d
00000300: ea7a 9c3c a2d1 093e 0590 c73d 85c7 343e
00000310: 7f2c c7ba c2c3 d83d 28c7 263d dbef 513d
00000320: d4f8 babd 92f6 3dbc cf73 ed3c bfcc 04be
00000330: f04b 673d 26dc 6b3d 76e4 30be 0479 c93d
00000340: 8f77 9bbd d587 92bd 94d3 7b3d bc18 82bd
00000350: 9f78 34bd 08b3 94bd 3580 eabd 1f09 24bd
00000360: e619 9c3d e86b 4f3d 4f3d 263d f0a8 fbbc
00000370: 2f36 d93d d959 0d3e 6583 a1bd 560f d6bd
00000380: 2446 e9bc bdea c8bd 6959 ac3d 524e 57bd
00000390: 7871 b03d 46c7 50bd 4e60 9dbd 55f0 a3bd
000003a0: 4d53 59bc 542f ffbc 9d79 fa3d 0004 243d
000003b0: 3d11 1abc a6fc a5bd a6e9 bcbd 12b0 c3bd
000003c0: fc31 11be 3f95 01be 7989 66bd fe97 6e3c
000003d0: d58d 913b ba3b adbd 1889 a5bd c22e 8e3c
000003e0: a5b6 b33b 0e36 bbbd 3c80 d73a e0b0 84bd
000003f0: 2f9d 9abd 1155 9abd 017a 08be a68c d63d

gru.weight_hh_l0_reverse f4 [192, 64]
-0.049887408 0.0804052 0.009647985 0.07493973 0.06881699 -0.04529011 -0.061023172 -0.12392837
0.15586187 -0.05447934 0.06298269 0.04142654 -0.025504334 0.10412774 -0.06537511 0.06751643
0.06567569 0.17675282 -0.019845836 0.07491756 0.15325215 -0.05218149 0.039630435 0.07398384
0.07785006 -0.028035209 0.15370677 0.02047885 0.023032658 0.08391965 0.110465996 0.06236012
-0.08882381 0.020067805 0.048279423 -0.0751165 0.004148042 -0.14725415 -0.07409522 0.0047469
-0.07296415 0.014849234 -0.002397453 -0.053324066 0.052088536 -0.069148175 0.13416323 0.0033497796
0.1298372 -0.0058791153 -0.009241082 0.17130512 -0.09906132 -0.020011038 0.100952424 -0.03429995
-0.15722296 -0.07168599 -0.06720531 0.15242147 0.10878739 0.13296475 -0.047821578 0.07491819
0.1116151 0.054107945 0.09134038 0.04533717 -0.10692621 0.10945682 0.11686502 0.1002278
-0.033160087 -0.022315128 -0.027172238 -0.07218546 0.06410345 0.059943587 -0.1599858 -0.092163615
-0.16295174 0.08264962 0.018310517 -0.059915543 -0.022610035 -0.12702638 -0.10032041 -0.07764464
0.03159802 -0.08773967 0.12278065 0.120084934 0.12666583 -0.16432868 0.12666732 -0.09766682
0.07686092 -0.122198336 -0.03746627 0.109511234 0.1285043 -0.011053748 0.011176779 -0.023895752
0.15906934 0.079675406 -0.015877184 -0.0979401 0.07497222 -0.004282298 -0.12202202 0.08528063
-0.07760855 -0.12896655 -0.05972048 -0.07025722 -0.01685083 0.002202503 0.023921318 -0.06708724
0.010862437 -0.1833706 -0.06217127 0.08483468 -0.08513864 0.11791046 -0.03050016 0.09541566
-0.07519764 0.0015661828 -0.034304496 -0.08483146 0.00905641 0.096933015 0.08115206 -0.021066137
0.14616533 0.053868253 -0.02990551 -0.0990627 -0.123432636 0.07392588 -0.026604515 -0.076590456
0.11865018 -0.046467297 -0.11612608 0.06332866 0.024204941 -0.036336437 -0.05243278 -0.07319503
-0.04451421 -0.022774184 -0.016985385 0.018683413 -0.12134543 -0.0037808514 0.111249834 0.004620595
0.0047289785 -0.12832819 0.07350086 0.07735948 0.03441529 0.03480127 0.12659319 0.07487059
-0.061559036 -0.07151635 0.09226116 -0.14384824 -0.07605608 -0.011773259 0.11630434 -0.0005831801
-0.07192482 -0.044199154 -0.014627339 0.039564267 0.069980964 0.04915151 -0.049647037 -0.031327747
-0.14183635 -0.03327455 -0.11631388 0.084547974 0.06956553 0.13972417 0.053821012 0.03018906
-0.016633265 0.011144348 0.12372181 0.003046645 -0.018815415 -0.00080501597 -0.007872221 -0.03476012
-0.015712515 0.14593205 0.08650991 0.064127885 0.0030650075 -0.096476324 -0.014555539 0.1298013
-0.012613384 -0.00056760875 0.0320972 0.13688137 0.04220625 -0.15790631 0.08860267 0.032639373
0.05741703 0.112767525 0.07729121 0.008172038 0.012006949 -0.016205233 -0.12416372 -0.000536912
-0.12607504 0.019148385 -0.087614045 -0.038922217 0.03782049 -0.03559492 -0.024281716 -0.07183829
-0.0593652 0.09416802 -0.09434302 -0.032014787 0.1159771 -0.10645959 -0.07840489 -0.06240553
-0.019068804 -0.033376276 -0.062217563 0.008507488 0.08245704 0.07158701 -0.027405651 -0.0058164746
0.092763305 0.06237843 -0.08903445 -0.027519165 -0.040913973 0.09818447 -0.08221667 -0.10262842
00000000: bd56 4cbd 7bab a43d 9512 1e3c 007a 993d
00000010: ecef 8c3d 1f82 39bd 6ff3 79bd 28ce fdbd
00000020: 419a 1f3e ba25 5fbd 12fd 803d e0ae 293d
00000030: 77ee d0bc ed40 d53d 63e3 85bd 0e46 8a3d
00000040: fa80 863d b1fe 343e bc93 a2bc 616e 993d
00000050: 22ee 1c3e 42bc 55bd 8653 223d d784 973d
00000060: da6f 9f3d 18aa e5bc 4f65 1d3e 43c3 a73c
00000070: fcae bc3c 11de ab3d ff3b e23d 536d 7f3d
00000080: 42e9 b5bd 3d65 a43c a5c0 453d aed6 99bd
00000090: 4cec 873b cbc9 16be 3cbf 97bd e28b 9b3b
000000a0: 3a6e 95bd 344a 733c 961e 1dbb 566a 5abd
000000b0: ca5a 553d 8f9d 8dbd 1662 093e fa87 5b3b
000000c0: 0bf4 043e 98a5 c0bb e867 17bc 9c6a 2f3e
000000d0: a9e0 cabd 30ee a3bc 25c0 ce3d 1b7e 0cbd
000000e0: 0eff 20be 1bd0 92bd f0a2 89bd 6014 1c3e
000000f0: eccb de3d e927 083e 8fe0 43bd b56e 993d
00000100: 7596 e43d 4ba0 5d3d aa10 bb3d 78b3 393d
00000110: 21fc dabd e62a e03d ed56 ef3d 3c44 cd3d
00000120: dfd2 07bd 37ce b6bc 5098 debc f8d5 93bd
00000130: ab48 833d 6887 753d 51d3 23be 47c0 bcbd
00000140: d2dc 26be 3444 a93d f0ff 953c 006a 75bd
00000150: ae38 b9bc 3413 02be ca74 cdbd 2704 9fbd
00000160: ed6c 013d dbb0 b3bd 6c74 fb3d 17ef f53d
00000170: b0b4 013e c745 28be 14b5 013e 8b05 c8bd
00000180: 4269 9d3d 1f43 fabd 3b76 19bd 6d47 e03d
00000190: a296 033e c81a 35bc cf1e 373c 06c1 c3bc
000001a0: 13e3 223e dc2c a33d de10 82bc d294 c8bd
000001b0: 098b 993d 8552 8cbb aee6 f9bd 9ca7 ae3d
000001c0: 3bf1 9ebd cf0f 04be 769d 74bd 04e3 8fbd
000001d0: c00a 8abc de57 103b a4f6 c33c 0965 89bd
000001e0: 5df8 313c 81c5 3bbe 4da7 7ebd cebd ad3d
000001f0: 2b5d aebd 0a7b f13d 79db f9bc 4969 c33d
00000200: 3801 9abd 6048 cd3a df82 0cbd 1ebc adbd
00000210: 5661 143c d184 c63d 0d33 a63d e492 acbc
00000220: 5dac 153e f5a4 5c3d 66fc f4bc 63e1 cabd
00000230: 40ca fcbd 7466 973d b6f1 d9bc 75db 9cbd
00000240: defe f23d 7e54 3ebd 83d3 edbd 75b2 813d
00000250: 7149 c63c 84d5 14bd c1c3 56bd 47e7 95bd
00000260: 8854 36bd ed90 babc ef24 8bbc f50d 993c
00000270: f483 f8bd 29c8 77bb f4d6 e33d 5c68 973b
00000280: 8cf5 9a3b 7768 03be 9e87 963d a66e 9e3d
00000290: 0cf7 0c3d c78b 0e3d a5a1 013e c055 993d
000002a0: 5425 7cbd 2a77 92bd 6bf3 bc3d f44c 13be
000002b0: 4ac3 9bbd a1e4 40bc f830 ee3d 8ee0 18ba
000002c0: 524d 93bd 2c0a 35bd 82a7 6fbc 240e 223d
000002d0: 2e52 8f3d 1853 493d b15a 4bbd 8651 00bd
000002e0: 8c3d 11be e54a 08bd f935 eebd 7d27 ad3d
000002f0: 5f78 8e3d da13 0f3e 6c73 5c3d 0c4f f73c
00000300: 7c42 88bc c996 363c dc61 fd3d 39aa 473b
00000310: c922 9abc b507 53ba 7dfa 00bc a160 0ebd
00000320: 88b7 80bc 366f 153e 1c2c b13d 7b55 833d
00000330: 4bde 483b 6195 c5bd 5b7a 6ebc a2ea 043e
00000340: 5ea8 4ebc 94cb 14ba 5b78 033d a12a 0c3e
00000350: 76e0 2c3d 31b2 21be 5175 b53d ddb0 053d
00000360: 1f2e 6b3d a9f2 e63d db4a 9e3d 03e4 053c
00000370: cbb8 443c d6c0 84bc 8c49 febd 8ebf 0cba
00000380: d119 01be 13dd 9c3c fe6e b3bd e76c 1fbd
00000390: a8e9 1a3d fbcb 11bd 73ea c6bc f41f 93bd
000003a0: ed28 73bd 2adb c03d ea36 c1bd f021 03bd
000003b0: 6785 ed3d 7c07 dabd be92 a0bd f19c 7fbd
000003c0: 2e36 9cbc 90b5 08bd d8d7 7ebd fe62 0b3c
000003d0: 3ddf a83d 369c 923d d181 e0bc 2098 bebb
000003e0: b0fa bd3d 8680 7f3d b257 b6bd df6f e1bc
000003f0: 6995 27bd f014 c93d 3761 a8bd d92e d2bd

gru.bias_ih_l0_reverse f4 [192]
0.12655632 0.12382862 -0.008633136 0.1306619 -0.0041546426 0.082425386 0.11313587 0.15083453
0.09863033 0.04392826 0.09164966 -0.088230066 0.105412364 0.14046799 0.074044004 0.038982727
-0.026665019 0.08766139 0.020277195 0.099205874 0.05077998 0.12728363 0.090537585 -0.07233166
-0.026992045 0.10094658 0.14991485 0.10539454 -0.078329414 0.016731191 -0.015162852 0.104064256
0.07068597 0.13298082 0.026305238 -0.030232206 0.07320006 0.093571305 0.13816744 0.02814564
-0.025335826 0.11046285 0.05309289 0.12353085 0.09586181 0.110812224 0.12264834 0.0065605026
0.14103004 0.09843698 0.017796058 -0.06691809 0.088294245 -0.08590034 -0.08341892 0.015430268
-0.07211687 -0.06499589 -0.059405107 0.043356113 -0.0062291035 0.039024487 -0.032693624 -0.08842132
0.05860438 0.08393198 0.1680215 0.100731015 0.012520844 0.10946226 0.031486444 -0.03925456
0.07065004 0.04675444 -0.047405977 0.09750711 0.14745283 -0.048113767 0.1303819 -0.061466604
0.09475839 -0.0071340585 -0.09317746 0.04428704 0.054413013 0.03454771 0.018598283 0.07071543
0.15903345 0.06932755 0.16385213 0.0746404 0.11106765 0.014875418 -0.047516275 -0.022608552
0.09496864 0.062001582 -0.009114192 -0.011734214 0.15062855 -0.023785051 0.17430292 0.08829775
0.13780186 0.12015889 0.16304697 0.104559004 0.032426983 0.07055749 0.020138342 0.07517412
0.18075117 -0.08439333 -0.024946537 0.073541105 0.16313894 0.18800955 0.05548207 0.043072503
-0.06933379 0.20827442 -0.080902904 -0.023157358 -0.058232743 0.13637722 0.038013536 0.04515014
0.15490335 -0.06906881 0.08683011 0.11094536 -0.09512235 0.13978796 0.086228795 0.045872767
-0.04818164 -0.10343165 0.067267396 -0.11304437 0.030835014 0.033003826 -0.06341409 0.038192276
-0.07694356 0.14337252 -0.13106115 0.11498126 0.13702063 -0.112668745 -0.025687277 -0.034900256
0.016658604 -0.065207355 -0.032499146 0.07268573 -0.13442956 0.024153963 0.04129822 0.001057259
-0.034384426 0.0037798358 0.03686621 0.049113203 -0.109989606 0.11861005 -0.121157095 0.046087258
0.069458075 0.094404064 0.011850857 -0.070243135 0.07486586 -0.07119305 -0.025509767 -0.079342216
-0.07116583 0.030172851 -0.042711366 0.17075185 -0.08195789 0.063829936 -0.032698847 0.1113584
-0.00066114875 0.08463522 -0.07803557 0.08989956 0.027433509 0.056714755 -0.1313889 0.06907837
00000000: fb97 013e dc99 fd3d ff71 0dbc 3ccc 053e
00000010: ab23 88bb a4ce a83d c7b3 e73d 5e74 1a3e
00000020: b3fe c93d 1fee 333d d1b2 bb3d f7b1 b4bd
00000030: 70e2 d73d d7d6 0f3e 62a4 973d 5aac 1f3d
00000040: 9970 dabc d187 b33d 5c1c a63c 732c cb3d
00000050: abfe 4f3d a456 023e c56b b93d 9f22 94bd
00000060: 6c1e ddbc 15bd ce3d 4783 193e 18d9 d73d
00000070: 2c6b a0bd da0f 893c 9c6d 78bc a41f d53d
00000080: cec3 903d 202c 083e 157e d73c 88a9 f7bc
00000090: eae9 953d 50a2 bf3d c47b 0d3e af91 e63c
000000a0: 148d cfbc 593a e23d ee77 593d befd fc3d
000000b0: 3253 c43d 85f1 e23d 0e2f fb3d 7cf9 d63b
000000c0: 2e6a 103e 5499 c93d 0ac9 913c 5a0c 89bd
000000d0: 9dd3 b43d 84ec afbd 8ad7 aabd 3ccf 7c3c
000000e0: 02b2 93bd 911c 85bd c552 73bd 2e96 313d
000000f0: 821d ccbb 24d8 1f3d c0e9 05bd 3d16 b5bd
00000100: 250b 703d 88e4 ab3d d40d 2c3e 104c ce3d
00000110: 3a24 4d3c c02d e03d eef7 003d 64c9 20bd
00000120: f8b0 903d 9581 3f3d c52c 42bd cfb1 c73d
00000130: e0fd 163e f112 45bd d582 053e 68c4 7bbd
00000140: b010 c23d d2c4 e9bb d3d3 bebd 5466 353d
00000150: 2ee0 5e3d e681 0d3d 6d5b 983c 40d3 903d
00000160: aad9 223e 9afb 8d3d dac8 273e 11dd 983d
00000170: 7077 e33d 06b8 733c 6da0 42bd 9235 b9bc
00000180: eb7e c23d 5ff5 7d3d b153 15bc dc40 40bc
00000190: 5f3e 1a3e ded8 c2bc 777c 323e 73d5 b43d
000001a0: ee1b 0d3e dd15 f63d c9f5 263e 0823 d63d
000001b0: 28d2 043d 7280 903d 2af9 a43c e4f4 993d
000001c0: d616 393e 69d6 acbd ae5c ccbc b89c 963d
000001d0: e50d 273e 9385 403e 2b41 633d cb6c 303d
000001e0: e0fe 8dbd e445 553e 6cb0 a5bd 80b4 bdbc
000001f0: 7585 6ebd 78a6 0b3e 15b4 1b3d 5aef 383d
00000200: fc9e 1e3e f373 8dbd fcd3 b13d 5237 e33d
00000210: 82cf c2bd 9324 0f3e b998 b03d 15e5 3b3d
00000220: 1d5a 45bd f9d3 d3bd 7dc3 893d cf83 e7bd
00000230: b699 fc3c 052f 073d 3fdf 81bd 816f 1c3d
00000240: 9694 9dbd 3fd0 123e e534 06be 4b7b eb3d
00000250: 234f 0c3e dfbe e6bd 206e d2bc 92f3 0ebd
00000260: a077 883c 6f8b 85bd d31d 05bd 42dc 943d
00000270: e7a7 09be 88de c53c 5328 293d ba93 8a3a
00000280: afd6 0cbd 1fb7 773b 0601 173d ed2a 493d
00000290: 3b42 e1bd d3e9 f23d 3621 f8bd fec5 3c3d
000002a0: 0940 8e3d eb56 c13d 192a 423c a2db 8fbd
000002b0: 4653 993d a9cd 91bd dcf9 d0bc 2c7e a2bd
000002c0: 64bf 91bd 0e2d f73c 1df2 2ebd 93d9 2e3e
000002d0: 8ad9 a7bd 45b9 823d 3aef 05bd df0f e43d
000002e0: f150 2dba 3b55 ad3d 1dd1 9fbd 431d b83d
000002f0: 3dbc e03c bb4d 683d d08a 06be f678 8d3d

gru.bias_hh_l0_reverse f4 [192]
0.056738324 -0.078337505 0.050160125 0.14190204 -0.088555984 -0.029959762 0.14531967 -0.0013183476
0.035009157 0.03000188 0.11095201 -0.06833454 0.034073472 0.09575278 0.045743573 0.080358796
0.068112284 0.17668551 0.047185242 -0.02731542 0.103720844 0.18836188 0.054392807 -0.08305117
0.020571172 0.1711923 -0.022060297 0.011660059 -0.042005297 0.11400807 0.15045275 0.0904831
-0.060257316 0.14932235 -0.0909559 0.024345351 0.08319854 -0.10306055 0.09397426 0.074748255
0.03978211 0.08784143 0.08794554 0.007571124 0.021880256 -0.09198865 -0.004640626 0.06103816
0.084599756 0.05035085 0.0065372586 -0.079299845 0.09334735 0.107654065 0.09034763 0.124179155
0.041622594 -0.009863658 -0.03377004 0.041813053 0.084575914 0.0022143286 -0.014174788 0.05135914
0.070360206 0.15207501 0.08789142 0.09463931 -0.022390021 0.14155701 0.17033324 0.0758397
0.16625206 0.137222 0.16158561 0.1481621 0.13063107 0.08839256 0.09545812 0.0389381
0.10641953 0.034584276 0.1188731 0.09258331 0.041429408 0.016689003 0.009620591 0.028158301
0.02080922 0.10605666 0.16794634 -0.09387642 0.016050976 0.012076611 0.05861075 0.07805872
0.107623436 0.016327523 0.09539882 0.094480634 0.06672067 0.054877426 -0.025117207 0.07320563
0.09310168 0.1273268 0.20196684 0.13452555 0.032802306 0.013163329 0.12836763 -0.011609523
0.059449226 0.048502985 -0.0040172134 0.07255023 0.07488299 0.18912308 -0.0042183646 0.09012407
-0.1393746 0.16050386 -0.044978328 -0.023130277 0.07220029 0.05252348 -0.01558581 -0.016394233
-0.011516315 0.02105057 0.11248113 0.13489486 -0.100811206 0.13756742 0.11730123 -0.0048811147
-0.064430386 0.06437728 -0.116151355 0.006555193 -0.11282944 0.1046578 0.051657286 0.023886379
0.06718188 0.03700508 0.06158825 -0.093952894 -0.030321138 -0.11751799 0.06865856 -0.13356858
0.06256031 0.06944513 -0.06075955 -0.07601338 -0.031716917 -0.062294073 -0.058725398 -0.040114474
0.03599705 -0.085042685 0.0048560994 0.06253355 -0.0071402653 -0.08002127 0.11137451 0.04997924
0.093425415 0.09128828 0.05621349 0.029550016 0.036758814 0.015162433 -0.10914812 0.053535186
-0.15150489 -0.07392867 -0.06582469 -0.014908308 0.00739717 -0.009481032 0.03758042 0.065737106
0.110648565 -0.007624746 -0.12870681 0.082396865 0.01105641 0.023456646 0.020876111 -0.03289994
00000000: 7266 683d 6a6f a0bd b474 4d3d c54e 113e
00000010: d75c b5bd 2d6e f5bc aece 143e 68cc acba
00000020: c365 0f3d 81c6 f53c cf3a e33d fbf2 8bbd
00000030: a090 0b3d 091a c43d 9d5d 3b3d 2793 a43d
00000040: 747e 8b3d 0ced 343e 5045 413d 96c4 dfbc
00000050: 986b d43d f0e1 403e feca 5e3d bb16 aabd
00000060: e084 a83c 094d 2f3e ccb7 b4bc d509 3f3c
00000070: bf0d 2cbd 107d e93d 4910 1a3e 344f b93d
00000080: 60d0 76bd f5e7 183e 1647 babd e76f c73c
00000090: ff63 aa3d 6911 d3bd 9475 c03d 9d15 993d
000000a0: 91f2 223d 35e6 b33d cb1c b43d 3117 f83b
000000b0: 393e b33c 8c64 bcbd 6410 98bb 2603 7a3d
000000c0: a342 ad3d b13c 4e3d 8036 d63b f567 a2bd
000000d0: e52c bf3d bc79 dc3d 2e08 b93d a451 fe3d
000000e0: 747c 2a3d 2e9b 21bc 7452 0abd 2a44 2b3d
000000f0: 2336 ad3d 451e 113b 5f3d 68bc f65d 523d
00000100: 0319 903d 8db9 1b3e 6b00 b43d 41d2 c13d
00000110: 476b b7bc 52f4 103e d66b 2e3e d851 9b3d
00000120: fb3d 2a3e ed83 0c3e b376 253e ceb7 173e
00000130: 27c4 053e 2907 b53d 8c7f c33d 8f7d 1f3d
00000140: 7cf2 d93d 3ea8 0d3d bd73 f33d 529c bd3d
00000150: e2b1 293d 60b7 883c af9f 1d3c 3dac e63c
00000160: 1978 aa3c 3c34 d93d 20fa 2b3e 4842 c0bd
00000170: 567d 833c fadc 453c d311 703d 40dd 9f3d
00000180: ad69 dc3d 4cc1 853c 7560 c33d 107f c13d
00000190: d9a4 883d 27c7 603d 9ac2 cdbc d5ec 953d
000001a0: 18ac be3d f561 023e 65d0 4e3e 11c1 093e
000001b0: b65b 063d 01ab 573c ce72 033e de35 3ebc
000001c0: 0881 733d 11ab 463d d4a2 83bb 3795 943d
000001d0: 415c 993d 7ba9 413e 353a 8abb f892 b83d
000001e0: 37b8 0ebe 205b 243e 323b 38bd b57b bdbc
000001f0: bfdd 933d dc22 573d a05b 7fbc 334d 86bc
00000200: edae 3cbc 3f72 ac3c 825c e63d e121 0a3e
00000210: 1b76 cebd 79de 0c3e a13b f03d c2f1 9fbb
00000220: 14f4 83bd 3cd8 833d c3e0 edbd f2cc d63b
00000230: 1f13 e7bd d456 d63d 9796 533d 5ead c33c
00000240: a796 893d a492 173d f643 7c3d 606a c0bd
00000250: 0964 f8bc 46ad f0bd dc9c 8c3d 34c6 08be
00000260: 9f1f 803d 4039 8e3d 02df 78bd e7ac 9bbd
00000270: 99e9 01bd 1228 7fbd 0b8a 70bd 134f 24bd
00000280: a571 133d dc2a aebd ea1f 9f3b 9711 803d
00000290: e3f8 e9bb 31e2 a3bd 5218 e43d 08b7 4c3d
000002a0: d355 bf3d 5af5 ba3d 1e40 663d e012 f23c
000002b0: 6990 163d da6b 783c 0d89 dfbd b647 5b3d
000002c0: 1924 1bbe ea67 97bd 18cf 86bd fa41 74bc
000002d0: f663 f23b 5556 1bbc eded 193d 2da1 863d
000002e0: b79b e23d 01d9 f9bb b8cb 03be b0bf a83d
000002f0: f225 353c 2728 c03c 6104 ab3c 16c2 06bd

fc.weight f4 [9, 128]
0.07406433 -0.025695698 0.03873608 0.068537734 0.012618848 -0.045253374 0.122167885 0.07924417
-0.030376524 0.112604395 0.02027879 -0.011238345 -0.022882171 -0.055522725 0.052555878 -0.13265473
-0.0891045 0.025040783 -0.13609853 0.037699956 -0.060410634 -0.11274658 0.01680222 0.11359365
-0.043351717 -0.13079208 0.028218657 0.06349127 -0.1011381 -0.091102816 0.09266669 0.061847646
-0.06703296 0.12617485 -0.09746857 -0.09780489 0.020754464 0.06162104 0.0034453934 -0.13842581
-0.11120581 0.106500894 0.077955574 -0.052267358 -0.05729331 -0.12436885 -0.061666258 0.06015342
0.02470343 -0.08797021 -0.1287014 0.065053195 -0.09192061 0.08975612 0.03410996 -0.0459453
0.12951007 0.15915234 0.03037567 -0.021169407 0.11253902 -0.07186396 -0.018819394 -0.08754999
0.112667985 -0.01949958 -0.051308293 0.009127277 0.07392103 -0.044391915 -0.043824777 -0.01831999
0.036484793 -0.062080964 0.026514817 0.10875267 0.093669444 0.09328336 -0.037342925 0.11699835
-0.01090174 0.10662546 -0.09041938 0.059949014 -0.07535518 -0.06701547 -0.0005248967 0.01779458
0.10673111 0.07921601 0.013656648 -0.057337392 -0.03469519 -0.015447639 -0.045449957 0.100666225
0.0066632903 0.11990862 0.057725396 0.026848026 0.0027442542 -0.053721502 -0.0050022285 0.07443035
0.08635284 0.0055852425 0.026095057 -0.09458097 0.03689723 -0.11092421 -0.07655636 0.045635726
-0.05898592 -0.075875714 -0.12573859 0.020284167 0.0028633755 0.0066816215 0.086292595 0.091017365
0.017378636 -0.0015944754 -0.009962073 -0.11408366 -0.046026386 0.0013461086 -0.10024932 0.06549273
0.09844097 0.10115813 0.026611853 -0.009729322 -0.05362107 -0.006689976 0.08995189 0.06890134
0.074402586 0.078381844 -0.090192676 -0.07473165 -0.01799386 -0.05765982 0.11228814 0.070398144
0.02146692 -0.111080855 0.048260882 0.013457488 0.10513887 -0.017581718 -0.11440073 0.058802724
-0.033965617 -0.010401461 0.047385547 0.062723 0.116139635 0.10936957 -0.05566902 0.037728276
0.05124339 -0.01744977 -0.0711134 -0.03477421 -0.09514553 0.044477686 0.027205652 -0.005105553
-0.04714197 -0.07640493 0.071783386 -0.023558373 0.018265905 0.026162986 0.05391508 -0.00811508
-0.145266 -0.07832968 -0.0024982353 -0.054168683 -0.00090186397 0.048232306 0.025969839 0.056509845
0.080998726 -0.118518345 0.039559726 0.04741113 0.002101208 0.019975668 0.03450357 0.030719789
-0.095948 -0.10425538 0.0030097356 0.014260171 -0.10526671 -0.06492945 0.025252901 -0.010331024
-0.06786506 -0.034353904 0.03562517 0.11224599 0.06555098 -0.03526019 0.061864626 -0.0004982726
-0.036124956 -0.12187967 0.14814703 0.09843654 -0.022433152 0.09552207 0.09410638 0.0067960927
0.06128418 -0.13591257 -0.08347119 0.04678292 -0.017859759 -0.07947505 -0.062098756 0.042941336
0.0150726065 0.10414083 0.026590182 0.015511283 0.016237026 0.11853651 0.0007173197 -0.14168985
0.017837968 -0.13803254 -0.080555044 0.10398072 0.096495755 -0.016866315 -0.019498728 -0.08231669
0.024634454 -0.04314127 0.020204144 -0.07979679 0.11495117 0.03267041 -0.0006711678 0.00038391378
0.03491207 -0.016380483 0.106738426 -0.0072886366 0.0036575466 -0.11189098 0.16854939 -0.08349687
00000000: 0aaf 973d c97f d2bc b9a9 1e3d 835d 8c3d
00000010: 49bf 4e3c 9a5b 39bd 2833 fa3d c44a a23d
00000020: 30d8 f8bc 229d e63d b41f a63c 0921 38bc
00000030: 6473 bbbc cc6b 63bd d544 573d a4d6 07be
00000040: 6c7c b6bd 5422 cd3c 6a5d 0bbe 456b 1a3d
00000050: 2471 77bd aee7 e6bd cfa4 893c caa3 e83d
00000060: 9291 31bd 5cee 05be d02a e73c b607 823d
00000070: 7e21 cfbd 1d94 babd 09c8 bd3d f553 7d3d
00000080: 9448 89bd fb33 013e 9a9d c7bd ee4d c8bd
00000090: 4405 aa3c 5866 7c3d 1ccc 613b 7fbf 0dbe
000000a0: dfbf e3bd 241d da3d 2ca7 9f3d 4c16 56bd
000000b0: 64ac 6abd 18b5 febd c295 7cbd 6f63 763d
000000c0: d95e ca3c ba29 b4bd 4dca 03be 9c3a 853d
000000d0: df40 bcbd 0fd2 b73d e3b6 0b3d 2431 3cbd
000000e0: 4a9e 043e d5f8 223e 66d6 f83c 776b adbc
000000f0: dc7a e63d 692d 93bd 212b 9abc 694d b3bd
00000100: 79be e63d 95bd 9fbc a528 52bd 938a 153c
00000110: e963 973d 4cd4 35bd 9c81 33bd ce13 96bc
00000120: 1471 153d 9c48 7ebd 9a35 d93c b8b9 de3d
00000130: c4d5 bf3d 590b bf3d e5f4 18bd d59c ef3d
00000140: 369d 32bc 735e da3d cc2d b9bd 198d 753d
00000150: d153 9abd 683f 89bd 3999 09ba f0c5 913c
00000160: d795 da3d 013c a23d 22c0 5f3c 9dda 6abd
00000170: 8b1c 0ebd 1818 7dbc bc29 3abd 182a ce3d
00000180: bb57 da3b a792 f53d 7771 6c3d 64f0 db3c
00000190: f2d8 333b 140b 5cbd bce9 a3bb f06e 983d
000001a0: c2d9 b03d 6904 b73b 4dc5 d53c abb3 c1bd
000001b0: 8d21 173d 3b2c e3bd 95c9 9cbd 87ec 3a3d
000001c0: 389b 71bd ba64 9bbd 9ec1 00be fb2a a63c
000001d0: 78a7 3b3b 81f1 da3b 2cba b03d 5067 ba3d
000001e0: a45d 8e3c b7fd d0ba f637 23bc b2a4 e9bd
000001f0: 2a86 3cbd e96f b03a 844f cdbd 0d21 863d
00000200: 6b9b c93d fe2b cf3d 1a01 da3c bc67 1fbc
00000210: c4a1 5bbd 9637 dbbb b238 b83d 251c 8d3d
00000220: 6260 983d a986 a03d f0b6 b8bd e80c 99bd
00000230: dc67 93bc b42c 6cbd 53f7 e53d e72c 903d
00000240: 65db af3c 5c7e e3bd 34ad 453d cc7c 5c3c
00000250: 0c53 d73d 8907 90bc ee4a eabd 20db 703d
00000260: 881f 0bbd e46a 2abc 5917 423d eb74 803d
00000270: 9eda ed3d 27fd df3d 3305 64bd f788 1a3d
00000280: 97e4 513d d2f2 8ebc e7a3 91bd 676f 0ebd
00000290: a9db c2bd 3c2e 363d 63de de3c 7c4c a7bb
000002a0: f017 41bd 307a 9cbd 2b03 933d 7dfd c0bc
000002b0: 61a2 953c c253 d63c 0fd6 5c3d 1df5 04bc
000002c0: 9cc0 14be 506b a0bd 6fb9 23bb fbdf 5dbd
000002d0: 116b 6cba 3d8f 453d b3be d43c de76 673d
000002e0: a9e2 a53d bfb9 f2bd 6109 223d 2c32 423d
000002f0: 6cb4 093b 03a4 a33c 9e53 0d3d 11a8 fb3c
00000300: 6380 c4bd d883 d5bd fc3e 453b 7ea3 693c
00000310: 1396 d7bd bbf9 84bd 2cdf ce3c 7543 29bc
00000320: d6fc 8abd aeb6 0cbd b3eb 113d 3ae1 e53d
00000330: 983f 863d fd6c 10bd c365 7d3d 829e 02ba
00000340: c3f7 13bd 0c9c f9bd dbb3 173e 1999 c93d
00000350: bbc5 b7bc 13a1 c33d d9ba c03d c2b1 de3b
00000360: 1f05 7b3d aa2c 0bbe f1f2 aabd 729f 3f3d
00000370: a14e 92bc d1c3 a2bd 445b 7ebd 41e3 2f3d
00000380: 18f3 763c ca47 d53d a7d3 d93c 0923 7e3c
00000390: 8303 853c 45c3 f23d 830a 3c3a 2517 11be
000003a0: ee20 923c 6758 0dbe 0bfa a4bd d8f3 d43d
000003b0: 919f c53d 3a2b 8abc ccbb 9fbc a795 a8bd
000003c0: 32ce c93c e6b4 30bd 2983 a53c 806c a3bd
000003d0: 856b eb3d 68d1 053d 4ff1 2fba 0948 c939
000003e0: f5ff 0e3d 5d30 86bc ad99 da3d 84d5 eebb
000003f0: 73b3 6f3b 1927 e5bd 3698 2c3e 6800 abbd
