gru_classifier_weights/llama-3-8b_a100_tp2.pt (torch, 117957 bytes, 10 tensors)

gru.weight_ih_l0 f4 [192, 6]
00000000: 56bc 4e3b 3594 f53d 4ea0 b8bd 60da 25bc
00000010: 872f a1bd 78d5 fa3c 4af1 3e3b a0db 293e
00000020: 263f edbd d04f a03d a260 6f3d 4cea 453e
00000030: 9fb6 473d 5b9f 3b3d 1fea de3c f2b0 a1bd
00000040: a0ab 1b3e 98bc a33d 211f c03c 638e e23d
00000050: e50d 993d f71a 483d ce75 3d3d 6609 3dbc
00000060: dee7 63bd 7564 2ebd 324e 33bd fb2f a8bd
00000070: 0288 aa3c 4643 183d 3068 ccbd 2856 1a3c
00000080: ee39 1fbe 9032 87bd 9b9c bb3c 86e3 dc3d
00000090: fae2 423b 1506 7c3d ebdd ac3c d8d0 a43c
000000a0: 5640 ce3d 59b4 823d ccbf 7ebd 3719 763c
000000b0: 5859 48be 1438 b0bd d04f d5bd 4993 153a
000000c0: d968 61bd 5878 acbd 29b2 c0bc 8f03 f43d
000000d0: 7a5a bf3d 0abb 43bd 07a3 e4bd 3a79 c9bd
000000e0: 3be1 203d a370 cf3a 1ef8 873c 5c9a 15be
000000f0: 0877 843d da51 d3bd 3c92 c0bd a14e 5b3c
00000100: bf76 80bc f383 d1bd 6990 0dbe 5e9b a4bd
00000110: 2684 19be 7352 823c e3ae a73c e9b0 babd
00000120: 847d b1bd 1f37 9b3d 88a7 31bd cef2 4dbd
00000130: f960 043d e57b 7ebd 57f3 0e3e bfd9 003e
00000140: c504 ce3d 63c4 bf3c f6de 1d3e cfd4 e33c
00000150: 87f3 d6bd 67c7 49bd 5dd8 f3bd 0bbb b23c
00000160: 0738 54bd 4c20 033d 84f5 29be 7611 8cbc
00000170: 9acd 79bd 2767 253d 9b71 033e 6b96 b43d
00000180: a770 11be 072b 4ebc 91d8 6ebc 8d62 393d
00000190: 8011 a23d 791e efbd e972 0d3e 6039 f43d
000001a0: d534 09be 6935 553e 740a 923d 4fdf 2d3e
000001b0: 2b73 ca3d 0dea 5e3d 7c9a d23c 333b 293e
000001c0: f505 3b3d 2a4c 503e 21f3 fb3a bbc6 a73d
000001d0: f983 94bd 85c5 d03d 7663 143e c387 663e
000001e0: 4bf4 a9bd 1c7b ed3d e776 63bc 5800 2d3d
000001f0: 8b71 ea3d a34e 2f3e f04f e13d d280 fb3d
00000200: 8151 f5bd eb59 cbbd 6257 453b 6fc1 733c
00000210: bf9f 423c af67 e5bd 09af 4e3d d4a9 313e
00000220: 15ac 123d 9739 293e 21d7 16bd 5460 82bd
00000230: 479b e73d 546b bbbc 835b 433d 7e02 873c
00000240: 08d1 a4bd 3143 b1bd 8d38 303d 7462 583d
00000250: 8d26 24be 0388 f6bc 1134 a7bd bf48 08be
00000260: 63bf f2bd dd07 bb3b 10fe e83c 805e b53d
00000270: c191 94bd 4db4 db3d eedb 953c 49e7 f2ba
00000280: 9243 92bd 0f12 c0bc 2490 173e 2ea1 a2bd
00000290: 2750 a6bd 7ade fe3d ec79 9e3d 5f5e a6bd
000002a0: 5de6 ef3d 298d 3abb a506 93bd 8c1c 80bd
000002b0: f57d 1fbd af42 b1bd 451c 03bd 48ef 1a3e
000002c0: fccb ebbd 9da7 4fbd 09e8 0a3d a0d4 103e
000002d0: 7b2c 6d3d 6633 eb3d b98c afbd 096d 733d
000002e0: 6846 cc3d e783 4e3e 633f 3c3c 8405 8cbd
000002f0: f6fa 9bbd 8f0b 273e 1458 233e 95bb 9b3d
00000300: e325 963d 70dc 37bd 3e54 c7bc a46d 6b3e
00000310: 4cfa e73c 61c4 553e 03f2 e83d e195 0dbe
00000320: 8f60 84bd 84cd 053e 9223 a0bd 358a a8bd
00000330: 47c5 a7bd 939d 0cbe 531b a2bd 4507 a7bd
00000340: 0681 39be 823a 01bd 6977 73bd 0790 073d
00000350: 0a11 f2bd e70c 9b3a 5b4d a2bd 5327 7e3d
00000360: 7cf2 dfbb 8340 a9bc 9f2b 27bc 88ab f43d
00000370: 9551 283e 9aa7 943d 6d92 c73d 9b92 a83d
00000380: 5b67 ae3d 2749 4abb 2908 97bd c076 213e
00000390: 737c f53c aa3a 983c adc7 68bd 7002 4c3e
000003a0: 2983 ebbc b366 8a3d f3e0 293e ac1e 253e
000003b0: 6002 9abd ca19 4fbd 57be c23d 7e96 ad3d
000003c0: 2084 913c ee31 c9bc 5f67 03bc 9bc0 a1bb
000003d0: e897 a03d ea32 6c3d 1c75 263c 7f2c 89bd
000003e0: 5d11 933d 8b26 4bbd ebf7 52bd 6254 4d3d
000003f0: 6fe1 1cbd ded1 8c3d 1f33 963d 9ac5 bcbc
0.0031545362 0.11991159 -0.09014951 -0.010122865 -0.07870393 0.030619368 0.0029135519 0.16587687
-0.1158431 0.07827723 0.058441766 0.19327658 0.048758145 0.04580627 0.027211247 -0.07895078
0.15202188 0.07994956 0.023452343 0.11062314 0.07473353 0.04885384 0.046254925 -0.011537885
-0.055641048 -0.042576272 -0.043775745 -0.082122765 0.020816807 0.037173532 -0.0998081 0.009419955
-0.15549442 -0.06601441 0.022901824 0.10785584 0.002973734 0.061529238 0.021101912 0.020119116
0.10070865 0.06382055 -0.06219463 0.01502066 -0.19565332 -0.08604446 -0.10415614 0.0005705846
-0.05503163 -0.08421391 -0.023522453 0.11914741 0.09343429 -0.047785796 -0.111639075 -0.09837575
0.039277297 0.0015826415 0.016597804 -0.14609665 0.06468016 -0.10318346 -0.09402892 0.013385446
-0.015681623 -0.102302454 -0.1382462 -0.080374464 -0.14991817 0.015908455 0.020469135 -0.09115774
-0.08666518 0.07578873 -0.04337266 -0.050280385 0.032319043 -0.062129874 0.13960014 0.12583064
0.100595035 0.023409074 0.15417084 0.027811436 -0.10495668 -0.04926243 -0.119065024 0.021817705
-0.051811244 0.032013223 -0.16597563 -0.01709817 -0.060987093 0.040381577 0.12836306 0.088177525
-0.1420313 -0.012583501 -0.014578001 0.04526 0.07913494 -0.11675734 0.13813366 0.11925006
-0.1339906 0.20821156 0.071309 0.16979717 0.09885248 0.054422427 0.02570843 0.16526489
0.045659978 0.20341554 0.0019222238 0.08192202 -0.07251734 0.10193924 0.14491066 0.22512726
-0.08298548 0.11595747 -0.013883329 0.042236656 0.11447438 0.17119841 0.11001575 0.1228043
-0.11978436 -0.0992926 0.0030111899 0.014877661 0.011878907 -0.11201417 0.050459895 0.1734994
0.03580864 0.16525875 -0.036826257 -0.063660294 0.11308914 -0.022878326 0.047694694 0.01648068
-0.08047682 -0.08655394 0.04302268 0.052828267 -0.16030331 -0.030094152 -0.08164228 -0.13309
-0.1185291 0.0057077245 0.028441459 0.08855915 -0.07254363 0.10727749 0.018293347 -0.0018532063
-0.07141794 -0.023446111 0.14801079 -0.07940899 -0.081207566 0.12444778 0.077380985 -0.081234686
0.1171386 -0.0028465486 -0.07179002 -0.06255445 -0.03893848 -0.08655297 -0.03200938 0.15130341
-0.11513516 -0.050696958 0.033912692 0.1414361 0.057903748 0.11484413 -0.085717626 0.059430156
0.099743664 0.20167504 0.011489722 -0.068369895 -0.076162264 0.16313003 0.15951568 0.07604138
0.07331445 -0.04488796 -0.024332162 0.22991043 0.028317593 0.20875694 0.11374285 -0.13826706
-0.064637296 0.13066679 -0.078192845 -0.08229486 -0.081919245 -0.13731985 -0.07915368 -0.081556834
-0.18115625 -0.031549938 -0.05944005 0.03309634 -0.11819656 0.0011829407 -0.07924911 0.06204922
-0.0068343263 -0.020660644 -0.010203271 0.119467795 0.16437371 0.0725853 0.097447254 0.08231088
0.08515807 -0.0030866356 -0.07374603 0.15767956 0.029966569 0.01858266 -0.05683105 0.19922805
-0.028749065 0.067578696 0.16589718 0.16124982 -0.07519984 -0.050561704 0.09508961 0.0847597
0.017763197 -0.024559941 -0.008020251 -0.0049362904 0.07841474 0.057665743 0.010159757 -0.0669794
0.07181046 -0.049597304 -0.051505964 0.0501293 -0.038300928 0.068759665 0.07333969 -0.023043443

gru.weight_hh_l0 f4 [192, 64]
00000000: 918c 84bd 5046 42bd fad0 84bd 867d 743d
00000010: 869b fcbd b6e1 a83c 97c7 153d 7ddb a83b
00000020: 7e54 823d 0e9c f7bd e34c a3bb d17e b0bd
00000030: cec9 c8bc 1905 293e 8797 d03c 094e 7bbd
00000040: 7787 8cbd 45e4 833c 1f2d ddbc 0419 643d
00000050: 7b73 efbc 8967 1e3e 1b84 3e3b a98d 363e
00000060: fd51 ff3c 2b11 ba3d 76cb ccbb 43cf babb
00000070: 6d63 f7bc ecd5 e6bc 9e3d d6bc 6722 403d
00000080: 42aa 25be f555 a03c ccc3 3abd f310 c6bc
00000090: e4a4 07be 46f7 99bd f768 a83c f663 ca3d
000000a0: 89fb e43d f59e ea3d e0a9 afbd e869 94bd
000000b0: 0f1c d0bc f1b4 873c e55b 203d cb09 fd3c
000000c0: bce0 0ebe ca82 dd3d 36b2 813d c081 2dbd
000000d0: df40 b53c 3024 143d 321f 123e 1f49 d0bd
000000e0: 2a7f c73d 1e32 2b3c 5d16 8dbd b9f0 a4bd
000000f0: 7f54 cb3c e241 473e 4012 06be 3843 483c
00000100: fc28 dfbd 1d50 55bd 237e 3c3d a0aa ee3d
00000110: 2952 333d 0f71 353d f652 79bd c615 d03d
00000120: 22c4 bf3d 55ec 413c b69d 343c 92d2 d1bd
00000130: 054b 0c3e 50f0 47bd e59a 06bd 917a 8bbc
00000140: e107 fb3d 5350 623d b05a bdbd a628 4b3d
00000150: f54b 77bc 462a c0bd 3edd ecba 5439 e4bc
00000160: 1820 b23d b523 b2bd 4d7c b93d 4605 05bd
00000170: bbfd 233d d9f3 253e 7f71 993c 58f4 51bd
00000180: 683e a1bd a4da 1a3e da16 b0b8 e5e3 063d
00000190: 6433 eabd 7ca0 25bd cf0a 093d ef81 c6bd
000001a0: 5669 71bd 2a96 fa3d 0b19 0f3e 6b39 be3d
000001b0: f60a f2bb 6cf0 af3d cc0c 87bd 545e 01be
000001c0: c1fb 06be 1de9 babc 1b9b 16be 6902 87bd
000001d0: 82dc a33c c93f f93d d573 a63d 2c6d c53d
000001e0: fdaa e03d 2929 a03d b057 133d cd8e bdbd
000001f0: 9ac7 e03d 2fbc ec3d a975 c9bc 4ebf c63d
00000200: 25d5 9f3d 26ee 6fbb c88b 043e 99e3 2abc
00000210: 7042 96bd f6da 4ebd acd6 50bb 2973 c5bd
00000220: 6d92 92bd 4de8 b93c 8311 fbbd b405 0f3e
00000230: 2541 99bd f0fb 263e 4273 e7bd 035a 963d
00000240: d43d 3c3d 33cf a4bc a2f4 053c 1545 6cbd
00000250: 9cea e8bb fee8 c4bb 01c4 98bd a6e4 d7bc
00000260: a22a 15be 176c c4bc 4268 12be 8e99 be3d
00000270: b38a bbbc 1abf f0bc 3c1c cabd 7f5d 0d3e
00000280: 0bb5 c93d ec2c fd3d 7485 84bc 12a3 243e
00000290: b5d5 0bbe d7b3 ccbd de10 0abc 4a2e 35bd
000002a0: abf3 fdbd ff26 5a3d 0608 6abd ae49 e63a
000002b0: 4c24 303d 1539 be3d 1795 ba3d ce09 6cba
000002c0: a171 c33d 8f92 ef3d aa41 babd cf27 a13d
000002d0: c8d8 04be ce2b f0bd e835 7a3d 1cab 0abd
000002e0: 8b05 3fbd d59b 8ebd 711f a63c 715d a83d
000002f0: 05fe 1dbd 75f3 95bd 236a 5cbc 9797 8fbd
00000300: 7f84 333b d790 abbd 81d9 e63d d43d eebd
00000310: 7786 18be 7be2 dfbd 54d4 4b3d 4829 41bd
00000320: 8a92 3c3d 24e4 ac3d 1590 12bd 9042 a63d
00000330: a78f 3c3d 8442 02be 39bb 25bd ab0c 783c
00000340: 229c 2f3e abb6 f0bc f5d6 913d d0da 3dbd
00000350: 69ae 153d 8caa 723c 8142 1f3e 14fe 5a3e
00000360: f212 6f3d 0073 d93d a5dd e03c 5aeb 7b3d
00000370: 42fa 54bc 5080 823c 083b 0ebc 1603 dd3d
00000380: 6a8f 5f3c 8155 18bd 7492 fd3d 28f0 4fbc
00000390: 4e92 cebd 6a88 05be 28b3 cd3d 91d2 ad3c
000003a0: 5d51 01bd 2b86 933d d8a6 5abc 5fdf 42ba
000003b0: 82a6 99bd 74ee 77bd 604f bf3c edd6 1c3d
000003c0: f0b6 03be 792e 483d b57e 27be 7e75 b33d
000003d0: a4c9 c03d 8c5b 07bd 0c97 b2bd e380 abbb
000003e0: 8534 23bd 9b99 873d a4cb d2bc d46a 15bc
000003f0: 49d2 38be 956c 873c a80c 913d e751 053e
-0.064721234 -0.047430336 -0.064851716 0.05969002 -0.12334351 0.02061544 0.036567297 0.005153118
0.06363772 -0.12090312 -0.004983531 -0.08617938 -0.02451029 0.16505851 0.025462879 -0.061353717
-0.06861775 0.016100058 -0.026999054 0.05568792 -0.02922987 0.15469183 0.002907044 0.17827477
0.031167025 0.09085306 -0.0062498404 -0.005700977 -0.030198777 -0.028178178 -0.026152428 0.04690781
-0.1617823 0.019572238 -0.045596883 -0.024178004 -0.13246495 -0.07517867 0.020557864 0.09882347
0.11180789 0.114561 -0.08577323 -0.072467625 -0.025404004 0.016565772 0.039150137 0.030888459
-0.13952917 0.10815962 0.06332819 -0.042360067 0.02212566 0.036167324 0.14269713 -0.10170197
0.097410515 0.010448961 -0.06889031 -0.08053727 0.024820564 0.19458726 -0.130929 0.012223057
-0.10896489 -0.052078355 0.04601873 0.11653638 0.043779526 0.044297274 -0.060870133 0.10160403
0.09363581 0.011836131 0.011023929 -0.10245241 0.13700493 -0.048813164 -0.032862563 -0.017026218
0.12257362 0.055252384 -0.09245813 0.049599312 -0.015093793 -0.09383063 -0.0018071306 -0.027859367
0.08697528 -0.08698217 0.090569116 -0.032475732 0.040036898 0.16206302 0.018730877 -0.051258415
-0.07873231 0.15122467 -8.3965904e-05 0.03293218 -0.11435583 -0.040436253 0.033457574 -0.096927516
-0.058938347 0.12235673 0.13974397 0.09288295 -0.0073865606 0.08590779 -0.06594238 -0.1263364
-0.13181974 -0.022816235 -0.14707606 -0.065922566 0.020002607 0.12170369 0.08127562 0.096399635
0.109701134 0.07820351 0.035972297 -0.09255753 0.10975571 0.11559331 -0.024592238 0.09704457
0.07804326 -0.0036610453 0.12943947 -0.01043024 -0.07336891 -0.050501786 -0.0031866236 -0.09641106
-0.07156835 0.022693777 -0.122591995 0.1396702 -0.074831285 0.16307044 -0.113012806 0.07341387
0.0459574 -0.020118332 0.008176001 -0.05768307 -0.0071080457 -0.00600922 -0.0745926 -0.026354145
-0.14567044 -0.023977323 -0.14297584 0.09306632 -0.022893285 -0.029388 -0.098686665 0.13805197
0.09848984 0.12362084 -0.016176917 0.16077831 -0.13655742 -0.09995239 -0.008426873 -0.044233598
-0.123999916 0.053259846 -0.057136558 0.0017569566 0.043003365 0.09288231 0.09110468 -0.00090041466
0.09543157 0.11697876 -0.09094556 0.07868921 -0.1297332 -0.11727105 0.061086565 -0.03385459
-0.046636146 -0.06963316 0.020278664 0.082209475 -0.03857233 -0.07321826 -0.013453039 -0.07011335
0.0027392206 -0.083772354 0.11271954 -0.116328865 -0.14895044 -0.109318696 0.04976304 -0.04715851
0.046038188 0.08441952 -0.03578194 0.081181645 0.046035435 -0.12720686 -0.040461753 0.015139739
0.17149404 -0.029383978 0.07121078 -0.046351254 0.036543284 0.014811169 0.15552713 0.21385986
0.058367677 0.10617638 0.027449438 0.061503746 -0.012999119 0.015930325 -0.008681066 0.10791604
0.013645032 -0.037190918 0.12381449 -0.012691535 -0.10086499 -0.13040319 0.10043937 0.02121857
-0.031571735 0.07203325 -0.013345443 -0.00074337976 -0.07502462 -0.06053014 0.023353279 0.038290907
-0.12862754 0.048872445 -0.16356929 0.08762644 0.0941346 -0.03304629 -0.08720216 -0.0052338704
-0.03984501 0.06621095 -0.025731869 -0.009119708 -0.18048967 0.016531268 0.07082492 0.13019525

gru.bias_ih_l0 f4 [192]
00000000: 70b0 23bc 1df1 69bd fd9e 8bbd 99ea 013e
00000010: 9407 d83d dbe8 31bd 050a eeba 9b12 833d
00000020: 1885 df3d 2360 b0bd a06f 183e aacf fa3c
00000030: 37a6 cfbd 49f3 ddbd 0bc3 afbd e340 3dbd
00000040: 649e ccbc 9cb7 fd3d 5f05 f73d 65f5 83bc
00000050: 3318 213e d72a 063c 6f9f ceba 560d 733c
00000060: 6151 22bd 25b0 0f3e ce1e 19bd cadd 293e
00000070: 041e febc e888 a53d 4ab1 16bd 2c42 b13d
00000080: b907 613c ad37 273d 8152 2f3c 1e67 09bd
00000090: 182f bdbd 46c7 0abd 170b 7bbd 520a f839
000000a0: 8369 4a3d 0dce 9fbd 4fef b63d 719a ad3d
000000b0: 87ea 733d fc35 dd3c 4f52 883c 97cf 7abd
000000c0: 358f 80bd f327 8d3d ce42 093d 1313 713d
000000d0: 29ae 2a3d eef8 eb3d 398a 00bd 0b52 623d
000000e0: 3c12 72bd d9b6 a53d b53f 143d b156 9e3d
000000f0: 9b2a 67bd 4be2 423d 4d75 ecbc d8f6 933d
00000100: 61ea 5a3d 104c febc 6a2c cb3d 0f03 88bd
00000110: 9f94 4b3d 699d 533d 1860 2dbc 2bba 513e
00000120: 4047 67bd 2c95 163c 781b 2c3e 75a1 213d
00000130: f2c5 413e e9b6 5a3d 5cdc 3abd 622f 4c3e
00000140: 0ff0 8c3d 52aa e73c 4968 5c3e 2248 fe3d
00000150: e891 62bd 6f4f a53d 7a2a 423e 2f23 123d
00000160: 6eee db3a 7dcf c4bd d21a f43d c1bd 0b3e
00000170: a249 453d 3fd5 85bd c91a bfbc 7bc4 f2bd
00000180: 1c60 0bbd 7743 b43c c918 c43b f050 6b3d
00000190: e408 d43d ac82 083e b1a0 0b3e a4c7 d63d
000001a0: b5e0 063e 941d 493e 279e f1bc abaf 203e
000001b0: b68d 533d 6f8c 29bd 2668 333e 82d5 473e
000001c0: 13d7 8f3d 1f7e 3cbc a93f b33c 3752 8a3d
000001d0: ad83 253e 5bb2 853e 8bb0 393e a830 613d
000001e0: fb04 493e 7d69 103e 5e85 c83d ac0a d93d
000001f0: 6158 d93d 7a79 f13d 1697 593d d0f4 34bd
00000200: 09dd 8cbd 6016 89bd dfca a1bd a9b5 fc3d
00000210: d792 a3bd c367 24bd 0067 f13d 3dcf 093d
00000220: 852c d7ba 112f 33bd 32bd d73d c9c9 2bbd
00000230: d00c 893d f612 ac3d 946c 533d 1351 d43c
00000240: 1c11 fd3c bf35 c93d cf10 88bd 6509 123d
00000250: d566 893d 04eb f63c 220f 33bc f41f 13bd
00000260: 51ca 873d f842 cbbd 9510 b93c 10a2 59bd
00000270: e310 083c f04e 073e 1839 28bd 7cd6 bab5
00000280: b902 a1bd abd4 d73d 1f4b 08bd 8215 e5bd
00000290: 2226 5f3d 7e7a f53c 744a 4bbd 5c4f 9dbd
000002a0: 3005 fb3d f3fa a33d d5de 093d f299 c33b
000002b0: ffe8 b3bc 1aba 2a3d ec94 63bd cdea 8abc
000002c0: d16b dc3b 9320 38bc 231b e9bd f600 5b3d
000002d0: 4f9c 103b cf49 dc3c cfe1 073e 38f9 edbd
000002e0: 84ca a43d 62c5 12bd 2c00 f1bd bbad f3bd
000002f0: a121 933d 1a6f dc3d 6909 81bd e6f1 85bd
-0.009990796 -0.05711471 -0.06817434 0.12687148 0.105483204 -0.04343496 -0.0018160945 0.06400033
0.109140575 -0.086120866 0.14886332 0.0306166 -0.10139125 -0.108374186 -0.08582123 -0.04620446
-0.02497787 0.12388536 0.12061571 -0.016108224 0.15731888 0.008188925 -0.0015764068 0.0148347225
-0.03962839 0.14032038 -0.037382893 0.16588512 -0.031020172 0.080827534 -0.03679017 0.086551994
0.013734751 0.04082458 0.010700823 -0.033545606 -0.09237498 -0.03388145 -0.061289873 0.00047309935
0.04941703 -0.07802973 0.08932363 0.08476723 0.059549835 0.02700328 0.01664081 -0.06123313
-0.062773146 0.06892385 0.033510976 0.05885608 0.04167 0.11522089 -0.03138182 0.055254024
-0.05909942 0.08091516 0.03619357 0.07731379 -0.056437116 0.04757909 -0.028864527 0.07224816
0.053446177 -0.031042129 0.09920581 -0.066412084 0.049702283 0.05166379 -0.010581993 0.20481174
-0.056464434 0.009190839 0.16807353 0.039460618 0.18923166 0.053397093 -0.045620307 0.1993995
0.06881725 0.028279457 0.21524157 0.12416102 -0.05531493 0.080717914 0.18961516 0.035678085
0.0016779432 -0.09609888 0.11919178 0.13646604 0.048165925 -0.06534814 -0.023328202 -0.11853882
-0.034027204 0.022004826 0.0059844 0.057450235 0.10353258 0.13331097 0.13635518 0.10487297
0.13171656 0.1964019 -0.029494358 0.15692012 0.051648818 -0.041393694 0.17520198 0.1951504
0.07023444 -0.011504679 0.021880941 0.067539625 0.16163512 0.26112637 0.18133752 0.054978043
0.19630806 0.1410274 0.09791063 0.105977386 0.1061256 0.11790748 0.053122602 -0.044178784
-0.068780966 -0.06693721 -0.07900023 0.123393364 -0.07986992 -0.040138017 0.11787224 0.033644903
-0.0016416466 -0.043746058 0.10534133 -0.041940484 0.06691897 0.08402054 0.05161722 0.025917565
0.030891947 0.098247044 -0.06643831 0.03565349 0.06709067 0.030141361 -0.010928901 -0.035919145
0.06630386 -0.09924883 0.022590915 -0.05313307 0.008304807 0.13213706 -0.041070074 -1.3920503e-06
-0.078618474 0.1053861 -0.033274766 -0.11185743 0.054479726 0.029965635 -0.04963155 -0.07681152
0.12256849 0.08006849 0.033659775 0.0059692794 -0.021961687 0.041681387 -0.055561945 -0.016957665
0.00672672 -0.011238235 -0.11382129 0.053467713 0.0022065823 0.026890663 0.13269733 -0.116198
0.08046439 -0.03583277 -0.11767611 -0.11898371 0.071841486 0.107633784 -0.06300623 -0.06540279

gru.bias_hh_l0 f4 [192]
00000000: 347f ac3d 3a1a aebd 16e4 b5bd 13f7 9e3c
00000010: b6bb 023e 2b0f 143e da2a 313d 44e9 8f3d
00000020: 1305 6ebd 3497 f8bc bc3e eebc 293b 273e
00000030: 80fb c03d 97cf fabd 70c5 8c3d cee1 be3d
00000040: cc47 7cbd a08e e13c bae4 6f3d cdd7 543d
00000050: 6aa8 013e 9f99 a83d 3699 39bd a2da 313d
00000060: 84d0 b4bd 9887 883a c579 27bc 2971 60bd
00000070: e70f e73d 4e84 0ebd 488f d83d 127e ebbd
00000080: 90b2 1c3e 71c4 7c3d 66d7 163e 2967 d73c
00000090: d8d6 b43d e460 a73c 1ac2 8b3c 1e8b b03d
000000a0: 228e 083e 1a92 83bd 5a04 89ba 00fd 0e3e
000000b0: 3ac3 a7bd 70c1 663c be35 883d eeec b53d
000000c0: 6b96 633d 1087 4f3d 685c 0c3e b4d2 e43d
000000d0: 7aeb 7f3d b5d4 96bb 81e0 68bd 74b3 a23d
000000e0: c28f 04bd c3e2 4fbd ff87 783d 5308 e23d
000000f0: b513 d0bc 246d 0e3d 2ec6 51bc ff07 4c3c
00000100: 22f0 2cbd 2fe6 093e 562b 7bbc 43a4 73bd
00000110: 62c8 fb3d 1113 7fbc 996a 9ebb 9013 473e
00000120: 5acd 25be 3302 613e 6f25 2b3e 246a 173d
00000130: acec c73a 279c a43c b5fc e13c 8e56 033e
00000140: d6c0 3b3e 57a7 fc3d c13f a13d d810 b33d
00000150: a87f 89bd 3a90 5b3d 3a87 33bb 8bc1 f1bd
00000160: 5eff 683c aa69 d43d 91db 793c c69c 1e3e
00000170: 8158 4c3e 205e 033d c53f 263e 3151 cbbb
00000180: 4714 ec3c b228 6cbd 2be3 043e 39a9 fd3c
00000190: b1bc 1d3b b1d2 b23d 6b06 003e a233 0a3e
000001a0: 8a5f 653d 811b 12bd 65dd 963d 89b3 68bd
000001b0: 31c0 d1bd 33ef bf3d dd8d ce3d 2ab4 f93c
000001c0: f905 3a3e 9cfb 7fb7 ed6f 833d 19b0 5cbc
000001d0: 9736 0c3d c157 673e b24d 81bc cc94 af3c
000001e0: b6c6 2e3d 9461 6f3d 6a50 263e 3e78 82bd
000001f0: fbab bc3d c3af d0bd 0470 dbba d4ce c63d
00000200: 1df4 f8bd 8bdf 223d 2f55 633d 02d9 2c3d
00000210: 694b 613d 4300 0cbd abad 97bd 066f 103d
00000220: ffba 403d 1685 613d 2055 b13d ff7b a13d
00000230: d946 c43d b82d fe3d 4a06 7f3d 5a51 d5bc
00000240: 29a8 89bd e2f4 9f3d 17a2 e23d a6f2 8a3c
00000250: 7b1d f7bc 6004 d13d 1465 05be ba68 8d3b
00000260: f317 5abd cd77 d1bd 5ba3 d2bd 500a 7abd
00000270: 6c76 963d 0aa9 c03d 503a 04bd a2ff 943d
00000280: b4bc ef3c b66b e03d cb32 06bd 2b6f ed3d
00000290: f505 bebd 82f2 fcbd 9a49 3a3d d3d2 3e3d
000002a0: dd8e 9fbd eff4 97bb c492 ca3d 2330 d6bd
000002b0: 3111 c0bd e077 4ebd e951 763d d57f dfbc
000002c0: a202 69bc 56cb c43d c54d cd3c 7cd6 b83c
000002d0: 80f1 8a3d 4ca7 063d e8c6 b0bd 91e3 f6bd
000002e0: 6946 1fbd 7ab6 bb3d acc5 dbbd a488 05be
000002f0: d687 383d 7c85 2b3d f8b3 9e3c f6af 4bbd
0.084226996 -0.08501096 -0.088813946 0.019404924 0.12766919 0.14458911 0.043253757 0.07026914
-0.058110308 -0.030345537 -0.029082648 0.16331162 0.0942297 -0.12246626 0.06873596 0.093204126
-0.06159191 0.02753383 0.05856774 0.051963616 0.12661901 0.08232426 -0.04531213 0.043421395
-0.08828834 0.0010416387 -0.010221903 -0.054795418 0.1128233 -0.034794144 0.10574204 -0.114986554
0.15302491 0.06171078 0.14730605 0.026294308 0.08830041 0.020431943 0.017060328 0.086202845
0.1333547 -0.06424351 -0.0010453567 0.139637 -0.081915334 0.014084205 0.066508755 0.088830814
0.05556337 0.050665915 0.13707125 0.11173001 0.062480427 -0.0046029934 -0.05685473 0.07944384
-0.03236366 -0.050753366 0.06067657 0.11036744 -0.025400022 0.034772053 -0.012803597 0.012453078
-0.042221196 0.13466714 -0.015330156 -0.059482824 0.12294079 -0.015568511 -0.004834485 0.19441056
-0.16191617 0.21973495 0.16713499 0.036966458 0.0015253029 0.02009399 0.02758632 0.12825987
0.1833528 0.12336605 0.07873488 0.08743447 -0.067138016 0.053604342 -0.0027393834 -0.118044935
0.0142210405 0.10371716 0.015250103 0.15489492 0.19955637 0.032072186 0.16235264 -0.006204747
0.028818263 -0.057655998 0.12977283 0.03096448 0.0024068768 0.087315924 0.12502448 0.13496259
0.055999316 -0.03567076 0.073664464 -0.056811843 -0.10241736 0.093717955 0.10085652 0.030481417
0.18166341 -1.5257767e-05 0.064178325 -0.013469719 0.03423175 0.22592069 -0.015784118 0.021433257
0.042669974 0.058442667 0.16241613 -0.063705906 0.0921249 -0.10189774 -0.0016741757 0.09707418
-0.12155936 0.03976397 0.05550116 0.042199142 0.055003557 -0.034179937 -0.074061714 0.03526213
0.047053333 0.05505856 0.086588144 0.078849785 0.095838256 0.12411064 0.062261857 -0.026039768
-0.06721527 0.078103796 0.110660724 0.016961407 -0.030165425 0.102059126 -0.1302684 0.004315463
-0.053245496 -0.10227928 -0.10285064 -0.06104499 0.07346806 0.09407242 -0.032282174 0.072753206
0.029264785 0.10958044 -0.032763284 0.11593469 -0.0927848 -0.12350942 0.04548035 0.046587776
-0.07790921 -0.0046373527 0.098912746 -0.104584 -0.09378279 -0.05040729 0.06013671 -0.027282635
-0.014221819 0.09609096 0.025061497 0.022563212 0.06784344 0.03287439 -0.08631688 -0.120551236
-0.038885508 0.09165664 -0.10731062 -0.13040406 0.04505142 0.041875347 0.019372925 -0.049728356

gru.weight_ih_l0_reverse f4 [192, 6]
00000000: 04e8 ef3c 5cad 043d 9da2 76bd a295 f43d
00000010: 7e2f a7bd 22f6 033d 99d9 373b 16a8 5abd
00000020: 0e58 d9bc 5da6 bcbd 8f9f 6fbd 7806 bbbd
00000030: b91e 59bd a9d2 08bd 94b3 a83d 9701 c2bd
00000040: 1d70 183e f17c 3abc aa3a ddbd 0cec f5bd
00000050: 377c 4ebe e3eb 623d c53d 203d cc10 c0bd
00000060: f619 223d 8b7e ab3d dfea 1c3d 990f 123e
00000070: 0fe6 cd3d 2216 0c3d 812d 03bd 29c0 95bd
00000080: 0ae8 a9bd f55e 93bd 09e7 31bb 46ff bbbd
00000090: 9eb8 f43c 90c9 adbd 3cab 4c3d a310 713d
000000a0: 7fdf d5bd b2a1 c8bc 6631 463e 5249 423d
000000b0: 97d4 493d b1c4 b73c 6011 e03d 728a 043e
000000c0: 2f15 b4bd c73a 873d 2dab 163e f418 433e
000000d0: c7c8 303e 6b69 f63c c75e f9bd 7bee 94bd
000000e0: d762 27be 4781 2abd 7999 993d 352a 9e3d
000000f0: 47f7 3b3d b80a 043e cfa9 373d 7948 ae3b
00000100: 22b8 b9bd e663 b4b9 997f b2bc 0742 3cbd
00000110: f58c 3fbd 5f4e c6bd 9af3 02bd 4033 f03d
00000120: ee62 063e 9a23 fa3d 0496 acbc 5f41 77bc
00000130: 6751 d0bc b440 64bd 6901 203e 8534 d33d
00000140: 69ed 35bd b731 9b3c ddcc b2bd b017 973c
00000150: e2e0 8d3d 8e0f 16bd 8c76 ebbd 4efb 70bd
00000160: 00c4 033d 1d8f 8e3d ac0b 27bd 74dd 53bd
00000170: 9afe 0dbe cd24 293c be75 9b3d 21a9 563b
00000180: 465c 2e3d b296 cd3d 8a45 7fbb fa47 9abd
00000190: 220b 05bd a958 a9bc 1405 1a3c 5351 e33c
000001a0: 1b72 e3bc 1359 05be c600 7bbd af50 e63c
000001b0: 4dbe 963d 6093 6f3d 27ea 273d f74e c4bc
000001c0: ef78 473d 9907 f23d 25d7 e13d 4ee8 193e
000001d0: f37e a8bb 8413 023d febb 81bd 70f4 ca3d
000001e0: 2f56 b93d ab0a 743d b784 e23d fab6 e23d
000001f0: 5799 ca3d 26ff 93bd 590a bb3d 8b58 9f3d
00000200: 04b5 02be f5b1 febc 49e7 243d 1923 c63c
00000210: c04d 97bb acad 88bd b2a1 1a3c 93df 353d
00000220: 7391 db3d 7d96 733c 7be8 843d 5007 ca3c
00000230: 6183 383d 0496 81bd 5761 2fbd b026 ef3d
00000240: b2a3 5cbb 796e 223e 7d9e 9abd 1d35 d03d
00000250: 5282 103e 7814 e9bc dde7 1dbc fd6a 443c
00000260: 97e2 163d 64e7 cb3d 526e d53d 9b11 2d3c
00000270: 91ff 51bd d27e 5ebc 380e 88bd 6dcd bf3d
00000280: 1ccc 3b3d 186b c4bc 63a9 f23d d3e2 df3d
00000290: b2ab cf3d bf0e 083e aa94 ea3d 7319 aa3b
000002a0: b19e 893a 68c2 5abd 1b6f 76bd 2f5b 90bd
000002b0: adc8 f43d eb5a e03d 93e8 2a3d 5e24 1a3e
000002c0: 55ba 9a3d b330 e63d 7a52 013e 5edc 3c3e
000002d0: 6319 50bd 31a9 203e abc2 393c 491b 623d
000002e0: b95a ef3d feb5 feba 0fb5 21bd 2cd1 cb3d
000002f0: b97e f2bd dc9e 143e 9346 2abd 1abf 1b3e
00000300: 14ce 043e ef16 24bd 9fe3 593b faed 09be
00000310: 611d a8bd 5e9b 5e3d 9f75 9bbc 6f2c eabd
00000320: 4dfa 8cbd d2a5 033c db4d 4b3d 80c0 cbbc
00000330: 4fbe 983c b319 553d 5bbc 333c 49c3 1cbe
00000340: 57a1 873d 832f 99bc d9df ad3d 0b69 aabc
00000350: 3a90 debd d579 913c 39a4 8f3a 6237 cbbd
00000360: e079 bf3b ddde babd 068e b1bd 891c 9cbc
00000370: 545b 1d3e 2d49 db3d 0c14 9e3d 1b7a 06be
00000380: 8f20 54bd 3525 dd3c 6dd0 f63b 8b58 d8bc
00000390: dbc0 383e 1c04 823d 2af0 a6bd fe99 99bd
000003a0: f65a 343d f479 31bc f9cf d23d 961a 86bd
000003b0: b250 28be fc4b 05bd 804f 13bd 7c55 e63d
000003c0: a133 0cbe b18a cebc 9752 8dbd 6c21 dcbc
000003d0: 87bf b23c 546b 1d3c 9802 89bd 4b48 3fbd
000003e0: f00b 38be 03a4 acbc 1fdc 69bd 11ed 393c
000003f0: fbc3 3fbd c259 b23b be80 8c3b 8db0 e1bc
0.029285438 0.03239189 -0.060213674 0.11942603 -0.08163355 0.032217152 0.0028053282 -0.053382955
-0.026531246 -0.09211419 -0.058501776 -0.09132093 -0.053007815 -0.033404026 0.08237377 -0.094729595
0.14886518 -0.011382327 -0.10802205 -0.12007913 -0.20164572 0.05540074 0.039121408 -0.09378204
0.03957554 0.083737455 0.038309928 0.14263763 0.10053646 0.034200795 -0.032025818 -0.07312042
-0.08296211 -0.07195846 -0.0027145764 -0.09179549 0.029873189 -0.084857106 0.04996799 0.058853757
-0.10443019 -0.024491165 0.19354782 0.047433205 0.049275007 0.022432657 0.10940814 0.12943438
-0.08793103 0.06603008 0.14713736 0.19052488 0.1726409 0.030079564 -0.121762805 -0.07272049
-0.16346298 -0.041627195 0.07499976 0.07722894 0.04589012 0.12894714 0.044839676 0.005318698
-0.09068324 -0.00034406706 -0.021789359 -0.045961406 -0.046765286 -0.09682917 -0.031970598 0.11728525
0.13123676 0.12213822 -0.021067627 -0.015091269 -0.02542944 -0.05572577 0.15625538 0.10312752
-0.044415865 0.018944604 -0.08730481 0.018443912 0.069276586 -0.036635928 -0.114972204 -0.058833413
0.032169342 0.069608904 -0.040782616 -0.051724866 -0.13866654 0.010323715 0.07590817 0.0032754617
0.042568468 0.100385085 -0.003895136 -0.0753326 -0.03248132 -0.02067216 0.009400625 0.02774874
-0.02776437 -0.1302226 -0.061280034 0.028114645 0.07360516 0.058490157 0.04099479 -0.023963435
0.048699316 0.118178554 0.11027364 0.15030023 -0.0051420867 0.031756893 -0.06334685 0.09909904
0.09049641 0.059580486 0.110604696 0.11070056 0.098925285 -0.072264 0.09132833 0.0778056
-0.12764364 -0.031090716 0.040259633 0.024186658 -0.004617423 -0.0667375 0.009437965 0.04440267
0.107211016 0.014867422 0.06489655 0.02466169 0.045047168 -0.06327441 -0.04281744 0.11677301
-0.0033666906 0.15862454 -0.075497605 0.101663806 0.14112213 -0.028452143 -0.0096378 0.011988399
0.036837187 0.09956244 0.104214326 0.0105632795 -0.051269118 -0.013580041 -0.06643337 0.09365354
0.04584895 -0.023976848 0.11848714 0.10931935 0.1014017 0.13286875 0.11454137 0.005191022
0.0010499564 -0.053408056 -0.060164552 -0.07048642 0.11952338 0.10954841 0.041725706 0.15052935
0.07555071 0.112397574 0.12629119 0.18443438 -0.05080546 0.15689541 0.011337916 0.055201802
0.11687226 -0.00194329 -0.03947931 0.09952006 -0.11840577 0.14513725 -0.04157121 0.15209618
0.12969238 -0.040060934 0.0033247245 -0.13469687 -0.082087286 0.05434739 -0.018976985 -0.11434256
-0.068836786 0.00803514 0.049634796 -0.024872065 0.018645434 0.05202646 0.0109702 -0.1530887
0.0662257 -0.018699413 0.08489961 -0.020802042 -0.10867353 0.01775829 0.0010958976 -0.09922673
0.005843386 -0.09124539 -0.08669667 -0.019056575 0.1536687 0.107073165 0.077186674 -0.13132517
-0.051788863 0.02699528 0.0075321705 -0.026409408 0.18042319 0.0634844 -0.081512764 -0.07500075
0.04403206 -0.010832299 0.10293574 -0.065480396 -0.16437033 -0.032543167 -0.03596449 0.112467736
-0.1369157 -0.025212618 -0.069005184 -0.026871406 0.021819843 0.009608109 -0.06689948 -0.046699803
-0.17973304 -0.0210743 -0.05709469 0.011348025 -0.04681776 0.005442829 0.004287808 -0.027550006

gru.weight_hh_l0_reverse f4 [192, 64]
00000000: 9817 a93d e03a 1dbd 63a9 c63d 1783 b5bd
00000010: f1ea 843d e413 b1bc bbd4 2dbd c391 84bb
00000020: 7734 b4bd a0bb 593d 780b ae3c dd09 cbbd
00000030: 6299 b4bd 3eed b3bd 01ea 89bd 0266 cebc
00000040: 80f0 063d 765f 1dbd 6149 903d b687 063e
00000050: 7243 253b 708b b3bc 49f9 6dbd 0038 1abd
00000060: 2765 13be c598 07be 5ac2 dc3d c6ed d33c
00000070: 01f9 ebbd f398 75bd 204d febc 04b5 083e
00000080: 1834 a5bb 7cc3 59bc 7a71 223b 62ff 2fbd
00000090: 19b4 90bd 9198 a13c 2f1f 673d f2f2 263d
000000a0: 02de a83d cb60 b93d caa5 6dbc 1f7e 923d
000000b0: f9cf 41bd b82c 3c3d 591b 5b3b 2e1a 913d
000000c0: fa23 c83d 3c6d 10be 2377 24be f21f 9d3d
000000d0: 9a81 efbc fb19 fdbc 5f10 533d b8d5 083e
000000e0: 1825 de3d bfc8 163d b48f fc3b 6d03 5cbd
000000f0: f58e fd3d 2f21 953d d94c 753d 43bd 153d
00000100: fc51 073e 346e fc3a 7ee7 5d3d e6f8 02be
00000110: 453e 90bd 29f9 c93d cb9f 143e 7816 973d
00000120: 92fc 4dbd 5f65 0fbe d7b3 86ba 4d1a aa3d
00000130: 7247 36bd dadc de3d f61b b03c e73d 2c3d
00000140: 907f c63c 1d0d 673d 1b53 323e 0854 143e
00000150: 11a7 0ebe 0090 833d 1212 323c 18dd 0c3e
00000160: 8214 5dbd 0ebb 9abd 30bb bd3d 499e 303d
00000170: 371f 56be 18e2 acbd 6bd9 c93d 1177 9b3c
00000180: fe87 2f3d 4d33 a33d 4459 8bbd dd79 b43d
00000190: be76 003e e7ea a43d d05f 3ebe 4bbe 9dbd
000001a0: 0ad2 c53b 3e40 0c3e fbf6 d33d fce0 82bd
000001b0: 0193 c5bd 6317 babc 718d 333e 040e 1ebd
000001c0: b56e ce3d df92 d3bd 48e3 18be a92f b6bd
000001d0: 0630 d5bd a5b0 5ebd 35b0 6dbd 2411 033e
000001e0: c913 0fbe 741e 583c f987 923d b59f bf3d
000001f0: c362 2e3e ac58 e93d 10ed b83d f29c 233d
00000200: 8fd3 2d3d 88bd e1bc c7e6 44bb 856e 95bd
00000210: 40fe 94bd 68fb f53d f010 a53d f0bc 57bd
00000220: f562 e6bc 91f4 e4bd 858d 663c 9f4d a8bd
00000230: 77b5 373c 93f0 583d 55dd 01be 9fd2 95bd
00000240: 2d2b 20bd ab04 143e 49f4 e3bc acbb 963d
00000250: cf1d b6ba c767 d23d 1d0d 8cbd bf7a b3bd
00000260: cfc2 9b3d 2d37 26bd 2218 f3bd 4c97 f5bc
00000270: 8d38 debd d481 9d3c ef22 5bbb 8779 c33d
00000280: fbf4 0a3e 1d12 303e 9ca0 e4bd 25d4 1a3d
00000290: d8f8 81bd 792b 9dbc b400 5abd 716f d2bd
000002a0: c67c 4d3d 2110 863b f593 d3bc 8f89 023e
000002b0: 029a adbd 553d 02be d632 ee3d e7d5 0c3d
000002c0: 15f6 8d3d 0792 423c 1dec 62bc bd69 5d3c
000002d0: 8d77 c5bd d62e adbd cc82 233e c959 223e
000002e0: 02b0 f83d 4baa 0abd 4d73 6e3d fce0 75bd
000002f0: dfab 0a3d daeb d4bd 3823 a8bd 0704 87bc
00000300: 39e6 733d 6158 993c 4911 71bd a5aa 00bd
00000310: ad32 1bbd 029e 69bc 411d 3e3d a8f3 7c3c
00000320: 980f f2bd 2479 9a3d 7555 21bd d77a 8dbd
00000330: 6396 f23d d763 8e3c 3743 963d f732 ecbd
00000340: 85f7 58bd 1316 163c 9579 673d 1761 7ebd
00000350: 0476 1abe 164f f13d fd21 92bd 7f76 9dbd
00000360: 0114 22be 40d2 adbc 61df 95bd 44e1 1abd
00000370: 3697 873d bf33 ffbc 4c37 b2bc 4e57 9f3d
00000380: 60a3 783d b26d 893b 5e5d 41bc 6e4b 003e
00000390: d8a2 d6bd c3d5 8e3b cb67 9c3d 8932 f1bc
000003a0: 685f ae3c b7db a73d 4e5f 193d a174 473d
000003b0: b363 05be d0ab 2a3e efb4 723d d55b 1a3c
000003c0: 841c 0e3e b052 263c 2681 92bd 35be d33d
000003d0: a006 6abd e817 82bc 6b31 26bd e4f3 f73d
000003e0: 8fa9 8abd 70ee 0b3d af27 08bd f62f 8a3d
000003f0: cea2 c5bd 829f abbd 4bb0 09be afa0 dc3d
0.08256453 -0.038386226 0.09700277 -0.08862894 0.06490124 -0.02161593 -0.042439204 -0.0040456965
-0.087990694 0.05315745 0.021245703 -0.09913991 -0.08818318 -0.08785485 -0.06734086 -0.025195125
0.032944202 -0.038421117 0.07045246 0.13137707 0.0025217202 -0.021917075 -0.058099065 -0.037651062
-0.14394055 -0.1324187 0.10779257 0.025870215 -0.11522103 -0.059960317 -0.031042635 0.13350302
-0.0050416104 -0.013291236 0.0024786876 -0.04296816 -0.07065601 0.01972607 0.056426223 0.040759034
0.0824547 0.09051665 -0.014504859 0.07152962 -0.04731748 0.045941085 0.0033433049 0.070850715
0.09772487 -0.1410417 -0.16061072 0.07672109 -0.029236604 -0.030896178 0.051529285 0.13362777
0.10846919 0.03681254 0.0077075604 -0.053714205 0.123807825 0.0728172 0.05988774 0.036557447
0.13214868 0.0019258917 0.054175846 -0.1279026 -0.07043127 0.09861977 0.14514081 0.073773324
-0.050289698 -0.14003514 -0.0010276985 0.08305798 -0.04450173 0.10881968 0.021497708 0.042051222
0.024230748 0.05640899 0.17414515 0.1448518 -0.13930918 0.0642395 0.010868566 0.13756216
-0.053974636 -0.07555209 0.09264219 0.043119702 -0.20910345 -0.084415615 0.09855922 0.018977674
0.0428543 0.07968769 -0.068041354 0.08812306 0.12545297 0.080526166 -0.18591237 -0.07702311
0.0060370015 0.13696381 0.10349842 -0.063905686 -0.096471794 -0.02271623 0.17534424 -0.038587585
0.100797094 -0.10330748 -0.14930451 -0.08895809 -0.1040955 -0.05436768 -0.058029372 0.12799507
-0.13972391 0.013190854 0.07154841 0.093566336 0.17029862 0.11393866 0.09029591 0.039944597
0.042438086 -0.027556196 -0.003004478 -0.072964706 -0.07275057 0.120108426 0.08059871 -0.05267042
-0.028123358 -0.1117946 0.014071827 -0.0821793 0.011212698 0.052963804 -0.12682088 -0.073155634
-0.039103676 0.14454906 -0.027826445 0.07360014 -0.0013894382 0.102737 -0.06838439 -0.08763646
0.07605516 -0.040579963 -0.11869837 -0.02997937 -0.1085063 0.019226946 -0.003343757 0.09544664
0.13570015 0.1719441 -0.11163446 0.037799973 -0.06346291 -0.019185768 -0.053223327 -0.10275162
0.05016782 0.004091278 -0.025827387 0.12747787 -0.0847664 -0.12718709 0.1163079 0.03438368
0.06931702 0.011875636 -0.013850239 0.0135139795 -0.09641943 -0.08456199 0.15967864 0.15854563
0.12142946 -0.03385381 0.05821543 -0.060029015 0.033855315 -0.103965476 -0.082098424 -0.016481413
0.05954573 0.0187189 -0.058854375 -0.03141274 -0.037890125 -0.014258863 0.046414617 0.015438952
-0.118193805 0.07542637 -0.03938814 -0.069081955 0.1184509 0.017381592 0.07337039 -0.11533158
-0.052970428 0.009160536 0.056512434 -0.06210431 -0.15084082 0.117826626 -0.07135389 -0.07688617
-0.15827943 -0.02121842 -0.07317997 -0.037812486 0.06620638 -0.031152604 -0.021754883 0.07780324
0.06070268 0.004193985 -0.011802046 0.12528774 -0.10480279 0.0043589785 0.076369844 -0.029443042
0.021285728 0.08196204 0.037444405 0.04869521 -0.13026313 0.16667104 0.059254583 0.0094213085
0.13878065 0.01015155 -0.07153539 0.103390135 -0.057135224 -0.01588054 -0.040574472 0.12107065
-0.06770622 0.03416294 -0.03324097 0.06747429 -0.09650193 -0.08380033 -0.13446157 0.107728355

gru.bias_ih_l0_reverse f4 [192]
00000000: d0fc 08bd db95 ed3c cb81 c43d eb2b d43d
00000010: e4f5 e739 0058 c93c 22fe 013e da2e 2cbd
00000020: 0d83 683d 90ca bc3d 6b44 c33d f6bc a23d
00000030: 2890 2d3d f483 843c d205 b03d c183 ae3d
00000040: 51f2 843c 6add 7cbd 880b 6dbd 53ad 8cbc
00000050: e405 fc3d 4313 d03d 8c8b e63c 29f4 d8bc
00000060: ad83 b4bc c873 00bc 2a40 193e 216d d93d
00000070: d3a5 0c3e f4bd f03c c5dd 053d 34a8 23bb
00000080: 6029 3d3d 17d0 8a3d 0aab 393e cf20 973d
00000090: cd0a e23c e9c1 de3d cf85 a13d da49 193c
000000a0: 8b5b ce3c 1ba0 4b3d f603 3c3d ac01 493e
000000b0: a864 6c3d 165a 223e ce02 153e 39f9 f13c
000000c0: 0658 11bd 2c4e fd3d 8f16 c5bb d9f5 65bd
000000d0: d68f 89bd bc88 ec3d 1a61 1a3e 076c 283e
000000e0: 5be9 53bc 3515 273e 6b26 b43d 518c 6e3d
000000f0: 1c36 ebbc 83e4 c23d bc54 67bd ffe5 54bd
00000100: 7df7 023e 3cff f5bb de41 40bd 0f06 b9bc
00000110: 81e8 393d 2802 bf3d 4d5b dabc 5a72 b7bd
00000120: d6e8 343d cbc4 133e 774f 1a3e 675e e8bc
00000130: 9a64 823c 6ae6 f13c a7b8 02be 2d52 033e
00000140: cbc5 dc3b f20f 08be 0108 9c3c 9bb3 4f3e
00000150: 524e 273e 1c5b b93d 476a a53d f84e 2bbd
00000160: 8e9c a43c 1003 343c f80d 903c 7215 ad3c
00000170: ceac a83d d4ef c03d e965 313e 7a57 c93d
00000180: f381 333e 9d7f 8abc 060b c03c 768c b03c
00000190: 76ab 003e c17a 5b3e cc6d 823d 2186 16bd
000001a0: f401 813d 13f2 38bc c6e3 423d 0700 f93d
000001b0: 6240 b1bd 52ce 633a 7237 61bd 745d 6b3c
000001c0: 2df0 b9bc bccb 463e 2623 403e 95c3 1bbd
000001d0: db40 ac3d 7a36 e23d c5ff 1f3e d2ef 553e
000001e0: 44f3 3b3c 1cc1 ae3c 4a74 b7bb 75ef 5c3e
000001f0: a3fe ec3d 966f 043d c25a 123d 1833 343e
00000200: 1ae7 81bc 102f 763d ebbb 94bd a878 b1ba
00000210: 02b3 e1bd a1dc 64bd 7dcd 86bc 55f1 a2bd
00000220: b28e 87bd 2c0e 7fbd 88d8 9dbd 514a bb3d
00000230: 4c46 043e e1e9 753d 31c3 fd3d 8d45 f8bd
00000240: 6927 133e 9549 933d b2a2 ab3d d754 c73c
00000250: 0c25 e5bd 0060 493d 8c41 65bd ded7 f93d
00000260: 4ae2 6ebd 763d 04bc 77e2 913d 559a 9bbd
00000270: 6cf2 f9bb 6aaf cabd 1bbd 443d 3d81 e13d
00000280: 99f9 9abd 7473 3cbd 1a54 4cbd 0138 323d
00000290: 9c36 883c 9f2e fb3d 9d21 7bbc 9576 b9bd
000002a0: 854c f63d 8efc 8b3b 5d52 b8bc 6efc 003e
000002b0: e328 bc3d c7f6 d03c 4e0d fc3b e786 933d
000002c0: 2304 2a3d 7eaa 8bbd 62eb fabb 2028 7f3d
000002d0: 847f bebd ce84 ba3b ec85 983d ba91 be3d
000002e0: 3ea5 a0bd 50a6 143e e848 6a3d 7aaa f43b
000002f0: 80d0 b5bc a4d5 d33d 8a73 3bbd 4cde 3c3d
-0.033444226 0.02900212 0.095950685 0.10359939 0.00044242956 0.024578094 0.126946 -0.04203687
0.056765605 0.09218323 0.09534534 0.07946198 0.042373806 0.016176201 0.0859486 0.08521224
0.016228827 -0.061734594 -0.057872325 -0.017172491 0.12305811 0.10159924 0.028142713 -0.026483612
-0.022035444 -0.007840104 0.14965883 0.10616518 0.13735132 0.029387452 0.0326822 -0.0024972083
0.046182036 0.06777971 0.18131652 0.073793046 0.02759304 0.10876829 0.0788685 0.0093559865
0.025190135 0.049713235 0.045902215 0.19629544 0.05771318 0.15854678 0.14551851 0.029537784
-0.035484336 0.12368426 -0.006014652 -0.05614266 -0.06716888 0.115495175 0.15076104 0.16447459
-0.012934054 0.16316684 0.0879639 0.058239285 -0.028712325 0.095162414 -0.056477293 -0.051977154
0.12789722 -0.007507233 -0.046937816 -0.022585897 0.04538775 0.09326583 -0.026654864 -0.08957358
0.044167362 0.1443054 0.15069376 -0.028365327 0.015917111 0.029528815 -0.12765752 0.12824316
0.006737446 -0.13287333 0.019046785 0.20283358 0.1633847 0.09050581 0.080769114 -0.041823357
0.020094182 0.010987058 0.017584786 0.02112839 0.08236085 0.094207436 0.17324032 0.09831138
0.1753004 -0.016906554 0.023442756 0.021551352 0.12565407 0.21433546 0.06368598 -0.03674901
0.06299201 -0.011288184 0.047580503 0.12158208 -0.08654858 0.0008690107 -0.054984517 0.014365543
-0.022697533 0.19413656 0.18763408 -0.03802832 0.08410808 0.11045547 0.15624912 0.20892265
0.011471573 0.021332316 -0.0055985795 0.2157572 0.115720056 0.03233298 0.035731085 0.17597616
-0.015857268 0.060103476 -0.07262405 -0.0013539987 -0.11020471 -0.05587447 -0.016455406 -0.07956187
-0.06619014 -0.062269375 -0.07707316 0.09145034 0.12917441 0.060037497 0.123907454 -0.12122641
0.14370503 0.07191769 0.08380641 0.024332447 -0.11188707 0.04916382 -0.055970713 0.121993765
-0.058321275 -0.008071294 0.07123273 -0.07597796 -0.007627776 -0.09896739 0.048031908 0.11010978
-0.07567138 -0.046008542 -0.049884893 0.04351044 0.016627602 0.12264752 -0.015327838 -0.09055821
0.12026314 0.00427205 -0.022500211 0.12596294 0.09187486 0.025508298 0.0076920157 0.07203465
0.04150785 -0.06819628 -0.0076574543 0.062294126 -0.093016654 0.005692101 0.074474186 0.09305139
-0.078440174 0.14516568 0.057198435 0.0074666115 -0.022194147 0.10343483 -0.045764484 0.046110436

gru.bias_hh_l0_reverse f4 [192]
00000000: df23 203e 9520 0e3e c49b 2fbd c37e 8e3d
00000010: c772 bfbd 5034 a83b 592e 7c3d 727d 40bd
00000020: aa1a 083e cef0 153e fd54 0d3e 0e3f a83d
00000030: 7813 adbc ed5c 8e3d c0bb 863c c4d9 e33d
00000040: 4fc4 85bd 5bb6 4bbd 417c 303d 3040 82bd
00000050: 4606 09bd 0a70 033e c1e0 f03d 2d26 053e
00000060: 9855 463e 545c e4bd 808c 343d 5c83 103e
00000070: 1918 133e fded 1a3e bc21 1c3d a812 093e
00000080: 3bd2 c03c 1ae7 143e 346e 95bb 8ae5 cabd
00000090: e1b2 94bc 82dc 22bd 3be8 cdbd f1ba 923d
000000a0: c618 273e 648f 803d ac91 1b3e 70ec 333d
000000b0: 3081 e9bc f9da 1a3e 0d58 c43c 28a8 8fbc
000000c0: d2ed 003d 76bd 5f3d da95 003d 74b0 8fbd
000000d0: 2475 483d d14e 37bd c097 033e b3cd a23d
000000e0: 6e38 d2bd 26bb a93c 8983 0c3e a8eb c63d
000000f0: e686 ed3d 451e 703d 203b 013e 0e0a 293d
00000100: db6c f33d f554 d83c 2694 a03d b80d 573e
00000110: 6d57 5e3c bf5e 543d 3cd0 f33d d2e2 83bd
00000120: abd3 903c 3e86 b23d 41f0 4fbc 63ea 123e
00000130: f1ba 1d3e d5d9 333e 7709 dfbd 8482 ea3d
00000140: 1f22 193d bfae 40bc 045f 42bc b0c6 183e
00000150: 3622 6f3e bd86 39bc 0520 be3c e194 4a3d
00000160: 6ca5 853c d5cf 7a3d 9199 0dbe 28a8 d4bc
00000170: 6627 d23c dc4a deba 99f7 743e d162 583d
00000180: d27c 943d a0b5 133b e433 093e e7ca c7bc
00000190: a909 0f3e e4ff 373e 963d 80bc a19f 74bd
000001a0: 0c2a 853d 9cd4 193d 50a0 edbd 9081 e53d
000001b0: 1202 96bd 9333 80bd 534d 013e 86c9 283e
000001c0: f99e d5bd d49a d43c fe59 273e ea63 a13d
000001d0: 9ad3 b7bd 3b90 363e 4163 fd3d 47ba 5cbc
000001e0: cdd8 943d c661 e13d af95 193d cee9 6b3e
000001f0: fa09 1c3e 21ac 173d 8ccf f03d 7a7c e4bc
00000200: 46f4 083e e51a bbbd 2c80 8dbd eb2c bdbd
00000210: d917 883d 2c6f 1bbd 57de db3d b8c2 94bd
00000220: 71e8 c7bd c7d1 e7bd 5a3d b73d f84a 2ebd
00000230: a1c8 e0bd a04d 4b3d b1dd bcbd d397 c23d
00000240: d906 75bd 5415 0cbd 4e74 53bd dc54 953d
00000250: cb27 e6bd fa36 2cbd ed9a ef3c 48fb 253d
00000260: 6071 d7bb 9952 cf39 b650 e93d 50bb 3fbc
00000270: 8826 11bd 709a 44bc 8e0b c5bc 806b 3bbd
00000280: 17a8 153d 60d4 523c 51ae 653d 5597 e13d
00000290: 8778 f2bd 2032 c93d 11dc 3fbc ebeb 04be
000002a0: 79c4 37bd 3c8a dcbd e9a6 cf3d fb90 bc3d
000002b0: f8a1 04bd 4cd3 093d c280 243d 3384 8b3d
000002c0: 3375 35bd 32d7 c1bd d895 fdbd c7c1 063d
000002d0: 0a80 27bd 1d72 53bc c8dd c83d 7917 ce3d
000002e0: 981f f23c a386 b23d 4f2d babd 636a babd
000002f0: 965b 853c f0f5 983d ec01 df3d f4b2 4bbc
0.15638684 0.13879617 -0.04287316 0.06957772 -0.09348064 0.0051331893 0.061567638 -0.046994634
0.13291422 0.14642641 0.13801952 0.08215152 -0.021127447 0.06951318 0.016446948 0.1112552
-0.065315835 -0.049734455 0.043087248 -0.06359899 -0.03345325 0.12835708 0.117616184 0.13002844
0.19368589 -0.11150423 0.044079304 0.1411261 0.14364661 0.15129848 0.03811811 0.13386023
0.023537746 0.14541283 -0.0045602564 -0.09907062 -0.018151702 -0.039761074 -0.1005406 0.071645625
0.16318044 0.062773496 0.15192288 0.043926656 -0.028503984 0.15122594 0.023967767 -0.017536238
0.031476803 0.054624043 0.03139291 -0.07016078 0.04893984 -0.0447529 0.12850857 0.0794939
-0.10264669 0.020719122 0.13722052 0.097129166 0.115979955 0.058622617 0.1262021 0.041269355
0.11885997 0.026407698 0.07840757 0.21001327 0.013570649 0.05184817 0.11904952 -0.06439747
0.017679056 0.08717011 -0.012691558 0.14347224 0.15403344 0.17563565 -0.10890477 0.11450675
0.037386056 -0.011760413 -0.011863474 0.14919543 0.23352894 -0.011323628 0.023208627 0.04945839
0.01631423 0.06123336 -0.13828112 -0.02595909 0.025653552 -0.0016959566 0.23922576 0.052828614
0.0725037 0.0022538677 0.13398701 -0.024388744 0.13968529 0.17968708 -0.015654366 -0.059722546
0.065021604 0.037556276 -0.11602843 0.11206353 -0.07324614 -0.06259837 0.12627153 0.16483125
-0.10430712 0.025952734 0.16342923 0.07880385 -0.08975907 0.17828457 0.12372447 -0.013472146
0.07267914 0.11004977 0.037496265 0.23038408 0.15238181 0.03702939 0.117583364 -0.027891386
0.13374433 -0.09135989 -0.069092125 -0.09237083 0.066451736 -0.03794782 0.10735767 -0.07263702
-0.097611316 -0.11319309 0.08947249 -0.042551965 -0.10975767 0.049634576 -0.09221972 0.095016144
-0.059820984 -0.034200028 -0.05162459 0.07291576 -0.11238059 -0.042044617 0.029248679 0.040522844
-0.0065747947 0.00039543657 0.113923475 -0.011702374 -0.035437137 -0.011999711 -0.024053361 -0.045756817
0.036537256 0.012868017 0.056074444 0.110151924 -0.11839395 0.09824014 -0.011710183 -0.1298062
-0.044865105 -0.107685536 0.101392575 0.0920734 -0.032381028 0.033648774 0.040161856 0.068123244
-0.044301223 -0.094648734 -0.12382096 0.032899644 -0.040893592 -0.012905625 0.098079264 0.10063071
0.02955608 0.08717086 -0.09090673 -0.09102323 0.016279023 0.07468784 0.108890384 -0.0124328025

fc.weight f4 [6, 128]
00000000: b3c4 023d ff76 8b3d d091 00bc 5bc9 5d3d
00000010: b5c9 c63d 9ded 5f3d 98aa dbbb 63ce 8abc
00000020: c802 d63a 1cd8 293d e8ba 953d f6ef bfbd
00000030: 5b05 b9bd d449 aabd fdbd 29bd c852 1bbd
00000040: 310a 9bbd d60b 4ebd 318d 813d 455f abbb
00000050: 2ccd aebc 1156 3bbd 63c9 7c3d 4297 783d
00000060: cb29 79bd f19f b8bd f7ad b1bd 0a58 f9bc
00000070: 935d 643b 1a64 00be 3374 4b3d 544f 8fbd
00000080: c6db c33c 1baa 5ebd 318f 49bb de21 a33c
00000090: 496d a83d 5b90 c63d b059 9cbd bbb4 973d
000000a0: 54ce e03c 9dd8 95bd ba99 4e3c 48d0 9e3d
000000b0: 3701 5ebd aa02 513d e1b0 a1bd 4d4d e03d
000000c0: cdc6 df3d 140a 24bd dfac b93c a42d fdbc
000000d0: 8c17 1cbc 20bc d8bd 1bc4 32bd c98a 5d3d
000000e0: a830 ad3d c6fb babc a645 733d 699a 7f3d
000000f0: 81b0 13bd 76ca e4bd 9e5a 7c3d cf1e 9dbd
00000100: 48e6 96bd 7316 963d a3f6 56bd 9f67 04bd
00000110: 1855 0d3d ffe9 6c3c dd70 d73d ba65 dd3d
00000120: 60ea 093e 3e46 5f3d b8c0 88bd 0dfd 1c3d
00000130: 0dcd 593c 5de0 d4bc 7d81 4e3d 10ee 503c
00000140: 3fbd cebd e66f ed3b 3186 d0bd 47c8 57bc
00000150: 763d 233d 09b6 9bbd 7c67 9fbc 9343 f73c
00000160: 61cb f03d 58d3 1e3d a229 b23d b196 fcbc
00000170: 202d 063d 8c69 553c b3c7 02bd fc34 60bd
00000180: 5f93 c7bb 345e 4abd 71e3 d13d c449 e1bc
00000190: 8f4a bf3d cceb d13c 78ce 963d b7b5 b7bd
000001a0: 2205 98bd 9885 c43b 562c 543d 7659 d5bc
000001b0: 1586 06bd 8404 a3bc 1576 1e3d 9b5e efbd
000001c0: cc42 80bc da4c 5b3d 1866 36bd 94d9 d93c
000001d0: df00 65bd 6ed2 ad3d b6a5 a5bc 1955 80bc
000001e0: 925f 99bd 10a0 7bbd 4432 24bc 2837 04bd
000001f0: 9de6 563c bafa d43c 1423 113c 1723 9a3d
00000200: 19a2 acbc ee13 883d 5a5b 8bbd d7d6 b73d
00000210: 6175 d63c c53b 95bc 02a7 bd3d 6bb5 d3bd
00000220: e5fd 283d 0324 c63d 82bf 04bd c87e ad3d
00000230: 6e2a 31bd c34c 6fbd 2e66 31bd acef bc3d
00000240: 2b9a 193d d7ca 29bc e609 c43c 57c4 953d
00000250: ac31 3abd fd79 edbd b11f 17be 394c 89bc
00000260: 6cf6 e03d 1ee6 31bd 3c3c c7bd 2c2c bfbd
00000270: 8283 d8bd b45e 773d 3632 773d dc71 d8bd
00000280: 16c2 a03c 2dbd 2fbd 4b6b 943d 0fce a03c
00000290: 09a1 e2bb 829b 453c 339d 32be 2009 78bc
000002a0: 963e 473d a62a 09be 3beb 76bd 701f d0bd
000002b0: 0f6a cb3c 4992 dfbd 540c 3cbd ded1 923d
000002c0: f462 583d 4c83 0dbe 7684 7abd a397 cebd
000002d0: c1e5 97bd 16cf 8b3d 9e4e fdbc 732e 52bd
000002e0: a493 90bb db0a 61bd 3b46 c8bc e7a3 b1bd
000002f0: 6902 46bd c780 acbd fdbf 203c 1f65 273d
00000300: 4501 ee3c 8c3e f2bd e8b8 edbb 081d bfbd
00000310: a704 4b3d d87d 49bc d9f1 e83d 639f 633d
00000320: b5c5 843d f3d8 3dbd fe1f 7cbb 3c75 00bc
00000330: bb42 9d3d cc64 153d 07b2 9f3d c0cb bebc
00000340: d1d3 16bd 41a3 5bbd 55b3 cd3b 7739 b83d
00000350: 343f 10bd 4df4 053e 43ee bcbd a91c a2bd
00000360: d3ba c73c cb90 7c3c c7e6 213d f3a8 30bd
00000370: f8c1 b8bd 3dcb 95bc 9706 c6ba 307c 64bc
00000380: d839 cb3d 81eb b33d fb72 d0bd f1cd f03d
00000390: a5de e13b e581 623d 8097 663d 4813 a6bd
000003a0: 77a0 d13d 6bb4 853c d0cd 933c 088e f43d
000003b0: 990b 3ebd 92e1 3abc 2ed0 b3bc 7b3f 183d
000003c0: 92bb 963d 1bf9 2fbd 279d 29bc b5e3 fd3c
000003d0: 44fd 2a3c 7321 febd f8f9 eb3d e5ed 053d
000003e0: c137 063d c629 973b 3db6 c23b d57b fd3c
000003f0: 3c41 16bd a7a4 4bbd 1927 be3c 24e8 ea3d
0.03192587 0.06809806 -0.007847264 0.054147106 0.09706441 0.054669965 -0.006703686 -0.016944116
0.0016327733 0.041465864 0.0731104 -0.09371941 -0.090342246 -0.08314863 -0.041440953 -0.037920743
-0.07570303 -0.050304256 0.06325758 -0.005229863 -0.021338068 -0.045736376 0.061715495 0.060691126
-0.060830873 -0.090148814 -0.08675759 -0.030437488 0.0034845814 -0.12538186 0.049671363 -0.069975525
0.023908507 -0.054361444 -0.0030755515 0.01991361 0.082239695 0.09695502 -0.07634294 0.074075185
0.027442135 -0.07316706 0.012609893 0.0775457 -0.054200377 0.05102793 -0.07895065 0.10952244
0.1092659 -0.040048674 0.02266544 -0.030905552 -0.009527098 -0.10582757 -0.043644052 0.054087434
0.08456546 -0.022825133 0.059392594 0.062403116 -0.036057 -0.11171429 0.061609857 -0.07671892
-0.073681414 0.073285006 -0.052481305 -0.032325383 0.03450498 0.014460086 0.10519574 0.108104184
0.13468313 0.054510348 -0.06677383 0.038327266 0.013293517 -0.025985891 0.05041646 0.012752071
-0.100946896 0.0072460053 -0.10181845 -0.013170308 0.039853536 -0.0760308 -0.019458525 0.03018359
0.117575414 0.03877577 0.08699347 -0.030833574 0.03275788 0.013025653 -0.03192873 -0.05473803
-0.006090566 -0.049406245 0.10248459 -0.027500995 0.09340393 0.025625132 0.073635995 -0.08970206
-0.07422854 0.005997371 0.051800095 -0.026043635 -0.032842714 -0.019899614 0.03868683 -0.116879664
-0.015656851 0.05354009 -0.044530958 0.026593007 -0.055909034 0.08487402 -0.020220619 -0.015665578
-0.07488932 -0.061431944 -0.01002175 -0.032279164 0.013116506 0.025998462 0.008858461 0.07526224
-0.021073388 0.06644426 -0.06804533 0.08976524 0.026179017 -0.018216977 0.0926037 -0.10337337
0.041257758 0.096748374 -0.0324092 0.08471447 -0.043253355 -0.058422815 -0.043310337 0.09225401
0.03750054 -0.010363302 0.023930501 0.073128395 -0.045457527 -0.11595533 -0.14758183 -0.016759979
0.10984501 -0.043432347 -0.09728286 -0.09334597 -0.10571958 0.06039305 0.06035062 -0.10568592
0.019623797 -0.04290502 0.07247027 0.019629506 -0.0069161695 0.012061002 -0.17442779 -0.015138894
0.04864367 -0.13395175 -0.060282927 -0.10162246 0.024830846 -0.109165736 -0.045910195 0.07168935
0.052828744 -0.13819617 -0.06116148 -0.10087516 -0.07416869 0.06826608 -0.030921277 -0.05131383
-0.0044121314 -0.054941993 -0.024447551 -0.0867384 -0.048342142 -0.08423 0.009811399 0.04086792
0.02905334 -0.11828336 -0.0072547086 -0.09331709 0.049564984 -0.01229807 0.11374254 0.055571925
0.06483022 -0.046349477 -0.0038471217 -0.007840451 0.076787435 0.03647308 0.07797628 -0.023290515
-0.036823098 -0.053622488 0.0062774816 0.089953355 -0.035216525 0.13081475 -0.09225132 -0.07915623
0.024381077 0.015415381 0.039526727 -0.043129873 -0.090213716 -0.018285388 -0.0015108165 -0.013945624
0.09923142 0.08785153 -0.10178181 0.1175803 0.0068929964 0.05529966 0.056296825 -0.08109146
0.10235684 0.016321382 0.018042475 0.11941153 -0.04639778 -0.011406319 -0.021949854 0.037169915
0.07359995 -0.042962175 -0.010352409 0.030992368 0.01043636 -0.12408724 0.11522287 0.032697577
0.032768015 0.004613134 0.0059421347 0.030942837 -0.036683306 -0.04971757 0.023212003 0.114700586
