results/training/llama-3-8b_a100_tp2/model_tp2_H64_biGRU.pt (torch, 482669 bytes, 22 tensors)

in_norm.weight f4 [6]
000000 59 4b 82 3f cd 49 83 3f 5a a5 84 3f 17 28 81 3f
       1.0179244 1.0256897 1.0362961 1.009036
000010 af f5 82 3f 99 ea 7f 3f
       1.0231227 0.9996734

in_norm.bias f4 [6]
000000 44 51 66 bb 03 04 42 bc af e1 3f bc b1 63 ad 3c
       -0.0035143653 -0.011841777 -0.011711522 0.0211657
000010 00 53 de 3a a4 92 2d 3c
       0.0016961992 0.010594044

gru.weight_ih_l0 f4 [192, 6]
000000 e8 91 db bd dd 42 91 3d 61 e3 3d bd dc 3f 6d be
       -0.10721189 0.07092831 -0.046359424 -0.23168892
000010 1d 1b 58 be 01 aa 11 bd a6 41 b9 3c 77 89 db ba
       -0.21104093 -0.03556252 0.022614311 -0.0016749342
000020 b3 e3 1d be 3a 11 5c 3b 2a c2 3c be 6d 96 c4 3d
       -0.15418892 0.0033579604 -0.18433443 0.09599004
000030 41 2a fc 3d 77 99 c0 3d fb a7 4c 3e c1 99 6c be
       0.12312747 0.09404271 0.19985954 -0.23105527
000040 31 94 33 3e ab 58 59 bd 41 5e 7d be b1 c8 07 3e
       0.17537 -0.053063076 -0.24742986 0.13260151
000050 d5 33 30 3e 91 c4 20 bd aa ec 63 3d e3 39 83 3c
       0.17207272 -0.03924996 0.055645622 0.016018813
000060 6d 04 6b be 08 81 ce 3c 8d 26 09 3e 63 4d 38 bc
       -0.22950907 0.025208011 0.13393612 -0.011248919
000070 21 73 1a 3e 11 6c 03 3e e6 cc 0b 3d 23 c7 b4 3d
       0.1508298 0.12834193 0.034130953 0.08827045
000080 22 fc 96 bd ec 2b 04 be e3 1f 09 3b 00 dc 05 be
       -0.07372309 -0.1290738 0.0020923547 -0.13072205
000090 19 3f 05 3e b0 31 36 3e d1 1a a1 bd 0a 4e 01 bd
       0.13012351 0.17792392 -0.07866443 -0.031568564
0000a0 0d 46 79 3e 86 9c 88 3d a5 24 18 bd 57 92 2f 3e
       0.24343129 0.066704795 -0.037144322 0.17145668
0000b0 e8 9a 63 be 66 6c d7 3d 21 f2 27 3e e8 13 1b 3e
       -0.22227061 0.10518722 0.16400959 0.15144312
0000c0 06 1e 25 bd c1 78 22 bd 74 69 03 3e ba 44 b5 bd
       -0.040311836 -0.03966594 0.12833196 -0.08850999
0000d0 7e f5 63 be da 6a f4 3d cf c5 1f 3e 4b f5 18 be
       -0.22261617 0.11934443 0.15602802 -0.14937322
0000e0 44 02 57 3e 92 37 fe bc c1 f3 3f 3d 3b 0c e9 3d
       0.20996958 -0.031032357 0.04686332 0.11379286
0000f0 f3 30 f5 3d f2 97 fa 3c 6d e1 f9 bd ef 48 7f be
       0.11972227 0.030590031 -0.122012 -0.24930166
000100 ee df ea 3d b5 fc be bc 34 1c 10 3e 7b ae 38 be
       0.114684924 -0.02331386 0.14073259 -0.18035309
000110 7e 7f c5 bd 95 8b c4 bd 34 c2 cd 3d 13 1a 0d bd
       -0.09643458 -0.09596936 0.10046807 -0.034448694
000120 c2 d7 88 3d 8b 97 c6 bd 6d 35 5d 3e 7a 3f a6 bc
       0.066817775 -0.09696873 0.21602412 -0.02029394
000130 06 b8 b4 bd d4 ab ba 3d 28 8f 57 3e 63 13 46 be
       -0.08824162 0.09114805 0.21050704 -0.19343333
000140 c4 54 6d 3e 64 30 35 3e 55 48 56 be 33 83 04 bd
       0.23176867 0.17694241 -0.2092603 -0.032351684
000150 a9 a9 cd 3d 11 c0 35 3d 3b cd 83 bd fa 2f e0 3d
       0.10042126 0.044372622 -0.06435629 0.10946651
000160 6b 2d 76 3d 9e e1 90 bd 67 0e 0a 3e fd 5c b4 bc
       0.060101908 -0.07074283 0.13482057 -0.022016997
000170 7c 93 04 3e b9 29 58 be 40 98 0f 3e 88 82 19 be
       0.12946886 -0.21109666 0.14022923 -0.149912
000180 88 e3 44 3e bf 06 76 bc 45 cb 80 3d 4a cf c0 3d
       0.19227421 -0.015016257 0.062887706 0.09414537
000190 44 f7 09 bd cb 30 04 3e b6 d2 3d be 4f d8 28 3d
       -0.033683077 0.12909238 -0.18537411 0.041221913
0001a0 6e 2f 3d 3d 59 90 c6 3c 1d 36 08 be 98 47 7f 3d
       0.04618781 0.024238752 -0.13301893 0.062324136
0001b0 c5 e6 57 be d7 bd 82 3d ff 29 00 3d 7c e9 50 3e
       -0.21084125 0.06383865 0.03129005 0.20401567
0001c0 0a 36 a7 b9 8a e6 2d be b0 c9 ec 3d a5 55 46 bd
       -0.00031892984 -0.16982475 0.11561906 -0.04842152
0001d0 39 a8 61 be 5c e3 4b be a3 60 e3 bd cc 9a e9 bc
       -0.22036828 -0.1991095 -0.11102416 -0.028516196
0001e0 7e d3 3c 3e 06 d0 2f be a0 1c 17 3e 88 bd d5 3d
       0.18440053 -0.17169198 0.14757013 0.10436541
0001f0 89 22 67 3e 4e d7 26 3d 3f 37 0e be 99 24 75 bd
       0.22571768 0.040732674 -0.13888262 -0.059849355
000200 37 2e e8 3d 60 e5 6c 3e 59 6d 07 3c ae 41 5d bd
       0.1133694 0.23134375 0.008265817 -0.054017715
000210 6a 0d 9f 3d 35 53 ed 3d 36 33 93 3b 85 d5 18 3e
       0.077662304 0.11588136 0.004492189 0.14925201
000220 66 aa 6f 3e 44 38 a6 3d 1b e5 f0 bc 35 a4 24 3e
       0.23404846 0.081162006 -0.029406121 0.16078265
000230 95 18 2c 3e 0e 37 2c 3e e9 7c f6 bc 02 68 ac 3d
       0.16806252 0.16817877 -0.030088859 0.084182754
000240 b7 cb 03 bd 15 09 55 3e 2a e2 9a bd d8 3f d0 bd
       -0.0321767 0.20804246 -0.075626686 -0.10168427
000250 02 da b8 3c e4 35 07 be 87 cf 66 be cd e6 43 be
       0.022564892 -0.13204151 -0.22540103 -0.19131012
000260 f7 ad 6f 3c 87 99 a2 3d 50 f0 34 be 80 b9 07 be
       0.014628879 0.07939439 -0.17669797 -0.13254356
000270 80 c2 46 be be 8b 57 3d 52 8e f8 3d 0a 7c 42 3e
       -0.19410133 0.052623503 0.121365204 0.1899263
000280 12 ce 72 be d2 82 88 bd 37 79 ec 3d cc 53 68 be
       -0.23711422 -0.06665577 0.115465574 -0.22688216
000290 e9 97 5e 3e e9 3a 5b bd 67 b1 e9 3d be f2 07 be
       0.21737637 -0.053522978 0.1141079 -0.13276193
0002a0 4b 70 e5 3b f8 a3 60 3e 09 3c c4 bc f1 2a 55 bd
       0.0070019118 0.21937549 -0.023954408 -0.052042905
0002b0 b6 84 28 3c b6 72 4a be 1c b4 3f 3e ab 61 dd bd
       0.010285547 -0.19770321 0.1872105 -0.10809644
0002c0 69 da e1 bd a0 51 fa bd 26 0d 8c bd ab a7 4f be
       -0.110279866 -0.122226 -0.06838445 -0.20278804
0002d0 cd 93 b0 bd a9 c4 1d 3e bc 73 68 be 62 3c 81 be
       -0.08621941 0.15407051 -0.22700399 -0.2524138
0002e0 be a4 c5 3d 61 23 8c 3d df d4 61 3e 1b cb 53 3e
       0.09650563 0.068426855 0.2205386 0.20682947
0002f0 e9 39 c2 3d de 37 19 bd fa ea f3 3d 75 2b 15 3d
       0.09483702 -0.037406795 0.119100526 0.036418397
000300 cc 3b 31 3e 02 4d c8 3d 7f e5 23 3e fc f8 6d be
       0.17307967 0.09780313 0.16005515 -0.23239511
000310 30 e6 6f 3e 02 94 7a be 5c 58 9e bc 97 b8 56 bd
       0.23427653 -0.24470523 -0.019329242 -0.052422132
000320 c6 50 15 3d c2 66 4f 3e ac 92 2b 3e a4 8e eb bd
       0.036453985 0.20254043 0.1675517 -0.11501816
000330 96 db 6d be aa fb a2 3d 55 d6 4f be fa c1 81 3e
       -0.23228297 0.07958157 -0.20296605 0.25343305
000340 72 f3 cb bd 58 64 54 3d a9 7f 40 be 42 09 3e 3e
       -0.09958543 0.051853508 -0.18798698 0.18558219
000350 23 f2 2a 3e a9 55 06 be 89 2b 59 3e 46 71 57 3d
       0.1669393 -0.13118614 0.21208014 0.05259826
000360 ae 6d ca bb ea b8 86 bd b7 d3 db 3d 2c 4a c4 3d
       -0.0061776256 -0.06578238 0.10733741 0.0958446
000370 e6 48 a9 bb ce 1f ac 3d da bf 3b be 1f 77 ed bd
       -0.005166161 0.08404504 -0.18334904 -0.11594986
000380 67 77 f9 bd 34 ec 4b be 2b 2d 09 be 1f 64 45 3e
       -0.12180977 -0.19914323 -0.13396136 0.19276474
000390 a2 19 af bd a8 01 24 3e f6 1c 71 3d 5a 72 14 3e
       -0.08549811 0.16016257 0.05886551 0.14496747
0003a0 9d 8a e3 bd 4f f5 24 be 88 a8 6a 3e 5c e1 61 3e
       -0.11110423 -0.16109203 0.22915852 0.22058624
0003b0 c0 29 c5 3d 9c cf 07 bd a0 ed 73 bd 2e 59 58 3c
       0.09627104 -0.033156976 -0.05955279 0.013204856
0003c0 bf e6 bb bd 39 97 d5 3d 9a 01 f9 bd 9f e6 5d 3e
       -0.09174871 0.10429234 -0.121585086 0.21670006
0003d0 e3 35 7c 3c 38 cb c3 bc 24 c8 bc 3d 0a 31 ef 3d
       0.015393707 -0.023900613 0.09217861 0.11679275
0003e0 19 07 4f be 94 cf 53 3e 5c 90 42 be 08 fe 52 3e
       -0.20217551 0.20684654 -0.19000381 0.20604718
0003f0 07 3f 46 3d 5c c3 54 3e a2 ea 5f 3e 7e bf 0b 3e
       0.04839995 0.20777649 0.21866849 0.13647267

gru.weight_hh_l0 f4 [192, 64]
000000 b2 ae a7 bd 9c cc b1 bd 5e ee 95 bd 47 a6 5f bd
       -0.08187617 -0.08681604 -0.073208556 -0.054601934
000010 be db 2d be a0 c6 bd 3d 4b 89 13 bb ce 42 ca 3d
       -0.16978356 0.092664 -0.0022512253 0.09876023
000020 32 d0 b2 bd ca 09 b0 bd 89 99 08 3e a4 ae cc 3b
       -0.08731116 -0.08595617 0.13339819 0.0062464047
000030 df 29 12 be 6f 52 dc 3b bd 8c c5 3d eb 3f 30 3e
       -0.14273785 0.006723694 0.09645984 0.17211883
000040 c4 ca fc 3d 94 08 a8 bc cd 54 5d bc 74 61 91 3d
       0.12343362 -0.020511903 -0.013508988 0.07098666
000050 de da 91 bd 5c 21 bd bd 06 32 4e bd 15 79 1c bd
       -0.07121824 -0.092348784 -0.050340675 -0.03820141
000060 ee a0 13 be 65 3e 59 3c 81 53 75 3c 7a f2 26 3d
       -0.14416859 0.013259505 0.014973522 0.040758587
000070 50 be 87 3d 44 6a 3a bd 18 5f 8c bb 0c 18 e4 3d
       0.06628096 -0.0455115 -0.004283797 0.11137399
000080 37 59 bf bd 86 af a5 bc 08 f0 b8 3d db 28 5f 3d
       -0.09343188 -0.020225298 0.09030157 0.054482322
000090 a3 4d 13 3d c7 db a5 bd 7e 68 0f 38 8d 21 c2 3c
       0.035962712 -0.0809856 3.4191173e-05 0.023697639
0000a0 03 fe fb 3d 3f 0e 91 bd d2 52 51 3d 59 f1 ee bc
       0.12304308 -0.07082795 0.051104374 -0.029167818
0000b0 bb 22 e9 bd d6 78 17 3d f1 ed d3 bd 97 e2 59 3d
       -0.113835774 0.036980473 -0.10348118 0.05319461
0000c0 a0 d3 a6 3c 33 de b5 3c 90 85 6c bc 37 7d c5 bc
       0.020364583 0.02220068 -0.014436141 -0.024107559
0000d0 66 63 d9 3d d2 4c 11 bc 62 6d b8 bd 19 2e ea bd
       0.10614662 -0.008868413 -0.09005238 -0.11434574
0000e0 65 2f 67 bc 14 02 7e bb 5c 3f 1c ba 6f bd 93 bd
       -0.014110421 -0.0038758563 -0.0005960369 -0.07213866
0000f0 cd 1a 06 3d f2 55 fe bc bd bc 39 bd a4 70 d9 bc
       0.032740403 -0.031046841 -0.04534601 -0.026542969
000100 4c c9 65 bd cf 9a 05 be f2 1d 11 3d 61 63 ef 3c
       -0.056100175 -0.13047336 0.03542895 0.029222192
000110 c0 a7 47 bd 75 89 75 bd 4a 87 a8 bc 64 d9 aa 3c
       -0.048743963 -0.059945542 -0.020572323 0.020855613
000120 d3 59 ee bb 26 2a 04 be 36 f4 28 bc ec f4 87 3c
       -0.0072738915 -0.12906703 -0.010312131 0.01659628
000130 fa 71 ee bc cf 62 3c bd f3 54 5e 3d e3 60 c9 bd
       -0.029107083 -0.04599267 0.054280233 -0.09832933
000140 26 a6 0a bd bf 3b 4b 3d 6c c0 30 3c 75 12 93 bd
       -0.033849858 0.049617525 0.010788064 -0.07181255
000150 f3 6e 11 3c 6a 79 2e be 2f 31 59 bd 7b d8 52 3b
       0.00887655 -0.17038503 -0.05302542 0.003217249
000160 16 96 d8 3c e5 4c a3 3d 40 1e 06 bd c6 5d 13 3e
       0.026438754 0.07973651 -0.032743692 0.1439124
000170 7e 98 70 bd 87 20 f6 3c 63 00 e0 3b 65 39 3c be
       -0.058739178 0.030044807 0.0068359836 -0.1838127
000180 48 51 9b bd dd 41 43 3d 02 82 5d 3b 0c c8 c0 3d
       -0.075838625 0.047670234 0.0033799415 0.09413156
000190 bd b8 71 bd 00 49 f7 bd 04 3c a3 bd 3f 82 ac bd
       -0.05901407 -0.120744705 -0.079704314 -0.0842328
0001a0 03 0d 5a bd e3 fe a3 3d e2 b7 2f 3a e4 f6 d8 bc
       -0.053235065 0.080076 0.0006703121 -0.026484914
0001b0 65 64 73 bd 68 15 f0 bd 0c 7f 23 bd ce 94 d6 bd
       -0.059421916 -0.11722833 -0.039916083 -0.10477601
0001c0 c4 44 26 3d cb dd 81 bd 84 04 a2 bd 8f 45 c2 bc
       0.040592924 -0.06341132 -0.079110175 -0.023714809
0001d0 a9 1c f3 3c b0 68 1d 3c 46 77 71 bc 37 da f8 bd
       0.029676752 0.009607479 -0.01473791 -0.12150996
0001e0 00 24 6a 3d 1a 33 21 3d 2a 47 a5 3c fa e2 59 3d
       0.05716324 0.039355375 0.020175535 0.053194977
0001f0 73 86 00 bd bb 0e cf 3c c8 d6 b5 bd c5 07 ed 3c
       -0.03137822 0.025275579 -0.08878857 0.028934369
000200 61 fc 56 bd 4f 38 eb 3d 83 4e 07 be d7 2a 83 bd
       -0.05248678 0.114853494 -0.13213544 -0.064046554
000210 e3 14 39 bc 29 f6 39 3e 62 b9 49 3d 6e 29 2a bb
       -0.011296484 0.18160309 0.04924906 -0.0025964635
000220 35 bd 47 39 29 ba 56 3c c4 7a 07 3e 6d 84 33 bd
       0.00019048604 0.0131059075 0.13230425 -0.043827463
000230 69 35 de 3a f0 ff b1 3b 48 47 3c bd 10 50 98 3c
       0.0016953173 0.0054321215 -0.045966417 0.018592864
000240 4d 22 85 bd ba 97 5b bd 79 14 06 be 84 f4 de bd
       -0.06500683 -0.053611495 -0.13093747 -0.108864814
000250 55 cb c6 bd 21 92 2b 3e 2b 12 a2 bd 49 c3 bc 3d
       -0.09706751 0.16754963 -0.079136215 0.09216935
000260 4f 3a 68 bd 82 a0 77 bd 2b 44 55 3d 6b 54 dd 3d
       -0.056696232 -0.060455807 0.052066963 0.10807117
000270 88 1f 47 3d 4d eb 66 3d d8 e6 2e 3d a1 0d c9 3c
       0.048614055 0.056376744 0.04270062 0.024542632
000280 9e 8b 7f bd 6e 8a 81 bd 03 47 1b bd 26 07 9a bc
       -0.06238901 -0.063252315 -0.03790952 -0.018802237
000290 1d 82 82 bd 4d 16 ed 3b d9 26 c2 bc 2a ce 1c bd
       -0.063724734 0.0072353245 -0.023700165 -0.03828255
0002a0 7a a4 fc 3c e4 51 9f ba 74 df 8f 3d 6c 8c 1b bd
       0.030840147 -0.0012155143 0.07025042 -0.037975714
0002b0 c4 cf 79 bd 7d dd 14 3d a1 4c 00 bd 41 ce 17 bc
       -0.060989156 0.03634404 -0.03132308 -0.009265483
0002c0 a1 7c 05 be c2 24 9d bd 5b 84 08 bc 87 12 1d 3c
       -0.13035823 -0.076730266 -0.008332337 0.009586937
0002d0 d9 19 4e bd 21 7c bc bc f6 e0 71 bd 37 1d 10 be
       -0.05031762 -0.023008408 -0.05905243 -0.14073645
0002e0 e6 68 a9 bc ff d7 42 bb 05 b9 62 3d c2 cc 19 3e
       -0.020679902 -0.0029730794 0.05535223 0.15019515
0002f0 9b 53 ec 3a 6b f4 2d 3e 71 76 15 bd cf 7f b7 3d
       0.0018030287 0.1698777 -0.036489908 0.089599244
000300 39 a1 dc 3c dd 71 15 bd 24 2e 83 3d 7a 78 73 3d
       0.026932346 -0.03648554 0.06405285 0.059441067
000310 ca 85 4e bc 40 5b 8b 3c 8a 3f c4 bb 8f c9 aa 3d
       -0.01260514 0.017011285 -0.0059890198 0.083392255
000320 d6 46 2d bd 67 76 4c bb c4 7a 6f bd f3 3f 25 3d
       -0.042303883 -0.0031198503 -0.058466688 0.04034419
000330 14 23 9a bd c9 c3 11 bd f1 0f ca bd 25 ab ad 3c
       -0.07526222 -0.035587106 -0.09866322 0.021199772
000340 77 02 c3 bb 2a f1 e7 bd 61 c6 1e bb b4 21 a2 3d
       -0.0059512216 -0.11325295 -0.002422713 0.079165846
000350 42 13 88 3d 25 55 95 bb 9a 40 e6 bd 89 af 65 3e
       0.06644298 -0.004557269 -0.112427905 0.22430243
000360 39 63 85 bd 91 74 4d be 5f 07 77 3d 4f 28 e2 3c
       -0.06513066 -0.20063998 0.060309764 0.027607111
000370 db 48 ae bd 15 3c 36 bd 02 0c ea 3d ae 26 53 3d
       -0.0850999 -0.044490892 0.114280716 0.05155056
000380 c6 f4 f0 bd 45 9f 90 bd e0 dc 91 bd 22 cc 3b bd
       -0.11765437 -0.07061628 -0.07122207 -0.045848973
000390 bb 1c 18 3d 60 28 56 bd dd 6d e2 3b 95 fc 65 3d
       0.037136775 -0.0522846 0.0069100694 0.056149084
0003a0 fe 5c 9e 3d be a6 aa 3d b3 e3 b1 bd 0d 53 b0 3d
       0.077325806 0.08332585 -0.08686008 0.08609591
0003b0 d5 3f 33 bd f9 cd 9e 3c 2a 5e e8 3d 68 97 cd 3d
       -0.043762047 0.019385325 0.11346085 0.10038644
0003c0 b0 6c 19 3c ca 2f 3a bc a9 18 d3 3d 78 d1 b9 3d
       0.009364292 -0.011363933 0.10307438 0.09073156
0003d0 44 83 30 3d 73 bb be bd c1 72 ae bd 68 f7 1b 3e
       0.043093935 -0.09313097 -0.08517981 0.15231097
0003e0 ae 76 86 3d 85 90 a4 3b c8 8d b2 3d 7d 60 8e bd
       0.06565605 0.005022111 0.08718449 -0.069519974
0003f0 5e a3 a3 3b c2 70 d3 bc 01 21 7f bd 3d 9c 1b bc
       0.00499384 -0.025810603 -0.062287334 -0.009497699

gru.bias_ih_l0 f4 [192]
000000 51 1e 60 3c 57 04 1e 3c a0 b6 bc 3c c8 24 72 3c
       0.013679103 0.009644589 0.023036301 0.014779277
000010 0b 35 0e 3b 33 2e a4 3c 06 00 0b bc f7 3c 2f 3c
       0.0021699097 0.02004156 -0.008483892 0.0106956875
000020 1e 3a b0 3c b9 1c 16 3c 42 74 72 3c 8d ec ae 3c
       0.021512087 0.009162121 0.014798226 0.02135303
000030 58 33 04 bc 12 c2 5e 3c 1c 40 2a bb 61 14 81 3b
       -0.008068882 0.013596075 -0.0025978154 0.003939197
000040 20 8e 9c 3b 5e d7 b0 3b f6 59 ca 3b 4f e5 c9 bb
       0.004777685 0.0053967675 0.006175275 -0.006161369
000050 df 3b 91 bb 4b 7a 20 3b f4 e4 28 3b b5 f1 2a 3c
       -0.004432186 0.0024486955 0.0025771232 0.010433604
000060 a9 2c 95 ba 6c 35 04 bc a3 21 0a 3b 9a dc 5f 39
       -0.0011381108 -0.008069377 0.0021077178 0.00021349118
000070 bd 95 c3 3b 5b 73 0c 3c 77 4a 78 3b 1f 45 05 3c
       0.005968778 0.008572425 0.0037886181 0.0081341555
000080 80 83 e3 3b e6 45 a8 bb 13 84 b7 3c 12 f8 85 3c
       0.0069431663 -0.0051352857 0.022401845 0.01635364
000090 7e 99 26 bb 18 c1 91 3c bb 06 40 bb 8e a6 0c 3c
       -0.0025421078 0.01779227 -0.0029300887 0.008584632
0000a0 2c fd 28 3b 50 21 0b bb 0b 7a 9b 3c 1d 5d a1 3c
       0.0025785668 -0.0021229573 0.018979093 0.01969772
0000b0 e4 b8 20 bc cb 62 8e 3b b2 01 46 3c 3c 9b 8c 3c
       -0.009809706 0.004345273 0.012085365 0.017163865
0000c0 b1 8c 36 3c ab 1b 00 3c e8 f7 84 3c c3 ce 38 3b
       0.011141942 0.007819097 0.016231492 0.0028199411
0000d0 86 e1 ab bb c5 0e 77 3b f8 96 4d 3c 00 d1 79 bb
       -0.0052453903 0.0037698012 0.012548201 -0.0038118958
0000e0 b6 03 51 bc 54 ca 04 3c 07 9c ce bb ff 41 32 bc
       -0.012757232 0.008104879 -0.006305221 -0.0108799925
0000f0 d2 ef 95 3b 71 d9 18 3b 24 4b 6c 3a ca cd b6 3c
       0.004575708 0.0023322965 0.00090138824 0.022314925
000100 0f 42 16 3d ad d4 19 3d 43 30 01 3d a6 a5 ae 3c
       0.036684092 0.03755634 0.031540167 0.021319222
000110 23 b8 c8 3c dd 12 bd 3c 1e d8 e8 3c a8 9a bf 3c
       0.024501866 0.023080284 0.028423365 0.023389176
000120 e4 f8 17 3d 1c 89 1a 3c a3 44 fe 3c fe 16 0d 3d
       0.037102595 0.0094321035 0.031038588 0.034445755
000130 af 18 71 3c 86 f7 ac 3c c6 76 ec bc 4f 59 68 3b
       0.014715358 0.021114122 -0.02886523 0.0035453623
000140 77 2e 27 3b 1a 5c 14 bb 93 71 af 3b 5d 09 7d 3c
       0.0025509873 -0.0022637905 0.0053541153 0.015444127
000150 da 7f d1 3b ba 89 a4 bc 27 c1 9b bc 23 08 64 3c
       0.006393415 -0.020085204 -0.019013 0.013917956
000160 72 57 79 3b 98 7f 64 3c 58 77 25 3d ae 23 95 bb
       0.0038046506 0.013946436 0.04039702 -0.0045513725
000170 9e 0f 82 3c 86 61 88 bc 29 46 fb bc be b5 e8 bb
       0.015876587 -0.016648065 -0.030673103 -0.0071017435
000180 bc aa e4 bc 1c f1 fe 3c 3f 33 94 bb a6 64 30 3c
       -0.027913444 0.03112083 -0.0045227106 0.010766184
000190 51 cd 1a bd 54 92 97 bc 52 01 a7 ba 42 fb 0c 3d
       -0.03779346 -0.018502392 -0.0012741482 0.034419306
0001a0 13 49 05 3b 43 13 51 3c 0b cd 48 3d 94 d9 4f 3c
       0.0020337745 0.01276094 0.04902367 0.012686152
0001b0 3e 57 9d 3c f3 35 bf bb 5f 48 a2 3a 57 41 2b 3d
       0.01920664 -0.0058352887 0.0012381187 0.04181036
0001c0 16 da 17 3d 6d 78 d7 3b 81 56 16 3c 05 42 3d bc
       0.037073217 0.006575635 0.009175898 -0.011551385
0001d0 33 50 08 3c 8a 6b 98 3c b9 f6 f0 3a a9 1f 2d 3c
       0.008319902 0.018605966 0.0018384076 0.01056663
0001e0 d7 09 b1 ba e6 3f 65 bc b9 43 91 bc bf cc 01 bc
       -0.0013506961 -0.013992285 -0.017732488 -0.00792235
0001f0 37 c1 00 3d 8a d1 ad 3b f0 e2 20 bc 4f d5 4e 3c
       0.031434264 0.00530452 -0.009819731 0.012624099
000200 8e 83 04 bc 37 cc 53 3b ec d0 01 3b f4 80 0d bb
       -0.008088006 0.0032317766 0.0019808365 -0.0021591755
000210 9e 30 bb 3b 22 8b 0d bc 7a 78 0e bb e9 aa 26 bc
       0.0057125827 -0.008639129 -0.002173929 -0.010172584
000220 80 e1 85 bc 0f 94 54 3b 30 84 d4 3b dd ef 43 bb
       -0.016342878 0.0032436883 0.0064854845 -0.0029897608
000230 ed 90 b7 bb 13 98 2d bc ac 6f 7d bb 06 b6 b9 bb
       -0.0056019933 -0.010595339 -0.0038671298 -0.005667451
000240 b2 cb 19 ba 8d 3f fa 3a e9 97 09 3b bc 5e 08 3b
       -0.000586684 0.0019092426 0.0020995087 0.002080842
000250 79 2e e8 bb e3 f0 65 3c 55 42 4b bc 4b 0d d7 ba
       -0.007085618 0.014034483 -0.0124059515 -0.001640716
000260 f9 3e 91 3b 73 6d 58 3b 07 d8 48 3a 75 12 14 3b
       0.0044325558 0.0033024221 0.0007661585 0.002259401
000270 d2 12 cd 3b f4 88 07 3b 8d 7d f3 3b 38 33 6f bb
       0.006258347 0.0020680996 0.0074307383 -0.0036499035
000280 e7 e5 f8 3a 76 0c 8c 3b cd c6 99 3b 4a 7b 0a 3b
       0.0018989415 0.0042739464 0.0046928884 0.0021130615
000290 aa 60 fb 3a dc 0a 29 bc 42 98 15 bc d2 d3 a5 bc
       0.0019178588 -0.0103175305 -0.009130539 -0.020242605
0002a0 6a cd 85 3a d7 e7 57 ba 4b a2 95 3a a2 2d 74 3b
       0.0010208313 -0.0008236146 0.0011416165 0.0037258645
0002b0 3c bd 1c 3c 63 d9 72 3b b3 f9 57 bb 31 21 a2 ba
       0.009566601 0.0037055842 -0.0032955229 -0.0012369511
0002c0 d6 58 81 3c 9a 17 48 3c 68 16 79 bc 7c 10 78 bb
       0.01578943 0.012212658 -0.015203096 -0.0037851622
0002d0 93 f2 e1 b8 77 4a 2e 3b 85 ee 1f 3c 74 18 68 3c
       -0.00010774019 0.0026594677 0.009761457 0.014165986
0002e0 ba 34 0a bc df 1e 7a 3b 89 80 d8 b8 8d 60 30 bc
       -0.008435423 0.0038165373 -0.00010323624 -0.010765207
0002f0 d1 8e 31 bc 1e 3a 22 bc 84 51 ef bb ac f8 00 bb
       -0.010837273 -0.0099015515 -0.0073034186 -0.001967947

gru.bias_hh_l0 f4 [192]
000000 51 1e 60 3c 57 04 1e 3c a0 b6 bc 3c c8 24 72 3c
       0.013679103 0.009644589 0.023036301 0.014779277
000010 0b 35 0e 3b 33 2e a4 3c 06 00 0b bc f7 3c 2f 3c
       0.0021699097 0.02004156 -0.008483892 0.0106956875
000020 1e 3a b0 3c b9 1c 16 3c 42 74 72 3c 8d ec ae 3c
       0.021512087 0.009162121 0.014798226 0.02135303
000030 58 33 04 bc 12 c2 5e 3c 1c 40 2a bb 61 14 81 3b
       -0.008068882 0.013596075 -0.0025978154 0.003939197
000040 20 8e 9c 3b 5e d7 b0 3b f6 59 ca 3b 4f e5 c9 bb
       0.004777685 0.0053967675 0.006175275 -0.006161369
000050 df 3b 91 bb 4b 7a 20 3b f4 e4 28 3b b5 f1 2a 3c
       -0.004432186 0.0024486955 0.0025771232 0.010433604
000060 a9 2c 95 ba 6c 35 04 bc a3 21 0a 3b 9a dc 5f 39
       -0.0011381108 -0.008069377 0.0021077178 0.00021349118
000070 bd 95 c3 3b 5b 73 0c 3c 77 4a 78 3b 1f 45 05 3c
       0.005968778 0.008572425 0.0037886181 0.0081341555
000080 80 83 e3 3b e6 45 a8 bb 13 84 b7 3c 12 f8 85 3c
       0.0069431663 -0.0051352857 0.022401845 0.01635364
000090 7e 99 26 bb 18 c1 91 3c bb 06 40 bb 8e a6 0c 3c
       -0.0025421078 0.01779227 -0.0029300887 0.008584632
0000a0 2c fd 28 3b 50 21 0b bb 0b 7a 9b 3c 1d 5d a1 3c
       0.0025785668 -0.0021229573 0.018979093 0.01969772
0000b0 e4 b8 20 bc cb 62 8e 3b b2 01 46 3c 3c 9b 8c 3c
       -0.009809706 0.004345273 0.012085365 0.017163865
0000c0 b1 8c 36 3c ab 1b 00 3c e8 f7 84 3c c3 ce 38 3b
       0.011141942 0.007819097 0.016231492 0.0028199411
0000d0 86 e1 ab bb c5 0e 77 3b f8 96 4d 3c 00 d1 79 bb
       -0.0052453903 0.0037698012 0.012548201 -0.0038118958
0000e0 b6 03 51 bc 54 ca 04 3c 07 9c ce bb ff 41 32 bc
       -0.012757232 0.008104879 -0.006305221 -0.0108799925
0000f0 d2 ef 95 3b 71 d9 18 3b 24 4b 6c 3a ca cd b6 3c
       0.004575708 0.0023322965 0.00090138824 0.022314925
000100 0f 42 16 3d ad d4 19 3d 43 30 01 3d a6 a5 ae 3c
       0.036684092 0.03755634 0.031540167 0.021319222
000110 23 b8 c8 3c dd 12 bd 3c 1e d8 e8 3c a8 9a bf 3c
       0.024501866 0.023080284 0.028423365 0.023389176
000120 e4 f8 17 3d 1c 89 1a 3c a3 44 fe 3c fe 16 0d 3d
       0.037102595 0.0094321035 0.031038588 0.034445755
000130 af 18 71 3c 86 f7 ac 3c c6 76 ec bc 4f 59 68 3b
       0.014715358 0.021114122 -0.02886523 0.0035453623
000140 77 2e 27 3b 1a 5c 14 bb 93 71 af 3b 5d 09 7d 3c
       0.0025509873 -0.0022637905 0.0053541153 0.015444127
000150 da 7f d1 3b ba 89 a4 bc 27 c1 9b bc 23 08 64 3c
       0.006393415 -0.020085204 -0.019013 0.013917956
000160 72 57 79 3b 98 7f 64 3c 58 77 25 3d ae 23 95 bb
       0.0038046506 0.013946436 0.04039702 -0.0045513725
000170 9e 0f 82 3c 86 61 88 bc 29 46 fb bc be b5 e8 bb
       0.015876587 -0.016648065 -0.030673103 -0.0071017435
000180 bc aa e4 bc 1c f1 fe 3c 3f 33 94 bb a6 64 30 3c
       -0.027913444 0.03112083 -0.0045227106 0.010766184
000190 51 cd 1a bd 54 92 97 bc 52 01 a7 ba 42 fb 0c 3d
       -0.03779346 -0.018502392 -0.0012741482 0.034419306
0001a0 13 49 05 3b 43 13 51 3c 0b cd 48 3d 94 d9 4f 3c
       0.0020337745 0.01276094 0.04902367 0.012686152
0001b0 3e 57 9d 3c f3 35 bf bb 5f 48 a2 3a 57 41 2b 3d
       0.01920664 -0.0058352887 0.0012381187 0.04181036
0001c0 16 da 17 3d 6d 78 d7 3b 81 56 16 3c 05 42 3d bc
       0.037073217 0.006575635 0.009175898 -0.011551385
0001d0 33 50 08 3c 8a 6b 98 3c b9 f6 f0 3a a9 1f 2d 3c
       0.008319902 0.018605966 0.0018384076 0.01056663
0001e0 d7 09 b1 ba e6 3f 65 bc b9 43 91 bc bf cc 01 bc
       -0.0013506961 -0.013992285 -0.017732488 -0.00792235
0001f0 37 c1 00 3d 8a d1 ad 3b f0 e2 20 bc 4f d5 4e 3c
       0.031434264 0.00530452 -0.009819731 0.012624099
000200 3f b2 0a bc 6d 96 2c 3b 6a 06 4c bb 34 82 39 bb
       -0.008465349 0.0026334778 -0.0031131753 -0.0028306367
000210 ff c7 c9 3b 10 ac ed bb f8 97 92 ba df 1e 2c bc
       0.0061578746 -0.0072531775 -0.0011184206 -0.010505407
000220 be 39 81 bc 2b 75 4e 3b 74 ad bb 3b eb dc 24 bb
       -0.015774604 0.0031502943 0.0057274643 -0.0025156091
000230 6c 69 d6 bb 78 b8 31 bc 29 88 8d bb ff 8c c8 bb
       -0.006543329 -0.010847203 -0.00431921 -0.0061203237
000240 7d 6b ce b9 35 a0 fe 3a 61 c5 09 3b b3 f9 23 3b
       -0.00039371467 0.0019426408 0.0021022188 0.0025020659
000250 d9 be f6 bb 27 3c 5d 3c e7 98 4b bc 6e f8 8c ba
       -0.007530075 0.013503111 -0.0124265915 -0.001075519
000260 84 3b 73 3b 60 2e 51 3b ff dd b3 3a 58 f3 3d 3b
       0.0037114331 0.003191851 0.0013722776 0.0028984156
000270 8f 7e de 3b 2f 12 c1 3a 2c 21 fd 3b 1c dd 27 bb
       0.0067899893 0.001473015 0.0077249017 -0.002561397
000280 26 5f 36 3a 8b 1d 54 3b 37 99 2b 3b 2a d2 b7 3a
       0.0006956927 0.0032366242 0.0026183852 0.0014024426
000290 51 d4 d7 3a d6 05 3b bc 26 6c 0c bc cb 3d 9c bc
       0.0016466473 -0.011414966 -0.0085707065 -0.019072434
0002a0 5d a6 bf 3a 34 4d f1 ba 80 b4 1e 3b 09 8f 99 3b
       0.0014621724 -0.0018409849 0.0024216473 0.0046862406
0002b0 ae b6 1a 3c 0d 9e 6e 3b 1b 57 24 bb a4 36 e1 b9
       0.009442968 0.0036410124 -0.0025076333 -0.00042956055
0002c0 cd 54 7c 3c fe 2f 3f 3c 37 8d 72 bc bc d2 96 bb
       0.015401077 0.011669157 -0.014804176 -0.004602758
0002d0 2b 14 a1 b9 31 3a b3 3a e2 6a 28 3c 6d 9c 66 3c
       -0.0003072334 0.0013673959 0.010279389 0.014075381
0002e0 1f a8 cf bb b4 97 82 3b dd 08 cb 38 00 ce 42 bc
       -0.0063371803 0.0039853696 9.681445e-05 -0.011889935
0002f0 2e c5 37 bc ea 03 29 bc bb 66 ec bb 15 71 ce ba
       -0.011216445 -0.010315875 -0.007214395 -0.0015750254

gru.weight_ih_l0_reverse f4 [192, 6]
000000 0b 43 3c be 96 e1 58 be 9c 44 32 be df 02 dd bd
       -0.1838495 -0.21179804 -0.17408985 -0.10791563
000010 5b 4f 49 be b7 c1 94 3d 77 d3 e3 3d b6 e9 ca bd
       -0.19659178 0.07263511 0.11124318 -0.09907858
000020 28 0b ec bc 11 63 29 3d 5e 72 cd bd bd e0 df bd
       -0.028813913 0.041354243 -0.100315794 -0.10931537
000030 6e 07 6d be 62 f8 73 bd f5 83 94 bd a5 ab c7 39
       -0.23147365 -0.05956305 -0.07251731 0.00038084123
000040 03 42 96 bd 41 10 33 be 0e d8 2b be 0f de f9 bd
       -0.073368095 -0.17486669 -0.16781637 -0.122005574
000050 68 e5 44 3e 61 ad 2d 3e 21 03 d2 bd 54 d0 0e be
       0.19228137 0.1696067 -0.10254503 -0.13946658
000060 65 13 dd 3c db 6b 0f 3d 3c 1c 01 3e 50 32 88 3d
       0.026986787 0.03501497 0.12608427 0.06650221
000070 f0 bd 4c 3e 0f 39 2d be 9c 03 99 3d 47 37 0f 3e
       0.1999433 -0.16916297 0.074713916 0.1398593
000080 1a e2 55 be ea 4f f9 bd 5b 9e c4 bd c4 e4 51 be
       -0.20887032 -0.121734455 -0.096005164 -0.20497423
000090 78 91 79 be de ac 41 be 17 0b 4f be 61 3b ed 3d
       -0.24371898 -0.189136 -0.20219074 0.11583591
0000a0 96 eb d2 bd c9 40 75 be 40 6e 15 3d 29 c1 21 3d
       -0.10298841 -0.23950495 0.036482096 0.039490853
0000b0 48 d8 42 bd 48 17 8c bb 7d f5 28 3e 20 f8 4e bd
       -0.047569543 -0.0042752363 0.16499896 -0.0505296
0000c0 b4 93 fd 3d 44 92 ab bc 3c f5 4c be dd ae c3 3b
       0.12381688 -0.020943768 -0.20015424 0.005971773
0000d0 d3 e7 22 be 6e 0b 08 3e 1d 6b 0a 3e 69 95 51 be
       -0.15908746 0.1328561 0.13517423 -0.20467152
0000e0 25 fb 71 be 93 88 de bc 39 d7 02 3e ab 78 2a be
       -0.2363096 -0.027164733 0.12777413 -0.16647594
0000f0 88 1c 0b bd 85 d9 13 3e 9f ca 61 be 62 f7 9d 3d
       -0.033962756 0.14438446 -0.2204995 0.077132
000100 f2 67 42 3e 7a f4 96 3d 89 e7 25 3e d2 2f 7b bd
       0.18984964 0.07370849 0.16201605 -0.061324902
000110 06 8d 25 3e 03 4b 0f be f7 30 71 3e 7e f3 19 be
       0.16167077 -0.13993458 0.23553835 -0.15034291
000120 95 d7 aa bd 4d bd 67 3e 39 9a 14 3d 04 e1 6b be
       -0.083419 0.22630806 0.03627989 -0.23035055
000130 48 d0 6e bd 81 a9 6f 3d 59 b0 c2 3d 65 68 1a 3e
       -0.0583041 0.05851126 0.09506292 0.15078886
000140 9f 99 8d 3c c2 14 57 3e f9 78 e9 3c ff ec dd 3d
       0.017285166 0.21004012 0.028500067 0.10836219
000150 de 60 37 bc ce a9 27 3d 96 19 48 3e 0c 14 04 3e
       -0.0111925285 0.040933423 0.1954101 0.12898272
000160 90 57 63 3e 42 44 dd bd 19 db 42 3e 69 f7 3a 3d
       0.22201371 -0.10804035 0.19028892 0.045646105
000170 9b 11 12 3e 04 ec 08 be 75 91 98 bd 43 e4 57 3e
       0.14264528 -0.13371283 -0.07449619 0.21083169
000180 fc e0 af 3d 55 d1 05 be a4 2f ac bc 34 41 ac bd
       0.08587834 -0.13068135 -0.02101881 -0.08410874
000190 6e 67 81 3e b9 cd 07 be 12 c7 11 3b f8 83 e7 bd
       0.25274223 -0.1326207 0.00222439 -0.11304468
0001a0 c3 c3 c4 3c ab ae 62 3e b4 14 04 3e b1 6b ef bd
       0.024019128 0.22136943 0.12898523 -0.116904624
0001b0 e7 03 ba bb 73 59 90 bc fd 05 5d be d9 71 51 be
       -0.0056767347 -0.017620778 -0.21584316 -0.20453586
0001c0 2d 47 12 be dc 40 27 be 36 78 ce 3d 20 ac c6 bd
       -0.14284964 -0.16333336 0.10081522 -0.09700799
0001d0 ee e2 1b 3c 04 6f 1f bc f5 0a 48 be 77 7c ae 3d
       0.0095145535 -0.009731058 -0.1953543 0.085198335
0001e0 0f 2d fd bb 80 2a 4e 3c 24 02 70 3d 5b d2 d3 3d
       -0.0077263187 0.012583375 0.05859579 0.103428565
0001f0 92 51 db bc a9 d1 47 be df ef ca 3d 44 f4 56 be
       -0.026772294 -0.19513573 0.09909033 -0.20991617
000200 5c d6 a7 3d 97 83 c6 bc 76 d8 36 bd 4c 4e a5 bd
       0.08195183 -0.024232669 -0.044640027 -0.080715746
000210 7f aa 01 3e fb 9a da 3d c6 6d 05 3e c0 1f 42 3d
       0.12662695 0.106740914 0.13030156 0.04739356
000220 b7 2d e1 3c 92 f0 5c 3e 41 c0 3a 3e 7f 10 eb 3d
       0.027487619 0.21576145 0.18237402 0.11477756
000230 93 4e 2e 3e 25 24 31 3e d2 1f 3e bd 47 2d 22 be
       0.17022161 0.17298944 -0.046417065 -0.15837584
000240 ec 5a 6f 3d b7 1b c3 bb 93 88 d6 3b ae cb e3 3c
       0.05843632 -0.0059542316 0.0065470426 0.027807083
000250 86 41 80 bd 19 ee ef bb 00 69 02 3e da f7 69 be
       -0.062624976 -0.0073220846 0.12735367 -0.22848454
000260 47 4f e3 3d 1c 73 58 be 93 b3 07 3e 16 28 8e 3a
       0.11099105 -0.2113766 0.13252096 0.0010845687
000270 8f ce ad bd 4d b7 c3 bc 9f c6 5a 3e ce 8e c0 bc
       -0.084866636 -0.023891116 0.2136483 -0.023505595
000280 42 e6 c1 3d a5 7d ae 3d ab a5 ff 3d 01 30 21 3e
       0.09467746 0.085200585 0.124827705 0.15740968
000290 be c4 c6 3d e2 f2 1c bd 26 b0 34 3d 9d bc 37 be
       0.09705494 -0.03831757 0.0441133 -0.17943044
0002a0 05 30 d5 bd 6d 74 0f 3e 19 b5 4d be d8 e3 6d 3c
       -0.104095496 0.14009257 -0.20088615 0.014519654
0002b0 68 e5 3e 3c 3e 1b 15 3e 15 bb b7 3d 88 d2 7b 3c
       0.011651374 0.14561173 0.0897123 0.015370019
0002c0 bb cb f3 3c 57 a7 5b bc 09 45 d6 3d 23 3d f7 bd
       0.029760232 -0.013406596 0.10462386 -0.12072208
0002d0 77 e8 2f be f4 4d 52 3e e0 41 35 3b 63 9a 37 3e
       -0.17178522 0.2053755 0.0027657673 0.17929988
0002e0 a8 19 ca bd 55 7f f9 bd 3d ce 51 be 52 b6 77 be
       -0.09868175 -0.1218249 -0.2048883 -0.24190643
0002f0 ca a5 67 be 26 a5 63 be 69 d9 33 3e 01 db 4b be
       -0.22621837 -0.22230968 0.17563404 -0.19907762
000300 a5 83 dd 3d ec 07 e2 bc 3c 09 81 3c 4e 9e 60 be
       0.10816125 -0.027591668 0.015751474 -0.21935388
000310 63 49 58 be 11 b6 81 bd f5 f3 33 3d 0f 84 49 be
       -0.21121745 -0.063335545 0.043933827 -0.19679283
000320 f8 25 0e 3e d3 2c 22 3e d6 d5 3a 3d d5 3a 8b 3d
       0.13881671 0.15837412 0.045614086 0.06798331
000330 89 7a 15 3d 3f db 7a be 4b 64 63 be 98 ac a3 bd
       0.03649381 -0.24497698 -0.22206227 -0.07991904
000340 42 0d de 3d b6 0a 16 3e b7 57 3e be b0 e9 72 3e
       0.108423725 0.14652523 -0.18588148 0.23721957
000350 00 16 3f 3e 63 82 02 3e 4b d5 49 bd c3 3d 9d 3d
       0.18660736 0.12745051 -0.049275678 0.07677796
000360 8a c6 59 3d ec 7a d1 3c 9d 5b 3b bd 9c d1 0b 3e
       0.053167857 0.025571309 -0.045741666 0.13654178
000370 7d a2 2e 3e 1c ea 95 bd f3 2b e2 bd 32 07 13 bd
       0.17054172 -0.073200434 -0.11043539 -0.035895534
000380 f2 fe 83 3e dd 11 d1 bc 79 92 bf bd a3 1f 36 3e
       0.25780445 -0.025521213 -0.09354109 0.17785506
000390 eb e4 e5 bd a4 6a 62 be a9 ab ea bc e0 d8 9b 3b
       -0.11225303 -0.22110993 -0.028646307 0.004756078
0003a0 2b 85 6b bd 1f 66 4d 3d ab 39 62 3e 4f 4c 1a 3d
       -0.057500046 0.05014622 0.22092311 0.03767043
0003b0 da 4d 47 3e f0 d0 54 3e 48 55 91 bd 4f 45 8a bd
       0.19463292 0.20782828 -0.07096344 -0.06751501
0003c0 f9 4a c4 bd 7f 86 30 3e e4 15 11 be e3 07 fb bd
       -0.095846124 0.17238806 -0.14168507 -0.12257364
0003d0 80 fa 2f 3e ff 79 3a be ac 05 6f 3d e9 ca 1a be
       0.17185402 -0.182106 0.05835502 -0.15116467
0003e0 45 0f 6a be 09 62 f6 3c e0 a9 c3 3c 00 e2 01 be
       -0.22857387 0.030076044 0.023884714 -0.12683868
0003f0 ba 89 1c be e8 13 04 3e 59 2a 36 3e 68 09 60 3e
       -0.15286914 0.12898219 0.17789592 0.21878588

gru.weight_hh_l0_reverse f4 [192, 64]
000000 a4 b0 f8 3a 88 5e b8 bd 3d bf d1 bd f8 af a8 bd
       0.0018973541 -0.090024054 -0.10241554 -0.082366884
000010 84 96 cc bc 1c 12 be bb b7 7a 2d 3a 7f 17 d4 3c
       -0.024974115 -0.0058004986 0.0006617712 0.02589011
000020 3d 72 28 3d 92 a4 06 bd a5 3b 04 bd a2 69 5f bd
       0.04112457 -0.03287179 -0.032283444 -0.0545441
000030 8d 23 e7 3c 87 86 90 bd 8b 19 e2 3d 30 f0 05 3e
       0.028215194 -0.07056909 0.11040028 0.13079906
000040 9f 60 e8 3d af 53 19 3e fe 28 a0 bd c8 74 2f 3b
       0.11346554 0.14973329 -0.07820319 0.0026772488
000050 bf 12 0d 3e a4 36 8d 3c 80 c3 f1 3c 10 69 dd 3d
       0.13776682 0.017237969 0.029512167 0.10811055
000060 ec 78 c0 3d 84 f5 e1 3a 8c b4 77 3d 1f 96 31 3c
       0.09398064 0.0017239307 0.060474917 0.010839014
000070 ca f6 ab bd 41 97 55 bd 6b dc 06 3e ce f0 11 bd
       -0.08396681 -0.0521462 0.1317002 -0.03563004
000080 87 e1 13 bd 82 aa 1d be 1c 18 de 39 70 cf bd 3d
       -0.03610375 -0.15397075 0.00042361103 0.09268081
000090 c8 6c 5f bc dc 39 f2 bd 84 72 4e 3d 4f c2 d2 3d
       -0.013636775 -0.11827442 0.05040218 0.10290968
0000a0 38 9a e4 3d 4d a2 cf bc bc b7 d8 3b 25 e2 91 bd
       0.111622274 -0.025345946 0.0066136997 -0.07123212
0000b0 56 52 40 3a 75 38 25 3e 80 5b 8e 3d b6 85 29 bd
       0.0007336488 0.16134818 0.06951046 -0.041387282
0000c0 f4 61 8c bb 8c 84 54 3d 8a 1e 27 bd e1 01 9c bd
       -0.004284138 0.05188422 -0.04080061 -0.07617546
0000d0 0b 84 ec 3d 68 3c 7e bd 16 a7 e8 bc a6 b1 97 bd
       0.11548623 -0.062069327 -0.028399985 -0.074069306
0000e0 8e 58 fe 3c 18 2c 07 be 62 5c 4d bd a6 cd 2c bd
       0.031048086 -0.13200414 -0.05013693 -0.04218831
0000f0 3e c9 98 3d 94 08 cd bd 00 f6 f0 3d 71 3c 29 bc
       0.07460259 -0.10011402 0.11765671 -0.010329352
000100 9b 53 22 3d 51 65 ca bc c5 c1 b6 3d b1 f4 d0 3c
       0.039630514 -0.024706515 0.08923677 0.025507303
000110 5b c1 9e 3d f4 12 ae 3c 2a 17 95 3a 81 68 b9 3c
       0.077517234 0.021249272 0.0011374701 0.02263284
000120 40 0b ab bc 93 ea 42 3d 27 c1 a3 bc 0c dd e4 bd
       -0.020879388 0.04758699 -0.019989563 -0.11174974
000130 1f 60 ac 3c 92 25 4f 3d 83 98 d3 bc 42 5c 8c 3d
       0.021041928 0.05057294 -0.02582956 0.06853534
000140 e6 31 ec bb 3c 58 52 bd f9 7a 38 bd b8 a5 a1 bd
       -0.007208097 -0.051353678 -0.04503915 -0.078929365
000150 1d 7a 10 3a aa cd 88 3d ed 69 03 3e 4a df 34 bd
       0.00055113604 0.06679852 0.12833376 -0.044158258
000160 5e f1 4d be 98 6f 42 be 67 7b 6b 3d 37 91 e2 3d
       -0.20111606 -0.18987882 0.057490733 0.11062854
000170 b5 60 3b 3d f9 23 f8 bc e5 2c 89 3d d2 32 58 bd
       0.045746524 -0.03029059 0.06698016 -0.05278284
000180 90 03 69 bd 04 14 7f bd 3a d8 74 bc ab ef 23 3d
       -0.056888163 -0.062274948 -0.014944131 0.040023487
000190 c2 39 f7 3d b0 e3 f9 3c 32 a1 04 be a9 2c a5 bd
       0.12071563 0.030504078 -0.12952116 -0.08065159
0001a0 1a 23 e4 bc 34 c1 ef 3c 93 40 18 be a9 60 b4 3b
       -0.027848769 0.029266931 -0.14868383 0.005504687
0001b0 54 ec 96 bc e0 2d 90 3c b8 3a 05 bd 11 86 1d bd
       -0.018423237 0.0176 -0.0325267 -0.038457934
0001c0 8a a9 6e 3d 2d f7 ec bc f2 eb b8 bd 6f ca 8c bd
       0.058267154 -0.028926456 -0.09029378 -0.06874549
0001d0 52 cc 14 3e f7 53 bb 3d 4d 24 9a bd 37 f8 09 bd
       0.14531067 0.091468744 -0.07526455 -0.03368398
0001e0 8f 6f 96 3d 90 29 2a be 99 10 41 bd cc 8d 2f 3d
       0.07345497 -0.16617417 -0.04713497 0.042859837
0001f0 58 eb a1 3d ce 0d 84 3d 4e 0f 10 bd c0 a0 49 bd
       0.079062164 0.064479455 -0.035170846 -0.04922557
000200 3d 3e cd 3d ee e9 6f 3d 56 00 17 bd 7b 86 e9 bd
       0.10021637 0.058572702 -0.036865555 -0.11402603
000210 7e e4 25 bd 66 a8 cf bb ac 44 b3 3d 86 ed 2d bd
       -0.04050111 -0.0063372133 0.087533325 -0.042462848
000220 5c ec d4 3d 84 e0 b4 bd 38 f1 15 bd 1b ca 1d bd
       0.103966445 -0.088318855 -0.036606997 -0.03852282
000230 e7 84 e3 bd c6 bd 2c 3d cc 09 6a bb 31 87 2a bc
       -0.111093335 0.04217317 -0.0035711406 -0.010408209
000240 d9 16 16 3d c8 24 d9 bb bd 16 ea 3c 4f ca 0d 3c
       0.036642883 -0.006626699 0.028575296 0.008654191
000250 09 f8 3b bc 74 f3 e6 3d 2a 24 8d bc b7 2e a0 bd
       -0.01147271 0.11276904 -0.017229158 -0.0782141
000260 26 95 a2 3c f8 ff 29 3e 68 82 32 3d d6 d2 3c bb
       0.01984651 0.1660155 0.043581396 -0.0028812191
000270 62 1e b0 bd b8 4a c9 bd 70 cc 54 3d 06 ab 26 3d
       -0.08599545 -0.098287046 0.05195278 0.040690444
000280 06 68 86 3b f9 a5 c8 3c 25 aa 70 3d 3d 1d 02 bd
       0.004101756 0.024493204 0.058756012 -0.031766165
000290 79 a7 01 be 06 e9 b2 3c eb 05 81 bd b7 10 e0 3d
       -0.12661542 0.02183963 -0.06299957 0.10940688
0002a0 87 e7 05 be 2d 9a b5 3d 72 18 bf bd 4d 72 05 bd
       -0.13076602 0.08867297 -0.093308344 -0.03257971
0002b0 d2 db fb 3d e1 d1 8e 3d 51 57 ed bc aa ed 5e 3d
       0.12297787 0.06973625 -0.0289723 0.054425873
0002c0 6e 34 f6 bc 5f d0 48 bc bb 9f de bc 1f 97 cb 3d
       -0.030054297 -0.012256711 -0.027175775 0.099409334
0002d0 58 06 a5 bc 6a eb 37 3b 26 0f 9a 3c 4a 9a 4c 3b
       -0.020144626 0.0028063902 0.018806051 0.0031219893
0002e0 c8 cb 96 bd 45 8b bb 3d 62 22 3b bd 6f 3c 1f 3e
       -0.07363087 0.09157423 -0.045687087 0.15550397
0002f0 c4 98 f6 3d 45 9e 0b 3e ab 25 fb 3c 03 39 50 be
       0.120408565 0.13634594 0.03065761 -0.20334248
000300 2f 4f a0 3c f0 aa d9 3d 45 78 a6 bd f8 b0 1e 3e
       0.019569008 0.10628307 -0.08128408 0.15497196
000310 37 31 a4 bd b0 c6 0e 3d ef 8d 64 3d 90 69 2c bc
       -0.080171995 0.034857452 0.05579942 -0.010523215
000320 d0 da c4 bc 30 f9 76 3d 31 7a ef 3c 42 bf 51 bb
       -0.02403012 0.060296237 0.02923307 -0.0032004868
000330 c8 26 35 bd 9a 33 a7 bd 2a 06 bf 3d b3 00 4a 3d
       -0.044226438 -0.08164139 0.093273476 0.049317073
000340 e9 4d 83 bb ff c3 57 bc 87 82 09 3d 22 8d 30 3d
       -0.0040070903 -0.013169288 0.033571746 0.043103345
000350 e3 0c bc 3d c1 cd 01 3e 24 02 ed bc c7 15 cc 38
       0.091821454 0.12676145 -0.028931685 9.7315344e-05
000360 e1 f8 3f ba 97 b6 b2 bd 20 66 52 bd 5a fb fa bc
       -0.00073231576 -0.087262325 -0.051366925 -0.030637432
000370 40 93 31 3d 49 e9 c8 3c 1c fa a0 bd 52 33 c3 bb
       0.04335332 0.024525302 -0.078602046 -0.0059570456
000380 f9 36 b6 bd d5 9c d1 3c 0b f0 e9 bd d9 95 cd 3d
       -0.08897204 0.025587479 -0.11422738 0.10038347
000390 2e 14 65 bc 7d 52 26 3d bd 20 e0 3d ce ef aa 3c
       -0.013981862 0.04060601 0.10943744 0.0208663
0003a0 09 33 de 3b 96 56 c6 bb 50 53 0f be e8 14 1a 3d
       0.006780986 -0.0060528023 -0.13996625 0.037617594
0003b0 73 12 71 bc 4e 01 02 bd 1f 16 ee bd 81 0f 2c 3c
       -0.014713871 -0.031739525 -0.11625313 0.010501743
0003c0 91 ec 1b bd 7c 71 25 bc f9 7a 93 bd 66 32 3b bd
       -0.038067404 -0.010097858 -0.072011895 -0.04570236
0003d0 f9 9d d4 3d c6 6e 13 3e 79 a3 3e 3d 07 bb 6b 3b
       0.103816934 0.14397725 0.04654262 0.0035969631
0003e0 63 9b 1c bd c7 fb 18 bc 20 ec 04 be a2 bb aa bc
       -0.038234126 -0.009337372 -0.129807 -0.020841423
0003f0 90 8a 61 bc 9d 3d 58 bc dc 58 ca 3d 61 c1 b1 bd
       -0.013765946 -0.0131982835 0.0988023 -0.08679462

gru.bias_ih_l0_reverse f4 [192]
000000 ed 93 0f 3c d9 e1 4f 3c de 2b a0 3b 98 94 a4 3a
       0.008763296 0.012688124 0.004888042 0.0012556491
000010 4a 3f 8a ba f6 b0 c2 3b d3 3a 87 3b a9 50 c1 bb
       -0.0010547426 0.0059415055 0.0041268854 -0.005899508
000020 1b 21 0c 3a b1 19 ea ba 51 b2 14 3c 74 90 5e 3b
       0.0005345509 -0.001786044 0.009075717 0.0033960612
000030 83 22 6a 3c 68 7b a6 3c fb 10 42 3c cf 8c a0 3c
       0.014290455 0.020322517 0.011844869 0.019598393
000040 71 17 d6 3a bf c9 07 3c 06 05 be 3a 4f b0 a4 3a
       0.001633389 0.008287846 0.0014497347 0.0012564751
000050 c4 5b 9a 3c 7b 8f cc 3b 98 d4 37 3c 16 50 50 3b
       0.018842585 0.00624269 0.01122012 0.0031786016
000060 d8 bc 54 3c a9 65 8c 3a 15 17 ca 3c 0c bf 8d 3c
       0.012984477 0.001071145 0.02466921 0.017303012
000070 b8 8c ca 3c 3a d0 05 bb c2 03 4d 3b 05 e0 a3 bb
       0.024725303 -0.0020418302 0.0031282757 -0.0050010704
000080 7e aa 54 bc 3c 35 f3 bb 06 26 5a ba 7e 43 83 3b
       -0.012980102 -0.0074221175 -0.0008321706 0.0040058484
000090 4c a7 fa 3a b2 2f dc 3a b8 87 16 3c 66 b9 4f bb
       0.0019123345 0.0016798882 0.009187631 -0.00316962
0000a0 ff 8d f8 3b a9 c0 d5 b8 78 76 33 3c cd 85 57 3c
       0.0075852866 -0.00010192517 0.010953538 0.013154459
0000b0 a7 d2 a6 3b 4d 02 8e 3b 7f c0 64 3c 47 81 3a 3c
       0.0050910297 0.0043337704 0.01396191 0.011383361
0000c0 a9 2e 24 3c a8 5b 8e 3b a1 d0 2a 3c 00 dd a7 bb
       0.01002089 0.0043444224 0.010425718 -0.005122781
0000d0 46 08 d8 3b ba 34 82 3c 0b 4e fb 3a 7d d2 cb b9
       0.006592783 0.015894283 0.0019173039 -0.00038876003
0000e0 d1 30 74 bb f7 2b 0a 3d f7 67 28 3a 0f ba f2 b9
       -0.0037260542 0.033733334 0.00064241834 -0.0004629646
0000f0 7e 74 ec bb e3 89 3c 38 36 c2 c1 3b bf 8f fe 3b
       -0.0072160354 4.495111e-05 0.0059130443 0.0077686007
000100 ae 39 02 3c 56 f1 79 3c 97 05 80 bc 93 69 35 bc
       0.007948322 0.015255293 -0.015627665 -0.011072534
000110 16 62 9f 3b 89 7f 54 bb 3e 98 fc 3c 8a 17 6e 3c
       0.0048639877 -0.003242465 0.030834313 0.014531979
000120 02 de 98 3c 84 7e a1 3b 0a fc 65 3b 4f c7 2c 3c
       0.01866055 0.004928412 0.0035092854 0.010545566
000130 c1 27 34 3c 9a 23 a5 3c 28 1d ce 3c c9 5f ad bb
       0.010995806 0.020158578 0.025160387 -0.0052909595
000140 08 23 c1 3c cb 1f 9a 3c b0 fd 3d bc 52 0a 59 3b
       0.023576275 0.018813988 -0.011596128 0.0033117724
000150 e7 f5 6f 3c 4b 13 a7 3b 94 bf 19 3c d7 1f 03 3d
       0.01464603 0.0050987354 0.009384055 0.032012787
000160 ff dd 0b 3d ef b6 bb 3c 13 78 06 3a ec f8 1d bc
       0.03414726 0.022914378 0.0005129587 -0.009641867
000170 33 e0 de 3b b9 95 2c bc 3c 1a 85 3c 36 76 e6 3c
       0.006801629 -0.010533744 0.016247861 0.02813254
000180 b4 81 30 bc 1a 63 a7 3a 4c 46 82 3c 8d b2 f9 3c
       -0.010773111 0.0012770623 0.01590266 0.030480647
000190 fd c9 2c 3d 11 d9 89 3b 85 e9 33 3c ef 0d 02 3a
       0.04218482 0.0042067845 0.010980968 0.0004961183
0001a0 87 38 5f 3c 9b 36 89 bc e6 ab c2 3b 7e cc 8e bb
       0.013624317 -0.01674967 0.005940902 -0.0043578735
0001b0 60 dc db 3c 82 ab 81 3c 46 3f 81 3c 54 1e 31 3c
       0.026838481 0.015828852 0.015777241 0.010810453
0001c0 52 02 d7 3c f9 b3 09 3c b0 c7 e5 39 99 42 c8 bc
       0.026246224 0.008404725 0.00043827062 -0.024445819
0001d0 0a bf 8e 3c bd e2 ea ba 12 11 bc 3c 1d 59 3c bc
       0.017425079 -0.0017920356 0.022957359 -0.011495856
0001e0 6a 7f e9 bb a5 bb d3 3b fe cb 8a 3b 69 2f b2 3b
       -0.0071257846 0.006461578 0.0042357435 0.0054377806
0001f0 9a 42 ae bb 11 a5 1f bc 52 65 d7 3c 68 34 33 3b
       -0.005317998 -0.009743945 0.02629343 0.002734447
000200 24 27 01 3c 7e 59 a7 bb dc da 71 bb e0 b6 03 bc
       0.007882867 -0.005107104 -0.0036904132 -0.008039206
000210 4c f5 72 3b 4f 00 31 3b 9a 2e f8 3b a5 72 b7 3a
       0.0037072478 0.002700824 0.0075739147 0.0013995959
000220 98 bf ec bb b1 9d 2a 3c 4d 25 23 3c 53 15 b9 bb
       -0.007224988 0.010413573 0.009957624 -0.005648294
000230 a1 b6 31 bb 63 06 09 3c fb ef 2c bc 1d f9 7e 3b
       -0.0027116912 0.008363339 -0.010555263 0.0038905807
000240 fc d1 5a bc 75 1b d5 bb 01 bd a9 3b 05 e6 73 39
       -0.013355728 -0.0065035173 0.0051800017 0.00023259975
000250 3b af 29 3b 97 8f f7 3b 7b 0b 19 3b 23 95 89 b7
       0.00258918 0.007554959 0.002335279 -1.640112e-05
000260 34 2b 90 bb 18 fc 50 3a 8e f7 2b bc 2d b1 9c bc
       -0.0043996815 0.0007972135 -0.010496033 -0.019127453
000270 ed 6b 3e bb b9 60 10 3b 2a ad 80 bc 57 40 c2 ba
       -0.0029056028 0.0022030307 -0.015707571 -0.00148202
000280 16 46 14 3c 6d 98 79 bb a7 85 56 3b 94 a8 9a 3b
       0.009049913 -0.0038085238 0.0032733472 0.004719803
000290 e4 4a 33 3b 15 3a e6 bb 13 6a ff bb d2 3b 1d 3b
       0.002735787 -0.007025967 -0.0077946275 0.0023991955
0002a0 90 d2 fa 3b 73 16 30 3b 81 cd d6 3b 2c 1e fd bb
       0.0076544955 0.002686885 0.0065552597 -0.007724544
0002b0 06 1a 0e bc dd d2 bc 3b 92 61 c3 39 76 a0 03 bb
       -0.008673197 0.0057624415 0.00037265994 -0.0020084656
0002c0 6a ce a5 bb 20 cc da ba 7b 34 55 bc 3d c3 aa bb
       -0.005060007 -0.0016692914 -0.013013001 -0.0052112625
0002d0 bb 8a 86 bb 76 d7 d0 3a a3 7e 48 3a 1c 69 93 bb
       -0.0041058934 0.0015933353 0.0007648265 -0.004498614
0002e0 44 e7 94 bb e6 e7 b8 3b 8f 52 83 3b 86 3b fa 3b
       -0.0045441706 0.005642879 0.0040076445 0.0076364903
0002f0 af e8 bc 3b 0c 12 dd 3b 1b 4d 02 3c 4e 78 01 3b
       0.0057650427 0.006746536 0.007952954 0.0019755545
