model/best_weights/llama-3-70b_h100_tp8.pt (torch, 117973 bytes, 10 tensors)

gru.weight_ih_l0 f4 [192, 6]
00000000: 3feb 9c3d 487a 1e3d 5ddf ae3c f773 91bc
00000010: f905 7b3e 3453 e63d 7198 1d3c d183 3b3c
00000020: f7fc 533c 5342 df3d 2a0d 7a3e bd09 22bc
00000030: 0fe2 5dbd a1b6 753d 432c 0e3e ff8f 1e3d
00000040: 05de fe3b 98d7 553d 5b72 0cbd 90fc 30be
00000050: 564c 9ebd 5761 dabd 45f9 e73c bf54 22be
00000060: b876 1e3c bfed 2dbe a31a 2f3e 2628 9739
00000070: 262c 773e f852 53bc 5780 053e 7774 34bd
00000080: e8f7 21bd 4194 8f3d 7326 083e 2fe7 94bd
00000090: 9155 e6bd 1b96 04bc f022 d1bb e943 c9bc
000000a0: 927c 30be 4251 8bbc c32b 2d3e 77d4 a23d
000000b0: ff8a 943d 6ad1 87bc 069c 9a3d d97e f3bd
000000c0: a8c3 32be 30c1 e1bd 179e 1abe f496 36be
000000d0: 8aa2 b4bd 4024 423c 8526 5cbe 7181 8ebb
000000e0: 4850 eb3b b363 cf3c 0131 783d 14e1 3ebd
000000f0: 4d01 0ebe 9c28 93bc f3bb 52bc d5e3 d0bd
00000100: 3bcd c6bb e4bc 10bc 20df 08bb bf9b 013d
00000110: 440c a3bd 2374 38bd d0b1 f23d 6538 9cbd
00000120: 7923 cfbd 436c 90bd 5da6 a2bc a849 bdbd
00000130: 9d81 d2bd 5635 8f3d 6e74 9a3d 113e 5bbd
00000140: bee9 98bd 2c81 713d 7330 6f3e 0602 b83d
00000150: a454 dbbd d8e8 9a3d c30b 97bc dfe2 9fbd
00000160: 9eba fcbb bd80 fc3d 373b 663d 8028 33bc
00000170: 543a cabd f97e c6bc f561 a3bd 2635 c03d
00000180: 4fa8 e0bd a2ab b9bc 25c6 dc3d 9213 36bd
00000190: a688 f8bd 9d06 77bd ce5d d33c a1a2 f03c
000001a0: d424 fcbd 460b 00be c8d1 323e f55d 363c
000001b0: 768f dfbd ecbf 523e b9bc 32bd a4a1 acbd
000001c0: ab47 1cbd 5e9f 27be 6d07 ae3b 036e b73d
000001d0: fe74 07bd 6af2 02be c7c1 ac3d 850d fcbd
000001e0: 11b9 b63d 5fbc d83d 3d4a f53d 930d 9e3d
000001f0: 4742 85bb 75cc ebbd 296f 88ba 47d9 3cbc
00000200: 3a06 d0bd cde9 043e ddf9 393d 5f4c c4bc
00000210: 0364 85bc d110 893d df12 96bd a280 52bd
00000220: 06a8 153e d71f 73bd c644 a4be 4231 a1bd
00000230: a656 48be aea3 023e 4165 cb3d a325 ba3c
00000240: ee90 33be 2130 85be c804 f3bd ae90 b03d
00000250: 81e9 d73d 16b3 d03c b170 45be 9bd8 04bd
00000260: 2fb9 16be 5b74 cb3c 96bc a0bd 9a68 77bd
00000270: 5f67 403d d5f3 ce3c cbfe 2e3e 2f88 6a3d
00000280: 1c92 813d 4922 28bd df1a 873b 10d4 8a3d
00000290: bdb7 cfbc 8071 09be ebc9 2a3d 3312 e7bd
000002a0: 5205 97be 0102 94bd e9e8 a5bd 31b5 153e
000002b0: 8783 203e 3610 603d a3d5 62bd e4d6 0ebe
000002c0: 49b5 5b3c 5d05 f03d ce01 903c 0ca0 ebbd
000002d0: f37a 843d 918c 043b 6c31 32bd fc93 893d
000002e0: 3abc 793e 7d9d 98bd 5dd8 17be 04ec 2a3a
000002f0: 0ca9 61bc 4ab2 d73d f535 1b3d a86d 733c
00000300: adcf c33c fc34 133e beef 053e ae4c dc3d
00000310: ae6d 0fbd c698 2d3d 3cac c4bd d61a e4bc
00000320: e25e 06be a850 843d c25b 05bd 0af7 6b3d
00000330: 9505 7a3c 7090 9a3d e69c 7dbd e2c8 3c3e
00000340: 8186 0f3e df9c ff3d 1345 d83d 14bc de3d
00000350: b760 39bd e445 f23c 9ac1 dbbd 20b9 bf3d
00000360: 7480 5abe 5d7f 793c 0547 80bd 8044 903d
00000370: 1da0 563c c0a9 d0bd ec14 523d f757 213c
00000380: d98e 90bd b0b5 b73d 7a0d 0b3e c845 37bd
00000390: 72c8 d1bd 6e3a 0cbe 13d9 ac3d 4d4e 96bd
000003a0: ff57 f43d c906 9fbd 6b76 3abe 124e fcbd
000003b0: 364d 2abe aa4f e1bc cb4a 3fbd c505 56bc
000003c0: 10ec a43c d7f3 d33d a6a5 1ebe b736 9dbd
000003d0: cf8f c23d db00 48bd d707 743d 2bbe 03bd
000003e0: 43c2 f4bd 91de ea3d ab49 ce3d 9ed8 e53d
000003f0: 8952 c3bd 687d 9e3d 93f6 cfbd fe0c 7bbc
0.07662057 0.038690835 0.021346742 -0.017755492 0.24513997 0.112463385 0.009618864 0.011445002
0.0129387295 0.10901322 0.24419084 -0.009890017 -0.054170664 0.05998862 0.13884072 0.038711544
0.0077779316 0.05220756 -0.034288745 -0.17283845 -0.07729404 -0.10663097 0.028317103 -0.1585264
0.009671859 -0.16985224 0.17100005 0.00028830877 0.24137935 -0.012898199 0.13037239 -0.044056382
-0.039543062 0.07010699 0.13295917 -0.07270657 -0.11246789 -0.008092429 -0.0063823387 -0.024568515
-0.1723502 -0.01700652 0.16911225 0.07950681 0.07253074 -0.016579349 0.0754929 -0.11889429
-0.1745745 -0.11023176 -0.15099369 -0.17831022 -0.08820064 0.011849463 -0.21499069 -0.0043489267
0.007181201 0.025316095 0.06059361 -0.04660137 -0.13867684 -0.0179637 -0.012862193 -0.101997055
-0.006066946 -0.008834098 -0.0020884946 0.03164267 -0.07961324 -0.04503263 0.11850321 -0.07627944
-0.10114188 -0.07051899 -0.019854719 -0.092425644 -0.10278628 0.06992595 0.075417385 -0.053525988
-0.07466458 0.05896108 0.23358326 0.08984761 -0.10709503 0.07563943 -0.018438226 -0.07806944
-0.007712676 0.123292424 0.056208815 -0.010934949 -0.098744065 -0.024230467 -0.07977668 0.09385137
-0.10969602 -0.022664849 0.107799806 -0.044452257 -0.121354386 -0.06030904 0.025801565 0.029374423
-0.12311712 -0.125043 0.17462838 0.0111308 -0.10916035 0.20581025 -0.04363701 -0.08429268
-0.038154285 -0.16369388 0.005310944 0.0895653 -0.033070557 -0.12787786 0.084353976 -0.12307266
0.08922017 0.10582804 0.119770505 0.07717433 -0.0040667388 -0.115136065 -0.0010409105 -0.011526412
-0.101574376 0.12979813 0.045404304 -0.023962198 -0.01628304 0.066926606 -0.07327818 -0.051392205
0.14614877 -0.059356537 -0.3208372 -0.07870723 -0.19564304 0.12757751 0.09931422 0.022723025
-0.17535755 -0.26013282 -0.11866146 0.086213455 0.10542584 0.02547602 -0.1928127 -0.032433134
-0.1471908 0.024835756 -0.0784847 -0.06040249 0.046973582 0.025262753 0.17089383 0.05725878
0.06326696 -0.041048322 0.0041230763 0.06778729 -0.025356168 -0.13422203 0.04169647 -0.11282768
-0.29496247 -0.07226945 -0.08101065 0.146199 0.15675174 0.05470296 -0.05537952 -0.13949162
0.013409921 0.11719773 0.017578986 -0.11505136 0.06468763 0.0020225386 -0.043504164 0.06717679
0.24388209 -0.074519135 -0.1482863 0.00065201544 -0.013773214 0.10532053 0.037893254 0.014857687
0.023902738 0.1437568 0.13079736 0.10756813 -0.035016708 0.042382024 -0.096031636 -0.027844828
-0.13122132 0.064606965 -0.03255821 0.05760864 0.01526012 0.075470805 -0.061917208 0.18436006
0.14016153 0.12481093 0.1056005 0.10875717 -0.04525825 0.029574342 -0.10730286 0.09361482
-0.21338063 0.01522812 -0.06263546 0.07044315 0.013099697 -0.10188627 0.051289484 0.009847633
-0.07058496 0.08970201 0.1357936 -0.044744283 -0.1024331 -0.13694164 0.08439841 -0.073391534
0.119308464 -0.07764966 -0.18209235 -0.12319578 -0.16631016 -0.027503807 -0.046702188 -0.013062899
0.020132095 0.10349243 -0.15492877 -0.07676452 0.095000856 -0.04882894 0.05957779 -0.03216378
-0.11951115 0.114682324 0.10072645 0.11222957 -0.09537227 0.07738763 -0.10154452 -0.015322922

gru.weight_hh_l0 f4 [192, 64]
00000000: 92e2 8ebd d30f 0d3e 62f8 8cbd fe5d b13c
00000010: bb0c fabc d187 083e 1d98 3c3c ec08 dd3c
00000020: 6955 083e 995c a73d 9062 86bc ca2a 53bc
00000030: 415b 20be 9693 1abe 3b33 58bd 4b1b ce3c
00000040: 77d8 07bd fa31 dfbd 4fcd ecbd dce7 103d
00000050: 2391 d43d c29b 03bd 5608 c73c eb46 553d
00000060: a53f 543d e92c cc3d 3264 5a3e d23b 2ebd
00000070: 439d a63b 1ad0 3f3d a76c 523d 1e11 833d
00000080: 4eea 2dbd 4ac4 863d e744 93bd b541 b0bd
00000090: b9c3 a53d a979 67bd 1376 f0bd 7ece d6bc
000000a0: 84ba fdbd f0cf b1bd e841 893c 6882 23be
000000b0: 76f6 1ebe 749f 06bd cadc 0f3b 8749 9ebd
000000c0: 38bc de3d 74d2 993d b7af 47bd 4e5d d5bc
000000d0: 9ddd 9e3d e63b cbbc b5b7 c9bd a49e 683d
000000e0: 4325 64bd 292e 2abd 6d59 4fbd 0044 ff3a
000000f0: 633b 08bc a4ab 15be 2da1 f5bd 8a61 4d3b
00000100: a401 21be 172a c7bc 3398 a3bd c667 1ebd
00000110: c53c c7bd ad24 283e 7224 d9bd baeb 01be
00000120: c78a aebc 692a 023e 7239 98bd e723 adbd
00000130: f7f1 18bd 8a9d 0fbe 142e 7ebb d366 3c3e
00000140: f6e7 a9bd 89ed 68be e748 03be 48c4 13be
00000150: 3425 653d 7079 a1bd ab51 96bc 7603 4f3d
00000160: 47f1 993d 8263 aabc 5343 253e 91aa 8ebd
00000170: b1fd 4cbb feb5 563e 000b 2a3e 08d6 35be
00000180: d551 f1bc 02c6 ba3c 7596 e53c e055 473d
00000190: 098d 30be 50dc 9e3d a6cf a63c 66fd 013e
000001a0: 1901 0f3d 1dfd 43be 2835 50be 4e37 e7bd
000001b0: a44a 1d3c bcdd 2a3d e780 52bd 9c26 483e
000001c0: 0a1c 9dbd 9c8f 0ebe 1359 57be 7fab eebd
000001d0: 7176 cebc 207f 073e 99ca 8bbd b0a0 1ebe
000001e0: d390 acbd 2af8 cfbd bb96 d0bc e6da 18be
000001f0: 07bb 16bc e0ea 53bd 68fa 02bd 3296 e3bc
00000200: 9fae d5bc 4767 31be 5b77 fcbc 4b79 633c
00000210: 9dcf 043e 7947 4ebc 984c cebd 20bd b93d
00000220: 4070 013e 0057 80bb b0fd 48bd 9cf0 84bd
00000230: b6c3 31bd d2dc 3a3d dfeb 95bd 357a da3b
00000240: 192b 963d 38d4 3bbd b797 83bc f061 a7bd
00000250: 783b c93c 98b2 96bd 40c4 703c c3f2 9a3d
00000260: bf8d c33d a0a9 983d 438b 0e3e aa8b 85bc
00000270: ace0 0e3e 8ce6 593b aa86 4dbd 9a4c efbd
00000280: 43b1 8fbd 68cf a3bd 5938 9b3c c9a0 a03c
00000290: b456 1d3d 5aaf 8b3c d5b7 6dbd 0214 fd3d
000002a0: dd34 c7bc 23b9 9e3d 11a4 c93c ed6b 84bd
000002b0: f9bc f93d 3069 173d c761 343d b8ae a43d
000002c0: 25ec 8abd 1b6f 94bd 8334 8ebd 9357 0ebd
000002d0: 026c 9939 7e10 3ebd 22d6 50b9 d5da ccbd
000002e0: e68b 02be 0c97 07bd cf9a e9bd e499 e1bd
000002f0: 7697 623d 4fc9 10be 35b7 17bc 03e1 65bd
00000300: a449 59bd 9480 a5bd 92e2 77bd 2f7b 933d
00000310: 6007 933d 0569 ec3d b50a f1bd 0743 4bbd
00000320: e2ba 30bd 62f8 ae3c ee7e b3bd d405 39be
00000330: c408 5c3d 6157 943d 27bb a8bc 48af d33d
00000340: 2e34 77bd 407f ea3d bc15 1e3e 8eaa 163d
00000350: 9d30 363b 18ea 99bd ed69 9f3d a223 26be
00000360: de29 6cbd dfff 38bd c937 f83d 4a6b 0dbe
00000370: 230d 81bd 4331 123d 3540 81bd 8759 b2bd
00000380: 788c 683d e3c2 6a3c 65de 53bc 81fb 03be
00000390: 1792 e53d 48e5 443d a4fc 663d 4883 a6bd
000003a0: 4cb6 a2bd 29a5 683c 28cf 9b3d 0434 993d
000003b0: 5469 71bd 3523 8e3d 26fa 8ebd 3b58 6fbd
000003c0: 2f6b 443d 7dbf 3e3d 9769 373c fd77 78bc
000003d0: 46bb b63c 59e8 d0bc c8f5 fb3d 2b64 40bd
000003e0: f743 133c 58be 61bd 331e 81bc 96a1 27ba
000003f0: e03e 0abe 5443 2bbc 4371 3fbd 3538 8bbd
-0.069768086 0.13775568 -0.06883313 0.021651264 -0.030523648 0.1333306 0.011510876 0.026981793
0.13313831 0.081719585 -0.01640442 -0.01288862 -0.1565981 -0.15095362 -0.052783232 0.025159499
-0.03316542 -0.10898204 -0.11562597 0.03537737 0.10379245 -0.032130964 0.024295967 0.052069586
0.05181851 0.099695034 0.21327284 -0.042537518 0.005084665 0.04682932 0.05137315 0.06399749
-0.04245978 0.06580408 -0.071908765 -0.086062826 0.08093972 -0.05651251 -0.11741271 -0.02622151
-0.12389091 -0.08682239 0.01675506 -0.15967715 -0.15523705 -0.03286691 0.002195167 -0.07728868
0.10875744 0.07510844 -0.04875156 -0.026045468 0.07757113 -0.024808835 -0.098494925 0.056791916
-0.055699598 -0.041547928 -0.050622392 0.0019475222 -0.00831494 -0.14616257 -0.119936325 0.0031338655
-0.15723282 -0.024312062 -0.07988014 -0.038673185 -0.09728388 0.1642024 -0.106026545 -0.12687579
-0.021306409 0.1271149 -0.07432832 -0.084541135 -0.03734013 -0.1402494 -0.003878479 0.183986
-0.08296196 -0.22746862 -0.12820779 -0.14430344 0.055943683 -0.078844905 -0.01834949 0.05054041
0.07516723 -0.020799402 0.16138963 -0.06966127 -0.0031279142 0.20967862 0.16605759 -0.17757428
-0.029457966 0.022799496 0.028025845 0.04866588 -0.172413 0.07756865 0.020362686 0.1269432
0.034913156 -0.19139524 -0.20332778 -0.112898454 0.009600315 0.04171537 -0.051392462 0.19545978
-0.07671364 -0.1392197 -0.21030073 -0.11653804 -0.025202962 0.13232088 -0.06825752 -0.15490985
-0.084260605 -0.101547554 -0.025462499 -0.14927253 -0.009199864 -0.051737666 -0.031977087 -0.02778158
-0.026084242 -0.17324553 -0.030818632 0.013883899 0.12969823 -0.012590283 -0.10073203 0.09069276
0.12640476 -0.003916621 -0.04907006 -0.06491205 -0.043399535 0.045620747 -0.073203795 0.0066674002
0.07332439 -0.045856684 -0.016063554 -0.08172977 0.02456449 -0.07358283 0.014695227 0.075658344
0.0954852 0.074542284 0.13920312 -0.016301949 0.13952893 0.003324899 -0.050177254 -0.116845325
-0.07016232 -0.07998544 0.018947767 0.019607918 0.038412765 0.017051388 -0.058036644 0.12357332
-0.0243172 0.07750156 0.024614366 -0.06465898 0.12194247 0.03696555 0.04403856 0.080411375
-0.06783322 -0.07247754 -0.069436096 -0.034751486 0.00029262906 -0.046402447 -0.00019916196 -0.100026764
-0.1274868 -0.033103034 -0.114064805 -0.110156804 0.055320226 -0.14139293 -0.009259989 -0.05612279
-0.053048745 -0.08081165 -0.06051881 0.0720123 0.07179141 0.115434684 -0.1176962 -0.04962447
-0.043146975 0.021358673 -0.08764444 -0.1806863 0.053719297 0.07243229 -0.020597054 0.103361666
-0.060352497 0.11450052 0.15437979 0.036783747 0.0027799972 -0.07515353 0.077838756 -0.1622453
-0.057657115 -0.045165893 0.12120015 -0.13810459 -0.06301334 0.03569151 -0.06311075 -0.08708482
0.056774586 0.014328691 -0.012931441 -0.1288891 0.11209505 0.048070222 0.05639328 -0.08130509
-0.079449266 0.0141995335 0.07607871 0.07480624 -0.05893834 0.06940309 -0.06981306 -0.058433753
0.04795378 0.046569336 0.011194608 -0.015165326 0.022306096 -0.025501417 0.123027384 -0.046970528
0.008988372 -0.055113167 -0.01576147 -0.00063946226 -0.13500547 -0.010453064 -0.046738874 -0.0679783

gru.bias_ih_l0 f4 [192]
00000000: 1e63 3cbd 8e84 b33b 7c4f 8dbd ce50 063d
00000010: f8c9 333d 37fb fe3c a5d4 0b3d 9c84 0a3d
00000020: 97e8 e23b 415d 063d 02e7 9bbd eda0 14bd
00000030: 6778 47bc 26ef da3d 872b d43a 7e7d dabd
00000040: ce39 a53d 7745 1c3e 2304 b03d 3255 73bd
00000050: d085 e13d 42d6 babc ed66 afbc 0e59 bfbc
00000060: 96fd 123e e282 283d a1d9 04bd 5b9f 5abc
00000070: a040 8e3b d02f 2e3a 29f0 053e dcfb eebc
00000080: 3bd8 b7bd 062b d03c 0365 2b3e 7dc5 abbd
00000090: 13b1 503d d23e 013e 3123 e23d 9fca 57bc
000000a0: a82f 953d 0274 94bc 66ca 0c3e ac71 af3c
000000b0: d6b1 183d c4ed f6bc e2b8 b1bb b62d fd3d
000000c0: cccd 453e ff67 c13c ced4 25bc c1b6 cd3d
000000d0: 08d6 f13d 74ae 483c 969e 9f3d a67c 4bbc
000000e0: 88de fc3c af19 a0bd 3f9e b8bc 872a aa3d
000000f0: 78bd 6f3c dbea 90bc cc1b 2e3d 2c15 b33c
00000100: 1d34 e3bd 1735 753c a7ce 193d 609c 3b3e
00000110: ebac 6b3d d11c 29be 6ba6 683d a46b 243c
00000120: 5357 1dba 5198 f23d 765a f53d 7052 4d3c
00000130: b6ac af3d b837 02be 6d87 363e 205c 2c3c
00000140: f727 a03e 87d2 2fbe 5e06 bb3d ca70 c13d
00000150: 80ae 22bb 2c9b 683e f90f 1a3c 59a0 023e
00000160: 2815 89bd efdb 323e 337b 35be 83a2 373e
00000170: 5729 653c 3745 703d 3af4 173d 4e48 813e
00000180: 08bd 85bd fe7b 7a3d 76a6 a63d df3e 9abd
00000190: 19e2 0a3e f8fd 603e 1204 d23d 7865 883e
000001a0: 142d cebd eeeb ba3d 9868 7a3e 6c00 4d3e
000001b0: 2e1f d83d e7bc a1bd d91f 003e 79cc 11bc
000001c0: 28d0 103e 280c 6a3e 99a3 af3d bd96 c63d
000001d0: 8fd0 423e b749 f1bc 7eb9 a93c 44a9 273e
000001e0: 9aef dfbc c8c2 2a3e 08f8 453e 9ef8 593e
000001f0: b84d 993e df59 ed3a 6ea5 9ebd d679 473e
00000200: 8930 0cbe 9cf3 933d 9526 22bd 8678 64bd
00000210: 87f2 29bd 4458 cc3c 9474 0abe 1db0 a6bd
00000220: 2887 17be 0607 b53c da4d 89bb 0062 593c
00000230: 4400 bfbd c921 99bc 98a8 afbd ce1f 703d
00000240: ed1e f1bd 62c7 b13d bab4 b53b c429 2ebd
00000250: 6860 de3d 3519 c3bd d64d 1d3d 4cec 40bd
00000260: b760 74bc 9aea 86bc baae a13d e8f8 f9bc
00000270: 6c2e d53d 66a9 e23d c698 203e aad4 acbd
00000280: 277f 90bd 8c84 3c3d 81d1 00be 6fcc 2bbd
00000290: 231e f6bd 69e5 7f3d 250a 09be ea53 63bd
000002a0: d4dc afbd e563 bd3d 2874 50bd 2b7a 6bbc
000002b0: efd2 403d 0095 013e 6768 b63b 9c65 373d
000002c0: 8a05 163e 53e3 84bd e405 d8bc 8f6e b2bc
000002d0: 1e54 3d3d e4db 083e bfca bcbd 9167 b03d
000002e0: ffd5 d8bd 63c8 c7bd 78ff bbbd 99b2 0c3c
000002f0: 979f 91bd f50b 1ebd 6ff2 11be 97fb 133d
-0.045992963 0.0054784482 -0.06899926 0.032791905 0.043893784 0.031125648 0.03413834 0.033817872
0.0069246995 0.032803778 -0.076124206 -0.036286283 -0.012174702 0.10690145 0.0016187289 -0.10668467
0.08067666 0.15260874 0.08594539 -0.05940742 0.11011851 -0.022807244 -0.021411384 -0.023357894
0.14354548 0.041140445 -0.03243411 -0.013343657 0.0043412 0.0006644698 0.13079895 -0.02917283
-0.089767896 0.02541114 0.16737752 -0.08387277 0.05095012 0.1262162 0.110418685 -0.013170867
0.0728448 -0.018121723 0.13749084 0.021416508 0.037278973 -0.030142672 -0.005423651 0.12362234
0.19316787 0.02360916 -0.010121537 0.10044623 0.11808401 0.012248624 0.0779392 -0.012419855
0.03086783 -0.07817399 -0.022536395 0.08308893 0.014632575 -0.017690113 0.042506978 0.021860681
-0.11093924 0.014966271 0.037550595 0.18321371 0.057537954 -0.16514899 0.056799334 0.010035429
-0.0006002087 0.11845458 0.11980145 0.012531862 0.08577864 -0.12716568 0.17825098 0.010520011
0.3128049 -0.17170154 0.09132074 0.09445341 -0.0024823248 0.22715443 0.009403222 0.1275648
-0.06693488 0.1746671 -0.17722778 0.17933087 0.013986907 0.05865976 0.037098147 0.25250477
-0.065301955 0.061153404 0.08137219 -0.07531523 0.13562812 0.21971881 0.102546826 0.26639915
-0.10067192 0.09127031 0.24453962 0.20019692 0.10552822 -0.078973584 0.12512149 -0.008898848
0.14141905 0.228562 0.08576126 0.0969672 0.19024871 -0.029454095 0.020718332 0.16373163
-0.02733593 0.16675866 0.19332898 0.21286246 0.29942107 0.0018108449 -0.07746397 0.1948007
-0.1369039 0.07224199 -0.039587576 -0.055779003 -0.041491058 0.024944432 -0.13521034 -0.0813906
-0.14797652 0.022098076 -0.004190189 0.013267994 -0.093262225 -0.018692868 -0.085770786 0.05862408
-0.11773477 0.086806074 0.005545226 -0.0425203 0.10858232 -0.09526292 0.03840431 -0.04710035
-0.014915637 -0.016469289 0.078946546 -0.030514196 0.10409245 0.110674664 0.15683278 -0.08439
-0.070555024 0.046024844 -0.1257992 -0.04194301 -0.12017467 0.062474642 -0.13382776 -0.05549995
-0.085870415 0.09247569 -0.050892025 -0.014372389 0.047076162 0.12654495 0.005566645 0.044774637
0.1465055 -0.06488671 -0.026369996 -0.021781234 0.0462228 0.13365132 -0.09218358 0.08613504
-0.105876915 -0.097550176 -0.09179586 0.008587503 -0.071105175 -0.038585622 -0.14252637 0.036128607

gru.bias_hh_l0 f4 [192]
00000000: e6de 0f3d 10a0 4b3e e201 103d c133 16bd
00000010: 4949 2ebc 4bab 423e 7d86 133e 9555 9dbd
00000020: 6a50 203e 47ef 65bd 14a9 8bbd d376 013d
00000030: 8ddd 513d 70de 903d bc5e d8bc 5b85 82bd
00000040: d44e a13d dfb4 22bd e74e d33d faf3 213d
00000050: d625 f63d 6685 893d 2053 c23d 4a66 b93b
00000060: bd22 0b3d 5d93 a4bd 6dc6 abbd 6e51 24bd
00000070: 1c3a 783c da67 d63c e530 083e d8ee 1d3d
00000080: 4f1b 7abd 76b4 be3d d235 de3d 5115 afbd
00000090: d0df b33d 1d57 39bd a820 093e b3c4 113d
000000a0: aaf9 183e 845b 86bd 57a8 24bd 4f25 8d3d
000000b0: 53ae 3f3e 4ef8 1c3e 6dd7 bbbd 9971 82bc
000000c0: 4dca 0b3e 612d 603e b3de 8e3b 5cfb 7bbd
000000d0: dd51 a6bc 9540 a8bb ebf6 cb3d cf99 5c3d
000000e0: 4129 b4bd 6360 433d a226 0f3d 64b1 ddbb
000000f0: 11c2 153d 2448 053b 1b7a 043e 32bb 8c3c
00000100: 23c5 80bd d7f0 cd3c 948e 04be 5ead d43d
00000110: 8406 de3c 1957 5bbe d581 9dbc e209 023e
00000120: 67f1 cd3d 7175 d4bd de78 c63d 48b5 2cbb
00000130: 7e71 0a3e 05d1 ebbd 6175 373d fc39 adbd
00000140: dbac 9c3e 0dfe f3bc b12a 0dbc f5ae be3d
00000150: 7e42 08bc 66fe 793e c9bf 173e 2f22 3c3b
00000160: 3590 5a3c eab5 3b3e f7ba 5fbe 56aa c53d
00000170: 457e d8bc 7e50 0b3c 26ca 143e c1cb 0d3e
00000180: 0a99 ba3d 4aa8 3e3e ad56 3d3d 81a7 0e3e
00000190: de5d 8d3d 1c5a 233e 1b62 093e 79c6 353e
000001a0: ba10 52bd 13bb f0bb 240d a43e d02d 0e3e
000001b0: 888b 283d 3d34 b93d 8a41 843e 6bde 9fbd
000001c0: 88ba b23d 31dd 473e 5e59 e03d 5652 a8bb
000001d0: 4d5c 8a3d 26af d1bd 2206 81bc 376c 7e3e
000001e0: 8cec 453e 9b4a 4a3c d3b7 463e 7734 613e
000001f0: 706a 193e 4555 ae3d 4077 46be 9cba 233e
00000200: ed55 873d 8c8d 86bb 3a40 413d 09bc ca3d
00000210: ecac 1dbd aaf6 e13d 7b41 11be ba16 6d3c
00000220: 9bb9 dc3d 7c83 9f3c cdd4 ecbd 85d6 88bd
00000230: 2f36 d13a 4035 6cbd 1aec ffbd a18a 68bc
00000240: 996e 5ebd f7e5 ddbc ee0a 6c3d aff7 f2bd
00000250: 1db8 033d 8543 aabd 0aeb 9f3d c9b8 18be
00000260: 7dda 133e 8120 ddbc faeb e93d 0e72 2bbd
00000270: ef44 28bd 7da7 c7bd ad99 7abd 8ba4 573b
00000280: e68f 533d 362f a0bd ba0d 26bd 7272 3e3d
00000290: f429 d23c db09 6d3d 1ace c5bc 4b96 e4bd
000002a0: a8b0 a9bc 173d 763d 4c5c 503d f842 753c
000002b0: 5b1c 70bd c73d cb3d fd77 ddbd 2eba 823d
000002c0: ff0f 32bd 4737 6abc def6 93bd 8e39 873d
000002d0: aff2 013e 88bb f1bc 33c3 86ba 5a26 abbd
000002e0: 8886 ea3d f193 babb 31f4 a5bc 30b4 c0bc
000002f0: 0c12 68bc be7c 763c aba7 ebbc 9ea1 633d
0.035124682 0.19885278 0.035158046 -0.03667045 -0.01063759 0.19010656 0.14406772 -0.07682339
0.15655676 -0.056136396 -0.068193585 0.03160746 0.051236678 0.070736766 -0.02641236 -0.06373092
0.078763634 -0.039723273 0.10317784 0.039539315 0.120189354 0.06714897 0.09488511 0.0056579458
0.033968676 -0.0803592 -0.08387456 -0.04011672 0.015150573 0.026172567 0.13299902 0.038557857
-0.0610612 0.09311764 0.10850109 -0.08548988 0.08782923 -0.045249093 0.13391364 0.035587978
0.1493899 -0.06560424 -0.040199604 0.06891882 0.18718843 0.15329096 -0.091719486 -0.015923308
0.1365139 0.2189231 0.004360044 -0.06151901 -0.020302707 -0.005134652 0.09959205 0.05385762
-0.08796931 0.047699343 0.034948952 -0.0067655314 0.03656203 0.0020337189 0.12937205 0.017179105
-0.06287601 0.025139255 -0.12945014 0.1038463 0.027102716 -0.21419944 -0.019226948 0.12699082
0.100558095 -0.10373963 0.09691022 -0.002635317 0.13519856 -0.11514477 0.044789676 -0.08458325
0.30600628 -0.029784227 -0.008616135 0.09310714 -0.008316634 0.24413452 0.14819254 0.0028706898
0.013340046 0.18331113 -0.21848665 0.096516296 -0.026427398 0.008503078 0.14530239 0.13847257
0.09111221 0.18618885 0.04622524 0.13931085 0.06902669 0.15952343 0.1341633 0.17751493
-0.051285483 -0.0073465197 0.32041276 0.13884664 0.041148692 0.09043167 0.25831252 -0.07806095
0.08726984 0.19517972 0.109545454 -0.0051367683 0.06755886 -0.10238485 -0.015749995 0.24845968
0.19328517 0.012346889 0.19406061 0.2199267 0.14982009 0.085123576 -0.19381428 0.15989155
0.06608186 -0.004106229 0.04718039 0.09899146 -0.03849499 0.110333756 -0.14185135 0.0144707505
0.10777589 0.019471876 -0.11564026 -0.06681541 0.0015961583 -0.05766797 -0.12496205 -0.014193208
-0.054304693 -0.027087195 0.05762761 -0.11863648 0.032158006 -0.083136596 0.07808502 -0.1491424
0.14438815 -0.026993038 0.11421962 -0.041856818 -0.041081365 -0.09748743 -0.061181713 0.0032904472
0.051650904 -0.07821505 -0.040540434 0.046495862 0.02565477 0.057870727 -0.024146128 -0.111614786
-0.02071412 0.060116854 0.05086927 0.01496958 -0.058620792 0.099238925 -0.108139016 0.06383167
-0.043472286 -0.014295406 -0.072248206 0.066027746 0.12690233 -0.029508367 -0.0010281563 -0.08356924
0.11451441 -0.0056939055 -0.020258041 -0.02352342 -0.014164459 0.015044389 -0.028766474 0.055574052

gru.weight_ih_l0_reverse f4 [192, 6]
00000000: bdcd 33be b709 6bbc c744 153c 264f 673d
00000010: 1421 cc3d 2980 b5bd e312 06bd 718e c3bd
00000020: 9202 52bc afeb 763d 0e01 b43d a1d2 3ebe
00000030: a84a 443e 0265 bb3d 20a6 823c fbef 623e
00000040: 288c af3d a52c 613e 0631 53bd 630a 50bd
00000050: 5b8b 33bd cf2e 5a3e 045b 1c3e 81c7 883d
00000060: 7a2c 033e f928 f03c 9cd6 283d 1ab5 183d
00000070: cc60 453e 6d98 0fbe 180f 713d fa6d 643e
00000080: b11a 153d 7075 0c3e f261 9d3e c014 86bc
00000090: 3b0c 723d c74c 7e3e 974c 8a3c 8ca4 1d3e
000000a0: b5f2 553d 6e0f a5bc bf5d 16bb 6753 bd3d
000000b0: 6f9b a5bd 8597 97bd 1ade 183e afeb 82be
000000c0: 4855 8d3d 51cd 493e ff9e 0abe 3111 23be
000000d0: a2a7 12be cc65 0dbe e39b f13d 5042 923e
000000e0: 72ce 273d 42ea d33d ea39 6a3e 0ed7 aa3b
000000f0: 067f 6fbe 0c87 98bd 1fe4 31be 5cc3 393d
00000100: f036 fa3d acbe d83b 28dc a73d d9bd 913d
00000110: d351 123e 4833 283d 749a a1bd 05e7 1c3d
00000120: 189f db3d f5a6 c6bd 9962 3cbd 8754 a6bd
00000130: b548 203e f44c 263c d6d0 24be 1820 49be
00000140: 04fb 56be ed68 b83d 48ff 1d3e 4f7c 06bd
00000150: f69c 8f3d 9d0c 63bd 0bea a8bd 5d45 7bbd
00000160: 1f3f 43bd f15c c7bd ade8 01be 2e53 92bd
00000170: 4390 b7be 9c04 a3bd 7b23 2c3e 8acd 1cbd
00000180: 5b96 5a3c 87d1 ea3c 3836 32be 61a9 23bd
00000190: e5d2 813d a222 2d3b bbb0 de3c 0ca2 143e
000001a0: 502b 3a3d 30c5 b73d ff54 d63d 264f 863c
000001b0: a33f 1dbe 0600 06be 1f5d cebb 6841 a0bc
000001c0: f937 833e 9952 ecbc 47ac 743c 6d6c e13d
000001d0: 2e33 cd3d 6dfe d2bd 550d 16be ddb5 503d
000001e0: ec36 203d 6758 e63d 82fb 08be e3ac ad3c
000001f0: 0f80 8fbd 52dc 24be 16bb a83c 6cbf 8dbd
00000200: 7d59 fbbd 97b4 4c3e 1aa7 3dbd c111 94bd
00000210: d1f7 9fbc 4615 f2bd b812 153e b7c0 f4bc
00000220: 752c 30be 3715 ee3d bfbd 1c3b 54b3 233e
00000230: 3b51 223e 2a27 35bd 1976 c5bd b508 b23d
00000240: d8ed 043e 75c3 bf3d 4fd4 a2bc 44b0 263d
00000250: 56ba f8bd daf7 053c 70f9 833d 6923 a73d
00000260: c023 bbbd 2b2b ecbd fa5e 763e 6403 57be
00000270: 4a3c 413e 5a62 633e 1263 363e ca0a 5b3e
00000280: 6588 683e 1b58 f73d 529d 1fbe 1f97 a2bc
00000290: e965 8a3c 339b 22be a038 3d3d c7ed 09be
000002a0: 659e 07be 0bb0 c53d 28a7 c73d d64d b93c
000002b0: 4a1b 883d ef2c 23be 385e 92bd 57d3 493d
000002c0: c82e 403e 95cb 2dbd 01b0 e1bc a873 31be
000002d0: 4a17 e73d 3811 053f d347 5d3e 89d6 713e
000002e0: a3cf c23d 0e40 dfbd ca10 8f3d 589d f73d
000002f0: 0e98 6b3e 332f ca3b e98b 9a3b a43c 023e
00000300: 25bf 073c 3f55 0e3e c8a9 fdbd c0d0 5f3e
00000310: 6e03 203e 3251 993d 0241 f6bd 5235 ddbd
00000320: 96ea 193d 456b 423d 8730 2f3d d186 dc3d
00000330: 3ee1 62bd fd9a 043e dd05 7fbd 580d 263e
00000340: df7a cc3d 19df a33d 397e 853d 25d4 5e3d
00000350: 0da9 aa3d fd37 aa3d ae51 dc3d 88f6 30be
00000360: c7d5 dbbe cc3f 6ebe d149 9cbe ab3d 3fbe
00000370: 9d52 2a3e 0563 5abe abd8 73bd 2bf1 833d
00000380: 0501 d73d 5551 3e3e f13c 6cbd 6451 49bc
00000390: cbb0 6cbe b0f9 debd accc adbe 38f8 843d
000003a0: fdc1 163e 1dbb e13d ceb5 53be 36a9 97be
000003b0: 7956 3cbe b9ee b7bd d4b3 ed3d b774 70bd
000003c0: cf69 9abd 099f 1d3e 2c29 443e 9f24 9fbd
000003d0: 75e4 b43d e1d3 73bd e0e4 2ebb c846 313e
000003e0: 5006 a03d fa15 273e 56cf 563d 5e47 e93c
000003f0: d1bd a4bd e69f 3ebe bd62 27bc 5065 0bbb
-0.17558952 -0.014345578 0.009110636 0.056471966 0.09967247 -0.08862335 -0.032732856 -0.09548653
-0.012817996 0.06028336 0.08789264 -0.18635036 0.19169104 0.09150125 0.015948355 0.22161858
0.085716546 0.21989687 -0.051560424 -0.050791156 -0.04383407 0.21306919 0.15269095 0.06678677
0.12809935 0.029316412 0.041220292 0.037282087 0.19275206 -0.1402299 0.058852285 0.22307578
0.036402408 0.13716674 0.3073879 -0.016367316 0.059093695 0.24833976 0.016882224 0.15394801
0.052233417 -0.020148959 -0.002294406 0.09244423 -0.08086287 -0.07401947 0.14928475 -0.25570437
0.06901032 0.19707228 -0.13537215 -0.15924527 -0.1432176 -0.13808364 0.11797311 0.28566217
0.040968366 0.103474155 0.22873655 0.005213625 -0.233883 -0.07447633 -0.17372178 0.045352325
0.1221751 0.0066145267 0.08196288 0.07116289 0.14289026 0.04106453 -0.07890788 0.038306255
0.10723704 -0.09699813 -0.045992468 -0.08121591 0.15652736 0.010150183 -0.1609529 -0.19641149
-0.20994192 0.09004388 0.15429413 -0.032833394 0.0701236 -0.05543195 -0.08247765 -0.061345447
-0.04766762 -0.09734524 -0.12686415 -0.071447715 -0.3585225 -0.079598635 0.1681041 -0.038281955
0.013341512 0.028664364 -0.17403495 -0.039956454 0.06339053 0.0026418348 0.027183881 0.14514941
0.045451462 0.089731574 0.104654305 0.016395163 -0.15356307 -0.13085946 -0.006297722 -0.019562438
0.2562864 -0.02884798 0.014933652 0.11007009 0.100195274 -0.10302434 -0.14653523 0.05095469
0.039114878 0.1124733 -0.13377193 0.021200603 -0.07006847 -0.1609967 0.020597022 -0.069212765
-0.12272928 0.19990765 -0.04630194 -0.07229949 -0.019527348 -0.11820464 0.14557922 -0.02987705
-0.17204459 0.1162514 0.0023916808 0.15986377 0.158513 -0.044226803 -0.09641666 0.08693067
0.12981355 0.09363452 -0.019876627 0.040695444 -0.12144916 0.008176768 0.06444061 0.08161051
-0.09137678 -0.11531671 0.24059668 -0.20997387 0.18870655 0.22205487 0.1781123 0.21390834
0.2270828 0.12077352 -0.15587357 -0.01984745 0.016894298 -0.15879516 0.04619658 -0.13469611
-0.13244016 0.09652718 0.097486794 0.022620123 0.0664583 -0.1593511 -0.07146877 0.049273815
0.18767846 -0.04243048 -0.027549746 -0.17329276 0.11283739 0.519794 0.2160943 0.23616995
0.0951226 -0.10900889 0.06985624 0.12090558 0.23007223 0.0061701774 0.0047163856 0.12718445
0.0082853185 0.13899706 -0.12385899 0.21856976 0.15626308 0.0748619 -0.12024118 -0.10801186
0.037577234 0.04746558 0.04277089 0.10767902 -0.05539059 0.12949748 -0.06226145 0.16216028
0.09984373 0.08001537 0.06518216 0.054401536 0.08333025 0.0831146 0.10757767 -0.17281544
-0.42936537 -0.23266524 -0.30525067 -0.18675868 0.16633077 -0.21326835 -0.059532803 0.064424835
0.10498241 0.18585713 -0.057675306 -0.012287471 -0.23114316 -0.10887468 -0.33945215 0.064926565
0.14722438 0.11022017 -0.20674822 -0.29621285 -0.18392362 -0.089810796 0.11606565 -0.058705058
-0.07539713 0.15392698 0.19156331 -0.07770657 0.08832637 -0.059528235 -0.0026686713 0.17312157
0.07813704 0.16316977 0.052443825 0.028476413 -0.08044017 -0.18615684 -0.010216412 -0.0021270104

gru.weight_hh_l0_reverse f4 [192, 64]
00000000: c632 20bc c495 cf3d 09c5 00be 02cf 51bd
00000010: 5020 85bd 5ce5 91bd 56de afbd 63f1 00be
00000020: 57d9 a03d b583 233c ed0e 30ba ad06 1b3e
00000030: 98cf d53c 7263 e4bd 1ef4 18be 0b67 303d
00000040: a138 6e3d 544c e73d f6b9 ac3d 70d1 7b3d
00000050: 7b51 2e3d b2b9 a8bd 59f7 dbbc b4b9 203d
00000060: 768c 183c ea2a 8d3c c3bc 3e3d 4b0a 8f3d
00000070: c1a9 e93d 616d cbbc f670 95bd 5d2c d13d
00000080: a6fe b0bd 0326 3f3d b31b cabd 69d4 263e
00000090: 0d4c 223e 01b5 29bd 5303 0fbe 2616 0b3c
000000a0: 2932 3dbd 30e2 5fbc 1dd2 91bd 753b b13d
000000b0: 27a5 053e c882 c73d 72cb 3abd f227 2b3b
000000c0: d5c5 19bd fbfb 84bd 8c99 4bbd e75f fdbc
000000d0: a0f0 f23d 604f 7f3d afd2 9d3d c5fe b13d
000000e0: 3e59 093e eab9 89bd c744 7ebd 34a7 7bbd
000000f0: ba31 0cbe 0c89 12be 811a 8b3c 0773 9bbd
00000100: 29d9 443d 42de f63d a727 80bd 43a3 db3c
00000110: 91cf aebd b890 82bd 980f 23bd 9907 3bbd
00000120: fc31 24be a149 15be 7de0 18be 9676 a43e
00000130: 0991 1c3d 1c2f be3d 7e3f 303e 78de 973d
00000140: b7de fe3a c653 a93d 56b9 153e b806 36be
00000150: 7823 7f3b 98b0 b1bd fdc7 a73c 2c77 273e
00000160: 1216 3d3e fd09 0d3c f130 f83b 9588 63be
00000170: 40b6 913e f38b a3bd 5095 603e 8fad d33d
00000180: 0456 d43c 4bbc c0bd 746c dc3d 489b 61bd
00000190: b337 263e 6cdc 1fbe 2f02 a13c cba9 6ebb
000001a0: d93d 763d 815e 71be 9b57 83be 7edd 0f3e
000001b0: 4958 b43d 5472 42bc b541 a63c 4d18 15be
000001c0: ed57 3abe 4164 4f3c 6f4d 80be 7c60 cebd
000001d0: 3885 1e3e 34eb 1e3e 86bd 683e f457 65be
000001e0: 6822 a5bc 59a8 8e3e 74c2 36be 1030 f1bc
000001f0: bf37 923d bae3 67bd 1321 64be f442 88be
00000200: 58ac e7bd 19bc 67bd c948 10be 6af1 653d
00000210: 1bb9 4abd 7fce 253e 0d42 0fbb 3939 59be
00000220: 4baa 953d ce2c 97bd 3ea7 aebd 45ce 0b3e
00000230: b92c a23d dc8b 1e3c 7a83 503d 64f9 11be
00000240: abe5 243e cba1 c8bd a464 053e 5226 b9bd
00000250: a7dd 893d cb35 43be d0eb 99bd e783 25be
00000260: 778e 04be b0ca 253e 0497 b1bd b037 af3d
00000270: c1bc 93bc 3c63 ed3d 913e 4cbd fd47 48bd
00000280: dbe0 113e e9c6 95bd 29d6 103d 187f b2bd
00000290: e16b ae3d 8502 23bd 09ed 9a3d 00d6 56be
000002a0: a8c2 5ebc 4617 f9bc a3fe 61bd 55f8 eabc
000002b0: 49a5 7cbd b387 f03d 0649 75bc 8255 7a3e
000002c0: 6265 5b3c 6e1f 113d 4ed6 603d 1c66 eabd
000002d0: 7dd6 c8bd e127 933d 2fd2 993d 6af8 b43d
000002e0: feef 703e 2e93 b13d 595a f2bc c681 253d
000002f0: 7348 a73d a9e2 403e 94d7 883d 0a7d 9dbc
00000300: 1720 03bd ff17 43bd a80c 22be 3248 9f3c
00000310: 8d84 33bb db38 91bd b8bc 25bd f71d 4b3d
00000320: 8e9e fdbd 22b7 56be 8aa1 77bd 9965 ee3d
00000330: 52a7 043e fcc6 a63d 320f 9abd fb17 a5bc
00000340: 12c4 92bc 4f49 f73c 28fc 233e 9403 7a3d
00000350: 6e72 72bd 39e9 e9bd 21f4 42bd 64f5 93bd
00000360: 9a09 a33d e8e0 0dbd 358e 063d 2e4d 12be
00000370: b630 23bc 09f9 933d 365b c93d 1ec4 e9bd
00000380: 8458 2dbd ce8b efbd 8249 393e 1e3a 3fbe
00000390: 4d18 893d 450e 063d dd75 0ebe 1e0f bbbd
000003a0: 0e80 973c bda4 9c3d a32d a6bb 45a8 863d
000003b0: 9fea bd3d 3d92 2f3e 3f56 d7bd 812c e13c
000003c0: 0b32 ce3c fa7d 6abd a4f8 cbbd d408 083d
000003d0: 27f3 073e 2aa7 ba3b b2b7 e13d b2fc eabb
000003e0: 5762 813d 29d5 7bbd 5acb 05be 12bd 0bbe
000003f0: d43d 3d3d 07e1 003d 6f84 f13d 3e26 ecbd
-0.00977773 0.101359874 -0.12575163 -0.05122281 -0.06500304 -0.07123825 -0.08587329 -0.12592082
0.07853954 0.009980132 -0.00067160913 0.15139265 0.026099965 -0.1115178 -0.14936873 0.04306702
0.058159474 0.11293855 0.08433907 0.061479032 0.042558175 -0.082385436 -0.026851343 0.0392396
0.009310832 0.017232377 0.046566736 0.06984385 0.11409331 -0.02483243 -0.07296936 0.1021354
-0.0864232 0.04666711 -0.098685645 0.16291966 0.15849324 -0.041432384 -0.13966112 0.008489167
-0.046190415 -0.013664767 -0.07120154 0.08653919 0.13051282 0.097417414 -0.045604177 0.0026116339
-0.037542183 -0.06493374 -0.04970698 -0.030929519 0.11862302 0.062331557 0.077062 0.086911716
0.1341295 -0.067249134 -0.06207731 -0.061438754 -0.13690844 -0.14310092 0.016980411 -0.07590299
0.048058663 0.12054111 -0.06257563 0.026811248 -0.08535684 -0.06375259 -0.039809793 -0.045661543
-0.16034693 -0.14578868 -0.14929385 0.32121724 0.038224254 0.09286329 0.1721172 0.074154794
0.0019445036 0.08267932 0.14621481 -0.17776 0.0038931053 -0.08676261 0.020481104 0.16354054
0.1846545 0.008608338 0.0075741936 -0.2222007 0.28459358 -0.079856776 0.21931958 0.10335838
0.025919922 -0.09410914 0.10762873 -0.05507973 0.16232185 -0.15611428 0.019654362 -0.0036417122
0.060117576 -0.23571207 -0.25652775 0.14049336 0.088059016 -0.011868078 0.020295003 -0.14560051
-0.18197604 0.01265818 -0.25059077 -0.10076997 0.15480506 0.1551941 0.22728547 -0.22396833
-0.020158008 0.27862814 -0.17847615 -0.029441863 0.07139539 -0.05661366 -0.22278242 -0.2661358
-0.11312169 -0.05657587 -0.14090265 0.056138434 -0.049492937 0.16192053 -0.0021859438 -0.21213235
0.073078714 -0.07381593 -0.08527993 0.13652904 0.079186864 0.0096769 0.050906636 -0.14255291
0.16103236 -0.097964846 0.13026673 -0.09040512 0.0673173 -0.19063489 -0.07515681 -0.16163598
-0.12944971 0.161906 -0.08671382 0.085555434 -0.01803434 0.11591193 -0.049864355 -0.04889678
0.14245932 -0.0731333 0.03536049 -0.087156475 0.0851667 -0.039797325 0.07564742 -0.20980072
-0.013596214 -0.030406605 -0.05517448 -0.028682867 -0.061681066 0.117446326 -0.014971023 0.24446681
0.013390871 0.035430364 0.054891877 -0.11445257 -0.098065354 0.07185341 0.075107925 0.08836444
0.2352905 0.086706504 -0.029584097 0.040406965 0.081681155 0.18836464 0.06681743 -0.019224662
-0.032013025 -0.047630306 -0.1582514 0.019443605 -0.002739224 -0.070909224 -0.04046318 0.049589124
-0.123837575 -0.20968297 -0.06045679 0.11640472 0.12954453 0.08143422 -0.075224295 -0.020153036
-0.01791576 0.030186323 0.16014159 0.06103857 -0.05919116 -0.11421437 -0.0475961 -0.07224539
0.07960816 -0.034638315 0.032850463 -0.14287254 -0.009960344 0.07225234 0.0983185 -0.114143595
-0.042320743 -0.116965875 0.18094447 -0.18674514 0.06694088 0.032728452 -0.13912149 -0.09133743
0.018493678 0.07648609 -0.0050713583 0.065750636 0.09273266 0.17145629 -0.10514497 0.027487041
0.025170347 -0.057249047 -0.09959534 0.033211544 0.13276349 0.005696197 0.11021365 -0.007171237
0.06317585 -0.061482582 -0.13065854 -0.13646343 0.046201542 0.031464603 0.11792838 -0.115307316

gru.bias_ih_l0_reverse f4 [192]
00000000: 0003 9a3d 3dd6 d53d a067 8dbd c89f 21bd
00000010: 827e 023e e725 5dbd 3c93 e33d 5c6b 1b3e
00000020: 4c7f 013e a72b a33d 5699 e53d 37d1 a13d
00000030: 3483 b03d 279c d8bb 580f c93d 7e66 883d
00000040: ae38 923d c5ad 77bb ad3a 1abc 7b56 27bc
00000050: 47db 39bd 0a86 173e defa 6b3d d89d 863d
00000060: 273f b1bd 6c1a 3f3d 58ef 973c 0e35 35bd
00000070: dcdd 293e 00d6 ec3c 82ba d7bd 2a6d 8c3d
00000080: dd8b 05bd 9027 84bc a0ac a33d d857 233e
00000090: 0726 07bc 5029 943b a16e 9738 1782 73bc
000000a0: 3988 b33d 000b b93d c677 123e e548 81bc
000000b0: fbba 92bd 40d8 9abd 4623 c2bb c1e7 48bc
000000c0: ec26 063e 0291 df3c 6a84 f1bc d233 2c3c
000000d0: 4ae8 94bd 3f15 df3d 6b6a d03c 5f62 033e
000000e0: 9801 8b3d 55d9 3bbd cbc2 e2bc 3e00 76bd
000000f0: 474a 8a3d a33e 533d 8c9b 923c 7a6d f73d
00000100: 8f3a 843e 4051 423d 1194 b63d 14af ae3d
00000110: a845 443e 04fa 6a3e 75e5 a33d 15d0 44be
00000120: fa5c 5ebe f1fa 0b3e 1b0b 07be 5e91 0c3e
00000130: edb8 fd3d 6ac4 01be 96d4 893e ab29 16bd
00000140: ac07 6b3e 9c23 123e dc2f b7bd 8df6 053e
00000150: 7333 6a3d dc38 bebc 0936 8a3e 882d d13d
00000160: 0e0a dc3c 488b 963e ca80 3b3c 8fe2 623d
00000170: 9773 153e 914a 53bc 3154 df3b ad14 f2b8
00000180: 6a33 263e 1f9b 813d 9649 ddbc 6b08 da3d
00000190: 1f15 9dbd d759 2ebc 4acc 403e 75a1 b5bd
000001a0: 6da8 b63d c25f bc3d c87d 873e 97b1 963d
000001b0: d8e4 313e 9376 4c3c 13e0 cdbb 0b24 213e
000001c0: bdd1 3e3e ac97 5c3e b7ac 263e fd2a 1e3e
000001d0: ce8a 3e3e a52a 08be 8703 9f3d b94c 2e3e
000001e0: 3525 ac3c 35eb 2b3e 5021 433e 1798 793d
000001f0: ea12 95bd 1f87 e33d 1f97 243e 3cb5 283d
00000200: fbbb d33b 2a91 f73d 8370 9bbd 93a2 8b3d
00000210: 28cd fc3c ef6a 72bd 478f 8f3d 23ee a8bd
00000220: 8a57 95bd 724c 873d f488 a1bd 3b2d e43d
00000230: 2fef a73b 2fdb 39bd 6e3d f73c 6f6c 0e3d
00000240: 1866 c33d 8138 8c3d dca7 083e 7a47 b2bd
00000250: 7d8d d8bd 196a e8bd 38aa 013e 8e68 353d
00000260: e0e7 b93d 8fe9 a53b 9d70 0d3e 9273 19bd
00000270: 2350 783d 5ec7 dcbd e140 d13d 2fd2 8e3d
00000280: 8af4 993c 148c 6abd 9225 423d f8bc 6fbd
00000290: 98db 783d 59c5 8bbd 3667 93bd be5e 18bd
000002a0: 1917 953d d6a7 e5bd a73e dcbd fe44 3d3b
000002b0: aa2a 48bd a550 983d af73 bd3d 28cb 0ebc
000002c0: 328c 8ebd 623f e9ba cfca 06be 7577 aebd
000002d0: 31fc 033e 470d 3c3d e850 0e3d 2d8d a7bd
000002e0: 1af4 6c3d 90cc 87bd ebc0 9ebd 3758 46bd
000002f0: edf8 04bd 588e 643d 4634 6ebd 767c 1dbd
0.075201035 0.10441253 -0.069045305 -0.03945902 0.12743571 -0.053991225 0.11112067 0.15177673
0.12646216 0.079673104 0.11210887 0.07901233 0.08618775 -0.0066104117 0.0981738 0.06660174
0.07139717 -0.0037792784 -0.009413403 -0.01021349 -0.045375135 0.14797226 0.057612292 0.06573075
-0.086546235 0.046656057 0.018546745 -0.04424005 0.16588539 0.028910637 -0.105336204 0.06856759
-0.032604087 -0.016132146 0.0799191 0.15951478 -0.0082488125 0.0045215264 7.220847e-05 -0.014862559
0.08766217 0.09035301 0.14303502 -0.01578183 -0.0716457 -0.07560778 -0.005924615 -0.012262286
0.13100785 0.027290825 -0.029482085 0.010510402 -0.07270868 0.10892724 0.025441369 0.12830494
0.06787413 -0.04586156 -0.027680775 -0.060058825 0.067524485 0.051573407 0.017896436 0.12081428
0.25825927 0.047440767 0.0891496 0.08529487 0.19167197 0.22946936 0.0800275 -0.19220002
-0.21715155 0.13669945 -0.1318783 0.13727328 0.123887874 -0.12672582 0.26920003 -0.03666083
0.22952145 0.14271396 -0.08944675 0.13082333 0.057177972 -0.023220472 0.2699435 0.102137625
0.026860263 0.29403138 0.01144428 0.055391844 0.14594875 -0.012896196 0.0068154563 -0.000115433104
0.1623055 0.06328415 -0.027012628 0.10646137 -0.07670044 -0.010641537 0.1882793 -0.08868686
0.089188434 0.09197952 0.2646315 0.07358091 0.17372453 0.012479442 -0.0062828152 0.15736406
0.18634696 0.21542233 0.16276823 0.15446086 0.18607637 -0.13297518 0.07764345 0.17021455
0.021013835 0.16788943 0.19055676 0.06093606 -0.07278998 0.11109757 0.16073273 0.041188464
0.006461618 0.12088235 -0.07589819 0.06818118 0.030859545 -0.05918401 0.0700975 -0.08248546
-0.072920874 0.06606378 -0.0788745 0.111414395 0.0051249485 -0.045375045 0.03018066 0.03477138
0.09540957 0.06846715 0.13345283 -0.08705039 -0.10573862 -0.113483615 0.1266259 0.044289164
0.0907743 0.0050632427 0.1381249 -0.037463732 0.0606233 -0.10780214 0.10217453 0.06973683
0.018793363 -0.057262495 0.04739911 -0.058529824 0.060756296 -0.068247505 -0.0719742 -0.03719973
0.07279796 -0.11213653 -0.107541375 0.0028880234 -0.048868813 0.07437257 0.092505805 -0.008715428
-0.06960334 -0.0017795379 -0.13163303 -0.08518878 0.12889172 0.0459111 0.034745127 -0.08181224
0.05784998 -0.06630814 -0.0775164 -0.048423972 -0.032463957 0.055799812 -0.05815532 -0.038448773

gru.bias_hh_l0_reverse f4 [192]
00000000: 16d5 c33d 6c36 233e 2a4c c3bd c483 cf3d
00000010: c84e adbd 6b91 913d e910 0f3e 6fbf 823d
00000020: 8d8a 13bd a25b 0ebd 04c0 c33d b5a7 abbc
00000030: d0de e63d 3447 7abc e0f8 ee3d 3ddb 183e
00000040: 1198 dd3d e893 723d d28c 1b3e fe99 353d
00000050: ff85 fabc 5308 3b3e 6bc1 b2bd b08e e3bb
00000060: bd0d 423d 0d9f 9a3d 1a1d dc3d 1650 493d
00000070: fc24 c53c 1c32 f5bc f004 8b3d 1de1 153e
00000080: eed5 b83d e265 0a3e fdc0 803c cd8f 133d
00000090: 052c 963d 0ebd c63d 1750 833c 8560 ef3c
000000a0: 2f42 043c 17bd 0b3e 713b 9f3d 9a0e c7bb
000000b0: 8653 5cbd 108b a5bd 5366 043e 427d bb3d
000000c0: 2f27 003e 9dc2 793d 4418 cf3d ea26 f939
000000d0: b3cf 0d3e d9d1 7abd 72aa 983b 7c1b 293e
000000e0: cd0c 163d a3f2 da3b af86 d1bc 021a 4e3d
000000f0: 314e a43d 9238 b03d a945 11bd 5159 3b3d
00000100: fc2d 643e 2731 033e 34cc 4f3e 209c 313d
00000110: b4a6 3b3e eadc 853e 9f22 843d 8138 82be
00000120: dbb7 143c ded5 ea3d a125 db3d aee8 37bc
00000130: 8072 f23d 35c1 9f3d ea74 913e 1033 cd3c
00000140: 31e6 503d 6d09 d53d 529f 283d ccfd d3bb
00000150: fe1d 7fbd 15f0 87bd 870b 1d3e e8db 8a3d
00000160: 15ea a73d d8a0 8a3e d392 85bd 3c91 bc3d
00000170: 72e1 d63c 4b37 233e dacc a1bd c535 193e
00000180: b98e d63d 6c7f 083e 35e9 8a3d 1579 5a3e
00000190: 77c4 2bbd 1c7f 1ebe d168 f33d 3fc6 ed3c
000001a0: dfb7 7d3e de9f c23d 1060 ba3e c4bf 033d
000001b0: fe89 393e 950c a1bd 2b1c 653d 7c10 553e
000001c0: 0037 e03d 4f2c b93d 1ff5 363e a67f e8bc
000001d0: a0f0 7b3c bdd2 0ebe baf7 d63b 20c4 603e
000001e0: 4369 4d3c 4c84 303e 6b7d 953e 349e d3bc
000001f0: 603a 6f3d 3cda 323e e81a 933d 698e 373e
00000200: 4cf0 b23d 6a74 9f3d 4be4 873c a021 65bb
00000210: 92d9 a6bd 7675 d6bd df51 063d 2b55 8c3d
00000220: af3d 42bd ef24 203c a71d 323d 2207 e63d
00000230: 6583 993d 5004 15bc 3c37 67bd 2dae f3bd
00000240: 1925 8f3d 2b82 cd3d 4be2 1f3d 7b18 0cbe
00000250: c03a b63d 0643 acbc f5c3 eb3d 1a17 dc3d
00000260: 3215 efbc 3374 fd3d 6edf 103d deb4 fbbd
00000270: 09ca 063e f9cb 10be 22bd b33d df9e 7ebd
00000280: deaf 70bd a1a9 e3bd 5ff2 62bd 1699 ba3a
00000290: b2c5 7d3d 2f65 bf3d 3831 b0bd 79f9 9fbd
000002a0: 53ff b63d ff89 813c dcd9 63bd 1b33 013d
000002b0: 2df9 1bbd 69c4 d3bd 812b b1bb f3b2 423d
000002c0: f067 abbd dc10 07bd 0f4f e7bd e97e 9d3d
000002d0: c27a 663d 8607 e43d ddab 883c 74e8 a7bd
000002e0: df14 3bbd de55 923d 93d2 dbbd 0b95 0abe
000002f0: 9cce 2bbc 7928 833d 8a50 5fbc 5947 a8bd
0.09562127 0.15938729 -0.095360115 0.10132554 -0.08462292 0.071078144 0.13971294 0.06384169
-0.036020804 -0.034755357 0.095581084 -0.020953992 0.11272967 -0.015275765 0.11668563 0.14927383
0.1082002 0.059223086 0.15190437 0.04433631 -0.030581472 0.18264894 -0.08728298 -0.0069445
0.047376383 0.07549868 0.10747738 0.04914864 0.024065487 -0.02993112 0.06788051 0.14636655
0.09025179 0.13515428 0.015717024 0.03602581 0.07332615 0.09704028 0.0160294 0.029220829
0.00807242 0.13646351 0.077750094 -0.0060747387 -0.05379059 -0.08083165 0.12929659 0.091547504
0.12514947 0.060976613 0.1011205 0.00047521974 0.13848762 -0.061235283 0.0046589905 0.1651439
0.0366333 0.0066817566 -0.025576917 0.05031777 0.08022726 0.0860454 -0.035466824 0.045739476
0.22283167 0.12811719 0.20292741 0.043361783 0.18325311 0.26145107 0.06451916 -0.25433734
0.009077038 0.11466573 0.107005365 -0.011224909 0.118382454 0.07800523 0.2840951 0.025048763
0.051000778 0.104021885 0.041167565 -0.006469464 -0.062284462 -0.06637589 0.15336429 0.06780225
0.081989445 0.2707584 -0.06522145 0.09207389 0.026230548 0.15939061 -0.079004005 0.14961918
0.10476441 0.13329858 0.06782762 0.21335252 -0.04193541 -0.15478176 0.118852265 0.029025195
0.24777173 0.095031485 0.36401415 0.032165304 0.18119046 -0.07863728 0.055935066 0.2080707
0.109479904 0.09041654 0.17866944 -0.02838118 0.015377194 -0.13947578 0.006560293 0.21949816
0.012537303 0.17237967 0.2919725 -0.025832273 0.05840528 0.17466062 0.07182866 0.17925419
0.08737239 0.07785876 0.01658835 -0.003496267 -0.08146967 -0.10471623 0.032792922 0.06852182
-0.047422107 0.009774431 0.04348531 0.11231829 0.07495765 -0.009095266 -0.05644916 -0.11898456
0.06989498 0.10034593 0.03903417 -0.13681214 0.088979244 -0.021028053 0.11511985 0.10746594
-0.029184911 0.12375679 0.03536933 -0.12290357 0.13163008 -0.1414031 0.087763086 -0.06216323
-0.05876147 -0.111163385 -0.055406924 0.0014236297 0.061956115 0.09345471 -0.08603138 -0.07811255
0.08935418 0.015812872 -0.05562769 0.03154288 -0.03807943 -0.10340197 -0.0054067974 0.04753394
-0.08369434 -0.032975063 -0.11294376 0.07690222 0.056269415 0.111342475 0.016683513 -0.08198634
-0.0456742 0.07145284 -0.10733523 -0.13533418 -0.010486271 0.06404204 -0.013630042 -0.082167335

fc.weight f4 [6, 128]
00000000: 4f17 133d 9e99 363d 25bf 17bd a102 46bd
00000010: fed0 163d dd9b 28bd 5b1b ecbc 9649 103e
00000020: 4cac 06be be17 dc3d 754a bdbc 93ea 9abd
00000030: 4c9f eb3b 5301 59bd a107 b1bd 0a1a 2e3c
00000040: 0f97 3dbd 9e9a 94bd 08a2 87bd cad0 9a3d
00000050: 1936 713d d165 45bd b864 91bd 9dc6 ccbd
00000060: 3f80 a0bc 9081 8bbd f329 1fbc 77b8 00bd
00000070: 36f2 b83d 4d3b 6abc 45fd df3c 400a 90bc
00000080: 4b7b 993d 4972 333d e917 5e3d 86bd 8a3d
00000090: a1cf bfbd 7382 893c 1785 ccbd c03c 7d3b
000000a0: ada6 203c 400d 3f3d 9baf 03bd 7379 aa3d
000000b0: 0173 82bd 3747 5f3d dfa4 c4bd a4ff c6bc
000000c0: 5af6 073e c6f0 a8bd 06f9 b9bd 20e3 6bbd
000000d0: 0c1b 6d3d 89e5 033c 9343 5ebd 498a b8bd
000000e0: 8095 9abd 2cbe db3d bca0 c6bd 5f3a 853d
000000f0: f1be c7bd badd f33d 91a8 fc3c 24ee cd3d
00000100: cfd9 9a3c 0fcf babd b43e d83c 0238 813d
00000110: 71a3 bbbd dd88 64bd 51d5 9bbd 9aee a33d
00000120: fdee 8bbd 2bcb 4dbd 803c 82bd e80e ae3d
00000130: 51ec 9ebd ef5d d1bd b723 3fbd e587 c43d
00000140: 9bc7 82bd 2e0a d03d 2136 583d edbd 13bd
00000150: 3320 6b3d a8ef 963d 4ee4 c73d 5bbd c13d
00000160: db26 903d 6009 aa3d 7771 9fbd b544 9abd
00000170: c439 97bc 0e31 74bc ac21 fd3d b7e3 a03d
00000180: 3e59 c5bd 6a25 773d 7d9c 0cbe 27e1 163e
00000190: 0ecc f7bc d7e2 5b3c d2e9 173d 2c5d 053d
000001a0: 58a5 f73d 4bf6 2b3d fe7c 3abc 8fbc 07bd
000001b0: d9fa 7d3d 7b46 b2ba efb7 943d a10c bebc
000001c0: 26a7 95bd 8fc9 483d 072b f2bc b759 483c
000001d0: a2d5 923d 565c 573d 5cca 323d 8d09 353c
000001e0: fb69 07bd 7a73 a43d 9e73 8bbd cc96 a8bd
000001f0: 13bb 8a3c 3d6e e2bd a254 5ebd f83b a7bd
00000200: 686e e0bd 5d50 4c3e aa9e 853b 2d54 3dbd
00000210: 105e e8bd e75d ed3d aae2 f3bd e259 82be
00000220: a9d4 d2bd 8a25 553d 0c3c c1bc 6309 0cbd
00000230: 16c0 98bd 6f78 143e 1572 b43d 871a ea3c
00000240: 91f6 933d 6547 0f3e 6217 fcbc 9fa2 e03d
00000250: 48a7 223d 505f 983c 5a8a db3d 66a1 ffbd
00000260: 6e92 d13d 6987 b23d ddee 803c 8184 513d
00000270: 35a9 17be 0b04 2bbd 0339 ac3d d0cd 853d
00000280: bf54 70be db46 d63d d0c5 cfbd f477 08bd
00000290: 5e59 ae3c 1dfb 01be 928d 46bd 5af5 26be
000002a0: aaaa 383d be18 623d 871c 4e3d d28e 333d
000002b0: b33a 0fbe ac1c 853d 1936 713d 1427 c9bc
000002c0: 2381 f03d fda4 013c 3414 563d 12d8 7aba
000002d0: a6fb 2bbd b5da a23d b776 1fbd 62a2 363c
000002e0: 5e37 8e3c dc01 653d af10 a03d 2764 223e
000002f0: d9fd 1b3d d8cd 553e e251 483d bf7d 00bd
00000300: da71 efbd afc9 e23d c22b 05be d217 853d
00000310: 5da4 69bd 8e03 343e 0284 1b3e 41b0 33be
00000320: 5599 813d 9bde fc3d 274a fa3d 56dd dc3d
00000330: a798 2a3e f6d2 2a3e 16ac 733e d024 29be
00000340: 3994 223e 4811 b8bd b2cb 093e 2531 e8bd
00000350: dfc0 293e d4fe 41be 5e6e 1dbd b08e e3bd
00000360: 33c9 5b3d c818 7f3d 3053 443e fe06 c4bd
00000370: e5b6 ac3d 54ca d9bd cf6d acbd 9cf8 6ebe
00000380: df8a 5e3e ad55 e5bd 49f0 233e 0ced 75be
00000390: f264 d33d 7625 a03d 9345 1cbe a26e f6b9
000003a0: d4f5 fb3c f162 d8bd d8e6 3ebd cb5a 423d
000003b0: c6d0 4cbe b552 343e 9427 d4bd b38b ff3d
000003c0: 1bbe e0bd 2ef3 733d 4681 093d 3e5c 3abd
000003d0: b63a 513d d789 86bc 33be 1fbc fa17 fb3d
000003e0: ad2b 933d 6f4b c33d 7511 22bd 2490 d1bd
000003f0: 784e 013e b27a 3b3e f0ae c83d fb01 27bd
0.0359109 0.044580095 -0.037047524 -0.04834235 0.036820404 -0.041164268 -0.028821638 0.14090571
-0.13151664 0.10746716 -0.023106793 -0.07564273 0.0071906205 -0.05297978 -0.08644033 0.010626325
-0.04628664 -0.072560534 -0.06622702 0.075593546 0.058889482 -0.048192803 -0.07099289 -0.0999882
-0.019592403 -0.068118215 -0.009714591 -0.03142592 0.09030573 -0.014296365 0.027342448 -0.017583013
0.074942194 0.043810163 0.05422202 0.0677443 -0.09365774 0.016785836 -0.099863224 0.0038640946
0.009805364 0.046643496 -0.032149892 0.08323946 -0.063695915 0.054511275 -0.09601759 -0.02429182
0.1327757 -0.08249049 -0.090807006 -0.05758965 0.057887122 0.008050331 -0.054263663 -0.09010751
-0.07548046 0.10729632 -0.096986264 0.06505274 -0.09753216 0.11907525 0.030842097 0.10055187
0.018902687 -0.091215245 0.026397087 0.06309511 -0.09162033 -0.055794585 -0.07609046 0.08004494
-0.06832693 -0.050242584 -0.06359196 0.08498937 -0.077599175 -0.102229945 -0.04666492 0.09596232
-0.06385728 0.101581916 0.052785996 -0.0360698 0.057403754 0.073699296 0.097603425 0.09459945
0.07038661 0.083025694 -0.077853136 -0.07532636 -0.018460162 -0.014904274 0.12359938 0.07855933
-0.09636162 0.060338415 -0.1373157 0.14734326 -0.030248668 0.013420782 0.037088223 0.03255956
0.12092084 0.04198293 -0.0113823395 -0.033138808 0.062006805 -0.0013601327 0.07261645 -0.023199381
-0.07307272 0.049020346 -0.029561533 0.012228421 0.071696535 0.052578293 0.043650016 0.01104964
-0.033060055 0.08029838 -0.068091616 -0.08231887 0.016934907 -0.110561825 -0.05427993 -0.08165735
-0.10958558 0.19952531 0.004077752 -0.046222854 -0.11346066 0.11590176 -0.11908467 -0.254592
-0.10294468 0.052037753 -0.023588203 -0.03418864 -0.074585125 0.14499067 0.08810822 0.028577102
0.07224763 0.13992079 -0.030772869 0.109685175 0.039710313 0.018600136 0.10719748 -0.12481956
0.10233007 0.08717234 0.015738899 0.051151756 -0.14810641 -0.041751903 0.084093116 0.06533396
-0.23469828 0.10462733 -0.101451516 -0.03331752 0.021282848 -0.12693448 -0.048474856 -0.16304532
0.045084633 0.055199377 0.050320175 0.043837376 -0.13987236 0.06499609 0.058889482 -0.024554767
0.11743381 0.007912871 0.05226536 -0.000956894 -0.041988038 0.07951871 -0.038931575 0.0111471135
0.017360386 0.055909976 0.07815682 0.15858518 0.038083885 0.20879304 0.048906215 -0.03136992
-0.11691637 0.11073624 -0.13004974 0.06498684 -0.057041515 0.17579481 0.15187076 -0.17547704
0.06328074 0.12347146 0.12221175 0.10784404 0.16659795 0.16682038 0.23796114 -0.16517949
0.15876855 -0.08987671 0.1345661 -0.113374986 0.1657748 -0.18944865 -0.038435332 -0.111112
0.053658675 0.062279493 0.19172359 -0.09571646 0.08433322 -0.10634294 -0.08419382 -0.23337024
0.21732663 -0.11197982 0.1600963 -0.24016207 0.10321988 0.07819645 -0.15260915 -0.00047003204
0.030756868 -0.105657466 -0.04660687 0.04744987 -0.20001516 0.17609675 -0.103591114 0.124778174
-0.1097376 0.059558086 0.03357055 -0.045498125 0.05108138 -0.016423149 -0.009749937 0.122604325
0.07186065 0.09535872 -0.03956743 -0.10232571 0.1262759 0.18308523 0.09798992 -0.040773373

fc.bias f4 [6]
00000000: f923 ad3d 941e 643d 8ec4 86bd 2b9a 1e3e
00000010: 7343 f4bd 128a a6bc
0.08454127 0.055693224 -0.065804586 0.15488498 -0.119269274 -0.020329509
