archive/gmm_bigru_v1/results/training/gpt-oss-20b_h100_tp2/model_tp2_H64_biGRU.pt (torch, 488813 bytes, 22 tensors)

in_norm.weight f4 [10]
00000000: 4009 813f 8c3f 813f b9bb 853f abdc 7e3f
00000010: f2f1 7f3f e0e1 7e3f 24a6 823f dc0d 803f
00000020: a346 813f 421f 803f
1.0080948 1.0097518 1.0447913 0.9955546 0.99978554 0.9956341 1.0206952 1.000423
1.0099682 1.0009539

in_norm.bias f4 [10]
00000000: 281c ab3a 74a3 ca3b 92f7 baba a9d2 3f3c
00000010: dbd1 b63b 6179 9c3c 3e31 53bc f138 4b39
00000020: 26ce edbb d759 68bc
0.0013054656 0.006184036 -0.0014264456 0.01170794 0.005579216 0.019100847 -0.012890158 0.00019380801
-0.007257241 -0.014181576

gru.weight_ih_l0 f4 [192, 10]
00000000: 6d1b 173c e412 64bd 5d67 2bbd 9b61 2f3d
00000010: 4f04 33be d675 cbbd 1eb1 fa3d 1217 eb3d
00000020: c7e7 a83d a1a4 61bd 17fa 0a3c c3dc 5b3e
00000030: ef64 523d 855a 433e c1b8 193e 5f6c 78be
00000040: 05b7 d6bb 5d53 55be 7c4e 083e 6c3e 853d
00000050: a10e 48be e4ea 36be f66c 0ebe 67d1 14be
00000060: 1ef6 25be 5f7c 22be a7e9 c7bd 73af 1e3e
00000070: f23e e1bb e1fc 6a3d c5b8 51be 72da 50be
00000080: dbcf d9bc cf22 45be 7135 a03d a4af 5abd
00000090: 173d 1f3e a155 58be 30e8 783e 4be9 fd3c
000000a0: 29e8 5a3e b87d 89bb 2800 3a3d 5261 35be
000000b0: a747 c43d 6f93 d6bd 158e a03d 0527 68be
000000c0: 0388 523d f3aa cbbd fbaf 0abe 0b54 07bc
000000d0: f304 6d3e ffe1 e6bd 17aa 57be 3ede 01be
000000e0: e3eb 063e f216 bf3c 017b 77be 4e6b fbbd
000000f0: 7fe7 773e 3c9f 2c3a 08d2 dfbd ec58 fd3d
00000100: 93d2 a63b c9fa 4ebe e1d6 5e3c 20e0 c4bd
00000110: 3d15 00be bd90 5e3e 16fe 4abb 7719 ed3d
00000120: b4dc 40be f805 e8bc 84d5 433e e4db d43d
00000130: 1ff9 efbc 31f9 82bd f2ff b63d 913a 3fbe
00000140: 9d64 f0bd d380 15be f46d c1bb 1b81 263e
00000150: b732 683d 3d38 45be bbae 75bb 28d0 2f3d
00000160: 4212 14be d99b 113e d421 783e fb29 da3d
00000170: d473 d73d d3db 2d3d b2d6 163e d460 553e
00000180: 627b 4cbe aa8a 99bd e975 d7bc 1092 643e
00000190: f35d 72be 5c6d 0f3e f68a 4abe fcf7 6fbe
000001a0: 65af 2a3e 708f 85bd 7891 243d 6287 863d
000001b0: bb0e 553d 5ba3 973b 968d 013e 8b1e eabd
000001c0: e643 1abe bb6b 1bbd 22ed 373d 8700 adbb
000001d0: 1fdc d1bd b85f 703c 5c1f 503d e221 50bd
000001e0: 16a5 01be 5f25 4bbe 22aa a13c fb06 6cbd
000001f0: b1c2 8c3d 2259 2dbe fc57 7ebe 3ced 79be
00000200: 9d49 a63b 1023 febd bdda 1e3e cbd6 5f3e
00000210: 15d7 0f3c 0e95 983d 9520 15be 89fc 633e
00000220: 33a6 0c3c bd17 76be 42fd 923c fa31 423e
00000230: 8b37 afbd 6f86 283e ac50 a23d 05c0 663e
00000240: 921c ef3d ed35 a3bd c7b2 1e3e 846c af3d
00000250: e8ea 62be aa19 9dbd b4d1 abbd 8ce6 473e
00000260: cae9 d93d a728 a0bc 6b24 16be 6453 19be
00000270: fef3 733e 5947 553e 0b41 7d3e e105 2bbb
00000280: 44ec 773c 8218 5bbd 159b 71be e580 45be
00000290: cf3b 1fbd c237 fcbd fafe d6bd 4e53 a93d
000002a0: ee6e 16bb dc7a 823d 3d4e 2b3d fca3 243e
000002b0: 7356 3dbe 25a0 223e 1d2b 45be 2d8a 603e
000002c0: 663d 843e d152 0dbe 9a0e 973c f5be 7fbc
000002d0: 208f 443e 86ac a73b 2e2c 5f3e 649b 6d3e
000002e0: 4dfb b13d 99d0 1bbe e9ca d7bd 7622 02bd
000002f0: 05da 53be 60ab 25be bec0 27be 3eb4 d73d
00000300: 0b8e 94bb a10e 343e 49e6 273d 9b38 183d
00000310: d131 5fbe dfc1 133e 896a 63be a7be 50be
00000320: bbd5 603e 050e a0bd dfaa 1cbd dc15 d63c
00000330: 01e8 3abd e29c 35be 3b58 62be 5369 05be
00000340: 77c5 b8bd b228 8bbc da9a 393e b82d 483d
00000350: b2d9 6f3d 6327 3e3e f4a7 3f3e 3ffd 563e
00000360: 38f2 683d c5be 7b3d 0e7b 133c 7cd7 4dbd
00000370: f7dc 543e 54b4 163d 9450 e63d 7915 2a3e
00000380: fc68 633e 69b3 2dbe a0ba 043d 84d5 7b3d
00000390: 5bfd 2a3e aea8 bfbd 75d4 d53d 0a74 5d3e
000003a0: 40b0 15be ef70 673d ef24 69be 5851 43be
000003b0: 455f b53c 34a5 503d 893c 643e 555e 773d
000003c0: b09d 08be 7c89 fbbd 481a 24be 7e77 c93d
000003d0: e3f9 473d 71df 933b f8e8 0bbe d857 623e
000003e0: f62e 31bd 0c81 003e a4be 4ebe 25d7 153d
000003f0: 3de9 4d3e 5c20 a63c abc4 563e 76c1 1ebd
0.009222847 -0.055682078 -0.04184662 0.042817693 -0.17482112 -0.09934585 0.12240814 0.1147901
0.08247333 -0.055088643 0.008482478 0.21470933 0.05136579 0.19077499 0.15011884 -0.2426009
-0.0065525793 -0.20832582 0.1331119 0.06506047 -0.1953683 -0.17863041 -0.13908753 -0.14533006
-0.16207168 -0.15867756 -0.097613625 0.15496616 -0.0068739587 0.05737007 -0.2048064 -0.2039583
-0.026588371 -0.1925156 0.07822693 -0.05339016 0.15550648 -0.21126415 0.24307323 0.030995032
0.21377625 -0.004195895 0.045410305 -0.17712906 0.09583979 -0.104773395 0.078396 -0.22671135
0.051399242 -0.09944715 -0.13543694 -0.0082597835 0.23146419 -0.11273574 -0.21060978 -0.12682435
0.13175921 0.02332637 -0.24168016 -0.12276326 0.24209403 0.0006585007 -0.10928732 0.12370476
0.0050910204 -0.20212854 0.013601036 -0.09613061 -0.12508102 0.21734901 -0.00309742 0.11577123
-0.18834192 -0.028323159 0.19124418 0.10393503 -0.029293595 -0.06395186 0.089355364 -0.18674685
-0.117379405 -0.14599924 -0.005903 0.16260187 0.05668899 -0.19259734 -0.003748818 0.042923123
-0.1446009 0.14219607 0.24231654 0.106525384 0.10520139 0.04244597 0.14730337 0.20837718
-0.19968942 -0.07497151 -0.026301341 0.22321343 -0.23668651 0.14006561 -0.19779572 -0.23434442
0.1666847 -0.06521499 0.040177792 0.06568791 0.052016 0.004627628 0.12651667 -0.11431607
-0.15064964 -0.037944537 0.04490388 -0.005279604 -0.10247063 0.014671259 0.050811157 -0.050813563
-0.12660632 -0.19838475 0.019734446 -0.057623845 0.06873072 -0.16928533 -0.24838251 -0.24406904
0.0050746934 -0.124090314 0.1551313 0.21859281 0.008779307 0.07450305 -0.1456321 0.22264303
0.008584547 -0.24032493 0.017943028 0.18964377 -0.08555516 0.16457532 0.07925543 0.22534187
0.11675371 -0.0796927 0.15497886 0.085656196 -0.22159922 -0.07670911 -0.08389607 0.1952154
0.10640295 -0.019550635 -0.1466233 -0.14973217 0.23823544 0.20827998 0.24731843 -0.0026096033
0.015132014 -0.05349017 -0.23594315 -0.1928745 -0.038875397 -0.123153225 -0.10497852 0.08267842
-0.0022954303 0.0637109 0.04182266 0.1607818 -0.18490009 0.15881403 -0.19254728 0.2192771
0.25828093 -0.13801123 0.01843958 -0.015609493 0.19195223 0.005117002 0.21794197 0.23203808
0.0869051 -0.15216292 -0.10536749 -0.031771146 -0.20688637 -0.16178656 -0.16382119 0.10532425
-0.0045335344 0.17583705 0.0409911 0.03716336 -0.21796347 0.14429425 -0.22208609 -0.20385228
0.21956532 -0.07815174 -0.038248893 0.02613347 -0.045631412 -0.17735627 -0.2210397 -0.13028459
-0.090220384 -0.016987178 0.18125477 0.048871726 0.05855722 0.18569712 0.18716413 0.20995043
0.056871623 0.06146123 0.0090015065 -0.05025433 0.20787416 0.036793068 0.11245838 0.16609754
0.22208017 -0.16962971 0.032404542 0.06148292 0.1669821 -0.09358345 0.104409136 0.21626297
-0.14618015 0.056504186 -0.22767995 -0.19073999 0.022140155 0.0509388 0.22288717 0.060392696
-0.13341403 -0.122820824 -0.1602565 0.098372445 0.048822295 0.0045127203 -0.1366309 0.22103822
-0.043257676 0.12549227 -0.20189911 0.03658213 0.20108505 0.020279102 0.2097346 -0.038758717

gru.weight_hh_l0 f4 [192, 64]
00000000: ffbe 12bd 1384 0f3e 45b0 d4bc 8095 e7bc
00000010: 42a2 84bd 6bab 6abd 3d7f 24bd b052 bbbd
00000020: de0b ac3d 0bf6 f0bc 3009 473d 26c6 a53d
00000030: 413d 253e f646 91bd 1003 7bbc 90dc 093c
00000040: 9b07 88bd 82fc 9fbd 3dfa a9bd 3f23 c53c
00000050: bb07 3c3d cf10 12bd 89db 293d b47a 94bc
00000060: 2224 693d 0417 d23d 4426 4b3b 4859 dbbd
00000070: 831b 3c3d f018 9a3d 3444 3ebd 4bb1 bf3c
00000080: 7cc3 c53d 4179 b03c 8996 7cbc 208f 293d
00000090: 5a73 4b3d 58ae 2dbd cd9a 1abd 67a9 93bc
000000a0: 0465 a53d 6f7c 8fbd 8baf 34bc 768b 133c
000000b0: f312 863d 27ea 98bd 0ac4 4bbd b472 41bd
000000c0: cf53 e33d 44d7 413c c1bb 3a3d 62d7 263d
000000d0: f84c a0bc 6e8c 6d3c 030e edbc 6152 a7bd
000000e0: 7aba a8bd 8f26 b8bd 3701 d73c 9687 babc
000000f0: 9f5b 2a3e 9b5c a9bd 48b8 ab3d 58a7 183d
00000100: ce60 5a3d 560f 94bd 46ba fd3d 05ac 94bc
00000110: c234 063d f0ca 4dbd 9625 9bbd 5b8d acbd
00000120: fbd4 9cbc 845f bc3c 38c4 d53c 6c57 3fbe
00000130: 3b27 42bb 35c5 253b 932c d3bc 009a 8cbc
00000140: cbb6 d7bc 1c15 5fbd 1467 f5bd 05b6 19bd
00000150: 456b 4f3d 7e9a 343d 939b e93d 4d7b 653d
00000160: b18d 91bd 38ff ecbc e348 55bd 714d 81bd
00000170: cc57 b5bd ca26 25bd cc97 fd3c 1c1a b7bd
00000180: 34ad 26bd b9ec 8bbc 6517 63bc 9f19 8bbd
00000190: 46ad 89bc 46ff dbbc 076c 5c3c d1db 76bd
000001a0: a780 8f3d a224 95bd 56ee aebd 15af 4d3d
000001b0: 7d39 f3bb 1252 a93c 62d3 f4bd 22cf d43c
000001c0: e9f2 53bb bf87 003d f68b 04bd f5cc 3e3d
000001d0: 49fa 9ebc de7f 513d 554a 1c3e 083c 673d
000001e0: 11be e5bb 82cc 97bd 2505 10be 0a30 ccbd
000001f0: 46aa 1e3c 8566 973d 0eef 8b3b f954 313c
00000200: 8508 063e e0f1 0fbe f811 6d3d eec6 f7bd
00000210: ceb9 b5bd dfaf 2bbc c5c2 ecbc d4e0 7f3d
00000220: c53b c5bd 9ed4 503b d404 67bd 2a49 2fbd
00000230: f775 fcbc ca12 6bbd 6868 c43b 1d25 4c3d
00000240: a218 093d 5cf1 c9bd 89d4 1b3d 1c5d 033d
00000250: d231 15be 4056 b8bb f659 983d 4872 3a3d
00000260: 0e64 233b c2ea 64bd 2663 f03d d7e4 9bbd
00000270: fc73 fabc 8e1a 8dbc 1cd5 ae3d b94d de3c
00000280: 6b23 a43d 166b 13bd e188 b7bc 49a6 5e3c
00000290: c29d 23bd 7fae 66bd cc30 a33a 2c5f 993d
000002a0: 1789 a03d 9c29 e1bb b099 bd3d bd83 debc
000002b0: 8f97 2dbc c6d2 e23d b017 e63d 4906 8a3d
000002c0: 9b91 ad3d 015e 933c 2470 28be 6226 223e
000002d0: 3792 1f3c 6fe3 8a3c 0586 9cbd 2801 873d
000002e0: 82e1 08bd 235a c1bd 4363 fabc b708 813c
000002f0: c91d 0bbc 02bc 3d3d e7c1 93bc 58c0 d73d
00000300: 9b27 7f3d a584 62bd 368b cd3d 871a cb39
00000310: 0dad 823d 2ed6 2e3d 6507 bf3d 0880 cebd
00000320: 3407 1fbd ed2a 073e 652d 9e3d e7ae 8d3d
00000330: 11fc 433c 33d2 7d3d 8a34 67bc 9dfd babd
00000340: 51ac 133e 6c0f ebbc e4f8 503d 0efd f93c
00000350: 40e9 db3b 0296 6d3c 0b55 0cbe 8478 83bd
00000360: b170 843d 8d6a f6bd d58b 74bd 8d8a 0dbd
00000370: 942e d93d 3d30 173e d5c9 0e3c e31c 1cbc
00000380: ab2d 023e 133d d8bd e78f d53c 4053 9cbd
00000390: 653a e5bd 06e2 7b3b 2e01 323c a084 0d3d
000003a0: ca1b 84bc beda 9d3d c077 d43d 939c ddbc
000003b0: 7bfe 883c 8fbf 443e 44d5 473d 7956 e0b8
000003c0: 6f2e fbbd b55a 08be 91c0 db3d 6b7e 0a3d
000003d0: 85e5 eb3b 4d00 033d e1ab 35bb 6b16 7d3a
000003e0: 3d1e 0e3a 40c7 6e3c c942 4c3c 65e3 c6bd
000003f0: 831a c7bc c4ec 153d 1c1e 3ebd a53f 0a3d
-0.03582668 0.14015226 -0.025962958 -0.02826953 -0.06476261 -0.057292383 -0.040160406 -0.09146631
0.08400701 -0.029414197 0.048592746 0.080944344 0.16136648 -0.07093613 -0.015320554 0.008414403
-0.06642076 -0.07811834 -0.08299682 0.024064658 0.04590581 -0.03566056 0.04146913 -0.018124916
0.056919225 0.10258296 0.003099815 -0.107103884 0.045924675 0.07524288 -0.046451762 0.02339997
0.09656426 0.021542193 -0.01541675 0.04139626 0.049670555 -0.042402595 -0.037745286 -0.018025113
0.08075908 -0.07006156 -0.011028181 0.009005418 0.06546583 -0.07466536 -0.049747504 -0.04722853
0.110999696 0.0118311085 0.045589212 0.04073275 -0.019567952 0.014498813 -0.028937345 -0.081700094
-0.082386926 -0.089917295 0.026245696 -0.02276973 0.16636513 -0.08269616 0.08384758 0.037268966
0.053314976 -0.072294876 0.123890445 -0.018148432 0.032765158 -0.050242364 -0.07575528 -0.08425399
-0.019144526 0.022994764 0.026094541 -0.18685693 -0.0029625434 0.0025294547 -0.02577809 -0.017163277
-0.02633228 -0.05446349 -0.11982551 -0.037527103 0.05063941 0.044092648 0.114066266 0.056025792
-0.071071036 -0.028930292 -0.052071463 -0.06313599 -0.088546365 -0.040320195 0.030956171 -0.08940527
-0.040692523 -0.017080652 -0.013860558 -0.06791996 -0.016806256 -0.026855122 0.01345349 -0.060268227
0.0700696 -0.07282378 -0.08541553 0.0502158 -0.0074226246 0.020669017 -0.119543806 0.025977675
-0.003234083 0.031379458 -0.03236004 0.04658218 -0.019406455 0.051147334 0.1526273 0.056453735
-0.007011183 -0.07412054 -0.14064462 -0.099701 0.009684151 0.07392601 0.004270441 0.010823482
0.13089187 -0.14057112 0.057878464 -0.1209849 -0.0887333 -0.010478943 -0.028901467 0.062470272
-0.09630541 0.003186501 -0.05640109 -0.042794384 -0.030817969 -0.057390966 0.0059938915 0.04984008
0.033470757 -0.09860489 0.038044486 0.032071218 -0.14569786 -0.005625516 0.07439034 0.045519143
0.0024931463 -0.055887945 0.11737661 -0.07612007 -0.030572884 -0.017224576 0.08536741 0.02713667
0.08014568 -0.035990797 -0.022404136 0.01358945 -0.03994537 -0.056318756 0.0012450456 0.07488856
0.07838648 -0.0068714153 0.09257829 -0.027162427 -0.010595216 0.11075358 0.11234987 0.0673948
0.08475038 0.01798916 -0.16449028 0.15834954 0.00973945 0.016954152 -0.0764275 0.065920174
-0.033418186 -0.0944102 -0.03056491 0.015751226 -0.008490988 0.046321876 -0.018036796 0.105347335
0.06229363 -0.05530228 0.10036318 0.00038738942 0.06380663 0.042684726 0.09327582 -0.10083014
-0.03882523 0.13199969 0.07723502 0.069181256 0.011961953 0.06196804 -0.014111647 -0.09130404
0.14421202 -0.028693877 0.05101861 0.030516174 0.006711155 0.014501097 -0.13704316 -0.06419471
0.06466807 -0.12032042 -0.059703667 -0.03455596 0.10604587 0.14764495 0.008715113 -0.0095283715
0.12712733 -0.10558524 0.026069595 -0.07633066 -0.111927785 0.003843428 0.010864539 0.03455031
-0.016126532 0.077077374 0.10374403 -0.0270522 0.016722908 0.19213699 0.04878737 -0.00010697259
-0.12264716 -0.13315852 0.107300885 0.033811968 0.0071989917 0.03198271 -0.0027720856 0.00096545246
0.0005421376 0.014573872 0.012467095 -0.09711341 -0.024304634 0.03660275 -0.046415433 0.033752102

gru.bias_ih_l0 f4 [192]
00000000: 2d1c c83c dd65 0d3d 854b 963c ba5a d63b
00000010: 4dcd 013c 2ff2 c83a 7208 6dbc 680e 843c
00000020: b0d2 3cb9 37f5 2e3b 8597 5a3b e58b 7a3b
00000030: d515 b6bb 16e9 0e3c 1637 45bb 4b0d 933b
00000040: 8258 e53b 7bd4 ae3b 9c18 3fbb db23 6a3c
00000050: a891 b93c 31cf 90bb 3f20 173c 3dfc 683c
00000060: ad76 833b a941 eeba 940a 2e3c 5c56 cc3b
00000070: 5809 223c abde 7b3c e14e 1b3c 9c5c b7bb
00000080: 2493 7dbb ee73 143c 625a 3a3c 5b8f 8e3c
00000090: 4b37 da3c 6d23 2f3c be69 d7bb 611f 553c
000000a0: f3de 483c 5f59 583c 36e9 363b 97ba 683c
000000b0: be8b 4e3c f6f3 96bc 7152 893b 15e8 9c3a
000000c0: ce5a 8a3b 07df 1f3b c8f8 a1bb 01d8 9a3c
000000d0: 4bd5 0e3c ede6 463b c962 c83b 64ba 9f3b
000000e0: 5703 933c 48a1 193a afee 08bb e299 1a3c
000000f0: 3844 57bb 9ff0 3a3c 16d2 62bc 5772 673c
00000100: 9ab1 1ebc 944b 083d d81b 933b 068a 183d
00000110: a05e 31bc 7c62 663c d5b6 853c 85b1 35bc
00000120: 960a b63c 63cf a83c a227 8c3b 7209 71bb
00000130: 03af 043c a2c3 e23c 9e19 ac3b dbde cb3b
00000140: 7b76 cf3b 98af 023d 2dce fa3c b838 b43c
00000150: 0ca0 31bc da6a 71bb f270 393c 1a01 093c
00000160: df2f b9bb 8f15 2ebc d5fd 4abc 78e9 a93c
00000170: 5c07 353c bf5b f73c c718 f63c 0436 07bd
00000180: d141 6ebc 6dd3 043c 5e6a bc3c ab5d 063d
00000190: 0577 cc3c 1875 bf3c cec3 fa3c 44a2 953a
000001a0: 01fc 043b f878 cabb e171 8fbb cad8 6dbc
000001b0: 964a 9e3b 9923 083c 6e61 cd39 0c3e 3f3a
000001c0: cac9 933c 2375 963b 43e2 013d 17d4 e53b
000001d0: 5ebe d03a 7580 563c 62f2 9a3c 61a7 f43c
000001e0: 2927 9c3c de5d aa3c 07c2 b93c f303 77b9
000001f0: 6566 41bc a5ad 393c 8c48 0abd fdd1 d5bc
00000200: c2fc 03bc f2a6 87bb fa4b 0cbc da15 ae3b
00000210: 5e49 9fbb b164 3bbc 6808 01bb 2bf2 473b
00000220: 83a7 41bc d03e 9d3b df23 903b 5ce9 a93b
00000230: c86a 8dba 5b27 cc3a 15a7 19bb 1b23 5cbc
00000240: 638b 30ba 51c6 a939 e813 04bc ec9d debb
00000250: 7c79 f3bb 4385 d33a 687e 273b 09ec 1e3c
00000260: a09c d13a bf43 fb3a 7502 a2ba 687b faba
00000270: d2f1 26ba 03a4 3ebc f226 5e3a ef4d cb3b
00000280: aa54 433b ac23 02b9 cd03 143c c2d7 56bc
00000290: 5ce4 3a3c 396c 2eba 5f08 293c f1f0 0abc
000002a0: cb9a d0bb 2bc5 a93b b509 5fbc 2550 c83b
000002b0: 8c4e 6dbb 3cbd e03a f46b 0dba ce69 523b
000002c0: 2398 073b eb13 41bc f175 53bc 773c 883a
000002d0: 09e2 013c 0cf2 aa3b 3d30 5aba 5094 413b
000002e0: 1c2a 15bc 3041 823b f50d bb3a 52de 4dbc
000002f0: 3e75 c23a 5c15 d1bb 7611 ffbb 5e41 123c
0.024427498 0.034520973 0.018346557 0.006541577 0.007922483 0.0015330965 -0.014467346 0.01612015
-0.00018007564 0.0026696452 0.0033354473 0.0038230356 -0.005556802 0.008722564 -0.0030092648 0.0044876686
0.0069990763 0.0053353882 -0.0029158955 0.014290775 0.022652462 -0.0044192304 0.009223997 0.014220295
0.00401195 -0.0018177527 0.010622639 0.006235881 0.009889923 0.015372912 0.009479255 -0.0055957567
-0.003869244 0.009060843 0.011374088 0.017402342 0.026637694 0.0106895985 -0.0065738847 0.01300797
0.0122601865 0.0132049015 0.002791 0.014204643 0.012606559 -0.018426877 0.004190736 0.0011971021
0.0042222505 0.002439441 -0.004942987 0.018901827 0.008717845 0.0030350045 0.0061152917 0.0048745144
0.017945928 0.00058605196 -0.002089422 0.009436103 -0.0032847058 0.011409908 -0.013844034 0.014126382
-0.009685898 0.033275202 0.004489403 0.037241004 -0.010825783 0.014061566 0.016322533 -0.011089687
0.022221845 0.020606702 0.0042771855 -0.0036779311 0.008098367 0.027681176 0.0052520772 0.006221635
0.0063312626 0.03190574 0.03061589 0.021999702 -0.010841381 -0.003683737 0.011318432 0.008362079
-0.0056514586 -0.010625257 -0.01238962 0.02074121 0.011049118 0.030195115 0.030041112 -0.033010498
-0.014542059 0.008107048 0.022999939 0.032804172 0.024959097 0.023371264 0.030610945 0.0011416157
0.0020291808 -0.0061789714 -0.004377589 -0.014517019 0.0048306687 0.008309268 0.00039173238 0.00072953175
0.018040556 0.0045916005 0.03170992 0.0070138085 0.0015925874 0.01309215 0.018914405 0.029864969
0.019061642 0.020796712 0.022675527 -0.00023557227 -0.011804198 0.011332904 -0.033760592 -0.026101107
-0.008055868 -0.0041397745 -0.008563036 0.0053126635 -0.004861041 -0.011437581 -0.0019688848 0.0030509334
-0.011819723 0.0047987476 0.0043988074 0.0051852893 -0.001078927 0.0015575694 -0.0023445536 -0.013436104
-0.00067346374 0.0003238195 -0.008061387 -0.006793728 -0.0074302536 0.0016137738 0.0025557522 0.00969983
0.0015992112 0.001916997 -0.0012360351 -0.0019110264 -0.00063684315 -0.011635783 0.0008474431 0.006204359
0.0029805102 -0.00012411055 0.009034109 -0.013112964 0.011406984 -0.00066536997 0.010316937 -0.0084802965
-0.006366109 0.005180975 -0.013613154 0.0061130696 -0.0036210148 0.001714624 -0.00053948094 0.0032106522
0.0020690046 -0.011784534 -0.012906537 0.0010393996 0.007927426 0.0052168425 -0.0008323228 0.0029537864
-0.009104278 0.003975056 0.0014271127 -0.012565212 0.0014835966 -0.00638072 -0.007784064 0.008926718

gru.bias_hh_l0 f4 [192]
00000000: 2d1c c83c dd65 0d3d 854b 963c ba5a d63b
00000010: 4dcd 013c 2ff2 c83a 7208 6dbc 680e 843c
00000020: b0d2 3cb9 37f5 2e3b 8597 5a3b e58b 7a3b
00000030: d515 b6bb 16e9 0e3c 1637 45bb 4b0d 933b
00000040: 8258 e53b 7bd4 ae3b 9c18 3fbb db23 6a3c
00000050: a891 b93c 31cf 90bb 3f20 173c 3dfc 683c
00000060: ad76 833b a941 eeba 940a 2e3c 5c56 cc3b
00000070: 5809 223c abde 7b3c e14e 1b3c 9c5c b7bb
00000080: 2493 7dbb ee73 143c 625a 3a3c 5b8f 8e3c
00000090: 4b37 da3c 6d23 2f3c be69 d7bb 611f 553c
000000a0: f3de 483c 5f59 583c 36e9 363b 97ba 683c
000000b0: be8b 4e3c f6f3 96bc 7152 893b 15e8 9c3a
000000c0: ce5a 8a3b 07df 1f3b c8f8 a1bb 01d8 9a3c
000000d0: 4bd5 0e3c ede6 463b c962 c83b 64ba 9f3b
000000e0: 5703 933c 48a1 193a afee 08bb e299 1a3c
000000f0: 3844 57bb 9ff0 3a3c 16d2 62bc 5772 673c
00000100: 9ab1 1ebc 944b 083d d81b 933b 068a 183d
00000110: a05e 31bc 7c62 663c d5b6 853c 85b1 35bc
00000120: 960a b63c 63cf a83c a227 8c3b 7209 71bb
00000130: 03af 043c a2c3 e23c 9e19 ac3b dbde cb3b
00000140: 7b76 cf3b 98af 023d 2dce fa3c b838 b43c
00000150: 0ca0 31bc da6a 71bb f270 393c 1a01 093c
00000160: df2f b9bb 8f15 2ebc d5fd 4abc 78e9 a93c
00000170: 5c07 353c bf5b f73c c718 f63c 0436 07bd
00000180: d141 6ebc 6dd3 043c 5e6a bc3c ab5d 063d
00000190: 0577 cc3c 1875 bf3c cec3 fa3c 44a2 953a
000001a0: 01fc 043b f878 cabb e171 8fbb cad8 6dbc
000001b0: 964a 9e3b 9923 083c 6e61 cd39 0c3e 3f3a
000001c0: cac9 933c 2375 963b 43e2 013d 17d4 e53b
000001d0: 5ebe d03a 7580 563c 62f2 9a3c 61a7 f43c
000001e0: 2927 9c3c de5d aa3c 07c2 b93c f303 77b9
000001f0: 6566 41bc a5ad 393c 8c48 0abd fdd1 d5bc
00000200: 96da 04bc 2bfb b4bb 6a45 1abc 8f5e b63b
00000210: 7256 90bb 4d6c 34bc f2f3 3ebb 36a1 2e3b
00000220: 902f 4bbc bb53 963b 7d6a 8b3b b175 b43b
00000230: 965e 71bb 94d5 923a 174a 51bb d6b5 40bc
00000240: d2b4 40ba 3a1f 3639 b96f 0ebc 6b15 efbb
00000250: d3d0 0fbc 7ad4 d33a 2805 033b 31f1 1d3c
00000260: 2f1a 333b 0418 103b 3615 c6ba c89d 54bb
00000270: 3bd8 4aba a244 44bc 4797 033b 50a2 c43b
00000280: 1dd8 613b 6466 6638 15bb 093c c0c4 6abc
00000290: a1ff 333c 4e70 7dba 641a 213c c977 03bc
000002a0: ef13 cdbb f1d8 c53b 4551 61bc 705b d73b
000002b0: 6bdf 39bb d808 05bb a5fb a2b9 bb19 653b
000002c0: 151e 853a 2ebb 3bbc cd67 47bc 79a6 3d3b
000002d0: 40a5 063c a200 cd3b 63b3 0abb 5a40 333b
000002e0: f934 20bc adeb 763b d458 393b c0e4 42bc
000002f0: c8b5 e53a 78ac b3bb 399b f3bb a73f 143c
0.024427498 0.034520973 0.018346557 0.006541577 0.007922483 0.0015330965 -0.014467346 0.01612015
-0.00018007564 0.0026696452 0.0033354473 0.0038230356 -0.005556802 0.008722564 -0.0030092648 0.0044876686
0.0069990763 0.0053353882 -0.0029158955 0.014290775 0.022652462 -0.0044192304 0.009223997 0.014220295
0.00401195 -0.0018177527 0.010622639 0.006235881 0.009889923 0.015372912 0.009479255 -0.0055957567
-0.003869244 0.009060843 0.011374088 0.017402342 0.026637694 0.0106895985 -0.0065738847 0.01300797
0.0122601865 0.0132049015 0.002791 0.014204643 0.012606559 -0.018426877 0.004190736 0.0011971021
0.0042222505 0.002439441 -0.004942987 0.018901827 0.008717845 0.0030350045 0.0061152917 0.0048745144
0.017945928 0.00058605196 -0.002089422 0.009436103 -0.0032847058 0.011409908 -0.013844034 0.014126382
-0.009685898 0.033275202 0.004489403 0.037241004 -0.010825783 0.014061566 0.016322533 -0.011089687
0.022221845 0.020606702 0.0042771855 -0.0036779311 0.008098367 0.027681176 0.0052520772 0.006221635
0.0063312626 0.03190574 0.03061589 0.021999702 -0.010841381 -0.003683737 0.011318432 0.008362079
-0.0056514586 -0.010625257 -0.01238962 0.02074121 0.011049118 0.030195115 0.030041112 -0.033010498
-0.014542059 0.008107048 0.022999939 0.032804172 0.024959097 0.023371264 0.030610945 0.0011416157
0.0020291808 -0.0061789714 -0.004377589 -0.014517019 0.0048306687 0.008309268 0.00039173238 0.00072953175
0.018040556 0.0045916005 0.03170992 0.0070138085 0.0015925874 0.01309215 0.018914405 0.029864969
0.019061642 0.020796712 0.022675527 -0.00023557227 -0.011804198 0.011332904 -0.033760592 -0.026101107
-0.008108756 -0.0055231056 -0.009415964 0.0055654715 -0.0044048363 -0.011012149 -0.0029137102 0.0026646382
-0.0124014765 0.004587618 0.0042546378 0.005507194 -0.003683006 0.0011202567 -0.003193503 -0.011762103
-0.0007351163 0.00017368505 -0.008693629 -0.0072962544 -0.008777815 0.0016161345 0.0019992087 0.009640024
0.002732884 0.002198697 -0.0015112523 -0.0032442678 -0.00077379093 -0.011979254 0.0020079182 0.0060007945
0.003446109 5.4931632e-05 0.00840642 -0.014329135 0.01098624 -0.0009667919 0.009832952 -0.0080241645
-0.00625848 0.0060378243 -0.013752286 0.0065721795 -0.0028361927 -0.002029946 -0.00031086538 0.0034957964
0.001015606 -0.011458201 -0.012170744 0.0028938337 0.00821811 0.006256179 -0.0021164052 0.002735159
-0.009778255 0.0037677095 0.0028281705 -0.011895359 0.0017525489 -0.0054832064 -0.0074342755 0.009048379

gru.weight_ih_l0_reverse f4 [192, 10]
00000000: d07a 7fbd cb20 90bd e38c 7fbe 74c6 52be
00000010: 1b49 4f3d 1808 1cbd 4984 323e 3a2a 68be
00000020: 0afb bc3d 9633 5cbe 5b3d 1cbd 791f 0ebe
00000030: 4686 103e 5e24 233c 6f5c a93d f38e 2abe
00000040: 1efd 40be 7d0b 123e 124a 4b3e b5db 79be
00000050: 8152 583e d4e0 02be a87e 343e 4ef9 7bbd
00000060: 964e 38be 1808 123d 8999 bd3d 7f30 743e
00000070: 840e 1bbe 2e0d 49bd fdc7 64be e352 c53d
00000080: 5ce5 59be 05f0 823e 8285 103d b3aa 1fbd
00000090: 5fd2 ccbd 86bd 403e 6d73 07bd 6bf1 533e
000000a0: 9e69 523e 6b1e 5c3e 18da 29be 7a06 dd3d
000000b0: 1af2 dc3d 1603 75be b2a8 093e 7d97 813e
000000c0: 0c46 b83d ad92 3a3e 43a6 26be b491 35bd
000000d0: beba 2cbe 6614 25bd 756f 14bd 6d1b 8f3d
000000e0: fb54 a3bd 6fe2 b53c d32e 50be 12cf 853d
000000f0: 6a14 473e 86ed 773e 62b0 363e 3eb1 2fbe
00000100: a85f 303d 928e 273e 1ee0 103d 4d70 46be
00000110: 8202 0abe 3493 3a3d 9739 ba3d 8c38 063c
00000120: 39dd 08be 9399 82bd 527b 3dbc 28f4 7a3e
00000130: 92a9 63be cdf8 50bd 4359 54be 39a6 13be
00000140: 04ba dd3d 1143 703e 4121 7d3d 1889 94bd
00000150: b8c9 fe3d 769a 40be 0bbe d8bd 8449 4ebe
00000160: 2b81 31bd bf3f 2abd d4df 443e eeef 83bd
00000170: 303a a23d ca2b 0b3e 45c4 5b3e edd6 e6bd
00000180: 1ea7 cc3d d42a b33d 505b c8bd 846e 833d
00000190: fde1 0dbe 2cf2 4b3e 194d eb3d 4497 2abe
000001a0: 7898 033c acf7 d53c 4e43 1e3e 5c88 ff3d
000001b0: 2b9b b83d 18b1 61bd a2ea 023c 7229 583e
000001c0: f679 48be 763b 083e ec68 eb3b bb5c 583e
000001d0: bb27 cd3d 2ed1 fdbd 54df 243e fb70 753d
000001e0: fdf5 373e 4eab 3e3e 68b3 793e f34e 47be
000001f0: 8548 95bd 9932 433e a647 99bd 9cf9 37be
00000200: 6f8f f63c d29d 60bd 1fb8 023d 6049 94bc
00000210: 9cf3 993d 23fc 79be 1f80 133e 8422 dabd
00000220: de69 bf3d 9af8 9e3d d8e2 06be cf45 9bbd
00000230: 86f7 fe3c 7008 1fbe f6a4 cb3d ff76 283d
00000240: ab5e 113e fcad 02be 1526 2c3e 9b4e d93d
00000250: f515 b9bd e629 2f3d eff9 0b3e 2e74 e0bd
00000260: 37d6 1c3e 9b98 7fbe 38d7 50be 3b0f 49bc
00000270: 3fea 7ebd 7515 3e3e 7de0 20be 205e e9bc
00000280: b5e2 82bd ea54 26be 11d6 5b3e 449d 833d
00000290: c1c0 c2bd 7d87 b13d c516 d83c c076 61be
000002a0: 32eb 2e3e bce0 dcbd 06d1 61be bca5 cd3d
000002b0: 585a 77be e15b afbd 6c12 1fbb eea5 393d
000002c0: 4a81 9ebd eccb 0bbe e104 31be b4d6 583e
000002d0: f557 f3bd 6fb2 523e 7ca0 e93d cd00 09be
000002e0: 0d2d 893d a1b4 b43d d7b4 643c 7bdf 453e
000002f0: 5365 3f3d 1d84 7fbe ec27 58bd afd6 30be
00000300: 2731 5cbe 757e 3b3e 5c96 0abd 1c4e 19be
00000310: 5fa3 0abe fa24 eabd d5ce b0bc 7366 7a3e
00000320: 2d9e bebd 15c9 be3d 128c d9bd 2a97 66be
00000330: 9a60 5bbd 214c 6a3d ce51 0f3e 3057 c6bd
00000340: c846 c43d 1c27 0b3e f3a9 7bbc 5b38 4abe
00000350: 9480 543d 5828 493d d1c5 56bd b767 e1bd
00000360: ea8e d2bd b8c6 1abe da8a 43be 525a a23d
00000370: 62eb af3d 23c0 7fbe 16ef 923d 0bf1 80bc
00000380: b9da e2bc 6ec1 873e 383f 80be cba5 973d
00000390: 9c4a 7e3d 616f f53d ed8c 81bd fa1f 3c3e
000003a0: 3f87 68be 1780 5c3e 1005 13be d6e1 803d
000003b0: 1da5 fc3d 3845 fcbd 6852 8b3c 40c4 0c3e
000003c0: 63c2 9e3d 0402 123e 260a 38be 1510 42be
000003d0: 03f8 34be 4fe4 ad3d 33d6 b1bc 9cf3 813e
000003e0: 01b6 66bd 6d32 9a3d b3e0 58be 7474 57bd
000003f0: 7144 883d 62b7 78be 82ab 22be 2fd8 96bd
-0.062372983 -0.07037505 -0.24956088 -0.20583516 0.05060683 -0.038093656 0.17433275 -0.22672358
0.092275694 -0.21504053 -0.03814445 -0.13879193 0.14113721 0.009957401 0.082695834 -0.16656093
-0.18846557 0.14262195 0.19852474 -0.24400218 0.21125223 -0.12781078 0.1762644 -0.061517052
-0.17998728 0.03565225 0.092578 0.23846625 -0.15142256 -0.049084835 -0.22341914 0.0963495
-0.212789 0.25573745 0.035283573 -0.03898115 -0.100010626 0.18822297 -0.033069063 0.20697562
0.20548102 0.21495979 -0.16587102 0.10792251 0.10788365 -0.23926958 0.13443258 0.2531089
0.089977354 0.18220015 -0.16274361 -0.044328406 -0.16868111 -0.040302657 -0.036239106 0.06987653
-0.07975193 0.022202699 -0.20330362 0.06533636 0.19441381 0.24211702 0.17840722 -0.17157456
0.043059975 0.1636298 0.035369985 -0.19378777 -0.13477519 0.04555054 0.09093016 0.008192193
-0.1336564 -0.06376948 -0.011565046 0.245072 -0.22232655 -0.051018525 -0.20737176 -0.14418878
0.10826495 0.23463084 0.06179929 -0.07252711 0.124408185 -0.18808922 -0.10583123 -0.20145231
-0.043336075 -0.0415647 0.19226009 -0.06442247 0.07921255 0.13590923 0.2146159 -0.112714626
0.099928126 0.08748403 -0.097830415 0.064175636 -0.13855739 0.199166 0.114893146 -0.16659266
0.008031957 0.026119076 0.15455362 0.1247718 0.09013971 -0.05510053 0.007990511 0.2110956
-0.19577774 0.13303933 0.0071841385 0.21129124 0.100173436 -0.123934135 0.16100818 0.0599222
0.17964931 0.18620035 0.24384844 -0.1946371 -0.07289223 0.1906227 -0.07484369 -0.17966312
0.030097691 -0.05483801 0.031913873 -0.018101394 0.07517168 -0.24412589 0.14404343 -0.106511146
0.093463644 0.07762261 -0.13172472 -0.07581674 0.031123888 -0.15530562 0.09943573 0.04112911
0.14196269 -0.12761682 0.16811402 0.10610696 -0.09037391 0.042764567 0.13669561 -0.109596595
0.15316091 -0.24960558 -0.203946 -0.012271698 -0.062235113 0.18562873 -0.15710635 -0.028487265
-0.06390897 -0.1624333 0.21468379 0.064264804 -0.09509421 0.086684205 0.026378045 -0.22017956
0.17081907 -0.10785052 -0.22052392 0.10041377 -0.24155557 -0.085624464 -0.0024272455 0.04532426
-0.07739504 -0.13652009 -0.17287017 0.21175653 -0.11882011 0.2057588 0.11407563 -0.13379212
0.06698046 0.08823515 0.013959131 0.19323532 0.04672749 -0.24952741 -0.052772447 -0.17269395
-0.21503125 0.18309958 -0.0338348 -0.14971203 -0.13538884 -0.11432834 -0.021583 0.24453144
-0.093075134 0.09315697 -0.106224194 -0.22518602 -0.053558923 0.05720151 0.1399605 -0.096845984
0.09583813 0.13589138 -0.015360343 -0.1974806 0.051880434 0.04911074 -0.052434746 -0.1100611
-0.10281165 -0.15114868 -0.19095936 0.079273835 0.085898176 -0.24975638 0.07174508 -0.015739938
-0.027692186 0.26514763 -0.25048232 0.074046694 0.06208287 0.119841345 -0.063257076 0.18371573
-0.22707842 0.21533237 -0.143574 0.06293075 0.1233618 -0.1231789 0.017007068 0.13746738
0.0775192 0.14258581 -0.17972621 -0.18951447 -0.17672734 0.08490812 -0.021708583 0.25381172
-0.056325916 0.07529149 -0.21179466 -0.052601293 0.06653679 -0.24288705 -0.15885738 -0.073654525

gru.weight_hh_l0_reverse f4 [192, 64]
00000000: 45bd e0bd 95b1 873d 5b95 84bd 0e3b 083d
00000010: 953c 2f3d 246e 2f3d d251 ae3c 2c03 d7bd
00000020: a3ad 2b3e dd6f d03c a7f5 513d 43df df3c
00000030: 058b 12bd c527 b9bc 8532 35bd fe00 953b
00000040: b26e debd 8919 9fbd 07c9 503d e6fe 0ebd
00000050: 1151 283d bef4 8e3d 77e8 d83d 0b11 84bd
00000060: 9f06 03bd dae4 9b3c c7a9 d63d e811 37bd
00000070: 27cb a03b 6a9e 5bbc c5e8 8bbc 3989 98bc
00000080: 4f74 b13d f720 a83d c763 3ebe 5533 d13d
00000090: dbe0 cbba c200 98bd 9738 583d 7e0e 2c3c
000000a0: 60c4 37bd ea8f ab3c 4d37 fb3c a75a 7dbd
000000b0: c308 f93d 9cb0 46be 1a6e 91ba afd2 9abc
000000c0: 5f5c abbd c9d4 14be 53dd 453c 6b57 81be
000000d0: 940b b53d f80a d03d 3274 233d eb57 9b3d
000000e0: c790 56bd 7a18 c83d abff c13d 355f 483d
000000f0: 7265 c73a 69ff f53d b42f 64bd bfe2 253e
00000100: 36c5 3ebe 276d 583d 290b de3d 6443 273c
00000110: 1f8d 5bbe b978 973d 93f2 e23d e772 893d
00000120: b654 03bd 22ca 353c 1acd 493d 7870 1f3e
00000130: 981c 04be b22a 6cbc 6b8e fdbc d917 e5bc
00000140: 9211 bebc 92c8 9fbd 9883 183d b808 09bd
00000150: 2ce9 acbd 4ec9 68bd 572a 073e d187 06bd
00000160: 57d3 11bc e794 073e f1f1 6e3d 55d0 a8bd
00000170: fc20 52bd b029 ef39 badc 1b3d 11a5 863d
00000180: bdb9 8abc 9604 98bd 83d8 01be 9a6f 69bd
00000190: 769d 82bd f69d 6fbd dd25 3f3d 0ada 1c3d
000001a0: 83db 2b3d ca31 8dbb 02f0 0f3e 6722 e7bd
000001b0: 7b29 8d3d 6117 873d f497 9a3d 306a d6b9
000001c0: 9243 9a3d b61d 8fbd 80ba 843d 71ba e33c
000001d0: fbc5 ffbb 3ed5 91bd 567f 833c 3d21 f1bc
000001e0: 2939 74bd 5ecf d7bd f5ae e53d 93b9 62bc
000001f0: 9db8 10be 0dcf e03b fbf9 8b3d cbc9 a5bc
00000200: a99d 1d3e 55ac a5bd aef2 7e3d 38ab bb3d
00000210: eb69 63bd f018 95bd 827f 803d dd48 953d
00000220: 3dcb d2bc 8894 ed3d 8e8d d8bd 97da 2dbd
00000230: c366 5e3a 979f 173e 832c c7bd f327 fa3d
00000240: 920d aa3b 5c41 d5bd a481 b73a 07cf bd3d
00000250: 3097 93bd db2a f1bc 9a79 5a3a 6f49 10bd
00000260: 11d0 613c 453b 473c c9be 3abd 35c5 c73d
00000270: a0a7 99bd be4f d4bc 27b7 013c 55ed 3fbd
00000280: 780d a4bc 215d 12bd c6b3 d33c d077 3ebd
00000290: 27c9 32bc 3113 cebd ff83 2dbd 0d12 a8bc
000002a0: e855 a0bd 4c5f 2b3e e836 f4bc d8e6 9ebc
000002b0: 0a59 263d 88fc 06bd f850 873d 3d92 27bd
000002c0: cfab a5bd f007 16bc 33d9 193e dcf8 a83b
000002d0: ade9 a1bd 03a2 30be 3f2e cf3d bf0a 1fbe
000002e0: 5942 16be db38 bfbd ebbb 2dbd 613d 20be
000002f0: 632b b33c 0da2 90ba 2b1a 2ebd 31d1 913d
00000300: e0e5 9fbd 3fdf b53c d7aa ad3d 9d75 a1bc
00000310: b93f 73bd f8d8 d1bc 6bfe da3c bb0c 4abd
00000320: 05ca c93d ae36 a3bc 5603 373d 2086 fcbc
00000330: 7356 b13c ff31 5bbb 9be0 573c 84e0 963d
00000340: 5f1a 6a3c 793a 77bc b576 e03b 6e12 81bd
00000350: 5c44 efbd b328 893d a7f4 c4bb ca12 d43d
00000360: 4ce2 eebd f112 3c3d c920 b7bd adb5 2a3d
00000370: 5b12 ebbd 9590 d83c 86a8 123d 4098 033e
00000380: 8428 123d 9ca7 c6bc 88eb 84bd 0f04 6b3c
00000390: b9a3 1abd aea6 80bd a49b bf3d c677 233b
000003a0: 5372 9e3d 5486 90bd f750 6f3d 5716 293d
000003b0: 5339 033e 0c05 a83d 6bde e2bd f7dd 63bb
000003c0: e9ed 1abe 90cc d73d 296b adbd 2196 1dbd
000003d0: f254 513c 7317 0f3e 73ae 6abd 9ad0 923d
000003e0: 869a cdbb 73b1 7e3d d822 e03c 4478 3abe
000003f0: 7aad 883d bb6c e6bc 1263 7d3d e8ae 17be
-0.109736 0.06625668 -0.064738 0.033259444 0.042782385 0.042829648 0.02127925 -0.10498652
0.16765456 0.025443966 0.051259663 0.02732814 -0.03577711 -0.022601971 -0.044237632 0.0045472374
-0.10860957 -0.07768542 0.050972965 -0.03491106 0.041092936 0.069802746 0.10591214 -0.06448563
-0.031988736 0.019030023 0.10481601 -0.04469481 0.00490703 -0.013404468 -0.017078767 -0.01862012
0.08664762 0.082094125 -0.1859275 0.10214869 -0.0015554683 -0.074220195 0.052788343 0.010501502
-0.044865012 0.020942647 0.030666018 -0.06185403 0.12159874 -0.19403309 -0.0011095435 -0.01889929
-0.08367228 -0.14534296 0.012076694 -0.25262007 0.08840099 0.10158342 0.039905734 0.075851284
-0.052384164 0.097702935 0.09472593 0.04891892 0.0015212728 0.12011606 -0.055709556 0.16199778
-0.18629918 0.05283847 0.108419724 0.010208938 -0.21440552 0.07396073 0.110814236 0.06711369
-0.03206321 0.0110955555 0.049267866 0.15570247 -0.12901533 -0.014414476 -0.0309517 -0.027965473
-0.023201738 -0.078019276 0.037234873 -0.03345558 -0.084429115 -0.056832604 0.13199745 -0.03284437
-0.008900485 0.13240395 0.058336202 -0.08242861 -0.051300988 0.00045616692 0.038052298 0.06574453
-0.01693427 -0.0742275 -0.12680249 -0.056991197 -0.063776895 -0.058500253 0.04666697 0.038293876
0.04195739 -0.004308914 0.140564 -0.112858586 0.068926774 0.06596256 0.07548514 -0.00040896377
0.07532419 -0.06988089 0.064808846 0.027798863 -0.0078055835 -0.07120751 0.01605193 -0.029434795
-0.059624825 -0.10537599 0.11215011 -0.01383819 -0.14132924 0.00686062 0.06834789 -0.020237824
0.15392174 -0.0808951 0.062243156 0.09163517 -0.055520933 -0.07280147 0.0627432 0.07289288
-0.025731677 0.11600596 -0.105738744 -0.04244479 0.00084839406 0.14806972 -0.09725287 0.12214651
0.005189606 -0.10412857 0.0014000428 0.09268003 -0.07206571 -0.02943938 0.000833416 -0.03522628
0.013782517 0.012160127 -0.045592103 0.09754411 -0.07502675 -0.02591693 0.007917202 -0.046857197
-0.020025954 -0.035733346 0.025842559 -0.04650098 -0.010912216 -0.10062254 -0.04236221 -0.02051642
-0.07828885 0.16735572 -0.029811338 -0.019397184 0.040612258 -0.032955676 0.066072404 -0.040910948
-0.080894105 -0.009157166 0.15024261 0.0051566195 -0.07905898 -0.17249303 0.101162426 -0.15531443
-0.14673747 -0.09337016 -0.04241554 -0.15648414 0.021871274 -0.0011034623 -0.042505424 0.07119978
-0.07807517 0.022201179 0.08479851 -0.019709403 -0.059386943 -0.025616154 0.026732644 -0.049328547
0.09852985 -0.019923534 0.044680916 -0.030825675 0.021647668 -0.0033446548 0.013176109 0.07367042
0.014288514 -0.015089625 0.0068500885 -0.06302343 -0.116829604 0.06697216 -0.00601061 0.10355146
-0.116642565 0.0459165 -0.089418 0.041677166 -0.114781104 0.02643613 0.035805248 0.12851048
0.03568317 -0.024249844 -0.064902365 0.014344229 -0.037753794 -0.062817916 0.09355858 0.0024943217
0.07736649 -0.07056871 0.058426823 0.04128107 0.12814836 0.082040876 -0.11077579 -0.0034769753
-0.15129818 0.10537064 -0.08467705 -0.038473252 0.0127766 0.13973789 -0.057295274 0.07168694
-0.006274524 0.062180948 0.027360365 -0.1820994 0.06673713 -0.028128019 0.06186206 -0.14812815

gru.bias_ih_l0_reverse f4 [192]
00000000: 88a7 5b3c 90b1 ccbb 69c8 933b 9daf 4a3c
00000010: 9699 543c 6413 8e3b 73cf 45bb b448 0f3c
00000020: 5086 293b 7984 6a3c 1c18 4a3b c890 753c
00000030: 2e3e e53b 2991 a23c 00f8 133d 557f d9bb
00000040: d979 6ebb 590b 8bbb 3439 3abc 92e6 333c
00000050: 62a0 31bc 5327 05bb f1c6 f03c da4d 633c
00000060: 81aa 0b3c 926c 843b 977b bcba acd9 483c
00000070: ab54 a53c fd7e cfbb 2f5e 8e3c d9c9 29bc
00000080: 0a70 beb9 11a8 5d3b 1fd9 bb3a 9dd0 8837
00000090: 9a02 c3ba 38dd bb3b 93d3 ad3b e4d3 243c
000000a0: 2859 65bc 0114 883b e672 953b fdb2 163c
000000b0: 5357 f5bb 4e69 0d3c 2ac1 cc3b d121 0f3c
000000c0: 89cb f5b8 a4f2 7d3c c5ae a0bb fcff 853b
000000d0: 57cb c7bb c99d ff3b 3e1b 1b3c 03b7 303b
000000e0: c4b8 683b 62f4 d9ba 4259 d13b 63b9 463c
000000f0: c11f 343c 3d05 63bb 6756 06bc 0097 43bc
00000100: 8c4f c63c 022d 2fbc ccab 233d e6fd 713c
00000110: 6dcd f93b 83d0 55bc c619 a9bc 4599 0abc
00000120: 9593 4e3c fd49 f73c f4b1 b13b 9036 e8bb
00000130: 60be 1bbc 3171 183d a062 9d3c 3627 973c
00000140: d6b7 c5bc b701 7f3b c48a 5abb b739 453c
00000150: a724 10bd 2f7e f13c 6c9c 2e3d bd65 fab9
00000160: 29fd 68bc f242 053c 0435 ff3c 5c20 ee3b
00000170: 1a5b 2a3c a028 9e3b 7233 0ebc 162f b1ba
00000180: 008d 5f3c 8184 a0bb 100c 413c 1b92 563c
00000190: c751 0d3c f7e2 8f3c e092 3abc da7b b23b
000001a0: 272e d33c 4b27 823c 418d 31bc 78ad 1d3d
000001b0: a31a 7b3b 7a41 113b 88a7 fdbc 9468 173c
000001c0: be96 de3c 8f58 a33c dee8 f93b ef70 d83b
000001d0: ff90 353c 362e 2d37 9425 8f3c d4ca 7ebc
000001e0: 91d2 b33c 7101 26bc 797b 803c b318 093d
000001f0: 8a0d 88bb 301f 85bb 8445 88bc dab4 d43c
00000200: 5014 8a3a 3095 323b 418c f63a 9509 cbba
00000210: 24f0 593b 19f0 153c fd8e efbb 837f 153a
00000220: d2db a8bb 40c9 b9bb 0729 97bb a915 c0bb
00000230: 8dce 903b 9b83 2cbc c486 bfbb 60d6 1f3c
00000240: 512b 94bb f73e 8439 16cd 913b e376 f0bb
00000250: 9ab6 e1bb 9d09 8ebb 015a 393b 5999 07bc
00000260: b07a 45bb 51b4 b3b7 9836 65ba 68b5 1dbc
00000270: 7ea4 febb 6067 5bbc 4faa 1739 02cb a93b
00000280: fe53 07bc d397 3fbc 7e48 863b 5cd9 f33b
00000290: a9ff 32bb 805e 51ba e504 063c 2f20 cd3b
000002a0: 4d4a ef3a 1449 37bc 150f 82bb 7911 a33b
000002b0: 4c7a a3bb 002c ef3b d5c7 a6ba f2bf eaba
000002c0: 1d62 0f3c 6c15 293a 2271 d13b 20a0 a33a
000002d0: a2b9 9f3b d3f0 1e3b 60e8 7b3c 2b0e 3ebb
000002e0: 70d6 60bb 990e a53a f67f f2bb 38a0 14bc
000002f0: 7f34 573a 633a 983c f2f5 7fba 5e7b 30bc
0.013406642 -0.006246753 0.0045099747 0.012370971 0.012976071 0.0043358076 -0.0030183464 0.008745361
0.002586741 0.0143138105 0.0030837124 0.014988132 0.006995938 0.019844608 0.036125183 -0.0066374936
-0.0036388545 -0.004243296 -0.011366177 0.010980265 -0.010841461 -0.0020317629 0.029391738 0.013873542
0.008524538 0.004041263 -0.0014380094 0.012258928 0.020181974 -0.006332277 0.017378895 -0.010363066
-0.000363231 0.00338221 0.0014331675 1.6309607e-05 -0.0014878095 0.0057331584 0.0053047626 0.010060284
-0.013998307 0.0041527753 0.004560816 0.009197948 -0.0074872165 0.008631064 0.006248613 0.00873609
-0.00011720422 0.015499745 -0.0049036467 0.0040893536 -0.006097238 0.007800792 0.009466944 0.0026964552
0.003551052 -0.0016628618 0.006388814 0.012129161 0.010993899 -0.0034640573 -0.008199311 -0.011937857
0.024207853 -0.010691883 0.03995876 0.014770007 0.0076233656 -0.013050201 -0.020642173 -0.008459394
0.0126084285 0.030186648 0.005422825 -0.0070865825 -0.009505838 0.037217323 0.019212067 0.018451314
-0.024135511 0.0038910934 -0.003334687 0.012037686 -0.035191204 0.029479114 0.042629644 -0.00047759517
-0.014220514 0.008133637 0.03115321 0.007267041 0.010397697 0.00482662 -0.008679258 -0.0013518061
0.013644457 -0.004898608 0.011782661 0.013096358 0.008625454 0.01756428 -0.011387557 0.005446893
0.025778843 0.015887877 -0.0108369 0.03849551 0.0038315437 0.0022164271 -0.030963674 0.009241242
0.027171489 0.019939689 0.007626637 0.0066052596 0.011081933 1.0322363e-05 0.017473973 -0.015551288
0.021950992 -0.01013218 0.015683876 0.03347082 -0.0041520046 -0.0040625557 -0.01663471 0.025965143
0.0010534618 0.0027249567 0.001881011 -0.0015490527 0.0033254707 0.009151482 -0.0073107467 0.00057028997
-0.0051531577 -0.005669743 -0.004613045 -0.005861957 0.004419154 -0.010529424 -0.0058449227 0.009755701
-0.0045217653 0.00025223914 0.004449497 -0.007338391 -0.006888223 -0.004334642 0.0028282406 -0.008276307
-0.0030132942 -2.142243e-05 -0.0008743792 -0.00962577 -0.007771074 -0.013391346 0.00014463927 0.005181671
-0.008259771 -0.011693913 0.004097997 0.0074416827 -0.002731303 -0.0007986799 0.008179878 0.00625994
0.0018256396 -0.011186857 -0.003969083 0.004976448 -0.004988944 0.0072989464 -0.001272435 -0.0017909987
0.008751419 0.00064500305 0.0063916603 0.0012483634 0.004874424 0.002425243 0.015375227 -0.0029000144
-0.0034307502 0.0012592851 -0.007400508 -0.009071402 0.00082094216 0.018582528 -0.0009764127 -0.0107716005

gru.bias_hh_l0_reverse f4 [192]
00000000: 88a7 5b3c 90b1 ccbb 69c8 933b 9daf 4a3c
00000010: 9699 543c 6413 8e3b 73cf 45bb b448 0f3c
00000020: 5086 293b 7984 6a3c 1c18 4a3b c890 753c
00000030: 2e3e e53b 2991 a23c 00f8 133d 557f d9bb
00000040: d979 6ebb 590b 8bbb 3439 3abc 92e6 333c
00000050: 62a0 31bc 5327 05bb f1c6 f03c da4d 633c
00000060: 81aa 0b3c 926c 843b 977b bcba acd9 483c
00000070: ab54 a53c fd7e cfbb 2f5e 8e3c d9c9 29bc
00000080: 0a70 beb9 11a8 5d3b 1fd9 bb3a 9dd0 8837
00000090: 9a02 c3ba 38dd bb3b 93d3 ad3b e4d3 243c
000000a0: 2859 65bc 0114 883b e672 953b fdb2 163c
000000b0: 5357 f5bb 4e69 0d3c 2ac1 cc3b d121 0f3c
000000c0: 89cb f5b8 a4f2 7d3c c5ae a0bb fcff 853b
000000d0: 57cb c7bb c99d ff3b 3e1b 1b3c 03b7 303b
000000e0: c4b8 683b 62f4 d9ba 4259 d13b 63b9 463c
000000f0: c11f 343c 3d05 63bb 6756 06bc 0097 43bc
00000100: 8c4f c63c 022d 2fbc ccab 233d e6fd 713c
00000110: 6dcd f93b 83d0 55bc c619 a9bc 4599 0abc
00000120: 9593 4e3c fd49 f73c f4b1 b13b 9036 e8bb
00000130: 60be 1bbc 3171 183d a062 9d3c 3627 973c
00000140: d6b7 c5bc b701 7f3b c48a 5abb b739 453c
00000150: a724 10bd 2f7e f13c 6c9c 2e3d bd65 fab9
00000160: 29fd 68bc f242 053c 0435 ff3c 5c20 ee3b
00000170: 1a5b 2a3c a028 9e3b 7233 0ebc 162f b1ba
00000180: 008d 5f3c 8184 a0bb 100c 413c 1b92 563c
00000190: c751 0d3c f7e2 8f3c e092 3abc da7b b23b
000001a0: 272e d33c 4b27 823c 418d 31bc 78ad 1d3d
000001b0: a31a 7b3b 7a41 113b 88a7 fdbc 9468 173c
000001c0: be96 de3c 8f58 a33c dee8 f93b ef70 d83b
000001d0: ff90 353c 362e 2d37 9425 8f3c d4ca 7ebc
000001e0: 91d2 b33c 7101 26bc 797b 803c b318 093d
000001f0: 8a0d 88bb 301f 85bb 8445 88bc dab4 d43c
00000200: 38eb 0a39 e13c 3f3b f658 953a 2c7c 00b9
00000210: f9e2 493b bef9 113c a8a6 11bc 75bc 113b
00000220: 1f19 a6bb d826 cabb b722 81bb 240f 99bb
00000230: 7798 a83b b0ce 29bc 8aea afbb 8ba0 263c
00000240: 2f99 63bb 013e b2b8 6f01 9f3b 2fe1 0ebc
00000250: 8aca cbbb e36f 8ebb 6ace 523b e54d bcbb
00000260: f0e6 7abb a5c7 38ba 7da1 58ba cdaa 35bc
00000270: 53c4 dbbb 5693 66bc c7c2 01b9 b867 713b
00000280: b15c debb 27ed 4bbc 197d a73b 16b1 e23b
00000290: edd8 14bb 0122 14ba cfd0 fb3b 2813 e13b
000002a0: b427 3a3b bf14 15bc f809 b1bb b99c a13b
000002b0: 1667 9dbb d435 0d3c 8361 d8ba 0971 a3ba
000002c0: 1fcb f03b ab6e 343a 60f3 d13b d771 8239
000002d0: 9380 7e3b 4f6c 2e3b 9655 793c 2183 86ba
000002e0: cdf8 2fbb 2a5b a839 710e 07bc 54d4 16bc
000002f0: aba9 8a3a e355 923c 60b3 83ba 411a 44bc
0.013406642 -0.006246753 0.0045099747 0.012370971 0.012976071 0.0043358076 -0.0030183464 0.008745361
0.002586741 0.0143138105 0.0030837124 0.014988132 0.006995938 0.019844608 0.036125183 -0.0066374936
-0.0036388545 -0.004243296 -0.011366177 0.010980265 -0.010841461 -0.0020317629 0.029391738 0.013873542
0.008524538 0.004041263 -0.0014380094 0.012258928 0.020181974 -0.006332277 0.017378895 -0.010363066
-0.000363231 0.00338221 0.0014331675 1.6309607e-05 -0.0014878095 0.0057331584 0.0053047626 0.010060284
-0.013998307 0.0041527753 0.004560816 0.009197948 -0.0074872165 0.008631064 0.006248613 0.00873609
-0.00011720422 0.015499745 -0.0049036467 0.0040893536 -0.006097238 0.007800792 0.009466944 0.0026964552
0.003551052 -0.0016628618 0.006388814 0.012129161 0.010993899 -0.0034640573 -0.008199311 -0.011937857
0.024207853 -0.010691883 0.03995876 0.014770007 0.0076233656 -0.013050201 -0.020642173 -0.008459394
0.0126084285 0.030186648 0.005422825 -0.0070865825 -0.009505838 0.037217323 0.019212067 0.018451314
-0.024135511 0.0038910934 -0.003334687 0.012037686 -0.035191204 0.029479114 0.042629644 -0.00047759517
-0.014220514 0.008133637 0.03115321 0.007267041 0.010397697 0.00482662 -0.008679258 -0.0013518061
0.013644457 -0.004898608 0.011782661 0.013096358 0.008625454 0.01756428 -0.011387557 0.005446893
0.025778843 0.015887877 -0.0108369 0.03849551 0.0038315437 0.0022164271 -0.030963674 0.009241242
0.027171489 0.019939689 0.007626637 0.0066052596 0.011081933 1.0322363e-05 0.017473973 -0.015551288
0.021950992 -0.01013218 0.015683876 0.03347082 -0.0041520046 -0.0040625557 -0.01663471 0.025965143
0.00013248331 0.0029180574 0.001139431 -0.00012253289 0.0030805452 0.008909641 -0.008889832 0.0022237573
-0.0050689126 -0.0061691813 -0.003940906 -0.0046709944 0.0051451284 -0.01036422 -0.0053685354 0.010170112
-0.0034728756 -8.4992505e-05 0.004852466 -0.00872068 -0.006219213 -0.004346834 0.003216649 -0.0057465904
-0.0038284622 -0.00070487923 -0.000826381 -0.011088085 -0.0067067533 -0.014073214 -0.00012374959 0.0036835503
-0.006785952 -0.012446678 0.0051113483 0.006918083 -0.0022712306 -0.0005650819 0.007684804 0.0068687387
0.0028405013 -0.009099185 -0.0054027997 0.004932013 -0.0048035486 0.008618791 -0.0016508553 -0.00124696
0.0073484327 0.0006882946 0.0064071864 0.0002488035 0.003883396 0.002661485 0.015218159 -0.0010262468
-0.0026851178 0.0003211138 -0.008243189 -0.009205896 0.001057913 0.01786322 -0.0010047965 -0.01196915
