results/training/llama-3-8b_a100_tp1/model_tp1_H64_biGRU.pt (torch, 116621 bytes, 10 tensors)

gru.weight_ih_l0 f4 [192, 6]
000000 09 ea c4 3d 64 fc e4 3c 79 15 20 bc 5f c4 d8 bd
       0.09614951 0.02795238 -0.0097707445 -0.1058433
000010 c8 95 c7 3d 51 d4 38 3e 8b c5 09 3d 5d 30 c5 39
       0.097453654 0.18049742 0.033635657 0.00037610802
000020 f5 82 2e 3e 9c 5a 7b 3d 39 6e 67 3d 56 5d 2a be
       0.17042144 0.06136571 0.0565016 -0.16637167
000030 55 e9 4e 3e 4e 29 54 3e 7e 7f 0a bd 55 c2 35 3e
       0.20206197 0.20718881 -0.033812992 0.17749913
000040 02 46 d5 3e e9 55 07 3e b3 df 21 bd 08 f5 8f 3d
       0.41654974 0.13216366 -0.039519977 0.07029158
000050 fa 13 17 3d e7 ae ae bc db f7 c6 3d 9a 7d 4e 3d
       0.036884286 -0.021323634 0.097152434 0.05041275
000060 14 d9 9a bd f2 2b 00 be 7c a8 12 bc 4e 46 1b be
       -0.075609356 -0.12516764 -0.008951303 -0.15163538
000070 a4 8f 26 be f7 48 c7 bc 46 64 36 3e 03 9b e2 3d
       -0.16265732 -0.024326785 0.17811689 0.110647224
000080 59 5b de 3d 6e 9c 3c bd 56 4a b5 3d 04 85 1c be
       0.10857267 -0.04604762 0.08852069 -0.15285116
000090 07 23 e2 3d 75 2a 82 3c 7f 4e 67 bd c1 ac e9 3d
       0.11041837 0.015889386 -0.056471344 0.11409903
0000a0 6a 73 4c 3d 70 20 a0 3d 0d b4 b7 3d 87 fb 88 bd
       0.049914755 0.07818687 0.08969889 -0.066886
0000b0 5b 55 54 3d 22 fe db bd ba 5a 90 bd 26 ab fb 3a
       0.051839214 -0.10741831 -0.07048555 0.0019200786
0000c0 57 1e 8f 3c d9 42 8d bd 07 f0 ba bd 22 e2 02 3e
       0.017470522 -0.06897516 -0.09127813 0.12781575
0000d0 5e 9a 94 3d 70 b9 09 3e ac 2a 7f bd 58 f6 33 bc
       0.07256006 0.13449645 -0.062296554 -0.010984026
0000e0 db bb 36 3d fa df b9 3d 93 43 24 3e 7e 87 35 3e
       0.044612747 0.09075923 0.16041403 0.17727467
0000f0 b1 13 90 bd 44 11 74 bd cc 78 5d 3d a1 82 c4 bd
       -0.07035006 -0.05958678 0.05407028 -0.09595228
000100 b1 8d 11 3e 95 2f c7 3d b9 01 2a 3e 30 a6 64 3e
       0.14214207 0.097258724 0.1660222 0.2232902
000110 a5 cb fd bd d9 46 60 3e 56 d7 3c 3e 9f b8 48 3e
       -0.12392358 0.21902026 0.18441519 0.19601677
000120 ca a2 8c 3d 80 d3 1a 3e c6 e5 48 3d fa 73 32 bd
       0.06866987 0.15119743 0.049047254 -0.043567635
000130 2e 32 ad 3d ac 94 99 bd 85 02 b2 bc de 9c 00 be
       0.08456837 -0.0749906 -0.021729717 -0.1255984
000140 83 23 b2 3d 39 5b 25 be b5 a6 15 3d c8 2f 4a be
       0.086981796 -0.1614808 0.036535937 -0.1974479
000150 05 e4 0e bd e9 0f 67 bd 74 02 ba 3d 84 10 e2 3d
       -0.034885425 -0.056411657 0.09082499 0.11038306
000160 4e d4 42 bd f7 f1 04 3e 18 19 84 bd f2 92 0e bc
       -0.04756575 0.12982927 -0.06450099 -0.008702027
000170 5a 67 78 bd 95 1d 9d 3c 02 f7 01 3c 53 19 03 bd
       -0.06064544 0.019179145 0.007932426 -0.032006573
000180 1d 98 d3 bd 72 6a 00 3d 4f 55 8e be 2e 24 ac bd
       -0.10331748 0.031351514 -0.2779946 -0.08405338
000190 75 ce 15 3c a0 04 23 3e 62 d7 45 3d e3 d4 ce 3c
       0.0091434615 0.15919733 0.04830111 0.025247997
0001a0 c4 7f 2b 3e ba f3 8c bc d7 f6 b7 bd ec 9d e9 3d
       0.16747957 -0.017206062 -0.08982628 0.11407074
0001b0 f1 b0 1a 3e e5 22 25 3e b7 27 51 3e ce 2d cb 3e
       0.1510656 0.16126592 0.20425306 0.39683384
0001c0 d8 4a 6d 3d 78 ba ac 3e 0d 4b f1 bd 30 2d a9 3c
       0.057932705 0.33736014 -0.11781893 0.02065143
0001d0 42 49 b1 bd 2c 7b da 3d 0a 4a 12 be f3 d3 53 bc
       -0.08656551 0.106680244 -0.14286056 -0.012928951
0001e0 52 23 37 bd b1 4e 73 3d 2b 81 63 bc 49 dd 24 3e
       -0.04471142 0.059401218 -0.0138857765 0.16100039
0001f0 11 3f 1a 3d 06 16 56 3c 73 10 a4 bd 8c aa 2d be
       0.0376578 0.013066774 -0.0801095 -0.1695959
000200 4c b0 ac 3d 2a 02 fa bd c4 0d 04 bd 6c 8f 4a be
       0.084320635 -0.12207444 -0.03223969 -0.19781274
000210 d6 31 66 bd e4 70 7e 3d 16 41 32 3e 0d 34 dc 3d
       -0.05619987 0.06211938 0.17407641 0.107521154
000220 30 b3 1a be b2 44 0f 3e 86 ea cc bd a9 8a f4 3a
       -0.15107417 0.13991049 -0.10005669 0.0018657047
000230 5a a8 63 3d d1 8d 36 3e b8 5f 3d 3b 75 b7 84 3e
       0.055580474 0.17827536 0.0028896164 0.25921217
000240 43 9e 4b bd 15 c6 6d 3b 1c f3 67 3c f8 98 ba bc
       -0.049711477 0.0036281396 0.014157083 -0.02277802
000250 3b f8 c0 bd 7c 46 d5 bd e0 e0 68 bd b9 db 26 be
       -0.09422346 -0.104138345 -0.056855083 -0.16294755
000260 26 83 92 bc 6a 70 99 bc d2 d1 8e bc d7 17 83 3d
       -0.017884802 -0.018730361 -0.017434034 0.064010315
000270 16 78 d7 3d 03 f6 57 3c ff b4 89 bd 56 4c a8 bc
       0.105209514 0.013181212 -0.067239754 -0.020544212
000280 4e 1e 49 bd af 64 24 be f7 55 fb 3d 6e 1e 00 3e
       -0.049101166 -0.16054033 0.12272256 0.12511608
000290 9c 00 64 3e a3 bc a6 3d 06 7d a4 3d 54 8a 22 3e
       0.22265857 0.08141448 0.08031659 0.1587308
0002a0 a3 bb 07 be 45 1e 18 3c 2f 69 11 3e a4 d3 00 bd
       -0.13255171 0.009284561 0.1420028 -0.031451836
0002b0 19 77 e0 bd 88 5b 05 bc ec 4f cc bd 0b f2 e9 bd
       -0.10960216 -0.0081394985 -0.099761814 -0.11423119
0002c0 4d 04 f8 bd 4c 25 52 bc b1 4d 6d bc 34 01 0c 3e
       -0.12110195 -0.012826275 -0.014483855 0.13672334
0002d0 87 b6 c3 bd d6 02 27 be 72 da 0a 3e 14 32 bb 3d
       -0.09556299 -0.16309676 0.13559893 0.09140411
0002e0 0b 1a ce bd 02 ee 55 bc 67 6b 1a 3d 2d e7 0d 3e
       -0.10063561 -0.013057234 0.037700083 0.13857718
0002f0 2b d0 f7 3d f3 30 6e 3e e0 07 87 3e dc 60 11 3e
       0.12100252 0.2326086 0.26373196 0.14197105
000300 e0 e0 ef bc 50 3f dd 3b 98 3a a3 bc 1e 9b 22 bd
       -0.029282033 0.006751932 -0.0199254 -0.039698713
000310 f0 bf 15 3e c1 3e d1 bd b4 53 01 bd bb b6 fe 3c
       0.14624 -0.102170475 -0.031573966 0.031092992
000320 79 78 f0 bc 6f 1a ee bd a2 d1 38 3e 47 1e 00 be
       -0.02935432 -0.116261356 0.18048719 -0.1251155
000330 89 7e 64 bd 63 b6 a6 3d 42 a7 1d bd 59 82 e7 3d
       -0.055784736 0.08140256 -0.038489588 0.11304159
000340 f8 ac dc 3c d2 93 47 3d 77 b6 7f 3c c6 d9 96 ba
       0.026937947 0.048724957 0.015607468 -0.0011508993
000350 3b 04 88 bd 71 5a 21 bd 04 b1 20 3e ad 21 87 bb
       -0.06641432 -0.039392892 0.15692526 -0.0041238875
000360 25 b0 f2 3d f9 d3 6d bd ab a9 51 be e1 b5 76 3d
       0.11850003 -0.05806348 -0.2047488 0.060232047
000370 21 59 d2 bd db c5 4d 3e 21 73 10 3e d6 d2 04 be
       -0.10270906 0.20095007 0.14106418 -0.12971053
000380 bb 50 05 bd 84 41 17 bd c5 28 25 bd 48 44 ad bc
       -0.032547694 -0.036927715 -0.040322084 -0.021150723
000390 57 47 7e 3d cb f2 9e 3d 42 c6 dd bd 62 a0 21 be
       0.062079754 0.07761153 -0.1082883 -0.15783837
0003a0 ef 05 03 3c cf 4d 8c b9 66 05 83 be 24 d2 0b be
       0.00799702 -0.00026760853 -0.25590056 -0.13654381
0003b0 fd bd fd bd d9 37 8b 3d df c9 76 bd d6 3d e2 3c
       -0.12389753 0.067977615 -0.060251113 0.027617376
0003c0 c5 e5 b8 3c 41 4e c8 3d 10 1e 8c bd d2 83 83 3d
       0.0225705 0.09780551 -0.068416715 0.06421627
0003d0 c0 88 cc bd b8 c8 de 3d e4 f4 35 3d 13 14 4a 3c
       -0.099870205 0.10878128 0.044423 0.012333888
0003e0 a0 90 24 3d ea 52 43 bd 47 24 57 3d 43 b0 ad 3d
       0.040176988 -0.047686495 0.05252483 0.08480885
0003f0 21 e2 02 3e 68 41 8f bc 43 65 84 3d ca 91 19 3d
       0.12781574 -0.017487243 0.06464627 0.03749255

gru.weight_hh_l0 f4 [192, 64]
000000 f4 b7 7e bd c9 21 f1 bc 0b 1b 4a 3e 3e b7 99 bc
       -0.06218715 -0.029435055 0.19736879 -0.018764134
000010 ba 7d 26 be 21 d0 9f bd 16 0c b9 bd 01 29 be bd
       -0.16258898 -0.07803369 -0.09035508 -0.092851646
000020 58 a5 84 3d b6 f0 b7 bd 45 ec 0b be aa 91 f2 3d
       0.06476849 -0.08981459 -0.13664348 0.118441895
000030 6c 7d 14 be b4 40 f8 bd 09 29 0e be b5 5a 1f 3e
       -0.1450097 -0.12121716 -0.13882841 0.15561946
000040 ba 08 0a bd e9 c0 56 3d ad 9b 6a 3c 09 e9 26 3e
       -0.03369973 0.052430067 0.014319343 0.16299833
000050 c6 9e 07 bd 55 d3 b2 3d de f0 5d bd 82 86 08 3d
       -0.033110403 0.08731715 -0.054184787 0.0333314
000060 11 fb cb 3d 14 5a 07 be af b7 70 bc 83 0e 8b 3c
       0.099599965 -0.13217956 -0.014692231 0.016974693
000070 49 84 db 3c 02 80 96 3c e1 4b 03 3e 1f ca 8e bd
       0.026796477 0.018371586 0.12821914 -0.06972145
000080 d7 1d 95 3c 15 92 1e 3e 71 c8 b6 bd 77 42 ac 3d
       0.018202705 0.15485413 -0.0892495 0.08411115
000090 7a e4 2c be e7 d6 18 3d 58 17 75 bc b8 b0 cf bc
       -0.16884032 0.03731432 -0.014959179 -0.02535282
0000a0 8d d0 84 bd 2f 4a 0d 3d c1 e3 52 bc 92 59 df 3d
       -0.064850904 0.034494575 -0.012871684 0.10905756
0000b0 ce 8a 3e bd d2 85 f7 bd 9e ef 14 3e 85 da e8 bc
       -0.046519093 -0.12086071 0.14544532 -0.02842451
0000c0 a9 3e 82 3d b8 bf 28 bc 4c 26 58 bd ab 26 4e 3d
       0.06359608 -0.010299616 -0.052770898 0.050329845
0000d0 02 e4 16 3e fc a3 8e 3d a4 7a c4 3d 45 44 db bd
       0.14735416 0.06964871 0.09593704 -0.10706381
0000e0 44 28 2d 3d 8d 39 b4 bd 56 b5 1a 3c 4c 16 1d 3d
       0.04227473 -0.088000394 0.009442648 0.038351342
0000f0 1e 72 16 bd d4 f4 01 be d1 45 b5 bc af 97 b0 bd
       -0.036729924 -0.12691051 -0.022128018 -0.08622681
000100 4b d5 db bd 98 bf 68 bd 5f ec 5f 3d 2c a1 52 3c
       -0.10734042 -0.056823343 0.05466878 0.012855809
000110 e7 e2 da bc ab d4 10 3e bc 8a 0a be 4b 06 62 3d
       -0.026719524 0.14143626 -0.13529485 0.055181783
000120 49 bc ec bd bd e0 76 3d 86 af 18 3c 7d 9d a2 3b
       -0.1155935 0.06027292 0.009319192 0.0049626217
000130 24 0c 4e 3d b4 b1 b5 bd a4 6a bd bd 09 72 01 bc
       0.050304547 -0.08871785 -0.09248856 -0.007900723
000140 a7 b3 30 3e f5 01 34 bd 90 be 28 3d 71 a8 dc bc
       0.17256032 -0.04394718 0.04119736 -0.026935788
000150 fa a1 28 bd 0a 29 dc bd 04 83 ff bd 11 a2 66 3d
       -0.041170098 -0.10750015 -0.12476161 0.056306902
000160 d7 b6 15 bc e0 ad 2d bc 98 ef 97 bd d9 b9 70 bd
       -0.009137831 -0.010600537 -0.07418746 -0.058770988
000170 d5 9b 81 3c c2 de a3 bd 72 d3 39 3b 5a 73 7a bd
       0.015821377 -0.08001472 0.002835479 -0.061145164
000180 88 7d b0 3b ef 51 1f 3e ab b9 be 3d 03 c7 d8 bc
       0.0053860582 0.15558599 0.09312757 -0.026462084
000190 ca c1 27 be ad bc bc 3d 59 35 81 3c eb 14 02 bd
       -0.16382518 0.092156745 0.015772508 -0.03175823
0001a0 1a 21 76 be 19 58 39 3c 71 3d 74 3d 82 e6 14 be
       -0.24036065 0.011312508 0.059628908 -0.14541057
0001b0 2f 67 a8 bd 22 25 11 be 32 78 06 3e 44 a6 13 3e
       -0.08222806 -0.14174321 0.13131788 0.14418894
0001c0 5c 99 19 3e 46 95 1b 3d bb 1c e7 3d dd 6e 46 3e
       0.14999908 0.037984155 0.11284777 0.19378228
0001d0 a3 15 67 bb 35 3d a0 3d 33 c4 94 3d 7c 81 43 3d
       -0.00352607 0.07824174 0.072639845 0.047730908
0001e0 6a ad 86 3d 16 68 20 be 84 d0 cb 3d 1d f6 8d bc
       0.06576045 -0.15664706 0.099518806 -0.01732927
0001f0 2f 2d cf bd 55 43 18 be b7 a9 f8 b7 13 88 35 be
       -0.1011604 -0.14869435 -2.9642933e-05 -0.1772769
000200 1f d6 3b 3c dc ee 32 3e 6b cc fb 3d d7 e5 ff 3c
       0.011464625 0.1747393 0.12294849 0.031237526
000210 d3 e7 c2 bd fe 14 4e bd 56 1c 1f 3d ba 6d e7 bd
       -0.09516873 -0.05031299 0.038845383 -0.113002256
000220 7b 9c 00 be 9f 13 6b 3d 35 40 10 be 9e 2d 25 be
       -0.12559693 0.05739176 -0.14086993 -0.16130683
000230 2d 83 0d be e6 73 66 3b 27 97 44 3d c0 9c ff 3b
       -0.13819571 0.0035164296 0.047995713 0.0078006685
000240 05 a5 7f 3d ab 4d 0e bc 07 7b ca 3d 5f 01 05 be
       0.062413234 -0.00868551 0.09886747 -0.12988804
000250 7c 05 85 be 3b ae d5 bc 95 5d c9 3d 27 69 ba bd
       -0.25980747 -0.026084056 0.098323025 -0.091020875
000260 80 c7 59 3c fd 0f 06 be 46 c0 75 3c ec fa 41 be
       0.013292193 -0.13092037 0.014999455 -0.18943375
000270 bf f5 ae 3d 38 93 e7 bd e1 65 de bd 13 8f 43 be
       0.08542966 -0.113073766 -0.108592756 -0.19097547
000280 99 ee 74 3d 36 59 39 3e 78 cd 09 3d 17 21 79 3d
       0.059797857 0.18100438 0.033643216 0.060822573
000290 00 bb 45 be 25 4e 0f be e1 8f ed bd 3a 27 64 bc
       -0.19309616 -0.13994654 -0.11599708 -0.013925368
0002a0 58 44 11 be f5 be ee bd 48 26 57 be 22 4a df 3d
       -0.14186227 -0.11657516 -0.21010697 0.109028116
0002b0 3e a4 99 3d 2d c0 3e 3d f8 56 6c 3c c6 39 59 3e
       0.0750203 0.04656999 0.014425032 0.21213445
0002c0 53 69 f2 3c 1d 46 c1 bc 53 21 41 bd b4 38 34 3e
       0.029591238 -0.023593003 -0.04715092 0.17599756
0002d0 1c bf 10 3e 45 f0 f4 3b 6c e6 13 be 1a 30 56 be
       0.14135402 0.0074749314 -0.14443368 -0.20916787
0002e0 d5 25 e8 3c db 55 7f bd 2b 36 16 bd 8e e8 b9 3d
       0.028338352 -0.062337738 -0.036672752 0.090775594
0002f0 02 16 3a 3e 00 a3 a2 bc 0b ab 23 3d 66 62 21 bd
       0.18172458 -0.019853115 0.03995804 -0.03940048
000300 d6 8f 32 be b3 70 b1 bd d5 78 7c bd 1a 88 8c ba
       -0.17437682 -0.08664074 -0.061638672 -0.0010721714
000310 20 b3 30 be 0b e4 06 3e 50 c2 2d bd d8 45 ee 3d
       -0.17255831 0.13172929 -0.04242164 0.116344154
000320 8b 0c 95 bc 79 fd 39 3d de 65 49 3d f5 21 31 3c
       -0.018194458 0.045407746 0.049169414 0.010811319
000330 f2 33 fe 3b 0a eb 5f 3d ad 99 fa bd 4d 9e f1 3d
       0.007757657 0.05466751 -0.122363426 0.117977716
000340 f0 5f 8d 3d 4d 97 28 be c8 8e dd bd 77 5d 15 3e
       0.06903064 -0.16463967 -0.10818249 0.14586435
000350 06 9e c5 bc 0d 80 2a 3d a9 c6 55 bd 68 ab fc 3c
       -0.024123203 0.041626025 -0.05219141 0.030843452
000360 c2 9d d4 3d b9 c0 15 bb 88 df cb bb 7e 68 54 bd
       0.103816524 -0.0022850467 -0.0062217154 -0.051857464
000370 74 cb a3 bd e9 7c 90 bd 6e 0d 3a 3e 13 b9 97 3d
       -0.0799779 -0.07055075 0.18169186 0.07408347
000380 87 11 06 3d 31 3b 9c bd 24 42 24 3e 8a 48 00 3e
       0.03273156 -0.07628477 0.16040856 0.12527671
000390 5b dc 5c be 9e 6a aa 3d b1 49 89 3d 86 ea 60 3d
       -0.21568434 0.08321117 0.06703509 0.05491116
0003a0 9b 2b a0 bd 8c 67 d3 3d ca 7c 17 be 48 e7 2f be
       -0.07820817 0.103224844 -0.14793697 -0.1717807
0003b0 f3 f3 0c 3d 36 37 be bc 44 ba 3f bd 94 8f 18 bd
       0.034412336 -0.023219686 -0.046808496 -0.0372463
0003c0 61 eb 9c bc 8d ab ad bc 0a 36 db 3d c9 2d fe 3d
       -0.019155206 -0.021199966 0.107036665 0.124110766
0003d0 89 ee cd bd 4a d0 4e be e5 ce 0b 3e 2f 5e 54 bc
       -0.100552626 -0.20196643 0.13653143 -0.012961908
0003e0 e5 c2 3c be db fb 9a bd c0 39 25 3e c6 e4 6d bc
       -0.18433721 -0.07567569 0.16135311 -0.014519876
0003f0 73 ac 08 3c b6 c5 f1 bd fc e6 0e be f4 63 81 3d
       0.008341896 -0.118052885 -0.13955301 0.06317893

gru.bias_ih_l0 f4 [192]
000000 b8 db 76 3d 4a 9c 55 bd bf b3 1b 3e df 08 69 bd
       0.060268134 -0.052151002 0.15205286 -0.056893226
000010 d3 f0 81 3c 35 df 1c 3d 01 ca 47 bc ff 37 1a 3e
       0.015861904 0.038298804 -0.012194158 0.15060423
000020 bd fb 56 bd 8c d6 2f 3e 9b 91 06 3a 95 dc bd 3d
       -0.05248617 0.17171687 0.0005133391 0.09270588
000030 6d be 4e bc d8 88 a1 bd b5 7b ee 3d 7f 25 6a 3d
       -0.012618643 -0.07887429 0.11644689 0.057164665
000040 89 e7 b7 3d 21 69 80 bc ba 49 62 3e 6f 80 52 3e
       0.08979709 -0.01567513 0.22098437 0.20556806
000050 7a 80 0d 3e 9e 2e 1c 3e a5 3c 03 3e 9a e4 c4 bc
       0.13818541 0.15252158 0.12816103 -0.024034787
000060 03 76 14 3e e7 a3 93 3c fc bf 85 3d 73 c5 3b 3e
       0.14498143 0.01802249 0.06530759 0.1833704
000070 1a ec 4f 3d ce 63 26 bd b5 d9 cb 3a 44 a5 12 3e
       0.050762273 -0.040622525 0.0015552553 0.14320856
000080 82 3c 01 3e 9a 16 89 bd 67 a0 cc bc 00 cf f1 3d
       0.12620738 -0.06693764 -0.02497883 0.1180706
000090 98 ca 8a 3d f3 37 65 bd c7 82 54 bd e1 37 b5 3d
       0.06776923 -0.05596156 -0.05188253 0.08848549
0000a0 88 27 1a 3e 8e 4a 0a 3e 60 88 9c bc 87 d9 a8 3d
       0.15054142 0.13505003 -0.019107997 0.08244615
0000b0 31 ba 57 bd 4d cc 04 3d 7b 6b 18 3e 7b 25 33 3e
       -0.0526678 0.0324214 0.1488475 0.17494766
0000c0 f2 4b 1e 3d 91 3d 16 3e cd 4d a2 3c a4 51 ed 3d
       0.038646646 0.14671923 0.019812489 0.11587837
0000d0 d3 88 2d 3e b2 bc 0f 3e 99 5a 37 3c 9d 82 ec 3d
       0.16946726 0.14036825 0.011191034 0.1154835
0000e0 1f f3 ea 3d 3a 58 57 3d 97 3e 60 3d ae 1f 40 3b
       0.11472153 0.052574374 0.05474719 0.0029315758
0000f0 07 b7 13 bd 53 4f 89 3c e2 c2 62 3d 55 02 16 bd
       -0.03606322 0.016761458 0.055361636 -0.036623318
000100 73 8e 49 3e bf ff b9 3d 10 35 23 3e 81 2d cf 3d
       0.19683246 0.09081983 0.1593821 0.10116101
000110 e3 09 71 3e 5d a9 76 bd 43 77 ee 3c 58 82 5a 3d
       0.23538928 -0.06022011 0.029109603 0.05334696
000120 05 23 40 3e ab 17 89 3e 29 b7 52 3e 92 16 02 3e
       0.18763359 0.2677587 0.20577683 0.12703922
000130 3e cb 52 3c 32 cb 64 3e 80 04 20 be 7d bd 8e 3d
       0.0128658395 0.22343138 -0.15626717 0.06969736
000140 93 fa ca 3d 09 96 59 3d 9a 96 62 3d 67 c1 aa 3e
       0.099110745 0.0531216 0.055319406 0.3335068
000150 d2 e8 13 3e 2b 60 53 3d 2e c6 8f 3c 88 99 0b bd
       0.14444283 0.051605385 0.017550554 -0.034081966
000160 1b 9d 9c bd cf 50 bc 3d f1 40 42 3d 21 d7 c7 bc
       -0.07647153 0.091951005 0.047425214 -0.024394574
000170 26 f6 c0 3d 5b e6 20 3e c8 93 a4 3d 97 59 cf 3d
       0.09421949 0.15712874 0.080359995 0.1012451
000180 6c db 8a 3d dd 8b 0b 3e 5f b1 90 bd 81 86 98 3e
       0.06780133 0.13627572 -0.07065081 0.29790118
000190 df 9f c6 3e 0b 75 05 3d 0e 16 30 3e b2 15 23 3e
       0.38793847 0.032582324 0.17195913 0.15926245
0001a0 ab 41 a9 3e 7a 65 f7 bb 7c 39 99 3c 41 a3 dc 3d
       0.33057913 -0.0075499387 0.018704168 0.10773326
0001b0 25 3d a6 3d 0f fc 03 3e c1 a1 13 3e 4a ae a6 3e
       0.08117131 0.12889121 0.14417173 0.32554847
0001c0 04 62 69 3e fc 07 43 3d c3 bf f5 3c 82 5a 22 3d
       0.22791296 0.047615036 0.029998666 0.039637096
0001d0 63 b9 ab 3d 9a 8d 83 3d 9c f5 60 3e 79 da 5c 3e
       0.08384969 0.06423493 0.21968693 0.21567716
0001e0 b4 3b 98 bb c3 fc a8 3e d9 bf ae 3d c6 b1 b4 3e
       -0.004645789 0.33005342 0.08532686 0.3529188
0001f0 aa 02 f6 3d cf 20 10 be 92 e3 5e 3e 49 a4 17 3e
       0.12012227 -0.14075015 0.21766499 0.14808764
000200 24 28 9f bd 2e fa 9e 3d d4 f1 a5 3c 61 03 e4 bd
       -0.07771328 0.07762562 0.020256914 -0.11133457
000210 fa db b9 bc 55 75 b3 3d 9a 8b 96 3d b0 b1 ca 3b
       -0.0226879 0.08762614 0.07350846 0.006185733
000220 db c7 69 3d 8f b5 ba 3d 32 36 06 be b5 b2 88 3d
       0.057075363 0.09116661 -0.13106611 0.06674711
000230 ea 0e 96 bd 64 15 90 bd 09 73 06 be 56 ce e7 bd
       -0.073270634 -0.0703533 -0.1312982 -0.11318652
000240 29 57 df bd 81 88 41 bc 37 5f ba bd ed 5e cc bd
       -0.10905296 -0.01181233 -0.09100192 -0.09979043
000250 ac b2 bc 3c 4b 8a 8a bd be fe fa 3d 75 10 02 be
       0.023034416 -0.067646585 0.122556195 -0.1270159
000260 59 3e e7 bd a7 a6 0f 3d e8 f0 1e 3e a1 29 fc 3c
       -0.11291189 0.03507104 0.15521586 0.030781569
000270 40 2b 88 bd ef e6 dd 3d b7 55 8c 3d e7 bd a5 3d
       -0.06648874 0.10835063 0.06852286 0.080928616
000280 5e ce 39 3c 5c 69 90 3d dd 03 ef bc 86 54 57 3d
       0.011340706 0.07051346 -0.029176647 0.052570842
000290 85 c8 a9 bd 98 4a c4 3d 04 8b 17 bd bc 75 fd bc
       -0.08290199 0.0958454 -0.03699781 -0.03093993
0002a0 10 1f 38 bd e5 52 bd 3d b2 ec c6 3c 0e 6f 2e bd
       -0.0449515 0.092443265 0.024282787 -0.04258638
0002b0 95 85 c3 bd 23 07 5b 3d 28 ab 7c bd b4 54 96 3c
       -0.09546963 0.053473603 -0.061686665 0.018350936
0002c0 09 6d c2 bd 53 70 b4 bd 04 88 da 3c 72 86 9b 3d
       -0.09493453 -0.08810487 0.026676185 0.07594003
0002d0 ba e2 8d 3d 95 9d bc 3c c0 34 97 3d 28 77 f9 bd
       0.0692801 0.02302436 0.07383108 -0.121809304
0002e0 0f f5 0f bd 5b b7 e5 bd f6 e6 7a 3d ad b9 95 bc
       -0.035145815 -0.11216613 0.061255418 -0.018277014
0002f0 5d b0 85 bb 5a 5a 64 bd cb f1 2c bd ff b5 56 3c
       -0.004079862 -0.05575023 -0.04222278 0.013104915

gru.bias_hh_l0 f4 [192]
000000 a7 63 47 3c 3a 6c 0f bd e7 a9 35 3e 3a 12 4e 3c
       0.012169755 -0.035015322 0.17740594 0.012577588
000010 84 35 98 3d 30 7a c5 3d 47 11 91 bc 12 76 f2 bc
       0.07432082 0.09642446 -0.017708434 -0.029597316
000020 7b 1d 26 3e 42 92 e2 bc 4c 05 8e bd 0e f2 2e 3e
       0.16222183 -0.027657632 -0.06934604 0.17084524
000030 c2 6f 21 3d cb d0 a5 3d 74 d5 67 3e fb 43 1f 3e
       0.03941322 0.08096465 0.2264002 0.15553276
000040 34 8b 83 3d df 89 94 bd 7f 5d 1d 3e f7 ea 2c bc
       0.06423035 -0.07252859 0.15367697 -0.010554067
000050 1a 12 89 bd 3c d5 00 3e 78 29 22 3e 7a c4 b2 3d
       -0.06692906 0.12581342 0.15836132 0.08728881
000060 d2 b1 c8 3d bb 37 9a bd 81 0a 88 3e ca bb 35 3e
       0.097995415 -0.07530161 0.26570514 0.17747417
000070 50 82 05 3e 30 d1 0b 3e da cd c5 bd 13 d2 0f 3d
       0.13037992 0.13654017 -0.09658404 0.03511245
000080 44 4d 37 3e df 66 ed 3d b3 97 c1 bd ec 01 01 3e
       0.17900568 0.11591887 -0.094527625 0.1259839
000090 ef 2a 08 3c 8c 0f 89 bd a2 9b 1f bc 04 de 9b 3c
       0.008311017 -0.066924185 -0.009741696 0.019026764
0000a0 f8 c7 01 3e 0b 81 1b 3e 7d 8c 77 bd dd 39 19 bd
       0.12673938 0.15185945 -0.060436714 -0.0374087
0000b0 16 f0 26 ba 9c 7e a4 3d 25 85 72 bd e7 12 cf 3c
       -0.0006368173 0.08031961 -0.059209008 0.025277568
0000c0 30 f6 40 3d 08 8c 07 3d 4e 1b 9b bd 35 28 cb 3c
       0.047109783 0.03309253 -0.07573567 0.024799446
0000d0 df b5 25 3d 2c 8d d2 3d 69 78 45 3d ac 53 ba 3d
       0.04045665 0.10280833 0.048210535 0.090979904
0000e0 2c b7 53 3e b6 b1 06 3e 02 21 fd 3d bb 2e e3 3d
       0.20675343 0.13153729 0.12359811 0.110928975
0000f0 51 77 80 bd d7 82 09 bb e6 48 f9 3d 4c f1 5f bc
       -0.06272758 -0.0020982528 0.121721074 -0.0136683695
000100 0c e7 0b 3d a9 1a 13 3e d8 40 13 3e 8c 83 77 3d
       0.03415589 0.14365639 0.14380205 0.060428187
000110 6f 53 6c 3d 6a 46 d6 3d 4d 69 02 3e a8 88 40 3e
       0.057696756 0.10462649 0.12735482 0.1880213
000120 95 13 92 3d 6b 65 3f 3e 00 c8 bc 3d b3 1b 08 3e
       0.07132641 0.18691032 0.092178345 0.13291816
000130 a0 e8 25 3e 83 6e 9c 3e 86 25 dd bb a6 1b 81 3e
       0.1620202 0.30553064 -0.006748858 0.25216407
000140 fe 10 70 3d bf 00 72 bc f2 77 c4 bd 2a 3d a9 3e
       0.058609955 -0.014770686 -0.0959319 0.33054477
000150 4e 63 15 3e f6 c7 25 3e 20 8b 86 3d aa a4 f5 3b
       0.14588663 0.1618956 0.06569505 0.007496436
000160 14 df 07 3c 01 e3 94 bc ef 8b 15 3e 0a f8 54 3c
       0.008292932 -0.01817465 0.14604162 0.01299859
000170 55 88 48 3e c0 4c 30 3d e2 ec f6 3d c5 01 5e 3e
       0.19583257 0.043041945 0.120569006 0.21680363
000180 16 5b be bc f9 3e 88 3e 08 53 d9 bb b6 01 55 3e
       -0.023236793 0.26610544 -0.0066322125 0.20801434
000190 8a ff 73 3e fa 17 3b 3e 23 85 65 3d 68 d6 ef 3d
       0.23827949 0.18270865 0.056035172 0.117108166
0001a0 cb 60 b9 3e 45 a1 44 3e 96 b7 fe 3d d9 33 bd 3d
       0.3620666 0.19202144 0.1243736 0.09238405
0001b0 9d 0b 29 3e 78 97 35 3b b1 cc 17 3d 88 f3 64 3e
       0.16508336 0.002770869 0.037060443 0.22358525
0001c0 b4 db 88 3d 56 5f 04 3e d0 d1 ac 3d 2c 30 08 3e
       0.0668253 0.12926993 0.08438456 0.13299626
0001d0 c1 38 69 3c e7 8d 1d 3e 5b 91 59 3e 68 b0 b2 3c
       0.014234723 0.15386163 0.21246855 0.021812633
0001e0 00 2c 34 3e 19 fe 4e 3e d4 35 48 3e ac 1d b4 3e
       0.1759491 0.20214118 0.19551784 0.35178888
0001f0 f3 9c 71 bd 46 c0 44 be 6f c1 02 3e 4e 1b 58 3e
       -0.05898757 -0.19213971 0.12769102 0.21104166
000200 fb 82 c9 3d a3 b6 12 bc 7d 58 81 3c cc 94 9b 3c
       0.09839436 -0.008954677 0.015789265 0.01899185
000210 d7 87 fa bd 83 be 14 bc 73 b2 b6 3d 45 b5 aa bd
       -0.12232941 -0.009078625 0.08920755 -0.08335356
000220 f6 87 ec bd ab 29 a2 bc 50 a6 a7 bd b2 51 be 3d
       -0.1154937 -0.01979526 -0.081860185 0.09292926
000230 6f bf 31 bd d4 88 54 bd f8 72 e7 bd 28 d8 93 bd
       -0.043395456 -0.051888302 -0.113012254 -0.07218963
000240 04 82 a3 3d 8c 45 d6 3d 1b 4e ef bb e0 c4 06 bd
       0.07983783 0.10462484 -0.007303012 -0.0329026
000250 9e 96 0d 3d 0e 91 db bd 18 7b 0f 3d 61 4b 9a bd
       0.034567468 -0.10721026 0.0350295 -0.07533909
000260 6d d4 3a bc 1a a0 c6 bd 6f c5 af 3d aa 9d 73 3c
       -0.011403185 -0.09698506 0.08582579 0.014869133
000270 78 46 dd 3d ae ae 53 bd 15 c9 9e 3d 65 a2 ac bd
       0.108044565 -0.05168026 0.07753197 -0.08429412
000280 fd 9e e0 3c 47 ad 3b 3c da 27 08 be bc e9 a0 bc
       0.027419562 0.011454887 -0.13296452 -0.019642703
000290 03 32 7f 3d 6e 86 9d bd ee f1 8f ba 79 2f c4 3d
       0.062303554 -0.07691656 -0.0010982135 0.09579367
0002a0 a2 09 39 bd 19 56 40 3d 8c 4d 5f bd de 92 46 3d
       -0.045175202 0.04695711 -0.054517314 0.048479907
0002b0 af a7 b3 3d ca fa c2 bc 45 20 88 3d e8 bf 08 3e
       0.087722175 -0.023801226 0.0664678 0.13354456
0002c0 2b f5 bb 3d 46 1a c0 3d c6 7c bb 3d 18 1a f9 3d
       0.091776215 0.09380011 0.09154658 0.1216318
0002d0 57 c3 86 bd a2 55 3e bd cd 85 a3 bc 71 5e c6 bc
       -0.06580227 -0.046468385 -0.019961262 -0.024214955
0002e0 2a b0 30 3d a2 be f5 bd 0c 53 20 bd b7 0a 7e 3d
       0.043136753 -0.11999251 -0.0391417 0.062021937
0002f0 5d 66 01 3c 76 a1 61 3d c8 03 0a bd ab dd 48 3b
       0.00789794 0.05508562 -0.033695012 0.0030649703

gru.weight_ih_l0_reverse f4 [192, 6]
000000 cf ff 74 3d 54 1d c0 bd 7a b5 20 bc cc a4 87 3c
       0.05981427 -0.09380594 -0.009808892 0.016558073
000010 f1 07 a5 bd 14 a1 f9 3b 85 51 77 3d 20 68 1e 3d
       -0.08058155 0.007618079 0.060380477 0.03867352
000020 b9 de d6 bd 76 ae 28 bd d6 44 ae 3d 10 aa 9a 3d
       -0.104917 -0.041182004 0.08509223 0.07551968
000030 1f 4d 71 be 54 6a 99 be f1 03 c4 bc 6e df 1e bc
       -0.23564576 -0.29963934 -0.02392766 -0.0096968245
000040 91 e2 9b be 8b 5a 39 3e f2 48 f6 bb 48 4a 1e 3e
       -0.30446294 0.18100946 -0.00751602 0.15458024
000050 26 ea e3 3c f1 28 4c 3d fa 82 eb 3d 4b 7b c7 3d
       0.027821612 0.049843732 0.11499591 0.09740313
000060 36 a2 32 bc 77 f6 03 be ea 18 90 be cd bc cc bc
       -0.010902932 -0.12886988 -0.28144008 -0.024992371
000070 ce 2a 11 be 2e d5 0d be ef a3 74 bd ba da 0f be
       -0.14176485 -0.13850853 -0.05972665 -0.14048281
000080 78 57 87 bd 8a e9 05 3d 5d 4e fe bd df 7f 3f bc
       -0.0660848 0.032693423 -0.1241729 -0.011688202
000090 f4 b5 28 bd 12 0a 7c 3b 39 a6 2d be 39 f3 21 3d
       -0.04118915 0.003845815 -0.1695794 0.039538596
0000a0 17 aa 73 bd 47 1e 23 bd 39 7e 17 3d 65 a6 22 bd
       -0.059488382 -0.039823797 0.03698561 -0.039709467
0000b0 ac 2a 7b bd 01 4d 39 3d bc c4 79 bd e4 18 09 be
       -0.061319992 0.045239452 -0.060978636 -0.13388401
0000c0 0f a7 49 bd 36 a2 bf 3c 8e be 12 bd d1 92 fa 3c
       -0.049231585 0.023392778 -0.03582626 0.030587586
0000d0 84 6d df 3d 81 80 a8 3c db c4 0e bd 74 69 f8 bd
       0.1090956 0.020569088 -0.034855705 -0.121294886
0000e0 49 fb 94 be 89 62 fb bc 02 27 42 be 4c 12 53 bd
       -0.29097965 -0.030686634 -0.18960193 -0.05153112
0000f0 6f 96 61 3d 5b fc ba bd 28 2a 97 3d 90 4b bc 3c
       0.055075105 -0.09130164 0.073810875 0.02298525
000100 b2 41 4b bd 8a e9 13 3e 4a a8 d0 3d 04 f9 ac 3d
       -0.0496232 0.14444557 0.101883486 0.084459335
000110 4b 31 60 3e 94 3d 0d be 62 75 20 bd cf 4e de 3d
       0.21893804 -0.13793021 -0.039174445 0.10854875
000120 f5 6a f7 bc e3 00 0b bd 79 34 c7 bd 54 bb 0d 3d
       -0.030202368 -0.033936393 -0.09726805 0.03460248
000130 09 bf 1f be 9d fb a4 3d 42 27 cc 3d f7 ae 33 3d
       -0.15600218 0.08055804 0.09968425 0.04386803
000140 fe 02 09 bd a5 50 b9 3d 30 67 04 bd 3a 36 55 bc
       -0.03345012 0.09048585 -0.03232497 -0.013013417
000150 9b 69 1e be 4e 1a 57 be 4f 43 48 be 0c df 47 3e
       -0.15469973 -0.21006128 -0.19556926 0.1951868
000160 21 07 45 be 0a 5f c4 3d ee c7 01 bd a6 6e 7d be
       -0.19241 0.0958844 -0.03168481 -0.2474924
000170 29 9e 6a bd 51 b0 da bd e0 de 64 bd 6f 24 66 3d
       -0.05727974 -0.10678161 -0.055876613 0.05618709
000180 1e 56 16 be 96 1b e9 bd 51 16 31 bd d2 16 80 3d
       -0.14681289 -0.11382215 -0.043234173 0.06254353
000190 ff f8 28 be 5d 02 e9 3a 14 43 96 3b b4 f4 3e be
       -0.16501234 0.0017777194 0.004585633 -0.18648034
0001a0 3d 43 3a be ad 8a 58 bd 36 8e cc bd db 18 85 bc
       -0.18189712 -0.052866627 -0.09988062 -0.016247204
0001b0 54 65 4e be 25 58 51 be 4d 0c ff bd bd eb 22 3e
       -0.20155841 -0.2044378 -0.12453518 0.1591024
0001c0 72 86 d9 bd a7 1f e8 bd c4 85 3e 3d 37 f3 ed 3c
       -0.106213465 -0.11334162 0.046514288 0.029046638
0001d0 56 75 b5 bc 49 e1 22 be f8 5b c0 3d 26 38 80 3d
       -0.022150677 -0.15906252 0.09392542 0.062607095
0001e0 ba d1 97 be 95 66 59 be db 19 41 be 7b 2e ce 3d
       -0.29652196 -0.21230538 -0.1885752 0.10067459
0001f0 c3 3f 7d bd b2 56 98 3d 57 55 2a 3d f1 56 45 be
       -0.061828386 0.07438411 0.041585293 -0.19271447
000200 78 1e a0 3d 7c d7 80 3d 6f 65 d7 bd fb 31 6d bd
       0.078183115 0.062911004 -0.10517394 -0.057908993
000210 eb 13 4c be 9d 57 55 be 56 17 56 be 99 c6 c6 3d
       -0.19929473 -0.20834203 -0.2090734 0.09705848
000220 00 67 3b 3d 1f aa 53 bd ce 26 8c be 83 35 9a be
       0.045752525 -0.051675912 -0.27373356 -0.3011895
000230 5c b4 a0 bd c4 9b ab 3d a9 85 6b be 18 cd 37 3c
       -0.07846901 0.08379319 -0.23000206 0.011218332
000240 26 75 49 bd e3 c5 6c 3d f2 ec 1e be b7 ca ab ba
       -0.049183987 0.057805907 -0.15520075 -0.0013106678
000250 96 a2 70 3c 93 ac 8a 3d 03 46 07 bd cf 41 22 bd
       0.014687201 0.06771197 -0.033025753 -0.03961354
000260 13 0d 38 bd 48 9d 19 3e a9 f6 34 be b5 20 1d 3d
       -0.044934344 0.15001404 -0.17672218 0.03836127
000270 b3 fe 05 be cd d9 19 be fa 6e 1c be 80 72 35 3d
       -0.13085441 -0.1502449 -0.15276709 0.04429865
000280 59 a5 3e be 9d f7 30 bc 42 f1 f7 3d 47 a8 28 bc
       -0.18617763 -0.010801223 0.12106563 -0.010294027
000290 70 2d 56 bd 86 83 8c 3d 70 da 25 bd ba a2 eb 3d
       -0.052289426 0.068610236 -0.04049152 0.11505647
0002a0 fc fd e2 bd 2f 22 3a be 4a b2 07 be 67 c5 c8 3d
       -0.110836 -0.18177103 -0.13251606 0.098032765
0002b0 e8 8c 48 bd eb d6 13 bd 81 0a d4 3d 5f 7d a0 3d
       -0.048962504 -0.036093634 0.10353566 0.07836413
0002c0 44 07 0e 3d c9 5c 0e be 92 23 bb 3d 8d 5e 3b bd
       0.034674898 -0.13902582 0.09137644 -0.045744468
0002d0 bb 93 99 be 66 e1 62 be 32 90 d4 bd ef 10 98 3d
       -0.29995522 -0.22156295 -0.103790656 0.07425105
0002e0 a0 15 a7 be 1e 69 c8 3c 2d b5 98 be 65 2e 87 bd
       -0.32633686 0.024464186 -0.29825726 -0.06600646
0002f0 13 b8 65 be 21 4f 1e 3c bb 04 48 be 83 18 28 be
       -0.224335 0.0096624205 -0.19533055 -0.164156
000300 b4 82 0f 3c 99 40 82 bd aa b0 4e bd 39 1a cd 3d
       0.008759189 -0.06359977 -0.05046145 0.10014767
000310 80 58 17 3c fa 41 f8 3d 03 21 18 3e 54 93 76 bd
       0.009237409 0.12121959 0.14856343 -0.060199097
000320 a4 7e 94 3d f6 0f 09 3e 0b eb 8c 3b af 45 dc bd
       0.07250717 0.13384995 0.0043004802 -0.107554786
000330 33 41 9f 3c ec df 12 bd aa 8f 01 3e 53 82 43 3b
       0.01944027 -0.03585808 0.1265246 0.0029832318
000340 2a c3 a0 bd fa bf 4f 3e 9d 3a 17 bd fc 94 32 be
       -0.078497246 0.20288077 -0.036921132 -0.17439646
000350 ef b3 1f be 86 80 4a bc 28 fc 1d bd d0 7e ca bd
       -0.15595983 -0.012359744 -0.038570553 -0.09887469
000360 e7 28 81 bd 4d 65 fd 3d 30 2e 30 be 69 52 6c 3d
       -0.0630663 0.12372837 -0.17205119 0.05769578
000370 82 df f8 bc 45 62 3d 3e b1 00 9d bd 5b 1a 37 bd
       -0.030380014 0.18494518 -0.076661475 -0.04470287
000380 6c 1c da bd 1d 26 31 bd 1e 65 17 be 04 1b 11 be
       -0.10649952 -0.04324924 -0.14784667 -0.14170462
000390 75 1c 87 be 01 e8 4d be de a5 8c bd b9 3c 88 3d
       -0.26388898 -0.20108034 -0.06867574 0.06652207
0003a0 94 e2 ac be db ff 1c bd af c9 15 be 90 5a 39 be
       -0.33766615 -0.03832994 -0.14627717 -0.18100953
0003b0 88 d0 40 be 8e cc 88 3c 24 7c 2b be f2 fa 2b 3d
       -0.18829548 0.016699102 -0.16746575 0.041987367
0003c0 3f 00 4b 3c 8c 45 13 be 70 2f 51 be 10 4f 3f 3e
       0.012390195 -0.14381999 -0.20428252 0.18682504
0003d0 b8 a6 96 bd 66 e4 1f 3e 34 f4 d8 3c ab e5 5e 3c
       -0.07356018 0.15614471 0.026483633 0.013604562
0003e0 18 c6 a4 3d 28 3e f3 3c cd 82 09 3e 48 4a d9 3d
       0.08045596 0.029692724 0.13428803 0.10609871
0003f0 80 ca d0 bb a2 33 18 be a2 92 17 be 6e b2 cd bd
       -0.006371796 -0.14863446 -0.1480203 -0.100437984

gru.weight_hh_l0_reverse f4 [192, 64]
000000 dd 82 4f bd ac 92 d3 bd 94 a9 31 be 90 f3 86 be
       -0.05066191 -0.1033071 -0.17349845 -0.26357698
000010 fd 79 e1 3d 99 cf 8a bd 3a aa 8f bd a1 a4 e7 bd
       0.110095955 -0.06777877 -0.0701489 -0.11310697
000020 a9 df d4 bd 46 b9 39 be e5 1b 35 3d fa 8d 7f 3d
       -0.10394222 -0.18137082 0.044216055 0.06239126
000030 01 d1 fe bd 2a fb 78 3d 5f 7c ac bd 3b c7 4f be
       -0.12442208 0.060786404 -0.084221594 -0.20290844
000040 a0 58 6d be 4e b2 a4 3b 2e 11 fe 3d eb 46 91 3e
       -0.23178339 0.0050261384 0.124056205 0.2837442
000050 ca ba 64 be b9 f3 f9 3b 74 43 a1 3d 35 9a 0a be
       -0.2233688 0.007627931 0.07874194 -0.13535388
000060 1b 93 4a bd d5 7c 45 3e 5e 3d 14 be 17 91 85 3c
       -0.049456697 0.19285901 -0.14476535 0.016304536
000070 27 2e 3f bd c7 28 a6 bc 6d 3d 83 be 10 bd 47 3e
       -0.046674874 -0.020283116 -0.25632802 0.19505715
000080 ea f3 f1 bd 8f 11 1a be 00 42 e3 3c 04 a2 c0 3d
       -0.11814101 -0.1504576 0.027741432 0.09405902
000090 d8 38 dc 3d a9 5e 91 bd bc 29 8e 3d 0d fb 31 3e
       0.107530296 -0.07098133 0.06941554 0.17380925
0000a0 77 97 fe bd 8e ab 63 3d ea a1 f9 3d 7e aa ec bd
       -0.124312334 0.05558353 0.12189086 -0.11555956
0000b0 7e 11 3a bc 1f 6f 3e be 83 83 1f be 89 14 06 3d
       -0.0113567095 -0.18597077 -0.15577511 0.032734428
0000c0 96 38 de 3c 94 64 02 3e d4 7d 63 3e 94 e0 3e be
       0.027126592 0.1273368 0.22215968 -0.18640357
0000d0 6c f3 e6 3c ef a0 05 bc 55 1f a2 3c f9 c3 ba 3d
       0.028192244 -0.008156045 0.01979033 0.0911941
0000e0 d7 90 75 be 3f f5 2a 3e d5 0c 68 3e 8a 4d 55 3d
       -0.23981033 0.16695116 0.22661145 0.0520759
0000f0 83 70 15 3e 57 a0 41 be f5 38 00 bc 5b f2 08 3e
       0.14593701 -0.18908821 -0.00782608 0.13373701
000100 0d 43 fe bd 2e bf ab 3c 96 cf 38 be 4f d9 25 be
       -0.12415133 0.020965185 -0.18047938 -0.16196178
000110 f1 f6 48 3e 72 2d b6 3d 17 92 23 be 71 b7 89 bd
       0.1962545 0.08895387 -0.15973698 -0.06724442
000120 f3 af 1c 3d 4f 83 90 bd fb 77 69 3e 37 a7 fa 3d
       0.038253736 -0.07056295 0.22799675 0.12238925
000130 a1 60 84 be 95 26 06 3e 74 bc 8b be 05 ba 02 be
       -0.25854972 0.13100655 -0.27292216 -0.12766273
000140 a0 45 43 be 74 97 41 3e 9a 66 c6 3d 29 9b da 3d
       -0.19069529 0.18905431 0.096875384 0.10674126
000150 ca 05 51 be ee 9f e9 3d bf 2f 39 3e c0 64 76 bd
       -0.20412365 0.11407457 0.1808462 -0.060154676
000160 f5 1a be bd 5a f1 34 3e a7 87 c4 bd 6f 7f 11 be
       -0.092824854 0.17670193 -0.09596186 -0.14208768
000170 d8 99 01 bd 6b 0b 99 bd ff 6c 3f be 94 ff af 3d
       -0.031640857 -0.07472881 -0.18693922 0.085936695
000180 2f 84 e9 bd 23 6a 85 be ee ac 40 3d 73 a9 84 3e
       -0.11402165 -0.26057538 0.04703992 0.2591053
000190 33 ba a2 3c bf 44 7f 3d 28 29 2f 3e 53 67 3d 3d
       0.019864177 0.06232142 0.17105544 0.046241116
0001a0 26 9b dc bd f2 54 49 3e 0f d1 10 bc 5d fa 18 be
       -0.1077178 0.1966131 -0.008838906 -0.14939256
0001b0 9d ce 62 be 2f 0b 87 be e6 10 d7 bd c0 c1 e9 3d
       -0.22149129 -0.2637572 -0.1050127 0.11413908
0001c0 e2 e8 b7 3d 98 a6 14 3e 2a 01 86 3e 80 1b 1a be
       0.08979966 0.14516675 0.26172763 -0.15049553
0001d0 e8 72 97 3d 3e 41 1e be ec c7 54 3d fe 54 19 3d
       0.073949635 -0.15454575 0.051948473 0.03743457
0001e0 ed 85 a2 bd 9f 3b 4d 3e 0d d1 49 bd 44 d3 0e be
       -0.079357006 0.20042275 -0.049271632 -0.13947779
0001f0 d0 9d 3b 3e 5f 9f 1e 3d 61 fe 4d be f7 8e 1d 3e
       0.1832192 0.038726207 -0.20116569 0.15386568
000200 27 6d 8d bd e4 0c 3f 3d 5f c3 a8 bd ca c9 fb bd
       -0.06905585 0.046643153 -0.08240389 -0.122943476
000210 2b 7f 34 3e a9 a8 b4 3d 5a d3 98 3d 67 f4 66 bc
       0.17626636 0.08821232 0.07462187 -0.014096356
000220 8b e9 8f bd 40 e7 a8 bd 45 5b d0 bc ac c4 5d 3d
       -0.07026967 -0.082472324 -0.025434146 0.05414264
000230 73 4b 0e 3d 50 ea 2d 3e f3 99 ad bd 8a c4 d4 bd
       0.034739923 0.16983914 -0.08476629 -0.10389049
000240 13 b5 f4 bd 89 10 09 3e b9 b2 6d 3d b9 64 16 3e
       -0.119486 0.13385214 0.05803177 0.1468686
000250 19 dd cf bd 14 7c 36 bd de 87 28 3d 32 de 83 3d
       -0.10149593 -0.044551924 0.041145198 0.06438865
000260 31 14 98 3c e8 29 5e 3d ff a6 5f 3d 21 14 fa bd
       0.018564316 0.054239184 0.05460262 -0.122108705
000270 ce 95 3a be 35 e9 bb bd 70 a9 05 be c0 c4 8d bd
       -0.18221208 -0.0917534 -0.13052917 -0.06922293
000280 92 5f 09 be 61 7e 51 3b 3a e9 72 3d 57 c7 08 3e
       -0.13415363 0.0031966197 0.059304453 0.13357292
000290 a0 0b ad 3c 0e c5 be bd 1b e3 19 3c 21 52 37 3e
       0.021123707 -0.09314929 0.009392525 0.17902423
0002a0 b9 75 c6 ba 70 04 4c 3b ad e6 05 3d 40 1a 57 3c
       -0.0015141285 0.0031130575 0.032690693 0.013128817
0002b0 4c 7f 31 bc 8e b8 39 be c5 18 98 bd f5 dd cb 3c
       -0.010833573 -0.18136808 -0.074265994 0.02488611
0002c0 0b 08 89 3d 9a 92 a5 3a 65 c0 d0 bd aa ab 10 3d
       0.06690987 0.0012632192 -0.10192946 0.03531996
0002d0 9f c6 2a be 7f f0 ff 3d 14 2b 3e 3c 95 ff 19 3e
       -0.1667733 0.12497043 0.01160695 0.15038903
0002e0 25 81 db 3d 6c b1 12 bd 75 f6 17 bd 63 ab 04 3e
       0.10717992 -0.035813734 -0.037100274 0.12956004
0002f0 0b 23 4d bc 99 28 bd bd 1a 56 aa 3d f1 27 1e bd
       -0.012520562 -0.09236259 0.08317204 -0.03861231
000300 69 92 08 ba f4 ff a2 bd bc ba 03 3d a8 a7 24 3c
       -0.0005209805 -0.079589754 0.032160506 0.010049738
000310 5a 1b f0 3d 1e 59 8e bd 76 0a f8 bd 3a 5d 04 be
       0.11723967 -0.069505915 -0.1211137 -0.12926188
000320 fd 2c 6b 3d bc 2f 0b 3b 26 b3 aa 3d 99 97 8e 3d
       0.05741595 0.0021238169 0.08334951 0.06962509
000330 56 49 40 3c 8c d2 e3 3d f7 4e 5d 3c b9 38 b4 bd
       0.011736235 0.11124143 0.013507596 -0.087998815
000340 7f fe 30 3d c4 be 84 bc 58 68 c4 3c 3e 9e a8 bd
       0.043211456 -0.016204245 0.023975536 -0.08233307
000350 80 af ed 3d ff 1d 39 3d e3 0b fe 3d 53 36 2e 3c
       0.116057396 0.045194622 0.12404611 0.010633069
000360 94 14 be bc 9a 86 8c 3d d2 b1 6e bd fe d8 1c 3d
       -0.023203172 0.06861611 -0.05827505 0.038292877
000370 d1 ec b2 3d 8f 3a e5 3c 08 69 9e 3d 87 79 df 3b
       0.087365754 0.027982024 0.07734877 0.006819907
000380 fd 9a 3d 3d e9 29 88 bd 77 fb 80 bd 76 34 be 3d
       0.046290386 -0.06648619 -0.06297963 0.0928735
000390 b7 0c 56 bc 4b 3b 51 3d 50 cb e9 bd 11 bf 4a bc
       -0.013064555 0.051081937 -0.11415732 -0.012374655
0003a0 c3 c1 95 3b 64 ab 13 3e d0 16 98 3d 63 f2 b0 3a
       0.0045702173 0.14420849 0.07426226 0.0013499971
0003b0 78 2e bf 3d 34 2b 1c 3e 0a d0 ab bc 15 8d 04 be
       0.09335035 0.15250856 -0.020973224 -0.12944444
0003c0 2a 2e 59 3d 06 8f eb bd b5 e4 4c 3c 60 70 43 be
       0.05302254 -0.11501889 0.0125057 -0.19085836
0003d0 3a ff 0d be 0d 5a a4 3c 0a 09 f3 3d f1 47 ec bc
       -0.13866892 0.02006247 0.118669584 -0.028842898
0003e0 36 67 2e be f9 30 b1 3d 1e df fd 3d cd a1 2b 3d
       -0.1703156 0.08651919 0.12396072 0.041902352
0003f0 e9 85 ea 3d 31 2b 88 ba 28 6b fb bc a1 35 83 3d
       0.114513226 -0.0010388849 -0.030690745 0.06406713

gru.bias_ih_l0_reverse f4 [192]
000000 d6 0b 1b bc a6 cf 92 3d b1 98 e1 3c 48 ce 88 bc
       -0.009463271 0.07168512 0.02753863 -0.016699925
000010 87 61 b4 3c f9 1b 6b bd d4 2a 5a 3c 1d 7b c8 bc
       0.02201916 -0.057399724 0.013315875 -0.024472767
000020 a3 11 7e 3d f9 ba 04 3e a0 3d c6 3c d5 17 cb bc
       0.06202854 0.1296195 0.024199307 -0.024791637
000030 f7 70 7d bd fd 09 1f 3e 41 30 4b bd a5 16 3c 3e
       -0.06187531 0.15531154 -0.049606565 0.18368013
000040 e2 b9 00 3e 6b 05 8d 3d f3 03 14 bc 16 c9 77 3d
       0.12570909 0.06885799 -0.009034145 0.060494505
000050 ee 7a 47 3b f1 45 2f 3e c6 f6 2c 3e d1 9a ad 3d
       0.0030438262 0.17116524 0.16891012 0.084767945
000060 e5 bc 6f bd e5 93 5a 3d 38 23 63 3e 96 62 14 3e
       -0.058529753 0.0533637 0.22181404 0.14490733
000070 93 be fe 3d c0 1e 3d 3e 26 77 37 bd 05 56 88 bd
       0.12438693 0.18468761 -0.044791363 -0.06657032
000080 67 70 d0 3d 16 24 d8 3d 51 be e7 3c b9 c0 bb 3d
       0.10177689 0.10553758 0.028288992 0.09167618
000090 38 61 d4 3b 5b 31 c8 3d 8c b6 3d bd 06 bf 54 3e
       0.006481316 0.09775039 -0.04631667 0.20775995
0000a0 ed bb 36 3d 6d d2 11 3e c0 37 27 3d 0d 6d 16 3e
       0.044612814 0.14240427 0.04082465 0.14690037
0000b0 a3 b5 2f 3e 1d 2c f7 3d a8 33 04 3e b2 bf 37 3e
       0.17159133 0.12068961 0.1291033 0.1794422
0000c0 91 17 2d bd d9 00 69 3d bc 66 16 3e 58 43 95 bd
       -0.042258803 0.056885574 0.14687628 -0.072882354
0000d0 71 e7 5f bd 67 71 0e 3e 08 fe fc 3d f5 2f e0 3d
       -0.05466408 0.13910447 0.1235314 0.10946647
0000e0 2d 63 93 bc 52 cd 50 3b 0c ee b1 3c 8c 0f 22 3d
       -0.017991627 0.0031860662 0.021719955 0.039565608
0000f0 cb 3d 87 bd 94 44 ed bc f5 4f ed 3d dc eb 47 bd
       -0.06603583 -0.028963365 0.11587516 -0.048808917
000100 d3 9d e5 bc f9 07 3d 3d 50 76 5f 39 08 41 06 3e
       -0.028029358 0.04615018 0.00021311012 0.13110745
000110 b7 75 23 3e 5b f1 83 3e 33 92 20 3e fd eb de ba
       0.15962873 0.25770077 0.1568077 -0.0017007586
000120 f1 86 22 3c ed 07 79 3d 30 dd 60 3d a6 96 8d 3d
       0.009919868 0.060798574 0.05489844 0.069134995
000130 bf d9 49 3e 5c b6 2c 3e 67 51 a7 3d 0a 1f 51 3e
       0.1971197 0.1686644 0.08169823 0.20421997
000140 61 39 56 bd 47 8c 90 bd 78 8e 97 bc df 1a 24 3d
       -0.052300815 -0.07058006 -0.018500552 0.04006469
000150 24 73 68 bc 1e 19 22 bd 59 41 fb 3d b9 78 af 3d
       -0.014187608 -0.039574735 0.122683235 0.08567948
000160 cc c6 31 3d 59 5d a9 3d 8d 89 1f bd 55 2a 5f 3d
       0.043402478 0.08269758 -0.038949538 0.05448373
000170 23 6a 0e 3d 7d 6e 64 3d 3b ec 73 be 98 e0 34 3c
       0.03476919 0.055769432 -0.23820584 0.011039875
000180 e4 8f 53 3d 66 7e 32 3e 80 b9 63 3e 8e 5d 28 3d
       0.051650897 0.1743103 0.22238731 0.041104846
000190 bc 63 1f bd a0 71 a1 bc 4f a4 cf 3d 74 ce dd 3d
       -0.038913473 -0.019707501 0.10138761 0.108303934
0001a0 79 db a3 bd 13 69 26 3d 10 69 c0 bb 4e a5 64 3d
       -0.080008455 0.04062755 -0.0058718994 0.05582171
0001b0 2e fd 51 3e a8 c7 8d 3d 32 90 04 3e 2c 0e e6 3d
       0.20506737 0.06922847 0.12945631 0.11233172
0001c0 1d 54 ed bc 05 41 45 3e d6 3a 32 3e 66 6e 43 3d
       -0.028970772 0.19263084 0.17405257 0.047712706
0001d0 fc 4d bd 3d 74 4d db 3c cc 46 37 3e 8e 48 2d 3e
       0.0924339 0.026770331 0.178981 0.16922209
0001e0 4a dc 74 3d 60 ef 2e 3e ac c1 9d 3e 23 1a 60 3e
       0.059780397 0.17083502 0.30811822 0.2188497
0001f0 c4 f4 4b 3e 61 9c 1c 3d 45 8b 81 3e 0f cb d4 bd
       0.1991759 0.038235072 0.25301567 -0.10390293
000200 2e 01 7f 3d b6 bc b2 3d 3d 69 c4 3d fc e9 3c bd
       0.062256984 0.087274 0.09590385 -0.046121582
000210 56 04 57 bd fc a1 29 3d e6 e9 fe bc e0 ec b7 bd
       -0.05249437 0.041414246 -0.03111739 -0.08980727
000220 48 6e 00 3e 19 68 be bd de 5a de bd 05 ab 49 bd
       0.12542069 -0.09297199 -0.10857175 -0.049235363
000230 cc ef 72 3d 0e 8e 97 ba ff c1 07 bd c7 f1 04 3e
       0.05931072 -0.0011562721 -0.033143993 0.12982856
000240 1c d1 84 3d 6d 85 c8 bb cd 77 0b 3c 15 7a d6 3c
       0.06485197 -0.006119421 0.008512449 0.02618126
000250 40 7c 6d 3d 13 c5 94 3d 51 f6 d4 bc c5 84 7a bd
       0.057979822 0.072641514 -0.025996359 -0.061161775
000260 49 81 0c 3d 30 34 9f 3d 61 bd 0c 3d 19 ca ab 3d
       0.034302983 0.07773626 0.034360293 0.083881564
000270 75 b4 01 3d ab 34 fe bd c4 55 c8 3d 41 ce 03 3c
       0.031666238 -0.12412389 0.097819835 0.00804478
000280 47 9f e9 bd da 8a fb bd 55 10 0c be 50 e4 98 bd
       -0.11407333 -0.12282343 -0.13678105 -0.07465422
000290 a2 ed b7 bd 3c bf 1f bd 8b db 62 bd 06 0f 00 3d
       -0.08980872 -0.039000735 -0.055385154 0.031264327
0002a0 1a e9 83 3d 89 91 d2 3d 8c a8 07 3d 70 8c f7 3d
       0.06440945 0.10281665 0.033119723 0.12087333
0002b0 d0 ff d9 3c 1b e6 dc 3d a8 bf cb bd 73 be 77 3d
       0.026611239 0.10786077 -0.09948665 0.06048436
0002c0 e9 92 31 3d 8d 03 aa 3c 4b 53 d0 3d 58 be 0b be
       0.043352995 0.020753646 0.10172137 -0.13646829
0002d0 e0 b7 96 3b 88 ff 97 3d 47 78 2a bd 83 04 9d bc
       0.0045995563 0.074217856 -0.04161861 -0.01916719
0002e0 9c 62 44 bd 54 4e 21 be 64 b3 48 bd 16 da 5a bd
       -0.047945604 -0.15752536 -0.048999205 -0.05343064
0002f0 8a 46 3a bd 2a fa 5c 3d 5b f2 7b bd 37 83 a8 3d
       -0.045477428 0.053949513 -0.061510425 0.08228152

gru.bias_hh_l0_reverse f4 [192]
000000 2b 86 b8 3c 38 3e 77 3d d2 29 17 b9 03 4f 1b 3d
       0.022524914 0.06036207 -0.00014416061 0.03791715
000010 16 db e6 3d 7f cb 12 3e 88 ea a4 3d f6 55 50 bd
       0.11272256 0.1433544 0.08052546 -0.05086323
000020 8d ac 58 3e d5 cd b0 bc 19 af 68 3d 06 a6 61 bd
       0.21159573 -0.021582523 0.05680761 -0.055089973
000030 28 c5 95 3d 92 28 92 3d dd 91 be 3d 86 cd 78 3d
       0.07312995 0.071366444 0.09305165 0.060742877
000040 e5 d9 f1 3d f7 b4 a9 3d 56 0f f6 3d be 45 11 bd
       0.11809138 0.082864694 0.12014644 -0.035466902
000050 7a a3 58 bd d4 0d 04 3e 29 55 2a 3e ed 38 87 3d
       -0.05289028 0.128959 0.16634049 0.066026546
000060 34 8a 5a bd 33 5e 08 3e 76 ad 3f 3e 1d 61 06 3d
       -0.053354457 0.13317184 0.18718514 0.03280746
000070 58 6d 4b bb 5a 7a 19 3c d0 15 27 3e e8 3b 23 3e
       -0.0031040516 0.00936755 0.16316915 0.15940821
000080 7d 9d b8 3d bd cc 75 3e 22 53 84 bb 61 f5 cc 3d
       0.090144135 0.24003883 -0.0040382305 0.1000774
000090 5f 8e d6 ba e4 f0 31 3e 55 27 ea 3d ca 0d 9e bc
       -0.0016369334 0.17377049 0.11433283 -0.019293685
0000a0 b7 72 86 3d e1 81 84 3c 44 06 cc 3d 57 80 3f 3d
       0.06564849 0.016175212 0.099621326 0.046753254
0000b0 b9 45 4b 3e dc 5c b2 3d 7c 6b 47 3e 67 8c 02 bd
       0.19850816 0.08709118 0.19474596 -0.03187218
0000c0 b8 8d b3 3d be e2 dc 3d 96 0c 13 3e 53 a3 13 3e
       0.08767265 0.10785435 0.1436027 0.14417772
0000d0 6f 58 cc bc 0a b8 a2 3d 4b 3b 5a 3a 70 a1 1b bd
       -0.024944512 0.07945259 0.00083248754 -0.037995756
0000e0 98 64 a5 bd f4 cc 09 3e 11 7f f3 3d 76 fd ee 3d
       -0.08075827 0.1345709 0.1188947 0.116694376
0000f0 ea 96 f4 3c 67 2e 06 3e 56 cb c4 3c b8 14 61 3d
       0.029857118 0.13103639 0.02402274 0.0549514
000100 6a df e4 bd 57 51 46 3d b4 bf f4 3d 4c 32 72 3e
       -0.11175425 0.048417415 0.11950627 0.23651999
000110 34 fd 6b bd fc 1e 2b 3e 07 a2 02 b9 90 2c 2e 3e
       -0.05761452 0.16711038 -0.00012458126 0.17009187
000120 1d 78 77 3d 05 b2 2b 3e b5 52 d6 3d ee 3b 2b 3e
       0.060417283 0.16767128 0.10464994 0.1672208
000130 36 7b 0d 3e 7d 64 69 3c 08 29 c1 3c 71 c9 93 3d
       0.13816532 0.01424515 0.023579136 0.07216156
000140 0d 32 a2 3d 96 98 c9 bc ad 95 b4 3d 7e 7d 6a 3e
       0.07919703 -0.024608891 0.08817611 0.22899434
000150 e1 63 c6 3d bf 3e 9d bd 45 4c 7c 3e e1 54 bc bc
       0.09687019 -0.076779835 0.2463847 -0.022989692
000160 5d e5 67 3e 9e 17 a1 3c c7 cc e4 bd 14 60 52 3d
       0.22646089 0.019664582 -0.11171871 0.05136116
000170 7c e9 b0 3d 0a db cc 3b fa 38 01 bd 8a a2 90 bd
       0.086382836 0.0062516974 -0.031548478 -0.07062252
000180 2a 39 73 3d 39 71 54 3d 44 7d 17 3e 27 09 34 3e
       0.059380688 0.05186579 0.14793879 0.17581616
000190 1c 31 d0 bd e0 69 e9 bd 7f 8b 51 3d 39 5d 67 bd
       -0.10165617 -0.11397147 0.051158424 -0.05648539
0001a0 68 40 dd bd 6f 4f b3 bd 89 1f 40 bd 17 27 e0 bb
       -0.108033 -0.08755385 -0.046905074 -0.0068405974
0001b0 bf 1a 5a 3d 06 62 80 3d d7 ae a6 3d 94 38 cd 3c
       0.053248163 0.062686965 0.08138817 0.025051393
0001c0 40 55 ae 3d 8e 89 f9 3d d0 ec 2b 3e 6a 23 13 3e
       0.08512354 0.121844396 0.16789556 0.14368978
0001d0 e6 7b fc 3a f6 e8 01 3d 74 d0 83 3e 19 e8 05 bc
       0.0019262999 0.03171631 0.25744975 -0.008173012
0001e0 9b da 0f bd 89 92 1d 3e 9a 6e 3a 3e ba 34 d8 3d
       -0.035120588 0.1538793 0.18206254 0.10556932
0001f0 71 c1 65 3e 2d 9d 06 3e 4c 60 1d 3e 43 86 f3 bc
       0.22437073 0.13145895 0.15368766 -0.029727107
000200 df a1 16 3d e0 1b ac 3c 24 2f 08 3d f5 74 64 bd
       0.036775466 0.021009386 0.03324808 -0.0557756
000210 00 49 13 3b e0 7b 7b bc c4 9b 17 3c 81 42 32 bc
       0.0022473931 -0.015349358 0.009253446 -0.010880114
000220 a0 14 0a bb f5 f0 d8 bd 1f 7d d1 3d e6 20 da 3c
       -0.0021069422 -0.10592834 0.10228943 0.026627015
000230 c9 4d 73 bd c2 b2 dc bd ac dc 94 bc fd ca 87 bc
       -0.059400354 -0.10776283 -0.01817163 -0.016576285
000240 58 b2 64 bd 9e 81 eb 3c b9 90 a9 3d 09 f3 bd 3b
       -0.055834144 0.02874833 0.08279557 0.0057967943
000250 24 80 d7 bd 1d bd 6f bc ab a1 7d 3d 88 f2 aa 3d
       -0.10522488 -0.01463249 0.061921757 0.083470404
000260 78 37 a9 bd ba 80 13 be e8 f7 bd 3d 07 1f 94 bb
       -0.08262533 -0.14404574 0.092758 -0.0045203003
000270 6d 6f 02 bd 51 86 3d 3d ab 07 92 bc 42 70 a3 bd
       -0.031844545 0.046270672 -0.017825922 -0.07980396
000280 5d dc 0c be 4a ce a5 3d 30 c6 74 bb 9c a2 2e 3d
       -0.13755937 0.08095987 -0.0037349574 0.042635545
000290 14 3f af bd dc d5 58 3c 80 fa c4 bd f2 b8 f5 bd
       -0.08556953 0.013234582 -0.096180916 -0.11998166
0002a0 f6 4e 94 3d 74 f1 28 3d e7 19 18 3d 78 4f ef bd
       0.07241623 0.041245893 0.037134077 -0.11685079
0002b0 ab 8e 21 3d 82 8d d9 3d 17 38 0c bd 13 1a 09 be
       0.0394427 0.106226936 -0.03423318 -0.13388853
0002c0 c8 41 ac 3d 21 b3 46 bc 49 c3 3d bb 78 f4 f3 bd
       0.08410984 -0.012127669 -0.002895551 -0.11911863
0002d0 ab d5 01 bd 0e a7 32 3c 5d 68 af 3d 70 db 1b bd
       -0.03169791 0.010904087 0.085648276 -0.03805107
0002e0 72 47 f7 3d d9 d7 34 3b 20 42 d5 3b 98 92 a8 3d
       0.12074174 0.0027594476 0.006508127 0.082310855
0002f0 89 40 39 bd 72 b4 ae bd de f8 89 3c d5 90 ae bd
       -0.04522756 -0.08530511 0.016842302 -0.08523718
