results/training/gpt-oss-20b_a100_tp1/model_tp1_H64_biGRU.pt (torch, 116621 bytes, 10 tensors)

gru.weight_ih_l0 f4 [192, 6]
000000 ef 9c 11 3d 5c 4e ae bd d4 61 92 3d b6 8c 38 3e
       0.035550054 -0.085110396 0.071475655 0.18022427
000010 12 b3 a1 3d a9 a9 ea bb 2c 6f b1 bd a9 f9 9e 3d
       0.07895483 -0.0071613383 -0.086637825 0.07762463
000020 10 2e 0c 3d 09 e0 dc bc 17 dc 0a 3d a5 70 ed bc
       0.034223616 -0.026962297 0.0339013 -0.028984377
000030 11 a3 db bd a9 08 11 bc bf 9e 1a be 64 5c 35 3e
       -0.10724462 -0.008852162 -0.1509962 0.17711025
000040 21 43 7d 3d 1d e9 f3 3d 6c b0 50 3d dd 82 b6 bb
       0.061831597 0.11909697 0.0509495 -0.0055697993
000050 58 46 07 3d 54 f2 8b 3d fd 71 b2 3d 54 4c 38 be
       0.03302607 0.0683333 0.08713148 -0.17997867
000060 c0 7d 2c 3d c6 04 21 3e 0f b8 e9 3d 3c e5 1f 3e
       0.042112112 0.15724477 0.114120595 0.1561479
000070 30 50 3e bc 08 29 14 3e 94 3a a7 3d b8 dd 53 bd
       -0.011615798 0.14468777 0.0816547 -0.05172512
000080 89 e3 6d bd e6 f6 33 3e ae 28 8f bd 49 39 93 3d
       -0.058078323 0.17574653 -0.06990181 0.07188661
000090 b1 db 11 3e fb b2 90 3c c2 3b 35 bb 76 01 9b 3d
       0.14243962 0.01766347 -0.0027654027 0.07568638
0000a0 fe 47 41 3e d1 2d b9 3d 7f cb f5 3d 23 92 2b 3e
       0.18875119 0.09041942 0.120017044 0.16754965
0000b0 99 b3 c1 3a 78 61 4c bd f4 23 e1 bc ea d5 99 3d
       0.0014778256 -0.04989764 -0.027482964 0.07511504
0000c0 d3 48 c9 bd 48 76 b2 bc 53 e6 e1 bd 47 50 ee bc
       -0.09828343 -0.021784917 -0.11030259 -0.029091014
0000d0 56 da 86 bc cb 1c 07 3e 40 c1 0a 3c d9 72 77 bd
       -0.016461533 0.13194577 0.008468926 -0.06041226
0000e0 d0 f7 10 be 74 33 e4 3d d1 fa 26 bd 35 86 93 3b
       -0.14157033 0.111426264 -0.04076654 0.0045020827
0000f0 b9 6e 65 3d 5e ff 18 3d 8c 05 f0 bd 28 8c 9d bc
       0.056013796 0.037352912 -0.11719808 -0.01923187
000100 27 61 ae bd 53 74 8b bc 23 e2 0a 3c 5b b2 b9 bd
       -0.08514624 -0.017023241 0.008476767 -0.09067222
000110 3e f1 04 3a f6 3f a0 bd 48 43 82 3d c9 46 2f 3e
       0.0005071348 -0.078246996 0.06360489 0.17116846
000120 72 66 b1 3d 52 d7 2d bc 85 82 68 bd 60 45 58 bd
       0.08662118 -0.010610418 -0.056765098 -0.052800536
000130 de 35 3b bc ef 6f 90 bd 3a 44 0b 3d eb 37 b2 3c
       -0.011426417 -0.070526 0.034000613 0.02175518
000140 f0 43 1e 3e e1 f8 98 3d c8 8e cc 3d 66 e8 5b 3d
       0.15455604 0.07469345 0.09988171 0.05368843
000150 e4 e0 4b bc 25 d5 3c 3d 75 7a 36 bd 8c d3 30 3e
       -0.012443755 0.046101708 -0.044550378 0.17268199
000160 7c 90 e4 3d e4 77 1f 3e f4 2c 92 3c 8f 11 99 3d
       0.11160371 0.15573078 0.017843701 0.07474052
000170 2b 65 d1 bd d0 15 55 3e 17 64 f7 3d 89 f7 90 bd
       -0.102243744 0.20809102 0.120796375 -0.070784636
000180 3b 66 b1 bd c5 72 78 3d 3e e7 93 bb c4 b3 c8 3c
       -0.08662077 0.060656328 -0.00451365 0.024499781
000190 73 23 8d 3d 3c 28 a8 3d ea 25 2d bd 05 84 02 be
       0.06891527 0.08210799 -0.042272486 -0.12745674
0001a0 d7 0d fb bc 3a 85 1f 3e f9 0e a0 3d e8 0e ab bd
       -0.030646248 0.15578166 0.07815356 -0.083524525
0001b0 cd ab 5f 3d e8 04 d3 3d 96 50 c3 3d 94 ad 17 3e
       0.0546072 0.1030367 0.09536855 0.14812309
0001c0 3a 12 0a be 45 0d 39 3d 2d bb 56 bd 26 09 ba bd
       -0.13483515 0.04517867 -0.0524246 -0.09083776
0001d0 a8 a6 fc 3d a8 42 2c 3d f5 5b d2 3d 66 4a aa 3d
       0.12336475 0.042055756 0.10271446 0.083149716
0001e0 7c 69 e3 3c f5 81 db 3d f9 2b 32 3d a5 d2 94 bd
       0.02776026 0.10718147 0.043498967 -0.0726674
0001f0 27 00 bb bd 10 1b 5a bd 63 d9 f6 3d 88 30 82 bd
       -0.091308884 -0.053248465 0.12053182 -0.06356913
000200 63 e8 0e be e4 81 3b 3e b7 9f 13 bc 1f 0e a0 bd
       -0.13955836 0.18311268 -0.009010247 -0.078151934
000210 6d b8 18 3d d2 05 74 3d 54 18 9d bd bf 97 89 bc
       0.037285257 0.059575863 -0.07670656 -0.016795991
000220 84 ec f3 3d 49 3f ab 3d f0 45 f6 3d ca 49 0a 3e
       0.11910346 0.0836168 0.12025058 0.13504711
000230 14 09 02 be 1f 89 5e 3c c3 4a ac 3d 89 17 1e 3d
       -0.12698776 0.013582497 0.08412697 0.038596664
000240 c3 53 96 bd fa df 22 3e 63 4c 20 3b f2 4a ee 3d
       -0.07340195 0.15905753 0.0024459593 0.116353884
000250 56 d7 48 3e 5e 6a 0f bd fc 6d 34 bd 3c 2a 07 3d
       0.19613394 -0.03501355 -0.0440502 0.032999262
000260 9f 0e b4 3b 6d 54 4d bc 88 51 81 bd 83 ec 37 3e
       0.005494907 -0.012532336 -0.06314379 0.17961316
000270 f7 7f 9e 3d 80 77 1f 3e 3d 2f 98 3c ac 62 04 3e
       0.07739251 0.1557293 0.018577212 0.12928265
000280 f8 7f 3c bd a2 1e c0 bc 1a 33 bc 3d cc 0d 24 3d
       -0.046020478 -0.023452107 0.09189434 0.04005222
000290 0c 12 30 be 3e ec e9 3d 15 d6 07 bd 25 d1 96 bd
       -0.17194384 0.11422013 -0.03316315 -0.0736411
0002a0 62 44 ba bd 43 c3 5d bd ed da 88 3d f6 ec 1b ba
       -0.09095074 -0.054141294 0.06682382 -0.00059480907
0002b0 ab 9d b6 3d 82 a5 29 bd ba f4 c0 bc ab 79 12 3e
       0.089167915 -0.041417606 -0.023554195 0.14304225
0002c0 85 4e a4 bc 12 ec 88 3c 1c f5 a4 3d 2d 74 08 3e
       -0.020056972 0.01671413 0.080545634 0.13325568
0002d0 8b 4d 04 3e d9 63 81 bd e9 a9 47 3e fa cd b9 bd
       0.12920205 -0.063178726 0.1949841 -0.0907249
0002e0 b0 3b 18 3e c7 93 ff 3d 1d 7f db 3d 44 5d 6c bd
       0.14866519 0.12479358 0.10717604 -0.057706133
0002f0 db a2 c4 bd 61 92 fb bc 3d 40 c6 3d 37 e4 f3 3d
       -0.09601375 -0.030709447 0.09680221 0.11908763
000300 69 58 19 bd 32 2f f9 3c 36 78 2b bd 38 7e b2 bc
       -0.03743783 0.030418012 -0.04186269 -0.021788701
000310 26 b4 9e 3d cb 26 9c 3d c1 0d e5 3d 8c 5c 98 3d
       0.07749204 0.07624587 0.11184264 0.07439527
000320 3e 0d f9 3d e5 69 4e 3e 1f a5 29 3d 0c 68 a0 3d
       0.12160729 0.20157583 0.041417237 0.07832345
000330 dc 1c 66 3d 26 86 32 3d 1c 4c e8 bd e4 f8 67 bd
       0.056179866 0.043584965 -0.11342642 -0.056633845
000340 49 11 a3 3d 56 40 0b 3e 3a b0 d2 ba fa d1 ac 3d
       0.07962281 0.13598761 -0.0016074248 0.08438487
000350 c9 d4 ed bd b5 44 d4 bb 48 17 02 bd 24 cd 16 3d
       -0.11612851 -0.006477917 -0.031760484 0.03681673
000360 ec 24 82 3d c9 d6 c2 3c 60 c8 32 3c 69 32 4f 3d
       0.063546985 0.023784058 0.010912031 0.050585184
000370 6f ce ec 3c 62 ad 83 3d 0c e2 93 3d 53 b7 4e 3b
       0.028907029 0.064295545 0.072208494 0.0031542375
000380 89 de 20 be 70 95 a3 3d c0 aa f2 bc a9 ec 73 3c
       -0.1570989 0.07987487 -0.029622436 0.014887967
000390 82 d1 af bd a0 b0 09 3e d5 98 ca 3d 48 dc 64 bd
       -0.08584882 0.13446283 0.09892432 -0.05587414
0003a0 66 af 93 3d 0a 67 66 bd 63 57 d8 3d ce 23 2e 3d
       0.07211189 -0.05625061 0.10563543 0.042514615
0003b0 05 f8 c9 bd 62 9f 48 3e f3 d7 bd 3d 34 f9 da 3b
       -0.09861759 0.1959205 0.09269705 0.0066825394
0003c0 37 53 ba 3c 39 2d c6 bb 8c d1 97 bc 72 15 10 3d
       0.022744758 -0.0060478714 -0.018532537 0.0351767
0003d0 3b de 07 3d 3f 59 a5 3d 21 2f 13 3e 53 6c a3 bb
       0.03317092 0.08073663 0.14373447 -0.0049872785
0003e0 1f fa f4 bd ca 9e c1 3d f2 59 05 3e 81 63 10 3e
       -0.11961769 0.09454115 0.13022593 0.14100458
0003f0 87 78 ca 3c 2a 5b 7d 3c 01 0b 24 bd eb 9d 55 3e
       0.024715675 0.01546363 -0.040049557 0.20861022

gru.weight_hh_l0 f4 [192, 64]
000000 40 aa e7 bb 1d a9 8e 3b 36 e8 1d be 03 0e 4d be
       -0.007069856 0.004353656 -0.15420613 -0.20024876
000010 ce 70 82 3d 31 73 62 3d f0 a1 d0 3c 4c a1 07 3e
       0.06369172 0.055285636 0.025467843 0.13245124
000020 3a 7d f9 3a d6 a3 1c be 4a eb 0a bd 4e 7c a3 bd
       0.0019034513 -0.15296873 -0.033915795 -0.079826936
000030 64 0f 26 3c f8 7b 02 3d 62 cf e6 3d 47 cf fa bb
       0.010135505 0.031856507 0.11270024 -0.007654104
000040 1b 56 fc bb b2 d2 ca 3b d7 bf a6 3d 96 66 6a 3d
       -0.0077006943 0.0061896676 0.08142059 0.05722674
000050 0f ee 44 bb bf a5 77 bd 50 c8 c2 bd 00 38 ce bc
       -0.003004912 -0.060460802 -0.09510863 -0.025173187
000060 56 1e a8 bd ab c9 fe 3c 60 be 81 3d 5c 8c 9c 3d
       -0.08208911 0.031102022 0.06335139 0.07643959
000070 1e f1 c3 bb a3 3e cf bd ad 56 ff bb 95 66 1d 3c
       -0.005979671 -0.10119369 -0.007792315 0.009606977
000080 e3 99 cb 3c 09 b2 a0 3d 30 4b 43 3d c8 2d c4 bd
       0.024853652 0.078464575 0.047679126 -0.095790446
000090 54 41 19 be 04 5d 60 bd e8 46 28 be 46 3b cf 3d
       -0.14966327 -0.054776207 -0.16433299 0.101187274
0000a0 79 a5 a6 3d 97 a9 68 bd dd 71 61 bc 1e 5b 93 bd
       0.0813703 -0.05680236 -0.013760057 -0.071951136
0000b0 c8 41 61 3d e9 32 f4 3d 22 ac 8a bd b5 a2 9c bc
       0.054994375 0.11923773 -0.06771113 -0.019120554
0000c0 f5 be b1 3b 54 de bc bc 4b d4 52 3d c0 92 00 be
       0.005424375 -0.023055233 0.05147199 -0.1255598
0000d0 33 55 0a bc 95 e0 df bd c9 7f 92 3d c8 ac 24 3e
       -0.008443165 -0.109315075 0.07153279 0.16081536
0000e0 99 db 92 bc f0 c8 80 3d c5 76 17 3e c8 9c 16 3d
       -0.017926978 0.06288326 0.147914 0.036770612
0000f0 78 b0 9a bc 6d 30 f1 bd a4 aa f3 bd 09 2c dc bc
       -0.018882975 -0.117768146 -0.118977815 -0.026876466
000100 9b 3f ca bb e6 b1 d2 bd f8 60 6e 3d c1 92 e9 3c
       -0.006172133 -0.10287838 0.058197945 0.02851236
000110 90 c8 1e 3e d8 b7 ac bd f4 39 1f 3d 1d 54 e2 3d
       0.15506196 -0.08433503 0.038873628 0.110511996
000120 58 ed 91 3c 38 e7 69 bd 6f ad 4d 3d e5 40 ab bc
       0.01781337 -0.057105273 0.050214227 -0.020904968
000130 f7 e4 13 bd d1 81 83 3d b5 97 a2 3d 20 58 90 bc
       -0.03610703 0.06421245 0.07939092 -0.017620146
000140 c8 d0 0f be af f3 bd bb 86 49 a1 bd 84 64 09 bc
       -0.14044487 -0.0057968716 -0.078753516 -0.008385781
000150 60 9c e0 3d 43 40 a4 bd f0 b4 8a 3d 0b 15 40 3d
       0.10967326 -0.080200695 0.06772792 0.04689507
000160 32 23 46 3d 4b c1 3d 3d 06 0d 9b bd 9f 0d d4 bd
       0.04837341 0.046326917 -0.075708434 -0.103541605
000170 f6 1e 24 3d 50 80 c0 3d 0d 84 ae bd 62 d0 01 3d
       0.04006859 0.09399474 -0.085212804 0.03169287
000180 a3 77 a3 3d bd 2b 64 3c e1 05 7f bd 46 f3 86 39
       0.07981803 0.013926444 -0.062261466 0.00025739725
000190 8a cd 29 be 5c d5 ac bd 50 1d 16 be 54 8c 97 bd
       -0.16582313 -0.084391326 -0.1465962 -0.07399812
0001a0 a1 d3 00 3e 1f aa 8b 3d a5 5e 9d bd 65 98 df bc
       0.1258073 0.068195574 -0.07684068 -0.027294347
0001b0 40 36 01 3e 90 06 9a 3c 07 21 e9 bd 3f e7 9b 3d
       0.12618351 0.018801957 -0.113832526 0.07612466
0001c0 43 69 50 3d 14 24 ac 3d 1d c5 8d 3d 1d 82 cb bc
       0.050881635 0.08405319 0.06922362 -0.024842316
0001d0 e3 13 ca bc 7d 00 e0 bd 4b 2c 22 3d 8d e1 d6 3d
       -0.024667686 -0.10937593 0.039593022 0.10492239
0001e0 be 8b 03 3e a1 3c bf bd 74 60 38 3c 64 ad bb 3c
       0.12846276 -0.09337736 0.011253465 0.022909828
0001f0 65 77 6c bc c6 31 9f bd ad 16 dd bc 54 e6 cd bd
       -0.014432763 -0.077731654 -0.026988352 -0.10053697
000200 4e 63 1e bd 09 2c b7 bd 0a ac 66 bd ff bb cc bd
       -0.038668923 -0.08943946 -0.056316413 -0.09996795
000210 79 21 b9 3d 61 f4 06 3e 92 62 82 bc 4d b2 c0 3c
       0.090395875 0.1317916 -0.015916143 0.02352252
000220 2c 66 5e be b3 5f 13 bb 69 76 3f be d4 c7 07 3e
       -0.21718663 -0.002248746 -0.18697514 0.13259822
000230 1b c4 9e bc 03 0d 54 3d 0a c4 72 bd bb 14 e7 bd
       -0.01938062 0.05177022 -0.05926899 -0.11283251
000240 a1 18 24 3d ed 93 03 bc 4e fa 1c 3e 7c e3 1b be
       0.04006255 -0.008030874 0.15329859 -0.15223497
000250 53 22 1b 3e 86 20 0e 3e a1 e4 e2 bd 7f 0d 84 bd
       0.15149812 0.13879594 -0.11078764 -0.06447887
000260 23 58 68 3d 45 95 69 3d e0 03 dc bd 9f 8f 12 3d
       0.05672468 0.05702712 -0.107429266 0.0357815
000270 91 f1 f6 bb 98 62 87 bd ed 21 03 bd c5 60 1f 3e
       -0.007536121 -0.06610602 -0.032014776 0.15564258
000280 16 cb 5d 3c c5 ac 89 3d 5e 16 33 bd c5 79 dc bd
       0.013537189 0.06722406 -0.043722503 -0.10765413
000290 36 6a 0f bc a9 83 71 3c a5 7f 3d 3d 6b f5 21 3d
       -0.00875335 0.014740863 0.04626431 0.03954069
0002a0 79 c9 91 3c 34 b9 87 bd fc 1c 2b 3e 42 18 88 3c
       0.017796265 -0.066271216 0.16710275 0.01661313
0002b0 c9 9e 20 bd 15 57 83 bd 75 17 d4 38 77 0f 9e 3d
       -0.03921393 -0.06413094 0.00010113317 0.077177934
0002c0 00 37 94 3d bc 0b 3e 3d f8 dd e7 3b f8 bb 0d 3d
       0.07237053 0.04639791 0.0070760213 0.03460309
0002d0 aa 19 c5 3d 76 78 6c 3d c9 5f 75 3b 8e 0f 8b bc
       0.09624036 0.057732068 0.0037441126 -0.01697519
0002e0 e2 c1 93 3d af f1 a8 bd 6b 74 72 bd c7 9f d8 3c
       0.072147146 -0.082492225 -0.059193056 0.026443375
0002f0 65 e1 b0 3c b1 30 81 3d 41 bf 20 3d d5 24 0e 3d
       0.021591851 0.06308115 0.039244894 0.034703095
000300 39 4f 56 3c 31 55 85 3d 8b b0 d5 3d 49 f5 02 3e
       0.013080412 0.065103896 0.104340635 0.12788881
000310 cb de 41 be 7e 0d c3 bd 53 59 e2 bd de db e0 3b
       -0.18932645 -0.09524058 -0.110521935 0.0068621477
000320 26 59 e1 bc c8 4a 19 be c6 2d 4a 3e 06 5f c8 bd
       -0.02750833 -0.14969933 0.19744024 -0.09783749
000330 72 c9 52 3c 08 22 a4 bc 64 ba 0d be 51 aa 23 bd
       0.012865411 -0.020035759 -0.13840634 -0.03995735
000340 2e 02 b5 bd a0 3d 84 3d a7 db 33 3e 83 70 c7 bc
       -0.08838306 0.064570665 0.1756426 -0.024345642
000350 c0 a3 24 be 77 e3 60 bb 25 93 66 3c 38 16 2c 3e
       -0.1607809 -0.0034315267 0.014073168 0.16805351
000360 17 a3 9f 3d 43 b6 49 be 68 b2 40 ba 36 ab 37 3e
       0.07794779 -0.19698434 -0.00073508034 0.17936406
000370 5d 90 05 bd 76 2f ac 3d 0e 75 dc bc 5c c7 6f 3d
       -0.03260838 0.0840749 -0.026911285 0.058539733
000380 88 e0 2b bd 9f 86 80 bd 4c 50 80 bd 77 b3 56 3e
       -0.041962177 -0.06275677 -0.062653154 0.20966898
000390 e5 2f c8 bd 17 d4 4b 3c d7 eb 30 3d fb c0 60 be
       -0.0977476 0.012440703 0.043193664 -0.21948616
0003a0 c5 67 e1 3d 2a 95 de 3c c9 c9 29 be ce b6 40 be
       0.110061206 0.027170736 -0.16580881 -0.18819734
0003b0 da 1d 78 bd b9 9b bd 3c b0 61 f0 3d 68 bb 31 3d
       -0.060575344 0.023145543 0.117373824 0.043391615
0003c0 00 6a 34 3b f0 e2 f8 bd 3d a2 68 3c 37 be 87 3d
       0.0027529001 -0.1215266 0.014198837 0.066280775
0003d0 7c 6c 1d 3e a5 5b ee 3c e9 6f f4 bd 54 95 a9 bd
       0.15373415 0.029096434 -0.11935408 -0.08280435
0003e0 47 c7 83 bd 8d 61 b5 3c 2b d5 3c bb 45 8d 3e 3b
       -0.064344935 0.022141242 -0.0028813581 0.0029075902
0003f0 ce 74 d6 3d bf 3f 04 3e bb 25 44 3e 1e f4 d8 bc
       0.104714975 0.12914942 0.19155018 -0.026483592

gru.bias_ih_l0 f4 [192]
000000 79 92 a7 bd 0b 4b db bd d8 ee 1d 3d 4e e6 fd 3d
       -0.08182234 -0.10707673 0.038557857 0.12397443
000010 d0 28 1b 3d 6a 7b 63 bc 8d 87 a9 bb d1 a1 83 bd
       0.03788072 -0.013884405 -0.0051736296 -0.064273484
000020 35 19 9f 3d 24 89 db 3d 78 ed 87 bc 79 fa 47 bc
       0.0776848 0.10719517 -0.016592726 -0.012205713
000030 20 3c ab 3d 92 d7 10 bd 85 72 8a 3d eb a7 ef 3d
       0.08361077 -0.035361834 0.06760124 0.1170195
000040 e1 c3 b6 3d 6f 2f c1 bc e4 07 5f 3d 30 3d 6a 3b
       0.0892408 -0.023582188 0.054450884 0.0035742037
000050 4a 29 e7 bc 07 c3 b1 3d b2 c9 0a bd 1f fd 33 3c
       -0.02821793 0.08679777 -0.033883758 0.010985642
000060 42 02 09 3e 8e 55 e9 3d 02 0a d4 bc 6f b0 91 bd
       0.13379768 0.113932714 -0.025883678 -0.0711373
000070 45 eb ca 3d 39 c9 e5 3d 49 e2 51 3d b6 d6 c8 3d
       0.09908155 0.11220021 0.051241193 0.09806578
000080 42 ea 39 bc b7 2d ef 3d 27 30 40 3d 45 f4 4c 3d
       -0.011347355 0.11678641 0.04692092 0.05003764
000090 c1 f9 8a 3b 90 c7 29 3e 6f 1a 39 bc f0 39 47 3c
       0.0042411988 0.16580033 -0.011297806 0.0121598095
0000a0 78 b0 18 bd 1a 68 8c bb c0 fa 85 bd 11 b2 b9 3d
       -0.03727767 -0.004284871 -0.065419674 0.090671666
0000b0 42 c1 ea 3d 7b cc c7 3d ba 3e b9 3d ab a1 41 3d
       0.11462642 0.097557984 0.09045167 0.04727332
0000c0 38 c3 63 3c 32 d7 a0 bb 29 11 bb bd 97 67 17 3e
       0.013901524 -0.004908466 -0.091341324 0.1478561
0000d0 5b 7f 6e bd 7d 7d c7 3d a5 bc c3 3c 76 03 a1 3d
       -0.058226924 0.09740732 0.023893664 0.07861988
0000e0 77 85 5c bb 29 e2 5f bc 64 fa f4 3d e7 f3 40 3d
       -0.0033648887 -0.013664761 0.11961821 0.047107603
0000f0 c4 a8 e1 3c 7d 75 a5 3b 7b 89 52 3c 88 9b a3 3d
       0.027546294 0.005049406 0.012850161 0.079886496
000100 3c 96 be 3c 42 70 8e 3d e7 48 39 3e 30 1e 16 3e
       0.023264997 0.06955005 0.18094216 0.14659953
000110 e7 85 df 3a 02 8d 28 3d bc 24 b4 bc 20 8e 96 3d
       0.0017053456 0.0411501 -0.021990173 0.07351327
000120 71 05 48 3e 24 ac d9 3d 27 8a 11 3e da 75 7e 3e
       0.19533326 0.10628536 0.14212857 0.24849644
000130 f9 80 ab bd df d5 92 bc 33 c6 73 bb 48 d8 46 3e
       -0.08374209 -0.017924247 -0.0037196993 0.19418442
000140 00 33 25 bd 5e 65 cd 3c c2 b9 53 bc e5 f4 08 be
       -0.04033184 0.02507275 -0.012922706 -0.1337467
000150 18 82 a1 3d c9 63 25 39 b7 19 56 bd da 52 2f be
       0.078861415 0.00015772799 -0.052270617 -0.17121449
000160 e2 6a 56 3d bc 70 1d 3e 8b d9 cc bd 72 79 f0 3d
       0.052348025 0.15375036 -0.100024305 0.11741914
000170 ef ee db 3c 5f ce 53 bd 3a 80 9e 3c 87 2e e5 3d
       0.02684733 -0.051710483 0.019348253 0.11190515
000180 d8 08 66 3d 39 ed a3 bd 16 78 b7 bd 25 69 3e 3d
       0.056160778 -0.08004231 -0.089584514 0.046486992
000190 55 20 3b 3e 58 ab 2b 3d 5d 6f 48 3c 4e 8b 99 3d
       0.18274052 0.041911453 0.012233582 0.074972734
0001a0 fe 04 4f 3e da 6b ab 3c 54 00 1c 3e bd bb 2b 3c
       0.20216748 0.020925451 0.152345 0.010481772
0001b0 d9 04 8a bc 27 ef 9a 3d a4 12 8e 3d c0 d6 c7 3d
       -0.016848015 0.07565146 0.06937149 0.09757757
0001c0 4f fe 0a 3e 69 1e b8 bd 80 d1 3c 3d f7 7e 84 bd
       0.13573574 -0.08990175 0.046098232 -0.06469529
0001d0 15 2a 2b 3e 46 6c a4 bd b2 71 ef 3d c1 4a d5 3d
       0.16715272 -0.08028464 0.116916075 0.10414649
0001e0 a3 09 9d 3d 22 4e 91 bd 81 55 13 3e 03 55 08 3e
       0.07667854 -0.07094981 0.14388086 0.1331368
0001f0 36 7d 0d 3e 32 e2 a8 bd 8e 5b 1a 3c 55 cf 9f 3d
       0.13817295 -0.08246268 0.009421242 0.07803217
000200 91 a9 ef bd fb 0f ee bd a2 bc aa 3d 75 75 00 3c
       -0.11702264 -0.11624142 0.0833676 0.007840504
000210 55 83 b1 bd 23 7e 21 bd 3c af 92 bd eb ce 2a bd
       -0.08667628 -0.039426934 -0.071623296 -0.04170124
000220 31 02 79 bd c2 6a 00 be aa 98 c5 bd 05 2b df bc
       -0.060793106 -0.12540725 -0.09648259 -0.027242193
000230 f1 3d 5d 3d 31 7e cf 3d 42 a4 76 3d 1e 03 e6 bd
       0.05401415 0.10131491 0.060215242 -0.11231063
000240 fe 5c 01 be fb 96 83 3a f3 ad 05 3e 19 37 71 bd
       -0.1263313 0.0010039503 0.13054638 -0.058890436
000250 6d a0 c3 3d be cf 58 3d a1 8f f1 3c c6 cb f9 3d
       0.09552083 0.052932493 0.029487433 0.1219707
000260 11 8e cb 3d f8 4f 4e bd 02 14 e3 3c 2e 40 8a 3d
       0.099392064 -0.050369233 0.027719501 0.067505226
000270 33 b6 5a 3d 69 ea ae 3c 61 9a e1 bd 7d 6b b1 3d
       0.053396415 0.02135201 -0.110157736 0.0866308
000280 89 33 8c bd 2e 5c a9 bc 57 90 98 3d 95 62 bd bd
       -0.06845767 -0.020673838 0.07449406 -0.09247319
000290 e3 a2 91 bd 4c 07 a2 3c 07 1d 59 bd 75 ee d1 bd
       -0.07111146 0.01977887 -0.0530062 -0.1025056
0002a0 77 a4 51 bd b5 9d fe 3b c4 38 af 3c b3 9f d1 bd
       -0.051182237 0.007770265 0.021389373 -0.10235538
0002b0 ad f6 fc 3d 92 ab e1 3c 5c 12 8f 3d ba f6 1d 3e
       0.12351737 0.027547631 0.06985924 0.1542615
0002c0 6b 28 0e bd bd e0 35 3d 46 eb 90 3d 01 22 0c 3d
       -0.034706514 0.04440378 0.07076125 0.034212116
0002d0 cc 0a fb 3c 50 5a d3 bd 27 df 8b 3b c5 ff 9a bb
       0.030644797 -0.1031996 0.004268545 -0.004730197
0002e0 84 7e 93 3c 46 ed 58 3d cd 08 e8 bd 0b 2d e0 3d
       0.018004663 0.052960657 -0.113298036 0.10946091
0002f0 81 4f 86 bd 7b 4f dd 3c 48 61 6a 3d dc c1 c8 3c
       -0.06558133 0.027015438 0.05722168 0.024506502

gru.bias_hh_l0 f4 [192]
000000 ed dc d8 3d 5e 76 7a bd 08 9d 62 bd 82 11 78 bd
       0.10589013 -0.06114804 -0.055325538 -0.06056357
000010 1d 44 27 3e c7 97 9d 3d 05 c2 1e bd 84 7c ee 3c
       0.16334577 0.07694965 -0.03875925 0.029112108
000020 c0 91 e9 3d da 6c ae bd 4b e4 c4 3d a2 c8 fc 3d
       0.11404753 -0.085168555 0.09613856 0.12342955
000030 40 1b d1 3d a3 8e 98 3d 56 bf 9c 3c 69 7a 2d bb
       0.10210276 0.07449081 0.019134205 -0.0026470667
000040 a2 90 b1 3d 0c ae 10 3e ad 46 3e 3d f0 f7 d5 3c
       0.08670165 0.14128894 0.04645412 0.026119202
000050 9d 4c 84 3d 4d 2e 1b 3e a3 e8 9c bd 60 f6 44 3d
       0.06459925 0.15154381 -0.076615594 0.048086524
000060 5d 6a 2b 3e f9 3e 5c bc 85 cd 01 3e b5 1e 19 bd
       0.16739793 -0.013442748 0.12676056 -0.0373828
000070 f9 12 8b bc f6 bb e4 3d 31 58 0a 3e 04 39 34 3d
       -0.01697682 0.11168663 0.13510205 0.043999687
000080 ce 18 8d 3d 39 a9 0e bd 43 a2 e1 3d ff 24 6c bc
       0.06889497 -0.034829352 0.11017277 -0.014413117
000090 2d cf b5 bd 72 5e 46 3d 59 a6 45 3c 34 6c 07 3c
       -0.08877406 0.048429914 0.012063586 0.008265544
0000a0 55 82 8c bd 93 7f 48 3d f4 75 85 3d fa 71 91 bc
       -0.06860796 0.04894979 0.065166384 -0.017754544
0000b0 b0 9a e8 3d 51 7a aa bd 2b bf 25 bd 12 82 ac 3d
       0.11357629 -0.08324111 -0.040465515 0.084232464
0000c0 46 b0 f6 3d 3d b6 36 3d c2 74 e5 bc 3d e4 d8 3d
       0.1204534 0.04460739 -0.028009776 0.10590408
0000d0 c7 f5 f7 3d f6 22 90 bd f0 92 00 bd 47 66 1b 3e
       0.12107425 -0.07037918 -0.03139013 0.15175734
0000e0 5c 6b 70 bd e3 42 8f bc ca 6f 39 bd f4 8b c1 bb
       -0.058696136 -0.017487949 -0.045272626 -0.0059065763
0000f0 c4 be 89 3d ff 7d 99 3d 7c 6d 8d bc f8 86 95 bd
       0.06725839 0.07494735 -0.01726412 -0.07301134
000100 a4 ff f7 3b 6f c0 a6 bc ef de 90 3e 44 b8 01 ba
       0.0075683165 -0.020355431 0.28295085 -0.0004948417
000110 76 d3 dd bd dc 41 9d 3d e7 ff 81 bd 94 fc 09 bc
       -0.108313486 0.07678577 -0.063476376 -0.008422036
000120 84 b1 1d 3e bf a6 53 bd db c9 d3 b9 3d c8 7f 3e
       0.15399748 -0.051672693 -0.0004039545 0.24978729
000130 e9 8b b5 3d ee 15 e7 bd 3d 56 4f 3e f5 11 33 3e
       0.08864576 -0.1128348 0.20247741 0.17487319
000140 34 db b4 bd c0 e7 8b 3d 26 7d 8f 3c 04 9a c1 3a
       -0.08830872 0.06831312 0.01751573 0.0014770632
000150 9c ab 8f bd c5 07 ee 3b 15 b5 25 be c9 c2 ec bd
       -0.07015154 0.00726411 -0.16182359 -0.1156059
000160 a2 8b 10 3e 04 be 76 3c 8e 81 56 3d 81 dd f0 3d
       0.14115766 0.015059952 0.052369647 0.117609985
000170 93 42 1b bd 09 26 11 3c b6 18 9d 3c e7 b5 66 3e
       -0.037905287 0.008859166 0.019176822 0.22530328
000180 b0 68 43 bd f3 7a 9b 3d ab 72 6a 3b 84 dd 60 3d
       -0.04770726 0.0759181 0.0035773914 0.054898754
000190 5b 1d a2 bc e6 29 4e 3e 2f 47 19 bd fb 01 83 3d
       -0.019789388 0.2013317 -0.0374214 0.06396862
0001a0 2c 82 c0 3d ef fd 5e 3e 0b 0d e0 3c 86 a8 ea bd
       0.09399828 0.21776555 0.02734997 -0.114579245
0001b0 ae 39 99 3d a8 b6 bd 3d fd 01 97 3d 68 25 f3 3d
       0.07481705 0.092633545 0.07373426 0.11872369
0001c0 59 80 7f 3c fc 72 82 bc b7 5e 0d be 77 cc 5b bd
       0.015594565 -0.01592397 -0.13805662 -0.05366179
0001d0 a5 20 b5 3d b2 97 8b 3d b4 30 cd 3d 3e 93 14 3e
       0.08844117 0.06816043 0.10019055 0.14509293
0001e0 a2 12 9d 3d 65 74 17 bd d4 b1 c1 3d 2b 0b 5b bd
       0.076695696 -0.036976237 0.09457746 -0.053477447
0001f0 d4 44 2f bd 38 df a5 bd 50 ad 16 3e 27 75 1a bd
       -0.04279025 -0.08099216 0.14714551 -0.03770938
000200 76 c1 43 3c c9 34 b2 3c 14 8c 00 3d c3 a0 60 3c
       0.01194798 0.021753686 0.03138359 0.013710204
000210 52 fe ab 3d b2 82 e9 3d e3 bd 17 bd 5d 14 39 3d
       0.08398117 0.11401881 -0.037046324 0.045185436
000220 67 45 95 3d 33 d2 a3 3d bd d9 c9 3d 71 d6 ad bd
       0.07288628 0.07999077 0.098559834 -0.08488167
000230 b1 a1 44 bd af 89 c7 bc a7 c2 0f 3d 32 fb 31 3c
       -0.048005763 -0.024357645 0.035097744 0.010863112
000240 8f b5 03 be 1c 22 0c be 2e b7 05 3e 30 7b 1e bd
       -0.12862228 -0.13684887 0.13058159 -0.0386917
000250 85 b6 b4 bc bf 1b 2b bd 62 73 74 3d c7 5f 8f 3d
       -0.022059688 -0.041774508 0.05968035 0.0700069
000260 84 9b 89 bd 85 4d ca 3d 54 bd 1a bd fe c5 eb bd
       -0.067191154 0.09878067 -0.037778214 -0.115123734
000270 82 26 13 3c fb 63 2f 3d b3 ee 86 3d a3 d2 8c 3d
       0.008981349 0.04281996 0.06588497 0.06876113
000280 b8 f7 13 3d 11 40 e1 3b 97 7c a5 3d 0e eb 84 3d
       0.036124915 0.0068740924 0.08080404 0.064901456
000290 bb 9a 23 3b 31 b5 8a bd f0 4d a9 3c e8 dc 92 3d
       0.0024964053 -0.06772841 0.020667046 0.07171041
0002a0 ac 8f 11 3c 84 7d 26 3c b9 6b 60 3b 4d 9a a1 bd
       0.008884352 0.010161761 0.0034243895 -0.07890759
0002b0 4f 5c 17 bd c6 53 f9 bd 31 51 82 3d c2 b3 11 bd
       -0.036953267 -0.12174182 0.06363142 -0.03557182
0002c0 26 d9 ce bd 86 ec ab 3d 10 20 f5 3c 4c 6b fb bd
       -0.101000115 0.08394723 0.029922515 -0.12276325
0002d0 35 0c e0 bd b4 26 94 3d 9c 4f 0f bd cd 58 98 bd
       -0.10939828 0.072339445 -0.03498803 -0.074388124
0002e0 a1 73 03 3e fb dc 4f 3c a3 99 37 3d 69 94 94 bd
       0.12837078 0.012686963 0.044824254 -0.072548695
0002f0 1f 8f 95 bd d8 d1 dc bd a2 e0 f1 3d 47 de fd bc
       -0.07302689 -0.10782212 0.118104234 -0.03098978

gru.weight_ih_l0_reverse f4 [192, 6]
000000 d6 28 d4 bd ab 0b 16 bd 96 d2 9b 3d c1 ee a2 3d
       -0.10359351 -0.03663222 0.076085255 0.07955695
000010 0a 73 1b be 03 eb ca bd c6 5a bf bd da bd 07 be
       -0.15180603 -0.09908106 -0.093434855 -0.13256016
000020 ca 35 7e bd b1 a1 0c bd 50 7a 18 3c e8 64 06 3e
       -0.062063016 -0.03433389 0.009306505 0.1312443
000030 f3 a2 d1 3c 95 7c 97 3d 4e 88 fd 3d 10 cf 17 be
       0.025590396 0.07396809 0.12379514 -0.14825082
000040 b6 2c 88 bc 40 6a 0e 3e 32 70 0d 3e 46 58 33 3d
       -0.016622882 0.13907719 0.1381233 0.043785356
000050 95 97 12 3d a0 05 01 3e 8b 47 42 3d bc 06 e1 3c
       0.03578909 0.12599802 0.04743151 0.027469032
000060 cb 64 d3 bd f7 bd 74 be 1d 72 9d bd 45 a4 54 bd
       -0.10321959 -0.23900591 -0.07687781 -0.051914472
000070 1c 32 ca bd 13 c2 a8 3d d2 fe ec bd 9c 99 2d be
       -0.09872839 0.08240142 -0.115720406 -0.16953129
000080 0a 11 9d bd b2 39 2f 3d 63 95 85 bb 3f 6d 54 3c
       -0.076692656 0.042779632 -0.004076646 0.012965499
000090 70 85 bd bc 02 6d 64 be 63 e9 6d bd 3f f7 e2 3d
       -0.023134917 -0.22307208 -0.058083903 0.11082315
0000a0 6e d9 83 bd 1a 07 b4 3b cd f0 4c 3d c5 20 4c bb
       -0.06437956 0.0054940106 0.050034333 -0.0031147462
0000b0 76 f6 9d 3d 7f 34 69 3d bb 5f 89 3c be 11 a1 bc
       0.07713024 0.05693483 0.01676928 -0.01966178
0000c0 d8 45 dc bd 38 67 e4 bd c7 71 f5 3d 60 28 5c bd
       -0.10755509 -0.111525 0.11984592 -0.053749442
0000d0 ce 08 03 be 00 ba 10 3e 35 5c f9 bd 89 29 b3 3d
       -0.12796327 0.14133453 -0.1217579 0.087481566
0000e0 37 af 07 be c0 82 41 bd 49 2f dd bc 41 8e 40 3d
       -0.13250433 -0.047243834 -0.027000086 0.047010664
0000f0 0a c8 2d be 5f fc e1 bd cb 50 44 bb e9 c6 95 3d
       -0.1697084 -0.11034464 -0.0029955383 0.0731333
000100 6d 88 71 be c9 b4 32 bd db 99 11 3d 76 3a 94 3d
       -0.23587199 -0.04362944 0.03554712 0.07237713
000110 be 35 d0 bd 9b 18 f6 3d 52 39 60 bd 28 4e 21 3e
       -0.101665005 0.12016412 -0.054742165 0.1575247
000120 10 2a ed bc 0f b9 90 3d 26 35 99 3d 8c 7f e6 3c
       -0.028950721 0.07066547 0.074808404 0.028136991
000130 34 64 bd 3d 6d f9 a9 bc 6c cb d0 bd a4 21 c0 bc
       0.09247628 -0.020748818 -0.1019505 -0.023453541
000140 87 a8 1d 3e 23 1f 52 bd 39 74 34 bc 02 8f 1e 3e
       0.1539632 -0.051299226 -0.011014038 0.1548424
000150 1b 54 fb bd d6 42 a2 bd 89 90 83 3b a8 d0 5e 3d
       -0.12271901 -0.07922904 0.0040150327 0.05439821
000160 7e df 0b be 5b 84 e9 bc 97 5d 3d 3c 67 30 72 bc
       -0.13659474 -0.028505495 0.011557958 -0.014782048
000170 c7 b5 29 3d 09 f8 b6 3d ae c6 ee 3b ee 6e 94 3d
       0.041433122 0.08934028 0.007286868 0.07247721
000180 fd b0 0b be cd 27 01 be ea cf 9a bd fe 37 0b 3e
       -0.13641734 -0.12612839 -0.07559188 0.13595578
000190 9a b1 83 bd db 4b 82 bc d4 35 60 3d 09 e7 da 3d
       -0.06430359 -0.015905311 0.054738835 0.10688598
0001a0 6c 59 10 3e 58 eb 91 3d 1d 21 b3 bd 7f 41 80 3d
       0.14096612 0.071249664 -0.0874655 0.062624924
0001b0 8a c6 3b bc 34 e9 1b bd 42 66 2a bd a0 4f a4 bd
       -0.01146091 -0.038064197 -0.041601427 -0.08023
0001c0 8e bb e6 bd e0 d5 ad bd a5 70 9a bc e5 f7 5c be
       -0.11266242 -0.08488059 -0.018852541 -0.2157894
0001d0 f1 60 5e ba 36 46 11 3d 89 fd b3 bd a0 ce c0 3d
       -0.00084830733 0.03546735 -0.08788592 0.094144106
0001e0 a3 e9 aa 3d e4 46 42 3d 05 a5 91 bd 0a 08 da 3c
       0.08345344 0.047430888 -0.07111553 0.026615161
0001f0 f8 c1 0b be 6a bc 36 be 7b 2a 37 be ce 81 67 be
       -0.13648212 -0.17845312 -0.17887299 -0.2260811
000200 f1 bc 0f 3c d5 f5 dd 3d ee 8c 4c be a9 29 f2 3d
       0.0087730745 0.10837904 -0.19975635 0.11824352
000210 43 22 1a 3d 22 0c 89 bd 52 5d 43 be 76 e6 e2 3d
       0.03763033 -0.06691767 -0.19078568 0.11079113
000220 d3 85 42 3c 50 19 00 bd 78 68 f4 bc 48 a6 2b 3c
       0.0118727265 -0.03127414 -0.02983497 0.010476656
000230 60 c0 ec 3c 90 84 30 3e 78 a9 80 3d d9 d9 d7 bc
       0.028900325 0.17238069 0.062823236 -0.026348995
000240 08 0d 01 3d d7 f8 b2 bd cf 76 90 3c fd 46 d0 bd
       0.03150657 -0.08738869 0.017634777 -0.1016979
000250 de 90 9c bd 2f 2b 8b 3d 0d 7a 10 bd 7a 9e 4c 3c
       -0.07644819 0.06795346 -0.035272647 0.012488956
000260 83 2d e0 bb 31 1c 3e bd c0 62 1f 3c d2 be 05 3e
       -0.006841363 -0.046413604 0.009728134 0.13061073
000270 b7 e4 6f 3d d2 d0 9d 3d 60 77 fb bd d7 4d c2 bb
       0.05856773 0.07705845 -0.12278628 -0.0059296894
000280 6c 76 3e bb c2 8a aa bc ca d0 85 3d d3 f6 a8 3c
       -0.0029062284 -0.020818118 0.06533964 0.020625507
000290 d0 bc b1 bd 8f f4 2d bd 6f 7b a8 3c 8c fa 0b bd
       -0.08678591 -0.042469557 0.02056667 -0.034174487
0002a0 ee 1d 77 bd db 5c 10 be 5d 41 cd 3d 10 b0 0d bc
       -0.060331278 -0.14097922 0.10022233 -0.008647934
0002b0 ae 29 08 3d d8 cf 70 3d 0e 97 c0 3d ae a8 9c 3d
       0.033242874 0.058791965 0.094038114 0.076493606
0002c0 4a b0 f0 3d e2 be ad bb 46 25 7d bd 28 78 ed bd
       0.117523745 -0.005302296 -0.061803125 -0.115951836
0002d0 47 50 33 3d 8a 5f c5 bc 7f 23 b3 3d b8 e4 85 bd
       0.04377773 -0.024093408 0.08747005 -0.06537765
0002e0 4d ea a1 3d bf c3 18 3e 66 2c 2e be df b1 eb bd
       0.079060175 0.14918421 -0.17009124 -0.115085356
0002f0 9c 84 74 3d 44 3a a9 3d d1 0b 0d be a3 58 24 3e
       0.05969678 0.082630664 -0.13774039 0.16049437
000300 7e 2b 7d bd ec 6b aa 3c f6 dd 64 3d cc 9d 69 bd
       -0.061809056 0.020803414 0.05587574 -0.057035252
000310 4d 49 97 3d cf 3c 13 be 7c 1b 6b bd cd ce ac bc
       0.07387028 -0.14378665 -0.057399258 -0.021094704
000320 18 4f 40 bd ec 02 bd bd 73 c3 e7 bd 84 c7 0d bd
       -0.04695043 -0.09229073 -0.11316576 -0.0346141
000330 af e1 1a 3e 6d 7f 9a 3c d4 0c c6 3d 62 3b e4 3d
       0.15125154 0.01885959 0.096704155 0.11144139
000340 f1 88 f6 bc d9 bd 85 bd f1 17 91 3c f9 27 33 3c
       -0.030094596 -0.06530351 0.017711611 0.010934823
000350 2b 6e 7e bb 6f 9d 61 3d e5 94 ff bd 4f 8f 14 bd
       -0.003882299 0.05508178 -0.12479571 -0.036269482
000360 96 f1 03 3d d8 01 e9 bd 6e dd 9f bd 49 1c 7c bd
       0.032212816 -0.11377305 -0.07805906 -0.061550412
000370 08 ca 2d 3d 3f aa 48 3d 5a 15 85 3d ef 4b f3 bc
       0.042429 0.048990484 0.06498213 -0.029699294
000380 94 5d ce bd 1f ac 47 bc b1 dc 4d bd 11 d3 bb bc
       -0.10076442 -0.012187033 -0.050259296 -0.022927793
000390 2c 80 d3 bc ca b0 85 bd 03 2f 8d 3d 5f ec fe 3d
       -0.025817953 -0.065278605 0.068937324 0.12447428
0003a0 c1 95 ad 3d 14 8c 23 bd cb ec 4e bd a5 66 06 bd
       0.08475829 -0.03992851 -0.050518792 -0.032812733
0003b0 6e d2 0f 3c c2 e8 9c 3d 63 01 21 be af b9 9e 3d
       0.008778198 0.076615825 -0.15723185 0.0775026
0003c0 52 f5 ac 3c 1c 62 75 3c fb ce 6c be c1 62 91 bd
       0.021113072 0.014977004 -0.23125832 -0.07098914
0003d0 e8 7c 76 be d9 f8 a8 bd 01 42 db bd d9 0e 5f 3d
       -0.24071085 -0.08250589 -0.107059486 0.05445752
0003e0 89 bc 36 bd 04 0d 03 3e f2 bb 68 3d 26 69 23 3e
       -0.044613395 0.12797934 0.056819864 0.1595808
0003f0 3a 4e 10 be ca 73 e9 3d ac e6 56 bb 96 65 92 3d
       -0.14092341 0.11399038 -0.00327913 0.07148282

gru.weight_hh_l0_reverse f4 [192, 64]
000000 2b b2 8b 3d de 26 e9 bd 0b d4 45 3e 54 5a 70 3d
       0.06821092 -0.113843665 0.19319169 0.058679894
000010 4c 2a a9 bd 0d 1a a0 39 ca 96 56 3d 44 77 b3 3d
       -0.082600206 0.00030536987 0.052389897 0.087629825
000020 01 f1 75 bd 9f 77 b6 3d 17 2e f5 3d 9a 80 b1 3d
       -0.060044292 0.08909535 0.119716816 0.08667107
000030 55 ba b2 bb ea 48 8f 3c f3 d2 db bd 99 96 99 bd
       -0.0054543414 0.017490823 -0.10733595 -0.07499427
000040 3d e4 26 be c2 a4 15 be 05 ce 3b 3d ff 44 8c 3d
       -0.16298003 -0.14613631 0.045850772 0.068490975
000050 68 57 37 3d 82 b1 b0 bd 0f 04 ff 3b 50 da 7c bd
       0.04476109 -0.08627607 0.0077824662 -0.061731637
000060 6c 3c 8d 3d a7 f9 92 bd 96 9c ab bd 9e 7b 83 bd
       0.0689629 -0.07176524 -0.08379476 -0.064200625
000070 0d c3 fa bc 91 13 9a bb 33 b2 89 bd 1d f8 54 bd
       -0.030610586 -0.0047020395 -0.06723442 -0.05199443
000080 a0 7f 47 3d 13 31 97 bd bb 66 6d 3d 12 20 80 bc
       0.048705697 -0.07382407 0.0579593 -0.015640292
000090 04 aa 0b be a1 65 92 3d ab 0e 95 3d 68 d7 30 3d
       -0.13639075 0.071482904 0.07278188 0.043174177
0000a0 41 1a a2 bd 65 31 fe bc d3 20 ac bd 2a 16 aa 3c
       -0.07915164 -0.031029413 -0.08404698 0.020762522
0000b0 bd 42 ba 3d c1 62 6b bd 2e 38 cb bb e7 d3 7a 3c
       0.090947606 -0.057467226 -0.0062017655 0.0153093105
0000c0 6c f8 9f bd af eb 85 3d ec ad 27 3d d1 93 7a bd
       -0.078110546 0.06539094 0.04093735 -0.061176125
0000d0 ac 7e 03 3c b4 e1 4f bc 7b 6e e4 3c 48 c4 ac 3c
       0.008025806 -0.012688089 0.027884712 0.021089688
0000e0 da 19 2b bc a8 35 01 3e d9 b6 d7 3c c2 88 22 bd
       -0.010443175 0.12618124 0.026332306 -0.039681204
0000f0 1b 8d f3 bd 1c fd 64 bc 47 d4 f1 bd c3 04 01 3e
       -0.11892148 -0.013976362 -0.11808067 0.12599473
000100 92 af 06 3e df 40 be bd d7 c1 44 bc fa ce 81 3d
       0.13152912 -0.09289717 -0.012009106 0.06338306
000110 af e3 f5 bc a6 b2 44 bd 4c 4a 14 3e 31 61 1d 3d
       -0.030015795 -0.048021935 0.14481467 0.038422767
000120 5f 88 05 3e 9c e9 cd bd aa b4 a8 3d 73 d8 c8 3d
       0.13040303 -0.10054323 0.08237584 0.098069094
000130 ef 6c 97 3d c5 73 77 bd 47 5e f2 3d d6 7b e0 3d
       0.07393824 -0.06041314 0.11834388 0.1096112
000140 bf 0f 23 be bc 2e 40 3d ec 6a b2 bc da b9 8c bd
       -0.15923975 0.04691957 -0.0217795 -0.06871386
000150 93 ad 89 bd 2a 0d f1 bc 0a 02 30 3d 29 8b 62 bd
       -0.0672256 -0.029425222 0.042970695 -0.055308495
000160 b2 8c 37 bd cd 7d 60 bd 99 b4 c9 3d de 79 fa bd
       -0.044811912 -0.054807473 0.098488994 -0.122302756
000170 75 8b c5 3d 72 ae ba bd f8 75 19 bd 93 87 a2 b9
       0.0964574 -0.09115304 -0.03746602 -0.00031000059
000180 c9 9d e2 bd 93 d1 b1 bd ac 8c 88 bc f3 38 db bd
       -0.110652514 -0.08682551 -0.01666864 -0.107042216
000190 ef 8a 2b bc 50 e1 51 bd 38 df 3a bd 83 9e ad bd
       -0.010470136 -0.051240265 -0.045623034 -0.08477499
0001a0 be e7 90 3d f0 bb f7 3d bd 30 9b bc 00 37 33 be
       0.07075451 0.12096393 -0.018944139 -0.1750145
0001b0 81 fe 72 3d 04 f0 cd 3c 97 b5 94 3d c4 bd 17 be
       0.059324745 0.025138862 0.07261198 -0.14818484
0001c0 11 37 63 3d b9 b8 8c 3d 46 d9 9e bd 1c 72 e0 3d
       0.055472437 0.068711706 -0.07756285 0.10959265
0001d0 17 86 ac 3d 48 a9 71 3a 0f 6d 70 3d 18 13 02 3e
       0.08424013 0.0009218645 0.058697756 0.12702596
0001e0 0a b5 c0 3c 34 d4 1d be 03 7e a7 bd 2f 3b 88 3b
       0.023523826 -0.1541298 -0.08178332 0.004157446
0001f0 60 82 48 bd c7 14 9e bc 21 f0 60 bb 6b 92 2c bb
       -0.04895246 -0.019297017 -0.0034322815 -0.002633239
000200 99 27 63 bd b7 d1 ea bd 47 32 e3 3c c3 c0 00 be
       -0.055457685 -0.11465781 0.027733935 -0.12573533
000210 66 6b 1a 3e 83 11 84 3d 70 41 99 3d 7b 3b c7 bd
       0.15080032 0.064486526 0.07483184 -0.09728142
000220 d4 ff ee 3c 7f 73 d2 3c 2c 00 80 3d 68 bf d1 bd
       0.029174723 0.025689838 0.06250033 -0.10241586
000230 e9 26 1d be bd e2 c5 bd 7e 6d e5 3c f5 e1 35 bd
       -0.15346874 -0.096623875 0.028006312 -0.044404943
000240 f9 06 13 be c3 f6 40 be f5 18 8f 3d 7e fe 1f bc
       -0.14358129 -0.18844132 0.06987182 -0.0097652655
000250 f7 11 b6 3d 0d a1 0d 3e 56 5b dd 3d a0 7c dd bd
       0.08890145 0.13830967 0.108084366 -0.10814786
000260 61 80 1c 3e f4 ce cd 3d ca 4b 34 3e f0 77 d9 bd
       0.15283348 0.10049239 0.17607036 -0.106185794
000270 b6 19 88 bd 16 a0 10 be 9a ff dd 3d be a2 b4 bd
       -0.06645529 -0.14123568 0.10839768 -0.08820103
000280 65 ca 39 3e 4b 02 98 bd d8 76 76 bd f0 4a 15 bd
       0.18143614 -0.07422312 -0.060171932 -0.03644842
000290 ae 3c 85 3b 99 85 db bd 0e 60 0c 3c a7 71 2d 3d
       0.0040660715 -0.10718841 0.008567823 0.042344715
0002a0 54 a5 d1 3d 44 48 ba 3d 0d 46 d2 ba 6f 16 d6 3c
       0.10236612 0.09095815 -0.0016042605 0.026133744
0002b0 28 c5 95 bd 14 46 49 bd c6 4d 64 3d ca 15 14 be
       -0.07312995 -0.049139097 0.055738233 -0.14461437
0002c0 2b 3b a0 b9 b8 25 64 bc 77 12 c3 3d 93 ab 8a 3d
       -0.00030561662 -0.0139250085 0.09525006 0.067710064
0002d0 a2 3b 93 3b 87 73 ae bc 18 eb e3 bd 06 31 2c 3e
       0.004493193 -0.021295322 -0.11128825 0.16815576
0002e0 00 18 d1 3d c3 6d e1 bd d0 e7 88 3d 29 45 0d 3e
       0.10209656 -0.110072635 0.0668484 0.13795914
0002f0 e0 4b 8d 3d c5 bf d2 bd e7 44 01 3c 43 b1 13 3e
       0.06899238 -0.102904834 0.007889963 0.14423089
000300 43 36 3e bc e9 13 d6 bd df ea 23 3d a2 85 97 bc
       -0.011609617 -0.10453016 0.040018912 -0.018496338
000310 ad f1 69 3d 96 9d 34 bc 23 3f 1e 3e 08 cf 54 bc
       0.057115246 -0.0110239 0.15453772 -0.012988813
000320 ac 2e 21 3d 6c e8 b3 bd ae b7 cb bd 1d f0 0c be
       0.03935115 -0.08784565 -0.099471435 -0.13763471
000330 07 48 88 3b 4f 09 8c bd 83 7f 10 3e 87 0d f3 bd
       0.004158977 -0.06837713 0.14111142 -0.118678145
000340 27 61 8d bd b5 4f 60 bd 91 cd e8 bd 67 20 5d 3d
       -0.06903296 -0.054763515 -0.11367334 0.05398598
000350 21 5c a8 3c 4b 44 2d 3e 7b 2e 19 3c a0 e5 15 bc
       0.020551743 0.16920583 0.009349461 -0.009148985
000360 85 ef be 3d d1 da ba 3d db 1b e5 3d 50 2a 94 bd
       0.093230285 0.09123767 0.11186954 -0.07234633
000370 81 6e fc bd 61 74 59 ba a9 0a 1c 3e 2a 69 82 3d
       -0.123257644 -0.0008295235 0.15238442 0.06367715
000380 84 69 dc 3d 44 88 72 bc 5c c9 d7 bc 6b 1a 04 bd
       0.10762313 -0.014802996 -0.026341133 -0.032251757
000390 cd 91 76 3d c1 dd 9e 3d 17 3d 54 bc d5 8b 20 be
       0.06019764 0.0775714 -0.012954018 -0.15678342
0003a0 ce 51 12 3e 25 4d ca 3c 43 d8 dc 3d 04 a9 8e 3d
       0.14289019 0.024694989 0.10783436 0.06965831
0003b0 7f d0 a9 bd 9b fd 0f 3d 95 2e 9b 3c fc 51 66 3d
       -0.082917206 0.035153966 0.01894311 0.05623053
0003c0 ff 83 2f 3a 70 22 93 3d 3a ce da bc cc 41 1e 3e
       0.0006695389 0.07184303 -0.026709665 0.15454787
0003d0 08 64 09 3c 8a 43 84 bd 0e 93 37 3e cb ab c6 3d
       0.008385666 -0.064581946 0.1792719 0.09700736
0003e0 3e a0 05 3e 5d b9 03 3d 96 3a 39 be 71 ee 36 3d
       0.13049409 0.032159198 -0.18088755 0.04466099
0003f0 da 4e f4 3d a1 60 08 be 21 d3 e1 bc 0a 83 37 bd
       0.11929102 -0.13318111 -0.027566494 -0.044802703

gru.bias_ih_l0_reverse f4 [192]
000000 db 8c 62 bc b1 ff 1e b9 52 3d a4 3d 62 a0 38 3d
       -0.013827528 -0.00015163307 0.080195084 0.045074828
000010 0e 03 d7 3d ea 25 a6 3d 24 f6 e3 3d 6b 82 ef bb
       0.104986295 0.081127 0.11130932 -0.007309248
000020 f5 55 15 bc 2c bc 25 3e f6 78 fe 3d 41 f5 e3 3d
       -0.009114732 0.16185063 0.12425415 0.11130763
000030 7f 9f 8b 3c bb 0d b5 bd 4d de a7 3d 71 55 c2 3d
       0.017043827 -0.088405095 0.081966974 0.09488953
000040 7b ec 1d 3e 81 95 29 3e 83 ae 41 3d 19 55 99 3d
       0.15422241 0.16560937 0.047285568 0.07486934
000050 ea c2 8c bd af 3b 71 3d fe d7 bd 3c ae 3b c8 3b
       -0.068731144 0.05889481 0.023174282 0.00611063
000060 7e 55 1f bd 45 05 c6 3c e5 cd 9d 3c d9 3d 12 3e
       -0.03889989 0.024172435 0.019263217 0.14281406
000070 46 c7 af 3c b2 99 c4 3c b1 77 11 3e fa 05 b1 3d
       0.021457326 0.023999069 0.14205815 0.08643718
000080 88 b2 0f 3d 8e 6e 74 bd 31 aa d4 3d cd 9b 97 bd
       0.03508237 -0.059675746 0.10384024 -0.074027635
000090 c9 2c 94 3d b7 30 e0 3c df 81 2c 3e db 21 d5 bc
       0.072351046 0.027366979 0.16846417 -0.02601712
0000a0 f2 d2 4c bd 13 90 40 bd 28 19 e3 3c 7b 4a 26 bd
       -0.05000586 -0.0470124 0.027721956 -0.040598374
0000b0 31 b9 d1 bd 01 ae 34 bd 6c b9 9f bd ac 5a f2 3d
       -0.102404006 -0.044111256 -0.07799038 0.118337005
0000c0 c0 7c c5 3b 68 77 54 3d f0 bc 18 3e 82 a1 62 bd
       0.0060268342 0.051871687 0.14915824 -0.055329807
0000d0 20 bb b9 bc 76 33 0f 3d 66 15 66 3c 78 6c 8a 3c
       -0.022672236 0.034961186 0.014043188 0.016897425
0000e0 3d 7d 4c 3c 4d ac 13 3e a1 b0 a0 bd cb 76 7b bd
       0.012481031 0.14421196 -0.07846189 -0.061392587
0000f0 e1 eb 68 bd c2 3d a8 3d 54 4e ff 3d 38 f4 9a 3a
       -0.056865577 0.08214904 0.12466112 0.001182205
000100 e2 5a 0b 3e e4 c8 5b 3c ee 00 02 3e d4 22 8a 3d
       0.13608888 0.013414595 0.12695667 0.06744924
000110 16 7d 95 bd cd 6b 73 3e 49 3f 6d 3d 1c 21 c0 3d
       -0.07299249 0.23771591 0.05792168 0.09381315
000120 ae 8c 3f 3d e6 8d af 3b b1 61 fa 3d d5 d9 07 3e
       0.046765022 0.005357492 0.122256644 0.1326669
000130 f4 b9 e1 3d 25 84 93 3d 93 de 3e 3e a1 27 17 3e
       0.11021796 0.07202939 0.18639593 0.14761211
000140 6b 78 62 3d 5e 4c 31 3e 53 c8 c0 3c 68 d8 d8 3d
       0.05529062 0.17314288 0.023533022 0.10588151
000150 2b 71 17 3e e3 bd 4c 3e fa 84 4e 3e 41 88 89 3d
       0.14789264 0.19994311 0.20167914 0.067154415
000160 33 46 1d 3e d6 f8 e6 3c 44 51 06 3b 08 a1 79 3b
       0.1535881 0.028194826 0.0020495215 0.0038090367
000170 94 8d e7 bc 8a e4 08 bd fa 13 cb 3d fa 90 90 3d
       -0.028265752 -0.033421077 0.099159196 0.07058902
000180 b9 63 00 3d 64 87 a2 bd 8c 1f f9 3d 55 0a 77 bc
       0.031345103 -0.0793598 0.1216422 -0.015078147
000190 85 e8 9e 3d ff 66 36 bc 37 67 60 3d 68 fd 20 be
       0.07759193 -0.011132955 0.054785933 -0.15721667
0001a0 2d 37 5f 3e 40 7b 44 3e 5d 84 60 3e df 4d 85 bd
       0.21798392 0.19187641 0.21925493 -0.06508993
0001b0 29 78 c8 3c 82 58 1a be 87 5e 21 3d f6 cc b8 3d
       0.02447136 -0.15072826 0.03939679 0.09023468
0001c0 24 10 93 3d 1f f7 4d bd cb f7 51 3e ec de 2f bd
       0.07180813 -0.0502845 0.20504682 -0.042937204
0001d0 35 ac 40 bd 34 1b 91 3d 1d 6f 13 3e f0 66 37 bc
       -0.04703923 0.07085267 0.14397855 -0.011193976
0001e0 bf 9f 3e 3d bf 07 cd 3d 4b 16 3f 3e cf c9 1a 3e
       0.046539064 0.10011243 0.18660848 0.15116046
0001f0 be 26 b7 3d 85 28 25 3e 53 bb 94 bc 03 90 9e 3d
       0.08942936 0.16128738 -0.01815573 0.07742312
000200 06 bd bd 3d 5d 15 06 be cb bd 65 3c 49 bb 15 bd
       0.09264569 -0.13094087 0.014022301 -0.036555562
000210 ff 0d 41 3d 0b 1c 09 3d 81 bf 2c 3d 0e af 71 3d
       0.04713249 0.03347401 0.04217482 0.059004836
000220 59 12 b5 3d 17 58 ce bc 5f d5 08 3d 8c 3b d9 3d
       0.0884139 -0.025188489 0.03340661 0.10607061
000230 b5 11 00 bd 7a af e7 bb 68 7c c6 3d ae 08 10 3d
       -0.031266887 -0.007070479 0.09691697 0.035164528
000240 f8 dd 01 be 22 4e da bd 64 0d c5 bd d0 39 41 3c
       -0.1268233 -0.10659434 -0.09621695 0.011793569
000250 d3 82 a6 bd 33 a5 c5 3c 86 ae 10 3d bf 08 82 3c
       -0.081304215 0.024126625 0.03532269 0.015873311
000260 3d 8a 00 3e 63 68 9e bd c9 37 29 3d c5 7a 99 ba
       0.12552734 -0.07734754 0.041312966 -0.0011709562
000270 42 b8 b6 3c 9b 36 ab 3c 53 37 4f 3d d8 46 e3 bd
       0.022304658 0.020900061 0.05058987 -0.11097497
000280 8f c5 0d ba 6d 89 09 3e 1d b4 c8 3d 1f 8c e4 bd
       -0.00054081617 0.1343133 0.09799979 -0.111595385
000290 3e 07 cb 3d a6 d2 55 3d 56 e6 a0 3d 99 ee c6 3b
       0.09913491 0.052202843 0.07856433 0.0060709235
0002a0 73 32 ca bc 07 4d 82 bd 9c 61 e9 bd 98 88 be bd
       -0.02468226 -0.06362348 -0.11395571 -0.09303397
0002b0 fb c1 c8 3d bf 20 85 3d b9 5d 0d 3d ef 0b 65 3d
       0.09802624 0.065003864 0.03451321 0.055919584
0002c0 64 f0 20 3d 68 e8 14 bc 00 77 13 3d 35 5f bc 3d
       0.039291754 -0.009088613 0.03600216 0.09197847
0002d0 c7 64 f6 3c 68 dd 2d bd a6 55 f8 3d 34 1d e5 3c
       0.030077351 -0.042447478 0.12125711 0.027968027
0002e0 d5 a3 49 3c 26 6b e0 3c b9 71 92 3c 4d 39 15 3d
       0.012307127 0.027394842 0.017876493 0.0364316
0002f0 21 01 03 3c 69 c1 0d be f3 fc 32 bd dc d9 f4 bd
       0.007995875 -0.13843311 -0.043698262 -0.11955616

gru.bias_hh_l0_reverse f4 [192]
000000 4d 91 93 3d 5a 42 14 3e fb 3d 3b bd e7 1c 25 bd
       0.07205448 0.14478436 -0.045713406 -0.040310767
000010 a4 61 83 3d 4f 63 13 3e a1 9d 09 3e 0e 38 a1 3d
       0.06415108 0.14393352 0.13439037 0.0787202
000020 e9 d2 59 3d 16 0e f7 ba 0f 93 e0 3d 5e 05 d1 bb
       0.053179655 -0.0018848802 0.10965549 -0.0063788136
000030 30 91 0d bd 30 9f bb 3d e8 db 3c bd 14 d3 6c bb
       -0.03456229 0.09161222 -0.046108156 -0.0036136555
000040 2b 4a 69 3d 5e ca e2 3d 16 f0 3c 3c ce ad 21 3e
       0.056955498 0.11073755 0.01153185 0.15788957
000050 0a fe ce 3d e9 b3 a7 bd 78 c1 4c 3d f0 05 20 3d
       0.10107048 -0.08188612 0.049989194 0.039068162
000060 e2 22 57 bd 3c 37 1e 3e 3e 13 d7 3c f5 24 a9 bd
       -0.0525235 0.15450758 0.026254293 -0.08259002
000070 60 09 2a bd b2 5f 07 3d fb e0 96 3d 7e d0 4d 3d
       -0.041512847 0.033050247 0.0736713 0.05024766
000080 ce 50 2d 3e a2 c9 e0 3d 4c 36 04 3e 66 8c 29 3d
       0.16925356 0.109759584 0.12911338 0.04139366
000090 d2 68 15 3e 43 15 78 bd 1f cc 8e 3d cf 3b bf 3d
       0.14590767 -0.06056715 0.06972527 0.093375795
0000a0 d5 21 e4 3d 85 0f a3 3d 4a a8 9c bb fd 64 99 3c
       0.111392654 0.079619445 -0.004780804 0.018724913
0000b0 e2 8f ea bd 11 e5 a7 bd cd 9d c1 bc 7d a2 04 3e
       -0.11453225 -0.08197988 -0.023634816 0.1295261
0000c0 f3 b9 b0 bd 28 cd e5 3d 0b 04 dc 3d f6 30 03 3e
       -0.08629217 0.11220771 0.10742959 0.12811646
0000d0 8a ae 4b 3d 63 fc 2a 3c 06 8a 6e 3d ff 73 78 3d
       0.049727 0.01043615 0.0582371 0.060657497
0000e0 10 40 94 3b ee 53 fe bc bc 65 c3 bc 7a 1b b3 3d
       0.0045242384 -0.03104588 -0.023852222 0.08745475
0000f0 8f 96 59 bd dd 48 11 3e 75 5f 0d 3e d2 3d f4 3d
       -0.0531221 0.14187951 0.13805945 0.11925854
000100 9f 26 18 3e d8 10 1f 3d cd 7c b9 3d 7d 84 d3 3d
       0.14858483 0.038834423 0.09057007 0.103280045
000110 a0 ec b6 3d 44 20 1d 3e 68 c7 a3 bb fe dc 8b 3d
       0.089318514 0.1534434 -0.0049981363 0.0682926
000120 60 c9 a3 3d a9 0c cb 3d e2 23 34 3e 28 42 9a 3d
       0.079973936 0.09914524 0.17591813 0.075321496
000130 fe 28 34 3e 28 4e b8 bd b0 bd ad 3d 90 57 2c 3e
       0.17593762 -0.08999282 0.08483446 0.16830277
000140 47 da c6 3c 7e c6 01 3d 64 80 27 bc ce 1c 5a 3d
       0.024274005 0.031683438 -0.010223482 0.053250127
000150 62 94 5f 3e 22 f0 b8 3d 43 b8 56 3e 68 92 79 3d
       0.21833947 0.09030177 0.20968728 0.06093064
000160 be 7d 2f 3e fb 55 fb 3d 31 23 bf 3d 9d 62 f0 3d
       0.1713781 0.12272259 0.09332884 0.11737559
000170 b7 1a 54 3c 80 d7 e9 3d 98 ab 11 3e 64 b3 22 3e
       0.012945822 0.114180565 0.14225614 0.15888745
000180 54 c9 f7 3d 23 c8 27 bd 1b dc ae 3d d4 92 1f 3e
       0.12098947 -0.04096235 0.085380755 0.15583354
000190 7d 0e b7 3c 35 ea 10 3a e3 e1 0a 3e 62 c0 61 be
       0.022345776 0.00055280636 0.13562731 -0.22046044
0001a0 f1 68 74 3e 09 9e 36 3e e3 b0 be 3d 7b 9b 83 bd
       0.23868157 0.17833723 0.09311082 -0.0642614
0001b0 31 64 a8 3c 02 95 25 3c 0f 5b 34 3e 90 3a e6 bd
       0.020555587 0.010106327 0.17612861 -0.11241639
0001c0 dc 0f b0 3c 8c e9 75 bd 62 da 16 3d 9d 6a 9c bd
       0.021491937 -0.06003718 0.03682936 -0.07637522
0001d0 ec fc 01 3e 0d ba 86 3d 58 8f 19 3d b4 ab 6c bd
       0.12694138 0.06578455 0.03749022 -0.057780936
0001e0 74 2e 0c 3d d2 81 1a 3d c8 3c 26 3e 06 0d 99 3d
       0.03422399 0.037721463 0.16234124 0.07473187
0001f0 07 a9 13 bd 76 0c f2 bb 02 33 87 bd d3 7d 4b 3d
       -0.03604987 -0.0073867394 -0.06601526 0.049680542
000200 f2 f7 b9 3d 5f 1b 0c be 24 5c c6 3d e6 ab 9c bc
       0.09080495 -0.13682316 0.09685543 -0.019124936
000210 15 63 cd bc 5c ab c7 bd 3e 6e 28 bd 0c a3 d5 3d
       -0.02507166 -0.09749481 -0.04112076 0.10431489
000220 c8 50 fc bc 6a 43 bd 3d c6 57 84 3c b8 74 3f bd
       -0.030800238 0.09241374 0.016155135 -0.04674217
000230 40 e4 bd 3d b3 35 fe 3d 6a c7 28 bc 46 0f 02 be
       0.09272051 0.12412586 -0.01030145 -0.12701139
000240 38 ec 34 3d 6e b0 c4 bd 12 cb af bd cc 5d cb bd
       0.04417059 -0.09603964 -0.085836545 -0.0993
000250 c4 0b dc 3d 33 bf 52 3b 8e 13 f8 3d e3 81 5c bc
       0.107444316 0.003215742 0.12113105 -0.013458702
000260 ea 36 98 bc cc 98 b1 3d f5 7c c9 3d ce ff e4 bd
       -0.018580873 0.08671722 0.09838287 -0.11181603
000270 37 e5 fd 3c 18 11 b3 bd 17 31 f7 3d 3c 26 04 be
       0.030993087 -0.08743495 0.1206991 -0.1290521
000280 3f fa 9f bd 84 0a 81 bc c4 b2 e2 3d f6 d8 08 3e
       -0.078114025 -0.015752085 0.11069253 0.13364014
000290 22 56 10 bd 5f bd 39 bd 08 9f 8e bd b9 66 31 3d
       -0.035238393 -0.045346614 -0.069639266 0.043310855
0002a0 d5 5f 9d bd 35 cc 56 bd 26 65 a8 3b 76 a1 f0 bd
       -0.07684294 -0.05244084 0.005139011 -0.11749546
0002b0 a5 f3 c3 3d 0d ef cc 3d ce 5f 3e bd 15 f7 9c 3d
       0.09567956 0.10006533 -0.046478085 0.07664315
0002c0 7d 69 a7 bd 72 49 b8 3d b7 8d 3f 3d f3 dc a8 bd
       -0.08174417 0.089983836 0.04676601 -0.08245268
0002d0 df 9b ea bd a8 8f ad 3d 62 0d 51 bd d7 09 97 bd
       -0.11455511 0.08474666 -0.051038153 -0.07374924
0002e0 50 98 17 3e 31 ee 95 bd 4b 27 04 3c 07 27 91 3d
       0.14804196 -0.07320822 0.008066009 0.07087522
0002f0 0f b5 aa bd c6 02 1e 3d 17 86 d4 3d d6 79 fe bd
       -0.083353154 0.038576864 0.10377138 -0.12425582
