results/training/llama-3-70b_h100_tp8/model_tp8_H64_biGRU.pt (torch, 482669 bytes, 22 tensors)

in_norm.weight f4 [6]
0	0x3f81a480	1.0128326
1	0x3f823685	1.0172888
2	0x3f81e851	1.0149022
3	0x3f8030d2	1.0014899
4	0x3f83937f	1.0279387
5	0x3f8088fc	1.0041804

in_norm.bias f4 [6]
0	0xbb1e341b	-0.0024139944
1	0xba5ec650	-0.0008498179
2	0xbb8e6885	-0.004345956
3	0x3c5fd4e7	0.0136616
4	0xbc40adc6	-0.011760181
5	0x3bc66bb4	0.0060553197

gru.weight_ih_l0 f4 [192, 6]
0	0x3de4609f	0.111512415
1	0x3df81e8f	0.121152036
2	0xbe3c48a9	-0.18387093
3	0xbe80b78a	-0.2514003
4	0xbe175a93	-0.14780645
5	0xbdc6b448	-0.09702355
6	0x3e82e095	0.25561967
7	0x3e03539f	0.12824868
8	0x3d6c3d08	0.05767539
9	0xbcbcfb5d	-0.023069078
10	0xbe371c6a	-0.17881933
11	0x3dc17edb	0.09448024
12	0xbe1d7eab	-0.15380351
13	0xbe043a5b	-0.12912886
14	0x3e1db6c9	0.15401758
15	0xbe26a5a0	-0.16274118
16	0x3e206de6	0.15666923
17	0x3d1d30f8	0.03837678
18	0xbe3eaf84	-0.18621641
19	0xbe6b4958	-0.22977197
20	0x3cac8955	0.021061579
21	0x3e642956	0.22281393
22	0xbe3aa12a	-0.18225542
23	0x3de44243	0.11145451
24	0xbdcd112b	-0.1001304
25	0xbcce6990	-0.02519682
26	0xbc71dedb	-0.014762606
27	0xbe79c258	-0.24390543
28	0xbc81fdde	-0.015868124
29	0x3e2ac895	0.16678078
30	0x3d17cd9e	0.037061326
31	0xbd178ddb	-0.03700052
32	0xbdd23445	-0.10263876
33	0x3d9777e9	0.07395918
34	0x3da66a2b	0.08125719
35	0xbe2aaa6d	-0.16666575
36	0xbcf70289	-0.030152576
37	0x3dcff967	0.101549916
38	0xbc4b663d	-0.012414512
39	0xbe7419bd	-0.23837943
40	0x3c90199d	0.017590338
41	0x3d9056a4	0.070477754
42	0x3c8bd24f	0.017068056
43	0x3e2c2323	0.16810279
44	0xbe6f7edf	-0.23388241
45	0x3e679676	0.2261599
46	0x3d8bdf58	0.06829709
47	0x3e5e5611	0.21712519
48	0xbe6a56f2	-0.2288473
49	0xbe157b44	-0.14597803
50	0xbe379fd1	-0.17932059
51	0xbc7e8213	-0.015533942
52	0x3e289e28	0.16466582
53	0x3ddfc643	0.10926487
54	0x3dfd91f8	0.12381357
55	0x3d18ffa7	0.037353184
56	0x3e560987	0.20902072
57	0x3cecb058	0.028892681
58	0x3e828ead	0.25499478
59	0xbe3ea0e8	-0.18616068
60	0xbdbfab4a	-0.09358843
61	0xbd0a8f58	-0.03382811
62	0x3d2c9e2d	0.042143036
63	0xbdd452f8	-0.103673875
64	0xbe720f66	-0.23638687
65	0x3e003026	0.12518367
66	0x3df0822b	0.117435776
67	0x3e7ac21e	0.24488112
68	0xbe17aa8f	-0.14811157
69	0xbdb753eb	-0.08951553
70	0xbdd77b25	-0.10521535
71	0x3e013b06	0.12620172
72	0xbe504547	-0.20338927
73	0x3e625eff	0.2210655
74	0xbdec8fd5	-0.11550871
75	0x3e64198a	0.22275367
76	0xbdf5fb2c	-0.12010798
77	0xbe55f1f1	-0.20893075
78	0xbe142d35	-0.1447037
79	0xbdf43130	-0.11923444
80	0xbe67fa0a	-0.22653976
81	0xbe5bd53b	-0.2146806
82	0xbd04a1f6	-0.03238102
83	0x3e193aa0	0.1496377
84	0xbc88f08b	-0.016716262
85	0xbddbe474	-0.10736933
86	0x3df94585	0.12171463
87	0xbcf2c9e9	-0.029637294
88	0x3e15da78	0.1463412
89	0x3c47db9c	0.012198355
90	0xbd74d3a0	-0.059772134
91	0x3e4ca97c	0.19986528
92	0xbda7b5a9	-0.08188946
93	0x3d5c4fb8	0.053786963
94	0xbe17e940	-0.14835072
95	0xbe0e8c61	-0.13920738
96	0x3d9bba31	0.076038726
97	0xbd5531db	-0.0520495
98	0xbdb73ead	-0.08947501
99	0xbcd99083	-0.026558166
100	0xbd23a6dc	-0.03995405
101	0xbdf2f52c	-0.11863169
102	0xbe552c76	-0.20817742
103	0xbe114015	-0.14184602
104	0x3d6fb002	0.058517464
105	0x3dbe5b5c	0.09294769
106	0xbc8d63f7	-0.017259581
107	0x3de6a68e	0.112622365
108	0x3d8ff91a	0.07029934
109	0x3e382b96	0.17985377
110	0x3e18df84	0.14929014
111	0xbe465cb9	-0.19371308
112	0x3e114fb0	0.14190555
113	0x3e2c3d5f	0.16820286
114	0x3e3ab0e7	0.18231545
115	0xbdc01c75	-0.09380428
116	0xbe7ebd6f	-0.2487695
117	0xbdce15ab	-0.100627266
118	0x3d1a6fcb	0.03770427
119	0xbdad15ff	-0.08451461
120	0x3c822425	0.015886376
121	0x3dae302c	0.08505282
122	0x3dfa8d02	0.12233926
123	0x3d91e038	0.071228445
124	0x3e0a46a6	0.13503513
125	0x3cb8df4c	0.022567414
126	0x3daa31b7	0.083102636
127	0xbe7bb357	-0.24580131
128	0x3e4d5eb3	0.20055656
129	0xbdad9d45	-0.084772624
130	0xbdb3ca2a	-0.08778794
131	0x3d13b835	0.036064345
132	0x3d7f4c31	0.06232852
133	0x3e4bae43	0.19890694
134	0xbc8391e9	-0.016060786
135	0xbe5dd1cc	-0.21662062
136	0xbcc2f8df	-0.023800312
137	0x3e4e5a48	0.20151627
138	0x3d3adea7	0.045622494
139	0xbdbe82bf	-0.093022816
140	0x3e1bda12	0.15219906
141	0xbe3d2db8	-0.18474472
142	0x3e827c34	0.25485384
143	0x3d49943f	0.049213644
144	0xbdfd88b9	-0.123795934
145	0x3e7bc285	0.24585922
146	0x3e7aee7e	0.2450504
147	0x3cdcba18	0.026944205
148	0xbe340f1d	-0.1758389
149	0xbe71e87e	-0.23623845
150	0x3e3843d5	0.17994626
151	0x3dcfaa01	0.101398475
152	0x3de95fd4	0.11395231
153	0x3d67cb05	0.0565901
154	0xbe41531c	-0.1887936
155	0xbdcd4c67	-0.10024338
156	0x3dffab4b	0.124838434
157	0x3c420b34	0.011843491
158	0xbe08c09c	-0.13354725
159	0x3cc26c9e	0.023733433
160	0xbd81f213	-0.06345
161	0xbdb46c89	-0.08809764
162	0xbe322902	-0.17398456
163	0x3bc3d61e	0.0059764525
164	0x3e3d9eed	0.18517657
165	0x3dcb2556	0.09919231
166	0xbe36fb1a	-0.17869225
167	0x3e63f7b0	0.22262454
168	0x3d0a3973	0.033746194
169	0x3da2aa70	0.079426646
170	0xbe0bc33a	-0.13648692
171	0x3e568f09	0.20953001
172	0xbe218607	-0.15773784
173	0xbd903a64	-0.07042387
174	0x3d9e9b60	0.07744479
175	0xbd05f5c6	-0.03270509
176	0x3dfe6832	0.124222174
177	0x3b7dce66	0.003872776
178	0x3d1d5bdf	0.038417693
179	0x3d379849	0.044822965
180	0x3d42207d	0.047394264
181	0x3e16c939	0.14725198
182	0x3d02a239	0.03189299
183	0xbd256353	-0.040377926
184	0xbe232867	-0.15933381
185	0x3dd0ac14	0.10189071
186	0xbd8ff7dc	-0.07029697
187	0x3e6901e1	0.22754623
188	0x3d72ebda	0.059306957
189	0x3c1d102b	0.009586374
190	0xbe010b29	-0.12601914
191	0xbe255b9f	-0.16148232
192	0x3c2fe0e5	0.010734771
193	0xbe397a46	-0.1811305
194	0xbde72cbc	-0.11287829
195	0xbdbaf4f2	-0.09128751
196	0xbe22cf3a	-0.15899363
197	0xbe11c181	-0.14233972
198	0xbe7def61	-0.24798347
199	0x3e6b930e	0.23005316
200	0x3e45448b	0.19264428
201	0x3e08efb0	0.13372684
202	0x3e1da764	0.15395886
203	0xbe59bfda	-0.21264592
204	0x3b831cd7	0.0040012407
205	0xbc6345c2	-0.013871612
206	0xbd0c1ba5	-0.03420605
207	0xbd55270a	-0.052039184
208	0x3e53d1f4	0.2068556
209	0xbe037a33	-0.12839584
210	0x3dbe58af	0.09294259
211	0x3dd1fc37	0.10253184
212	0xbd0f568e	-0.034994654
213	0x3e5d6f29	0.21624435
214	0x3e6cb055	0.2311414
215	0xbe396c59	-0.18107738
216	0x3e55da44	0.20884043
217	0xbdbc598f	-0.091967694
218	0xbe016b88	-0.12638676
219	0x3e66cfd3	0.22540216
220	0xbe3eff7f	-0.18652152
221	0xbe62f066	-0.22162017
222	0xbcaaf593	-0.020869052
223	0xbdcaffa1	-0.099120386
224	0x3ddcfd5d	0.10790513
225	0xbceec64a	-0.029147286
226	0x3e60e36d	0.21961756
227	0xbe798eee	-0.2437093
228	0xbd6da62a	-0.058019795
229	0xbdd0c481	-0.1019373
230	0xbb8972f2	-0.0041946108
231	0x3e7537b2	0.23947027
232	0x3db53d38	0.08849567
233	0x3d8a4d0a	0.06752975
234	0xbe6aabad	-0.22917052
235	0x3d98f5fb	0.07468792
236	0xbcd047bb	-0.025424829
237	0x3e50ea65	0.20401914
238	0xbe6316da	-0.22176686
239	0xbc7ae1bf	-0.015312611
240	0xbddfb5dd	-0.109233595
241	0x3dbbff4f	0.091795556
242	0xbc87aed5	-0.016562859
243	0x3d883ed0	0.066526055
244	0xbde934d9	-0.11387033
245	0x3d48f37f	0.04906034
246	0x3e510106	0.20410547
247	0xbe5de439	-0.21669091
248	0xbba69d2e	-0.0050846552
249	0x3dc94f07	0.098295264
250	0x3d750fd6	0.059829555
251	0xbe6d6997	-0.2318481
252	0x3df6052f	0.120127074
253	0x3dfd1773	0.12357988
254	0x3e51aeea	0.2047688
255	0x3db8fc90	0.090325475

gru.weight_hh_l0 f4 [192, 64]
0	0x3dd7e290	0.1054126
1	0xbcd1f993	-0.025631702
2	0x3c7337ff	0.0148448935
3	0x3bb170c0	0.005415052
4	0xbb70adca	-0.003672468
5	0xbc126105	-0.008934264
6	0xbdff42da	-0.12463923
7	0x3d2007ac	0.039069816
8	0xbc15cbd8	-0.009142838
9	0xbda7441f	-0.0816729
10	0x3dd11ac7	0.102101855
11	0xbcb8d062	-0.022560302
12	0x3d51c0c3	0.051209223
13	0x3d372244	0.044710413
14	0xbde2aa4b	-0.11067637
15	0x3dfe080d	0.12403879
16	0xbd6300ce	-0.05542069
17	0xbcf98b08	-0.030461803
18	0xbd286475	-0.04111143
19	0xbd2d77f1	-0.042350713
20	0x3d0218a4	0.03176178
21	0xbad9215e	-0.001656573
22	0x3d02b831	0.03191394
23	0x3d3cdf5b	0.046111446
24	0x3d182d57	0.037152614
25	0x3c3c5ebf	0.011497199
26	0xbc134aa3	-0.008989963
27	0x3dfd85ab	0.12379011
28	0x3adcde23	0.001685087
29	0xbe29a6fe	-0.16567609
30	0x3de766a1	0.11298872
31	0x3e3caf01	0.18426134
32	0xbe14c8a5	-0.14529665
33	0x3bcaeb21	0.0061925803
34	0x3e0fd004	0.14044195
35	0xbe3d5d87	-0.18492709
36	0xbd55ed87	-0.052228477
37	0xbdd45826	-0.103683755
38	0xbb90ad81	-0.0044152145
39	0xbc3e42b7	-0.011612586
40	0x3d9d887a	0.076920465
41	0xbd6c8c04	-0.057750717
42	0x3d3583eb	0.04431526
43	0x3d7b1357	0.06129774
44	0xbdf31c76	-0.11870663
45	0x3d9ce542	0.07660915
46	0x3bddf12c	0.0067731347
47	0xbd0d7689	-0.034536872
48	0xbdbae3a1	-0.09125448
49	0xbd848bb0	-0.06471956
50	0xbde2145b	-0.11039039
51	0xbd803964	-0.062609464
52	0x3dc3abc8	0.09554249
53	0xbd09f5ed	-0.0336818
54	0x3d8289f7	0.06373971
55	0xbd1fa302	-0.038973816
56	0x3d3809f5	0.04493137
57	0x3d2d33f8	0.04228589
58	0x3caa7d2b	0.020811638
59	0xbcf4ffb2	-0.029907081
60	0xbd821c55	-0.0635306
61	0xbd8dc008	-0.06921393
62	0x3c9a31da	0.0188226
63	0xbdd8d543	-0.105875514
64	0x3cfdda39	0.030987846
65	0x3cfa31f0	0.03054139
66	0xbd48e86d	-0.049049783
67	0x3d78b8a3	0.06072296
68	0x3b868c37	0.0041060704
69	0xbc67b8ff	-0.014143228
70	0xbcfe3f6e	-0.031036105
71	0x3dc8b8d2	0.09800877
72	0x3d50654d	0.050877858
73	0x3c8593c6	0.016305815
74	0xbd588b2d	-0.052867103
75	0x3da9ffa9	0.083007164
76	0xbd55a367	-0.052157786
77	0x3da47229	0.08029587
78	0x3ccb7aff	0.024838923
79	0x3d22b116	0.039719664
80	0x3d25ac47	0.0404475
81	0xbda6dde1	-0.08147789
82	0x3d8c1dbb	0.06841608
83	0xbd3120ac	-0.04324405
84	0x3c5a4278	0.013321511
85	0xbc944495	-0.018099109
86	0xbe28728e	-0.16449949
87	0xbd9aff05	-0.07568172
88	0x3d230959	0.039803836
89	0xba0cf2c1	-0.00053767493
90	0xbcbba5fe	-0.0229063
91	0x3d617d28	0.055051
92	0xbd9ea10e	-0.077455625
93	0xbce7b981	-0.028286697
94	0xbd4b815c	-0.049683914
95	0x3d2a715c	0.041612014
96	0xbbf01019	-0.0073261377
97	0xbd8601d8	-0.065433204
98	0x3b71cc2b	0.0036895375
99	0x3cea0a7d	0.028569454
100	0xbddebdb7	-0.10876029
101	0x3c5344f1	0.012894855
102	0x3d627d42	0.055295236
103	0x3d8f880e	0.07008372
104	0xbe3d11b3	-0.18463783
105	0xbda36328	-0.07977897
106	0x3d1f162b	0.0388395
107	0xbad4eb90	-0.001624452
108	0xbdb22543	-0.08698513
109	0x3dcac0e0	0.09900069
110	0x3c2c192e	0.01050405
111	0xbd4ade96	-0.04952868
112	0xbdbb641f	-0.09149956
113	0x3c42ac70	0.011881933
114	0x3da8d3e6	0.082435414
115	0xbc211ea9	-0.00983397
116	0x3d6981aa	0.057008423
117	0x3d7c8e35	0.061659057
118	0x3cdb44a4	0.026766129
119	0xbe1c8fd8	-0.15289247
120	0xbd16efd3	-0.036849808
121	0xbcfa44c3	-0.030550366
122	0x3d1dc4e9	0.038517866
123	0xbdaf7a26	-0.0856822
124	0xbdd028c2	-0.10164024
125	0xbdbdea19	-0.09273166
126	0xbdfb07af	-0.12257325
127	0x3cab197d	0.020886177
128	0xbc9f9d4f	-0.01948419
129	0x3c92f52b	0.01793917
130	0x3e403734	0.18771058
131	0x3d7ed050	0.06221038
132	0xbd443578	-0.047902554
133	0xbdced597	-0.10099333
134	0xbc99c40e	-0.018770244
135	0xbdf67d7a	-0.120356515
136	0x3dc46ac7	0.09590679
137	0x3dec4016	0.11535661
138	0x3d9c164b	0.076214395
139	0x3d87f26e	0.06638037
140	0xbd6b6818	-0.05747232
141	0xbe0765cf	-0.1322243
142	0x3c0c4c2b	0.008563082
143	0x3c220857	0.009889684
144	0xbcaf6f6a	-0.021415431
145	0x3d6c7bcd	0.057735253
146	0x3d680102	0.056641586
147	0x3d89c79c	0.067275256
148	0x3c89d74d	0.016826296
149	0xbda26a61	-0.079304464
150	0xbda1229a	-0.07867928
151	0xbd34932f	-0.044085678
152	0x3d54f2b3	0.05198927
153	0xbd6dbd95	-0.058042128
154	0x3c508112	0.012726085
155	0x3d3734f2	0.044728227
156	0x3e2313d4	0.15925533
157	0xbd9ee7a0	-0.07759023
158	0xbd9da672	-0.076977625
159	0xbcd073e3	-0.025445884
160	0x3df5513b	0.11978384
161	0xbd81b7cc	-0.063338846
162	0x3ccf2df1	0.025290461
163	0xbdfb5412	-0.122718945
164	0x3df74c2c	0.120750755
165	0xbd85a57e	-0.06525706
166	0x3d53848b	0.051640075
167	0x3c870acf	0.016484646
168	0x3dc4e19f	0.09613346
169	0x3dcbe4f9	0.099557824
170	0x3dbb41ee	0.091434345
171	0x3d6adf48	0.057341844
172	0x3d18b098	0.037277788
173	0xbd78aa0a	-0.060709037
174	0x3d3ff7b7	0.0468671
175	0x3d8fc4b4	0.0701994
176	0xbd791c34	-0.060817912
177	0x3e0f38e2	0.13986543
178	0xbdbcd55f	-0.09220385
179	0x3c9f22cb	0.01942577
180	0x3d703584	0.058644786
181	0xbcb0dc0a	-0.021589298
182	0x3d6a3e41	0.057188276
183	0xbe135859	-0.1438917
184	0xbd4a8656	-0.04944452
185	0xbda04c69	-0.07827074
186	0xbcf4eb0b	-0.029897233
187	0xbc2f2865	-0.010690783
188	0x3d1d11dc	0.03834711
189	0x3d96bbfe	0.073600754
190	0xbd8a2c33	-0.067467116
191	0xbde14201	-0.10998917
192	0xbcae349e	-0.021265324
193	0x3d4d42ba	0.050112464
194	0xbda1050f	-0.07862293
195	0xbd1036c4	-0.03520848
196	0xbd612227	-0.05496421
197	0x3e17dbc6	0.1482993
198	0x3d10edef	0.03538316
199	0x3d187194	0.03721769
200	0xbd508c8b	-0.050915282
201	0xbd908104	-0.07055858
202	0x3cecc30f	0.028901605
203	0x3dca59d5	0.09880415
204	0xbcce6417	-0.025194211
205	0xbdb48edf	-0.08816313
206	0x3c9fffaf	0.0195311
207	0x3e330d73	0.17485599
208	0xbdba0871	-0.09083641
209	0xbcf23f0d	-0.02957108
210	0x3cd71eae	0.026259746
211	0xbe12530b	-0.14289491
212	0xbd67a713	-0.05655582
213	0xbc98999e	-0.018627938
214	0x3d17bd59	0.03704581
215	0xbce38e70	-0.02777788
216	0xbd2785b7	-0.040899005
217	0xbda7618a	-0.08172901
218	0x3d9cb751	0.07652152
219	0xbd803bfe	-0.062614426
220	0xbd42bf27	-0.04754558
221	0x3d66ef51	0.056380574
222	0x3cc9ed12	0.024649177
223	0x3d7e2e77	0.06205603
224	0x3decad52	0.11556496
225	0x3d53d19d	0.051713575
226	0xbd600f5d	-0.05470215
227	0xbd8815dd	-0.06644795
228	0xbcdc6180	-0.02690196
229	0x3e10250b	0.14076631
230	0x3ccdb86f	0.025112359
231	0x3cace165	0.02110357
232	0x3deba313	0.11505713
233	0x3d04cd22	0.032422192
234	0x3d6f0410	0.058353484
235	0xbb5a5e44	-0.0033320347
236	0xbdfaf6e9	-0.122541256
237	0xbb3949ca	-0.0028272741
238	0x3b006d48	0.0019596387
239	0x3dd7724b	0.105198465
240	0x3d826571	0.06367005
241	0xbd8b98fd	-0.068162896
242	0x3ccb78e6	0.024837922
243	0x3d95a429	0.07306702
244	0xbda4ad09	-0.08040816
245	0x3d07714a	0.033067025
246	0x3cffaa67	0.031209184
247	0xbd556037	-0.05209371
248	0xbce81ce8	-0.028334096
249	0xbdee2d64	-0.11629751
250	0xbd81e8fa	-0.06343265
251	0xbbd2b23e	-0.0064299395
252	0xbc76f7bf	-0.015073716
253	0xbe16effe	-0.14739987
254	0xbceb9e9e	-0.028762158
255	0xbd70053d	-0.058598746

gru.bias_ih_l0 f4 [192]
0	0x3bc8c582	0.0061270604
1	0x3ca671f8	0.020318016
2	0x3ca4be91	0.0201104
3	0xbab7ec7e	-0.0014032272
4	0x3c56c736	0.013109019
5	0x3b13a101	0.0022526386
6	0xbbb32ec6	-0.0054682223
7	0x39a971b0	0.00032318896
8	0xbb65608f	-0.003500018
9	0x3c2141a0	0.009842306
10	0x3bdbf907	0.006713036
11	0x3c453c23	0.0120382635
12	0xbb5feaa4	-0.0034166956
13	0x3c19d3d2	0.009388881
14	0x3bf249e5	0.007394063
15	0x3c815c04	0.015790947
16	0x3c48f05a	0.0122643355
17	0x3b585ae9	0.003301317
18	0x3c2cbc92	0.010543006
19	0x3c0db677	0.00864946
20	0xbb96e0ef	-0.004604451
21	0x3c770eba	0.015079195
22	0x3c81d2b4	0.015847541
23	0x3d1f0e9c	0.038832292
24	0x3c0532bd	0.008129773
25	0x3c0f412b	0.008743565
26	0xbc8c4188	-0.017121091
27	0xbbc52680	-0.0060165524
28	0xbb31dfa5	-0.002714136
29	0x3c80232a	0.015641768
30	0x3cbfcc84	0.02341295
31	0x3a7fefcc	0.00097632105
32	0x3c852207	0.016251577
33	0x3b9c5b6b	0.00477164
34	0x3bbb7002	0.0057201395
35	0x3b841a47	0.004031453
36	0x3b390fd7	0.00282382
37	0x39d48ad4	0.00040539226
38	0xbab3aac0	-0.0013707504
39	0xbc3db984	-0.011579875
40	0x3c091f53	0.008369285
41	0x3b3c5219	0.0028735457
42	0x3a9e6e3a	0.0012087293
43	0xbbe9e041	-0.007137329
44	0x3b62aad4	0.0034586685
45	0x3bc41fcc	0.005985236
46	0xbb496bbf	-0.0030734388
47	0xbc8443d7	-0.01614563
48	0x3bdecba0	0.0067991763
49	0x3c5610d4	0.013065536
50	0x3c3e2911	0.011606471
51	0xbbf6aa27	-0.007527608
52	0x3c31c850	0.010850981
53	0x3c1dc53f	0.009629547
54	0xbbee6819	-0.007275593
55	0xbb02111d	-0.0019846626
56	0x3bf5de06	0.007503274
57	0x3b2401c5	0.0025025469
58	0x3b058f4d	0.0020379603
59	0x3c337b86	0.010954743
60	0x3b84894d	0.004044688
61	0x3c2a0023	0.010376009
62	0x3a879671	0.0010344518
63	0x3bcc8198	0.0062410347
64	0x3cbb3aad	0.022855127
65	0x3d495ba9	0.04915968
66	0xb9eef6da	-0.00045578816
67	0xbc067db5	-0.008208682
68	0xbcf1b565	-0.029505441
69	0xbb0176f7	-0.0019754746
70	0x3cbc3a06	0.022976886
71	0xbce13447	-0.027490748
72	0x3c563756	0.013074717
73	0xbd1d12b4	-0.038347915
74	0x3d016df9	0.03159902
75	0x3cb7b3a4	0.022424527
76	0x3cb78e7b	0.022406807
77	0x3c4e50ec	0.0125925355
78	0xbcf76c66	-0.030203056
79	0x3c8ac1fa	0.016938198
80	0xbca60497	-0.02026586
81	0x3c93d9a4	0.018048115
82	0xbc045645	-0.008077209
83	0x3c2448ba	0.010027105
84	0x3befe38d	0.0073208273
85	0x3d43f437	0.047840323
86	0xbd3dedeb	-0.046369474
87	0x3c49fea0	0.012328774
88	0x3b69a522	0.0035651405
89	0x3cba1971	0.02271721
90	0x3d19ddd0	0.037565053
91	0xbbd5997b	-0.0065185404
92	0xbbec77d9	-0.0072164354
93	0x3b579df7	0.003290055
94	0xbacc63f6	-0.0015593756
95	0x3bdb3516	0.006689678
96	0x3c84cadd	0.016210014
97	0x3c813f9f	0.015777407
98	0x3d10b47e	0.03532838
99	0xbc8c5848	-0.01713194
100	0xbc3801f7	-0.011230937
101	0xbcc61aa7	-0.02418263
102	0x3c0fc631	0.00877528
103	0xbbd30aaa	-0.0064404802
104	0x3d0b9db6	0.03408595
105	0x3cc1c0e9	0.023651557
106	0xbb86eac9	-0.004117344
107	0xbb34166a	-0.002747918
108	0x3bc8d434	0.006128812
109	0xbcb0f3d1	-0.021600636
110	0x3c1d6df6	0.009608736
111	0x3d444762	0.04791964
112	0x3ce66fe3	0.028129524
113	0x3cb6dca0	0.022322
114	0x3cd3ad01	0.02583933
115	0xbc52b46f	-0.0128604015
116	0x3ba28790	0.004960008
117	0x3ca94471	0.020662518
118	0xbc811491	-0.015756877
119	0xbc16e2f0	-0.00920938
120	0x3bfe6074	0.007762963
121	0xbc5ddca6	-0.013541376
122	0x3c9bacd1	0.019003304
123	0x3c16c24c	0.009201597
124	0x3d2774e8	0.040882975
125	0x3c65d58a	0.014027962
126	0x3b344fa7	0.0027513297
127	0x3ca5315a	0.020165134
128	0xbb5aa6c6	-0.0033363565
129	0x3bf68a00	0.007523775
130	0xbb0536b6	-0.00203268
131	0xbb25ae72	-0.002528098
132	0xba1243be	-0.00055795524
133	0xbb4d8dc6	-0.003136502
134	0x3a9be80f	0.001189472
135	0xbb021a7c	-0.0019852212
136	0x3b91174b	0.0044278256
137	0x3b985364	0.004648613
138	0x3bde83c9	0.0067906124
139	0x3bdaf49f	0.006681993
140	0x3b1d3dfc	0.0023993244
141	0x3bb575cb	0.0055377237
142	0x3a0433b6	0.0005043106
143	0xbb92a5e7	-0.0044753435
144	0x3abcf809	0.0014417182
145	0x3b625185	0.0034533453
146	0x3b867945	0.004103812
147	0xbb6b3551	-0.0035889933
148	0xbb40342c	-0.0029327972
149	0x3b81e754	0.003964344
150	0xbbd5d3e9	-0.006525506
151	0x3c37749a	0.011197234
152	0xbb9bf46c	-0.004759362
153	0x3b771b45	0.0037705463
154	0x3bd002fc	0.006348012
155	0x3bca7a43	0.0061791255
156	0x3c04848a	0.00808824
157	0xbb7ece47	-0.0038880275
158	0x3c16aca5	0.009196435
159	0x3bbb7d84	0.0057217497
160	0x3aa6d7ad	0.0012729071
161	0x3a14e2fa	0.0005679574
162	0x3a63bf0b	0.00086878304
163	0xbac87c28	-0.001529579
164	0x3be1e1b9	0.0068933633
165	0x3c0ff942	0.008787455
166	0x3b4b5eac	0.003103177
167	0x3befcf0a	0.007318382
168	0xbc24cb5b	-0.010058249
169	0x3b0595d7	0.00203835
170	0x3beb22b8	0.0071757697
171	0xbbd597c9	-0.0065183383
172	0x3bb87702	0.005629421
173	0x3a3b22a3	0.0007138645
174	0xbb69bc13	-0.003566508
175	0x3b207258	0.0024482217
176	0x3bc699b9	0.0060608056
177	0x3bb9e33d	0.005672841
178	0x3bf1b382	0.0073761353
179	0x3a80eb24	0.0009835702
180	0xbbb623d3	-0.00555847
181	0x3a7c5084	0.0009625035
182	0xbb2fca52	-0.0026823473
183	0x3bce9c5c	0.0063052606
184	0xbc01a3a5	-0.007912551
185	0x3ba3aa46	0.0049946634
186	0xbbe95bb6	-0.0071215285
187	0x3ab91b90	0.0014122594
188	0xba3a2cd0	-0.00071020145
189	0xbb784887	-0.0037885027
190	0xbbd38e8f	-0.0064562033
191	0xb98ec0c7	-0.0002722798

gru.bias_hh_l0 f4 [192]
0	0x3bc8c582	0.0061270604
1	0x3ca671f8	0.020318016
2	0x3ca4be91	0.0201104
3	0xbab7ec7e	-0.0014032272
4	0x3c56c736	0.013109019
5	0x3b13a101	0.0022526386
6	0xbbb32ec6	-0.0054682223
7	0x39a971b0	0.00032318896
8	0xbb65608f	-0.003500018
9	0x3c2141a0	0.009842306
10	0x3bdbf907	0.006713036
11	0x3c453c23	0.0120382635
12	0xbb5feaa4	-0.0034166956
13	0x3c19d3d2	0.009388881
14	0x3bf249e5	0.007394063
15	0x3c815c04	0.015790947
16	0x3c48f05a	0.0122643355
17	0x3b585ae9	0.003301317
18	0x3c2cbc92	0.010543006
19	0x3c0db677	0.00864946
20	0xbb96e0ef	-0.004604451
21	0x3c770eba	0.015079195
22	0x3c81d2b4	0.015847541
23	0x3d1f0e9c	0.038832292
24	0x3c0532bd	0.008129773
25	0x3c0f412b	0.008743565
26	0xbc8c4188	-0.017121091
27	0xbbc52680	-0.0060165524
28	0xbb31dfa5	-0.002714136
29	0x3c80232a	0.015641768
30	0x3cbfcc84	0.02341295
31	0x3a7fefcc	0.00097632105
32	0x3c852207	0.016251577
33	0x3b9c5b6b	0.00477164
34	0x3bbb7002	0.0057201395
35	0x3b841a47	0.004031453
36	0x3b390fd7	0.00282382
37	0x39d48ad4	0.00040539226
38	0xbab3aac0	-0.0013707504
39	0xbc3db984	-0.011579875
40	0x3c091f53	0.008369285
41	0x3b3c5219	0.0028735457
42	0x3a9e6e3a	0.0012087293
43	0xbbe9e041	-0.007137329
44	0x3b62aad4	0.0034586685
45	0x3bc41fcc	0.005985236
46	0xbb496bbf	-0.0030734388
47	0xbc8443d7	-0.01614563
48	0x3bdecba0	0.0067991763
49	0x3c5610d4	0.013065536
50	0x3c3e2911	0.011606471
51	0xbbf6aa27	-0.007527608
52	0x3c31c850	0.010850981
53	0x3c1dc53f	0.009629547
54	0xbbee6819	-0.007275593
55	0xbb02111d	-0.0019846626
56	0x3bf5de06	0.007503274
57	0x3b2401c5	0.0025025469
58	0x3b058f4d	0.0020379603
59	0x3c337b86	0.010954743
60	0x3b84894d	0.004044688
61	0x3c2a0023	0.010376009
62	0x3a879671	0.0010344518
63	0x3bcc8198	0.0062410347
64	0x3cbb3aad	0.022855127
65	0x3d495ba9	0.04915968
66	0xb9eef6da	-0.00045578816
67	0xbc067db5	-0.008208682
68	0xbcf1b565	-0.029505441
69	0xbb0176f7	-0.0019754746
70	0x3cbc3a06	0.022976886
71	0xbce13447	-0.027490748
72	0x3c563756	0.013074717
73	0xbd1d12b4	-0.038347915
74	0x3d016df9	0.03159902
75	0x3cb7b3a4	0.022424527
76	0x3cb78e7b	0.022406807
77	0x3c4e50ec	0.0125925355
78	0xbcf76c66	-0.030203056
79	0x3c8ac1fa	0.016938198
80	0xbca60497	-0.02026586
81	0x3c93d9a4	0.018048115
82	0xbc045645	-0.008077209
83	0x3c2448ba	0.010027105
84	0x3befe38d	0.0073208273
85	0x3d43f437	0.047840323
86	0xbd3dedeb	-0.046369474
87	0x3c49fea0	0.012328774
88	0x3b69a522	0.0035651405
89	0x3cba1971	0.02271721
90	0x3d19ddd0	0.037565053
91	0xbbd5997b	-0.0065185404
92	0xbbec77d9	-0.0072164354
93	0x3b579df7	0.003290055
94	0xbacc63f6	-0.0015593756
95	0x3bdb3516	0.006689678
96	0x3c84cadd	0.016210014
97	0x3c813f9f	0.015777407
98	0x3d10b47e	0.03532838
99	0xbc8c5848	-0.01713194
100	0xbc3801f7	-0.011230937
101	0xbcc61aa7	-0.02418263
102	0x3c0fc631	0.00877528
103	0xbbd30aaa	-0.0064404802
104	0x3d0b9db6	0.03408595
105	0x3cc1c0e9	0.023651557
106	0xbb86eac9	-0.004117344
107	0xbb34166a	-0.002747918
108	0x3bc8d434	0.006128812
109	0xbcb0f3d1	-0.021600636
110	0x3c1d6df6	0.009608736
111	0x3d444762	0.04791964
112	0x3ce66fe3	0.028129524
113	0x3cb6dca0	0.022322
114	0x3cd3ad01	0.02583933
115	0xbc52b46f	-0.0128604015
116	0x3ba28790	0.004960008
117	0x3ca94471	0.020662518
118	0xbc811491	-0.015756877
119	0xbc16e2f0	-0.00920938
120	0x3bfe6074	0.007762963
121	0xbc5ddca6	-0.013541376
122	0x3c9bacd1	0.019003304
123	0x3c16c24c	0.009201597
124	0x3d2774e8	0.040882975
125	0x3c65d58a	0.014027962
126	0x3b344fa7	0.0027513297
127	0x3ca5315a	0.020165134
128	0xbb96ad61	-0.004598305
129	0x3c06f441	0.008236946
130	0xbb36750f	-0.0027840768
131	0xba9c9468	-0.0011946084
132	0xba38ae65	-0.000704503
133	0xbb6aa5a0	-0.0035804287
134	0x3a903c00	0.001100421
135	0xbae19a34	-0.0017212094
136	0x3b2fca75	0.0026823555
137	0x3bc93a68	0.006140996
138	0x3bd8e5c3	0.0066191866
139	0x3bee9c0b	0.0072817854
140	0x3b2bd3b9	0.0026218726
141	0x3b6ae8ac	0.003584425
142	0x399f6110	0.0003039916
143	0xbb92fcb4	-0.004485691
144	0xb9ddbb52	-0.0004229197
145	0x3b11b27d	0.0022231631
146	0x3b9e474e	0.0048302775
147	0xbb61b1f5	-0.0034438346
148	0xbb4d0ee6	-0.0031289398
149	0x3b958dfb	0.0045640445
150	0xbbda4910	-0.0066615418
151	0x3c046fab	0.008083264
152	0xbba04d47	-0.0048920247
153	0x3b10106b	0.0021982442
154	0x3be09a81	0.006854356
155	0x3bbc7f3a	0.0057524713
156	0x3c107a78	0.008818261
157	0xbb888ff0	-0.0041675493
158	0x3c124abb	0.00892895
159	0x3bbf2688	0.0058334507
160	0x390f630c	0.0001367444
161	0x3a452865	0.0007520973
162	0xb8ad3ac6	-8.26023e-05
163	0xbb4a1a7c	-0.003083854
164	0x3be9cde9	0.007135142
165	0x3c036599	0.008019828
166	0x3b69eab2	0.0035692868
167	0x3bc3ad18	0.005971562
168	0xbc207928	-0.009794511
169	0x3ae415db	0.0017401533
170	0x3c010031	0.007873581
171	0xbbe572f6	-0.00700223
172	0x3bb6eca5	0.0055824094
173	0x3aa41ac1	0.001252018
174	0xbb9e2ef5	-0.004827375
175	0x3aea01ac	0.0017853281
176	0x3beff857	0.0073233056
177	0x3bc1b7cd	0.0059118033
178	0x3bf627b8	0.007512059
179	0x3ace359c	0.001573253
180	0xbba1a65a	-0.0049331607
181	0x3ae7e9a4	0.0017693532
182	0xbb802f2e	-0.0039118743
183	0x3bd7de36	0.006587769
184	0xbbfdb015	-0.007741938
185	0x3bab8d45	0.0052353465
186	0xbbfc0141	-0.007690579
187	0x3b3730b2	0.0027952609
188	0xb9430194	-0.00018597237
189	0xbb0eb716	-0.0021776608
190	0xbbe655fd	-0.0070292936
191	0x3a44ff4e	0.000751485

gru.weight_ih_l0_reverse f4 [192, 6]
0	0x3e08ad66	0.13347396
1	0x3e0112bc	0.12604803
2	0x3e2f97c4	0.17147738
3	0xbd1b9951	-0.03798801
4	0xbe75979a	-0.23983613
5	0xbe1c8146	-0.15283689
6	0x3e68dfa1	0.22741558
7	0x3e1260f2	0.14294794
8	0x3e15b023	0.14617972
9	0x3e0997fc	0.13436884
10	0xbe621d92	-0.22081593
11	0xbe589434	-0.21150285
12	0xbb70bc75	-0.0036733423
13	0xbe13347e	-0.14375493
14	0x3d2a1985	0.041528244
15	0x3e4caba2	0.19987348
16	0xbdd74677	-0.10511487
17	0x3e41453c	0.18874067
18	0xbe7e6855	-0.24844487
19	0x3e452aa6	0.1925455
20	0x3e0f626b	0.14002387
21	0x3d715e8f	0.05892807
22	0x3d643de3	0.055723082
23	0xbdd6171e	-0.10453628
24	0xbdc19bf2	-0.09453572
25	0x3d8328ff	0.06404304
26	0x3bb7d534	0.0056101326
27	0xbdd9fd9c	-0.10644075
28	0xbd936aa1	-0.07198072
29	0x3e55ac1c	0.20866436
30	0xbcb84385	-0.022493133
31	0x3e1b8fd7	0.1519159
32	0xbd9ede0b	-0.07757195
33	0x3e4db587	0.20088778
34	0xbe7f9513	-0.24959211
35	0x3b96fa3f	0.0046074684
36	0x3e0aae97	0.13543163
37	0x3d51a757	0.05118498
38	0x3d4b1eb6	0.049589835
39	0x3e656d47	0.22404967
40	0xbe25ea0b	-0.16202562
41	0xbd3fbd65	-0.04681148
42	0xbd181529	-0.037129555
43	0x3e2d9271	0.16950394
44	0x3e0730b7	0.13202177
45	0x3dd7c714	0.10536018
46	0x3e334687	0.17507373
47	0x3d8d6f11	0.0690595
48	0xbdfa30a1	-0.122163065
49	0x3dcfd928	0.10148841
50	0x3e3d1e6c	0.18468636
51	0x3d9f73e0	0.07785773
52	0xbe1ccf4c	-0.15313452
53	0xbe4a74d3	-0.19771127
54	0x3e32ca03	0.17459874
55	0x3e18a67b	0.14907257
56	0x3d498ba4	0.049205437
57	0xbe420d40	-0.18950367
58	0xbe0add91	-0.13561083
59	0x3dae8fd6	0.08523528
60	0xbe1ecfa4	-0.15508896
61	0xbd0ba834	-0.034095958
62	0x3cfc3307	0.03078605
63	0xbe3d4554	-0.18483478
64	0x3df0b438	0.11753124
65	0xbe1c1194	-0.1524108
66	0xbcccf589	-0.025019424
67	0x3df002ee	0.11719309
68	0x3e2b135d	0.16706605
69	0xbcb6be59	-0.022307562
70	0xbd2d34c5	-0.042286653
71	0x3e1831be	0.14862725
72	0x3ddf5506	0.10904889
73	0xbe0e1b5b	-0.13877623
74	0xbde396e1	-0.11112762
75	0x3e4fb180	0.20282555
76	0x3e5f4e93	0.21807317
77	0xbe22c1f4	-0.158943
78	0xbe4d6084	-0.20056349
79	0x3db2bf0c	0.087278455
80	0xbe60cae2	-0.21952394
81	0xbdcedb95	-0.10100476
82	0x3d6f3952	0.058404274
83	0x3d70f7ac	0.05882995
84	0xbe4256fe	-0.18978497
85	0xbe39f2b1	-0.18158986
86	0xbe643ba2	-0.22288373
87	0x3cbfbec7	0.0234064
88	0xbe150733	-0.14553528
89	0x3e4a601c	0.19763225
90	0xbe155ee3	-0.14586978
91	0xbd635051	-0.055496518
92	0xbdedfa25	-0.11619977
93	0x3e0e0bf1	0.13871743
94	0xbc75121d	-0.014957932
95	0xbe6afc70	-0.2294786
96	0x3e408386	0.18800172
97	0xbe469603	-0.19393162
98	0xbae8f1d3	-0.0017772265
99	0x3d90d755	0.07072321
100	0x3d85cbeb	0.06533035
101	0xbdadb34e	-0.08481465
102	0x3d4ed9d6	0.050500713
103	0xbe23f6e3	-0.16012149
104	0xbe31f7de	-0.1737971
105	0xbca2b599	-0.019861983
106	0x3e3753f2	0.17903116
107	0xbda84be9	-0.08217604
108	0x3d79c252	0.060976334
109	0xbe6d90e6	-0.23199806
110	0xbe4dabf1	-0.20085122
111	0xbdb901ce	-0.09033547
112	0x3e5ead44	0.21745783
113	0xbdf1da6d	-0.118092395
114	0x3e1c87f3	0.15286236
115	0x3e17d64a	0.14827839
116	0xbcbf8a43	-0.023381358
117	0xbe6d67e5	-0.23184164
118	0x3e2c4c01	0.16825868
119	0xbe775184	-0.2415219
120	0x3e8167c9	0.25274494
121	0x3d5ad249	0.0534232
122	0x3e492f56	0.19646963
123	0xbe64b885	-0.22336014
124	0x3e7fc89d	0.24978872
125	0x3e22e560	0.15907812
126	0x3e3f0dfd	0.1865768
127	0x3e521766	0.20516738
128	0x3e1f8eea	0.15581861
129	0x3e191c1a	0.14952126
130	0xbdf703c9	-0.12061269
131	0x3cdb2503	0.026751047
132	0x3b092b6c	0.0020930422
133	0x3e0f6153	0.1400197
134	0xbd0af3b6	-0.033923827
135	0x3ca460d0	0.020065695
136	0xbdae4f4f	-0.08511221
137	0x3ba539c8	0.0050422885
138	0x3e3575b1	0.17720677
139	0x3e688bc7	0.22709571
140	0xbda38033	-0.079834364
141	0x3e29b48b	0.16572778
142	0x3d844af6	0.0645961
143	0xbd452388	-0.04812959
144	0xbcc46812	-0.023975406
145	0x3d393b99	0.045222852
146	0xbe53339d	-0.20625158
147	0x3d673c39	0.056453917
148	0xbe10f74b	-0.14156835
149	0x3d94d7d2	0.07267727
150	0x3e498aaf	0.1968181
151	0x3d8fbf02	0.07018854
152	0xbb3ee79e	-0.0029129754
153	0xbe279057	-0.16363655
154	0x3cf8192c	0.03028544
155	0x3dcb7c3e	0.09935807
156	0x3e65d028	0.22442687
157	0xbe090663	-0.13381343
158	0xbdec5ef8	-0.11541551
159	0xbd44f401	-0.048084263
160	0xbe47d873	-0.19516163
161	0x3e32e0a1	0.17468502
162	0x3ccce68a	0.025012273
163	0x3e64affc	0.22332758
164	0x3dcf207a	0.10113616
165	0xbe253459	-0.1613325
166	0x3c8bb191	0.017052444
167	0xbd95f028	-0.07321197
168	0xbdf0bb47	-0.1175447
169	0xbe195f99	-0.14977874
170	0x3e25478a	0.16140571
171	0xbd3536ad	-0.044241596
172	0xbd4c4fb4	-0.0498807
173	0xbe680aa8	-0.22660315
174	0x3e3ba055	0.1832288
175	0xbdd55f46	-0.104185626
176	0x3d62b09c	0.05534421
177	0x3cb5cc09	0.022192018
178	0xbe7295f6	-0.23690018
179	0xbe5d9b43	-0.21641259
180	0x3e28eb96	0.16496119
181	0xbd607ddc	-0.05480753
182	0x3dac79e3	0.084216855
183	0x3db54883	0.08851721
184	0xbb4b5ebd	-0.003103181
185	0x3d389acf	0.045069512
186	0xbe20eafb	-0.15714638
187	0x3e5cbdd8	0.21556795
188	0x3e14abec	0.14518708
189	0x3c884389	0.016633766
190	0x3e2e7638	0.17037284
191	0x3d8e945c	0.06961891
192	0xbd855963	-0.0651119
193	0xbe5ebbfc	-0.21751398
194	0x3d8db318	0.06918925
195	0xbe14285b	-0.1446852
196	0x3e6ab4bb	0.22920506
197	0x3e3cdd02	0.18443683
198	0xbe3f5621	-0.186852
199	0xbe4b1c9b	-0.19835131
200	0xbd7754f4	-0.060383752
201	0xbe564add	-0.20926996
202	0xbe124e55	-0.14287694
203	0x3e44b2fb	0.192089
204	0xbe3b2e43	-0.18279366
205	0xbd44dcde	-0.048062198
206	0xbda42daa	-0.08016522
207	0xbd2813a9	-0.041034374
208	0xbe849b44	-0.25899708
209	0xbe51e89d	-0.20498891
210	0x3d8e19f6	0.069385454
211	0xbdc5eb81	-0.096640594
212	0x3e13c5d3	0.14430933
213	0x3dac10fb	0.08401676
214	0xbdfc0204	-0.12305072
215	0xbdf76f27	-0.120817475
216	0x3e3c661a	0.18398324
217	0x3cf7afef	0.030235259
218	0x3df40fcb	0.11917075
219	0x3ad0b66a	0.0015923504
220	0xbca45eae	-0.020064678
221	0xbc59d857	-0.013296208
222	0xbdfb1fad	-0.12261901
223	0xbddbc020	-0.10730004
224	0x3d94ea64	0.07271269
225	0xbdcffa3c	-0.1015515
226	0xbc9e65ed	-0.019335711
227	0xbdd0680f	-0.101760976
228	0x3e6b9247	0.23005019
229	0xbddfd553	-0.1092936
230	0x3e34e95d	0.17667146
231	0xbe45604b	-0.19275014
232	0x3e11c0a5	0.14233644
233	0x3df1a09a	0.117982104
234	0xbe594e9e	-0.21221396
235	0x3e72ec23	0.23722892
236	0xbe3abdd7	-0.1823648
237	0x3c72f755	0.014829476
238	0x3e7177da	0.23580876
239	0x3e145cad	0.14488478
240	0xbdd1bb2f	-0.102407806
241	0xbdac8c98	-0.08425254
242	0xbdeab1c5	-0.11459688
243	0x3e206f8f	0.15667556
244	0xbe421772	-0.18954256
245	0xbe66a0f9	-0.22522344
246	0xbdb8ab5b	-0.090170585
247	0x3e1ecf0f	0.15508674
248	0x3cfa417b	0.030548802
249	0xbe588689	-0.21145071
250	0x3d3ae3f9	0.045627568
251	0x3dde1222	0.10843302
252	0x3d9dcd1e	0.077051386
253	0x3e6b4a90	0.22977662
254	0x3e170296	0.1474708
255	0xbe44070f	-0.19143318

gru.weight_hh_l0_reverse f4 [192, 64]
0	0xbdd79510	-0.10526478
1	0x3d80f787	0.06297212
2	0xbdf350bb	-0.118806325
3	0xbd3aff73	-0.04565377
4	0x3d7a0000	0.061035156
5	0x3e0bc941	0.13650991
6	0xbc9ffcc9	-0.019529717
7	0x3de3876f	0.11109816
8	0x3dd6d473	0.1048974
9	0xbcea0d38	-0.028570756
10	0x3dc968e2	0.09834458
11	0x3c6c4fd5	0.01442333
12	0x3d69ecfe	0.05711078
13	0xbc3ec88d	-0.011644495
14	0x3d186def	0.037214216
15	0xbdb13673	-0.086529635
16	0x3ddf4fe4	0.1090391
17	0xbb2da0d2	-0.0026493561
18	0xbdba886e	-0.09108053
19	0xbd1e7373	-0.03868432
20	0x3d22be13	0.03973205
21	0xbd40631e	-0.046969526
22	0xbc5c7d3b	-0.013457592
23	0xbd6071f9	-0.054796193
24	0x3d4387fd	0.04773711
25	0x3c7ce7f7	0.015436164
26	0x3cea2b95	0.028585235
27	0xbd96ab00	-0.073568344
28	0x3d796a44	0.06089236
29	0x3e16d5e0	0.14730024
30	0xbb8f1137	-0.004366066
31	0x3d6a60df	0.05722129
32	0x3da0a68b	0.078442656
33	0x3dd17809	0.10227973
34	0x3d27f3bd	0.04100393
35	0xbd130f4f	-0.03590327
36	0xbd5e6a33	-0.0543005
37	0x3d23ad83	0.039960396
38	0x3d7a1cd9	0.061062668
39	0x3c7b14f5	0.015324821
40	0xbda7c746	-0.08192305
41	0xbe59e948	-0.21280396
42	0xbbc6f9bc	-0.006072251
43	0x3d3d0a75	0.04615255
44	0x3e12030f	0.1425898
45	0xbdb96174	-0.09051791
46	0x3d400209	0.04687694
47	0x3da7dffc	0.081970185
48	0xbd4a074a	-0.049323358
49	0x3da3b9c7	0.079944186
50	0xbd246978	-0.040139645
51	0xbc7029eb	-0.0146584315
52	0x3d55c0b1	0.052185718
53	0x39a5e019	0.00031638218
54	0x3d6bd1ca	0.057573117
55	0x3db19aea	0.08672126
56	0x3af36511	0.0018569549
57	0x3db2f08b	0.08737286
58	0x3d5b1b4e	0.053492837
59	0xbd84a9b7	-0.06477683
60	0x3cdeb388	0.027185217
61	0x3e5ed7bb	0.21761982
62	0xbdad3a50	-0.08458388
63	0x3d040be6	0.03223791
64	0xbd9d3e15	-0.07677857
65	0x3cd1fe24	0.025633879
66	0x3df7852a	0.12085946
67	0x3c962f47	0.01833309
68	0xbccc252b	-0.024920067
69	0xbde12941	-0.10994197
70	0x3d356d34	0.044293597
71	0xbc0ffebc	-0.008788761
72	0x3c2f5498	0.010701321
73	0x3d551370	0.05202049
74	0x3d9d8869	0.07692034
75	0x3c86df2f	0.016463844
76	0x3e1a34c5	0.15059192
77	0x3ca76ade	0.0204367
78	0x3e196fa9	0.14984001
79	0xbacd1046	-0.0015645109
80	0xbe35238b	-0.1768934
81	0x3db133d2	0.08652462
82	0xbce7e9f6	-0.028309803
83	0x3a858960	0.0010188036
84	0xbe241be7	-0.16026269
85	0xbcdf1e6d	-0.027236188
86	0x3d82cb29	0.06386406
87	0x3dbedec2	0.093198314
88	0xbd8f1336	-0.06986086
89	0x3d227216	0.039659582
90	0x3c815c26	0.01579101
91	0xbd5d9fb9	-0.0541074
92	0x3d205e13	0.039152216
93	0xbd927065	-0.07150344
94	0x3d1bf440	0.03807473
95	0x3d856064	0.06512526
96	0xbdc1496b	-0.094378315
97	0x3c95331b	0.018212846
98	0xbd4164a1	-0.047215108
99	0x3bad25ce	0.0052840477
100	0x3dd04b6b	0.10170635
101	0x3d1e3a03	0.038629543
102	0x3d816422	0.06317927
103	0xbbefc757	-0.0073174643
104	0xbd5ba767	-0.053626444
105	0xbc489c32	-0.012244271
106	0x3db026e4	0.08601168
107	0xbc9badbb	-0.01900374
108	0xbd00edc5	-0.031476755
109	0xbde8b234	-0.113621145
110	0x3bbb7870	0.0057211444
111	0xbd78551a	-0.060628034
112	0x3e2ac4c1	0.16676618
113	0x3d59a475	0.053135354
114	0xbd11dad7	-0.035609093
115	0x3cbf59e6	0.023358297
116	0x3e1c728b	0.1527807
117	0x3e07ed2c	0.13274068
118	0x3d8ad7ca	0.0677944
119	0x3dbf51d6	0.09341781
120	0x3d39babd	0.045344103
121	0x3db03070	0.08602989
122	0x3da55875	0.080735125
123	0x3c450f08	0.0120275095
124	0x3d3ddb06	0.046351455
125	0xbd33df37	-0.043914046
126	0x3dc27c36	0.094963476
127	0x3a6b466f	0.0008975034
128	0x3d2d7727	0.04234996
129	0x3cb24e01	0.02176571
130	0xbd546c8c	-0.05186133
131	0xbbfe011a	-0.007751596
132	0xbdd33141	-0.10312129
133	0xbc8b8677	-0.017031891
134	0xbd756faf	-0.059920963
135	0x3d0b0b44	0.03394629
136	0x3dfbafa6	0.12289362
137	0x3e04eb44	0.12980372
138	0x3d5f4659	0.054510448
139	0xbd79d3ae	-0.06099289
140	0x3d267e14	0.04064758
141	0xbdae0c65	-0.08498458
142	0x3d82ac5a	0.0638053
143	0xbc9d4d95	-0.019202033
144	0x3cd04ddb	0.02542775
145	0x3dd9c837	0.10633891
146	0xbb6ba4d4	-0.00359564
147	0x3d61ddce	0.05514317
148	0xbd5b447b	-0.053532105
149	0xbcabbaca	-0.020963091
150	0x3e0d6523	0.13808112
151	0xbc1ab2c7	-0.009442038
152	0xbc0b72c9	-0.008511254
153	0xbd393b65	-0.04522266
154	0x3d99c95a	0.07509108
155	0xbd8c49e2	-0.068500295
156	0x3d15e407	0.036594417
157	0x3dd55990	0.10417473
158	0xbb9e892f	-0.004838131
159	0xbdaf5a84	-0.08562186
160	0xbd0ac4b6	-0.033879004
161	0xbe493700	-0.19649887
162	0x3d84fbad	0.06493316
163	0xbd4ef745	-0.050528783
164	0xbdd345d6	-0.103160545
165	0xbd8173e2	-0.06320931
166	0xbd6196ea	-0.055075563
167	0x3dbd1fa5	0.09234551
168	0x3cbad297	0.022805495
169	0xbe289c45	-0.16465862
170	0x3cbff123	0.023430413
171	0xbbf8cf1a	-0.007593048
172	0xbd128266	-0.03576889
173	0xbd76e644	-0.060278192
174	0x3e00bba1	0.12571575
175	0xbd8bb283	-0.06821158
176	0x3d3f83a8	0.046756417
177	0xbd8272e5	-0.06369571
178	0xbd32b46d	-0.0436291
179	0x3d9196c6	0.07108836
180	0x3dd5be24	0.10436657
181	0xbdaffc08	-0.08592993
182	0xbd919069	-0.07107622
183	0xbdfcbd19	-0.12340755
184	0xbd746ba7	-0.059672978
185	0x3c49d4bd	0.012318787
186	0x3dcef88f	0.101060025
187	0x3dec9864	0.11552504
188	0x3d708a0d	0.058725405
189	0x3d392d6e	0.04520934
190	0xbbb1603c	-0.0054130834
191	0xbde211fb	-0.11038586
192	0xbdcffce9	-0.10155661
193	0xbd87b2d9	-0.06625909
194	0xbd40ec11	-0.04710013
195	0xbd96942b	-0.073524795
196	0x3d746fa8	0.059676796
197	0xbd4a6f03	-0.049422275
198	0x3dbffe58	0.09374684
199	0x3ce79c30	0.028272718
200	0xbcdfe002	-0.027328495
201	0xbd44c5b3	-0.048040103
202	0x3d4f646e	0.050632887
203	0xbd6b30d9	-0.05741963
204	0x3d81d255	0.06338946
205	0x3d5d86bb	0.054083567
206	0xbd44f9cb	-0.048089784
207	0x3d8e8d6c	0.06960568
208	0xbdb1433a	-0.086554006
209	0xbc87c164	-0.016571708
210	0xbda14224	-0.078739434
211	0xbdba6d26	-0.0910285
212	0x3e4ba378	0.19886577
213	0x3d0a0e30	0.033704937
214	0xbd4f260a	-0.050573386
215	0x3d9b19b4	0.07573262
216	0xbd08eb4f	-0.033427533
217	0xbddabca2	-0.1068051
218	0x3d080a8d	0.033213187
219	0xbd8bb04a	-0.06820734
220	0x3c920229	0.017823296
221	0x3e1554ce	0.14583132
222	0x3dc8e73d	0.0980973
223	0xbdb0c96d	-0.08632169
224	0x3daadbbe	0.08342694
225	0x3de17f41	0.110106
226	0xbaf55f88	-0.0018720487
227	0x3d3436e3	0.043997657
228	0x3d703541	0.058644537
229	0xbd8595de	-0.065227255
230	0x3d8812e2	0.066442266
231	0x3c6b5bdd	0.014365164
232	0x3d8059c5	0.06267122
233	0xbc9bc957	-0.019016905
234	0x3d90189a	0.070359424
235	0x3d98589c	0.07438776
236	0x3dfa18af	0.12211739
237	0x3d786d83	0.060651314
238	0xbcd18db4	-0.025580265
239	0x3e1a1045	0.15045269
240	0x3de6baa3	0.11266067
241	0x3d97ba53	0.074085854
242	0xbc3c6d82	-0.011500718
243	0x3cce9b49	0.02522053
244	0x3ce3c32f	0.027803032
245	0x3df71122	0.12063815
246	0xbc9a6a20	-0.018849432
247	0x3c674f9c	0.014118101
248	0xbdcfc6da	-0.1014535
249	0x3d300c9b	0.04298077
250	0xbddc20b3	-0.107484244
251	0x3c7cf56f	0.015439375
252	0x3bafa875	0.005360658
253	0xbd4edf61	-0.050506
254	0x3c83d345	0.016091952
255	0x3d25d57a	0.04048679

gru.bias_ih_l0_reverse f4 [192]
0	0xbb2f9e39	-0.002679719
1	0x3c62dbb7	0.013846329
2	0xbbfa5fc3	-0.00764081
3	0xbc1baa8a	-0.009501109
4	0x3b8d51bd	0.0043127225
5	0x3c1015fc	0.008794304
6	0x3ba255c9	0.004954074
7	0x3c5765d6	0.013146838
8	0x3b54f482	0.003249437
9	0x3cb8d6c8	0.022563353
10	0x3ca2f7b7	0.01989351
11	0xbb09c5f9	-0.0021022542
12	0x3ca4d904	0.020123012
13	0x3c5408c7	0.012941546
14	0xbbd558b0	-0.0065108165
15	0x3caa27e0	0.020770967
16	0x3c999e91	0.018752368
17	0x3bfb0447	0.007660422
18	0xbc180cc1	-0.0092803845
19	0x3c36be23	0.011153731
20	0x3c5bd551	0.013417558
21	0x3c1296db	0.0089471
22	0x3ac582d6	0.0015068899
23	0x3abb820a	0.0014305722
24	0xba6eda75	-0.0009111532
25	0x3c8d46e6	0.017245721
26	0x3b45d2e6	0.003018552
27	0x3bdebfb8	0.006797757
28	0x3bf7b01b	0.007558835
29	0x3ca609bb	0.020268312
30	0x3bbf2e11	0.005834349
31	0xbb49a204	-0.0030766735
32	0x3be04951	0.0068446775
33	0x3bcb0b85	0.0061964416
34	0xbc150d2c	-0.009097379
35	0xbb407798	-0.0029368158
36	0x3c88c220	0.016694129
37	0x3c6259c5	0.013815348
38	0x3cc1ada0	0.023642361
39	0x3c30889e	0.01077476
40	0x3c090997	0.008364103
41	0x3b548f1e	0.0032433937
42	0x3c4148fd	0.011797187
43	0x3c6ac8ff	0.014330148
44	0x3cb81503	0.022470957
45	0x3c0ae266	0.008476829
46	0x3be2d6c3	0.0069225742
47	0x3bac6e2b	0.0052621565
48	0x3c40f7f6	0.0117778685
49	0xba9a11be	-0.0011754555
50	0xbb78208c	-0.0037861196
51	0x3cf35868	0.029705241
52	0xbb3dc0fb	-0.0028954137
53	0x3c3bfead	0.011474294
54	0xba05f54b	-0.0005110099
55	0x3ba213bb	0.0049461997
56	0x3c1686d8	0.009187423
57	0xbc785021	-0.015155823
58	0xbb35eb94	-0.0027758824
59	0x3b5b13a0	0.0033428445
60	0x3c97da63	0.018536752
61	0x3c626e4f	0.013820245
62	0x3bdfc4d7	0.006828885
63	0xbb77b3ce	-0.003779638
64	0xbccad6ff	-0.024760721
65	0x3c4c42eb	0.012467126
66	0x3ba9e9e6	0.0051853536
67	0x3be7f255	0.007078449
68	0x3cac763a	0.021052469
69	0xbc45f1ca	-0.012081573
70	0x3c779f12	0.015113609
71	0x3d04408e	0.032288127
72	0xbbef426a	-0.0073016183
73	0x3b772e45	0.0037716788
74	0x3ba9f188	0.0051862635
75	0x3bcb5c85	0.0062060975
76	0x3d1f28c3	0.038857233
77	0x3d03ef33	0.03221054
78	0xbc909da6	-0.017653298
79	0x3cea4525	0.028597424
80	0x3cb102f5	0.021607855
81	0x3cccc374	0.024995543
82	0x3d259b6e	0.040431432
83	0x3b833744	0.004004391
84	0x3ceeef66	0.029166888
85	0xbc9d7ecb	-0.019225499
86	0xbadddc9c	-0.0016926709
87	0x3c9adcfb	0.0189042
88	0xbc250be4	-0.010073636
89	0x3d05e47e	0.03268861
90	0x3cb4277a	0.02199148
91	0x3bd6424d	0.0065386654
92	0x3bcc95b2	0.006243431
93	0x3c67ccf5	0.014147987
94	0x3c477185	0.012173061
95	0x3c3d7710	0.011564031
96	0x3c9a1716	0.018809836
97	0x3cb0c2d9	0.021577286
98	0x3ab53fbb	0.0013828197
99	0x3cf3ae5f	0.029746233
100	0x3d07483d	0.033027876
101	0x3cd889d3	0.026432907
102	0x3d1005fd	0.03516196
103	0x3c3e2d01	0.011607409
104	0x3c64798b	0.013944994
105	0xbc494a38	-0.012285762
106	0x3cacca65	0.021092603
107	0xbc85e77a	-0.016345728
108	0xbbb2ac9b	-0.005452705
109	0x3ca60060	0.02026385
110	0x3d0a861d	0.033819307
111	0xbc841631	-0.016123863
112	0xbcc4498e	-0.023960855
113	0xbc11cac4	-0.008898441
114	0xbc888fce	-0.016670134
115	0xbc0d39dc	-0.008619752
116	0xbc421527	-0.011845863
117	0x3ccfd58d	0.025370384
118	0xbccba6f8	-0.02485989
119	0x3cdbcef0	0.026832074
120	0x3d36f17b	0.044663887
121	0x3c8781ad	0.016541326
122	0xbcc85cd6	-0.02445833
123	0x3baf33fd	0.0053467737
124	0xbced2172	-0.028946612
125	0xbc243080	-0.010021329
126	0x3c8e6876	0.017383795
127	0x3c2e7aa5	0.010649358
128	0x3b6d034f	0.0036165302
129	0x3a19b130	0.000586289
130	0x3b04b9bf	0.0020252315
131	0xbb13f59c	-0.0022576815
132	0x3b3dbc96	0.0028951517
133	0xbbb3b637	-0.005484368
134	0x3bbc473e	0.0057457974
135	0x3bd82155	0.0065957704
136	0x3ad67443	0.0016361553
137	0xbbb3b0f4	-0.005483741
138	0xbb857c5f	-0.004073664
139	0xbb4331d6	-0.0029784343
140	0x3b5d4610	0.0033763684
141	0x3b646422	0.0034849723
142	0xb9945613	-0.0002829289
143	0x3aba1d3d	0.0014199388
144	0x3ae65885	0.0017573988
145	0x3b0f4b32	0.0021864888
146	0x3b0638ef	0.0020480712
147	0xbb20a8fe	-0.002451479
148	0x3c005d4a	0.007834742
149	0x3baf2de3	0.0053460463
150	0xb9f1cb84	-0.00046118733
151	0xbba39ebc	-0.004993288
152	0x3839384c	4.4159868e-05
153	0x3c42c843	0.011888566
154	0xbc51d981	-0.012808205
155	0x3b4540b6	0.0030098385
156	0xbc3541cb	-0.01106305
157	0xbabb7644	-0.0014302214
158	0xbad60c68	-0.0016330602
159	0x3c279fb7	0.01023095
160	0xbad0be62	-0.0015925879
161	0x3bd9707b	0.006635723
162	0xb92a46e2	-0.0001623887
163	0xbb7c81a1	-0.0038529413
164	0x3b41a81f	0.002954967
165	0xba63b6fb	-0.0008686629
166	0x3b86816e	0.0041047847
167	0x3b48896d	0.003059949
168	0x3aa27deb	0.0012397146
169	0xba3834b2	-0.0007026895
170	0xbb2adc67	-0.0026071311
171	0xb9de5eaa	-0.0004241367
172	0x3ae47618	0.0017430214
173	0xbb53ee72	-0.003233817
174	0xbb1ca693	-0.0023902997
175	0x3a05c97a	0.000510357
176	0x3a6d5451	0.00090533966
177	0x3a04450e	0.00050456903
178	0xbb8be5de	-0.0042693457
179	0x3a94b592	0.0011345616
180	0x3ac71069	0.0015187386
181	0x3aba049d	0.0014192049
182	0x3b050c79	0.0020301624
183	0x3b7ab81f	0.0038256717
184	0xb933c3de	-0.00017143736
185	0xbb74eba0	-0.0037371889
186	0x3b2339f7	0.0024906376
187	0xbb461c95	-0.0030229439
188	0x3b1beaf7	0.0023791173
189	0x381683dc	3.588559e-05
190	0xbb80bee6	-0.003929007
191	0xbc2128a0	-0.009836346

gru.bias_hh_l0_reverse f4 [192]
0	0xbb2f9e39	-0.002679719
1	0x3c62dbb7	0.013846329
2	0xbbfa5fc3	-0.00764081
3	0xbc1baa8a	-0.009501109
4	0x3b8d51bd	0.0043127225
5	0x3c1015fc	0.008794304
6	0x3ba255c9	0.004954074
7	0x3c5765d6	0.013146838
8	0x3b54f482	0.003249437
9	0x3cb8d6c8	0.022563353
10	0x3ca2f7b7	0.01989351
11	0xbb09c5f9	-0.0021022542
12	0x3ca4d904	0.020123012
13	0x3c5408c7	0.012941546
14	0xbbd558b0	-0.0065108165
15	0x3caa27e0	0.020770967
16	0x3c999e91	0.018752368
17	0x3bfb0447	0.007660422
18	0xbc180cc1	-0.0092803845
19	0x3c36be23	0.011153731
20	0x3c5bd551	0.013417558
21	0x3c1296db	0.0089471
22	0x3ac582d6	0.0015068899
23	0x3abb820a	0.0014305722
24	0xba6eda75	-0.0009111532
25	0x3c8d46e6	0.017245721
26	0x3b45d2e6	0.003018552
27	0x3bdebfb8	0.006797757
28	0x3bf7b01b	0.007558835
29	0x3ca609bb	0.020268312
30	0x3bbf2e11	0.005834349
31	0xbb49a204	-0.0030766735
32	0x3be04951	0.0068446775
33	0x3bcb0b85	0.0061964416
34	0xbc150d2c	-0.009097379
35	0xbb407798	-0.0029368158
36	0x3c88c220	0.016694129
37	0x3c6259c5	0.013815348
38	0x3cc1ada0	0.023642361
39	0x3c30889e	0.01077476
40	0x3c090997	0.008364103
41	0x3b548f1e	0.0032433937
42	0x3c4148fd	0.011797187
43	0x3c6ac8ff	0.014330148
44	0x3cb81503	0.022470957
45	0x3c0ae266	0.008476829
46	0x3be2d6c3	0.0069225742
47	0x3bac6e2b	0.0052621565
48	0x3c40f7f6	0.0117778685
49	0xba9a11be	-0.0011754555
50	0xbb78208c	-0.0037861196
51	0x3cf35868	0.029705241
52	0xbb3dc0fb	-0.0028954137
53	0x3c3bfead	0.011474294
54	0xba05f54b	-0.0005110099
55	0x3ba213bb	0.0049461997
56	0x3c1686d8	0.009187423
57	0xbc785021	-0.015155823
58	0xbb35eb94	-0.0027758824
59	0x3b5b13a0	0.0033428445
60	0x3c97da63	0.018536752
61	0x3c626e4f	0.013820245
62	0x3bdfc4d7	0.006828885
63	0xbb77b3ce	-0.003779638
64	0xbccad6ff	-0.024760721
65	0x3c4c42eb	0.012467126
66	0x3ba9e9e6	0.0051853536
67	0x3be7f255	0.007078449
68	0x3cac763a	0.021052469
69	0xbc45f1ca	-0.012081573
70	0x3c779f12	0.015113609
71	0x3d04408e	0.032288127
72	0xbbef426a	-0.0073016183
73	0x3b772e45	0.0037716788
74	0x3ba9f188	0.0051862635
75	0x3bcb5c85	0.0062060975
76	0x3d1f28c3	0.038857233
77	0x3d03ef33	0.03221054
78	0xbc909da6	-0.017653298
79	0x3cea4525	0.028597424
80	0x3cb102f5	0.021607855
81	0x3cccc374	0.024995543
82	0x3d259b6e	0.040431432
83	0x3b833744	0.004004391
84	0x3ceeef66	0.029166888
85	0xbc9d7ecb	-0.019225499
86	0xbadddc9c	-0.0016926709
87	0x3c9adcfb	0.0189042
88	0xbc250be4	-0.010073636
89	0x3d05e47e	0.03268861
90	0x3cb4277a	0.02199148
91	0x3bd6424d	0.0065386654
92	0x3bcc95b2	0.006243431
93	0x3c67ccf5	0.014147987
94	0x3c477185	0.012173061
95	0x3c3d7710	0.011564031
96	0x3c9a1716	0.018809836
97	0x3cb0c2d9	0.021577286
98	0x3ab53fbb	0.0013828197
99	0x3cf3ae5f	0.029746233
100	0x3d07483d	0.033027876
101	0x3cd889d3	0.026432907
102	0x3d1005fd	0.03516196
103	0x3c3e2d01	0.011607409
104	0x3c64798b	0.013944994
105	0xbc494a38	-0.012285762
106	0x3cacca65	0.021092603
107	0xbc85e77a	-0.016345728
108	0xbbb2ac9b	-0.005452705
109	0x3ca60060	0.02026385
110	0x3d0a861d	0.033819307
111	0xbc841631	-0.016123863
112	0xbcc4498e	-0.023960855
113	0xbc11cac4	-0.008898441
114	0xbc888fce	-0.016670134
115	0xbc0d39dc	-0.008619752
116	0xbc421527	-0.011845863
117	0x3ccfd58d	0.025370384
118	0xbccba6f8	-0.02485989
119	0x3cdbcef0	0.026832074
120	0x3d36f17b	0.044663887
121	0x3c8781ad	0.016541326
122	0xbcc85cd6	-0.02445833
123	0x3baf33fd	0.0053467737
124	0xbced2172	-0.028946612
125	0xbc243080	-0.010021329
126	0x3c8e6876	0.017383795
127	0x3c2e7aa5	0.010649358
128	0x3b7e4d59	0.0038803427
129	0x3a42fac9	0.00074378826
130	0x3b2f381c	0.0026736325
131	0xbad3d73e	-0.001616217
132	0x3aa45ead	0.0012540423
133	0xbba10388	-0.004913751
134	0x3be012ec	0.006838193
135	0x3bd9cc6a	0.0066466825
136	0x3b346642	0.002752677
137	0xbbb3db92	-0.0054888213
138	0xbb9042c0	-0.0044024885
139	0xbb42a286	-0.0029698922
140	0x3bbf9e63	0.0058477386
141	0x3b8d1cb9	0.0043064025
142	0x3844723e	4.6836438e-05
143	0x3ae4110b	0.0017400099
144	0x3afaf504	0.0019146507
145	0x3b1b9db3	0.002374512
146	0x3a909ce4	0.0011033085
147	0xbb8059a1	-0.0039169346
148	0x3bfe73d4	0.0077652726
149	0x3ba67a1a	0.0050804736
150	0xb9ce91d6	-0.00039400038
151	0xbb953f7f	-0.0045546885
152	0xbac72af7	-0.00151953
153	0x3c3fea14	0.011713523
154	0xbc4ab233	-0.012371588
155	0x3adbd3ca	0.0016771492
156	0xbc26a886	-0.010172015
157	0xb898852c	-7.27273e-05
158	0xbb2fcece	-0.0026826146
159	0x3c248367	0.010041094
160	0xbaf4c696	-0.0018674906
161	0x3be44fbb	0.0069675124
162	0xb919e9dc	-0.00014678336
163	0xbb7e9ede	-0.0038852016
164	0x3b3b9564	0.002862298
165	0xba1cb96c	-0.0005978558
166	0x3ab1f61f	0.0013577378
167	0x3b6d3685	0.0036195826
168	0x3abf7c76	0.0014609236
169	0xba05c3c3	-0.0005102718
170	0xbb2bd86d	-0.002622153
171	0x3a8d7bfc	0.0010794397
172	0x3ae2f106	0.0017314262
173	0xbb5991f3	-0.0033198565
174	0xbac082f8	-0.0014687469
175	0x37d635fc	2.5535926e-05
176	0x3afffa11	0.0019529482
177	0x3a1bf548	0.00059493305
178	0xbb99dd5c	-0.0046955775
179	0xba55841e	-0.0008144992
180	0x3ada0d4e	0.0016636045
181	0x3b26aedf	0.002543382
182	0x3ae107fa	0.0017168515
183	0x3b8cb931	0.0042945375
184	0xb92dd0f3	-0.00016576405
185	0xbb90e99d	-0.00442238
186	0x3ad3c97f	0.0016158073
187	0xbb472c0b	-0.0030391242
188	0x3b47205b	0.0030384276
189	0x398bafa7	0.00026643017
190	0xbb973536	-0.0046144975
191	0xbc1d6cde	-0.0096084755
