results/training/gpt-oss-20b_a100_tp2/model_tp2_H64_biGRU.pt (torch, 482669 bytes, 22 tensors)

in_norm.weight f4 [6]
00000000: 8079 803f cbd4 813f 704e 813f 5015 813f
00000010: 2e0c 823f 5846 7e3f
1.0037079 1.0143064 1.0102062 1.0084629 1.0159967 0.99326086

in_norm.bias f4 [6]
00000000: df42 1a3b 6d92 64bc f448 6dbb bbf1 473c
00000010: f3c2 58bb 97f3 373c
0.0023538393 -0.013950926 -0.0036206814 0.012203629 -0.0033075183 0.01122751

gru.weight_ih_l0 f4 [192, 6]
00000000: 6d3f 08be fd11 abbd e30f 7d3c 4366 193e
00000010: 9c92 b8bc b061 033e e8df c83d 2b09 643e
00000020: f2dd 3abd bb68 303e fdcf f7bd eee1 573e
00000030: bb20 873c c8d6 3c3e fed4 ddbc b39e 80be
00000040: fd13 2cbe a372 ab3d 44a6 75bd fab9 253e
00000050: 7cf8 76be dcdf 573d f987 02bd 99c1 04be
00000060: c71e 843c 4143 49be 24e5 123e a5f4 88bd
00000070: 6795 bf3c b640 1fbd 8bcb 56be dd55 9abd
00000080: f58c 51bd bef8 c0bd 4363 5b3e 8a8f 52bd
00000090: b055 293e d99c 9ebb 55ed 3fbe fabf 80bd
000000a0: 20ee 803d 59ca b6bd f2e7 42be 64dd 9a3c
000000b0: d2fc 47bd a4bb 47be ab91 6bbe 839d 6a3d
000000c0: bdf1 1dbe 3b7c 3f3e 3c99 573e 9d83 0abe
000000d0: c003 473e 8253 493d ace9 153e 1922 5bbd
000000e0: 45f6 4a3d 26e2 7bbe 387d 503d 74be 8e3d
000000f0: 815c e13d 46c2 393e d7ed ee3d 2e3c 21bd
00000100: d698 44be 6ba1 47be 3107 9fbd 1fe7 6fbe
00000110: adf4 be3c d400 ac3d ded5 3cbe 9ced efbc
00000120: 0805 153e 7244 713d e507 663e a614 11be
00000130: 489d 29be c204 03be 95b7 993d 2c0c aa3d
00000140: 7817 ba3d f397 303e f508 ebbd a4fd 05bc
00000150: 9668 04be 493f c4bd 578e 6f3e ae3b 39be
00000160: 4635 ac3d 5d56 a13d 5397 cd3d de7a ad3d
00000170: db25 993c 8f85 9b3d db6a ffbd c177 6e3d
00000180: 3eb0 443e 6b3f 6cbd 0ecb 033d faa4 6bbe
00000190: 5550 4cbe 983a 83bd 02f3 fcbc ea4a 4d3e
000001a0: 3635 813d de32 9e3d 52b4 c4bd 54da 4cbc
000001b0: b802 403e 5f94 813e 161e 15bd ef2e a0bd
000001c0: 83ea d03b c444 86bb 0abe e4bd 453d 803d
000001d0: a9a4 5d3e b26c 0fbe 1233 4b3e 1089 133e
000001e0: d705 5ebe ed48 3f3d 4381 153e 3d0b 7dbd
000001f0: 1eab 4abe 6074 43be b2b4 c83d 6bb0 1dbd
00000200: e240 4fbd 99a9 b7bd 1cf3 93bd 7be2 c5bd
00000210: d350 31bd 3134 3cbd ad23 05be 90fc 40be
00000220: 6820 75be 0bfc 9dbc 6efb f23d 86f2 393e
00000230: 271e d23c a68a 2fbe 073b a8bd 2ad7 e1bd
00000240: 83fb 823d 414a 113e d1ff 673d c660 053e
00000250: f70c 2e3e 1b1c 173e 0a4c 793e f195 46be
00000260: f993 633e d91d 3c3e dd46 013d 5c10 363e
00000270: f048 dd3d 1d39 4ebe cd3a ec3d 55c3 efbd
00000280: b174 4c3d 4559 283d 586b 553d 543c 14be
00000290: 2543 053e 0121 ffbd 18ea 313e a2b4 2bbe
000002a0: df82 293e b8f0 3a3e 9e2f 3cbe 89a0 493e
000002b0: aafe e43d 67e9 98bc 2bfb cb3d 6a88 e0bc
000002c0: 07be 673e 525f 13be 9129 873e 8aba 12be
000002d0: 1265 423e b4b7 c03d 7a2b 9abd bc5b 673e
000002e0: d04b cc3d 04da e83d 589d 453e 4499 65be
000002f0: fa92 36be e531 2bbe aec7 7b3e 1d3b 1abe
00000300: 6007 ffbd 0f58 2e3d 72ed 503e 2931 4cbc
00000310: 416a 0fbd ea0e 503e 8c34 623e ba0f 203e
00000320: 1e4d 463e d97b 81be 0044 593e 79a9 5e3e
00000330: b346 be3c b3a4 05be 4e38 44be baed eabd
00000340: f123 d13d 6de4 3fbe f6d6 5fbe c795 a03d
00000350: e2d4 5fbe 4362 0e3d f9ff 97bd 2da8 05be
00000360: ff0a 313e 9688 973d 17dd 62bd d40b 483e
00000370: 0149 5dbe e72c 4ebe 7c8b 2bbe 0502 ed3d
00000380: 1420 39be b2f2 813d e90b 463e 9594 eabd
00000390: 06ad 843e f5a5 563e ae0f 71be 717b 543e
000003a0: 60ec c03d 9d02 42be 32d3 883d 66d2 14bb
000003b0: 8081 2abe 1242 483e ab95 453d 558b 3cbe
000003c0: 1345 623e 25d4 2dbe b40d 3cbe 6b01 76be
000003d0: 0c06 3f3e 3a67 2e3e 3072 343e 44c4 b13d
000003e0: d242 5bbe fbcb eebd 4cd9 afbd b275 0fbe
000003f0: d124 323e af73 79be d59b 81be 2fde 06bd
-0.13305445 -0.0835304 0.015445682 0.14980416 -0.022530846 0.12830234 0.09808332 0.22269122
-0.04562182 0.17227452 -0.121002175 0.21082279 0.0164951 0.18441308 -0.027079102 -0.25121078
-0.168045 0.083714746 -0.059973016 0.16184226 -0.24118227 0.052703723 -0.031867955 -0.12964477
0.016127957 -0.19654562 0.14345223 -0.06687287 0.02338667 -0.038880073 -0.20976083 -0.07535908
-0.051159818 -0.09422444 0.21424584 -0.05140642 0.16536593 -0.004840475 -0.18742879 -0.062866166
0.06295419 -0.089253135 -0.19033793 0.018904395 -0.048825093 -0.19505173 -0.23004787 0.05727912
-0.15424247 0.18699734 0.21054548 -0.13526769 0.19435024 0.049151905 0.1463992 -0.053499315
0.049551267 -0.24597988 0.050900668 0.0696992 0.11003972 0.18140516 0.11666458 -0.039364032
-0.19198927 -0.1949517 -0.077650435 -0.2342801 0.02331003 0.083985955 -0.18440959 -0.029288106
0.145527 0.058903165 0.22463949 -0.14168033 -0.16563904 -0.12794784 0.075057186 0.08303103
0.090865076 0.17245464 -0.11476318 -0.008178148 -0.12930521 -0.09582383 0.23394142 -0.18089172
0.084085986 0.078778006 0.100386284 0.08470701 0.018694809 0.07593834 -0.12471553 0.058219675
0.19207856 -0.057677668 0.03217607 -0.23012152 -0.19952519 -0.0640766 -0.030877594 0.20048109
0.06308977 0.07724546 -0.09604706 -0.012503225 0.18751037 0.2530851 -0.036405645 -0.07821452
0.006375612 -0.004097553 -0.111690596 0.06261686 0.21644844 -0.14006308 0.198437 0.14407754
-0.21681915 0.046700407 0.1460009 -0.061778296 -0.19791839 -0.19087362 0.0980009 -0.038498323
-0.050598986 -0.08967895 -0.07224104 -0.09662338 -0.04328997 -0.04594821 -0.1300189 -0.18846345
-0.23938143 -0.019285223 0.11864363 0.18158922 0.025649143 -0.17142734 -0.082143836 -0.110273674
0.06395628 0.14188482 0.05664045 0.13025197 0.16997133 0.14756815 0.24345413 -0.19393136
0.22224416 0.18370761 0.03156172 0.17779678 0.10804927 -0.20138974 0.11534653 -0.117071785
0.049915973 0.04110076 0.052104324 -0.14476138 0.13013895 -0.12457467 0.17374456 -0.16768125
0.1655383 0.1825589 -0.1837754 0.19690146 0.11181386 -0.018665982 0.09960016 -0.027408797
0.22631083 -0.1439183 0.263989 -0.14328972 0.18983868 0.094100386 -0.07527824 0.22593588
0.099753976 0.11369708 0.19298303 -0.22421747 -0.17829505 -0.16718252 0.2458789 -0.15061612
-0.124525785 0.042564448 0.20403078 -0.012462893 -0.03501344 0.2031819 0.22090358 0.15630999
0.19365355 -0.252898 0.21217346 0.21744336 0.023227071 -0.13051109 -0.19162104 -0.11471124
0.102119334 -0.18739481 -0.21859345 0.07841068 -0.21858552 0.03476168 -0.0742187 -0.13052435
0.17289351 0.073990986 -0.05538663 0.19535762 -0.2160988 -0.20134316 -0.16752428 0.11572651
-0.18078643 0.063451186 0.19340481 -0.11454121 0.25913256 0.20961745 -0.23541138 0.20750214
0.09420085 -0.1894631 0.06680907 -0.0022708415 -0.16650963 0.19556454 0.048238438 -0.18412526
0.22096662 -0.16975458 -0.18364602 -0.24023978 0.1865465 0.17031565 0.17621684 0.08680013
-0.21412209 -0.1166 -0.08586368 -0.14009741 0.17396857 -0.24360536 -0.25314203 -0.032926735

gru.weight_hh_l0 f4 [192, 64]
00000000: ceae 21be 4ed7 78bc ce1e 8abd bbee 3abe
00000010: e625 27bd 4818 ad3d dc9e 3dbd e0ab 483b
00000020: c185 013e cfc7 943d 34a6 54bc b496 a8bd
00000030: 9e45 df3c 469e d83c eafa 32bd 5f33 11bd
00000040: 7d2b c43d 8572 353c 8c03 bc3d d80e e43d
00000050: 63f8 58bd 2329 e33d 90ba 0abd 40e2 51bc
00000060: f18f 8bbc 9527 b1bd b967 a23c bcba 94bc
00000070: f651 fdbd 7cec c5bd 8ea2 aebd 6c77 07bd
00000080: 9bdb 51bd 2bd0 edbd 1d24 e9bc 3d53 78bd
00000090: ee47 c8bc b88d f2bc f2ba a63c a9d6 e8bc
000000a0: a303 d0bd dcbd 933c 5f84 28bc 859c 183d
000000b0: 5c9c 5ebd 8370 963c e467 5dbc 2717 33be
000000c0: 1f68 5d3d 14fa 693c c58d cf3b 10b8 613d
000000d0: 8efa 033e 791d 1dbd e68e a53d 1717 2e3b
000000e0: ca62 ce3d c97f 5cbb 93b5 e8bd cc20 3b3d
000000f0: 2c64 323d f85a fcbd 7189 243d 5f91 ac3d
00000100: 0c6b 97bd b6e5 35be 0a90 413e 5b7b a2bd
00000110: bdac 07bc 78c4 e5bc d0e8 fbbc 98d0 a5bc
00000120: 55a5 5a3d 0d45 6dbd 4d08 4dbc a5e0 e53d
00000130: c5da 693d 4374 c23d 5f78 8b3d ae44 09be
00000140: 7a5e 50bd 2543 1b3c c12e 21bd 594b 143c
00000150: 5e28 de3d 01d2 603d fd4c a73d 6e5a e4bd
00000160: a1b8 f7bc de9b 04bd ad9e c53d 28b7 c53d
00000170: 382b fabc ca3b 203d f2f5 063d ea43 ac3d
00000180: 3fc5 8cbc 42a2 fcbd 734c 0a3e a19c fa3d
00000190: 9b14 12bc a4a0 dc3d 355c 143e 5ee7 c0bc
000001a0: edc3 d43c 462d bdbc 89f7 803c 5e85 9fbd
000001b0: ef6b fa3c 1eb8 54bd 1754 0cbe f760 6c3c
000001c0: 7fc1 613d 8d23 dd3d 9a6b b83d 6060 24be
000001d0: e9ce 42bd 7dde 9ebd df08 b6bd fe86 163d
000001e0: c007 c93c 43ca 5e3d e95a 1fbc c0de b43d
000001f0: 70bd a33c b3e8 2e3e 28db 11be 6f74 123d
00000200: 3a7d bdbc 3b4c bd3d 8b33 0a3d 0d29 773d
00000210: 23f0 d33c 2b37 313d a3c8 603c abd1 923c
00000220: 9772 1f3e 781b 2e3c 7c28 023e a8c5 bb3b
00000230: 209d a03d 5904 b53d 75ba 07bc ea3d 8b3d
00000240: e492 95bd 58fc 153d a2ba 963c bd02 a4bd
00000250: bef9 c03c 3851 a43d 2139 ccbc 40f4 c4bd
00000260: 098f 06bc 12af 993c 9b82 123e a4fc c33d
00000270: a5eb 043c 1e23 06be 6b9e 85bd 1a0f d03b
00000280: 4b40 19bd be1e 953d c262 6b3c 5fdb a33b
00000290: 4f0f 10be 3c5a d23c dd0b a2bc 60f7 df3c
000002a0: 072b 353c 5d56 ba3d 4386 93bc ab87 b6bb
000002b0: d8aa 3cbe a30c db3c 0882 523c 44f9 e93d
000002c0: 8579 18bc 61c5 6bbd 2354 cdbc 01c2 8bbc
000002d0: d27e a2bc c45f 0f3d 520b 38bd d160 7d3d
000002e0: 55ac 76bc 3f55 2abd 4aae 0d3d f581 44bd
000002f0: 95d5 94bd 959b 853d d942 7a3d 0770 7fbc
00000300: be8d a6bd ba04 003d 3786 45bd e993 863c
00000310: 0d3d 9abc 6ed8 1d3d dcb7 733d 7339 273e
00000320: 9e96 4abd f0ae 133d fbb1 56bd 58a7 90bd
00000330: 6760 57bc fb69 7b3d 046d 13be e385 90bd
00000340: e561 15bc 974f 853c 5aed 1fbe 0543 193d
00000350: d42d cfbd 4e9f 0ebd 848c 083d e06f 3ebd
00000360: 2de1 77bc 9952 2a3e 6d1d 653d 1d3f 0cbd
00000370: c403 403d 951e a0bc 6a11 553d 8209 be3c
00000380: c83a abbc 0c26 863d c126 413c 2570 bb3d
00000390: f554 b03c 4034 343d 4163 f3bc 2fbf 463c
000003a0: 9262 623b 9588 24be 8c94 91bd 2b82 893d
000003b0: 8ef7 fbbc 70af 0ebd e3c3 1b3c 8019 cabc
000003c0: 79bf 94bc c9f2 93bb bbf5 053e d884 c73d
000003d0: 4fa3 2fbd 8bfb 2cbd 72a2 bc3c 1972 4fbd
000003e0: 61a8 3f3e 9cc3 03bc 4c70 21bc 2e19 593c
000003f0: 9219 453d 4464 563d 789b b4bb 7d04 0d3d
-0.15789339 -0.015188051 -0.06744157 -0.18255131 -0.040807627 0.08451897 -0.04629408 0.0030620024
0.1264868 0.07264673 -0.012979079 -0.08231869 0.027254876 0.026442658 -0.04369632 -0.035449382
0.09578607 0.011074667 0.09180364 0.11135644 -0.052971255 0.110918306 -0.033869326 -0.01281029
-0.01703641 -0.08650128 0.01982485 -0.018155448 -0.123691484 -0.096642464 -0.085270986 -0.033072874
-0.051234823 -0.116119705 -0.028459603 -0.060626257 -0.024448361 -0.029608592 0.020352814 -0.02842267
-0.10156944 0.018034868 -0.010285466 0.037258644 -0.054348335 0.018364197 -0.013513539 -0.174893
0.054054376 0.014280815 0.006334039 0.055107176 0.12888548 -0.038358185 0.08083896 0.0026564056
0.10077436 -0.0033645502 -0.113627575 0.045685574 0.043552563 -0.123220384 0.040170137 0.08426165
-0.073934644 -0.17763409 0.18902603 -0.079336844 -0.00828093 -0.028047785 -0.030750662 -0.020241067
0.05338033 -0.05792718 -0.012514186 0.11224488 0.0570934 0.094948314 0.06810068 -0.13405105
-0.05087135 0.009476458 -0.03935123 0.009051167 0.10847543 0.054887775 0.08168981 -0.111500606
-0.030239405 -0.03237521 0.09649406 0.09654075 -0.030538186 0.03911952 0.032949395 0.08411391
-0.017183898 -0.12335636 0.13505726 0.12236906 -0.008916046 0.10772827 0.14488299 -0.023547824
0.025972331 -0.023092877 0.015743034 -0.0778911 0.030569045 -0.0519334 -0.13703953 0.014427415
0.055116173 0.107977964 0.09004898 -0.16052389 -0.047560606 -0.0775728 -0.08888411 0.036749832
0.024539828 0.05439211 -0.0097262645 0.08831549 0.019987792 0.17080955 -0.14243758 0.03575557
-0.023131002 0.092430554 0.03374056 0.060341883 0.025871342 0.043265503 0.0137197105 0.017922243
0.15571056 0.010626666 0.12710756 0.0057303496 0.07842469 0.0883872 -0.008284201 0.067989185
-0.07303408 0.036617607 0.01839954 -0.08008335 0.023556586 0.08023304 -0.024929585 -0.096168995
-0.008212813 0.018760238 0.14307635 0.09569672 0.008112823 -0.13099334 -0.065243565 0.0063494565
-0.03741483 0.07281254 0.014366807 0.0050005163 -0.1406834 0.025677793 -0.019781047 0.027339637
0.011057622 0.09098504 -0.018008357 -0.005570372 -0.18424547 0.026739424 0.012848385 0.11424497
-0.009306316 -0.057561282 -0.025064534 -0.017060282 -0.019835863 0.03500344 -0.04493267 0.06185991
-0.015055736 -0.041585203 0.034590043 -0.0479755 -0.072673 0.065238155 0.061098907 -0.015590674
-0.08132504 0.031254508 -0.0482237 0.016427951 -0.01882794 0.03853648 0.059501514 0.16330509
-0.049460046 0.036055505 -0.05241583 -0.07063168 -0.013145543 0.061380368 -0.14397055 -0.07056787
-0.009117578 0.016273303 -0.15617886 0.03741743 -0.10116163 -0.034819894 0.03333713 -0.04649341
-0.01512937 0.16633071 0.055936266 -0.034239877 0.04687859 -0.019545833 0.05201856 0.023197893
-0.020902053 0.065502256 0.011789025 0.09152249 0.021524886 0.043995142 -0.029710414 0.012130543
0.0034543616 -0.16067727 -0.07108411 0.06714281 -0.030757692 -0.03483528 0.009507152 -0.024670362
-0.018157708 -0.004515026 0.1308202 0.09742135 -0.042880353 -0.042232078 0.023026679 -0.05064592
0.18716575 -0.008042242 -0.009853434 0.013250632 0.04812009 0.052341715 -0.0055116974 0.03442811

gru.bias_ih_l0 f4 [192]
00000000: 1635 abbb 3636 a4bc d60f 573b c9f8 363c
00000010: 36d4 03bc 651d 2cbb 09aa 033b adae 083b
00000020: 7a1c 293c 48ed 063c 039e f33a 1e89 90bb
00000030: 6afc e23c 6580 283b 226c 9e3c 5cf9 34bb
00000040: 907b 50bb 9014 ee3b 348b 493c 3ff2 e33b
00000050: a418 0e3c 5988 17bc f320 913b 12a5 273b
00000060: 0e09 f93b 1745 803c 336c 1fbb 5c1f 0c3c
00000070: e915 97bb ccca 753b 29e1 463c 0a31 513c
00000080: 3452 463c d0ed 8f3c 9783 833c 9bf9 1ebb
00000090: 1f84 633c 5302 b6ba a23d b4ba 782a 653c
000000a0: 2a79 e63b da86 b0bb 8fb5 1cbc 74c6 0b3c
000000b0: 8f42 eb3c 0cea c93b f5c6 083c 3b4a af3b
000000c0: d31d e13b 386b 1bbb bc25 813c 6fc5 693b
000000d0: f2de 2a3c 01f5 8d3b 9e7f cf3b 83fe a9bb
000000e0: b68a 36bb affd 6a3c f374 a13c b385 183c
000000f0: ad7d 233c 0255 5e3c c294 b03b faf8 07ba
00000100: 4d19 80bc 9fef 203d 87c4 963b 4a36 8bbc
00000110: 6587 363d 0ab0 76ba a380 e53c cbc3 8fbc
00000120: 5f39 c63c 4f61 c6bb d92a 13ba e907 33bc
00000130: 7e5b a3bc e08f 213c e0ac 163c 26d9 9b3c
00000140: edd9 183d 8714 f0bb 0007 073d 65ca 203c
00000150: 8580 403b 8d47 a13c d4ef 42bb dce4 99bc
00000160: ebf7 f73c 09cc 403c 74c2 86bc 0ad1 da3b
00000170: ec52 7b3b f646 d23a 1a2c 913c 9dfe 683c
00000180: cfee 1b3c 2a8a 1ebc 8a57 cbb9 e0e9 323c
00000190: 7789 533c b7ee 933c a144 b73c 0417 83bb
000001a0: ef06 683c 8a82 113d 0364 6fbc f19a f3bb
000001b0: 0ddf a5bc e544 203d 3cae 0d3c 3458 31ba
000001c0: cafc 573c 5cfd 103c 98d0 93bc 06e2 853c
000001d0: 76a9 94bc 2fed e1bb d4b8 cdbc 256d 9c3b
000001e0: cdf3 11bc 24d3 60bb b8b4 dc3c ff23 283d
000001f0: 89a2 73bc 7e13 0abc b389 9b3a ee2c 25bc
00000200: ddf8 23bb 6af2 193c ee4e db3b 1699 213b
00000210: 67ad 343b 2504 c6bb 1848 463b 2b29 4c3a
00000220: 75aa 3f3c 78ab 913b 423f 68bb 4f14 023c
00000230: ad35 dbba 4e66 42ba c5c6 f2bb 3c4b 24bb
00000240: 56bb 213c 07ac 0dbb b6a6 c2b9 57c0 c43b
00000250: e7b3 b2bb 9fa6 d0ba c943 1d3b 6231 f53a
00000260: 9b4c cf3a 88c9 923b 5a7b 383b 71b0 0d3a
00000270: e628 9e3b d8a1 d0bb e9eb 2a3c 0a1c 23bb
00000280: 0058 06ba 799a 99bb cb35 1dbb 0bcd 0f3c
00000290: 9b12 1cbb e628 f43a 9fd1 1b3b 9b2f bd3b
000002a0: e751 76ba 9890 56bb a1ff 4b3b e273 8a3b
000002b0: 9380 023c 4139 8f3b 46c5 15bc 162a 75bb
000002c0: 7cf0 f13b 4315 58bb 5067 223c 0402 5cbb
000002d0: 3705 563b b7b7 99ba b765 933a b95f a4ba
000002e0: bc11 6bbb cb38 a43b 2d11 18bc 4175 b4bb
000002f0: 2d2d 1dbb def4 54bb a1bf fdbb 7f12 9bba
-0.005224834 -0.020045381 0.0032815835 0.011167713 -0.0080462005 -0.0026262638 0.0020090363 0.0020856068
0.010321731 0.008235283 0.001858652 -0.004410877 0.027708251 0.0025711295 0.019338671 -0.002761445
-0.003181193 0.007265635 0.012301255 0.006956368 0.008672867 -0.009248816 0.0044289767 0.0025580567
0.0075999564 0.015657945 -0.0024325966 0.0085523985 -0.004610766 0.003750491 0.012138643 0.0127680395
0.01210456 0.017569453 0.016053958 -0.0024257663 0.013886481 -0.0013886191 -0.0013751278 0.013987176
0.007033487 -0.0053871693 -0.009564771 0.008531202 0.028718261 0.0061619338 0.008348216 0.005349425
0.0068700104 -0.002371503 0.015765063 0.0035670658 0.010429131 0.0043321853 0.006332352 -0.005187811
-0.0027853674 0.014342709 0.019709086 0.00930922 0.009978694 0.013570072 0.005388827 -0.00051869417
-0.015637064 0.03929102 0.0046010646 -0.01699366 0.044562716 -0.0009410387 0.02801544 -0.017549416
0.024197279 -0.0060540806 -0.000561399 -0.010927179 -0.019941088 0.009860963 0.00919649 0.019024443
0.037317205 -0.007326666 0.03296566 0.00981388 0.0029373479 0.019687438 -0.0029745 -0.018785886
0.030269584 0.011767396 -0.016450144 0.0066777514 0.0038348986 0.0016042877 0.017721225 0.014220861
0.009517386 -0.009676496 -0.000387844 0.010920018 0.012911192 0.018058164 0.022371592 -0.0040005464
0.014161809 0.035524882 -0.014611247 -0.007434242 -0.02024796 0.039128203 0.008647498 -0.00067651574
0.013182828 0.008849468 -0.018043801 0.016343128 -0.018147212 -0.0068947296 -0.025112547 0.004773753
-0.008908224 -0.0034305537 0.026941642 0.041049954 -0.014870294 -0.008427499 0.0011866599 -0.010081513
-0.002502016 0.009396175 0.0066927588 0.0024657897 0.0027569176 -0.0060429745 0.0030255374 0.0007788117
0.011698355 0.0044454895 -0.0035438095 0.007939412 -0.0016724371 -0.0007415757 -0.007408949 -0.0025069257
0.0098713245 -0.002161743 -0.00037126773 0.006004374 -0.005453575 -0.0015918798 0.0023996702 0.0018706734
0.0015815677 0.004479591 0.0028149695 0.0005405015 0.004826653 -0.0063669495 0.010432222 -0.0024888539
-0.00051248074 -0.004687604 -0.0023988362 0.008776913 -0.00238148 0.0018627911 0.0023776067 0.0057734973
-0.00093963597 -0.0032739993 0.0031127708 0.00422524 0.007965225 0.004370839 -0.009141272 -0.0037409118
0.0073834043 -0.0032971657 0.009912327 -0.0033570537 0.0032656917 -0.0011727725 0.0011245523 -0.0012540735
-0.0035868725 0.005011653 -0.009281439 -0.005507142 -0.0023983226 -0.0032494585 -0.007743791 -0.0011831074

gru.bias_hh_l0 f4 [192]
00000000: 1635 abbb 3636 a4bc d60f 573b c9f8 363c
00000010: 36d4 03bc 651d 2cbb 09aa 033b adae 083b
00000020: 7a1c 293c 48ed 063c 039e f33a 1e89 90bb
00000030: 6afc e23c 6580 283b 226c 9e3c 5cf9 34bb
00000040: 907b 50bb 9014 ee3b 348b 493c 3ff2 e33b
00000050: a418 0e3c 5988 17bc f320 913b 12a5 273b
00000060: 0e09 f93b 1745 803c 336c 1fbb 5c1f 0c3c
00000070: e915 97bb ccca 753b 29e1 463c 0a31 513c
00000080: 3452 463c d0ed 8f3c 9783 833c 9bf9 1ebb
00000090: 1f84 633c 5302 b6ba a23d b4ba 782a 653c
000000a0: 2a79 e63b da86 b0bb 8fb5 1cbc 74c6 0b3c
000000b0: 8f42 eb3c 0cea c93b f5c6 083c 3b4a af3b
000000c0: d31d e13b 386b 1bbb bc25 813c 6fc5 693b
000000d0: f2de 2a3c 01f5 8d3b 9e7f cf3b 83fe a9bb
000000e0: b68a 36bb affd 6a3c f374 a13c b385 183c
000000f0: ad7d 233c 0255 5e3c c294 b03b faf8 07ba
00000100: 4d19 80bc 9fef 203d 87c4 963b 4a36 8bbc
00000110: 6587 363d 0ab0 76ba a380 e53c cbc3 8fbc
00000120: 5f39 c63c 4f61 c6bb d92a 13ba e907 33bc
00000130: 7e5b a3bc e08f 213c e0ac 163c 26d9 9b3c
00000140: edd9 183d 8714 f0bb 0007 073d 65ca 203c
00000150: 8580 403b 8d47 a13c d4ef 42bb dce4 99bc
00000160: ebf7 f73c 09cc 403c 74c2 86bc 0ad1 da3b
00000170: ec52 7b3b f646 d23a 1a2c 913c 9dfe 683c
00000180: cfee 1b3c 2a8a 1ebc 8a57 cbb9 e0e9 323c
00000190: 7789 533c b7ee 933c a144 b73c 0417 83bb
000001a0: ef06 683c 8a82 113d 0364 6fbc f19a f3bb
000001b0: 0ddf a5bc e544 203d 3cae 0d3c 3458 31ba
000001c0: cafc 573c 5cfd 103c 98d0 93bc 06e2 853c
000001d0: 76a9 94bc 2fed e1bb d4b8 cdbc 256d 9c3b
000001e0: cdf3 11bc 24d3 60bb b8b4 dc3c ff23 283d
000001f0: 89a2 73bc 7e13 0abc b389 9b3a ee2c 25bc
00000200: a71d d8ba 369f 0b3c 6ccf 113c a04b b43a
00000210: 2bc0 443b 0df5 d7bb e6c4 4a3b 6de6 ba38
00000220: 692a 383c 5943 b43b f1ac 4dbb ce75 e13b
00000230: 8686 c137 1638 a2ba 513d 99bb 716e 1abb
00000240: ef7b 203c 154a 2dbb a713 f0ba f497 af3b
00000250: 223f afbb a964 a0ba d2cf 2a3b 7bb6 213b
00000260: d728 113b 0cdf 8f3b 4a26 3e3b fd9b d738
00000270: bc6c 873b 0dc7 d9bb 8064 243c e2e6 10bb
00000280: 1fc8 aeba 809c 93bb 0aeb 06bb 32ce 113c
00000290: e709 15bb b8e8 d83a 4230 1e3b bea9 b63b
000002a0: 9f58 9cba dbe7 64bb a036 573b e606 973b
000002b0: ae54 1b3c 94ec 983b 565a febb d532 5ebb
000002c0: 55d9 b63b 9f32 58bb e9ec 1b3c 18f9 37bb
000002d0: f094 133b 91ce acba 19f1 a03a b7dd 85b9
000002e0: 8c91 65bb 21d0 953b 4dfb 2dbc d42a bbbb
000002f0: c16b 00bb 91e4 1fbb c56b ffbb f290 7fba
-0.005224834 -0.020045381 0.0032815835 0.011167713 -0.0080462005 -0.0026262638 0.0020090363 0.0020856068
0.010321731 0.008235283 0.001858652 -0.004410877 0.027708251 0.0025711295 0.019338671 -0.002761445
-0.003181193 0.007265635 0.012301255 0.006956368 0.008672867 -0.009248816 0.0044289767 0.0025580567
0.0075999564 0.015657945 -0.0024325966 0.0085523985 -0.004610766 0.003750491 0.012138643 0.0127680395
0.01210456 0.017569453 0.016053958 -0.0024257663 0.013886481 -0.0013886191 -0.0013751278 0.013987176
0.007033487 -0.0053871693 -0.009564771 0.008531202 0.028718261 0.0061619338 0.008348216 0.005349425
0.0068700104 -0.002371503 0.015765063 0.0035670658 0.010429131 0.0043321853 0.006332352 -0.005187811
-0.0027853674 0.014342709 0.019709086 0.00930922 0.009978694 0.013570072 0.005388827 -0.00051869417
-0.015637064 0.03929102 0.0046010646 -0.01699366 0.044562716 -0.0009410387 0.02801544 -0.017549416
0.024197279 -0.0060540806 -0.000561399 -0.010927179 -0.019941088 0.009860963 0.00919649 0.019024443
0.037317205 -0.007326666 0.03296566 0.00981388 0.0029373479 0.019687438 -0.0029745 -0.018785886
0.030269584 0.011767396 -0.016450144 0.0066777514 0.0038348986 0.0016042877 0.017721225 0.014220861
0.009517386 -0.009676496 -0.000387844 0.010920018 0.012911192 0.018058164 0.022371592 -0.0040005464
0.014161809 0.035524882 -0.014611247 -0.007434242 -0.02024796 0.039128203 0.008647498 -0.00067651574
0.013182828 0.008849468 -0.018043801 0.016343128 -0.018147212 -0.0068947296 -0.025112547 0.004773753
-0.008908224 -0.0034305537 0.026941642 0.041049954 -0.014870294 -0.008427499 0.0011866599 -0.010081513
-0.0016488329 0.008521846 0.008899551 0.0013755448 0.0030021768 -0.0065904916 0.0030940115 8.912091e-05
0.01124058 0.0055011925 -0.0031383599 0.0068804985 2.3070035e-05 -0.0012376334 -0.004676499 -0.0023564363
0.009795173 -0.0026441861 -0.0018316404 0.0053586904 -0.005348102 -0.001223703 0.0026063812 0.0024675417
0.0022149587 0.004390603 0.0029014521 0.00010281054 0.004132835 -0.006646043 0.010033727 -0.0022110273
-0.0013334787 -0.0045047402 -0.0020586872 0.008899258 -0.0022741498 0.0016548848 0.002413765 0.005574434
-0.0011928267 -0.0034928236 0.0032838956 0.0046089767 0.009480638 0.004666874 -0.0077622337 -0.003390481
0.005580107 -0.0032989157 0.009516933 -0.0028072055 0.0022519194 -0.001318412 0.0012278884 -0.00025532927
-0.003502938 0.00457193 -0.010618997 -0.0057118926 -0.0019595476 -0.002439771 -0.0077948296 -0.00097490766

gru.weight_ih_l0_reverse f4 [192, 6]
00000000: 6763 f9bd 363a 7bbe 4e6e 923d f68c 633c
00000010: b9dc dd3d 0747 3d3d cef5 32be 34bd 523e
00000020: 23ce aebd be20 393e b06d 2a3e c834 7abe
00000030: bd0e 2fbe 08b4 753e fb73 043d 8b5a c5bd
00000040: 0bce 713e 8d33 95bc 2864 693e a744 57be
00000050: de35 55be d1d3 753e 5536 f7bd cc61 353e
00000060: af2e 20be 4d84 bbbd b73d 2ebe 2b84 433e
00000070: fd28 65be c291 303e fea2 9abd 3d96 2ebd
00000080: 04d7 3a3e 91b5 e1bd f69a 1c3e ee36 a9bc
00000090: 0a0b 35be d4d7 ad3c 9002 a5bd 570b c83d
000000a0: 82cd 57be bb1c 6d3e 1429 debc 0ac5 133e
000000b0: 2311 3dbe 83e6 08be 4b90 51be fd42 c3bd
000000c0: a4f1 883d 1ea1 49be bd12 3a3e 00e7 2abe
000000d0: 6907 febd 3687 653e 88eb 1cbd f80a 0f3e
000000e0: c43d e5bd bc7a 193e aded 0dbe b722 763e
000000f0: bc26 643d 3afb 87bd 9ea2 b93b ce21 edbb
00000100: 1398 44be 217e 823d 7612 5a3e dde1 5f3e
00000110: b133 31be b1e1 bbbd b782 9bbd 766d 683e
00000120: 767b 403e baac 59be 43ef 453e b173 1cbd
00000130: 9265 75be 8120 9bbd c116 25be 5780 62bd
00000140: 1b88 18be a498 5bbe 581e 283e bb8e 66be
00000150: d1e7 333c 6c93 5a3e 2085 1bbe f67e 563e
00000160: 9d8e 29be aa86 743e 43fb 693e c910 77bd
00000170: 56fe 2bbd 5902 603e fc0b a5bd 6ace c23d
00000180: c823 393e 1f62 01be 3aa0 a93c 86a2 ca3d
00000190: 2c8c acbd 3210 55be d192 59be 0bc8 c8bc
000001a0: c7bd 0abc fb51 503d 3970 443e d529 4d3e
000001b0: 985b d7bd 8444 0f3e e7d5 ab3d c37d 0cbe
000001c0: 38c8 953b 8690 71be c926 ea39 5e03 073e
000001d0: 6252 e5bd c8ec 6ebe b647 05be 0c7b 443e
000001e0: 779c fc3d 336d ba3d 995e 5e3e 07ed a73d
000001f0: 5617 5e3e b235 3dbd 790c 623e ad61 c53d
00000200: 2667 ff3d fdd6 e93d 39b8 0ebe 0959 283e
00000210: 28a5 3a3e 93b1 883e a8dd 313d 82ff 40be
00000220: 5975 8d3d bd47 02be 2e6c 263e edb9 57be
00000230: 31f8 613c b50b 99bd 15e6 18be cd69 e0bc
00000240: 0445 8d3c 116f cfbd ac55 5a3e c095 053e
00000250: 4f91 45bd ab56 9fbd 7b7e 81be 5b36 033e
00000260: d2d5 92bd 16ed a53d 960f a9bc 7e52 bcbd
00000270: e006 4c3d 21aa 543e 890d 263e f439 83be
00000280: 6c25 24be 81a8 233e 5ee1 983d bfc9 603e
00000290: 350b 3f3e 1558 c1bd df55 57be 2fc1 00be
000002a0: 1e38 a93d 60ef 8c3d 8eb8 143e 497b 243e
000002b0: 24cd 15be 7448 7ebe 7bae 00be a6e1 43be
000002c0: 26f3 eebd a55f 48be c17f 2abe b67f 613d
000002d0: a89c 56be 5e0c 503e c6bf bcbd e69c 3a3e
000002e0: a2fe d03d 3bdb 0abe 90b3 4dbc 339b c8bd
000002f0: 1f5e 34be 90ab 073e fe85 643e d94d bebd
00000300: d120 8a3d 2f49 893d 11d9 0b3e f735 433e
00000310: 4941 9c3d b037 4abd fd3f 883e 7e08 cd3d
00000320: bd65 843e 1fcf 96bb ff09 eebd 2732 a5bd
00000330: 3fed 4cbd a507 47be fa9a 0bbe 6614 ce3d
00000340: 2e10 843d f999 3e3e a744 f3bd 1030 513e
00000350: d260 ae3d c5df 27be 76ec 753e 9344 5abe
00000360: bdbb 743e ff3d 993d 16a9 5cbd 5758 2f3d
00000370: 6c5d 253e c42f dfbd 6695 483e 5bc3 4c3e
00000380: 11cc 0ebb 8587 343e 124b b7bd 15a1 883d
00000390: e826 b8bd 918b 00bd 5241 ddbd 083d c93c
000003a0: 65a3 5dbe b182 0ebe 1aa4 1a3d 0d1e 2b3e
000003b0: 884e 403e 1ad5 223d d6e4 fe3d ae88 b8bc
000003c0: 094f 303e e124 0d3d c290 ec3d 0d50 4d3e
000003d0: 656b 1b3d 31ad 5d3e ba3a 23bd 9e3e 503d
000003e0: 7d35 1ebe 7a32 f33d e779 e2bd 1b60 1cbe
000003f0: 3c5a f23c 83bb 72be a845 eebc b82a 2f3c
-0.121771626 -0.24533924 0.07149945 0.013888588 0.10833115 0.046210315 -0.1747658 0.20579988
-0.08535411 0.18078896 0.16643405 -0.24434197 -0.17095466 0.23994458 0.03233717 -0.0963641
0.23613755 -0.018213058 0.22792113 -0.21022283 -0.2082133 0.24006583 -0.1207091 0.17713088
-0.15642808 -0.09156094 -0.1701573 0.19093387 -0.22378917 0.17243102 -0.075506195 -0.042623747
0.18246084 -0.11020959 0.15293488 -0.020656075 -0.17679992 0.021221079 -0.080571294 0.09767788
-0.21074489 0.23155491 -0.027119197 0.14430633 -0.18463568 -0.13369183 -0.204652 -0.095342614
0.06686714 -0.19690368 0.1817121 -0.16689682 -0.12403757 0.2241486 -0.038310558 0.13969028
-0.111934215 0.14988226 -0.13860197 0.2403668 0.055701002 -0.066397145 0.0056651374 -0.007236696
-0.19198637 0.063717134 0.21296105 0.21863504 -0.17304875 -0.091739066 -0.07593291 0.22698006
0.18797097 -0.21257296 0.19329552 -0.03819627 -0.23964527 -0.07574559 -0.16121961 -0.055298176
-0.1489567 -0.21444947 0.16417825 -0.22515385 0.010980562 0.213453 -0.15187502 0.20946869
-0.16558309 0.23879495 0.22849755 -0.060318742 -0.0419906 0.21875896 -0.080589265 0.095120266
0.18080056 -0.12635086 0.020706285 0.0989428 -0.08425173 -0.2080696 -0.21247412 -0.02450945
-0.008468098 0.050859433 0.19183435 0.20035489 -0.10515517 0.1399098 0.08390408 -0.1371985
0.004570987 -0.23590288 0.00044660855 0.13184878 -0.11197354 -0.23332512 -0.13015637 0.19187564
0.12334531 0.09102859 0.21715774 0.08199506 0.2168859 -0.046193786 0.2207507 0.09637771
0.12470846 0.11417959 -0.13937463 0.16440214 0.18227065 0.26697978 0.04342428 -0.18847468
0.06907148 -0.12722678 0.16252205 -0.21067019 0.013792084 -0.07472936 -0.1493152 -0.0273942
0.017244823 -0.10128606 0.21321744 0.13045406 -0.04823428 -0.077802025 -0.2529181 0.12813704
-0.07169689 0.08101861 -0.020637315 -0.09195422 0.049811244 0.20768024 0.16216101 -0.25630152
-0.160299 0.15982248 0.074648604 0.2195196 0.18656619 -0.094406284 -0.21028851 -0.12573694
0.08262657 0.06881595 0.14523527 0.16062655 -0.14629036 -0.24832326 -0.12566559 -0.19129047
-0.11667471 -0.19567735 -0.16650297 0.055053435 -0.20958197 0.20317218 -0.092162654 0.18223915
0.10204817 -0.13560192 -0.012555018 -0.09795227 -0.1761403 0.1324904 0.22316739 -0.09292192
0.067445405 0.06703412 0.13657023 0.19063555 0.0762964 -0.049369514 0.2661132 0.100113854
0.2585887 -0.0046023275 -0.11623 -0.080662064 -0.050030943 -0.1943651 -0.13633338 0.100624844
0.064483985 0.18613423 -0.11878329 0.2042849 0.08514561 -0.16393955 0.24015984 -0.21315221
0.23899741 0.07482528 -0.05387219 0.042808857 0.16148919 -0.108977824 0.19588241 0.19996397
-0.0021789114 0.17629822 -0.089498654 0.06671349 -0.08991796 -0.0313831 -0.108034745 0.024565235
-0.21644361 -0.13917042 0.037754156 0.16710682 0.18779957 0.03975401 0.12445991 -0.022526111
0.1721765 0.034459 0.11551048 0.20050068 0.037944216 0.21648099 -0.039850928 0.050840966
-0.15450092 0.11874862 -0.11058407 -0.15271036 0.029584043 -0.23704343 -0.029085949 0.010691337

gru.weight_hh_l0_reverse f4 [192, 64]
00000000: 75d6 6a3c 6f18 963c c9e5 6a3c 1fa9 c63c
00000010: 6552 b73c b74b d53d 8afd 2c3d 9059 25bd
00000020: c310 edbc 2e79 c1bd 21eb 803d 8ae3 31bd
00000030: fb77 33bd 8d89 7fbd bcfb 9f3d d0af 87bd
00000040: 1f36 d5bd 2845 bd3c b6d7 0b3c 8936 403c
00000050: 6e48 473c 9439 703c d6ad ac3d 49a7 3e3d
00000060: 59d1 9bbc f18e fcbc a709 b83a b0d4 0a3e
00000070: a869 e03c f3ec f63c 7fe1 0bbd 5a12 923c
00000080: 248d a83d f6a7 e93d ba64 e03c 2c06 0ebe
00000090: 7cfc 123d b99d 98bc b1be b9bc 56b8 8a3d
000000a0: 5af5 1bbe c65a 043d bb7f d73c 1f7a 04be
000000b0: 4261 0dbd 075d 873d 6a53 10bd 82d5 87bb
000000c0: d554 75bc 611d 16be 3965 733c 76b2 9abd
000000d0: 1e02 253b 6704 6e3d 6cdb 393d d833 333d
000000e0: b424 793d a9c2 40bd e04a 633d 47bc 543c
000000f0: a911 bc3d ca9c 16be a86c 39bd 2437 e1bd
00000100: dea8 0bba d66d edbd 9340 4b3c 5693 02be
00000110: 6873 85bd 8be4 8abd 26c3 07bc 6267 043d
00000120: db11 ee3d ae2f d1bd 657a 673d b3a0 bdbd
00000130: 6b0c de3c 8052 84bd 3484 9c3c c088 783d
00000140: 2d6d aabd 4fbd ee3d 2d24 c5bd 578d f5bc
00000150: 6cb7 22bd 5f0f 123e 0e11 813d 2b17 0f3e
00000160: 18ba bb3d 9f2e adbc 107c aabd c538 8bbc
00000170: 3f7f a5bc 814b 5ebd 0df2 a5bc 64f1 0fbd
00000180: da95 62bd a5d4 b9bb 0c0d 3fbe a8d3 42bd
00000190: e4e3 dcbb fd40 13bd 20ef 083e 0e25 7ebc
000001a0: b132 983d 1fec 86bc 5341 933d 5180 68bd
000001b0: e279 aebc 463a 203e 4b0e c7bd 55b5 c9ba
000001c0: 9d32 54bd 4a18 b1bd e371 fdbd cd4f babd
000001d0: e6ce b6bc 09bd 473c db19 07bc 6347 9ebd
000001e0: 6bcb b6bc 6e36 f13c fc6e 053d 222b 7c3d
000001f0: 1b75 3cbe e2c9 23bd d2aa 953d 8ca7 16bc
00000200: 958c 36be 1e13 fabc e941 863d a412 7bbd
00000210: 840d 083d b0b9 c13c 36be d5bc 8e3d f4bc
00000220: 4419 95bc 64af 0b3e 079a 9a3c 204c 143c
00000230: ca52 f93d 433d f1bd cf78 2fbc 33fc 04be
00000240: b562 a03d b6c6 09bd a0a5 b3bd ec21 86ba
00000250: dc65 b2bd 50be ee3d 1bc5 dbbc c059 d4bc
00000260: 7982 133d b166 e5bc d83e a1bd ddb2 2ebd
00000270: ee19 45bb e87a a6bd 35db 35bd fce1 95bd
00000280: 0282 ebbb c40e ea3b 9aee 48bd f78c adbc
00000290: 543c c33d cd21 0bbc 918e 4a3d 2793 023d
000002a0: 4037 d7bd c086 9cbd b9b2 183d 22c3 a03b
000002b0: a4fd 64bb a9e6 1f3d a79a 0ebe 12f5 60bd
000002c0: 70d6 c83d 6d37 c63d 402c c0bb 5d37 03be
000002d0: be44 67bd 9d47 d93d 1fd4 663c c9d6 963d
000002e0: 8d64 71bb 2c66 0d3c e960 48bd 7fc3 24bd
000002f0: d954 e43b 1458 7b3d 9ab3 513c b21a cabc
00000300: f69e 93bc 4fcf c43d 35f3 f1bc e10c bbbc
00000310: b8d6 e6bd c435 58bd 86fc 963b d7a7 27bd
00000320: 2d31 a1bc 7ec3 bcbc 6036 3dbd ea38 02be
00000330: da59 4bbd 14e1 e9bd ea62 cb3d 2b1d 853c
00000340: 0380 69bc 82bc c7bd e259 11bd a2bc a43b
00000350: 1f6b d9bc 290f 0a3d d5e5 9b3d b9f9 3cbd
00000360: 8290 f4bc f4c5 bbbd ba9b d4bd f8bd 843c
00000370: e07c 193d 9e40 5f3b 0784 843d 005b 6ebd
00000380: 9494 2abd 8c70 6cbd 7630 483d aa5d c63d
00000390: 64c8 5dbb 2dca 88b9 958a 033d f281 89bd
000003a0: a84b 5a3d f5ff f93d ddef 04bc ba94 b63c
000003b0: b5d0 ec3d 2da1 b83b adf9 89bd 8ac2 a6bc
000003c0: 69fe 52bd 3b36 423d 17ea b2bd cfb5 29bc
000003d0: 25e0 1d3d 837e 1ebd a4fa f63d 173b 03bd
000003e0: b612 49be 6d80 23bd b69b afba 470c fb3d
000003f0: a2bc d53c ec0b 1cbe 7f71 bcbc db87 efbd
0.014333357 0.018322198 0.014337012 0.024250565 0.022378156 0.10414832 0.04223398 -0.040368617
-0.028938657 -0.09446941 0.06294847 -0.04342989 -0.043815594 -0.062387038 0.078116864 -0.066253304
-0.104107134 0.023104265 0.008535316 0.011731752 0.012163265 0.014662165 0.08431594 0.046546254
-0.019020723 -0.030829879 0.0014040963 0.13557696 0.02739413 0.030142283 -0.034150597 0.017831016
0.082300454 0.11408989 0.02739178 -0.13869542 0.03588532 -0.018629896 -0.022673937 0.067734405
-0.15230313 0.03231313 0.026306024 -0.1293721 -0.03451658 0.066095404 -0.0352358 -0.004145325
-0.014973839 -0.14659645 0.014855676 -0.0755357 0.0025178264 0.058109667 0.045375273 0.043750614
0.06082602 -0.047060642 0.05549133 0.012984342 0.09183056 -0.14708248 -0.04526964 -0.10996845
-0.00053275924 -0.11593215 0.012405532 -0.12751517 -0.065161526 -0.06781872 -0.008286273 0.032325156
0.116244994 -0.10214172 0.05651321 -0.092591666 0.02710553 -0.06461048 0.019106008 0.06067729
-0.08321605 0.116572015 -0.096260406 -0.029974623 -0.039725706 0.14263676 0.06302081 0.13973682
0.09166354 -0.021140395 -0.08324444 -0.016994843 -0.020202277 -0.054271225 -0.02025702 -0.035142317
-0.05531869 -0.005671101 -0.1865732 -0.047565132 -0.006741034 -0.03595065 0.13372469 -0.015511764
0.074315436 -0.016470013 0.07190194 -0.056762997 -0.021298353 0.1564723 -0.09719523 -0.0015389124
-0.05180608 -0.08647211 -0.12375238 -0.09097252 -0.022315454 0.012191066 -0.0082459105 -0.0772846
-0.022313794 0.0294449 0.032576546 0.061564572 -0.18404047 -0.039987452 0.07307972 -0.00919522
-0.17827065 -0.030526694 0.0655554 -0.061297074 0.033216015 0.023648113 -0.026091676 -0.029814508
-0.018200524 0.13641125 0.018872274 0.009051353 0.12173994 -0.11779263 -0.010709955 -0.12986831
0.07831327 -0.03363677 -0.08771825 -0.0010233498 -0.087108344 0.11657393 -0.026827386 -0.025921702
0.0360131 -0.028003069 -0.078733146 -0.042651046 -0.003007527 -0.08128911 -0.044398505 -0.07318494
-0.007187129 0.0071428735 -0.049055673 -0.021185381 0.09532991 -0.008491945 0.04945237 0.031878617
-0.10508585 -0.07642889 0.03727982 0.004906074 -0.003494122 0.039038334 -0.13926183 -0.054921217
0.09806526 0.096785404 -0.00586465 -0.12814088 -0.056462042 0.10609362 0.01408866 0.07365186
-0.0036833615 0.008630317 -0.048920546 -0.040225502 0.0069681224 0.061363295 0.012799168 -0.024670932
-0.018020134 0.096098535 -0.029534915 -0.02283329 -0.11271423 -0.05278565 0.00460774 -0.04093155
-0.01967677 -0.023042437 -0.046194434 -0.12717023 -0.049646236 -0.11419883 0.09930976 0.01624926
-0.014251712 -0.09752752 -0.03548611 0.0050273696 -0.026540337 0.033705864 0.07612196 -0.04613659
-0.029854063 -0.09168616 -0.10381265 0.016203865 0.037472606 0.0034065614 0.06470495 -0.058192253
-0.0416456 -0.05772452 0.04887434 0.09685834 -0.0033841366 -0.00026090574 0.032114584 -0.06714238
0.053294808 0.12207023 -0.0081138285 0.022287715 0.11563245 0.005634448 -0.06737075 -0.020356435
-0.051512156 0.047415 -0.08736055 -0.010358288 0.03854384 -0.03869487 0.12059525 -0.032038774
-0.19636044 -0.0399174 -0.0013397846 0.12258201 0.026090924 -0.15238923 -0.023003338 -0.11695834

gru.bias_ih_l0_reverse f4 [192]
00000000: cd2f b9bb 9366 973b 0ef1 00b9 cd80 c13b
00000010: 3713 7b3c 5822 a7bb 4da8 aabc ed70 f63a
00000020: baae 33bb 91cd cc3b ee93 5fbb 5fd1 b439
00000030: c500 8d3c 6f20 f53c 09aa 6c3c 3f3d 9f3c
00000040: 35ba 2f3c d5ce a6ba 7ecf eeba 624e 673b
00000050: 6dfa 0f39 4d4c 003c 2477 b43c f998 a2ba
00000060: e792 6abb 6ba6 88b9 8890 b03a c401 bf3c
00000070: 8f4c 3fb9 a9bb 2a3b a91b 1f3c 4a58 0bbb
00000080: 34a6 903b 492f 543c 8d0c 9e3a 8bd3 04bb
00000090: 9632 0a3c dee2 ffbb 282c 453c bfc1 6f3c
000000a0: 07d5 8c3c ecb0 ae3c 461d 56bc 8b6b 3b3c
000000b0: aff2 babb 0399 a5bb 6b6d a6bb 8bef 123b
000000c0: d3a8 803c 5937 a83b bf64 a63c f51e 95bb
000000d0: 3570 023c 64c2 913c daba f23a a714 a2bb
000000e0: 7f94 173b 3900 46bc f2ea 913c 608f a2ba
000000f0: e563 ebbb f415 7fbb 6e3d 0a3c 89f5 3e3c
00000100: 8b7b 2dbc fa8c c03c f54c 0abd fb54 1c3c
00000110: 9ebe 353c 3347 b23c 0495 c3bb 48f8 d8bc
00000120: 665a 79bc a716 a2bc 5731 053d 680d 9eba
00000130: 6875 04bd 13f3 a8bc 9dcf 153d 18bb f9bb
00000140: 5454 8a3b f315 62bc 4908 793c 4e42 813b
00000150: 002f fe3c 0064 d13c 2556 e33c f8f2 cf3b
00000160: ccf2 72bc da16 c1bc cbad a93c 6c73 cf3c
00000170: e589 fb3b 5004 203c d907 3b3d 832c 033a
00000180: ed48 443c b3da e23c b8a8 69bc 7560 083d
00000190: cdaf d23c 1294 3c3d 2b26 b5bc 0985 28ba
000001a0: 384f d33a e6a4 9f3c 001b 803c 6ae7 d73c
000001b0: e7b0 e3bc e5ea 03bc 54ae 043b c2c1 533b
000001c0: 757a 0c3d 5b1c 5bbc 3d48 2d3c 5dd4 0b39
000001d0: 1f4c 0e3d a16c f93c 3b34 233c 1808 0a3c
000001e0: 812e 143c 343c fe3c 565c d73c 03a1 1f3c
000001f0: 57ab 74bc 1ce6 52bc a9c7 f8b9 b524 263c
00000200: d77b 54ba be30 613a 663c 2a3b 7905 883a
00000210: 2da4 daba 452f 6cbb 12b3 24bb f704 a4b9
00000220: 216a 0c3b f277 fc3a 4e8e 773b 2be5 593c
00000230: b2bb b63b d96e 4239 1561 27bc efb5 be3b
00000240: 65d5 8838 5ee6 49ba 6d83 d43b 87de 82bb
00000250: a331 36ba 2871 5a3b 87db b1ba d289 12ba
00000260: 8eea a4ba 9167 2d3c ab43 54bb bd4f 3e3b
00000270: de91 903b ab8e bd3b 603f edba 5d78 c3ba
00000280: 2296 22ba 4bff 8fbb ed74 563b db43 0dbc
00000290: f1a2 f03b e9fb a53b 6909 7aba 722f 503b
000002a0: b7f5 20bc da97 473b 51a5 293b f6e3 873b
000002b0: 50d9 ae39 54b1 b83b 1df5 e13b 2cf4 133c
000002c0: 5c4f a1bb 0ea9 35bb bdbc 9d3b ddf0 593b
000002d0: 2265 e83a 8bb7 fa39 48de a63a 2068 73bb
000002e0: b24f c23b 4b42 ac3b 8e32 9dbb 6065 93bb
000002f0: e423 0ebb 13ff fd39 093b b63b f655 1f3b
-0.0056514503 0.004620382 -0.00012296831 0.005905247 0.015324405 -0.0051005296 -0.020832205 0.0018801965
-0.0027417378 0.0062500914 -0.0034115273 0.0003448827 0.017212281 0.029922692 0.014444836 0.019438384
0.010725548 -0.0012726436 -0.0018219796 0.0035294523 0.00013730834 0.0078306915 0.022029467 -0.0012405209
-0.0035793127 -0.00026063932 0.0013470808 0.023316272 -0.000182437 0.0026051796 0.009711185 -0.0021262341
0.004414344 0.012950727 0.0012058184 -0.002026769 0.008434912 -0.007809027 0.012034453 0.014633595
0.017191423 0.021324597 -0.013068503 0.011439214 -0.0057051997 -0.005053641 -0.0050789616 0.002242061
0.015705502 0.005133551 0.020311711 -0.0045508095 0.007961323 0.017792888 0.0018518821 -0.0049463096
0.0023129282 -0.012085014 0.017812226 -0.0012402348 -0.007183539 -0.0038922997 0.008437498 0.01165522
-0.010588537 0.023504723 -0.0337648 0.009541745 0.01109281 0.021762466 -0.005968692 -0.026485577
-0.015219307 -0.019786192 0.032517757 -0.0012058439 -0.03233853 -0.02062372 0.03657495 -0.0076211803
0.0042214785 -0.013799178 0.015199729 0.0039446717 0.03102827 0.025560379 0.027751038 0.006346103
-0.014828395 -0.023570467 0.020712754 0.025323592 0.0076763504 0.009766653 0.04566178 0.0005003886
0.0119802775 0.027692175 -0.014261417 0.033295114 0.025718594 0.04603965 -0.022112926 -0.0006428515
0.0016121631 0.01948781 0.015637875 0.026355464 -0.027794315 -0.008051609 0.002024551 0.0032311534
0.03429647 -0.01337346 0.010576305 0.00013335184 0.034740563 0.030447306 0.009961183 0.008424781
0.0090442905 0.031034566 0.026289146 0.009742978 -0.014933429 -0.012872245 -0.00047451005 0.010140588
-0.0008105612 0.0008590332 0.0025975942 0.0010377608 -0.0016681008 -0.0036038917 -0.0025131148 -0.00031284217
0.0021425562 0.0019261821 0.003777403 0.013299267 0.0055765742 0.00018542576 -0.010216017 0.005820028
6.524733e-05 -0.0007701869 0.0064853937 -0.0039938125 -0.00069501455 0.0033331607 -0.0013569453 -0.0005589995
-0.001258211 0.010583774 -0.0032388966 0.0029039227 0.00441192 0.0057848296 -0.0018100552 -0.001491319
-0.0006202181 -0.004394447 0.0032723502 -0.008622135 0.007343643 0.0050654304 -0.00095381454 0.003176656
-0.009824208 0.00304555 0.002588589 0.004147048 0.00033349777 0.0056363735 0.006895675 0.009030383
-0.0049227905 -0.0027719173 0.004813759 0.0033255138 0.0017730335 0.00047820466 0.001273104 -0.003714092
0.0059299106 0.005256926 -0.0047972864 -0.004498169 -0.0021688873 0.00048445966 0.0055612368 0.0024312711

gru.bias_hh_l0_reverse f4 [192]
00000000: cd2f b9bb 9366 973b 0ef1 00b9 cd80 c13b
00000010: 3713 7b3c 5822 a7bb 4da8 aabc ed70 f63a
00000020: baae 33bb 91cd cc3b ee93 5fbb 5fd1 b439
00000030: c500 8d3c 6f20 f53c 09aa 6c3c 3f3d 9f3c
00000040: 35ba 2f3c d5ce a6ba 7ecf eeba 624e 673b
00000050: 6dfa 0f39 4d4c 003c 2477 b43c f998 a2ba
00000060: e792 6abb 6ba6 88b9 8890 b03a c401 bf3c
00000070: 8f4c 3fb9 a9bb 2a3b a91b 1f3c 4a58 0bbb
00000080: 34a6 903b 492f 543c 8d0c 9e3a 8bd3 04bb
00000090: 9632 0a3c dee2 ffbb 282c 453c bfc1 6f3c
000000a0: 07d5 8c3c ecb0 ae3c 461d 56bc 8b6b 3b3c
000000b0: aff2 babb 0399 a5bb 6b6d a6bb 8bef 123b
000000c0: d3a8 803c 5937 a83b bf64 a63c f51e 95bb
000000d0: 3570 023c 64c2 913c daba f23a a714 a2bb
000000e0: 7f94 173b 3900 46bc f2ea 913c 608f a2ba
000000f0: e563 ebbb f415 7fbb 6e3d 0a3c 89f5 3e3c
00000100: 8b7b 2dbc fa8c c03c f54c 0abd fb54 1c3c
00000110: 9ebe 353c 3347 b23c 0495 c3bb 48f8 d8bc
00000120: 665a 79bc a716 a2bc 5731 053d 680d 9eba
00000130: 6875 04bd 13f3 a8bc 9dcf 153d 18bb f9bb
00000140: 5454 8a3b f315 62bc 4908 793c 4e42 813b
00000150: 002f fe3c 0064 d13c 2556 e33c f8f2 cf3b
00000160: ccf2 72bc da16 c1bc cbad a93c 6c73 cf3c
00000170: e589 fb3b 5004 203c d907 3b3d 832c 033a
00000180: ed48 443c b3da e23c b8a8 69bc 7560 083d
00000190: cdaf d23c 1294 3c3d 2b26 b5bc 0985 28ba
000001a0: 384f d33a e6a4 9f3c 001b 803c 6ae7 d73c
000001b0: e7b0 e3bc e5ea 03bc 54ae 043b c2c1 533b
000001c0: 757a 0c3d 5b1c 5bbc 3d48 2d3c 5dd4 0b39
000001d0: 1f4c 0e3d a16c f93c 3b34 233c 1808 0a3c
000001e0: 812e 143c 343c fe3c 565c d73c 03a1 1f3c
000001f0: 57ab 74bc 1ce6 52bc a9c7 f8b9 b524 263c
00000200: 7d69 d739 7f6c 78ba 900b 0c3b 061e aa3a
00000210: 4154 81ba 5245 34bb d2d4 39bb 1042 43ba
00000220: ee3f 7d3a 08c8 eb3a 6738 823b e5d8 613c
00000230: 223b c03b 945a f53a 0464 2ebc 6999 c13b
00000240: 5ba9 6eb9 ec6a 0fba e467 b43b 65a1 6dbb
00000250: a8fc a4ba 105c 5d3b edb9 94b9 1ec6 c9b7
00000260: eeed a7ba 8e3b 383c 2282 2dbb 268e 0a3b
00000270: ce64 4c3b 30c3 d03b 1588 20bb 51ab 8dba
00000280: 1851 b8b9 6e14 72bb 30f1 433b d01c 10bc
00000290: c958 e53b d4de cf3b 3dee dcba 4b11 863b
000002a0: 91a7 19bc 6c77 113b fb2f f63a f730 753b
000002b0: d391 a3b9 dfbc b73b f55d d13b 75d3 133c
000002c0: 69bc d1bb 7932 52bb cbdb 733b 03f6 453b
000002d0: 2433 ff3a 05e8 8bb9 11a6 e73a 5d8e 4bbb
000002e0: ff5d c13b 6bd2 423b 64d4 80bb 5ffe 6ebb
000002f0: c9c5 56bb e9d2 1238 880a 943b db25 223b
-0.0056514503 0.004620382 -0.00012296831 0.005905247 0.015324405 -0.0051005296 -0.020832205 0.0018801965
-0.0027417378 0.0062500914 -0.0034115273 0.0003448827 0.017212281 0.029922692 0.014444836 0.019438384
0.010725548 -0.0012726436 -0.0018219796 0.0035294523 0.00013730834 0.0078306915 0.022029467 -0.0012405209
-0.0035793127 -0.00026063932 0.0013470808 0.023316272 -0.000182437 0.0026051796 0.009711185 -0.0021262341
0.004414344 0.012950727 0.0012058184 -0.002026769 0.008434912 -0.007809027 0.012034453 0.014633595
0.017191423 0.021324597 -0.013068503 0.011439214 -0.0057051997 -0.005053641 -0.0050789616 0.002242061
0.015705502 0.005133551 0.020311711 -0.0045508095 0.007961323 0.017792888 0.0018518821 -0.0049463096
0.0023129282 -0.012085014 0.017812226 -0.0012402348 -0.007183539 -0.0038922997 0.008437498 0.01165522
-0.010588537 0.023504723 -0.0337648 0.009541745 0.01109281 0.021762466 -0.005968692 -0.026485577
-0.015219307 -0.019786192 0.032517757 -0.0012058439 -0.03233853 -0.02062372 0.03657495 -0.0076211803
0.0042214785 -0.013799178 0.015199729 0.0039446717 0.03102827 0.025560379 0.027751038 0.006346103
-0.014828395 -0.023570467 0.020712754 0.025323592 0.0076763504 0.009766653 0.04566178 0.0005003886
0.0119802775 0.027692175 -0.014261417 0.033295114 0.025718594 0.04603965 -0.022112926 -0.0006428515
0.0016121631 0.01948781 0.015637875 0.026355464 -0.027794315 -0.008051609 0.002024551 0.0032311534
0.03429647 -0.01337346 0.010576305 0.00013335184 0.034740563 0.030447306 0.009961183 0.008424781
0.0090442905 0.031034566 0.026289146 0.009742978 -0.014933429 -0.012872245 -0.00047451005 0.010140588
0.0004108659 -0.00094766164 0.0021369196 0.0012978918 -0.0009867029 -0.0027507138 -0.002835561 -0.0007448504
0.00096607103 0.0017988691 0.003974009 0.013784622 0.005866424 0.0018719011 -0.010643963 0.0059081805
-0.00022760539 -0.00054709497 0.005505549 -0.0036259529 -0.0012587504 0.0033776797 -0.00028367285 -2.4053323e-05
-0.0012811997 0.011244668 -0.002647527 0.0021141856 0.0031188014 0.0063709244 -0.0024495174 -0.0010808503
-0.00035155634 -0.0036938447 0.0029898398 -0.008795932 0.0069991094 0.006343702 -0.0016855669 0.004091417
-0.00937833 0.0022196425 0.001878261 0.0037413219 -0.0003119843 0.005607232 0.0063893744 0.009022583
-0.006400634 -0.003207354 0.0037209864 0.003020645 0.0019470197 -0.00026685014 0.0017673393 -0.0031060197
0.005901098 0.002972747 -0.003931569 -0.0036467535 -0.0032771698 3.5005538e-05 0.004517857 0.0024741802
