results/training/gpt-oss-20b_a100_tp2/model_tp2_H64_biGRU.pt (torch, 117133 bytes, 10 tensors)

gru.weight_ih_l0 f4 [192, 6]
0	0x3ca84f19	0.02054553
1	0xbd70d22d	-0.05879419
2	0x3c8e8c58	0.017400905
3	0xbc5434a6	-0.0129520055
4	0xbb77d5b1	-0.003781658
5	0x3e199f25	0.15002115
6	0xbe1f8b2e	-0.15580437
7	0xbc32cafe	-0.010912655
8	0x3d768d58	0.06019339
9	0x3d5c8e2b	0.05384652
10	0x3b5fde94	0.0034159767
11	0x3c6431d3	0.013927895
12	0x3c0c2958	0.008554779
13	0x3e075690	0.13216615
14	0x3da112b7	0.07864898
15	0x3e47b0b7	0.19501005
16	0xbcc458e3	-0.023968166
17	0x3db67657	0.0890929
18	0x3daa0b56	0.083029434
19	0x3d929906	0.07158093
20	0x3d2ccffe	0.042190544
21	0x3e092b90	0.13395524
22	0x3d9ebf0a	0.077512816
23	0x3d9af395	0.07565991
24	0x3c6dd45f	0.014515965
25	0x3d704ee1	0.058668975
26	0xbe436968	-0.19083178
27	0x3dc5c932	0.096575156
28	0x3dc68ec1	0.09695197
29	0xbd8c1b8b	-0.06841191
30	0x3d92653f	0.071482174
31	0x3dd59c54	0.10430208
32	0x3ce46902	0.027882103
33	0xbd4ea9ba	-0.050454833
34	0x3d83058e	0.06397544
35	0x3dc108b0	0.09425485
36	0xbd42c712	-0.04755313
37	0xbd13ca03	-0.036081325
38	0xbe009215	-0.12555726
39	0x3d561d6c	0.052274153
40	0xbc192f18	-0.009349607
41	0x3d797360	0.060901046
42	0x3e651968	0.22372973
43	0x3e381d09	0.17979826
44	0x3e0d32ba	0.13788882
45	0x3e3f5212	0.18683651
46	0x3dd792c6	0.10526042
47	0x3cb30c82	0.02185655
48	0x3da8cea7	0.08242541
49	0x3ddbcc57	0.10732334
50	0xbd46af36	-0.048506938
51	0x3d68fcc9	0.0568817
52	0x3de38466	0.111092374
53	0x3e3ce5e3	0.1844707
54	0xbc7b150f	-0.015324845
55	0x3da11a9b	0.07866403
56	0xbd3475ef	-0.044057783
57	0xbe272708	-0.16323483
58	0xbd1ab5eb	-0.037771147
59	0x3ce43fe1	0.027862491
60	0xbd1bea39	-0.03806517
61	0xbd5a8d5b	-0.053357463
62	0xbd87722b	-0.06613573
63	0x3e1690b4	0.14703637
64	0x3b72b69b	0.003703511
65	0x3d7cf327	0.061755326
66	0x3c8e56fd	0.017375464
67	0xbdabf564	-0.08396414
68	0xbc1b9eb4	-0.009498287
69	0x3d2e5a7b	0.042566758
70	0xbd4c4585	-0.049870986
71	0xbd87b610	-0.066265225
72	0x3df35913	0.11882224
73	0xbda1f101	-0.07907296
74	0x3d590308	0.052981406
75	0x3db2b655	0.08726183
76	0x3ccc74ef	0.024958102
77	0x3da67d96	0.08129422
78	0x3e272d59	0.16325893
79	0x3d9d8365	0.07691077
80	0x3cbc5504	0.022989757
81	0xbcb5796c	-0.022152625
82	0x3e0c32d3	0.13691263
83	0x3c8e4a08	0.017369285
84	0x3dcd1366	0.100134656
85	0xbd4fc018	-0.050720304
86	0xbddc0b4f	-0.107443444
87	0x3da1b4e9	0.07895834
88	0xbb35c9d7	-0.0027738714
89	0xbce87bf9	-0.028379427
90	0xbdbe2fad	-0.09286437
91	0x3da3824a	0.07983835
92	0xbcdc4045	-0.026886115
93	0x3e3da312	0.18519238
94	0x3e152bb0	0.14567447
95	0xbd12cc99	-0.03583965
96	0xbdd64885	-0.10463051
97	0x3c98c53e	0.01864874
98	0xbd46661e	-0.04843723
99	0xbd599ea9	-0.053129826
100	0xbd22c329	-0.0397369
101	0x3e47337c	0.19453233
102	0x3de0afa6	0.10971002
103	0x3c7e97f5	0.015539159
104	0x3df8385d	0.121201254
105	0x3e34b274	0.176462
106	0xbd07ecc7	-0.033184793
107	0x3d0ee464	0.03488578
108	0x3e345286	0.17609605
109	0x3e169b71	0.14707734
110	0x3e0b4188	0.13599217
111	0x3e4afb93	0.1982253
112	0x3e062a65	0.1310211
113	0x3d564fe3	0.05232228
114	0x3dad3f02	0.084592834
115	0xbd813fe1	-0.06311012
116	0xbdd992c3	-0.10623696
117	0x3de2e176	0.110781595
118	0xbb6d0e02	-0.003617168
119	0xbd8cdd77	-0.068781786
120	0x3bb9bddf	0.0056683864
121	0xbd451b2a	-0.04812161
122	0x3d40fa04	0.047113433
123	0x3df939d9	0.12169237
124	0x3e0badd3	0.13640527
125	0x3d2c9b90	0.042140543
126	0xbdba7835	-0.09104959
127	0x3bdde18e	0.006771273
128	0xbe1588aa	-0.14602914
129	0x3d0cf256	0.034410797
130	0xbdb92c46	-0.090416476
131	0xbe014871	-0.1262529
132	0xbd12aa22	-0.035806783
133	0x3d305f2f	0.043059524
134	0xbd420e22	-0.04737676
135	0x3e4dd91a	0.20102349
136	0xbc8d83c7	-0.01727475
137	0xbcb825c7	-0.022478951
138	0x3b248432	0.0025103209
139	0xbd8c573a	-0.06852575
140	0x3cab6f83	0.020927196
141	0xbd79ba3b	-0.06096862
142	0xbda4ee36	-0.08053248
143	0x3c660471	0.014039145
144	0x3dd0ca3b	0.101948224
145	0xbb008bd4	-0.0019614594
146	0x3d32bcb3	0.04363699
147	0xbe2116c2	-0.15731338
148	0x3de67cea	0.11254294
149	0xbdad8ede	-0.084745154
150	0x3dfb9a51	0.12285293
151	0xbd7af36c	-0.0612673
152	0xbd88abc5	-0.066733874
153	0xbd4a9387	-0.0494571
154	0xbdbaac8e	-0.091149434
155	0x3dece7fa	0.115676835
156	0x3d5e7efd	0.054320324
157	0x3d56d8da	0.0524529
158	0x3d9e1cdf	0.077203505
159	0x3dee3930	0.116320014
160	0xbd4f533b	-0.050616484
161	0x3c1e2ce0	0.009654254
162	0x3da0ba53	0.078480385
163	0x3d91de40	0.07122469
164	0x3da63d87	0.08117204
165	0x3df8608a	0.12127788
166	0xbb8bdd84	-0.00426835
167	0x3e3d530f	0.18488716
168	0x3dd0ca0c	0.101947874
169	0x3e20ad46	0.15691099
170	0xbd842c9a	-0.064538196
171	0x3d33b45f	0.043873187
172	0x3de76f59	0.11300535
173	0x3dd5f7d9	0.10447664
174	0x3e241074	0.16021901
175	0x3dcb3317	0.09921854
176	0x3de9dcbf	0.11419057
177	0x3af0c91c	0.0018370482
178	0x3db35781	0.087569244
179	0xbda54ab2	-0.080708876
180	0x3e2594d4	0.16170055
181	0x3cfb0995	0.030644218
182	0xbdb8c591	-0.09022058
183	0x3ddf17bb	0.10893198
184	0xbc98ad27	-0.018637253
185	0xbd84ca79	-0.06483931
186	0xbe0ddd41	-0.13853933
187	0xbd77df36	-0.060515605
188	0xbde6d73e	-0.11271523
189	0xbd421c91	-0.047390524
190	0xbdbde7af	-0.09272706
191	0xbe19f2c1	-0.1503401
192	0x3e094b3f	0.1340761
193	0x3db4f845	0.08836416
194	0x3e12cea4	0.1433664
195	0x3e3e7533	0.18599395
196	0x3b364ee4	0.0027818019
197	0x3d93f85a	0.07225104
198	0x3e1338e7	0.14377175
199	0x3dcf9f96	0.101378605
200	0x3bb7c0bb	0.005607692
201	0x3d87eada	0.06636591
202	0x3dd9c4d0	0.10633242
203	0x3d4dcb68	0.05024281
204	0x3d81adc6	0.06331973
205	0xbdc85ca1	-0.097832926
206	0x3acb7e18	0.001552525
207	0x3d87ad85	0.06624893
208	0xbdf43552	-0.119242325
209	0xbe053aad	-0.13010664
210	0x3cb19664	0.021678157
211	0x3ce4ef20	0.027946055
212	0xbd39ca49	-0.04535893
213	0x3d0171da	0.031602718
214	0xbd28da98	-0.041224092
215	0x3e29c9df	0.16580914
216	0x3cc480ba	0.023987163
217	0x3dbe396a	0.092882946
218	0xbc86a456	-0.016435783
219	0x3bb059d4	0.005381802
220	0x3e014279	0.12623014
221	0xbc19096b	-0.009340624
222	0x3d300079	0.0429692
223	0xbd49b306	-0.049242996
224	0xbcb65c52	-0.022260819
225	0xbcc8ef7f	-0.024528263
226	0xbe2ee2ac	-0.17078656
227	0xbd8ba3da	-0.068183616
228	0x3dd9185b	0.106003486
229	0x3dc7286f	0.09724509
230	0xbd10d4fe	-0.035359375
231	0x3d9265fa	0.07148357
232	0x3b478add	0.003044776
233	0x3ccd94a8	0.025095299
234	0xbe175e23	-0.14782004
235	0x3c1994d8	0.009373866
236	0xbd1e4dc6	-0.03864839
237	0x3ce98b18	0.028508708
238	0x3dfc5a66	0.1232193
239	0xbcdceacc	-0.026967429
240	0xbd8cbd80	-0.06872082
241	0xbdb1027d	-0.08643053
242	0xbc0f827e	-0.008759139
243	0x3e36f29a	0.17865983
244	0xbd74e68f	-0.05979019
245	0x3c08b3e3	0.00834367
246	0xbd9d06b4	-0.07667294
247	0x3dd47982	0.10374738
248	0x3d625f56	0.0552667
249	0x3e2969c2	0.1654425
250	0x3d04b8ef	0.03240293
251	0xbce2da72	-0.027692053
252	0x3d2666b8	0.040625304
253	0x3dd0320d	0.101657964
254	0xbc5997ca	-0.013280818
255	0x3dd2484f	0.10267698

gru.weight_hh_l0 f4 [192, 64]
0	0xbe012c9a	-0.1261467
1	0x3d468b3a	0.04847262
2	0xbe024e19	-0.12725104
3	0x3dc56340	0.09638071
4	0x3dba6f18	0.09103221
5	0xbd80ed9d	-0.06295321
6	0xbd4f3135	-0.050584037
7	0x3d5719bb	0.052514773
8	0x3cf4022c	0.029786192
9	0x3d9513a7	0.07279139
10	0x3d96fd20	0.073724985
11	0xbdbff8e5	-0.09373645
12	0x3c1c726e	0.009548767
13	0xbd940b76	-0.072287485
14	0x3d8f9e08	0.07012564
15	0xbcbd4e45	-0.02310861
16	0x3cfe4391	0.031038078
17	0xbb837506	-0.004011753
18	0xbc1f4677	-0.00972139
19	0xbccd20e7	-0.025040103
20	0x3d94ae33	0.07259788
21	0x3c9fee0a	0.019522686
22	0x3dec1073	0.11526575
23	0x3dedeb16	0.11617105
24	0xbcb134a7	-0.021631552
25	0xbd1d01b0	-0.038331687
26	0xbb74ee09	-0.0037373325
27	0xbcac84bf	-0.021059392
28	0x3c8976ab	0.016780218
29	0xbe0812ad	-0.13288374
30	0xbe16fd29	-0.1474501
31	0xbce6a3ff	-0.028154371
32	0x3d40df4c	0.047087952
33	0x3c4a4370	0.01234518
34	0x3da2da53	0.07951798
35	0xbd8bd542	-0.06827785
36	0xbd918004	-0.07104495
37	0xbd5edb12	-0.05440814
38	0xbd70c258	-0.05877909
39	0x3d25b1d5	0.040452797
40	0x3dd4ae56	0.103848144
41	0x3e0d4ae2	0.13798097
42	0x3ce614e6	0.028086137
43	0xbd051371	-0.032489244
44	0x3dc9b7da	0.0984952
45	0x3d855c1d	0.0651171
46	0x3e1ba509	0.15199675
47	0xbdfcdaa8	-0.12346393
48	0xbd573d6d	-0.052548815
49	0xbc9571eb	-0.018242797
50	0x3d4b75b9	0.049672816
51	0x3dcdf39b	0.1005623
52	0xbe12bab1	-0.1432903
53	0xbc4d45ff	-0.012528895
54	0x3d8f42dc	0.06995174
55	0x3e06591b	0.13119929
56	0xbdd1cf2e	-0.102445945
57	0xbded068b	-0.115735136
58	0xbbc54e02	-0.006021262
59	0x3db2161e	0.08695625
60	0xbd1948ae	-0.03742283
61	0x3cf40d71	0.029791566
62	0xbe1e3e6a	-0.15453497
63	0x3bf08d1f	0.0073410417
64	0x3de15c34	0.110039145
65	0xbd535e94	-0.05160387
66	0xbd29eb34	-0.041484073
67	0xbd6ef32a	-0.058337368
68	0x3ca523e8	0.020158723
69	0x3e135daa	0.14391199
70	0xbd31173a	-0.04323504
71	0x3da8b9ad	0.0823854
72	0xbcf12415	-0.02943615
73	0xbd4249f9	-0.047433827
74	0xbd42594e	-0.04744845
75	0x3d38020a	0.04492382
76	0xbdd4ca10	-0.10390103
77	0x3d8a7360	0.06760287
78	0xbca1bbf3	-0.019742941
79	0xbdcc7968	-0.09984094
80	0x3d245cfe	0.040127747
81	0xbd2a9f06	-0.041655563
82	0xbdedd945	-0.116137065
83	0xbe20bc01	-0.15696718
84	0xbdaedb3c	-0.085379094
85	0x3cb58536	0.022158246
86	0xbdd96eca	-0.106168345
87	0x3dfd664f	0.123730294
88	0x3da88455	0.08228365
89	0xbd81ebb8	-0.06343788
90	0xbc7b515d	-0.015339223
91	0xbd65da0c	-0.05611615
92	0xbcde97a6	-0.027171921
93	0x3dff9083	0.12478735
94	0x3d8c1b68	0.06841165
95	0xbe13714b	-0.14398687
96	0x3d3fa04c	0.04678373
97	0xbc793727	-0.015210903
98	0x3e31b98b	0.17355935
99	0x3d883ea3	0.06652572
100	0xbdf926fb	-0.12165638
101	0x3cc9ccc0	0.024633765
102	0x3dfef7d1	0.12449611
103	0xbd334815	-0.043769915
104	0xbe0d6f15	-0.13811906
105	0xbd86f57c	-0.06589791
106	0x3e039974	0.12851506
107	0x3d492502	0.04910756
108	0x3d322b29	0.043498192
109	0x3dd1146a	0.10208972
110	0xbdd2c29d	-0.10291026
111	0xbc49d383	-0.012318495
112	0xbe01fec3	-0.1269484
113	0xbc0dc00a	-0.008651743
114	0xbcfcb129	-0.030846195
115	0xbd9212cd	-0.07132492
116	0xbd20d177	-0.03926226
117	0xbd4c6de8	-0.049909502
118	0xbda0d7c9	-0.07853658
119	0xbde59920	-0.11210847
120	0x3dd14e1f	0.102199785
121	0xbd7c2bb9	-0.061565135
122	0x3e079d7c	0.1324367
123	0xbd2bee6f	-0.041975435
124	0x3d0d17b7	0.034446444
125	0xbd8e47c0	-0.06947279
126	0x3d9b7769	0.07591135
127	0xbddf4847	-0.10902458
128	0xbdd2abb3	-0.10286655
129	0x3de59ec8	0.11211926
130	0x3cf6f25a	0.03014486
131	0xbd35ac38	-0.044353694
132	0xbd3caa97	-0.046061125
133	0x3c45efde	0.012081115
134	0x3c807af8	0.015683636
135	0xbdf9a39d	-0.1218941
136	0x3def226b	0.116764866
137	0xbd16575b	-0.036704402
138	0xbd73536a	-0.05940572
139	0x3ce8a2f3	0.028398013
140	0x3e6738f5	0.22580321
141	0x3d5f5401	0.05452347
142	0x3c260380	0.01013267
143	0x3d93b80a	0.07212837
144	0x3dadd79f	0.08488392
145	0x3d7c968b	0.061667006
146	0x3d83a8e9	0.064287014
147	0x3d812b7e	0.063071236
148	0x3d6a80a6	0.057251595
149	0xbc26cd0f	-0.010180726
150	0xbc94a5f7	-0.018145544
151	0xbceaca58	-0.028660938
152	0x3cdb9d0b	0.026808282
153	0x3daf52be	0.08560704
154	0xbca655c8	-0.020304576
155	0x3dbbebe2	0.091758505
156	0xbe3a29a5	-0.18179949
157	0xbe1057d3	-0.14096002
158	0xbe2ddec9	-0.16979517
159	0xbd378f8d	-0.044814635
160	0x3e1a4d17	0.1506847
161	0xbd9a17a1	-0.07524038
162	0xbd5055a0	-0.05086291
163	0x3db3b080	0.08773899
164	0xbcd04fb8	-0.025428638
165	0x3c3bb4b5	0.011456658
166	0x3de9ac76	0.114098474
167	0x3b51020b	0.0031892087
168	0x3e8d1fa6	0.27563208
169	0xbba07793	-0.004897067
170	0x3c99d923	0.018780297
171	0x3d7f3eea	0.06231586
172	0xbd9fcc3a	-0.07802625
173	0x3d830f35	0.06399385
174	0x3c9e4516	0.019320052
175	0x3d002c03	0.031291973
176	0x3d27a9f5	0.040933568
177	0xbdc5fc35	-0.09667245
178	0x3b992ca2	0.00467451
179	0xbd81ca68	-0.06337434
180	0xbd04ff4d	-0.032470036
181	0x3d608b97	0.054820623
182	0xbdfb0e53	-0.122585915
183	0x3e01e979	0.12686719
184	0xbcb85894	-0.022503175
185	0x3d404f58	0.046950668
186	0x3cec4b81	0.028844597
187	0x3c20b16b	0.009807925
188	0x3dbbc758	0.09168881
189	0xbdb0eabd	-0.08638523
190	0x3ce694c1	0.028147103
191	0x3a8d90fa	0.0010800653
192	0x3d9e6503	0.0773411
193	0x3d0b973b	0.03407977
194	0xbdb69737	-0.08915561
195	0xbd96c6b4	-0.07362118
196	0x3e1c9fad	0.15295286
197	0xbe10d4cb	-0.14143674
198	0xbdf7855a	-0.12085982
199	0xbe13a451	-0.1441815
200	0x3e0de8ae	0.13858292
201	0xbd1ac7fb	-0.037788372
202	0x3d8df5d7	0.06931656
203	0x3d71e025	0.05905165
204	0x3bf6fd24	0.007537501
205	0x3e0228ba	0.12710848
206	0xbd8acafd	-0.06776998
207	0xbd5246dc	-0.051337108
208	0x3d586f3b	0.052840453
209	0x3ccf035a	0.025270153
210	0x3c62d59f	0.013844877
211	0xbd305642	-0.04305101
212	0x3e17f220	0.14838457
213	0xbde0fee9	-0.1098612
214	0x3d085e4a	0.033293046
215	0x3d0ead18	0.034833044
216	0x3da48bd4	0.080344826
217	0xbdc281ac	-0.09497389
218	0x3d92c300	0.071660995
219	0x3da0cba4	0.07851341
220	0xbdf18820	-0.11793542
221	0x3d1f2c10	0.03886038
222	0xbdcdd454	-0.10050264
223	0x3dd435ba	0.1036181
224	0x3d9d37ef	0.07676684
225	0xbc8d3e9b	-0.017241767
226	0xbd634b0a	-0.055491485
227	0xbc3cb3be	-0.011517463
228	0x3dd9e519	0.106394
229	0x3e2e5b38	0.17026985
230	0xbb3c82b6	-0.0028764433
231	0xbd9c8333	-0.07642212
232	0x3e242dc2	0.1603308
233	0xbd3b758e	-0.045766406
234	0x3d0b1d7f	0.033963677
235	0xbd26a313	-0.040682863
236	0xbe0104e0	-0.12599516
237	0xbda3fe65	-0.08007506
238	0x3e1a9d68	0.15099108
239	0xbd1e80e8	-0.038697153
240	0x3ddb0956	0.1069514
241	0x3d6a4c53	0.057201695
242	0x3d8586c2	0.06519844
243	0x3ce634ef	0.028101413
244	0xbd8c3acf	-0.06847154
245	0xbd7b6f7b	-0.061385613
246	0x3c6c4d6b	0.014422755
247	0x3e1137b7	0.1418141
248	0x3c9ec441	0.01938069
249	0xbb340004	-0.002746583
250	0xbddc390b	-0.107530676
251	0x3d98f81a	0.074691966
252	0x3dad632c	0.08466181
253	0xbdf830c9	-0.1211868
254	0x3c4ef68a	0.012632022
255	0xbc798eba	-0.015231783

gru.bias_ih_l0 f4 [192]
0	0x3d118213	0.03552444
1	0x3e04c1d8	0.1296457
2	0x3d8e4baf	0.06948029
3	0xbdb0643f	-0.086128704
4	0xbaffb0c8	-0.0019507641
5	0x3d94bf1f	0.07263016
6	0x3de6401c	0.11242697
7	0xbd6ed215	-0.05830582
8	0x3e024330	0.12720942
9	0x3ddba2ba	0.10724397
10	0x3df4330e	0.119238004
11	0x3e006376	0.12537941
12	0xbca1aa4d	-0.019734526
13	0xbc89903f	-0.016792415
14	0x3cef4fb7	0.029212816
15	0xbdce1b6f	-0.10063826
16	0x3c1c7cd5	0.009551247
17	0x3e1a8b53	0.1509221
18	0xbb67e5a0	-0.003538467
19	0xbd7f626d	-0.062349726
20	0x3d0f7bd3	0.035030197
21	0x3c0b9e9c	0.008521702
22	0x3e09122b	0.13385837
23	0xbd8a114b	-0.067415796
24	0xbc79587b	-0.015218849
25	0xbb52f903	-0.003219188
26	0x3dc8afdc	0.097991675
27	0x3d94f799	0.07273788
28	0x3b68c73c	0.0035519144
29	0x3e0299f7	0.12754045
30	0xbc4c4951	-0.012468652
31	0x3e1437a8	0.14474356
32	0x3bfa1655	0.0076320567
33	0x3e26144a	0.16218677
34	0x3e083fc7	0.13305579
35	0xbcf42a07	-0.029805196
36	0xbcf506ff	-0.029910563
37	0xbca72ebd	-0.020408029
38	0xbd58d7af	-0.052940067
39	0x3cb96cb1	0.022634836
40	0x3e41061d	0.18849988
41	0x3df464a5	0.11933259
42	0x3e0203ed	0.1269681
43	0x3dd395b5	0.10331289
44	0x3dc192c0	0.094518185
45	0x3e20c13a	0.1569871
46	0x3e015b6f	0.12632535
47	0xbdb25b49	-0.087088175
48	0x3d9e0fd3	0.07717862
49	0x3e0ffeec	0.14062089
50	0x3ddae071	0.1068734
51	0xbd07c5d2	-0.03314764
52	0xbd0aa87b	-0.03385208
53	0x3e16560e	0.14681265
54	0x3d693aec	0.056940958
55	0xbd1e6764	-0.03867282
56	0x3dcdd4a7	0.10050326
57	0x3d4d29ae	0.050088577
58	0x3dda4457	0.10657566
59	0xbca60fad	-0.020271147
60	0x3d61f1da	0.05516229
61	0x3dc223dc	0.09479496
62	0xbdae23c8	-0.085029185
63	0x3cd9cec4	0.026587851
64	0x3cd670a5	0.02617676
65	0x3e070399	0.13184966
66	0x3e33c6d0	0.1755631
67	0x3d3a7bba	0.04552815
68	0xbbc45b97	-0.0059923637
69	0xbcac5bea	-0.021039922
70	0x3d1a3b6b	0.03765432
71	0x3e7cbd9a	0.24681702
72	0x3dca6c11	0.09883893
73	0x3e18ed5a	0.14934292
74	0x3d1c5e22	0.03817571
75	0x3e1bdb14	0.1522029
76	0xbc86ccea	-0.016455133
77	0x3dd931b1	0.10605181
78	0x3d8f77cf	0.070052736
79	0x3e2a0eca	0.16607204
80	0x3e571ba3	0.21006636
81	0x3e59b6af	0.21261095
82	0x3c678840	0.014131606
83	0xbd910119	-0.070802875
84	0xbe007ceb	-0.12547652
85	0x3deb3db4	0.11486378
86	0x3b6a129d	0.003571666
87	0x3c76e770	0.015069827
88	0x3e124aea	0.1428639
89	0xbdb442d2	-0.088018075
90	0xbd4a6e2e	-0.04942148
91	0x3e83d3f1	0.25747636
92	0xbc39a707	-0.011331326
93	0x3e0da107	0.13830958
94	0x3e0a7bd5	0.135238
95	0x3e4bd360	0.19904852
96	0x3dc59f5c	0.09649536
97	0x3d896c9f	0.06710171
98	0x3d04a694	0.032385424
99	0x3dea9737	0.11454623
100	0xbb82c7f1	-0.00399112
101	0x3da861e9	0.082218
102	0x3cd2dc8c	0.02573993
103	0x3dcc3a02	0.099720016
104	0x3e714a6e	0.23563549
105	0xba8246b7	-0.0009939288
106	0x3e2e47aa	0.17019525
107	0x3e03550e	0.12825415
108	0x3e02fcfe	0.12791821
109	0x3d3033d8	0.043018192
110	0x3dea0424	0.11426571
111	0x3de68158	0.11255139
112	0xbc7f5e71	-0.015586481
113	0x3e0c4f13	0.1370204
114	0xbe060aca	-0.13090053
115	0x3c4b8863	0.012422654
116	0xbd0820b1	-0.033234302
117	0x3e4eeeb6	0.20208248
118	0x3e0eea88	0.13956654
119	0x3dac2c11	0.084068425
120	0xbd9559ec	-0.07292542
121	0x3e1b228a	0.15149894
122	0x3d2b6e69	0.041853342
123	0x3d6a5a61	0.0572151
124	0xbd04c5fd	-0.03241538
125	0x3d05bdfb	0.032651883
126	0x3da642d1	0.08118213
127	0x3e788c7d	0.24272342
128	0x3d08a790	0.033362925
129	0x3dcb2981	0.099200256
130	0xbd41d95e	-0.047326438
131	0xbc12d7e2	-0.008962603
132	0xbd3c2434	-0.045932963
133	0x3c375dd4	0.011191804
134	0xbd547b0e	-0.051875167
135	0xbdcb5142	-0.09927608
136	0xbda02b09	-0.07820708
137	0x3dd12c8a	0.10213573
138	0xbd8e8830	-0.069595695
139	0xbe017556	-0.12642416
140	0xbdef7cd3	-0.1169373
141	0x3baeaaa1	0.005330399
142	0xbe1182ea	-0.14210096
143	0x3d983d2d	0.07433543
144	0x3dad1f19	0.08453197
145	0x3d7a9823	0.061180245
146	0x3a987b26	0.0011633381
147	0x3d86bf2f	0.06579434
148	0x3d690d60	0.05689752
149	0x3b16c8a6	0.002300778
150	0xbdf3533f	-0.11881112
151	0x3e25992a	0.16171709
152	0x3b852195	0.004062841
153	0x3d5577f1	0.05211634
154	0x3ccb1ff8	0.024795517
155	0xbde9a902	-0.11409189
156	0xbcac1d90	-0.02101019
157	0xbcf776ec	-0.030208074
158	0xbd1ba4c8	-0.037998945
159	0xbd45bb6e	-0.04827445
160	0x3dd25c3b	0.10271498
161	0xbcbab0a4	-0.022789307
162	0x3d8e03b8	0.06934303
163	0xbd8ba2a3	-0.0681813
164	0x3acde860	0.0015709512
165	0x3dda7a30	0.10667837
166	0xbd78d1a0	-0.06074679
167	0xbd3fb95b	-0.046807628
168	0x3b4ef9c7	0.0031581984
169	0xbbd07e81	-0.0063627367
170	0x3dac306e	0.08407675
171	0x3c8ea96e	0.017414775
172	0x3c4b218a	0.012398133
173	0x3ceaa333	0.028642273
174	0x3da1f187	0.07907396
175	0x3bf6b201	0.007528544
176	0xbc60d915	-0.013723631
177	0xbdccc9e2	-0.099994436
178	0x3db7df64	0.08978155
179	0xbdde24d6	-0.1084687
180	0x3d463197	0.048387136
181	0xbda449ad	-0.08021865
182	0xbbdded23	-0.0067726537
183	0x3de0e6ae	0.10981499
184	0xbd13c367	-0.036075022
185	0x3bb15afb	0.005412457
186	0x3b132832	0.0022454378
187	0x3d4cf0c6	0.050034307
188	0x3d0b37a9	0.03398863
189	0xbde32537	-0.110910825
190	0x3d5a300b	0.053268474
191	0xbca71366	-0.020394992

gru.bias_hh_l0 f4 [192]
0	0x3d7cba77	0.061701264
1	0x3e0cd042	0.13751319
2	0x3de885a8	0.11353618
3	0xbd36c291	-0.044619147
4	0xbc081531	-0.008305834
5	0xbd2819dd	-0.04104029
6	0x3dc74679	0.097302385
7	0x3c8f3476	0.01748107
8	0x3e09f3d4	0.1347192
9	0x3e209928	0.15683424
10	0xbcfc0e3f	-0.030768512
11	0xbdc06d83	-0.09395888
12	0xbdddccd7	-0.10830086
13	0x3db76bc9	0.08956105
14	0x3df8fdde	0.12157796
15	0x3db4a741	0.08820964
16	0xbd843330	-0.06455076
17	0xbd23861e	-0.039922826
18	0xbc46422b	-0.012100737
19	0x3db11ab1	0.08647669
20	0x3c71b32b	0.01475219
21	0x3e060666	0.13088378
22	0x3dc3c906	0.095598266
23	0x3d7ab000	0.061203003
24	0x3e01b6eb	0.12667434
25	0x3c9e2e9c	0.019309334
26	0xbcb30c58	-0.021856472
27	0xbbf95cfe	-0.0076099625
28	0xbd9fea8a	-0.07808407
29	0x3da5bb87	0.080924086
30	0x3d40d980	0.047082424
31	0xbda15f31	-0.078794844
32	0xbd657888	-0.05602315
33	0x3e0776fd	0.13228984
34	0x3cd45c6d	0.025922978
35	0x3d131e4b	0.03591756
36	0x3e267d8e	0.16258833
37	0x3b6d164a	0.0036176615
38	0x3d597d07	0.05309775
39	0x3caa1aa2	0.020764653
40	0xbcea2d64	-0.028586097
41	0x3df4f9bf	0.11961698
42	0x3d32221d	0.043489564
43	0x3cb9273c	0.022601716
44	0x3d4d6d41	0.05015302
45	0xbc8aac57	-0.016927881
46	0x3deb10fe	0.114778504
47	0x3dc956f4	0.09831038
48	0x3e0d4cad	0.1379878
49	0xbd207a11	-0.03917891
50	0xbdab613c	-0.08368155
51	0x3d9f3fe6	0.077758595
52	0x3dfc3f93	0.12316813
53	0x3dbc78a8	0.09202701
54	0x3d81a649	0.063305445
55	0x3dd37b8c	0.10326299
56	0x3e0bc3cd	0.13648911
57	0x3d0d23b9	0.034457896
58	0x3dfeadf0	0.1243552
59	0xbcefe8fa	-0.029285897
60	0x3d5280b0	0.051392257
61	0x3cb455d3	0.02201358
62	0x3da9aeb6	0.082852766
63	0xbd662c16	-0.056194387
64	0x3cc33d87	0.02383305
65	0xbca75727	-0.0204273
66	0x3d8bbaca	0.068227366
67	0xbe0bc541	-0.13649465
68	0x3d78fce2	0.060788043
69	0x3c2379c6	0.0099777635
70	0x3ccbb017	0.02486424
71	0x3e20b8ca	0.15695491
72	0xbb8e9c59	-0.004352134
73	0xbca69308	-0.020333782
74	0x3d1209e0	0.03565395
75	0xbc17738b	-0.009243856
76	0xbd962a00	-0.073322296
77	0x3e6763f3	0.22596721
78	0x3e099070	0.13434005
79	0x3b91b28f	0.0044463347
80	0x3e535d93	0.20641164
81	0x3d581e5a	0.05276332
82	0x3cfb4710	0.030673534
83	0xbcf7230f	-0.030168084
84	0xbc87e5dc	-0.016589098
85	0x3da36c26	0.07979612
86	0x3d6410cf	0.055680092
87	0xbd0177f8	-0.03160855
88	0x3e51d79b	0.20492403
89	0x3d9bfa97	0.076161556
90	0xbca9a501	-0.020708563
91	0x3e8d1741	0.27556804
92	0x3e0ff26a	0.14057317
93	0xbd5fbf8c	-0.054626033
94	0x3c8bf711	0.017085584
95	0x3e416564	0.18886334
96	0x3e734167	0.23755418
97	0xbd063a0e	-0.03277021
98	0x3e0aa61c	0.13539928
99	0x3e0aa8d9	0.13540973
100	0x3e1dd971	0.15414979
101	0x3d4acd80	0.049512386
102	0x3cc1f85b	0.023677995
103	0x3c9be4e4	0.019030042
104	0x3d031fb1	0.032012645
105	0x3da904ff	0.08252906
106	0x3cd5816d	0.026062692
107	0xbbdf0426	-0.0068059145
108	0xbc19ce0a	-0.009387502
109	0x3e4d6271	0.20057084
110	0x3e1aabf1	0.15104653
111	0x3e24f007	0.16107188
112	0x3cf598d8	0.029980108
113	0xbc07e6f0	-0.008294806
114	0xbe083d23	-0.13304572
115	0x3cb40961	0.021977128
116	0x3e35b36c	0.17744225
117	0x3e404b65	0.1877876
118	0x3cd9c108	0.026581302
119	0x3cb20b5f	0.021733938
120	0xbda2b32c	-0.079443306
121	0x3e34b3e8	0.17646754
122	0x3e1ab524	0.15108162
123	0x3dbaf2b7	0.091283254
124	0xbd623f94	-0.055236414
125	0xbd08fe63	-0.033445727
126	0x3e19dc2a	0.15025392
127	0x3d5fc4c7	0.05463102
128	0xbd71d0dc	-0.059037074
129	0xbdd0877d	-0.10182092
130	0xbde7521c	-0.11294958
131	0x3dd1ef82	0.102507606
132	0xbca56338	-0.020188913
133	0xbcb077f4	-0.021541573
134	0x3d4b49b8	0.04963085
135	0xbd2c1483	-0.04201175
136	0x3d84b7c2	0.064803615
137	0x3d2484cf	0.04016572
138	0x3dccfff0	0.10009754
139	0x3bc3a995	0.0059711435
140	0xbbd1f428	-0.0064072795
141	0x3d326dc5	0.043561716
142	0xbcd54f14	-0.026038684
143	0x3b162400	0.0022909641
144	0xbc90ac59	-0.017660307
145	0xbd18eedf	-0.03733718
146	0x3dcd931b	0.10037824
147	0xbb69fff8	-0.0035705548
148	0x3d1b4536	0.0379078
149	0xbd03d8bc	-0.032189116
150	0x3c7f28c6	0.015573686
151	0x3d6fbbac	0.058528587
152	0x3da6a45a	0.08136816
153	0x3db125e2	0.08649804
154	0x3dc3a203	0.09552386
155	0xbd84c886	-0.06483559
156	0xbdc81aa2	-0.09770705
157	0xbd98d2c9	-0.07462079
158	0xbd4a3783	-0.049369346
159	0xbd70d694	-0.058798388
160	0x3e15782c	0.14596623
161	0x3c3ae1bb	0.011406357
162	0x3d452880	0.048134327
163	0xbcb128cd	-0.0216259
164	0x3c28c436	0.010300687
165	0x3c9476f9	0.018123137
166	0x3dd5f551	0.10447181
167	0x3bc1d57c	0.005915342
168	0x3d103c90	0.035214007
169	0xbd14a42b	-0.036289375
170	0x3dea8a31	0.11452139
171	0xbddd8036	-0.1081547
172	0x3da7baa2	0.08189894
173	0x3e0523c0	0.13001919
174	0xbd4eb993	-0.050469946
175	0x3d0a5325	0.0337707
176	0xbd4334ef	-0.047657903
177	0x3b143871	0.002261665
178	0xbd83d124	-0.06436375
179	0x3d887197	0.066622905
180	0xbdd2d22b	-0.102939926
181	0x3dc4cf52	0.09609856
182	0x3d6103bb	0.0549352
183	0xbd0b8c24	-0.034069195
184	0x3c73b87b	0.014875527
185	0xbdded612	-0.108806744
186	0xbdaefae6	-0.08543949
187	0x3dbde671	0.09272469
188	0xbde0c1ba	-0.109744504
189	0xbd9e92e4	-0.07742861
190	0xbdc2f48f	-0.09519302
191	0x3ce59a95	0.028027812

gru.weight_ih_l0_reverse f4 [192, 6]
0	0x3ca5978a	0.020213861
1	0xbd729db1	-0.059232417
2	0x3e2cece7	0.16887246
3	0xbd24fc4d	-0.040279675
4	0xbddc0d17	-0.10744684
5	0xbd827438	-0.06369823
6	0xbdf0a098	-0.11749381
7	0xbd8e0cb0	-0.06936014
8	0x3db65c3a	0.089043096
9	0x3d3c7027	0.046005394
10	0x3d8fc8ce	0.07020722
11	0x3e213e5c	0.15746444
12	0x3d0bd24c	0.0341361
13	0xbcd3e125	-0.025864193
14	0xbd7555ae	-0.059896164
15	0x3dbb4101	0.09143258
16	0x3d5535ee	0.052053384
17	0x3deb74ac	0.11496863
18	0x3d5dfc8f	0.054195937
19	0x3d3b617e	0.045747273
20	0xbcea0ac2	-0.028569583
21	0xbe0f7d78	-0.14012706
22	0x3bd909be	0.006623476
23	0xbda5a292	-0.080876485
24	0x3d42f7d9	0.047599647
25	0x3df18af7	0.117940836
26	0x3b7a26d3	0.0038170114
27	0x3d88740a	0.06662758
28	0x3bab4487	0.005226675
29	0x3e0975f6	0.13423905
30	0x3dcff74b	0.10154589
31	0x3d7e6dcb	0.062116425
32	0xbdb6b4ce	-0.089212045
33	0xbd7c1c63	-0.06155051
34	0x3d9efcba	0.077630475
35	0xbdbce5cb	-0.09223517
36	0x3de734b5	0.1128935
37	0x3d91e644	0.07123998
38	0x3d400db3	0.046888065
39	0xbd231a49	-0.03981999
40	0x3c01bb68	0.007918216
41	0xbd54b78d	-0.05193286
42	0x3e0f2f59	0.13982905
43	0xbc90749a	-0.017633725
44	0xbd66fe53	-0.056394886
45	0xbdb7d91f	-0.089769594
46	0xbcc9aeae	-0.024619427
47	0xbd4c71bc	-0.049913153
48	0x3c5182a8	0.0127874985
49	0xbda21e1d	-0.079159
50	0x3cf10444	0.02942098
51	0x3df9adc4	0.12191346
52	0x3df86002	0.12127687
53	0x3d38bd45	0.045102376
54	0xbe1f8cc9	-0.15581049
55	0xbc347264	-0.011013601
56	0xbc846bd7	-0.016164703
57	0x3d78d086	0.06074574
58	0xbdfe2491	-0.12409318
59	0xbc462291	-0.012093202
60	0x3aaac091	0.001302736
61	0xbd9ada1b	-0.075611316
62	0x3d697502	0.056996353
63	0x3dceb292	0.10092653
64	0x3d2a5c89	0.041592155
65	0x3c94d3cd	0.0181674
66	0xbdf488c4	-0.119401485
67	0xbc9b9d91	-0.018996032
68	0x3e248789	0.16067328
69	0xbd417855	-0.0472339
70	0x3c6b09bd	0.0143455835
71	0x3d92bcfc	0.07164952
72	0x3d416099	0.047211263
73	0xbb3535ec	-0.0027650548
74	0xbd21074e	-0.039313607
75	0x3d020b01	0.031748775
76	0xbd43bc66	-0.047787093
77	0xbdce51d0	-0.10074198
78	0x3dc12274	0.094303995
79	0x3c256d64	0.010096882
80	0xbc9b153f	-0.01893103
81	0xbd270b9f	-0.040782567
82	0xbdefa559	-0.117014594
83	0x3d109fb4	0.035308555
84	0x3d775764	0.060386077
85	0xbd78520a	-0.060625114
86	0x3c88e7a0	0.01671201
87	0x3da05a20	0.0782969
88	0xbb73eb07	-0.0037218945
89	0x3e215b7f	0.15757559
90	0x3cffc039	0.031219589
91	0x3d1f8bec	0.0389518
92	0xbd2123d3	-0.039340805
93	0xbdd8e595	-0.10590664
94	0x3d904596	0.070445225
95	0x3dc9f837	0.09861796
96	0x3c21990f	0.009863152
97	0x3dd1ff30	0.10253751
98	0x3d17fc16	0.037105642
99	0x3d2d2128	0.04226795
100	0x3df7d941	0.12101985
101	0x3e0270be	0.1273832
102	0xbdddbad8	-0.10826653
103	0x3d8b519e	0.068026766
104	0xbdfc3b92	-0.1231605
105	0xbd9c068d	-0.07618437
106	0x3d70d326	0.058795117
107	0x3e2fd2cb	0.17170255
108	0x3d81ceb1	0.063382514
109	0xbcb05f1d	-0.021529729
110	0xbcaf326d	-0.02138635
111	0xbdfce644	-0.12348607
112	0x3deb7815	0.11497513
113	0x3dc83082	0.09774877
114	0x3c8273d0	0.015924364
115	0xbcc5fcb5	-0.024168352
116	0xbe60285a	-0.21890393
117	0x3d470a58	0.04859385
118	0xbde99460	-0.114052534
119	0xbd86109b	-0.06546136
120	0x3db52a54	0.08845964
121	0xbc1576f8	-0.009122603
122	0x3d135a0a	0.03597454
123	0xbdc8c4ec	-0.09803185
124	0x3d8a7f1e	0.06762527
125	0xbdaaf8c5	-0.0834823
126	0x3da43931	0.08018721
127	0x3d2f1420	0.042743802
128	0xbdc374df	-0.09543776
129	0xbd1c67f3	-0.03818507
130	0x3dbf270c	0.093336195
131	0xbd28ec8e	-0.04124122
132	0xbcb52bb3	-0.022115564
133	0xbd5aea10	-0.053445876
134	0xbd54b7ca	-0.051933087
135	0xbd415a9d	-0.047205556
136	0xbd733c97	-0.059383955
137	0x3d6a4e98	0.05720386
138	0x3d850eaa	0.064969376
139	0xbc072b30	-0.008250043
140	0x3e0ddf01	0.138546
141	0x3d831996	0.064013645
142	0xbd8ab370	-0.06772506
143	0x3c7a7938	0.01528769
144	0xbe26e4df	-0.16298245
145	0xbdde3e42	-0.108517185
146	0xbcdc9578	-0.026926741
147	0xbda7d665	-0.081951894
148	0xbcb3d40a	-0.021951694
149	0xbda0446b	-0.0782555
150	0x3d0746ff	0.03302669
151	0xbdfbc76a	-0.122938946
152	0xbe73b4d6	-0.23799452
153	0x3c22e811	0.009943024
154	0x3d0b41d4	0.033998325
155	0xbdb8d524	-0.09025028
156	0x3d6bbf52	0.057555504
157	0xbd9fef35	-0.07809297
158	0xbd6afd9e	-0.057370774
159	0x3df62bb3	0.12020054
160	0x3d908ae9	0.07057745
161	0x3d1ce0a5	0.038300175
162	0xbe6ea2cc	-0.2330429
163	0xbe3a3e06	-0.18187723
164	0xbe8628a9	-0.26202896
165	0xbd2c249f	-0.042027112
166	0xbe66e53d	-0.22548385
167	0xbd532650	-0.05155021
168	0x3d0e65ec	0.03476517
169	0x3dabb155	0.08383433
170	0x3da792c1	0.08182288
171	0xbe157820	-0.14596605
172	0x3c04d9e6	0.008108592
173	0xbdfc10f7	-0.12307923
174	0xbce670cd	-0.02812996
175	0xbdd6b4e4	-0.10483721
176	0xbaa001aa	-0.0012207527
177	0xbce06fa2	-0.02739698
178	0xbd97d140	-0.07412958
179	0xbbe7da80	-0.007075608
180	0x3d9c1b0d	0.07622347
181	0xbd93c89a	-0.07215996
182	0xbe0317b6	-0.12802014
183	0xbdb51550	-0.08841956
184	0xbd4f870a	-0.050665893
185	0x3df5540b	0.119789205
186	0x3d8d1450	0.0688864
187	0x3d84a6d7	0.06477135
188	0x3d9e900e	0.0774232
189	0xbded009c	-0.11572382
190	0xbd819111	-0.06326497
191	0x3dba20dc	0.09088299
192	0x3e0ad46b	0.13557594
193	0x3c2bc752	0.010484533
194	0xbd2774f0	-0.040883005
195	0xbdbdf77d	-0.0927572
196	0x3d069b61	0.032863025
197	0x3e18fc15	0.14939912
198	0xbd376cc5	-0.044781465
199	0x3d84f463	0.064919256
200	0xbc42dc3f	-0.011893331
201	0x3d80338b	0.06259831
202	0xbd6a6646	-0.05722644
203	0xbdc9abbe	-0.0984721
204	0x3d848c20	0.06472039
205	0xbda385b0	-0.07984483
206	0xbe2561b1	-0.16150548
207	0x3c9a504a	0.018837113
208	0x3dfb2659	0.122631736
209	0x3d629823	0.05532087
210	0xbcb81cb7	-0.02247463
211	0x3da11603	0.078655265
212	0x3d51413a	0.051087596
213	0xbc33ef01	-0.010982276
214	0xbdcb535f	-0.09928011
215	0xbd29ef89	-0.041488204
216	0x3e2af958	0.1669668
217	0x3e37c868	0.17947543
218	0x3e0db390	0.13838029
219	0xbcb57bbc	-0.022153728
220	0x3d9524ef	0.07282435
221	0x3dc1f2bb	0.09470125
222	0x3d9e523e	0.0773053
223	0xbd8046e9	-0.06263525
224	0x3d433518	0.047658056
225	0x3d371d9b	0.04470597
226	0xbc886846	-0.016651284
227	0xbd317da7	-0.043332722
228	0x3d1fafdb	0.03898607
229	0x3d265b7a	0.040614583
230	0x3d999e16	0.075008556
231	0x3e373e3b	0.17894833
232	0xbd61f1f8	-0.0551624
233	0x3e2dcec1	0.16973402
234	0xbd813c6a	-0.06310351
235	0x3c001ca3	0.0078193275
236	0x3c73ae03	0.014873031
237	0xbddb8e94	-0.10720554
238	0x3d548fa3	0.051894795
239	0xbb236618	-0.0024932679
240	0xbd46fb1e	-0.048579328
241	0x3e257a99	0.16160049
242	0xbda92643	-0.08259251
243	0x3c7539e6	0.014967417
244	0x3d8d0f1e	0.06887649
245	0x3e1ca83b	0.1529855
246	0x3d621b58	0.05520186
247	0x3dd72d58	0.105066955
248	0xbc054937	-0.008135132
249	0xbda2863e	-0.07935761
250	0x3d991e2f	0.0747646
251	0xbd4672c8	-0.048449308
252	0xbdd3358e	-0.10312949
253	0xbe41ebfb	-0.18937676
254	0xbde6f620	-0.11277413
255	0xbdc788e5	-0.097429074

gru.weight_hh_l0_reverse f4 [192, 64]
0	0xbd067c7f	-0.032833572
1	0xbd32142e	-0.043476276
2	0xbda146b7	-0.07874816
3	0x3c8315b9	0.01600157
4	0x3d4c00bd	0.04980539
5	0xbe0d74d1	-0.13814093
6	0x3d9c6454	0.076363236
7	0xbdb5b773	-0.08872881
8	0x3dc9d063	0.098542
9	0x3a1574b5	0.00057012896
10	0xbda9f75f	-0.082991354
11	0xbdcbf710	-0.09959233
12	0x3cbfb7b4	0.023403026
13	0x3e079499	0.1324028
14	0x3dec206b	0.11529621
15	0x3dd37cf5	0.10326568
16	0x3d60f622	0.05492223
17	0x3d328697	0.043585386
18	0xbcaf8992	-0.021427903
19	0x3d801584	0.06254104
20	0xbdd911d1	-0.10599101
21	0x3c6b6e78	0.0143695995
22	0x3d920cad	0.07131324
23	0x3df26763	0.11836126
24	0xbd9aef77	-0.075652055
25	0xbd2cb1e0	-0.042161822
26	0x3bd36f5e	0.006452485
27	0xbd3b7cee	-0.04577344
28	0xbd0e6231	-0.03476161
29	0xbd85d016	-0.0653383
30	0xbe138744	-0.14407068
31	0xbcc3a848	-0.023883954
32	0xbdb46fa1	-0.08810354
33	0xbc64455e	-0.013932554
34	0x3e58a295	0.2115577
35	0x3d4cc21d	0.04998981
36	0xbdcdbaa8	-0.100453675
37	0xbdcc48f6	-0.09974854
38	0x3d7c21ab	0.061555546
39	0x3e185d30	0.14879298
40	0x3cd1cc01	0.025609972
41	0xbb440f92	-0.0029916507
42	0xbd2e48d9	-0.04254994
43	0x3e28ac86	0.16472062
44	0x3d933399	0.07187576
45	0xbc0c60f1	-0.0085680345
46	0xbdbe4b5d	-0.09291718
47	0xbdbbb36c	-0.091650814
48	0x3d6f3e68	0.058409125
49	0x3e040b36	0.12894902
50	0xbd6a70e0	-0.057236552
51	0x3d9fc3a2	0.07800986
52	0x3b0b6029	0.0021267033
53	0xbd2887d7	-0.041145172
54	0xbc9fc6f6	-0.019504052
55	0x3d1e8764	0.038703337
56	0xbd6da88a	-0.05802206
57	0xbe29ca62	-0.16581109
58	0xbd97fcdd	-0.07421277
59	0xbd5c7cc0	-0.05382991
60	0x3db2f8ed	0.08738885
61	0xbb337cc6	-0.0027387603
62	0x3d810181	0.06299115
63	0xbd64811b	-0.055787187
64	0x3d89ee09	0.06734855
65	0xbd30e910	-0.043191016
66	0x3e0d2b83	0.1378613
67	0x3e1087a8	0.14114249
68	0x3dbae9e4	0.09126642
69	0x3e0b707a	0.13617125
70	0x3cdeac01	0.027181627
71	0x3d4fa8b4	0.050697997
72	0xbd4e8e85	-0.050428886
73	0x3db8c864	0.090225965
74	0xbd8fb694	-0.07017246
75	0xbbbe6a25	-0.0058109933
76	0xbd4b8e10	-0.04969603
77	0x3d2e5aae	0.042566948
78	0xbdb4a7ec	-0.08821091
79	0xbd54e940	-0.051980257
80	0x3d911fa1	0.07086111
81	0x3d0a8cc3	0.033825647
82	0xbdb2c627	-0.08729201
83	0x3ddd5526	0.108072564
84	0xbd09b7c6	-0.033622526
85	0x3dcac954	0.099016815
86	0xbc9d345b	-0.019190004
87	0xbda47274	-0.08029643
88	0xbd9974ff	-0.07493018
89	0xbdc41781	-0.095747955
90	0x3d85751a	0.06516476
91	0x3cd2b96d	0.025723184
92	0x3c92a342	0.017900113
93	0xbd861416	-0.065468
94	0x3cd881a8	0.026429012
95	0x3dc43fbf	0.09582471
96	0xbdcace36	-0.09902613
97	0x3cb0b14a	0.021568913
98	0xbd529915	-0.05141552
99	0xbdc6a474	-0.09699336
100	0x3d96de81	0.07366658
101	0xbdf02486	-0.11725716
102	0x3e04baf1	0.12961937
103	0xbe172556	-0.14760336
104	0xbe056379	-0.13026227
105	0xbdcbf13e	-0.09958123
106	0x3d6e3a8e	0.05816131
107	0xbde5f422	-0.11228205
108	0xbd1e76aa	-0.038687386
109	0x3d7b1030	0.061294734
110	0x3d977a01	0.07396317
111	0xba2f1c7f	-0.00066799665
112	0x3cf13c83	0.0294478
113	0x3d139916	0.036034666
114	0x3d6f37da	0.058402874
115	0xba581903	-0.0008243473
116	0x3dc994b8	0.09842819
117	0x3e0d317c	0.13788408
118	0xbdc761c2	-0.09735443
119	0xbd3ab8d9	-0.04558644
120	0x3ce7e0e0	0.028305471
121	0x3caf4c5c	0.021398716
122	0xbdb148b1	-0.08656443
123	0x3e256b78	0.16154277
124	0x3d09bc24	0.03362669
125	0x3c45f8da	0.012083257
126	0xbd522e26	-0.05131354
127	0x3dc14227	0.09436446
128	0x3d9f4a30	0.07777822
129	0xbca91c38	-0.020643339
130	0x3d52d0ef	0.051468786
131	0xbda7934c	-0.081823915
132	0x3db8ad2d	0.09017406
133	0xbd89d7db	-0.06730624
134	0x3d6e5008	0.058181792
135	0xbd79e01b	-0.06100474
136	0x3d104834	0.03522511
137	0x3d89ee65	0.06734923
138	0x3de44b80	0.11147213
139	0x3d5a4603	0.053289425
140	0xbe15929f	-0.14606713
141	0x3d628036	0.055298053
142	0xbc7076f9	-0.014676803
143	0x3d8cfcfd	0.06884191
144	0x3d709711	0.05873782
145	0xbd08ae3e	-0.033369295
146	0x3dbec626	0.093151376
147	0xbdf10bee	-0.117698535
148	0x3cb065d6	0.021532934
149	0x3d53b39d	0.051684964
150	0x3d958e62	0.07302548
151	0xbe0a6e8d	-0.13518734
152	0xbd2642a2	-0.04059089
153	0x3df46909	0.11934096
154	0x3c1bfa8c	0.009520184
155	0x3ca024a0	0.019548714
156	0xbd1e4397	-0.038638677
157	0x3e315568	0.17317736
158	0xbd3b3ac9	-0.04571036
159	0x3e28b526	0.16475353
160	0xbd34ea60	-0.04416883
161	0x3d925e56	0.071468994
162	0x3d05c95b	0.03266273
163	0xbdec4552	-0.11536659
164	0x3d1d391f	0.038384553
165	0xbd8d6660	-0.06904292
166	0x3e1c0ec2	0.15240005
167	0xbe3467aa	-0.1761767
168	0xbe211b71	-0.15733124
169	0xbdaceb0a	-0.08443268
170	0x3e367f93	0.17822103
171	0x3d8fc36b	0.07019695
172	0xbd1d27d1	-0.03836805
173	0xbd5effd2	-0.054443188
174	0xbe181aed	-0.14854021
175	0xbd7ed12c	-0.0622112
176	0x3d152e88	0.03642133
177	0xbdbb9d47	-0.09160858
178	0x3d691ea5	0.05691399
179	0x3dad50eb	0.084626995
180	0x3d66dbbe	0.056361906
181	0x3dea8f43	0.11453106
182	0x3df6d7fd	0.12052915
183	0x3e040047	0.12890731
184	0xbdaec722	-0.08534075
185	0xbc8b274f	-0.016986517
186	0xbe0871e0	-0.1332469
187	0x3e16bc63	0.14720301
188	0x3e03a631	0.12856366
189	0x3dfafbb1	0.122550376
190	0x3dfd0d58	0.12356061
191	0xbd9d930c	-0.076940626
192	0x3c279a6f	0.010229691
193	0xbe55437c	-0.20826524
194	0xbd9b087c	-0.07569978
195	0x3dcd334a	0.10019548
196	0x3d9b31f6	0.07577889
197	0xbc9de098	-0.019272134
198	0x3d03efc2	0.032211073
199	0xbde22103	-0.11041453
200	0x3d9b8ce4	0.07595232
201	0x3d8118e1	0.063035734
202	0xbe0b1b97	-0.13584743
203	0x3ca62102	0.020279411
204	0x3d971e38	0.07378811
205	0xbda0f872	-0.07859887
206	0xbe106907	-0.14102565
207	0x3c87f615	0.016596833
208	0x3d7dc74a	0.061957635
209	0xbcebe0fd	-0.028793806
210	0x3e02f000	0.12786865
211	0x3e07aaa8	0.13248694
212	0xbd7ac984	-0.061227337
213	0xbe3ddcc1	-0.18541242
214	0xbe0a81cd	-0.13526078
215	0x3d7e4a18	0.06208238
216	0x3da723d4	0.081611305
217	0x3ded5bfd	0.11589811
218	0xbdbea53d	-0.093088605
219	0xbe16d108	-0.14728177
220	0xbdaa96da	-0.08329554
221	0xbdb40a02	-0.08790971
222	0xbe02de38	-0.12780082
223	0x3a606175	0.0008559444
224	0xbbcf83a4	-0.0063328315
225	0xbe645cd3	-0.22301035
226	0x3e1e9180	0.15485191
227	0x3dc4d50b	0.09610947
228	0x3d2fa015	0.042877275
229	0x3d90b299	0.07065315
230	0xbdd60a6a	-0.10451205
231	0xbddacde1	-0.106837995
232	0xbdda0b68	-0.10646707
233	0x3ddb7f06	0.10717587
234	0xbda21f11	-0.07916082
235	0x3d9d46e7	0.07679539
236	0x3d197a26	0.037470005
237	0xbd3f0aed	-0.04664128
238	0x3d55528d	0.05208068
239	0xbd0caa9d	-0.034342397
240	0xbdb8a3f3	-0.09015646
241	0xbcef5398	-0.029214665
242	0xbe243c58	-0.16038644
243	0xbdd67b93	-0.10472789
244	0x3d1e311a	0.038621046
245	0xbdcc6fa3	-0.099822305
246	0x3e51c364	0.20484692
247	0x3d2bb8de	0.04192435
248	0xbc3e478f	-0.011613741
249	0x3d6613cd	0.056171227
250	0x3c77ae16	0.015117189
251	0x3c5183d0	0.012787774
252	0xbda5b36f	-0.08090865
253	0x3e114742	0.14187339
254	0x3dca6798	0.0988304
255	0x3e21bd2e	0.15794823

gru.bias_ih_l0_reverse f4 [192]
0	0xbd804995	-0.06264035
1	0x3db9331e	0.09042953
2	0x3d6395eb	0.055562895
3	0x3e0d720f	0.13813041
4	0x3ccf965c	0.025340252
5	0x3d799e02	0.060941704
6	0x3d87cf4f	0.06631338
7	0x3a807e81	0.0009803326
8	0x3e294647	0.16530715
9	0x3de2d2ae	0.1107534
10	0xbcb96f52	-0.02263609
11	0xbda6e10f	-0.08148395
12	0x3cbc972d	0.023021305
13	0x3d9e11f7	0.0771827
14	0x3e0d7d2a	0.13817278
15	0xbdcf8982	-0.101336494
16	0xbb5ab490	-0.0033371784
17	0x3c68742d	0.014187855
18	0x3d44b00f	0.048019465
19	0xbc9f7ed2	-0.019469652
20	0x3be877dd	0.007094367
21	0x3e455e6d	0.19274302
22	0x3e1d0a8a	0.15336052
23	0x3d9edd90	0.077571034
24	0x3d8708f4	0.065935045
25	0x3caedfce	0.021346953
26	0xbcfd6776	-0.030933123
27	0x3e24f401	0.16108705
28	0x3dd4aba9	0.10384304
29	0xbcee322a	-0.029076654
30	0x3e19bf57	0.15014397
31	0x3deabb5d	0.11461518
32	0x3df99331	0.12186278
33	0x3d84f7c4	0.0649257
34	0x3dae8068	0.08520585
35	0x3c35dd2b	0.011100094
36	0xbd9557a4	-0.07292107
37	0x3db8be11	0.09020627
38	0x3d219f9b	0.039458852
39	0x3e25d718	0.16195333
40	0xbd2d9dff	-0.042387005
41	0x3e2dc528	0.1696974
42	0xbd228d75	-0.039685685
43	0xbca209ed	-0.019780124
44	0xbd6c39c0	-0.057672262
45	0xbd5b439b	-0.05353127
46	0x3c95161b	0.018199017
47	0x3de889cf	0.1135441
48	0x3e18aac3	0.1490889
49	0xbd4deebc	-0.050276503
50	0x3dff168f	0.124554746
51	0x3df1e80f	0.1181184
52	0x3da3529c	0.07974741
53	0xbd3596fa	-0.044333436
54	0xbbe5c70d	-0.007012254
55	0xbc0e7c08	-0.008696564
56	0x3dfde224	0.123966485
57	0x3b8c2da7	0.004277903
58	0xbd862548	-0.065500796
59	0xbcd2835d	-0.025697405
60	0x3d8cd84b	0.06877192
61	0x3e1076c6	0.14107808
62	0x3e11e36c	0.14246911
63	0x3e292e60	0.16521597
64	0x3cac8d82	0.02106357
65	0x3d8f6db6	0.070033476
66	0x3b4b7022	0.0031042178
67	0x3db596d1	0.088666566
68	0x3dae3640	0.08506441
69	0x3e14f1fa	0.14545432
70	0x3d51d70e	0.051230483
71	0x3defdbaa	0.117118195
72	0xbdb24413	-0.087043904
73	0xbdac1f92	-0.08404459
74	0xbd295f81	-0.041350845
75	0x3d090f87	0.033462074
76	0x3d4af46e	0.049549513
77	0x3d69aae7	0.05704775
78	0x3e4d0f4a	0.20025364
79	0xbde462ee	-0.11151682
80	0x3d9d9601	0.076946266
81	0x3e1fca23	0.15604453
82	0x3cc1b86f	0.023647515
83	0x3daa6c0f	0.08321392
84	0x3c34469a	0.011003161
85	0xbcd62ca2	-0.02614433
86	0xbcc1c82c	-0.02365502
87	0xbbeb5067	-0.0071812156
88	0x3c538333	0.012909698
89	0x3d4189fa	0.047250725
90	0x3e1071b8	0.1410588
91	0x3b739db9	0.0037172867
92	0x3d56d34b	0.0524476
93	0xbd869b22	-0.06572558
94	0x3d6ed7e2	0.05831135
95	0xbc093339	-0.008374029
96	0x3cac4ea6	0.021033596
97	0xbd12eb15	-0.035868723
98	0xbd624afe	-0.0552473
99	0x3df71929	0.12065346
100	0x3d883807	0.06651311
101	0x3da71b5a	0.08159514
102	0x3e20accc	0.15690917
103	0x3dec99de	0.11552785
104	0x3c9edda6	0.0193928
105	0x3db700d0	0.08935702
106	0x3d4bd77b	0.049766045
107	0x3e58a087	0.21154986
108	0x3d694814	0.056953505
109	0x3d238602	0.03992272
110	0xbd9ce17b	-0.076601945
111	0xbc1e5cd3	-0.009665686
112	0xbd2788b8	-0.04090187
113	0x3ac31270	0.0014882814
114	0xbc337d3a	-0.010955149
115	0x3e0b98bf	0.13632487
116	0x3e2db8c3	0.16965012
117	0xbb011844	-0.0019698301
118	0x3bf23766	0.007391858
119	0x3e748321	0.23878147
120	0x3d813ef7	0.06310838
121	0xbe35d26c	-0.17756051
122	0x3dd42892	0.10359301
123	0x3de0b8ca	0.10972746
124	0x3e236332	0.15955809
125	0xbe057d6f	-0.1303613
126	0x3d159128	0.036515385
127	0xbbbb55f7	-0.005717035
128	0x3de8d1b5	0.113681234
129	0xbddb7282	-0.107152
130	0x3cb64dc7	0.022253884
131	0x3bce5096	0.0062962277
132	0xba90c1a8	-0.0011044042
133	0x3d849964	0.064745694
134	0xbd8b1b2d	-0.06792293
135	0x3d890ba6	0.06691675
136	0xbd99f5bf	-0.075175755
137	0xbd3d4e2e	-0.046217136
138	0xbd8f8fea	-0.07009871
139	0x3d6d9da3	0.058011662
140	0x3bfcccb5	0.0077148327
141	0x3df6f7d4	0.12058988
142	0x3c8c25fc	0.017107956
143	0x3dc8624b	0.09784373
144	0xbda157df	-0.07878088
145	0xbd860ac1	-0.0654502
146	0xbda380ee	-0.07983576
147	0x3d31e20f	0.043428477
148	0xbc85ea54	-0.016347088
149	0xbd5d12e1	-0.053973082
150	0x3cfe9f35	0.031081775
151	0xbd1285ae	-0.035772018
152	0x3e00a63c	0.12563413
153	0xbcbe7059	-0.02324693
154	0x3da6e3b5	0.081489004
155	0xbda4958b	-0.080363356
156	0xbded9db5	-0.11602346
157	0x3d48f5dd	0.0490626
158	0xbd959147	-0.073031
159	0xbc5f113b	-0.013614948
160	0xbe009930	-0.12558436
161	0xbd804d27	-0.06264716
162	0x3d48cc50	0.049022973
163	0x3dd31a11	0.10307706
164	0x3df7a40e	0.12091838
165	0x3cce5a1d	0.025189454
166	0xbdfbd3ea	-0.12296279
167	0xbbbf44ef	-0.005837075
168	0xbdf64d8b	-0.12026509
169	0x3cade27d	0.021226162
170	0x3d3b9459	0.045795772
171	0x3d04f3c7	0.032459047
172	0x3d435aef	0.047694143
173	0x3df7f2ee	0.12106882
174	0x3c835ba4	0.016034909
175	0x3c00960e	0.007848276
176	0xbcd758e5	-0.026287505
177	0x3d942826	0.0723422
178	0xbdfc54fb	-0.12320896
179	0xbe070fbe	-0.13189599
180	0xbdacc425	-0.08435849
181	0xbded2999	-0.115802
182	0x3d97ba10	0.074085355
183	0xbc67fcba	-0.014159376
184	0xbd3d3724	-0.046195164
185	0xbdc2bc0a	-0.09508522
186	0x3d777359	0.06041274
187	0x3d860148	0.06543213
188	0xbd14c21c	-0.03631793
189	0x3e066df7	0.13127886
190	0x3c8d97fa	0.017284382
191	0xbc9a8fe3	-0.018867439

gru.bias_hh_l0_reverse f4 [192]
0	0xbd7be385	-0.061496276
1	0xbb5ee59d	-0.0034011372
2	0xbd5800bf	-0.052735087
3	0xbcd4c70c	-0.02597382
4	0xbcdbe42b	-0.026842197
5	0x3e019c2a	0.12657228
6	0x3da31297	0.0796253
7	0xbd54487e	-0.051826946
8	0x3d9d2e26	0.07674818
9	0x3e13d4af	0.14436601
10	0xbc78f7d8	-0.015195809
11	0x3d1b712d	0.03794973
12	0x3d949cce	0.072564706
13	0x3cbff155	0.023430506
14	0x3e1eb15c	0.15497345
15	0x3dcf7cd9	0.10131235
16	0x3e166db7	0.1469029
17	0xbd4cc4e9	-0.049992476
18	0x3e1908bb	0.14944737
19	0x3dfcc35d	0.1234195
20	0x3df6f182	0.12057783
21	0x3e0c0466	0.13673553
22	0x3c4c60ec	0.01247428
23	0x3dd2f4d2	0.10300602
24	0x3e34cf2d	0.17657156
25	0x3e4f3b64	0.202375
26	0x3dbec4e9	0.093149014
27	0x3d849e7a	0.064755395
28	0x3de895c0	0.113566875
29	0x3df268ef	0.11836421
30	0x3d2822b7	0.04104873
31	0x3e1e626b	0.15467231
32	0xbd546bec	-0.051860735
33	0x3dcae248	0.09906441
34	0x3e217a84	0.15769392
35	0x3d8d529a	0.069005206
36	0xbd1ae0a5	-0.037811894
37	0x3d39600c	0.045257613
38	0xba75bd73	-0.00093742384
39	0x3e1a1c12	0.1504977
40	0xbd8fb82e	-0.07017551
41	0xbc3db7fe	-0.011579512
42	0x3e062c32	0.13102797
43	0xbd440489	-0.047855888
44	0x3c031520	0.008000642
45	0xba2d48e9	-0.0006610291
46	0x3ce42428	0.027849272
47	0xbc670302	-0.014099838
48	0x3dff3c1e	0.12462638
49	0x3dd6ed33	0.10494461
50	0x3e193adf	0.14963864
51	0x3e0b219d	0.13587041
52	0x3d383326	0.044970654
53	0xbdbb6a65	-0.091511525
54	0x3d947458	0.07248753
55	0xbd571e35	-0.052519042
56	0x3d07c16c	0.033143446
57	0x3db3bfcf	0.08776819
58	0x3dab7912	0.08372702
59	0xbc7c2e3e	-0.015391884
60	0x3e260c3b	0.16215603
61	0x3df9e26b	0.12201389
62	0x3e01a4f7	0.12660585
63	0x3cea12bf	0.028573392
64	0x3e0b6a97	0.1361488
65	0x3d94a812	0.07258619
66	0x3e10053d	0.14064498
67	0xbca9e869	-0.020740705
68	0x3e0b65a9	0.13612999
69	0x3d877853	0.06614747
70	0x3d227cca	0.03966979
71	0xbd0dd652	-0.03462822
72	0x3c1ddc5a	0.009635055
73	0x3d640420	0.055667996
74	0xbd175844	-0.03694941
75	0x3e8185d0	0.25297403
76	0x3da6f845	0.081528224
77	0x3e121bae	0.14268371
78	0x3e37f2c6	0.17963704
79	0x3c9939c3	0.0187043
80	0x3e37a0de	0.1793246
81	0x3d90d7dd	0.07072423
82	0xbb9e9ca0	-0.0048404485
83	0x3d702ea2	0.058638223
84	0x3df3f40d	0.11911783
85	0xbbefe38d	-0.0073208273
86	0x3e27c2cd	0.16382904
87	0xbcbc9751	-0.023021372
88	0xbd94492b	-0.07240518
89	0xbd99fbd6	-0.07518737
90	0xbdbab723	-0.09116962
91	0x3d08bbe6	0.03338232
92	0x3d9271ee	0.071506366
93	0x3da55a0b	0.08073815
94	0x39f68241	0.00047017823
95	0x3d0c43af	0.034244236
96	0x3de0a350	0.109686494
97	0xbd692118	-0.056916326
98	0xbaa0a138	-0.0012255078
99	0x3ded003b	0.115723096
100	0x3c9e9be7	0.01936145
101	0x3e32f5f5	0.17476638
102	0x3ded0222	0.115726724
103	0x3e0a38ef	0.13498281
104	0x3e29361f	0.16524552
105	0xbcf24b89	-0.029577034
106	0x3d9005d8	0.070323646
107	0x3e5420d8	0.20715654
108	0x3e105e07	0.14098369
109	0x3e32b9f3	0.17453746
110	0xbdbe2514	-0.09284416
111	0x3c25dd0f	0.010123505
112	0xbc06b298	-0.008221291
113	0xbca907e0	-0.020633638
114	0x3db87b72	0.0900792
115	0x3df86b26	0.12129812
116	0x3e4991e9	0.19684567
117	0x3d6dfb16	0.058100782
118	0x3d174eb8	0.036940306
119	0x3d8f0cd9	0.06984872
120	0x3da64ac1	0.08119727
121	0xbdfa04fc	-0.12207982
122	0xbd593863	-0.05303229
123	0x3dceab46	0.100912616
124	0xbbcc4e8f	-0.006234951
125	0x3d70175e	0.058616035
126	0xbd31425b	-0.043276172
127	0x3d5aca7c	0.05341576
128	0xbd68a630	-0.056799114
129	0xbdd3d664	-0.10343626
130	0x3d82e242	0.063908115
131	0xbbc96d3b	-0.0061470545
132	0x3d922dbf	0.071376316
133	0xbd7d4c25	-0.061840195
134	0x3d758284	0.059938923
135	0x3de7f74f	0.11326467
136	0x3cb5be9e	0.02218562
137	0x3e068ec7	0.13140403
138	0xbcac7a69	-0.021054463
139	0xbd860135	-0.06543199
140	0xbdf6e517	-0.12055414
141	0xbdffce4b	-0.12490519
142	0xbde1ee69	-0.11031801
143	0xbd7ae10c	-0.061249778
144	0xbd661939	-0.056176398
145	0x3d8df8ef	0.06932246
146	0x3dfc43aa	0.123175934
147	0x3c92ca76	0.017918807
148	0x3de16be4	0.11006907
149	0x3d1a3c04	0.03765489
150	0x3cee3dd7	0.029082222
151	0x3df5d30b	0.12003144
152	0x3ca89aa5	0.020581553
153	0x3d6015a0	0.054708123
154	0xbe07c5c0	-0.1325903
155	0xbd862623	-0.06550243
156	0x3d9e0493	0.07715716
157	0xbde27127	-0.11056738
158	0xbdecacee	-0.11556421
159	0x3e043ec4	0.12914568
160	0x3dba3886	0.09092812
161	0xbd6be511	-0.0575915
162	0x3de5af20	0.11215043
163	0x3c3e7064	0.011623476
164	0xbc481d84	-0.012214068
165	0xbe154698	-0.1457771
166	0x3d874912	0.06605734
167	0xbc329dc5	-0.010901873
168	0xbdc35c85	-0.09539131
169	0x3cbc4fa6	0.022987198
170	0xbd6d8a9b	-0.057993513
171	0x39763cde	0.00023483063
172	0xbcc86e0d	-0.024466539
173	0xbcd8a851	-0.026447447
174	0x3da47115	0.08029381
175	0x3dd7b16b	0.10531887
176	0xbde58ca5	-0.112084664
177	0x3d3f2026	0.04666152
178	0x3d4b1c28	0.0495874
179	0xbd59b4ed	-0.05315106
180	0x3dceab47	0.10091262
181	0x3d6e9e99	0.05825672
182	0x3c838aae	0.016057339
183	0x3d43b10e	0.047776274
184	0x3d0637c1	0.032768015
185	0x3d355cfc	0.04427813
186	0xbdc27c74	-0.09496394
187	0x3d477034	0.04869099
188	0x3c3d80da	0.011566365
189	0x3c06bc36	0.008223584
190	0xbd2c06e1	-0.041998748
191	0x3df47935	0.11937181
